src/res/GGCL/guided_contra_cross_transformer/Pavia/10/use unlabel same time ss/_1710727088.pth (torch, 266710 bytes, 37 tensors)

pixel_pos_embedding f4 [1, 170, 32]
000000 57 ab e6 be 93 01 af 3f 0a 12 0f c0 d7 02 9d bf
       -0.45052597 1.3672355 -2.235476 -1.2266492
000010 d5 73 5c bf 9e 81 64 3f 24 b3 2e bf 7d 89 90 3e
       -0.86114246 0.8926028 -0.68242097 0.28229895
000020 55 a1 c5 3e ff d8 80 3f 9d 80 60 3f 31 8a ec 3e
       0.3859965 1.0066222 0.8769625 0.46199182
000030 de a2 69 3f 30 f9 2e 3f a0 bf 6a 3f ee 50 1d bd
       0.9126414 0.6834898 0.91698647 -0.03840726
000040 07 60 93 3f 6c db 89 bf a7 09 23 3f 7e 2a f5 be
       1.151368 -1.0770087 0.63686603 -0.4788398
000050 83 06 97 3f 24 db f0 bf 0f 3d 09 c0 8b 38 16 40
       1.1798862 -1.8816876 -2.1443517 2.347201
000060 fd a7 38 3f e9 05 6a bf 3a 13 48 bf 27 eb d1 be
       0.7213133 -0.9141527 -0.7815434 -0.4099972
000070 b5 43 a0 3f 3e 85 1d 3f 15 66 27 3f 8e 4a f9 3c
       1.2520663 0.61531436 0.6539014 0.030431058
000080 f8 7a bd be dc ad 23 3f 53 93 02 c0 1c d5 84 3e
       -0.3700788 0.63937163 -2.040242 0.2594384
000090 01 7f a3 be f8 b3 49 3f 27 12 0a c0 0c c3 d4 bf
       -0.31932834 0.78790236 -2.157358 -1.6622024
0000a0 20 71 04 40 3d f0 6b bf 18 03 3b bf ba 76 93 3f
       2.0694046 -0.9216345 -0.73051596 1.1520607
0000b0 72 d6 55 3f e5 1f 47 bf e5 43 ae 3f b8 2f 83 be
       0.8353034 -0.7778304 1.361447 -0.25622344
0000c0 8e ba fb be fc 37 b7 3f 72 b6 56 3e 99 cb 07 3f
       -0.49165767 1.431396 0.20968035 0.5304504
0000d0 55 12 e4 3e 34 3a 81 be ab 12 e3 3f fb 8c 28 bf
       0.44545236 -0.25239718 1.7740072 -0.6584012
0000e0 3f 5c 43 3e e6 92 69 3f 06 0e e0 be be ae 70 3f
       0.19078158 0.91239774 -0.437607 0.94016635
0000f0 bc 4f 66 3f 08 82 41 be 56 99 6a be 7f 29 5e 3e
       0.89965415 -0.18897259 -0.22910056 0.21695517
000100 0f 89 39 bf ab ea ac bf 05 16 be 3f 2f 52 34 40
       -0.7247476 -1.3509115 1.485047 2.817516
000110 b3 cc 62 bf 37 95 a3 3f ef a6 e6 bf 2a ea 81 3e
       -0.88593596 1.2779912 -1.8019694 0.25373966
000120 d6 5d 20 bd 79 e6 e2 be 40 d7 70 3e e5 20 87 bf
       -0.03915199 -0.44316462 0.23519611 -1.0556914
000130 32 2f 91 bf e6 cb 08 c0 17 80 85 3f dd 34 57 bd
       -1.1342528 -2.137445 1.0429715 -0.05254065
000140 2b 8c e6 3f 9d ee 81 3f 33 89 42 3a e7 e1 31 3f
       1.8011526 1.0150944 0.0007420957 0.69485325
000150 cb 51 53 3f 37 d7 b1 3f 2e f9 c7 bf 0d 05 e2 3e
       0.8254668 1.3893803 -1.5622919 0.44144478
000160 c8 41 c8 3f 2e 66 08 3f fc d1 16 3f 8f 94 63 bf
       1.5645075 0.53280914 0.5891416 -0.8889856
000170 be 65 f2 3e 49 e4 1c bc 7c f0 e8 3f aa 96 00 40
       0.47343248 -0.009575912 1.819839 2.0091958
000180 d2 05 4a 3d 1e 31 e7 3b 37 5f a2 3e b6 0c 7f 3f
       0.049321957 0.007055416 0.31713268 0.9962877
000190 a7 8d 1b bf 9f 3a 08 be ea db 3c 3f f0 01 85 be
       -0.6076302 -0.13303612 0.7377306 -0.2597804
0001a0 11 37 3e 3f d0 95 c4 3e 58 f1 ad be 6d 2c 8f 3f
       0.74302775 0.38395548 -0.33973193 1.1185433
0001b0 83 9a a6 bf b8 d9 97 be dc 3e 91 3d c2 2a 89 be
       -1.3015903 -0.29658294 0.070920676 -0.26790434
0001c0 c9 3d 4f 3f 91 89 54 3f 12 71 cf be 20 43 4a 3f
       0.8095365 0.8302241 -0.40515953 0.79008675
0001d0 e2 ef e0 bf 4a fb 4a 3f 92 63 41 3f ad 92 8d 3f
       -1.7573206 0.79289687 0.7554256 1.1060387
0001e0 aa 2f 19 3f 0a 8b 10 bf dd 47 07 bf 01 29 eb 3e
       0.59838355 -0.56462157 -0.5284403 0.4592972
0001f0 d3 d7 37 3f fe ae eb bf ee de 64 3e 1a 70 66 3f
       0.71813697 -1.8412778 0.22350666 0.90014803
000200 2c d3 9a 3f 88 a9 8e 3e 50 6c 08 c0 be 19 94 be
       1.2095695 0.27863717 -2.1316109 -0.2892589
000210 8f fc 41 3e 28 b8 f2 bf 48 3f 23 bf 7a a3 4f 3f
       0.18944 -1.896245 -0.63768435 0.8110882
000220 4e 80 21 3e d0 15 cc 3e 4d b2 50 3f ef cd b0 bd
       0.157716 0.39860392 0.81522065 -0.08633029
000230 d9 d0 16 c0 4a df d4 bf 1d 76 a1 be 3b 2c 30 be
       -2.356497 -1.6630642 -0.31535426 -0.17204373
000240 d6 f0 47 3e b4 5b 4b bf ab a1 59 bb e8 83 dd bf
       0.19525465 -0.794368 -0.0033207934 -1.730588
000250 69 d2 5b be 0f d6 71 3f 0c 59 36 be 10 3e 49 3f
       -0.21466984 0.9446725 -0.17807406 0.78610325
000260 2a 42 94 be 14 18 7c 3e 9e 66 de 3e 5f 63 70 3f
       -0.2895673 0.2461856 0.43437666 0.9390163
000270 ec b0 f4 bf 8e 0a 58 bd 14 c8 04 3f be a8 88 bf
       -1.9116492 -0.05274444 0.51867795 -1.0676496
000280 aa 17 eb bf 84 32 10 be 94 98 e0 be bc 69 13 3f
       -1.8366597 -0.1408177 -0.43866408 0.5758321
000290 35 b6 02 40 be 62 7e bf 0e f5 1f c0 ee 5b 5f 3e
       2.042371 -0.9936942 -2.499332 0.21812412
0002a0 ae 8b 5c 3f 51 b2 30 be 16 2b 90 3f 5b 33 78 3e
       0.86150634 -0.17255522 1.1263149 0.2423834
0002b0 a0 63 c0 bf c6 72 1d bf 11 23 e9 3e 6d 04 09 bf
       -1.5030403 -0.61503255 0.45534566 -0.5352238
0002c0 65 71 47 3d ff be 4e bf a3 20 5a 3c 93 7b 26 bf
       0.048692126 -0.80760187 0.013313445 -0.6503231
0002d0 fd 7c f9 3d 4e 26 43 3f 05 d5 7d 3d 5d 99 c9 bf
       0.12182043 0.76230323 0.06197073 -1.5749928
0002e0 83 20 92 3f 29 c9 53 bf a9 f1 37 bf 8e 91 d8 3e
       1.1416172 -0.8272882 -0.7185312 0.4229855
0002f0 2e 8f c0 bf d4 8a 7b bf 30 e1 fa bd 44 af 44 3f
       -1.5043695 -0.9825871 -0.12249982 0.76829934
000300 60 f5 cc 3f 01 ff c5 bd 5e 1c 07 bf db 7a ac bf
       1.6012383 -0.09667779 -0.5277766 -1.3474993
000310 66 f5 a4 be 49 df 0c 3f f1 fe 88 bf d3 13 55 be
       -0.32218474 0.55028206 -1.0702802 -0.20808344
000320 16 ef cd be 4a ff 8a bd 74 e4 3c 40 91 ad 78 bf
       -0.4022147 -0.06786974 2.9514437 -0.9713984
000330 b0 b6 bd 3f 00 33 3c 3f 07 6d a7 3f 12 1b ae be
       1.4821377 0.7351532 1.3080148 -0.34005028
000340 a6 32 34 3e a1 dd 86 3f 0e 1a 94 3e a5 d5 93 bf
       0.17597446 1.0536386 0.28926128 -1.1549574
000350 0d 14 de 3e 35 af 9a 3e 3f de 09 40 28 70 95 3f
       0.43374673 0.30211797 2.1541898 1.1674852
000360 fc d6 34 3f ba c9 f5 bf b6 4e af bf 9b 92 2c 3f
       0.7064054 -1.9202187 -1.3695896 0.674112
000370 33 83 b3 3e bf ba a2 bf 92 a5 fb bf 50 a0 b8 be
       0.35061035 -1.271324 -1.9659903 -0.3605981
000380 f7 88 87 3f 53 8e 0e bf 7d 27 b1 bf bf a6 9f 3e
       1.0588673 -0.5568592 -1.3840176 0.31181905
000390 62 16 ee bf 98 78 ee be 46 b6 91 3e 0e 14 4d bf
       -1.8600581 -0.4657638 0.28459376 -0.80108726
0003a0 4c b8 c7 bf 94 b8 2f bf 41 ae d6 3c e2 93 ab 3e
       -1.5603118 -0.6864102 0.026206138 0.33511263
0003b0 df d3 09 be f0 3e a4 3f 8d ca b5 bf 0d ae 60 be
       -0.13459729 1.2831707 -1.4202439 -0.21941395
0003c0 0d a7 25 3f 17 3f 8b 3f fd 25 dd bd 52 4e d4 3d
       0.64708024 1.0878628 -0.10798261 0.10366501
0003d0 05 1d 71 bd 67 fe 2b 3f 95 5a 87 3e 8a c2 41 3f
       -0.058865566 0.6718506 0.26436296 0.7568747
0003e0 b8 12 1d 3f f2 ea a0 bf cc 55 3d bf 63 48 2e bf
       0.6135669 -1.25717 -0.7395904 -0.68079203
0003f0 59 7d 34 3e ce 51 95 bf 98 66 a2 3f db 84 39 bc
       0.17625941 -1.166559 1.2687559 -0.011323179

cls_token_pixel f4 [1, 1, 32]
000000 fc d7 9e 3f 74 8e a3 bf 01 33 33 bf 6a b8 2a bf
       1.2409663 -1.2777848 -0.699997 -0.66687644
000010 0f b7 bc bf aa 83 80 bf dd 4f 2d 3f 31 4d 13 40
       -1.4743365 -1.0040181 0.67699987 2.3015864
000020 af 44 95 3f 7d b1 16 c0 1d 08 4c be d1 cf 12 3f
       1.1661586 -2.354583 -0.1992497 0.5734835
000030 20 b6 88 bf b3 68 ef 3f 0b 94 56 bf 2e 74 e0 3e
       -1.068058 1.8703827 -0.83819646 0.43838638
000040 de 60 ab be 34 c6 d8 3f 51 da cf 3d 1e 58 15 3e
       -0.3347234 1.6935487 0.101490624 0.14584395
000050 c1 29 2b 3f 97 93 5a 3f 0e 9f 24 3e c0 37 7a 3c
       0.66860586 0.85381454 0.160763 0.015272081
000060 fc 9b 5b 3f fc 27 59 3d 18 fa d1 3f 38 2d c6 3e
       0.8578489 0.053016648 1.6404448 0.38706374
000070 4d b1 0f bf 4b 15 40 bf fe c7 05 bf 2a 14 6a 3f
       -0.56129915 -0.7503249 -0.5225829 0.9143702

pixel_patch_embedding.weight f4 [32, 30]
000000 9f 9e 38 be d0 f9 27 bd fc e3 c4 bd b4 9b 61 3d
       -0.18029259 -0.041009724 -0.09613797 0.05508013
000010 e8 e4 bc 3c 60 75 d6 3c 60 f1 45 bd cc e2 02 be
       0.02305837 0.026179016 -0.048325896 -0.12781829
000020 a0 54 31 3e 74 dd ca 3d 48 5a c3 3d 0f 3e 04 be
       0.17317438 0.0990552 0.09538704 -0.12914298
000030 be 98 27 3e 70 4b e5 3c f8 d7 e7 3d a4 a0 9c 3d
       0.1636686 0.027990073 0.1132049 0.07647827
000040 3e b7 10 3e 40 b0 2e bd 4a b4 ba bd 75 56 a1 bd
       0.14132401 -0.042648554 -0.09116419 -0.078778185
000050 40 02 96 bc 78 81 4b bd 8c 9c f9 3d 32 7f 06 3e
       -0.01831162 -0.049684018 0.12188062 0.13134459
000060 40 f9 e0 bc c6 2b 25 3e 70 43 20 3e 45 59 1a be
       -0.027462602 0.1612998 0.15650725 -0.15073116
000070 27 73 a7 bd c0 c8 46 bd 3a 08 7d bd 04 d4 0b bd
       -0.081762604 -0.048531294 -0.061775424 -0.03413774
000080 1c 9e 93 3d 04 e5 21 3e 20 6d 21 3e ba 9d 07 3e
       0.07207891 0.15810019 0.15764284 0.13243762
000090 70 d9 69 3c 07 23 af bd 9c 59 2c be 8e 6d 03 3e
       0.014273033 -0.08551603 -0.16831058 0.1283476
0000a0 9c 28 b7 bd 00 43 11 ba 12 ea 31 3e f4 2d 36 bd
       -0.089432925 -0.0005541295 0.17374447 -0.044477418
0000b0 40 fe 8a bc 20 ed 05 bc 60 a1 06 3c 68 ef ae bd
       -0.016966939 -0.008174211 0.008217186 -0.08541757
0000c0 34 fa 0a 3d 88 77 52 bd 20 a0 8d 3d 0c 7a a6 3d
       0.03393002 -0.051383525 0.06915307 0.08128747
0000d0 d9 69 1d be dc 2b 1a be 63 97 a9 bd a0 4e 94 3c
       -0.15372409 -0.15055794 -0.08280828 0.018103898
0000e0 14 6e 34 bd df 66 c9 bd f4 be 17 3d 78 d1 d2 bc
       -0.04405029 -0.09834074 0.03704734 -0.025734648
0000f0 67 42 11 be 36 43 e2 bd 00 ec 3e ba 14 b1 1f 3d
       -0.14185487 -0.11047976 -0.00072830915 0.038987234
000100 c8 4d 18 3e 8c a6 32 be 54 96 64 bd 04 67 27 be
       0.14873421 -0.17446345 -0.055807427 -0.16347891
000110 0a ac d3 bd 38 4d c7 3c 14 3a e5 3d 10 41 18 be
       -0.10335548 0.024328813 0.11192718 -0.1486857
000120 82 19 f5 bd 8b cb 36 be a0 a4 cc 3b 2c 35 62 bd
       -0.11967756 -0.17851083 0.0062452108 -0.05522649
000130 1f 46 34 be e8 3e 28 3e 62 6e 13 3e 0c 2e 5e bd
       -0.17604874 0.16430247 0.14397576 -0.054243132
000140 f8 78 0f be 4c 21 dc 3d 4c 44 48 3d 30 31 93 bd
       -0.1401099 0.107485384 0.048893258 -0.07187116
000150 4b 8d c0 bd 4a 8e 20 3e 56 0d 21 3e d4 06 f2 3d
       -0.094019495 0.15679279 0.15727744 0.118177086
000160 66 67 14 3e 80 37 7a bc 00 f9 54 3a 0e 1c 1a be
       0.14492568 -0.015272021 0.0008124262 -0.15049765
000170 90 a4 b8 3d ba a9 28 be 08 95 8c 3c 00 61 89 ba
       0.09015763 -0.16470996 0.017160907 -0.0010481179
000180 04 ca 47 3d 3a e6 09 3e 3c 9c bc 3d c4 ea 16 3e
       0.04877664 0.1346673 0.09209487 0.14737993
000190 b1 e2 91 bd 0a 3e 34 3e 50 93 0f 3e d4 57 ce 3d
       -0.07123316 0.17601791 0.14021039 0.10075346
0001a0 40 33 9b 3b 84 91 ba 3d c8 e0 a0 3d 9c cd d1 3d
       0.004736334 0.09109786 0.078553736 0.10244295
0001b0 80 29 44 bc f6 6a 1a be b3 b7 24 be 3a 22 13 3e
       -0.011972785 -0.15079865 -0.160857 0.14368525
0001c0 e1 15 02 be c4 8d c6 3d 3a 99 08 be 1e fa 1d be
       -0.12703659 0.096950084 -0.13339701 -0.15427443
0001d0 40 df 87 3c 7c 7e c9 3d 27 46 d6 bd f4 3d 14 3e
       0.016585946 0.09838578 -0.10462599 0.14476758
0001e0 b4 36 12 bd e8 68 36 3d 56 e1 81 bd 00 94 d9 bc
       -0.0356967 0.04453364 -0.063418075 -0.02655983
0001f0 08 e5 29 be bc 32 4b bd 6e 7c b6 bd 80 c2 cc bb
       -0.16591275 -0.04960893 -0.08910452 -0.006248772
000200 ff 7d ac bd 40 9e 78 bd 26 9a ec bd 5c 4b 95 bd
       -0.08422469 -0.060697794 -0.11552839 -0.07289764
000210 d0 0b 2f 3d 24 d3 8b 3d f7 3a 96 bd 2c 8a 2f be
       0.042735875 0.06827381 -0.073354654 -0.17142552
000220 6f f2 1c be 16 6f 2a 3e f4 80 0a bd f4 48 58 bd
       -0.15326856 0.16643938 -0.033814386 -0.05280395
000230 24 d2 c9 3d f8 7f ab 3c a0 e4 f1 bb 40 81 a4 bb
       0.09854534 0.020935044 -0.0073819906 -0.0050202906
000240 62 12 2e be f8 5c f0 3d e3 84 3a be 72 08 1f be
       -0.169992 0.117364824 -0.18214755 -0.15530565
000250 f0 21 0f 3d a8 96 6a bd f7 b1 e2 bd 62 37 12 be
       0.034944475 -0.057272583 -0.110691 -0.1427894
000260 88 24 84 3c 49 1e f7 bd e4 a9 ac 3d 46 00 15 be
       0.0161307 -0.12066323 0.084308416 -0.14550886
000270 38 6f 42 3d 8d 1f 06 be 7c 0a 74 3d ce 08 06 be
       0.047469348 -0.13097973 0.05958031 -0.13089296
000280 3a 6f 06 be f5 c2 c2 bd 38 e8 13 bd b4 82 f2 3d
       -0.13128367 -0.09509841 -0.036110133 0.11841336
000290 6c cf 6e 3d 4e 40 1b 3e b0 8a 6b bc 5e ac 84 3d
       0.05830328 0.15161249 -0.014376327 0.06478189
0002a0 34 1e b1 3d 36 b6 27 3e 78 63 b3 3d a8 ae ef 3c
       0.08648339 0.16378102 0.087592065 0.029258087
0002b0 f8 9b 45 bd 80 ed 2b bd 80 49 38 be 60 44 da 3c
       -0.048244447 -0.041974545 -0.17996788 0.026643932
0002c0 ea 76 19 be f4 02 4a bd 02 4a 8c bd 90 3e 56 bd
       -0.14986768 -0.049319223 -0.06850053 -0.052305758
0002d0 b7 a8 0d be af 1a 99 bd 40 f4 05 3d a9 99 d0 bd
       -0.13833891 -0.074757926 0.032703638 -0.10185558
0002e0 f6 ed 0f 3e ac 75 0a 3e 8f 61 1b be 40 0f ce 3c
       0.14055619 0.13521451 -0.15173934 0.025153756
0002f0 f6 56 06 be 2c 7f 03 be 88 0d 0f 3e 74 6a d7 3d
       -0.1311911 -0.12841481 0.13970006 0.10518351
000300 79 f4 20 be d8 fa bc 3d 10 e2 48 bc 90 dc 36 be
       -0.15718259 0.09227532 -0.012260929 -0.17857575
000310 9a bf fe bd 20 d8 02 3d 1e 3b 0b be 00 66 82 3b
       -0.12438889 0.031944394 -0.1359677 0.0039794445
000320 4f 17 9e bd 00 60 d6 39 1c 39 43 bd 82 99 37 be
       -0.077192895 0.00040888786 -0.047661886 -0.17929652
000330 2b ed 8e bd 14 32 29 3e e4 75 c9 3d b6 40 1c 3e
       -0.0697883 0.1652301 0.09836939 0.1525906
000340 72 c1 f2 bd 54 1c 6d bd 1c 18 82 bd c4 3d 02 3d
       -0.11853303 -0.057888344 -0.06352255 0.031797186
000350 38 65 7a 3d 48 f2 ff bd 40 08 39 3d c0 fb 7b 3b
       0.061131686 -0.12497383 0.045173883 0.0038449615
000360 70 06 d1 3d bc 2a 8c 3d 60 62 82 3d b8 52 04 be
       0.10206306 0.068440884 0.0636642 -0.1292218
000370 b6 96 2c be 54 29 19 3d a8 8a 8d 3d c4 72 a5 3d
       -0.16854367 0.03739293 0.06911212 0.080785304
000380 40 5c 2b bb d0 1d e4 bc a2 55 83 3d 64 4a a4 3d
       -0.0026147515 -0.027846247 0.064128175 0.080220014
000390 9c f9 5e bd 22 09 c3 bd 2e 0d cd bd c0 73 33 3e
       -0.054437265 -0.09523226 -0.100122795 0.17524624
0003a0 d4 5d 18 be 90 42 31 be 76 3a 6c bd 90 46 9c 3d
       -0.14879543 -0.17310548 -0.05767294 0.07630646
0003b0 a4 a9 c4 3d e8 72 30 bd 30 6a 3e 3c 54 a0 75 bd
       0.09602669 -0.043078333 0.011621997 -0.059967354
0003c0 19 7e e8 bd 62 54 0f be e0 7e 12 bd c0 3d 53 3d
       -0.11352176 -0.13997033 -0.03576553 0.05157256
0003d0 ce 4c c8 bd 65 73 21 be 70 62 0d bd f8 48 ad 3c
       -0.09780274 -0.15766676 -0.034517705 0.021152958
0003e0 a0 42 de 3d f8 f0 7f bd f4 f0 10 3e 84 bf 98 3d
       0.108525515 -0.062485665 0.14154416 0.07458404
0003f0 62 d2 ad bd 80 41 00 bd 89 63 f3 bd 28 01 2a be
       -0.08487393 -0.031312466 -0.11884219 -0.16602004

pixel_patch_embedding.bias f4 [32]
000000 f4 a3 48 bd f9 c8 e3 bd 80 eb cd 3b 20 52 1a 3c
       -0.048984483 -0.11122317 0.0062841773 0.009418994
000010 39 0a 25 be 90 ad fa 3c ca 3c 05 be 30 33 e2 3d
       -0.16117181 0.03060034 -0.1301147 0.110449195
000020 70 d2 f5 3d 20 45 9d bb e8 03 34 3e de a0 73 bd
       0.120030284 -0.0047995 0.17579615 -0.059479587
000030 48 54 0a be aa fc 0e be ac ef 6e bd 34 7b 20 bd
       -0.13508713 -0.13963571 -0.058334038 -0.039179996
000040 18 d8 66 3d 28 1a 0a be c0 91 fa 3d 1f 82 28 be
       0.056358427 -0.1348654 0.12234831 -0.16455887
000050 54 13 2d 3e 86 9c 22 be c6 bf 32 3e 60 3c 29 bc
       0.16901904 -0.15880021 0.17455968 -0.010329336
000060 94 af 01 be ec 5c 09 be 5a 1e f7 bd e0 c8 4c bd
       -0.12664634 -0.13414353 -0.12066336 -0.049996257
000070 8f d3 b0 bd b0 2b 11 bd b0 f7 d5 3d 48 5f 46 3d
       -0.086341016 -0.035442054 0.10447633 0.04843071

local_trans_pixel.layers.0.0.fn.norm.weight f4 [32]
000000 09 e1 8d 3f 78 6e 93 3f dd 2f 8c 3f de 23 89 3f
       1.10843 1.1518087 1.0952107 1.0714071
000010 1e c9 92 3f 1f e2 8c 3f 6d 47 95 3f 38 c6 97 3f
       1.1467626 1.1006507 1.1662422 1.1857367
000020 70 13 99 3f 55 c9 97 3f d4 ff 91 3f 3d 1d 9b 3f
       1.1959057 1.1858317 1.1406198 1.2118298
000030 51 fc 93 3f d9 9d 8c 3f 13 6a 91 3f a0 c3 8a 3f
       1.1561376 1.0985671 1.1360496 1.084095
000040 d9 42 8a 3f d1 9e 90 3f d3 8c 8e 3f ab 5a 97 3f
       1.080165 1.1298467 1.1136726 1.1824545
000050 c7 42 8f 3f c2 b7 8d 3f 08 13 8b 3f 20 f7 8f 3f
       1.1192254 1.1071703 1.0865183 1.1247292
000060 da d6 8f 3f 46 66 96 3f dc 43 8f 3f a5 ea 95 3f
       1.1237442 1.1749961 1.1192584 1.1712233
000070 a4 0e 91 3f 25 7d 90 3f 88 97 93 3f a5 16 92 3f
       1.1332593 1.1288191 1.1530619 1.141316

local_trans_pixel.layers.0.0.fn.norm.bias f4 [32]
000000 2d 2c 42 3d a1 b7 08 3c 1c 33 f8 bd 31 5d a8 bd
       0.04740541 0.008344562 -0.12119123 -0.082209
000010 a9 9a a6 bd 77 1b bf bd af 16 b3 bd 01 81 fd 3d
       -0.08134968 -0.093314104 -0.08744561 0.12378121
000020 02 d7 fa 3d 15 c4 8e bc cd 29 d3 3d 0e 79 c4 3d
       0.12248041 -0.017427484 0.10310707 0.09593402
000030 b8 52 d5 bd e2 ea b6 3d a6 66 37 bd 81 9a 13 3e
       -0.10416168 0.08931519 -0.044775628 0.14414407
000040 da 05 a9 bd d2 64 f3 3d 0b 40 97 3d 3e 26 09 bd
       -0.08253069 0.11884464 0.07385262 -0.033483736
000050 e3 0c de 3c 87 b1 ff bc 1a f8 72 bd 5f d3 23 3e
       0.027105754 -0.031212581 -0.05931864 0.159986
000060 81 5b aa 3c 22 34 94 bd d3 b1 92 3a e5 b3 0b be
       0.020795586 -0.07236506 0.0011191912 -0.13642843
000070 2a 08 a5 3c 0d 1c 36 bd f6 fa 4d be 95 f3 ff 3d
       0.020145494 -0.044460345 -0.20115265 0.124976315

local_trans_pixel.layers.0.0.fn.fn.to_qkv.weight f4 [768, 32]
000000 1b ec 86 3c 97 7b e6 bd 39 98 a2 bd 5b 8f 21 3e
       0.016470006 -0.11254042 -0.079391904 0.15777342
000010 8d a1 5c 3d b9 cb d9 3d 98 ec ba bd db f4 78 be
       0.053865004 0.1063456 -0.09127158 -0.24312155
000020 1f 87 d6 3d ac 8c 5b bd 7d 7b 80 be b2 1f 3c 3e
       0.10474991 -0.053600952 -0.25094214 0.18371466
000030 19 fe bd 3e 5d 4b 00 be 57 3f cb bd f7 b0 36 be
       0.37107924 -0.12528749 -0.099241905 -0.17840944
000040 86 1a e7 bd c0 ff b7 3c 84 b2 01 be 37 04 1f 3e
       -0.11284356 0.022460818 -0.12665755 0.15528952
000050 2b 31 93 3d 7d 88 af bd bd 23 94 bb d4 eb 12 be
       0.071871124 -0.08570955 -0.004520862 -0.14347774
000060 98 63 a1 3d 6c 9a 3c be 39 c4 cb bd 4c 09 f5 3d
       0.07880324 -0.18418282 -0.09949536 0.11964664
000070 30 84 fd 3d 7b 9f f6 bd 72 0a 58 3e 92 c1 32 be
       0.123787284 -0.12042137 0.21097735 -0.17456654
000080 cf a3 66 3e ba 07 d4 3d c2 3a b8 3c cf 2e 4b 3c
       0.22523426 0.10353036 0.022488955 0.012401297
000090 9a 19 b9 bd 60 41 94 3e 4a f3 71 3e 51 ad 57 3d
       -0.09038086 0.28956127 0.23627964 0.05265552
0000a0 f4 3f 3a bd d1 ae 95 3d d6 2a fb b9 05 e8 50 3e
       -0.045471147 0.07308734 -0.00047906366 0.20401008
0000b0 83 ba d9 bd ad ec 73 3e 87 67 83 3d 54 8f 19 3e
       -0.106312774 0.23820753 0.06416231 0.14996082
0000c0 32 44 58 bd e4 5d d2 3d 4e 74 51 bd 01 0e ae 3c
       -0.05279941 0.102718145 -0.051136307 0.021246912
0000d0 6d 60 c3 bd d4 33 8f 3c 01 2f 92 bc ab ab 2f bd
       -0.09539876 0.017480768 -0.017844679 -0.042888325
0000e0 69 11 1b 3e 8a 0e 59 3d 8d 8d eb 3b 64 9c a5 3d
       0.1514336 0.05299238 0.007188505 0.0808647
0000f0 40 35 2f 3e 5c e8 58 be 6d 36 25 3c 2a b2 26 3e
       0.17110157 -0.21182388 0.010083777 0.16278902
000100 f2 f4 20 3e 76 24 1f be 17 e7 05 bd a4 83 08 3e
       0.15718439 -0.15541252 -0.032691088 0.13331467
000110 9f 50 18 be a9 63 36 3e ee 78 2f be 1a d6 07 3e
       -0.14874505 0.17811455 -0.17135975 0.13265267
000120 9a eb c7 3d e0 1b b4 3d 2f 79 4a 3e f9 a4 90 bd
       0.09761734 0.08794379 0.1977279 -0.07062716
000130 e8 3e 83 be c7 10 3c be 80 b6 91 3d 1d 09 09 3d
       -0.2563393 -0.18365775 0.07114887 0.033455957
000140 d2 6f 9e bd 96 87 ef 3d 26 a9 84 3d c6 c0 18 be
       -0.07736172 0.11695783 0.06477575 -0.14917287
000150 22 19 e6 3d d5 30 0b 3e dd 27 a6 bd 33 64 f7 3d
       0.112352625 0.13592847 -0.08113072 0.12079658
000160 a5 6f e2 3d aa 41 c4 3d a1 c5 b9 bd 3e 6f 95 be
       0.11056451 0.09582837 -0.09070898 -0.29186434
000170 c1 2a 87 3a 53 5f fe 3d 09 b5 59 3d 26 3e 4c 3e
       0.0010312424 0.124205254 0.053151164 0.19945583
000180 3b 03 fe 3d 63 40 a7 3b 7b 79 c1 bd ba 34 27 be
       0.1240296 0.005104111 -0.09446999 -0.16328707
000190 e1 46 07 be 20 4a f5 3d 74 4b 2e ba f8 a3 48 3e
       -0.13210632 0.11977029 -0.00066488166 0.19593799
0001a0 00 51 35 3e 76 15 94 bd 31 d6 97 3c 01 75 f0 bd
       0.1770668 -0.07230656 0.018534752 -0.11741067
0001b0 7f bd af 3b d6 d1 6c bd 7a 96 54 3e f9 9a 3e 3e
       0.005363166 -0.057817303 0.20760527 0.18613805
0001c0 f7 aa 33 be 47 b8 3a 3e df 82 80 bd 69 71 fc bd
       -0.17545687 0.18234359 -0.06274962 -0.12326319
0001d0 65 f7 db 3c 2e eb 3a be c1 81 36 be a5 7c 0e be
       0.026851365 -0.18253776 -0.17822935 -0.13914736
0001e0 3f 68 72 bc 92 29 f4 3d e5 65 38 be d6 3e 7e bc
       -0.014795362 0.119219914 -0.1800762 -0.015517911
0001f0 f5 6a c0 3c f8 3f f5 bd 38 3d 3f bd 56 02 3a bd
       0.023488501 -0.11975092 -0.046689242 -0.045412384
000200 92 d4 39 be f7 d9 04 be a6 54 3e bd 8a 48 4a 3e
       -0.18147495 -0.12973772 -0.046467446 0.19754234
000210 bb 71 47 3e 49 ed 1e 3d 5a 44 20 3e f7 6c 28 be
       0.19476978 0.03880051 0.15651074 -0.16447817
000220 7b ad ae bd 1a 72 9b 3d b6 4a 0a bd 85 5c 34 bd
       -0.085291825 0.075901225 -0.033762656 -0.044033546
000230 b1 eb bf 3e 11 7f 9f bd ef 1a b0 be 2d d8 21 be
       0.37484506 -0.07787908 -0.3439555 -0.15805121
000240 07 ce 85 3e 3b c2 99 bd a3 fd 3e be 3f dc 90 bd
       0.2613375 -0.0750775 -0.18651442 -0.070732586
000250 db 69 7d 3d 80 c9 90 bd 0b 3a 75 bd c1 c8 29 3e
       0.06186853 -0.07069683 -0.059869807 0.16580488
000260 5b 8c a7 3d f1 19 e6 3d c4 65 1a 3e 38 8e 8d 3e
       0.081810676 0.11235417 0.15077883 0.27647567
000270 24 bb 0a bd 5a 2c 4d bc 44 7b 86 3e f2 46 28 be
       -0.033869877 -0.012522781 0.2626592 -0.16433313
000280 1a 7a 04 be b7 e1 3b bd cb 80 3c bd 68 1b 34 bd
       -0.12937203 -0.045869555 -0.046021264 -0.04397145
000290 50 7d d2 3d a0 4b d0 3d 42 d6 34 be 56 70 5e be
       0.10277808 0.10170674 -0.17659858 -0.2172254
0002a0 1c 50 06 be 0e 26 a9 ba 50 11 7f be ee 8b 36 bc
       -0.13116497 -0.0012905018 -0.24908948 -0.01114176
0002b0 f3 c7 dc 3d eb 17 74 3b 4b 46 1f be a3 69 30 be
       0.10780325 0.0037245702 -0.15554158 -0.17227797
0002c0 79 84 7d 3d ee 48 9f 3d 28 54 85 be 1e 21 b8 bc
       0.061893914 0.07777582 -0.2604077 -0.022476729
0002d0 30 83 f3 3d c9 f5 d8 3c 03 e2 17 bd 96 3e 02 39
       0.118902564 0.026484387 -0.037080776 0.00012421081
0002e0 31 6c 86 3d 3c 85 08 3c 0f 0e 0f 3e df 88 b0 3e
       0.065636046 0.008332547 0.13970207 0.34479424
0002f0 9f ca 15 3c 4d 7a 4b 3d 22 37 93 3e c8 b4 84 bd
       0.009142547 0.049677182 0.28753 -0.06479794
000300 3c 70 5d bd e3 45 1c 3d 79 d2 2a 3e df 25 0d 3e
       -0.054062113 0.038152587 0.16681851 0.13783978
000310 42 95 10 bb 44 1a 81 bd e1 62 23 bc c6 5a ee 3d
       -0.002206162 -0.06303838 -0.009972305 0.116384074
000320 0b cb 21 be 0f 0b 42 bd ec 33 d8 bd e5 ac c3 bd
       -0.15800111 -0.047373828 -0.10556778 -0.095544614
000330 ab e0 78 3e ee 7b a2 3d 7d 7f ba 3e 32 da 0e bd
       0.24304454 0.07933794 0.3642539 -0.034876056
000340 fe 62 df bd 7d da cb bc 39 aa 67 bc c7 1f cc 3b
       -0.10907553 -0.024884457 -0.014139705 0.006229374
000350 86 78 21 3e 83 3c f6 bd 78 27 2f 3e 72 11 ff 3d
       0.15768632 -0.120232604 0.171049 0.12454499
000360 62 88 43 be d5 7a 2f 3e 4c 74 d7 bd e1 9d 91 3e
       -0.19094995 0.171367 -0.10520229 0.28440765
000370 40 68 1f 3e 59 00 7b 3d e4 eb 7b 3e b4 2a be 3c
       0.15567112 0.06127963 0.24601704 0.023213722
000380 63 1b 1e bc 53 a3 14 be 52 d4 f5 3d 21 53 4f bd
       -0.009650084 -0.14515428 0.120033875 -0.050616387
000390 40 61 a9 3d a1 72 55 3e 52 45 4b 3e 04 fb 8f bd
       0.08270502 0.20844509 0.19850662 -0.07030299
0003a0 a9 10 13 be 08 a2 2e 3d b4 4a 8f 3c 08 21 81 3d
       -0.14361824 0.042634994 0.017491676 0.06305128
0003b0 e8 ba 76 3e 63 21 47 be eb 1b 9c bd 07 3f 89 be
       0.24094737 -0.1944633 -0.076225124 -0.268059
0003c0 ac e3 27 3c fa 99 42 3d d6 1f 22 3e 8b ee 9f bd
       0.010247152 0.047510125 0.15832457 -0.0780917
0003d0 4f 7a 1c be 26 5e c1 bc f6 0e ee bc 3d 78 5f bb
       -0.15281032 -0.023604464 -0.029059868 -0.0034098767
0003e0 e7 00 e3 bd 88 ca ce bd 8b 8d 40 3d 9a af a5 3e
       -0.110841565 -0.100972235 0.047009986 0.32360536
0003f0 ef 2b eb 3c fc 83 e3 bd d0 8d a8 bc 38 ff 2e be
       0.028707473 -0.111091584 -0.020575434 -0.17089546

local_trans_pixel.layers.0.0.fn.fn.to_out.0.weight f4 [32, 256]
000000 1a 23 83 bd 18 32 14 bd 9d a3 97 bd 8c ce 84 bc
       -0.064031795 -0.036180586 -0.07404254 -0.01621177
000010 86 b7 56 bd 06 23 f6 3c 74 31 1c bd fb 74 e8 3c
       -0.052421115 0.030045997 -0.0381331 0.028376093
000020 78 14 a9 bd 31 1d 3d 3c df fb 5e 3d 5a 5e 80 bb
       -0.08255857 0.011542604 0.05443942 -0.0039174976
000030 b8 c4 8d 3d 39 d1 c5 bc 93 8b 4f 3d 0f ce 76 3d
       0.06922287 -0.024147617 0.050670218 0.060255107
000040 60 a3 22 3d 86 dc ba bc 37 8d 2b 3d a7 30 1e 3d
       0.039706588 -0.022810232 0.04188272 0.038620617
000050 d4 95 db 3c 7f 22 d9 3c 47 09 c2 3c 6f ed dc bc
       0.026804842 0.026505707 0.023686064 -0.026968686
000060 02 20 1d 3d e8 69 74 3d ab 82 79 3d 73 93 82 3c
       0.038360603 0.059671313 0.06091563 0.01593945
000070 26 a1 dd 3c e4 cd b3 3d d5 a0 5b bd 61 14 90 bd
       0.02705438 0.08779505 -0.05362018 -0.07035137
000080 a5 1d ab 3d c0 e8 c6 3b 9f c3 8c bd d3 a9 6b 3d
       0.083552636 0.0060702264 -0.06873249 0.057535004
000090 0b 9c cf bc dd b2 12 bd c1 d1 2d bd 74 7e 83 bd
       -0.025342962 -0.03581511 -0.042436365 -0.064206034
0000a0 d9 3d 6b 3c 6e 60 c1 bc a4 f4 9b 3d ca 3e dc bd
       0.014358007 -0.023605552 0.07615021 -0.107541636
0000b0 7f 64 9e bc 0f 00 17 3d c9 1b e4 bd 8b d3 8a 3b
       -0.01933503 0.03686529 -0.11138112 0.0042366437
0000c0 a8 c2 93 3c 51 8a 12 bd f5 66 9c bd c9 76 8b 3d
       0.018037155 -0.03577644 -0.07636825 0.06809766
0000d0 1b 4f 04 bd 63 80 34 bd a0 05 26 bd 0c 94 39 3d
       -0.032302003 -0.04406775 -0.04053271 0.045307204
0000e0 c4 c7 6c bd eb 19 d2 bc 35 77 c8 3d 1d 9a 78 bc
       -0.0578077 -0.025647124 0.09788362 -0.015173462
0000f0 14 cb 33 3d f9 2f 63 3d 01 0f 08 3d 1e e9 b4 3d
       0.043894842 0.055465672 0.033217434 0.08833526
000100 57 5c 4c 3d 13 b9 32 bc d3 5f a8 bd 1c 1d 87 bd
       0.04989275 -0.010908383 -0.08221402 -0.06597349
000110 cd 01 01 be 5d ea 2a bb d8 76 22 3d 2f b1 d9 3c
       -0.12598343 -0.0026079633 0.03966412 0.026573746
000120 99 f3 f6 bd c1 61 91 bb 1b 89 f6 bb 11 67 66 bb
       -0.12058181 -0.004436702 -0.0075236685 -0.0035156647
000130 10 c7 ad bd 18 59 7c bd 5d 92 30 bd 86 a8 6f bc
       -0.08485234 -0.061608404 -0.043108333 -0.014627581
000140 a8 5b 9c 3d 49 cc 81 3d 12 56 9d 3b d5 b2 66 bd
       0.076346695 0.063377924 0.00480152 -0.05632289
000150 2a 48 43 3c f4 9d 85 bc d3 1d ac bd 55 59 43 bd
       0.011919061 -0.01631067 -0.08404126 -0.047692616
000160 2a d4 bc 3c 59 56 e5 bd 4a cc de 3c a5 d2 cb bd
       0.023050386 -0.1119811 0.027197022 -0.09952287
000170 16 cf fe 3d 6b 1b b5 bd 73 2c 18 bc 5c c8 a1 3d
       0.12441842 -0.0884312 -0.009287941 0.07899544
000180 51 35 22 3d 20 fb e4 bc 96 46 9b bd cf 91 71 bd
       0.039601628 -0.027951777 -0.075818226 -0.058976945
000190 ed 43 4b bd 90 47 85 bd 9b 34 bd 3d fc 3e ab 3d
       -0.049625326 -0.0650779 0.09238549 0.08361623
0001a0 94 a6 ee bc 4b aa a0 bc 03 10 3f 3d 39 23 51 bc
       -0.029132165 -0.019612452 0.04664613 -0.012764745
0001b0 4b 6a a0 bc 3d b6 8f bc 74 a3 c5 3c 33 2a 88 3c
       -0.019581934 -0.017542953 0.024125792 0.016621685
0001c0 70 55 89 3d 49 e5 4e bc 27 3a ef 3c fa f1 0e 3d
       0.06705749 -0.012627908 0.029202534 0.034898736
0001d0 89 03 ca bc 9c 29 84 bc 78 48 88 bc db be 80 3b
       -0.024659889 -0.016133122 -0.016636118 0.0039290017
0001e0 3e 34 d6 bd c6 ac ab 3a 08 95 8d bc 57 07 54 bd
       -0.10459183 0.0013097755 -0.017282978 -0.051764812
0001f0 b0 1d 38 ba a9 d0 e2 bc fd 9d a6 3d b2 31 71 bd
       -0.0007023467 -0.027687388 0.081356026 -0.058885284
000200 78 c6 8f bd 92 06 95 3d 15 78 fc ba 04 a8 84 3d
       -0.07020277 0.07276644 -0.0019261861 0.06477359
000210 43 69 ec bc 04 f9 5f 3d eb d3 17 3d e8 46 d9 3b
       -0.028858786 0.05468084 0.037067335 0.006630767
000220 71 1c 59 3b ef f6 4b bd d9 f4 37 bd dc 89 e2 bd
       0.0033128525 -0.04979604 -0.04491124 -0.11061451
000230 5c 8a 50 3d 46 60 7d bd 49 0b af 3d 37 1e 9f bc
       0.0509132 -0.06185939 0.08547074 -0.019423587
000240 80 b6 01 3b 80 dd d6 3c 8e 63 51 3d d5 6d 8e 3d
       0.0019792616 0.026228666 0.051120333 0.069545425
000250 e6 e5 9c 39 2c 5d 85 3c 61 80 1b bd ef c9 9b bc
       0.00029925926 0.01627978 -0.03796423 -0.019017188
000260 f0 76 ab bd da 68 da 3b d4 25 00 3d 22 8b 8b 3b
       -0.08372295 0.0066653313 0.031286076 0.0042585293
000270 6e 73 55 bd d0 90 1e 3d 58 12 a0 bd 73 ab 65 ba
       -0.052112035 0.038712323 -0.07815999 -0.00087612047
000280 ca 7e 5e bd 45 d0 5c bc c4 d0 16 bd 86 20 8c bd
       -0.054320134 -0.01347739 -0.03682019 -0.06842141
000290 ed fa ad bd 66 be 82 3d 47 42 74 bd 31 a8 5f bd
       -0.08495126 0.06383972 -0.05963352 -0.05460376
0002a0 a7 2b d6 3d 53 d1 2f bd 46 3b 86 3d d0 b3 86 bd
       0.10457545 -0.042924237 0.06554274 -0.06577265
0002b0 04 19 9f 3d 20 7b 6a 3d 87 13 b4 3d 70 bf a7 bd
       0.07768443 0.057246327 0.08792787 -0.08190811
0002c0 3e f3 93 3d 09 24 ea 3c 4f 99 58 bc 25 99 2c 3d
       0.07224129 0.028581636 -0.013220145 0.042138238
0002d0 99 1f e6 bc 30 5e 4d 3c cc c6 49 3c d0 54 7d 3d
       -0.028091239 0.012534663 0.012315463 0.06184846
0002e0 0b 3c 24 bd 17 a9 88 bc b0 5a 8b bd 21 dc 6e bd
       -0.040096324 -0.01668219 -0.06804407 -0.0583154
0002f0 a0 1c 1b 3d c0 98 bc bd 9f 33 08 3e 26 68 69 bd
       0.037869096 -0.09208822 0.13300942 -0.05698409
000300 d3 9a 9c 3c ac f1 cd bd 05 a8 cd 3b be 30 9d bd
       0.019116795 -0.10055861 0.006276133 -0.076753125
000310 49 56 c6 bc 1d 04 bb 3c 72 81 7d bd 0c 25 70 bd
       -0.024211066 0.02282911 -0.061891027 -0.05862908
000320 19 3c 94 bc fa bf ff 3c 9f f4 5e bd bc 55 a5 bd
       -0.018095063 0.031219471 -0.054432508 -0.08072993
000330 0b 48 8c 3d cb fb c7 3c 2c f5 29 3d b6 6f db bc
       0.068496786 0.024412056 0.04149358 -0.026786666
000340 84 53 85 3d f1 5d a8 3d 15 88 aa 3d 08 1d ac 3d
       0.0651007 0.08221043 0.08326737 0.08403975
000350 6f 42 f8 3c 4f f7 3c 3d 6e 92 3c 3d 7b 1c 9a bc
       0.030305116 0.04613429 0.046038084 -0.018812409
000360 18 b7 a1 bd f0 87 d9 bc 04 50 a0 3d 78 c3 e3 bd
       -0.078962505 -0.026554078 0.07827762 -0.11121267
000370 b0 b6 ad bd 66 f5 e2 3c 8b d7 ab bd 7b 50 85 bd
       -0.084821105 0.027704906 -0.08390721 -0.06509491
000380 d3 2e 90 3d e4 41 1c 3c c5 d8 74 bb 30 e5 d9 3d
       0.07040181 0.009537194 -0.003736065 0.10639417
000390 be d7 10 bd 29 49 66 bc be 6e d8 39 6c 9d c9 3d
       -0.035361998 -0.014055529 0.0004128124 0.09844479
0003a0 a2 8e fe b9 c3 5f e7 3d 70 1e 83 bc 31 23 6b bd
       -0.00048552925 0.11297562 -0.016005725 -0.057406608
0003b0 d4 b0 85 bd 6d 78 6a 3d b3 fa dc bd ff 19 88 3d
       -0.06527868 0.057243753 -0.107900046 0.06645583
0003c0 b4 eb bd 3d 51 cc 63 bc 37 9c 71 bd 84 f1 b5 bd
       0.092734724 -0.013903693 -0.05898687 -0.08883956
0003d0 fd ff 94 3d 8b f2 84 bd a8 00 29 be 7d 13 c0 bd
       0.072753884 -0.06491574 -0.16504157 -0.09378717
0003e0 e7 99 d3 bd 1e 79 9a bd 98 3e c0 bc 9c fb 8e 3d
       -0.10332089 -0.075426325 -0.023467347 0.069815844
0003f0 27 81 e5 3c a8 9f ef 3c 8b 2e 13 bb 47 ce 01 3d
       0.028015686 0.029250935 -0.0022458162 0.031690862

local_trans_pixel.layers.0.0.fn.fn.to_out.0.bias f4 [32]
000000 9f 2c 63 bc 4a 3a fd bd 7d 13 45 3d ac 41 5e bb
       -0.013865619 -0.123646334 0.04811429 -0.0033913655
000010 b7 e6 8e 3d cf 25 2f bd fe a0 f7 3c 30 95 7d 3c
       0.06977599 -0.042760666 0.030228134 0.015477464
000020 45 80 2e bb ed f9 fa 3c c0 11 3e bc 5c 46 84 bc
       -0.0026626748 0.030636752 -0.011600912 -0.016146831
000030 2a 5c 86 3c c9 7e 0d 3d ac a6 ab 3c 76 74 36 3c
       0.01640137 0.03454474 0.020953499 0.011136165
000040 8f 5b 17 bd da 9a 4c 3d 54 cb a3 3d f3 76 10 be
       -0.03695255 0.049952365 0.07997766 -0.14107876
000050 ce 30 8a 3d f8 5e ef 3c 2a d7 a5 bd fb 10 56 ba
       0.0674759 0.02922009 -0.0809768 -0.00081659824
000060 2f a0 b9 3d 30 4a 3d 3b c7 f8 09 3d 68 68 07 be
       0.09063756 0.002888333 0.03368452 -0.13223422
000070 65 9e c1 bd bf 87 86 3d 6c f0 5b 3d 49 2d 09 3c
       -0.094540395 0.0656886 0.05369608 0.008372613

local_trans_pixel.layers.0.1.fn.norm.weight f4 [32]
000000 e9 1f 8b 3f d0 ad 87 3f c0 95 8b 3f 86 b1 79 3f
       1.0869113 1.0599918 1.0905075 0.97536504
000010 85 02 81 3f c9 23 84 3f b4 21 87 3f ae 5a 83 3f
       1.0078894 1.0323421 1.055716 1.0262048
000020 f6 06 7e 3f 4e 97 8c 3f e1 ca 83 3f 3e ed 8e 3f
       0.9922937 1.0983675 1.0296289 1.116615
000030 6c 4c 75 3f 5f a5 7e 3f 1a 62 85 3f 25 e7 78 3f
       0.95819736 0.99471086 1.0420563 0.972277
000040 23 14 84 3f 78 4a 89 3f 04 ab 76 3f 1e fb 84 3f
       1.0318645 1.0725851 0.963547 1.0389135
000050 2d fb 81 3f e3 58 86 3f 5e 3f 89 3f 58 a1 80 3f
       1.0154778 1.0495876 1.0722463 1.0049238
000060 ac b2 86 3f b9 dd 82 3f d0 66 80 3f 63 27 8e 3f
       1.0523276 1.0223914 1.0031376 1.110577
000070 55 d7 86 3f 44 7a 87 3f 32 9d 82 3f a0 bb 86 3f
       1.0534464 1.0584188 1.0204222 1.0526009

local_trans_pixel.layers.0.1.fn.norm.bias f4 [32]
000000 d2 ff 4b 3d 28 a0 f1 bc ce 15 19 3d e7 16 32 bd
       0.049804516 -0.029495314 0.03737431 -0.043478873
000010 2d 3d 33 bc 0a 86 17 3a 44 c0 c2 bc 16 3b 4a 3d
       -0.010939878 0.0005780166 -0.02377332 0.049372755
000020 00 a2 19 3d 71 df 8b 3c 43 d1 0a bd 51 76 c9 3c
       0.03750801 0.017074319 -0.033890974 0.02459255
000030 69 c4 3a bd d2 76 96 bc 56 a8 c8 3d ff 31 6f 3d
       -0.045597468 -0.018367205 0.097977325 0.05839729
000040 aa b3 4b bd 61 53 d8 bc 92 f8 e2 3c 26 b3 98 bd
       -0.049731888 -0.026406946 0.027706418 -0.07456045
000050 34 e7 8d 3c c5 4e b4 3c 93 7d 05 bd a7 90 45 ba
       0.01732216 0.022010216 -0.03259046 -0.00075365085
000060 a4 78 8c 3d 35 dc d5 3a 88 e4 c3 3c 83 93 b4 bd
       0.06858948 0.0016316237 0.023912683 -0.08817198
000070 9d 38 da bc b1 44 f1 bc 8b 82 8b bd df 19 91 3c
       -0.026638323 -0.0294517 -0.068120085 0.017712532

local_trans_pixel.layers.0.1.fn.fn.net.0.weight f4 [8, 32]
000000 99 a5 1f 3e 5e 32 be 3d 0e e2 b2 bd a8 e9 8f 3d
       0.15590514 0.092869505 -0.08734523 0.07026988
000010 8f 8f a1 3a de 2c 5e be b4 07 0f bd 76 75 4d 3e
       0.0012326109 -0.21696803 -0.034919456 0.20064339
000020 7c 9a d6 3d 3e 10 e8 3c 8e 55 30 3e ec 85 97 bd
       0.10478684 0.028328057 0.17220137 -0.073985904
000030 c7 b7 f5 3d 7b e3 61 3b 21 e6 94 3d 92 97 e2 bd
       0.11997943 0.0034467864 0.07270456 -0.11064066
000040 64 cc 48 be 78 86 59 3e 49 ff c5 bd 42 67 c4 bd
       -0.19609219 0.21242702 -0.096678324 -0.09590007
000050 df 07 76 3d 1a 7c 13 be e5 a4 bb 3d 58 b5 e0 bd
       0.0600661 -0.1440281 0.091623105 -0.109720886
000060 d4 fb 91 3d e2 07 f9 3d 73 d8 40 3c 69 f7 60 bd
       0.071281105 0.12159707 0.0117703555 -0.05492345
000070 56 61 a9 bd 56 15 94 3d cf bd 47 3c 49 99 ad 3c
       -0.082705185 0.07230632 0.01219125 0.021191256
000080 05 b0 71 3d 19 f5 23 be 1c aa 7c 3d 97 03 10 be
       0.059005756 -0.16011466 0.061685666 -0.1406387
000090 9c 8d 25 be 98 c0 8d bc 53 06 61 be 28 35 13 3e
       -0.16167301 -0.01730375 -0.21975069 0.14375746
0000a0 38 b9 1e be 69 c6 21 3e 9d ae 05 3e 74 07 28 3e
       -0.15500343 0.15798344 0.13054891 0.16409093
0000b0 ef 5b 3a 3c b9 54 87 bd 67 c8 12 3e 31 b1 64 bd
       0.011374458 -0.066079564 0.1433426 -0.055833045
0000c0 04 42 91 bd 7a 5e c1 bd f5 73 94 3d eb cb 96 bd
       -0.070926696 -0.09441848 0.072486795 -0.07363113
0000d0 8a d2 0e 3d 30 78 c4 3d a5 d1 a0 bd ef 32 a0 bc
       0.034868754 0.095932364 -0.078524865 -0.019555537
0000e0 22 77 7e 3b 5d 36 92 bd 8f 05 a9 3d 5c dd 09 3e
       0.0038828333 -0.07139275 0.08253013 0.13463348
0000f0 7a 4f 6f bd 21 e6 92 bd 67 3c 30 be 2e 84 75 bd
       -0.058425404 -0.071728 -0.17210542 -0.05994051
000100 ae fb 24 3e 94 c9 6c bd b1 e4 b3 3d 48 35 26 bd
       0.16111633 -0.057809427 0.08783854 -0.040578157
000110 f1 0d 16 3d 0c a6 3c bd 15 89 33 bd f3 04 c1 3d
       0.03663439 -0.046056792 -0.043831903 0.09424772
000120 ff 67 c8 3d 10 a7 aa 3b 8a a2 24 bd 2a 73 e7 3d
       0.09785461 0.0052079037 -0.04019407 0.11301263
000130 b7 f9 37 be 0f e3 b7 3c 6c 76 28 3e 58 a3 1f 3e
       -0.17966352 0.022447137 0.16451424 0.15589654
000140 da dc 0b be 88 59 b7 bd 3b 46 18 3b 67 21 13 be
       -0.13658467 -0.089526236 0.002323522 -0.1436821
000150 4a 8e ba 3d 3c 50 21 3d 4f 29 01 be 26 89 8e bd
       0.09109171 0.039383158 -0.12613414 -0.06959753
000160 14 92 15 3e 76 61 b0 bc 17 71 a9 3d 2e 9b 9d be
       0.14606506 -0.021530848 0.08273523 -0.30782455
000170 f3 c4 88 3c 69 0f ce 3a 6b bf a4 bd d7 df e3 3d
       0.016695475 0.0015721145 -0.080443226 0.111266784
000180 bb f5 56 3c 64 4d 9e bd 96 ea cc bc a9 bd 0b be
       0.01312011 -0.07729605 -0.025014203 -0.13646568
000190 f7 0a 85 bd 16 e0 d2 bc fe 16 ed bd c5 aa 9a bd
       -0.06496232 -0.025741618 -0.11576651 -0.07552103
0001a0 3f 08 8c bd e7 d1 f5 3c 32 4f af bc c4 ae 06 bd
       -0.0683751 0.030007316 -0.021400068 -0.032881513
0001b0 bb e8 d9 bd b9 e8 ce 3d 68 6a 42 be 2f 9f 0b be
       -0.10640093 0.10102982 -0.18985903 -0.13634942
0001c0 90 3c 9d bc 67 5b 80 bc a9 a6 77 3b 57 05 6d 3d
       -0.019193918 -0.015668584 0.0037788546 0.05786642
0001d0 e1 07 66 bd 37 d4 08 be 1a 40 1a bd c6 43 c0 bd
       -0.056159858 -0.13362204 -0.03765879 -0.09387927
0001e0 cf ca d7 bd e5 13 c3 bd 7d 55 d7 3d ff d3 a3 3c
       -0.105367295 -0.09525279 0.105143525 0.019998549
0001f0 5a f8 47 3e 89 57 8a bc 29 2e 91 3b 0e 06 20 3e
       0.19528332 -0.016887443 0.0044305515 0.1562731
000200 79 1c 65 be 09 bc 0f be 3f 97 4c 3e 52 a8 df 3b
       -0.22374143 -0.14036573 0.19979571 0.0068254853
000210 6e af 70 bd e6 b3 01 3e ef b6 a4 bd 6b 86 f7 3d
       -0.058761053 0.12666282 -0.08042704 0.12086185
000220 86 41 30 3e 18 c9 d5 bd 62 56 8c 3d d1 93 63 bc
       0.17212495 -0.10438746 0.06852414 -0.013890223
000230 d7 4c 37 bd 1a 3e 3f 3d fd 93 9b bc 04 e9 ed bd
       -0.044751015 0.046690084 -0.018991465 -0.1161671
000240 bb 63 17 be 74 88 61 bc e7 0c 95 3b 56 78 08 3e
       -0.14784138 -0.013765443 0.004548657 0.13327155
000250 3b 9d 32 be 12 d7 fb 3b a0 cb 37 3d b0 e4 18 3e
       -0.17442791 0.0076855505 0.044871926 0.14930987
000260 1b 8d 46 3e 37 b5 b7 3d 85 33 2d be 7a eb 72 be
       0.19389765 0.08970111 -0.16914184 -0.2372264
000270 e5 68 9b bd af 84 08 be 26 36 67 3c b6 71 39 be
       -0.075883664 -0.13331865 0.014112031 -0.18109784
000280 f7 2d cd 3d 02 79 ee 3d 2c 00 64 be fc f8 df bc
       0.10018533 0.11644174 -0.2226569 -0.027340405
000290 9b be f9 bc 2f 2d a6 3d 71 86 0f 3d 3e 80 de 3c
       -0.030486396 0.08114087 0.035040323 0.02716076
0002a0 e4 95 ac bd 4a c4 04 be ae 0d c7 3d 64 2a 96 3e
       -0.08427027 -0.12965503 0.09719406 0.29329216
0002b0 5d fa 8a 3d d6 7f 6f 3e 58 ed d8 3d c3 1d cd bc
       0.06786034 0.2338861 0.10592145 -0.025038606
0002c0 26 ed 38 3e 6e c6 2f bd b4 51 e4 bd 21 ed e3 3d
       0.18059215 -0.042913847 -0.11148396 0.11129213
0002d0 5a 98 c4 bc cf cb 58 be 89 bc 29 be 3a 48 2f 3c
       -0.023998428 -0.21171497 -0.16575827 0.0106983725
0002e0 e8 e2 1b 3e 36 0e 57 bd 35 a3 ee bd 8a 39 b6 bc
       0.15223277 -0.052503787 -0.11652223 -0.022244234
0002f0 8c 22 ca 3c 33 a8 81 be de c4 db bd db 64 04 3e
       0.024674676 -0.25323638 -0.10730909 0.12929098
000300 54 73 10 bc f4 2c 85 bd b0 ad 28 3e 9c fc e8 bd
       -0.008816559 -0.06502715 0.16472507 -0.113763064
000310 ca f9 d2 3d b4 89 95 3d 47 74 2a be a3 99 6d be
       0.1030155 0.073016554 -0.16645919 -0.23203139
000320 02 a8 23 be 3a fd 3f 3e 47 be f9 bb bb 79 3c bc
       -0.15982059 0.18748942 -0.00762156 -0.011503632
000330 f7 ab b1 bb e4 ec be bd bc 78 43 3e 71 81 8a 3d
       -0.005422111 -0.09322527 0.19089025 0.0676297
000340 53 1f 13 be c0 1e f9 bc 09 e3 7a 3d a4 66 13 be
       -0.14367418 -0.03041017 0.061251674 -0.14394623
000350 3a 27 51 be 48 8f 3c 3b 9b 6b ea bc 2c 34 c1 3d
       -0.2042512 0.0028771926 -0.028615763 0.09433779
000360 82 1c f8 bb 29 e0 70 3d 15 d4 22 be 57 9d 8f 3b
       -0.007571758 0.058807526 -0.15901215 0.00438277
000370 b4 6a 5b be 35 f9 05 be 4b fe 7e 3d fe 01 c1 3d
       -0.21427423 -0.13083346 0.06225423 0.09424208
000380 12 3f 32 3e 53 97 8c 3c 68 5d 05 bd 4f 8d 48 bd
       0.17406872 0.017162 -0.032559782 -0.048962887
000390 85 ea c0 bd d2 89 67 bd 23 e0 7d 3e 7e 8d 4c bd
       -0.09419731 -0.05652792 0.24792533 -0.049939625
0003a0 cf a7 e2 bc ef e2 5b be 8b d3 41 be c7 6d a5 bd
       -0.027667908 -0.21473287 -0.18928353 -0.08077579
0003b0 0b 0b 3a be 59 35 54 bc e4 2f a2 3d 22 11 25 3d
       -0.18168275 -0.012952172 0.07919291 0.040299542
0003c0 dc dd fa 3c 04 fe 72 3d cc 7e 6f bd 86 a5 94 bd
       0.030623369 0.05932428 -0.058470532 -0.072581336
0003d0 91 56 12 be 0b ed 60 bd c5 e2 1d bc 5c 6a d4 3d
       -0.14290835 -0.05491356 -0.009636586 0.10371849
0003e0 6e e0 04 3e cf 91 b9 3d 0a 5e a2 bd 03 e2 eb 3d
       0.12976238 0.09061014 -0.07928093 0.11517718
0003f0 78 60 19 bd 07 b8 0d 3e de ae 05 3d b7 d6 5e be
       -0.037445515 0.13839732 0.03263747 -0.21761595

local_trans_pixel.layers.0.1.fn.fn.net.0.bias f4 [8]
000000 2e 26 4b 3d ff 71 10 3e a3 4b e6 3d 1a eb e9 3d
       0.049596958 0.14105986 0.11244895 0.11421795
000010 9f 33 fb 3d 7e f6 1e be 3c 73 88 3d 69 a2 24 bd
       0.12265705 -0.15523717 0.06662604 -0.04019395

local_trans_pixel.layers.0.1.fn.fn.net.3.weight f4 [32, 8]
000000 83 1d 99 3e dc dd 93 3c 24 f3 76 3e 20 ac e4 bd
       0.29905328 0.018050127 0.24116188 -0.11165643
000010 43 90 d3 bb bb ad 2e 3e 7a b2 0c be 96 95 4d 3e
       -0.0064564063 0.1705846 -0.13739958 0.20076594
000020 42 66 85 3e 9f 2a 37 3e 06 9e a6 be d5 37 bb 3d
       0.2605458 0.17887352 -0.32542437 0.091415085
000030 90 53 6a 3e 25 76 c6 be 92 e5 8a be 99 be ac 3e
       0.22883439 -0.38762012 -0.27128273 0.33739164
000040 43 0d 36 3e 22 e4 c5 be 7e 4b 92 be 83 87 1d 3e
       0.17778496 -0.38650614 -0.2857322 0.15383725
000050 85 ca 9c be f6 ed 2e 3c 13 67 a8 be 06 9d f5 3d
       -0.3062326 0.0106768515 -0.3289114 0.119928405
000060 4b 34 5a be 85 1d 6b be d2 bb 86 3d 8c 15 43 3d
       -0.2130901 -0.2296048 0.06578793 0.04762797
000070 80 da de 3d e7 9b 76 3e 12 a2 6f 3e 5a db c5 be
       0.10881519 0.2408291 0.23401669 -0.38643914
000080 78 34 44 3e 01 fb 26 3e 75 28 d4 3e 04 03 b1 be
       0.1916064 0.16306688 0.41437116 -0.34572613
000090 7a 15 be 3e 81 a9 ad be 89 19 c7 3e 82 11 11 3e
       0.3712576 -0.33918384 0.3888667 0.14166835
0000a0 11 05 28 be 35 7d 6a bc 02 e8 12 be 18 c3 90 bd
       -0.16408183 -0.014312078 -0.14346316 -0.07068461
0000b0 bb e3 42 be 83 53 99 be 0b e3 d2 be 0a ce 9c 3e
       -0.19032185 -0.29946527 -0.41188845 0.30625945
0000c0 cb 28 8a 3e 1b fb 87 3d c2 cd 0d 3e 9a 2e 14 3e
       0.26984248 0.066396914 0.13848022 0.14470902
0000d0 db 0b 63 bd a5 14 ad be 94 bc 38 3e d2 63 79 3e
       -0.055431228 -0.33804813 0.18040687 0.24354485
0000e0 8b fe 91 3d 2e 6c 3a bc 85 ce aa be f5 88 79 3e
       0.07128628 -0.011378331 -0.33360687 0.24368651
0000f0 1d c3 27 be 5e ce a7 3e 9c b4 d9 bd 34 62 09 3e
       -0.16383024 0.32774633 -0.10630152 0.13416368
000100 e0 c3 46 3e a3 2b 07 3e 40 08 a9 3d bc 4f a1 be
       0.19410658 0.1320024 0.08253527 -0.31506145
000110 06 8d 96 be 09 c7 1c 3e ab 8c c3 3e 1d 9c e8 bd
       -0.29404467 0.15310301 0.3819326 -0.11357901
000120 e7 10 95 3e 01 1a 31 be 99 ca 94 3e c7 a0 5b 3e
       0.29114458 -0.17295076 0.2906082 0.2144805
000130 be fc 75 be de 88 4e be 53 77 c6 3e 8d c6 84 3d
       -0.24022195 -0.20169398 0.38762912 0.06483183
000140 69 33 98 be 5a d3 3e 3e d0 67 c0 3e 6c 06 31 be
       -0.29726723 0.18635312 0.37579203 -0.17287606
000150 af 5d 8c 3e e0 af 87 be f3 9e db bb 45 ab 49 be
       0.27415225 -0.2650137 -0.006702298 -0.1969424
000160 e0 a3 73 be d6 31 72 3d ec c3 bb be dc 07 bb 3e
       -0.23792982 0.05912956 -0.36672914 0.36529434
000170 79 1b 60 bd 5a 2e 61 3e 3f 05 06 3d e9 76 81 be
       -0.0547137 0.21990338 0.032719847 -0.25286034
000180 ea f6 97 bd af 76 72 be 1f db be 39 49 d0 84 be
       -0.07420142 -0.23678087 0.00036402882 -0.2594016
000190 77 df b3 3e 1d 52 e4 be c5 ac b9 3d 67 b3 68 3d
       0.35131428 -0.44593897 0.09066156 0.056811716
0001a0 16 b8 ab be 87 b3 87 be 14 db 01 3e 35 91 1e be
       -0.33538884 -0.26504156 0.12681228 -0.1548508
0001b0 fe 20 84 be f4 8f e2 bc 2c 5f 2a be 5c 61 dc be
       -0.2580642 -0.027656533 -0.16637868 -0.4304303
0001c0 d7 35 68 3e 43 0a 4b be bb 33 08 be 4f 49 13 3e
       0.22676788 -0.19828133 -0.13300984 0.14383434
0001d0 4f 24 c5 3e 0c 6d 62 3e d9 3e 8f be 8f 5b 1f 3e
       0.38504264 0.2211191 -0.27977636 0.1556227
0001e0 d0 19 53 3e 75 19 b5 3e 06 9d 71 bd 03 70 50 bd
       0.20615315 0.35370985 -0.05898764 -0.050888073
0001f0 d9 a8 82 3e a4 b0 c3 be b3 9b c5 bd 82 f2 b2 be
       0.25519446 -0.38220704 -0.09648838 -0.34950644
000200 93 cf 27 be 34 e3 b9 3c 42 b7 5a be 42 38 6b 3d
       -0.16387777 0.022691347 -0.2135897 0.0574267
000210 9f 93 30 3e 83 1f a6 be 2f 9d 4b be e1 ea 8e 3e
       0.17243813 -0.32445917 -0.1988418 0.27913573
000220 e3 0b c9 3e 4f f5 e3 bd 41 3d 53 be fd 5a 13 bd
       0.3926688 -0.11130773 -0.20628835 -0.035975445
000230 6b d0 9f be 62 e6 8f be d2 89 9a 3e fd f7 6a bc
       -0.31213698 -0.28105456 0.30183274 -0.014341352
000240 b5 03 5c be 61 ce 1a 3e 81 9c 95 3e 6a e8 1c be
       -0.21485789 0.1511779 0.29220966 -0.15323034
000250 c8 14 4c be f3 19 c8 3d 7b 55 bc be f2 47 9c 3e
       -0.19929802 0.097705744 -0.36783966 0.3052364
000260 59 e5 a8 bd d3 44 84 3e 47 e1 00 be ae 58 4a be
       -0.082468696 0.2583376 -0.12585936 -0.19760391
000270 59 98 99 be fc 57 21 3c f5 ef 80 3e f9 94 53 be
       -0.29999045 0.009847637 0.25183073 -0.20662297
000280 7c 87 36 3e d3 84 6e 3e 6f e8 94 bd 77 62 c0 3e
       0.1782512 0.23292856 -0.07270896 0.37575123
000290 1c 2f 7c 3d 8d c0 7b 3e c3 49 06 bd af 7b d0 be
       0.061568365 0.24585171 -0.03278519 -0.40719363
0002a0 40 93 0b be df 37 93 be 55 25 69 be 6a 5c f6 3a
       -0.1363039 -0.28753564 -0.22768147 0.0018795852
0002b0 02 d7 70 ba cf 56 24 bd cd 1e a2 3e ed 58 57 bb
       -0.0009187312 -0.04012185 0.31664124 -0.00328594
0002c0 42 5b 6f be 30 46 96 3e dd 66 29 be 2e 27 e7 3d
       -0.23374656 0.29350424 -0.16543145 0.1128677
0002d0 33 bd 9f bd c3 03 c0 3e 1f 9c 88 bd 78 06 ad 3d
       -0.07799759 0.3750287 -0.06670403 0.084484994
0002e0 80 3c de 3e d0 1c 17 3e 15 e2 4d 3e a8 87 b5 3e
       0.43405533 0.14757085 0.20105775 0.3545506
0002f0 f4 09 4e be 5d 9c 3b 3d 6f d3 96 be 01 66 52 be
       -0.20120984 0.045803417 -0.29458186 -0.20546724
000300 2a 87 25 be 65 f9 25 3e 22 ca ad 3e ff 1e 07 be
       -0.16164842 0.16208418 0.33943278 -0.13195418
000310 8e fa 83 be 11 d3 45 be 22 da 6f be ca 20 94 be
       -0.25777096 -0.19318797 -0.23423055 -0.28931266
000320 ef 3c 85 3c 95 cd f7 bd 9f 50 3d 3e fe af f3 bd
       0.016264407 -0.120997585 0.18487786 -0.11898802
000330 4f cb 9f 3e 45 d2 1b 3e 0d 0e 85 be 71 0b bf b9
       0.312098 0.1521693 -0.25987282 -0.00036438883
000340 85 e7 44 3e 3b fa 35 be ef 74 96 be ac 41 9d be
       0.19228943 -0.17771237 -0.29386088 -0.30714166
000350 98 07 ed 3d 93 47 38 3e ba 67 57 3e 2a c8 a6 be
       0.11573714 0.17996053 0.21035662 -0.32574588
000360 e7 97 87 3e 52 ea 8e be b2 66 b1 be cf 91 41 be
       0.2648308 -0.27913147 -0.34648663 -0.18903278
000370 0e 89 5f 3e d6 c9 e0 be 8d e6 c7 bd b5 fd 39 bd
       0.21829626 -0.4390399 -0.09760771 -0.04540797
000380 e6 7b a0 be f8 85 a1 3e 97 ff f0 bd 2d a2 86 3d
       -0.31344527 0.31547523 -0.117675 0.06573901
000390 a7 12 1e 3e 96 e4 74 3d ce 73 6e be 2c e0 37 be
       0.15436803 0.05978831 -0.23286363 -0.17956609
0003a0 b0 6c 63 3e fd b7 ca 3e ac 77 ff 3c 58 bd 98 3c
       0.2220943 0.39593497 0.031184994 0.018644974
0003b0 d8 cf 68 be 73 46 b1 3e 13 88 5d 3e 50 44 60 be
       -0.22735536 0.3462406 0.2163394 -0.21901059
0003c0 55 33 51 be 8b 1a 7d be e4 18 85 bc 4b 64 80 3e
       -0.20429738 -0.24717157 -0.01624722 0.25076517
0003d0 94 a2 21 3d 77 c8 e3 3c 5f 84 e6 3d e6 ff 6e be
       0.039461687 0.02780555 0.112557165 -0.23339805
0003e0 b9 cc b7 bc 5c af b4 3e 29 23 1a bc d6 9d a9 3e
       -0.022436487 0.3529004 -0.009407797 0.33128232
0003f0 6d 30 4a 3e c7 8d 03 be 1b 30 91 3e 3d 3b 4d be
       0.19745035 -0.12847053 0.28357014 -0.20042129

local_trans_pixel.layers.0.1.fn.fn.net.3.bias f4 [32]
000000 af 91 64 3e c0 f3 88 3e 71 a0 0f be 45 0e 66 3c
       0.22321199 0.26748466 -0.14026047 0.014041488
000010 ef 0b 80 3e 5f 98 8e bc 37 00 dc bd 98 e0 48 be
       0.25009105 -0.01740664 -0.107422285 -0.19616926
000020 2d d2 3f 3e 88 04 25 3b ba fb b9 bc e8 48 b9 be
       0.1873252 0.0025179703 -0.02270304 -0.36188436
000030 cd a3 9c bd fd 1d 36 be a8 10 96 be 6e 1c 0d be
       -0.0764843 -0.17784877 -0.29309583 -0.13780376
000040 e2 f3 ed bd 4b 48 20 3d b3 28 ae be 12 1e d1 be
       -0.116187826 0.039131444 -0.34015426 -0.40843254
000050 a1 21 3a be b8 34 7f 3e 57 9b c1 be 8e 43 60 be
       -0.18176891 0.24922454 -0.37813827 -0.2190077
000060 8b 56 71 3e 27 95 52 bd 76 9f 96 be 6d 38 d9 be
       0.2356817 -0.051411774 -0.29418534 -0.42425862
000070 ab 8e 97 be c1 f0 32 3c 6e 0d 73 3e 6c 2a c4 bd
       -0.29601035 0.010921658 0.23735592 -0.09578404
