src/res/GGCL/guided_contra_cross_transformer/Pavia/10/False/ssnew/_1711527951.pth (torch, 266710 bytes, 37 tensors)

pixel_pos_embedding f4 [1, 170, 32]
0	0xbfd597c4	-1.668694
1	0x3fac8599	1.3478271
2	0x3f2a107d	0.6643141
3	0x3e91e6db	0.2849644
4	0xbf6b36ed	-0.91880685
5	0xbfc53b7e	-1.540878
6	0x3fc97f8e	1.5742052
7	0xbf540005	-0.8281253
8	0xbdd52a66	-0.104084775
9	0xbf91bef0	-1.1386395
10	0xbf933236	-1.1499698
11	0x3ea995b2	0.3312202
12	0xbeb333b3	-0.3500038
13	0x3f819849	1.0124599
14	0xbd381e86	-0.044950984
15	0xbf3a51dd	-0.72781163
16	0xbf1684db	-0.5879647
17	0x3ffb3840	1.9626541
18	0x3e38b2ea	0.18037
19	0x3e13f758	0.14449823
20	0x3f56532d	0.83720666
21	0xbfaa08a5	-1.3283888
22	0x3ef30652	0.4746576
23	0x3eae3c9f	0.34030625
24	0xbfc5c440	-1.5450516
25	0xc0093be9	-2.1442816
26	0xbf1eab5c	-0.61980224
27	0xbef441d5	-0.47706476
28	0x3f1dfbb9	0.61712223
29	0xbe5691bb	-0.2095403
30	0x3f9416d5	1.1569468
31	0x3fa2b5e4	1.2711759
32	0x3ff77265	1.9331785
33	0xbf011c06	-0.50433385
34	0x3fc8c7c3	1.5685962
35	0x3e9d0b05	0.3067247
36	0xbf9eedc1	-1.2416307
37	0xbf36d8c0	-0.71424484
38	0xbee3da0e	-0.445023
39	0xbe04f1a6	-0.12982807
40	0x3e6b17a4	0.22958237
41	0xbf8813e3	-1.0631069
42	0xbf9b91c8	-1.2153864
43	0xbf20a3a7	-0.62749714
44	0xbf5a4b04	-0.85270715
45	0xbdab76f4	-0.08372298
46	0x400cb6ef	2.1986654
47	0xbe4bdfbb	-0.19909565
48	0xbf01d03d	-0.5070837
49	0x3f3482fb	0.7051236
50	0xbfc4229b	-1.5323061
51	0xbfd34e71	-1.6508313
52	0xbf7693ee	-0.9631947
53	0xbee36890	-0.44415712
54	0xbf67066a	-0.9024416
55	0xbc6be367	-0.014397479
56	0xbf832496	-1.024554
57	0x3f02dd67	0.51119083
58	0xbec9185c	-0.39276397
59	0x3ed5a8b0	0.4173026
60	0xbe1e417f	-0.15454672
61	0x3e197c40	0.14988804
62	0xbf218c96	-0.6310514
63	0xbe81d4a5	-0.25357547
64	0x3f9cd5b8	1.2252722
65	0xbf57fc18	-0.8436904
66	0x3ef6c0d4	0.4819399
67	0xbefb9f94	-0.49145186
68	0x3f96a42a	1.1768849
69	0x3fdabe60	1.7089348
70	0x4028a574	2.6350985
71	0xbe6127cd	-0.21987839
72	0xbfbe90db	-1.4887956
73	0x3e191c5d	0.14952226
74	0xbe194c2e	-0.14970466
75	0xbf3548c1	-0.7081414
76	0xbf282100	-0.65675354
77	0x3e282762	0.16421273
78	0xbf20b95d	-0.6278284
79	0x3f86e3ce	1.053827
80	0x3ef75c97	0.48312828
81	0xbdd7414e	-0.10510503
82	0xbfc3009e	-1.5234563
83	0xbec853c8	-0.3912642
84	0xbe409ed3	-0.18810587
85	0xbf5ccb2d	-0.8624752
86	0x3eb02c1a	0.34408647
87	0x3ea2e690	0.3181653
88	0x3f64fab7	0.8944506
89	0xbf48745a	-0.7830254
90	0x3f216f9a	0.63060915
91	0xbf4a958f	-0.7913446
92	0xbf1d3fbb	-0.6142537
93	0x3d03072a	0.031989254
94	0x3fcfb677	1.6227559
95	0x3f71efe0	0.94506645
96	0x3f3765fd	0.71639997
97	0x3f5d9473	0.8655464
98	0xbfd54fdf	-1.6665
99	0xbee50a48	-0.44734406
100	0xbe7d32bf	-0.2472639
101	0x3f70f146	0.94118154
102	0xbb88ab5f	-0.0041708197
103	0xbf067be0	-0.5253277
104	0xbfa49b12	-1.2859824
105	0x3d4374de	0.047718875
106	0x3f889a4b	1.0672086
107	0x3fc9f034	1.5776429
108	0xbda57b5a	-0.08080168
109	0x3e0296a5	0.12752779
110	0xbd861f72	-0.065489665
111	0x3dbe7944	0.09300473
112	0x3f375d33	0.71626586
113	0x3e883a8b	0.26607165
114	0xbf102440	-0.56305313
115	0x3b4fe543	0.0031722344
116	0x3fce22fd	1.6104428
117	0x401a52c5	2.4113019
118	0xbf222a0c	-0.6334541
119	0x3cf5d896	0.030010503
120	0x3f99bb2a	1.2010243
121	0x3f3d3f2d	0.73924524
122	0xbfd817d4	-1.6882272
123	0xbf5d39e5	-0.86416465
124	0x3ec902e1	0.3926001
125	0xbec1de74	-0.3786503
126	0x3fa33041	1.2749101
127	0x3ef52f7c	0.4788779
128	0x3d88bf0e	0.06677066
129	0x3edc5f95	0.43041673
130	0x3fafe383	1.3741306
131	0xbe6cba07	-0.23117839
132	0x3f771b9f	0.9652652
133	0xbb957922	-0.0045615593
134	0xbf74d14e	-0.95631874
135	0x3f8e4a08	1.1116343
136	0xbce4b36f	-0.027917592
137	0xbff3d161	-1.9048272
138	0xbf475374	-0.77861714
139	0xbf81c386	-1.0137794
140	0xbf288b3a	-0.6583744
141	0xbeb14e1f	-0.34629914
142	0xbfe82d43	-1.8138813
143	0x3ec35e8d	0.38158074
144	0xbec047fd	-0.37554923
145	0x3f0d1582	0.55110943
146	0x3ecf411d	0.40479365
147	0xbe339953	-0.17538957
148	0xbf36a5ca	-0.71346724
149	0xbf3d0b3a	-0.73845255
150	0xbf0b11a2	-0.5432378
151	0x3f8d9cdf	1.1063498
152	0xbc2d431f	-0.010575085
153	0xbe456485	-0.19276626
154	0x3e8a33e2	0.26992708
155	0xbf2af9b3	-0.6678726
156	0xbf90e7c8	-1.1320734
157	0xbe10c29a	-0.14136735
158	0x3e786af4	0.2425955
159	0xbf84ebc3	-1.0384449
160	0x3e58e7ec	0.21182221
161	0xbf7153b7	-0.94268364
162	0x3d5afa72	0.0534615
163	0x3e987474	0.29776347
164	0x3f7cc551	0.9873858
165	0xbee87c5a	-0.45407373
166	0xbfb15897	-1.385516
167	0xbf0313c8	-0.5120206
168	0x3c8b472c	0.01700171
169	0xbf5cd6c7	-0.86265224
170	0x3eb62720	0.35576725
171	0xbf20bebe	-0.6279105
172	0x3ea43998	0.3207519
173	0x3ea27186	0.31727237
174	0x3edc41e6	0.43019027
175	0x3f997172	1.1987746
176	0x3f7b1f0e	0.9809426
177	0xbfbbbb2e	-1.4666498
178	0x3ed32333	0.41237792
179	0xbf2807e7	-0.6563706
180	0x3e203081	0.15643503
181	0x3e907799	0.28216246
182	0x3ec2206a	0.37915355
183	0xbf7e6484	-0.99372125
184	0xbf9f15f6	-1.2428577
185	0xbec31e6f	-0.38109156
186	0x3fafc236	1.3731143
187	0x3f6c04ff	0.92195123
188	0xbf95c919	-1.1701995
189	0x3f932054	1.1494241
190	0x3fbda4f5	1.4815966
191	0x3e7a208f	0.24426483
192	0xbf9943c6	-1.1973808
193	0x3eb30a7b	0.34968933
194	0xbcb08685	-0.021548519
195	0xbdabd4f5	-0.08390228
196	0xbedab1a9	-0.4271367
197	0xbf7f0e7c	-0.99631476
198	0xbfda7680	-1.7067413
199	0xbce2c848	-0.027683392
200	0x3f9a3d41	1.2049943
201	0xbf4ea47a	-0.8071972
202	0x3ecdd3c1	0.40200618
203	0xbee7a918	-0.45246196
204	0xbefd0ab3	-0.49422225
205	0xbfa7ee81	-1.3119661
206	0xbf97ffcf	-1.1874942
207	0x3f41d7cb	0.757199
208	0xbf27ac07	-0.6549687
209	0x4014ee6a	2.3270516
210	0xbf682d25	-0.90693885
211	0x3f61d64e	0.8821763
212	0xbf365dd0	-0.71236897
213	0xbfa1052f	-1.2579707
214	0x3fd29b18	1.6453581
215	0xbf16f24c	-0.58963466
216	0x3f8ea045	1.114266
217	0xbe6b04db	-0.22951071
218	0x3fce2021	1.6103555
219	0xbf937b19	-1.1521941
220	0xbf4cafad	-0.7995556
221	0x3ef37b9f	0.47555253
222	0xbf053c79	-0.520454
223	0xbe7606fc	-0.24026102
224	0x3fb4a79a	1.4113648
225	0xbf99a799	-1.2004272
226	0xbe18ddef	-0.14928411
227	0xbe65abc9	-0.22428812
228	0x400a7691	2.1634867
229	0xbf2359e1	-0.6380902
230	0xbe8db04e	-0.27673572
231	0x3f4e8ff8	0.8068843
232	0x3fa70e3b	1.3051218
233	0xbeb78548	-0.35843873
234	0xbcb931a4	-0.022606678
235	0xbe2c2d33	-0.16814117
236	0xbf814101	-1.0097963
237	0xbf8ca49b	-1.0987734
238	0x400ab8db	2.1675327
239	0x3f85b95f	1.0447196
240	0xbf2bc1db	-0.67092675
241	0x3f885ec9	1.0653926
242	0xbf5072db	-0.81425256
243	0xbfead901	-1.8347474
244	0x3e25bd3e	0.16185471
245	0xbe3e3175	-0.18573554
246	0x3de3d2b3	0.11124172
247	0x3f839435	1.0279604
248	0xbf1930e3	-0.5984022
249	0x3f2ee828	0.6832299
250	0xbf171814	-0.59021115
251	0xbf37e606	-0.7183536
252	0x3f0c89e7	0.5489792
253	0xbf6a8dc7	-0.91622585
254	0xbf7764e3	-0.96638316
255	0xbd816f31	-0.06320036

cls_token_pixel f4 [1, 1, 32]
0	0x3f0cbec9	0.54978615
1	0x3ffe93fe	1.9888914
2	0x3e7e35f0	0.24825263
3	0x3f01aea2	0.50657094
4	0xbe43856d	-0.19093867
5	0xbd116f12	-0.035506316
6	0xbfe2322a	-1.7671559
7	0x3f7f0d91	0.99630076
8	0x3f6b6b3c	0.919605
9	0xc021637e	-2.5216975
10	0xbfa986f1	-1.3244306
11	0xbed3cceb	-0.41367278
12	0x3fb77587	1.4332741
13	0x3ffab60d	1.9586807
14	0xbd72bfcd	-0.059264947
15	0x3f6e2b85	0.93035156
16	0x3f18c304	0.5967257
17	0xbf31e228	-0.6948571
18	0x3f4ef483	0.80841845
19	0xbe9b1525	-0.3028957
20	0x3f5d790d	0.86512834
21	0xbf1e7f68	-0.61913157
22	0x3e461d72	0.1934717
23	0x3f147a88	0.5799947
24	0x3fd62ad1	1.6731817
25	0xbfbfb06c	-1.4975715
26	0xbfd88f23	-1.6918682
27	0x3f97a4b4	1.1847138
28	0xbeb6157e	-0.35563272
29	0x3fd47cdf	1.6600608
30	0x3f1d5c5a	0.6146904
31	0xbfc811fe	-1.5630491

pixel_patch_embedding.weight f4 [32, 30]
0	0xbd7e8dc4	-0.062146917
1	0x3d772bf8	0.060344666
2	0x3e3ac5d6	0.18239531
3	0x3ac09a00	0.0014694333
4	0x3d57b794	0.052665308
5	0xbddff59f	-0.109355204
6	0xbdd4c5db	-0.103893004
7	0x3e19587e	0.14975163
8	0xbe1d1720	-0.15340853
9	0xbe27bf90	-0.16381669
10	0xbd888c0a	-0.06667335
11	0x3e09d02a	0.13458315
12	0xbdd55723	-0.10417011
13	0x3dd6e9bc	0.104938
14	0x3d05a204	0.032625213
15	0x3e1cbac0	0.15305614
16	0x3e09e5ce	0.1346657
17	0x3e3530a8	0.17694342
18	0xbd3744b0	-0.04474324
19	0xbe230e1b	-0.1592335
20	0x3e2ccb50	0.16874433
21	0x3d85b26e	0.065281734
22	0xbe2ddf69	-0.16979755
23	0x3d027d88	0.031857997
24	0x3e1ea398	0.15492094
25	0x3d9befe0	0.07614112
26	0x3e2cd65c	0.16878647
27	0xbcc0b280	-0.023522615
28	0x3d66dfc8	0.05636576
29	0x3e0029c2	0.1251593
30	0xbba98120	-0.0051728636
31	0xbce09118	-0.027412936
32	0x3e39777a	0.18111983
33	0x3d8c74cc	0.06858215
34	0xbdac6868	-0.084183514
35	0x3d80730a	0.06271942
36	0xbdf352b5	-0.118810095
37	0xbe015560	-0.12630224
38	0xbe329b23	-0.17441992
39	0x3dbb4e4c	0.09145793
40	0xbcf28668	-0.029605106
41	0x3df25e8c	0.1183444
42	0x3d659a70	0.056055486
43	0x3c850ad8	0.016240522
44	0xbda1b048	-0.07894951
45	0x3c376880	0.011194348
46	0x3d62ce90	0.055372775
47	0x3d355b60	0.044276595
48	0x3e0ab83a	0.1354684
49	0xbdad6f3f	-0.08468484
50	0x3d062ce4	0.032757655
51	0xbd7c1084	-0.061539188
52	0xbe01f456	-0.12690863
53	0xbb91fb20	-0.0044549853
54	0x3e29f2b0	0.16596484
55	0x3dbc2930	0.091875434
56	0x3dfae99c	0.12251589
57	0xbbc4b1c0	-0.0060026348
58	0xbe314eee	-0.17315266
59	0x3e32dc72	0.17466906
60	0xbe234b3e	-0.15946671
61	0xbe2e3c37	-0.17015158
62	0xb7e96000	-2.7820468e-05
63	0x3e128876	0.14309868
64	0x3dc39e24	0.09551647
65	0xbe15738a	-0.14594856
66	0x3c84ea80	0.0162251
67	0xbe26de2a	-0.16295686
68	0x3de3fee8	0.11132604
69	0x3e157392	0.14594868
70	0x3d85518c	0.065096945
71	0x3d3e0128	0.04638782
72	0x3d91fc14	0.07128158
73	0x3daeda50	0.085377336
74	0x3e21966a	0.15780035
75	0x3e346298	0.17615736
76	0xbd91a674	-0.071118265
77	0xbc593610	-0.013257518
78	0xbe0c5cc7	-0.13707267
79	0x3d402074	0.04690595
80	0x3d9feaa0	0.07808423
81	0x3ddf5368	0.1090458
82	0xbc07cd20	-0.008288652
83	0x3e36b2a6	0.17841586
84	0x3e27a932	0.16373137
85	0xbe39c77b	-0.18142502
86	0xbe10427a	-0.14087859
87	0x3c9eb4c0	0.019373298
88	0xbd918a50	-0.07106459
89	0xbd18fce0	-0.037350535
90	0x3d8cc790	0.06874001
91	0x3ce5b668	0.02804108
92	0xbd667920	-0.056267858
93	0xbcc45d28	-0.023970202
94	0x3d945d5c	0.072443694
95	0x3c601500	0.013676882
96	0x3e18ebe6	0.14933738
97	0xbd9d2baa	-0.07674344
98	0xbad6e980	-0.0016396493
99	0xbe28e0dc	-0.16492027
100	0xbe215d9a	-0.15758362
101	0xbc9eba90	-0.01937607
102	0xbdac90cd	-0.08426056
103	0xbc899a00	-0.016797066
104	0xbd9622c1	-0.073308475
105	0xbe25ab1f	-0.16178559
106	0xbda545a9	-0.08069927
107	0x3db45fd0	0.08807337
108	0xbb8c2a40	-0.0042774975
109	0x3d98705c	0.07443306
110	0xbd68fa44	-0.056879297
111	0x3dcdf50c	0.100565046
112	0x3d44a870	0.048012197
113	0x3d752928	0.059853703
114	0x3c980d98	0.01856117
115	0x3c1be040	0.009513915
116	0x3db99e74	0.09063426
117	0x3e26efe8	0.16302454
118	0xbdd27fcf	-0.10278284
119	0xbe39cd7e	-0.18144795
120	0x3dcf3380	0.10117245
121	0xbd4fc248	-0.05072239
122	0x3d54997c	0.051904187
123	0xbcc06968	-0.023487762
124	0x3d95b5fc	0.073101014
125	0xbe306d2b	-0.17229144
126	0xbcca7378	-0.024713263
127	0x3cd3cd18	0.025854632
128	0x3927f400	0.00016017258
129	0xbcb9e440	-0.022691846
130	0xbda4ef62	-0.08053471
131	0x3dec8ad4	0.11549917
132	0x3e1f6b74	0.15568334
133	0x3c20fdc0	0.009826124
134	0x3df7c150	0.12097418
135	0xbdc9886b	-0.09840473
136	0x3d8e4dd4	0.06948438
137	0x3d837eec	0.06420693
138	0xbde95a9d	-0.11394236
139	0x3e2794ac	0.16365308
140	0x3d9d68b8	0.07685989
141	0x3df18628	0.117931664
142	0x3e1f0300	0.15528488
143	0xbe38883a	-0.18020716
144	0x3e15ae6c	0.14617318
145	0x3c11be40	0.008895457
146	0xbc4a5590	-0.012349501
147	0xbda5a840	-0.08088732
148	0xbe0e9912	-0.13925579
149	0xbe28e3fb	-0.16493218
150	0xbe2ad579	-0.16682996
151	0xbe0acc65	-0.13554533
152	0x3df2e628	0.11860305
153	0x3dfee6b4	0.12446347
154	0xbe093c18	-0.1340183
155	0x3df71320	0.12064195
156	0xbd880a38	-0.06642574
157	0xbd2315b8	-0.039815634
158	0xbd84b391	-0.06479562
159	0x3d86cf7c	0.06582543
160	0xbd3d65d8	-0.046239704
161	0xbcbc3810	-0.022975951
162	0x3dacbe28	0.08434707
163	0xbcc90e70	-0.024543017
164	0x3db3bc14	0.087761074
165	0x3e17cc24	0.14823967
166	0x3df5a844	0.11994985
167	0xbe0dd864	-0.13852078
168	0xbd9cc6bc	-0.07655093
169	0x3dbdd578	0.092692316
170	0xbe355e5e	-0.1771178
171	0xbe2188fc	-0.15774912
172	0xbe0222dd	-0.12708612
173	0x3c9aee18	0.01891236
174	0xbd61d8a8	-0.05513826
175	0xbcadc1c8	-0.021210566
176	0x3e16972e	0.14706108
177	0x3d357a6c	0.044306204
178	0x3dd9132c	0.1059936
179	0xbcb3ade0	-0.021933496
180	0x3dfd2658	0.12360829
181	0x3e24fd90	0.16112351
182	0x3e0d2dc4	0.1378699
183	0xbdd9a043	-0.106262706
184	0xbcea4970	-0.02859947
185	0xbdd0938b	-0.101843916
186	0xbdba8df9	-0.091091104
187	0x3e1afb96	0.15135035
188	0x3bfcf220	0.0077192932
189	0x3dfd926c	0.123814434
190	0xbba64060	-0.005073592
191	0xbcd9dd20	-0.026594698
192	0xbe118cb7	-0.14213835
193	0xbc5b8a10	-0.013399616
194	0xbdef4393	-0.11682811
195	0xbca9f558	-0.020746872
196	0xbdf6f92e	-0.12059246
197	0x3dbb44c8	0.09143978
198	0x3dc83168	0.097750485
199	0x3cf725d0	0.030169398
200	0xbdff34e2	-0.124612585
201	0x3e2f9372	0.1714609
202	0x3e340cf8	0.17583072
203	0xbe2c36da	-0.16817799
204	0xbe1f7bf7	-0.15574633
205	0x3d144164	0.036195174
206	0xbd939a66	-0.072071835
207	0x3daa076c	0.08302197
208	0x3de41b2c	0.11137995
209	0x3daf4e5c	0.08559868
210	0xbcf7d910	-0.03025487
211	0xbe134d27	-0.143849
212	0xbd009008	-0.03138736
213	0xbd27d360	-0.040973067
214	0xbc841d60	-0.016127288
215	0x3c4f1d30	0.012641236
216	0xbda4b9b5	-0.08043233
217	0xbdf34ef3	-0.11880293
218	0x3e0c85a8	0.13722861
219	0xbe299804	-0.16561896
220	0xbd100240	-0.035158396
221	0xbc203ef0	-0.0097806305
222	0x3e042c66	0.12907562
223	0x3cef2c20	0.029195845
224	0xbd884f10	-0.06655705
225	0xbd45486c	-0.04816477
226	0xbdaf58da	-0.08561869
227	0xbd67c744	-0.05658652
228	0x3e213b60	0.15745306
229	0x3dbfaee4	0.093595296
230	0x3e369862	0.17831567
231	0x3ad6c900	0.0016386807
232	0x3ddf7908	0.10911757
233	0x3dd94e88	0.10610682
234	0xbe01b70c	-0.12667483
235	0x3df8654c	0.12128696
236	0xbde07861	-0.109604605
237	0xbe07dfcb	-0.13268964
238	0x3ce4bac0	0.02792108
239	0xbdf53e41	-0.119747646
240	0xbcf7ab70	-0.030233115
241	0x3e3322bc	0.17493719
242	0xbde2d643	-0.110760234
243	0x3d4567e4	0.04819478
244	0x3caca6d8	0.021075651
245	0x3d2df978	0.04247424
246	0x3e2b096e	0.16702816
247	0x3d9d424c	0.07678661
248	0xbe2805b8	-0.16408432
249	0xbdc10799	-0.09425277
250	0xbd8327c5	-0.0640407
251	0xbc96e700	-0.018420696
252	0x3e2769fa	0.1634902
253	0xbc810418	-0.015749022
254	0x3c9b4710	0.018954784
255	0x3e1a10f4	0.1504553

pixel_patch_embedding.bias f4 [32]
0	0x3e2d6cac	0.16935986
1	0xbe1ff127	-0.15619336
2	0x3e36c52e	0.17848656
3	0x3d1677c0	0.036735296
4	0xbe06c50b	-0.13161103
5	0x3dad8864	0.0847328
6	0x3db4dde8	0.08831388
7	0xbd4776e4	-0.048697367
8	0xbe22a8c6	-0.15884694
9	0x3debd750	0.11515677
10	0x3dbdd25c	0.092686385
11	0x3dfd85d4	0.12379041
12	0xbdc24a78	-0.0948686
13	0xbdf64e1e	-0.120266184
14	0xbdc33097	-0.09530752
15	0xbcea30b8	-0.028587684
16	0x3dcb8348	0.09937149
17	0x3c70b250	0.0146909505
18	0xbe16c01f	-0.14721726
19	0x3cc79588	0.024363294
20	0xbd96394a	-0.07335146
21	0xbe2070ea	-0.15668073
22	0xbdd9e22e	-0.106388435
23	0xbe2956b2	-0.16536978
24	0x3daa73b0	0.08322847
25	0x3d860c6a	0.065453365
26	0xbda1bc0c	-0.07897195
27	0xbd2c6bb4	-0.0420949
28	0xbd678db4	-0.056531623
29	0x3d3ef8ec	0.04662411
30	0xbe086e82	-0.13323405
31	0xbca75eb0	-0.020430893

local_trans_pixel.layers.0.0.fn.norm.weight f4 [32]
0	0x3f8cc9ad	1.0999047
1	0x3f8d1791	1.1022817
2	0x3f92f3dc	1.148067
3	0x3f94b98c	1.1619124
4	0x3f9586f1	1.1681806
5	0x3f8ccc0a	1.0999768
6	0x3f96130f	1.1724566
7	0x3f99673b	1.1984628
8	0x3f920ae4	1.1409574
9	0x3f99fd04	1.2030339
10	0x3f8d38d0	1.1032963
11	0x3f916587	1.1359109
12	0x3f8cfbeb	1.1014379
13	0x3f8d51a0	1.1040535
14	0x3f90cee8	1.1313143
15	0x3f91e0b2	1.1396697
16	0x3f9221a5	1.1416517
17	0x3f8e9033	1.1137756
18	0x3f8d797a	1.1052697
19	0x3f90d541	1.131508
20	0x3f8d0743	1.1017841
21	0x3f8edd15	1.1161219
22	0x3f8861f4	1.0654893
23	0x3f8db611	1.1071187
24	0x3f9411e2	1.1567957
25	0x3f8bfe1f	1.0936927
26	0x3f8cdb58	1.1004438
27	0x3f8ab56b	1.0836614
28	0x3f91a2e0	1.137783
29	0x3f8bb71c	1.0915256
30	0x3f9228bd	1.1418682
31	0x3f8b55e2	1.0885584

local_trans_pixel.layers.0.0.fn.norm.bias f4 [32]
0	0xbd11ca67	-0.035593417
1	0x3d882ba9	0.066489525
2	0x3db16088	0.0866099
3	0x3d597fc4	0.053100362
4	0xbe0feac7	-0.14054404
5	0xbdc9af4d	-0.09847889
6	0xbcb8d97f	-0.022564648
7	0x3df51728	0.11967307
8	0x3e0c7ec7	0.13720237
9	0xbdddcafd	-0.108297326
10	0xbe288133	-0.16455536
11	0xbc3bc82a	-0.011461297
12	0x3d929752	0.07157768
13	0x3da90750	0.08253348
14	0x3d9c61b5	0.07635824
15	0x3a872865	0.0010311721
16	0xbd2b9f80	-0.041900158
17	0x3d8152e3	0.063146375
18	0x3d86f3d1	0.06589473
19	0xbe025e0f	-0.12731193
20	0x3de06f62	0.109587446
21	0xbd78518f	-0.060624655
22	0x3d0eee0b	0.034894984
23	0x3dd3a2cb	0.10333785
24	0x3df723f3	0.12067404
25	0xbe8423c4	-0.25808537
26	0xbd387049	-0.04502896
27	0x3dceb848	0.100937426
28	0x3d87b1a5	0.0662568
29	0x3dac6c37	0.08419078
30	0x3d954a2e	0.07289539
31	0xbd891031	-0.066925414

local_trans_pixel.layers.0.0.fn.fn.to_qkv.weight f4 [768, 32]
0	0x3e468263	0.19385676
1	0xbdc5fbbb	-0.096671544
2	0xbd8cf1a7	-0.06882029
3	0xbd842968	-0.0645321
4	0xbda77243	-0.081760906
5	0x3c75020f	0.014954104
6	0x3c9609f9	0.018315302
7	0xbd93607c	-0.07196137
8	0xbe0ae6be	-0.13564584
9	0x3e33b0d2	0.1754792
10	0x3e21c793	0.15798788
11	0xbe261163	-0.1621757
12	0x3dc25b88	0.094901145
13	0x3dce4f61	0.10073734
14	0xbd864b65	-0.06557349
15	0x3dda6672	0.10664071
16	0x3e389fbf	0.18029688
17	0xbb424d76	-0.002964822
18	0xbd12b7f7	-0.035819974
19	0x3e1ec664	0.15505368
20	0xbe429e33	-0.1900566
21	0x3d41ad1c	0.04728423
22	0x3b8f8ea4	0.0043810178
23	0x3d9b6083	0.075867675
24	0x3e5c91ed	0.21540041
25	0x3e25db64	0.16196972
26	0xbda444a4	-0.08020905
27	0xbe0f7296	-0.14008555
28	0x3cbe02e5	0.02319474
29	0xbb75015f	-0.003738485
30	0x3e340fda	0.17584172
31	0xbc837a49	-0.016049521
32	0xbcd809e7	-0.02637191
33	0x3d28b380	0.04118681
34	0x3dd51c6b	0.10405811
35	0xbde19ff1	-0.110168345
36	0x3dc36e12	0.095424786
37	0x3d57d50f	0.052693423
38	0xbe99a739	-0.30010393
39	0x3c405242	0.011738362
40	0xbe0e6e1a	-0.13909188
41	0xbc991da5	-0.018690893
42	0xbd5e2875	-0.0542378
43	0x3d97c54d	0.07410679
44	0xbe2fe259	-0.17176189
45	0x3bd7dba1	0.006587461
46	0x3e2b107b	0.16705506
47	0x3bc8b2b1	0.0061248173
48	0x3eb6004c	0.35547101
49	0x3ccf4adb	0.025304249
50	0x3d8c2b30	0.06844175
51	0x3e9c9909	0.30585507
52	0xbd907164	-0.070528775
53	0x3dd1535d	0.102209784
54	0x3e38839c	0.18018955
55	0x3b58fcd8	0.003310969
56	0x3e3a9048	0.18219101
57	0xbe0bd3a6	-0.13654956
58	0x3d547f8f	0.05187946
59	0x3d648328	0.055789143
60	0xbd7b36b8	-0.06133148
61	0x3e606f4f	0.21917461
62	0xbdd06a54	-0.101765305
63	0x3e3c4b5a	0.1838812
64	0x3d2eb213	0.042650294
65	0x3d489394	0.048968866
66	0x3e1e03fe	0.1543121
67	0x3cec66e9	0.028857665
68	0xbe58fe1f	-0.2119069
69	0xbe47b591	-0.19502856
70	0xbe70423d	-0.23462768
71	0x3e820064	0.25390923
72	0x3e66a658	0.22524393
73	0xbcc3c625	-0.023898194
74	0xbe0402f7	-0.12891756
75	0x3e13eb1b	0.14445154
76	0xbd424a8a	-0.047434367
77	0x3e49a04f	0.19690059
78	0xbdc673f3	-0.09690084
79	0xbe93e678	-0.2888677
80	0xbdfdee88	-0.12399012
81	0xbc986ec3	-0.018607503
82	0x3d910c18	0.07082385
83	0xbe6c9d06	-0.23106775
84	0x3e67f8f5	0.22653563
85	0xbe2e9a70	-0.170511
86	0xbe02d91e	-0.12778136
87	0x3e0e0231	0.13868023
88	0x3d03d0e8	0.03218165
89	0xbd3437dd	-0.043998588
90	0x3dabcca8	0.083886445
91	0xbd6ceb7f	-0.057841774
92	0xbdfb7860	-0.12278819
93	0xbddee21f	-0.10882973
94	0x3da8d16d	0.0824307
95	0xbe8be9fd	-0.27326956
96	0xbd3084c4	-0.043095365
97	0xbd7efae9	-0.062251005
98	0x3d5aa5db	0.05338083
99	0x3dea78ff	0.114488594
100	0x3ddc4d68	0.107569516
101	0x3d7345ec	0.059392855
102	0x3e3a6a0f	0.1820452
103	0x3e82ab7f	0.25521466
104	0x3e52fdac	0.2060458
105	0x3dfcea26	0.12349348
106	0xbe23583a	-0.15951625
107	0xbca0ca0c	-0.019627593
108	0xbd939ed1	-0.07208026
109	0x3dee4213	0.116336964
110	0x3dfb2038	0.122620046
111	0x3dc24c9b	0.094872676
112	0xbe9bad50	-0.30405664
113	0x3d6d3650	0.057913125
114	0xbda62168	-0.081118405
115	0xbe955d69	-0.2917283
116	0x3e07806a	0.1323258
117	0x3c720b7d	0.014773247
118	0x3dabb308	0.08383757
119	0x3e7763fc	0.24159235
120	0xbe36df88	-0.17858708
121	0x3d26a056	0.040680252
122	0x3e0eb406	0.13935861
123	0x3bd912e0	0.0066245645
124	0x3db57ad6	0.0886132
125	0xbe193d85	-0.14964874
126	0x3d9bca77	0.076069765
127	0xbea0f2be	-0.31435198
128	0xbba1834a	-0.004928981
129	0x3df75607	0.12076955
130	0xbd874abc	-0.06606051
131	0x3be507be	0.0069894483
132	0xbdef908f	-0.11697494
133	0x3e3bea85	0.18351181
134	0x3c889f60	0.016677558
135	0x3e278665	0.16359861
136	0xbc7ca9dd	-0.015421358
137	0xbd28542b	-0.041095894
138	0xbd697e70	-0.057005346
139	0xbae8a1bb	-0.0017748395
140	0x3d28eae9	0.041239653
141	0x3e14910b	0.14508455
142	0xbe34eaa2	-0.1766763
143	0x3dff44f4	0.12464324
144	0xbe7a4ef6	-0.24444184
145	0xbc707fab	-0.014678876
146	0xbc36b847	-0.011152334
147	0xbe5015eb	-0.20320861
148	0xbd0068da	-0.031349994
149	0x3caed0d1	0.021339806
150	0x3e24da30	0.16098857
151	0x3e0a1c0b	0.1348726
152	0xbc2b6f09	-0.010463485
153	0xbbb712de	-0.005586966
154	0xbe19898f	-0.1499388
155	0xbdeb9496	-0.1150295
156	0xbd74c8d4	-0.059761837
157	0xbe055e0a	-0.13024154
158	0x3cd2f05e	0.025749382
159	0xbe4ef249	-0.20209612
160	0xbe5d7fb6	-0.21630749
161	0x3e72c5b1	0.23708226
162	0xbe115654	-0.14193088
163	0x3e5283aa	0.20558038
164	0xbe1073b7	-0.14106642
165	0xbda9c2ec	-0.082891315
166	0xbdd4baa7	-0.103871636
167	0xbb9c1f6b	-0.0047644875
168	0x3e12f600	0.14351654
169	0xbd25cfda	-0.040481426
170	0xbc9fd4ec	-0.019510709
171	0x3db17115	0.08664147
172	0x3d903bbc	0.070426434
173	0x3e25da38	0.16196525
174	0xbcfdd954	-0.03098742
175	0xbdf0c6f4	-0.11756697
176	0x3d72a3f1	0.059238378
177	0x3db30d94	0.08742824
178	0x3e4ec0e2	0.20190766
179	0x3cb730ea	0.022362191
180	0xbc9e8b9e	-0.019353684
181	0xbdfd2d21	-0.12362123
182	0xbd24be9d	-0.040220845
183	0x3cd709c4	0.026249774
184	0xbdbfe252	-0.09369339
185	0x3da0fce9	0.07860739
186	0xbd6b7daa	-0.05749289
187	0x3c8b6a89	0.017018573
188	0x3d1e723b	0.038683157
189	0x3e36e76d	0.1786172
190	0xbe2f1f70	-0.17101836
191	0xbe141440	-0.1446085
192	0xbe2fc68d	-0.17165585
193	0x39ce0b9e	0.00039300037
194	0x3dd135b6	0.10215323
195	0xbd78a023	-0.060699593
196	0xbe08e904	-0.13370138
197	0xbbec5821	-0.007212654
198	0xbe7dceaf	-0.24785875
199	0x3d58c0bf	0.052918192
200	0xbd187db8	-0.03722927
201	0xbe195eb2	-0.1497753
202	0xbe0ccbf1	-0.13749672
203	0x3df76138	0.1207909
204	0x3db04847	0.08607536
205	0x3e0460ef	0.12927602
206	0xbd08c698	-0.03339252
207	0x3d00a107	0.031403568
208	0xbe1196af	-0.14217637
209	0xbe0283a1	-0.12745525
210	0x3dee190f	0.11625873
211	0x3e3077fc	0.1723327
212	0xbdd6fd26	-0.10497503
213	0xbd6c922c	-0.057756588
214	0x3dd30415	0.10303513
215	0xbe26f4e0	-0.1630435
216	0x3e126c95	0.14299233
217	0xbdbac238	-0.091190755
218	0xbd292ce0	-0.04130256
219	0xbd962565	-0.07331351
220	0x3d2f6834	0.042823985
221	0x3e411ab2	0.1885784
222	0xbc8a3df4	-0.016875245
223	0xbda793dc	-0.08182499
224	0xb9fabcf9	-0.0004782451
225	0x3de5143d	0.11185501
226	0xbdb23528	-0.08701545
227	0x3ddae808	0.10688788
228	0x3ce85da3	0.028364962
229	0xbdde0f3a	-0.10842748
230	0x3c02c9ed	0.007982713
231	0xbed218d7	-0.41034576
232	0xbca51976	-0.020153742
233	0x3e02c95e	0.12772128
234	0x3e1bf9ca	0.15232006
235	0x3e34e766	0.17666396
236	0xbcea2ef4	-0.028586842
237	0xbe2cd963	-0.16879801
238	0xbda1a581	-0.078928955
239	0x3e1d19de	0.15341899
240	0x3e98e795	0.29864183
241	0xbe78d20c	-0.24298877
242	0xbdc69e0d	-0.096981145
243	0x3e758457	0.23976265
244	0xbe049c66	-0.12950286
245	0x3dc4bdd1	0.09606517
246	0x3bb4b24a	0.005514418
247	0xbdf6a438	-0.12043041
248	0xbbb79930	-0.005602978
249	0xbd524792	-0.051337786
250	0xbd63e3bf	-0.055637117
251	0xbc07fac3	-0.008299532
252	0x3d841490	0.064492345
253	0x3e30a855	0.17251714
254	0x3d10d032	0.0353548
255	0x3e5d3b93	0.21604757

local_trans_pixel.layers.0.0.fn.fn.to_out.0.weight f4 [32, 256]
0	0xbcfaed90	-0.030630857
1	0xbdde2bdb	-0.108482085
2	0xbcba4feb	-0.022743186
3	0xbdc9585d	-0.09831307
4	0x3ce41c2e	0.027845468
5	0x3c030549	0.007996866
6	0x3de4a5c4	0.1116443
7	0x3d7f09e5	0.062265296
8	0xbd31927e	-0.043352596
9	0x3d217b06	0.039423965
10	0x3c577915	0.013151427
11	0x3bbf92ba	0.0058463486
12	0xbd5bc9b1	-0.053659145
13	0x3d9cd231	0.07657278
14	0xbd81b9be	-0.06334256
15	0xbd88604d	-0.06658993
16	0xbda58764	-0.08082464
17	0x3d9d4c39	0.07680554
18	0xbbd44125	-0.0064774924
19	0xbddbfd27	-0.10741644
20	0xbb3c66b7	-0.0028747746
21	0x3d99fbe2	0.07518746
22	0xbce8c412	-0.028413806
23	0x3d769184	0.06019737
24	0x3dac6dad	0.084193565
25	0x3dbd3d17	0.092401676
26	0x3d2855ca	0.04109744
27	0x3dd4bf11	0.103880055
28	0x3c852c8c	0.016256593
29	0xbdd2269b	-0.1026127
30	0x3caf549e	0.021402653
31	0x3d8f39a5	0.06993417
32	0xbd8f825c	-0.07007286
33	0xbda10d66	-0.07863884
34	0xbc5ce277	-0.013481728
35	0x3c089be6	0.00833795
36	0x3de2f37e	0.11081599
37	0x3d04e834	0.03244801
38	0xbe08c8ed	-0.13357897
39	0x3d8c23ee	0.068427905
40	0x3c06e576	0.008233419
41	0x3d48eb53	0.049052548
42	0xbde27fcc	-0.110595316
43	0xbd096db9	-0.033551905
44	0x3d27fe7d	0.041014183
45	0xbccfa8ed	-0.025349105
46	0x3d9ea01f	0.077453844
47	0xbd6cbb38	-0.057795733
48	0x3da0749d	0.07834742
49	0x3ceaeae2	0.028676454
50	0x3cb92c13	0.022604024
51	0xbb925ed5	-0.0044668713
52	0xbbee7a1a	-0.0072777392
53	0x3da6de31	0.081478484
54	0x3c8f3213	0.017479932
55	0xbde06f93	-0.10958781
56	0xbd8da789	-0.069167204
57	0x3cf407bc	0.029788844
58	0xbcf0146f	-0.029306618
59	0xbc6a26d5	-0.014291485
60	0xbda673a9	-0.08127529
61	0xbd9ab0c1	-0.075532444
62	0x3d71d00d	0.059036303
63	0x3a4b329c	0.0007751377
64	0x3db21a1a	0.08696385
65	0x3d005682	0.0313325
66	0x3ca76258	0.020432636
67	0x3d1b546d	0.03792231
68	0x3d01e1bd	0.03170942
69	0x3c936899	0.017994212
70	0xbd5d7b50	-0.054072678
71	0xbce763af	-0.028245775
72	0xbdc0f4ec	-0.09421715
73	0xbdc485ca	-0.09595831
74	0x3b98167a	0.0046413513
75	0x3dc84916	0.09779565
76	0xbcd1050f	-0.025515107
77	0xbe04a290	-0.12952638
78	0xbc9c0e38	-0.019049749
79	0x3d324ee4	0.043532267
80	0xbdb7bebc	-0.089719266
81	0xbdd3e842	-0.10347034
82	0xbd01f8e3	-0.031731497
83	0xbc4ef9ea	-0.012632826
84	0xbd8111cc	-0.063022226
85	0x3d7441db	0.059633117
86	0x3e045ba0	0.12925577
87	0x3d9ccff1	0.07656849
88	0xbc9aa2b7	-0.018876417
89	0x3dc2ac18	0.095054805
90	0xbbd2d8ec	-0.0064345505
91	0x3add6cbc	0.0016893367
92	0x3d1b1b72	0.03786797
93	0xbc93f421	-0.018060746
94	0xbd5c7be1	-0.053829078
95	0x3abc045d	0.0014344562
96	0x3da585f1	0.08082188
97	0x3d475fd7	0.048675384
98	0xbd6d7c4e	-0.057979874
99	0x3da601cb	0.08105811
100	0x39359d52	0.00017320112
101	0x3d984bc5	0.07436327
102	0xbc42ec54	-0.011897165
103	0x3d9df848	0.077133715
104	0xbcb08a8f	-0.021550445
105	0x3dcde742	0.100538746
106	0xbd181e8f	-0.037138518
107	0xbd842e28	-0.06454116
108	0x3baaefcf	0.0052165757
109	0x3c8c9944	0.017162926
110	0xbd1c94a5	-0.038227696
111	0xbcec57d6	-0.028850477
112	0x3d16295e	0.036660545
113	0xbcb15ab7	-0.021649702
114	0xbd9ca5dc	-0.07648823
115	0x3dc47fe9	0.095947094
116	0xbc9f44d5	-0.019442001
117	0x3cc36d0b	0.023855707
118	0x3d093d0e	0.033505492
119	0xbe058893	-0.1304038
120	0x3c93d79e	0.01804715
121	0xbd18b43a	-0.037281252
122	0xbda54093	-0.08068957
123	0xbda22dee	-0.07918917
124	0x3e00b58e	0.12569258
125	0x3cb951cb	0.02262201
126	0xbd21e1ae	-0.039521866
127	0x3d039928	0.032128483
128	0xbcb3d7f9	-0.02195357
129	0xbb9ea936	-0.004841949
130	0xbe0a30ec	-0.13495225
131	0xbd8eb44b	-0.06967982
132	0x3dafde3f	0.08587312
133	0x3d56b987	0.052423026
134	0x3af6a850	0.0018818472
135	0x3c3ff063	0.0117150275
136	0xbba517ea	-0.005038251
137	0x3d19aff8	0.037521333
138	0xbdc09818	-0.094040096
139	0xbcae8063	-0.021301454
140	0x3c800230	0.015626043
141	0xbd8a04da	-0.067392066
142	0xbdf2cb32	-0.11855163
143	0x3dfc2678	0.12312025
144	0x3dbfd372	0.09366502
145	0x3d3f7965	0.04674663
146	0x3c08bc10	0.008345619
147	0xbd1d4bd5	-0.038402397
148	0xbce5eb66	-0.028066348
149	0x3d2c0c11	0.042003695
150	0x3abdb76b	0.0014474218
151	0xbdd8da0a	-0.10588463
152	0x3d053285	0.032518882
153	0xbb707a98	-0.0036694165
154	0x3ba5a23a	0.0050547393
155	0x3d2eb13b	0.04264949
156	0xbd300753	-0.042975735
157	0xbb81a2e2	-0.0039561847
158	0xbd13459e	-0.035955064
159	0xbceba164	-0.02876348
160	0xbc7d267c	-0.01545107
161	0x3df3c64c	0.119030565
162	0xbd590a40	-0.05298829
163	0xbda4ac50	-0.080406785
164	0xbcc171dc	-0.023613863
165	0x3d759518	0.05995664
166	0xbc38e26e	-0.011284454
167	0xbd1ea831	-0.03873462
168	0xbc369e98	-0.01114621
169	0x3e084eee	0.1331136
170	0x3dbf118e	0.0932952
171	0xbd3ae179	-0.045625184
172	0xbd854042	-0.06506397
173	0xbd864248	-0.06555611
174	0xbcb5b3ec	-0.02218052
175	0xbdd9b23e	-0.106297
176	0xbd228928	-0.039681584
177	0xbdfbf6e2	-0.123029485
178	0xbc0b4021	-0.008499176
179	0x3d117e41	0.035520796
180	0xbce5acda	-0.028036524
181	0x3db30bc3	0.08742478
182	0xbd970772	-0.07374467
183	0xbcf6c1a5	-0.030121634
184	0x3cd3d0f0	0.025856465
185	0xbd4fb453	-0.05070908
186	0x3dad9824	0.08476284
187	0x3d665df5	0.05624195
188	0xbce62990	-0.02809599
189	0x3dd44ab9	0.10365815
190	0xbd529b15	-0.05141743
191	0xbd988a42	-0.074482456
192	0x3d539f98	0.051665872
193	0x3d9b5d13	0.07586112
194	0xbd33dcd2	-0.043911763
195	0xb8ffafb9	-0.000121920784
196	0x3c30207c	0.010749932
197	0xbcf61bcf	-0.030042557
198	0x3ca90376	0.020631533
199	0xbd2735c9	-0.040822778
200	0x3c0fbf62	0.008773657
201	0x3da2b9ea	0.079456165
202	0x3da8144f	0.082069986
203	0x3d29cc37	0.04145452
204	0xbd3a283e	-0.045448534
205	0x3d551b65	0.05202808
206	0xbc947cf1	-0.018125983
207	0xbdb8edb1	-0.09029711
208	0xbd144609	-0.036199603
209	0x3dec8503	0.115488075
210	0xbdda60ea	-0.10663016
211	0xbd61dbcc	-0.055141255
212	0x3d10c21c	0.035341367
213	0xbdd483dd	-0.103767134
214	0x3d927fcc	0.071532816
215	0x3d1157cc	0.03548412
216	0xbc8d643f	-0.017259715
217	0x3ce332a3	0.027734106
218	0xbd0b3f8c	-0.03399615
219	0x3dd66592	0.10468592
220	0x3d4365e2	0.047704585
221	0x3cf64509	0.030062215
222	0x3da83166	0.08212547
223	0xbdbaf243	-0.09128239
224	0x3cfc3112	0.030785117
225	0x3e1a8821	0.15090992
226	0x3daa62d3	0.083196305
227	0xbd1da089	-0.038483176
228	0x3c5e838a	0.013581166
229	0x3d61c559	0.055119846
230	0x3caf5d2b	0.02140673
231	0xbc8130d3	-0.015770352
232	0x3cce6dd6	0.025198858
233	0x3debae00	0.11507797
234	0x3bf359c0	0.0074264705
235	0x3d53ed4e	0.051739983
236	0x3dbd78db	0.09251567
237	0x3cf1f8db	0.029537609
238	0x3d0033ed	0.03129952
239	0xbb564ef7	-0.0032700875
240	0xbdea59aa	-0.11442883
241	0xbd972535	-0.073801436
242	0x3ced1202	0.02893925
243	0xbdabb1a1	-0.083834894
244	0x3dfa3f69	0.12219126
245	0xbd9fc2a3	-0.07800796
246	0x3cbded31	0.02318439
247	0x3d75f0ff	0.060044285
248	0x3da6a70d	0.08137331
249	0x3cceea9c	0.025258355
250	0xbd3d5b64	-0.046229735
251	0xbc9e3e17	-0.019316716
252	0x3d0a9432	0.033832736
253	0x3d892da0	0.066981554
254	0xbd5135d7	-0.051076736
255	0x3a01e1c9	0.0004954604

local_trans_pixel.layers.0.0.fn.fn.to_out.0.bias f4 [32]
0	0xbd948b34	-0.072531134
1	0x3bfff208	0.007810835
2	0x3ccc25b1	0.024920316
3	0xbdf516ad	-0.11967216
4	0x3c63728d	0.0138822915
5	0x3d4d7da9	0.050168667
6	0xbd2b4d57	-0.041821804
7	0x3d054bea	0.0325431
8	0xbd94b1bc	-0.07260463
9	0x3dd0cf34	0.10195771
10	0x3dcf15e1	0.10111595
11	0xbd6c96e3	-0.057761084
12	0xbd1a09f2	-0.03760714
13	0xbd0c9226	-0.034319066
14	0x3bef05a7	0.007294375
15	0x3d0426d0	0.032263577
16	0xbd748473	-0.059696626
17	0x3d950bb0	0.0727762
18	0x3d54674f	0.051856335
19	0xbe0e586c	-0.13900918
20	0x3cfd8674	0.030947901
21	0xbdbc0e33	-0.09182396
22	0x3d39953f	0.045308348
23	0x3dcedcd4	0.10100713
24	0xbe0e0444	-0.13868815
25	0x3d9a8c0e	0.075462446
26	0x3db0d8c1	0.086350925
27	0x3d9a860b	0.07545098
28	0x3bbc27e8	0.005742062
29	0xbb8b457a	-0.0042502256
30	0xbd87caf4	-0.06630507
31	0x3c4476ea	0.011991242

local_trans_pixel.layers.0.1.fn.norm.weight f4 [32]
0	0x3f880187	1.0625466
1	0x3f82977c	1.0202479
2	0x3f84753b	1.0348276
3	0x3f8764a9	1.0577594
4	0x3f87d974	1.0613236
5	0x3f8318e7	1.0241975
6	0x3f88a897	1.067645
7	0x3f898f77	1.0746907
8	0x3f7d25f1	0.9888602
9	0x3f812bb4	1.0091462
10	0x3f77d258	0.96805334
11	0x3f7f6da0	0.9977665
12	0x3f8d78cb	1.1052488
13	0x3f84c1ad	1.0371605
14	0x3f813200	1.0093384
15	0x3f8d6f6c	1.1049628
16	0x3f9200dc	1.1406512
17	0x3f95da4f	1.1707247
18	0x3f869d22	1.0516703
19	0x3f951c4c	1.164926
20	0x3f7f8261	0.9980832
21	0x3f8e9740	1.1139908
22	0x3f883cb3	1.0643524
23	0x3f76e311	0.96440226
24	0x3f8ceb33	1.1009277
25	0x3f79464c	0.9737289
26	0x3f853355	1.040629
27	0x3f831844	1.024178
28	0x3f7fa64b	0.9986312
29	0x3f75eb8e	0.9606255
30	0x3f841832	1.0319884
31	0x3f8bc968	1.0920839

local_trans_pixel.layers.0.1.fn.norm.bias f4 [32]
0	0x3a6b4014	0.0008974087
1	0xbcecd073	-0.02890799
2	0x3d0db279	0.034594033
3	0x3b3df253	0.0028983548
4	0xbbaec604	-0.005333664
5	0xbd6d3cc4	-0.05791928
6	0xbc8b5d4e	-0.017012265
7	0xba0da4ab	-0.00054032606
8	0x3cbd7ac4	0.023129828
9	0x3ce6e0e9	0.028183417
10	0x3d5ed595	0.054402906
11	0xbd0af488	-0.03392461
12	0xbd52085b	-0.0512775
13	0x3aacf8cc	0.0013196706
14	0x3d55cca2	0.052197106
15	0xbcfd76d2	-0.030940447
16	0xbb5ce14d	-0.0033703626
17	0x3c8bd0e1	0.017067375
18	0x3cbec932	0.023289297
19	0xbd1e9922	-0.038720258
20	0xbcbb25ca	-0.022845168
21	0xbd21551d	-0.03938781
22	0x3ce68266	0.02813835
23	0xbc0de105	-0.008659606
24	0xbd033200	-0.032030106
25	0x3caf2f02	0.02138472
26	0x3d2c1dc0	0.04202056
27	0x3bd1137d	0.006380497
28	0xbc843a1a	-0.016140986
29	0xb9b128f9	-0.00033790598
30	0x3c27f560	0.010251373
31	0x3d017453	0.031605076

local_trans_pixel.layers.0.1.fn.fn.net.0.weight f4 [8, 32]
0	0x3c5449d8	0.012957059
1	0xbd2f2241	-0.042757276
2	0x3e3b2bc6	0.18278417
3	0xbdb8749e	-0.09006618
4	0xbde55a1b	-0.11198827
5	0xbdfabb42	-0.12242748
6	0xbe4a383d	-0.19748016
7	0x3dc9851c	0.09839842
8	0x3dadc6ff	0.08485221
9	0x3d4564e5	0.048191924
10	0xbd83317e	-0.06405924
11	0xbd6ff40e	-0.058582358
12	0xbe1165e4	-0.14199024
13	0xbdfcf6ce	-0.12351762
14	0x3cac3026	0.021019053
15	0x3d9bd903	0.07609751
16	0xbe33693c	-0.17520612
17	0xbcb3e483	-0.021959549
18	0xbdae63bd	-0.08515117
19	0xbe8f1ecb	-0.2795318
20	0x3e1757be	0.14779565
21	0x3e2b2b4a	0.16715732
22	0x3d5a0255	0.05322488
23	0x3d30a34e	0.04312449
24	0xbe24b310	-0.16083932
25	0x3de753fc	0.112953156
26	0xbd878d84	-0.06618789
27	0x3cf3db1e	0.02976757
28	0xbbf03b69	-0.007331301
29	0xbd83513c	-0.064119786
30	0xbd631151	-0.055436436
31	0x3dd3e53e	0.10346459
32	0x3daabfd2	0.08337368
33	0x3d36ee01	0.044660572
34	0x3d9eff44	0.07763532
35	0xbdcb4a76	-0.09926312
36	0xbe68dee6	-0.22741279
37	0x3c933fa9	0.017974691
38	0x3ce962bf	0.028489469
39	0xbd3f4527	-0.04669681
40	0xbdba07b1	-0.09083498
41	0xbe186e34	-0.14885789
42	0xbdb49dfc	-0.08819196
43	0xbd8d5130	-0.06900251
44	0xbe0eb3de	-0.13935801
45	0xbe0142ef	-0.1262319
46	0xbd25d5c1	-0.040487055
47	0xbe4ffe42	-0.20311835
48	0xbdcaca28	-0.099018395
49	0x3e474ade	0.19462153
50	0x3d2f43de	0.042789333
51	0xbe49e0c5	-0.19714649
52	0x3d0a54cf	0.033772286
53	0xbcfd1997	-0.030895991
54	0x3cc12264	0.023575969
55	0xbd3064fd	-0.04306506
56	0x3e54dc55	0.20787175
57	0x3ddc2a35	0.10750238
58	0xbcfde59a	-0.030993272
59	0x3d8295ec	0.063762516
60	0x3d8bccf7	0.06826203
61	0x3db8275a	0.08991881
62	0x3e16b7b7	0.14718519
63	0x3e8561d4	0.260512
64	0xbd781de7	-0.060575392
65	0xbd3d15f2	-0.046163507
66	0x3e12c692	0.14333561
67	0x3e4c452b	0.1994826
68	0x3e3f379c	0.18673557
69	0xbe836ebd	-0.25670424
70	0x3da2aec3	0.079434894
71	0x3df8855b	0.121348105
72	0xbc7b2adf	-0.0153300455
73	0x3dd2c594	0.10291591
74	0x3c95a2b3	0.018266058
75	0xbdce42ad	-0.10071311
76	0xbe50b863	-0.20382838
77	0x3dc18cfa	0.09450717
78	0x399255ab	0.00027911118
79	0xbdfc8651	-0.12330306
80	0xbe06ce15	-0.13164552
81	0x3e1ed48b	0.15510766
82	0x3bd2e574	0.0064360444
83	0xbe81e460	-0.2536955
84	0xbd375750	-0.044761002
85	0xbe852d73	-0.26011238
86	0x3e00fd85	0.1259671
87	0x3ce279a5	0.027645895
88	0xbdae46b1	-0.08509577
89	0x3dbaaaae	0.09114586
90	0x3d571e71	0.052519266
91	0xbcd70a69	-0.026250081
92	0x3d3622ff	0.04446697
93	0xbe1968d0	-0.14981389
94	0xbd4faf34	-0.050704196
95	0x3db1974c	0.08671436
96	0xbcd1df0e	-0.025619056
97	0x3e6241c4	0.220954
98	0x3d25226e	0.040316038
99	0xbd63214d	-0.05545168
100	0xbe0f5a1e	-0.1399922
101	0xbd8c7ca6	-0.06859712
102	0xbe0a7c49	-0.13523974
103	0x3e3830a7	0.1798731
104	0xbd8da84e	-0.06916867
105	0xbde11017	-0.10989397
106	0x3d8b79c7	0.068103366
107	0x3e030206	0.1279374
108	0xbd2fcc7f	-0.042919632
109	0x3d24dfea	0.040252604
110	0x3dcf1abd	0.10112522
111	0x3d34950d	0.04408746
112	0x3e104c12	0.14091519
113	0x3e476dc3	0.19475465
114	0x3cb99701	0.022655012
115	0xbd1505a5	-0.036382336
116	0xbdc32ab1	-0.09529627
117	0xbe56e499	-0.2098564
118	0xbe06bf89	-0.13159002
119	0xbe18ee04	-0.14934546
120	0xbe29e97f	-0.16592978
121	0x3d956984	0.07295516
122	0xbd6b80e6	-0.057495974
123	0xbcee954f	-0.02912393
124	0xbe10b03c	-0.14129728
125	0x3d0e7c02	0.03478623
126	0x3de323cc	0.11090812
127	0x3c46fb25	0.012144838
128	0x3d7c2ac1	0.06156421
129	0xbe2dcd33	-0.16972809
130	0x3d4f238b	0.050571006
131	0x3e272012	0.16320828
132	0xbdea693f	-0.11445855
133	0x3bd4362a	0.0064761834
134	0x3e7a512f	0.24445032
135	0xbe301dd9	-0.17198886
136	0x3d9d9444	0.07694295
137	0xbd89417f	-0.067019455
138	0x3d85c311	0.065313466
139	0x3d7766de	0.060400836
140	0xbdd161dd	-0.10223744
141	0xbd25273a	-0.040320612
142	0x3df3b853	0.119003914
143	0xbdd8bb04	-0.105825454
144	0xbc35c6d0	-0.011094764
145	0x3c017648	0.007901736
146	0xbc9733e7	-0.018457366
147	0xbddad846	-0.10685782
148	0xbe047a5e	-0.12937304
149	0x3c9c9aef	0.019116847
150	0xbca60b6d	-0.02026912
151	0xbdce99b7	-0.100879125
152	0x3d9f3717	0.077741794
153	0xbe205c3f	-0.15660189
154	0x3db05291	0.08609498
155	0xbe14e810	-0.1454165
156	0xbdd1bc8e	-0.10241042
157	0xbe061f42	-0.13097861
158	0x3e77ebbf	0.24211024
159	0x3c10b534	0.008832265
160	0x3e48a2df	0.1959338
161	0xbca4b111	-0.020103963
162	0xbd61f847	-0.055168416
163	0x3e100e93	0.1406806
164	0x3df43185	0.119235076
165	0x3dd8c095	0.10583607
166	0x3e02c153	0.1276906
167	0x3e31203f	0.17297457
168	0xbd506989	-0.050881896
169	0xbdd46d75	-0.1037244
170	0xbd851e8f	-0.06499969
171	0x3e042b9e	0.12907264
172	0xbd05906c	-0.032608435
173	0xbdfa4ff2	-0.122222796
174	0xbe6f0ed5	-0.23345502
175	0x3dde8486	0.108651206
176	0xbd8975cd	-0.06711922
177	0x3dabeba8	0.08394557
178	0xbdf41c03	-0.11919405
179	0xbe0f5ad5	-0.13999493
180	0xbe024ca5	-0.1272455
181	0x3c9181c1	0.017762067
182	0xbe14b0df	-0.14520596
183	0xbddb6a6f	-0.1071366
184	0xbdd87f62	-0.10571171
185	0xbc9e7535	-0.019342998
186	0xbcadc7d1	-0.021213444
187	0x3c75f522	0.0150120575
188	0xbdec2f88	-0.11532503
189	0xbe336f63	-0.1752296
190	0x3e25b932	0.16183928
191	0xbe3269be	-0.1742315
192	0xbde322ac	-0.110905975
193	0x3df5c319	0.120001025
194	0xbd756589	-0.059911285
195	0x3e440d7c	0.19145769
196	0xbd0d1a85	-0.03444912
197	0x3d21b17e	0.03947591
198	0xbdf96114	-0.12176719
199	0x3ce6da5a	0.02818029
200	0x3e3c0342	0.18360618
201	0xbdcbcf9e	-0.09951709
202	0x3d1e7aff	0.038691517
203	0x3e1a293e	0.15054795
204	0x3e88b8e8	0.26703572
205	0xbd711c67	-0.058864977
206	0xbdb69b9c	-0.08916399
207	0x3e6f99df	0.23398541
208	0x3e1520a0	0.14563227
209	0xbe62f105	-0.22162254
210	0xbd9c39cb	-0.07628211
211	0x3e9b44d7	0.30325958
212	0xbb5b6535	-0.0033477072
213	0x3c83e29c	0.016099267
214	0xbe39b0ab	-0.181338
215	0xbdfe93b2	-0.124305144
216	0xbe02e7fd	-0.12783809
217	0x3e137704	0.1440087
218	0xbe42920a	-0.19001022
219	0xba2e2fd9	-0.0006644703
220	0xbd1b49d2	-0.037912197
221	0xbd38318a	-0.04496912
222	0xbe315747	-0.1731845
223	0xbe32a155	-0.17444356
224	0xbe37156c	-0.17879266
225	0x3d52ee9a	0.05149708
226	0x3e2ebfef	0.17065404
227	0xbd19d20b	-0.03755383
228	0x3dfff13d	0.124971844
229	0xbd0fc87e	-0.035103314
230	0x3de13638	0.109966695
231	0xbd5f7091	-0.05455071
232	0x3de28ceb	0.11062034
233	0x3de54ad3	0.11195912
234	0x3deafc4a	0.114739016
235	0x3d912673	0.07087412
236	0xbda676cc	-0.081281275
237	0x3d6fbb4a	0.058528222
238	0x3da139d4	0.07872358
239	0x3d6ec3ee	0.05829232
240	0xbe2db683	-0.16964154
241	0x3dff95db	0.124797545
242	0x3d320a1d	0.043466676
243	0x3e232c31	0.15934826
244	0xbe63c0ba	-0.22241488
245	0xbe1e9323	-0.15485816
246	0x3dc6cc39	0.09706921
247	0x3dfeba38	0.12437862
248	0xbe7b3e20	-0.24535418
249	0x3deb47d1	0.11488307
250	0xbd8bf74e	-0.06834279
251	0x3df11c45	0.1177297
252	0xbe1111ae	-0.141669
253	0x3ce2d132	0.027687643
254	0x3d1ae2ce	0.037813954
255	0xbe30624c	-0.17224997

local_trans_pixel.layers.0.1.fn.fn.net.0.bias f4 [8]
0	0x3e1b4b37	0.15165411
1	0xbe241dfb	-0.16027062
2	0x3e527390	0.20551896
3	0x3e31f926	0.17380199
4	0xbe096659	-0.13417949
5	0xbddd783f	-0.10813951
6	0xbd1ff840	-0.03905511
7	0x3d9318cf	0.07182466

local_trans_pixel.layers.0.1.fn.fn.net.3.weight f4 [32, 8]
0	0x3d910717	0.070814304
1	0xbe9d8cb6	-0.30771416
2	0xbd98355b	-0.07432052
3	0xbebfb4f6	-0.3744275
4	0xbce53ebc	-0.027984016
5	0xbe578734	-0.2104767
6	0x3e1629c1	0.14664365
7	0x3c778138	0.015106492
8	0x3d1c9626	0.03822913
9	0x3d54b8c0	0.051934004
10	0x3ef390cf	0.47571418
11	0xbdba333c	-0.090918034
12	0x3cb45043	0.022010928
13	0xbec326c5	-0.38115516
14	0xbdf0974e	-0.11747609
15	0xbe1b4441	-0.15162756
16	0x3e8fe02c	0.28100717
17	0xbdcbd390	-0.09952462
18	0x3ea84d08	0.3287127
19	0x3dffbd07	0.12487226
20	0x3e61b6dd	0.22042413
21	0xbe55a23b	-0.20862667
22	0xbe0ad2d9	-0.13556994
23	0x3e85cd06	0.26132983
24	0x3e247e86	0.1606389
25	0x3e864aeb	0.26229033
26	0x3e696bab	0.22794978
27	0xbca283f5	-0.019838313
28	0x3e2c1a8c	0.16807002
29	0x3eba8eb4	0.36437
30	0xbcd2ea6e	-0.02574655
31	0xbeb0cf23	-0.34533033
32	0xbc91bc2a	-0.017789919
33	0xbde6748c	-0.11252698
34	0x3e95dba4	0.29269135
35	0xbe75dac4	-0.24009234
36	0xbd817679	-0.06321425
37	0xbcfe8118	-0.031067416
38	0xbe640a83	-0.22269635
39	0xbe14eb43	-0.1454287
40	0xb815387c	-3.5576973e-05
41	0x3e5e2028	0.21691954
42	0x3d8152f5	0.06314651
43	0x3b8fa63b	0.00438383
44	0xbe9d43fd	-0.30715933
45	0x3d641ff2	0.055694528
46	0xbe4fcc70	-0.2029283
47	0x3d11e61e	0.035619847
48	0x3dc14ad7	0.09438103
49	0x3e697a29	0.22800507
50	0xbeacc041	-0.33740428
51	0xbca226d8	-0.019793913
52	0x3eb3a90a	0.35089904
53	0xbe2cd750	-0.1687901
54	0xbe1727d4	-0.14761287
55	0x3e895dc4	0.2682935
56	0x3e0da9cf	0.13834308
57	0x3d9dceff	0.07705497
58	0x3e2b5c1d	0.16734357
59	0x3e95818c	0.292004
60	0x3e9c3214	0.30506957
61	0xbe5e9dbd	-0.2173986
62	0x3e2e616c	0.17029351
63	0x3dc8dda0	0.098078966
64	0xbd8071ea	-0.062717274
65	0x3e1cf2ff	0.1532707
66	0x3ddf009b	0.10888787
67	0x3de8ca1d	0.11366675
68	0x3e85ea27	0.26155207
69	0xbeb1e57f	-0.34745404
70	0xbe2226b5	-0.15835078
71	0x3da67941	0.08128596
72	0x3e7b3b7e	0.24534413
73	0xbe9e8e53	-0.3096796
74	0x3d921071	0.07132042
75	0x3e19d37d	0.15022083
76	0xbe5c9318	-0.21540487
77	0xbdfd121a	-0.12356968
78	0xbd0a920c	-0.033830687
79	0xbe741ceb	-0.23839156
80	0x3d708798	0.058723062
81	0x3dd25b37	0.10271304
82	0x3ee459d4	0.44599783
83	0xbe8b3ce9	-0.27194908
84	0x3c94a920	0.018147051
85	0x3e7bf247	0.2460414
86	0x3ce5cadc	0.028050832
87	0x3ea3ac80	0.31967545
88	0x3e7a0621	0.244164
89	0x3e4f9828	0.20272887
90	0xbe693c04	-0.227768
91	0xbea31d96	-0.3185851
92	0x3edb518d	0.42835656
93	0x3e7b3592	0.24532154
94	0x3e3bd434	0.18342668
95	0xbd559c21	-0.05215085
96	0xbe38376d	-0.17989893
97	0xbe37c65f	-0.17946766
98	0xbe9f21a3	-0.3108035
99	0x3cf8abdd	0.030355388
100	0x3d5dd80f	0.054161128
101	0xbea3af20	-0.31969547
102	0xbe9c05be	-0.3047313
103	0xbe116337	-0.14198004
104	0x3de90b6d	0.113791324
105	0x3e103ccb	0.1408569
106	0xbe022bae	-0.12711975
107	0x3e51bde4	0.20482594
108	0xbe333dcf	-0.17504047
109	0x3e854b9e	0.26034254
110	0x3e18caa1	0.14921047
111	0xbe9f892e	-0.31159347
112	0xbe870c78	-0.263767
113	0x3d2dfa02	0.042474754
114	0xbe16d18c	-0.14728373
115	0xbd574057	-0.052551594
116	0x3de1e988	0.11030871
117	0xbe16a3f5	-0.14710982
118	0x3eae4442	0.34036452
119	0x3e558370	0.2085092
120	0xbdfd172e	-0.12357937
121	0xbe8ea00e	-0.27856487
122	0xbe8aa1e8	-0.2707665
123	0xbebabd35	-0.36472479
124	0xbe8d3b10	-0.27584124
125	0xbe816d54	-0.25278723
126	0xbe804710	-0.25054216
127	0x3e790f47	0.24322234
128	0x3e11cef3	0.14239101
129	0x3e9dbc30	0.30807638
130	0x3e8edc83	0.27902612
131	0x3ec99db7	0.3937814
132	0xbec5a97e	-0.38605875
133	0xbe5b626a	-0.2142426
134	0xbdd9e056	-0.10638492
135	0xbddf8805	-0.109146155
136	0x3c9697e3	0.018382972
137	0xbeba9bbe	-0.36446947
138	0xbea37b72	-0.3193012
139	0xbb678d2c	-0.0035331948
140	0x3e40fc7d	0.18846317
141	0x3bdd96a6	0.0067623435
142	0xbe661810	-0.22470117
143	0x3e8a127a	0.26967221
144	0xbe889c56	-0.26681775
145	0x3e420eb0	0.18950915
146	0x3e9e111d	0.3087243
147	0x3e699f34	0.22814637
148	0x3e6e13b4	0.23249704
149	0x3d9fb1a7	0.07797556
150	0xbe4477e8	-0.19186366
151	0xbe0a8e03	-0.13530736
152	0x3d9863f4	0.074409395
153	0x3db9b8d9	0.0906846
154	0xbdaf7e37	-0.085689954
155	0x3d84d334	0.06485596
156	0xbbd4cc87	-0.006494108
157	0xbe380c3e	-0.1797342
158	0x3e71a0b8	0.23596466
159	0x3e7c322c	0.24628514
160	0x3e73ad0d	0.23796482
161	0xbeb21eed	-0.3478922
162	0x3dd46f16	0.103727505
163	0xbe7a386d	-0.24435587
164	0xbe851c1c	-0.25998008
165	0x3dd8d37f	0.10587215
166	0xbdd4b5a8	-0.10386211
167	0x3eb23221	0.3480387
168	0xbe510d67	-0.20415269
169	0xbd029edd	-0.031889785
170	0x3ed0d767	0.4078934
171	0x3e0a4e45	0.1350642
172	0xbe6f624f	-0.23377346
173	0xbe9606a3	-0.29301938
174	0x3e4854de	0.19563624
175	0x3e6face4	0.23405796
176	0xbe884ff0	-0.26623487
177	0xbd153eef	-0.03643697
178	0x3d9c7a82	0.07640554
179	0x3df7ebf3	0.121055506
180	0xbee92875	-0.4553868
181	0x3e38e708	0.18056881
182	0xbea87a80	-0.3290596
183	0x3e83baa3	0.2572833
184	0x3ef2920b	0.47377047
185	0xbcee2840	-0.029071927
186	0xbecf2d35	-0.40464178
187	0x3e991596	0.2989928
188	0x3e9eae8a	0.30992538
189	0xbe397d77	-0.18114267
190	0xbeb7c3f7	-0.35891697
191	0xbe52b065	-0.20575102
192	0xbe8a9a50	-0.27070856
193	0x3e3019b2	0.17197302
194	0xbeb7eb86	-0.35921878
195	0xbed46652	-0.41484314
196	0x3e8d7434	0.27627718
197	0x3e0e7ce9	0.13914837
198	0xbe9693cb	-0.29409632
199	0x3e265e73	0.16246967
200	0xbedbcb10	-0.42928362
201	0xbdf013b4	-0.11722508
202	0x3dcb7446	0.09934287
203	0xbd3b914f	-0.045792874
204	0xbd8630ff	-0.06552314
205	0x3c98161b	0.018565228
206	0xbe0c52c4	-0.13703448
207	0xbd12f035	-0.03587361
208	0x3e6182ad	0.22022505
209	0x3d64ff08	0.05590728
210	0x3ef80849	0.4844382
211	0x3e01be4e	0.12670252
212	0xbeddad64	-0.4329635
213	0xbe6311cd	-0.22174759
214	0x3cb34197	0.021881862
215	0x3eba63ab	0.36404166
216	0x3df09350	0.11746848
217	0x3e774da3	0.2415071
218	0xbe88fd9f	-0.26755998
219	0xbe13fa9f	-0.14451073
220	0xbc7937df	-0.015211075
221	0x3d6f442d	0.058414627
222	0xbe190af5	-0.14945586
223	0x3e78028d	0.24219723
224	0x3eed015f	0.4629011
225	0xbe0c1e23	-0.13683371
226	0xbe4dd6b2	-0.20101431
227	0x3ea726b4	0.32646716
228	0xbe30fab6	-0.17283139
229	0xbda16794	-0.07881084
230	0xbedd18fb	-0.4318312
231	0x3ec4e495	0.38455644
232	0xbe264e91	-0.16240908
233	0x3e32f71d	0.17477079
234	0x3cd244fc	0.02566766
235	0xbe2e5bdc	-0.17027229
236	0x3c176fe7	0.009242988
237	0xbde7fd11	-0.113275655
238	0x3e3e632c	0.18592519
239	0x3e962139	0.29322222
240	0x3d31972f	0.04335707
241	0xbeb9db36	-0.36300057
242	0xbe4c59b9	-0.19956101
243	0x3e5b9f4d	0.21447487
244	0xbe91a5a4	-0.28446686
245	0x3ea231e1	0.3167868
246	0xbe9842dd	-0.29738513
247	0xbe529619	-0.2056507
248	0xbea426e9	-0.32060936
249	0x3dd8e0e1	0.10589767
250	0xbdb9c302	-0.09070398
251	0xbdcf70e5	-0.10128955
252	0x3e4c2bda	0.19938603
253	0x3cc4f96f	0.02404472
254	0x3c13096d	0.008974415
255	0xbd68bb5d	-0.05681931

local_trans_pixel.layers.0.1.fn.fn.net.3.bias f4 [32]
0	0xbe491c94	-0.19639808
1	0x3e56a774	0.20962316
2	0x3d9eec39	0.077599
3	0x3e6b6dba	0.22991076
4	0x3d5a60fc	0.053315148
5	0x3dc418fe	0.095750794
6	0xbd9a07c9	-0.07521016
7	0x3d779c16	0.06045159
8	0xbe51eb81	-0.20499994
9	0xbdccfcc9	-0.100091524
10	0xbe5807ef	-0.21096776
11	0xbd9728c3	-0.073808216
12	0xbe5e319e	-0.21698615
13	0x3e290971	0.16507508
14	0xbebdd270	-0.37074614
15	0x3a455ab4	0.00075284694
16	0xbe398249	-0.18116106
17	0xbdd4e6e9	-0.10395605
18	0xbe8e77cf	-0.27825782
19	0xbd540467	-0.05176201
20	0xbd7e1c82	-0.062038906
21	0xbced21ed	-0.028946841
22	0x3e90dd87	0.28294012
23	0xbdcae812	-0.09907545
24	0x3d4efd5c	0.05053459
25	0x3e3ac2d6	0.18238387
26	0x3c7981c4	0.015228692
27	0x3dcfa4cb	0.10138854
28	0x3e455c06	0.19273385
29	0x3e88630a	0.2663806
30	0xbeabbe79	-0.33543757
31	0x3e0df38c	0.13862437
