src/res/GGCL/guided_contra_cross_transformer/Pavia/10/False/ssnew/_1711528234.pth (torch, 266710 bytes, 37 tensors)

pixel_pos_embedding f4 [1, 170, 32]
-0.07932096 1.4033295 -0.07222816 0.39092055 0.5265199 -0.8021324 -0.6739296 -0.7566726
-0.69050777 0.007405757 -3.1434956 -0.78288186 0.0022665332 -1.6506472 -0.21990567 0.088530175
-0.70486796 1.4309158 0.38469154 -0.11053326 -0.1476304 0.1854028 0.375486 1.4445775
-1.285256 0.5992275 -0.7198568 -0.3782472 0.41225144 -0.35397905 2.0867112 -1.9200358
0.35114598 1.230017 0.3563505 0.067451514 1.3559203 1.4953282 -1.6727737 -1.083275
0.41118863 -0.41812697 -0.9211117 1.3285761 1.1439552 -1.3478398 -1.5224215 0.8135027
-0.7678 1.6963466 0.37173873 0.4028294 -0.46264985 -0.45481333 0.040345695 -0.21150827
-1.1169217 -2.1622467 -0.5795928 -0.8949123 1.1347318 -1.4256259 0.62228626 0.4496944
1.3238863 1.005798 0.63095176 1.1854986 1.8709875 -0.6814451 0.0071816016 1.4869192
-0.5843516 -0.7668462 0.843231 1.9580548 -1.1824279 1.1896214 -2.5726352 0.5847612
-1.7873429 0.704979 -0.69554895 -0.46081796 -1.0376984 -0.5064319 0.23533486 -0.33609518
0.5859388 -0.27635676 -1.696245 1.3660493 0.046742994 -0.43186548 0.11027763 -1.0380485
0.44341308 -1.9128937 -1.0253309 -0.26421866 0.15289564 -1.3268623 1.555253 0.453355
-0.28546587 -0.8492498 0.83613205 -0.047085024 -0.7227442 2.0840297 1.4200217 -1.4539373
-2.3562603 -0.652679 -0.39339244 -0.06529322 1.246409 0.6016863 1.0802945 -1.3069952
1.1935942 -0.63994694 1.4116818 -0.72449917 1.3103528 0.8507865 -1.9219009 -0.089892864
1.6841323 -0.06292298 0.6877117 0.4126756 0.18234375 0.53059757 -0.44843948 1.1494682
2.3302522 -0.7203303 0.6291964 -0.962125 0.5739731 0.7179501 0.357255 0.2467736
-0.31811434 -0.6906602 -0.21667534 2.1172097 -0.67718 -0.7614435 -1.0424253 -0.9379156
-0.61090064 1.4058665 -1.0914565 6.089468e-05 0.07814941 0.3221634 0.75286627 -0.36642125
-0.22812128 -2.1756396 1.4549168 -0.7642879 -1.8778667 0.8285516 -1.5185142 -1.5170912
-0.47937575 1.6744267 1.2171911 -2.3904848 0.734221 0.37571943 -0.9181281 -1.1874712
-0.69957227 -0.38601184 0.8793063 -0.56192213 -0.5122027 0.3501902 1.0055587 -0.5945496
-1.3377707 0.023815522 -0.48656818 0.57153124 0.21098976 -0.04656847 1.0396314 0.79451156
0.055695917 -0.031264354 0.37039527 -0.62939 -1.4622754 1.2247391 1.2758601 0.1074503
1.4398166 -1.1909891 -2.6683106 1.2185713 0.14171153 -2.241375 0.2670451 1.2091178
0.5861244 0.78490376 1.3637626 1.0237218 -0.87467015 0.37957674 0.1588761 1.1313027
-1.1222935 -0.8120466 -0.21844132 3.4479263 -0.052130442 1.6367306 -0.26219842 -1.957306
0.097200125 -0.44285694 0.7176241 0.84935755 0.25818378 -0.99070364 -0.07208498 2.37899
-0.44474393 -0.038415946 0.57628804 -0.47704443 -0.4250112 -0.03398983 0.38483104 1.0825298
-2.9775515 -0.35646176 0.114224926 -0.9283617 -0.5370618 -0.6133521 -0.6007592 -0.8149938
-0.90949315 0.29364678 0.047168016 -0.3430218 0.051295456 -0.33153036 -1.0164686 0.6336564
00000000: 0773 a2bd 4da0 b33f 5cec 93bd bd26 c83e
00000010: 02ca 063f 8d58 4dbf a686 2cbf 4cb5 41bf
00000020: 1ec5 30bf feab f23b 082f 49c0 f26a 48bf
00000030: 1e8a 143b 6848 d3bf f42e 61be 4f4f b53d
00000040: 3a72 34bf 4028 b73f 4af6 c43e 435f e2bd
00000050: 6c2c 17be 3bda 3d3e b33f c03e eae7 b83f
00000060: 4583 a4bf f966 193f 8948 38bf 9ea9 c1be
00000070: 9f12 d33e be3c b5be ad8c 0540 bcc3 f5bf
00000080: 68c9 b33e 3271 9d3f 9373 b63e 0524 8a3d
00000090: cc8e ad3f ea66 bf3f 731d d6bf c1a8 8abf
000000a0: 5187 d23e bd14 d6be facd 6bbf c80e aa3f
000000b0: 206d 923f 0486 acbf b5de c2bf b741 503f
000000c0: 8a8e 44bf e321 d93f 8a54 be3e a83f ce3e
000000d0: 71e0 ecbe 4bdd e8be 8741 253d a095 58be
000000e0: 4af7 8ebf 4062 0ac0 3260 14bf f918 65bf
000000f0: e43e 913f e97a b6bf 274e 1f3f 583e e63e
00000100: 1b75 a93f fdbd 803f 0e86 213f 6bbe 973f
00000110: 857c ef3f 3073 2ebf a453 eb3b 5e53 be3f
00000120: 1198 15bf 0850 44bf fddd 573f 8aa1 fa3f
00000130: cc59 97bf 8445 983f 0ea6 24c0 e9b2 153f
00000140: a7c7 e4bf 8179 343f 7f0f 32bf 55f0 ebbe
00000150: 4dd3 84bf 85a5 01bf 9ffb 703e ab14 acbe
00000160: 1600 163f a27e 8dbe 8e1e d9bf b4da ae3f
00000170: 9575 3f3d 791d ddbe 3dd9 e13d c6de 84bf
00000180: 0a07 e33e b3d9 f4bf 0b3e 83bf ab47 87be
00000190: ad90 1c3e a0d6 a9bf 8812 c73f 261e e83e
000001a0: 9528 92be 6f68 59bf c00c 563f 3adc 40bd
000001b0: c405 39bf be60 0540 45c3 b53f 9e1a babf
000001c0: f8cc 16c0 f915 27bf bc6a c9be 74b8 85bd
000001d0: 558a 9f3f 1d08 1a3f 1747 8a3f 9e4b a7bf
000001e0: b2c7 983f 90d3 23bf fdb1 b43f c778 39bf
000001f0: a4b9 a73f 25cd 593f d900 f6bf c019 b8bd
00000200: a691 d73f c3dd 80bd e00d 303f 374a d33e
00000210: 52b8 3a3e 3ed5 073f dc99 e5be c621 933f
00000220: da22 1540 9167 38bf 0413 213f d34d 76bf
00000230: e7ef 123f 94cb 373f 21ea b63e 38b2 7c3e
00000240: e2df a2be 1bcf 30bf 24e0 5dbe 5d80 0740
00000250: ab5b 2dbf f6ed 42bf 316e 85bf 3d1b 70bf
00000260: fc63 1cbf 6ff3 b33f d9b4 8bbf 2a69 7f38
00000270: cc0c a03d 9af2 a43e d8bb 403f 919b bbbe
00000280: a098 69be ae3d 0bc0 b73a ba3f 5fa8 43bf
00000290: f05d f0bf f51b 543f ac5e c2bf 0b30 c2bf
000002a0: bd70 f5be 9d53 d63f ebcc 9b3f b4fd 18c0
000002b0: e8f5 3b3f 4c5e c03e 710a 6bbf 0eff 97bf
000002c0: 2b17 33bf 58a3 c5be 381a 613f 21da 0fbf
000002d0: b71f 03bf 214c b33e 26b6 803f 6734 18bf
000002e0: 123c abbf c518 c33c 771f f9be df4f 123f
000002f0: b30d 583e 94be 3ebd a412 853f 1c65 4b3f
00000300: 6721 643d 0d0f 00bd 73a4 bd3e b41f 21bf
00000310: d72b bbbf 40c4 9c3f 624f a33f e70e dc3d
00000320: e94b b83f 5572 98bf 9ac5 2ac0 25fa 9b3f
00000330: d41c 113e b072 0fc0 23ba 883e 5fc4 9a3f
00000340: 400c 163f 74ef 483f c68f ae3f 5109 833f
00000350: 62ea 5fbf e257 c23e 6bb0 223e 87ce 903f
00000360: 50a7 8fbf 49e2 4fbf 15af 5fbe d3aa 5c40
00000370: bb86 55bd 6380 d13f df3e 86be 0189 fabf
00000380: dc10 c73d 25be e2be 37b6 373f 7f6f 593f
00000390: aa30 843e c19e 7dbf 4aa1 93bd 5f41 1840
000003a0: 7ab5 e3be 0a5a 1dbd 9d87 133f 2b3f f4be
000003b0: 119b d9be ec38 0bbd 9308 c53e 5690 8a3f
000003c0: 3490 3ec0 2882 b6be c2ee e93d 1da9 6dbf
000003d0: e27c 09bf a504 1dbf 5bcb 19bf 6fa3 50bf
000003e0: 8bd4 68bf df58 963e 4033 413d 8ea0 afbe
000003f0: 2f1b 523d 59be a9be a51b 82bf 4e37 223f

cls_token_pixel f4 [1, 1, 32]
-0.7404678 -0.42784828 -0.6443127 -0.037710067 -0.4913366 0.77059174 -0.36324894 -0.3687011
-0.9684456 -1.0176603 1.5808808 -0.8983437 -0.24464639 1.5557072 -0.20055073 1.3185923
-0.1395688 -1.2907267 0.015051596 0.76302165 0.7371319 2.5183465 0.330533 -0.6424702
-0.9966735 -1.2680111 0.15277115 0.92140007 -0.92082196 -0.6068135 -2.1361406 1.2238264
00000000: 4c8f 3dbf ee0e dbbe adf1 24bf df75 1abd
00000010: 7990 fbbe 8045 453f c4fb b9be 64c6 bcbe
00000020: 0dec 77bf b142 82bf 4d5a ca3f daf9 65bf
00000030: 9584 7abe 6a21 c73f 2c5d 4dbe a2c7 a83f
00000040: 20eb 0ebe 8836 a5bf f89a 763c 6355 433f
00000050: adb4 3c3f 972c 2140 9f3b a93e ed78 24bf
00000060: ff25 7fbf 304e a2bf 0a70 1c3e e0e0 6b3f
00000070: fdba 6bbf 2158 1bbf 87b6 08c0 58a6 9c3f

pixel_patch_embedding.weight f4 [32, 30]
0.17072493 -0.066794544 0.16043922 -0.067902796 0.13851532 0.17518705 0.123747796 -0.0035352558
0.08568233 -0.034442738 0.15004095 -0.1473971 -0.025519505 -0.059193432 0.028902441 0.048633173
0.025621608 0.022894755 0.10120875 -0.11631511 0.07242146 0.17352408 0.13065061 -0.1270412
0.108705044 0.08871162 -0.17405602 -0.07843002 0.025295809 -0.10253916 -0.04997325 0.16829398
0.14352697 -0.1604315 -0.17410292 0.026689813 -0.139557 0.1801934 0.12403983 -0.123334154
-0.106266886 0.111438125 -0.0655044 0.014026746 0.10305533 0.1671592 0.105012715 -0.053019315
0.0037607998 0.093186855 0.17058378 0.11283016 -0.09775384 0.13202864 -0.10261762 0.07308197
-0.05641432 0.03820643 0.027023703 -0.08465966 0.15048292 -0.051652253 -0.06781732 0.17940402
-0.17525658 0.09167242 -0.09864076 -0.010142431 0.17346585 0.08457333 0.09973875 0.11957839
0.019156367 0.1756129 -0.15722148 -0.05863332 -0.14731434 0.18113169 0.08066586 0.1271599
0.07591435 -0.025328606 -0.15678497 0.12804073 0.13290519 -0.011361286 0.10363814 -0.005623102
-0.13260075 -0.12558436 0.0047484934 -0.06181229 -0.028303623 0.07714799 0.12518421 -0.17716186
0.16182578 -0.028732345 -0.13292849 0.07274103 0.18019244 0.07675025 0.17313844 -0.061751723
0.16951516 -0.14815292 0.07377043 0.02269341 -0.07457164 -0.17847396 0.008071899 0.023916677
0.13820994 0.124776006 -0.04503447 -0.14607619 0.0946151 -0.1280533 0.011381641 -0.18146387
0.114878684 -0.1336147 0.050949544 -0.068360545 0.15273383 -0.04155408 0.14048156 0.0527685
-0.0073786825 0.03726107 -0.11847592 -0.12235575 -0.14469892 0.118953556 0.11058006 -0.072999544
-0.14218049 0.097791165 0.012491152 -0.17191657 0.02364856 0.15827894 0.11082831 -0.14392868
-0.1762518 0.0730291 0.1462563 0.07658845 -0.07858572 0.094311744 -0.020842984 0.057093397
-0.041274235 0.090803 0.06976724 -0.08447603 0.07101673 -0.01047717 0.016389519 0.03481996
-0.0955894 0.044562712 -0.15233327 -0.050460756 0.0998559 0.042103916 -0.019388199 0.06095797
-0.060741827 0.050046593 -0.0024849474 -0.070577174 -0.1633605 -0.07730882 -0.09959105 0.1708399
-0.16564995 0.10207933 -0.17695113 -0.033501387 -0.15739392 -0.10387403 -0.1127212 -0.1738737
-0.11168797 -0.15909372 -0.0019102246 0.13081887 0.10635486 -0.14689264 0.14703593 -0.17962351
-0.1625201 0.1817202 0.063837096 0.07563707 -0.13674495 -0.1818037 0.17304409 0.1469942
0.030576527 -0.14681447 0.15400428 -0.07842773 0.026176795 -0.037584096 -0.14707801 0.15903786
-0.121981144 -0.07008678 -0.04087566 0.101374805 0.02510862 0.10254109 0.1506829 0.17745507
-0.08492945 -0.07929083 -0.1363297 0.030440673 -0.048682272 -0.16251734 -0.17089808 0.08842313
-0.045691013 -0.05460015 -0.15566888 -0.12968996 -0.021776289 -0.006633207 0.1653933 0.0117786825
-0.012071371 0.09669262 -0.09309977 -0.17316417 0.076441616 0.1473842 -0.0645003 -0.08511865
-0.107027814 0.044118658 -0.059463 0.03647998 -0.11170299 -0.14845511 -0.14027682 0.14979333
0.14918247 0.08647999 -0.10122713 -0.010393888 0.030190751 -0.1642051 0.07684359 -0.13269643
00000000: 84d2 2e3e 94cb 88bd 2e4a 243e 9f10 8bbd
00000010: f6d6 0d3e 3c64 333e 7c6f fd3d c0af 67bb
00000020: 387a af3d d413 0dbd 56a4 193e 44ef 16be
00000030: 480e d1bc d074 72bd d0c4 ec3c 9433 473d
00000040: 68e4 d13c c88d bb3c 8846 cf3d 9e36 eebd
00000050: b451 943d 4cb0 313e 46c9 053e 1717 02be
00000060: c0a0 de3d 70ae b53d be3b 32be eb9f a0bd
00000070: 2839 cf3c 0d00 d2bd c0b0 4cbd 4255 2c3e
00000080: bcf8 123e 2848 24be 0948 32be 98a4 da3c
00000090: 08e8 0ebe 9e84 383e 9808 fe3d 9e96 fcbd
000000a0: 74a2 d9bd ac39 e43d 2c27 86bd 70d0 653c
000000b0: ac0e d33d c82b 2b3e e810 d73d c82a 59bd
000000c0: c077 763b c0d8 be3d 84ad 2e3e 8013 e73d
000000d0: 2a33 c8bd 8432 073e 3029 d2bd 00ac 953d
000000e0: b412 67bd 587e 1c3d d060 dd3c 0b62 adbd
000000f0: 3218 1a3e 5091 53bd cfe3 8abd b0b5 373e
00000100: 7676 33be c0be bb3d 2b04 cabd 702c 26bc
00000110: 08a1 313e c834 ad3d d443 cc3d 84e5 f43d
00000120: d0ed 9c3c ded3 333e abfe 20be 7e29 70bd
00000130: 92d9 16be 967a 393e 2434 a53d 3436 023e
00000140: fc78 9b3d f07d cfbc 3d8c 20be 1c1d 033e
00000150: 4c18 083e b024 3abc 3c40 d43d 0042 b8bb
00000160: 7ec8 07be 3099 00be 4099 9b3b e22e 7dbd
00000170: 00dd e7bc c4ff 9d3d 4a30 003e eb69 35be
00000180: a8b5 253e 1860 ebbc 681e 08be 40f9 943d
00000190: 5e84 383e 3c2f 9d3d 344b 313e 60ef 7cbd
000001a0: 6295 2d3e 66b5 17be f414 973d 88e7 b93c
000001b0: 04b9 98bd e1c1 36be 0040 043c e8ec c33c
000001c0: e886 0d3e 908a ff3d 1076 38bd ff94 15be
000001d0: 90c5 c13d 6720 03be 107a 3a3c aad1 39be
000001e0: 8445 eb3d 4bd2 08be 78b0 503d 9d00 8cbd
000001f0: 4266 1c3e 9c34 2abd 66da 0f3e c823 583d
00000200: e0c8 f1bb 109f 183d 81a3 f2bd a795 fabd
00000210: f42b 14be ec9d f33d cc77 e23d c980 95bd
00000220: c397 11be bc46 c83d b0a7 4c3c e60a 30be
00000230: a0ba c13c e013 223e f4f9 e23d 0a62 13be
00000240: 5a7b 34be 4890 953d 36c4 153e 68da 9c3d
00000250: 8df1 a0bd 8426 c13d e8be aabc c4da 693d
00000260: 2c0f 29bd ecf6 b93d 20e2 8e3d c501 adbd
00000270: 3871 913d 70a8 2bbc 5043 863c 609f 0e3d
00000280: 60c4 c3bd 6487 363d 41fd 1bbe f0af 4ebd
00000290: 4081 cc3d 2875 2c3d 00d4 9ebc 10af 793d
000002a0: 6ccc 78bd a8fd 4c3d 80da 22bb c48a 90bd
000002b0: fa47 27be 1654 9ebd 64f6 cbbd a8f0 2e3e
000002c0: 24a0 29be f80e d13d ad32 35be c038 09bd
000002d0: df2b 21be e8bb d4bd 5fda e6bd f20b 32be
000002e0: aabc e4bd 77e9 22be 8060 faba 62f5 053e
000002f0: 94d0 d93d 066b 16be 9690 163e 3aef 37be
00000300: ab6b 26be dc14 3a3e 06bd 823d 9ce7 9a3d
00000310: de06 0cbe c02a 3abe 7832 313e a685 163e
00000320: a07b fa3c 8856 16be 4cb3 1d3e b89e a0bd
00000330: b870 d63c c8f1 19bd 9e9b 16be d2da 223e
00000340: 40d1 f9bd a889 8fbd 3c6d 27bd 989d cf3d
00000350: 98b0 cd3c 1001 d23d 9e4c 1a3e c8b6 353e
00000360: 7eef adbd 3b63 a2bd 039a 0bbe b85e f93c
00000370: 1067 47bd f26a 26be e8ff 2ebe 3017 b53d
00000380: 8026 3bbd 68a4 5fbd aa67 1fbe 72cd 04be
00000390: 3064 b2bc 605b d9bb dc5c 293e 60fb 403c
000003a0: 00c7 45bc c806 c63d 18ab bebd f351 31be
000003b0: 6c8d 9c3d e2eb 163e bc18 84bd b052 aebd
000003c0: 6631 dbbd c4b5 343d 7a8f 73bd 086c 153d
000003d0: 8ac4 e4bd 9e04 18be baa4 0fbe 6c63 193e
000003e0: 4ac3 183e 6c1c b13d 2b50 cfbd 204b 2abc
000003f0: 9852 f73c 6225 28be 2c60 9d3d 93e1 07be

pixel_patch_embedding.bias f4 [32]
-0.16035938 -0.038886443 -0.025563404 0.17772451 0.17063051 -0.133654 -0.11029713 -0.068579085
0.088709384 -0.14662287 0.064339474 -0.030280486 0.16790095 0.038363203 -0.011609241 0.07888064
-0.1820477 -0.18119147 0.047277644 -0.06920699 0.03411825 -0.13031724 -0.07211486 0.13561898
-0.058384158 -0.041542605 0.016052157 0.11734438 0.15511969 -0.010214597 -0.10948734 0.1494197
00000000: 4035 24be 6447 1fbd 586a d1bc 6afd 353e
00000010: c4b9 2e3e 98dc 08be 76e3 e1bd 3173 8cbd
00000020: 44ad b53d 4e24 16be 6ac4 833d c80e f8bc
00000030: 3aee 2b3e bc22 1d3d b034 3ebc 2c8c a13d
00000040: b66a 3abe 428a 39be 34a6 413d 65bc 8dbd
00000050: 94bf 0b3d e271 05be f5b0 93bd b4df 0a3e
00000060: 3a24 6fbd 9428 2abd d07f 833c 4052 f03d
00000070: b2d7 1e3e 205b 27bc e63a e0bd 7a01 193e

local_trans_pixel.layers.0.0.fn.norm.weight f4 [32]
1.1608891 1.1331749 1.1164962 1.1414046 1.0876663 1.1284285 1.1449825 1.1309147
1.1238467 1.1074959 1.1294246 1.0894889 1.1688201 1.1409005 1.1171093 1.0737569
1.0894839 1.1555187 1.1101334 1.0929797 1.1577694 1.100126 1.0935092 1.163047
1.0999361 1.1599654 1.0916395 1.0850899 1.1257735 1.1545451 1.0740514 1.1339831
00000000: 0498 943f e00b 913f 59e9 8e3f 8c19 923f
00000010: a638 8b3f 5870 903f c98e 923f d0c1 903f
00000020: 35da 8f3f 6dc2 8d3f fc90 903f 5f74 8b3f
00000030: e69b 953f 0709 923f 70fd 8e3f de70 893f
00000040: 3574 8b3f 09e8 933f da18 8e3f c2e6 8b3f
00000050: ca31 943f eed0 8c3f 1cf8 8b3f b9de 943f
00000060: b5ca 8c3f bf79 943f d8ba 8b3f 3ae4 8a3f
00000070: 5919 903f 22c8 933f 847a 893f 5c26 913f

local_trans_pixel.layers.0.0.fn.norm.bias f4 [32]
-0.0840223 0.1757356 -0.029832296 0.18827374 0.219061 0.12800859 -0.11946572 -0.205125
-0.06362034 -0.14921695 -0.022994751 -0.15445767 -0.2633658 -0.036574084 -0.20636669 0.109337516
-0.11709403 0.13975766 0.19954489 0.046234947 0.17221174 0.12935308 0.18517877 0.10562891
-0.14332233 -0.120873466 -0.051112875 0.104117736 0.14943843 -0.048845753 -0.055977527 -0.112897046
00000000: e213 acbd 08f4 333e dc62 f4bc d5ca 403e
00000010: 8751 603e af14 033e 72aa f4bd 4a0c 52be
00000020: 614b 82bd 54cc 18be 7d5f bcbc 272a 1ebe
00000030: e2d7 86be b5ce 15bd ca51 53be 59ec df3d
00000040: ffce efbd a21c 0f3e 7f55 4c3e db60 3d3d
00000050: 4658 303e 2275 043e 819f 3d3e f853 d83d
00000060: 17c3 12be 828c f7bd bc5b 51bd ae3b d53d
00000070: 6306 193e 7c12 48bd b148 65bd 9136 e7bd

local_trans_pixel.layers.0.0.fn.fn.to_qkv.weight f4 [768, 32]
0.09905491 -0.21105759 0.0149631705 0.02421505 0.06464705 -0.0042782873 0.060769375 0.016364284
0.07629709 0.18216766 -0.0063365493 -0.034753576 0.117787585 -0.05340662 -0.17361182 -0.091780774
0.27162564 0.0049527627 -0.21082236 -0.10677098 -0.035211317 -0.07208012 -0.16678579 0.018489515
0.04473173 0.08689505 -0.16681734 0.15502895 0.21959476 0.04089165 0.23456773 -0.019396674
0.0038873435 0.10038498 -0.0048227995 -0.27581257 0.0119109815 -0.069519415 0.005744387 0.2393398
0.060478844 -0.06768431 0.18422227 -0.053376675 0.0336823 0.074729495 0.037760217 0.09503241
-0.019213105 -0.15549465 -0.0110182585 -0.23455997 -0.22429356 -0.13308473 -0.0063649775 0.13828279
-0.018034002 -0.048514146 0.14222586 -0.058204394 -0.13624507 0.124334104 -0.035536364 0.06514706
0.14726354 -0.039699435 -0.04089228 0.09869388 -0.113096215 -0.2084564 0.09374912 0.10329153
-0.08039073 -0.03840133 0.07574543 0.07861782 0.004839307 0.1355425 0.075533986 -0.044545863
0.04441099 0.051940493 0.057772063 0.061936732 -0.220931 -0.20544587 0.12279549 0.06561845
-0.113138996 0.12959044 -0.08831254 0.057494 0.078240104 -0.030941907 -0.15108925 -0.18164378
0.038758278 -0.10929338 0.090691045 0.053177163 -0.19083622 -0.007672365 -0.06870036 0.071216136
0.08929859 0.103125475 -0.10376121 -0.054792043 0.030357057 -0.017294215 -0.062412135 -0.18224098
-0.030496823 0.020627331 -0.23483717 0.094558544 -0.2172475 -0.08420221 -0.08017246 -0.01960674
-0.065794304 0.18716235 -0.12881897 -0.0550305 0.036589306 0.11343916 -0.009044066 -0.07535665
0.15597844 0.21018572 0.13268065 -0.018552173 0.12420331 0.111650564 -0.16273993 -0.18022522
-0.02490476 -0.08090287 0.06608849 -0.16979343 -0.23302549 -0.032550193 -0.16321468 0.014038928
-0.01658414 0.15798199 0.12878963 -0.14451955 0.2180284 -0.07927004 -0.075288296 0.03290181
-0.07135869 0.011398277 0.08003038 0.039046463 0.18953805 -0.015681135 0.18056495 -0.054102864
-0.13277951 0.0866209 0.12537976 0.1499475 0.060363177 -0.016943643 0.05612064 0.10262912
0.08372949 0.10974039 -0.1736916 -0.077130094 -0.024554651 -0.040637664 0.0446239 -0.20789264
-0.014166269 0.0096825715 0.13856742 0.21288916 0.16888033 0.057540584 -0.06034647 -0.02678811
0.14577393 -0.12835217 -0.06297925 -0.1521505 0.12789099 -0.028840497 -0.22307971 -0.12561356
-0.06617011 0.028145941 -0.07232345 0.21510898 0.03294196 0.026405862 -0.10964515 0.10261944
-0.026449105 0.0067058546 0.12555479 -0.0924174 -0.13439731 -0.20260781 0.05170442 -0.10449772
-0.12654056 -0.0060750516 0.14568691 0.07611107 0.10112644 0.188941 -0.14931244 0.158497
-0.12517841 -0.01489244 0.11853655 -0.08887605 0.13942915 -0.1368958 0.099829875 -0.094145335
0.051430847 0.2104483 0.12426334 -0.019814488 0.115235925 0.012694607 0.0375514 -0.14737935
0.06578822 0.021977251 -0.030250741 -0.097505696 -0.078290366 0.048144307 -0.0030477499 0.22852911
0.06789302 -0.16091794 -0.121981986 -0.10456921 0.16260205 -0.13754892 -0.005230554 0.049277134
0.04564084 -0.16121426 -0.04438159 0.023200262 0.17976962 -0.19419901 0.05128385 0.023214245
00000000: 4ddd ca3d 7b1f 58be 1628 753c a45e c63c
00000010: ac65 843d e030 8cbb 4fe9 783d 640e 863c
00000020: a641 9c3d 298a 3a3e d4a2 cfbb c459 0ebd
00000030: 9e3a f13d e6c0 5abd 4cc7 31be 8ff7 bbbd
00000040: 8412 8b3e c94a a23b d1e1 57be beaa dabd
00000050: be39 10bd be9e 93bd e5c9 2abe 5377 973c
00000060: 9e38 373d 08f6 b13d 2ad2 2abe e9bf 1e3e
00000070: 73dd 603e 017e 273d 8632 703e c6e5 9ebc
00000080: cdc2 7e3b a496 cd3d 9308 9ebb 4e37 8dbe
00000090: 4726 433c 3260 8ebd 693b bc3b 7e15 753e
000000a0: aab8 773d 129e 8abd c3a4 3c3e 80a1 5abd
000000b0: 74f6 093d c70b 993d 75aa 1a3d 5aa0 c23d
000000c0: cd64 9dbc fd39 1fbe ed85 34bc 7d30 70be
000000d0: 36ad 65be 5d47 08be 4d91 d0bb 019a 0d3e
000000e0: 0bbc 93bc c5b6 46bd a8a3 113e bb67 6ebd
000000f0: d483 0bbe e1a2 fe3d 948e 11bd d26b 853d
00000100: 41cc 163e e09b 22bd aa7e 27bd 0420 ca3d
00000110: fd9e e7bd 9875 55be 8aff bf3d 828a d33d
00000120: e5a3 a4bd b74a 1dbd 6c20 9b3d 6102 a13d
00000130: 0d93 9e3b a7cb 0a3e 90b1 9a3d b975 36bd
00000140: 4ce8 353d 8ebf 543d 66a2 6c3d 5fb1 7d3d
00000150: bc3b 62be 6760 52be 347c fb3d f762 863d
00000160: 6bb5 e7bd 5bb3 043e 34dd b4bd d47e 6b3d
00000170: 593c a03d e279 fdbc 24b7 1abe d400 3abe
00000180: 00c1 1e3d 35d5 dfbd 3abc b93d 4cd0 593d
00000190: 926a 43be 7668 fbbb c6b2 8cbd c4d9 913d
000001a0: 2ee2 b63d 7333 d33d c280 d4bd 9f6d 60bd
000001b0: 5daf f83c 99ac 8dbc dea3 7fbd 619d 3abe
000001c0: 79d4 f9bc a6fa a83c 2879 70be e9a7 c13d
000001d0: 2176 5ebe 3572 acbd 7531 a4bd 509e a0bc
000001e0: 2abf 86bd 7da7 3f3e 1fe9 03be a967 61bd
000001f0: abde 153d ca52 e83d 902d 14bc 9654 9abd
00000200: d0b8 1f3e ed3a 573e 70dd 073e bafa 97bc
00000210: 4e5e fe3d 0da9 e43d 4ca5 26be f68c 38be
00000220: 1105 ccbc 67b0 a5bd 6759 873d 54de 2dbe
00000230: 3c9e 6ebe 5a53 05bd c021 27be 8803 663c
00000240: 76db 87bc 08c6 213e 6ee1 033e effc 13be
00000250: d642 5f3e 5558 a2bd c030 9abd 0cc4 063d
00000260: 8124 92bd d7bf 3a3c f8e6 a33d 2fef 1f3d
00000270: 4316 423e b975 80bc 05e6 383e f79a 5dbd
00000280: 5af7 07be 4c66 b13d 8d63 003e d68b 193e
00000290: 613f 773d 65cd 8abc c2de 653d 372f d23d
000002a0: 5e7a ab3d 92bf e03d 36dc 31be 62f6 9dbd
000002b0: d626 c9bc ae73 26bd 8dc7 363d cfe1 54be
000002c0: a419 68bc a6a3 1e3c 9ee4 0d3e 9eff 593e
000002d0: f7ee 2c3e adaf 6b3d dc2d 77bd bd72 dbbc
000002e0: c345 153e c06e 03be 44fb 80bd 57cd 1bbe
000002f0: dbf5 023e e842 ecbc 026f 64be d7a0 00be
00000300: 3284 87bd 5192 e63c 511e 94bd 8745 5c3e
00000310: 26ee 063d 1b51 d83c a38d e0bd 242a d23d
00000320: cbab d8bc c9bc db3b 6f91 003e 5545 bdbd
00000330: 739f 09be 6c78 4fbe 04c8 533d e702 d6bd
00000340: d993 01be 3a11 c7bb f32e 153e 1fe0 9b3d
00000350: 611b cf3d c079 413e 5ce5 18be 0a4d 223e
00000360: c52e 00be 6cff 73bc 4ac3 f23d a604 b6bd
00000370: 84c6 0e3e 6a2e 0cbe 9b73 cc3d 45cf c0bd
00000380: 27a9 523d c27f 573e c77d fe3d fe51 a2bc
00000390: d000 ec3d 0afd 4f3c 7fcf 193d 9dea 16be
000003a0: f9bb 863d a309 b43c 67d0 f7bc 11b1 c7bd
000003b0: b356 a0bd f732 453d c2bc 47bb 8903 6a3e
000003c0: 7f0b 8b3d acc7 24be b1d1 f9bd 6228 d6bd
000003d0: 2781 263e a0d9 0cbe 1165 abbb d2d6 493d
000003e0: e4f1 3a3d 5a15 25be 78c9 35bd 7a0e be3c
000003f0: 8715 383e 1bdc 46be 040f 523d cd2b be3c

local_trans_pixel.layers.0.0.fn.fn.to_out.0.weight f4 [32, 256]
-0.049234636 -0.052374158 -0.069129795 -0.1178727 -0.0029068405 -0.02783553 -0.023438502 0.1155508
-0.023801023 -0.05558947 0.06951574 0.011855928 0.08216854 -0.011803886 0.055501074 0.050946575
-0.0044915313 -0.090660356 -0.031848393 0.0050277617 0.008720245 -0.09227346 -0.01742182 -0.035344075
-0.022965109 -0.025676254 -0.0451714 0.079814516 -0.08715207 0.02820461 -0.049668785 -0.02845096
-0.053536355 -0.01548005 -0.100762665 0.01847672 0.05030737 -0.103259556 -0.022199208 -0.0602129
-0.001212604 -0.05071015 -0.017799523 0.048522916 0.05881064 0.025844347 -0.0026744932 0.05127531
0.016942872 -0.044687264 -0.0505563 -0.029424358 -0.032538842 -0.07608972 0.04111901 -0.024506517
-0.049672555 0.057775795 0.06528439 -0.030181251 -0.0074673872 -0.15547712 0.053724814 0.06556551
-0.07748141 -0.025362296 0.06390714 -0.12972625 -0.07285881 -0.045294724 -0.06660655 -0.011859179
-0.05714365 0.04376603 0.033040535 -0.06872164 -0.010865169 0.032655813 -0.049576703 0.011779128
0.030574353 -0.015174906 0.057637002 0.10090957 -0.07377956 0.08884093 -0.048725907 -0.0058318684
-0.08231066 0.014599366 0.04326967 0.025055045 -0.0033279208 0.04410299 0.0078117326 -0.024111362
0.08167183 0.024659391 0.00917166 -0.031089848 -0.07481551 -0.023996372 0.0888268 0.026879674
-0.032713957 0.018137595 -0.009236251 -0.09258978 -0.1395068 0.052948263 -0.07095512 -0.0437493
-0.052098062 0.021623202 -0.02405182 0.037805367 -0.03192766 -0.00096901954 0.096463665 -0.06682379
-0.00568379 -0.018274255 -0.030797524 0.045224305 0.034408774 -0.002540045 0.07305018 0.1114754
-0.013857366 0.061314225 -0.039074272 -0.024191437 0.091913916 0.0029277413 0.035819132 0.12816878
0.028887542 0.07751023 -0.0042084074 -0.025160143 0.036109302 0.093493745 0.00831745 -0.030469365
-0.054028306 0.08205256 0.06727892 0.03700859 -0.055139326 0.048664674 0.022605633 -0.0055774357
0.069862455 -0.02009044 -0.012916977 -0.09916717 -0.059732277 -0.06897713 -0.118566394 0.07371878
0.05779742 -0.01348397 0.050820712 0.067979485 -0.06581637 0.044594184 0.0129503785 0.07054978
0.015701054 0.018359562 0.022921203 -0.016064364 0.0025266232 0.028102998 0.0072207428 0.062245466
0.018730022 -0.074147776 -0.04733565 0.022842815 -0.0442526 -0.022521531 -0.0034925626 0.007086466
0.028187573 0.009618905 -0.03620462 -0.063779 -0.029020874 -0.026656665 -0.023241209 -0.08966914
-0.09152739 0.10192585 -0.019390088 -0.060379703 0.07826465 -0.036476135 -0.020691281 0.024508916
-0.038433917 0.012279588 -0.016889228 0.09362798 0.15372111 -0.04770778 0.10891125 0.063443996
-0.06536678 0.034319557 0.07370319 -0.05501299 0.028722364 0.022348996 -0.05049422 0.010044347
-0.039933726 0.0355937 0.036825523 -0.11481176 0.016264237 0.03985361 0.027874397 0.031316284
0.020399747 0.033287562 0.05000773 0.077243574 0.031716734 0.00026556844 -0.0026226144 0.029617416
0.002560414 -0.085417986 0.0033903152 -0.027120976 -0.017920502 -0.0017132836 0.07545953 -0.0041078427
0.073107354 0.059453215 -0.0013084552 -0.0034919148 0.008164329 0.09050279 -0.03638382 0.0672292
0.071424395 -0.03095405 0.036289614 0.019913841 0.045261398 0.06555201 -0.04738137 0.06164888
00000000: 42aa 49bd 4986 56bd ec93 8dbd 3e67 f1bd
00000010: b180 3ebb 5607 e4bc 1a02 c0bc e6a5 ec3d
00000020: 5dfa c2bc c9b1 63bd 455e 8e3d 5e3f 423c
00000030: fb47 a83d 1665 41bc 1855 633d 5bad 503d
00000040: b22d 93bb 23ac b9bd 7673 02bd ecbf a43b
00000050: 5cdf 0e3c def9 bcbd 34b8 8ebc f3c4 10bd
00000060: 5321 bcbc 0257 d2bc a505 39bd cb75 a33d
00000070: c97c b2bd 5b0d e73c 7f71 4bbd fd11 e9bc
00000080: f048 5bbd 09a0 7dbc a85c cebd 7e5c 973c
00000090: 1a0f 4e3d bf79 d3bd 1ddb b5bc cda1 76bd
000000a0: 3df0 9eba 72b5 4fbd 4ed0 91bc f7bf 463d
000000b0: 6de3 703d 86b7 d33c 8d46 2fbb 0f06 523d
000000c0: c7cb 8a3c fe09 37bd 1f14 4fbd 5a0b f1bc
000000d0: 7347 05bd edd4 9bbd 686c 283d e4c1 c8bc
000000e0: 7375 4bbd 50a6 6c3d d2b3 853d ac3e f7bc
000000f0: fcb0 f4bb 6535 1fbe 8d0e 5c3d 3647 863d
00000100: 93ae 9ebd 97c4 cfbc bfe1 823d f5d6 04be
00000110: 0037 95bd f686 39bd 0469 88bd 004d 42bc
00000120: 760f 6abd 0244 333d 8355 073d eebd 8cbd
00000130: d203 32bc 1ac2 053d f110 4bbd 3efd 403c
00000140: 1177 fa3c 2ba0 78bc c714 6c3d ada9 ce3d
00000150: bd19 97bd 3cf2 b53d d194 47bd 4219 bfbb
00000160: 7e92 a8bd 2e32 6f3c 8a3b 313d 3d40 cd3c
00000170: 3f19 5abb 56a5 343d 90f9 ff3b 3185 c5bc
00000180: 8f43 a73d 7e02 ca3c bb44 163c 23b0 febc
00000190: e038 99bd 0a94 c4bc d3ea b53d c332 dc3c
000001a0: 12ff 05bd 4b95 943c a553 17bc b69f bdbd
000001b0: dfda 0ebe 47e0 583d eb50 91bd 7732 33bd
000001c0: c764 55bd 2423 b13c 5308 c5bc cdd9 1a3d
000001d0: 94c6 02bd cd05 7eba be8e c53d e9da 88bd
000001e0: 163f babb e4b3 95bc 174b fcbc 1f3d 393d
000001f0: 37f0 0c3d e276 26bb 559b 953d 374d e43d
00000200: 010a 63bc a024 7b3d 580c 20bd 1f2d c6bc
00000210: 5d3d bc3d 59df 3f3b 15b7 123d ad3e 033e
00000220: 91a5 ec3c afbd 9e3d aee6 89bb a51c cebc
00000230: 59e7 133d a679 bf3d ea45 083c e49a f9bc
00000240: c94c 5dbd 2c0b a83d 88c9 893d 5296 173d
00000250: c6d9 61bd 9c54 473d 732f b93c ecc2 b6bb
00000260: 0c14 8f3d b594 a4bc baa1 53bc 2818 cbbd
00000270: d5a9 74bd e243 8dbd f0d2 f2bd dff9 963d
00000280: fdbc 6c3d dfeb 5cbc 6129 503d d438 8b3d
00000290: bcca 86bd 64a8 363d d32d 543c 677c 903d
000002a0: 7f9f 803c cb66 963c 3fc5 bb3c 6a99 83bc
000002b0: b495 253b 4238 e63c fb9b ec3b 1af5 7e3d
000002c0: b46f 993c cada 97bd 07e3 41bd db20 bb3c
000002d0: 3742 35bd 137f b8bc 7ae3 64bb 9635 e83b
000002e0: a0e9 e63c 9d98 1d3c 4c4b 14bd 909e 82bd
000002f0: 2fbd edbc 145f dabc 5964 bebc 74a4 b7bd
00000300: b672 bbbd 80be d03d f6d7 9ebc b550 77bd
00000310: 3849 a03d 0068 15bd c380 a9bc ecc6 c83c
00000320: e26c 1dbd 5330 493c 475b 8abc 07c0 bf3d
00000330: 1169 1d3e 3c69 43bd dd0c df3d edee 813d
00000340: 05df 85bd aa92 0c3d b3f1 963d 4d55 61bd
00000350: 2a4b eb3c 3e15 b73c 07d3 4ebd 0b91 243c
00000360: 8c91 23bd b3ca 113d 5cd6 163d 6e22 ebbd
00000370: 943c 853c 8a3d 233d d958 e43c 8145 003d
00000380: 5f1d a73c 8a58 083d e8d4 4c3d e131 9e3d
00000390: 68e9 013d fe3b 8b39 2be0 2bbb 39a0 f23c
000003a0: 9ecc 273b a0ef aebd 0d30 5e3b cf2c debc
000003b0: 04ce 92bc 4290 e0ba 878a 9a3d 159b 86bb
000003c0: 4fb9 953d 3785 733d 7980 abba 9cd8 64bb
000003d0: aec3 053c 8759 b93d 3307 15bd 76af 893d
000003e0: f446 923d 5993 fdbc 6ba4 143d 5a22 a33c
000003f0: 0464 393d 2240 863d f812 42bd 8983 7c3d

local_trans_pixel.layers.0.0.fn.fn.to_out.0.bias f4 [32]
-0.049618997 0.034126107 -0.0415827 -0.020794636 0.0077979323 0.010941507 -0.09609354 0.048673004
-0.071835466 -0.017620118 -0.020712748 -0.004744926 0.0049847635 0.012587143 -0.06198298 0.05191888
0.07106957 -0.017822027 -0.13395642 0.060296666 0.024782319 0.037872575 -0.03707885 0.048416313
0.034669437 0.07119114 0.043249916 0.0351614 0.063949265 0.04828341 0.0712466 -0.08670103
00000000: 4a3d 4bbd d1c7 0b3d 9f52 2abd 8359 aabc
00000010: cc85 ff3b 0244 333c b1cc c4bd 585d 473d
00000020: 791e 93bd 1158 90bc c8ad a9bc 537b 9bbb
00000030: 3a57 a33b 4e3a 4e3c dee1 7dbd e4a8 543d
00000040: ec8c 913d 80ff 91bc df2b 09be a3f9 763d
00000050: 4a04 cb3c 4620 1b3d fedf 17bd 2f50 463d
00000060: 8a01 0e3d a9cc 913d d326 313d 6605 103d
00000070: d5f7 823d d3c4 453d bde9 913d 4f90 b1bd

local_trans_pixel.layers.0.1.fn.norm.weight f4 [32]
1.0156276 1.0523705 1.0578549 0.99401736 1.0617999 1.0754262 1.0518451 0.9716947
0.97793543 1.0006093 1.029066 1.0094924 1.049466 0.9813793 1.0823797 1.0385365
0.9579317 1.0246412 1.0249352 1.0359657 1.058215 0.98164934 1.0235838 1.0334307
1.054392 1.0316118 1.040742 1.007307 0.968777 0.96795446 1.1067713 0.98516077
00000000: 1600 823f 14b4 863f ca67 873f ec77 7e3f
00000010: 0fe9 873f 91a7 893f dca2 863f fcc0 783f
00000020: fa59 7a3f f713 803f 6fb8 833f 0c37 813f
00000030: e754 863f ac3b 7b3f 6b8b 8a3f c4ee 843f
00000040: 033b 753f 7127 833f 1431 833f 869a 843f
00000050: 9773 873f 5f4d 7b3f cb04 833f 7547 843f
00000060: 51f6 863f db0b 843f 0937 853f 70ef 803f
00000070: c501 783f ddcb 773f afaa 8d3f 7f33 7c3f

local_trans_pixel.layers.0.1.fn.norm.bias f4 [32]
-0.02388627 -0.041063048 -0.056123257 -0.01360574 -0.046577927 0.03596311 -0.026606813 0.034164704
-0.022537092 -0.036906973 0.027726727 -0.061462656 0.027073476 0.022979168 0.04070935 0.051216077
0.01687097 -0.020118859 -0.04002065 0.053422492 0.028815797 0.018742098 -0.020080753 0.054265887
0.076919906 -0.034611493 -0.05570908 -0.016067302 -0.034119174 0.045077797 -0.026755778 0.011737499
00000000: 24ad c3bc ba31 28bd 80e1 65bd 9cea 5ebc
00000010: 7fc8 3ebd 0e4e 133d 88f6 d9bc 4af0 0b3d
00000020: b59f b8bc c42b 17bd 2923 e33c 44c0 7bbd
00000030: 32c9 dd3c cf3e bc3c d9be 263d f3c7 513d
00000040: fd34 8a3c 4ed0 a4bc b1ec 23bd 8bd1 5a3d
00000050: 1b0f ec3c 0789 993c 6480 a4bc e845 5e3d
00000060: 2f88 9d3d c8c4 0dbd 342f 64bd 939f 83bc
00000070: 8cc0 0bbd 7fa3 383d ef2e dbbc a44e 403c

local_trans_pixel.layers.0.1.fn.fn.net.0.weight f4 [8, 32]
0.034578394 0.13029647 -0.071019515 0.10821714 0.0109132305 0.1669022 -0.118905075 0.02995901
0.10974442 0.06046069 -0.03477121 -0.13311613 -0.06935203 0.1383097 0.20346858 0.063969195
-0.00081557524 0.1620055 -0.04136991 0.12581122 0.028433384 0.09919322 0.16740014 0.1762682
0.06100881 0.1530534 -0.024233758 0.04691494 0.01706101 0.037681658 0.0073244665 0.030600265
-0.1022773 0.06433678 0.062296405 0.033019528 -0.08712609 -0.035865564 -0.14451972 0.046453226
-0.08072286 -0.12194687 -0.065013096 0.043912325 0.20213835 -0.13759682 -0.08355092 -0.100999676
0.053612284 0.04521607 0.15454973 0.07596175 0.20820361 0.12872729 0.11027731 0.03185774
-0.03832343 0.046876606 0.14939462 -0.057340797 -0.12443118 -0.12822264 -0.11189992 0.014061602
-0.13054465 0.10321476 -0.11304721 -0.12832743 0.059135687 0.12865232 0.019147465 -0.061489988
0.07672354 -0.07402939 0.09998116 -0.083784655 0.112886764 0.0026564742 0.24724334 0.04252084
0.11111124 0.050622292 -0.048880093 0.09675409 -0.11369662 -0.037715625 -0.02262323 0.12851942
0.10495157 -0.16871285 -0.025508974 0.059049767 0.027996032 0.045569204 -0.18124421 0.06471018
0.02955805 -0.096879795 -0.12340233 0.12934582 0.07538644 -0.07566214 0.13574912 0.01986481
-0.0754273 0.0564586 -0.07369735 0.054180685 -0.19044207 -0.03917887 -0.050415386 0.052999914
0.07847777 0.14481233 -0.028877223 0.024208808 -0.041866697 0.074788935 0.119633816 0.13037081
-0.022462333 -0.01655149 -0.09033905 -0.040784672 0.15366398 -0.1728068 0.09033628 0.023814104
-0.040275343 -0.20444463 -0.23349158 0.09432806 -0.24881877 0.08894872 0.022917645 0.07860194
-0.15186274 -0.13232774 -0.015708711 0.017577749 -0.0026604107 -0.057279333 0.012840442 0.057357036
0.019633457 -0.11016021 -0.18319444 0.1941039 0.1756478 0.0065105143 -0.07954468 -0.00959681
0.06429404 -0.08270361 -0.16051205 -0.09751346 -0.13499367 0.016659936 0.06524755 0.08674952
-0.14473009 0.21125288 -0.029038893 -0.044665396 0.020741874 0.18594328 0.22029415 -0.12504922
0.069537446 -0.15811938 -0.07322218 0.047595274 -0.07600211 -0.01551802 0.1423612 0.006935539
-0.00400389 0.1708319 -0.012355181 0.023477176 -0.17387287 0.10292363 -0.0905057 -0.08174972
-0.018211871 -0.055563897 0.022728322 -0.13459527 0.12325401 -0.091454536 0.012026919 0.050314825
-0.07357676 -0.12934454 -0.15376581 -0.09909372 -0.046337135 0.026887055 -0.16690849 0.13049659
0.026913548 -0.19490184 -0.06488009 -0.15240473 -0.07789455 -0.063495226 0.07896476 0.18430124
0.029511977 0.005814979 0.04058344 -0.0060830098 -0.015170675 0.15930395 -0.13708308 -0.063552015
0.14339685 -0.041807547 -0.049177833 0.0058815856 -0.10272553 0.042149536 0.024335843 -0.14259487
-0.19906263 -0.14534602 -0.041461002 0.002052109 0.028814735 0.04161446 0.023209224 0.1732125
-0.107574955 0.017986553 0.13929759 -0.014503 0.032998964 0.018481651 0.05463982 -0.10368549
-0.12939726 -0.1592519 -0.16603649 0.048062213 -0.10740081 0.104167804 -0.10716231 -0.05084429
-0.052997958 -0.17506647 0.15010926 0.12405087 -0.07807831 -0.11344399 0.12272904 -0.074132025
00000000: 13a2 0d3d 706c 053e ae72 91bd f3a0 dd3d
00000010: 68cd 323c 69e8 2a3e 8184 f3bd 996c f53c
00000020: afc1 e03d a1a5 773d 426c 0ebd 984f 08be
00000030: 7008 8ebd 0fa1 0d3e 115a 503e 4802 833d
00000040: 54cc 55ba c5e4 253e 7f73 29bd a8d4 003e
00000050: 21ed e83c d125 cb3d f16a 2b3e a77f 343e
00000060: 60e4 793d 08ba 1c3e e085 c6bc e129 403d
00000070: 88c3 8b3c 1558 1a3d 1402 f03b 68ad fa3c
00000080: c376 d1bd 00c3 833d 842a 7f3d 7c3f 073d
00000090: 2a6f b2bd c5e7 12bd fafc 13be bd45 3e3d
000000a0: 0752 a5bd 48bf f9bd 9625 85bd 69dd 333d
000000b0: 5bfd 4e3e 2ee6 0cbe bf1c abbd ebd8 cebd
000000c0: 8e98 5b3d 7c34 393d 4942 1e3e d591 9b3d
000000d0: 5433 553e 16d1 033e 12d9 e13d 437d 023d
000000e0: 07f9 1cbd af01 403d e7fa 183e 2fde 6abd
000000f0: c6d5 febd cc4c 03be c92b e5bd a262 663c
00000100: 7fad 05be 4362 d33d 4c85 e7bd 4468 03be
00000110: 4338 723d 6fbd 033e 25db 9c3c eddc 7bbd
00000120: 3b21 9d3d b99c 97bd ecc2 cc3d 4a97 abbd
00000130: 2d31 e73d 3e18 2e3b 5c2d 7d3e 552a 2e3d
00000140: 4a8e e33d 5259 4f3d 7e36 48bd 0227 c63d
00000150: c6d9 e8bd b37b 1abd 5a54 b9bc 989a 033e
00000160: d9f0 d63d 10c3 2cbe 32f8 d0bc 2bde 713d
00000170: ef57 e53c c6a6 3a3d 1598 39be c586 843d
00000180: b923 f23c ea68 c6bd 5cba fcbd 3b73 043e
00000190: 3564 9a3d c1f4 9abd d101 0b3e 87bb a23c
000001a0: a179 9abd 2241 673d a3ee 96bd 91ec 5d3d
000001b0: 3f03 43be 067a 20bd 5d80 4ebd 7016 593d
000001c0: f4b8 a03d af49 143e ed8f ecbc 8d51 c63c
000001d0: 6a7c 2bbd f12a 993d 9302 f53d ed7f 053e
000001e0: ed02 b8bc fe96 87bc ae03 b9bd d40d 27bd
000001f0: 175a 1d3e 44f4 30be 3a02 b93d cc15 c33c
00000200: c2f7 24bd ef59 51be 6b18 6fbe 122f c13d
00000210: 59ca 7ebe bf2a b63d c9bd bb3c 0efa a03d
00000220: e881 1bbe ec80 07be 8eaf 80bc 36ff 8f3c
00000230: 495a 2ebb bc9d 6abd b860 523c 36ef 6a3d
00000240: 58d6 a03c ad9b e1bd 5397 3bbe 2cc3 463e
00000250: 04dd 333e 2756 d53b 52e8 a2bd f03b 1dbc
00000260: 98ac 833d 8360 a9bd 455d 24be 23b5 c7bd
00000270: c83b 0abe 6b7a 883c 82a0 853d bba9 b13d
00000280: 2034 14be ad52 583e f9e2 edbc 10f3 36bd
00000290: ddea a93c ea67 3e3e ca94 613e e70c 00be
000002a0: a669 8e3d 0cea 21be 83f5 95bd 43f3 423d
000002b0: ffa6 9bbd 4b3f 7ebc 22c7 113e 8543 e33b
000002c0: 1033 83bb 8fee 2e3e 636d 4abc 3553 c03c
000002d0: bb0b 32be a0c9 d23d 0d5b b9bd 666c a7bd
000002e0: 1031 95bc f896 63bd bf30 ba3c 58d3 09be
000002f0: 996c fc3d 844c bbbd 8e0c 453c eb16 4e3d
00000300: 6aaf 96bd e572 04be c974 1dbe a6f1 cabd
00000310: 02cc 3dbd 3e42 dc3c 0fea 2abe e6a0 053e
00000320: cd79 dc3c 5994 47be dadf 84bd fc0f 1cbe
00000330: 2e87 9fbd c909 82bd 47b8 a13d 77b9 3c3e
00000340: 1ac3 f13c 948b be3b d23a 263d fc53 c7bb
00000350: 6c8e 78bc 9320 233e 825f 0cbe 8f27 82bd
00000360: a0d6 123e 643e 2bbd b26e 49bd 51ba c03b
00000370: c361 d2bd fea4 2c3d f65b c73c 6404 12be
00000380: 13d7 4bbe 96d5 14be 03d3 29bd ad7c 063b
00000390: e10c ec3c ed73 2a3d 4521 be3c 9e5e 313e
000003a0: 4250 dcbd 8958 933c 07a4 0e3e fe9d 6dbc
000003b0: ec29 073d d566 973c 01ce 5f3d 0f59 d4bd
000003c0: b780 04be ee12 23be 7805 2abe e2dc 443d
000003d0: f5f4 dbbd ee55 d53d ea77 dbbd 1a42 50bd
000003e0: 6314 59bd a044 33be 3eb6 193e 620e fe3d
000003f0: 85e7 9fbd 5355 e8bd 5d59 fb3d 88d2 97bd

local_trans_pixel.layers.0.1.fn.fn.net.0.bias f4 [8]
-0.0994215 -0.14108057 -0.051279534 -0.09273389 0.059732527 0.029558996 -0.07043041 0.06548563
00000000: 809d cbbd 6d77 10be 7d0a 52bd 44eb bdbd
00000010: 18aa 743d b525 f23c d23d 90bd 541d 863d

local_trans_pixel.layers.0.1.fn.fn.net.3.weight f4 [32, 8]
0.054911405 0.32331884 -0.18027905 0.013909532 -0.052070014 -0.08913743 -0.20671634 -0.1996058
-0.23894471 -0.0615543 -0.006994015 -0.26036763 0.36834574 -0.36771905 0.17660524 0.017765284
4.6269437e-05 -0.0059325662 0.053907864 -0.35050458 -0.17463875 0.18083856 0.0879189 -0.1694424
-0.26310968 0.15968531 0.035417456 0.3244618 0.26439527 0.19549927 -0.0858203 -0.1748642
0.11327499 0.067121215 0.18146233 0.17607845 -0.3831219 0.030008603 0.13513325 0.027640605
-0.086364545 0.1964902 -0.04556758 0.2365522 -0.09112255 0.022682885 0.2807733 0.000626288
-0.13408925 -0.066662386 0.24542941 -0.22560903 -0.062262807 -0.14818384 0.21402322 -0.37307283
0.2502875 -0.007851803 -0.045269806 -0.23847976 -0.21031666 0.18126047 0.018041952 -0.1322996
0.20943958 -0.116580054 0.18327534 -0.0074078296 0.08767769 0.2851538 0.15199399 0.3078322
0.07295256 0.27594227 -0.3334626 0.15671448 0.07156637 -0.11289753 0.024150398 0.1382951
-0.14111927 0.35201097 -0.27576113 -0.25153643 0.0982294 -0.27868864 0.24221686 -0.09238024
0.35311234 -0.11790954 -0.11939495 0.13399963 0.18806805 -0.33073977 -0.029582992 0.36052108
0.11277929 0.015323587 0.08228823 -0.013235135 0.18258792 0.25559238 -0.118653156 -0.023840128
-0.15179613 -0.13261577 -0.21861103 -0.22446944 -0.117144994 -0.099622935 -0.24898697 -0.18064941
0.3000142 0.18655744 0.17600961 0.2624128 -0.23846845 0.19753547 -0.3443244 0.24191807
-0.006820652 -0.15596399 -0.17718093 -0.012951932 0.31834626 0.0040934714 -0.020603897 0.16867653
0.11690394 0.12637073 -0.018814262 -0.0033507373 0.34007865 -0.31084156 -0.0076062954 -0.14682125
-0.14961149 -0.088520385 -0.12850995 0.020490022 0.09768493 0.27667788 0.3769798 -0.24482088
0.24289782 -0.25921088 -0.32394874 0.16695553 0.04149467 -0.09105427 0.12254223 0.09551426
0.28044116 -0.34779692 -0.31588042 -0.1000419 -0.015996562 -0.08193871 0.3483649 -0.04665051
0.2809939 0.18845364 -0.1260009 -0.052559268 -0.22472572 0.023413891 -0.29357263 -0.07323504
-0.056215025 0.04479277 0.11616789 -0.25919712 0.28538403 0.2476552 0.1406117 0.1904936
0.08781123 -0.30678844 0.04961009 -0.2117824 0.22502396 -0.14808324 -0.17026375 -0.1745467
-0.21429914 0.31177148 -0.007533688 0.23945755 -0.30978313 -0.37946045 0.26630262 0.15882331
0.10948812 -0.015144994 -0.29524723 0.26188573 -0.19459671 0.13014622 -0.049828257 -0.1811163
-0.06924212 0.24755314 0.114055246 -0.1697484 0.20425174 0.13483326 -0.27349794 -0.20659706
0.04429712 0.124623865 -0.06384555 -0.31343234 0.28821355 -0.19900917 -0.45519796 -0.06918425
0.1606353 -0.021860512 0.31855693 -0.016468134 0.2891622 0.24409677 0.31168643 0.26966485
0.0075889677 0.2916894 0.18603007 -0.36941296 0.13689013 -0.3200813 0.3556658 0.09634864
0.22398221 -0.079761945 0.076917246 -0.109482266 0.15452765 0.10059979 -0.12661704 -0.13761087
-0.100052014 -0.33974352 -0.3537391 -0.21394941 0.34474257 0.24289627 0.25704834 -0.18543127
0.19290727 0.18208362 0.26427454 -0.26916978 -0.06770881 0.23750068 -0.280757 0.27453843
00000000: c8ea 603d 0c8a a53e 129b 38be cee4 633c
00000010: 5e47 55bd af8d b6bd 73ad 53be 7665 4cbe
00000020: ecad 74be 5d20 7cbd 0d2e e5bb e84e 85be
00000030: d097 bc3e ac45 bcbe 01d8 343e 8088 913c
00000040: 6e11 4238 f965 c2bb 7ece 5c3d 5675 b3be
00000050: 80d4 32be be2d 393e d30e b43d 4f82 2dbe
00000060: 50b6 86be 8c84 233e e511 113d db1f a63e
00000070: d15e 873e f630 483e 8ec2 afbd 9a0f 33be
00000080: b8fc e73d d976 893d 43d1 393e e94d 343e
00000090: 8e28 c4be 9ad4 f53c 5f60 0a3e 8d6e e23c
000000a0: e5df b0bd ba34 493e 12a5 3abd bd3a 723e
000000b0: 769e babd 75d1 b93c 85c1 8f3e 7a2d 243a
000000c0: b14e 09be 4a86 88bd d951 7b3e 0e06 67be
000000d0: 4907 7fbd 81bd 17be e728 5b3e 6703 bfbe
000000e0: af25 803e d9a4 00bc d56c 39bd 0a34 74be
000000f0: 405d 57be 589c 393e b7cc 933c 8c79 07be
00000100: 5477 563e 86c1 eebd 88ac 3b3e 61bd f2bb
00000110: 5c90 b33d aeff 913e 50a4 1b3e 2f9c 9d3e
00000120: 2768 953d 4e48 8d3e 9cbb aabe c379 203e
00000130: 6491 923d d236 e7bd 0ed7 c53c 3b9d 0d3e
00000140: 9281 10be c83a b43e 9030 8dbe 62c9 80be
00000150: 7f2c c93d 47b0 8ebe b207 783e da31 bdbd
00000160: 24cb b43e 8f7a f1bd 5785 f4bd 3337 093e
00000170: e994 403e b956 a9be 0858 f2bc 3896 b83e
00000180: d4f8 e63d c80f 7b3c bb86 a83d 2ed8 58bc
00000190: 54f8 3a3e 01dd 823e 6d00 f3bd 5f4c c3bc
000001a0: 7270 1bbe 6ecc 07be 92db 5fbe 51db 65be
000001b0: b7e9 efbd 1c07 ccbd 71f6 7ebe 29fc 38be
000001c0: 769b 993e ea08 3f3e dd3b 343e f85a 863e
000001d0: 1331 74be bd46 4a3e 4a4b b0be 5fb9 773e
000001e0: c77f dfbb 06b5 1fbe eb6e 35be 5734 54bc
000001f0: 48fe a23e 8722 863b 81c9 a8bc 8ab9 2c3e
00000200: 556b ef3d 5467 013e 5e20 9abc 0b98 5bbb
00000210: ca1e ae3e a026 9fbe 3b3e f9bb 4f58 16be
00000220: c133 19be 2d4a b5bd 1d98 03be b1da a73c
00000230: 090f c83d b9a8 8d3e 7f03 c13e 53b2 7abe
00000240: 35ba 783e 4ab7 84be 9cdc a5be 64f6 2a3e
00000250: 51f6 293d a97a babd 6cf7 fa3d fb9c c33d
00000260: fc95 8f3e 7012 b2be 14bb a1be c5e2 ccbd
00000270: 390b 83bc 7bcf a7bd e25c b23e 9b14 3fbd
00000280: 6fde 8f3e fef9 403e 6106 01be 6348 57bd
00000290: 801e 66be 7dce bf3c 274f 96be 41fc 95bd
000002a0: ba41 66bd a078 373d 6ee9 ed3d 7cb5 84be
000002b0: db1d 923e 5399 7d3e 83fc 0f3e c110 433e
000002c0: 60d6 b33d 6013 9dbe f333 4b3d 7cdd 58be
000002d0: ae6c 663e 22a3 17be 9f59 2ebe 5fbc 32be
000002e0: 3c71 5bbe 83a0 9f3e 28dd f6bb 5c34 753e
000002f0: e59b 9ebe a448 c2be d158 883e 94a2 223e
00000300: 4f3b e03d b522 78bc a52a 97be e315 863e
00000310: 5c44 47be 0d45 053e b718 4cbd 8d76 39be
00000320: d0ce 8dbd 927e 7d3e cc95 e93d 86d2 2dbe
00000330: 5e27 513e bb11 0a3e ec07 8cbe 2e8e 53be
00000340: e670 353d cc3a ff3d 75c1 82bd 347a a0be
00000350: ba90 933e 0fc9 4bbe b50f e9be 79b0 8dbd
00000360: 957d 243e d114 b3bc e519 a33e 2ee8 86bc
00000370: 110d 943e 81f4 793e 5d95 9f3e 8311 8a3e
00000380: e0ac f83b 5058 953e ab7e 3e3e b223 bdbe
00000390: ed2c 0c3e b2e1 a3be d419 b63e 7052 c53d
000003a0: 985b 653e 3b5a a3bd ca86 9d3d 3d38 e0bd
000003b0: 7f3c 1e3e 4307 ce3d e6a7 01be dde9 0cbe
000003c0: 12e8 ccbd ddf2 adbe 4b1d b5be 8e15 5bbe
000003d0: 1982 b03e cdb9 783e d79b 833e b2e1 3dbe
000003e0: 7c89 453e 2174 3a3e fe4e 873e 9fd0 89be
000003f0: ebaa 8abd 6133 733e 62bf 8fbe 4d90 8c3e

local_trans_pixel.layers.0.1.fn.fn.net.3.bias f4 [32]
-0.008319612 -0.28879818 -0.19247155 -0.14426787 -0.06803981 0.047228973 -0.16782697 0.26641598
0.056935407 -0.089500554 -0.21262866 0.18851712 -0.03137704 -0.13003685 0.13693257 0.11246821
0.09365613 0.01900407 -0.14389807 0.00020134302 0.33291844 -0.22044718 -0.076531135 0.31615508
0.22137533 -0.23166315 -0.08736317 0.09121191 0.27515584 -0.2845686 0.11581257 -0.08232284
00000000: fb4e 08bc 5bdd 93be 4317 45be f5ba 13be
00000010: 7558 8bbd 2b73 413d d5da 2bbe ad67 883e
00000020: 1a35 693d 114c b7bd 54bb 59be a20a 413e
00000030: 3685 00bd 6128 05be 0d38 0c3e bc55 e63d
00000040: c9ce bf3d 6cae 9b3c 045a 13be 9b1f 5339
00000050: 4974 aa3e e8bc 61be 5bbc 9cbd 14df a13e
00000060: 37b0 623e 1b39 6dbe 76eb b2bd 4fcd ba3d
00000070: 3ae1 8c3e fab2 91be 242f ed3d e198 a8bd

conv2d_features.0.weight f4 [64, 30, 3, 3]
0.07999163 0.026873028 -0.03937309 0.0009331483 0.021106185 -0.025449464 0.053836904 0.0020174938
-0.021184908 -0.049059324 0.057916973 -0.023211854 0.038068596 0.035432942 -0.03842137 -0.0034637349
-0.02280079 0.029248407 -0.03565331 -0.0031685235 -0.028198756 0.051308163 -0.04390564 -0.012992469
-0.005809161 -0.059437234 0.033731658 -0.024266819 -0.060709435 -0.04108284 -0.03928968 -0.09427235
-0.05842689 -0.09010945 -0.046752073 -0.048352342 -0.0010871104 0.088087864 0.1069703 0.0024061596
-0.013123756 0.078250445 0.009021949 0.035725262 0.005089628 0.007269764 -0.038447767 0.053560033
0.03590618 0.008518293 0.013599412 0.007617529 0.030640788 0.017871486 -0.07051647 0.07128254
0.067462265 -0.02667377 0.030081725 -0.013083872 -0.025099225 -0.046107687 0.018859858 0.039911017
0.04688313 -0.0075943037 -0.020131834 0.0016177668 -0.014315073 -0.009447377 -0.031290095 0.008668898
0.051099434 -0.055529825 0.020218972 0.04315546 0.047843903 0.07618421 0.07383136 -0.047805317
0.026577365 0.00038430878 0.014494292 0.073154256 0.033124596 -0.029842893 0.0028916048 -0.01742672
0.0060985577 -0.041058164 -0.03999787 -0.0133468965 -0.009632533 0.048814964 -0.0023632476 -0.0068749283
-0.034262557 -0.036411487 -0.03125347 0.039846182 -0.016524324 -0.045837194 0.017158132 -0.037626192
-0.018068718 0.040320285 -0.024525955 0.08069232 0.05237838 -0.027034279 0.0053324243 0.0005673551
0.039437365 -0.07761487 -0.0027802803 -0.018913575 -0.007046228 0.04330328 0.030954579 -0.018001603
-0.07340386 -0.07356594 0.020021895 -0.029192137 -0.00084088463 0.048633043 -0.033082865 0.010042373
0.009962083 0.016826458 0.0038781506 -0.011086532 0.03611556 0.03772799 0.042455085 -0.018856196
0.06258854 -0.052663255 0.017587634 -0.057601657 0.017644502 0.024748176 -0.018824607 -0.023871263
-0.06757678 0.029308213 -0.000561145 0.044397447 -0.04778857 0.030499436 -0.08001285 -0.037645746
0.019964842 0.08869773 0.03889773 -0.055502124 0.060372997 0.012742429 -0.015269246 -0.046170853
-0.019721506 0.016921971 -0.0143488115 0.026676083 0.08357912 -0.016163679 -0.03478525 0.023296023
-0.006820622 0.058804873 -0.016510537 0.016448228 0.017698033 0.012602702 0.07699752 0.0007700428
0.054963037 0.02886178 0.03505179 0.0044940137 -0.05112881 -0.026753167 9.014246e-05 -0.03396019
-0.02674069 -0.05379651 0.011133947 -0.05702806 0.009722055 -0.07696391 -0.038174495 -0.025737148
-0.021413067 -0.12389556 -0.013140146 0.035705272 0.03568638 -0.015952291 -0.008340353 0.037994005
0.03977322 -0.0077407635 0.00037431213 0.05807372 0.07293027 0.014869644 0.006487616 0.012517512
-0.071128234 0.0643307 -0.0018011023 0.0068527097 0.04403119 -0.029390888 0.020776736 -0.046572965
0.035080835 0.012526195 -0.00244556 0.053723816 -0.016659964 -0.023546629 -0.08832243 0.030824991
-0.037058238 -0.0918557 0.066927284 -0.0018824132 -0.015248215 -0.017087419 0.040126525 -0.048229344
0.040855322 0.049480613 0.0061561866 -0.052559335 0.036204617 -0.035120435 -0.020810306 -0.043370415
0.041320916 0.06216492 -0.012491216 -0.027620606 0.03846087 0.07293153 0.014950802 0.016810343
0.06049222 0.0074230907 0.06046171 0.0019921302 -0.06126015 -0.013095401 -0.002731953 -0.044022523
00000000: a7d2 a33d d324 dc3c ad45 21bd 869e 743a
00000010: e1e6 ac3c 657b d0bc 1684 5c3d ee37 043b
00000020: f98b adbc 6ef2 48bd 593a 6d3d c926 bebc
00000030: d1ed 1b3d 2222 113d ba5f 1dbd d4ff 62bb
00000040: b9c8 babc 5b9a ef3c 3509 12bd 01a7 4fbb
00000050: 1401 e7bc 8228 523d 66d6 33bd 5dde 54bc
00000060: c65a bebb 7574 73bd 352a 0a3d 35cb c6bc
00000070: 75aa 78bd 7b46 28bd 37ee 20bd dd11 c1bd
00000080: 0951 6fbd 4e8b b8bd 1a7f 3fbd 1b0d 46bd
00000090: 5f7d 8eba 6967 b43d 3f13 db3d a9b0 1d3b
000000a0: 0605 57bc c541 a03d ccd0 133c a754 123d
000000b0: e5c6 a63b 3337 ee3b 687b 1dbd c461 5b3d
000000c0: 5c12 133d 4f90 0b3c 11d0 5e3c 779c f93b
000000d0: 6402 fb3c 3967 923c f06a 90bd 95fc 913d
000000e0: a829 8a3d f382 dabc f36d f63c bd5d 56bc
000000f0: e49c cdbc 6adb 3cbd fd7f 9a3c bc79 233d
00000100: 8608 403d a3d9 f8bb 84eb a4bc 3f0b d43a
00000110: c589 6abc 2cc9 1abc 0b2a 00bd fe07 0e3c
00000120: a44d 513d 3e73 63bd 42a2 a53c c8c3 303d
00000130: f8f7 433d 7806 9c3d e534 973d 82cf 43bd
00000140: c6b8 d93c 0d7d c939 7879 6d3c e6d1 953d
00000150: a8ad 073d 1579 f4bc 1481 3d3b 7bc2 8ebc
00000160: 69d6 c73b 9b2c 28bd ced4 23bd f1ac 5abc
00000170: c6d1 1dbc 33f2 473d b7e0 1abb 1447 e1bb
00000180: e556 0cbd 3624 15bd a303 00bd c035 233d
00000190: 055e 87bc c8bf 3bbd 368f 8c3c ec1d 1abd
000001a0: d904 94bc e226 253d a8ea c8bc 0442 a53d
000001b0: b68a 563d fe76 ddbc 9ebb ae3b 8eba 143a
000001c0: 1389 213d 8cf4 9ebd 5d35 36bb a4f0 9abc
000001d0: 0be4 e6bb c85e 313d 7594 fd3c 1978 93bc
000001e0: c354 96bd bda9 96bd f504 a43c 5924 efbc
000001f0: d06e 5cba 7133 473d e681 07bd c488 243c
00000200: 0138 233c a4d7 893c 9228 7e3b 49a4 35bc
00000210: e9ed 133d aa88 1a3d 62e5 2d3d 4f78 9abc
00000220: 6c2e 803d 6db5 57bd f113 903c b7ef 6bbd
00000230: 348b 903c b0bc ca3c 1036 9abc ab8d c3bc
00000240: b265 8abd c717 f03c ce19 13ba 19da 353d
00000250: f3bd 43bd f4d9 f93c c7dd a3bd 6d32 1abd
00000260: 4f8d a33c 28a7 b53d 3a53 1f3d 3256 63bd
00000270: ad49 773d 9fc5 503c dc2b 7abc a61d 3dbd
00000280: ff8e a1bc f29f 8a3c 4717 6bbc cd87 da3c
00000290: 882b ab3d b169 84bc fa7a 0ebd 4dd7 be3c
000002a0: 867f dfbb 61dd 703d 1b41 87bc 6fbe 863c
000002b0: 77fb 903c 907b 4e3c e0b0 9d3d b3dc 493a
000002c0: ec20 613d 8a6f ec3c 7792 0f3d 8542 933b
000002d0: 716c 51bd 7529 dbbc dd0a bd38 d719 0bbd
000002e0: 4b0f dbbc bb59 5cbd 296b 363c 4196 69bd
000002f0: 4149 1f3c 419f 9dbd dc5c 1cbd b6d6 d2bc
00000300: 756a afbc f5bc fdbd c449 57bc b13f 123d
00000310: e22b 123d 61ae 82bc faa5 08bc 9a9f 1b3d
00000320: 3ee9 223d 3ba6 fdbb 533f c439 b6de 6d3d
00000330: 775c 953d cf9f 733c 1196 d43b 4016 4d3c
00000340: aeab 91bd d0bf 833d f712 ecba b28c e03b
00000350: 0d5a 343d 29c5 f0bc f933 aa3c 4bc3 3ebd
00000360: ecb0 0f3d ab3a 4d3c b045 20bb 810d 5c3d
00000370: 7a7a 88bc dce4 c0bc 64e2 b4bd b184 fc3c
00000380: 61ca 17bd d71e bcbd 2c11 893d 4ebb f6ba
00000390: a6d3 79bc eafa 8bbc b65b 243d 228c 45bd
000003a0: e957 273d 2fac 4a3d d6b9 c93b 7548 57bd
000003b0: 4b4b 143d 72da 0fbd 607a aabc 2da5 31bd
000003c0: 1f40 293d a5a0 7e3d f5a7 4cbc 9c44 e2bc
000003d0: 2589 1d3d 205d 953d 35f4 743c d8b5 893c
000003e0: b1c6 773d 663d f33b b3a6 773d 668e 023b
000003f0: eceb 7abd 188e 56bc 910a 33bb f650 34bd
