src/res/GGCL/guided_contra_cross_transformer/Pavia/10/False/ssnew/_1711530500.pth (torch, 266710 bytes, 37 tensors)

pixel_pos_embedding f4 [1, 170, 32]
1.196913 -0.06600585 -1.3824527 -1.5136895 0.974035 0.034116656 -0.98005044 0.38498276
-0.29315355 -1.3140457 0.31584364 -1.1295868 0.8221436 -1.9256121 0.8720752 -0.123646736
-0.24306613 -0.8294152 -0.027326569 -1.1787901 -0.5050306 -2.1711643 1.2928396 -0.852089
0.22533588 -1.1003652 0.51134014 -0.06721845 0.66872877 1.4456449 0.78988105 0.093100816
0.3625146 0.104319826 -0.9784325 0.77165663 -1.6591209 0.09495581 -0.5330588 0.6597109
1.901619 -0.14357889 1.4224433 -1.0058147 -0.91399366 0.6414054 0.59188 -0.32145312
-0.15486157 -2.21254 0.79559636 -0.66461825 0.37787575 0.5676631 0.37031066 0.22962788
0.88025796 -1.6188859 -1.7264146 0.72254133 0.54210275 0.48461545 1.5693266 1.1691374
-0.8380771 0.16050373 -1.1944861 1.4162307 0.6906516 -1.1760211 -0.35795733 0.07518928
0.1412235 0.051771447 -2.1217785 0.35603347 1.0458164 -0.49609768 -0.3100488 -0.9362632
0.007905685 -0.42071497 -1.4969931 -0.7189826 -1.5579758 1.1436024 -1.4417659 0.43588984
0.3376167 -0.14986846 0.3554948 -1.248027 -1.4992914 1.6844356 -0.3285525 1.8220254
0.6723395 0.79192036 0.90497565 -0.8238803 -0.80589557 0.8407836 -0.119987376 -0.8435696
0.72302103 0.1538071 1.1085846 0.6242914 -1.2468865 -1.0793748 0.040206943 -0.13507733
1.3020673 -0.617096 1.8051243 -0.23676805 0.018724062 0.00402892 -1.4815842 0.21918517
0.2875429 -0.72266454 1.9602554 -0.32220846 1.7905095 0.77221954 -1.2906258 0.5681853
2.035969 -0.1684588 1.0323806 1.1744068 0.14261824 -0.28873494 1.5021272 -0.6486472
-0.8778775 0.22289112 1.5314381 1.4477721 1.2668307 -0.89835984 -0.4484728 1.393456
0.6419355 0.50915176 0.53961927 -0.53117144 0.022907697 -0.8129973 1.4229925 -0.06270307
0.8617097 1.6488134 -1.1801687 0.31815282 -0.6638279 -0.9618606 0.87239796 1.6073749
0.8278656 -1.8725135 -1.4283513 1.3171777 0.6284389 0.52057785 -0.65790486 -0.3886643
-1.2279967 0.5293836 1.3740908 -0.770755 -0.16225049 1.3860142 -0.26271093 1.1816701
-1.5695925 2.0401068 -0.741444 -1.0928701 -0.59859836 0.23137559 0.341704 -0.5238003
-2.1777203 -1.6366217 -0.5693768 0.21744797 -0.5426683 0.26176548 0.728323 0.18670213
-1.341398 -0.6748522 0.8078895 1.2572247 -1.6489002 -0.012964257 0.5275172 -0.9105652
1.1509008 -0.25429744 -1.5750159 0.25914276 -1.696442 -1.0080589 0.5327427 0.18230942
-0.014533128 -0.23038533 0.4179883 0.6281507 0.16736928 -2.0016925 -1.2961046 -0.48634276
-1.4651344 1.5022973 0.34140247 0.2660418 0.8466464 1.0540789 -0.67867947 0.27509975
1.1717161 1.2412955 -0.24070092 0.022603301 -0.14109668 -0.5354482 0.4828898 0.74127144
-0.25608578 0.9948763 -0.24805577 -0.52049947 -0.1491327 -0.1881726 -0.09001961 0.948082
0.00031461852 -1.0877453 0.11250925 0.8399321 0.31117404 -0.40053955 1.022689 0.15231557
0.23312181 0.369207 -2.1160908 -1.2758464 2.0756307 0.6470875 0.6563513 0.97914034
00000000: 7234 993f 132e 87bd 36f4 b0bf 94c0 c1bf
00000010: 5c5a 793f e8bd 0b3d 96e4 7abf 761c c53e
00000020: 3918 96be a632 a8bf 42b6 a13e 4d96 90bf
00000030: 0178 523f 757a f6bf 5240 5f3f 803a fdbd
00000040: 54e6 78be 8e54 54bf f8db dfbc 98e2 96bf
00000050: af49 01bf 5bf4 0ac0 c57b a53f 8122 5abf
00000060: 73be 663e c4d8 8cbf 30e7 023f d4a9 89bd
00000070: cf31 2b3f e40a b93f a535 4a3f a4ab be3d
00000080: 839b b93e a2a5 d53d 8d7a 7abf 4a8b 453f
00000090: 135e d4bf 3178 c23d 8b76 08bf d0e2 283f
000000a0: 4068 f33f 5806 13be 9f12 b63f 89be 80bf
000000b0: 7dfb 69bf 2533 243f 7385 173f 8195 a4be
000000c0: 0894 1ebe 419a 0dc0 34ac 4b3f 6c24 2abf
000000d0: ee78 c13e 5e52 113f 5c99 bd3e 9223 6b3e
000000e0: 9658 613f a737 cfbf 27fb dcbf 78f8 383f
000000f0: 3fc7 0a3f 841f f83e b2df c83f 4ba6 953f
00000100: 398c 56bf 175b 243e ece4 98bf 0c47 b53f
00000110: 8bce 303f dc87 96bf 2f46 b7be d6fc 993d
00000120: e59c 103e 4c0e 543d 38cb 07c0 054a b63e
00000130: 50dd 853f 8400 febe b7be 9ebe f2ae 6fbf
00000140: d986 013c f467 d7be 789d bfbf 3e0f 38bf
00000150: c06b c7bf 9061 923f c98b b8bf f42c df3e
00000160: 19dc ac3e 1e77 19be 6a03 b63e 59bf 9fbf
00000170: c8e8 bfbf 969b d73f 0938 a8be 2138 e93f
00000180: 711e 2c3f 4bbb 4a3f 7cac 673f d2e9 52bf
00000190: 2c4f 4ebf 983d 573f f1bb f5bd 2df4 57bf
000001a0: e817 393f 9c7f 1d3e 1ae6 8d3f 90d1 1f3f
000001b0: fa99 9fbf f428 8abf 09b0 243d b651 0abe
000001c0: 24aa a63f 01fa 1dbf 500e e73f 5373 72be
000001d0: 3463 993c 0805 843b 8da4 bdbf 1472 603e
000001e0: d338 933e 8b00 39bf a6e9 fa3f 82f8 a4be
000001f0: 6a2f e53f 2eb0 453f 3a33 a5bf 9874 113f
00000200: 514d 0240 7780 2cbe 0c25 843f f652 963f
00000210: 840a 123e 11d5 93be b445 c03f be0d 26bf
00000220: 94bc 60bf 923d 643e 2a06 c43f 9950 b93f
00000230: 8227 a23f e9fa 65bf 3a9e e5be c45c b23f
00000240: e355 243f c557 023f 7d24 0a3f dafa 07bf
00000250: eca8 bb3c 9720 50bf 9e24 b63f 786a 80bd
00000260: 0299 5c3f 510c d33f c50f 97bf ede4 a23e
00000270: a0f0 29bf 7f3c 76bf 7955 5f3f 76be cd3f
00000280: 00ef 533f 86ae efbf 37d4 b6bf 4799 a83f
00000290: 5fe1 203f 9744 053f 746c 28bf 02ff c6be
000002a0: ff2e 9dbf af85 073f 35e2 af3f 3350 45bf
000002b0: fe24 26be ea68 b13f 0c82 86be f740 973f
000002c0: 68e8 c8bf 1c91 0240 46cf 3dbf 2be3 8bbf
000002d0: be3d 19bf b9ed 6c3e d4f3 ae3e c717 06bf
000002e0: c55f 0bc0 d27c d1bf aec2 11bf aeaa 5e3e
000002f0: 4fec 0abf 2006 863e 6073 3a3f d82e 3f3e
00000300: eeb2 abbf 1dc3 2cbf d9d1 4e3f bdec a03f
00000310: 290f d3bf 0968 54bc 5e0b 073f cd1a 69bf
00000320: b850 933f 4633 82be 1f9a c9bf 5cae 843e
00000330: 0325 d9bf 1308 81bf d361 083f 52af 3a3e
00000340: 5b1c 6ebc 22ea 6bbe 9002 d63e 7cce 203f
00000350: da62 2b3e bb1b 00c0 c1e6 a5bf eb01 f9be
00000360: 8689 bbbf 474b c03f 4ecc ae3e a136 883e
00000370: d2bd 583f 0fec 863f f0bd 2dbf e0d9 8c3e
00000380: cbfa 953f c5e2 9e3f 4d7a 76be 8f2a b93c
00000390: a67b 10be 2213 09bf 553d f73e f7c3 3d3f
000003a0: ad1d 83be 37b0 7e3f 5502 7ebe 743f 05bf
000003b0: 3eb6 18be 51b0 40be 345c b8bd 80b5 723f
000003c0: 62f3 a439 3d3b 8bbf 406b e63d ca05 573f
000003d0: 3452 9f3e 8513 cdbe 79e7 823f 9df8 1b3e
000003e0: 7cb7 6e3e b308 bd3e 086e 07c0 ef4e a3bf
000003f0: 22d7 0440 87a7 253f a406 283f f1a8 7a3f

cls_token_pixel f4 [1, 1, 32]
0.28827372 0.12738362 -0.5911796 -0.4668216 -0.9426543 0.4277915 0.4259979 1.0074598
0.46800283 -1.6983372 -0.11192846 -0.32200778 0.49418005 2.8482587 -1.6873984 -0.57109743
-1.3989824 1.3059015 -0.16401489 -0.25352985 -0.27681 -0.9718342 0.45714045 0.15627852
2.031759 1.4572531 -0.18085557 1.3945031 -0.23201746 -0.89213073 -0.3041831 -0.077336796
00000000: 9d98 933e da70 023e 8c57 17bf 3e03 efbe
00000010: cb51 71bf 7d07 db3e 661c da3e 71f4 803f
00000020: 119e ef3e 1d63 d9bf c03a e5bd 34de a4be
00000030: 2b05 fd3e df49 3640 acfc d7bf 7133 12bf
00000040: db11 b3bf c827 a73f 85f3 27be aace 81be
00000050: 0aba 8dbe 20ca 78bf 500e ea3e 7a07 203e
00000060: 5708 0240 4587 ba3f 3432 39be 147f b23f
00000070: fc95 6dbe ae62 64bf e3bd 9bbe c162 9ebd

pixel_patch_embedding.weight f4 [32, 30]
0.119868696 0.047736496 0.16574287 0.08508515 0.118658185 0.13318121 0.13987687 0.117277175
0.115698546 0.001811564 0.0019592047 -0.039865598 0.08804044 0.052413225 -0.08690905 -0.056278333
0.09092486 0.055568412 -0.156961 0.06893098 -0.16163768 -0.017643705 -0.06539763 0.029538378
0.087150484 -0.15076214 -0.094481386 0.044304878 -0.024385616 0.14054671 0.13345179 0.15571368
-0.16208012 -0.1261505 -0.060115464 -0.07041559 -0.06288678 -0.069692574 -0.14800535 0.054752707
0.0833531 -0.07407226 -0.15348063 0.12714031 0.022539377 -0.045687273 -0.008472934 -0.1333964
0.13161087 0.0136359185 0.051823393 -0.06095405 0.10225606 -0.16715142 0.007865071 -0.058963098
0.11105418 0.008536905 0.14323735 0.0443417 -0.08882115 0.09884444 0.03355241 -0.09923685
0.010292336 -0.08695024 0.14211047 -0.046449035 0.07401922 -0.13097982 0.107260644 -0.15632217
-0.07342428 -0.08631668 -0.01681444 -0.16008593 -0.15021503 0.067736685 -0.08397684 0.14732578
0.101429254 0.14604238 0.14975005 -0.15257086 0.004002452 0.16199556 0.015660912 0.045827523
0.18129301 -0.1034356 0.14324802 -0.01924567 0.12706321 -0.046536237 0.11946154 0.16880402
-0.15936287 0.061968535 -0.0753433 0.16213784 -0.023624316 -0.15979458 -0.10845102 -0.017840654
-0.07800576 -0.17165533 0.030482396 0.058730602 -0.00872837 -0.07461541 -0.13656145 -0.007038757
0.16562617 -0.13559008 0.14234346 0.14200357 -0.1806463 0.097859174 0.13094515 -0.043030947
-0.077578194 0.17271236 0.0522106 0.055338323 0.1047478 0.08687526 -0.14689952 -0.064173006
-0.14522327 0.12732306 0.15689418 0.10660002 -0.10058155 -0.13067706 0.10289228 -0.017852172
-0.13414405 0.124073505 0.13568139 -0.09923428 0.05847147 -0.16299623 -0.12509611 0.13223004
-0.1465226 -0.1646748 -0.12557599 0.15306759 0.043711185 0.05505246 -0.0694526 -0.07808788
-0.102161415 -0.026613832 -0.10284621 -0.08090182 -0.15746072 0.036904514 -0.050435618 0.10429931
0.15619716 -0.13401085 0.13503382 -0.11918324 -0.0778151 -0.039719865 -0.08208185 -0.021343961
0.020977333 -0.093566075 -0.03928414 0.09565592 0.15841234 0.05051118 0.08636102 0.14857188
0.0446997 0.13542941 0.17362401 -0.10326068 0.10800356 -0.04308203 -0.014218122 -0.14134827
0.066261664 0.026003927 -0.023801118 0.16513598 -0.105090685 -0.058622412 0.17196545 -0.0070225894
0.17050841 -0.08254264 0.025064021 0.092000276 0.050127774 -0.1091489 -0.071229264 -0.109462224
0.17566162 0.071767956 -0.02551882 -0.05481617 0.18080902 0.11694908 0.03584315 -0.112493195
0.062083915 0.13774073 0.034621373 0.13643727 0.02228427 0.071109116 0.07925528 0.15781808
-0.060647972 -0.17642029 -0.11374139 -0.051290378 0.07803005 -0.052857876 -0.040377006 0.14365986
0.13999683 0.0010225475 0.01503779 -0.04976055 -0.15449038 -0.1209438 0.021158352 0.17958835
0.08609977 -0.03747721 0.13600853 0.10098246 0.025112838 -0.051767126 -0.17068273 0.12953031
-0.17607813 0.13139567 -0.050381377 0.058485255 -0.13095194 -0.1038969 0.13000321 0.14400023
0.02287519 0.06686996 0.13165554 -0.18206768 -0.108195044 0.12351397 -0.1679944 -0.13824128
00000000: b87d f53d 5887 433d 80b8 293e 2041 ae3d
00000010: 1003 f33d a860 083e e23b 0f3e 042f f03d
00000020: 5cf3 ec3d 0072 ed3a 0066 003b 1c4a 23bd
00000030: 8c4e b43d 40af 563d 5ffd b1bd 1c84 66bd
00000040: d036 ba3d b49b 633d 62ba 20be b02b 8d3d
00000050: 5984 25be 8889 90bc 31ef 85bd 78fa f13c
00000060: f47b b23d 6461 1abe 757f c1bd 0879 353d
00000070: 58c4 c7bc 7aeb 0f3e 96a7 083e 6873 1f3e
00000080: 55f8 25be 992d 01be a23b 76bd 0d36 90bd
00000090: c9ca 80bd fbba 8ebd b78e 17be 6044 603d
000000a0: 08b5 aa3d 32b3 97bd 072a 1dbe 1231 023e
000000b0: 80a4 b83c 9422 3bbd 10d2 0abc 1199 08be
000000c0: 00c5 063e 3069 5f3c c444 543d f4aa 79bd
000000d0: a06b d13d be29 2bbe 80dc 003c 4a83 71bd
000000e0: 6070 e33d 60de 0b3c d0ac 123e a49f 353d
000000f0: dde7 b5bd f46e ca3d 406e 093d b13c cbbd
00000100: 30a1 283c f812 b2bd 6885 113e 5841 3ebd
00000110: 6497 973d 931f 06be 78ab db3d eb12 20be
00000120: 785f 96bd cdc6 b0bd 70be 89bc 91ed 23be
00000130: f8d1 19be 88b9 8a3d 0dfc abbd 92dc 163e
00000140: 24ba cf3d 228c 153e 1458 193e 893b 1cbe
00000150: 0027 833b 2ae2 253e 504b 803c a4b5 3b3d
00000160: e0a4 393e 0bd6 d3bd 9caf 123e 18a9 9dbc
00000170: dc1c 023e c89c 3ebd 40a8 f43d f6da 2c3e
00000180: 0530 23be b8d2 7d3d 974d 9abd 7607 263e
00000190: c887 c1bc 31a1 23be 921b debd 9026 92bc
000001a0: 7cc1 9fbd 6ac6 2fbe 38b6 f93c 808f 703d
000001b0: 7001 0fbc f7cf 98bd c4d6 0bbe 60a5 e6bb
000001c0: e899 293e 20d8 0abe 7cc2 113e 6269 113e
000001d0: 58fb 38be 646a c83d 7c16 063e 3841 30bd
000001e0: 51e1 9ebd 82db 303e c8da 553d 70aa 623d
000001f0: 0486 d63d a8eb b13d d46c 16be 236d 83bd
00000200: 69b5 14be fa60 023e dea8 203e 1c51 da3d
00000210: b3fd cdbd 35d0 05be 30b9 d23d b83e 92bc
00000220: 0f5d 09be 401a fe3d 10f0 0a3e 583b cbbd
00000230: c87f 6f3d 7ce8 26be 3219 00be 5067 073e
00000240: 050a 16be 83a0 28be fe96 00be c0bd 1c3e
00000250: 800a 333d b07e 613d 2a3d 8ebd 8aec 9fbd
00000260: 013a d1bd 4005 dabc 09a1 d2bd daaf a5bd
00000270: 623d 21be 3029 173d 9495 4ebd e09a d53d
00000280: 26f2 1f3e 243a 09be 4e46 0a3e 5816 f4bd
00000290: 865d 9fbd 4cb1 22bd 871a a8bd 88d9 aebc
000002a0: a8d8 ab3c 929f bfbd 68e8 20bd 40e7 c33d
000002b0: d836 223e d0e4 4e3d 0cde b03d 3a23 183e
000002c0: 0817 373d 02ae 0a3e 7eca 313e 567a d3bd
000002d0: f830 dd3d c876 30bd 20f3 68bc 9abd 10be
000002e0: 32b4 873d 3006 d53c 90fa c2bc 6819 293e
000002f0: c939 d7bd 0e1e 70bd b617 303e c01d e6bb
00000300: c299 2e3e 1e0c a9bd 1053 cd3c a46a bc3d
00000310: c852 4d3d 7589 dfbd a6e0 91bd bb2d e0bd
00000320: a4e0 333e 14fb 923d d80c d1bc ec86 60bd
00000330: 0026 393e 0083 ef3d 44d0 123d d562 e6bd
00000340: b44b 7e3d e80b 0d3e 24cf 0d3d 36b6 0b3e
00000350: 808d b63c a8a1 913d 9850 a23d 109b 213e
00000360: 026a 78bd 85a7 34be 3ff1 e8bd dc15 52bd
00000370: 38ce 9f3d 8081 58bd 5c62 25bd 921b 133e
00000380: 545b 0f3e 0007 863a 1061 763c b8d1 4bbd
00000390: ba32 1ebe 62b1 f7bd 4854 ad3c 02e6 373e
000003a0: 1455 b03d b481 19bd d245 0b3e e4cf ce3d
000003b0: 70b9 cd3c c409 54bd 74c7 2ebe 98a3 043e
000003c0: d34d 34be 968c 063e b45c 4ebd 3c8e 6f3d
000003d0: 4418 06be e6c7 d4bd 901f 053e cc74 133e
000003e0: c064 bb3c 1ef3 883d b6d0 063e f36f 3abe
000003f0: 5d95 ddbd e4f4 fc3d b906 2cbe 1f8f 0dbe

pixel_patch_embedding.bias f4 [32]
-0.0015551001 -0.028002098 0.0031621456 -0.1711173 0.0073758513 0.10234198 -0.18008974 0.0049563497
0.14276806 0.112419754 -0.14257571 0.056593105 0.0062927604 -0.15594253 0.0795131 0.16238448
-0.13047215 -0.07197076 -0.14115655 -0.028771281 0.09495175 -0.018276557 0.12620088 -0.023570284
-0.059654728 0.0728215 -0.08167487 0.10696933 -0.011605397 -0.082290694 -0.14596245 -0.16882478
00000000: 80d4 cbba a864 e5bc 003c 4f3b 6039 2fbe
00000010: 20b1 f13b ac98 d13d 7269 38be e068 a23b
00000020: ca31 123e 543c e63d 5eff 11be 2cce 673d
00000030: 8033 ce3b 66af 1fbe c4d7 a23d 1e48 263e
00000040: 7e9a 05be 6865 93bd 588b 10be c0b1 ebbc
00000050: 1076 c23d b8b8 95bc ce3a 013e 7816 c1bc
00000060: 8458 74bd 7023 953d 2745 a7bd bc12 db3d
00000070: 9024 3ebc 0688 a8bd 2e77 15be 67e0 2cbe

local_trans_pixel.layers.0.0.fn.norm.weight f4 [32]
1.130933 1.1188256 1.1025237 1.0816672 1.1113967 1.1615231 1.1217978 1.0745217
1.10851 1.0901525 1.1101555 1.1411775 1.1121659 1.1723815 1.186743 1.1485554
1.1080863 1.1320949 1.0957057 1.1066283 1.1488465 1.1100787 1.1219223 1.1065365
1.1504537 1.1121178 1.1061739 1.0868422 1.1555817 1.1663171 1.1514502 1.1527584
00000000: 6ac2 903f ad35 8f3f 7f1f 8d3f 1274 8a3f
00000010: 3f42 8e3f caac 943f 1297 8f3f ed89 893f
00000020: a8e3 8d3f 1e8a 8b3f 9319 8e3f 1b12 923f
00000030: 745b 8e3f 9910 963f 32e7 973f dd03 933f
00000040: c6d5 8d3f 7ce8 903f 1640 8c3f ffa5 8d3f
00000050: 670d 933f 0f17 8e3f 269b 8f3f fda2 8d3f
00000060: 1142 933f e059 8e3f 1b97 8d3f a51d 8b3f
00000070: 1aea 933f e149 953f b862 933f 968d 933f

local_trans_pixel.layers.0.0.fn.norm.bias f4 [32]
-0.009363829 0.06553302 -0.11298127 -0.017083494 0.0023829944 -0.054301407 -0.1186781 0.065538175
0.020373553 -0.14969496 0.07163973 0.01001692 0.043846264 0.017205108 -0.15916115 -0.13521379
-0.00416892 0.18611884 -0.008446008 -0.08867608 -0.13189922 -0.027493795 0.24984173 -0.05370622
0.14227064 0.011446624 0.06624863 0.054933 0.047699038 0.04741232 0.119045146 0.011625029
00000000: bf6a 19bc 2d36 863d b962 e7bd aff2 8bbc
00000010: 032c 1c3b 276b 5ebd 810d f3bd e138 863d
00000020: 70e6 a63c a349 19be dab7 923d 021e 243c
00000030: 2498 333d baf1 8c3c 24fb 22be 7c75 0abe
00000040: 709b 88bb f095 3e3e 2061 0abc ce9b b5bd
00000050: 9710 07be ab3a e1bc 83d6 7f3e 0efb 5bbd
00000060: 65af 113e 9f8a 3b3c 5dad 873d 6d01 613d
00000070: 1160 433d 6c33 423d f1cd f33d e876 3e3c

local_trans_pixel.layers.0.0.fn.fn.to_qkv.weight f4 [768, 32]
-0.057104878 0.09649523 -0.09431778 -0.040907085 -0.21561882 0.21764979 -0.044200864 -0.012692302
0.19745645 -0.14008498 -0.018616553 -0.22793825 0.055100903 0.13340804 0.011797651 0.02697696
0.052711535 -0.02035991 -0.00043016876 -0.06645687 0.029499123 -0.103259325 -0.08204334 0.13392492
-0.057701707 -0.07536337 -0.07818565 0.15650699 0.094123244 -0.031050809 0.0040813307 0.020213934
-0.108070984 -0.017252091 0.25030482 0.1869401 0.12040674 -0.07919257 0.15562588 0.019900387
-0.18749665 0.18543965 -0.12146943 -0.029225059 0.012038589 -0.114921845 -0.031718563 -0.06905102
0.26184365 -0.150962 0.12708397 0.2081513 0.007888009 -0.025243388 -0.06257711 -0.079805195
0.012981684 0.012135155 0.11130702 0.0018505978 -0.2184975 -0.19160074 -0.2202987 -0.10083211
0.15503405 -0.032598007 -0.08166629 0.03582562 -0.047728274 0.28376892 -0.35989392 0.19828935
0.02693469 -0.059063356 0.17715408 -0.18300335 0.20402673 0.082459055 -0.13879633 -0.32343048
-0.117325656 0.09514021 -0.010024658 0.025389737 -0.07866424 -0.06098553 0.24179965 -0.20960881
-0.069877 0.24187557 -0.04211607 0.048286602 0.12126997 0.21426396 -0.030712644 0.2498097
-0.09919194 0.23240778 0.23220728 -0.11760096 0.2318978 -0.27664936 0.3132356 -0.028792743
-0.12560727 0.03419056 -0.29880545 0.048187222 -0.012085109 0.07428373 -0.004443868 0.087881245
0.07241632 -0.26650015 -0.08911638 -0.122066595 -0.010797529 0.15951961 -0.13465868 0.13081448
-0.13818832 0.07737276 -0.020031486 0.1060074 -0.24518448 -0.2290505 -0.013287005 -0.0062522152
0.0038463627 -0.014242979 0.16280708 0.147953 0.011777423 -0.16796306 0.052726813 0.069622904
-0.24020186 0.1283297 -0.21351323 0.17696117 0.08361603 -0.03989618 0.04606979 -0.08483664
0.13495395 -0.18442094 0.08865104 -0.01756041 -0.0032559829 -0.01991169 -0.22310019 0.014242035
0.053908847 -0.16386034 0.08063019 -0.1436435 -0.16968031 -0.11183527 -0.1832357 -0.26992097
0.008201565 0.10705157 -0.25020054 0.006289885 -0.1240571 -0.027801652 -0.08293409 -0.1021735
0.26126263 0.09906046 -0.29645813 0.14659463 -0.04587449 -0.05025794 -0.17151743 -0.09198277
-0.046725042 0.25393778 -0.07335411 0.06200232 0.0064136754 -0.09429421 0.2616413 -0.04454201
0.029828256 0.26468053 0.04440917 0.1377449 0.09809892 0.23596223 0.18933122 0.15492402
0.057089053 -0.018949673 -0.21562457 -0.004186448 -0.035857942 0.13914433 -0.28262532 -0.024455747
0.091492794 0.08794792 -0.015128033 -0.22671372 0.16261551 0.09576443 -0.040474985 0.0763396
-0.04196894 0.056794565 -0.043068003 -0.032786623 0.014422814 -0.15786916 -0.050927993 -0.05408933
-0.0015596163 0.022588119 -0.046973933 0.11579113 -0.09747772 0.16042428 0.20400704 -0.024925994
-0.13973232 -0.09873447 0.08031291 -0.003588215 -0.129148 -0.076880224 -0.20329352 0.108511224
-0.11971108 0.019152187 -0.11669482 -0.04093299 0.16251937 -0.117394336 -0.16493495 -0.2508171
0.007572248 0.19884133 -0.012817195 0.08108364 0.106603555 0.020111846 0.1463878 -0.013672107
0.0040643485 -0.083268955 -0.055141326 0.17074105 -0.016277757 0.0025920956 -0.090684235 -0.25978744
00000000: cee6 69bd 4b9f c53d ae29 c1bd 308e 27bd
00000010: 2ecb 5cbe 96df 5e3e f70b 35bd 60f3 4fbc
00000020: 0632 4a3e 7072 0fbe be81 98bc a568 69be
00000030: 7cb1 613d 1e9c 083e ef4a 413c c9fe dc3c
00000040: 0de8 573d d3c9 a6bc 4688 e1b9 8a1a 88bd
00000050: 25a8 f13c a079 d3bd 5706 a8bd 9d23 093e
00000060: a058 6cbd 1c58 9abd cc1f a0bd 5e43 203e
00000070: b0c3 c03d 445e febc afbc 853b b197 a53c
00000080: 5254 ddbd 4254 8dbc f427 803e 3a6d 3f3e
00000090: cf97 f63d b72f a2bd 645c 1f3e 2306 a33c
000000a0: 1fff 3fbe e4e3 3d3e f7c4 f8bd 6469 efbc
000000b0: 813d 453c 255c ebbd 53eb 01bd 9f6a 8dbd
000000c0: 5f10 863e c895 1abe 4d22 023e 9d25 553e
000000d0: b53c 013c 39cb cebc 6e28 80bd e870 a3bd
000000e0: 21b1 543c 87d2 463c eff4 e33d c28f f23a
000000f0: cfbd 5fbe fc32 44be fb95 61be 1181 cebd
00000100: 3fc1 1e3e 7d85 05bd a840 a7bd e3bd 123d
00000110: b97e 43bd 294a 913e 0444 b8be 5d0c 4b3e
00000120: 24a6 dc3c 6bec 71bd e167 353e 3b65 3bbe
00000130: 62ec 503e 4be0 a83d a020 0ebe ae98 a5be
00000140: 6f48 f0bd dfd8 c23d 773e 24bc 23fe cf3c
00000150: b81a a1bd f7cb 79bd 549a 773e b1a3 56be
00000160: ac1b 8fbd 3bae 773e e681 2cbd 2cc8 453d
00000170: 645c f83d 0368 5b3e 1599 fbbc 1dce 7f3e
00000180: 2525 cbbd 4efc 6d3e bfc7 6d3e c6d8 f0bd
00000190: 9e76 6d3e fca4 8dbe 6b60 a03e c2de ebbc
000001a0: 319f 00be 670b 0c3d 07fd 98be f75f 453d
000001b0: 9f00 46bc 1122 983d de9d 91bb 15fb b33d
000001c0: 024f 943d b572 88be a682 b6bd 0dfe f9bd
000001d0: 1ee8 30bc 1c59 233e f7e3 09be 3bf4 053e
000001e0: 3d81 0dbe 9c75 9e3d 1219 a4bc 681a d93d
000001f0: a411 7bbe 378c 6abe bdb1 59bc 62df ccbb
00000200: 4213 7c3b 625b 69bc e6b6 263e fe80 173e
00000210: 18f6 403c 82fe 2bbe 12f8 573d 7496 8e3d
00000220: 7af7 75be dc68 033e 36a3 5abe 4f35 353e
00000230: e23e ab3d 2d6a 23bd adb3 3c3d d5be adbd
00000240: 5e31 0a3e d8d8 3cbe ad8e b53d d9da 8fbc
00000250: 5462 55bb d71d a3bc 6074 64be 6d57 693c
00000260: 86cf 5c3d 01cb 27be 7121 a53d 4817 13be
00000270: adc0 2dbe e409 e5bd 24a2 3bbe 1533 8abe
00000280: db5f 063c db3d db3d 491a 80be 611b ce3b
00000290: a611 febd 4ac0 e3bc 59d9 a9bd 5740 d1bd
000002a0: 37c4 853e 36e0 ca3d 5cc9 97be e71c 163e
000002b0: e4e6 3bbd 45db 4dbd 44a2 2fbe 7661 bcbd
000002c0: c262 3fbd 2204 823e ae3a 96bd 25f6 7d3d
000002d0: cf29 d23b 531d c1bd d9f5 853e af71 36bd
000002e0: 635a f43c 3584 873e 64e6 353d 000d 0d3e
000002f0: 16e8 c83d 15a0 713e 0be0 413e 67a4 1e3e
00000300: 36d6 693d 583c 9bbc b0cc 5cbe 792e 89bb
00000310: c7df 12bd da7b 0e3e 44b4 90be 6b57 c8bc
00000320: 9360 bb3d 0a1e b43d 92db 77bc a427 68be
00000330: ae84 263e 2420 c43d 19c9 25bd f057 9c3d
00000340: a0e7 2bbd 6ba1 683d 1368 30bd 444b 06bd
00000350: ab4d 6c3c 74a8 21be df99 50bd c68c 5dbd
00000360: 0a6c ccba b80a b93c bd67 40bd e623 ed3d
00000370: 66a2 c7bd 4346 243e 39e7 503e 9931 ccbc
00000380: fd15 0fbe 4c35 cabd 187b a43d 4228 6bbb
00000390: 603f 04be 6173 9dbd 2d2c 50be 223b de3d
000003a0: 152b f5bd 0ce5 9c3c b2fd eebd 5aa9 27bd
000003b0: 7a6b 263e 716c f0bd b5e4 28be 196b 80be
000003c0: 9f20 f83b 109d 4b3e 36ff 51bc 2e0f a63d
000003d0: f752 da3d 99c1 a43c afe6 153e f900 60bc
000003e0: 3a2e 853b ea88 aabd dfdb 61bd bed6 2e3e
000003f0: ee58 85bc 26e0 293b a8b8 b9bd dc02 85be

local_trans_pixel.layers.0.0.fn.fn.to_out.0.weight f4 [32, 256]
-0.014565727 0.08406015 -0.0663313 0.078503065 0.11696296 0.08467505 0.012217135 -0.10237264
0.03035548 0.047323104 -0.100003675 -0.01877594 0.09969963 -0.047195137 0.05304844 0.033657316
-0.00019959525 0.00158842 0.1268342 0.07413132 0.025206197 -3.6790163e-05 -0.08694259 -0.00554828
-0.08067996 -0.029048145 -0.020401789 -0.07668692 0.009906634 0.048448488 0.006155116 0.077396005
-0.07240097 0.14115193 0.10488074 -0.086206764 -0.002589824 -0.08175214 -0.008214823 0.09131203
-0.021885362 -0.00018911493 0.0330443 -0.084785916 -0.04407624 0.04680304 0.018354641 0.057751533
0.08506775 0.04252701 0.07728485 0.045568045 0.02959021 -0.009565433 0.10694224 0.08814676
-0.08896798 -0.0044606575 -0.029409368 -0.052682284 -0.04905341 -0.05466762 -0.028630674 0.019637318
0.05393902 0.017985495 0.07135748 -0.09640108 0.0038278517 -0.088051476 -0.099445 0.07456216
-0.0044031125 0.03602082 -0.03181747 0.033547975 0.06998452 0.046553176 -0.0005842231 0.016313005
0.07568182 -0.09924394 -0.039243717 0.08103845 0.032557722 -0.108434655 -0.013555818 0.008677253
-0.017820992 0.030940905 0.07428857 0.050264183 0.044733092 -0.038094554 -0.005624248 0.010565236
-0.06495614 0.010933652 0.10605083 -0.11609222 -0.08857828 -0.09842693 -0.07554102 0.014344957
-0.029524826 0.07441895 0.07064073 -0.006249371 0.064470224 -0.1166436 0.008879834 0.12168169
-0.06651923 -0.030982751 -0.008038839 -0.07275444 -0.07305518 0.054599967 -0.09426774 0.069417946
-0.032443583 0.01115823 -0.12357867 0.058099 0.03676159 -0.019486764 -0.04346003 -0.13658366
-0.007330647 -0.024523156 -0.08795801 0.09240743 -0.007607177 0.11658792 0.06904822 0.1443062
-0.04475686 0.027845511 0.04074353 0.041012157 0.06563013 -0.022503069 -0.008746331 -0.0026226642
-0.07293539 0.11630034 0.053918872 0.009522729 0.05370083 -0.066193186 -0.0047506397 -0.0064403196
0.021142762 0.02733109 -0.08252822 -0.02132424 -0.1281376 0.13936149 0.01201845 0.0390247
0.051944215 0.060690925 0.02687381 0.017936084 -0.005055032 -0.034932863 -0.008682098 0.0046025002
0.11105841 -0.05796591 -0.0043851137 0.09449077 -0.11194193 -0.09421961 0.040980462 0.04979842
-0.020906886 -0.054835457 -0.007924642 0.037731744 -0.10674817 0.044313427 -0.066068985 -0.11263238
-0.03897611 -0.061481215 0.0057395785 -0.08966532 0.09774042 0.025457516 0.11766074 -0.0049971356
0.09076802 0.024358302 -0.09190683 -0.010282312 -0.036394406 0.054732256 0.04814258 0.051516343
0.059809323 0.034584973 -0.080221914 0.0035969866 -0.018608673 0.024712577 0.07818598 -0.033468407
-0.00995442 0.047639444 0.085205056 -0.016751459 0.007260477 -0.008018277 -0.11622281 0.10088761
-0.0481936 -0.05635248 0.0094353175 -0.08248759 -0.031453744 0.02534687 0.028886642 -0.059569534
0.009757893 -0.070441596 -0.08871014 0.057177134 0.04715469 -0.06365488 0.05274944 0.09057289
0.0020204445 -0.12232881 -0.108482376 0.04479917 -0.016499091 -0.021457054 0.11407637 0.094978966
-0.10522333 0.069014534 -0.05687271 0.07943401 -0.046682883 0.056668907 0.030248009 -0.031575173
-0.07507968 0.08667016 0.11640018 -0.040987078 -0.043864995 -0.13519791 -0.021972459 0.036234483
00000000: 16a5 6ebc ba27 ac3d b4d8 87bd 37c6 a03d
00000010: 478a ef3d 1d6a ad3d 612a 483c bfa8 d1bd
00000020: 0eac f83c dfd5 413d bace ccbd 00d0 99bc
00000030: 522f cc3d b04f 41bd 5249 593d 41dc 093d
00000040: 714a 51b9 8832 d03a d3e0 013e 29d2 973d
00000050: 3a7d ce3c 234f 1ab8 f50e b2bd 59ce b5bb
00000060: 893b a5bd 60f6 edbc a721 a7bc 080e 9dbd
00000070: 6f4f 223c ec71 463d dbb0 c93b cc81 9e3d
00000080: f646 94bd 228a 103e b7cb d63d 2c8d b0bd
00000090: 09ba 29bb aa6d a7bd 7797 06bc cd01 bb3d
000000a0: ee48 b3bc 274d 46b9 7659 073d 3da4 adbd
000000b0: 4a89 34bd 8bb4 3f3d 795c 963c df8c 6c3d
000000c0: 0038 ae3d cd30 2e3d 8547 9e3d 8fa5 3a3d
000000d0: 2b67 f23c 55b8 1cbc 8804 db3d 4a86 b43d
000000e0: d834 b6bd b52a 92bb eaeb f0bc 61c9 57bd
000000f0: 3aec 48bd 28eb 5fbd e08a eabc 71de a03c
00000100: 29ef 5c3d 5156 933c df23 923d ee6d c5bd
00000110: b2dc 7a3b 5554 b4bd d2a9 cbbd 0cb4 983d
00000120: fc47 90bb 918a 133d 0953 02bd 9a69 093d
00000130: 0b54 8f3d 8bae 3e3d 8c26 19ba daa2 853c
00000140: 12ff 9a3d 6840 cbbd 05be 20bd 7df7 a53d
00000150: 3f5b 053d fd12 debd 3919 5ebc 092b 0e3c
00000160: 54fd 91bc c877 fd3c 9b24 983d d1e1 4d3d
00000170: 0c3a 373d 0909 1cbd 9d4b b8bb d019 2d3c
00000180: ba07 85bd 0f23 333c 2d31 d93d c2c1 edbd
00000190: 8768 b5bd 0f94 c9bd 40b5 9abd 1c07 6b3c
000001a0: 0cde f1bc f668 983d 16ac 903d 86c7 ccbb
000001b0: f708 843d d7e2 eebd b97c 113c 4034 f93d
000001c0: 3c3b 88bd 8acf fdbc 56b5 03bc 4800 95bd
000001d0: f49d 95bd 37a4 5f3d 720f c1bd ff2a 8e3d
000001e0: 90e3 04bd 02d1 363c d016 fdbd 38f9 6d3d
000001f0: 5293 163d b5a2 9fbc 2503 32bd 96dc 0bbe
00000200: ed35 f0bb c9e4 c8bc 5423 b4bd 1b40 bd3d
00000210: a045 f9bb a6c5 ee3d 2769 8d3d 01c5 133e
00000220: f852 37bd 451c e43c b0e2 263d 5dfc 273d
00000230: 1769 863d 5b58 b8bc c54c 0fbc 01e1 2bbb
00000240: 265f 95bd df2e ee3d 09da 5c3d 3805 1c3c
00000250: 67f5 5b3d 4b90 87bd 41ab 9bbb 5109 d3bb
00000260: 9633 ad3c 73e5 df3c 8e04 a9bd 2cb0 aebc
00000270: 8136 03be c7b4 0e3e 08e9 443c 5dd8 1f3d
00000280: 75c3 543d 0c97 783d 7726 dc3c b2ee 923c
00000290: afa4 a5bb c315 0fbd 5c3f 0ebc 92d0 963b
000002a0: 9772 e33d a96d 6dbd 00b1 8fbb 6084 c13d
000002b0: d041 e5bd 36f6 c0bd 21db 273d 6ef9 4b3d
000002c0: eb44 abbc 259b 60bd 5cd6 01bc 9a8c 1a3d
000002d0: c99e dabd ff81 353d 2d4f 87bd ceab e6bd
000002e0: 6aa5 1fbd bad3 7bbd 1313 bc3b 74a2 b7bd
000002f0: 212c c83d 488c d03c 1df8 f03d 03bf a3bb
00000300: 95e4 b93d 108b c73c a639 bcbd 2477 28bc
00000310: 4d12 15bd ee2e 603d 2731 453d cd02 533d
00000320: 9ffa 743d f9a8 0d3d 634b a4bd 6cbb 6b3b
00000330: 3771 98bc 0872 ca3c f91f a03d 2b16 09bd
00000340: dd17 23bc 9421 433d fd7f ae3d 5b3a 89bc
00000350: 4ce9 ed3b 175f 03bc 3906 eebd 2a9e ce3d
00000360: a766 45bd dcd1 66bd 9796 1a3c 41ef a8bd
00000370: a4d5 00bd 3da4 cf3c aea3 ec3c 2fff 73bd
00000380: 92df 1f3c af43 90bd a9ad b5bd 9232 6a3d
00000390: 4725 413d 7d5d 82bd cc0f 583d 487e b93d
000003a0: 6f69 043b 8787 fabd 022c debd 567f 373d
000003b0: 1a29 87bc b4c6 afbc dfa0 e93d 5584 c23d
000003c0: 547f d7bd 7e57 8d3d 5cf3 68bd 4cae a23d
000003d0: 8d36 3fbd a81d 683d acca f73c f854 01bd
000003e0: 60c3 99bd 2080 b13d 3863 ee3d 11e2 27bd
000003f0: c8ab 33bd 5271 0abe 96ff b3bc 9c6a 143d

local_trans_pixel.layers.0.0.fn.fn.to_out.0.bias f4 [32]
0.03375752 -0.06815695 -0.039270207 -0.053796057 0.038546536 0.025026204 0.024199877 0.05375834
-0.10198783 0.010306082 0.0016718378 -0.11995191 -0.045427524 0.06358909 -0.041972477 -0.064637184
0.009149288 0.064413294 0.027104395 -0.0777223 -0.120944045 -0.039410226 0.024650095 -0.02440285
-0.048923425 -0.10784137 -0.046505064 0.043871887 0.055844266 -0.019609572 -0.09591969 0.06905397
00000000: 5345 0a3d df95 8bbd ccd9 20bd 4159 5cbd
00000010: f9e2 1d3d c103 cd3c d23e c63c b531 5c3d
00000020: ffde d0bd d7da 283c 9121 db3a 59a9 f5bd
00000030: 3612 3abd ff3a 823d 55eb 2bbd 8060 84bd
00000040: e5e6 153c 1eeb 833d 090a de3c df2c 9fbd
00000050: 83b1 f7bd 9e6c 21bd ffee c93c 7ce8 c7bc
00000060: ee63 48bd f0db dcbd 187c 3ebd 02b3 333d
00000070: f5bc 643d 41a4 a0bc 8b71 c4bd 2b6c 8d3d

local_trans_pixel.layers.0.1.fn.norm.weight f4 [32]
0.9756437 1.0556735 1.0839332 0.99632615 1.0899065 1.1502439 1.1074234 1.0534829
1.0097446 1.0488089 0.967621 1.025501 1.031847 1.114766 1.0029678 0.92036486
1.0029413 1.0284395 1.0628314 1.0330187 1.0101604 1.0642201 1.0039903 0.96862024
1.0081203 1.0398451 1.0880152 0.9631542 1.084205 1.0594089 0.99911875 1.1212989
00000000: c9c3 793f 4f20 873f 53be 8a3f 3b0f 7f3f
00000010: 0e82 8b3f 313b 933f 0dc0 8d3f 87d8 863f
00000020: 503f 813f 5f3f 863f 03b6 773f 9e43 833f
00000030: 9013 843f a7b0 8e3f 4061 803f 089d 6b3f
00000040: 6160 803f e8a3 833f dc0a 883f f539 843f
00000050: f04c 813f 5d38 883f c182 803f 7ff7 773f
00000060: 160a 813f a519 853f 1544 8b3f 4691 763f
00000070: 3bc7 8a3f b69a 873f 3fc6 7f3f b986 8f3f

local_trans_pixel.layers.0.1.fn.norm.bias f4 [32]
0.031031888 -0.03333032 -0.042945683 -0.014397536 0.017981444 0.006105762 0.022759352 -0.00028536905
-0.047520116 -0.00541576 -0.030463213 -0.01473666 -0.09156851 0.038227588 -0.07382094 0.046080325
-0.065475665 0.036888644 0.013414857 -0.014661774 -0.02218009 0.029082362 0.016542463 -0.050824527
0.07238873 0.0036953588 -0.0015268868 -0.035399005 0.029836109 -0.012085735 -0.058966722 -0.05154258
00000000: 9636 fe3c 6085 08bd d0e7 2fbd a5e3 6bbc
00000010: d24d 933c d812 c83b d271 ba3c 969d 95b9
00000020: 74a4 42bd b076 b1bb fd8d f9bc 0872 71bc
00000030: 4588 bbbd 8894 1c3d 6f2f 97bd b9be 3c3d
00000040: 1b18 86bd 8c18 173d fdc9 5b3c f037 70bc
00000050: 05b3 b5bc 223e ee3c 0f84 873c 612d 50bd
00000060: 8b40 943d d52d 723b d221 c8ba 8cfe 10bd
00000070: db6a f43c 3f03 46bc 1787 71bd 501e 53bd

local_trans_pixel.layers.0.1.fn.fn.net.0.weight f4 [8, 32]
0.13185659 -0.13537973 0.046963237 -0.0997461 -0.113347985 -0.027075114 -0.00071204785 -0.030579356
0.053627536 -0.0759943 0.104810275 0.138247 0.026646793 0.12107787 0.010922291 -0.031009058
-0.1322553 -0.07040828 0.13561605 -0.07378761 0.072620176 -0.094016135 -0.026185052 0.13417152
0.17811492 0.05597395 -0.21093604 -0.07550664 0.096161686 -0.11182504 -0.07284805 0.09573638
-0.008726128 -0.18251431 -0.1918767 -0.07605955 0.10120668 0.24557465 -0.0087023955 0.11824529
-0.098314054 0.06855617 -0.08231733 -0.20003323 -0.01978005 0.23086509 -0.08619059 0.02391406
-0.009166004 0.14239165 -0.017121565 -0.1571315 -0.040621214 -0.060556114 0.011526678 -0.08876741
-0.0027707554 0.06703982 0.12993692 -0.03409983 0.16284978 0.043347027 -0.14897469 -0.23543334
-0.111635976 -0.12291645 0.13389829 -0.13455649 -0.21805094 -0.1342226 -0.15956035 0.13529713
-0.1342629 0.06475958 0.06267386 0.10208228 0.05790008 -0.0013703225 0.065086104 -0.08103505
0.012240469 0.082530096 0.084054485 -0.150433 -0.07858813 0.18599622 0.029510785 0.07430981
-0.07138853 0.07630507 0.15765795 0.112243645 0.15438473 -0.13077383 0.021618804 -0.065102175
-0.03821918 0.06968225 0.029984262 0.11753617 0.12160097 -0.019021682 0.14506964 -0.19744639
0.06004052 0.22275412 -0.21949556 -0.010413411 -0.15311086 -0.112054706 -0.03410259 0.037927497
-0.019117981 0.11438211 0.05284045 0.12364303 -0.029822873 0.053516693 -0.23570794 -0.034362193
0.033853613 -0.25255924 0.21210101 0.10989529 0.0026495703 -0.23463856 -0.1519784 0.017453372
0.13376734 -0.18481767 0.017633198 0.035149395 -0.015140352 -0.02811281 0.047865096 -0.20114844
-0.07863026 -0.18168244 0.022363257 0.059603862 -0.12513079 -0.00032336442 -0.07996676 -0.1368848
0.11709591 -0.24051932 0.20763996 0.07459843 -0.011348277 -0.00024046599 0.061997034 -0.040251445
0.061800785 0.00315609 0.02041185 -0.036233354 -0.22673436 0.20026892 0.14012007 -0.227392
0.15638879 -0.23818114 -0.13368416 0.072916575 0.15897322 0.13307555 -0.19264361 0.10798426
0.11831836 0.11710509 0.03508822 0.012090293 -0.007693867 -0.0063024587 0.063906536 -0.027966635
-0.03512932 -0.06412259 0.06819672 0.072301775 -0.041542504 0.115687266 0.063057624 -0.12897027
0.080653526 0.060603045 -0.04315643 0.04308856 0.09480779 0.071587704 -0.05061307 0.11801078
-0.106806375 -0.21336989 0.060623974 -0.04952732 0.011281692 -0.14813527 0.17106739 -0.0035979797
-0.22217016 -0.038695075 -0.046908617 0.078267366 -0.09751383 -0.030862182 -0.19910456 0.0039303256
-0.12716606 0.130344 -0.16670398 0.08677884 -0.0056959777 0.21480806 0.16370998 -0.15787642
0.15342967 -0.09026023 0.032585565 -0.1420517 -0.14736603 -0.13179468 -0.0539775 0.11713267
0.1467889 0.18535855 0.013241037 0.021053348 -0.07610659 -0.25215706 0.013014026 -0.05233821
-0.080349654 -0.11190931 0.09654279 -0.03897375 -0.1828966 -0.15513866 -0.081826426 0.13147171
-0.18636635 0.0371212 0.12114526 0.043829795 -0.03521486 0.099197894 -0.05919396 -0.010527428
0.13600473 -0.14771499 -0.12378341 -0.045976207 0.028488616 -0.053109396 0.0015008305 -0.10296329
00000000: 6a05 073e fca0 0abe 865c 403d af47 ccbd
00000010: fd22 e8bd a1cc ddbc b9a8 3aba 8f81 fabc
00000020: 8ca8 5b3d e6a2 9bbd c5a6 d63d 9f90 0d3e
00000030: 604a da3c adf7 f73d 69f3 323c b506 febc
00000040: ef6d 07be 3732 90bd efde 0a3e f51d 97bd
00000050: e3b9 943d 888b c0bd 0982 d6bc 4264 093e
00000060: c263 363e f144 653d 9eff 57be 3aa3 9abd
00000070: 6bf0 c43d 8704 e5bd 5c31 95bd 6f11 c43d
00000080: 09f8 0ebc 08e5 3abe 537b 44be 1cc5 9bbd
00000090: 7345 cf3d ec77 7b3e 7e94 0ebc 962a f23d
000000a0: e158 c9bd 2d67 8c3d fd95 a8bd 83d5 4cbe
000000b0: c509 a2bc e667 6c3e b184 b0bd 6be7 c33c
000000c0: 022d 16bc 1ecf 113e 8642 8cbc 14e7 20be
000000d0: 6e62 26bd b009 78bd 64da 3c3c b0cb b5bd
000000e0: 9095 35bb 2c4c 893d 2f0e 053e 43ac 0bbd
000000f0: 18c2 263e a78c 313d d28c 18be 7015 71be
00000100: 67a1 e4bd 9fbb fbbd a21c 093e 2dc9 09be
00000110: bf48 5fbe a671 09be ca63 23be 558b 0a3e
00000120: 377c 09be aca0 843d 275b 803d 8410 d13d
00000130: a228 6d3d 659c b3ba dd4b 853d b4f5 a5bd
00000140: 408c 483c 8a05 a93d c224 ac3d 1c0b 1abe
00000150: d0f2 a0bd cb75 3e3e 9ac0 f13c be2f 983d
00000160: 2634 92bd d545 9c3d 1671 213e ffdf e53d
00000170: 0817 1e3e 93e9 05be eb19 b13c 4a54 85bd
00000180: b78b 1cbd 91b5 8e3d 8ea1 f53c ceb6 f03d
00000190: ee09 f93d 5cd3 9bbc 238d 143e 632f 4abe
000001a0: 0ced 753d a819 643e 72c3 60be 039d 2abc
000001b0: 18c9 1cbe f07c e5bd 28af 0bbd dd59 1b3d
000001c0: 509d 9cbc 2b41 ea3d 3a6f 583d 8f38 fd3d
000001d0: 194f f4bc 5234 5b3d 6c5d 71be 5fbf 0cbd
000001e0: 16aa 0a3d 724f 81be 0231 593e c810 e13d
000001f0: 6aa4 2d3b 1745 70be 3aa0 1bbe 60fa 8e3c
00000200: 4efa 083e d840 3dbe 7f73 903c d0f8 0f3d
00000210: 3d0f 78bc d64c e6bc 310e 443d dbf9 4dbe
00000220: e708 a1bd f60a 3abe 2633 b73c 2e23 743d
00000230: 4922 00be 3d89 a9b9 9dc5 a3bd 872b 0cbe
00000240: fbcf ef3d b24a 76be 929f 543e 10c7 983d
00000250: 20ee 39bc 9925 7cb9 9af0 7d3d b3de 24bd
00000260: d222 7d3d 67d6 4e3b c136 a73c 6d69 14bd
00000270: 0d2d 68be 4c13 4d3e a37b 0f3e 73d9 68be
00000280: 6224 203e c2e5 73be 80e4 08be 4955 953d
00000290: e0c9 223e f544 083e 5e44 45be da26 dd3d
000002a0: e550 f23d cbd4 ef3d aab8 0f3d 5d16 463c
000002b0: d61c fcbb db84 cebb 6ee1 823d 491a e5bc
000002c0: c3e3 0fbd b452 83bd b9aa 8b3d f412 943d
000002d0: 7928 2abd 72ed ec3d 5b24 813d c810 04be
000002e0: ad2d a53d e63a 783d ccc4 30bd a17d 303d
000002f0: 962a c23d 939c 923d a74f 4fbd a3af f13d
00000300: 4dbd dabd a37d 5abe d850 783d 29dd 4abd
00000310: d9d6 383c c6b0 17be 4a2c 2f3e 15cc 6bbb
00000320: 9380 63be ba7e 1ebd 4023 40bd a44a a03d
00000330: 55b5 c7bd b0d2 fcbc 11e2 4bbe f6c9 803b
00000340: d237 02be e678 053e 73b4 2abe 1bb9 b13d
00000350: 53a5 babb a5f6 5b3e 97a3 273e 5baa 21be
00000360: ab1c 1d3e 5bda b8bd 7178 053d 0076 11be
00000370: 1fe7 16be 2ff5 06be 8317 5dbd 41e3 ef3d
00000380: d44f 163e a2ce 3d3e eff0 583c 1278 ac3c
00000390: c6dd 9bbd bb1a 81be c838 553c 9760 56bd
000003a0: 5c8e a4bd b530 e5bd 3ab8 c53d f0a2 1fbd
000003b0: 3f49 3bbe abdc 1ebe 9d94 a7bd 85a0 063e
000003c0: d2d6 3ebe 660c 183d 021b f83d df86 333d
000003d0: 753d 10bd 4428 cb3d 5e75 72bd 3c7b 2cbc
000003e0: d344 0b3e 9942 17be 2882 fdbd 8c51 3cbd
000003f0: f560 e93c 3d89 59bd 84b7 c43a 6bde d2bd

local_trans_pixel.layers.0.1.fn.fn.net.0.bias f4 [8]
0.1775259 0.024772022 0.05329444 0.014467765 0.07957719 -0.078267284 -0.03130862 -0.082420036
00000000: 59c9 353e b2ee ca3c 454b 5a3d 340a 6d3c
00000010: 5ef9 a23d 994a a0bd 783d 00bd d6cb a8bd

local_trans_pixel.layers.0.1.fn.fn.net.3.weight f4 [32, 8]
0.15710726 0.116376765 -0.10305389 -0.059076633 -0.14757115 0.40645784 -0.16204605 0.18975882
-0.24820124 0.41290924 0.24691676 0.13467844 -0.31900844 -0.33282888 -0.39987078 -0.26415518
-0.29737127 0.2030395 0.13200198 0.12787457 -0.043112416 0.1178748 -0.46081376 -0.15620394
-0.09542142 -0.12934995 -0.31520623 -0.20753826 0.1401982 0.1140611 -0.25129515 -0.28813967
-0.13369028 0.31713942 0.22791594 0.2962114 -0.30872077 0.23359174 0.2736505 -0.30703974
0.26768824 0.37952727 0.20788348 0.16717261 0.02766731 0.14084925 0.1841099 -0.14711137
-0.2795624 -0.06394356 0.24359412 -0.022262787 -0.3310465 -0.15699793 0.2865007 0.27870622
0.30624908 -0.072387554 0.40035266 -0.27104098 -0.32231846 0.26482704 -0.1219877 -0.11318667
0.3620868 0.26109156 0.14466223 0.32364702 0.16901532 0.17279018 0.13697277 -0.13380146
0.17227015 -0.15737277 -0.2212584 -0.05736595 0.21930513 -0.35576427 0.030122105 0.30800322
-0.19809295 0.16962385 -0.24248317 0.10346787 -0.21494526 0.24291517 -0.041848492 -0.33987093
-0.05283563 -0.1473976 0.11607849 0.14743459 0.008313849 0.061028212 0.080403805 0.20161438
-0.1427286 0.19718102 0.061309844 -0.3062479 0.11046673 -0.27268085 0.27769023 -0.18105038
-0.3055241 0.4598432 -0.27878836 -0.120806456 0.029536476 0.24137674 -0.2688116 -0.38316622
0.25513962 0.13924895 0.14194834 -0.13401993 -0.36278507 -0.064419806 -0.2220258 -0.26747108
-0.13252722 -0.07887289 -0.17294803 -0.3306268 -0.2794939 0.25564668 -0.36379594 -0.33008835
-0.2006186 -0.23676597 0.30389807 -0.17578493 -0.09985884 -0.33406505 0.23886022 -0.14757888
0.0388632 -0.093404755 -0.24958335 0.01679504 -0.20303558 0.1452378 -0.2670795 0.26749313
-0.1597846 0.19642067 -0.19231902 -0.06576784 -0.18074481 0.41107723 0.061618716 -0.35748622
-0.004361937 0.3182023 -0.05328772 0.13286622 -0.10559811 0.30504623 0.41578168 -0.010630737
0.25537267 -0.07056277 -0.31028664 -0.24538396 -0.03495483 0.18391444 -0.13686496 -0.10382521
-0.01962149 0.31698316 0.17241755 -0.3877862 -0.25240737 -0.26879472 -0.2458949 -0.16953442
-0.29634953 0.3379668 -0.0508887 -0.0033264395 -0.20677263 -0.29250616 -0.07431217 -0.20207584
-0.020901125 -0.07042822 -0.12584741 0.2328239 0.3331811 0.33538032 -0.06754697 0.10328159
-0.20935188 0.07082724 0.25940034 -0.03707336 -0.02552621 0.22233072 0.3024273 0.047705196
0.10207995 -0.45895138 0.24419172 -0.26465344 -0.19334698 0.1692982 -0.19260676 0.10789126
-0.34071717 0.29655007 -0.047754716 -0.295892 0.3318045 -0.2673581 -0.021194402 0.23657165
0.053567745 0.0070134555 -0.13069376 0.27090204 -0.20173201 -0.19913143 -0.07212979 -0.40937343
0.13997902 0.39060867 0.2747574 0.26106942 -0.15989271 -0.13943215 -0.09223573 0.25363287
-0.13591124 0.29405588 0.20165879 -0.2701285 0.1397104 0.1454072 -0.22251152 -0.22358263
-0.046301294 -0.4500061 -0.012163659 -0.08111328 -0.14929402 0.11758289 0.26168004 0.19905216
-0.11397117 -0.24696614 -0.3425605 0.11843255 -0.27738938 0.034287296 -0.044219658 -0.25000373
00000000: bae0 203e f156 ee3d eb0d d3bd 57fa 71bd
00000010: e41c 17be 3e1b d03e 66ef 25be 2350 423e
00000020: 7728 7ebe d768 d33e bfd7 7c3e 25e9 093e
00000030: 1355 a3be 8c68 aabe ddbb ccbe 593f 87be
00000040: 0c41 98be 96e9 4f3e 872b 073e 8df1 023e
00000050: a596 30bd 5868 f13d c8ef ebbe edf3 1fbe
00000060: 4e6c c3bd 5074 04be b662 a1be e984 54be
00000070: 1e90 0f3e de98 e93d c2a9 80be 0b87 93be
00000080: 1be6 08be 1960 a23e cc62 693e 05a9 973e
00000090: a610 9ebe ac32 6f3e eb1b 8c3e 5034 9dbe
000000a0: 6f0e 893e 6651 c23e 68df 543e 4c2f 2b3e
000000b0: 8ea6 e23c c93a 103e 4e87 3c3e 5da4 16be
000000c0: ce22 8fbe d7f4 82bd bd70 793e 7360 b6bc
000000d0: ed7e a9be 11c4 20be 38b0 923e 95b2 8e3e
000000e0: aecc 9c3e ed3f 94bd 06fb cc3e e2c5 8abe
000000f0: ed06 a5be 6997 873e b0d4 f9bd 6ace e7bd
00000100: 7163 b93e cbad 853e 5622 143e 10b5 a53e
00000110: 5a12 2d3e e9ef 303e 9742 0c3e 4003 09be
00000120: 9667 303e 5426 21be 9091 62be 8ff8 6abd
00000130: 8691 603e bc26 b6be a2c2 f63c 99b2 9d3e
00000140: e1d8 4abe e0b1 2d3e 824d 78be f6e6 d33d
00000150: 9c1a 5cbe c1be 783e 5369 2bbd 9003 aebe
00000160: 2c6a 58bd 65ef 16be 8fba ed3d 18f9 163e
00000170: cf36 083c b8f8 793d c0aa a43d 0074 4e3e
00000180: 7227 12be d2e9 493e 0820 7b3d 86cc 9cbe
00000190: 623c e23d d39c 8bbe 6a2d 8e3e 4565 39be
000001a0: a86d 9cbe 9170 eb3e 59bd 8ebe 6069 f7bd
000001b0: 7bf6 f13c 772b 773e ada1 89be 5d2e c4be
000001c0: a9a1 823e 4797 0e3e e85a 113e 853c 09be
000001d0: f7be b9be 88ee 83bd bb5a 63be f8f1 88be
000001e0: 37b5 07be 1c88 a1bd 4a19 31be ea47 a9be
000001f0: d319 8fbe 1fe4 823e 7643 babe 5701 a9be
00000200: f66e 4dbe c772 72be 8798 9b3e f700 34be
00000210: cb82 ccbd 930a abbe c697 743e eb1e 17be
00000220: 052f 1f3d fe4a bfbd c792 7fbe c095 893c
00000230: 8fe8 4fbe 38b9 143e a5be 88be dcf4 883e
00000240: 939e 23be 8022 493e 47ef 44be 4ab1 86bd
00000250: 2b15 39be b778 d23e e863 7c3d 6f08 b7be
00000260: 94ee 8ebb 69eb a23e 3944 5abd 150e 083e
00000270: d243 d8bd 052f 9c3e 56e1 d43e 8b2c 2ebc
00000280: 35c0 823e 3783 90bd e4dd 9ebe ef45 7bbe
00000290: cc2c 0fbd 1154 3c3e 5426 0cbe 50a2 d4bd
000002a0: 3fbd a0bc 9e4b a23e 3a8e 303e ea8b c6be
000002b0: 8a3b 81be 769f 89be dfcb 7bbe 6e9a 2dbe
000002c0: 20bb 97be fc09 ad3e ab70 50bd 6500 5abb
000002d0: 34bc 53be 5ec3 95be fb30 98bd f8ec 4ebe
000002e0: d638 abbc ac3c 90bd 25de 00be 6369 6e3e
000002f0: b796 aa3e f8b6 ab3e 1156 8abd 4c85 d33d
00000300: 5760 56be df0d 913d 1fd0 843e 3cda 17bd
00000310: 581c d1bc aaaa 633e c0d7 9a3e 8666 433d
00000320: 4b0f d13d adfb eabe 650d 7a3e a880 87be
00000330: c0fc 45be 825c 2d3e b53a 45be 18f6 dc3d
00000340: 7b72 aebe 69d5 973e 739a 43bd 287f 97be
00000350: 48e2 a93e 29e3 88be e29f adbc d73f 723e
00000360: da69 5b3d 21d1 e53b 96d4 05be acb3 8a3e
00000370: d692 4ebe 1ce9 4bbe c9b8 93bd 6599 d1be
00000380: a956 0f3e dcfd c73e 00ad 8c3e e4aa 853e
00000390: eaba 23be 4dc7 0ebe 16e6 bcbd 2bdc 813e
000003a0: 512c 0bbe 7e8e 963e a47f 4e3e 484e 8abe
000003b0: 3e10 0f3e a0e5 143e 0fda 63be d8f2 64be
000003c0: 6da6 3dbd 3367 e6be 154a 47bc b81e a6bd
000003d0: 88e0 18be 4ccf f03d edfa 853e 54d4 4b3e
000003e0: b769 e9bd b1e4 7cbe 1764 afbe c48c f23d
000003f0: fb05 8ebe d670 0c3d ac1f 35bd 7d00 80be

local_trans_pixel.layers.0.1.fn.fn.net.3.bias f4 [32]
-0.2245044 -0.06332501 0.031791724 0.29974413 0.29222393 -0.017038235 0.21690358 0.1642464
-0.3762039 0.1712184 0.30877084 -0.3119556 0.17511113 0.15901549 0.29650164 -0.24691178
-0.22060753 -0.011896085 -0.09470025 -0.1434604 -0.36939842 0.20741409 -0.2676345 -0.1035002
-0.29948917 0.078714594 0.24130225 -0.048421483 0.31649077 0.027810272 -0.019871395 -0.0002847006
00000000: 7be4 65be 8bb0 81bd 0a38 023d 1078 993e
00000010: 609e 953e c593 8bbc f91b 5e3e 3530 283e
00000020: cc9d c0be e053 2f3e 3617 9e3e a5b8 9fbe
00000030: 5550 333e f5d4 223e 10cf 973e 71d6 7cbe
00000040: f1e6 61be cce7 42bc 34f2 c1bd 48e7 12be
00000050: ca21 bdbe 5c64 543e 6407 89be eaf7 d3bd
00000060: a556 99be 1e35 a13d f017 773e 9b55 46bd
00000070: 140b a23e 5ed2 e33c 56c9 a2bc de43 95b9

conv2d_features.0.weight f4 [64, 30, 3, 3]
-0.071798116 0.04040661 0.042109996 0.00013094499 -0.048817325 0.0913501 0.047245145 0.044442758
0.056710318 -0.045144703 0.012119706 -0.018897787 -0.043995917 0.0032187155 -0.024544684 0.018493295
-0.05780005 0.019164836 0.005387945 0.050997406 0.069068916 0.033985846 -0.009216848 -0.05028694
0.03644087 0.025318062 -0.03037908 -0.04032675 0.0008551292 -0.073616 0.009701913 -0.059416953
-0.095845394 0.025617428 0.025174867 -0.06665158 -0.034416117 0.028684987 -0.023997294 -0.017478533
-0.021764878 -0.048475638 -0.0065891356 -0.024060637 0.016105583 0.008289765 -0.065814875 0.0026467284
-0.013838009 -0.05262571 -0.054733176 -0.046436377 -0.06807425 -0.023018086 0.015495612 -0.0484996
0.019704044 -0.055187438 -0.05517395 -0.019315246 -0.0082974555 -0.04817422 -0.06308641 0.021609621
0.017884707 -0.018622018 0.006075514 0.0021626197 0.037230033 -0.021181224 0.03300551 -0.032879144
-0.04823253 -0.0711989 -0.0024488107 0.0024830063 0.0004090068 -0.013143471 0.010985384 -0.043566894
-0.03767118 0.028951602 0.04582004 0.025013795 0.036755163 -0.018000625 -0.015298198 0.013125205
-0.00059573294 -0.030722838 -0.031596888 0.010519109 -0.015201171 -0.025339333 0.033554375 -0.05877927
-0.049689848 0.024116924 0.025756877 -0.04359473 -0.008100566 -0.012931595 0.012259268 0.025952758
-0.014309742 -0.024490781 0.008869131 0.00741762 0.06530927 -0.06692419 0.046200015 0.03826752
0.026823899 -0.013272602 0.038241204 -0.027731856 0.022618905 -0.04204753 -0.020440511 0.025752984
-0.039550137 0.09104514 0.011685821 -0.00031416953 -0.035716586 -0.01802469 0.04123177 -0.016145255
-0.09159968 -0.027810693 0.010257708 -0.079540946 -6.4990636e-05 -0.072835274 -0.041885335 0.004343651
-0.015980454 -0.010751528 0.038563803 0.035371814 -0.06267159 -0.022512127 -0.0032316335 0.005422449
0.015619377 0.02055878 0.058820203 0.01701947 -0.030225348 -0.041982178 0.012651748 -0.020864073
-0.0042062122 0.046321675 -0.03440615 -0.025384482 0.008451972 -0.010504883 -0.025060607 0.05753576
0.012292111 0.015867878 0.018895268 -0.03422635 0.03462129 0.047877446 0.053477123 -0.010457711
0.07219556 0.05710774 0.03994587 -0.05471325 -0.10347178 -0.0029266053 -0.027119 0.008156886
-0.007539262 -0.020138128 -0.0310244 -0.01573853 0.0074254344 -0.0884076 -0.039758153 -0.02389148
-0.02615059 -0.028165095 0.04694569 0.05817898 0.05584496 -0.022541316 -0.055121973 0.006971378
-0.03081974 -0.027322186 -0.007992676 -0.02106433 -0.010643626 -0.022173414 -0.12664646 -0.11712035
-0.07366594 -0.047336787 -0.04748037 -0.053326767 -0.06768651 -0.06999934 -0.09573079 -0.02343845
-0.02905925 -0.017515045 -0.09383737 -0.082579285 -0.04179713 -0.08820355 -0.02055345 -0.07914728
-0.022870632 -0.025858933 -0.015032625 0.0021729732 -0.049335588 -0.03182972 0.039327823 0.013997408
0.0054204725 -0.036685567 -0.023150286 0.0064968388 0.026811233 -0.0063834116 0.004799121 -0.016755702
0.022558236 0.07092653 0.0048735566 -0.0075526293 -0.034161955 0.03577074 0.014825508 -0.039720472
-0.003761356 0.050134886 -0.029497093 -0.043747462 -0.01185947 0.073490575 -0.030231437 0.045829214
-0.024936281 0.0021521375 0.034511633 0.02712407 -0.03646944 0.046146136 0.016273404 0.027664581
00000000: e40a 93bd 6781 253d 887b 2c3d 474e 0939
00000010: adf4 47bd c315 bb3d 2084 413d 9c09 363d
00000020: 1449 683d a7e9 38bd bb91 463c 88cf 9abc
00000030: 1035 34bd 16f1 523b ef11 c9bc 407f 973c
00000040: bfbf 6cbd 93ff 9c3c 5c8d b03b a8e2 503d
00000050: 0174 8d3d be34 0b3d 4302 17bc aef9 4dbd
00000060: 0643 153d d367 cf3c 8cdd f8bc aa2d 25bd
00000070: c02a 603a fcc3 96bd c6f4 1e3c 315f 73bd
00000080: 974a c4bd a4db d13c 863b ce3c a080 88bd
00000090: eaf7 0cbd c7fc ea3c f995 c4bc 242f 8fbc
000000a0: 424c b2bc 648e 46bd ade9 d7bb d01a c5bc
000000b0: dbef 833c cbd1 073c f3c9 86bd bc74 2d3b
000000c0: d1b8 62bc 0e8e 57bd e52f 60bd 1234 3ebd
000000d0: 836a 8bbd 6d90 bcbc 4fe1 7d3c 84a7 46bd
000000e0: 606a a13c 390c 62bd 14fe 61bd 023b 9ebc
000000f0: 0df2 07bc 5552 45bd 7333 81bd a906 b13c
00000100: f382 923c 348d 98bc 1b15 c73b bdba 0d3b
00000110: 857e 183d 3f84 adbc c930 073d 48ac 06bd
00000120: 798f 45bd bbd0 91bd 3a7c 20bb efb9 223b
00000130: f76f d639 b757 57bc 0afc 333c 3373 32bd
00000140: 184d 1abd e92b ed3c cbad 3b3d bbe9 cc3c
00000150: 958c 163d 0c76 93bc 4ba5 7abc 1a0b 573c
00000160: f62a 1cba 76ae fbbc bd6b 01bd 5758 2c3c
00000170: 550e 79bc 6f94 cfbc 5070 093d 88c2 70bd
00000180: 9587 4bbd db90 c53c 1600 d33c 6390 32bd
00000190: 3db8 04bc 0adf 53bc 19db 483c e19a d43c
000001a0: 6873 6abc e4a0 c8bc d54f 113c 820f f33b
000001b0: dec0 853d 8d0f 89bd 3a3c 3d3d 67be 1c3d
000001c0: cbbd db3c 5475 59bc cfa2 1c3d eb2d e3bc
000001d0: 484b b93c 083a 2cbd dc72 a7bc ecf7 d23c
000001e0: 53ff 21bd e075 ba3d e375 3f3c 1fb7 a4b9
000001f0: 8e4b 12bd 84a8 93bc a5e2 283d 0e43 84bc
00000200: 9d98 bbbd 40d3 e3bc f20f 283c 5de6 a2bd
00000210: 954b 88b8 a92a 95bd f58f 2bbd 2f55 8e3b
00000220: 71e9 82bc 2d27 30bc 14f5 1d3d 09e2 103d
00000230: f659 80bd 5a6b b8bc d0c9 53bb cdae b13b
00000240: 6ae8 7f3c e36a a83c 74ed 703d 6a6c 8b3c
00000250: 269b f7bc 81f5 2bbd 4749 4f3c 22eb aabc
00000260: 44d4 89bb ccbb 3d3d 77ed 0cbd 1ef3 cfbc
00000270: 247a 0a3c ac1c 2cbc e74b cdbc 9eaa 6b3d
00000280: da64 493c 5afd 813c 40ca 9a3c ee30 0cbd
00000290: 0ecf 0d3d 241b 443d d40a 5b3d d256 2bbc
000002a0: 44db 933d cee9 693d 489e 233d 001b 60bd
000002b0: 03e9 d3bd 4acc 3fbb aa28 debc 76a4 053c
000002c0: ea0b f7bb b7f8 a4bc e226 febc 17ee 80bc
000002d0: 0f51 f33b 0b0f b5bd 72d9 22bd 11b8 c3bc
000002e0: c339 d6bc 7cba e6bc 204a 403d 154d 6e3d
000002f0: afbd 643d 91a8 b8bc 94c7 61bd 2870 e43b
00000300: ae79 fcbc c7d2 dfbc b7f3 02bc 1a8f acbc
00000310: 9a62 2ebc 05a5 b5bc 9caf 01be cbdc efbd
00000320: 2bde 96bd 38e4 41bd c77a 42bd 2b6d 5abd
00000330: 3a9f 8abd d05b 8fbd 810e c4bd fe01 c0bc
00000340: aa0d eebc b67b 8fbc cf2d c0bd 541f a9bd
00000350: 7833 2bbd 10a4 b4bd b55f a8bc f817 a2bd
00000360: 315b bbbc 1dd6 d3bc 664b 76bc 7168 0e3b
00000370: 1d14 4abd e15f 02bd 3616 213d 6255 653c
00000380: 389e b13b 9b43 16bd aba5 bdbc 6fe3 d43b
00000390: 3ba3 db3c f02b d1bb f241 9d3b 4143 89bc
000003a0: 0dcc b83c ee41 913d 5bb2 9f3b 0c7c f7bb
000003b0: 68ed 0bbd 5784 123d b0e6 723c efb1 22bd
000003c0: 1581 76bb 3d5a 4d3d e3a3 f1bc 8a30 33bd
000003d0: 394e 42bc 3a82 963d eba7 f7bc 6ab7 3b3d
000003e0: 2c47 ccbc e00a 0d3b 125c 0d3d 4c33 de3c
000003f0: fb60 15bd bb03 3d3d cd4f 853c d5a0 e23c
