src/res/GGCL/guided_contra_cross_transformer/Pavia/20/true ss 1/_1711789407.pth (torch, 266710 bytes, 37 tensors)

pixel_pos_embedding f4 [1, 170, 32]
-2.72452 0.16203792 1.0954864 0.0039194035 -0.6737671 -0.30998456 0.4197529 -0.52811515
-0.30023378 -0.71440923 0.83412296 -0.7350843 -2.414476 -0.8317493 0.19794974 0.27423954
-1.1121895 0.08094621 -0.2717694 -0.898929 -0.52234066 0.46075964 1.6903411 -0.037620056
-1.119404 -0.27409703 0.1910501 0.12698992 -0.48915976 0.191434 -0.4539069 0.17286749
-1.7296748 -2.1893363 1.5949266 -2.404408 -1.8594701 -0.4031562 -0.7937015 1.953533
-0.8075835 0.20645383 0.56509286 0.60644317 1.7417563 1.1283163 0.25205833 0.28300744
-1.1880704 -1.7506531 0.60497046 -0.15828268 0.13268055 -0.38445523 2.339957 -1.3676351
-0.7446988 -2.1854975 0.15788023 -2.7451065 -0.24925816 -0.660788 0.20520921 -0.09706507
0.54752594 0.7345829 0.2759571 -1.1416074 0.89889854 0.38282457 0.73246604 -1.3063202
-0.975958 0.3970827 1.6391604 -0.4171517 0.07545609 -0.29127803 0.045293204 -1.8394802
-1.4097918 0.1520126 -0.6660422 -0.43040335 -0.46144992 0.08317295 -0.3487557 -1.1508368
0.49926698 0.17236918 -1.5502917 0.6992708 0.8064124 0.43506372 0.1907654 1.2601554
0.46220678 1.4192834 0.39078152 -0.887867 0.54564285 0.39813778 -0.8254651 0.2491615
-1.8629704 -0.10241362 -1.1871377 -1.9628258 -0.97568685 0.67291325 0.9995339 -1.19544
-0.90332186 1.0096118 -0.89795494 -1.3795594 0.6345412 0.920183 0.85383236 0.048191316
1.5084863 -0.7972818 1.3895458 0.63895905 -0.56642056 1.1616757 -0.7091801 0.38031608
-0.30189168 -1.8429393 0.77181333 0.73210937 -1.2013386 1.1730542 1.3873123 0.63896906
0.23828663 0.43030816 -0.7537257 -1.1015171 0.12707345 -1.3474282 -0.94325614 0.5304733
-1.318425 0.14537573 0.4112834 -0.13585664 -0.60270584 -0.6499764 -0.96798855 -1.0106914
-0.31018203 0.52413917 -0.12879767 -0.3358153 -0.84373546 1.3598392 0.1772911 0.19520867
1.2519447 -1.4690801 -0.3247438 0.31530863 2.5801136 -0.11849909 0.24934106 1.47374
1.0543908 0.46989438 1.1667393 0.907896 0.41548175 2.3177736 0.6243702 -0.65721273
-0.8561127 -0.93495464 -0.14330055 -0.40954554 0.6407448 -0.1384065 0.5709839 -1.3239868
-1.2200426 0.19442502 -0.15341902 -0.0052576484 1.1545897 -0.5480283 -1.044771 -0.06567006
-1.5640467 -1.1261995 2.0177753 -0.018780768 0.19461127 1.105056 -0.9887873 1.245094
-1.6629809 1.0098151 0.31843042 -0.63697064 -0.60599315 -0.11778487 -2.1562722 -0.3712754
0.26191577 0.7932381 0.6169292 0.10346544 -0.77207243 1.1410744 -0.04469743 -0.47154686
-1.4563856 -0.038892858 1.0435278 -0.54601645 0.054630294 -1.3185322 -0.05372529 -1.2790664
-0.7112934 -0.14305653 -0.1293904 0.19742672 -1.6320187 1.677037 -1.0341198 -1.0752277
0.004289848 -0.5436658 -1.5691622 0.47339672 -0.5720546 1.4126853 -0.07292136 -0.2947149
-1.4875437 0.32367718 0.34843138 -0.17914473 -0.3597246 -0.19517474 0.04030028 -0.74667
0.99447864 0.32216203 1.2072283 1.2853888 -0.97696835 -0.46287495 -0.0041961777 -0.020611113
00000000: 895e 2ec0 45ed 253e e638 8c3f 576e 803b
00000010: 007c 2cbf 4cb6 9ebe dae9 d63e 8e32 07bf
00000020: 3eb8 99be 86e3 36bf 1589 553f 7c2e 3cbf
00000030: c686 1ac0 86ed 54bf 56b3 4a3e 2069 8c3e
00000040: 3a5c 8ebf 20c7 a53d 5c25 8bbe 3620 66bf
00000050: 1eb8 05bf b0e8 eb3e 195d d83f 7d17 1abd
00000060: a148 8fbf 7256 8cbe a3a2 433e a509 023e
00000070: 2673 fabe 4607 443e 7c66 e8be 2d04 313e
00000080: fc65 ddbf 161e 0cc0 8e26 cc3f d2e1 19c0
00000090: 1e03 eebf 7d6a cebe 0630 4bbf 5f0d fa3f
000000a0: cbbd 4ebf a268 533e eda9 103f dc3f 1b3f
000000b0: dff1 de3f ab6c 903f ca0d 813e 5ae6 903e
000000c0: b112 98bf 6715 e0bf 58df 1a3f db14 22be
000000d0: 69dd 073e 51d7 c4be dbc1 1540 ab0e afbf
000000e0: 95a4 3ebf 31df 0bc0 5bab 213e d3af 2fc0
000000f0: 883d 7fbe 6729 29bf 5d22 523e 0dca c6bd
00000100: a92a 0c3f a00d 3c3f 404a 8d3e 3120 92bf
00000110: 371e 663f 9501 c43e e582 3b3f 8035 a7bf
00000120: 62d8 79bf 6c4e cb3e 02d0 d13f e894 d5be
00000130: b988 9a3d 6522 95be 5e85 393d 1674 ebbf
00000140: 0f74 b4bf 31a9 1b3e be81 2abf d45d dcbe
00000150: 2a43 ecbe 9456 aa3d 1b90 b2be 9f4e 93bf
00000160: ec9f ff3e 8c81 303e f56f c6bf 6903 333f
00000170: 0b71 4e3f acc0 de3e 0158 433e c64c a13f
00000180: 5ea6 ec3e 14ab b53f 8414 c83e 404b 63bf
00000190: 40af 0b3f b7d8 cb3e ae51 53bf 3124 7f3e
000001a0: d075 eebf 3bbe d1bd 21f4 97bf e03d fbbf
000001b0: 9dc6 79bf 0b44 2c3f 74e1 7f3f 2e04 99bf
000001c0: 1a40 67bf f63a 813f 60e0 65bf 6795 b0bf
000001d0: 4b71 223f 1d91 6b3f c294 5a3f 4264 453d
000001e0: 1416 c13f a91a 4cbf a3dc b13f d292 233f
000001f0: f000 11bf cab1 943f d48c 35bf cab8 c23e
00000200: 8c91 9abe 6fe5 ebbf 8f95 453f 856b 3b3f
00000210: 77c5 99bf a426 963f 7393 b13f 7a93 233f
00000220: 6901 743e 5a51 dc3e 2bf4 40bf 83fe 8cbf
00000230: 8b1f 023e 8778 acbf 3c79 71bf 19cd 073f
00000240: 27c2 a8bf 60dd 143e bd93 d23e 011e 0bbe
00000250: ee4a 1abf da64 26bf 19ce 77bf 565e 81bf
00000260: 2ed0 9ebe fc2d 063f 89e3 03be fcef abbe
00000270: 0cff 57bf 360f ae3f cc8b 353e c8e4 473e
00000280: b93f a03f d10a bcbf d244 a6be 2270 a13e
00000290: 9520 2540 a7af f2bd 4353 7f3e 83a3 bc3f
000002a0: 47f6 863f ff95 f03e b757 953f df6b 683f
000002b0: 06ba d43e 6756 1440 bad6 1f3f 183f 28bf
000002c0: 342a 5bbf 3059 6fbf 61bd 12be f4af d1be
000002d0: da07 243f 6fba 0dbe 002c 123f 6678 a9bf
000002e0: 5b2a 9cbf 5a17 473e e019 1dbe 5a48 acbb
000002f0: 98c9 933f 954b 0cbf 0ebb 85bf 067e 86bd
00000300: af32 c8bf 4e27 90bf 3b23 0140 20da 99bc
00000310: 2d48 473e 7a72 8d3f 2a21 7dbf 3d5f 9f3f
00000320: 8fdc d4bf 9f41 813f 5009 a33e 8210 23bf
00000330: 5e22 1bbf 3239 f1bd 5d00 0ac0 cf17 bebe
00000340: d319 863e a711 4b3f 12ef 1d3f b0e5 d33d
00000350: 8aa6 45bf ba0e 923f a714 37bd 976e f1be
00000360: d86a babf 1e4e 1fbd 5292 853f bcc7 0bbf
00000370: 04c4 5f3d aac5 a8bf 0d0f 5cbd 73b8 a3bf
00000380: 5317 36bf 697d 12be eb7e 04be 3b2a 4a3e
00000390: fde5 d0bf 26a9 d63f 0a5e 84bf 10a1 89bf
000003a0: da91 8c3b af2d 0bbf 4fda c8bf 0e61 f23e
000003b0: 2c72 12bf dfd2 b43f cb57 95bd dfe4 96be
000003c0: d567 bebf 04b9 a53e 9965 b23e b771 37be
000003d0: d32d b8be e3db 47be e811 253d c425 3fbf
000003e0: 2796 7e3f 6cf2 a43e 7586 9a3f 9f87 a43f
000003f0: 991a 7abf f2fd ecbe 1780 89bb a3d8 a8bc

cls_token_pixel f4 [1, 1, 32]
0.61477566 -0.15628795 0.64038634 0.9121951 0.93782425 -0.09095412 0.6323971 0.3480804
0.59196436 0.93084145 -0.91635084 0.70241326 -0.5787436 -1.1895394 -0.7563159 -0.46987826
-0.87549895 -0.4139165 -1.7617694 -0.2814634 0.6126992 -0.51420754 0.19712438 -0.2583405
0.9992864 -1.1726588 -0.51353306 -0.9364493 0.09137889 -0.2418949 0.2255744 0.22981043
00000000: f061 1d3f f309 20be 5cf0 233f 9e85 693f
00000010: 4015 703f 2746 babd c7e4 213f 9837 b23e
00000020: fa8a 173f a04b 6e3f f895 6abf 5bd1 333f
00000030: 8a28 14bf d442 98bf eb9d 41bf e293 f0be
00000040: b320 60bf ddec d3be a981 e1bf f91b 90be
00000050: dbd9 1c3f 1ba3 03bf f9da 493e 3545 84be
00000060: 3cd1 7f3f af19 96bf e776 03bf 24bb 6fbf
00000070: db24 bb3d 4cb3 77be fafc 663e 6d53 6b3e

pixel_patch_embedding.weight f4 [32, 30]
-0.045585364 -0.101959355 -0.0034950823 -0.15360093 -0.11376729 0.08173156 -0.17863731 -0.005752504
-0.013177246 -0.16473255 -0.07810242 0.09115887 -0.010287538 -0.12695993 0.05716084 -0.0881202
0.1786438 -0.0048250854 0.1373097 -0.06966313 -0.04650925 -0.1344749 -0.1584394 0.13425854
0.06420106 -0.018437028 -0.14115256 0.015629247 0.1519989 -0.11857303 -0.13682044 0.046722636
0.10613531 -0.14287615 0.11990443 0.15653136 -0.044134572 -0.019256324 0.096778214 -0.012929678
0.12652698 -0.16058445 -0.0516686 0.17931491 -0.016504034 -0.083446436 0.17933527 -0.02010797
0.035197854 -0.17634904 -0.02057375 -0.03629446 0.083721906 0.14878762 -0.12546273 -0.028733999
0.13010281 -0.15041557 0.16893607 -0.070093915 0.035277247 -0.050676227 0.1326279 0.057704166
-0.10348855 0.053446874 -0.053177774 0.07511333 0.13605091 -0.07474654 -0.120642126 0.07386905
0.16188416 0.12186143 0.031705618 -0.039983496 -0.085572876 0.011372566 -0.11871692 -0.062504314
0.13386372 0.0032322109 0.16045359 0.072151005 0.016601965 0.16693276 -0.06161034 0.0627339
-0.005938992 -0.02175881 0.11200154 0.120001525 -0.033709437 0.118472666 -0.104955725 -0.14340025
0.18081298 -0.17619132 -0.052216306 0.15532956 0.14720231 -0.13864064 -0.051910862 0.14523971
0.09405595 -0.086920105 -0.14759848 0.16688085 0.100397676 0.1298436 -0.087021284 -0.17923819
0.15276402 0.033156097 -0.15935078 -0.11384334 -0.0090826005 -0.02406238 -0.14181206 -0.0050815344
-0.16386741 0.051393732 -0.12023339 -0.09296947 0.035877228 -0.099640384 -0.094922684 -0.08506648
0.10199711 0.13512331 -0.12353167 -0.08040759 0.07710391 0.08495021 0.118706375 0.060860395
-0.14562064 -0.054011464 0.003174901 0.095350385 0.0845297 -0.028595552 -0.14054394 0.007138416
0.022620797 -0.02555868 -0.06782087 0.18112451 -0.0075109154 0.16642517 0.16235372 0.14552048
0.10732871 -0.097422995 -0.06498251 0.16017616 -0.082618386 0.06341213 -0.13902092 0.01201947
0.1687651 -0.030283332 -0.15991111 -0.10364545 0.1729199 0.077833086 -0.0047210604 0.1591664
0.083275914 0.11513716 -0.11326588 0.108769655 0.038434908 0.09552649 0.045938373 -0.17202812
-0.08416217 -0.033690184 -0.05197476 0.03199689 0.065512866 0.077776134 -0.071998574 -0.1616358
0.0052315146 0.06291212 0.030722216 -0.095337644 -0.18003577 -0.050878435 0.021033838 -0.026780292
-0.026295379 -0.10241955 -0.015559554 -0.08195672 0.1591236 0.06413257 -0.04692866 0.17323503
-0.028953493 -0.11156578 0.08714983 -0.14401005 -0.049656793 0.15026641 -0.08426233 0.11890772
-0.12636301 -0.0021270663 0.027749151 -0.07041335 0.062078714 0.11464468 0.167752 0.16040355
0.11238685 0.08578107 -0.059246577 0.07903749 -0.05597593 0.075469166 0.00013506413 -0.144908
-0.035056353 -0.10769738 0.17753336 -0.08299955 0.14773652 0.06275694 -0.09463955 0.012294009
-0.035268545 0.038886815 0.01820843 -0.17145938 -0.110656664 0.06561212 0.055304304 -0.16988176
-0.021209136 -0.0647976 0.011564016 0.14024064 -0.09946301 -0.0035940856 -0.019267365 -0.07277744
0.030683652 -0.04583928 0.08530423 0.17572737 0.1368044 -0.06917371 -0.047558784 -0.10025262
00000000: b8b7 3abd 11d0 d0bd c00d 65bb 9049 1dbe
00000010: d3fe e8bd e062 a73d b3ec 36be 807f bcbb
00000020: 60e5 57bc a6af 28be 29f4 9fbd 80b1 ba3d
00000030: 108d 28bc c901 02be 7c21 6a3d 5d78 b4bd
00000040: 66ee 363e c01b 9ebb ea9a 0c3e 8bab 8ebd
00000050: 7c80 3ebd cab3 09be f03d 22be 127b 093e
00000060: d87b 833d 4009 97bc 4c8a 10be e808 803c
00000070: 9aa5 1b3e 6bd6 f2bd a81a 0cbe 3c60 3f3d
00000080: 785d d93d 204e 12be 7490 f53d c249 203e
00000090: 74c6 34bd 70bf 9dbc a833 c63d 00d7 53bc
000000a0: 4a90 013e 4070 24be 74a2 53bd 549e 373e
000000b0: 7833 87bc f7e5 aabd aaa3 373e 78b9 a4bc
000000c0: a02b 103d d894 34be 488a a8bc 80a9 14bd
000000d0: 6476 ab3d c85b 183e 4d79 00be 9063 ebbc
000000e0: ac39 053e 8a06 1abe 94fd 2c3e 668d 8fbd
000000f0: e07e 103d e091 4fbd 9ccf 073e 345b 6c3d
00000100: cef1 d3bd 1ceb 5a3d f0d0 59bd 04d5 993d
00000110: ee50 0b3e b714 99bd 3813 f7bd a848 973d
00000120: f6c4 253e 7c92 f93d c0dd 013d bcc5 23bd
00000130: d540 afbd 0054 3a3c db21 f3bd 4302 80bd
00000140: 9213 093e 80d3 533b f24d 243e e8c3 933d
00000150: d800 883c 6cf0 2a3e 205b 7cbd a27a 803d
00000160: e09b c2bb 883f b2bc 1061 e53d 5cc3 f53d
00000170: e812 0abd cca1 f23d 07f3 d6bd 84d7 12be
00000180: 0a27 393e 7f6b 34be c4e0 55bd b60e 1f3e
00000190: 34bc 163e d0f7 0dbe 7ca0 54bd b8b9 143e
000001a0: 68a0 c03d 2b03 b2bd 0e24 17be d0e2 2a3e
000001b0: 4c9d cd3d b8f5 043e 3738 b2bd 378a 37be
000001c0: 2c6e 1c3e b0ce 073d da2c 23be b226 e9bd
000001d0: 30cf 14bc 781e c5bc 2e37 11be 0083 a6bb
000001e0: dccc 27be 3c82 523d ec3c f6bd c766 bebd
000001f0: 00f4 123d 4210 ccbd d366 c2bd 5637 aebd
00000200: dce3 d03d c45d 0a3e 2cfe fcbd bcac a4bd
00000210: a8e8 9d3d 60fa ad3d 541c f33d c048 793d
00000220: 941d 15be 203b 5dbd 0012 503b 1047 c33d
00000230: e81d ad3d 3841 eabc c0ea 0fbe 60e9 e93b
00000240: 404f b93c 7060 d1bc abe5 8abd b478 393e
00000250: 201e f6bb 5c6b 2a3e 0e40 263e 5203 153e
00000260: 28cf db3d b585 c7bd 8d15 85bd 3805 243e
00000270: d433 a9bd 38de 813d 805b 0ebe 50ed 443c
00000280: c2d0 2c3e c014 f8bc bdbf 23be 1144 d4bd
00000290: ea11 313e f466 9f3d 20b3 9abb 84fc 223e
000002a0: 908c aa3d 08cd eb3d f1f7 e7bd a0c2 de3d
000002b0: ec6d 1d3d 64a3 c33d e029 3c3d 2428 30be
000002c0: 375d acbd b8fe 09bd 7ce3 54bd 2c0f 033d
000002d0: 9c2b 863d 1849 9f3d fd73 93bd db83 25be
000002e0: 206d ab3b 12d8 803d 28ad fb3c 6240 c3bd
000002f0: 4c5b 38be e865 50bd 284f ac3c 5862 dbbc
00000300: 6869 d7bc 57c1 d1bd 80ed 7ebc edd8 a7bd
00000310: 4cf1 223e f057 833d 4438 40bd 8664 313e
00000320: e02f edbc 9a7c e4bd 9c7b b23d 5f77 13be
00000330: ec64 4bbd 70df 193e ba91 acbd e485 f33d
00000340: 4e65 01be 4066 0bbb 3052 e33c e034 90bd
00000350: 4046 7e3d d4ca ea3d 2ec7 2b3e d440 243e
00000360: 142b e63d fcad af3d 8aac 72bd 68de a13d
00000370: 0447 65bd 948f 9a3d 00a0 0d39 c362 14be
00000380: 4097 0fbd 7290 dcbd 4ecb 353e abfb a9bd
00000390: 3e48 173e b686 803d 61d2 c1bd d06c 493c
000003a0: c075 10bd c847 1f3d d829 953c 0c93 2fbe
000003b0: f69f e2bd a65f 863d c486 623d 7cf5 2dbe
000003c0: c8be adbc 9bb4 84bd 0077 3d3c 3e9b 0f3e
000003d0: 43b3 cbbd c08a 6bbb 98d6 9dbc 570c 95bd
000003e0: 485c fb3c f8c1 3bbd fcb3 ae3d e0f1 333e
000003f0: 7416 0c3e f2aa 8dbd 00cd 42bd 3f51 cdbd

pixel_patch_embedding.bias f4 [32]
0.045966268 -0.1729512 -0.043432906 -0.073036805 0.11631158 0.09108937 0.10995749 -0.1559331
-0.08343895 0.1066581 -0.11705346 -0.039503872 0.1455994 -0.034608006 0.07997352 0.09097943
0.018828735 -0.16686273 -0.07613068 -0.05860705 -0.06376252 0.009413317 0.15629819 0.14651272
-0.046854258 -0.11663257 -0.15734842 0.13366622 0.1539774 0.049994424 0.09304544 -0.09703389
00000000: 2047 3c3d 1f1a 31be b4e6 31bd 5294 95bd
00000010: c434 ee3d 108d ba3d 6431 e13d edac 1fbe
00000020: 0ae2 aabd 906f da3d b9b9 efbd d0ce 21bd
00000030: 0218 153e 20c1 0dbd 28c9 a33d 6c53 ba3d
00000040: b83e 9a3c 10de 2abe 67ea 9bbd f20d 70bd
00000050: ed95 82bd 503a 1a3c a20c 203e 6e07 163e
00000060: 40ea 3fbd 0fdd eebd f21f 21be ccdf 083e
00000070: 40ac 1d3e f4c6 4c3d 9c8e be3d b4b9 c6bd

local_trans_pixel.layers.0.0.fn.norm.weight f4 [32]
1.094532 1.159196 1.1207036 1.151256 1.1497532 1.0962923 1.0950408 1.1212239
1.1470541 1.1417928 1.1513578 1.1049387 1.0578872 1.1765864 1.1589801 1.1636883
1.1754198 1.1856241 1.0971794 1.1219649 1.1698194 1.1555318 1.152502 1.2131271
1.1639628 1.1442912 1.15237 1.1624678 1.2017167 1.1359291 1.1343552 1.0951755
00000000: a019 8c3f 8960 943f 3773 8f3f 5b5c 933f
00000010: 1d2b 933f 4e53 8c3f 4c2a 8c3f 4484 8f3f
00000020: abd2 923f 4426 923f b15f 933f a26e 8d3f
00000030: d968 873f 629a 963f 7659 943f bdf3 943f
00000040: 2874 963f 88c2 973f 6070 8c3f 8c9c 8f3f
00000050: a4bc 953f 77e8 933f 2f85 933f c047 9b3f
00000060: bcfc 943f 2278 923f dc80 933f bfcb 943f
00000070: dad1 993f 2066 913f 8d32 913f b62e 8c3f

local_trans_pixel.layers.0.0.fn.norm.bias f4 [32]
-0.041991416 -0.10881981 0.16655754 0.05189143 0.057672314 -0.002276981 0.09354709 -0.13323341
0.0042865938 0.09516057 0.040295124 0.023041584 -0.047790326 -0.02254831 -0.029221091 0.038850766
-0.12773657 -0.04503346 -0.11916626 -0.07689465 0.14087641 -0.030253632 0.07775682 -0.06181366
0.11419428 -0.013716674 -0.03837195 -0.18405566 0.0026416983 0.14663206 0.048048656 0.06290557
00000000: 31ff 2bbd ecdc debd 0f8e 2a3e 1c8c 543d
00000010: ce39 6c3d 6739 15bb 9e95 bf3d 576e 08be
00000020: 8e76 8c3b 8ce3 c23d 800c 253d b4c1 bc3c
00000030: cabf 43bd 3cb7 b8bc 1261 efbc fb21 1f3d
00000040: 60cd 02be 0175 38bd 710d f4bd f17a 9dbd
00000050: e841 103e 77d6 f7bc f83e 9f3d 5230 7dbd
00000060: b1de e93d e7bb 60bc e82b 1dbd 1679 3cbe
00000070: 5820 2d3b b726 163e abce 443d a3d4 803d

local_trans_pixel.layers.0.0.fn.fn.to_qkv.weight f4 [768, 32]
0.030196581 -0.0027318907 0.026509171 -0.16246569 -0.17992468 -0.07732924 0.13589732 0.10064246
0.06558115 0.04924112 -0.15223417 0.06464362 -0.03503596 -0.1597198 0.18138051 -0.030828202
-0.1264702 0.17982191 0.1762073 -0.08720953 0.02101498 0.2588114 -0.16476773 0.15564223
-0.005895383 0.17763577 0.019265968 -0.12745228 0.053306803 -0.053645108 -0.15040462 0.10121578
0.14415246 0.05706708 -0.13990648 0.14474322 0.00973675 0.043896995 -0.15909168 0.0245608
0.043974537 0.21781956 0.14797823 -0.029333444 -0.18161392 -0.107227065 0.12472436 0.17955421
0.07996607 0.11367588 0.003993388 0.07181344 -0.074428454 -0.11525016 0.09599835 -0.295547
0.18605316 -0.17034368 -0.11169558 -0.16406488 0.107559636 -0.065573074 0.27711087 0.020538975
0.12281805 0.04671142 -0.07429753 0.16901338 0.04019975 -0.060502823 0.011993494 0.11577955
0.027331574 0.08619321 0.21998058 0.16230062 -0.039929193 0.04693639 0.09369871 0.08519207
-0.019140339 -0.039324198 -0.21030103 0.118965566 0.121279 -0.19183291 0.0625194 -0.03565145
0.2906224 -0.07993929 0.06893885 -0.09985309 -0.042963624 0.13014756 0.17045102 -0.076362826
0.06565418 0.15077639 0.058545757 -0.18756728 -0.23107104 -0.01806971 -0.2012395 0.10898633
0.09926034 -0.1721443 -0.15121073 -0.19384047 0.004214839 0.066100486 0.094402306 0.20702758
0.165536 0.05865274 0.052701708 0.11445018 0.039832354 -0.10754221 -0.14490332 0.33964255
-0.26003283 0.2423019 -0.10807304 0.16690223 0.3161663 -0.14863871 -0.054182604 0.008230002
-0.17959964 0.38208053 -0.22913718 0.07750926 0.25665516 -0.016895438 0.024813313 0.2841922
0.14870527 -0.04137915 0.1133185 0.09998154 0.11143833 0.2036265 0.024309283 0.2472657
0.20318905 -0.00851768 0.122629754 0.016168786 0.070398234 -0.40852326 -0.16952679 -0.12101037
-0.06483225 -0.17420977 0.021322792 0.14331368 0.27439424 -0.1609937 0.29794538 -0.22497995
0.10932264 -0.12180003 -0.098102696 -0.032427058 -0.13248973 0.0038072017 0.091051936 0.16050306
-0.22140837 -0.16238126 -0.29744637 -0.12233835 0.045958262 -0.120144695 -0.035840403 -0.12827966
-0.049875006 0.25081718 0.1787804 0.16735935 -0.17294231 0.010321082 0.12250507 0.18122146
0.06862407 -0.07443598 0.060772434 -0.13130341 0.13606666 0.020885909 -0.28066924 -0.041100524
-0.013999671 -0.36343032 0.15074126 0.14815725 0.09558596 -0.22036849 0.20708083 -0.17743948
-0.029869502 0.1223385 -0.08841101 -0.045094416 0.018179081 -0.014418452 -0.16941518 0.07863101
0.0789371 -0.092998035 0.20149131 -0.25729936 0.17388676 0.017582618 -0.0147918025 0.15818448
-0.06062217 0.15432093 0.13709772 -0.047608163 -0.06497886 0.20868832 -0.18258666 0.061834496
-0.004533109 0.011327885 -0.074874766 -0.0961804 -0.08742516 -0.12294566 0.040908247 0.043762755
0.23726758 0.2597432 -0.33993813 -0.051152 -0.041512158 -0.0907024 0.1560116 0.016537027
0.035002127 -0.112136476 -0.13210176 -0.059230983 -0.037243485 0.46564442 0.18063274 0.11761587
-0.26189375 -0.11246017 0.007926879 -0.0961965 -0.21548618 0.3513301 -0.17303145 0.06114162
00000000: d25e f73c 8509 33bb c329 d93c 685d 26be
00000010: 2d3e 38be cb5e 9ebd ab28 0b3e a21d ce3d
00000020: 694f 863d 0fb1 493d 46e3 1bbe e063 843d
00000030: de81 0fbd 968d 23be d0bb 393e 6d8b fcbc
00000040: 6781 01be 3c23 383e b06f 343e e99a b2bd
00000050: 9b27 ac3c ee82 843e dfb8 28be ad60 1f3e
00000060: 0f2e c1bb 27e6 353e aad3 9d3c da82 02be
00000070: 3c58 5a3d f9ba 5bbd ab03 1abe 384a cf3d
00000080: b49c 133e 2cbf 693d a543 0fbe 9137 143e
00000090: e486 1f3c 56cd 333d eee8 22be bb33 c93c
000000a0: a51e 343d 170c 5f3e 9b87 173e b14c f0bc
000000b0: 00f9 39be dd99 dbbd 7c6f ff3d 0fdd 373e
000000c0: 40c5 a33d e6ce e83d f7da 823b ed12 933d
000000d0: f26d 98bd 4708 ecbd c89a c43d f051 97be
000000e0: b884 3e3e 936e 2ebe a7c0 e4bd a000 28be
000000f0: 3a48 dc3d 2d4b 86bd 7ae1 8d3e 5a41 a83c
00000100: 0888 fb3d 7954 3f3d 4e29 98bd d811 2d3e
00000110: 7ea8 243d cfd1 77bd 5c80 443c d41d ed3d
00000120: 77e6 df3c 1186 b03d 9742 613e 2232 263e
00000130: cb8c 23bd 5f40 403d 1ce5 bf3d 2e79 ae3d
00000140: 33cc 9cbc 6912 21bd 2759 57be 38a4 f33d
00000150: 2061 f83d d96f 44be 2c0a 803d 4107 12bd
00000160: 76cc 943e 36b7 a3bd d02f 8d3d c77f ccbd
00000170: a0fa 2fbd 6745 053e b68a 2e3e 1d64 9cbd
00000180: b375 863d 2065 1a3e adcd 6f3d a311 40be
00000190: e39d 6cbe ee06 94bc ba11 4ebe 3a34 df3d
000001a0: 0149 cb3d 9846 30be fcd6 1abe 1e7e 46be
000001b0: a21c 8a3b b15f 873d ff55 c13d 0aff 533e
000001c0: 4582 293e db3d 703d bfdd 573d db64 ea3d
000001d0: 4027 233d 173f dcbd 8961 14be a1e5 ad3e
000001e0: 0623 85be fd1d 783e 6655 ddbd 6be8 2a3e
000001f0: 8de0 a13e bf34 18be 94ee 5dbd 21d7 063c
00000200: f8e8 37be 0fa0 c33e f0a2 6abe 2dbd 9e3d
00000210: 4e68 833e 4d68 8abc 4a45 cb3c a481 913e
00000220: 3246 183e 2f7d 29bd 8813 e83d 1fc3 cc3d
00000230: c739 e43d 7783 503e 4324 c73c 3833 7d3e
00000240: ca10 503e bd8d 0bbc 4f25 fb3d 6774 843c
00000250: f32c 903d f629 d1be 6e98 2dbe 49d4 f7bd
00000260: c5c6 84bd 0c64 32be 23ad ae3c d2c0 123e
00000270: 677d 8c3e 88db 24be 4c8c 983e 2561 66be
00000280: 8ce4 df3d 4b72 f9bd 11ea c8bd 3cd2 04bd
00000290: 63ab 07be 3f82 793b 7079 ba3d ea5a 243e
000002a0: e0b8 62be 4647 26be e44a 98be 878c fabd
000002b0: bb3e 3c3d 6c0e f6bd 63cd 12bd be5b 03be
000002c0: bc49 4cbd 1c6b 803e 3612 373e 4060 2b3e
000002d0: ca17 31be c119 293c f0e3 fa3d 1e92 393e
000002e0: c78a 8c3d e471 98bd 84ec 783d 6774 06be
000002f0: 0f55 0b3e ed18 ab3c e1b3 8fbe 0659 28bd
00000300: e05e 65bc 8a13 babe eb5b 1a3e 89b6 173e
00000310: 92c2 c33d 47a8 61be ff0c 543e b2b2 35be
00000320: e3b0 f4bc 9c8c fa3d d510 b5bd ecb4 38bd
00000330: 4cec 943c 5f3b 6cbc 2c7b 2dbe 4c09 a13d
00000340: c6a9 a13d c175 bebd bd53 4e3e bebc 83be
00000350: 5f0f 323e 6c09 903c 5159 72bc 1dfb 213e
00000360: f44e 78bd 4e06 1e3e 5863 0c3e c700 43bd
00000370: a313 85bd 64b2 553e fff7 3abe 2b46 7d3d
00000380: 798a 94bb 9898 393c f157 99bd 3bfa c4bd
00000390: f60b b3bd efca fbbd 688f 273d 9340 333d
000003a0: 46f6 723e 10fd 843e 5f0c aebe c284 51bd
000003b0: a708 2abd 2ec2 b9bd 81c1 1f3e a978 873c
000003c0: 645e 0f3d cfa7 e5bd af45 07be 309c 72bd
000003d0: a08c 18bd f268 ee3e caf7 383e 97e0 f03d
000003e0: f016 86be 8551 e6bd bedf 013c ac02 c5bd
000003f0: 69a8 5cbe 8ae1 b33e 282f 31be a36f 7a3d

local_trans_pixel.layers.0.0.fn.fn.to_out.0.weight f4 [32, 256]
0.07005405 0.018890085 -0.006113199 0.0037904317 0.021200968 -0.036109317 0.007313899 -0.08724453
-0.017342161 0.010546909 0.03230888 -0.043449752 -0.07109203 0.021584831 0.050058033 0.083580695
0.0449376 -0.066175945 0.022856994 0.016560884 0.054393664 0.065386005 0.042856023 -0.050339792
0.006775286 -0.03767141 0.03600002 -0.0027506943 -0.048218492 -0.011019028 -0.028524626 -0.040641777
0.021453347 0.02946698 0.002784904 0.0060919095 0.009262299 0.087070316 -0.02045889 0.079285935
-0.0034419405 0.09964065 0.067124344 0.030232565 0.06366346 -0.09931106 0.029287515 0.046685282
-0.044487882 -0.089306034 0.0041266386 0.10253381 -0.024524616 0.11510874 0.01164314 0.06250745
0.10805995 -0.012016858 0.07905185 -0.045475893 0.1044881 -0.0432239 0.052978516 0.055289
-0.09610437 -0.006160053 -0.058887716 -0.06720216 0.007983766 0.10811689 -0.020477073 -0.02391191
0.039686557 0.06719232 -0.068264864 -0.028611204 -0.03504122 0.068970345 -0.046553973 0.06299054
-0.08008629 -0.09866515 0.065998174 0.0023074104 0.03153255 -0.025875987 -0.016954644 -0.10308781
0.04337021 -0.011434095 -0.076070994 -0.029328352 0.07431718 0.108328514 0.01694933 0.0113925915
-0.012712314 -0.03431705 -0.038029496 0.048116885 0.025601553 -0.013280547 -0.03041091 0.0017253519
-0.08113913 0.0046293857 0.017003756 -0.06229088 -0.03185793 -0.008213515 -0.008015319 0.0022566677
0.02285973 -0.032050468 -0.05793401 -0.0861453 -0.039781567 0.044422794 0.056645527 0.087828614
-0.052649118 0.081413835 -0.023545315 0.037712872 0.0012760466 0.056578767 -0.08359778 -0.02276806
0.047464475 0.05891061 -0.094017714 0.035845544 0.07801148 -0.08147266 0.013538271 0.011790143
0.07538373 0.050238367 -0.020234192 -0.02598977 -0.012981904 0.060013883 -0.06592819 0.025166923
-0.0046957126 0.055854846 -0.023004904 -0.02052272 -0.03339859 0.009904935 -0.035765596 -0.048152346
-0.050825372 0.008814826 -0.11255597 -0.007640703 0.08294086 0.0039430875 0.05011156 0.03554745
-0.018186321 0.09780305 0.027211078 -0.019927058 -0.062757574 -0.040835008 -0.020377528 0.02328488
-0.04135935 0.10117585 0.05989693 -0.02927062 0.1262265 0.10652333 0.01809564 -0.07921825
-0.053710595 0.048819583 -0.030589951 0.01906678 0.015780265 -0.031482182 -0.029213069 -0.031779185
0.07167671 -0.022476507 0.0036904824 0.00070032314 0.03179059 0.01661713 0.09013151 -0.012867866
-0.036867667 -0.07280209 -0.030733824 -0.01865301 0.025225002 0.026718289 0.011455168 -0.009705475
-0.012302388 -0.03366537 -0.038498156 0.01627338 -0.030089384 -0.10410773 -0.07128859 0.010355159
-0.015421282 -0.060977146 -0.0616882 0.016066095 -0.023822503 0.054107547 0.011661766 0.020620978
-0.06351017 -0.119916804 -0.08819155 -0.008384442 -0.06982259 -2.1546179e-05 0.0680495 -0.05555405
0.078651965 -0.061368167 -0.04436187 -0.07329184 -0.033679705 -0.12044972 0.058379173 0.040730506
0.0037641106 -0.05694196 -0.028585866 0.086724766 0.018462926 -0.013686297 0.024095632 -0.019525131
0.054556306 0.022016251 0.028654752 -0.08171939 -0.050541885 0.0646435 -0.081412606 -0.02620226
0.082767986 0.06616855 -0.09922737 0.07635495 0.0039362777 -0.011604265 -0.018728398 -0.011204618
00000000: 7f78 8f3d 61bf 9a3c 3b51 c8bb e468 783b
00000010: a7ad ad3c 5de7 13bd 6fa9 ef3b 43ad b2bd
00000020: 2611 8ebc f1cc 2c3c 5156 043d 5ef8 31bd
00000030: b398 91bd acd2 b03c a709 4d3d 5b2c ab3d
00000040: 7d10 383d 4187 87bd 973e bb3c b1aa 873c
00000050: e4cb 5e3d 19e9 853d cc89 2f3d 1931 4ebd
00000060: 3803 de3b 564d 1abd c274 133d fe44 34bb
00000070: c180 45bd 2789 34bc 7aac e9bc fe77 26bd
00000080: eebe af3c bc64 f13c f082 363b a49e c73b
00000090: e6c0 173c ec51 b23d 6799 a7bc aa60 a23d
000000a0: 2e92 61bb 6610 cc3d 7d78 893d 49aa f73c
000000b0: fd61 823d 9963 cbbd 5fec ef3c 1139 3f3d
000000c0: ed38 36bd 15e6 b6bd c138 873b 3ffd d13d
000000d0: d9e7 c8bc 22be eb3d dec2 3e3c e803 803d
000000e0: 894e dd3d 5be2 44bc f0e5 a13d ee44 3abd
000000f0: dbfd d53d 8b0b 31bd 0000 593d b876 623d
00000100: 5ed2 c4bd 45da c9bb 3f34 71bd 49a1 89bd
00000110: 57ce 023c 636c dd3d 89bf a7bc e9e2 c3bc
00000120: 5f8e 223d 219c 893d 73ce 8bbd 0b62 eabc
00000130: 6287 0fbd 5340 8d3d 61af 3ebd 2f01 813d
00000140: 4804 a4bd f410 cabd 0d2a 873d ec37 173b
00000150: 4628 013d e1f9 d3bc 77e4 8abc b41f d3bd
00000160: f6a4 313d 1256 3bbc 1ccb 9bbd 0342 f0bc
00000170: 9b33 983d 57db dd3d 52d9 8a3c fea7 3a3c
00000180: 4f47 50bc 0990 0cbd d1c4 1bbd 3616 453d
00000190: 59ba d13c a796 59bc 4d20 f9bc 3425 e23a
000001a0: 462c a6bd 1ab2 973b 764b 8b3c b924 7fbd
000001b0: 767d 02bd fb91 06bc af52 03bc 9ae4 133b
000001c0: 5444 bb3c 5a47 03bd 364c 6dbd f26c b0bd
000001d0: fff1 22bd adf4 353d 2405 683d 7ddf b33d
000001e0: 9aa6 57bd 4cbc a63d 1be2 c0bc d078 1a3d
000001f0: 0541 a73a 23bf 673d 5035 abbd 1584 babc
00000200: 1c6a 423d 404c 713d 5c8c c0bd c7d2 123d
00000210: 7cc4 9f3d 23db a6bd a0cf 5d3c 722b 413c
00000220: c962 9a3d bfc6 4d3d 2dc2 a5bc 80e8 d4bc
00000230: 0db2 54bc 1ed1 753d 5c05 87bd dd2a ce3c
00000240: 7ede 99bb 0dc8 643d c874 bcbc 431f a8bc
00000250: f6cc 08bd 4f48 223c f27e 12bd 653b 45bd
00000260: 442e 50bd 0f6c 103c bf83 e6bd dd5e fabb
00000270: e6dc a93d 0435 813b c741 4d3d 349a 113d
00000280: 7bfb 94bc f74c c83d c4e9 de3c 123e a3bc
00000290: 0b87 80bd 9c42 27bd c6ee a6bc efbf be3c
000002a0: 6c68 29bd 4935 cf3d 7c56 753d f0c8 efbc
000002b0: 8541 013e e728 da3d 4f3d 943c 2e3d a2bd
000002c0: a4ff 5bbd 0bf7 473d c797 fabc f031 9c3c
000002d0: 9d45 813c 76f3 00bd 3f50 efbc e42a 02bd
000002e0: 3dcb 923d a720 b8bc 05dc 713b e495 373a
000002f0: da36 023d a620 883c de96 b83d bed3 52bc
00000300: 8d02 17bd 4319 95bd 80c5 fbbc 32ce 98bc
00000310: aaa4 ce3c 50e0 da3c 75ae 3b3c b603 1fbc
00000320: f58f 49bc b3e4 09bd 3eb0 1dbd c04f 853c
00000330: 037e f6bc 6f36 d5bd c1ff 91bd afa8 293c
00000340: 8ba9 7cbc 2cc3 79bd c4ac 7cbd 0b9d 833c
00000350: 6927 c3bc e09f 5d3d fe10 3f3c 53ed a83c
00000360: 9f11 82bd f196 f5bd c59d b4bd e65e 09bc
00000370: 25ff 8ebd 11be b4b7 895d 8b3d a58c 63bd
00000380: 4814 a13d 305d 7bbd cbb4 35bd 081a 96bd
00000390: bbf3 09bd 58ae f6bd 001f 6f3d 08d5 263d
000003a0: 4caf 763b f93b 69bd e82c eabc c19c b13d
000003b0: 903f 973c 7e3c 60bc 3464 c53c 2bf3 9fbc
000003c0: 6f76 5f3d 6d5b b43c 5fbd ea3c 7f5c a7bd
000003d0: 0205 4fbd d063 843d a7bb a6bd 1fa6 d6bc
000003e0: 4382 a93d 6083 873d b837 cbbd fc5f 9c3d
000003f0: e4fb 803b d11f 3ebc 4c6c 99bc 9393 37bc

local_trans_pixel.layers.0.0.fn.fn.to_out.0.bias f4 [32]
0.118760474 0.041348953 -0.051582843 -0.0753214 -0.08567984 -0.006289629 0.067411974 0.027387438
0.06778083 -0.02257455 0.023712795 -0.07578511 0.09880839 0.020856963 -0.04078864 0.067109704
0.01950325 0.059097737 0.15109038 -0.037474737 0.0546187 0.003238536 -0.01424155 0.06735078
-0.0018163024 0.00826094 0.0003758622 -0.01715899 0.008089889 -0.024351383 -0.007526186 -0.012354719
00000000: b138 f33d 855d 293d 8848 53bd 1b42 9abd
00000010: e978 afbd 3b19 cebb 4a0f 8a3d 9f5b e03c
00000020: add0 8a3d 43ee b8bc 5641 c23c 3935 9bbd
00000030: 0e5c ca3d 39dc aa3c fd11 27bd d070 893d
00000040: 48c5 9f3c 7810 723d 70b7 1a3e 1c7f 19bd
00000050: dcb7 5f3d 9e3d 543b 6455 69bc 35ef 893d
00000060: ff10 eeba e558 073c 5f0f c539 0391 8cbc
00000070: 748b 043c 8d7c c7bc 399e f6bb 736b 4abc

local_trans_pixel.layers.0.1.fn.norm.weight f4 [32]
1.1308024 1.2046791 1.018519 1.1101663 0.9609547 1.0641445 1.1150726 1.011591
0.97938263 1.140353 1.060429 1.1259404 1.1042103 0.9833746 1.0936332 1.1440372
1.0453557 0.89360696 0.9860957 1.2191229 1.0590816 1.3239762 1.0376861 1.1620753
1.2630059 1.0952693 1.160645 1.2640529 1.1299878 1.1829675 0.97501284 1.0189316
00000000: 22be 903f ed32 9a3f d55e 823f ee19 8e3f
00000010: 2101 763f e335 883f b3ba 8e3f d07b 813f
00000020: d2b8 7a3f 16f7 913f 23bc 873f d11e 903f
00000030: c356 8d3f 70be 7b3f 2cfc 8b3f d06f 923f
00000040: 37ce 853f 6dc3 643f c570 7c3f 380c 9c3f
00000050: fc8f 873f 0d78 a93f e6d2 843f e2be 943f
00000060: 2daa a13f c931 8c3f 0490 943f 7ccc a13f
00000070: 71a3 903f 7b6b 973f 719a 793f 5a6c 823f

local_trans_pixel.layers.0.1.fn.norm.bias f4 [32]
0.021363692 0.030925462 0.01889222 0.041550834 0.00079990923 0.038580704 0.013726151 -0.0010361918
0.022370936 0.057419095 0.0105494745 -0.04933022 -0.015083783 0.010301268 0.042182554 -0.053038508
0.06766009 0.010203439 0.014827409 0.026495973 0.016413495 -0.047460612 0.00736371 -0.06018332
-0.06272514 0.026410688 -0.04651016 0.033150747 -0.04984921 0.0020621226 -0.006892189 -0.024250172
00000000: e902 af3c 6557 fd3c dbc3 9a3c 3531 2a3d
00000010: 00b1 513a cd06 1e3d a6e3 603c d4d0 87ba
00000020: 4143 b73c 4930 6b3d b4d7 2c3c 7c0e 4abd
00000030: f921 77bc a6c6 283c 9dc7 2c3d e83e 59bd
00000040: 6091 8a3d 532c 273c a9ee 723c 150e d93c
00000050: 9875 863c 0f66 42bd 474b f13b c982 76bd
00000060: 0a76 80bd 3a5b d83c 7081 3ebd 14c9 073d
00000070: af2e 4cbd ad24 073b dfd7 e1bb 4ca8 c6bc

local_trans_pixel.layers.0.1.fn.fn.net.0.weight f4 [8, 32]
-0.26803553 0.011980873 0.16829303 0.011572617 -0.10684792 -0.111662194 0.13879278 0.065600306
-0.06650507 0.0741909 -0.10394284 -0.10258015 0.14167178 -0.026017368 -0.19239813 -0.112534784
-0.0013400769 -0.049684595 0.117833495 -0.026622012 0.110514715 0.055132557 0.1681381 0.078826934
0.24046339 -0.118661985 -0.12338292 -0.30959794 -0.074577816 0.29915887 -0.08740196 -0.0024379522
-0.2573325 -0.009653884 0.16379398 0.013284361 -0.09866351 -0.013364369 0.050113194 0.096609764
-0.10836551 0.029327907 -0.20708144 0.11553738 -0.111515954 0.0034356948 0.021745391 0.17954293
-0.16809247 0.0021785533 -0.053924315 0.0733493 -0.049401924 0.12508659 -0.009074334 0.04946097
0.060618356 -0.112604916 -0.08242672 -0.19364004 0.0010224027 -0.0956565 -0.037202094 0.06751117
0.014373279 0.14025792 0.047174923 0.16242315 0.025795026 -0.00498634 0.14825839 0.06809905
-0.07098997 0.19377936 -0.06602804 -0.15507318 -0.2306741 -0.1762677 0.18020728 -0.18853274
-0.1302715 0.04302332 -0.03282358 0.124302156 0.13232686 -0.08879082 0.08057383 -0.15942763
-0.12786172 0.15236467 -0.1420631 0.010351896 -0.13567111 0.005385426 0.0798703 0.033390544
-0.1377464 -0.07221831 -0.083333895 0.16492721 -0.009997464 -0.065520525 0.11643603 -0.11329493
-0.073667854 -0.07940599 -0.08738433 -0.01595338 -0.09967917 0.006487018 -0.23044328 -0.063066766
-0.22565521 0.09835294 0.02735774 0.11566751 0.011700516 0.077845655 -0.09380074 -0.009626948
0.03454098 0.11083144 -0.077769965 -0.21078818 0.1330351 -0.061584927 0.018220466 0.19795348
0.06646846 0.19673783 0.00058813556 -0.26153058 -0.07670506 0.113543615 0.080436505 -0.1437939
0.016558183 -0.2725158 -0.14969347 -0.2430187 0.24402817 -0.21490824 -0.009611305 -0.23929654
-0.053081382 0.13301612 0.043958865 0.34966263 -0.19331203 0.12946646 -0.004596977 0.24805008
-0.00037595344 0.24199447 0.1716221 0.12963024 0.26993042 0.05299195 0.12359975 -0.072275184
0.04016819 -0.25104377 0.028918527 0.019049328 0.0021811328 -0.06988115 -0.08904875 0.13484466
-0.08941096 -0.07750612 0.05920092 0.22565246 -0.07789098 0.03913242 -0.20716877 0.3186992
-0.049532637 -0.0020826585 0.027157227 -0.17314519 -0.12042207 0.2978429 0.037400145 0.004491735
0.20041889 -0.061456405 0.06114587 0.13489774 0.032384228 0.09512946 -0.09427048 0.12945831
0.31591105 -0.3399402 -0.07711025 -0.06318449 0.1569088 0.30290943 -0.2946709 0.112973586
-0.12625805 -0.07465018 -0.17222084 0.17809674 -0.016304841 -0.08700129 -0.07218017 0.23229145
-0.18129733 -0.09240251 0.1449781 -0.24902555 0.017707225 0.086043306 -0.12854625 0.100069374
-0.17390308 -0.0072866213 0.31184053 0.15087144 0.111739635 -0.22449528 0.10069985 -0.048664924
0.029222041 0.0642857 -0.06580953 0.23054244 -0.09946221 0.122616544 -0.1412296 5.4606705e-08
0.07732059 0.123039134 0.1290764 -0.11110599 -0.24607141 0.18250686 0.18327731 -0.000356786
0.026996475 -0.06744925 -0.09803962 0.24966751 -0.09847259 -0.57055134 -0.08593783 -0.24374674
-0.41689444 0.29546648 -0.28379518 0.3972109 -0.00030318202 -0.10903486 -0.043990247 0.13882232
00000000: f43b 89be 6c4b 443c 0255 2c3e 139b 3d3c
00000010: 15d3 dabd 26af e4bd b21f 0e3e 7459 863d
00000020: cf33 88bd 66f1 973d fcdf d4bd 8b15 d2bd
00000030: 6812 113e 6022 d5bc 0404 45be a378 e6bd
00000040: 85a5 afba 1382 4bbd b052 f13d 6816 dabc
00000050: 8a55 e23d add2 613d 652c 2c3e 0470 a13d
00000060: 093c 763e 0e05 f3bd 2fb0 fcbd 9f83 9ebe
00000070: 41bc 98bd 5a2b 993e ccff b2bd 0dc6 1fbb
00000080: 16c1 83be 532b 1ebc 9cb9 273e a6a6 593c
00000090: 1810 cabd 3af6 5abc 7e43 4d3d 57db c53d
000000a0: bdee ddbd 1441 f03c 280d 54be dd9e ec3d
000000b0: 7a62 e4bd 6529 613b 6423 b23c 1ada 373e
000000c0: 6f20 2cbe 0fc6 0e3b bedf 5cbd 2838 963d
000000d0: ac59 4abd b316 003e 84ac 14bc 9697 4a3d
000000e0: f44a 783d 689d e6bd 57cf a8bd 9349 46be
000000f0: 2402 863a 8ee7 c3bd 3961 18bd 4c43 8a3d
00000100: e77d 6b3c c69f 0f3e 7e3a 413d 4152 263e
00000110: 1750 d33c 7464 a3bb 0cd1 173e 8477 8b3d
00000120: 3063 91bd 196e 463e b639 87bd 81cb 1ebe
00000130: d535 6cbe 857f 34be 4288 383e ba0e 41be
00000140: e465 05be 3939 303d 0572 06bd 2192 fe3d
00000150: b180 073e f6d7 b5bd e403 a53d ff40 23be
00000160: 2fee 02be 7c05 1c3e fd78 11be 009b 293c
00000170: 5eed 0abe 3a78 b03b 0a93 a33d 86c4 083d
00000180: 640d 0dbe 31e7 93bd f6aa aabd aee2 283e
00000190: 67cc 23bc a02f 86bd 0376 ee3d 2c07 e8bd
000001a0: 2cdf 96bd 9c9f a2bd 8ef6 b2bd aab0 82bc
000001b0: 9824 ccbd 0d91 d43b 53f9 6bbe 2629 81bd
000001c0: 2912 67be 446d c93d 571d e03c 16e3 ec3d
000001d0: 85b3 3f3c 8b6d 9f3d 9a1a c0bd 59ba 1dbc
000001e0: d87a 0d3d 98fb e23d dc45 9fbd dbd8 57be
000001f0: 5a3a 083e 7a40 7cbd 1643 953c 51b4 4a3e
00000200: 9e20 883d a475 493e 1c2d 1a3a 56e7 85be
00000210: 8b17 9dbd 8e89 e83d e5bb a43d b53e 13be
00000220: 07a5 873c 3187 8bbe 3f49 19be e5d9 78be
00000230: 85e2 793e e810 5cbe bc78 1dbc 270a 75be
00000240: dd6b 59bd 6135 083e 360e 343d fb06 b33e
00000250: 97f3 45be db92 043e 3da2 96bb d700 7e3e
00000260: 9e1b c5b9 66cd 773e b4bd 2f3e cabd 043e
00000270: 5234 8a3e 160e 593d de21 fd3d 0305 94bd
00000280: 6687 243d cf88 80be 8ce6 ec3c 560d 9c3c
00000290: 56f1 0e3b d91d 8fbd 315f b6bd b814 0a3e
000002a0: 181d b7bd 87bb 9ebd aa7c 723d 7011 673e
000002b0: 4e85 9fbd 5149 203d 0d24 54be 8b2c a33e
000002c0: bce2 4abd 367d 08bb d578 de3c f94c 31be
000002d0: d99f f6bd dd7e 983e e530 193d 672f 933b
000002e0: 9c3a 4d3e b6b9 7bbd 1774 7a3d a222 0a3e
000002f0: 53a5 043d 3cd3 c23d e210 c1bd b890 043e
00000300: 18bf a13e a40c aebe fbeb 9dbd df66 81bd
00000310: b3ac 203e f216 9b3e 1bdf 96be b25e e73d
00000320: ca49 01be 32e2 98bd a95a 30be fe5e 363e
00000330: bb91 85bc bb2d b2bd 32d3 93bd cfdd 6d3e
00000340: 02a6 39be 873d bdbd 2475 143e 8e00 7fbe
00000350: be0e 913c 7937 b03d a1a1 03be 2cf1 cc3d
00000360: a613 32be 9cc4 eebb 90a9 9f3e 0b7e 1a3e
00000370: c0d7 e43d 17e2 65be b93b ce3d df54 47bd
00000380: 1063 ef3c 39a8 833d 26c7 86bd 5113 6c3e
00000390: d8b2 cbbd 621e fb3d 7e9e 10be b588 6a33
000003a0: 425a 9e3d f1fb fb3d 9b2c 043e 8a8b e3bd
000003b0: 25fa 7bbe 14e3 3a3e 0cad 3b3e 020f bbb9
000003c0: b627 dd3c d522 8abd ffc8 c8bd d7a8 7f3e
000003d0: ffab c9bd a70f 12bf 2c00 b0bd bf98 79be
000003e0: 3073 d5be 6247 973e 9a4d 91be 3a5f cb3e
000003f0: 67f4 9eb9 ab4d dfbd 1e2f 34bd 7027 0e3e

local_trans_pixel.layers.0.1.fn.fn.net.0.bias f4 [8]
-0.07978958 0.078757994 0.050377764 -0.016347488 0.03134096 -0.14931351 0.030621039 -0.09898164
00000000: b868 a3bd df4b a13d ea58 4e3d 2beb 85bc
00000010: 615f 003d a4e5 18be f9d8 fa3c e3b6 cabd

local_trans_pixel.layers.0.1.fn.fn.net.3.weight f4 [32, 8]
0.116941 0.1256486 0.119776174 -0.18863681 -0.048577834 0.33493674 -0.20529984 -0.08232209
-0.30752587 -0.27081245 0.30499765 -0.03025983 0.5052636 -0.1809112 0.101714924 -0.3304604
-0.15837105 -0.16692543 0.07030053 -0.13275848 0.2831927 0.10340783 -0.26245692 -0.20528197
-0.23258053 -0.070416935 -0.03357683 0.055224888 -0.27947682 -0.07256025 0.043267846 -0.3324711
-0.32527414 0.1261483 -0.0048983344 -0.101667225 -0.24056628 -0.032373566 -0.037034355 0.32496116
-0.16587058 -0.095533706 -0.05491016 -0.30931085 0.051904526 0.31899032 -0.05121708 0.36728704
0.08420904 -0.23062944 0.07370957 -0.39441213 0.19297838 0.29271698 0.17762138 -0.37105033
0.036009397 -0.22879142 0.05274904 -0.27796897 -0.1852288 -0.46932885 -0.23591463 -0.0005386908
0.09264272 -0.30786052 0.38683525 -0.1764496 -0.12796234 0.07392847 0.58465207 -0.3779681
0.07560848 0.027217153 0.13911285 0.08325843 0.24576953 0.1656812 -0.20098022 -0.5175326
0.07368074 -0.17289579 -0.21993889 0.017363919 0.27900276 -0.03388444 0.27521658 -0.25784075
-0.08640759 -0.28351724 -0.0023633922 -0.1230555 -0.0056720367 0.31261903 -0.36178488 -0.4013919
-0.29243633 -0.13592903 -0.33356944 0.19427682 -0.030982645 0.10581832 0.1069299 0.17531338
0.2287913 -0.1857405 0.26931384 0.102874905 -0.3496355 0.11876992 0.07097946 -0.09821968
0.020271944 0.010744475 -0.12264297 0.13503578 0.15782988 0.37826085 0.029367669 -0.10961921
-0.3625979 -0.13515027 -0.18261875 -0.31472498 0.25774452 0.33903527 -0.37326467 -0.27733734
-0.19114293 -0.080628335 0.2694587 0.34058604 0.18888156 -0.10123411 -0.22985922 0.029374765
-0.05942124 0.20050003 -0.051605713 0.34008193 0.35652864 0.11469817 -0.5399841 -0.06278897
0.0095096845 0.10885561 -0.16988567 -0.33817548 0.13781835 0.14321351 0.032590818 -0.1450428
-0.28029296 -0.40391433 -0.21213485 -0.044430576 0.39217943 0.047738593 0.11828816 -0.23286477
-0.12942451 -0.09212204 0.073318444 -0.2758392 -0.10405365 0.2564133 -0.18444376 0.3621674
0.23984171 0.29915047 0.2082169 -0.05763345 0.22632587 0.27545953 -0.27798802 0.37891132
-0.28106326 -0.0072656623 -0.018887296 0.035911597 -0.33392906 -0.28751844 0.4596618 -0.009481669
0.4589689 0.3140983 -0.21090345 -0.20852128 0.15730764 -0.17267412 -0.13681072 0.41224015
0.2809597 -0.34695175 -0.22502206 -0.08098259 -0.06456778 -0.2590849 -0.19709039 0.537119
-0.15950711 0.23039037 -0.40677583 0.3181449 -0.085553005 0.24924026 -0.33585054 0.12547244
0.36794505 -0.03151113 -0.17486072 0.022868264 0.030091962 -0.08500461 -0.4327706 0.48649582
0.15382487 0.2057185 -0.066826 0.33246347 0.29100528 -0.18757388 0.37667134 -0.3113368
-0.18323854 0.060837474 0.2873403 -0.24271557 -0.24041739 0.07053037 -0.16138113 0.082434274
0.39275885 0.12273753 0.009883204 -0.07403108 -0.0033129542 0.41313285 0.10786584 -0.02013048
-0.35503906 0.20946284 -0.01422672 -0.0056336136 0.34383836 0.28367475 -0.21372557 -0.07285858
-0.03175601 -0.22723034 0.32831228 0.062493425 0.18559638 -0.021436045 -0.036215696 -0.11131475
00000000: c37e ef3d 07aa 003e 364d f53d 022a 41be
00000010: 8df9 46bd d47c ab3e 1f3a 52be 7c98 a8bd
00000020: 0874 9dbe eea7 8abe a728 9c3e 77e3 f7bc
00000030: f558 013f c940 39be ea4f d03d 1b32 a9be
00000040: 052c 22be 80ee 2abe b9f9 8f3d d7f1 07be
00000050: a2fe 903e 7cc7 d33d c160 86be 7035 52be
00000060: 9729 6ebe c136 90bd dc87 09bd 7e33 623d
00000070: 9617 8fbe 789a 94bd a039 313d a739 aabe
00000080: 558a a6be 052d 013e 3582 a0bb e836 d0bd
00000090: 0257 76be 259a 04bd 56b1 17bd 4f61 a63e
000000a0: fad9 29be 2da7 c3bd 7ae9 60bd fe5d 9ebe
000000b0: d799 543d b352 a33e 00c9 51bd 0c0d bc3e
000000c0: ca75 ac3d 202a 6cbe 0bf5 963d 63f0 c9be
000000d0: 209c 453e 00df 953e 61e2 353e 4ffa bdbe
000000e0: 977e 133d 4c48 6abe 610f 583d f351 8ebe
000000f0: 9eac 3dbe df4b f0be 9b93 71be ed36 0dba
00000100: 77bb bd3d e59f 9dbe 450f c63e 34af 34be
00000110: 8f08 03be cf67 973d c2ab 153f 0985 c1be
00000120: 9ed8 9a3d 82f6 de3c 9973 0e3e 6583 aa3d
00000130: 02ab 7b3e 55a8 293e c2cd 4dbe 047d 04bf
00000140: eee5 963d 980b 31be a937 61be c73e 8e3c
00000150: 73d9 8e3e 69ca 0abd 30e9 8c3e b403 84be
00000160: 76f6 b0bd 2c29 91be 24e3 1abb 8604 fcbd
00000170: 7edc b9bb 9a0f a03e de3b b9be 3d83 cdbe
00000180: 37ba 95be fb30 0bbe 9dc9 aabe 81f0 463e
00000190: 51cf fdbc 46b7 d83d 10fe da3d 5a85 333e
000001a0: 4448 6a3e c232 3ebe 81e3 893e 14b0 d23d
000001b0: 6d03 b3be a53d f33d ae5d 913d 6627 c9bd
000001c0: 5911 a63c 9809 303c 3d2c fbbd d246 0a3e
000001d0: 289e 213e 68ab c13e 7794 f03c 0980 e0bd
000001e0: 6fa6 b9be d564 0abe 6900 3bbe a223 a1be
000001f0: 17f7 833e 0896 ad3e 8c1c bfbe 29ff 8dbe
00000200: f9ba 43be 7820 a5bd 7ef6 893e 4b61 ae3e
00000210: 2b6a 413e d453 cfbd 3760 6bbe 59a3 f03c
00000220: b063 73bd e14f 4d3e 8360 53bd 381f ae3e
00000230: ec8a b63e e0e6 ea3d 663c 0abf 8197 80bd
00000240: 82ce 1b3c b1ef de3d 82f6 2dbe 5625 adbe
00000250: 4120 0d3e 90a6 123e f37d 053d 1a86 14be
00000260: 8f82 8fbe dccd cebe e139 59be d6fc 35bd
00000270: becb c83e 8b89 433d 1041 f23d 1a74 6ebe
00000280: dc87 04be 7baa bcbd fb27 963d cc3a 8dbe
00000290: 141a d5bd 9b48 833e d3de 3cbe 016e b93e
000002a0: 1199 753e 402a 993e d036 553e 0d11 6cbd
000002b0: f8c1 673e 0809 8d3e 7254 8ebe aa00 c23e
000002c0: 86e7 8fbe cb14 eebb 88b9 9abc 0a18 133d
000002d0: c0f8 aabe 9e35 93be cb58 eb3e 0159 1bbc
000002e0: f9fd ea3e 7ed1 a03e 13f7 57be 9a86 55be
000002f0: 4115 213e 7cd1 30be 1c18 0cbe 2411 d33e
00000300: f3d9 8f3e a9a3 b1be 2f6c 66be 33da a5bd
00000310: 1d3c 84bd c7a6 84be 10d2 49be a180 093f
00000320: d555 23be 74eb 6b3e ec44 d0be e3e3 a23e
00000330: 6a36 afbd d738 7f3e 9af4 abbe d97b 003e
00000340: 4b63 bc3e d111 01bd b00e 33be 3a56 bb3c
00000350: 6b83 f63c e616 aebd 1c94 ddbe fb15 f93e
00000360: 4484 1d3e dfa7 523e 12dc 88bd a738 aa3e
00000370: a5fe 943e 5e13 40be 11db c03e 8967 9fbe
00000380: e2a2 3bbe b730 793d 451e 933e 6e8a 78be
00000390: fa2f 76be 3a72 903d 1841 25be 4dd3 a83d
000003a0: b017 c93e d05d fb3d 29ed 213c 9b9d 97bd
000003b0: 261e 59bb 2686 d33e c4e8 dc3d ade8 a4bc
000003c0: aec7 b5be 6d7d 563e 3017 69bc 2d9a b8bb
000003d0: 950b b03e d13d 913e e0da 5abe e136 95bd
000003e0: 9712 02bd 12af 68be 8c18 a83e 1bf9 7f3d
000003f0: fa0c 3e3e a59a afbc e956 14bd fdf8 e3bd

local_trans_pixel.layers.0.1.fn.fn.net.3.bias f4 [32]
-0.29498127 0.35804877 0.25972512 0.14634006 0.14876318 -0.00096859 -0.18564582 -0.33350596
0.1222365 0.15274963 0.08648842 -0.21798885 -0.117877066 -0.1809622 0.15968712 -0.0080485735
0.17521907 -0.0241346 -0.1992444 0.15737168 0.031747296 0.11239768 0.06351956 -0.2792576
-0.31608376 -0.056011714 -0.1313927 -0.09051365 0.20715576 0.18848826 -0.3003636 0.22223398
00000000: c907 97be 2b52 b73e b1fa 843e 2bda 153e
00000010: 6055 183e f9e8 7dba f019 3ebe 4bc1 aabe
00000020: 2157 fa3d 666a 1c3e d720 b13d 7838 5fbe
00000030: 8869 f1bd 284e 39be 0585 233e 2ade 03bc
00000040: a16c 333e edb5 c5bc b906 4cbe 0b26 213e
00000050: 7409 023d c130 e63d 8b16 823d dafa 8ebe
00000060: bbd5 a1be 8a6c 65bd cf8b 06be 385f b9bd
00000070: a420 543e 1103 413e 42c9 99be 4e91 633e

conv2d_features.0.weight f4 [64, 30, 3, 3]
-0.055392597 -0.02951268 -0.047711935 -0.020840324 -0.074444346 -0.08695665 -0.033784166 -0.057581645
-0.06469903 0.052873034 0.0044724126 0.08192552 0.0051333867 -0.021464692 -0.034274563 0.037886057
-0.009683716 -0.00084220397 0.039404403 -0.042464677 -0.092991516 0.027908681 -0.05474683 -0.0570291
-0.024642644 -0.105021864 -0.019306522 0.061636645 0.08468588 -0.005284193 0.058506526 -0.0053842375
-0.0004967976 0.018946998 -0.0047387555 -0.060131926 0.022964757 0.011235199 0.083384 -0.040475372
0.03789122 -0.033001956 0.059218254 0.030333484 -0.0017177194 -0.0019370987 -0.027986921 -0.013113822
-0.045002144 -0.07887976 -0.017862793 0.022542886 0.034853596 -0.062264103 -0.06945178 -0.022244176
-0.05076113 -0.027853755 -0.05960532 -0.042391986 -0.011166826 -0.062449552 0.009640804 0.0013407449
-0.04786792 -0.052694924 -0.020669864 0.05703589 -0.033429213 -0.028217616 0.004761455 0.030705344
-0.069474384 -0.01930215 0.028332127 0.011240172 0.0130639365 -0.008349873 -0.002786098 -0.05039396
-0.057315737 0.007388163 0.06396214 0.060008507 0.06716399 0.07180343 0.027386734 -0.016999662
0.042374138 -0.023159618 -0.02848666 0.040006943 0.04133275 0.034003325 0.040575456 -0.028233383
0.043363534 -0.02998721 -0.031363063 -0.04470974 -0.0006305167 -0.021072675 0.04422975 -0.0060020904
0.006388175 -0.085679255 -0.039094217 -0.021409327 -0.039949775 -0.10084276 0.028836949 -0.074151784
0.043068226 0.0060585937 -0.09784387 0.019355364 -0.00017524294 0.07437361 0.014887563 0.05099805
-0.027808568 0.050714754 0.011430293 0.037254874 -0.04699336 -0.13239087 -0.052617535 -0.007551493
0.01290489 0.06845844 0.0829639 -0.040212747 0.0655354 0.054162927 -0.004499647 -0.10002047
-0.038415276 -0.08615093 -0.024891684 -0.023568772 0.003956596 0.01991041 0.020693682 -0.051856864
0.006721349 -0.09356804 -0.04367978 -0.100196876 0.016053261 -0.05411937 -0.04650507 0.040357515
-0.14606003 0.044453446 0.033799738 -0.048017584 -0.024827365 0.026084613 0.045609426 0.009138549
0.032780748 0.023832723 0.039181028 0.04900839 -0.01743425 -0.012149487 0.045242958 -0.058057632
-0.029831184 0.14691406 -0.05986528 0.0021552602 -0.101998985 -0.10268788 0.082590014 -0.0018367608
0.0032101301 -0.024108645 0.07669897 -0.017001214 -0.009211281 -0.0709073 0.10000025 0.011641092
0.09085751 0.084621765 0.029794935 -0.061319184 0.030454073 -0.034867644 0.0075379238 -0.017247966
-0.010086495 0.020110901 -0.009750998 0.066029355 0.054999202 0.019509504 0.012531652 -0.057368096
-0.05176266 -0.0055633197 -0.13779898 -0.026066707 -0.044747766 0.022305446 -0.073465675 -0.0038793918
-0.044926494 0.040948525 0.022367701 0.03480578 -0.012782403 0.031945553 0.07564114 -0.025616176
0.028528504 0.08131802 0.025242778 -0.019214397 -0.006737554 -0.013109241 -0.025394855 0.001266694
0.0016653364 -0.05753932 0.10634835 -0.030615631 -0.04836261 -0.020866627 -5.0700386e-05 -0.019581214
-0.0075622513 -0.030529376 -0.0672416 0.0215841 -0.013366104 0.15026371 -0.075988196 -0.026681894
-0.017239667 0.00787408 0.084433034 0.013757686 0.016162552 0.030293588 0.079887696 0.046815503
-0.06883848 0.08100712 0.079703346 -0.03242919 0.021901656 0.071155965 -0.043457948 0.003612466
00000000: 59e3 62bd 93c4 f1bc 976d 43bd 54b9 aabc
00000010: 4776 98bd 5416 b2bd 4461 0abd bbda 6bbd
00000020: ed80 84bd 6591 583d 518d 923b 91c8 a73d
00000030: f835 a83b b9d6 afbc 7c63 0cbd 692e 1b3d
00000040: 73a8 1ebc 5ac7 5cba 8366 213d 71ef 2dbd
00000050: 5672 bebd bfa0 e43c 363e 60bd 5897 69bd
00000060: 5fdf c9bc b415 d7bd b628 9ebc b576 7c3d
00000070: ca6f ad3d 0627 adbb 8aa4 6f3d 426e b0bb
00000080: 863b 02ba bc36 9b3c 9047 9bbb e54c 76bd
00000090: 9620 bc3c d713 383c 3bc5 aa3d 81c9 25bd
000000a0: d333 1b3d 0f2d 07bd d78e 723d ed7d f83c
000000b0: 1925 e1ba 3fe6 fdba d444 e5bc 5bdb 56bc
000000c0: 2b54 38bd b68b a1bd fe54 92bc dcab b83c
000000d0: a5c2 0e3d a508 7fbd bc3c 8ebd 6b39 b6bc
000000e0: e7ea 4fbd 8f2d e4bc b524 74bd 38a3 2dbd
000000f0: 10f5 36bc 1acb 7fbd 76f4 1d3c efbb af3a
00000100: 2711 44bd a2d6 57bd d953 a9bc 779e 693d
00000110: 12ed 08bd a128 e7bc fb05 9c3b c689 fb3c
00000120: 9648 8ebd 8b1f 9ebc c718 e83c b328 383c
00000130: 1f0a 563c e8cd 08bc f896 36bb e669 4ebd
00000140: e8c3 6abd 6718 f23b 95fe 823d 7bcb 753d
00000150: 468d 893d ad0d 933d 255a e03c e042 8bbc
00000160: 8190 2d3d 3db9 bdbc db5c e9bc 52de 233d
00000170: 884c 293d 1247 0b3d 7332 263d b249 e7bc
00000180: f69d 313d bda7 f5bc 8e76 00bd 8f21 37bd
00000190: 4249 25ba 9aa0 acbc 412a 353d 2fad c4bb
000001a0: e553 d13b 9b78 afbd 4221 20bd 9d62 afbc
000001b0: 60a2 23bd a686 cebd 773b ec3c e4dc 97bd
000001c0: 4f68 303d 2b87 c63b 5e62 c8bd 248f 9e3c
000001d0: 6bc1 37b9 3151 983d f7ea 733c 55e3 503d
000001e0: cbce e3bc 46ba 4f3d 2046 3b3c 9198 183d
000001f0: 1c7c 40bd 7991 07be 7c85 57bd 8472 f7bb
00000200: 086f 533c f033 8c3d fae8 a93d 1fb6 24bd
00000210: 6c37 863d f2d9 5d3d c671 93bb 88d7 ccbd
00000220: 5659 1dbd e66f b0bd a5e9 cbbc 4c13 c1bc
00000230: 55a6 813b 281b a33c cc85 a93c dd67 54bd
00000240: c33e dc3b 9aa0 bfbd 92e9 32bd 0534 cdbd
00000250: 2182 833c 46ac 5dbd 1a7c 3ebd ec4d 253d
00000260: c390 15be d114 363d 9871 0a3d 16ae 44bd
00000270: c262 cbbc 66af d53c f3d0 3a3d dab9 153c
00000280: 1b45 063d d83c c33c 497c 203d 06bd 483d
00000290: 46d2 8ebc a40e 47bc ae50 393d d7cd 6dbd
000002a0: 8760 f4bc a470 163e 4c35 75bd 443f 0d3b
000002b0: d8e4 d0bd 064e d2bd f424 a93d 77bf f0ba
000002c0: 0c61 523b 7e7f c5bc 5914 9d3d 2146 8bbc
000002d0: eaea 16bc d937 91bd eecc cc3d 47ba 3e3c
000002e0: 8113 ba3d 2d4e ad3d 8214 f43c d329 7bbd
000002f0: d27a f93c 60d1 0ebd b000 f73b 9b4b 8dbc
00000300: d441 25bc 9ebf a43c a6c2 1fbc 663a 873d
00000310: d846 613d 65d2 9f3c 8f51 4d3c cffa 6abd
00000320: 1505 54bd 824c b6bb 2d1b 0dbe d989 d5bc
00000330: 6f49 37bd e9b9 b63c 2c75 96bd 653d 7ebb
00000340: d804 38bd a4b9 273d 783c b73c 8190 0e3d
00000350: 496d 51bc 57d9 023d bee9 9a3d 04d9 d1bc
00000360: 9cb4 e93c 108a a63d f1c9 ce3c 8367 9dbc
00000370: b3c6 dcbb 24c8 56bc df08 d0bc 3307 a63a
00000380: 6b47 da3a 5aae 6bbd 2acd d93d a2cd fabc
00000390: df17 46bd 7df0 aabc 20a7 54b8 c868 a0bc
000003a0: c3cc f7bb be18 fabc f7b5 89bd 23d1 b03c
000003b0: 81fd 5abc bbde 193e b39f 9bbd fd93 dabc
000003c0: 343a 8dbc 4902 013c 3aeb ac3d eb67 613c
000003d0: 5467 843c 422a f83c 299c a33d 9dc1 3f3d
000003e0: 30fb 8cbd 10e7 a53d 823b a33d 78d4 04bd
000003f0: 1a6b b33c 38ba 913d f600 32bd 1fbf 6c3b
