src/res/GGCL/guided_contra_cross_transformer/Pavia/5/True/ss0.3/_1712142795.pth (torch, 266710 bytes, 37 tensors)

pixel_pos_embedding f4 [1, 170, 32]
0	0x3f5a4a71	0.8526984
1	0xbf3cda50	-0.7377062
2	0xbf2d6808	-0.67736864
3	0xbf834b42	-1.0257342
4	0x3f8fd96d	1.1238228
5	0xbead9935	-0.3390595
6	0x3f0329c4	0.51235604
7	0x3f501cfa	0.81294215
8	0x3d47b21d	0.048753846
9	0xbf325c47	-0.69672054
10	0x3d5c05e0	0.05371654
11	0x3f352e22	0.7077352
12	0xbf7f575c	-0.99742675
13	0xbe6729f6	-0.225746
14	0x3f592404	0.8482058
15	0x404416f3	3.0639007
16	0x3fbcaf80	1.4741058
17	0xbf33bf6f	-0.7021398
18	0x3e9c473b	0.30523095
19	0xc07899bc	-3.8843832
20	0x3f1dbf68	0.6162019
21	0x3e8b284c	0.27179182
22	0x403209f2	2.781857
23	0x3ecb4e77	0.397083
24	0xbf07e850	-0.53088856
25	0x3eab711e	0.3348474
26	0xbf5b4ed5	-0.85667163
27	0x3f102b8a	0.56316435
28	0x3e5348e9	0.20633282
29	0x3f4192b7	0.75614494
30	0x3e90acdc	0.2825688
31	0x3d8dbe84	0.069211036
32	0xbfab0a30	-1.3362484
33	0xbf24125f	-0.6409053
34	0xbe9b01de	-0.30274862
35	0x3f09876f	0.5372228
36	0x3eb205a7	0.34769937
37	0x3ee74cb7	0.45175716
38	0xbede7945	-0.43451896
39	0xbdb8697c	-0.090044945
40	0xbe7ca693	-0.24672918
41	0xbef7d9a8	-0.48408246
42	0x3e1cc0fc	0.15307993
43	0x3f4ec366	0.80766904
44	0xbf41a804	-0.75646996
45	0xbf082d23	-0.53193873
46	0xc000d775	-2.0131505
47	0xbe956b7f	-0.29183576
48	0xbf88ada9	-1.0677997
49	0x3fe07007	1.7534188
50	0xbf9d7ec7	-1.2304314
51	0x3f1c70fd	0.61109906
52	0x3f8408f6	1.0315235
53	0x3ea51562	0.32242876
54	0xbfc4ee9b	-1.5385317
55	0x3f7b15f2	0.9808036
56	0xbf0d5ec6	-0.5522274
57	0xbf78c736	-0.9717897
58	0xbea31174	-0.31849253
59	0x40161cd1	2.3455088
60	0xbf362239	-0.7114597
61	0xbf0cbcb5	-0.54975444
62	0x3fe51ea9	1.7899982
63	0x3ed57c30	0.4169631
64	0x3ee53124	0.44764054
65	0x40268ce4	2.6023493
66	0xbfa7dd3a	-1.3114388
67	0xbdabf1e7	-0.083957486
68	0x3edacd29	0.4273465
69	0xbfa68ccb	-1.3011717
70	0x3ee2471f	0.44194886
71	0xbd6d2490	-0.057896197
72	0x3ee7717e	0.45203775
73	0xbf729fa2	-0.9477483
74	0x3f129393	0.5725643
75	0x3e454ba3	0.19267134
76	0x3f0dfcb6	0.5546373
77	0xbc4168e4	-0.011804793
78	0xbeedd273	-0.46449623
79	0x3f486557	0.7827963
80	0xbf729b3a	-0.94768107
81	0x3f530077	0.82422584
82	0x3fa149e0	1.260067
83	0xbf7c0c14	-0.9845593
84	0x3dcc00dc	0.099611014
85	0xbfdc1f9e	-1.7197149
86	0xbfc98d98	-1.5746336
87	0x3d030605	0.031988163
88	0xbf7a43a2	-0.9775945
89	0xbf4b1bd9	-0.7933937
90	0x3fab4808	1.3381357
91	0xbfc66a51	-1.5501195
92	0xbf271e8f	-0.65281004
93	0xbee5b6e4	-0.44866097
94	0xbf9d8202	-1.23053
95	0x3e8cd23a	0.2750414
96	0x3e8c21dd	0.27369586
97	0x3ee38d3f	0.444437
98	0x3f5c5c39	0.8607822
99	0x3fa50e2b	1.2894949
100	0xbf09c7ea	-0.5382067
101	0xbf592d1d	-0.8483446
102	0x3e81b2a3	0.25331602
103	0x3f205bd2	0.62640107
104	0xbf69db6c	-0.91350436
105	0x3d9ada95	0.075612225
106	0x3f723228	0.9460778
107	0xbeb0b2a9	-0.34511307
108	0xbcf32095	-0.029678622
109	0xbed96e54	-0.42466986
110	0x3f43c7fe	0.7647704
111	0x3e474a46	0.19461927
112	0x3ec37e87	0.3818247
113	0x3dc8853c	0.097910374
114	0xbecd37a8	-0.40081525
115	0xbd5d6f08	-0.054060966
116	0xbdc7762a	-0.09739335
117	0x3f26efb4	0.6520951
118	0x3f4e49a5	0.8058112
119	0x3fc10903	1.5080875
120	0x3f368beb	0.7130725
121	0xbf009652	-0.5022937
122	0xbf3890d7	-0.7209601
123	0x3e3bef7b	0.18353073
124	0xbf40f43e	-0.75372684
125	0xc01453ac	-2.317607
126	0x3f9fc121	1.2480813
127	0x3f620f1e	0.88304317
128	0xbf9a0ff2	-1.2036116
129	0xbe834b2c	-0.2564329
130	0xbfadeac3	-1.3587269
131	0xbe3dc81f	-0.18533371
132	0x3f9881ad	1.1914574
133	0xbf187fb7	-0.5956988
134	0xbfab4a6a	-1.3382084
135	0x3c5134d5	0.012768944
136	0xbfb9eb45	-1.4524924
137	0xbe32ec98	-0.17473066
138	0xbec20c68	-0.3790009
139	0x3fab7267	1.3394288
140	0x3f69511e	0.911394
141	0xbf04ad31	-0.5182677
142	0xbfd12709	-1.6340038
143	0xbfa389ba	-1.2776406
144	0xbe457d79	-0.19286145
145	0x3f367235	0.71268016
146	0xbfc3c13a	-1.5293343
147	0x3f8d8370	1.1055737
148	0xbd9e0495	-0.07715718
149	0x3f8518e4	1.0398221
150	0xbfd0f848	-1.632577
151	0xbf562e1f	-0.83664125
152	0x3f440056	0.7656301
153	0x3d8f53b6	0.069983885
154	0x3fb87ce1	1.441311
155	0x3ef8a1d2	0.4856096
156	0xbee9d55c	-0.45670593
157	0x3f645002	0.8918458
158	0xbe365d2a	-0.17808977
159	0xbdc2973b	-0.09501501
160	0xbeeab6c3	-0.4584256
161	0xbffe28bd	-1.9856182
162	0x400bc819	2.184088
163	0x3eca3e51	0.3950067
164	0xbe4dcbe6	-0.20097312
165	0x3f5ed962	0.8705045
166	0xbf97f616	-1.1871974
167	0xbe95d5fe	-0.29264826
168	0x3e89ce61	0.26915267
169	0xbd992b81	-0.07479001
170	0xbe036639	-0.12831964
171	0xbef7d88f	-0.4840741
172	0xbeb9f805	-0.36322036
173	0xbe82dfd6	-0.25561398
174	0xbef66e61	-0.48131087
175	0xbf7de90b	-0.9918372
176	0xbe1990ba	-0.14996615
177	0xbf924688	-1.1427774
178	0x40059ef8	2.0878277
179	0xbf2c5ffb	-0.67333955
180	0xbf83bd09	-1.0292064
181	0xbff63d5f	-1.9237479
182	0xbfa9460b	-1.32245
183	0x3e47a14f	0.19495128
184	0x3d094445	0.033512373
185	0xbe225d33	-0.15855865
186	0xbe4cb214	-0.19989806
187	0x3f8a2324	1.0791974
188	0x3c3fe8b1	0.011713193
189	0xbe44b10e	-0.19208166
190	0x3f3e90a6	0.74439466
191	0x3eb5ca20	0.35505772
192	0x3fabe9ee	1.3430765
193	0xbfddb23d	-1.7320019
194	0xbebb94ad	-0.36636868
195	0x3f345676	0.7044443
196	0x3f5c31b2	0.8601333
197	0xbfabeb76	-1.3431232
198	0xc00d454a	-2.207354
199	0xbd1dc512	-0.03851802
200	0xbeaa93a5	-0.3331577
201	0xbfa5f87d	-1.2966458
202	0xbec003cc	-0.37502897
203	0xbeaeacf6	-0.34116334
204	0xbf87bec6	-1.0605094
205	0x3fcdd844	1.6081624
206	0x3f4bf051	0.7966357
207	0xbf7c4053	-0.9853565
208	0x3fa5170f	1.2897662
209	0x3ed7beae	0.42137665
210	0x3fc5d44f	1.5455416
211	0xbf8b0cc6	-1.0863273
212	0xbe7bb3a9	-0.24580254
213	0x3f5f0ad8	0.8712592
214	0x3f8b1a50	1.0867405
215	0x3f3493c8	0.70537996
216	0x3f3ed5d6	0.7454504
217	0x3eb3354b	0.35001597
218	0xbfe321e5	-1.7744719
219	0xbf08ae40	-0.53390884
220	0xbf1043f5	-0.56353694
221	0xbd591070	-0.05299419
222	0x3fe24b6c	1.7679267
223	0x3e58a310	0.21155953
224	0xbf9e3700	-1.2360535
225	0xbeb8f220	-0.36122227
226	0x3f61f152	0.8825885
227	0x3f0a094b	0.5392043
228	0x3f795cf1	0.9740744
229	0x3f60b9fb	0.87783784
230	0xbe11d2ed	-0.14240618
231	0xbf915997	-1.1355466
232	0x3f83cc0c	1.0296645
233	0xbf0c4f65	-0.54808646
234	0xbfb4aad9	-1.4114639
235	0x3fa97751	1.3239537
236	0x3e977724	0.29583085
237	0x3edb55c3	0.42838868
238	0xbf105543	-0.563801
239	0x3ec34e4f	0.38145682
240	0xbe3360e4	-0.1751743
241	0x3f65a20b	0.8970038
242	0xbec50abd	-0.38484755
243	0xbe97282b	-0.29522833
244	0xbf99391d	-1.1970555
245	0x3ed4f709	0.41594723
246	0xbf7dd661	-0.9915524
247	0x3ee195f5	0.4405972
248	0x3e81ee30	0.25377035
249	0x3f95b7ec	1.1696754
250	0x3e7d0a04	0.24710852
251	0x3ee04556	0.438029
252	0x3fd952ed	1.6978432
253	0xbf9bd98f	-1.2175769
254	0xbf46f92e	-0.7772397
255	0x3d9c9d41	0.07647181

cls_token_pixel f4 [1, 1, 32]
0	0xbea05c1c	-0.31320274
1	0xbf81a86c	-1.0129523
2	0xbcbdbef9	-0.023162352
3	0x3f0f6097	0.5600676
4	0x3f947bbe	1.1600263
5	0x3efbf195	0.4920775
6	0xbf017bfc	-0.5057981
7	0xbeb5b0b9	-0.3548639
8	0x3ebe09d5	0.37116876
9	0xbfbcef41	-1.4760514
10	0xbf73406d	-0.9502018
11	0xbf15ba80	-0.584877
12	0x3dff3bda	0.12462588
13	0x3e3fbefc	0.18725199
14	0xbfc6910b	-1.5513014
15	0x3ee65266	0.4498474
16	0xbe8b83eb	-0.27249083
17	0xbea3d3a3	-0.31997404
18	0xbf181a9b	-0.59415597
19	0x3f8fb3ac	1.1226707
20	0xbe89680d	-0.26837197
21	0xbe9875f3	-0.29777488
22	0xbec0f12e	-0.37684005
23	0xc018f205	-2.3897717
24	0xbf5de0b5	-0.86671
25	0x3f4caed0	0.7995424
26	0xbf60c651	-0.87802607
27	0xbf98d32a	-1.1939442
28	0xbf09bcc7	-0.53803676
29	0x3f6b2615	0.91854984
30	0x3d2195ed	0.03944962
31	0xbf15de31	-0.5854216

pixel_patch_embedding.weight f4 [32, 30]
0	0xbdee3fdc	-0.11633274
1	0xbe235c90	-0.15953279
2	0xbe3505f0	-0.17678046
3	0xbe08ff8e	-0.13378736
4	0xbde369fd	-0.111042
5	0xb9c78000	-0.00038051605
6	0x3e3aa9c6	0.18228826
7	0xbd439614	-0.047750548
8	0x3e0aed3c	0.1356706
9	0xbd72d428	-0.05928436
10	0xbcaff0a0	-0.021477044
11	0x3d6e284c	0.0581439
12	0xbab8ed80	-0.0014108866
13	0xbd7d4d54	-0.061841324
14	0xbe133d99	-0.14378966
15	0x3e3ae5d2	0.18251732
16	0x3e3ab8ea	0.18234602
17	0x3cbd78d8	0.023128912
18	0x3d92dab0	0.071706176
19	0x3d234058	0.039856285
20	0x3e2b85a0	0.16750193
21	0xbe22cec4	-0.15899187
22	0x3d624cd8	0.055249065
23	0xbdffe5e6	-0.124950215
24	0x3d9f3f9c	0.077758044
25	0xbd79de64	-0.061003104
26	0x3daf4724	0.08558491
27	0x3c903bd0	0.017606646
28	0x3a017000	0.0004937649
29	0x3cfe9ea0	0.031081498
30	0xbdc45a6d	-0.0958756
31	0x3d2b41d0	0.04181081
32	0x3e2a401e	0.16626021
33	0xbd7260cc	-0.059174344
34	0xbde42648	-0.11140114
35	0x3e21cf5e	0.1580176
36	0x3deab9e8	0.1146124
37	0xbdfd80d0	-0.12378085
38	0x3db68cd4	0.089135796
39	0x3d0ceac8	0.034403592
40	0xbe31d687	-0.17366992
41	0xbdabdb7f	-0.08391475
42	0xbcab8a78	-0.02094005
43	0x3b4ea4c0	0.0031531304
44	0x3e3343ca	0.17506328
45	0xbe1c0714	-0.15237075
46	0xbce131a0	-0.027489483
47	0xbe2fdfb2	-0.17175177
48	0xbda8cd36	-0.08242266
49	0x3e36db12	0.17857006
50	0xbd8d7f27	-0.06909018
51	0xbd935a62	-0.071949735
52	0xbe2c0637	-0.16799246
53	0x3de2e114	0.110780865
54	0xbcbd04d0	-0.023073584
55	0xbd1a30d4	-0.037644222
56	0xbd3aaa14	-0.045572355
57	0xbde31344	-0.11087659
58	0xbdc0592c	-0.09392008
59	0xbe3070ba	-0.17230502
60	0xbc8e8240	-0.017396092
61	0xbd069754	-0.03285916
62	0xbe140173	-0.14453678
63	0x3e162b20	0.14664888
64	0x3e2fe53c	0.1717729
65	0x3de1a484	0.11017707
66	0x3e2b6a92	0.16739872
67	0x3e2d7a5c	0.16941208
68	0xbc32e870	-0.010919675
69	0x3e11526c	0.14191598
70	0x3d53855c	0.051640853
71	0x3e2b5d88	0.16734898
72	0xbd8cd49e	-0.06876491
73	0x3e0fbe8c	0.14037532
74	0xbd52dda4	-0.051480904
75	0xbe2abcc3	-0.1667357
76	0x3c375410	0.011189476
77	0x3d92731c	0.071508616
78	0x3e2812da	0.16413441
79	0xbe052028	-0.13000548
80	0x3c43c210	0.011948124
81	0x3da61030	0.08108556
82	0x3ddb0f80	0.10696316
83	0xbc8939e0	-0.01675123
84	0xbcf96510	-0.030443698
85	0xbe208cdb	-0.15678732
86	0xbcf849f8	-0.030308709
87	0x3dd95820	0.10612512
88	0xbdf96c58	-0.12178868
89	0x3e39106c	0.1807267
90	0x3da56d14	0.080774456
91	0x3e359b44	0.1773501
92	0x3d355068	0.044266135
93	0xbdb5e548	-0.088816226
94	0xbd7758d0	-0.060387433
95	0xbcc818d8	-0.024425909
96	0x3e1c4828	0.152619
97	0x3ddf0cc8	0.1089111
98	0xbd8728fb	-0.06599613
99	0xbe28d92f	-0.16489099
100	0xbc7c4020	-0.015396148
101	0xbe265690	-0.16243958
102	0xbd7efaa2	-0.06225074
103	0x3d4a0920	0.04932511
104	0xbe09a2a5	-0.1344095
105	0x3d86352c	0.065531105
106	0xbe09d2e0	-0.13459349
107	0xbdb4ef9b	-0.088347636
108	0x3d073868	0.033012778
109	0x3ddf5e44	0.109066516
110	0x3dcc04c4	0.099618465
111	0x3ba21f20	0.004947558
112	0x3c8dcd00	0.017309666
113	0x3d3b4098	0.0457159
114	0x3de5064c	0.11182842
115	0xbc483060	-0.012218565
116	0x3e003fe2	0.1252437
117	0x3e1978a0	0.14987421
118	0xbd1fc854	-0.039009407
119	0xbddbb81e	-0.10728477
120	0xbdda00cf	-0.106446855
121	0x3b87cf00	0.0041445494
122	0xbdb737f8	-0.08946222
123	0xbb1d4080	-0.0023994744
124	0x3ca1dde8	0.019759133
125	0x3dcaebd0	0.09908259
126	0x3e09d968	0.1346184
127	0x3cc33130	0.023827165
128	0x3dac2f28	0.08407432
129	0x3e2c682a	0.1683661
130	0xbe21a1ff	-0.15784453
131	0x3e1e2a0c	0.15445727
132	0xbdb3b909	-0.08775527
133	0xbdf4addf	-0.11947226
134	0xbe0531d6	-0.13007292
135	0xbc9a1318	-0.018807933
136	0xbe147f9d	-0.14501806
137	0xbdcbe0f0	-0.09955013
138	0x3e3287c2	0.174346
139	0xbdf6d1a4	-0.120517045
140	0xbd8fc270	-0.07019508
141	0xbd4a5ea8	-0.049406677
142	0x3cb41488	0.021982446
143	0x3e1c48e4	0.1526218
144	0xbd992384	-0.07477477
145	0xbd52a1bc	-0.051423773
146	0x3d9cf18c	0.07663259
147	0xbdf37325	-0.118871965
148	0xbd08ad98	-0.033368677
149	0x3d0980c4	0.033570066
150	0xbe28e2ca	-0.16492763
151	0xbcecd600	-0.028910637
152	0x3e30b484	0.17256361
153	0x3e0d4afa	0.13798133
154	0xbd8dd3e6	-0.06925182
155	0x3d3305f4	0.04370685
156	0xbe14a0a6	-0.14514408
157	0x3e259862	0.1617141
158	0x3e164a70	0.14676833
159	0xbe2d5e92	-0.16930607
160	0x3d655a30	0.055994213
161	0xbe1ec97c	-0.15506548
162	0xbe21aafa	-0.15787879
163	0x3c8a1028	0.016853407
164	0xbdaebf6c	-0.085326046
165	0xbe00cd6c	-0.12578362
166	0xbda166d8	-0.07880944
167	0xbdbb0f59	-0.09133787
168	0xbdd0e64e	-0.10200177
169	0x3dc26994	0.09492794
170	0xbd7c2bdc	-0.061565265
171	0x3dac7c48	0.08422142
172	0x3e28a44a	0.16468921
173	0x3e06659e	0.13124701
174	0x3abfa100	0.0014620125
175	0x3d9bbd78	0.07604498
176	0xbc612bd0	-0.013743356
177	0xbd7a2b94	-0.061076716
178	0xbbfe0ae0	-0.0077527612
179	0xbd951b92	-0.07280649
180	0xbcb79048	-0.022407666
181	0xbd6f6fd0	-0.058456242
182	0x3e221674	0.15828878
183	0xbc9726e0	-0.018451154
184	0x3d8c5d6c	0.06853756
185	0xbc024b20	-0.0079524815
186	0xbdd8cfae	-0.10586487
187	0xbd8493a9	-0.064734764
188	0xbd7b3730	-0.061331928
189	0x3d8b0228	0.06787521
190	0xbe36fb16	-0.17869219
191	0x3df4ddd0	0.1195637
192	0x3dfc0634	0.12305871
193	0x3d48e828	0.049049526
194	0xbda58cb2	-0.08083476
195	0x3dfff33c	0.12497565
196	0xbc07a730	-0.008279607
197	0x3e199074	0.1499651
198	0xbe2fecc7	-0.17180167
199	0xbc11a5f0	-0.00888966
200	0xbe170678	-0.14748561
201	0x3e23099a	0.15921631
202	0x3d95daf0	0.0731715
203	0x3dd68cb0	0.10476053
204	0x3d3d8f18	0.046279043
205	0xbd73c30e	-0.05951219
206	0xbdeb66fe	-0.114942536
207	0x3e12ef4e	0.143491
208	0x3d9bf91c	0.07615873
209	0x3bd6db60	0.0065569133
210	0xbd9cda1f	-0.07658791
211	0xbe29f274	-0.16596395
212	0x3db2a578	0.08722967
213	0xbd8f2cce	-0.06990968
214	0x3dee9ab0	0.11650598
215	0x3e2195d0	0.15779805
216	0xbdfbea50	-0.12300551
217	0xbd82d3b7	-0.06388038
218	0xbe030b64	-0.12797314
219	0xbd667788	-0.056266338
220	0xbd619640	-0.05507493
221	0x3d7edd94	0.062223032
222	0xbdb45390	-0.08805001
223	0xbe33bc25	-0.1755224
224	0xbd869431	-0.06571234
225	0x3d7a2e40	0.061079264
226	0xbe171930	-0.14755702
227	0x3de72eb4	0.11288205
228	0xbe20ec2a	-0.1571509
229	0x3ddb38cc	0.107041925
230	0x3e0f8d4c	0.14018744
231	0xbd10e458	-0.035374016
232	0xbe094158	-0.13403833
233	0xbdb5ec61	-0.08882976
234	0x3e24e640	0.16103458
235	0x3d46abf8	0.048503846
236	0xbddfea33	-0.10933342
237	0x3dc95458	0.098305404
238	0x3dc2c5bc	0.09510371
239	0xbe01ae84	-0.12664229
240	0x3d4c6998	0.04990539
241	0x3e3271c2	0.17426208
242	0xbccb29e8	-0.024800256
243	0x3d1c9328	0.038226277
244	0x3e242b50	0.16032147
245	0xbde119d2	-0.10991253
246	0x3e218698	0.15774
247	0x3d81fbf0	0.063468814
248	0x3e3aaade	0.18229243
249	0x3de68a28	0.1125682
250	0xbdf81cab	-0.12114843
251	0xbdbcaa21	-0.09212137
252	0x3e0dc874	0.13845998
253	0xbd5f879c	-0.054572687
254	0x3e02e4a2	0.12782529
255	0xbd9fa85e	-0.07795785

pixel_patch_embedding.bias f4 [32]
0	0xbe0535cb	-0.13008802
1	0x3dd227c8	0.10261494
2	0x3e16f064	0.14740139
3	0x3dab83f8	0.083747804
4	0xbe0ea77b	-0.13931076
5	0x3e04ee66	0.12981567
6	0x3c4ed410	0.012623802
7	0x3d0ae880	0.033913136
8	0x3d9bb4a0	0.07602811
9	0x3e2b0b72	0.16703585
10	0xbd0ce308	-0.0343962
11	0xbc6bafd0	-0.014385179
12	0x3d280ad0	0.041025937
13	0x3e1697f4	0.14706403
14	0xbdb01c0c	-0.085990995
15	0x3dc261c4	0.094913036
16	0xbde003a3	-0.10938194
17	0xbe098afe	-0.13431928
18	0x3e17de32	0.14830855
19	0xbd072b48	-0.03300026
20	0x3cea9b58	0.028638527
21	0x3c2c5190	0.010517493
22	0x3d4a4610	0.049383223
23	0x3c7c33b0	0.015393183
24	0x3de3e1d0	0.11127055
25	0xbda3aed4	-0.0799233
26	0x3c9ff598	0.019526288
27	0xbcb77be0	-0.022397935
28	0x3c93cbb8	0.018041477
29	0xbcefa3f8	-0.029252991
30	0xbd97d46f	-0.07413565
31	0xbd77354e	-0.06035357

local_trans_pixel.layers.0.0.fn.norm.weight f4 [32]
0	0x3f8b8ac9	1.0901729
1	0x3f8c3120	1.0952492
2	0x3f887231	1.0659848
3	0x3f8939e8	1.0720797
4	0x3f8bb3df	1.0914267
5	0x3f8e9957	1.1140546
6	0x3f869a7d	1.0515896
7	0x3f8f9d91	1.121996
8	0x3f8952e1	1.0728418
9	0x3f8fec8e	1.1244066
10	0x3f8b5c9c	1.0887637
11	0x3f8cc5b3	1.0997833
12	0x3f8f9450	1.1217136
13	0x3f8d03b8	1.101676
14	0x3f89069d	1.0705143
15	0x3f8d3e39	1.1034614
16	0x3f8c2ed1	1.0951787
17	0x3f8aeff2	1.0854475
18	0x3f8b6621	1.0890542
19	0x3f88ddbd	1.0692669
20	0x3f8a9852	1.0827734
21	0x3f85ba90	1.0447559
22	0x3f87e21e	1.061588
23	0x3f89fd73	1.0780472
24	0x3f873b35	1.0564944
25	0x3f89ec6e	1.0775278
26	0x3f87a98f	1.059862
27	0x3f8d5513	1.1041588
28	0x3f8d092a	1.1018422
29	0x3f8e520b	1.1118788
30	0x3f847e3e	1.0351026
31	0x3f8a992f	1.0827998

local_trans_pixel.layers.0.0.fn.norm.bias f4 [32]
0	0xbc515c70	-0.0127783865
1	0xbd382324	-0.044955388
2	0x3c229980	0.009924293
3	0xbd3830cb	-0.044968408
4	0x3bd8a4d4	0.006611446
5	0xbdf1d053	-0.11807313
6	0x3c9e83a8	0.019349888
7	0x3d0685ae	0.03284233
8	0x3cca1b5d	0.024671251
9	0xbd26e3d6	-0.040744625
10	0x3c71b38d	0.014752281
11	0xbcf373be	-0.029718276
12	0x3b846b62	0.0040411213
13	0x3b97b2ba	0.00462946
14	0x3d08df43	0.033416044
15	0x3cf940db	0.030426433
16	0xbcb92c01	-0.02260399
17	0xbc692346	-0.014229601
18	0xbcbf2721	-0.023334088
19	0x3c98a09b	0.01863127
20	0xba10a9ec	-0.00055184844
21	0xbc25468b	-0.01008762
22	0x3c81272e	0.015765753
23	0x3c2de9bc	0.010614809
24	0xbbd8650c	-0.0066038426
25	0x3c79c870	0.015245542
26	0xbc2fbdbb	-0.010726388
27	0x3c6226cb	0.013803194
28	0xbcab56c8	-0.020915404
29	0x3d0e17df	0.034690734
30	0x3c692851	0.014230804
31	0xbd39ca9e	-0.045359246

local_trans_pixel.layers.0.0.fn.fn.to_qkv.weight f4 [768, 32]
0	0xbe259b42	-0.16172507
1	0xbd478968	-0.048715025
2	0x3d792f5c	0.06083618
3	0x3e2ab0cd	0.16669007
4	0x3e280310	0.16407418
5	0xbe410b6d	-0.18852015
6	0x3dec48d9	0.11537332
7	0xbe0e7e40	-0.13915348
8	0xbdb2a7e2	-0.08723427
9	0x3e274317	0.16334186
10	0x3e310c2d	0.17289801
11	0xbd7ba083	-0.061432373
12	0x3c1de148	0.009636231
13	0xbb7f78c3	-0.0038981892
14	0xba64d774	-0.0008729615
15	0xbe516cc8	-0.20451653
16	0xbd135290	-0.03596741
17	0x3e5047cc	0.20339888
18	0xbc8ec4b5	-0.017427782
19	0x3d5e2317	0.054232683
20	0xbc602db1	-0.013682769
21	0x3c9c9855	0.019115606
22	0x3e1aa4ef	0.1510198
23	0xbdcfe7e8	-0.101516545
24	0x3d936922	0.07197787
25	0xbd687038	-0.056747645
26	0xbd64ea1a	-0.05588732
27	0xbe16cf7f	-0.14727591
28	0xbc81c1b7	-0.01583944
29	0x3c526b3c	0.0128429495
30	0xbd1803f4	-0.037113145
31	0xbe176712	-0.14785412
32	0x3dd025c2	0.10163452
33	0x3d950ff9	0.07278437
34	0x3deaa79c	0.1145775
35	0xbb78fb8a	-0.0037991726
36	0x3e05937a	0.13044539
37	0x3df6109e	0.12014888
38	0x3e28576b	0.16439597
39	0x3e38dbdf	0.18052624
40	0x3de0e9d6	0.10982101
41	0x3d539034	0.051651195
42	0x3dc478cc	0.09593353
43	0x3c86c597	0.01645164
44	0xbd4211c6	-0.04738023
45	0xbc6c3d13	-0.014418858
46	0x3c342571	0.010995255
47	0x3d7a22cc	0.06106834
48	0x3d9b57dc	0.07585117
49	0x3bed03b9	0.00723311
50	0xbd97cb9d	-0.07411883
51	0xbd5746c6	-0.05255773
52	0x3d198a6d	0.03748553
53	0x3e00e7ca	0.1258842
54	0x3e465196	0.1936706
55	0x3d0fdb8d	0.03512149
56	0xbe73beaa	-0.23803201
57	0x3d47c3d0	0.048770726
58	0xbe27b9c7	-0.16379462
59	0xbd972b1d	-0.0738127
60	0xbd7707c7	-0.06031015
61	0xbdbfd515	-0.09366814
62	0x3e21bf10	0.15795541
63	0x3dcacc06	0.09902196
64	0x3e1c034e	0.15235636
65	0xbb5ca65c	-0.0033668494
66	0x3dd4c84f	0.10389768
67	0xbdbd32f2	-0.09238233
68	0x3e5d61ae	0.21619293
69	0x3e85164e	0.2599358
70	0x3e18ab6c	0.14909142
71	0xbcb04de3	-0.021521514
72	0x3e43f21b	0.19135325
73	0xbe15a7d3	-0.14614801
74	0x3de554a6	0.11197786
75	0x3db80c6d	0.08986745
76	0xbe0518db	-0.12997763
77	0xbd2b57eb	-0.041831892
78	0xbda11844	-0.078659564
79	0xbd95bc3f	-0.07311296
80	0xbd3c154a	-0.04591874
81	0x3d8e7f42	0.06957866
82	0xbdcfbbc1	-0.10143233
83	0xbe4804f2	-0.19533136
84	0x3df43528	0.11924201
85	0xbc68fb2d	-0.014220041
86	0x3e1842aa	0.1486918
87	0xbe36460e	-0.17800161
88	0xbe597d86	-0.2123929
89	0x3be0ec6e	0.006864122
90	0xbda5e0a2	-0.08099486
91	0xbde8a880	-0.11360264
92	0xbdd301ba	-0.10303064
93	0x3e1c1663	0.15242915
94	0x3c9c11f6	0.019051533
95	0x3dd0ff65	0.10204963
96	0xbdb3f703	-0.08787348
97	0xbcaccb32	-0.021092985
98	0x3dd8bdba	0.105830625
99	0xbdf6cd39	-0.12050862
100	0xbd9ee72e	-0.07758938
101	0xbe72c486	-0.2370778
102	0x3dbafd19	0.09130306
103	0xbd84d40d	-0.06485758
104	0xbc8b0089	-0.016968029
105	0x3ca6af42	0.020347241
106	0x3d86c8c4	0.06581262
107	0x3c8783d9	0.016542362
108	0x3ded49c1	0.11586333
109	0xbdb93ff8	-0.09045404
110	0xbe0105ba	-0.12599841
111	0x3b22f307	0.0024864094
112	0xbe0f7a93	-0.14011602
113	0xbbf6793c	-0.0075217765
114	0x3d95d04b	0.07315119
115	0x3b6dc829	0.0036282635
116	0x3d6a49ca	0.057199277
117	0x3e09b402	0.13447574
118	0x3cbffcfc	0.023436062
119	0xbdcac3f8	-0.09900659
120	0xbdc01564	-0.0937908
121	0xbe24e2f1	-0.16102196
122	0xbd181b42	-0.03713537
123	0x3c799e45	0.015235488
124	0xba69f2b7	-0.0008924412
125	0x3dc2e46d	0.09516225
126	0x3da866d2	0.082227364
127	0x3d2c2ad4	0.04203303
128	0x3e1ba1fa	0.15198508
129	0x3dc7fc0c	0.09764871
130	0x3ccafbb9	0.024778234
131	0xbc7646ea	-0.015031556
132	0xbd3c8132	-0.046021648
133	0xbdf151bf	-0.1178317
134	0xbe025f0b	-0.12731569
135	0x3e1337c0	0.14376736
136	0x3dbbf0d7	0.09176796
137	0xbe29b5d0	-0.16573262
138	0xbdfe022e	-0.124027595
139	0xbdbc9590	-0.09208214
140	0xbe218b67	-0.15775834
141	0x3d346fe9	0.04405204
142	0x3df84ced	0.121240474
143	0xbdecf9df	-0.11571097
144	0x3e145009	0.14483656
145	0x3ca502df	0.02014297
146	0x3e0b49c6	0.13602361
147	0xbdde6c5b	-0.10860511
148	0xbd4282c2	-0.04748798
149	0xbdae2d07	-0.08504682
150	0xbe0106d5	-0.12600262
151	0x3d1dca4e	0.03852301
152	0xbd51911d	-0.05116378
153	0x3df039bf	0.11729764
154	0xbdd2f344	-0.103003055
155	0x3e5adf17	0.21374165
156	0x3dc6f595	0.0971481
157	0x3d6940e5	0.056946654
158	0xbde9db35	-0.114187635
159	0x3ddd2288	0.10797602
160	0x3cd8387e	0.026394125
161	0xbdcd342c	-0.100197166
162	0xbdc29762	-0.0950153
163	0x3e21fb3b	0.15818493
164	0x3e277245	0.16352184
165	0x3b133b45	0.0022465747
166	0xbe065599	-0.1311859
167	0xbc8c0f00	-0.017096996
168	0xbda7e4c1	-0.08197928
169	0x3e356140	0.17712879
170	0xbdf1d23e	-0.11807679
171	0x3b61c82f	0.0034451594
172	0x3d973748	0.07383591
173	0xbe2e7c43	-0.1703959
174	0x3d86b1bf	0.06576871
175	0xbdd517ef	-0.104049556
176	0xbae917bb	-0.0017783561
177	0x3e21c340	0.15797138
178	0xbdc1ba74	-0.09459391
179	0x3de2bb21	0.11070848
180	0xbc00f900	-0.007871866
181	0xbddb30a2	-0.10702635
182	0xbd53ac19	-0.051677797
183	0xbe0d6109	-0.13806547
184	0x3cdb22f1	0.02675006
185	0x3c5d5731	0.013509558
186	0xbdd7ebc4	-0.105430156
187	0xbb9424a9	-0.004520972
188	0x3de10cd3	0.10988774
189	0xbd1c0960	-0.03809488
190	0xbe0212cc	-0.12702483
191	0xbdc3f0a1	-0.09567381
192	0x3e26894c	0.16263312
193	0xbe29183e	-0.16513154
194	0x3e06f55f	0.13179539
195	0xbde7c138	-0.113161504
196	0xbdae8243	-0.08520939
197	0x3e14de3d	0.14537902
198	0xbd98ebdb	-0.07466861
199	0x3d04d857	0.03243288
200	0x3dd3b565	0.10337333
201	0x3dc49a4d	0.09599743
202	0xbdc15ff6	-0.09442131
203	0x3dea273f	0.11433267
204	0x3e28a25f	0.1646819
205	0x3e502a95	0.20328744
206	0x3c6ed9e1	0.014578314
207	0x3e4b02e7	0.19825326
208	0xbdb93dd9	-0.09045
209	0x3bf56085	0.0074883127
210	0x3df77edf	0.120847456
211	0x3cca2897	0.024677558
212	0xbe25ec2d	-0.16203375
213	0xbdf2384b	-0.11827143
214	0xbc468e7d	-0.012118933
215	0x3e40bc85	0.18821914
216	0x3d9443e9	0.07239515
217	0x3d137936	0.036004268
218	0x3e0ac3d2	0.13551262
219	0xbd893182	-0.06698896
220	0xbcb798b3	-0.02241168
221	0xbd8cf361	-0.06882358
222	0xbde4203b	-0.1113896
223	0xbe20e3f1	-0.15711953
224	0xbca04d02	-0.01956797
225	0xbc58cf0e	-0.013232959
226	0x3d8fff57	0.07031124
227	0x3e34de20	0.17662859
228	0x3ce5660a	0.028002758
229	0x3e2fae79	0.171564
230	0x3dff1dd8	0.12456864
231	0x3bc256ae	0.005930743
232	0x3d96dc77	0.07366269
233	0xbd80649b	-0.06269189
234	0xbb938235	-0.004501606
235	0xbdf46b93	-0.11934581
236	0xbe0d639f	-0.13807534
237	0xbdd589b9	-0.10426659
238	0xbe0539a4	-0.1301027
239	0x3cb5be09	0.022185342
240	0x3db55b45	0.08855299
241	0x3d2ff9c9	0.042962823
242	0xbe33283c	-0.17495817
243	0x3d1572e9	0.03648654
244	0x3e276216	0.1634601
245	0x3e16962a	0.1470572
246	0xbe08dc61	-0.13365318
247	0x3c8ce936	0.017201047
248	0xbe06d684	-0.13167769
249	0x3e183144	0.14862543
250	0xbe365465	-0.17805631
251	0xbd5aeb62	-0.053447135
252	0xbe19286e	-0.14956829
253	0xbd283e2f	-0.041074928
254	0x3e176b7f	0.147871
255	0x3e1f0df8	0.15532672

local_trans_pixel.layers.0.0.fn.fn.to_out.0.weight f4 [32, 256]
0	0x3cce84d8	0.02520983
1	0x3d0c2db0	0.03422326
2	0x3d185ac1	0.037195925
3	0x3cadf491	0.021234782
4	0x3db28e4f	0.087185495
5	0x3bdfde60	0.006831929
6	0x3db25678	0.08707899
7	0x3d37fd6c	0.044919416
8	0xbd2b4f7f	-0.04182386
9	0x3c4aca6f	0.0123773655
10	0xbd8a5157	-0.067537956
11	0xbd523477	-0.051319566
12	0x3cd16211	0.025559457
13	0xbda5514e	-0.08072148
14	0xbd2108e3	-0.039315116
15	0xbd4cbfbd	-0.049987543
16	0x3dbe61fb	0.09296032
17	0xbd1c0dbb	-0.038099032
18	0xbccb7a25	-0.024838516
19	0x3d4fb5ba	0.050710417
20	0x3d1ba30f	0.0379973
21	0x3c040f4a	0.008060286
22	0xbc6482fd	-0.013947246
23	0x3c181440	0.009282172
24	0xbd81ed7c	-0.06344125
25	0xbd67cdad	-0.056592632
26	0xbd8f90b5	-0.070100226
27	0xbd03c577	-0.03217074
28	0x3d9e9864	0.0774391
29	0x3d16b5e4	0.03679456
30	0x3cd6275e	0.026141819
31	0xbc3015ea	-0.010747412
32	0x3c8d379a	0.017238427
33	0x3d449077	0.047989335
34	0x3cc69ace	0.024243739
35	0xbd88ecb9	-0.06685776
36	0xbd358c76	-0.044323407
37	0xbd1c263f	-0.03812241
38	0x3b0790eb	0.0020685743
39	0x3c6e332c	0.0145385675
40	0xbd7a3905	-0.061089534
41	0x3ca969a7	0.020680262
42	0xbd955534	-0.07291642
43	0xbd0170f9	-0.03160188
44	0xbdac7dd4	-0.08422437
45	0x3d0a93bb	0.033832293
46	0x3bfc863c	0.0077064317
47	0xbd4c8cb5	-0.049938876
48	0x3d767d6e	0.060178213
49	0xbce84f70	-0.028358191
50	0x3d89db8d	0.06731329
51	0x3d5cbe00	0.053892136
52	0x3d45d16f	0.048295435
53	0xbcce60cc	-0.02519264
54	0x3d8eceea	0.069730595
55	0xbcf7d75b	-0.030254057
56	0xbc2b29ef	-0.0104470095
57	0xbd5ed548	-0.05440262
58	0x3d4ea331	0.0504486
59	0xbce26aee	-0.027638879
60	0x3d5f776e	0.054557256
61	0xbcd706f8	-0.02624844
62	0x3d193469	0.037403498
63	0xbc354bd4	-0.011065442
64	0xbd10d19e	-0.035356157
65	0x3c919b51	0.017774256
66	0x3d813c91	0.0631038
67	0x3d40a362	0.047030814
68	0x3cedac12	0.029012714
69	0xbda21111	-0.079134114
70	0x3c8605f6	0.016360264
71	0x3c0da4b4	0.008645225
72	0xbca1a23e	-0.019730683
73	0xbda6bdf4	-0.081416994
74	0xbd0d219c	-0.03445588
75	0xbd41c42b	-0.04730622
76	0xbd03dbb9	-0.032191966
77	0x3d09e22d	0.033662964
78	0x3d819e72	0.06329049
79	0xbdaee3c3	-0.08539536
80	0x3d93ec92	0.072228566
81	0x3dc90ddb	0.09817096
82	0xbc73db77	-0.014883867
83	0xbd3d3773	-0.04619546
84	0xbcd2752d	-0.02569064
85	0x3cf1711b	0.029472878
86	0x3d005422	0.031330235
87	0xbdb77194	-0.0895721
88	0x3d4b3b76	0.049617253
89	0xbb924965	-0.0044643157
90	0x3d8c435f	0.068487875
91	0x3d486e8f	0.048933562
92	0x3bed9d39	0.0072514084
93	0x3c11b33c	0.00889283
94	0xbd9239b2	-0.07139911
95	0xbda5d681	-0.08097554
96	0xbc013d58	-0.007888161
97	0xbd187f16	-0.037230574
98	0xbc4badd4	-0.012431581
99	0x3ce73235	0.028222183
100	0x3d3516fd	0.044211376
101	0xbd863c74	-0.06554499
102	0xbd0729d9	-0.032998893
103	0x3df7e7f6	0.1210479
104	0xbd043ba8	-0.032283455
105	0x3d614c98	0.055004686
106	0xbcee31d7	-0.0290765
107	0x3ca8e98d	0.020619178
108	0xbd304a96	-0.04303988
109	0x3d2db9d0	0.042413533
110	0x3d82c6dc	0.06385586
111	0x3dd6ba18	0.10484713
112	0xbc1c42a1	-0.00953737
113	0x3d98fca5	0.07470063
114	0x3d5e6053	0.05429108
115	0xbd6e9ffc	-0.05825804
116	0xbcd37444	-0.025812276
117	0x3bd8c95d	0.0066158012
118	0x3d827bb8	0.06371254
119	0x3d0fe0b8	0.035126418
120	0x3d90cb39	0.07070012
121	0xba9cf262	-0.0011974091
122	0x3c04949c	0.008092072
123	0x3cfbf62d	0.030757034
124	0xbdb112b2	-0.08646144
125	0x3cab1589	0.020884292
126	0x3cd0abc0	0.025472522
127	0xbd3fd41a	-0.046833135
128	0x3b696443	0.003561274
129	0x3d8eb540	0.069681644
130	0xbd3092fa	-0.043108918
131	0xbd961ffc	-0.07330319
132	0x3c58f63b	0.0132423
133	0xbc137232	-0.008999394
134	0xbcdb9ba1	-0.026807608
135	0xbc60347c	-0.013684388
136	0x3dbc4a8c	0.09193906
137	0xbd57994d	-0.052636433
138	0x3c0c4201	0.008560658
139	0xbce479fa	-0.027890194
140	0xbd86212d	-0.065492965
141	0x3c6735bd	0.014111933
142	0x3c74bd40	0.014937699
143	0x3d860e98	0.06545752
144	0xbd8d3e85	-0.0689669
145	0xbd4164b0	-0.047215164
146	0xbda5bd41	-0.08092738
147	0x3d84bd87	0.06481462
148	0xbd3ca33e	-0.046054117
149	0x3ca4806e	0.020080771
150	0x3ccdc15b	0.025116613
151	0xbc63c180	-0.013901114
152	0x3d42f47c	0.04759644
153	0xbd840243	-0.06445744
154	0x3cc2fde8	0.023802713
155	0x3d8c785f	0.068588965
156	0xbc84b78d	-0.016200805
157	0x3cc900b6	0.024536472
158	0xbc1fb396	-0.0097474065
159	0xbcc76526	-0.024340224
160	0xbcdd48a2	-0.027012173
161	0x3b80e64e	0.0039337045
162	0xbc98b5b6	-0.018641334
163	0xbd88da42	-0.066822544
164	0x3dbe4e40	0.09292269
165	0xbb81ba96	-0.0039590104
166	0x3cc98d7c	0.024603598
167	0xba3d804e	-0.0007228897
168	0xbca18072	-0.019714568
169	0x3da12c4b	0.07869776
170	0xbd5ae706	-0.053442977
171	0xbda4645f	-0.08026957
172	0xbd860cf8	-0.06545442
173	0x3c247f68	0.010040142
174	0xb958ebed	-0.00020687254
175	0xbd85dd3d	-0.065363385
176	0xbca5ccdf	-0.020239292
177	0xbd892605	-0.06696705
178	0xbd559ae8	-0.052149683
179	0xbc9c3ef7	-0.019072993
180	0x3d2de6b1	0.042456333
181	0x3d1f21fa	0.038850762
182	0x3d16bace	0.036799245
183	0xbccdfdbf	-0.02514541
184	0x3cfe4f8b	0.031043788
185	0x3d8ada95	0.067799725
186	0xbd9e1839	-0.07719464
187	0x3a75a0fb	0.0009369996
188	0x3c82f04e	0.015983727
189	0xbccc9c94	-0.024977006
190	0x3d21b2d1	0.039477173
191	0x3d8a6423	0.06757381
192	0xbd9803ab	-0.074225746
193	0xbdabce55	-0.08388964
194	0x3db7d71b	0.08976575
195	0xbc7a302b	-0.015270273
196	0x3d1e4529	0.038640175
197	0xbd198482	-0.037479885
198	0x3d2d44f8	0.0423021
199	0xbd994db4	-0.07485524
200	0xbcefa138	-0.02925168
201	0xbd8132ad	-0.06308494
202	0xbd5f8e25	-0.05457892
203	0xbca432a7	-0.020043684
204	0x3d6ab52b	0.05730168
205	0x3b742277	0.0037251988
206	0xbcb8041a	-0.022462893
207	0xbcdb1070	-0.026741236
208	0x3dde5508	0.10856062
209	0x3c6e346c	0.014538866
210	0x3da39da4	0.07989052
211	0x3ba1a8e5	0.004933464
212	0x3dd192ce	0.10233079
213	0xbd852409	-0.06501014
214	0xbc315cc7	-0.0108253425
215	0x3d80454b	0.062632166
216	0x3d1f3d28	0.038876683
217	0x3d2543b8	0.040347785
218	0x3c742eac	0.014903706
219	0xbcf51f09	-0.029922025
220	0xbc446cd4	-0.011988837
221	0xbbdf37a6	-0.0068120537
222	0x3db6200e	0.08892833
223	0x3cc1dcc7	0.023664845
224	0x3d84cb80	0.06484127
225	0xba12d59a	-0.0005601287
226	0xbda08b05	-0.07839016
227	0x3d05a865	0.032631297
228	0xbae744b9	-0.0017644382
229	0x3c777a07	0.015104777
230	0x3d0198cd	0.031639863
231	0xbccfd59c	-0.025370412
232	0xbc0799b2	-0.00827639
233	0x3c6db5da	0.014508689
234	0xbd048b3c	-0.032359347
235	0x3d6622fb	0.056185704
236	0xbce0039e	-0.027345475
237	0xbd30bc1f	-0.043148156
238	0x3c4730ec	0.01215766
239	0x3c8e0038	0.017334089
240	0xbbd68647	-0.006546769
241	0x3cc54691	0.0240815
242	0x3cffca94	0.031224526
243	0x3d809bb6	0.062796995
244	0x3c1002eb	0.008789758
245	0xbb282b75	-0.0025660668
246	0xbcef8e35	-0.029242614
247	0x3d86f8f1	0.065904506
248	0x3dc189d7	0.09450119
249	0xbca7ca55	-0.020482222
250	0xbd9bec66	-0.07613449
251	0xbcc9fa47	-0.024655474
252	0x3d5fa0f4	0.054596856
253	0xbdb1d90e	-0.08683978
254	0x3c51f429	0.01281456
255	0xbd4bf9b8	-0.049798697

local_trans_pixel.layers.0.0.fn.fn.to_out.0.bias f4 [32]
0	0x3d53edbf	0.051740404
1	0x3da6e1b0	0.08148515
2	0x3db17ab6	0.086659834
3	0x3db3ee09	0.08785636
4	0x3d74b981	0.059747223
5	0xbc5ea698	-0.013589524
6	0xbbc95c83	-0.0061450615
7	0xbd9a07d7	-0.075210266
8	0x3c92ec8d	0.017935062
9	0xbc296167	-0.010338164
10	0xbdce80cd	-0.100831605
11	0x3cfc4db0	0.030798763
12	0x3c3e6e8a	0.011623034
13	0x3dec5190	0.11538994
14	0xbbb45d00	-0.0055042505
15	0x3ca73dc9	0.020415204
16	0x3cd6e4eb	0.026232203
17	0x3d16d916	0.036828123
18	0x3b8322ea	0.004001965
19	0xbc9edb2e	-0.019391622
20	0xbd2b8fc9	-0.04188517
21	0x3ca70bb7	0.020391328
22	0xbcdcf49c	-0.026972108
23	0xbce7803a	-0.028259385
24	0xbcbb25dc	-0.022845201
25	0x3d6331e5	0.055467505
26	0xbdc6b15f	-0.097017996
27	0x3c5de789	0.013543972
28	0xbd8bf221	-0.06833292
29	0x3d914040	0.07092333
30	0x3df732c1	0.120702274
31	0x3d26c6b6	0.04071685

local_trans_pixel.layers.0.1.fn.norm.weight f4 [32]
0	0x3f84f50e	1.0387285
1	0x3f8a77b6	1.0817783
2	0x3f85537b	1.0416101
3	0x3f8bbe21	1.0917398
4	0x3f8828f4	1.0637498
5	0x3f8a5d3b	1.0809702
6	0x3f894557	1.0724286
7	0x3f8eaa01	1.1145631
8	0x3f87a3ae	1.0596826
9	0x3f869d06	1.051667
10	0x3f973fea	1.181638
11	0x3f8b873c	1.0900645
12	0x3f813650	1.00947
13	0x3f8f96d9	1.121791
14	0x3f85ac65	1.0443236
15	0x3f8a3cd0	1.0799809
16	0x3f880507	1.0626534
17	0x3f86b2fd	1.0523373
18	0x3f896bab	1.0735983
19	0x3f72d907	0.9486241
20	0x3f897bdd	1.0740925
21	0x3f7ad9ca	0.9798857
22	0x3f836f2a	1.02683
23	0x3f826507	1.0187081
24	0x3f7c5a0e	0.9857491
25	0x3f8c6148	1.0967188
26	0x3f8b7152	1.0893958
27	0x3f8d633f	1.1045913
28	0x3f877298	1.0581846
29	0x3f8a17a7	1.0788468
30	0x3f8a6cdb	1.081447
31	0x3f867e1e	1.0507238

local_trans_pixel.layers.0.1.fn.norm.bias f4 [32]
0	0x3c9681d6	0.018372457
1	0x3dd0b3a0	0.10190511
2	0x3e32d5e5	0.17464407
3	0x3e057f94	0.13036948
4	0x3e13631a	0.14393273
5	0xbcc490b9	-0.02399479
6	0xbe1ea273	-0.15491657
7	0xbbaeb409	-0.0053315205
8	0xbd1c5d52	-0.038174935
9	0x3b1cb280	0.0023910105
10	0xbc7a1da4	-0.015265856
11	0x3e16275f	0.14663456
12	0x3cf0f9f3	0.02941606
13	0xbd6b9d25	-0.05752291
14	0xbdec5f32	-0.115415946
15	0x3d53d1c7	0.05171373
16	0xbdb66579	-0.08906073
17	0x3da76909	0.08174331
18	0xbce9ddb6	-0.028548103
19	0xbda3b831	-0.07994116
20	0xbe0f3e62	-0.13988641
21	0xbd2b3279	-0.04179618
22	0xbe1f0324	-0.15528542
23	0xbe10a0bc	-0.14123815
24	0xbd0e6ea1	-0.034773473
25	0x3d71c5fe	0.05902671
26	0xbe14fb4c	-0.14548987
27	0xbd725ed1	-0.059172455
28	0xbe39e658	-0.18154275
29	0xbdc52122	-0.0962546
30	0xbc9aca79	-0.018895375
31	0x3d45b56a	0.048268713

local_trans_pixel.layers.0.1.fn.fn.net.0.weight f4 [8, 32]
0	0x3d35f5d8	0.044423908
1	0xbdf8d47a	-0.12149902
2	0xbdb17dca	-0.086665705
3	0xbdae9833	-0.085251234
4	0xbe36b7dc	-0.17843574
5	0x3d26d0e6	0.040726565
6	0xbd924b84	-0.0714331
7	0x3cef21ba	0.029190887
8	0xbc0653b8	-0.008198671
9	0xbc19bab5	-0.009382893
10	0x3d7e52d4	0.06209071
11	0x3e6bf549	0.23042788
12	0x3c8aa11c	0.016922526
13	0x3e04b616	0.12960085
14	0xbcff8b33	-0.031194305
15	0x3d0d2389	0.034457717
16	0xbd98bbf1	-0.07457722
17	0xbe21fb29	-0.15818466
18	0xbc9bdb2e	-0.019025411
19	0x3d6632ce	0.056200795
20	0x3dd939f3	0.10606756
21	0x3e210b16	0.15726885
22	0x3d076cf6	0.033062898
23	0xbe06739d	-0.1313004
24	0xbd3bc243	-0.04583956
25	0xba744fc0	-0.0009319745
26	0xbe0315d0	-0.1280129
27	0xbe3db074	-0.18524343
28	0xbd8e0b00	-0.06935692
29	0x3d8894d1	0.066690095
30	0xbcf04aad	-0.029332483
31	0xbd798627	-0.060918953
32	0x3daeabf0	0.08528888
33	0x3e352271	0.1768892
34	0x3e229ed8	0.15880907
35	0xbce67f14	-0.028136767
36	0x3e442bca	0.19157329
37	0xbdb2c1f2	-0.087283984
38	0xbe433188	-0.19061863
39	0x3e178b06	0.14799127
40	0x3da68412	0.08130659
41	0x3d783c74	0.060604528
42	0x3c1a2985	0.009409313
43	0x3d80adf2	0.062831774
44	0x3ce6430a	0.028108139
45	0xbdb0e50b	-0.086374365
46	0xbe0a9e34	-0.13536912
47	0x3e631267	0.22174989
48	0xbda58fd0	-0.08084071
49	0xba852781	-0.0010158868
50	0xbd2bb4b3	-0.041920375
51	0xbc675ba4	-0.01412097
52	0xbde7a0f9	-0.1131
53	0xbd69df84	-0.057097927
54	0xbdd64f94	-0.10464397
55	0xbe417b04	-0.18894583
56	0xbd913a4b	-0.070911966
57	0x3d2ce695	0.042212088
58	0xbe2f9b8f	-0.17149185
59	0xbdb8c681	-0.090222366
60	0xbe7fe60e	-0.24990103
61	0xbd7c2f21	-0.061568383
62	0x3d8e438a	0.06946476
63	0xbdb63d90	-0.08898461
64	0x3e26dc34	0.16294938
65	0xbcdff7bd	-0.02733981
66	0x3e1330be	0.14374062
67	0x3e4ec24e	0.20191309
68	0x3e4e557c	0.20149797
69	0xbe034f8e	-0.12823316
70	0xbe0ad6a4	-0.13558441
71	0x3d6dd190	0.058061182
72	0xbe79a181	-0.24378015
73	0xbe18bcc7	-0.14915763
74	0xbdd79fa6	-0.105284974
75	0x3c58e4da	0.013238156
76	0xbc8f3047	-0.017479075
77	0xbe81c621	-0.25346473
78	0xbe6568d5	-0.22403271
79	0xbd8c00a1	-0.068360575
80	0xbe309478	-0.17244136
81	0x3d663e12	0.05621154
82	0xbdb228a7	-0.0869916
83	0x3bda2f8e	0.006658501
84	0x3caf5e93	0.021407401
85	0x3ca7be16	0.020476382
86	0x3b0f82dd	0.002189807
87	0xbdaac428	-0.08338195
88	0xbdf03073	-0.11727991
89	0xbc68e981	-0.014215828
90	0xbe1dbfeb	-0.15405242
91	0x3b04238a	0.0020162784
92	0xbe39a5fc	-0.18129724
93	0xbe6610d2	-0.22467354
94	0xbbd4d26f	-0.006494812
95	0x3d882e25	0.06649426
96	0x3d39a841	0.045326475
97	0xbdbd3dbe	-0.09240292
98	0x3d7dc7e8	0.061958224
99	0x3e14efa1	0.14544536
100	0x3e8491a5	0.25892368
101	0xbde97e94	-0.11401096
102	0x3db3daf8	0.08781999
103	0xbe1911a1	-0.14948131
104	0x3dd324c6	0.10309748
105	0xbe77007a	-0.24121276
106	0x3d2710e4	0.040787593
107	0xbe087c88	-0.13328755
108	0x3dcfea39	0.10152096
109	0xbe132c04	-0.1437226
110	0xbca6ca83	-0.020360237
111	0xbb7203ac	-0.0036928458
112	0x3dd5204f	0.10406553
113	0xbe71c9fd	-0.23612209
114	0x3e31e25b	0.17371504
115	0x3dd81e8d	0.10552702
116	0xbe48bf44	-0.19604212
117	0xbd35101d	-0.04420482
118	0x3dd753fc	0.105140656
119	0x3d9086e5	0.07056979
120	0x3d92b8f7	0.071641855
121	0x3d992411	0.07477582
122	0xbd0fd049	-0.035110746
123	0x3d58991c	0.05288039
124	0x3dde7528	0.108621895
125	0x3dc9b226	0.09848432
126	0xbdc4e547	-0.09614044
127	0x3dee3a77	0.11632245
128	0x3d91481c	0.07093832
129	0x3e3a819c	0.18213505
130	0x3dc666fb	0.09687611
131	0x3e1a9abe	0.15098092
132	0x3dd5bc90	0.10436356
133	0x3e273cd6	0.16331801
134	0xbdafc421	-0.085823305
135	0xbe63145e	-0.22175738
136	0x3dc313c8	0.09525257
137	0xbdd7c051	-0.10534728
138	0x3dd9aaad	0.10628257
139	0x3e1b776c	0.15182275
140	0xbe1c3a3d	-0.15256591
141	0x3e017c41	0.12645055
142	0xbd5c9358	-0.053851455
143	0x3daaf89c	0.083482
144	0xbe802d8d	-0.25034752
145	0x3d718750	0.058966935
146	0x3e4b84b1	0.19874837
147	0xbda7da7f	-0.08195972
148	0xbdac1e48	-0.08404213
149	0xbdc0cd9e	-0.09414218
150	0xbc00d9aa	-0.007864395
151	0x3c8dc653	0.017306482
152	0xbd15c933	-0.03656883
153	0x3d0c2484	0.03421451
154	0x3e3eccad	0.18632765
155	0xbd2043c1	-0.039127115
156	0xbe1d96fe	-0.1538963
157	0xbe5576f6	-0.20846161
158	0xbe38c1a2	-0.18042615
159	0x3e03021a	0.1279377
160	0x3d2ba3df	0.041904327
161	0xbd49fa48	-0.049310952
162	0x3d055fbc	0.032562003
163	0x3e77090c	0.24124545
164	0x3d0710ee	0.03297513
165	0xbe4b4203	-0.198494
166	0x3e27499a	0.1633667
167	0xbdb552df	-0.08853697
168	0x3d9e63fd	0.07733915
169	0xbdeeb4ce	-0.116555795
170	0xbe836685	-0.25664154
171	0x3d478b10	0.048716605
172	0x3e11c8a5	0.14236696
173	0xbd5f0c09	-0.054454837
174	0xbe4db5cd	-0.20088883
175	0xbe0e37f1	-0.13888527
176	0xbddcde27	-0.1078456
177	0x3d7ee9de	0.062234752
178	0x3e112483	0.14174084
179	0x3d28633e	0.04111027
180	0xbcb8e39a	-0.022569466
181	0x3e7d003c	0.2470712
182	0xbd8d5ac5	-0.069020785
183	0xbcf3fe2f	-0.02978429
184	0x3cb38cc9	0.021917718
185	0xbe6c7b7b	-0.23093979
186	0xbe35355d	-0.17696138
187	0x3e4066fc	0.18789285
188	0xbd8cc32a	-0.06873162
189	0xbe7bc406	-0.24586496
190	0x3d577d00	0.052609444
191	0x3e51e6e2	0.20498231
192	0xbe28ff18	-0.1650356
193	0xbe0772ee	-0.13227436
194	0x3e08eb63	0.13371043
195	0x3e972661	0.29521468
196	0x3d34f8d8	0.04418263
197	0x3e07a4fa	0.13246527
198	0xbe5cbf5b	-0.21557371
199	0xbe1adba8	-0.15122855
200	0x3ca91c82	0.020643476
201	0x3cd7b6ee	0.026332345
202	0x3ead6ab6	0.33870476
203	0x3d6131f7	0.05497929
204	0x3e20db78	0.1570872
205	0xbe80645a	-0.25076562
206	0xbdbf039f	-0.093268625
207	0xbe87e3c3	-0.26540956
208	0x3e1baa96	0.15201792
209	0x3d959b4f	0.073050134
210	0x3d46d385	0.048541564
211	0xbdb987d8	-0.09059113
212	0xbe1559ca	-0.14585033
213	0xbdf6632e	-0.12030636
214	0xbdfd4e90	-0.123685
215	0xbe1cf176	-0.15326485
216	0x3e1711aa	0.14752832
217	0x3e7ad26a	0.24494329
218	0xbdc20521	-0.094736345
219	0xbe8d4d34	-0.27597964
220	0xbde6bf0e	-0.112669095
221	0xbd96ccea	-0.07363303
222	0xbe4ef426	-0.20210323
223	0xbcf89e34	-0.030348875
224	0xbe20f26c	-0.15717477
225	0x3e08c994	0.13358146
226	0x3e4dd4b9	0.20100679
227	0x3dd0a2ba	0.10187288
228	0x3e2fd5a4	0.17171341
229	0xbc1dce0c	-0.009631645
230	0xbe599777	-0.21249186
231	0xbdd5ab02	-0.10433008
232	0xbe02970b	-0.12752931
233	0x3e1120fb	0.14172737
234	0xbe0e3829	-0.13888611
235	0x3e79170e	0.24325201
236	0x3da32410	0.07965863
237	0x3e5fd183	0.21857266
238	0x3dde3cdf	0.10851454
239	0x3dd3f822	0.10350062
240	0xbc8de44e	-0.017320778
241	0x3d1b4d76	0.03791567
242	0xbd91808d	-0.07104597
243	0xbda1d210	-0.07901394
244	0xbe1bfa42	-0.15232185
245	0x3dbd59ea	0.09245665
246	0xbe5d90cb	-0.21637265
247	0x3da3e6fb	0.080030404
248	0x3d73b492	0.059498377
249	0x3dcbc3e2	0.09949471
250	0xbd260d29	-0.040539894
251	0x3bef9c80	0.0073123574
252	0xbe661db4	-0.22472268
253	0x3d5b91a3	0.053605687
254	0x3cebacc7	0.02876891
255	0x3d3cd989	0.046105895

local_trans_pixel.layers.0.1.fn.fn.net.0.bias f4 [8]
0	0xbbe4b01c	-0.0069790017
1	0x3e13905f	0.14410542
2	0xbd0c7dc9	-0.034299646
3	0x3d3d3c54	0.04620011
4	0x3dce4037	0.10070842
5	0xbd66c475	-0.0563397
6	0xbda344dc	-0.07972118
7	0x3e377ebc	0.17919439

local_trans_pixel.layers.0.1.fn.fn.net.3.weight f4 [32, 8]
0	0xbe5b6e8e	-0.21428892
1	0xbe398d0b	-0.1812021
2	0x3b3e4a48	0.0029035974
3	0xbd23c6d2	-0.03998453
4	0x3e96bd9f	0.29441544
5	0x3e74446b	0.23854224
6	0x3eb4d293	0.35316905
7	0x3e2f4a7b	0.17118256
8	0x3eae03d9	0.3398731
9	0xbe4f1450	-0.20222592
10	0x3dd96438	0.10614818
11	0xbe88d12b	-0.26722082
12	0xbea01cad	-0.31271878
13	0xbdb1b639	-0.08677334
14	0xbe67b5dd	-0.22627969
15	0xbe79aca6	-0.24382266
16	0xbd2f50a9	-0.042801533
17	0x3ed5e3ec	0.41775453
18	0x3d2c0ddc	0.042005405
19	0xbcd40e5d	-0.025885755
20	0x3e1025f0	0.14076972
21	0x3eae3fb0	0.34032965
22	0xbd5d33dc	-0.054004535
23	0xbccdf881	-0.02514291
24	0xbcf43bb2	-0.029813621
25	0x3e7cddba	0.24693957
26	0x3e9847dd	0.29742327
27	0x3eb3094a	0.34968024
28	0x3e00377d	0.12521167
29	0x3e07c5be	0.13259026
30	0x3e8d3627	0.27580377
31	0x3e86198b	0.26191363
32	0x3eaaf806	0.33392352
33	0xbe8b5754	-0.27215064
34	0xbc19f330	-0.009396359
35	0xbe7f3c07	-0.24925242
36	0xbe4bd0f6	-0.19903931
37	0xbdbc26be	-0.09187077
38	0xbe996fc7	-0.29968092
39	0xbe943202	-0.28944403
40	0xbeb3a7f8	-0.35089087
41	0xbe8de791	-0.27715734
42	0x3aea2576	0.0017863947
43	0xbeaf01cf	-0.34181067
44	0x3e430b8b	0.19047372
45	0xbeaa3b2e	-0.33248276
46	0x3c56391e	0.013075141
47	0xbec46464	-0.38357842
48	0xbe18122b	-0.1485068
49	0xbe40868a	-0.18801323
50	0xbe90928a	-0.282368
51	0xbabb2cd5	-0.0014280329
52	0xbea0b90e	-0.31391186
53	0x3d6aa058	0.057281822
54	0x3ec7ad75	0.38999525
55	0x3e04763b	0.12935726
56	0xbe520c48	-0.20512497
57	0x3e5f182c	0.21786565
58	0x3e094f57	0.13409172
59	0x3e9005ff	0.28129575
60	0xbeaf2c6a	-0.34213573
61	0x3e30c504	0.17262655
62	0xbeabf5f5	-0.33586088
63	0xbe44575a	-0.19173947
64	0xbe3e5618	-0.1858753
65	0xbe2048f3	-0.15652828
66	0x3e51728d	0.20453854
67	0xbe458cae	-0.19291946
68	0xbd9f137a	-0.07767387
69	0x3e537c17	0.20652805
70	0xbdc8c178	-0.09802526
71	0x3c16d96a	0.009207109
72	0xbe823988	-0.25434518
73	0x3d579e41	0.052641157
74	0x3dbff5c8	0.09373051
75	0x3e616284	0.22010237
76	0xbd1db185	-0.038499374
77	0x3de34cf0	0.11098659
78	0x3e6ea7f1	0.23306252
79	0xbeca0fc2	-0.39465147
80	0x3ea707f4	0.32623255
81	0xbe2218d3	-0.15829782
82	0xbd980284	-0.07422355
83	0x3d074a1e	0.033029668
84	0x3e3940d5	0.18091138
85	0x3de78b85	0.11305908
86	0xbe4e76ab	-0.20162456
87	0xbebdb6fc	-0.37053668
88	0x3dbf3e35	0.09338037
89	0x3d18649e	0.03720533
90	0x3ddffe2b	0.109371506
91	0xbd4ca013	-0.049957346
92	0x3eb54912	0.3540731
93	0x3ec878a8	0.39154553
94	0xbe9d7a33	-0.30757293
95	0x3e86311b	0.2620934
96	0x3dc4c9c6	0.09608798
97	0xbe3c1f89	-0.18371405
98	0xbe8b3d8b	-0.2719539
99	0xbdcc588a	-0.09977825
100	0xbe28a3a4	-0.16468674
101	0x3e58f028	0.21185362
102	0x3edc0cb1	0.42978433
103	0xbd9118b3	-0.07084789
104	0x3d7b51a5	0.06135716
105	0x3eadac43	0.33920488
106	0x3e1c7b09	0.15281309
107	0xbe01283b	-0.12613003
108	0x3d4818b3	0.04885168
109	0x3d6ab7cf	0.0573042
110	0x3e293c32	0.16526869
111	0x3e078c59	0.13237132
112	0x3e18c216	0.14917788
113	0x3d1230d6	0.035691105
114	0x3e7c4d49	0.24638857
115	0x3e9f62f0	0.3113017
116	0xbe9e0aa3	-0.3086749
117	0x3e2ed233	0.17072372
118	0xbbb7020b	-0.0055849603
119	0x3db8ab54	0.09017053
120	0x3e80c671	0.251514
121	0xbe40ef19	-0.18841209
122	0xbe8a0c1b	-0.2696236
123	0x3e8ab907	0.2709429
124	0x3cfafbd4	0.03063766
125	0x3e623fa6	0.22094592
126	0xbd8a7561	-0.067606695
127	0xbe845b0e	-0.2585072
128	0xbe9a325a	-0.3011654
129	0xbdd627a3	-0.10456779
130	0x3e54fc9e	0.20799491
131	0xbeac9d2f	-0.33713672
132	0x3edab281	0.42714313
133	0x3e9b3128	0.3031094
134	0x3edad157	0.4273784
135	0xbd92935b	-0.07157012
136	0xbe59e427	-0.2127844
137	0xbe001f55	-0.12511952
138	0x3db990d2	0.090608254
139	0xbda34bb5	-0.07973424
140	0xbe8d00ee	-0.27539772
141	0xbe31bb12	-0.17356518
142	0xbb351583	-0.002763123
143	0x3e48d4c9	0.19612421
144	0xbde0e12f	-0.1098045
145	0xbce45ac7	-0.027875317
146	0xbddcfc39	-0.10790295
147	0xbe2c0272	-0.16797808
148	0xbc2fa206	-0.010719782
149	0xbcd2b565	-0.025721261
150	0x3ea9f716	0.33196324
151	0xbd93c082	-0.07214452
152	0x3cc7b702	0.024379257
153	0x3d1673f8	0.03673169
154	0x3cdb3914	0.026760615
155	0x3e8a10e3	0.2696601
156	0x3e463f29	0.19360031
157	0x3eba75b2	0.3641792
158	0xbe9c7228	-0.30555844
159	0xbdf81bf8	-0.121147096
160	0x3bdc0627	0.0067146006
161	0xbdea454d	-0.11438999
162	0x3e92de26	0.2868511
163	0xbef257f7	-0.47332737
164	0xbeb17fe0	-0.34667873
165	0xbe1b3fbc	-0.15161031
166	0xba1e2172	-0.00060322054
167	0xbdae74a2	-0.0851834
168	0xbe498f86	-0.19683656
169	0x3ea017d7	0.31268188
170	0x3ec423d1	0.38308576
171	0x3e0f3958	0.13986719
172	0xbd3cdab2	-0.046107
173	0x3d7277b3	0.059196185
174	0x3e01f8c5	0.12692554
175	0xbe43bcad	-0.19114943
176	0x3e9df8b0	0.30853796
177	0xbe6b2223	-0.22962241
178	0x3e8adf34	0.27123415
179	0x3e0d3e61	0.13793327
180	0xbe37aa94	-0.17936164
181	0xbe9a1421	-0.30093482
182	0xbeafe4cf	-0.34354255
183	0x3ea38db1	0.3194404
184	0x3d0ca4e2	0.034336932
185	0x3e37c47d	0.17946048
186	0x3eaebe56	0.3412959
187	0x3e40b364	0.18818432
188	0x3cba8736	0.022769552
189	0xbd90bd50	-0.070673585
190	0xbc8f9c35	-0.01753054
191	0x3eb8d7d5	0.36102167
192	0xbe315d96	-0.17320856
193	0xbe32ccc1	-0.1746092
194	0xbea9f8f5	-0.33197752
195	0xbcb266da	-0.02177756
196	0xbe588647	-0.21144973
197	0x3da49cd8	0.08037728
198	0xbeaa5f83	-0.33275995
199	0xbe7d00e4	-0.24707371
200	0xbdde6fa8	-0.108611405
201	0x3d1f34a6	0.03886857
202	0x3e2e2da4	0.17009598
203	0x3e9ab978	0.30219626
204	0x3eb5be62	0.35496813
205	0x3e155a28	0.14585173
206	0x3e483d68	0.19554675
207	0x3de34a3c	0.110981435
208	0x3d53dfd6	0.05172714
209	0x3e320287	0.17383777
210	0xbe977e8a	-0.2958873
211	0xbcc3a2ad	-0.02388128
212	0xbe9073f3	-0.28213462
213	0x3e996ec7	0.2996733
214	0x3c0cf6ea	0.008603791
215	0x3ddfd5e4	0.10929468
216	0x3e25e870	0.16201949
217	0xbec5e7b3	-0.38653335
218	0xbe024851	-0.12722899
219	0xbe99cfc4	-0.30041325
220	0x3e9f7824	0.31146348
221	0x3cdae457	0.026720209
222	0xbd82b165	-0.063814916
223	0xbe8f24e8	-0.27957845
224	0xbd8fabe9	-0.07015211
225	0xbeb6f84a	-0.35736305
226	0x3bd7aaaf	0.0065816264
227	0xbe0ff855	-0.14059575
228	0xbe987e3f	-0.29783818
229	0xbe299aa0	-0.16562891
230	0xbd91863e	-0.07105683
231	0x3d8ed51d	0.06974242
232	0x3db83401	0.08994294
233	0x3e07e37e	0.13270375
234	0x3eadb9b6	0.3393075
235	0xbe9a76e7	-0.3016884
236	0xbe8c7acc	-0.27437437
237	0xbe4cc6fb	-0.1999778
238	0x3e1d9492	0.15388706
239	0xbe7bc3af	-0.24586366
240	0x3e8edf16	0.27904576
241	0xbe5aff85	-0.21386535
242	0x3e83e6dc	0.2576207
243	0xbe2aa8a5	-0.16665895
244	0x3e40ba33	0.1882103
245	0x3e1041d5	0.14087613
246	0xbe7330f9	-0.2374915
247	0x3dc6a365	0.09699134
248	0xbdb800e0	-0.08984542
249	0xbce3298f	-0.027729778
250	0x3dedf53a	0.11619039
251	0x3e58c73c	0.21169752
252	0x3ea90944	0.33014882
253	0x3ea484b4	0.32132494
254	0x3e01ad02	0.12663653
255	0xbe6f5d9a	-0.2337555

local_trans_pixel.layers.0.1.fn.fn.net.3.bias f4 [32]
0	0xbde27c5c	-0.11058876
1	0x3d1f4625	0.038885254
2	0xbd56c22c	-0.05243127
3	0xbe34e670	-0.1766603
4	0xbe11c604	-0.14235693
5	0xbe89e7b1	-0.2693458
6	0xbd8fc730	-0.07020414
7	0xbe47a49a	-0.19496384
8	0xbde99e32	-0.114071265
9	0xbe28d254	-0.16486484
10	0xbec94213	-0.39308223
11	0x3e349138	0.17633522
12	0x3ebf20c8	0.37329698
13	0x3e9b22fc	0.30300128
14	0x3d6bcf13	0.05757053
15	0xbe527a68	-0.20554507
16	0x3ea3a645	0.3196279
17	0x3da8072f	0.08204495
18	0xbeb275b3	-0.34855422
19	0xbdb57d62	-0.088618055
20	0xbb7a1c6f	-0.003816392
21	0x3ec1f731	0.37883905
22	0xbe8d690d	-0.2761921
23	0xbdf31a86	-0.11870293
24	0xbe926cc2	-0.285986
25	0x3eac9b13	0.33712062
26	0xbeb780e4	-0.35840523
27	0x3de3cb76	0.111227915
28	0xbd7867c5	-0.060645837
29	0x3e2eac6f	0.17057966
30	0x3e86eb9b	0.26351628
31	0xbe402d05	-0.18767174
