src/res/GGCL/guided_contra_cross_transformer/Pavia/5/True/ss0.3/_1712138499.pth (torch, 266710 bytes, 37 tensors)

pixel_pos_embedding f4 [1, 170, 32]
000000 9c 90 8c be 74 cb ae bc e8 66 71 bf 25 30 b9 bf
       -0.27454078 -0.021337248 -0.9429765 -1.4467818
000010 7a 77 d3 3e 4b b2 3b bf 26 04 c4 3f 37 b5 45 3f
       0.4130209 -0.7331893 1.5313766 0.77229637
000020 6d 9c 1b 3d 80 1e 03 c0 93 16 a4 3c b5 f2 ec bf
       0.037990976 -2.0487366 0.020030295 -1.8511568
000030 ea 2d 85 3f 19 e4 c8 bf fb 3a 14 bf 68 ba 2b bc
       1.0404637 -1.569461 -0.579025 -0.010481454
000040 43 96 e1 bd bf 65 81 bf eb 7e 33 3f 0b a1 1b 3f
       -0.11014988 -1.0109175 0.70115536 0.6079261
000050 e6 1a 03 3d f2 42 cf 3c 4b ce 11 c0 f3 3d 48 3f
       0.032008074 0.025300477 -2.2782161 0.78219527
000060 f0 5d a2 be fd be d5 3e a0 d2 2c bf 89 a5 a8 3e
       -0.31712294 0.41747275 -0.6750889 0.32938793
000070 4c 59 e7 bd 96 ed 5f 3e 03 6a ea 3f 03 5b 65 bf
       -0.11296329 0.21867976 1.8313602 -0.89592
000080 97 e3 b3 3f 0b 8c c2 bf 67 b2 e3 3d d4 46 7a 3f
       1.405383 -1.5198988 0.11118012 0.97764325
000090 07 ce ba bc 37 46 af 3d 37 e9 90 be 49 09 00 be
       -0.02280332 0.08558314 -0.2830293 -0.12503542
0000a0 36 e3 c0 bf 85 11 ab be 84 5b 8c bf a2 ae b4 3f
       -1.5069339 -0.33411804 -1.0965428 1.4115794
0000b0 36 6f dd bf 59 45 58 3f 02 22 b4 3e 61 cd a7 3f
       -1.7299564 0.84480816 0.35182196 1.3109552
0000c0 c4 b4 9b 3f f8 02 6a bf 51 be 04 be a7 db 6b be
       1.216454 -0.9141078 -0.12963225 -0.2303301
0000d0 9b 4b a3 bd 48 61 8a bf d4 e8 29 be 18 8c 07 bf
       -0.07973405 -1.0810938 -0.16592723 -0.5294814
0000e0 3b 8a cc be cb 51 07 bf c1 db 1d 3f 72 7e 2f 3e
       -0.3994921 -0.5285918 0.6166344 0.17138079
0000f0 e4 a5 57 bd 52 1d a7 3f 69 c8 f1 3e 87 6a b5 3f
       -0.05264844 1.3055823 0.47223213 1.4173135
000100 2c 81 08 40 97 72 66 bf 3c 16 b8 bf d7 39 7b bf
       2.132884 -0.900186 -1.4381785 -0.9813513
000110 f1 cf 3e 3d bd 3a b1 3f 71 a7 0a c0 c8 9a 13 bf
       0.046585027 1.384605 -2.1664698 -0.5765805
000120 ab a7 80 3d 5f fb 55 3f 7b a0 38 3e d5 11 c0 3f
       0.0628198 0.83586687 0.18029968 1.5005442
000130 b4 44 e1 be e1 96 ac bf 04 09 f7 3e 18 19 ad 3d
       -0.4399773 -1.3483545 0.48249066 0.08452052
000140 c3 bb e6 be 0b 93 ca be ed 04 3d 3e cc 6c dd 3e
       -0.45065126 -0.3956531 0.1845891 0.43247068
000150 0a 2a 12 3f 52 5d 1e be 3b de b0 3d 09 6a 0a be
       0.57095397 -0.15465286 0.08636137 -0.13517012
000160 bb 25 19 bf 24 4b 72 bf 3b 0a ae be f7 d0 15 bf
       -0.598232 -0.94645905 -0.3399218 -0.5852198
000170 e9 f9 2b bb 07 59 e0 3e ed 26 9e bf aa b9 7e 3f
       -0.0026241487 0.43817922 -1.2355629 0.9950205
000180 8a 85 22 3f f8 c5 2f bf 42 63 b6 bf bd 2d 91 3f
       0.63485014 -0.6866145 -1.4249041 1.1342083
000190 a3 19 72 bf 65 02 37 bf bf 59 23 3f 0d 8b fe be
       -0.9457037 -0.7148803 0.63808817 -0.49715462
0001a0 c7 9b 25 bf 22 77 ee 3e f9 44 95 3f c2 fe 5e bf
       -0.6469082 0.46575266 1.1661674 -0.8710748
0001b0 13 f6 f1 bd da ab 27 3f 88 2c 46 3f 6f 9f b3 bf
       -0.11814513 0.654966 0.774117 -1.403303
0001c0 72 3f 1d bf 65 ed e8 be af aa 21 40 d9 23 55 bb
       -0.61424935 -0.45493618 2.5260427 -0.0032522588
0001d0 a0 ab a2 3e 8a 0c 45 bf 68 93 cb 3e f1 30 76 3d
       0.31771564 -0.7697226 0.397609 0.060105268
0001e0 15 c3 60 be ae 62 78 bf 15 26 16 3e 7c 1c ee bd
       -0.21949418 -0.97025573 0.14662965 -0.11626527
0001f0 fe 73 a1 bf ff 34 b7 3e 31 b0 de 3c a2 01 8d 3f
       -1.2613523 0.3578262 0.027183624 1.1016123
000200 ec 25 4a 3e 6c 3e ed be fc 32 f2 3f 01 1a 60 3f
       0.19741029 -0.46336687 1.8921809 0.8753968
000210 a3 b9 9b bd 76 be 3e 3f 90 33 9c bf 54 cd f7 be
       -0.07603767 0.7450937 -1.2203236 -0.4839884
000220 9a 7f b9 3f 45 63 33 3f 72 ca 0a 3e 17 64 47 3f
       1.4492066 0.7007335 0.1355379 0.778871
000230 88 1d 98 bf 2b d6 2e 3f 75 2e 41 bf f2 09 8e bf
       -1.1884012 0.68295544 -0.7546151 -1.1096785
000240 ce 07 90 3f ee 05 2f b9 14 fa b2 3f af 7e 83 bf
       1.1252382 -0.0001669151 1.3982568 -1.0273036
000250 81 b3 2f 3f 4a d0 fe be 66 ff 21 bf 95 f0 f2 bd
       0.68633276 -0.49768287 -0.6328033 -0.11862294
000260 ea c4 73 3e 04 67 1f bf 50 24 13 3e f8 40 8b 3f
       0.23805586 -0.62266564 0.14369321 1.0879202
000270 53 66 54 bf 04 04 09 3f 4c 60 03 3e 4f 91 85 bf
       -0.82968634 0.5352175 0.12829703 -1.043497
000280 3c 13 a3 be eb 43 3b be 3a 19 33 3e ad 17 82 3e
       -0.31850612 -0.18287627 0.17490092 0.25408688
000290 c4 ef 88 be d2 25 07 bf 4a 97 54 bf 97 c8 1c 3f
       -0.26745427 -0.52792084 -0.8304335 0.61243576
0002a0 2e c4 88 3e cb ad 24 bf 0f 60 1a 3f 06 26 56 3e
       0.26712173 -0.6432769 0.60302824 0.20912942
0002b0 ed b4 88 3f c1 f1 24 bf 3f 4d 09 c0 e0 79 8b 3d
       1.0680214 -0.6443139 -2.1453397 0.06810355
0002c0 90 93 89 bf 66 ba e8 be 9e 72 35 c0 03 de 8b 3e
       -1.0748158 -0.4545471 -2.8351207 0.2731782
0002d0 8b 92 b3 3e 32 23 c7 be c1 48 98 3f ac 91 fa bf
       0.3507274 -0.3889404 1.1897203 -1.9575706
0002e0 88 8a b8 3f 12 e5 36 3f 87 cf 7c 3f 82 80 60 3f
       1.4417276 0.71443284 0.9875416 0.8769609
0002f0 a9 5d 0b c0 14 e5 4d 3e 3f 6e 76 3f 41 e7 ad bc
       -2.1775916 0.20106918 0.9626197 -0.021228435
000300 9b ff a3 3f 86 4d d8 3f bd 90 21 bf b3 2e 15 3e
       1.281238 1.6898658 -0.6311148 0.14568596
000310 01 6a cc bf f6 0b 2f c0 e7 1a 98 be 78 f1 a7 be
       -1.596985 -2.735105 -0.29708025 -0.32801414
000320 3e 2f 5e bf 1e 2a 8c 3d 66 8c fe 3f b5 ec 1a c0
       -0.86790836 0.06843971 1.9886596 -2.4206975
000330 8e f4 5d 3f fc 8d 11 bf 63 2a b6 be a5 63 96 3e
       0.86701286 -0.56857276 -0.35579214 0.29372898
000340 58 71 bb 3e 8a d1 25 3f 48 da 3a bf ba fa 32 bf
       0.36609912 0.64772856 -0.7298932 -0.6991383
000350 af 53 30 bf d8 b7 15 bf 9e 7f 03 be a6 39 f9 3e
       -0.6887769 -0.5848365 -0.12841651 0.48676795
000360 00 63 73 3f 94 25 7e bd c4 41 f3 bd 3a e2 1b bd
       0.95072937 -0.062047556 -0.11877778 -0.038057543
000370 d6 de 39 bf f0 a3 92 3b aa 5c 6c bf a9 25 ed bf
       -0.72605646 0.0044751093 -0.92328894 -1.8527118
000380 0a a7 fd be 6c 62 53 bf 57 77 03 c0 c8 cf ec 3f
       -0.49541503 -0.82572055 -2.054159 1.850091
000390 d3 e0 c5 be 2f e5 8c bf 0d 8e 06 40 83 82 77 be
       -0.3864809 -1.1007441 2.10242 -0.2417088
0003a0 23 95 79 3d f0 c3 4b be bb 85 d0 3f fe 49 aa bf
       0.060933243 -0.19898963 1.6290811 -1.3303831
0003b0 a0 f6 c5 3e 0a 1e 07 bf d9 34 07 bf 3d 57 bc 3f
       0.38664722 -0.5278021 -0.52815014 1.4714123
0003c0 a1 5c 2e 3e 54 5e 87 3f d9 e6 07 be a1 1a d6 3e
       0.17027523 1.0575662 -0.13271655 0.4181719
0003d0 97 8a 46 bf 46 36 43 bf b8 53 3b 3e ed 74 5c 3e
       -0.7755522 -0.7625469 0.18293655 0.21528979
0003e0 46 f0 b1 bd 9c 8b 68 bf 0f 92 0d 3f cf 68 30 3e
       -0.08688407 -0.90838027 0.5530099 0.17227481
0003f0 16 e4 6b bf a0 57 33 3f 0c aa bf be cd f1 3a be
       -0.92144907 0.7005558 -0.37434423 -0.18256302

cls_token_pixel f4 [1, 1, 32]
000000 40 c9 fa bf ea fc f6 be 64 94 73 3f 75 f2 54 40
       -1.9592667 -0.48239833 0.951483 3.3272984
000010 fb 5b 96 bf 33 03 59 3f 30 b2 a3 bf 5a 06 89 be
       -1.174682 0.84770507 -1.2788754 -0.26762658
000020 26 93 b4 bf 8c 1d 06 be b9 23 01 3f bb 13 5d 3f
       -1.4107406 -0.13097209 0.50445133 0.8635823
000030 cb 92 f8 bf b3 ed a7 3f 11 17 83 3f 3b 50 af 3e
       -1.9419798 1.3119415 1.0241414 0.34240898
000040 e7 da 1b 3f 31 3d 1d 3f 47 f2 f9 be e8 f4 f0 3f
       0.60880893 0.61421496 -0.48817655 1.882474
000050 e9 77 e6 3e eb b0 4a bf 66 82 0e bf e6 9b 15 3f
       0.4501336 -0.79176205 -0.5566772 0.5844101
000060 fa 4f e9 3f b3 f3 67 3f a0 88 da be e7 a1 af bf
       1.8227532 0.9060623 -0.42682362 -1.3721284
000070 0f ad af 3f c8 bf 43 bf b5 a6 b6 3e 8c 53 5c 3f
       1.3724688 -0.7646451 0.35674062 0.8606498

pixel_patch_embedding.weight f4 [32, 30]
000000 73 2c 0b be c6 c1 01 be 00 f9 b7 3b 3c 80 1d 3d
       -0.13591175 -0.12671575 0.0056144 0.038452372
000010 40 27 2d bc 6f f7 18 be e4 8a 20 3d 8c 89 c0 3d
       -0.01056844 -0.14938138 0.039194956 0.09401235
000020 a4 f2 86 3d 60 3d 06 bd 65 f5 0e be f0 1f 07 3d
       0.06589249 -0.032773376 -0.13960798 0.032989442
000030 f3 96 c7 bd fb dd 92 bd 24 6b 02 be 84 51 db 3d
       -0.09745588 -0.07171246 -0.12736183 0.10708907
000040 a8 12 2f 3d 5c 88 1f bd be 18 07 3e af 16 02 be
       0.0427424 -0.0389484 0.13193032 -0.12703966
000050 02 63 1a 3e 7c c4 0a bd 90 17 a8 3c b2 cd 04 3e
       0.15076831 -0.03387879 0.020519048 0.12969092
000060 6c 8b 06 3e 88 ce 3e bd 4c 24 93 3d de ee a0 bd
       0.13139123 -0.046583682 0.071846575 -0.0785806
000070 c0 1c a4 bb bc 1d be bd 8d 8f 25 be 54 72 28 be
       -0.00500831 -0.09283015 -0.16168042 -0.16449863
000080 e0 9f a2 bb 60 2a 02 3d 60 6f 9f bb ec 16 b5 3d
       -0.0049629062 0.031778693 -0.004865572 0.088422626
000090 19 de 1f be 25 76 a1 bd e8 2f f7 bc 4e 05 27 3e
       -0.15612067 -0.078838624 -0.03017421 0.16310617
0000a0 6d 9d 05 be cc 37 03 bd 30 91 45 3c f6 ec fb bd
       -0.13048334 -0.032035634 0.012058541 -0.12301056
0000b0 77 f7 90 bd 65 3f 88 bd 60 e8 88 3b c4 2a 0f 3e
       -0.0707845 -0.066527165 0.004178092 0.13981158
0000c0 7a 47 da bd 08 60 23 3e d8 cc be bc 89 7a 14 be
       -0.10658164 0.15954602 -0.023291036 -0.14499868
0000d0 b0 bf 18 bd 10 4a 3e 3c 82 07 86 bd 84 ec 59 bd
       -0.037292182 0.011614338 -0.06544401 -0.053204075
0000e0 08 64 64 bd a2 b6 36 3e 75 24 94 bd fc 1a 1e 3d
       -0.05575946 0.17843106 -0.07233516 0.038599953
0000f0 70 3f e1 3d d8 b9 fe bc 44 42 ff 3d a4 70 00 be
       0.10998428 -0.031094477 0.12463811 -0.12542969
000100 21 33 8c bd f8 18 70 3d 02 a4 3a be 78 34 0b be
       -0.068456896 0.058617562 -0.18226627 -0.13594234
000110 08 0d da 3d e1 c5 df bd 38 9d 04 3e 2c 0e e2 bd
       0.10647017 -0.10926414 0.12950599 -0.11037859
000120 36 9d f8 bd 70 dd c2 3c 66 26 0d be ba 39 22 be
       -0.121393606 0.02378723 -0.13784179 -0.15842333
000130 48 82 c2 bc 4d 26 96 bd 10 17 63 3d 48 71 d0 bc
       -0.023743764 -0.07331524 0.055441916 -0.025444642
000140 f0 b5 09 3e 04 f4 87 bd 40 35 03 be c8 44 c4 3d
       0.1344831 -0.06638339 -0.12813282 0.095834315
000150 fc f8 aa 3d 34 74 e9 3d 24 bf a5 bd 1b 72 31 be
       0.08348271 0.11399117 -0.08093098 -0.17328684
000160 c0 36 87 bc d8 f2 71 3d 00 2c ad 39 68 3a 7a 3d
       -0.016505599 0.059069484 0.00033029914 0.061090857
000170 e2 ba 1f be 08 9c ac bd 63 92 dd bd 30 1b 9d 3d
       -0.15598634 -0.08428198 -0.10818937 0.07671201
000180 64 2f 97 3d 22 97 27 3e a6 eb 24 3e 10 91 ff bc
       0.07382086 0.16366246 0.16105518 -0.0311971
000190 84 36 1f be 50 ba d1 3d 80 e9 b0 3b d5 a3 06 be
       -0.1554814 0.102406144 0.005398929 -0.13148434
0001a0 b8 e2 2a 3e e8 ba 38 3e d2 91 0f be 68 c9 e8 3d
       0.16688049 0.18040049 -0.1402047 0.1136654
0001b0 ce fa 71 bd de c3 11 be 52 5c 27 3e 00 da eb bb
       -0.059077077 -0.14234874 0.16343811 -0.0071976185
0001c0 66 5b 1f 3e 3c bb 2d 3e 1e 66 95 bd 3e 8c 83 3d
       0.1556221 0.16965955 -0.07294868 0.064232334
0001d0 aa 90 27 3e f0 e2 4e bd 9c 2d 0c 3e 92 14 1a be
       0.16363779 -0.050509393 0.13689274 -0.1504691
0001e0 88 90 93 3d 6d 09 d4 bd 04 bb db 3d 97 fe df bd
       0.072053015 -0.1035336 0.1072903 -0.10937231
0001f0 38 6d 15 3e 21 cd 0c be 2e 17 1e 3e 47 02 9a bd
       0.14592445 -0.13750125 0.1543853 -0.075199656
000200 ec fb 64 3d e8 29 e3 3c 56 15 2d 3e f2 8c 6e bd
       0.055904314 0.027729943 0.1690267 -0.058239885
000210 88 7e 6c bd 6c 07 13 3e 88 a8 cb 3d e0 dd 41 3d
       -0.057737857 0.143583 0.09944254 0.047330737
000220 fc 6b 2c be 2c 8a 22 3e 1e aa 24 3e d4 fd 45 3d
       -0.16838068 0.15873021 0.1608052 0.048337772
000230 66 7b 21 3e 2c ef e1 bd ed 96 e7 bd 50 f5 84 bc
       0.15769729 -0.110319465 -0.11308084 -0.016230255
000240 1c 57 57 3d d0 bf dc 3c d9 bf 25 be 90 15 18 3e
       0.05257331 0.026946932 -0.16186465 0.14851975
000250 69 3d 8f bd b8 4a 99 bc 00 62 e3 3b 94 7e b2 3d
       -0.06994135 -0.018712386 0.0069391727 0.08715549
000260 54 c4 94 3d 74 08 12 3e 32 ea 79 bd 85 1e f9 bd
       0.07264009 0.14261037 -0.06101436 -0.12164024
000270 ca 13 34 3e 5e 63 0b 3e d0 e8 54 bc 98 24 50 3d
       0.17585674 0.13612124 -0.01299496 0.05081615
000280 fc bc 33 bd c5 18 23 be 0d ce 30 be 30 8d 20 be
       -0.0438814 -0.15927418 -0.17266102 -0.15678859
000290 4a e3 26 3e b4 67 8a 3d 49 2e e2 bd 7c 16 0e 3e
       0.16297641 0.06758061 -0.110439844 0.13875765
0002a0 0b d3 25 be 0a f9 09 3e 11 e6 1f be 28 6f 14 3e
       -0.16193788 0.13473907 -0.15615107 0.14495528
0002b0 d6 56 6d bd 90 2c cd 3d c0 af 0e bd 45 ea a7 bd
       -0.05794414 0.10018265 -0.034835577 -0.0819898
0002c0 88 57 ec bc 88 a3 b2 3d a4 08 bb 3d 80 fe 80 3b
       -0.028850332 0.08722597 0.091325074 0.0039365888
0002d0 c8 a8 6c bd 6c 29 1e 3e be 22 f5 bd 01 ae ac bd
       -0.05777815 0.15445489 -0.11969517 -0.08431626
0002e0 12 1a 13 3e 68 b2 eb bc 48 70 ef bd ce e8 33 3e
       0.14365414 -0.028771594 -0.11691338 0.17569277
0002f0 70 4f 7f bc 7c 08 9b 3d 4d e3 21 be aa 12 03 3e
       -0.015582904 0.07569978 -0.15809365 0.12800089
000300 dc 71 05 3e 74 e5 3b bd 74 06 38 3d 40 e9 f0 3d
       0.13031715 -0.04587312 0.04492803 0.11763239
000310 9c 03 1b be 74 e5 e3 3d 48 81 bd 3c d8 fc da 3d
       -0.15138096 0.11127749 0.023132935 0.10692757
000320 8a 65 34 3e c8 80 21 be 68 2f c9 3c a8 76 c3 3d
       0.17616859 -0.15771782 0.024558738 0.09544116
000330 ea 3b 85 bd 7c 15 85 bd e8 2a 9e 3d 00 18 77 bd
       -0.06505568 -0.064982384 0.077230275 -0.060325623
000340 c4 24 a7 3d cc 2b db bd 8c 7f 25 bd 40 58 99 3d
       0.08161309 -0.10701713 -0.04040484 0.074875355
000350 22 d0 12 be a4 7f 22 3d f2 21 34 3e d4 29 3e bd
       -0.14337209 0.03967251 0.17591074 -0.04642661
000360 6c 50 8c 3d 72 07 1a be e8 e9 21 3e 60 f8 90 3b
       0.06851277 -0.15041903 0.15811884 0.00442414
000370 d4 b4 21 be 58 81 12 bd 70 60 8c 3c 84 91 c2 3d
       -0.15791637 -0.035767883 0.017135829 0.09500411
000380 28 3d 84 bd 2e 9e a3 bd 70 57 7b 3c 90 9c 5f 3c
       -0.06456977 -0.07989155 0.015340671 0.013648167
000390 70 ea 63 bc 00 2c 42 bc fa 95 21 be d8 64 fb 3c
       -0.013910875 -0.011851311 -0.15779868 0.030687734
0003a0 8e 2e 0a 3e 78 d0 32 3e 0a 60 0b 3e f3 c8 05 be
       0.13494322 0.17462337 0.13610855 -0.13064937
0003b0 00 a3 fd 3d 90 ea c9 3d 1a 68 1a 3e 40 77 11 bb
       0.123846054 0.09859192 0.15078774 -0.0022196323
0003c0 78 b5 cc bc 00 aa 9f 3d 80 cb be bb 6e 24 6f bd
       -0.024988875 0.07796097 -0.005822599 -0.05838435
0003d0 b8 ca aa 3c be d9 d3 bd 18 0d f8 bc d2 b4 2d 3e
       0.020848617 -0.103442654 -0.030279681 0.16963509
0003e0 dd bd 27 be 5c 77 11 3e 08 b7 41 3d d0 49 d8 3c
       -0.16381021 0.14205688 0.047293693 0.026402384
0003f0 d4 79 11 bd a8 9f c6 3d dd 8d 05 be 5c b6 0d 3d
       -0.035516575 0.09698421 -0.13042398 0.03459774

pixel_patch_embedding.bias f4 [32]
000000 52 e1 37 be af e7 36 be 91 eb f3 bd ee e2 24 3e
       -0.17957047 -0.17861818 -0.11910165 0.16102192
000010 5c 5a 91 3d 50 84 fc bc af 8c de bd 50 a3 c2 3d
       0.07097313 -0.03082481 -0.10866677 0.09503806
000020 40 c7 a1 bb f4 98 39 bd e0 8e c3 bb fc f8 70 3d
       -0.0049370825 -0.045311883 -0.0059679598 0.0588312
000030 76 27 0c be 6b b8 d2 bd bc c3 f6 3d 2a 69 2d be
       -0.13686928 -0.10289081 0.12049052 -0.16934648
000040 9c 01 74 bd ee 79 2d 3e 29 d2 c4 bd a4 06 25 bd
       -0.059571847 0.16941044 -0.09610397 -0.040289536
000050 1c 58 d4 3d 2c be 29 be 68 45 51 bd f8 90 02 3e
       0.10368368 -0.16576451 -0.05109158 0.12750614
000060 74 4d 32 3e c9 a8 81 bd de 71 17 3e 52 f7 0d be
       0.17412359 -0.06331021 0.1478953 -0.13863876
000070 ca 7d 20 3e 84 83 0a be f0 6f 54 3d 40 16 2b 3e
       0.15672985 -0.13526732 0.051864564 0.16707706

local_trans_pixel.layers.0.0.fn.norm.weight f4 [32]
000000 86 c8 87 3f a5 40 89 3f 03 ee 89 3f 6e f3 88 3f
       1.060807 1.0722853 1.077576 1.0699289
000010 9e f6 8a 3f a2 15 8a 3f 5c 9c 89 3f ba 7e 8c 3f
       1.0856512 1.0787852 1.0750842 1.0976174
000020 b1 73 8b 3f 8a 94 87 3f 46 bd 85 3f 8b 80 8a 3f
       1.0894681 1.0592206 1.0448387 1.0820478
000030 4a 43 89 3f 1f c1 8f 3f 02 b0 8d 3f df b0 88 3f
       1.072366 1.1230811 1.1069338 1.0678977
000040 f8 d4 85 3f f0 43 88 3f a6 f6 85 3f 4a 3c 8e 3f
       1.0455618 1.0645733 1.0465896 1.1112149
000050 f6 1e 8d 3f 26 27 90 3f fa 8d 8b 3f 3c c0 8e 3f
       1.1025074 1.1261947 1.0902703 1.1152415
000060 38 2c 8b 3f 9b 32 8c 3f 20 62 85 3f 6f 54 8e 3f
       1.087287 1.0952944 1.042057 1.1119517
000070 8b 95 89 3f 95 23 8a 3f 06 fe 89 3f 9b 43 8c 3f
       1.0748762 1.0792109 1.0780647 1.0958132

local_trans_pixel.layers.0.0.fn.norm.bias f4 [32]
000000 85 5e 05 39 bd 6f 98 3c 8a 65 96 bc f3 f8 db 3c
       0.0001271908 0.018607968 -0.018358964 0.026852107
000010 d9 ef 46 3d c4 16 27 bb 56 fb 32 bd 24 bd 64 3c
       0.04856858 -0.0025495747 -0.043696724 0.01396111
000020 b4 c0 26 3d 8a b0 1f 3b b5 80 24 3d bb 99 5c bc
       0.04071112 0.00243667 0.040161807 -0.013464387
000030 67 c6 96 bc b1 5a d1 bc 63 bb ca bc b3 d1 b8 3c
       -0.018405152 -0.02555594 -0.024747556 0.02256093
000040 cd 26 48 3a 20 68 03 bc 85 5a c3 bc e4 25 8f bd
       0.00076351763 -0.008020431 -0.023846874 -0.06989649
000050 0e 97 ce bc a1 34 42 3c d1 69 51 bc d3 32 99 3c
       -0.025218513 0.011853368 -0.012781576 0.018700993
000060 c0 a0 89 bc 69 26 1c bd 48 06 cb bb b4 f3 3f bc
       -0.016800284 -0.03812257 -0.006195817 -0.011715818
000070 f4 dd 4b bd 1d 30 6d 3d 93 b3 b4 bb ec f3 09 3d
       -0.049772218 0.057907213 -0.005514571 0.033679888

local_trans_pixel.layers.0.0.fn.fn.to_qkv.weight f4 [768, 32]
000000 6f 10 62 bd 80 5a 37 be 0b f3 f4 bd 5c 5d 27 be
       -0.055191454 -0.17905617 -0.11960419 -0.16344208
000010 32 9f c4 bd 9a 0f 8a bd 2d 4b b9 3d 0c b0 a2 bd
       -0.096006766 -0.06741257 0.09047542 -0.079437345
000020 83 b9 ad bd 63 b4 76 bb fc a0 03 bc 44 d8 1a 3e
       -0.08482649 -0.003764414 -0.008033987 0.15121561
000030 87 fc 84 3d 40 66 b0 bd bc a5 3d bc 31 18 b9 3d
       0.06493478 -0.08613253 -0.011575159 0.09037817
000040 af 5e a4 bd 5e ce 02 bd 7f fd 6c bd e5 9a e2 3d
       -0.08025872 -0.03193509 -0.05785894 0.110647
000050 7d a5 e1 bd 2b bc ec 3a 39 31 4c bc f5 af 02 bb
       -0.110178925 0.001806145 -0.0124629075 -0.0019941304
000060 44 fb 26 be 9c cf 27 3e 4d 21 11 3d 37 67 c3 bd
       -0.16306788 0.1638779 0.03543215 -0.09541171
000070 43 59 ab 3c 93 b3 e3 3d 15 7a 06 3e 4f a1 6b bd
       0.020916587 0.111182354 0.13132508 -0.057526883
000080 d0 45 02 3c fa aa b1 bd 1e d0 20 3e 20 d5 95 3d
       0.007951215 -0.08675189 0.1570439 0.07316041
000090 5a 23 f4 3d c1 d9 ed 3d 39 5b 0a be 66 d0 5b bd
       0.11920805 0.11613799 -0.13511361 -0.05366554
0000a0 23 a8 1e 3e 7b ab 0c be 58 2a ff bd 53 80 09 be
       0.15493827 -0.1373729 -0.12459248 -0.13427858
0000b0 32 d7 af bd a8 b7 a5 3d ec 21 e2 bd 90 f5 07 be
       -0.08585967 0.0809167 -0.11041626 -0.13277268
0000c0 58 28 04 3e 48 31 18 3e 58 3a 37 be 4d df 86 bd
       0.12906015 0.1486255 -0.1789335 -0.0658556
0000d0 3a 35 2d be 49 21 15 3d da c4 2a 3e 4c 1b c3 bc
       -0.16914836 0.036408696 0.16676655 -0.023816727
0000e0 ec c9 01 3e 62 b4 4a be eb 72 ef bc c9 f7 f4 bd
       0.12674683 -0.19795373 -0.029229602 -0.11961324
0000f0 f3 6c f2 3d d9 4b c2 3d 6a f5 05 be 2c 24 c4 bd
       0.11837187 0.09487123 -0.130819 -0.09577212
000100 4a af 74 bd ea 6e f3 bd e5 ce ee 3d 63 45 1d be
       -0.05973748 -0.118863896 0.11660556 -0.153585
000110 4d 25 0b 3e fa d0 24 be c9 6e 74 3d 82 ac 53 3d
       0.13588448 -0.16095343 0.059675965 0.05167819
000120 65 e6 e0 bd 8e 0d 7a 3d cd 88 64 bd a9 ca 86 3b
       -0.10981444 0.061048083 -0.055794526 0.0041135144
000130 40 da da 3c 24 e4 2b b8 bd a1 f1 3d 71 a8 9c bd
       0.026715398 -4.098205e-05 0.11798427 -0.07649315
000140 0c 38 e3 bd 80 80 82 bd 10 3f 57 bc b8 1c e6 bd
       -0.110946745 -0.06372166 -0.013137594 -0.112359464
000150 9b 96 44 3e c2 26 ce bc 8e 9d c8 bd 17 7f bb 3d
       0.19198076 -0.025164966 -0.09795676 0.091551
000160 b7 2d 60 3e 41 26 4a be 00 a9 bc bd a9 84 13 bd
       0.21892439 -0.19741155 -0.09211922 -0.036015186
000170 9f c6 c0 3d a9 6b 28 3e 41 15 4b bd 41 a9 82 3c
       0.09412884 0.16447319 -0.049580816 0.015949847
000180 59 97 e9 bd 3e 33 30 be 74 b0 1f 3d c9 27 02 3e
       -0.114058204 -0.17207047 0.03898664 0.1271049
000190 8c 86 80 bd f7 47 19 be c9 58 54 bd d5 6f 03 3e
       -0.06275663 -0.14968859 -0.051842485 0.1283563
0001a0 40 92 4b be 53 b4 02 be 02 e4 5f bd cd cc 0a 3e
       -0.19880009 -0.127641 -0.054660805 0.13554688
0001b0 76 b2 c9 3d 95 35 08 be d0 4a 22 bd 8c c2 56 bd
       0.09848492 -0.1330169 -0.039622128 -0.052431628
0001c0 c0 dc 49 be 4c 74 fc 3a 83 bc 3d 3d d1 79 0f be
       -0.19713116 0.0019260733 0.046322357 -0.14011313
0001d0 20 d3 98 3d f8 97 fb 3d 4c 7e 1a 3e a9 91 f5 3c
       0.07462144 0.12284845 0.15087241 0.029976683
0001e0 d2 26 2e be 5e c0 b8 3d de d1 9f 3d 8f c0 e4 3d
       -0.17006996 0.09021066 0.07803701 0.1116954
0001f0 9a 29 0b 3e dd 5a 0c 3e 79 0c a1 39 2a 2f 60 3e
       0.13590088 0.13706537 0.00030717606 0.21892992
000200 d2 4e da 3d bc 3f 92 bc cf fe 0a 3e e3 e1 3a 3d
       0.10659565 -0.017852657 0.13573764 0.04562558
000210 cc a0 d3 3d c0 2f 1d bd ca 2b ea bc a2 f3 21 be
       0.10333404 -0.038375616 -0.028585333 -0.15815595
000220 9b 7d ac 3d de 73 f1 bd f6 e7 03 be 3f b6 ef bc
       0.08422395 -0.11789678 -0.12881455 -0.029261706
000230 36 82 6d bc c5 8e ec 3d 50 10 f9 bd 57 9c 1f 3e
       -0.014496377 0.115506686 -0.121613145 0.15586983
000240 74 c5 e7 3c a6 58 a8 3c a2 aa 47 3e c8 f2 f7 3d
       0.028292395 0.020550083 0.19498685 0.12106854
000250 98 1d cb bc fd 45 73 3d a8 69 fd bd 61 33 02 bd
       -0.024794385 0.059392918 -0.12373668 -0.03178728
000260 22 7a c0 bd 7e 4d 7f 3c 6c 18 12 3c cc 2b d3 bc
       -0.09398295 0.01558244 0.008916955 -0.02577772
000270 1c 3a f7 3d ce 51 48 3d cd f8 22 3e 7f 5a 8c bd
       0.1207163 0.04890614 0.15915222 -0.06853198
000280 92 19 aa bd 1a 75 86 bc 72 38 10 bd 1c 9d 99 bc
       -0.083056584 -0.01641326 -0.03521008 -0.018751673
000290 58 5d e8 3d 4d 44 a4 3d c1 f1 07 3e 8c ea 9d 3d
       0.11345929 0.0802084 0.13275816 0.07710752
0002a0 62 8e f9 3d f7 56 7f 3d 91 3d e7 bd 56 38 8c 3d
       0.121853605 0.062338796 -0.1129104 0.06846683
0002b0 a9 0e 30 be db d5 1f 3c b2 a4 a1 3d fb 4b bd 3c
       -0.17193092 0.009755577 0.07892741 0.02310752
0002c0 74 98 0e be 88 a4 43 be 5e 2b 0b 3d 86 0c 19 3e
       -0.13925344 -0.19105732 0.033976905 0.14946184
0002d0 45 75 e0 bd a2 b3 0c bd 51 2f c2 3d 96 6c 00 bd
       -0.109598674 -0.034351 0.09481681 -0.031353556
0002e0 52 5f 8e 3d ee aa e4 3c 5b 8a 4a be 31 ae 22 3d
       0.06951775 0.027913537 -0.19779341 0.039716903
0002f0 ac 5a f5 bd 80 8d 8e bd 75 08 10 be 08 9b 49 3d
       -0.11980185 -0.06960583 -0.14065726 0.049220115
000300 0f f5 d8 bd fa 9d 35 be 08 ee f7 3b e7 67 2c 3e
       -0.10593616 -0.17736045 0.0075662173 0.1683651
000310 aa 19 4a be 3b 18 4c bb 85 0c e3 3d 17 02 fd 3d
       -0.19736353 -0.0031142372 0.11086372 0.12353914
000320 02 1f 52 bd d5 92 ef 3c 97 cb af bc 2e ef 57 be
       -0.051299103 0.02924482 -0.021459384 -0.21087334
000330 91 39 da 3c f6 70 53 be 7b 8c 98 3d 96 ae 02 3e
       0.026638778 -0.2064856 0.074486695 0.12761912
000340 9c a9 77 3e 98 a0 d2 3d f4 b7 6c 3e 15 e9 1d 3e
       0.24185795 0.10284537 0.23117048 0.15420945
000350 3d 55 ed 3d d0 30 80 be f5 5b 3e bd c3 e6 81 bd
       0.115885235 -0.2503724 -0.046474416 -0.063428424
000360 2c da ee 3d 09 f0 20 bd 90 95 35 be 3a 94 70 be
       0.11662707 -0.039291415 -0.17732835 -0.23494044
000370 4f 3a f7 3d e1 ce 3b be f0 d4 0d 3d 9d ed 83 bd
       0.12071668 -0.18340637 0.0346269 -0.064418055
000380 09 73 ee 3d 37 ea 62 3e 8f 43 43 3e c5 44 05 be
       0.11643035 0.22159658 0.1906874 -0.13014515
000390 f0 3c da 3d 17 d7 7e 3e 61 38 bf 3d e4 ce 3b be
       0.10656154 0.24886738 0.09336925 -0.18340641
0003a0 a9 9d 29 3e 18 91 ee 3d 0a a1 43 be f2 9f 8e bd
       0.16564049 0.11648768 -0.191044 -0.06964101
0003b0 93 75 56 3e 14 90 cc bc 6a 7f 23 be 63 b0 f3 bd
       0.20943289 -0.024971046 -0.15966573 -0.118988775
0003c0 79 56 9d 3d 9c 66 c3 3a 0d 88 00 3e 02 cd 1f bc
       0.07682509 0.0014907899 0.12551899 -0.0097534675
0003d0 19 5c 02 bd 53 9f ae 3d f1 0c a5 3d c9 97 0a 3c
       -0.031826112 0.085264824 0.08059109 0.00845904
0003e0 66 6d 54 bd 0a e6 c7 bd 7c 0d b4 3c 9b 59 9d 3d
       -0.051862143 -0.09760673 0.021979086 0.076831065
0003f0 70 9e 10 be 1e ff e5 bc 11 26 a4 bd a1 2b f2 3d
       -0.14122939 -0.02807575 -0.08015073 0.11824728

local_trans_pixel.layers.0.0.fn.fn.to_out.0.weight f4 [32, 256]
000000 b4 8f 9d 3d 42 9a 36 3c a8 a2 35 3d 80 a8 62 bc
       0.07693425 0.011145176 0.044344574 -0.013834119
000010 0e 5f b8 bd b8 4a 34 3d cd 7b 09 bd 8a 15 12 3b
       -0.09002505 0.04401657 -0.03356533 0.002229067
000020 3f e4 1f 3c b4 28 b1 3a 4f b2 1c 3a 07 67 ff bc
       0.009759008 0.0013516159 0.0005977498 -0.031177057
000030 44 34 3e bd 9d a0 f3 3d 79 0d 8b 3d e6 8e f2 3a
       -0.046436563 0.11895869 0.06789679 0.0018505722
000040 c9 16 ce 3c 00 e3 b2 bd 68 c5 cc ba 12 4b b2 bd
       0.02515735 -0.08734703 -0.0015622796 -0.08705725
000050 47 98 cb 3b 76 dc 29 3d 56 ad ce bc f3 97 e7 bc
       0.0062132212 0.041470014 -0.025229137 -0.028270697
000060 32 e6 c7 3c 87 c4 89 bc 2f a9 c3 bc 41 b3 df bc
       0.024401758 -0.016817344 -0.023884384 -0.027307155
000070 50 a6 8d 3d 68 2d 8b 3d 06 0e 54 3c 12 36 91 bd
       0.06916487 0.0679577 0.012942797 -0.07090391
000080 fd 0e 2a 3d af 87 44 3d 20 f3 54 bc 50 8c 18 bb
       0.0415182 0.04798096 -0.012997419 -0.0023276992
000090 f9 43 e6 3c a1 de 2b bd 68 83 5b bd fe ba ad 3d
       0.028108584 -0.041960362 -0.053592116 0.084829316
0000a0 74 0f 1a 3d 45 51 b1 3b 4d c5 f3 ba 8c aa 34 bd
       0.037612393 0.0054112994 -0.0018598229 -0.04410796
0000b0 dd 5e ab 3b 54 9b ad bc 67 f3 a7 bd 34 69 14 3a
       0.0052298144 -0.02119223 -0.08200722 0.00056614284
0000c0 eb ec b7 3c 48 5d c1 bb bc e7 d7 3d e5 1a a2 bd
       0.022451838 -0.0059010126 0.10542247 -0.07915286
0000d0 aa c5 91 bd 81 42 a4 bc 83 ef 0a 3d 54 52 b2 3c
       -0.071177796 -0.020051243 0.033919822 0.021767773
0000e0 f8 25 ab 3d f0 45 93 3d 5e fc 97 3d 87 ae 93 bd
       0.08356851 0.07191074 0.07421182 -0.07211023
0000f0 20 eb ef 3c 24 19 39 3c a5 c0 d9 ba d9 17 0c 3e
       0.029286921 0.011297498 -0.0016613199 0.13680972
000100 60 d0 a5 3c 27 3e dd 3c 05 c7 0e bd 6a 44 78 3d
       0.020240963 0.027007176 -0.03485777 0.06061212
000110 d5 80 64 3d fa 78 2c bd 94 66 80 3d 9a c9 14 bd
       0.055786926 -0.04210756 0.06269565 -0.036325075
000120 b9 43 11 bb 41 71 f1 3b 8a 78 43 3d 2c bf e8 bc
       -0.002216561 0.0073682372 0.047722377 -0.02841147
000130 44 b9 b4 3c eb 60 84 3d 91 63 ab bd bf 8c b7 3b
       0.022060998 0.06463798 -0.083686 0.005601495
000140 cc 04 a4 3d 27 6b c8 3c 65 e3 d0 bd be af 06 3d
       0.080087274 0.024465157 -0.10199622 0.032882445
000150 77 a6 ba bd 46 a6 c3 bc e2 74 4c bd e8 cd 2a bc
       -0.09113782 -0.023882996 -0.049916156 -0.010425068
000160 37 4f 7b ba a9 8b 88 bd 5b ab a1 3c e5 b7 83 3d
       -0.0009586694 -0.06667263 0.019735029 0.064315595
000170 47 9e 2a bd d7 31 02 3d 21 68 36 bd 43 37 96 3d
       -0.04165485 0.031785812 -0.0445329 0.07334759
000180 f6 fe 86 3b d3 30 4e bc 0d 61 9e 3d 69 f8 4a bb
       0.004119749 -0.012584883 0.07733355 -0.0030970818
000190 b9 fa 89 ba 50 da c4 bd 8f f6 8e 3d b6 d9 7b bc
       -0.0010526992 -0.09611952 0.06980621 -0.015371731
0001a0 e8 ba cd 3c 5d b6 84 bd bf 4f 88 3c 15 15 31 3b
       0.025113538 -0.064800955 0.016639588 0.0027020623
0001b0 10 9f 28 bd e7 48 7c 3d ba d6 19 bb 1b fa 03 bd
       -0.04116732 0.061592963 -0.0023473934 -0.03222094
0001c0 dc 1f c2 bd a1 24 67 bd 88 9f 46 bd 0b b5 49 bd
       -0.09478733 -0.056431416 -0.048491985 -0.04924492
0001d0 a6 e9 b1 bd dc f6 0b 3c cd 06 9b bc b0 ef 14 bd
       -0.08687143 0.008542743 -0.018924141 -0.036361396
0001e0 74 c2 9b 3d 1b 14 0e bd af fe 64 3d 7a 9e 8a 3c
       0.07605448 -0.034687143 0.055906948 0.01692127
0001f0 4a b8 f1 3b 1a ee ba 3c 06 fc 28 3d a0 fd d8 bd
       0.0073767053 0.022818614 0.041255973 -0.1059525
000200 88 b9 9e 3c 32 a5 10 3d 95 ad 88 bd f8 9f 99 3d
       0.019375578 0.035313793 -0.06673733 0.07501215
000210 27 e4 c4 3c 58 e4 5c bd a4 e5 5f 3d 50 bc 77 3d
       0.024034573 -0.053928703 0.05466236 0.060482323
000220 16 68 8f bc 8e 30 d3 ba b4 10 94 3d 28 08 4f bd
       -0.017505687 -0.0016112493 0.07229748 -0.050544888
000230 3d 1a 16 3d 4a 5f a0 3c b5 39 88 bd 2d 18 12 be
       0.036646117 0.019576687 -0.06651632 -0.14267035
000240 c4 10 9f 3d d8 fc 85 3c 33 24 cd bd 63 31 3a 3d
       0.0776687 0.016355917 -0.1001667 0.045457255
000250 83 29 23 3c a0 2c 42 3d 92 8d 79 3c 18 94 ae 3d
       0.009958628 0.04740584 0.015231507 0.085243404
000260 0b 7c 06 be eb 89 5b 3d 94 02 51 3c 80 66 48 bd
       -0.13133256 0.053598326 0.012756962 -0.048925877
000270 bb 96 e7 bc fd ec f8 3a 80 0d 59 ba f0 85 bf bd
       -0.028270116 0.0018991526 -0.0008279905 -0.093517184
000280 e6 00 dd bc a7 12 b4 3d d1 81 af bd ad 51 a7 bd
       -0.026977967 0.0879262 -0.085696824 -0.08169875
000290 54 ca 0a 3d 41 0c 88 bd 08 ae 02 3c 81 de 40 3d
       0.03388436 -0.06642962 0.007976063 0.047087196
0002a0 ee 0f 4b bc 9d 0e fe 3c f4 96 c5 bd 12 59 ad 3d
       -0.012393935 0.031012828 -0.09647933 0.084642544
0002b0 72 74 0a 3d aa ae 53 3d ca ab 72 bc 93 ac 31 3d
       0.033802457 0.051680245 -0.0148114655 0.04337747
0002c0 96 b7 f3 3c e6 11 56 bd 26 19 9b bc 66 bf 8c 3c
       0.029750627 -0.052263163 -0.01893289 0.01718111
0002d0 cd 2f 4b 3b 55 94 d9 bc f9 ed d2 3c 9f 0e b1 3c
       0.0031003833 -0.026559988 0.02574824 0.021613417
0002e0 76 77 5c bc cb 4f 58 bc ab 8c c8 bd c6 55 a4 3d
       -0.013456216 -0.013202618 -0.09792455 0.080241725
0002f0 4c 20 8e 3d 7e 97 4b 3d d7 5d 88 3d f0 8a 61 3d
       0.06939754 0.04970502 0.066585235 0.05506414
000300 97 6a 2b bc 99 b7 e6 bc 24 9e 12 3d 95 b1 e8 3c
       -0.010462425 -0.028163718 0.035795346 0.02840499
000310 1b b6 ae bd 3e d0 5d 3d 7f dd 75 3d f5 9c 70 3d
       -0.085308276 0.054153673 0.06002569 0.058743436
000320 70 a8 42 bd b8 77 96 bd e9 90 49 3d f6 a8 d6 3d
       -0.047523916 -0.07347053 0.049210463 0.104814455
000330 22 85 db 3b 75 f5 2b bd 6d 51 28 38 c7 81 82 bd
       0.0066992203 -0.041982133 4.0130155e-05 -0.06372409
000340 1f 6c 91 bb f6 fe a1 bd f5 db b7 bd 3d 55 41 3d
       -0.004437938 -0.07909958 -0.089775 0.04720043
000350 d8 bf 33 3d d6 74 eb 3d c4 f9 39 3c e9 0e d7 3d
       0.04388413 0.11496894 0.011351053 0.10500891
000360 f6 88 92 bc 82 24 a7 3c ad c5 00 3d 00 2b ed bd
       -0.017887574 0.02040315 0.03143852 -0.11580467
000370 65 21 76 bd 80 1e 42 bd 46 32 a0 bd c1 39 e6 3c
       -0.06009044 -0.04739237 -0.07822089 0.028103711
000380 a0 57 9b 3d 84 88 b4 3d 43 37 ca 3b 12 d7 8e 3c
       0.075850725 0.08815101 0.0061711385 0.017436538
000390 2b 79 33 bd ec 60 82 bc 74 3e f6 3c 3e 64 d0 3c
       -0.043816727 -0.015915357 0.030059077 0.025438424
0003a0 4b 31 4d bd 30 8d 16 3d ae 76 ff 3d ca d8 67 3d
       -0.050095838 0.03675574 0.12473808 0.05660323
0003b0 39 bd 18 3b 9d 35 54 3c 83 5b 9f bb 06 54 98 3d
       0.0023306145 0.0129522355 -0.004863204 0.07437901
0003c0 6f d9 34 3d 22 82 e8 3d 67 87 cf 3b 17 16 8d bc
       0.044152673 0.11352946 0.00633328 -0.017222447
0003d0 45 e2 3e 3d 1b 81 d9 bd d3 fa 9c 3d 60 59 1b 3d
       0.046602506 -0.10620328 0.076650284 0.03792703
0003e0 fd 0c 04 bd 91 76 00 bd 30 59 a4 bd d2 9a c6 3d
       -0.03223895 -0.031363074 -0.08024824 0.096974984
0003f0 71 4e ab bb 5c 54 08 3e 3f 11 26 3c 5b 1b d8 3a
       -0.005227857 0.1331343 0.010135948 0.0016487645

local_trans_pixel.layers.0.0.fn.fn.to_out.0.bias f4 [32]
000000 57 45 b8 3d 9b 01 12 3e 05 78 8a bc e4 23 5d bd
       0.089976005 0.14258425 -0.016902933 -0.053989306
000010 5c 8d 57 3d a9 d7 dc 3c 5e 13 03 3e 22 28 da bd
       0.052625045 0.026958304 0.12800357 -0.10652186
000020 45 ed 1d 3d ea 5d a3 3c 41 1e c6 3c cd 53 d1 3c
       0.038556356 0.019942243 0.024184348 0.025552655
000030 42 29 e9 bc e3 3d b5 bd 09 d6 90 bc c8 df ca 3d
       -0.028462056 -0.088496946 -0.017680185 0.09905964
000040 2b fa d3 bd a9 25 78 bb fd 6b d0 3c 8d e4 9a bc
       -0.1035045 -0.0037864244 0.025442118 -0.01890781
000050 ff 48 92 3c 39 79 8e 3d c5 24 81 3d a8 f5 a6 3d
       0.017857073 0.06956715 0.06305841 0.08152324
000060 03 25 a4 bd 5c 44 f7 bc 8e 49 6c bd 85 2b ef bd
       -0.08014872 -0.030183963 -0.057687335 -0.116782226
000070 d9 54 04 bc 57 94 dd bc 88 79 a7 bb 04 02 2f b7
       -0.00807687 -0.027048273 -0.005110923 -1.0431282e-05

local_trans_pixel.layers.0.1.fn.norm.weight f4 [32]
000000 9b 57 83 3f 67 73 84 3f 5c 85 7c 3f 82 11 86 3f
       1.026111 1.0347718 0.9864099 1.0474093
000010 7c 76 92 3f 10 b4 8e 3f ac 90 8e 3f a2 88 82 3f
       1.1442409 1.1148701 1.11379 1.0197947
000020 2d cd 7c 3f 2a 42 85 3f 1a de 8f 3f 38 d6 8d 3f
       0.98750573 1.0410817 1.1239655 1.1080999
000030 b6 5d 81 3f 04 88 98 3f c4 66 8d 3f 82 27 94 3f
       1.0106723 1.1916509 1.1046987 1.1574557
000040 e3 70 86 3f 5a 58 7e 3f a8 12 93 3f 3c 96 89 3f
       1.05032 0.99353564 1.1490068 1.0748973
000050 30 8c 86 3f 00 31 85 3f 18 f1 81 3f 8f 1e 8e 3f
       1.0511532 1.0405579 1.0151701 1.1103076
000060 9b e5 88 3f be 3c 86 3f a0 8b 82 3f 8e 3a 81 3f
       1.069507 1.0487287 1.019886 1.0095994
000070 53 a6 7f 3f 2a 22 80 3f 30 8b 80 3f 40 cb 77 3f
       0.99863166 1.0010426 1.0042477 0.9679451

local_trans_pixel.layers.0.1.fn.norm.bias f4 [32]
000000 6a 0a 37 3c f2 4d b8 bd c4 70 10 3e ad 33 1b be
       0.0111719165 -0.08999242 0.14105517 -0.15156431
000010 58 30 d7 bd 6f 99 ff bb 20 5a 0e 3e ac 8f 27 3d
       -0.10507268 -0.007800273 0.13901567 0.0409085
000020 c3 b6 3b 3d 47 7f 06 bd 1a 0f b5 3d f6 84 92 3c
       0.045828592 -0.032836225 0.08840771 0.017885666
000030 11 1b 50 3c eb 69 a4 bb 56 01 c8 bc 1f 9f f6 3d
       0.012701766 -0.005017509 -0.0244147 0.12042069
000040 f1 7a 30 3e 1e fe 71 3d 83 bc d2 bd 01 2c d1 bd
       0.17234398 0.059080236 -0.10289862 -0.10213471
000050 48 a1 cc bd 37 1f ec 3c 48 ba 1a 3d 5d 3c 7d 3c
       -0.099916995 0.028823478 0.037775308 0.015456286
000060 10 29 cc bc 51 fe 64 3d 9f 9e 39 bd e0 c2 fb bd
       -0.024921924 0.055906598 -0.04531729 -0.12293029
000070 95 62 7a bb ec 8f 68 bd 74 0e a6 bd b0 01 bd 3d
       -0.0038205732 -0.05677788 -0.081082255 0.092288375

local_trans_pixel.layers.0.1.fn.fn.net.0.weight f4 [8, 32]
000000 71 a2 e3 bd 98 d6 f1 bd d4 a1 85 bd 61 d8 aa bc
       -0.111149676 -0.11808509 -0.06525007 -0.02085513
000010 95 b6 f1 3d cf 6f d5 bd 07 bd c8 bd 2e 14 73 3e
       0.11802403 -0.104217164 -0.09801679 0.23738167
000020 94 2e ed 3c 87 a6 55 3d 2d 7b 7f 3e 19 34 08 be
       0.028952874 0.052160766 0.24949332 -0.13301124
000030 ff 86 f2 3d e4 a9 40 3e f0 aa 26 3e d0 5e 7d bd
       0.11842155 0.18814808 0.16276145 -0.061858
000040 8b d5 18 bd 67 e9 15 be 82 4b 8a bd b9 b5 36 bd
       -0.037313025 -0.14639817 -0.06752683 -0.044606898
000050 9b ed 05 bd cb d6 e7 3d 46 5f 36 bd 75 bd a2 3b
       -0.0326973 0.113202654 -0.044524454 0.0049664327
000060 b5 9b df 3d 5a 45 2c be f9 6b 16 bb 19 ab bf 3d
       0.10918371 -0.1682333 -0.002295254 0.09358806
000070 d5 2a 09 3e bf 4f e8 3d 32 10 15 3e 4e 4d e5 bc
       0.13395245 0.11343335 0.1455696 -0.027990963
000080 99 7a dc 3d 38 56 d5 bd 9a 03 f7 3c ee 4a 5e bd
       0.10765571 -0.104168355 0.030153085 -0.054270677
000090 d2 f2 35 be 13 ea 06 3e 77 11 80 3e 50 f2 cc bd
       -0.1776841 0.1317523 0.25013325 -0.10007155
0000a0 bc f7 09 3e 48 88 f8 bd 1d a7 ca 3d 1d 61 80 be
       0.1347341 -0.121353686 0.098951556 -0.25074092
0000b0 79 1c 72 3b 77 1c 0a 3e 9d c0 48 bd df b1 1e 3e
       0.003694324 0.13487421 -0.049011815 0.1549754
0000c0 de 85 a8 3d 9e e9 0f bd 1f 75 12 3e dc 9e 23 3d
       0.08228658 -0.035134904 0.1430249 0.039946422
0000d0 41 71 07 3e 66 4a 39 be 7e 5e 68 bd 17 65 4b bd
       0.13226797 -0.18094787 -0.05673074 -0.049656954
0000e0 2d 78 42 3e 38 11 fb bd 09 af 27 bd f3 7b f0 bd
       0.18991156 -0.122591436 -0.04093841 -0.117423914
0000f0 99 3d a0 bd ea a2 0d be 70 fc 92 3a 5c a9 24 3c
       -0.07824249 -0.13831678 0.0011214148 0.010050144
000100 be 6d de bd 07 d0 16 be 05 f5 c7 3d 20 f3 08 3d
       -0.108607754 -0.14727794 0.09763531 0.033434987
000110 2b 61 77 bc 7c 7a 7a bc fd 25 80 3d 8e 2a f8 3d
       -0.01509885 -0.015287992 0.06257246 0.12117492
000120 9f 01 c8 3d f9 43 16 be ff 55 9a 3d 9e d0 e2 bd
       0.09765934 -0.14674367 0.07535934 -0.11074947
000130 92 d3 bb 3c 6f d7 75 be 6a 76 f8 3d 95 3a 3d 3d
       0.022928033 -0.24007963 0.12131961 0.046198446
000140 f4 83 f0 3d 56 a0 5f bd 37 81 cc 3c 86 c2 55 bd
       0.11743918 -0.054596268 0.024963958 -0.052187465
000150 96 2e f1 3d 0a a4 3c be 8c 0b 36 3d e3 c8 ed 3d
       0.11776464 -0.18421951 0.044444606 0.11610582
000160 7e d4 55 bc ea 80 3e be 3d 61 4f 3e c7 58 50 bd
       -0.01305115 -0.18603864 0.20251937 -0.050865915
000170 18 6b 82 bc eb 76 e0 3b da fa 12 3e 9f 44 ca 3d
       -0.015920207 0.0068501136 0.14353505 0.0987637
000180 17 99 f9 3d c4 f2 fd bd ac 3c c6 3c e8 0c 81 be
       0.12187403 -0.123998195 0.024198852 -0.2520516
000190 c0 af 8d be aa 82 90 3b f3 29 0f 3d 24 f9 1f be
       -0.2767315 0.0044101076 0.034952115 -0.15622383
0001a0 a7 c2 22 3e c9 35 66 3d f3 49 5e be 73 ca ca bd
       0.15894566 0.056203637 -0.21707897 -0.099018954
0001b0 64 57 52 bd 04 a5 b7 be 04 e9 57 be ce 28 6e 3e
       -0.051352873 -0.35868084 -0.21084982 0.23257753
0001c0 85 94 6a 3e 0f b6 89 bd 48 65 25 be 97 3d c9 bd
       0.22908218 -0.06724178 -0.16151917 -0.098262005
0001d0 f8 54 1a be 95 24 cd 3d ca 50 13 3e 67 b3 75 3e
       -0.15071476 0.10016743 0.14386287 0.23994218
0001e0 52 6f a7 bd 04 6d 32 3e 20 af 34 bd 28 7c 93 3d
       -0.081755295 0.17424399 -0.044112325 0.07201415
0001f0 18 ba 45 be 2c ca 0c 3e a3 ea 0b 3e 07 51 18 bb
       -0.1930927 0.13748997 0.13663726 -0.0023241655
000200 f7 e6 8c 3d 01 5f 0d 3e 33 ce ec bd 6c 8e 8a bd
       0.068799905 0.13805772 -0.11562767 -0.06765446
000210 54 1e d6 3d d1 e2 14 be a5 c7 1b 3d a0 cb 1d 3e
       0.104550034 -0.14539649 0.038032193 0.15409708
000220 7a 4c e4 bd 9d c6 bf bd 69 41 3f be ca dc f4 bd
       -0.11147399 -0.09364054 -0.18677296 -0.11956175
000230 2b dd c8 bd 3b 65 0f be 19 41 27 be 95 15 b9 bd
       -0.098078094 -0.1400346 -0.16333427 -0.090373196
000240 84 e4 b1 bd e7 59 0c 3d 89 ef ef 3c d5 c7 88 3d
       -0.08686164 0.034265425 0.029289024 0.0667874
000250 7a bc cd 3d 10 f0 0c be 58 67 44 bc be 01 0a 3d
       0.10045715 -0.13763452 -0.01198753 0.033693068
000260 ef cb c2 3d 8e bd 03 3c 8b 56 78 3d 86 b8 3d 39
       0.095115535 0.008040799 0.06062941 0.00018093185
000270 ff 50 22 3d 57 92 82 bd bc 4d a4 bd e4 db e3 3b
       0.039628025 -0.06375568 -0.08022639 0.0069537032
000280 d8 eb 52 bc 0c 41 af 3d 9c e9 a6 3d 1e 3f 3b be
       -0.012873612 0.085573286 0.08150026 -0.18285796
000290 05 62 21 be 19 24 04 be e2 51 8d 3e 79 57 c4 3d
       -0.15760048 -0.12904395 0.27601534 0.095869966
0002a0 fb 76 83 bd 1c bc bb 3d 59 88 b3 3d 28 24 6b 3d
       -0.06419178 0.091667384 0.087662406 0.05740753
0002b0 98 b6 30 3e e9 0a 86 be ee dc f9 3d 10 8e 73 3e
       0.17257154 -0.261802 0.12200342 0.23784661
0002c0 ae 3d 6b 3e ba 13 7b 3b 83 0b a6 be 56 83 2d be
       0.22972748 0.0038311318 -0.32430658 -0.16944632
0002d0 77 16 2c be 85 38 71 bd fc a2 26 3e c9 b9 62 3e
       -0.16805445 -0.05889179 0.16273111 0.22141184
0002e0 8f 4f ee 3d 09 b0 c0 3c 4e 31 87 3c df 54 fa bd
       0.11636268 0.02352144 0.016503002 -0.12223219
0002f0 5c 14 e5 3d 02 e6 4f bc 27 7c 4a be 04 7b 01 3e
       0.11185524 -0.0126891155 -0.19773923 0.12644583
000300 ca bd a7 3c 44 83 76 3c 1e fb 54 3d 3c 0e 1b bd
       0.02047624 0.015045945 0.051997297 -0.03785537
000310 1d 4d 9e 3d 05 68 cf bd b1 86 48 3e 29 9f 32 3d
       0.07729552 -0.10127262 0.1958263 0.04360882
000320 6d 53 7a 3c dd 8b 4d bd e1 c2 36 3e 3b be e8 3d
       0.015278679 -0.050182212 0.17847778 0.113644086
000330 fd 6e 03 be 0b 21 34 3e e3 7e 0a be db 7f 76 bd
       -0.12835307 0.1759073 -0.13524966 -0.060180526
000340 f2 bc 83 bc 3f 51 de 3d be 4e 92 bd 2f eb 80 bd
       -0.016081307 0.1085534 -0.07143925 -0.06294858
000350 b7 50 88 bd 7a 38 40 3e d2 5d 15 be 0b f0 14 be
       -0.0665602 0.18771544 -0.14586571 -0.14544694
000360 7b ce fe bd 6f 1b 4e 3e 4d 29 e4 bd 5d 48 46 be
       -0.12441727 0.20127653 -0.1114069 -0.19363542
000370 f2 88 00 3d dc 28 b1 bd e1 20 c9 bd 15 e9 f8 3d
       0.0313806 -0.086503714 -0.09820724 0.12153832
000380 70 a8 4b be b2 e0 c2 bd 98 23 a3 bd ff d2 35 bd
       -0.19888473 -0.095155135 -0.07965773 -0.044390675
000390 7d f1 56 be e2 f4 67 3e ba 76 61 3d 44 6f 29 3e
       -0.20990558 0.22652009 0.055044867 0.1654635
0003a0 93 00 0e bd 41 4a 27 be 71 f6 8f 3d 5f e9 f1 bc
       -0.034668516 -0.1633692 0.07029427 -0.029530225
0003b0 4d a8 9c bd 63 c0 bb 3d 8e 8b f1 3d 9b 54 89 bd
       -0.07649288 0.09167554 0.11794196 -0.0670559
0003c0 5e ec 36 bd ae 6b 41 3d c2 eb 6d be 8a da 1e 3e
       -0.04465901 0.047221832 -0.23234466 0.15513054
0003d0 01 85 44 be 4c 96 12 3e cc 26 cd 3c 53 78 86 3d
       -0.19191362 0.14315146 0.025042914 0.06565919
0003e0 8e 7d 6e bd eb 68 35 3e 90 53 1e 3d e5 b5 be bd
       -0.058225207 0.17715804 0.03865391 -0.093120374
0003f0 73 a2 5e bc 07 e6 05 be 4d d3 f6 bd 28 9b cf bd
       -0.013588536 -0.1307603 -0.12052021 -0.101370156

local_trans_pixel.layers.0.1.fn.fn.net.0.bias f4 [8]
000000 78 bf 45 be e1 00 65 3e ac 44 bf 3d 62 78 20 3e
       -0.19311321 0.22363617 0.0933927 0.15670922
000010 fd 1b 9d bd 65 d0 bb 3d df f6 79 3e ce 92 f8 3d
       -0.07671354 0.091706075 0.2441058 0.12137376

local_trans_pixel.layers.0.1.fn.fn.net.3.weight f4 [32, 8]
000000 67 bb 0e 3d 30 2e 6d be e4 52 4b 3e b6 3a 2c 3e
       0.03484669 -0.2316215 0.19855839 0.16819271
000010 b5 53 9f 3e 8f 19 45 3e ea d5 49 be 83 ab 1a ba
       0.3111855 0.19248031 -0.19710508 -0.0005900191
000020 a1 91 a3 be e4 91 3d be 89 b6 97 be c6 f7 bd bc
       -0.31947044 -0.18512684 -0.2963145 -0.023189437
000030 d4 5c 82 be 97 12 df 3e 7a 02 b7 3e f3 31 25 be
       -0.25461447 0.4356887 0.35744077 -0.16132335
000040 c1 e6 aa bc c9 c9 7e bd 46 4b 63 3d dd b7 48 3c
       -0.020861985 -0.062204156 0.05549171 0.012250868
000050 31 c5 5e 3e 9b f3 52 be a6 4a 2b 3e d6 f8 a0 3e
       0.2175491 -0.2060074 0.16727695 0.31439847
000060 c3 9b b5 bc 66 fb 0e bd 22 a8 4b be d8 ff 7c 3d
       -0.022169 -0.03490772 -0.19888356 0.06176743
000070 1d 30 8d be 6c 3b d5 3e 66 6b 94 3c cc d3 af 3d
       -0.2757577 0.41646898 0.018117618 0.08585319
000080 ae c2 90 3d 79 27 45 bd 31 9d 09 bd 9a 1f 5e 3e
       0.07068382 -0.048133347 -0.033597175 0.21691743
000090 2e bd d8 bd 11 46 03 3b 3d bd ad 3e 70 52 4d be
       -0.10582958 0.0020030777 0.3393344 -0.20050979
0000a0 5e 75 09 bd 77 17 47 bd 26 42 8d 3d 68 72 8a bd
       -0.033559196 -0.048606362 0.068973824 -0.067601025
0000b0 05 64 63 3e 60 42 a5 be 99 4b b1 be fd 2e 0b be
       0.22206123 -0.32277203 -0.3462799 -0.13592143
0000c0 9d 80 7b be df 7e c3 3e f1 00 c3 3e 8e 5b 8e be
       -0.24560781 0.38182732 0.38086656 -0.27804226
0000d0 06 a9 2b bd 0c 4b 8b bb 7d af c3 3e 36 4a 10 be
       -0.04190924 -0.0042508896 0.38219824 -0.14090809
0000e0 08 97 af 3e 53 90 0c 3d dd 95 69 bd 36 47 8f 3e
       0.34294915 0.034317326 -0.057027686 0.27984017
0000f0 d2 6f 11 3e 5d 10 92 be bd 64 d5 3c c2 45 8d bb
       0.14202812 -0.2852811 0.026049012 -0.0043112943
000100 04 62 6b 3e 38 ba 8e 3e 64 60 46 be 55 e1 58 bd
       0.22986609 0.2787645 -0.19372708 -0.05294927
000110 45 4b c1 bb 06 09 03 3e b6 32 97 be fa 62 95 bd
       -0.0058988654 0.12796411 -0.29530877 -0.07294269
000120 99 4b 07 3e ac ed 65 3e dd 15 ac 3e b8 92 d5 3e
       0.13212432 0.22453946 0.3361043 0.417135
000130 2f c8 86 be 7f 5c 8e 3e 59 31 cc 3e cb 00 da 3e
       -0.26324603 0.27804944 0.398814 0.4257873
000140 c9 90 97 3e 5f 8c 03 3e 7e 96 56 3d e8 cf fe 3c
       0.2960265 0.12846516 0.052389614 0.031104997
000150 e2 86 89 3e 50 fe bf 3e e6 7c bd 3e 18 e5 0d 3e
       0.2686072 0.37498713 0.37009352 0.13856924
000160 1b b8 8c 3e 82 88 48 3c 9f 37 cb bd 17 b1 6d 3e
       0.2748421 0.012239577 -0.09922718 0.23212086
000170 8d 2d 8d 3e 26 e2 5f bc dc 1a 57 be 67 a9 f8 3d
       0.27573815 -0.013664758 -0.2100634 0.12141686
000180 48 53 b6 3e 3e 60 12 3e 57 66 ad be cc 96 aa 3e
       0.35610414 0.14294526 -0.33867142 0.33318174
000190 d6 b5 86 3e f2 3c 24 be f4 c2 1e 3d 43 dd 88 bd
       0.26310605 -0.16038874 0.03876014 -0.06682827
0001a0 3d c2 c1 3e bd 69 99 bd e5 55 10 be de 48 05 be
       0.37843505 -0.07490871 -0.14095266 -0.13016078
0001b0 85 7d 9d be 5f 65 59 be a4 e8 cd 3d d4 62 54 3e
       -0.30759826 -0.21230076 0.10054138 0.20740825
0001c0 df bb e8 3e 86 f6 15 bd 71 11 62 be db 4e 43 bd
       0.45455834 -0.036612056 -0.22076966 -0.047682624
0001d0 61 18 34 3e 3d 5e 46 be d5 cb 2e be 8b eb 99 3e
       0.17587425 -0.19371887 -0.17069943 0.30062518
0001e0 38 c7 69 3e 8f a5 2c 3e 98 c1 63 3e 15 84 82 be
       0.22829902 0.1686003 0.22241819 -0.25491396
0001f0 50 6d 00 bc e1 c4 cd bd 6c d0 20 be 61 af 27 3e
       -0.007838562 -0.10047317 -0.15704507 0.16375495
000200 9c 13 37 3d 99 ec 5f be 84 8a f4 bd 75 c5 5c be
       0.044696435 -0.21867599 -0.11940482 -0.21559699
000210 05 4a ad be d4 2c 9e be 96 5c 82 be 85 e4 04 3e
       -0.33845535 -0.30893576 -0.25461262 0.12977798
000220 d9 81 bd be 8c 48 58 be 27 06 32 3e e7 ad 88 be
       -0.37013128 -0.21121424 0.1738516 -0.26695177
000230 ff 0e d5 bb aa 03 91 bc 38 dd 63 3d 5d 02 81 be
       -0.006502032 -0.017701942 0.055630893 -0.25197116
000240 00 c3 70 bd 2b bb 94 3d a8 f2 ae 3e c6 6e b1 bc
       -0.058779716 0.07262262 0.34169507 -0.021659266
000250 3c da d0 3d a5 6f 63 3e 0e 32 1f 3e eb 1a 25 be
       0.10197875 0.22210558 0.15546438 -0.1612355
000260 f0 ce 9d 3e 89 a2 2f 3d cf 16 43 3e f3 d8 b6 3d
       0.30821943 0.042879615 0.1905167 0.089280985
000270 e8 30 0f be e2 47 83 3e 44 f1 4f be f2 9e 6f bd
       -0.139835 0.2564078 -0.2030688 -0.05850119
000280 0a 47 b4 be 87 83 ca 3e 31 a7 34 be d1 de 5a 3e
       -0.35210449 0.39553472 -0.17641903 0.2137406
000290 09 73 d1 bb 3e db 21 be 7c 97 c5 3e a1 54 23 be
       -0.006391887 -0.1580629 0.38592136 -0.15950252
0002a0 b0 ee 19 3e 03 92 89 3e 09 b3 3b be 76 d9 86 bd
       0.15032458 0.2686921 -0.18330015 -0.06584446
0002b0 16 22 ef 3c 66 3c 99 3e 66 ca 87 3e 2c b6 79 3e
       0.029191058 0.29928893 0.26521605 0.243859
0002c0 34 96 e3 bd c9 20 1b 3d 4f f1 38 3e cb f7 3d bd
       -0.11112633 0.037873063 0.18060802 -0.046378892
0002d0 63 40 0d 3e dd 5d 6e be ba 1b 42 3e 72 43 64 3e
       0.13794093 -0.23277994 0.1895589 0.22291353
0002e0 22 c6 20 3e 2c 02 67 3e 89 0d 07 3e 06 60 bd be
       0.15700582 0.22559422 0.13188757 -0.36987323
0002f0 f3 7c 9c be 74 a5 27 be 05 73 da 3d ab e7 76 3e
       -0.3056408 -0.16371709 0.106664695 0.24111812
000300 61 d7 86 3e 12 53 a9 be 67 7c 84 bd 21 f7 17 be
       0.26336196 -0.3307119 -0.0646904 -0.14840366
000310 71 e9 e6 3d 28 9d b5 be 06 89 9c be dd 2a 30 be
       0.11274994 -0.35471463 -0.3057329 -0.17203851
000320 1c 53 c4 3b 36 af 95 bd 32 d5 e7 bd 92 40 83 3e
       0.0059913527 -0.073088095 -0.11319961 0.256352
000330 28 ac e5 bd 2d 09 bc be ba 12 f0 3d 1c 0d b2 3e
       -0.11214477 -0.3672575 0.11722322 0.34775627
000340 a6 6f e6 bd 3f c5 93 3e d0 7d 26 be 0a 71 40 3d
       -0.11251764 0.28861424 -0.16258931 0.046982802
000350 02 00 9e bd 8a 0b a3 3c 3f 17 9e bd c9 17 16 3e
       -0.07714845 0.019902963 -0.077192776 0.14657511
000360 d3 0d 6e be fb b3 59 3e 74 68 9d 3c e7 68 6c 3e
       -0.23247461 0.21260063 0.019214846 0.23086892
000370 3d 0f 97 be fa c3 71 3e ea 0e 96 be d7 0b 9c be
       -0.29503813 0.23609915 -0.29308254 -0.30477783
000380 5f 54 58 3e 9f 8c ce 3d fc 59 09 3e 00 80 92 be
       0.21125935 0.10085415 0.13413233 -0.2861328
000390 da 11 a6 3d 36 17 9f be af 2d fb 3c bf 99 27 be
       0.08108874 -0.31072396 0.030661432 -0.16367243
0003a0 39 ea 34 bd ad fb ac 3e ed f7 e4 3d 99 4d 97 3d
       -0.044168685 0.33785763 0.111801006 0.073878475
0003b0 2e b6 b3 3d f5 10 10 3e 43 40 32 3e 8f 2d 44 be
       0.087749824 0.14068969 0.17407326 -0.19158004
0003c0 13 9c 3b 3c 6e 11 0f 3d 85 4a bb 3d 85 a2 8d 3c
       0.011450785 0.03492873 0.09145073 0.01728941
0003d0 f9 16 6a be 4f 38 99 3e ae 8d 9b bd 38 2f 56 3d
       -0.22860326 0.29925773 -0.07595383 0.052291125
0003e0 4f 13 42 be 86 f8 4b be 4b 3f 8f be 7b 9f 80 be
       -0.18952678 -0.19919023 -0.27977976 -0.25121674
0003f0 8c 71 ec bd d9 af 5c 3e 48 ea 6b be a8 7f 9f 3e
       -0.11545095 0.21551456 -0.2303859 0.3115208

local_trans_pixel.layers.0.1.fn.fn.net.3.bias f4 [32]
000000 4a 77 61 3e 13 52 a1 3e 49 dc 6e 3d 36 9d d4 3d
       0.22018161 0.3150793 0.05831555 0.10381548
000010 f6 83 12 3c 5a d6 e9 3c 3d 53 ae 3e a0 95 ae be
       0.008942595 0.028544594 0.3404788 -0.3409853
000020 13 10 fd bd f5 2a 02 3e 58 36 89 3e bc 03 11 3e
       -0.123565815 0.127117 0.26799273 0.14161581
000030 5b 5a 16 3e 26 69 30 be e2 ef b0 be ff 52 0a bd
       0.14682905 -0.17227611 -0.34558016 -0.033770557
000040 2e 2e b0 be df f3 5d be 76 b1 5c 3e d4 5c 54 bd
       -0.34410232 -0.2167506 0.21552071 -0.05184634
000050 fe ac 94 3e a7 e0 8e 3c 10 28 e2 bb f2 3b 5b 3e
       0.29038233 0.017441107 -0.0069017485 0.21409586
000060 72 0f 8b be 4e 29 eb bc fd c1 a8 3e 2e 2c 88 be
       -0.2716022 -0.028706219 0.329605 -0.26596206
000070 5c 55 9b be 0e e4 95 be cf 33 75 3e 24 58 bb 3d
       -0.30338562 -0.29275554 0.23945545 0.09147671
