src/res/GGCL/guided_contra_cross_transformer/Pavia/5/True/ss0.3/_1712142594.pth (torch, 266710 bytes, 37 tensors)

pixel_pos_embedding f4 [1, 170, 32]
000000 e1 53 45 bf e2 6c e5 bf aa 7a be 3f ae 6b d8 be
       -0.77081114 -1.7923853 1.4881184 -0.42269653
000010 b2 f0 1d 40 78 d4 96 bd f9 bb ab 3f 1b 8b ca bd
       2.4678159 -0.07364744 1.341674 -0.098898135
000020 32 bc df 3f d5 44 b3 3f ea 2e 48 3f 8b ba b8 3e
       1.7479308 1.4005381 0.78196585 0.3607982
000030 c9 42 fc bf c6 02 50 bc e8 cf 0a be b6 45 24 3e
       -1.9707881 -0.012695974 -0.13555872 0.16042218
000040 68 e7 5f bf 4a cb bf be 13 77 92 3e e6 fb a9 3f
       -0.8746247 -0.37459785 0.2860647 1.3279998
000050 8d db 00 3f bb c9 49 3f 80 b3 ba 3f 78 5f 1f 3f
       0.5033501 0.7882344 1.4586029 0.6225505
000060 6b 1b e0 be f1 39 f3 bf fd 44 ab 3e ae 66 cd 3f
       -0.43770918 -1.9002057 0.3345107 1.604696
000070 ab cf e2 bd 65 f5 c0 3d 5c 37 5a 3f 28 6e 89 3a
       -0.11074766 0.09421805 0.8524072 0.00104851
000080 cc 35 23 be 8b 75 d7 3e 59 73 71 3f c5 50 04 bf
       -0.1593849 0.42081866 0.9431663 -0.51685745
000090 a4 25 72 3e 36 49 12 3f de d8 07 ba 29 d8 58 bf
       0.23647171 0.5714296 -0.0005182157 -0.84704834
0000a0 86 fb b4 bf 49 96 21 bf 9a 04 93 bf f7 45 87 3f
       -1.4139259 -0.6311994 -1.1485779 1.0568227
0000b0 4f cb 06 3f 79 3f 30 3f 10 89 a8 3f 83 61 06 3e
       0.52653974 0.6884685 1.3166828 0.13123135
0000c0 d7 6b 5e bf 15 ac 98 3e 9e e7 50 bf b3 76 2b be
       -0.868833 0.29818788 -0.8160342 -0.16744499
0000d0 b0 44 cc be 44 60 64 3f 1e da c2 bf 2d 38 fb bd
       -0.39896154 0.8920939 -1.5222814 -0.12266574
0000e0 95 74 16 3e 5c 73 97 3e 8c c2 b1 be 76 d2 37 40
       0.1469291 0.295802 -0.3471874 2.8722205
0000f0 4e 07 16 be 67 c1 01 be 8f d0 ca 3f 48 24 e6 3e
       -0.14651224 -0.12671433 1.5844897 0.44949555
000100 b7 f9 f7 3d a1 be 8c bf 2b 07 e2 bc f4 28 75 bf
       0.12108176 -1.0995675 -0.027591309 -0.95765615
000110 d4 c3 85 3d d8 43 25 3e 6b 6d e6 bd 72 0a 8d 3e
       0.06531492 0.16139162 -0.112513386 0.27547032
000120 23 fe b8 bf 85 17 58 3e fd 39 ef be 36 88 74 be
       -1.4452556 0.21102722 -0.4672393 -0.23880085
000130 86 f0 0c bf fd 67 15 40 fd 5f 09 bf 9c 8e 23 bf
       -0.5505451 2.334472 -0.5366209 -0.6388948
000140 75 59 3c bf ca a7 81 3f 5f 6b 91 3e e3 d7 b8 3e
       -0.73574 1.012933 0.2840223 0.36102208
000150 e8 3b 11 bf 98 32 74 bf cb d3 7c bf d0 0e f2 be
       -0.56732035 -0.953897 -0.9876067 -0.47276926
000160 87 a7 1f bf ee 5e 2f 3f 45 b3 9f 3e 86 32 2a c0
       -0.62365 0.68504226 0.3119146 -2.6593337
000170 ca 0e cd 3e a8 ce 72 3f 2d da 10 3d 14 42 d3 be
       0.40050346 0.9484658 0.03536432 -0.4126135
000180 4c 72 10 c0 21 e3 36 bf 85 ba e2 3f f2 9a af 3e
       -2.2569761 -0.7144032 1.7713171 0.342979
000190 ff d0 20 3f 92 eb 51 3f ad 17 74 bf 4e 33 49 bf
       0.628189 0.82000077 -0.95348626 -0.7859391
0001a0 71 00 7d be 07 3b 8e 3e 7d fe b3 bf 35 56 a6 be
       -0.247072 0.2777941 -1.4062039 -0.32487646
0001b0 80 f5 21 bf 1c 8e a0 bf e1 e1 7c 3e f9 54 64 bf
       -0.6326523 -1.2543368 0.24695541 -0.8919216
0001c0 e6 4e 90 3f 49 84 8d be 3b 38 70 bf 57 8e dd bf
       1.1274078 -0.27639988 -0.938358 -1.7309064
0001d0 95 98 f6 3e e9 6c e4 bf 31 e3 60 3f e1 35 dc 3e
       0.48163286 -1.7845737 0.87846667 0.43009856
0001e0 bc 72 86 3f a1 8d 92 be 87 fd bc 3d 5f 0c 22 3f
       1.0503764 -0.2862368 0.09228044 0.63300127
0001f0 3c be 65 bf d0 98 a8 be 23 0d f4 bc a0 be da bd
       -0.897434 -0.32929087 -0.02979142 -0.1068089
000200 e9 91 7d be ae 57 38 bf c8 db 95 be 1a f4 76 be
       -0.24762692 -0.7200879 -0.29269242 -0.24116555
000210 13 dc cc 3e e8 4e 98 3d 27 87 b3 3e 67 17 3d 3f
       0.40011653 0.07436925 0.3506405 0.73863834
000220 2a b3 74 3f 22 27 41 3f 45 5d 7f 3e b5 7e 75 3d
       0.9558588 0.75450337 0.24937923 0.05993529
000230 ac 81 ca 3f b6 7f 45 3e e8 71 6b be 15 d9 87 3e
       1.5820823 0.19286999 -0.2299267 0.26532808
000240 77 7a 1e bf c0 af 60 3f 22 8c cf be 41 5a e2 3d
       -0.61905617 0.87768173 -0.405366 0.11052371
000250 41 69 8c bf 24 3d 22 3d 26 c2 ac 3f d8 d8 98 bf
       -1.0969621 0.03960909 1.3496749 -1.1941175
000260 c3 40 06 bf d5 5b 9e bf e0 b7 ae be 25 05 ea bd
       -0.5244257 -1.2371775 -0.3412466 -0.114267625
000270 9b 2d 40 be 7f 6f a7 bf 04 64 c6 bf 95 ca ae bf
       -0.18767397 -1.3080901 -1.5499272 -1.3655573
000280 77 a4 74 3f c8 dc 59 3e 79 9f 14 3f 55 71 e2 3d
       0.95563453 0.21275628 0.58055836 0.110567726
000290 64 2c 6f 3f d5 2a 7e bf f8 54 dd 3e 65 25 8f 3f
       0.9342711 -0.99284106 0.4322889 1.1183287
0002a0 cb ff cb bf 4f ec b7 3e 19 30 46 be fe a5 17 3f
       -1.5937437 0.35922477 -0.19354285 0.5923766
0002b0 bd 21 71 3f 0c c6 cd bf bb 9c 85 bd 6e b6 c1 bf
       0.94192106 -1.6076064 -0.065240346 -1.5133798
0002c0 f5 36 ba bf 2d bf 93 bf 6b 82 0c 3f 5b de c5 be
       -1.4548022 -1.1542717 0.548865 -0.38646206
0002d0 e9 45 29 bf b7 19 1f 40 2b 25 57 3f 10 4c 1d 3e
       -0.661223 2.4859445 0.8404109 0.15361047
0002e0 24 99 95 be f7 a0 1b bc e0 04 38 3f e1 e8 0f 40
       -0.292184 -0.009498826 0.7188244 2.2485888
0002f0 0e 77 0b bc 7c 28 3a 3f 06 2b 44 3e af 55 b4 bf
       -0.008512272 0.72718024 0.19157037 -1.4088649
000300 62 2d 67 3e 9d ba 94 bf a8 44 a6 3f 6b d5 51 bf
       0.22575906 -1.161945 1.2989702 -0.81966275
000310 9b 28 28 bf 04 bb 69 be 28 94 8d 3f 06 1b 19 bf
       -0.6568696 -0.22825247 1.1060839 -0.5980686
000320 94 10 26 bf b8 87 9b 3f be ea 17 bf 48 a6 d3 3e
       -0.64869046 1.2150793 -0.59342563 0.413378
000330 9e ca 8f be 06 a4 74 be 91 09 d8 be 41 4f cd be
       -0.28084272 -0.23890695 -0.421948 -0.40099528
000340 e5 23 a4 3e 39 99 a8 3d a2 57 83 3f 58 40 18 3d
       0.32058635 0.0823235 1.0261118 0.037170738
000350 f1 f5 12 bf ba 61 c6 3f ba 24 8b bd d0 0f 0d 3f
       -0.57406527 1.5498574 -0.067941144 0.5510225
000360 49 a2 b0 3f 3b 07 98 bf 5e de 68 ba b6 6e 6f 3e
       1.3799525 -1.1877207 -0.0008883233 0.23382077
000370 63 6b 35 be a4 3d 06 c0 75 e1 56 be 9e 65 63 bf
       -0.17716746 -2.0975122 -0.20984443 -0.8882693
000380 7f d9 2b be b8 cb 71 3e 31 85 07 bf c2 86 b6 be
       -0.16782187 0.23612869 -0.5293761 -0.35649687
000390 a4 70 6f bf 85 fe 0e 3f e0 74 39 3f 7d 56 d6 3e
       -0.9353125 0.55857116 0.7244396 0.4186286
0003a0 b9 a6 31 bf a9 2c e8 3f 11 7d 73 bf 4a 00 13 bf
       -0.69395024 1.8138629 -0.9511271 -0.57422316
0003b0 2d 61 af bf 12 95 e1 3f 8b fb 1c 3f a0 7d 15 3e
       -1.3701531 1.7623618 0.61321324 0.14598703
0003c0 9b 81 f8 3f 22 2a d7 bf ef 49 d0 be 17 90 92 be
       1.9414552 -1.6809733 -0.40681407 -0.28625557
0003d0 ba 53 53 3f 2c ec ec 3f 5c 12 99 bf 74 1f 56 3f
       0.8254963 1.8509574 -1.1958728 0.83641744
0003e0 48 25 3f bf 47 12 ce be 57 73 ea be 9c a8 6f 3e
       -0.7466626 -0.4024832 -0.45791122 0.23404163
0003f0 8b a0 f6 bf be e2 fe 3e 1c 46 e7 bf db 61 8c bf
       -1.9267744 0.49782366 -1.8068271 -1.0967363

cls_token_pixel f4 [1, 1, 32]
000000 92 39 16 3e 86 3d 6c bf 9c ee 89 3f 1c da 41 3f
       0.14670399 -0.9228138 1.0775943 0.75723433
000010 06 47 ad be 76 d6 57 bd 4e 72 c5 3f d6 1d a0 3e
       -0.3384325 -0.05269476 1.5425508 0.31272763
000020 4a ea 6c bd fe b9 85 3f c4 0e 17 bd b8 23 c6 bf
       -0.057840623 1.0447385 -0.036879316 -1.547965
000030 95 82 3d 3f f5 2f 7b bf 27 6d 26 3f a2 5f bf 3d
       0.7402738 -0.9812005 0.65010303 0.093444124
000040 9b 93 e7 bf 38 91 45 bf e7 18 1e bf f5 da 16 3f
       -1.8091921 -0.7717471 -0.6175675 0.5892785
000050 36 7e bd bf 47 d6 8c bf 20 54 d1 3e 4c ce 68 be
       -1.4804142 -1.1002892 0.40884495 -0.22734946
000060 6f a5 3f 3f cd 40 84 3f 92 a7 c4 be a6 4a f4 3d
       0.74861807 1.0332276 -0.38409096 0.119283006
000070 db e6 2e bf 9f 5e a7 3f 86 d4 99 3d 56 4f 8b bf
       -0.6832101 1.3075751 0.07511239 -1.0883586

pixel_patch_embedding.weight f4 [32, 30]
000000 48 1a 02 3e bf 08 d5 bd 74 8f d9 3d c2 fb 1a 3e
       0.12705338 -0.10402059 0.10623065 0.151351
000010 00 0d 4a 3a 96 28 10 be 80 43 f6 3a f4 20 7b bd
       0.00077076256 -0.14077982 0.0018788427 -0.061310723
000020 48 f0 e2 3d 98 7e d0 3d 75 90 29 be 5a c2 34 3e
       0.11080986 0.10180396 -0.16559012 0.17652264
000030 a0 b1 14 3e b4 33 12 be f7 0f 39 be 30 b2 02 3e
       0.14520884 -0.14277536 -0.18072496 0.12763286
000040 be ce 07 3e 34 5c 32 3d 60 84 bf bc 29 15 32 be
       0.1326246 0.043544963 -0.023378551 -0.17390884
000050 ca ed 7a bd 74 31 ed 3d 10 31 76 3d 32 c2 1f be
       -0.06126193 0.11581698 0.060105383 -0.15601423
000060 95 eb c3 bd 5c 72 bf 3d 48 51 86 3c 8b 4c c2 bd
       -0.09566418 0.09347984 0.01639618 -0.09487256
000070 de 0e 28 3e 97 c1 a0 bd 5e c9 0a be 00 b1 3f 3c
       0.16411921 -0.07849424 -0.13553378 0.011699915
000080 26 37 9e bd 21 10 01 be 80 ce 29 bb e9 cb f3 bd
       -0.077253625 -0.12603809 -0.0025910437 -0.11904127
000090 b4 6a b2 3d 12 c4 90 bd a4 ba 30 3e ea e0 26 be
       0.08711758 -0.070686474 0.17258698 -0.16296735
0000a0 8e 30 f4 bd 48 94 bc 3d 40 ae 37 bc 20 0d ed bb
       -0.119233236 0.0920797 -0.011210978 -0.0072342306
0000b0 28 fb 01 3e d8 1e b1 3d f7 35 05 be a4 8e 2c 3d
       0.12693465 0.08648461 -0.13008867 0.04212822
0000c0 5a ca d1 bd 30 22 58 bc 1f 0b a4 bd 4d 03 02 be
       -0.102436736 -0.013191745 -0.08009934 -0.12696572
0000d0 74 19 cd 3d 96 24 19 3e 1c 29 ba bd 78 ab 97 bc
       0.100146204 0.14955363 -0.09089872 -0.01851438
0000e0 48 2a 9b 3d d2 60 2d 3e 8c 66 0f be 90 39 89 3c
       0.07576424 0.16931465 -0.14003962 0.01675108
0000f0 22 a5 eb bd b0 3c 70 3d f8 05 c0 bc 78 6b 8e 3d
       -0.11506106 0.058651626 -0.023440346 0.06954092
000100 6a 66 1c be 34 26 b4 bd cf ae bc bd 5a 81 2d 3e
       -0.15273443 -0.08796349 -0.092130296 0.16943875
000110 d8 19 2c be 80 62 b4 bb d0 71 3a bc fc db a0 3d
       -0.16806734 -0.005504906 -0.011379674 0.07854459
000120 2c cc 66 3d 30 a0 0f 3d e7 3d fd bd 50 a0 86 bc
       0.056347057 0.035064876 -0.123653226 -0.016433865
000130 00 e2 ae b9 74 06 4a bd 77 b9 b9 bd 8c 4f 05 3e
       -0.0003335625 -0.04932256 -0.09068578 0.13018626
000140 a0 f9 a1 bc 9c 60 00 3e c0 46 4b 3b 00 90 f5 bc
       -0.01977235 0.12536854 0.0031017512 -0.029975891
000150 0d ed b8 bd 64 71 56 bd 56 a5 d8 bd f4 04 16 be
       -0.09029589 -0.05235423 -0.1057841 -0.14650327
000160 24 fb 0f 3e b6 b6 08 3e fc de e7 3d 74 04 fa 3d
       0.14060646 0.13350949 0.11321828 0.122078806
000170 72 5c 35 3e 0a 4b ed bd 86 b6 79 bd 30 5a 38 be
       0.17711046 -0.11586578 -0.060965084 -0.18003154
000180 02 a3 c6 bd 30 ce 72 bc 77 d8 21 be 04 0f ee 3d
       -0.0969906 -0.014819667 -0.15805231 0.11623958
000190 c0 9d 26 bb 00 aa 8c 3d b7 a7 fd bd eb 8a bb bd
       -0.0025423616 0.068683624 -0.12385505 -0.09157356
0001a0 2b 5b d5 bd d8 94 27 3e 0c 66 19 bd 98 62 ed bc
       -0.104177795 0.16365373 -0.037450835 -0.028977677
0001b0 92 94 de bd d1 84 e7 bd d4 1c 51 bd b0 60 1f 3e
       -0.10868181 -0.113046296 -0.051052883 0.15564227
0001c0 6a 4e 06 be 20 0b 39 3c 80 7a cd 3b 5c 7a 21 3e
       -0.1311585 0.011294156 0.0062707067 0.15769333
0001d0 f2 1f 7f bd 9e ac 1b be e3 1d ed bd 1f b0 b9 bd
       -0.062286325 -0.15202567 -0.11577966 -0.090667956
0001e0 a4 54 10 3e e0 87 ea 3d 40 80 c6 3b 9c 04 1d 3d
       0.14094788 0.11451697 0.006057769 0.038334474
0001f0 1f 77 00 be 7e ba 27 3e c8 41 f2 3d 58 7d 15 be
       -0.12545441 0.16379735 0.11828953 -0.14598596
000200 09 f9 ea bd 4c 25 b0 3d 60 c9 23 be d0 a7 5d 3d
       -0.11473281 0.08600864 -0.15994787 0.054115117
000210 66 07 dc bd f0 e8 b8 3d e4 08 3d bd 5e 41 b5 bd
       -0.10743599 0.09028804 -0.046151057 -0.088503584
000220 18 ad 9c bc 12 88 f8 bd b8 a1 c8 3d a8 aa 37 3d
       -0.019125506 -0.12135328 0.097964704 0.044840485
000230 4e ab 36 3e 68 d0 17 3e 48 da be bc 44 02 0f 3e
       0.17838785 0.14825594 -0.023297444 0.13965708
000240 70 19 f5 3c 14 e1 17 be 18 73 3b bd 28 75 ef bc
       0.029919356 -0.14831954 -0.04576406 -0.02923067
000250 f9 df f7 bd 88 f5 80 bd 80 79 08 bb 20 16 56 bd
       -0.12103266 -0.06296831 -0.0020824373 -0.052267194
000260 08 a4 43 bd 9d 64 b5 bd 64 85 fd bd 30 55 1f bd
       -0.047763854 -0.08857081 -0.12378958 -0.0388996
000270 0e b1 84 3d 36 36 ba bd 00 e1 ed 3d 4c c1 aa 3d
       0.06479083 -0.09092371 0.11615181 0.0833765
000280 00 03 77 3b 00 be bc 3a 58 93 d4 bc d0 08 46 3d
       0.0037690997 0.0014399886 -0.025949165 0.048348248
000290 61 33 d6 bd 48 5b 11 3d 38 5d 00 be 58 3b 22 3e
       -0.104590185 0.035487443 -0.1253556 0.1584295
0002a0 a0 67 4a 3d d4 b5 15 3d 57 f1 0d be ec 67 96 3d
       0.04941523 0.036550358 -0.13861595 0.0734404
0002b0 cc 4b 15 3e e4 54 d2 bd ca 8b ce bd 70 f2 66 bc
       0.14579695 -0.10270098 -0.100852564 -0.014095888
0002c0 c8 8f c9 3d 00 41 c3 bb 64 42 16 3e e0 d0 1b 3e
       0.09841877 -0.0059586763 0.14673764 0.15216398
0002d0 84 49 35 3e 44 67 a5 3d 5c b7 01 3e 68 a3 51 3d
       0.17703825 0.08076337 0.12667602 0.051181227
0002e0 70 55 2e 3e 10 da 0e bc 1a 75 db bd 2b 19 21 be
       0.1702478 -0.008718982 -0.10715695 -0.15732257
0002f0 f0 9a 60 3d 5e 0f d3 bd ca 2d c1 bd b4 19 45 3d
       0.05483526 -0.103056654 -0.09432562 0.048120216
000300 c0 6a c1 3c 2c 92 33 bd 1e 73 1f 3e 48 5e ca bc
       0.023610473 -0.043840572 0.15571257 -0.02470316
000310 e4 49 c4 3d 3a d4 9a bd 94 22 1e bd 16 27 09 3e
       0.09584406 -0.0756001 -0.038607195 0.13393816
000320 a8 b9 ec bc b7 ce 14 be 38 7e d6 3d 30 a8 d8 bd
       -0.028897122 -0.1453198 0.10473293 -0.10578954
000330 f4 ae fd 3d 48 1e f4 3d 00 f1 36 be 20 e6 35 3e
       0.12386885 0.11919838 -0.17865372 0.17763567
000340 24 0e 1e bd 6b 90 91 bd 40 10 1a 3d 8c 43 77 3d
       -0.038587704 -0.07107624 0.037613153 0.060367152
000350 d0 62 22 3d a8 af 4a 3d be c4 f9 bd 8a 94 17 3e
       0.039645016 0.049483925 -0.12195729 0.14802757
000360 99 98 0b be c0 c3 ce 3b d2 4a 85 3d b2 68 3a 3e
       -0.1363243 0.0063099563 0.065084115 0.18204
000370 0c 41 ad 3d a0 94 4b 3d 8c dd fb 3d 34 9d c0 bd
       0.08459672 0.049702287 0.12298116 -0.09404984
000380 a8 25 23 3e ca ac e3 bd d2 21 f7 bd 00 d5 57 ba
       0.15932333 -0.11116941 -0.120669976 -0.00082333386
000390 60 e6 8e 3b 70 41 bc bc f0 f6 e5 3d 80 68 bf 3d
       0.004360959 -0.022980422 0.1122874 0.09346104
0003a0 f6 0e a6 bd 10 bb 1d 3e 72 b6 fc bd 50 bf d3 bc
       -0.08108322 0.1540339 -0.12339486 -0.02584806
0003b0 d0 a4 d0 3d 9c 88 fc 3d 7c 7c d3 3d 5d f6 05 be
       0.101876855 0.12330744 0.10326478 -0.13082261
0003c0 ca 49 7d bd 70 18 84 3c a1 85 f5 bd a4 53 26 3e
       -0.06183795 0.016124934 -0.11988378 0.16242844
0003d0 b9 60 e6 bd 34 8f 8a 3d ba a8 cb bd c8 a1 0d 3e
       -0.11248917 0.06765595 -0.099442914 0.13831246
0003e0 b4 d2 21 3d 22 64 27 3e a8 96 b7 3d 40 48 14 3e
       0.039507583 0.16346791 0.08964282 0.14480686
0003f0 56 a6 36 3e b3 47 fc bd ae 53 00 be a6 0a 91 bd
       0.1783689 -0.12318363 -0.12531921 -0.07082109

pixel_patch_embedding.bias f4 [32]
000000 be f3 c4 bd cc db 83 3d f8 be ba bc 69 1b ad bd
       -0.09616803 0.06438407 -0.02279614 -0.08452494
000010 d0 b7 08 bd 5d 48 bd bd 0e 85 32 3e 60 80 0c bc
       -0.033378422 -0.09242318 0.17433569 -0.008575529
000020 54 79 9f 3d 54 76 68 3d 98 b8 f6 3c 24 ef 2b 3e
       0.077868134 0.05675347 0.030117318 0.16790444
000030 cf be 21 be 9c 59 d0 3d c8 6a a6 bc 8f a8 18 be
       -0.15795444 0.10173342 -0.02031459 -0.1490805
000040 64 c5 5e 3d b3 fc 20 be 8c a3 bc 3d 6c 2c c3 3d
       0.054387465 -0.15721397 0.092108816 0.09529957
000050 18 bf 95 3c f0 ad 06 3c 68 30 16 be ba 3b 98 bd
       0.018279597 0.008220181 -0.14666903 -0.07433267
000060 6c 7a 0d be b6 e6 22 3e 14 8e 35 3e 1a 38 8b bd
       -0.13816231 0.15908322 0.1772998 -0.0679781
000070 b0 fb 96 3d ca af 0e 3e e4 3f 3a 3d 8e 43 31 3e
       0.07372224 0.13934246 0.045471087 0.17310926

local_trans_pixel.layers.0.0.fn.norm.weight f4 [32]
000000 d9 77 8d 3f 13 c3 86 3f 2e bc 87 3f 95 b8 8d 3f
       1.10522 1.0528282 1.0604303 1.1071955
000010 8b 2d 8d 3f f6 68 8e 3f 98 ec 8b 3f 73 2f 90 3f
       1.1029524 1.1125782 1.0931578 1.126448
000020 dd cd 8b 3f 72 53 8b 3f b4 99 8d 3f 0f 96 90 3f
       1.09222 1.088484 1.1062531 1.1295794
000030 af 05 8b 3f f6 8d 8d 3f cc 25 8a 3f 65 c9 87 3f
       1.086111 1.1058948 1.0792785 1.0608336
000040 83 0b 8a 3f 76 4a 8c 3f 17 6f 8d 3f 3d 8c 88 3f
       1.0784763 1.0960224 1.1049527 1.0667797
000050 9a f0 8a 3f 5c b4 89 3f cb 8d 87 3f 76 c4 8b 3f
       1.0854676 1.0758166 1.0590147 1.091933
000060 02 9a 89 3f 0a b8 8b 3f 2c 8f 8d 3f 38 86 88 3f
       1.0750124 1.0915539 1.1059318 1.066596
000070 03 9a 8b 3f cf 7f 89 3f 5f 48 8c 3f 0c b9 89 3f
       1.0906376 1.0742129 1.0959586 1.0759597

local_trans_pixel.layers.0.0.fn.norm.bias f4 [32]
000000 e6 2a aa 3c bd da ae bc f0 82 11 3d e1 7e d9 3c
       0.020772409 -0.021344537 0.035525262 0.026549758
000010 4b e3 24 3c 56 c9 18 3b b0 d1 6a 3c 08 69 ec 3b
       0.0100639565 0.0023313365 0.01433222 0.007214669
000020 3e 5b d0 bb 96 19 8f 3c b0 14 01 3c 3d 83 92 bb
       -0.006358533 0.017468255 0.007878467 -0.004471211
000030 f3 6e 04 3c 46 e6 bf bc de a8 1c bd 00 df 14 3d
       0.008083093 -0.023425233 -0.03824698 0.036345482
000040 ef 08 29 bd db b8 5e bd 15 72 f6 bc 10 2a d4 bb
       -0.041268285 -0.05437551 -0.030083695 -0.006474741
000050 c0 81 0a 3c e6 44 9e bc 92 b1 09 bc f2 95 2e 3c
       0.008453786 -0.019319963 -0.0084041525 0.010655867
000060 65 68 f3 3a 5d 57 7c bd ca 50 39 bc 00 44 20 bd
       0.0018570541 -0.061606754 -0.0113107655 -0.03912735
000070 5f bf f8 3b 4b 98 54 3c 2c ad f1 3c b8 59 3a bd
       0.0075911726 0.012975763 0.02950152 -0.04549572

local_trans_pixel.layers.0.0.fn.fn.to_qkv.weight f4 [768, 32]
000000 1c 6f 98 3d dc 61 03 3e c7 fd 7e bc d7 85 d2 bd
       0.074430674 0.12830299 -0.015563435 -0.10279434
000010 d9 5e 81 bd 79 d4 3c be 6f 8a 66 3c 84 ed 2a 3e
       -0.06316919 -0.18440427 0.014071091 0.16692168
000020 4c 30 e4 bd 0b 2d fe 3d 63 60 87 3d ff 32 88 bd
       -0.111420244 0.12410935 0.06610181 -0.06650352
000030 92 51 1c 3e 08 8d 91 3d 4c ca 87 be 98 ae 4e 3e
       0.15265492 0.07106978 -0.26521528 0.2018379
000040 8d 22 74 bd d3 1a 00 3e 52 ba 04 be 16 f6 00 3e
       -0.059603263 0.12510233 -0.129617 0.12593874
000050 96 8b 12 3e a3 4d f2 bd 9a 22 73 bc 76 00 ef ba
       0.1431106 -0.11831214 -0.014839793 -0.001823439
000060 0f 3b 18 be db 32 38 be d5 59 c3 3c bb 63 c6 bc
       -0.14866279 -0.1798815 0.023846546 -0.024217477
000070 32 f0 30 3d e6 c9 7a 3d bb 87 36 ba fe 84 2d be
       0.043197818 0.0612277 -0.00069629744 -0.16945264
000080 11 52 1c be f7 6c 1a bd 91 39 12 3e a4 7e 62 3e
       -0.15265681 -0.037701573 0.14279772 0.22118622
000090 a4 af 3a 3e 8e a9 73 bd ee 15 64 3c 3b 1f 88 bd
       0.18231064 -0.05948787 0.013921244 -0.06646582
0000a0 c9 c3 89 3d 62 06 8f 3c 43 e5 3c 3d 3c e0 0c bd
       0.06726796 0.017459098 0.04611708 -0.034393534
0000b0 45 44 49 be 60 0d 80 be 64 80 11 3e 18 b8 77 bd
       -0.19654949 -0.25010204 0.14209133 -0.0604783
0000c0 df c5 71 be 9e 15 1b bd 11 70 ba bd 45 be d7 bc
       -0.23610638 -0.037862413 -0.09103406 -0.026335845
0000d0 8a bd bf 3c 90 92 75 3c 60 68 5b 3e a0 11 c4 bc
       0.023405809 0.0149885565 0.21426535 -0.023934186
0000e0 6d 10 3c 3e 1f 5f 38 bd ef 71 14 be 1e b3 07 3e
       0.18365641 -0.04501259 -0.14496587 0.13251922
0000f0 72 9d 3f bd 71 f6 44 3d cf 91 a0 3d 76 8e 71 be
       -0.04678101 0.048086587 0.07840311 -0.23589501
000100 7e 83 c0 bc 3a e8 52 3d f7 39 29 3e df f0 13 3c
       -0.0235002 0.051491 0.16526018 0.009029596
000110 2e b3 1f 3e 7e 62 38 be 6f 45 55 3d 55 6b 9c bd
       0.15595695 -0.18006322 0.05206817 -0.076376595
000120 f0 7f e2 3d 51 32 31 bd 2a e7 2a bc 8e 72 58 be
       0.110595584 -0.043260876 -0.01043109 -0.21137449
000130 7d 6a 5b 3d 9c e5 33 bc db 04 bc bd 45 53 92 3d
       0.053568352 -0.010980036 -0.091806136 0.07144789
000140 0d f7 89 be 52 19 dc bd 7d 05 9c bd 43 04 4d 3e
       -0.26946297 -0.10747017 -0.07618234 0.20021157
000150 35 21 b8 bd bb 90 2c be a8 c6 af bd e2 9c 2b 3e
       -0.08990709 -0.16852085 -0.085828125 0.16759065
000160 ee 7c 1c 3b 7a 39 19 be c8 79 2a be 41 db e9 3d
       0.0023878175 -0.14963332 -0.16648018 0.114187725
000170 e0 c1 7a be 0c 0c b2 bd 2d fa 36 3e 14 df f0 bd
       -0.2448802 -0.08693704 0.17868872 -0.11761299
000180 af 49 3d be 1a 37 73 bd bc 32 0c be b3 24 a9 bc
       -0.1848514 -0.05937872 -0.13691229 -0.020647382
000190 d3 70 be 3c f3 8e de 3c fb 20 34 3e 85 9b 40 3d
       0.023247158 0.027167773 0.17590706 0.047023315
0001a0 42 f9 ed 3c d8 9b 2f 3e 6d 7a 2c 3e e5 82 84 3d
       0.02904952 0.17149293 0.16843577 0.06470279
0001b0 b4 e3 4e be 8c e8 00 3e 1a 0f 8a bd aa 3d 59 3d
       -0.2020405 0.1258871 -0.06741162 0.053037323
0001c0 b8 d7 84 be 42 c4 12 be 44 09 11 be 7c e8 ca bc
       -0.2594583 -0.14332679 -0.14163691 -0.02476906
0001d0 1f db a6 bd de 68 bf bd a3 1f 13 3e 2c bd 7b 3e
       -0.08147263 -0.09346174 0.14367537 0.24583882
0001e0 b0 5f 1d 3e a6 33 33 be 65 8c eb bd 69 13 07 3e
       0.15368533 -0.17500171 -0.115013875 0.13190998
0001f0 17 ef 11 3e fb cc 06 3e fa e3 54 3d ec f8 a0 bd
       0.14251362 0.13164131 0.051975228 -0.07859978
000200 04 37 38 be 0a d9 08 be db c4 06 be 11 93 c1 bb
       -0.17989737 -0.13364044 -0.13161032 -0.0059074243
000210 4a 86 1e be 1f 68 d3 3d a6 59 c6 bc 74 62 e2 3d
       -0.15480915 0.10322594 -0.02421267 0.11053935
000220 2f b5 c6 3c a1 07 a3 3d fc d0 56 3e fb 99 ac 3d
       0.024256317 0.079604395 0.20978159 0.08427807
000230 64 2d 9c 3d 2c b8 b7 3d fa 85 cd 3d 0e 8f 3c be
       0.07625845 0.08970675 0.100353196 -0.18413946
000240 d2 36 aa bd 4e 77 33 be 83 94 f6 3d 2f 77 a6 3d
       -0.083112374 -0.1752598 0.12040045 0.08128201
000250 6f b7 d6 3d 0e 7a 47 3d a2 ce 26 3e 66 35 1c bd
       0.10484206 0.048700385 0.16289762 -0.038136862
000260 13 27 86 3e 4f 4a 45 bd ac 25 d5 3d 34 30 09 3d
       0.26201686 -0.04816657 0.10407576 0.033493236
000270 99 f6 e4 3c 5f 09 c5 bb 1b fa 36 3e 21 33 a6 3d
       0.027949618 -0.00601308 0.17868845 0.08115221
000280 fc 86 7e be 8d 83 3d be eb 8a c3 3d 50 6b 8a 3c
       -0.2485618 -0.18507214 0.09547981 0.016896874
000290 b8 f3 56 bc 46 e5 7b 3d 01 91 d5 3d 05 df 88 3e
       -0.0131196305 0.06149795 0.10428048 0.2673265
0002a0 6c 67 bc 3d b5 f1 cf 3c 86 46 2c 3e 84 97 59 be
       0.09199414 0.02538381 0.16823778 -0.21249205
0002b0 fb ed 31 bc ec c5 a9 bd 98 f9 ba 3d 24 18 fd 3c
       -0.010859962 -0.08289704 0.091296375 0.0308953
0002c0 b8 28 81 bd ad 54 2e be 7f 8e 34 bd 0a 51 39 3d
       -0.063065946 -0.17024489 -0.044081207 0.0452433
0002d0 e1 18 86 be 72 63 1d be a2 b0 4b 3e 54 7b 63 3d
       -0.26190856 -0.15369967 0.19891599 0.055537537
0002e0 1d f8 0d be 90 47 1d be 00 b0 27 3d c5 32 08 3d
       -0.13864179 -0.1535933 0.04093933 0.033251543
0002f0 0c 06 23 be d3 69 98 3d f2 7c 8d 3d 16 47 10 3d
       -0.15920275 0.07442059 0.06908597 0.035224043
000300 3a 51 3b be 50 70 8c bd 3f 8b 58 3e 42 a4 9f 3d
       -0.18292704 -0.068573594 0.21146868 0.077950016
000310 ed 84 6a 3e 45 f0 ba bc 8b 17 24 bc 95 29 9f bb
       0.2290227 -0.022819648 -0.010015379 -0.004857252
000320 3b ca 0a 3e 85 ee c0 bd 5a 47 84 bd 70 d9 1b be
       0.13553707 -0.09420494 -0.06458922 -0.15219665
000330 ce 7e d2 bc 0d 39 8b bd 49 07 08 be ee 79 1e be
       -0.02569523 -0.06797991 -0.13284029 -0.154762
000340 84 a1 02 3d e2 4c e8 bb 4e 48 0c 3d 62 83 e4 3d
       0.031892315 -0.0070892433 0.034248643 0.11157872
000350 83 42 26 3d ad 36 52 bd db 69 a1 3c 97 ca 74 3d
       0.040590774 -0.051321674 0.019703796 0.059763517
000360 4b d0 ba bd 66 8d 2a 3d 12 90 2e be 22 e9 b6 bd
       -0.0912176 0.041638754 -0.17047146 -0.08931185
000370 e7 6f 91 3d 17 6e af bc ca e3 87 3d 9f 6b 4d bd
       0.07101422 -0.0214148 0.06635244 -0.050151464
000380 e1 9c a8 bd cf 28 31 be 06 b7 54 3e 7f 60 3a be
       -0.08233047 -0.17300723 0.20772943 -0.18200873
000390 56 c0 ea bb 93 86 7f be 4d d2 28 be d7 e3 fa bc
       -0.0071640415 -0.2495368 -0.16486473 -0.03062622
0003a0 23 6f 0d bd 17 62 ca 3d 50 17 2d be 2b 94 b4 bd
       -0.034529816 0.098819904 -0.16903424 -0.08817323
0003b0 be 2a 5d 3d 94 e4 a9 bd 1b 1c 39 be 25 c6 0c 3d
       0.05399584 -0.08295551 -0.18077128 0.034368653
0003c0 eb d1 cd bd 6d de 21 3e ac 7a 2d be 9d 6c 56 be
       -0.10049804 0.15807505 -0.16941327 -0.2093987
0003d0 e5 7e da bd 7d 52 15 3e 66 8d 39 3e 3a 2e 4a 3d
       -0.106687345 0.14582248 0.18120345 0.04936049
0003e0 9d ef 8b bd 31 7a 63 bd c2 f7 b2 3d 1c 45 8d bd
       -0.06832812 -0.055536453 0.08738662 -0.06897947
0003f0 22 66 3f 3e d5 95 ad bd 95 c8 18 3b 7d 69 2e 3e
       0.18691304 -0.08475844 0.0023312916 0.17032428

local_trans_pixel.layers.0.0.fn.fn.to_out.0.weight f4 [32, 256]
000000 56 10 b1 bc b8 97 a9 bd 87 c7 9b 3d 57 26 37 3b
       -0.021614235 -0.08280891 0.07606416 0.0027946436
000010 af 04 08 bd 84 06 a9 bc 12 a2 cb bc 6c 47 c7 bd
       -0.03320759 -0.02063299 -0.024857555 -0.097304195
000020 7c e1 96 3d 77 59 cf bb b2 25 95 bc a1 e1 0d 3c
       0.073672265 -0.0063278037 -0.018206451 0.008659751
000030 d1 5f 6e bc 9c 40 9c 3d 99 3f da 3d 94 a4 9b ba
       -0.014549212 0.07629511 0.106566615 -0.001187461
000040 b5 7e 63 3d c7 16 55 3d 38 dc 84 3b 06 ab a0 3d
       0.05554076 0.052023675 0.0040545724 0.0784512
000050 42 23 66 3d e2 04 31 3d fd 85 5e 3c b9 f2 a2 bd
       0.05618597 0.043217547 0.01358175 -0.07956452
000060 d1 93 d3 bb ea ee ac 3c f9 7d 26 3b 66 74 ab 3d
       -0.00645683 0.021110017 0.0025404675 0.083718106
000070 6d 99 2f 3d 03 d0 91 3c 9e 2a 13 bb c0 37 fa 3c
       0.042870928 0.017799383 -0.0022455822 0.030544162
000080 bd 1c c0 3c 71 f9 26 bc 4b fc ff bd 18 94 54 bd
       0.023451203 -0.010191307 -0.12499293 -0.051899046
000090 80 c6 91 3d d9 ac c4 bd f4 54 ac 3d b9 bd fc bc
       0.07117939 -0.096032806 0.08414641 -0.030852186
0000a0 7d 02 5a bc 86 94 85 3d 11 33 1a 3d bf 7f 9b 3d
       -0.013306257 0.06522469 0.037646357 0.07592725
0000b0 2d ed c0 3d f7 db ec bc 45 60 86 3c 56 1c 63 bd
       0.09420238 -0.028913481 0.016403327 -0.055446945
0000c0 3c c8 d1 bd e0 7e 0b bd f4 6f e2 bc 96 3e a5 3d
       -0.1024327 -0.034056544 -0.027641274 0.08068578
0000d0 07 a4 49 bd 2f 41 b2 3d ab a1 f8 3c b2 c1 e1 bc
       -0.049228694 0.08703839 0.030350527 -0.027558181
0000e0 00 97 82 3d 6b ef a3 bd 93 83 24 3d 94 9b f4 bc
       0.06376457 -0.0800465 0.04016454 -0.029859342
0000f0 68 b3 94 3d 4a 38 bb 3d 95 3e 9a bc 80 32 af 3d
       0.072607815 0.09141596 -0.01882867 0.08554554
000100 f1 44 8d bc 29 5a 75 bc 48 7b bf 3b b4 4f e0 3d
       -0.017244788 -0.014975109 0.0058435537 0.10952702
000110 79 b7 8c 38 47 c3 b8 bc c9 25 8e 3d 85 50 e0 bd
       6.709895e-05 -0.022554053 0.06940801 -0.10952858
000120 66 c2 f5 bd fa 8e c5 3b 92 44 cc bc 05 54 ce 3b
       -0.11999969 0.006029007 -0.02493504 0.006296637
000130 5a 65 6e bd 30 fc 16 3b e2 20 b2 bd ba 60 57 bb
       -0.058202125 0.00230385 -0.08697678 -0.003286405
000140 3e bc 76 3d cb a3 77 3d d0 2f 90 bc ee b1 bc bc
       0.060238115 0.06045894 -0.017600924 -0.023034062
000150 7b 01 96 3c 10 c3 12 bc 92 d4 0d bd 82 a1 e9 bc
       0.018311253 -0.008957639 -0.03462655 -0.028519396
000160 3b 29 aa 3d bc fe 8d bd 2e 9e 97 bd d8 9f 88 3d
       0.08308645 -0.06933352 -0.07403217 0.06671113
000170 ab b0 a2 3c 07 fe 08 3e 8a 7c 43 3d 17 0c d3 bc
       0.019859632 0.13378154 0.04772619 -0.0257626
000180 00 05 a9 bd f9 35 e9 bc 70 64 52 3d 76 d4 37 bd
       -0.08252907 -0.028468119 0.051365316 -0.044880353
000190 95 ee 94 3d 42 a6 5c bc 7d ec 92 3c a7 bf f9 3b
       0.072720684 -0.013467373 0.017935032 0.0076217237
0001a0 26 3e 82 bc 7f 32 15 bd 82 a8 8d bd b8 80 8e bd
       -0.015898775 -0.03642511 -0.06916906 -0.06958145
0001b0 28 a5 ad 3c ac 47 d8 bb 80 be b6 3c 3a 50 25 bd
       0.021196917 -0.006600341 0.022307634 -0.040359713
0001c0 1a 1a 71 bc 21 60 5d 3d e7 a4 fb 3b 96 21 c7 bd
       -0.014715696 0.054046754 0.00767957 -0.09723203
0001d0 d9 99 a1 bd 30 ae 45 3d 27 e5 74 bc 1e d0 80 bc
       -0.07890672 0.04826182 -0.014947212 -0.015724238
0001e0 af 3e c4 bc 0f ff cb bb 36 f8 62 bc 0c 42 47 3d
       -0.023955671 -0.0062254737 -0.013853123 0.04864697
0001f0 92 75 23 bd cf ea 96 bd 3f bc 7c bb a0 46 49 3d
       -0.039907046 -0.07369005 -0.0038564352 0.04913962
000200 7d fa d0 3b 79 18 94 bc 69 73 8e bd 3d 1c e8 3d
       0.006377517 -0.018078076 -0.069556065 0.11333511
000210 14 27 9b bd bd d2 04 bd 81 32 11 3d 53 ef e7 bd
       -0.07575813 -0.03242754 0.035448555 -0.11324944
000220 ef c4 db bd a0 cd 23 bd 22 4d 88 3c ef d4 68 bd
       -0.107309215 -0.03999102 0.016638342 -0.056843694
000230 32 50 ab 3d 82 55 74 bd 23 d6 23 bd 2b 7d 34 bc
       0.083649054 -0.05965186 -0.03999914 -0.0110161705
000240 f7 0c b6 bd 7c 25 b9 3c a2 ef 05 bd dd 52 d9 3b
       -0.088891916 0.022600882 -0.032699235 0.0066321925
000250 4d fa 3d bc 3b ed 2a 3d 1e 40 12 bd 92 62 b1 bd
       -0.011595321 0.041730147 -0.03570568 -0.08661379
000260 ce 82 1d bd ee c2 4d 3d 68 90 06 bd d9 2a 0a 3d
       -0.038454823 0.050234728 -0.03285256 0.03373227
000270 14 df 33 bd dd 50 16 3d 59 99 bf bd 17 80 a4 3d
       -0.043913916 0.03669821 -0.093554206 0.08032244
000280 f0 a1 9f bd 50 3d 70 bb 66 eb 9f bc d3 b6 00 bd
       -0.07794559 -0.003665764 -0.019521426 -0.031424355
000290 f4 ae 74 bc a6 d6 8f 3c a2 52 df bc 84 49 0f bd
       -0.01493429 0.017558407 -0.027261082 -0.03498222
0002a0 63 12 20 3c 4c 7a 3a 3d 1c 14 95 bc 35 28 88 bc
       0.009770009 0.045526788 -0.018198065 -0.016620735
0002b0 90 66 74 3d 46 c7 dc 3d 0b f8 c2 b9 e2 da 75 bd
       0.059668124 0.10780196 -0.0003718737 -0.060023196
0002c0 68 8b e3 bc 6b d6 2a 3c f0 13 b6 3b 82 ef 82 3d
       -0.027776435 0.010427098 0.005556576 0.06393339
0002d0 8d b0 83 bd d5 50 4e bd ee 0c 75 3b 53 c6 7e 3d
       -0.06430159 -0.050370056 0.003739174 0.062200855
0002e0 0b 4f c9 bc 28 83 e0 3d 97 e5 f3 bd da ee d7 bc
       -0.024573823 0.10962516 -0.11909025 -0.02635901
0002f0 12 f1 91 bc 68 ca 3f bc e4 de 2d 3d 3b 27 3f bd
       -0.017815147 -0.011705972 0.042448893 -0.046668272
000300 9d 1d 69 3d 2a f1 40 bd b7 df 06 ba a9 c8 fd 3d
       0.056913007 -0.047104992 -0.00051450304 0.123917885
000310 eb c0 c1 3c e6 76 a6 3d a4 ba 62 bd 47 bd 0e 3c
       0.02365156 0.08128147 -0.055353776 0.008712119
000320 e3 65 67 3d 7b 5e 2d bd e0 0c d4 3d bc db 30 3d
       0.05649365 -0.04232643 0.10354018 0.043178305
000330 9f c4 55 bd 2d a0 66 3d 8c 51 ef bb 7a 99 55 bd
       -0.052189466 0.0563051 -0.0073034223 -0.05214832
000340 01 3d d3 bc 07 1a b9 bb e3 28 b2 3d 9c 7e a0 bd
       -0.025785925 -0.0056488547 0.08699205 -0.07836649
000350 93 57 3f 3d d0 55 a4 bd c5 2f a4 3d 33 d7 5c bd
       0.046714377 -0.0802418 0.08016924 -0.053916167
000360 da ae 98 bd a6 82 cd bb 76 17 1b 3c ac 25 50 3d
       -0.07455225 -0.006271678 0.009466043 0.050817177
000370 10 f7 89 3c 51 84 5a bd ff 64 75 bd e7 f4 e4 3d
       0.016841441 -0.053348843 -0.05991077 0.11179524
000380 b2 ab b4 ba ab 2d 59 bd 58 15 45 3d ed 56 57 3d
       -0.0013784079 -0.053022068 0.048116058 0.052573133
000390 0a cc c9 bc ad 7b a1 3d 66 13 41 bc 93 e5 85 3d
       -0.024633426 0.078849174 -0.01178441 0.065379284
0003a0 63 22 61 bc e1 33 b1 3c aa 94 a7 bd 2c 83 fc bd
       -0.013741109 0.021631183 -0.08182652 -0.123297065
0003b0 0d 18 ab bc 93 01 be 3c fd bb 74 3d fd 3c a2 ba
       -0.020885492 0.02319411 0.059749592 -0.0012377795
0003c0 a0 a7 85 3d 91 32 76 3d 3b 47 ec bd e8 b1 02 be
       0.065261126 0.060106818 -0.11537024 -0.12763178
0003d0 61 3c a9 bd 1c 61 42 3d 39 61 32 3d c0 31 33 3c
       -0.082634695 0.047455892 0.04354975 0.010937154
0003e0 c1 4e 81 bb 02 c5 43 bd 9d 4e d6 3d 64 3c 56 bd
       -0.003946156 -0.047795303 0.10464213 -0.052303687
0003f0 3c a2 c5 bd e2 99 3c 3c 0c 3a c8 3d 50 60 9f 3d
       -0.096500844 0.011511298 0.097766966 0.07782042

local_trans_pixel.layers.0.0.fn.fn.to_out.0.bias f4 [32]
000000 89 e7 88 bd 9e 3e f4 bd 81 43 43 3d 7e 35 77 bc
       -0.06684787 -0.11926006 0.0476718 -0.015088437
000010 3b 98 04 3c dd e7 87 bd b3 8e 91 3d ce 46 08 3e
       0.008092935 -0.06636021 0.07107296 0.1330826
000020 5e 0b 48 bd 84 aa b3 bc 62 a5 86 bd 48 22 a7 3c
       -0.048838966 -0.021931894 -0.06574513 0.020402089
000030 0d 65 8f bd 66 c1 0a bd 86 a5 ee bb af 10 67 bb
       -0.07001696 -0.033875845 -0.0072829155 -0.0035257747
000040 4b 68 14 3d d8 d2 71 3d 28 0a bb bc e8 7d 40 bd
       0.036232274 0.059038967 -0.022831991 -0.046995074
000050 16 0a af 3d 30 7c 66 3d 79 a4 8f 3d 06 0d 2d be
       0.085468456 0.05627078 0.070137925 -0.168995
000060 37 13 cf 3b 42 b8 83 3d 5f 67 d1 3d 22 7d b9 bd
       0.0063194293 0.06431629 0.102247946 -0.0905707
000070 19 eb dd bc 41 68 1c bd f5 31 0f 3d 5d ba 15 be
       -0.027089642 -0.03818536 0.034959752 -0.14621873

local_trans_pixel.layers.0.1.fn.norm.weight f4 [32]
000000 e6 1b 87 3f d1 33 8a 3f 2b 38 75 3f f7 60 7e 3f
       1.0555389 1.0797063 0.9578883 0.99366707
000010 63 e0 8d 3f b4 6a 8d 3f d5 13 80 3f 7d 85 93 3f
       1.1084102 1.1048188 1.0006052 1.1525112
000020 82 a2 83 3f 2d c5 7b 3f 90 8c 87 3f 09 5d 76 3f
       1.0283968 0.9834774 1.0589771 0.9623571
000030 02 a6 85 3f d9 52 81 3f c3 07 8c 3f 7d 05 95 3f
       1.0441287 1.0103408 1.0939869 1.16423
000040 d0 2a 7e 3f 33 07 76 3f ca 42 87 3f c9 8b 85 3f
       0.99284077 0.96104735 1.0567257 1.0433284
000050 d8 18 82 3f b1 1a 81 3f 5f 1d 84 3f b9 e6 96 3f
       1.0163832 1.008627 1.0321463 1.1789161
000060 8a bf 8b 3f 72 b2 7d 3f 5a 6e 8e 3f ee 76 81 3f
       1.0917828 0.9910041 1.1127427 1.011442
000070 7a 77 90 3f 00 a2 80 3f 38 c1 82 3f 7b 78 87 3f
       1.1286461 1.0049438 1.0215216 1.0583643

local_trans_pixel.layers.0.1.fn.norm.bias f4 [32]
000000 46 17 94 3d 05 48 3a bd d3 cd 9d bd f3 1d a4 3c
       0.072310016 -0.04547884 -0.077052735 0.020033812
000010 a6 6c 4a 3d f5 6e 0a 3d cd 40 91 bb 1a e7 7d bc
       0.04942002 0.033797223 -0.0044327737 -0.015496993
000020 4d bb 01 3c 00 de d6 bb 61 c2 06 bd 61 c8 92 3d
       0.007918191 -0.006557226 -0.032900218 0.071671255
000030 55 e0 b0 bd 64 b0 dc bc 07 a8 c3 3c bc 3c 9c bd
       -0.08636538 -0.026939578 0.023883833 -0.07628772
000040 5e 2a 27 bd 43 bf 1e 3e fb e6 d2 3b 9d 10 1a 3e
       -0.04081189 0.15502648 0.0064362264 0.150454
000050 a2 02 6c bc cc 81 d2 bd 32 25 94 bc 33 5a 87 bc
       -0.014404925 -0.10278663 -0.018084142 -0.016522503
000060 16 80 ae 3d d6 82 83 3d 31 84 5d bd 50 67 8a 3d
       0.08520524 0.06421439 -0.054081146 0.067579865
000070 74 36 04 3c 8f 9b db bc 11 42 d9 3d da a0 8c bc
       0.008069623 -0.026807575 0.10608304 -0.017166544

local_trans_pixel.layers.0.1.fn.fn.net.0.weight f4 [8, 32]
000000 92 4a e4 bc 80 f7 10 be a6 b3 aa 3c 7e 7d fd bb
       -0.02786759 -0.14156914 0.020837616 -0.007735907
000010 f8 2a 9a bd cb 4c f9 3d 96 c0 9b bc d0 eb dd bd
       -0.07527727 0.1217285 -0.01901273 -0.10835993
000020 5b 5b 8d 3c c5 f2 57 bc 03 87 45 3d 53 2d f6 3b
       0.017255476 -0.013180439 0.04822446 0.0075127273
000030 f0 3e ca bc 24 cc e0 3d a4 3e 69 3d 58 41 7d 3d
       -0.024688214 0.10976437 0.056944504 0.061829895
000040 3b 1f d1 bd 09 8c f4 bd 10 63 de bd 17 97 65 bd
       -0.10211035 -0.11940772 -0.108587384 -0.056052294
000050 ed 9a 7b 3d bf 17 8d 3d c1 f1 00 3e 1b 94 16 3e
       0.061427046 0.06889295 0.12592222 0.14704935
000060 49 d7 ff 3d 89 38 80 bd ef 45 e3 3d 43 0a 70 bd
       0.12492234 -0.06260783 0.11097323 -0.058603536
000070 3e d6 c3 bd d1 58 60 3d a5 3c f4 3c 98 13 a4 bd
       -0.09562348 0.054772202 0.029814074 -0.0801155
000080 d2 65 98 3c 2a c4 b7 bc 1a d3 b9 3d 1c b8 22 be
       0.01860324 -0.022432406 0.090734676 -0.15890545
000090 f6 ab 81 bc d3 50 6a bd 04 ea 3f 3c 5b 40 ce 3d
       -0.015829068 -0.057205986 0.0117135085 0.100708686
0000a0 a5 58 dc bd 90 d3 1a 3e af 83 e4 bc e1 d2 17 be
       -0.10759095 0.15119767 -0.027894823 -0.14826538
0000b0 bd 5e 1e 3e be 56 88 bc 23 84 e4 3d 17 d1 22 bd
       0.15465827 -0.016642924 0.111580156 -0.039750185
0000c0 6a 87 af 3d 88 e3 3e bd 69 79 47 3e 2a d3 00 be
       0.0857075 -0.04660371 0.19479908 -0.12580553
0000d0 38 5d cd bd cd 55 0d be 2c a4 4d bb d7 6f 11 3e
       -0.10027546 -0.13802262 -0.0031378372 0.1420282
0000e0 b2 8b 26 bd 06 63 0e bd bc 58 0c be b9 b9 ae 3d
       -0.040660568 -0.034762405 -0.13705724 0.085315175
0000f0 69 e5 c0 3d 96 cb 10 3e 28 3d 09 be b6 05 30 3c
       0.094187565 0.14140162 -0.13402236 0.010743549
000100 84 09 f3 3b ae 5c 1a bd a6 38 12 3d df ec 5c bb
       0.007416906 -0.037686042 0.035698555 -0.0033710522
000110 a2 39 df bd 44 e4 ad bd 98 44 a0 bd 4d 4a 80 bd
       -0.108996645 -0.08490804 -0.07825583 -0.06264172
000120 12 53 f2 bd cc 98 3e bc e9 26 83 3d 41 ad 0c bd
       -0.11832251 -0.011633109 0.06403906 -0.034344915
000130 59 03 19 3e e4 f0 96 bc 74 0e 16 3d ff 0e fc 3d
       0.14942683 -0.018425412 0.036634877 0.12307548
000140 1a 38 d4 3d ca 64 01 be a0 75 c1 3c 1e f8 73 3d
       0.10362263 -0.12636104 0.023615658 0.059562795
000150 44 b7 e1 3d 8d 75 d0 bd cd c4 15 be 09 91 8c bd
       0.11021283 -0.10178671 -0.14625855 -0.06863601
000160 a1 49 7a bd 4a d0 19 3d 38 50 9b bc cd f8 71 bd
       -0.061105374 0.037552156 -0.01895915 -0.059075166
000170 ae 0b c1 bd c1 cc 22 3d 51 61 61 be 27 6d 31 3e
       -0.09426056 0.03974605 -0.2200978 0.17326795
000180 65 de 57 be 58 9e f3 3d ef 72 8e bd 5f fc 08 3b
       -0.2108093 0.11895436 -0.069555156 0.0020902378
000190 11 3e a6 be fa c7 01 bd 3e ab 85 bd 3b 64 5d be
       -0.32469228 -0.031684853 -0.065268025 -0.21620266
0001a0 dc a2 41 3e fb bd a4 bd 01 69 6f 3e 90 b7 06 3e
       0.18909782 -0.080440484 0.233799 0.13155961
0001b0 02 50 5f be 13 9a 1d 3e 69 f2 d5 bd fc c7 38 be
       -0.21807864 0.15390806 -0.10446627 -0.18045038
0001c0 8b 8e 0e be 6a 02 f8 3d 8a 4e 1d 3e c5 ee 83 3e
       -0.13921563 0.121098354 0.15361992 0.25768104
0001d0 9d c0 0c bd a1 e3 71 bd 59 3b 13 3e c9 68 14 be
       -0.034363378 -0.059054974 0.14378108 -0.14493097
0001e0 e4 04 70 3e ef a5 df 3d 62 52 81 be 55 5d cd bd
       0.23439366 0.10920321 -0.25258166 -0.10027567
0001f0 dc 4c 2d 3e a7 fd 06 be 6f 02 0e 3e 32 fb 54 3c
       0.16923851 -0.13182698 0.13868116 0.012999343
000200 86 09 e6 3d f3 93 ab bd c8 cb 72 3d f3 80 73 bc
       0.11232285 -0.083778284 0.059276372 -0.014862287
000210 13 e3 37 3e fa 20 dd bd 7c a4 64 be 84 d9 ff 3d
       0.17957716 -0.107973054 -0.22328371 0.1249266
000220 6b f6 14 be 03 6c 9e 3d cd bc 9b 3d dd 50 25 bd
       -0.14547126 0.07735445 0.0760437 -0.04036032
000230 79 e0 6d 3d 8f 98 f4 bd af 0a 7c 3e 2c 3c 37 3d
       0.058075402 -0.11943161 0.2461345 0.04473512
000240 9f 13 15 3e d6 79 b3 bd 49 e4 cb bd 60 4a 94 bd
       0.14558266 -0.08763473 -0.09955651 -0.072407484
000250 b7 a5 0c 3d 15 9e a0 3d 42 bc 1a 3e d5 3e 69 3e
       0.034337725 0.07842652 0.15110877 0.22777875
000260 a3 8b db bd 5b 87 00 be 3f 7d 32 be 80 76 e6 3d
       -0.10719993 -0.12551634 -0.1743059 0.11253071
000270 7e e8 69 be 10 cc e7 3d bf 20 f2 b8 83 15 64 3d
       -0.22842595 0.11318219 -0.00011545559 0.055684578
000280 cb 66 32 3e d8 4a b3 bd f0 05 10 be b2 a0 ce 3c
       0.17422025 -0.0875451 -0.14064765 0.02522311
000290 18 b3 3d 3e 7f 1d 4c 3e b8 91 11 3e 45 c5 cd bc
       0.1852535 0.19933127 0.14215744 -0.02511848
0002a0 89 fc a6 bd 7f 4f c4 bd 76 41 17 be 64 fb 91 3d
       -0.08153636 -0.09585475 -0.14771065 0.07128027
0002b0 f2 9c 0e bc cb e6 88 bd a4 e9 21 3e 2f 51 21 be
       -0.008704411 -0.06684645 0.15811783 -0.15753625
0002c0 8d fb c9 bb 84 b7 3f 3e 22 81 0f be 73 98 62 3e
       -0.0061640204 0.1872235 -0.14014104 0.22128467
0002d0 fe c9 9c 3c 20 b4 f8 bd 62 bc d9 bd 10 a6 76 be
       0.019139286 -0.12143731 -0.10631634 -0.24086785
0002e0 2c 57 1b 3e 0d dd 38 3c 33 f7 1d 3e 8b 7b c5 3d
       0.15169972 0.011283171 0.1542633 0.096427046
0002f0 5b e8 1e be 3e f7 12 3e e8 f7 da 3d 6f 43 eb bd
       -0.15518324 0.14352128 0.106918156 -0.11487471
000300 84 58 b8 3d 13 0f bc bd 6f a5 c2 3d aa ed e4 bd
       0.09001258 -0.09182563 0.0950421 -0.11178143
000310 1f c1 e6 3b d6 28 ab bd c0 ee 1f be a1 6d 0a be
       0.007042065 -0.08357398 -0.1561842 -0.13518383
000320 45 30 c8 bd 00 ff 8e 3c fc ee 09 be db f7 e7 bc
       -0.09774832 0.017455578 -0.13470072 -0.028316429
000330 e9 32 8a 3d c9 a7 fe bd 98 12 fc 3d 82 20 ba bc
       0.067479916 -0.12434346 0.12308234 -0.022720579
000340 4f 7b f1 bc ae 7f ab bc a5 36 8a 3d 7c c4 aa 3c
       -0.029477743 -0.020934906 0.06748704 0.020845644
000350 40 c1 a5 bd 68 82 53 be 66 01 e5 3d 15 0a 93 bd
       -0.080935 -0.20655215 0.11181907 -0.07179657
000360 26 1f 58 3e 96 de 15 3e 51 3e 85 3d f5 6f 27 be
       0.21105632 0.14635691 0.065060265 -0.16351302
000370 e6 26 93 3d 83 99 11 3c 0b 78 fb 3b 79 21 fd bd
       0.07185154 0.008886698 0.0076742223 -0.123599
000380 11 03 8f 3d c3 0e 38 be 7a 9e 0b be 96 75 92 bc
       0.06983007 -0.17974381 -0.13634673 -0.017878335
000390 77 eb 55 3e 87 4b 46 bb bf 7a d7 3d dc 9b 5c 3e
       0.20890604 -0.003025742 0.10521459 0.2154383
0003a0 f2 ce ab 3c de 04 2e 3e 0a 4d 0d be e7 2a 95 3d
       0.020972703 0.16994044 -0.1379892 0.072835736
0003b0 55 a0 57 3c 19 fe 24 be 9b 56 10 be 70 ef 8d 3e
       0.013160785 -0.16112556 -0.14095537 0.2772174
0003c0 d3 35 09 be 26 ab 6d 3d 6f 7a ca 3d 01 37 34 3e
       -0.13399439 0.058024548 0.098866336 0.17599107
0003d0 4d 4d 16 3e b4 c3 3e be e6 3d 5d be c0 42 88 3e
       0.14677925 -0.18629342 -0.21605644 0.26613426
0003e0 3b 8d 23 be eb 77 11 3e 67 1d 22 bd 50 11 de 3d
       -0.15971844 0.14205901 -0.03957882 0.10843146
0003f0 75 35 04 3d b6 1d 43 be 31 9b 91 bc 38 84 9a 3d
       0.032277543 -0.19054303 -0.017774196 0.0754475

local_trans_pixel.layers.0.1.fn.fn.net.0.bias f4 [8]
000000 5f 3c cd bd 24 dd 37 3c 32 f3 03 be 38 b3 53 3e
       -0.100212805 0.011222158 -0.1288574 0.20673835
000010 d0 9b 8a 3d 3b 93 2f 3e e1 02 f3 bd 43 b5 a5 bd
       0.06768 0.17146008 -0.118657835 -0.080912136

local_trans_pixel.layers.0.1.fn.fn.net.3.weight f4 [32, 8]
000000 1f 98 2f 3e 33 b6 1b be bf 5c 77 3c cd 5c 24 be
       0.17147873 -0.15206222 0.015097796 -0.16051026
000010 4f 6a 90 be 58 e0 ce 3c c4 02 e2 bd 6e 7d 5f 3e
       -0.28206107 0.02525346 -0.11035684 0.21825191
000020 52 b4 a0 3e cb ba 17 3e f2 7c 69 3d eb e8 63 bd
       0.31387573 0.1481735 0.057003923 -0.05564205
000030 49 ff 06 3e 22 f6 21 3e a9 3a 3d 3d fe ec d4 3d
       0.13183321 0.15816548 0.04619852 0.10396765
000040 c5 8d 93 3e 91 15 8c 3d 3c 26 06 3d d3 5c d1 3e
       0.288191 0.06840051 0.032751307 0.40891132
000050 69 a2 f0 bd 12 3d c9 3e 46 0c 5b 3e 1b 8e 74 3d
       -0.11749727 0.39304405 0.213914 0.059705835
000060 38 cb b4 3c 4a 9d d5 3c 1d c7 a1 be f0 a0 65 3e
       0.022069559 0.026075978 -0.31597224 0.22424674
000070 59 94 03 3b c9 26 b4 3d 5a 39 95 3d 6c 33 98 3e
       0.0020077436 0.0879646 0.072863296 0.29726732
000080 f0 6b ef bc fc cd 46 be 20 06 c2 bd 81 3d 03 3f
       -0.029226273 -0.19414514 -0.094738245 0.5126572
000090 eb a0 43 3e 94 ce 31 be e5 10 64 3e d1 11 95 be
       0.19104354 -0.1736396 0.2227207 -0.29115155
0000a0 c3 7a 1e 3e bf 20 88 be 18 2e 9a 3e 2a ce ab be
       0.15476517 -0.26587483 0.30113292 -0.33555728
0000b0 2d a9 86 be 26 ab 17 be 05 77 43 be c3 43 33 3e
       -0.26300946 -0.14811382 -0.19088371 0.17506318
0000c0 99 97 db 3d 65 00 8e 3e 1e 33 85 be c3 56 33 3e
       0.10722274 0.27734676 -0.26015562 0.17513566
0000d0 6f 8b 99 3e 66 79 55 3c 21 fb 82 3e 04 97 9b 3e
       0.29989192 0.013029432 0.2558222 0.30388653
0000e0 63 67 90 3c 72 c1 55 be 7d 7f 89 3d 7f 48 e2 3e
       0.017627424 -0.20874575 0.067137696 0.44195935
0000f0 d4 45 a3 bc f0 ca b0 3e dc 53 ec bd 10 f4 c7 3e
       -0.019930758 0.3452983 -0.115394324 0.39053392
000100 b1 ab 7e 3e 54 86 96 be 1c 07 8f 3e 74 3c 06 3e
       0.24870183 -0.2939936 0.27935112 0.13108999
000110 10 df aa 3e 1a 8b 93 3d a7 12 22 be 9b f4 7d be
       0.33373308 0.07204266 -0.15827428 -0.24800341
000120 fd 07 74 be 24 60 ab 3d 6f 6e 8a 3e d3 b9 91 3e
       -0.23831172 0.08367947 0.2703738 0.28462085
000130 74 bf 1f 3e d6 71 47 bd 0d 98 97 3e dd d6 92 be
       0.15600377 -0.048692547 0.29608193 -0.28679553
000140 70 9a 22 be 42 b1 86 3e 89 42 81 3e ea 4c c3 bd
       -0.15879226 0.26307112 0.25246075 -0.095361546
000150 f0 1d 97 be c3 25 a2 bd c9 ce 9b be e6 89 a5 bd
       -0.29515028 -0.07917359 -0.30431202 -0.08082943
000160 8f 92 34 be f0 d4 93 be 4e 04 c8 bd 81 9f 29 be
       -0.17634033 -0.28873396 -0.09766446 -0.16564752
000170 21 0c a6 be 2e 20 3d be f1 a7 97 3e f4 f2 a6 be
       -0.3243113 -0.18469307 0.29620317 -0.32607234
000180 eb ee 6d 3e 1d 86 7a 3d b5 3e b1 be 1a aa 5e 3d
       0.23235671 0.061163057 -0.34618154 0.05436144
000190 ac fb 48 3d 3d 31 56 3d a0 81 8d 3e f9 a1 24 3e
       0.049068138 0.05229305 0.2763796 0.16077413
0001a0 fc db e5 bc 22 f7 7b bd 13 b1 06 3e 7f e2 24 be
       -0.028058998 -0.06151498 0.13153486 -0.16102026
0001b0 3e 87 9c be d2 ae 7e 3e 68 a8 6a 3c 3e a7 98 be
       -0.30571932 0.24871376 0.014322378 -0.29815096
0001c0 7a cf 9d be 22 a1 1c 3e 42 bc 81 bd 2b b0 8d 3c
       -0.30822355 0.15295842 -0.063347355 0.017295917
0001d0 a5 5a 4b 3e 66 0c 1a 3e c4 11 38 3e c1 e7 1d 3e
       0.19858797 0.15043792 0.17975527 0.15420438
0001e0 da ca c2 3d 24 09 14 be 14 11 19 3e 64 47 a5 3e
       0.09511347 -0.14456612 0.14947921 0.3228103
0001f0 9e 95 34 be 1d 8b 1f 3e 4f 0f 9b be b4 15 87 3e
       -0.176352 0.15580411 -0.30285117 0.26383746
000200 eb 5d 4a be 19 f9 5d be f4 7e 03 be ca 05 5b 3e
       -0.1976239 -0.21677054 -0.12841398 0.21388927
000210 fb eb 04 be 1d ac 94 bb f7 ad cc 3d 8a a8 02 be
       -0.12980644 -0.004537119 0.09994119 -0.12759605
000220 e9 58 7c 3a 3a 65 80 be bc 4f df be d1 96 93 3e
       0.0009626286 -0.2507723 -0.4361552 0.28826
000230 74 ed 79 3e f6 00 9f 3d f2 c2 cf bd 56 d0 c7 3e
       0.24406987 0.07763855 -0.10144605 0.39026135
000240 79 df 2b be 16 b0 a1 3e ab 63 4b 3e 11 31 e3 be
       -0.16784467 0.31579655 0.19862239 -0.44373372
000250 dd 6f 50 be 0b 53 c9 3c b3 0d 29 3e b8 a3 9c bd
       -0.20355172 0.02457573 0.16509132 -0.076484144
000260 57 b4 2a 3d 46 ea cc bd e5 d4 c0 3d 2f 5e 99 be
       0.04167589 -0.100056216 0.094156064 -0.2995467
000270 88 ab 6e be 63 7e b5 be fc 4e 49 3e 39 7e ac be
       -0.23307621 -0.35447988 0.19659036 -0.3369005
000280 e6 bd c1 3e d2 30 47 bb 4f 1f 0a be 15 7d 71 3e
       0.37840194 -0.003039409 -0.13488506 0.23582871
000290 2c 34 04 be 54 aa c1 3e f1 38 90 3e 8f 2d d7 bd
       -0.12910527 0.37825263 0.28168443 -0.105067365
0002a0 fa a4 5b be 3c 46 f2 3d 1f 05 b7 be 76 df 10 be
       -0.21449652 0.118298024 -0.35746095 -0.14147744
0002b0 76 48 e4 bc 85 a0 02 bd a2 c4 8e be ea 95 00 3d
       -0.027866583 -0.031891365 -0.27884394 0.03139297
0002c0 70 64 44 bc 52 b4 70 3e 47 61 9e be 02 7c 6e 3c
       -0.011986837 0.23506287 -0.30933592 0.014555933
0002d0 ec e0 34 3e ed ac e5 3e 29 bf 0b 3e ef 1e 32 3e
       0.17663926 0.44858494 0.1364714 0.17394613
0002e0 c9 1b a7 3e 46 64 a8 3c 24 ae 1a be fe 13 bb be
       0.32638386 0.020555627 -0.15105492 -0.3653869
0002f0 25 ea 83 3c 4c 28 b5 be 75 6c c5 be 42 01 d2 be
       0.01610286 -0.35382307 -0.3855931 -0.41016585
000300 eb 81 95 3e 54 5a fb bd d4 ff 8a 3e 98 8d 95 be
       0.29200682 -0.12273088 0.27148306 -0.2920959
000310 7a 0e 1a be 7b 45 8e 3e 50 44 a8 bd a7 56 9d bd
       -0.15044585 0.27787384 -0.082161546 -0.07682543
000320 26 f8 56 3e e4 d4 a7 3d 52 d4 b0 be 8a 06 47 be
       0.20993099 0.081949025 -0.34536988 -0.19436088
000330 35 53 bd 3d 05 46 1d 3e bb 62 cc b9 e9 93 54 bd
       0.09244386 0.15358742 -0.00038983472 -0.05189887
000340 4b ce 82 3e ca 4b e4 bd 4e 6c 9f be 81 da 66 3e
       0.25548014 -0.11147268 -0.31137317 0.2254429
000350 a5 b2 80 be 3d 7f 86 3d ab a2 e1 3c 86 ad 17 3c
       -0.25136295 0.065672375 0.027543386 0.00925768
000360 f4 39 ae be f1 80 53 3e e9 1e a2 bd 32 da be bd
       -0.3402859 0.20654656 -0.07916052 -0.09318961
000370 1b be 39 be 2e 69 39 3e fc 2a 02 bc 4c 77 68 be
       -0.18138926 0.18106529 -0.007944819 -0.22701758
000380 d0 c4 ba be 53 7c c5 bd 1e 8e b4 3e 05 28 cd bd
       -0.3647828 -0.096428536 0.35264677 -0.10017399
000390 3b b1 fb 3d 57 ee 89 bd 52 15 0e be ac cc a4 be
       0.122896634 -0.06734913 -0.1387532 -0.32187402
0003a0 69 24 98 3e f0 a4 a2 3e b6 ed b7 3d b3 5f e2 3e
       0.2971528 0.31766462 0.08980887 0.44213638
0003b0 40 2a 3a be 11 79 a8 3e f8 2f 57 bd 15 82 03 3e
       -0.1818018 0.32904866 -0.05253598 0.12842591
0003c0 c7 f4 cb 3d 4e 91 20 3e fb 6a ac 3e d0 33 49 be
       0.09958797 0.1568043 0.3367537 -0.19648671
0003d0 e0 3a 17 3e 94 80 a9 3d 68 89 00 be 35 6d 6e be
       0.14768553 0.082764775 -0.12552416 -0.23283847
0003e0 25 64 61 38 72 88 24 bd dc 25 c9 3d e9 fc 7c 3e
       5.3737447e-05 -0.040169187 0.09821674 0.24705853
0003f0 0c b2 ee bd f6 39 c9 bd b2 31 12 3c c9 ec 62 3c
       -0.116550535 -0.09825508 0.008922981 0.013850399

local_trans_pixel.layers.0.1.fn.fn.net.3.bias f4 [32]
000000 ab 15 ee be 90 1a 0d be 8e 58 3d 3d 84 d6 01 bc
       -0.46500906 -0.13779664 0.04622703 -0.00792468
000010 9a 23 be be 67 b4 94 be ae 6e 99 3e d9 25 e6 3e
       -0.37136537 -0.29043886 0.29967254 0.4495075
000020 c3 4e 03 3e 8b ae c5 be 2a 60 90 be d2 0d a8 be
       0.12823014 -0.38609728 -0.28198367 -0.32823044
000030 7d 33 b6 be 2d cb a0 be e7 a2 2d 3e 08 6c 64 be
       -0.35586157 -0.3140501 0.16956674 -0.22306836
000040 d9 bc bf 3e fb 37 ea 3e d8 c3 94 3c 1b 8f fa 3d
       0.37448767 0.45745835 0.018159792 0.122343265
000050 86 f8 cd 3e 6e f0 97 3e 49 81 72 3e 3b 55 f0 be
       0.4022867 0.2967562 0.23682131 -0.46940026
000060 00 16 db bd e8 cf 67 bd 81 29 c3 3e 6b 50 a7 3d
       -0.106975555 -0.05659476 0.38117602 0.081696354
000070 41 a9 98 3b d5 bc b0 be 56 31 8a bd 12 bd cc be
       0.0046588485 -0.34519067 -0.06747691 -0.39988
