src/res/GGCL/guided_contra_cross_transformer/Pavia/5/True/ss0.3/_1712141975.pth (torch, 266710 bytes, 37 tensors)

pixel_pos_embedding f4 [1, 170, 32]
-0.3244708 0.16769964 -0.005466723 0.059001066 0.11401854 -0.26162928 -0.37018767 0.7093525
1.5305554 0.10389475 -0.18735044 -0.56869483 0.17793578 -0.5374627 -0.44600084 0.86267513
-1.6676667 -0.41636598 -0.26992333 0.86601573 -0.31226003 -0.012140916 -1.1460599 -0.3941741
-0.14162537 -1.7989978 -0.96839464 1.1769978 -1.4236612 0.042960282 0.13700925 -0.37902388
0.25896966 1.2997929 0.06926874 0.1520748 -0.49265063 0.47506917 -0.01883515 1.5029733
-0.9151616 1.8211141 0.71823263 0.57436526 2.1967943 -0.10511262 0.13762711 -1.7562461
-0.023358453 -0.24664268 -1.8509282 1.696641 0.36026487 -0.22087517 -0.64702904 0.393155
-1.21257 0.25906157 2.0621936 0.011062116 0.69819355 -1.5596272 0.583628 -0.568793
0.4843152 -1.3644952 -0.44768563 0.683448 0.18327463 -0.80558574 -0.177384 0.08400452
-0.3615967 -0.46564373 0.58014333 0.4905429 0.1423234 0.22505409 1.3500121 -0.7452984
0.108152606 0.17263812 0.08241308 -0.09669088 -0.35733563 1.0517806 -0.6149031 0.20080987
0.20353712 -0.59215045 -1.318416 0.28640512 0.529936 -0.34633315 0.77868515 -0.32126728
0.71662533 0.57915485 0.9086732 -0.12414928 0.08678085 0.6478614 1.6172966 0.6720254
-0.89048034 -1.9400839 -1.0538468 0.4577941 0.7811149 -0.20486714 0.15536788 -0.24750204
-0.4241536 -1.3973157 1.3834558 -0.1047392 -0.038500376 -1.4604353 0.56630653 -1.5248443
0.6007526 -0.586944 0.5969907 -1.842864 -2.3052862 -0.9163102 1.3912431 0.19279967
0.18650825 0.9050228 0.5219309 1.0654348 -1.3025048 -1.512856 -0.13904335 1.4657396
0.8456677 0.07600474 1.0982883 0.2208502 -0.2643506 -0.40656528 0.21012004 -0.39878184
0.8302407 0.37412953 -0.44251984 0.8199737 -1.3829477 1.3626002 0.051778212 -0.6076509
-0.15740846 -0.23401497 -0.59686536 -0.0489728 -0.1607303 -2.4487247 1.2610097 1.7921594
-0.17531979 1.0234631 0.5660223 0.11439341 0.3509573 2.8490343 0.6199021 -0.032199044
-0.43256187 -0.2749709 -1.5343565 -0.26916367 0.8287835 -0.6658747 1.9479824 0.28396854
0.00879544 -0.73164666 0.20556861 -0.5895599 1.4541023 -0.22415732 -0.055867743 -1.0499074
-0.24001068 -0.8206168 -1.6401521 -1.1481798 -1.8403959 0.0658887 1.5054442 0.6388173
1.164811 -0.020975403 1.286737 1.0945851 0.78819644 0.22714116 1.5543399 1.2400528
1.2639593 0.04109201 0.67794913 0.15288183 0.1347733 0.08821852 0.499359 -0.06183481
1.0213264 -0.5456477 0.22843523 0.45262194 0.019414438 2.1073246 1.7646583 -0.23106481
-0.4767222 -1.3834661 -0.039227918 -0.6667057 0.08381951 1.4377427 1.6136333 -0.15082552
1.5206276 0.27431124 1.2386234 0.93187106 0.54430753 1.4127293 1.2241048 0.3148624
-0.8475158 -0.6698193 -2.2392225 0.05925372 -1.2803346 -1.256836 1.1003392 -0.57768685
0.06582435 -0.28927776 0.40358055 1.3124661 0.0383819 -1.3945769 -1.240239 0.21008866
0.5679334 0.52875185 0.6264954 1.1980013 -1.7087508 -0.6438342 -0.86646307 0.87095326
00000000: 0921 a6be 74b9 2b3e 3222 b3bb 1aab 713d
00000010: 8d82 e93d 46f4 85be 3d89 bdbe 2098 353f
00000020: 3de9 c33f c5c6 d43d cbd8 3fbe fc95 11bf
00000030: cc34 363e 2897 09bf 395a e4be 47d8 5c3f
00000040: 1a76 d5bf ec2d d5be 6433 8abe 35b3 5d3f
00000050: 8ce0 9fbe b1ea 46bc 17b2 92bf 30d1 c9be
00000060: 3e06 11be 8f45 e6bf b6e8 77bf dda7 963f
00000070: 883a b6bf 1ff7 2f3d 274c 0c3e 6b0f c2be
00000080: ac97 843e 9d5f a63f c5dc 8d3d 7fb9 1b3e
00000090: b43c fcbe 443c f33e 2c4c 9abc 6e61 c03f
000000a0: 0848 6abf 441a e93f 18de 373f 9a09 133f
000000b0: 4798 0c40 4945 d7bd 1fee 0c3e accc e0bf
000000c0: 3a5a bfbc e68f 7cbe 37eb ecbf 882b d93f
000000d0: a374 b83e 1a2d 62be b2a3 25bf 9d4b c93e
000000e0: 7e35 9bbf b8a3 843e fbfa 0340 e13d 353c
000000f0: d0bc 323f dda1 c7bf a568 153f 6b9c 11bf
00000100: 29f8 f73e c7a7 aebf 0d37 e5be 73f6 2e3f
00000110: 58ac 3b3e de3a 4ebf 27a4 35be 900a ac3d
00000120: 3423 b9be db68 eebe 4684 143f 7028 fb3e
00000130: 3abd 113e 9474 663e 32cd ac3f e0cb 3ebf
00000140: 1d7f dd3d 0cc8 303e 30c8 a83d de05 c6bd
00000150: b2f4 b6be bfa0 863f 4a6a 1dbf 1aa1 4d3e
00000160: 096c 503e 2c97 17bf dbc1 a8bf b1a3 923e
00000170: e3a9 073f 9452 b1be e957 473f 257d a4be
00000180: c274 373f 7e43 143f cf9e 683f fa41 febd
00000190: 29ba b13d 3fda 253f 9303 cf3f db09 2c3f
000001a0: 85f6 63bf ab54 f8bf 74e4 86bf fd63 ea3e
000001b0: 25f7 473f b1c8 51be c218 1f3e 2d71 7dbe
000001c0: a92a d9be 3edb b2bf 1415 b13f 8181 d6bd
000001d0: 92b2 1dbd 8bef babf 77f9 103f 192e c3bf
000001e0: ecca 193f f641 16bf 62d4 183f f8e2 ebbf
000001f0: cf89 13c0 4e93 6abf 4114 b23f 476d 453e
00000200: 05fc 3e3e 93af 673f 439d 053f 2b60 883f
00000210: 7ab8 a6bf 44a5 c1bf 6161 0ebe 5b9d bb3f
00000220: ae7d 583f 60a8 9b3d b694 8c3f 8e26 623e
00000230: f658 87be 5329 d0be b529 573e 222d ccbe
00000240: a88a 543f e88d bf3e f691 e2be cce9 513f
00000250: 6e04 b1bf af69 ae3f 6415 543d 028f 1bbf
00000260: af2f 21be 9fa1 6fbe 2bcc 18bf b497 48bd
00000270: 7c96 24be e8b7 1cc0 c468 a13f 7b65 e53f
00000280: 0887 33be d700 833f d6e6 103f 1847 ea3d
00000290: adb0 b33e 9456 3640 e7b1 1e3f 25e3 03bd
000002a0: c078 ddbe fcc8 8cbe cb65 c4bf d2cf 89be
000002b0: 282b 543f c476 2abf 7d57 f93f 5364 913e
000002c0: c01a 103c 324d 3bbf 9480 523e 66ed 16bf
000002d0: 0620 ba3f 7f89 65be 93d5 64bd 5e63 86bf
000002e0: 5cc5 75be f113 52bf 81f0 d1bf 8ef7 92bf
000002f0: 1892 ebbf a8f0 863d 65b2 c03f 8889 233f
00000300: 8718 953f 9cd4 abbc ccb3 a43f 5d1b 8c3f
00000310: 3ec7 493f b197 683e 9cf4 c63f 0dba 9e3f
00000320: 6bc9 a13f 1850 283d 138e 2d3f 0e8d 1c3e
00000330: 0302 0a3e e9ab b43d fcab ff3e 7f46 7dbd
00000340: d3ba 823f 91af 0bbf edea 693e 10be e73e
00000350: 070b 9f3c 68de 0640 53e0 e13f 419c 6cbe
00000360: ef14 f4be 6b15 b1bf 74ad 20bd 3aad 2abf
00000370: 90a9 ab3d f407 b83f 898b ce3f 0172 1abe
00000380: eda3 c23f 8672 8c3e 368b 9e3f 1a8f 6e3f
00000390: bd57 0b3f 50d4 b43f 77af 9c3f a535 a13e
000003a0: ccf6 58bf 4779 2bbf 6c4f 0fc0 07b4 723d
000003b0: 01e2 a3bf 01e0 a0bf ead7 8c3f 49e3 13bf
000003c0: ebce 863d 371c 94be 1ca2 ce3e e4fe a73f
000003d0: 5736 1d3d 7f81 b2bf 27c0 9ebf 7b21 573e
000003e0: 1564 113f 485c 073f 0162 203f 1b58 993f
000003f0: 59b8 dabf 51d2 24bf 86d0 5dbf cbf6 5e3f

cls_token_pixel f4 [1, 1, 32]
-0.14769134 -0.17342654 -0.48949593 0.36883304 -1.2246963 -1.0309684 2.2067108 -1.1633162
-0.5417192 -0.041409347 0.758535 -1.3014873 -0.67201424 -1.2929273 -1.2894375 -0.8828209
0.21511652 0.9906389 -0.7621963 -1.0455158 -0.9809132 -0.45706576 -0.8725364 -0.53437066
0.17077447 1.2678055 0.265295 0.26577944 -0.25821468 1.9985046 -1.8978715 -0.12811686
00000000: 663c 17be ba96 31be 369f fabe afd7 bc3e
00000010: d9c2 9cbf c6f6 83bf c03a 0d40 8ce7 94bf
00000020: 1cae 0abf d99c 29bd 5a2f 423f 2397 a6bf
00000030: 2009 2cbf a47e a5bf 4a0c a5bf 8d00 62bf
00000040: 8147 5c3e 839a 7d3f 4c1f 43bf 76d3 85bf
00000050: 211d 7bbf 8604 eabe 8c5e 5fbf 84cc 08bf
00000060: 81df 2e3e 7347 a23f bfd4 873e 3e14 883e
00000070: b734 84be 00cf ff3f 74ed f2bf 1131 03be

pixel_patch_embedding.weight f4 [32, 30]
0.01020886 -0.08308343 0.029733822 -0.13432322 -0.117748246 0.015174627 0.112258375 0.11117545
0.14940587 -0.112097144 -0.053096548 -0.1599619 0.12584895 -0.15308578 0.076951146 0.1276879
0.12436706 -0.10790112 0.02987276 -0.13847202 0.06000769 -0.13376352 -0.12848353 -0.005614072
-0.055225626 -0.05312428 0.10455182 0.04095538 -0.04524976 -0.10255501 -0.07437539 -0.124850124
-0.16174269 -0.16017228 0.081430465 0.13492566 0.18141377 -0.08043688 -0.006826356 0.15591317
0.048358798 0.1086978 -0.0915871 -0.054649666 0.07025808 0.0836111 -0.12199242 -0.08358701
-0.03588341 -0.030223086 -0.17003876 0.030778646 0.025782183 -0.07439576 -0.13768293 0.013089329
0.056906283 -0.0068025887 -0.110269815 -0.10508563 0.05050078 0.11045617 0.05844444 -0.18151046
-0.02041033 -0.16028115 0.09049466 0.039242417 0.14809525 0.17631987 -0.08652607 -0.048547834
-0.12168475 -0.025201395 -0.17786516 -0.05631204 0.117833465 -0.15576519 -0.052767932 -0.052426025
0.06812835 -0.11930857 -0.066435516 0.12483248 -0.079172164 -0.12539428 -0.1768389 0.16899464
0.1790047 -0.11941539 0.09414226 -0.044075757 0.064360484 -0.06893508 0.13945541 -0.0354646
0.011660069 -0.013453558 0.042436346 -0.10504391 0.025991619 -0.08495211 0.15992287 0.06122631
0.026421234 -0.17967264 0.04058227 0.1730015 -0.0695909 -0.06607292 0.017589584 0.10850614
-0.16123551 -0.14371188 0.023141295 0.15993106 -0.15298986 0.08396751 0.15237623 -0.0672906
0.15758139 0.12268606 0.11770326 0.0977833 0.08692625 -0.017294556 0.018072426 -0.16429724
0.033943623 -0.052583978 0.0027088523 0.11190191 -0.14597818 0.10421705 0.11228591 -0.0799837
-0.024814516 0.12411949 0.04937744 -0.17333224 0.121320695 -0.08695018 0.102814406 -0.014784172
-0.15225597 0.0013137311 0.04638049 0.15681899 -0.17637736 0.1414355 -0.11756068 0.07634741
-0.15814018 0.16572243 0.16893443 -0.07777408 -0.031526655 0.13927147 0.07494241 -0.10676013
-0.17924188 -0.14893806 0.12096715 0.05087489 -0.101831034 -0.1404097 -0.07765796 -0.08447041
-0.042155415 0.17223611 -0.1571499 -0.12273047 -0.030599028 0.14357042 0.08388379 0.17910776
-0.15261033 -0.036387682 -0.06520388 0.11612916 -0.16858894 0.10865939 -0.090813495 0.0950124
-0.011653408 0.12727603 -0.10410075 0.10810813 0.16868135 -0.098875426 0.12918058 0.111536294
0.07691282 0.11347827 -0.06921756 -0.14664097 -0.16435243 -0.07236635 0.026762486 0.10939959
-0.10437522 -0.061082006 0.07283595 0.069812775 0.13432547 0.14914787 0.09040728 -0.06614559
0.006654665 -0.010713205 0.1688478 -0.16987969 -0.17180446 0.08376086 -0.07964663 0.09584811
0.10234678 0.09939024 0.103579104 0.102169335 0.031379566 -0.16232966 -0.1429607 0.17054132
0.15471146 0.15708467 -0.07070907 0.10986534 0.14214787 0.098386854 -0.04143837 -0.12393767
0.1651378 0.0747565 0.008112118 0.047860563 0.14097628 -0.033541813 0.15235257 0.15541196
-0.04353273 -0.14763024 0.1267735 0.06424533 -0.087055236 -0.16089591 -0.121056035 0.0737254
-0.15745734 0.15515411 -0.019249305 -0.106175646 -0.08236461 -0.020010322 -0.119378366 0.10411191
00000000: 1043 273c a527 aabd 5894 f33c 078c 09be
00000010: fe25 f1bd 009f 783c b8e7 e53d f4af e33d
00000020: dafd 183e 3093 e5bd c47b 59bd 0dcd 23be
00000030: 8cde 003e 85c2 1cbe 9098 9d3d 9ec0 023e
00000040: 28b4 fe3d 43fb dcbd b8b7 f43c 9ccb 0dbe
00000050: a0ca 753d 4ef9 08be 3091 03be 40f6 b7bb
00000060: 4434 62bd d898 59bd 441f d63d d4c0 273d
00000070: d057 39bd 5c08 d2bd 2052 98bd 6cb1 ffbd
00000080: e09f 25be 3404 24be 04c5 a63d f429 0a3e
00000090: 88c4 393e 17bc a4bd a0af dfbb b4a7 1f3e
000000a0: e013 463d f49c de3d 0492 bbbd 54d8 5fbd
000000b0: 78e3 8f3d 4c3c ab3d 29d7 f9bd ab2f abbd
000000c0: 7cfa 12bd 6896 f7bc a41e 2ebe 8023 fc3c
000000d0: 2835 d33c ce5c 98bd c1fc 0cbe a074 563c
000000e0: 9016 693d 40e8 debb 24d5 e1bd 2337 d7bd
000000f0: e8d9 4e3d d836 e23d 7063 6f3d e1dd 39be
00000100: 9033 a7bc be20 24be 4455 b93d a8bc 203d
00000110: 48a6 173e 328d 343e 9534 b1bd 18da 46bd
00000120: db35 f9bd 2873 cebc 4922 36be 74a7 66bd
00000130: ac52 f13d e980 1fbe 3023 58bd acbc 56bd
00000140: e086 8b3d 0d58 f4bd 580f 88bd 2ca8 ff3d
00000150: 0425 a2bd 5c67 00be 4215 35be ee0c 2d3e
00000160: 024d 373e 0e90 f4bd a8cd c03d c888 34bd
00000170: 6ecf 833d d62d 8dbd 66cd 0e3e 5443 11bd
00000180: e009 3f3c 506c 5cbc bcd1 2d3d 4321 d7bd
00000190: 60ec d43c 5ffb adbd d2c2 233e 70c8 7a3d
000001a0: 5871 d83c 1bfc 37be 9839 263d 4e27 313e
000001b0: ac85 8ebd 3d51 87bd 0818 903c 7838 de3d
000001c0: ec1a 25be 3529 13be d092 bd3c f8c4 233e
000001d0: 60a9 1cbe 28f7 ab3d 8408 1c3e a7cf 89bd
000001e0: 045d 213e d442 fb3d 680e f13d 9c42 c83d
000001f0: 6406 b23d 50ad 8dbc a00c 943c 893d 28be
00000200: 7808 0b3d 4c62 57bd 0087 313b d42c e53d
00000210: 4e7b 15be c06f d53d 28f6 e53d 7ece a3bd
00000220: d047 cbbc 5c32 fe3d 0040 4a3d 027e 31be
00000230: fc76 f83d f012 b2bd 5c90 d23d 5039 72bc
00000240: fde8 1bbe 8031 ac3a 78f9 3d3d 2895 203e
00000250: 449c 34be 78d4 103e a7c3 f0bd 085c 9c3d
00000260: 80ef 21be 24b3 293e 26fd 2c3e 0448 9fbd
00000270: 1822 01bd 2e9d 0e3e 687b 993d 0ea5 dabd
00000280: 2f8b 37be 3883 18be a0bd f73d 3062 503d
00000290: ca8c d0bd 8fc7 0fbe 230b 9fbd d3fe acbd
000002a0: 28ab 2cbd aa5e 303e e7eb 20be 1d5a fbbd
000002b0: d0aa fabc 2004 133e 44cb ab3d 0668 373e
000002c0: e245 1cbe 400b 15bd 9d89 85bd 20d5 ed3d
000002d0: 94a2 2cbe d088 de3d 6dfc b9bd dc95 c23d
000002e0: f0ed 3ebc a654 023e c632 d5bd cc67 dd3d
000002f0: ceba 2c3e 337f cabd ea47 043e 246d e43d
00000300: 7884 9d3d 4c67 e83d f0c1 8dbd 0d29 16be
00000310: 014c 28be cf34 94bd 003d db3c e40c e03d
00000320: adc2 d5bd 2031 7abd 042b 953d 00fa 8e3d
00000330: 9e8c 093e 38ba 183e 7427 b93d 5777 87bd
00000340: 600f da3b 7086 2fbc 70e6 2c3e f1f4 2dbe
00000350: 82ed 2fbe d08a ab3d c61d a3bd 044c c43d
00000360: 309b d13d 1c8d cb3d 4821 d43d 283e d13d
00000370: dc87 003d bf39 26be 4a64 12be 62a2 2e3e
00000380: ae6c 1e3e ceda 203e ebcf 90bd 1401 e13d
00000390: 368f 113e 0c7f c93d 48bb 29bd 08d3 fdbd
000003a0: e219 293e f019 993d b0e8 043c 7009 443d
000003b0: 165c 103e 2463 09bd 5002 1c3e 5024 1f3e
000003c0: 604f 32bd 622c 17be ead0 013e 0e93 833d
000003d0: 044a b2bd e6c1 24be 3aec f7bd 58fd 963d
000003e0: 7f3c 21be b8e0 1e3e b8b0 9dbc 9e72 d9bd
000003f0: c7ae a8bd b0ec a3bc a57c f4bd a038 d53d

pixel_patch_embedding.bias f4 [32]
-0.060424477 -0.119714014 -0.006147176 0.032004863 0.0403416 0.11826962 0.11750764 0.100058615
-0.07985279 -0.031972766 0.16045028 0.17391911 0.12003803 0.15593237 0.11664799 -0.0709909
0.15111846 -0.024590299 -0.03182009 -0.08402923 0.104516834 -0.13959277 0.1794433 0.020827055
-0.13421345 -0.16453221 -0.14397338 -0.1631876 0.073061764 0.085155934 0.0030300766 0.07415977
00000000: a87f 77bd 9f2c f5bd 406e c9bb 8817 033d
00000010: 3c3d 253d 5837 f23d d8a7 f03d 88eb cc3d
00000020: dc89 a3bd e0f5 02bd 144d 243e da17 323e
00000030: 80d6 f53d bcac 1f3e 24e5 ee3d ad63 91bd
00000040: ccbe 1a3e 9871 c9bc c855 02bd 8417 acbd
00000050: ec0c d63d 68f1 0ebe fcbf 373e 809d aa3c
00000060: 406f 09be 227b 28be c26d 13be a61a 27be
00000070: 68a1 953d 3c66 ae3d 4094 463b 14e1 973d

local_trans_pixel.layers.0.0.fn.norm.weight f4 [32]
1.0570289 1.0805401 1.0399224 1.0754955 1.0657347 1.0648602 1.0617541 1.1065443
1.0527583 1.0966763 1.0921832 1.0972356 1.0587641 1.0990058 1.0681564 1.0864916
1.102998 1.0437303 1.0693123 1.1110612 1.1219262 1.0533464 1.0640713 1.1010325
1.0938545 1.0668842 1.034384 1.0470221 1.0752116 1.0606024 1.0722048 1.0634229
00000000: b94c 873f 234f 8a3f 2d1c 853f d6a9 893f
00000010: ff69 883f 574d 883f 8fe7 873f 3ea3 8d3f
00000020: c9c0 863f e45f 8c3f a9cc 8b3f 3772 8c3f
00000030: 9585 873f 39ac 8c3f 59b9 883f 2812 8b3f
00000040: 0a2f 8d3f f498 853f 3adf 883f 4137 8e3f
00000050: 479b 8f3f 0ed4 863f 7d33 883f a2ee 8c3f
00000060: 6d03 8c3f a98f 883f b266 843f d204 863f
00000070: 89a0 893f d2c1 873f 023e 893f 3e1e 883f

local_trans_pixel.layers.0.0.fn.norm.bias f4 [32]
-0.01621061 0.0011227396 0.015140937 0.02710497 0.016642312 -0.01664496 0.007746323 -0.030513413
0.04538599 0.03774601 -0.0010292258 0.0033422343 0.017517854 -0.0073984475 0.0054648095 -0.0403288
-0.0098034935 -0.0011417427 -0.018758938 -0.036964167 -0.0054106475 -0.0036443276 0.012215059 0.011315193
0.02497918 0.009597248 -0.028697202 -0.004237999 -0.040730644 -0.01459955 0.024920728 -0.036875732
00000000: 1dcc 84bc e428 933a b111 783c 3e0b de3c
00000010: 7555 883c 035b 88bc ded4 fd3b 44f7 f9bc
00000020: a9e6 393d 8f9b 1a3d 16e7 86ba 6309 5b3b
00000030: 9a81 8f3c ad6e f2bb 2512 b33b d02f 25bd
00000040: d59e 20bc 87a6 95ba 58ac 99bc bd67 17bd
00000050: cd4b b1bb acd5 6ebb ac21 483c 5c63 393c
00000060: 23a1 cc3c c73d 1d3c 6516 ebbc eade 8abb
00000070: 2dd5 26bd f332 6fbc 8e26 cc3c 020b 17bd

local_trans_pixel.layers.0.0.fn.fn.to_qkv.weight f4 [768, 32]
-0.09208648 -0.21273185 -0.18103473 0.084955074 -0.10468112 -0.1275925 -0.0055085407 -0.13269518
0.012207056 -0.047620486 -0.02013765 -0.013088677 0.16484255 0.049681276 0.15724303 0.047603186
-0.09793958 -0.0064032497 0.18592693 -0.101486534 0.08075203 0.13740948 0.08066469 0.13563752
0.04707485 0.17952119 0.09212633 -0.24144268 -0.075473085 -0.05019245 0.10042187 0.062441494
-0.067684665 -0.09631375 -0.015282456 0.14716223 -0.10378101 -0.08092427 -0.028180398 0.058646377
-0.17652024 -0.17049898 0.05666218 0.0025840772 0.08453701 0.1729917 0.033441976 -0.03626318
-0.06997157 0.07888081 -0.06320593 -0.07040823 0.114337 0.04902509 0.16391286 0.057680055
-0.17542765 -0.03826241 0.031852987 -0.13758053 0.07157289 -0.12325949 -0.07245262 -0.02507242
-0.24223134 0.09671329 -0.069420606 -0.059426565 0.11353624 -0.039030258 0.12064476 -0.12240871
-0.01762797 0.18248256 0.09960089 -0.067561105 0.013741726 -0.18159449 0.043425668 0.24144667
-0.21366154 0.21015915 -0.1588575 0.20396206 0.005166973 -0.0056972527 0.058057737 -0.08181046
0.22743116 -0.23607016 -0.11080152 0.09301726 -0.095860615 0.013362968 -0.0130026275 0.14870006
0.1335078 -0.05659871 0.07003194 -0.037080564 -0.10681699 0.096501954 0.03510165 0.22011982
0.10048277 0.10237699 -0.034426898 -0.008440418 -0.09869609 -0.07144612 -0.063829504 0.08363517
0.0014528774 0.15043105 0.17119016 0.07440848 -0.15528035 0.015917122 0.013441734 -0.029081015
-0.081938215 -0.17813846 0.032329652 0.050009884 -0.16258913 0.0051845936 -0.10010826 0.075433925
0.0055035725 -0.287951 0.16495772 -0.13119078 -0.014930907 0.16252929 0.1184358 -0.084562086
-0.22741035 -0.06047088 -0.205421 -0.07504719 0.19071122 0.07761965 0.07313733 -0.21604799
0.20660125 0.073423795 -0.060459755 0.07822594 0.15890688 -0.1504669 0.06318043 0.014169751
-0.23319004 -0.07638843 -0.083413385 -0.2166838 0.19493599 0.08236099 -0.09219182 -0.11443286
-0.12636311 -0.09610541 0.08246607 -0.050123524 -0.13301061 -0.05917409 0.08493234 0.15902628
0.12076853 0.062422723 -0.09664599 0.014127804 0.0775848 -0.15395932 -0.15091243 0.0024333172
-0.01172461 -0.13477185 -0.037154317 -0.14817151 -0.010463223 0.10093959 -0.083038494 -0.10293649
-0.091632135 -0.27521676 0.1358635 0.14486475 -0.013863253 -0.03269054 0.06547429 -0.00967986
-0.023218842 -0.013762331 -0.049719706 -0.17630443 0.11333284 0.18262401 -0.11506328 -0.02839972
-0.10078749 -0.19383627 -0.17710459 0.039676707 0.06835474 0.14126836 0.10613866 -0.0050186138
-0.019284794 -0.031549323 -0.0054272227 0.11609025 -0.13814625 0.22094564 0.14569077 0.14946331
-0.046668585 0.041313674 0.04704191 -0.20352404 0.1065208 -0.15425998 -0.112633735 -0.06275435
0.06228881 -0.092104495 0.07744997 -0.030793445 0.08364873 -0.18820563 -0.032266118 -0.011457081
0.21723744 0.0058723977 0.12774663 -0.055425096 -0.14443688 0.13807996 -0.19510576 0.029318046
0.14769463 -0.038022246 -0.05259249 0.04001353 -0.07114491 0.088676095 -0.16831437 0.113451324
-0.05125768 -0.1691375 0.07246023 0.2178905 0.0029610698 0.21243887 0.037543155 0.14616375
00000000: d697 bcbd 61d6 59be 2b61 39be edfc ad3d
00000010: 0e63 d6bd 9ca7 02be fd80 b4bb 3fe1 07be
00000020: 1b00 483c b30d 43bd b7f7 a4bc e471 56bc
00000030: 7ccc 283e 987e 4b3d 5104 213e 8ffb 423d
00000040: 8c94 c8bd 5ad2 d1bb a163 3e3e 2cd8 cfbd
00000050: 5261 a53d 12b5 0c3e 8733 a53d 90e4 0a3e
00000060: 8fd1 403d 67d4 373e bbac bc3d c03c 77be
00000070: a291 9abd 9996 4dbd fba9 cd3d a7c2 7f3d
00000080: 429e 8abd 2540 c5bd 4463 7abc b2b1 163e
00000090: 238b d4bd a0bb a5bd 94da e6bc 2f37 703d
000000a0: b9c1 34be 4997 2ebe 9a16 683d 9f59 293b
000000b0: bd21 ad3d bc24 313e 74fa 083d b388 14bd
000000c0: 414d 8fbd 438c a13d 1c72 81bd 3132 90bd
000000d0: 8429 ea3d 88ce 483d c6d8 273e ec41 6c3d
000000e0: 4ea3 33be 0bb9 1cbd 4778 023d e9e1 0cbe
000000f0: cf94 923d 796f fcbd 0a62 94bd ad64 cdbc
00000100: 7e0b 78be 9e11 c63d 642c 8ebd 4569 73bd
00000110: b085 e83d 31de 1fbd 9a14 f73d 6bb1 fabd
00000120: 8868 90bc b5dc 3a3e 8dfb cb3d 7a5d 8abd
00000130: fa24 613c e8f3 39be 1ddf 313d cc3d 773e
00000140: 17ca 5abe f633 573e 8aab 22be 6edb 503e
00000150: b64f a93b 05b0 babb f3cd 6d3d 3e8c a7bd
00000160: b7e3 683e 60bc 71be e8eb e2bd d57f be3d
00000170: 9252 c4bd 5af0 5a3c f908 55bc d444 183e
00000180: 45b6 083e 0dd4 67bd e86c 8f3d cae1 17bd
00000190: dec2 dabd d1a2 c53d bfc6 0f3d 1767 613e
000001a0: e9c9 cd3d 07ab d13d 3803 0dbd ae49 0abc
000001b0: 2d21 cabd 5852 92bd 0bb9 82bd ea48 ab3d
000001c0: 7a6e be3a 990a 1a3e 794c 2f3e 7963 983d
000001d0: d001 1fbe a064 823c b83a 5c3c 4f3b eebc
000001e0: 39cf a7bd ee69 36be 196c 043d 2ad7 4c3d
000001f0: c47d 26be 86e3 a93b 8f05 cdbd 1a7d 9a3d
00000200: 5057 b43b 506e 93be adea 283e e056 06be
00000210: c3a0 74bc 146e 263e 788e f23d e32e adbd
00000220: 42de 68be 50b0 77bd e259 52be 57b2 99bd
00000230: cd49 433e 0df7 9e3d 06c9 953d af3b 5dbe
00000240: 478f 533e 375f 963d a6a4 77bd ec34 a03d
00000250: 7cb8 223e ff13 1abe be64 813d 3e28 683c
00000260: 5fc9 6ebe 8a71 9cbd a3d4 aabd 5ce2 5dbe
00000270: 4d9d 473e e1ac a83d 11cf bcbd c65b eabd
00000280: 5565 01be ead2 c4bd f9e3 a83d 534e 4dbd
00000290: ef33 08be 8860 72bd 02f1 ad3d c9d7 223e
000002a0: 7e55 f73d f8ae 7f3d 55ee c5bd 4e78 673c
000002b0: c8e4 9e3d 83a7 1dbe ca88 1abe 4a78 1f3b
000002c0: 9418 40bc a201 0abe 202f 18bd 46ba 17be
000002d0: f06d 2bbc 6ab9 ce3d 1610 aabd 5ed0 d2bd
000002e0: a1a9 bbbd 36e9 8cbe cd1f 0b3e 6d57 143e
000002f0: b322 63bc 84e6 05bd 6217 863d 4798 1ebc
00000300: 7135 bebc 667b 61bc e4a6 4bbd 2689 34be
00000310: 0c1b e83d ca01 3b3e 4ca6 ebbd 88a6 e8bc
00000320: ac69 cebd 047d 46be e85a 35be 0b84 223d
00000330: 92fd 8b3d a7a8 103e 3a5f d93d 2f73 a4bb
00000340: 25fb 9dbc dd39 01bd d8d6 b1bb bac0 ed3d
00000350: 3676 0dbe 933f 623e f62f 153e e90c 193e
00000360: 8f27 3fbd 8738 293d 05af 403d 9b68 50be
00000370: 9427 da3d 54f6 1dbe 84ac e6bd 5a85 80bd
00000380: 8d22 7f3d 48a1 bcbd 179e 9e3d 8942 fcbc
00000390: 0650 ab3d fab8 40be 7a29 04bd 7bb6 3bbc
000003a0: 7e73 5e3e 3e6d c03b 03d0 023e 6d05 63bd
000003b0: 43e7 13be d564 0d3e cec9 47be 662c f03c
000003c0: 433d 173e 37bd 1bbd 396b 57bd 3ae5 233d
000003d0: 6cb4 91bd d09b b53d 9a5a 2cbe 2b59 e83d
000003e0: 93f3 51bd 6132 2dbe 0766 943d b01e 5f3e
000003f0: 820e 423b 9389 593e dac6 193d f3ab 153e

local_trans_pixel.layers.0.0.fn.fn.to_out.0.weight f4 [32, 256]
-0.011155211 0.085778445 0.0062224655 0.10155535 -0.09423135 -0.08402077 -0.018877717 -0.019997513
-0.06913474 -0.053973217 0.010684564 -0.07206016 -0.048068978 -0.0053156978 0.044362105 0.0096493075
0.02207657 -0.020904906 -0.00787265 0.08680783 0.0070314836 0.096163146 0.019910239 0.062481318
0.02113604 -0.024981463 -0.051892407 0.113676906 0.093522795 -0.001452155 -0.026861314 0.07974794
-0.03211454 -0.10435297 0.023724375 0.014269497 0.025904713 0.083123155 -0.065762974 -0.08424314
-0.040333923 0.089393325 0.0065269805 -0.040191106 -0.038261015 0.018536609 0.12955517 -0.077169485
-0.06391645 -0.08074497 -0.019938936 0.11065591 0.07029538 0.09490483 0.06987119 0.06940098
-0.08831683 0.036895737 -0.030148886 -0.04392559 0.01791375 -0.07604437 -0.100078024 -0.03549763
0.09466522 -0.028082421 0.07851533 0.013560868 -0.04216272 -0.07095046 0.017153874 -0.06844102
0.12577905 -0.012452416 0.06537346 -0.06795454 -0.042718906 -0.038603865 -0.08772125 -0.09799257
0.010585708 -0.009430269 -0.047290366 -0.012222161 -0.080291964 -0.06900086 -0.01065921 -0.008929038
-0.06960608 0.035556525 0.01019795 0.009197118 0.0064526503 -0.010625241 0.006758719 -0.01944919
-0.021382844 -0.0034064646 -0.027754694 0.031727206 -0.03944316 0.021753652 -0.031021325 -0.023512818
0.07459246 0.001203166 0.005706218 -0.039905295 0.040820424 0.12745437 -0.03962145 0.05027946
-0.005405586 0.04435636 0.12487615 0.046412528 0.029177183 0.064457364 -0.03601337 -0.060195975
-0.041335568 -0.06907532 -0.08950403 -0.040438786 0.0310939 0.022863578 -0.07696727 0.023531342
-0.12167415 0.0777606 0.010047747 0.1249099 0.0015273206 0.060292806 0.021029837 0.0028733741
-0.0026835673 0.03390521 -0.06507476 0.11322045 -0.008542313 0.055411387 -0.10626512 -0.059416994
0.058275096 -0.0027282399 0.07743663 -0.0045631365 -0.0199823 0.041719895 0.07501966 0.046628207
-0.014861384 0.06421383 0.07649043 0.097408526 -0.02705872 0.105948284 -0.052711487 -0.025603054
0.0020407287 -0.02988243 -0.07257048 -0.009472637 0.0606834 -0.06867305 -0.008145067 0.016760098
-0.024775049 0.025979869 -0.005306198 0.027582493 -0.07703532 0.03401528 -0.084748566 -0.011383147
-0.08626723 -0.03250002 0.043110725 0.019455036 -0.13103566 0.07495561 0.013237321 0.035497874
-0.031505555 -0.04745034 -0.053881012 -0.015344911 0.024114497 0.023816375 0.08100328 -0.03418509
0.06393566 0.028152507 -0.023112148 -0.017216664 0.015869804 0.07086292 -0.112500116 -0.029622814
0.041469958 -0.11998351 0.042731397 0.011559099 -0.029609928 -0.040450435 0.041629665 -0.056178436
0.07345117 -0.070442915 0.096104555 -0.0031791057 -0.1162144 -0.046092205 -0.064131565 0.021523168
0.049804427 0.078812525 -0.03541616 -0.0100601595 -0.047503702 0.07298881 -0.013089755 0.06426892
-0.103026316 -0.030462626 -0.016951488 0.010840152 -0.012623204 -0.032881834 0.012037078 0.037435308
-0.032988716 0.084635206 -0.081201434 0.04902588 -0.030789135 0.04924124 0.050348204 0.082101114
-0.06562713 -0.034873165 0.058616146 -0.039279316 -0.041106038 0.04928816 -0.037282024 -0.01301699
-0.076817885 -0.06487636 0.06838302 0.03920507 0.025130697 0.12971511 -0.052294925 0.05624364
00000000: 59c4 36bc 9cac af3d d3e5 cb3b 40fc cf3d
00000010: 5efc c0bd 1513 acbd 71a5 9abc d3d1 a3bc
00000020: 8496 8dbd 0513 5dbd 4f0e 2f3c 4794 93bd
00000030: fae3 44bd 4e2f aebb 0ab5 353d 2118 1e3c
00000040: ecd9 b43c c440 abbc 4afc 00bc 4ec8 b13d
00000050: 5c68 e63b 2ff1 c43d cc1a a33c 69ec 7f3d
00000060: 7d25 ad3c eda5 ccbc 228d 54bd 70cf e83d
00000070: e188 bf3d 3c56 beba 420c dcbc e352 a33d
00000080: 898a 03bd 03b7 d5bd 9f59 c23c 9cca 693c
00000090: 1f36 d43c 793c aa3d bdae 86bd ab87 acbd
000000a0: 2f35 25bd d913 b73d 48e0 d53b 6e9f 24bd
000000b0: 95b7 1cbd 16da 973c 1caa 043e 090b 9ebd
000000c0: a1e6 82bd 9e5d a5bd fb56 a3bc 919f e23d
000000d0: 06f7 8f3d 775d c23d a018 8f3d 1a22 8e3d
000000e0: 74df b4bd fc1f 173d ccfa f6bc 52eb 33bd
000000f0: dbbf 923c 27bd 9bbd b5f5 ccbd f665 11bd
00000100: d7df c13d 1b0d e6bc a5cc a03d 672e 5e3c
00000110: d1b2 2cbd 7a4e 91bd 4886 8c3c ce2a 8cbd
00000120: 39cc 003e 3805 4cbc 85e2 853d c02b 8bbd
00000130: 05fa 2ebd 161f 1ebd 33a7 b3bd 54b0 c8bd
00000140: ad6f 2d3c 6a81 1abc 8bb3 41bd 753f 48bc
00000150: 1d70 a4bd 5350 8dbd f8a3 2ebc 1a4b 12bc
00000160: a28d 8ebd b8a3 113d 4d15 273c 82af 163c
00000170: c170 d33b 7e15 2ebc 3f78 dd3b e853 9fbc
00000180: 132b afbc fe3e 5fbb d05d e3bc 63f4 013d
00000190: 278f 21bd b734 b23c 6f20 febc f49d c0bc
000001a0: efc3 983d 8db3 9d3a 3afb ba3b bc73 23bd
000001b0: 5133 273d 6683 023e 1a4a 22bd d6f1 4d3d
000001c0: 5821 b1bb 04af 353d 11bf ff3d 101b 3e3d
000001d0: fd04 ef3c 3902 843d c182 13bd 0e90 76bd
000001e0: 7c4f 29bd 5d77 8dbd e44d b7bd 24a3 25bd
000001f0: a2b8 fe3c 664c bb3c 04a1 9dbd cdc4 c03c
00000200: 4c30 f9bd f340 9f3d 4e9f 243c c3d0 ff3d
00000210: 6030 c83a 97f5 763d c446 ac3c 384f 3c3b
00000220: cade 2fbb 31e0 0a3d ea45 85bd 20e0 e73d
00000230: 0ff5 0bbc 0df7 623d 87a1 d9bd 3c5f 73bd
00000240: deb1 6e3d 45cc 32bb 1997 9e3d 5d86 95bb
00000250: ecb1 a3bc 7be2 2a3d e8a3 993d 38fd 3e3d
00000260: 2a7d 73bc 8a82 833d 04a7 9c3d 1f7e c73d
00000270: 40aa ddbc 6afb d83d 00e8 57bd 7fbd d1bc
00000280: bfbd 053b ffcb f4bc d59f 94bd 1f33 1bbc
00000290: 288f 783d 75a4 8cbd e372 05bc 794c 893c
000002a0: 0bf5 cabc bcd3 d43c 9ddf adbb aef4 e13c
000002b0: b2c4 9dbd 9b53 0b3d a890 adbd 6180 3abc
000002c0: e0ac b0bd be1e 05bd df94 303d 2b60 9f3c
000002d0: 362e 06be 5482 993d 59e1 583c 3866 113d
000002e0: f80b 01bd 4a5b 42bd 56b2 5cbd 3969 7bbc
000002f0: c48b c53c 8f1a c33c 0ce5 a53d aa05 0cbd
00000300: b3f0 823d 16a0 e63c b055 bdbc f609 8dbc
00000310: 6401 823c 9420 913d 7666 e6bd 8bab f2bc
00000320: 67dc 293d eab9 f5bd 1e07 2f3d 6062 3d3c
00000330: 8590 f2bc 5baf 25bd de83 2a3d 5c1b 66bd
00000340: 916d 963d 6044 90bd 77d2 c43d 8b58 50bb
00000350: d101 eebd 2ecb 3cbd 6957 83bd 5b51 b03c
00000360: baff 4b3d 7668 a13d 8910 11bd 5ed3 24bc
00000370: 3e93 42bd 287b 953d 6976 56bc 6c9f 833d
00000380: 76ff d2bd c28c f9bc d9dd 8abc e59a 313c
00000390: 8ed1 4ebc 1aaf 06bd 2a37 453c c455 193d
000003a0: 2d1f 07bd 3955 ad3d f04c a6bd 5ccf 483d
000003b0: 7f39 fcbc 2fb1 493d eb39 4e3d a124 a83d
000003c0: 8467 86bd 2ad7 0ebd 7c17 703d 59e3 20bd
000003d0: ce5e 28bd 62e2 493d 09b5 18bd 3745 55bc
000003e0: b252 9dbd e6dd 84bd 660c 8c3d 7f95 203d
000003f0: e4de cd3c 0ad4 043e 3433 56bd bb5f 663d

local_trans_pixel.layers.0.0.fn.fn.to_out.0.bias f4 [32]
0.0011630246 0.04181216 -0.052142393 -0.07990065 0.09111069 0.055823218 -0.073288485 -0.09297326
-0.097037 0.020460453 -0.0030349602 -0.015305983 0.03181125 0.0025757763 -0.07263928 -0.133961
-0.061666522 0.10637496 0.07643998 0.0754953 0.018978734 0.09038605 0.037901837 -0.007939461
-0.011202455 0.018546777 -0.037556905 -0.018924586 -0.14646307 0.0031228706 0.0070078312 0.07821047
00000000: a170 983a 3a43 2b3d 4393 55bd f4a2 a3bd
00000010: 3e98 ba3d e3a6 643d 4618 96bd c468 bebd
00000020: 56bb c6bd ae9c a73c 2fe6 46bb f2c5 7abc
00000030: 834c 023d 5bce 283b e7c3 94bd 132d 09be
00000040: 0996 7cbd 1ddb d93d 908c 9c3d 489d 9a3d
00000050: 4a79 9b3c 521c b93d f53e 1b3d 8314 02bc
00000060: 808a 37bc 69ef 973c 45d5 19bd bc07 9bbc
00000070: 6afa 15be 13a9 4c3b f3a1 e53b d02c a03d

local_trans_pixel.layers.0.1.fn.norm.weight f4 [32]
1.0623381 1.0301557 1.0542973 1.1058699 1.0609417 0.98664576 1.0119724 1.1261327
0.98675513 1.1019956 1.0394324 1.0409164 1.1256001 0.96650785 1.0658166 0.98647153
1.0131284 0.97448915 1.0838865 1.1032914 1.0450517 1.0664774 1.0441886 1.0165658
1.130969 1.0341464 0.99566185 1.0336055 1.0365878 1.0474834 1.0230027 1.0830382
00000000: b2fa 873f 24dc 833f 37f3 863f 258d 8d3f
00000010: f0cc 873f d194 7c3f 5088 813f 1e25 903f
00000020: fc9b 7c3f 310e 8d3f 1f0c 853f c03c 853f
00000030: aa13 903f 0f6d 773f ae6c 883f 6689 7c3f
00000040: 31ae 813f 1f78 793f cbbc 8a3f a738 8d3f
00000050: 41c4 853f 5582 883f f9a7 853f d41e 823f
00000060: 98c3 903f e95e 843f b2e3 7e3f 2f4d 843f
00000070: e9ae 843f f013 863f c1f1 823f ffa0 8a3f

local_trans_pixel.layers.0.1.fn.norm.bias f4 [32]
-0.03047445 0.07732673 0.09732349 0.048258666 0.05169548 0.045857057 -0.024475202 0.03927492
0.026948955 -0.04071681 -0.023383819 -0.10192804 0.022762438 -0.076091796 0.015926396 -0.07714669
-0.0024038092 0.029435618 -0.054346155 0.09169038 0.021551698 0.068966486 -0.006814377 -0.07432967
0.09343818 0.04181975 -0.06096755 0.010970993 0.06847629 -0.03967842 0.07821897 -0.06624264
00000000: 8ea5 f9bc 7a5d 9e3d 8a51 c73d e1aa 453d
00000010: a4be 533d 9cd4 3b3d 3880 c8bc bdde 203d
00000020: 0ec4 dc3c abc6 26bd 6c8f bfbc a6bf d0bd
00000030: 4b78 ba3c 04d6 9bbd 1378 823c 15ff 9dbd
00000040: 3a89 1dbb f722 f13c 139a 5ebd 2ac8 bb3d
00000050: 308d b03c 4d3e 8d3d 234b dfbb 273a 98bd
00000060: 845c bf3d 304b 2b3d 1cb9 79bd aebf 333c
00000070: 4c3d 8c3d d785 22bd 4431 a03d 39aa 87bd

local_trans_pixel.layers.0.1.fn.fn.net.0.weight f4 [8, 32]
-0.032992423 -0.02428927 0.11316567 0.17031687 0.06486631 -0.13272372 0.0053072446 -0.031013314
-0.13144949 -0.0031528007 0.042612184 0.05848085 -0.044695716 -0.12081413 -0.055582486 -0.08105433
0.14716706 0.036399957 0.0062616486 -0.10800473 -0.14164825 0.06044449 0.123175934 0.11738192
0.07672404 -0.18853164 0.13853438 0.21612304 -0.0044538425 0.15564005 0.05606522 0.07480161
-0.13585414 0.08977841 -0.050807472 -0.1641304 0.12249452 0.07594477 -0.08752801 -0.17049406
0.16329889 -0.07299349 0.16884302 -0.027143335 -0.20420317 -0.059833992 -0.12903006 0.14383021
0.14580518 0.09202759 0.16080587 -0.022560066 -0.08393711 0.12769127 0.2101389 0.015588964
0.02898208 -0.16481377 -0.14738002 0.023512146 -0.07081503 0.21769932 -0.07680654 0.027902467
0.06356825 0.17413323 0.052698508 0.10210477 0.057207145 -0.09803728 0.157683 0.1805978
-0.09835953 0.022983847 -0.17739546 -0.18081412 0.16408171 0.001639808 -0.17543662 -0.2290296
-0.08302408 -0.04246045 -0.06352965 0.25032008 -0.13325188 -0.0573458 -0.044639546 -0.116747715
0.16822274 0.13668327 -0.0017196112 -0.05024424 0.052853324 -0.12452825 -0.003477153 -0.00021325066
0.09039648 -0.11347869 0.016161125 0.22159773 0.0039503123 -0.037249796 0.14077117 0.04487558
0.16306567 -0.18756127 0.07254284 -0.080981135 0.10235444 0.12159933 0.010776323 0.14230262
0.042362586 -0.026964463 -0.17683306 0.19711444 -0.122652315 0.018145902 0.043247264 -0.1454627
-0.039838254 -0.0699759 -0.015577263 0.00036118223 -0.10313136 0.07403308 -0.003717254 0.09160945
0.11703393 -0.03730181 -0.15741816 0.104533695 0.021648454 0.03779281 -0.0018156973 -0.13672622
-0.1222722 0.0002028954 -0.012857795 0.11608612 -0.034583695 0.06387432 0.04962969 0.15117672
0.025993757 0.14877598 -0.09912125 -0.13351421 -0.13833985 -0.08138092 0.13379428 0.057506263
0.029329015 0.0648038 -0.05025728 0.18369442 -0.1320442 0.12451957 -0.1683352 -0.101235956
-0.0036433747 -0.014697567 0.19615847 0.24877882 -0.08296843 0.07620452 -0.19429217 0.23795791
0.13557233 -0.12946284 -0.08520231 -0.14278118 0.2598267 -0.057651322 0.18546332 -0.12699312
-0.024426792 0.044997495 -0.18426444 0.15608148 0.14336821 0.25879857 -0.0068529244 -0.12936884
0.26522484 0.07405814 -0.122185744 -0.013636902 0.24732305 -0.109515235 0.2260568 -0.15875474
0.06521008 0.15274468 0.106678404 0.06587547 0.19980843 0.17475376 0.02207699 -0.060757846
-0.072917394 -0.23368973 0.0064458526 -0.10181559 -0.07079142 -0.116559155 0.05171188 -0.11159951
-0.030753246 0.101771794 -0.23285098 0.23543479 -0.10477399 0.15359731 -0.06398856 -0.07903986
0.150386 0.082426704 -0.094051935 0.16437697 -0.07068916 -0.08199454 0.11471665 -0.19538666
-0.22920735 -0.066095 -0.14016521 -0.06509961 0.115303546 -0.1236582 -0.09714534 0.09677426
0.14581047 0.19904205 0.18219866 -0.11607144 0.09442307 0.052062437 0.11183341 0.088028714
0.01578034 -0.058079503 -0.09516427 -0.10033331 0.14166602 0.06916168 0.01189807 0.1779478
-0.20198272 -0.049075734 -0.12755623 -0.17934786 0.0029606775 -0.0272458 0.18530044 -0.15642898
00000000: 1023 07bd 4bfa c6bc 67c3 e73d 8c67 2e3e
00000010: a1d8 843d bae8 07be 65e8 ad3b a20f febc
00000020: b29a 06be 389f 4ebb 1d8a 2e3d 9e89 6f3d
00000030: db12 37bd 666d f7bd 76aa 63bd d0ff a5bd
00000040: f6b2 163e 1f18 153d 842e cd3b 9531 ddbd
00000050: 3d0c 11be a494 773d aa43 fc3d ef65 f03d
00000060: 7e21 9d3d 700e 41be f5db 0d3e 5c4f 5d3e
00000070: 8af1 91bb 1b60 1f3e a5a4 653d 9631 993d
00000080: 591d 0bbe bedd b73d 7f1b 50bd cd11 28be
00000090: 68de fa3d ee88 9b3d e341 b3bd ff95 2ebe
000000a0: d337 273e 9c7d 95bd 2fe5 2c3e b35b debc
000000b0: a31a 51be 7d14 75bd 7520 04be 3a48 133e
000000c0: f44d 153e f678 bc3d 4baa 243e e3cf b8bc
000000d0: 38e7 abbd 80c1 023e a72e 573e db68 7f3c
000000e0: d46b ed3c f1c4 28be caea 16be 8b9c c03c
000000f0: 7807 91bd 92ec 5e3e bf4c 9dbd b793 e43c
00000100: 1230 823d fb4f 323e 64da 573d 4e1c d13d
00000110: 0a52 6a3d c5c7 c8bd a777 213e a1ee 383e
00000120: b970 c9bd 9f48 bc3c 28a7 35be 5627 39be
00000130: 0905 283e d3ee d63a a8a5 33be bc86 6abe
00000140: 8708 aabd 02eb 2dbd d51b 82bd f429 803e
00000150: 2e73 08be 6ee3 6abd f5d7 36bd 6d19 efbd
00000160: 9542 2c3e b3f6 0b3e 9464 e1ba e7cc 4dbd
00000170: ba7c 583d ab08 ffbd f2e0 63bb 0a9c 5fb9
00000180: ca21 b93d 8467 e8bd 5664 843c 84ea 623e
00000190: 9f71 813b 3e93 18bd 5126 103e 75cf 373d
000001a0: b0fa 263e 1010 40be 5791 943d 70d9 a5bd
000001b0: 349f d13d 1209 f93d 2d8f 303c c7b7 113e
000001c0: 6484 2d3d 94e4 dcbc ba13 35be 5ed8 493e
000001d0: 2331 fbbd b7a6 943c 0b24 313d 2df4 14be
000001e0: 702d 23bd 864f 8fbd c737 7fbc 0f5d bd39
000001f0: 8936 d3bd a89e 973d 2c9d 73bb bc9d bb3d
00000200: 7caf ef3d c8c9 18bd 3a32 21be c315 d63d
00000210: 1958 b13c a2cc 1a3d b1fc edba f501 0cbe
00000220: d969 fabd 52c0 5439 80a9 52bc 8fbe ed3d
00000230: a2a7 0dbd 8ad0 823d 8048 4b3d 12ce 1a3e
00000240: dcf0 d43c bb58 183e 1500 cbbd f3b7 08be
00000250: f6a8 0dbe 0aab a6bd 5e01 093e b08b 6b3d
00000260: 6743 f03c dbb7 843d 94da 4dbd 641a 3c3e
00000270: 9836 07be 1e04 ff3d 1060 2cbe cc54 cfbd
00000280: afc5 6ebb 10ce 70bc c4dd 483e e0bf 7e3e
00000290: 5aeb a9bd 1e11 9c3d 87f4 46be 3dab 733e
000002a0: 79d3 0a3e e891 04be 8c7e aebd 3b35 12be
000002b0: 0108 853e cb23 6cbd 19ea 3d3e 7c0a 02be
000002c0: b21a c8bc 4b4f 383d d1af 3cbe d3d3 1f3e
000002d0: 1ecf 123e 3f81 843e 7f8e e0bb 4479 04be
000002e0: 8dcb 873e cbab 973d 853c fabd 506d 5fbc
000002f0: 4142 7d3e 8649 e0bd 6f7b 673e 9a90 22be
00000300: dd8c 853d 1a69 1c3e 357a da3d b8e9 863d
00000310: 959a 4c3e a6f2 323e ceda b43c 38dd 78bd
00000320: b755 95bd 5c4c 6fbe bb37 d33b b184 d0bd
00000330: 18fb 90bd 91b6 eebd d6cf 533d 498e e4bd
00000340: 3bee fbbc bb6d d03d 7d70 6ebe d115 713e
00000350: bf93 d6bd 9d48 1d3e 6f0c 83bd a6df a1bd
00000360: cafe 193e 55cf a83d 4d9e c0bd 7052 283e
00000370: 7ac5 90bd c1ec a7bd 90f0 ea3d 7113 48be
00000380: 55b5 6abe d15c 87bd 7887 0fbe f252 85bd
00000390: 4424 ec3d 8340 fdbd 23f4 c6bd 9531 c63d
000003a0: 574f 153e aed1 4b3e 4992 3a3e ddb6 edbd
000003b0: e260 c13d 6c3f 553d ea08 e53d 6648 b43d
000003c0: c645 813c c6e4 6dbd 7ce5 c2bd 8d7b cdbd
000003d0: e610 113e a4a4 8d3d 1ff0 423c f337 363e
000003e0: 8fd4 4ebe a303 49bd 1a9e 02be f7a6 37be
000003f0: ed07 423b 9532 dfbc 66bf 3d3e eb2e 20be

local_trans_pixel.layers.0.1.fn.fn.net.0.bias f4 [8]
-0.04743276 0.11363952 0.17936899 -0.20540805 0.024811735 0.024242256 -0.096827395 -0.030880002
00000000: db48 42bd d6bb e83d 81ac 373e 7d56 52be
00000010: fb41 cb3c b297 c63c 714d c6bd 0ff8 fcbc

local_trans_pixel.layers.0.1.fn.fn.net.3.weight f4 [32, 8]
-0.18877618 -0.1100772 0.025830345 0.20511033 0.21271606 0.33592102 -0.10335287 0.07328048
0.20894653 0.3095566 -0.16398361 -0.19492248 0.24441685 0.05097898 -0.30501443 0.26932323
-0.30901027 -0.27977082 -0.19558994 -0.15260495 0.004386096 -0.45271304 -0.11593623 -0.25122294
0.17662613 -0.3148677 -0.13015893 0.37594002 0.27876738 -0.34528127 0.040640745 -8.159836e-05
-0.026778387 -0.09796619 -0.100767374 0.25671345 0.06257598 0.30560502 0.3947506 0.19844231
0.37102762 0.3877719 -0.2775343 0.20087388 0.28258726 -0.1892582 -0.13846311 0.22566347
0.09003686 0.12090165 -0.37265766 -0.18851018 0.13296548 -0.06498391 -0.17182189 0.03566756
-0.28725162 -0.27763247 -0.31979597 0.1832207 0.040534858 -0.34768093 0.17370902 -0.0298234
-0.24825771 0.03358448 -0.15941286 0.12426814 0.25101244 -0.34991372 -0.08530935 -0.3409833
0.19609472 0.14586513 -0.005632928 0.31548747 -0.2052402 -0.29076955 -0.09802721 0.26298973
0.19099458 0.13444003 -0.27705067 0.026006944 -0.115543246 -0.022305202 0.27187085 -0.28355002
-0.25595805 0.36420238 -0.10157056 -0.17943221 -0.13051033 0.09944815 0.284894 -0.13283755
-0.29497275 0.13996595 0.36133087 -0.3609755 0.07477714 -0.11980648 0.34557095 -0.058895484
0.10917259 0.20373285 -0.12184311 0.13603857 0.13122277 0.09923017 0.27546954 -0.16473998
-0.107818134 0.022830788 0.25513843 0.28163075 -0.033093844 0.32399717 -0.036283918 -0.29797092
0.13448432 -0.05502007 -0.017165985 0.16387497 -0.30964914 0.07988215 -0.25005215 -0.26681438
-0.3041703 0.0043301485 -0.20505661 -0.22550523 -0.28114972 0.31111544 -0.019520782 0.018458303
0.012459703 0.3374337 -0.13131174 -0.06985398 0.2166196 0.4011795 0.2579285 -0.26673326
0.155849 0.26082644 0.19694683 0.24094614 -0.08357159 -0.1250418 0.094870724 -0.110399984
-0.17706077 -0.110253 0.20429237 -0.21579716 -0.023507502 -0.22081047 0.16857943 -0.11560489
0.23385452 -0.11522498 -0.08821747 -0.16289984 0.18274333 0.432689 0.24962234 0.108538695
0.2824129 0.029772088 -0.28757322 0.060896803 0.1715706 -0.1270776 0.19576144 -0.25699878
-0.34362262 -0.2908262 0.029664638 -0.34338653 -0.20876731 0.057198986 -0.19022083 0.16595873
0.016745795 -0.04706473 0.07214214 -0.3410353 -0.15626003 0.23000005 0.3021348 0.12650695
0.057668023 -0.03076494 -0.12068935 0.10967003 0.18704301 -0.0065895673 0.2870264 -0.030979848
-0.14508505 -0.09285141 -0.06727368 -0.005633596 -0.11463022 -0.24789599 0.080247 0.016215663
0.19239715 -0.019272761 0.174374 -0.21255128 0.04458047 -0.30232546 -0.18429334 0.2931676
-0.25429973 0.24230283 -0.20544806 0.34146565 -0.119634315 -0.071205236 0.21840477 -0.1945306
0.31861743 -0.40690634 -0.4172873 -0.16409723 0.21202888 -0.25902897 -0.018714484 0.25655064
0.082232736 -0.20683868 -0.1299738 -0.22219987 0.110406585 0.2554173 0.23068891 -0.1050998
0.35504937 -0.2355776 -0.17022984 -0.17476241 0.13110769 0.23907046 0.40518853 0.20341328
0.015205503 -0.109313525 -0.02723498 -0.19601667 0.18306158 0.010146594 -0.26623484 -0.09960429
00000000: 8b4e 41be 2870 e1bd 299a d33c 7108 523e
00000010: 3dd2 593e d7fd ab3e abaa d3bd 1414 963d
00000020: 14f6 553e 347e 9e3e 52eb 27be c299 47be
00000030: 6948 7a3e 56cf 503d da2a 9cbe bce4 893e
00000040: 9836 9ebe 1f3e 8fbe bb48 48be 7944 1cbe
00000050: 3db9 8f3b 01ca e7be f96f edbd 4ba0 80be
00000060: 7bdd 343e 5736 a1be 6248 05be 367b c03e
00000070: 99ba 8e3e b5c8 b0be e976 263d c91f abb8
00000080: 595e dbbc 7fa2 c8bd 205f cebd f26f 833e
00000090: d627 803d 4378 9c3e c01c ca3e 7634 4b3e
000000a0: 55f7 bd3e 0a8a c63e fa18 8ebe e2b1 4d3e
000000b0: 47af 903e e7cc 41be 46c9 0dbe 5314 673e
000000c0: 3f65 b83d 499b f73d fccc bebe d008 41be
000000d0: 1a28 083e 4916 85bd 14f2 2fbe 2618 123d
000000e0: a512 93be d825 8ebe 4cbc a3be 359e 3b3e
000000f0: e107 263d 3c03 b2be c7e0 313e 3450 f4bc
00000100: 4537 7ebe e18f 093d 203d 23be 4b80 fe3d
00000110: b484 803e e427 b3be abb6 aebd 5d95 aebe
00000120: 0ecd 483e ab5d 153e 6d94 b8bb 9387 a13e
00000130: 7d2a 52be bfdf 94be 7dc2 c8bd 97a6 863e
00000140: 1594 433e a6aa 093e 96d9 8dbe 840c d53c
00000150: f0a1 ecbd 66b9 b6bc a832 8b3e 782d 91be
00000160: ef0c 83be bc78 ba3e 3a04 d0bd 14bd 37be
00000170: 80a4 05be 79ab cb3d a0dd 913e 9106 08be
00000180: ab06 97be 3c53 0f3e 5c00 b93e c8d1 b8be
00000190: c224 993d 1a5d f5bd adee b03e 643c 71bd
000001a0: e195 df3d 589f 503e e188 f9bd b24d 0b3e
000001b0: 435f 063e 3039 cb3d 580a 8d3e 99b1 28be
000001c0: c1cf dcbd a207 bb3c 81a1 823e e831 903e
000001d0: 698d 07bd f5e2 a53e 729e 14bd a58f 98be
000001e0: 42b6 093e ba5c 61bd ae9f 8cbc d7ce 273e
000001f0: 558a 9ebe 4199 a33d d606 80be e59b 88be
00000200: 36bc 9bbe ebe3 8d3b 5cfa 51be d8ea 66be
00000210: dbf2 8fbe 864a 9f3e 0cea 9fbc de35 973c
00000220: c823 4c3c 1cc4 ac3e 9676 06be 9a0f 8fbd
00000230: 87d1 5d3e 6667 cd3e 340f 843e 4391 88be
00000240: e196 1f3e 0b8b 853e 6eac 493e 96ba 763e
00000250: 9527 abbd f50a 00be 954b c23d 6319 e2bd
00000260: 6b4f 35be 53cc e1bd 0532 513e eef9 5cbe
00000270: ce92 c0bc 241c 62be 16a0 2c3e 42c2 ecbd
00000280: 8f77 6f3e 13fb ebbd 5cab b4bd 37cf 26be
00000290: 1121 3b3e 6a89 dd3e 009d 7f3e 8949 de3d
000002a0: 6c98 903e 98e4 f33c cc3c 93be ed6e 793d
000002b0: 34b0 2f3e a120 02be b075 483e 5895 83be
000002c0: 4eef afbe 2ce7 94be 4103 f33c 5cd0 afbe
000002d0: 19c7 55be 7c49 6a3d 40c9 42be 16f1 293e
000002e0: 7a2e 893c f2c6 40bd 42bf 933d 2e9c aebe
000002f0: a102 20be 2285 6b3e 6ab1 9a3e 0a8b 013e
00000300: 4e35 6c3d c106 fcbc fa2b f7bd ae9a e03d
00000310: 3488 3f3e 4ced d7bb 20f5 923e 73c9 fdbc
00000320: 2d91 14be e128 bebd c8c6 89bd 079a b8bb
00000330: 40c3 eabd 72d8 7dbe 8a58 a43d b6d6 843c
00000340: c203 453e e9e1 9dbc 198f 323e 0ba7 59be
00000350: 039a 363d 67ca 9abe 65b7 3cbe 101a 963e
00000360: 9333 82be 3c1e 783e fa60 52be 96d4 ae3e
00000370: d602 f5bd 0dd4 91bd 80a5 5f3e 0833 47be
00000380: d321 a33e 0756 d0be aea6 d5be 1b09 28be
00000390: 191e 593e 729f 84be 1e4f 99bc 9b5a 833e
000003a0: a369 a83d 85cd 53be da17 05be 5d88 63be
000003b0: d91c e23d 0ec6 823e b739 6c3e 903e d7bd
000003c0: 08c9 b53e 413b 71be bb50 2ebe ebf4 32be
000003d0: 1841 063e e3ce 743e df74 cf3e 924b 503e
000003e0: 8120 793c c5df dfbd e51b dfbc 98b8 48be
000003f0: 7f74 3b3e e63d 263c ef4f 88be 56fd cbbd

local_trans_pixel.layers.0.1.fn.fn.net.3.bias f4 [32]
0.119750604 0.28713372 -0.30177176 -0.3270011 0.08416193 -0.11288131 -0.2428032 -0.15606159
-0.12704754 0.025945153 -0.27034694 0.36852345 0.403383 0.0049420805 -0.29230505 -0.2811788
-0.07739827 0.19294414 -0.019523643 0.12866212 0.35085356 0.0716148 0.14222471 0.21645883
-0.35490096 0.40624306 -0.0056118118 -0.005131985 -0.33839434 0.17476937 -0.0507966 0.33524987
00000000: ce3f f53d 3103 933e d481 9abe b06c a7be
00000010: 175d ac3d 512e e7bd 67a1 78be 9cce 1fbe
00000020: c018 02be ee8a d43c ea6a 8abe 1baf bc3e
00000030: 3788 ce3e 2df1 a13b 02a9 95be abf6 8fbe
00000040: fc82 9ebd 2693 453e 0cf0 9fbc 01c0 033e
00000050: 14a3 b33e c8aa 923d 5ba3 113e 62a7 5d3e
00000060: 94b5 b5be 17ff cf3e 4ae3 b7bb 362a a8bb
00000070: 0642 adbe bef6 323e 1810 50bd dfa5 ab3e

conv2d_features.0.weight f4 [64, 30, 3, 3]
0.016635569 -0.054905806 -0.04998181 -0.0526569 0.056156877 -0.024079684 -0.017652558 0.011178466
0.025032125 0.008019886 0.025354 0.021875376 0.062932365 0.03785995 0.023688152 0.058387153
-0.01978382 -0.030878842 0.02448486 -0.03467342 -0.03599111 -0.024695909 -0.0004400198 -0.013125732
-0.054581933 -0.077861644 -0.055955783 -0.057402108 -0.06564195 -0.055649158 -0.0037230148 0.007940825
-0.048979048 0.025470603 -0.0029544802 -0.022392925 0.021344902 0.033917155 0.052179895 0.015034281
0.04839767 0.059244156 0.042060338 -0.036915943 -0.030435156 -0.050227053 -0.04323845 -0.030792587
-0.025285425 0.006764218 0.0021727278 -0.015675902 -0.046588346 -0.055839352 0.009774997 0.012775701
0.00021578518 -0.018922802 -0.0127541805 -0.03724853 0.0023017265 -0.043945998 -0.03419682 0.04817431
-0.036149833 0.014100529 0.025969453 -0.014498288 -0.026354825 0.017909965 0.008043767 0.030887306
-0.024010843 0.067151636 0.055839006 0.07154193 -0.008845822 0.08095189 0.065098 0.022486467
0.030786097 -0.033775404 -0.08693903 -0.088135764 -0.06299504 -0.06766026 -0.09287911 0.015318861
-0.0012254034 0.0069594486 0.032893263 0.07625288 0.07357148 0.03376035 0.051616836 0.02631212
0.0074955835 0.10105215 0.06880023 -0.058158558 -0.08376649 0.01675434 -0.064962275 -0.01972547
-0.039739743 0.012365611 -0.013798373 -0.023256402 -0.07635634 -0.07840501 -0.027926434 -0.010922248
-0.06450496 -0.038516097 -0.0065270364 -0.042680115 -0.10357873 0.019771848 0.008839507 0.0032295142
-0.024720363 0.005893112 -0.040130243 0.053818114 -0.08037895 0.008870066 -0.0056316974 -0.012398415
-0.03998856 -0.010934972 -0.028656272 -0.038516827 0.028889861 -0.013329692 0.03307772 -0.0062485067
-0.026723605 0.03377228 0.03862868 0.008482574 0.0656207 0.033196263 0.040329408 0.031200865
-0.005353574 0.02690307 -0.009363597 -0.008718022 0.022183545 0.046595752 0.009418017 -0.03196053
-0.030182673 -0.042560413 0.016187044 -0.07408825 -0.037303254 -0.0362732 0.014165312 0.0076744533
0.002318569 -0.040047634 -0.041996486 -0.010370639 0.043061815 0.002057035 -0.032551788 0.050810017
0.04592194 0.036437154 -0.017300485 0.029896742 -0.00085647806 -0.026396694 -0.018484462 -0.01321301
-0.08939915 -0.038154397 -0.019975482 -0.078606784 0.015204872 -0.004520948 -0.022998605 -0.010750956
-0.036672376 0.037216887 0.019447159 0.028717743 0.045326546 0.047481652 -0.022907196 0.030175488
0.005075274 0.0050026113 -0.013710278 0.035475615 0.050026014 -0.02623626 -0.037551444 -0.0152620515
0.038676057 -0.08828086 0.046798963 -0.028347053 0.033599656 0.04520103 -0.04149294 0.06240981
-0.01015208 0.031307355 0.014189704 0.035833128 -0.040623702 0.009157748 0.0013955333 -0.030924894
0.015913146 -0.00031965322 0.02445422 -0.04193555 -0.006023473 -0.07967355 0.013134709 0.014819622
-0.052886996 0.01691002 0.06534185 0.044497263 -0.038344696 0.020083677 0.026253717 -0.010407878
-0.043941133 0.012807368 -0.014010456 -0.08671559 -0.023618652 0.017062405 0.023860648 0.0031044285
0.033511486 -0.018131407 -0.028072266 0.028670006 0.035166085 -0.021152858 0.028855331 -0.034348663
-0.03252064 -0.043819696 -0.04479097 0.006277283 0.008009846 -0.014574328 -0.011971964 0.020609582
00000000: 5147 883c e9e4 60bd bab9 4cbd c3ae 57bd
00000010: c104 663d c242 c5bc 199c 90bc e225 373c
00000020: 2c10 cd3c d765 033c 31b3 cf3c fd33 b33c
00000030: afe2 803d 0913 1b3d a80d c23c 5e27 6f3d
00000040: ad11 a2bc a0f5 fcbc 7994 c83c b705 0ebd
00000050: 6a6b 13bd 134f cabc 75b2 e6b9 4f0d 57bc
00000060: 4e91 5fbd ed75 9fbd e431 65bd 791e 6bbd
00000070: 496f 86bd 5ff0 63bd d3fd 73bb 3c1a 023c
00000080: 419e 48bd baa7 d03c f49f 41bb 5e71 b7bc
00000090: 81db ae3c b7ec 0a3d 96ba 553d 5852 763c
000000a0: a33c 463d 00aa 723d 7647 2c3d 2c35 17bd
000000b0: 2653 f9bc e2ba 4dbd cd1a 31bd bc40 fcbc
000000c0: 6123 cfbc 60a6 dd3b 5364 0e3b c06a 80bc
000000d0: 6cd3 3ebd ceb7 64bd 4f27 203c 2c51 513c
000000e0: 6544 6239 fe03 9bbc e9f6 50bc ea91 18bd
000000f0: 90d8 163b b800 34bd f711 0cbd 6d52 453d
00000100: d911 14bd e805 673c e4bd d43c 3a8a 6dbc
00000110: 13e6 d7bc ebb7 923c 01ca 033c 6007 fd3c
00000120: 63b2 c4bc cc86 893d 71b7 643d 9384 923d
00000130: 11ee 10bc 1bca a53d 1a52 853d 8a35 b83c
00000140: 2033 fc3c 1458 0abd 170d b2bd 8680 b4bd
00000150: 8b03 81bd 7691 8abd 6737 bebd f6fb 7a3c
00000160: b79d a0ba 160c e43b 16bb 063d 782a 9c3d
00000170: a5ac 963d 4b48 0a3d 2d6c 533d 848c d73c
00000180: 839d f53b 6ef4 ce3d 23e7 8c3d ab37 6ebd
00000190: c48d abbd 6640 893c f10a 85bd 4f97 a1bc
000001a0: 24c6 22bd 2299 4a3c 9212 62bc 3684 bebc
000001b0: b660 9cbd ce92 a0bd fac5 e4bc 3af3 32bc
000001c0: 2d1b 84bd 0ec3 1dbd c0e0 d5bb 58d1 2ebd
000001d0: 1621 d4bd 92f8 a13c 94d3 103c 42a6 533b
000001e0: 5c82 cabc 021b c13b 9c5f 24bd 6270 5c3d
000001f0: b89d a4bd c153 113c 1a8a b8bb b922 4bbc
00000200: 0bcb 23bd 9928 33bc 8fc0 eabc d2c3 1dbd
00000210: 6eaa ec3c c864 5abc 817c 073d 46c0 ccbb
00000220: 76eb dabc cd54 0a3d 1b39 1e3d 7efa 0a3c
00000230: 2564 863d cef8 073d 7330 253d f598 ff3c
00000240: 096d afbb d463 dc3c c669 19bc 09d6 0ebc
00000250: 44ba b53c 30db 3e3d 074e 1a3c 0be9 02bd
00000260: a741 f7bc d453 2ebd b19a 843c 95bb 97bd
00000270: 4ccb 18bd 3593 14bd a015 683c fb79 fb3b
00000280: 22f3 173b fd08 24bd 8204 2cbd 9de9 29bc
00000290: 9661 303d 52cf 063b 0655 05bd 2a1e 503d
000002a0: a518 3c3d 203f 153d bfb9 8dbc 03ea f43c
000002b0: 4585 60ba e13d d8bc ba6c 97bc 617b 58bc
000002c0: e716 b7bd c947 1cbd 9fa3 a3bc 98fc a0bd
000002d0: db1d 793c 7624 94bb 9267 bcbc c724 30bc
000002e0: c635 16bd bc70 183d a64f 9f3c 7941 eb3c
000002f0: 54a8 393d 1f7c 423d dfa7 bbbc 9632 f73c
00000300: 7c4e a63b f2ec a33b 13a1 60bc e14e 113d
00000310: 14e8 4c3d 6ded d6bc 8bcf 19bd af0d 7abc
00000320: c96a 1e3d 98cc b4bd 45b0 3f3d 1438 e8bc
00000330: cb9f 093d b724 393d 80f4 29bd 6ea1 7f3d
00000340: e954 26bc 243c 003d ef7b 683c c2c5 123d
00000350: 0a65 26bd 610a 163c 54ea b63a 3456 fdbc
00000360: 495c 823c 2197 a7b9 3754 c83c 9cc4 2bbd
00000370: 8e60 c5bb e32b a3bd f632 573c 00ce 723c
00000380: 09a0 58bd e286 8a3c f3d1 853d c342 363d
00000390: 540f 1dbd 8686 a43c 0912 d73c ce85 2abc
000003a0: 9efb 33bd ffd5 513c 1d8c 65bc f197 b1bd
000003b0: e77b c1bc 75c6 8b3c 6877 c33c ab73 4b3b
000003c0: 5743 093d 5188 94bc cff7 e5bc 5cdd ea3c
000003d0: 500a 103d c248 adbc 0462 ec3c 2fb1 0cbd
000003e0: 5d34 05bd 487c 33bd bc76 37bd abb1 cd3b
000003f0: bb3b 033c 2ac9 6ebc 0e26 44bc 6dd5 a83c
