src/res/GGCL/guided_contra_cross_transformer/Pavia/5/True/ss0.3/_1712142183.pth (torch, 266710 bytes, 37 tensors)

pixel_pos_embedding f4 [1, 170, 32]
00000000: dda3 d6bf cf6d acbf b617 8cbe cb13 45be
00000010: aede 08bf 1e64 a43f 5d20 413d d1eb 0dbf
00000020: 4594 83bf a89b 7dbf c419 213f 517a 79be
00000030: 9cb0 0c3d 0a5e b93f fd0c 52bf 7bcd 2fbf
00000040: 232f f7be 9bf7 79bf 9f52 9dbe 8486 823f
00000050: 3ff4 413f 5fe5 2b3f 4f57 623f adf4 67bf
00000060: 3a80 99bf f58f 8b3e 5574 98bf df0e b3bf
00000070: 8184 4a3e 5a38 92bf c939 e83e a01e 48bc
00000080: 25ab af3f ab65 1abf 3598 44bf 252f 1abf
00000090: 7258 c43f 0301 a03f 6ee0 26bf 1a82 f5be
000000a0: 7577 b03e 7fc0 51be 6599 2f3f 50ad c63d
000000b0: 74eb e83f eff6 2fbf 8f78 1cbf 5c71 35c0
000000c0: 1e20 703f e46d 61be a7d3 dd3e 10fe 74bf
000000d0: a637 fd3d cc57 cdbc 505a a4be 06fa fc3f
000000e0: dbd8 f83e 6d95 fb3f 2ed4 4c3f 23e6 e13f
000000f0: 7dbf 8dbf d426 a73f e2d1 a9bd 4477 67bf
00000100: 724b 9cbf 24a4 15bf d097 fc3f 3676 06bf
00000110: 00d8 a13a 6cfc f7be 59ba b4bf 2747 483f
00000120: 7d08 983e 181e b6be d2c2 ac3f cd15 a13f
00000130: 0ed6 023d 18e1 7d3e 51f1 ca3f 2cd8 743f
00000140: 835d 9b3f 2496 853e 47b5 6ac0 cf90 3f3e
00000150: 53d3 de3f 7d38 5d3f 651b 60bf fbe1 663f
00000160: 5967 e03d bc9a 303f 3f20 a83e 7c13 f03f
00000170: 71e4 e6bf 1631 313f 0d32 6f3f 6eac 913f
00000180: 619e d63f a7d6 873f aaf3 a1bf 562c ecbe
00000190: cf0d d33e 9f61 adbf 7862 cb3f ea66 07bf
000001a0: 422f 60bf 871c 3ebe 1e51 a43f 5c07 3ebe
000001b0: 4ab4 2abf 49c2 8ebf 0aa0 7e3f ecf5 e53e
000001c0: 257d 80bf 4448 00bf 9bb7 d2bf 4bd6 083f
000001d0: 1320 083f 3bd5 7cbe f7dd 353f c697 46bf
000001e0: a400 743e 0e49 a33f 147f 50bf 6b71 963f
000001f0: a0db 37bf c711 2f3f 0a7a d7bf e502 0040
00000200: c6ae 9d3e 76a5 1ebf 3743 183f 3218 1e40
00000210: 6265 ab3f d2f1 313e 122b 3f3f a509 d3bf
00000220: e268 c33e ed80 08c0 4dc0 01c0 a267 173f
00000230: a7d2 89be 8de6 8f3f 5613 8c3f 9e01 3cbf
00000240: ca39 be3d 184a 10bf c679 833f e107 b3bf
00000250: bba5 40be c502 f23f 7e56 1b3f 7e54 a6bf
00000260: 2ea4 d13f e0d0 85be b2b0 983d d5fe 4cbd
00000270: a59b 02be 196e 513f 8e04 96be 55f1 7d3f
00000280: 6899 733c 115a c8bf b32d e8bd ea7d 6c3f
00000290: 018b 94bf d079 13bf 138d 553f e22a 553f
000002a0: 6cf3 423f 3709 8ebc dc6f 0340 ac27 fdbe
000002b0: ccf4 eabe 0615 cd3f 318c a13d a060 4dbe
000002c0: bb4f b63f 5a22 c53e 4128 803f e2a8 843f
000002d0: ec72 0bc0 8d86 04bf de49 ef3f ca2e 443f
000002e0: 13a7 84bf 3ef5 e93e b837 26bf fc9d ad3f
000002f0: 6c6b 6fbf 78d2 ebbe 1ae1 b4be ede1 78be
00000300: de84 8f3f 5de3 1abf df13 e13f 4651 e4be
00000310: 9243 183f a4f2 043f 4753 38be bdcd 62bf
00000320: d47e b53f f2f1 c2be 1333 8a3f a421 b3be
00000330: af42 023f baf1 9b3f c6bf ad3e e4c7 aa3f
00000340: c619 813f 22fa e3be 4848 423f 30e7 273f
00000350: d299 1fbf c706 0a3f 29d3 8cbf 83e3 1a40
00000360: 9c4b 14bf c634 0f3f fdc4 59be 3729 a1be
00000370: 4b24 9bbe dea5 f23d f3b3 4abf 7b9a 55bf
00000380: 0493 cf3f f455 aa3c 4ed4 9cbf 6db9 f73d
00000390: dc7a 1dc0 362d c93e c898 a3be 6243 e3be
000003a0: 1dcf 4c3f 4318 ab3c bafd fa3e 05f4 543f
000003b0: fb72 153e 4f51 b83f 3eca a8be 7c20 48bf
000003c0: fa93 123e 1135 16bf 15d3 d53e 2dd3 fbbe
000003d0: c569 74bf 2163 50be 5f57 a2bf df33 6f3f
000003e0: 5430 8cbf 7e18 9d3f 12b0 2b3f e886 4ebf
000003f0: 253e 6abe e6c9 313f 8f52 8b3f e03f b63f
-1.6768757 -1.3471011 -0.2736184 -0.19245832 -0.5346478 1.2843053 0.047150005 -0.5543795
-1.0279623 -0.9906564 0.6292994 -0.24363066 0.034348115 1.4481823 -0.8205107 -0.68672913
-0.4827815 -0.9764344 -0.30727097 1.0197301 0.75763315 0.6714687 0.8841447 -0.9060772
-1.1992257 0.27258268 -1.1910502 -1.3988913 0.19777109 -1.1423447 0.45356587 -0.012214333
1.3724104 -0.60311383 -0.7679475 -0.60228187 1.5339491 1.2500309 -0.651862 -0.47950822
0.34466138 -0.20483588 0.68593436 0.097010255 1.8196855 -0.68736166 -0.6112146 -2.835044
0.93799007 -0.22014576 0.4332554 -0.9570017 0.1236413 -0.025066279 -0.32100153 1.9763801
0.48602948 1.9654976 0.8001126 1.7648357 -1.1074063 1.3058724 -0.08291985 -0.9041636
-1.2210524 -0.58453584 1.973383 -0.52524126 0.0012347698 -0.4843477 -1.4119369 0.7823357
0.29693976 -0.35569835 1.3496954 1.2584778 0.03194242 0.24792898 1.5854894 0.9564235
1.2137913 0.2609111 -3.6673143 0.18707584 1.7408241 0.8641432 -0.875418 0.9018857
0.10957212 0.68986106 0.32837102 1.8755946 -1.8038465 0.69215524 0.93435746 1.1380746
1.6767083 1.0612382 -1.2652485 -0.46127576 0.41221473 -1.3545417 1.5889425 -0.5289141
-0.8757211 -0.1856557 1.2837255 -0.18557495 -0.6668135 -1.1153041 0.9946295 0.44914186
-1.0038191 -0.5011027 -1.6462282 0.53451985 0.5317394 -0.24690716 0.71041816 -0.7757534
0.2382837 1.275667 -0.81443906 1.1753362 -0.71819496 0.683865 -1.6834118 2.0001767
0.30797404 -0.61971223 0.5947756 2.4702268 1.3390315 0.17377403 0.74675095 -1.6487318
0.38165957 -2.132869 -2.027362 0.59142506 -0.26918527 1.1242234 1.0943401 -0.7343997
0.09288366 -0.5636306 1.0271537 -1.398678 -0.18813221 1.8907095 0.6067885 -1.2994535
1.6378229 -0.2613592 0.07455577 -0.050047714 -0.12754686 0.8180862 -0.2930035 0.9919637
0.014868118 -1.5652486 -0.113368414 0.9237963 -1.1604921 -0.57607746 0.8341839 0.8326856
0.7615268 -0.017338378 2.0537024 -0.4944433 -0.4588989 1.6022041 0.078880675 -0.20056391
1.4243082 0.3850277 1.0012285 1.0364039 -2.1788893 -0.5176781 1.8694417 0.76633894
-1.0363487 0.45694917 -0.6492877 1.3563838 -0.9352329 -0.46059012 -0.3532799 -0.24304934
1.1212423 -0.6050318 1.7584189 -0.44593257 0.59478104 0.5193274 -0.18000518 -0.8859518
1.417933 -0.38075215 1.0796837 -0.34986603 0.50883 1.2183144 0.33935374 1.3342252
1.008599 -0.44526774 0.7589154 0.6558714 -0.62344086 0.5391659 -1.1001941 2.4201362
-0.5792787 0.559399 -0.21266551 -0.31476757 -0.30301127 0.11848043 -0.7918083 -0.83438843
1.6216741 0.020792939 -1.225229 0.12095914 -2.4606237 0.39292306 -0.319525 -0.44387347
0.8000353 0.020885592 0.49021703 0.83184844 0.14594643 1.4399813 -0.329668 -0.7817457
0.14314261 -0.5867472 0.41762605 -0.49184552 -0.9547389 -0.20350315 -1.2682914 0.93438524
-1.0952249 1.22731 0.67065537 -0.806746 -0.22875269 0.694487 1.088457 1.4238243

cls_token_pixel f4 [1, 1, 32]
00000000: ce3c 2340 bb09 b73f f5d5 7fbe a147 0b3f
00000010: 0df2 93be 6745 e4bf 845a e4be b899 8fbe
00000020: fc27 85bf 597e 7ebd dae6 813d a32d 073f
00000030: f9e7 103f bd31 833f 9c2c 63be 1bb3 273f
00000040: 644f fd3e 78d7 36bf 3d60 0a3f feca 9cbe
00000050: c5d6 a5bf e718 d1bd 3b3a 6bbf 4321 b0be
00000060: 0157 5a3e aca9 57bd 9484 26c0 ef7c c33d
00000070: 065c 1f3e eb68 ce3f 5832 2abc 6264 003e
2.5505862 1.4299845 -0.24983962 0.5440617 -0.28895608 -1.783368 -0.44600308 -0.28046966
-1.0402827 -0.062132213 0.063428596 0.5280401 0.5660396 1.0249554 -0.22184986 0.6550767
0.49474633 -0.7142253 0.540531 -0.3062362 -1.2956167 -0.10209828 -0.9188573 -0.34400377
0.21322252 -0.052652046 -2.601842 0.095453136 0.15562448 1.6125768 -0.010387979 0.12538293

pixel_patch_embedding.weight f4 [32, 30]
00000000: e0fd 193d b99d 18be fb40 d6bd d8d9 cb3d
00000010: dc1b 34be 9092 04bc e468 a6bd 818b ebbd
00000020: cc85 fb3d ea53 063e 24b8 aabd de78 7bbd
00000030: 52ac 113e fd83 d7bd 9484 d6bd 246f 273d
00000040: b498 1a3d ead8 7cbd 20fe 9e3b a119 d0bd
00000050: bb32 07be 58f4 fa3d 880c f93d 30de b73c
00000060: 5065 70bc 114d 0cbe 2822 f43d a49e fa3d
00000070: fcf6 103d e7d1 30be f8b9 b53c c8e4 00be
00000080: 24fb 153e fc23 54bd 908d b7bc 2842 c03c
00000090: 85aa 18be 9dae 10be 8a4d 073e 5827 463d
000000a0: e258 fcbd 56fb 283e 88ff 223e 5be2 38be
000000b0: 940f 3dbd 8208 373e 92d9 2bbe 98ce 063e
000000c0: 4c1d 413d 38da b53d c4b8 5fbd 5603 30be
000000d0: 0a47 003e b0a0 8dbd a06f 6c3d 18cc 603d
000000e0: b525 26be 6a40 e5bd 7c55 20bd faf3 103e
000000f0: 2cc3 e63d 43d4 e1bd 3469 1fbe 00cb f43b
00000100: 2e55 023e a8a7 dbbc b0f9 36bc c632 1bbe
00000110: cc1b 1fbd e4d2 1c3e 7ad2 e3bd 8cdd 66bd
00000120: 2418 08be dc5a cebd 7ebe 0ebe a0f2 a1bb
00000130: 0483 cd3d dffe a5bd e4e6 8c3d 7811 1ebe
00000140: ccc8 06be 08e8 f63d 8c3c e23d 30ad 02be
00000150: 1260 0d3e 10e6 393e e87d e93c 40d0 213e
00000160: 476d 2bbe 57ab 30be 848f 2abe f86f 123e
00000170: 0031 dd3d 40ce 93bd 36b5 31be d99c 1dbe
00000180: 5013 81bd e67d c6bd e892 bc3d c047 a23d
00000190: e268 e0bd c478 02bd 80d4 023b 664d 123e
000001a0: b9b2 b2bd 9d8d d8bd 5aa6 0ebe 9287 38be
000001b0: 7049 66bd a83d bfbd 6029 8c3d 209c 91bd
000001c0: 4cb6 babd 8643 84bd 50c2 2fbe 706f 2dbd
000001d0: c0d8 4abc f239 b7bd 7c2b 483d f801 273e
000001e0: 4e5e 193e 52fb 103e 20b5 f1bb d4dd cd3d
000001f0: 2496 30bd e0b4 283d 1091 4a3c 845f 203e
00000200: 488d c3bd 743e 15bd b0a7 993c 0ec5 e5bd
00000210: a0a5 883c 98ff 993d e43b 4cbd d892 933d
00000220: 1c63 b83d 70e0 e83d c886 253e b010 0dbd
00000230: 20e9 02bc 98cc fbbc e087 a63d f8bb c33d
00000240: b8af 8cbc cee6 31be 39de ebbd 56ca b7bd
00000250: 8f98 f5bd 46f6 b5bd f7db d6bd 917c 26be
00000260: 804a ff3a b2d5 0d3e 0674 f6bd ec9c 013e
00000270: a1a8 c1bd 1656 aabd 7cc5 283e ece3 933d
00000280: a0c6 ecbb ac3b 8d3d 289c e2bc e06c bf3c
00000290: 081c 93bd 708e 1bbe 843d 6fbd 80fc 19bc
000002a0: c0bf 4abb 394f fdbd 38cc e5bc c6a4 233e
000002b0: 9c88 033e e2a5 0b3e b470 313e 00b4 e6bc
000002c0: 0cfe 733d c0fc 603b 0092 7e3a c0db 0d3c
000002d0: 43f3 dcbd 6e71 2bbe ec02 01be 550b f4bd
000002e0: d8d8 e13d 4964 22be 8888 0f3d 8040 35bd
000002f0: 9029 49bd 1f4e b4bd 80f0 363e c0dc de3d
00000300: 18b0 b23d 80dd e43d e25c acbd 8abb 1a3e
00000310: 0810 30be 845b ae3d d4ec bd3d 6465 1c3e
00000320: b436 713d b838 033e 960d 213e b82f 10be
00000330: 8097 613c d063 b03c 58b9 efbd 84e4 153e
00000340: 5932 2abe bc63 ac3d 4a2b 3abe 809f 353b
00000350: 6dbc c5bd 12b5 ffbd dab9 2fbe 1042 01bd
00000360: 5c30 27be b2ec 2d3e f890 d53d a098 9b3c
00000370: 9898 183d 80b7 b53d aece 0e3e 60f0 ca3b
00000380: 34b4 98bd ec15 2a3e 20e2 abbc a0b7 ee3d
00000390: 0226 353e 30f2 c43c d4b9 0d3d 282b 21be
000003a0: 0077 633a be31 003e d007 f6bc bcff ed3d
000003b0: 00b7 733b 206f 91bc 9e46 0fbe 684f 283e
000003c0: e0a7 1a3c e106 15be 781f afbd 846c b53d
000003d0: 02a2 283e 180e 2b3e 54ec 03bd ceb4 013e
000003e0: e07c 543d 60c8 413d 6012 f4bd 7e2f ccbd
000003f0: b0a9 ca3d b40b 19be 1057 ac3d b08c 39bd
0.03759563 -0.14903916 -0.10461613 0.0995366 -0.17588753 -0.008091584 -0.08125475 -0.11501218
0.12281379 0.13117948 -0.08335903 -0.061394565 0.14225891 -0.10523222 -0.10474506 0.040877476
0.037743285 -0.061730303 0.0048520714 -0.10161138 -0.13202946 0.12253636 0.12160593 0.022444814
-0.014672592 -0.13701274 0.11920577 0.122372895 0.035391793 -0.17267571 0.022183403 -0.12587273
0.14646584 -0.05179213 -0.02240637 0.023469046 -0.14908798 -0.1412911 0.13213173 0.048377365
-0.123216406 0.16502127 0.1591779 -0.18055098 -0.046157435 0.17874339 -0.16782215 0.13164747
0.04714708 0.088795125 -0.054619566 -0.17188773 0.12527099 -0.06915414 0.05772364 0.05488214
-0.16225322 -0.11193927 -0.039144024 0.1415557 0.11267695 -0.11026814 -0.15567476 0.0074704885
0.12727806 -0.026813343 -0.011167929 -0.15156087 -0.03884487 0.15314823 -0.111241296 -0.056363627
-0.13290459 -0.10075924 -0.13939855 -0.004942253 0.10034755 -0.081052534 0.068799764 -0.15436351
-0.13162535 0.12055975 0.11046705 -0.12761378 0.13806179 0.18154168 0.02850242 0.15802097
-0.16740905 -0.17252861 -0.1665631 0.14300525 0.10800362 -0.072170734 -0.17354283 -0.15391864
-0.06302512 -0.09691982 0.09207708 0.079238415 -0.10957505 -0.031853452 0.0019963086 0.14287338
-0.08725495 -0.105738856 -0.13930646 -0.18020466 -0.05622238 -0.09337932 0.06843829 -0.071098566
-0.091168016 -0.064581916 -0.17163968 -0.042342603 -0.012380779 -0.08946599 0.048869595 0.16309345
0.1497738 0.14158371 -0.007376328 0.10052076 -0.043111935 0.04118812 0.012363687 0.15661436
-0.09548432 -0.036436513 0.018756717 -0.11219226 0.016680539 0.07519454 -0.049861804 0.072057426
0.090032786 0.11370933 0.16164696 -0.034439743 -0.007990152 -0.030737206 0.08131385 0.095573366
-0.017173633 -0.17373201 -0.11516995 -0.089741394 -0.11991989 -0.088848636 -0.10491174 -0.16258456
0.0019477159 0.1385105 -0.120338485 0.12657517 -0.094559915 -0.08317201 0.16481584 0.07221207
-0.0072258264 0.06896147 -0.027662352 0.023367345 -0.07183081 -0.15191054 -0.058408275 -0.00939858
-0.0030937046 -0.12368626 -0.02805148 0.15980825 0.12845081 0.13637498 0.17328149 -0.028162003
0.05956845 0.0034330338 0.0009711087 0.0086583495 -0.10788586 -0.16742489 -0.12598771 -0.11916224
0.11027688 -0.15858568 0.035042316 -0.044250965 -0.049111903 -0.08803963 0.17865181 0.108819485
0.087249935 0.1117506 -0.084161535 0.15110603 -0.17193615 0.08513549 0.09273687 0.15273052
0.05889006 0.12814605 0.15727839 -0.14080703 0.013769031 0.02153197 -0.117052734 0.14637953
-0.16620769 0.0841746 -0.18180576 0.0027713478 -0.0965508 -0.12485708 -0.1716074 -0.031557143
-0.16327041 0.16984823 0.10428041 0.018993676 0.0372549 0.088728905 0.1394603 0.0061932057
-0.07456246 0.16609925 -0.020981848 0.116561174 0.1769028 0.024041265 0.034601048 -0.15739119
0.0008677095 0.12518975 -0.030033022 0.11621043 0.0037187934 -0.017753184 -0.13991782 0.16436541
0.009439439 -0.14553405 -0.08550924 0.08858588 0.16468051 0.16704595 -0.032207802 0.12666628
0.051876903 0.047310233 -0.11917567 -0.09969996 0.098956466 -0.1494587 0.08415043 -0.045300186

pixel_patch_embedding.bias f4 [32]
00000000: 707c bb3c c8ca 60bd f8f4 323d 84ec 6e3d
00000010: bdd7 39be 4a46 373e b0f6 c1bc 7a69 2a3e
00000020: 4ae7 e2bd a999 a2bd e2b9 073e 504e 2a3e
00000030: f607 893d 9509 31be e35e c7bd b0b8 b73d
00000040: 96b7 093e 1222 243e 00ee 7f3d 6e7c 1ebe
00000050: a0b7 293c 32b4 e7bd d43e 463d 34d3 50bd
00000060: ac97 67bd 9bb7 0bbe 4483 9b3d fce9 203e
00000070: d46f 2a3e 78e6 fd3d ecd0 db3d f015 1cbd
0.022886485 -0.054880887 0.04369065 0.058331028 -0.18148704 0.17897907 -0.0236772 0.16641799
-0.11079271 -0.079394646 0.13254502 0.16631436 0.066909716 -0.17288812 -0.09734895 0.08970773
0.13448939 0.16028622 0.062482834 -0.15477154 0.010358721 -0.113136664 0.04839976 -0.05098267
-0.05654113 -0.13644259 0.07593396 0.15714258 0.16644222 0.12397474 0.10733208 -0.03810686

local_trans_pixel.layers.0.0.fn.norm.weight f4 [32]
00000000: 858c 883f 1940 883f 0a85 893f 97e3 883f
00000010: 9733 873f 7d43 863f 29b0 873f 1d1f 893f
00000020: b4a4 8a3f 6600 8c3f 740c 893f 51cd 8e3f
00000030: 5ad5 8b3f c02c 893f 1a9a 863f bdad 8b3f
00000040: 340a 8c3f 9812 8b3f eb0d 853f 2b4e 8a3f
00000050: 8d0f 893f a8f8 873f 0a81 8b3f a0f8 873f
00000060: 552c 883f fe8d 873f 8ee7 883f 5b2c 8f3f
00000070: c44c 893f ebba 893f b9d6 8a3f 81ac 8b3f
1.0667883 1.0644561 1.0743725 1.0694455 1.0562619 1.0489346 1.0600635 1.071262
1.0831513 1.0937622 1.0706925 1.1156408 1.0924485 1.0716782 1.0515778 1.0912396
1.0940614 1.0865049 1.0394872 1.0805105 1.0707871 1.0622759 1.0898755 1.0622749
1.0638529 1.0590208 1.0695665 1.1185411 1.0726552 1.0760168 1.0846778 1.0912019

local_trans_pixel.layers.0.0.fn.norm.bias f4 [32]
00000000: 8341 483d 9c05 113d 0d62 cf3c bddc 59bc
00000010: 88d2 03bc 15f7 40bb c693 cfbc 67bd 80bb
00000020: 29b0 82bd 71f1 47bc b6f0 8c3b b148 85bc
00000030: 2949 fa3b a9fa 14bc a4ac 93bd 121a 913d
00000040: d52e 563b c818 153d 756d e339 af3f 57bc
00000050: 80b1 f6bc 5f16 043d a8be e939 6f71 51bb
00000060: 7f4a 41bc 748b 5e3d ff19 debc d85c 17bb
00000070: 7f2b 5e3c 0a6e 56bc 4cf4 6c3d a90e 5ebb
0.0488906 0.03540574 0.025315309 -0.013297257 -0.0080458 -0.0029444147 -0.025339019 -0.0039288285
-0.06381256 -0.01220356 0.004301156 -0.016270014 0.007638116 -0.009092965 -0.07210663 0.07085051
0.0032681723 0.036400586 0.00043378366 -0.013137742 -0.030113935 0.032247897 0.00044583273 -0.003195848
-0.011797546 0.05433221 -0.027112005 -0.002309611 0.013560175 -0.013087759 0.057850167 -0.003388325

local_trans_pixel.layers.0.0.fn.fn.to_qkv.weight f4 [768, 32]
00000000: 8244 1abb 872c debc c86f a0bd c622 043d
00000010: 2615 dbbc c1f0 113e 83e0 823d df6f ffbb
00000020: a8bc 40be ca56 69bc 7e3b 953d 4430 6a3d
00000030: 73d4 533e b1ef ba3c fda4 29be 4971 aabd
00000040: 03f0 78be 09be d43d 5a11 083e 56a5 343e
00000050: 5ac0 7c3d 6b22 1b3e 6f89 1c3e 3f1e eebd
00000060: 20a0 00be 8284 1ebe 50d8 e4bd 6148 48be
00000070: 4418 5f3d 8f3a a5bd d1f6 7dbd 18d3 503d
00000080: a773 e53d 3b63 69bd 1c55 273e 9d94 403e
00000090: baaa ae3c f46e b33d c51f 1bbe 0ada ff3d
000000a0: 1ee2 203e 6e9b df3d 5dc4 03be 2de5 923c
000000b0: bc1d 25bd 6d81 96bd f2a1 4ebe 4ba9 20be
000000c0: a101 debd 238b 2dbe 4641 073e 1e67 8f3d
000000d0: 1fc4 163d 8c78 dabd 4df1 9bbd 49ab 263e
000000e0: 1986 bf3d 6799 223e 7ccb 3dbe 7852 023c
000000f0: 86a4 54bd a356 623d 4cd8 453e 25c4 eb3d
00000100: e3a8 d9ba 3558 a43c 7f5e a1bd f3b3 263e
00000110: 0ee5 e33c f312 063e eaed abbd 22d9 8cb9
00000120: 03b1 b73d 85a9 8e3a ab5e 3c3e 93c2 dc3d
00000130: 79de 4e3d d59b 01be 4861 a1bd 52b4 b5bd
00000140: c0d5 ab3d 5f34 f1bc 4e01 61bd 79a4 f3bc
00000150: 9c06 3bbc 6a3b bb3d c3c9 d33d 8ecf 193e
00000160: ebcc b63c 7330 a0bd 12e8 093e 392a e23d
00000170: 3011 8bbc d780 e43d 6848 1d3e 793a 733d
00000180: 6f2b cd3d aa69 913e 5633 9c3d 599d be3d
00000190: 279f 40bd 4e59 e2bd deec b03d d23d 96ba
000001a0: dc67 913c c592 52bd 0c85 353e 1092 d0bd
000001b0: 997b 97bd 9223 d5bd ff1a 823d 42d5 19be
000001c0: 1fa1 9d3e 772d 30be f2a5 ca3d 9128 19bd
000001d0: a9b3 3bbd 25f9 12bc 009b 983d 89ae 5ebe
000001e0: 7d52 c03d 2081 07bb 59ba 06be 2273 fabd
000001f0: 6cc3 dd3d 8b73 383e 2b7e ed3d 9602 7d3c
00000200: e7ce 2e3e 56a3 b3bd 5cb9 17be b7b9 d9bb
00000210: 2765 47be e6fd 253e b743 65bd 4245 53be
00000220: 9093 ac3c 486e a5bd dd96 803d 832c b6bd
00000230: 7f20 77bd d9d9 0b3d 9db0 5d3d f39b 223e
00000240: c5a6 9a3e 3ee4 bdbd d61b 85bc 7ac8 293e
00000250: 1e14 2dbe 677a 0d3e 6862 6fbd e79f 27bd
00000260: 1784 d33d 84b0 ff3d 0be7 39bd e804 533d
00000270: 203b 00be ee89 b9bd 65a7 613c cdac 74bd
00000280: a3e2 f7bc 38f5 90bd 0aa9 26bd 823f ea3d
00000290: 1bbb 4c3d b031 b03d d23c bd3d f2a6 9a3d
000002a0: 3058 2fbe c1dd bebd b633 1abe 646f d13b
000002b0: e67f 82bd 2bd5 713d 14de dcbd 524e d33d
000002c0: 0854 b53d 758f 263c 099b 83bc 327e 083e
000002d0: ff6d b73d 2990 bd3d ca99 2ebd 46fc fa3d
000002e0: 0a7f 13be cf95 11bd f68d 74bd 3753 2cbd
000002f0: f9a2 7d3c b667 c2bc cbbb aabd f807 5b3d
00000300: cc4d 16be 6bb2 7b3d 1aa7 033e 5a88 2fbe
00000310: 2a64 9fbd 68db 98bb 08db 46be ce27 563e
00000320: 3bb6 17be 48ce 3c3e d33a d7bd 81c5 cebd
00000330: 87b2 f7bd 6978 863d 510d 5c3e eacc aa3a
00000340: 1410 5a3d f04b 0bbe c4d8 6b3d ef73 0bbd
00000350: e6f0 48bd 0961 a3bd 1545 c0bd 8505 14be
00000360: 1cc0 113e cb04 00be 14c2 583c bf1a 563d
00000370: b329 dd39 26e6 1abe 8f42 ac3d 369f 31bd
00000380: 6d9b dcbc b6ed a4bb 916d d2bc 29e9 22be
00000390: 5751 863e 4e24 ddbb 4b65 c33d a7b8 bb3b
000003a0: ecdb 35bd ac0b 113e cfb1 22bd 51f3 3a3c
000003b0: 0b0d 3e3e 259a 05be 8dcc 203e 6323 ff3d
000003c0: 2c7d 1dbe 5e5d 34bd dc56 edbd afd7 793e
000003d0: abe4 193e fff1 5bbd 8ccf 8f3d b492 0a3e
000003e0: 73cd 2fbe 4802 8abd 793b ec3d bafd dcbd
000003f0: 3580 21be 0b9d 3abe 9522 00be 2ff8 debd
-0.002353937 -0.027120842 -0.078338206 0.032259725 -0.026743483 0.14251997 0.063904785 -0.0077953185
-0.18821967 -0.0142418835 0.07286738 0.057174936 0.20686512 0.022819372 -0.16566844 -0.08322389
-0.24310307 0.10387809 0.13287869 0.17641196 0.06170688 0.15149848 0.15286802 -0.11626863
-0.12561083 -0.15480235 -0.11174071 -0.1955886 0.0544665 -0.0806781 -0.06200296 0.050982565
0.112036996 -0.0569794 0.1634106 0.18806691 0.021321643 0.08761397 -0.15148838 0.124927595
0.15711257 0.10918318 -0.12867875 0.017931545 -0.04031156 -0.07348905 -0.20178965 -0.1568958
-0.108401544 -0.16947608 0.13208494 0.0700209 0.03680813 -0.10667524 -0.07614384 0.16276278
0.09351749 0.15878831 -0.18534654 0.007954232 -0.051914714 0.055258404 0.19320792 0.11512021
-0.0016606118 0.020061592 -0.07879352 0.16279583 0.027819183 0.13093166 -0.08394988 -0.00026864657
0.08969309 0.0010884261 0.18395488 0.107792996 0.050505135 -0.12657101 -0.07879883 -0.08872284
0.08390379 -0.029443918 -0.054932885 -0.029741513 -0.01141515 0.09142192 0.10341217 0.15020582
0.02231451 -0.07821741 0.13467434 0.110432096 -0.01697597 0.11157387 0.15359652 0.059381936
0.1001805 0.28400928 0.07626979 0.093073554 -0.04702678 -0.1105219 0.08638929 -0.0011462516
0.01774972 -0.0514095 0.17726535 -0.10184109 -0.07396621 -0.10407175 0.06352805 -0.15022758
0.30786988 -0.17204843 0.09894933 -0.037392203 -0.045825634 -0.0089705335 0.07451439 -0.21746267
0.093907334 -0.002067633 -0.13157023 -0.12228991 0.108282894 0.18012826 0.1159633 0.015442511
0.17071114 -0.08771388 -0.14816803 -0.0066444534 -0.1947218 0.16210136 -0.05597278 -0.20631889
0.021066457 -0.08077675 0.06278775 -0.08895209 -0.060333725 0.034143303 0.05412351 0.15879802
0.3020536 -0.09272049 -0.016248625 0.16580382 -0.16902205 0.13816224 -0.058443457 -0.04092398
0.103279285 0.124848396 -0.045386355 0.05151835 -0.12522554 -0.09059511 0.01377282 -0.05973511
-0.030259436 -0.07078022 -0.040688552 0.114378944 0.049983125 0.08603227 0.09240116 0.075513735
-0.17123485 -0.0931964 -0.15058789 0.0063914526 -0.06372051 0.059041183 -0.107845455 0.10317673
0.08853918 0.010166039 -0.016065137 0.1332939 0.08956527 0.09256012 -0.042627133 0.122551486
-0.1440393 -0.03554326 -0.059705697 -0.042071547 0.01548075 -0.023731094 -0.083366 0.053474396
-0.14678115 0.06144945 0.12856713 -0.17141858 -0.07782777 -0.004664827 -0.19419491 0.20913622
-0.14815609 0.18438065 -0.10509267 -0.10096265 -0.12094598 0.06565935 0.21489455 0.001303104
0.05323799 -0.13603187 0.05757977 -0.03404611 -0.049057864 -0.07977492 -0.09388176 -0.1445523
0.1423344 -0.12501828 0.013229866 0.0522716 0.00042183473 -0.15126857 0.084111325 -0.043364726
-0.026929582 -0.00503322 -0.025687011 -0.15909256 0.26233932 -0.0067487126 0.095408045 0.0057287994
-0.044399187 0.14164609 -0.039720353 0.01141055 0.18559663 -0.13047083 0.1570303 0.12457921
-0.1537978 -0.044034354 -0.11588833 0.24398683 0.15028636 -0.053697582 0.07022008 0.13532525
-0.17168216 -0.06738716 0.11534781 -0.10790582 -0.15771563 -0.1822397 -0.12513192 -0.10887181

local_trans_pixel.layers.0.0.fn.fn.to_out.0.weight f4 [32, 256]
00000000: 638e 8f3c 9ce8 9dbc 6f21 153d a163 8e3c
00000010: 05ca f6bc 2e8b 893d c959 3f3d 8940 35bd
00000020: 26d8 07bc b9c9 403d 6ef8 42bd 1a9e 75bd
00000030: 057a af3d 65b7 e0bc c8e9 2dbd 1be0 8ebb
00000040: 8040 c13b 9837 65bb f7b9 663d 1149 463a
00000050: c630 9f3c 506e 333d ad1f 49bd 8fb3 2f3c
00000060: f8ae a5bd c118 c33d ca65 4fbd caed a4bd
00000070: cf5f 383b db0f 573d f2ab 4e3d bc7b 6e3d
00000080: af1c 01bd 7cc7 c2bc 695a a83d 00dd 66bd
00000090: 6157 69bd e18b 08bd fefb abbd 9ccb 3fbd
000000a0: 154a dcbc 4051 9abd 06c9 48bc a8bc b1bc
000000b0: 0f6b 873a dd17 4f3c 1ee0 8bbd ff70 21bd
000000c0: 1f81 e9bc ee2a 4f3d f8f6 e93d bae3 93bd
000000d0: bab2 e73c 0fa8 eabc 2888 a13d f68c 17bc
000000e0: 3b62 b03d a0a5 613c 7bdc 8abd 802f 973c
000000f0: 6fc0 2b3b f883 2f3d 375d 363a 08e6 a83d
00000100: 20bd 34bd 714e ccbc 9bf2 93bd 9899 c73d
00000110: 427f dfbc 9139 0cbd db3e 1abd ccc6 58bd
00000120: a6f6 103d d200 b13c 3313 a0bd cdb7 babc
00000130: 99fa e1bc 3289 843c 890a 493d 83d5 ccbd
00000140: 325a 2a3c a8c6 543c 211f 553d b1a5 dabc
00000150: 4ad2 3e3c c785 afbd 544a e53c aaee 8c3d
00000160: a194 5bbd c057 c23b f405 013c 3417 8bbc
00000170: 5cf0 c53d 861e dc3b b229 d9bc 5232 383d
00000180: 8d4b 9b3b c995 0abd 078b 603c 62af 9fbd
00000190: 23fb 783d c851 a23d cf98 e03c 4f53 893d
000001a0: 4254 61bd 3e0f 293d c18c 49bc 17a5 a8bc
000001b0: 9b28 b9bc 5eb5 10bd 1ab7 debb d86c 9cbc
000001c0: 4ed7 a33c 5d93 11bd 5abd 5d3b 9a45 b63d
000001d0: 4513 17bb a12a e4bd be76 813c f8db a1bd
000001e0: 91d9 873d 1c07 a63d ff37 2c3d 418d 15bc
000001f0: 8183 b5bc 06c1 5ebd 3664 943d cf23 d4bb
00000200: 9c16 b93b 9faf d23c 74bf 7f3d fa9b 003d
00000210: 54a9 89bd 7e23 553d 9dde ecbc b78b 89bd
00000220: f3d5 24bd 8dce 06bd 20db cfbc 8bb4 bd3c
00000230: f194 41bd 2026 023d afde 7a3c 3bb1 a9bd
00000240: fdf0 bbbd 90fb e53c 9515 5c3d 35e4 69bd
00000250: 588c 91bb 0ecd 083d 4bf6 c5bd 1f19 863d
00000260: 4bb1 cebd f69f 603c f4ec 753d 5018 a23d
00000270: 573d 86bc 4b05 9e3c 6c9f 073d cd85 793d
00000280: 1934 d6bc 85d9 303c 6755 333c a4d8 383d
00000290: d46b c4bd 90bc e43b 715b 4dbd b30a bd3c
000002a0: 117f 71bd 3c1e 81bd 272c f6bc d301 c6bd
000002b0: 1730 7e3c 9e2d 01bd 28fa 913d 3115 9abd
000002c0: b155 453c f128 b53d 5e05 d53b 1858 2dbd
000002d0: afa3 613d ea4e 2dbd b76b 203d e6d7 5e3c
000002e0: e7db 9b3d f48f 0d3d ce21 01bd c126 f53c
000002f0: 72d7 21bd b948 b93d 872f 85bd 95ff be3c
00000300: dfed 893d e6fb 4ebd 2eb9 eabb 3caa d13d
00000310: 22e7 b3bd c25f 7ebd 4761 103d b44f 18bc
00000320: 05cd ee3c 0686 473d 4aff 85bd 165f 593d
00000330: 8968 efba 9e0c cdbd 36ca 72bd 5b3a 2bbd
00000340: 64c6 93bb 67d4 9e3d ded3 1cbd 8a0e e6bb
00000350: 3c60 7bbd 04e1 923d 82c9 993d c812 a83d
00000360: 2efc 2ebd 6027 90bd 41c7 823d 9ced 3b3d
00000370: 56a2 88bc 04e5 a1b9 f58d 5e3a 675c df3d
00000380: ff51 26bd 7d98 383c 42c4 86bd f462 2c3d
00000390: 2d2c 513c 02e9 7ebc d328 1f3d f923 883c
000003a0: 82c0 80bd 7c95 313c b79c aeba 5c8a 65bd
000003b0: 0dcf 3abd 2acb b8bc bd8e b5bd 2f1a 853b
000003c0: 7087 713c 950e 783d a5c1 7bbd b1ed 413b
000003d0: a381 12bd cda3 10bc 1e5a 55bd b314 843d
000003e0: 41fb 1a3d d929 ebbb 0aea bbbd 8f4e 00bc
000003f0: fd73 08bd eeb2 7fbc 58d1 9c3d f587 53bd
0.01752395 -0.019275956 0.036408838 0.017381491 -0.030125627 0.067159995 0.046716485 -0.044251
-0.00829128 0.047067378 -0.047600202 -0.05996523 0.08568195 -0.0274312 -0.04245928 -0.0043602115
0.0058975816 -0.0034975763 0.056329694 0.00075639883 0.019432437 0.043806374 -0.049102474 0.010723962
-0.08090013 0.09526206 -0.050634183 -0.08053167 0.0028133278 0.052505355 0.05045695 0.05822347
-0.031521495 -0.023776762 0.08220369 -0.056363106 -0.056968097 -0.033336524 -0.08397673 -0.046825036
-0.026890794 -0.075350285 -0.012254959 -0.021696404 0.0010331589 0.012639967 -0.06829856 -0.039414402
-0.028503953 0.05057805 0.11424059 -0.0722117 0.028283466 -0.02864459 0.07887298 -0.009249916
0.08612486 0.013772398 -0.067803346 0.018455267 0.0026207229 0.042850465 0.0006956639 0.08247
-0.044125676 -0.024939748 -0.07224008 0.097460926 -0.027282361 -0.034234587 -0.0376576 -0.052923962
0.035391472 0.021606836 -0.07816162 -0.022792721 -0.027585315 0.016178701 0.049082313 -0.10001662
0.010397481 0.0129868165 0.05203164 -0.026690336 0.0116468165 -0.08570438 0.027989544 0.06881459
-0.05360854 0.005930871 0.0078749545 -0.016978838 0.096649855 0.006717506 -0.02650914 0.044969864
0.004739231 -0.033834253 0.013705022 -0.077971235 0.060786378 0.07925755 0.027416615 0.06705343
-0.055011995 0.0412743 -0.012301625 -0.020586533 -0.02260237 -0.035329215 -0.0067967298 -0.01909487
0.020000126 -0.035540927 0.0033834786 0.08899994 -0.0023052257 -0.11140943 0.015803691 -0.07903284
0.066332944 0.08106825 0.04204559 -0.009127916 -0.022157433 -0.0543833 0.07245676 -0.0064739953
0.005648447 0.025718508 0.062438443 0.03139875 -0.0672175 0.0520358 -0.028914744 -0.067161016
-0.0402431 -0.032911826 -0.025373042 0.023157379 -0.047261182 0.03177464 0.015311881 -0.08285757
-0.09176824 0.028074056 0.05373152 -0.0571024 -0.004441779 0.03339868 -0.09666117 0.0654776
-0.1009241 0.013710013 0.06004043 0.079147935 -0.016386671 0.019289633 0.03311102 0.060918618
-0.026147889 0.010794048 0.0109456545 0.04512848 -0.09590879 0.006980486 -0.050136033 0.02307639
-0.05895907 -0.06304595 -0.03005035 -0.09668317 0.015514395 -0.031537645 0.07127792 -0.07523573
0.012044356 0.088456996 0.006500884 -0.04232034 0.05508774 -0.042311586 0.039165225 0.013601279
0.076103024 0.034561113 -0.03152638 0.029925706 -0.039512105 0.09047074 -0.06503206 0.02331523
0.067348234 -0.050533198 -0.0071631884 0.10237548 -0.087843195 -0.06210304 0.03524902 -0.009296346
0.029150495 0.0487118 -0.06542833 0.053069197 -0.0018265407 -0.10012172 -0.059274875 -0.0418037
-0.004509734 0.07755356 -0.03828799 -0.007020776 -0.061371073 0.071718246 0.07509138 0.08206707
-0.042720966 -0.0703876 0.06385661 0.0458809 -0.01667897 -0.00030878943 0.0008489781 0.10906296
-0.04060554 0.011266825 -0.06580402 0.042086557 0.01276688 -0.015558483 0.038857292 0.016618716
-0.06286718 0.0108388625 -0.0013321851 -0.056040153 -0.045607615 -0.022557814 -0.08865116 0.004061959
0.0147417635 0.06056078 -0.06146397 0.0029591138 -0.035768162 -0.008828116 -0.052087896 0.064492606
0.03783727 -0.0071766195 -0.09175499 -0.00783123 -0.03331374 -0.015606625 0.07657117 -0.05164333

local_trans_pixel.layers.0.0.fn.fn.to_out.0.bias f4 [32]
00000000: e50a cfbd e758 2bbe 7690 51bd 25b3 713c
00000010: b74e dd3d 25a8 04be 891d 3c3c ec20 db3c
00000020: 1f0d 4dbd dcfb a3bd 0875 80bd cd9c 053e
00000030: 6801 a03d 34ee f13c 1513 b53d 6a2b c63d
00000040: 1999 bcbc 1e7e 3b3d 4bfb 7bbd 7db2 363d
00000050: 86bf bc3d 7d19 febc ba64 37bc 1bfe ac3d
00000060: af64 523d d9c6 98bc 0830 bfbb bf0f 6e3c
00000070: fc30 23bd f89a 453d a6a6 6a3d ca13 0f3e
-0.101095 -0.16733132 -0.05116316 0.014752184 0.10806029 -0.12954767 0.011481651 0.026749097
-0.05006134 -0.08007023 -0.06272322 0.13048096 0.07812768 0.02953253 0.0884153 0.09676249
-0.023022221 0.04577457 -0.06151895 0.044603813 0.09216218 -0.031018013 -0.011193449 0.08446904
0.05136555 -0.018649505 -0.005834583 0.014530121 -0.039841637 0.048243493 0.057287835 0.13972393

local_trans_pixel.layers.0.1.fn.norm.weight f4 [32]
00000000: bd6e 873f e539 8e3f ce15 883f efa4 993f
00000010: 94b8 843f 2595 803f 6308 8b3f dd2b 893f
00000020: 960c 833f 01a5 7b3f c8ab 8b3f b882 973f
00000030: 81e5 8b3f a564 843f e56d 743f 1347 8b3f
00000040: 9e22 993f 72b0 7c3f 40e2 873f c8e0 873f
00000050: 4ba0 8c3f 1d36 853f 1464 993f 3a3d 8b3f
00000060: 2d70 8b3f 8da2 8c3f 4686 813f 59bf 843f
00000070: c466 903f 7673 8e3f 249d 953f 694d 8d3f
1.058067 1.1111418 1.0631654 1.2003459 1.0368829 1.0045515 1.0861934 1.0716511
1.0238216 0.9829865 1.0911798 1.1836767 1.0929414 1.0343214 0.95480186 1.0881065
1.1963689 0.98706734 1.0615921 1.0615473 1.0986418 1.0407139 1.1983666 1.087806
1.0893608 1.0987107 1.0119102 1.0370895 1.1281362 1.1128986 1.168858 1.1039249

local_trans_pixel.layers.0.1.fn.norm.bias f4 [32]
00000000: e888 9b3d 67fc 91bc 6171 b93d 9fdf 323d
00000010: 9cdd bd3a 1568 1dbd 12c6 9dbc ca4a 233d
00000020: 674f e33c dd83 db3d 327e d0bc 56aa 4d3d
00000030: f769 0ebd 6604 a0bd d47f dfbc b369 60bd
00000040: 7475 e4bc 5d5c a9bd 382d 42bd 51e2 debd
00000050: af62 d93d fe63 d13c c783 83bc 6675 b3bb
00000060: 07c3 f73d a335 f2bb 8e92 70bd bc05 5a3d
00000070: 6f4c 95bd 5c46 3c3d 14b0 4cbb 0af7 943d
0.07594472 -0.01782055 0.090548284 0.043670293 0.00144856 -0.03842934 -0.019259486 0.039866246
0.027747823 0.1071851 -0.0254508 0.050211273 -0.034769025 -0.07813339 -0.027282633 -0.054788303
-0.027888037 -0.0826957 -0.047406405 -0.1088301 0.106145255 0.025560375 -0.016054047 -0.0054766415
0.120977454 -0.007391648 -0.058733515 0.053228125 -0.07289969 0.045965537 -0.003123288 0.072736815

local_trans_pixel.layers.0.1.fn.fn.net.0.weight f4 [8, 32]
00000000: 1842 5d3d 0432 2b3e d4c9 ca3b f5cc 993d
00000010: 0541 06be 24e9 d53d 6134 023e 9f30 a9bd
00000020: 6431 6b3c 3e4b 413d 1c2a 1b3e 81b1 0fbe
00000030: cf21 563e 940c 05bd 9797 8bbd 997a 553e
00000040: de20 243d 292f 05be 5555 d13d fc89 d03c
00000050: ac56 e2bd 02b0 cabd 984f 163e 6cf2 f8bd
00000060: 5f15 a63d 40f6 473e ae20 2e3d 4084 95bd
00000070: acfb 4cbd f9b7 fa3d e7fe 9e3c 2e0c d1bd
00000080: 4010 633e b6c7 0cbe edf9 b23d 3c1a 873e
00000090: 6e6b 863e 7134 e6bd a206 97be b61c 47bd
000000a0: 073a b4bc 3c0e 0c3d 8aee 8e3d 64fe 753e
000000b0: 2f63 5bbe d49f 853d a442 f5bc 560b 173e
000000c0: 7993 9c3d 96e2 58bd 9a9a fabd 643b 77be
000000d0: 3110 533e c444 0fbe 62db aa3e 8f06 40bd
000000e0: 650e c63e 1882 35be e498 753d e93e 4c3e
000000f0: 6861 76be d7d6 debd 35fe 35be 2ae8 b8bd
00000100: b679 903d 11f2 2f3e c8a7 773b 9e11 423e
00000110: c3ab a6bd d0bf afbd 61b9 293d b310 30be
00000120: aaba 52bd 1809 583d 9dff 5bbd f6f3 4a3d
00000130: fe7e 1b3e f6c4 ed3d 934d 033d 7bc2 163e
00000140: 9033 403e 3e30 123e c5bd 863d 85b5 0dbe
00000150: 9a25 a7bd c732 e6bc 6bc3 643e 06e0 2dbe
00000160: 62ae e3bd 32a7 403e 3c9a 9c3b 9889 08be
00000170: 8e9a 44bc c3ec 753c f510 e5bd e11d a63d
00000180: 7005 ca3d e052 d23c 0fce 53be 44c5 8abd
00000190: 10a4 d53d 7246 2ebe 5237 433c 8b8d 673d
000001a0: b17d dd3d d1b4 883d 4b8b 42be 591e 7ebe
000001b0: 9dbf 443d 2584 f0bd 2165 cb3d f0f6 37be
000001c0: a7be 023e 9b0c 23bd 6b74 113e 2b10 643e
000001d0: 7bcd 86bd a5d0 153d 6b55 7fbe 32ad 34bb
000001e0: 4603 1fbe 043f bcbd 94ff 45bd 0788 a9bd
000001f0: c440 a93d 3254 8f3d 45fe 43be a19e 833e
00000200: f83b 3fbe 8712 4ebe f407 183e f1d7 453e
00000210: 5fff 3abe 288e d9bd 3e1b 0cbd 3bbe 053e
00000220: ed35 c6bd 64c4 003e ace8 39be fa11 243e
00000230: 0c57 083e ac26 19be 66fe 83bd 0125 c3bd
00000240: a74c a8be b083 3abd 37f9 95ba 291e aebd
00000250: 784e ec3c d053 a3bd 6403 40be 6baa 793e
00000260: 9662 2f3e 028a 31bd a49a 303d f312 36bd
00000270: 34e6 2bbe 8d23 5abc 6fd1 473e 2e15 023d
00000280: dd51 2f3d c0f5 bb3d f1e6 dc3d 4ea5 a83e
00000290: 7222 39be a39a 033e 473a 56be d08e 613e
000002a0: 5c06 8bbd 7ea6 a23d 77ed bfbd 57ef 023e
000002b0: 2886 363e 5aa0 593d 5cbf 943d 28aa ab3d
000002c0: 781f 2dbe 8cbd afbd 9cc9 243e 9b44 33be
000002d0: aad2 82bd e478 e1bc 823d 4ebe 7dc1 10be
000002e0: c8d8 04be 81d7 20be c722 06be 252a 00be
000002f0: 9fbc fd3c 6f8c 5fbd 1366 833e ea41 90bd
00000300: 3fd5 6f3d 84c6 0c3e 660e ac3d 09cd 3cbe
00000310: 285c 9dbd c6fc ffbd 55f8 1b3e 75a9 7cbd
00000320: 3c47 143e d9a0 0fbd e1d4 303e 45e4 ff3d
00000330: 6c70 f2bd 3fc3 853d f8bc 67bd 1797 8cbe
00000340: 5b00 353e 4d01 03bc 8d6e 44be 7f31 08be
00000350: 75ab 2f3e e1b1 4d3e 540f 613e 3ffe 28be
00000360: 8cd3 9d3d 3693 783e 5b26 14be e464 013e
00000370: df24 eb3b 64f1 883e 8191 89bb 26c4 d53d
00000380: 78ab 0dbe b453 0b3d 76e6 fcbd fa3e e0bd
00000390: 85b1 1dbe 1007 1cbe d0c6 f7bc fd80 a33c
000003a0: 9841 5d3d 8b38 7f3d 41be 133e 95c9 413d
000003b0: 00dc 783c 48bf 863d 6ee2 d43b 14b8 d2bd
000003c0: f011 d4bb 46b7 f539 2110 83bc 7693 233e
000003d0: 581b e3bd 6a09 b0bd 05d1 1d3e 6d91 b03d
000003e0: d84b c3bd 55ba dbbc 3f42 a73d 3b4c cf3c
000003f0: 9321 bcba c0c8 3c3d 14d3 1a3d a82c f2bd
0.05401811 0.16718298 0.0061886106 0.075097956 -0.1311074 0.10444859 0.12715293 -0.08261227
0.014355037 0.047190897 0.15152782 -0.14032556 0.20911334 -0.0324827 -0.06816023 0.20847549
0.040070407 -0.13006271 0.10221354 0.025456421 -0.110516876 -0.09896852 0.146788 -0.12155613
0.08109545 0.1952753 0.042511635 -0.07300615 -0.0500447 0.12242121 0.019408656 -0.10207401
0.22174168 -0.13748059 0.08739076 0.26387203 0.26253837 -0.11240471 -0.29497248 -0.048611365
-0.022000326 0.034193262 0.069790915 0.24022824 -0.21424554 0.065246254 -0.029939003 0.14750418
0.07645316 -0.052950464 -0.12236519 -0.2414375 0.20611645 -0.13991076 0.333705 -0.046881255
0.38682857 -0.17725408 0.05996026 0.19945873 -0.24060595 -0.10880821 -0.17772754 -0.09028657
0.070544645 0.17182185 0.0037789214 0.18952033 -0.0813823 -0.08581507 0.041436557 -0.1719387
-0.051447548 0.052743047 -0.05371057 0.049549066 0.15185162 0.11609833 0.032056402 0.14722626
0.1876967 0.14276215 0.065791644 -0.13838775 -0.08161469 -0.028100384 0.22340171 -0.1697999
-0.11117245 0.1881378 0.0047791284 -0.13333738 -0.011999739 0.015010062 -0.11184875 0.08111168
0.09864318 0.025674284 -0.20684074 -0.06775907 0.10431683 -0.1701906 0.011915045 0.05653147
0.10814989 0.06675113 -0.18998449 -0.24816264 0.0480343 -0.117439546 0.09931398 -0.17965293
0.1276804 -0.039806943 0.14204566 0.22271793 -0.06582161 0.036575932 -0.24934928 -0.0027569053
-0.15528592 -0.09191707 -0.04833944 -0.08277898 0.08264306 0.06998481 -0.19139965 0.25706962
-0.1867522 -0.20124255 0.14846784 0.19320656 -0.18261479 -0.10622817 -0.034205668 0.13060848
-0.09678254 0.12574917 -0.18155164 0.16022483 0.13314456 -0.14956158 -0.06445007 -0.09528542
-0.3287098 -0.045535743 -0.001144207 -0.08501846 0.02884601 -0.0797497 -0.18751293 0.24381416
0.17127451 -0.043344505 0.043116227 -0.044451665 -0.16787034 -0.01331414 0.19513486 0.03175848
0.04280268 0.091777325 0.10786236 0.32938617 -0.18079546 0.12851958 -0.20920669 0.22027135
-0.06788322 0.07941912 -0.09371465 0.12786613 0.17824614 0.05313144 0.072630614 0.08382064
-0.16906536 -0.08581075 0.16092533 -0.1750664 -0.06387837 -0.027523465 -0.20140651 -0.1413631
-0.1297332 -0.15707208 -0.13099204 -0.12516077 0.03097373 -0.054577287 0.25663814 -0.07043822
0.058552977 0.13747603 0.08401184 -0.1843759 -0.07683593 -0.124993846 0.1523145 -0.061685044
0.14480299 -0.035065506 0.17268707 0.12494711 -0.11837849 0.06531381 -0.0565767 -0.27459022
0.17675917 -0.007995916 -0.19182797 -0.13300131 0.1715525 0.20087387 0.21978503 -0.16503237
0.07706365 0.24274907 -0.14467756 0.12636143 0.0071760262 0.26746666 -0.0041982536 0.10437803
-0.13834941 0.034015372 -0.123486444 -0.10949512 -0.1539975 -0.15237069 -0.030246168 0.019958967
0.054017633 0.062309783 0.14428045 0.047311384 0.015189171 0.06579453 0.006496719 -0.10289016
-0.006471865 0.0004686659 -0.015998902 0.1597422 -0.110892 -0.085955456 0.15411766 0.08621488
-0.095359504 -0.026822248 0.08166932 0.025304904 -0.0014353268 0.046089888 0.037798956 -0.11824924

local_trans_pixel.layers.0.1.fn.fn.net.0.bias f4 [8]
00000000: 4ad7 043d 1c6e 30bd 0a31 58be 9269 b6bc
00000010: 8d1a cd3d c7d2 98bd e6d7 fc3d e469 b8bd
0.03243188 -0.04307376 -0.21112457 -0.022267137 0.1001483 -0.074620776 0.12345867 -0.09004572

local_trans_pixel.layers.0.1.fn.fn.net.3.weight f4 [32, 8]
00000000: e080 a23e 8de6 a6be 2b1a 6a3d 982d a5be
00000010: d7ce c2be 0c20 40be c2f7 d3be 4146 6c3a
00000020: 7fd1 983c cc25 5bbe 23f6 603e 704c 80be
00000030: 2b4b e4be a5ea c3be 99a2 91be a77f 803c
00000040: 540f b5be 1810 32bc be00 3e3e ae9b a43e
00000050: 6564 083e a064 85be 90c3 55be 318f 703e
00000060: 956e 583e b4e0 f3be c9c5 1b3a 3abd 7ebe
00000070: 6945 5bbe 642b 43be ecd4 193e e326 483e
00000080: 1633 b83e 96f5 bcbd a2a2 693e a912 a1be
00000090: f66b 0d3b 0793 98be bf96 38bd a54f b1be
000000a0: 22d1 6a3c ad83 61bd 8a2e 8e3e 7c99 45bd
000000b0: 50d7 0f3e 55fb e1be 4dc4 8cbe 8f19 963e
000000c0: e8fe 0c3e fbde a03b cb44 bfbe 8580 763d
000000d0: 9315 bcbd ec23 34be d9fa 3ebe 210a 88bd
000000e0: c0ce 9abe 6cf9 123e 64fd 3d3e 2ecc e1bd
000000f0: 3aaa efbb f7e9 37be 3c50 4e3e 153c 2cbe
00000100: 0dcd b83e cec3 6b3e d3f2 603e a888 eebd
00000110: b933 3bbe fda0 85be 5e99 a93d df0e 1c3e
00000120: 3082 a2be 6336 5d3e c44a ddbd bad8 bcbd
00000130: dc81 5bbe f537 86be 876f 813e c856 ac3e
00000140: c499 b03d 3ae5 8a3e acc6 16be 0e08 7b3e
00000150: 8675 98be ab56 843e adbc 75bd fa6b 2a3d
00000160: 6368 7dbd accf 09bd f234 d13d f98a a23e
00000170: 9c06 343e a41c 803d fbbf c73d 491c 61be
00000180: 2cd9 0dbd 9bbf 13be 68dd c4be e259 63bc
00000190: b865 b33d c7a7 993e b1a3 283c a032 cb3d
000001a0: 9014 a03e 9953 ca3e 97ba 18bb e131 893e
000001b0: eff1 29be 50ca ae3d daa9 b4be 0294 33bd
000001c0: 03ee 83bd 99d3 d43e e9d4 32be 9e3f bd3d
000001d0: 4dd9 113f b934 fd3d 7ab7 563e 6637 793b
000001e0: 49d8 35be 11b9 db3c 8143 3bba 1d19 203e
000001f0: 44f1 a43d 95ce 11be a07e 303e ab91 a33d
00000200: 6882 9ebe 6144 b6be 3847 8a3e db89 633c
00000210: c992 6c3d c925 bbbe 1374 063e b772 84be
00000220: 3a41 6ebd d0e3 c83e 3f8e 553e 9f2c 79be
00000230: f184 903d 2e6a a73e 580c d7bd 7a5b 953e
00000240: d020 703e c461 43bd df6c a7bd 3617 15be
00000250: 30fd d6be 3fa7 af3e d94d 4dbe 419d 85bc
00000260: 79e4 f83d 9ffe ad3e 672c 6cbe 5588 553e
00000270: c0bb 1d3e 25ab 723e fde0 f23d 8d33 b43e
00000280: ec3d c2be 33c3 353e 5c5e abbe 79da 643e
00000290: 2235 473e c8d6 36be de2d 42be b49d 78be
000002a0: e2d9 f73d 668d 86bc 4c05 36be 11ae 843e
000002b0: 781c b6be 33d2 8fbe f7fd 6c3d 1920 033d
000002c0: 8d46 8739 e0cd a5bc b649 45be 1fec a63d
000002d0: 4748 013e 865d 253e 9441 603e 2ddb 5e3c
000002e0: 29d6 bd3e c632 7c3e c168 dbbd 8fa8 4f3e
000002f0: fafd 6bbe 0fd6 ef3d 51d7 4abe adcf 11bd
00000300: e584 06be 0b22 cebd c181 223c cb42 f6bc
00000310: b6c2 0cbc 5cac 323d 85e1 883e b71c 9b3e
00000320: 55ee 673e a175 98be 609b 71be e051 7ebe
00000330: b2f6 c93e 9a28 5dbe 3a76 ab3e bd16 0b3e
00000340: cf3d 9fbe b462 45bc 5341 e03d 489f babe
00000350: 71cc 9dbe 118b 15be 9cda c53e 9b8d aa3d
00000360: a3bd a43e 5e12 203e e755 43bd d1d6 1b3d
00000370: 82c0 433d 100b 8e3e bf5a 0cbe 25c6 0dbe
00000380: a9ed 6d3e 3fc4 4bbd 657f 91be ff92 4a3c
00000390: 2bb4 133e 2eac f3bd 24c5 163e 8102 933c
000003a0: 61f8 b13e 1aa1 af3e 0fb1 a53e 8cd9 253e
000003b0: b153 e0bd 58cf 253e 83a7 8e3e d420 6cbe
000003c0: 433b bcbd 16b1 a3be d347 99be e810 903e
000003d0: c209 11be 4aef 763e 08bd c03e 4f47 9dbe
000003e0: 854a 753e bb4b 1f3e 323a 8c3e e298 a73e
000003f0: 7e77 073e d929 fdbc cccc 153e 0047 b93d
0.3173895 -0.3259777 0.057153862 -0.32261348 -0.3804843 -0.18762225 -0.41399962 0.0009013154
0.018654583 -0.21401137 0.21968894 -0.25058317 -0.445886 -0.38264957 -0.28444365 0.01568587
-0.35363257 -0.010868095 0.1855497 0.32150024 0.13319547 -0.26053333 -0.20875382 0.23492123
0.21135934 -0.47632372 0.0005942253 -0.24876872 -0.21413197 -0.19059521 0.1502263 0.19546084
0.35976475 -0.09226529 0.22815946 -0.3145955 0.0021579242 -0.29799673 -0.045065638 -0.34631076
0.014332088 -0.055057216 0.2776988 -0.048242077 0.14046979 -0.44137064 -0.27493516 0.29316375
0.13769114 0.004909394 -0.37357172 0.06018116 -0.091838025 -0.17591828 -0.18650378 -0.06642557
-0.30235863 0.1435296 0.18553692 -0.11025272 -0.0073139938 -0.17960344 0.20147794 -0.16819794
0.3609394 0.23023912 0.2196763 -0.11647159 -0.1828145 -0.26099387 0.082812056 0.15240048
-0.3173995 0.21602778 -0.10805276 -0.09221025 -0.21436256 -0.26214567 0.252804 0.3365996
0.086230785 0.2712801 -0.14724225 0.24514791 -0.29777163 0.25847372 -0.05999439 0.04160688
-0.06186713 -0.033645317 0.10215177 0.31746653 0.17580646 0.06255463 0.09753414 -0.21983446
-0.03463094 -0.1442856 -0.3845017 -0.01387641 0.08759636 0.30010816 0.010292933 0.09921765
0.31265688 0.39516905 -0.0023304576 0.26795867 -0.16596197 0.08534682 -0.35285836 -0.043842323
-0.064418815 0.41567686 -0.17464031 0.0924065 0.569722 0.12363572 0.20968428 0.0038027405
-0.17758287 0.026821645 -0.0007143543 0.1563458 0.0805383 -0.14238961 0.17235804 0.07986768
-0.30958867 -0.35599044 0.2700746 0.013887848 0.057757173 -0.36552265 0.13130216 -0.2586877
-0.058167674 0.39236307 0.20855044 -0.24333428 0.070566066 0.32698196 -0.10500401 0.29171354
0.23450017 -0.04770066 -0.081750624 -0.14559636 -0.41990042 0.34307286 -0.20049228 -0.016310336
0.12152953 0.33983323 -0.23063813 0.20852788 0.15403652 0.23698099 0.11859319 0.3519558
-0.37937868 0.17750244 -0.33470428 0.22348966 0.19453862 -0.1785537 -0.1896281 -0.24278909
0.12102105 -0.016424846 -0.17775458 0.25914052 -0.35568595 -0.28090057 0.057859387 0.032013033
0.0002580177 -0.02023977 -0.192664 0.08150505 0.12625228 0.16148958 0.21900016 0.01360206
0.37077454 0.24628744 -0.107133396 0.20279144 -0.23046103 0.1171075 -0.19808699 -0.035598446
-0.13136633 -0.10065087 0.009918631 -0.030061146 -0.008591345 0.043621406 0.26734558 0.30295345
0.2264951 -0.29777244 -0.23594427 -0.2483592 0.39446026 -0.2159752 0.33488637 0.13582893
-0.31101844 -0.012047458 0.109499596 -0.36449647 -0.3082004 -0.14603831 0.38643348 0.0832779
0.3217593 0.15632007 -0.047689345 0.03804666 0.04779101 0.27742815 -0.13706492 -0.13845117
0.23235191 -0.0497477 -0.28417507 0.012364148 0.14424197 -0.11898075 0.1472364 0.01794553
0.3475981 0.34302598 0.32361647 0.16196269 -0.10953463 0.16192377 0.27862176 -0.23059398
-0.09190991 -0.31971043 -0.2993761 0.28137898 -0.14163879 0.24114719 0.3764422 -0.30718467
0.23954208 0.15556233 0.2738815 0.32733828 0.13229176 -0.030903744 0.14628905 0.09046745

local_trans_pixel.layers.0.1.fn.fn.net.3.bias f4 [32]
00000000: 40d9 9abe 95fb babe f34f 98bd 55f8 98bd
00000010: e8ea ad3e 48d3 c1be 4031 95bd 5f5f 1c3e
00000020: eb22 60be 99de b2be 5286 79be 2d3f f2ba
00000030: 2072 fa3d e77e 12be 3682 9e3e 46d4 d73e
00000040: 2597 82be 40cb 0bbe 5c2c 09bd 1f13 de3d
00000050: 671a c83e 075c c2be 78cb a03e 15e5 af3e
00000060: 5e27 e03d 1349 463d 3dc2 febd 970c 5ebc
00000070: dfb5 a2be beae c03e bb3a 923e d01e 6d3e
-0.30243874 -0.36520067 -0.07437124 -0.074692406 0.33968282 -0.37856507 -0.07284784 0.15270756
-0.2188832 -0.34935454 -0.24367645 -0.0018481963 0.12228799 -0.14306222 0.30958718 0.4215414
-0.2550594 -0.13651752 -0.03348957 0.10843491 0.39082643 -0.37960836 0.31405234 0.34354463
0.10945009 0.048409533 -0.12439392 -0.013552806 -0.31779382 0.37633318 0.28560433 0.23156285

conv2d_features.0.weight f4 [64, 30, 3, 3]
00000000: 9b43 973c 87ac f8bc a8bc 99ba 283e 46bd
00000010: 5d8d 30bd d363 573d c9ed 7fbd 785d 293d
00000020: b8c7 423d 1fc9 983d 607f 463c 3867 adbc
00000030: 7eb7 e93c 6ea3 b8bc ee9b dfbc c918 a5bc
00000040: 8915 903d f31e 973d dfd0 da3c 9fa0 b53c
00000050: e6c1 a63c 14ea 1cbd bf54 23bd 6467 523d
00000060: 52a1 4e3d 1804 8bbb 023f 8e3d 4f67 e93d
00000070: 2cfb eb3c 5a99 0c3d 3831 563d 6b77 903d
00000080: 7908 293d 187d 4d3c 87fc 2d3d 3149 dcbc
00000090: 35ef 15bd 3e48 69bc e0a8 e83b 56fb 20bc
000000a0: a0f6 8c3b 7503 913d e0a0 8cbc 5275 b83c
000000b0: ed63 bfbc 0c21 a93c f59b 8cbc e5c5 91bd
000000c0: a22d 0fbd eb97 2c3c 72cd 833c 0081 3ebd
000000d0: 1bfe 5cbc bb70 17bd 61ae cb3d 723d 583d
000000e0: a6b8 b33d 8fe5 1d3d 67f8 edb8 e459 fb3c
000000f0: 0b4e 953c c4c7 e43d 5574 b13d 27c0 173d
00000100: e5af d73c 2d78 cf3d 0523 cb3d 8129 273d
00000110: 9862 1d3d 5bb5 183d 08b4 163d 0a36 833d
00000120: 7265 803c a48e 9a3b b769 8ebd 28f7 6ebd
00000130: ab8c cd3c 0b4d 9dbc 2bce 6e3d 2e59 4b3c
00000140: d8de a7bd c887 cdbd a1b8 03bd 0f4c c0bc
00000150: f8e1 26bd 316b aabc 35a7 2dbd 64a4 4fbd
00000160: f755 01bc 2e9e cdbd 39dc de3b 9d56 1abc
00000170: ef57 af3b 9313 113d c178 23bb 1618 5dbc
00000180: 74fe 423c 1b2a e73a 9fdb 3b3d c212 13bd
00000190: a7b6 8b3c 87a1 b13c 82aa 8ebd beec 19bd
000001a0: beec 49bd 4275 58bd b0f7 d6bd 06fb e8bd
000001b0: b146 763c 95bd 9fbc def0 213c e19a a03c
000001c0: 0f72 49bd 4830 d7bc 6f99 633c c521 2cbd
000001d0: f767 76bd 486f 0cbd 2ff3 12bd 2542 fdbc
000001e0: 9c72 733a 8e7e 80bd f4d5 cebc f9ab 8fbd
000001f0: 3f5d 6cbc 2dc3 81bd 5892 a5bd 54b3 203d
00000200: 818f ffbc e246 0abd 979e 82bd 1bf1 d5bc
00000210: 0035 81bd c8da b2bc cbea 09bd 7ce2 c3bc
00000220: b360 58bc 60d4 703d ec2c 363d 54a6 ecbb
00000230: adc4 99bb a7d2 07bb 8fa0 61bc 0f40 ae3d
00000240: bdc1 883d 39f3 a5bb 5c15 f13b 2d2c 183c
00000250: 3590 0b3d 1bc3 2cbc 335b 21bd 349a 68bc
00000260: dd49 f5bb 8cd0 d0bc b8f6 78bd 5fdb 83bd
00000270: 5835 863d cd02 97bc ffb6 9ebd e12c e6bc
00000280: 5f25 f6bc 44d2 df3b 043c e33c 7f0c 8e3d
00000290: 4135 933b 57af 143c 33e5 673d 5224 cfbc
000002a0: 41a2 783d 5637 1bbc 6762 553c 6d5a f33b
000002b0: db81 a0bc 4ff0 c63c 5258 b339 d707 f5bb
000002c0: 668d 1bbd 223b 443d c5c4 62bd aa6b 4a3c
000002d0: 457c 72bc e997 6fbc 80f5 d2b9 305e 213d
000002e0: aeef f33a 1a8e b7bc 104e 533d e99b 15bd
000002f0: 2182 453d 2126 a53c 0d66 913d 21df 6e3d
00000300: f145 193d 8bc1 323d 4e6e 6c3d 9dbe 6b3d
00000310: 4a0e 1f3d 6cec 9c3c 244b ca3c 5401 da3c
00000320: aced 873d b582 153d d033 edbc d498 9c3c
00000330: e78f 8a3b 8c66 c0bc b39f 533b fcac 58bd
00000340: 29eb c5bc 9a47 8fbc 423d 483c 2020 453b
00000350: 91de 90bd 6329 adbc b23f c03c 46b8 28bd
00000360: 04db fe3b 7098 ecbc 1270 67bc 435e 3d3d
00000370: 10bc 31bd e63e 103d 4260 dabc 5b3c 543a
00000380: 2fd5 603c df3b 533d 5e2f 9539 95ed 663d
00000390: 3da8 ed3c 1b68 fd3c a6f5 b6bc 4f12 1b3d
000003a0: 5f44 083d 2258 5f3d 1e59 bb3d 63ab 973d
000003b0: 422f 9139 71e7 d3bc 28a5 433d c43f 653d
000003c0: dc37 4b3d 9a27 4e3d d332 6a3c a5f2 843d
000003d0: 01cf 573d 4a2b 3c3d 7070 39b9 22e2 8f3d
000003e0: 9ab4 2d3d fe49 703d d418 973c 3f62 cd3c
000003f0: 440f 89bc 8144 46bd 3fd3 2cbd 3c7a d03b
0.018464854 -0.030355705 -0.0011729198 -0.04839912 -0.043103565 0.052585434 -0.06248263 0.041348904
0.047553748 0.07460236 0.0121153295 -0.021167383 0.028529879 -0.022538867 -0.027296033 -0.02015342
0.070353575 0.0737895 0.026710926 0.022171317 0.02035613 -0.03830917 -0.039875742 0.051368132
0.050446816 -0.0042424314 0.069456115 0.11396658 0.028806292 0.034325935 0.052293032 0.07054027
0.041267846 0.012542032 0.042477157 -0.02689037 -0.03660508 -0.014238415 0.0071002096 -0.009825548
0.004301861 0.070807375 -0.017166555 0.02251688 -0.023363078 0.02064564 -0.01716421 -0.071178235
-0.03495563 0.010534267 0.016089175 -0.046509743 -0.013488318 -0.036972743 0.099453695 0.052792974
0.08775453 0.038549002 -0.00011347309 0.030682512 0.01822569 0.11170915 0.08664767 0.037048485
0.02632899 0.101303436 0.09918789 0.040811066 0.038424104 0.03728233 0.036792785 0.064067915
0.015673373 0.004716711 -0.06953757 -0.058341175 0.02509149 -0.019201776 0.058302086 0.012411399
-0.08196801 -0.10035664 -0.032158498 -0.023473768 -0.040742844 -0.020803066 -0.04239579 -0.050693884
-0.007894031 -0.10039936 0.006801155 -0.009420064 0.0053510587 0.035419058 -0.00249438 -0.013494512
0.011901487 0.001763645 0.045863744 -0.03590656 0.017054869 0.021683468 -0.069661155 -0.03757929
-0.04929804 -0.0528462 -0.104964614 -0.11376004 0.015031503 -0.01949958 0.009884087 0.019605102
-0.04918104 -0.02626814 0.013891562 -0.042024393 -0.060157742 -0.034285814 -0.03587645 -0.03091533
0.00092867925 -0.062741384 -0.025248505 -0.07015223 -0.0144265285 -0.06336055 -0.080845535 0.03923352
-0.031196358 -0.033759005 -0.06377905 -0.026115945 -0.06308937 -0.021832839 -0.03367118 -0.023911707
-0.013206649 0.058796287 0.044476435 -0.0072219763 -0.004692635 -0.0020724924 -0.01377119 0.08508312
0.06677578 -0.005064395 0.0073572826 0.009287876 0.034073073 -0.010544564 -0.039393615 -0.014196921
-0.007485612 -0.025490068 -0.060782164 -0.06438326 0.06553143 -0.018433953 -0.077497475 -0.028097572
-0.030047117 0.0068304855 0.027738579 0.06935977 0.0044924323 0.009075007 0.056615066 -0.025285874
0.060701612 -0.009473642 0.013023949 0.007426551 -0.01959317 0.02428451 0.00034207344 -0.007477741
-0.037976645 0.047907956 -0.055363435 0.012354771 -0.014800136 -0.014623621 -0.00040237233 0.039396465
0.0018610859 -0.022406626 0.051588118 -0.03652564 0.048219804 0.020159783 0.07099543 0.05831826
0.037420217 0.04364161 0.057722382 0.05755483 0.038831986 0.019155703 0.024694033 0.026611961
0.06637129 0.036501605 -0.02895537 0.019115843 0.0042285803 -0.023486398 0.0032291233 -0.052899346
-0.024159985 -0.017490197 0.012221636 0.0030078962 -0.07073701 -0.021137899 0.023467872 -0.04119136
0.0077775735 -0.028881282 -0.014125841 0.046232473 -0.04339224 0.035216235 -0.026657227 0.0008096152
0.013722702 0.05157077 0.00028454786 0.05637892 0.029010886 0.03093343 -0.022333931 0.037859257
0.03326833 0.05452741 0.09147857 0.07405736 0.00027691765 -0.025867196 0.047764927 0.055969015
0.04961382 0.050330736 0.014294344 0.06491593 0.05268765 0.04593972 -0.00017684861 0.07025553
0.042408563 0.058664314 0.018444456 0.025071261 -0.016730912 -0.048405174 -0.042193647 0.0063622277
