src/res/GGCL/guided_contra_cross_transformer/Pavia/10/True/true ss 1/_1711863963.pth (torch, 266710 bytes, 37 tensors)

pixel_pos_embedding f4 [1, 170, 32]
0	0x3fea7085	1.8315588
1	0x3e841f88	0.25805306
2	0xbfb6afc4	-1.427239
3	0x3dba65e4	0.09101465
4	0x3f8da9ba	1.1067421
5	0xbf76ffe8	-0.9648423
6	0x3f05bde3	0.5224287
7	0x3f68ee2e	0.90988433
8	0x3f406161	0.7514859
9	0x3f6bfd97	0.9218382
10	0xba2014b6	-0.0006106602
11	0xbf5a6456	-0.8530935
12	0xc0267666	-2.6009765
13	0x3e80d6dc	0.25163925
14	0x3e87569a	0.2643326
15	0xbf7acdae	-0.9797009
16	0x3faaa00a	1.333009
17	0x3f91eed5	1.1401011
18	0x3f82620a	1.0186169
19	0xbddc4690	-0.10755646
20	0x3d68d435	0.056843
21	0xbf6f86b0	-0.9356489
22	0xbf536cec	-0.82588077
23	0x3f8974ab	1.0738729
24	0xbf395d38	-0.72407866
25	0xbe906ecb	-0.28209528
26	0xbfce5ba9	-1.6121722
27	0x3fd2a6da	1.6457169
28	0xbef05990	-0.4694333
29	0x400b0ee0	2.172783
30	0x3e3479a4	0.17624527
31	0x3f9d2209	1.2276012
32	0xbfe057a3	-1.7526745
33	0xbeb84491	-0.35989812
34	0x3fdc4d0c	1.7211013
35	0x3e714bd4	0.23564082
36	0x3ec20e6f	0.37901637
37	0xbdcd9ffd	-0.10040281
38	0xbe8bc427	-0.2729809
39	0x3f676539	0.9038883
40	0xbfdefdd8	-1.7421217
41	0xbf3c5bf9	-0.7357784
42	0xbf27e3cf	-0.65581983
43	0xc0058481	-2.0862124
44	0x3f8dd232	1.1079772
45	0x3fec56d3	1.8463997
46	0xbf17078e	-0.589959
47	0x3e318d43	0.17339043
48	0x3f2c9372	0.67412484
49	0x3e0e0829	0.138703
50	0xbe8eaa5b	-0.27864346
51	0xbf56728d	-0.8376854
52	0xbc958cf3	-0.018255686
53	0xbf2f8777	-0.6856608
54	0x3f0c9ea7	0.54929584
55	0xbd3dd940	-0.046349764
56	0x3e210262	0.15723565
57	0x3f218775	0.63097316
58	0xbcf258d7	-0.029583378
59	0x3f863ceb	1.0487341
60	0x3f34fefc	0.70701575
61	0x3e9c9a4c	0.3058647
62	0xbf5e6af8	-0.8688197
63	0x3e87d5fc	0.26530445
64	0xbd1bf403	-0.038074505
65	0xbfc99203	-1.5747684
66	0x3fdcb8a3	1.7243847
67	0x3fd1a0bc	1.6377177
68	0x3f1dc16a	0.6162325
69	0xbd209f79	-0.039214585
70	0x3ebdd8c2	0.37079436
71	0x3f51f23d	0.8201025
72	0xbe911f9f	-0.28344437
73	0xbfbb035d	-1.4610401
74	0xbe601cf6	-0.21886048
75	0x3ed10bc7	0.40829298
76	0x3ec6dc6b	0.3884004
77	0xbeda972f	-0.4269347
78	0xbeac86e5	-0.33696666
79	0x3fb012e6	1.3755767
80	0xbf1fb313	-0.6238262
81	0x3eb1d261	0.3473082
82	0x3d5552b7	0.052080836
83	0xbfa09a7f	-1.2547148
84	0xbf82b98b	-1.0212873
85	0xbf5771a2	-0.84157765
86	0x3eb35699	0.35027006
87	0x3edefeb8	0.4355371
88	0xbee40284	-0.4453317
89	0xbf868c28	-1.0511522
90	0xc035d73c	-2.8412619
91	0xbfa22ac0	-1.2669296
92	0x40011e52	2.0174756
93	0x3fa9ad7c	1.3256068
94	0xbee6d87b	-0.45087036
95	0xbf066456	-0.5249685
96	0xbfb61d7c	-1.4227748
97	0x3ff614c4	1.9225087
98	0xbf1aff41	-0.60545737
99	0xbef8f75a	-0.48626214
100	0x3f698e4d	0.9123276
101	0xbfb08803	-1.3791507
102	0xbe6b3f3c	-0.22973341
103	0x3f6da068	0.92822886
104	0xbe18bdd8	-0.1491617
105	0x3f023445	0.50861007
106	0x3e475518	0.19466054
107	0x3f820b5c	1.0159717
108	0xbec54ad8	-0.38533664
109	0x3fb8425b	1.439525
110	0x3ea05f51	0.3132272
111	0x3dda3356	0.10654323
112	0xbf501546	-0.8128246
113	0xbf0e2640	-0.55527115
114	0x3e64bf96	0.22338709
115	0x3f65ca0e	0.89761436
116	0xbd4c35ef	-0.049856123
117	0x3fd42f23	1.6576885
118	0xbd2e42a9	-0.04254404
119	0x3f21746b	0.63068265
120	0x3ed3b102	0.41345984
121	0xbfbb095f	-1.4612235
122	0x3ea8c11d	0.32959834
123	0xc01e1786	-2.4701858
124	0x3ef2fd2d	0.47458783
125	0xbe01cb53	-0.12675218
126	0xbf682977	-0.9068827
127	0xbf6c4ead	-0.9230755
128	0x3ebc7b7a	0.36812955
129	0x3ec91847	0.39276335
130	0xbd6d254f	-0.05789691
131	0x3fd272d9	1.6441299
132	0xbe9e114a	-0.30872566
133	0xbfef6ce9	-1.8705112
134	0xbd7a051b	-0.061040025
135	0xbf1b6b61	-0.6071072
136	0x3fa31182	1.2739718
137	0xbf7fc4c0	-0.9990959
138	0xbf09b09f	-0.5378513
139	0x3ed31653	0.4122797
140	0x3e39c392	0.1814101
141	0xbe8f325e	-0.27968115
142	0xbfb6a716	-1.426974
143	0xbea4c25c	-0.32179534
144	0xc0223302	-2.5343633
145	0x3f4acb8c	0.7921684
146	0x3e76d803	0.2410584
147	0xbefbc2a2	-0.4917193
148	0xbf890364	-1.070416
149	0x400924aa	2.1428628
150	0xbf8df622	-1.1090739
151	0x3f8482dd	1.0352436
152	0xbfb8c633	-1.4435486
153	0x3f989694	1.1920953
154	0xbf03a2b4	-0.5142014
155	0x3e684b3c	0.2268495
156	0xbf87ecb2	-1.0619109
157	0xbf53b608	-0.8269963
158	0x3f32e645	0.69882613
159	0xbf5771e2	-0.84158146
160	0xbfebc6d6	-1.8420055
161	0x3f7d6431	0.98981005
162	0xbea68c3f	-0.32528874
163	0x3d21c9ab	0.039498966
164	0x4017c2ed	2.3712723
165	0xbc87b8d2	-0.016567621
166	0xbffd3dc1	-1.9784471
167	0x3f1b99f6	0.607818
168	0xbe0d7e88	-0.13817799
169	0x3f98d0c3	1.1938709
170	0xbd742199	-0.059602354
171	0xbf4b0b94	-0.7931454
172	0xbf1b2be1	-0.6061383
173	0xbf4aea34	-0.79263616
174	0xbe38e4ef	-0.18056081
175	0x3e97c3be	0.29641527
176	0xbfa90654	-1.3205056
177	0xbf199bca	-0.6000334
178	0xbc900a59	-0.01758306
179	0x3ef1b9cf	0.47212073
180	0x3efc2b9f	0.4925203
181	0x3f5a1bd1	0.85198694
182	0xbe31d957	-0.17368065
183	0xbf93dbfd	-1.155151
184	0x3ed68e16	0.41905278
185	0x3ec35d89	0.381573
186	0x3f2c6f13	0.67356986
187	0xbfb3ac57	-1.4036969
188	0x3f695f99	0.91161495
189	0xbe0294d6	-0.12752089
190	0x4022053a	2.531569
191	0x3ed94845	0.4243795
192	0xbde772d0	-0.113011956
193	0x3fbeaa8b	1.4895796
194	0x3fe42dc8	1.7826471
195	0xbe028c23	-0.1274877
196	0x3fa3cd96	1.2797115
197	0xbe19cc07	-0.15019237
198	0x3f080343	0.53129977
199	0xbb1edb6f	-0.002423968
200	0xbff161c8	-1.8857965
201	0x3e493a41	0.19651128
202	0xbfac400a	-1.3457043
203	0x3f3f8c05	0.7482303
204	0x3b8e8c88	0.0043502487
205	0x3f8572a7	1.0425614
206	0xbf214049	-0.62988716
207	0xbe9bb72c	-0.30413187
208	0x3e994599	0.2993591
209	0x3fac202b	1.3447317
210	0x3e91ef7c	0.28503025
211	0x3faf3794	1.3688836
212	0xbb6e3830	-0.0036349408
213	0xbdf8cb98	-0.121482074
214	0x3f650602	0.8946229
215	0xbf2823d1	-0.6567965
216	0x3f200af9	0.6251674
217	0x3ea6b4fa	0.3255995
218	0x3f91e360	1.1397514
219	0xbfb1082e	-1.3830621
220	0xbfbf10c2	-1.4926989
221	0xbfe8dc59	-1.8192245
222	0xbd4922d8	-0.049105495
223	0x3fc947b3	1.5725006
224	0xbf4bebe3	-0.7965681
225	0xbfa938c7	-1.3220452
226	0x3f08b6cb	0.5340392
227	0xbd3b2a1c	-0.045694456
228	0x3f4f6f78	0.8102946
229	0x3f730bcc	0.94939876
230	0xbe71e5a5	-0.23622759
231	0x3e9423f2	0.28933674
232	0x3ef71161	0.48255447
233	0x3fb4679f	1.4094123
234	0xc00e10dc	-2.219779
235	0xbfc508c5	-1.5393301
236	0xbf293d8a	-0.66109526
237	0x400e0845	2.2192547
238	0xbf06326a	-0.52420676
239	0x3d357dcc	0.044309422
240	0x3f8185ed	1.0118996
241	0x3f839831	1.028082
242	0x3f010da4	0.5041144
243	0xbf3dc16e	-0.74123275
244	0xbd93d70e	-0.07218753
245	0x3f286d62	0.65791905
246	0x3fd4f10b	1.663606
247	0x3f876261	1.0576898
248	0xbed59844	-0.41717732
249	0xbf3169fe	-0.69302356
250	0xbfa2da57	-1.2722882
251	0x3eb62238	0.35572982
252	0x3f9a11dc	1.20367
253	0xc022185d	-2.532737
254	0xbdee2607	-0.11628347
255	0xbfcaa54c	-1.5831695

cls_token_pixel f4 [1, 1, 32]
0	0x3fa45c27	1.2840623
1	0xbf0ab609	-0.54184014
2	0x3dab29d8	0.083575904
3	0xbf43d34f	-0.76494306
4	0xbfaff7f5	-1.3747545
5	0x3f6eaeba	0.9323536
6	0x3e66ffa9	0.22558464
7	0xbfae5c8a	-1.3621991
8	0x3eb940b5	0.3618218
9	0xbee0bc92	-0.43893868
10	0x3f09074c	0.5352676
11	0x3f3f9fcb	0.748532
12	0xbe69c9b2	-0.22830847
13	0xc008acc4	-2.1355448
14	0x3f92aaa0	1.1458321
15	0xbf5bfabf	-0.85929483
16	0xbfa2e767	-1.2726868
17	0xbec77465	-0.3895599
18	0x40165f87	2.3495805
19	0xbd8fd74b	-0.07023486
20	0xbe82e08f	-0.2556195
21	0x3f53a77d	0.8267744
22	0xbefeb350	-0.4974618
23	0x3f333dda	0.70016253
24	0x3ec6a8f0	0.38800764
25	0x3e34c97d	0.17654987
26	0xbfbef711	-1.4919149
27	0xbfaa4ec9	-1.3305293
28	0x3f9ae662	1.2101557
29	0xc006512f	-2.098705
30	0x3e87fb15	0.26558748
31	0xbf740d96	-0.9533323

pixel_patch_embedding.weight f4 [32, 30]
0	0xbdf65cd0	-0.12029421
1	0xbe1aa65e	-0.15102527
2	0x3de107fc	0.10987851
3	0xbe2e5d9d	-0.17027898
4	0xbdc18610	-0.094493985
5	0x3e36c562	0.17848733
6	0xbde99beb	-0.11406692
7	0x3e2339c6	0.15940008
8	0x3d4fd6a8	0.05074182
9	0xbb364780	-0.0027813613
10	0x3d832eb8	0.06405395
11	0x3dadc688	0.084851325
12	0xb998bc00	-0.0002913177
13	0x3e219c34	0.15782243
14	0xbe1b8000	-0.15185547
15	0x3d6f3c38	0.05840704
16	0x3d0a560c	0.033773467
17	0x3e298444	0.16554362
18	0xbe0bcb46	-0.13651761
19	0xbdeaf9e1	-0.11473442
20	0xbd5ee774	-0.05441995
21	0x3e1cef86	0.15325746
22	0x3da5a2ac	0.08087668
23	0x3decc168	0.11560327
24	0x3d5030cc	0.050827786
25	0x3d469910	0.048485816
26	0xbdea0f8c	-0.114287466
27	0x3d7860d0	0.060639203
28	0x3dc2c278	0.09509748
29	0x3d647944	0.05577971
30	0xbe1c007a	-0.15234557
31	0x3dbcf884	0.09227088
32	0x3e09fd36	0.13475499
33	0x3e2a9372	0.16657808
34	0x3d94bb9c	0.07262346
35	0x3db8a534	0.09015885
36	0xbe2a4258	-0.1662687
37	0xbc5ef910	-0.013609186
38	0xbb93e320	-0.0045131594
39	0xbdf41748	-0.11918503
40	0xbdf166c5	-0.1178718
41	0xbb22bb00	-0.00248307
42	0x3d3fece0	0.04685676
43	0x3e1c347c	0.15254396
44	0xbe367eca	-0.17821804
45	0xbce8d548	-0.028422013
46	0x3d3df804	0.046379104
47	0xbe2e39c3	-0.17014222
48	0xbdc85df7	-0.09783547
49	0x3da7b3d8	0.08188599
50	0xbe12905e	-0.14312884
51	0x3d2a63f0	0.041599214
52	0x3cf8dce8	0.030378774
53	0x3e253bde	0.16136119
54	0xbdb343ff	-0.087532036
55	0xbe08eeaf	-0.133723
56	0xbd0535d8	-0.032522053
57	0xbdf31b80	-0.118704796
58	0xbd81a8d2	-0.06331028
59	0x3e21e734	0.15810853
60	0x3e22f0aa	0.15912119
61	0x3e0014b6	0.125079
62	0xbdc91bc6	-0.098197505
63	0x3db09f30	0.086241126
64	0x3e04bcc2	0.1296263
65	0x3d5a69fc	0.05332373
66	0x3e378562	0.17921975
67	0xbe1fbde4	-0.15599781
68	0xbdcd3f75	-0.10021869
69	0x3dec9f38	0.11553806
70	0xbe1a4b49	-0.15067782
71	0x3e343672	0.17598894
72	0xbcdd4d78	-0.027014479
73	0x3e0cc0ac	0.13745373
74	0xbe17d3d3	-0.14826898
75	0xbd757d92	-0.059934206
76	0xbdfa9942	-0.12236263
77	0xbd8699a6	-0.06572275
78	0x3dc98788	0.09840304
79	0xbe1c3475	-0.15254386
80	0x3df7b7dc	0.12095615
81	0x3e3a3ee6	0.18188056
82	0xbcc6e868	-0.024280742
83	0xbcbb3580	-0.02285266
84	0x3d1231f4	0.03569217
85	0x3daf18cc	0.085496515
86	0xbe34c2cc	-0.17652434
87	0x3ced8e00	0.028998375
88	0xbe33a9c2	-0.17545226
89	0x3da7befc	0.08190724
90	0xbd333080	-0.043747425
91	0x3ddd5eb4	0.10809079
92	0xbda25214	-0.079258114
93	0x3df2d244	0.11856511
94	0x3e0a0ed6	0.13482222
95	0x3e3aec26	0.18254146
96	0xbd43a3d0	-0.047763646
97	0x3dd65954	0.10466257
98	0x3db35714	0.08756843
99	0xbda051ac	-0.07828078
100	0x3e02cc3a	0.12773219
101	0x3d8c18f4	0.06840697
102	0xbdcbdff2	-0.099548236
103	0xbe328787	-0.17434512
104	0xbda920f7	-0.08258241
105	0xbcf3c9f8	-0.029759392
106	0x3d5f8fb8	0.05458042
107	0x3d60ce64	0.05488433
108	0xbcd3ef40	-0.02587092
109	0x3d7f71d8	0.06236443
110	0xbe015bf5	-0.12632735
111	0xbce3cc78	-0.02780746
112	0x3d693f64	0.05694522
113	0xbdf5313e	-0.11972283
114	0x3d97fc6c	0.074211925
115	0x3d763b90	0.060115397
116	0x3e3606d0	0.17776036
117	0x3dd4e7b8	0.10395759
118	0xbd85175b	-0.06498595
119	0xbd802462	-0.062569395
120	0x3da1760c	0.07883844
121	0x3e16431a	0.14674035
122	0x3c625720	0.0138147175
123	0x3c523ee0	0.012832373
124	0xbd81be97	-0.0633518
125	0xbb00a580	-0.0019629896
126	0xbcab67e0	-0.020923555
127	0xbd9f8ac5	-0.0779014
128	0x3bf7fda0	0.0075680763
129	0x3e2ea292	0.17054203
130	0xbd616668	-0.055029303
131	0xbc874f38	-0.016517267
132	0x3e07ecaa	0.13273874
133	0xbdac097e	-0.08400248
134	0xbdb00d42	-0.08596279
135	0xbbc7a9e0	-0.0060932487
136	0x3e3a6a9a	0.18204728
137	0x3e0f22b4	0.13978082
138	0xbd5415c0	-0.051778555
139	0x3c8b80f8	0.01702927
140	0x3e34d560	0.17659521
141	0x3e0c0144	0.13672358
142	0x3ca1b050	0.019737393
143	0xbddfd569	-0.10929377
144	0x3da431b0	0.0801729
145	0x3dab54a8	0.08365756
146	0xbd5e62dc	-0.0542935
147	0xbc67cca0	-0.0141479075
148	0xbd857e4b	-0.06518229
149	0x3db846c8	0.089978755
150	0xbdb55007	-0.08853155
151	0xbe1e9af4	-0.15488797
152	0x3d560078	0.05224654
153	0xbdbe962b	-0.09305986
154	0xbceea290	-0.02913025
155	0x3d1786d0	0.0369938
156	0x3de44c1c	0.11147329
157	0xbe045a96	-0.12925181
158	0xbe188115	-0.14892991
159	0xbdb75b55	-0.08952967
160	0xbd6854c4	-0.056721464
161	0xbe2a2cdd	-0.16618676
162	0x3e30acb0	0.17253375
163	0xbc1d4b90	-0.009600535
164	0xbe2408a6	-0.16018924
165	0xbdc4ca58	-0.096089065
166	0x3dba265c	0.09089348
167	0x3e380a2c	0.1797263
168	0xbe245e76	-0.16051659
169	0xbddcb437	-0.10776561
170	0xbe0f8647	-0.14016066
171	0xbe123984	-0.14279753
172	0xbdc2504c	-0.09487972
173	0x3d736abc	0.05942796
174	0x3da43610	0.08018124
175	0xbde5877e	-0.11207484
176	0xbdd19b4b	-0.10234698
177	0xbdd8719c	-0.10568544
178	0x3dfee310	0.124456525
179	0xbe13a182	-0.14417079
180	0x3e0ad6f6	0.13558564
181	0xbdcfb995	-0.10142819
182	0x3cd40420	0.025880873
183	0xbceb6e40	-0.028739095
184	0x3e310fde	0.17291209
185	0xbdf70ab2	-0.12062587
186	0xbdf437df	-0.11924719
187	0x3c713f20	0.014724523
188	0xbbeac860	-0.007165
189	0x3d8651e0	0.06558585
190	0x3e150bee	0.14555332
191	0xbe28a2bc	-0.16468328
192	0xbdaa0b24	-0.08302906
193	0x3d7b926c	0.061418936
194	0x3e11bf72	0.14233187
195	0x3dce74a8	0.10080844
196	0x3c610fc0	0.013736665
197	0x3d196cdc	0.037457332
198	0xbe0144c8	-0.12623894
199	0x3e070432	0.13185194
200	0x3df63ffc	0.12023923
201	0x3de724d4	0.11286321
202	0x3d3be2e0	0.04587066
203	0xbe1e9f3a	-0.15490428
204	0xbe29541a	-0.16535988
205	0x3df497ec	0.11943039
206	0x3d982c74	0.07430354
207	0xbe3243d1	-0.17408682
208	0x3da895a4	0.08231667
209	0xbdca3af7	-0.09874528
210	0xbe1945bc	-0.14968008
211	0xbde933b7	-0.11386817
212	0xbd29e98c	-0.041482493
213	0x3c07b7e0	0.008283585
214	0xbddc20d5	-0.1074845
215	0x3e05b5f0	0.13057685
216	0xbe2fbe1e	-0.17162368
217	0x3c300250	0.010742739
218	0x3e2eaab4	0.17057306
219	0xbd99e886	-0.075150535
220	0x3b828600	0.003983259
221	0xbe1f2ee0	-0.15545225
222	0xbd794554	-0.060857132
223	0x3d9b3de0	0.07580161
224	0xbc5292f0	-0.012852415
225	0xbe39dd12	-0.18150738
226	0x3ddc1a6c	0.10747227
227	0xbda454bb	-0.080239736
228	0x3b8bc340	0.004265219
229	0x3e25217c	0.16126055
230	0xbd3ff768	-0.046866804
231	0x3e0ba736	0.13638005
232	0xbe1a3347	-0.15058623
233	0x3d7059e4	0.058679476
234	0x3da5d170	0.08096588
235	0x3e3a45b4	0.18190652
236	0xbdf48845	-0.11940054
237	0xbe35a823	-0.1773992
238	0x3d9c9ee4	0.076474935
239	0xbc5d12d0	-0.013493255
240	0xbe39bdf9	-0.18138875
241	0xbd5ee434	-0.05441685
242	0xbe04287b	-0.12906067
243	0x3d517168	0.051133543
244	0x3dc5b8ec	0.09654412
245	0x3db5c8cc	0.088761896
246	0x3e15ef1c	0.14641994
247	0x3ded6488	0.115914404
248	0xbe10d998	-0.14145505
249	0xbe1502c5	-0.14551838
250	0xbe34d8a6	-0.1766077
251	0x3ccf9750	0.025340706
252	0xbd274c94	-0.040844515
253	0xbe1b592e	-0.15170738
254	0x3e26f372	0.16303805
255	0xbdb755be	-0.08951901

pixel_patch_embedding.bias f4 [32]
0	0xbd39dc0c	-0.04537587
1	0x3e2a4e9c	0.1663155
2	0xbe0af47f	-0.1356983
3	0xbdb161a2	-0.086612
4	0xbe2ddaa1	-0.16977932
5	0x3bca91a0	0.0061819106
6	0xbe0487c4	-0.12942415
7	0xbe2dd9ca	-0.16977611
8	0x3e016792	0.12637165
9	0xbe27870a	-0.16360107
10	0xbdd5a828	-0.10432464
11	0x3b867c00	0.0041041374
12	0x3df6bb64	0.12047461
13	0x3e052e1e	0.13005874
14	0xbdfd47c2	-0.12367202
15	0xbb142180	-0.0022602975
16	0x3db54130	0.08850324
17	0xbdf1e742	-0.11811687
18	0x3da66ac4	0.08125833
19	0xbdd55a35	-0.10417596
20	0xbd5add40	-0.053433657
21	0x3ccc8bd0	0.024969012
22	0xbd6e04ac	-0.058109924
23	0x3cabc1e0	0.02096647
24	0x3c91ec98	0.017813012
25	0x3d662d68	0.056195647
26	0xbe1166b9	-0.14199342
27	0xbde14d6c	-0.11001095
28	0xbd5314a0	-0.05153334
29	0xba5c1800	-0.000839591
30	0x3e00cccc	0.12578124
31	0xbda4279d	-0.08015368

local_trans_pixel.layers.0.0.fn.norm.weight f4 [32]
0	0x3f9207ad	1.1408592
1	0x3f94da48	1.1629114
2	0x3f922778	1.1418295
3	0x3f954ac8	1.1663446
4	0x3f8fb1a2	1.1226084
5	0x3f92a942	1.1457903
6	0x3f98aca4	1.1927686
7	0x3f8fa056	1.1220806
8	0x3f9153be	1.1353681
9	0x3f8c3a15	1.0955225
10	0x3f962374	1.172957
11	0x3f97c188	1.1855936
12	0x3f8d487d	1.1037747
13	0x3f8a5be0	1.0809288
14	0x3f8be0f2	1.0928023
15	0x3f8c054a	1.0939114
16	0x3f8e40a6	1.1113479
17	0x3f94f0ee	1.1636026
18	0x3f92d4bc	1.1471171
19	0x3f973355	1.181254
20	0x3f96983f	1.1765212
21	0x3f91b93e	1.1384656
22	0x3f90ec2a	1.1322072
23	0x3f8822a5	1.0635573
24	0x3f93fd14	1.1561608
25	0x3f9090a7	1.1294144
26	0x3f8f045b	1.1173204
27	0x3f8f02b1	1.1172696
28	0x3f90d394	1.1314569
29	0x3f9d8791	1.2306997
30	0x3f88e2ca	1.069421
31	0x3f8f3ee0	1.1191063

local_trans_pixel.layers.0.0.fn.norm.bias f4 [32]
0	0x3e185942	0.14877799
1	0xbc34a406	-0.011025434
2	0xbdb4fa82	-0.08836843
3	0xbb1d5e73	-0.0024012595
4	0xbdf7646a	-0.12079699
5	0x3b44766d	0.0029977814
6	0x39a9ef7a	0.00032412616
7	0xbd76b8c8	-0.060234815
8	0x3dda2094	0.10650745
9	0x3dbb9cc3	0.09160759
10	0x3c429aa9	0.011877694
11	0xbddbe123	-0.10736301
12	0x3bc9bcaa	0.0061565237
13	0xbdbb5f77	-0.09149068
14	0xbc03a82f	-0.008035704
15	0x3d12b4da	0.035817005
16	0x3b0c4869	0.0021405465
17	0x3de2ef0b	0.1108075
18	0x3d3609cc	0.044442937
19	0x3d2226d6	0.039587818
20	0xba9e56bc	-0.0012080292
21	0xbc98b25b	-0.018639734
22	0xbd95ed6c	-0.07320675
23	0x3d8eb895	0.069688
24	0xbe010743	-0.12600426
25	0xbdd38ec9	-0.103299685
26	0xbd86de5a	-0.06585379
27	0xbde968f4	-0.11396971
28	0x3dd72d4e	0.10506688
29	0xbe188985	-0.1489621
30	0x3e045072	0.12921312
31	0x3c913cc1	0.017729165

local_trans_pixel.layers.0.0.fn.fn.to_qkv.weight f4 [768, 32]
0	0xbb126fb9	-0.0022344424
1	0xbe82707f	-0.25476453
2	0xbdd4676d	-0.103712894
3	0x3cc361ab	0.023850283
4	0x3de755c0	0.112956524
5	0xbd55d27d	-0.05220269
6	0x3e42943f	0.19001864
7	0x3e22ba01	0.15891267
8	0x3e085e0a	0.13317123
9	0xbe123847	-0.1427928
10	0xbd2da2c9	-0.042391572
11	0x3e418a09	0.18900312
12	0xbd57cb5c	-0.052684173
13	0xbe406b6e	-0.18790981
14	0x3dc33421	0.09531427
15	0xbe176a45	-0.14786632
16	0x3e6535ed	0.22383852
17	0x3e28988e	0.16464445
18	0xbe28fd18	-0.16502798
19	0xbe6007df	-0.21878003
20	0xbdf07f41	-0.11743022
21	0xbce296c2	-0.027659778
22	0xbe0d4581	-0.13796045
23	0xbd1f1f0e	-0.038847975
24	0x3e782e16	0.2423633
25	0x3da805e0	0.082042456
26	0xbe539488	-0.20662129
27	0x3e15dd63	0.14635234
28	0xbe178496	-0.14796671
29	0x3e86ac8d	0.2630352
30	0xbbff971e	-0.007799997
31	0x3e244e06	0.16045389
32	0xbcaf43d4	-0.021394648
33	0x3c5751b0	0.013142034
34	0x3e06526c	0.13117379
35	0x3db97bf0	0.09056842
36	0xbde0a5cb	-0.109691225
37	0xbd101e6a	-0.035185255
38	0xbd84110e	-0.064485654
39	0x3df5c6d6	0.120008156
40	0x3e5520e1	0.20813324
41	0x3e7d4e05	0.24736793
42	0xbd2651b7	-0.040605273
43	0x3d7f01b0	0.06225747
44	0x3df06fc1	0.11740065
45	0x3d597e61	0.05309904
46	0xbdffa1ec	-0.12482056
47	0xbe2b493d	-0.16727157
48	0x3d92cfea	0.07168563
49	0x3e224fe9	0.15850796
50	0x3d939caf	0.072076194
51	0x3de0a843	0.109695934
52	0x3d60f241	0.05491853
53	0x3e7e7386	0.24848756
54	0xbd6c42af	-0.057680782
55	0x3db07ef5	0.08617965
56	0xbe255e1e	-0.16149184
57	0xbdadb265	-0.08481292
58	0xbdc0e4de	-0.09418653
59	0x3d1efe91	0.038816992
60	0x3e2c08a2	0.16800168
61	0xbe04a674	-0.12954122
62	0x3e254d5d	0.16142793
63	0xbe00a997	-0.12564693
64	0x3de38762	0.111098066
65	0x3d84745a	0.06467505
66	0xbc8b5ba2	-0.017011467
67	0x3d7e35ba	0.062062956
68	0xbe7f712f	-0.2494552
69	0x3d98e254	0.07465044
70	0xbdb91dac	-0.090388626
71	0x3bb75d2b	0.0055958233
72	0xbd4adeef	-0.049529012
73	0x3e4bef20	0.19915438
74	0xbe374475	-0.17897208
75	0xbe34dcd0	-0.17662358
76	0xbd85be2a	-0.065304115
77	0x3ca6c39a	0.020356942
78	0xbd4f59a2	-0.05062259
79	0xbe3595c9	-0.1773292
80	0xbcebf22b	-0.028801998
81	0x3e1a00b3	0.15039329
82	0x3cd4180e	0.025890376
83	0xbd384b96	-0.04499396
84	0xbe0a5bea	-0.13511625
85	0xbe0ff30a	-0.14057556
86	0xbd307032	-0.043075748
87	0xbda4ea03	-0.08052447
88	0xbd21e015	-0.039520342
89	0xbe250e76	-0.16118798
90	0xbe367c75	-0.17820914
91	0xbd86f91b	-0.06590482
92	0x3e7726c8	0.24135888
93	0xbe37cf0e	-0.17950079
94	0x3e7f4be6	0.24931297
95	0xbe18dbd7	-0.14927612
96	0x3d47e588	0.048802882
97	0x3cca4d94	0.024695195
98	0xbcdc0f78	-0.026862845
99	0x3e222f22	0.15838292
100	0xbdfcd319	-0.12344951
101	0xbda24ab4	-0.07924405
102	0xbe3d41f6	-0.18482193
103	0x3d2aad46	0.041669153
104	0x3d8b0339	0.06787724
105	0xbd553079	-0.05204818
106	0xbd841c14	-0.06450668
107	0xbe856945	-0.26056877
108	0x3b6ec304	0.0036432156
109	0xbcea47d9	-0.028598713
110	0xbe02f1ba	-0.12787524
111	0xbd8a8b8d	-0.067648984
112	0xbe6a13a3	-0.22859053
113	0x3c384d23	0.01124886
114	0xbd4fe915	-0.050759394
115	0x3e37915a	0.17926541
116	0x3e9ef2a2	0.3104449
117	0x3d805f19	0.062681384
118	0xbd6cc7d3	-0.057807755
119	0xbd8946cc	-0.067029566
120	0xbe06bde6	-0.13158378
121	0xbe81a2e5	-0.2531959
122	0x3de86015	0.11346451
123	0xbde0b2f5	-0.10971633
124	0x3e511984	0.2041989
125	0xbef333b1	-0.47500375
126	0x3cf42641	0.029803397
127	0x3d89fca4	0.067376405
128	0x3e4f8910	0.20267129
129	0xbe0546eb	-0.13015334
130	0xbd6e40df	-0.058167335
131	0x3bf6c428	0.007530708
132	0xbdc184d8	-0.09449166
133	0xbe4f30cb	-0.20233457
134	0xbd427e68	-0.04748383
135	0xbe0033ad	-0.12519713
136	0x3e047302	0.12934497
137	0x3e53bb4a	0.20676914
138	0xbe0716a2	-0.13192227
139	0xbdeaaf94	-0.1145927
140	0xbdc17372	-0.094458476
141	0xbd5b98c6	-0.053612493
142	0x3dd0cb08	0.10194975
143	0x3db15971	0.08659638
144	0xbe14e6d1	-0.14541174
145	0x3e3546cf	0.17702793
146	0xbda12649	-0.078686304
147	0x3d6f8bb2	0.058482833
148	0x3dfb4608	0.12269217
149	0x3e79d4d6	0.24397597
150	0xbe5c8bc5	-0.21537693
151	0xbd2b0aea	-0.041758455
152	0xbdf6f8e3	-0.1205919
153	0xbe2be639	-0.16787042
154	0x3cd859d6	0.026410025
155	0xbd0a7092	-0.03379876
156	0x3e21e53c	0.15810102
157	0xbdfd1d5c	-0.123591155
158	0x3c4db439	0.012555175
159	0xbd3c1e08	-0.045927078
160	0xbd3db4f3	-0.046315145
161	0xbdc4bb7f	-0.096060745
162	0x3dc24fce	0.09487878
163	0x3e4c4ab6	0.19950375
164	0x3e44e9ce	0.19229814
165	0x3e73061c	0.237328
166	0xbd0e20d0	-0.03469926
167	0x3d6916d6	0.056906544
168	0xbcb593a8	-0.022165135
169	0xbe60af45	-0.2194186
170	0xbcb31a82	-0.021863226
171	0x3dcb4ddc	0.0992696
172	0xbddd0a12	-0.107929364
173	0xbdc006de	-0.0937631
174	0x3cfcebc9	0.03087415
175	0xbd0d0096	-0.034424387
176	0xbdaa1b55	-0.083059944
177	0xbe12b21f	-0.1432576
178	0x3e14a04e	0.14514276
179	0xbdc85fc0	-0.09783888
180	0x3e067f96	0.13134608
181	0xbe052449	-0.13002123
182	0xbd62fdaf	-0.055417713
183	0xbdb0f516	-0.086404964
184	0xbd2c8fd1	-0.04212934
185	0x3deb5edb	0.114927016
186	0x3d098498	0.033573717
187	0xbe095337	-0.1341065
188	0xbdb5ca3f	-0.08876466
189	0x3e7b4321	0.24537326
190	0xbe03da4c	-0.12876242
191	0x3d897854	0.06712404
192	0xbe058f77	-0.13043009
193	0x3d42c3f9	0.047550175
194	0xbe0415d6	-0.12898955
195	0x3cb2095e	0.021732982
196	0x3e29ef79	0.16595258
197	0x3d563661	0.052297954
198	0x3d884169	0.06653101
199	0x3d957385	0.07297424
200	0x3e077317	0.13227497
201	0xbe0ac52c	-0.13551778
202	0x3d0621e7	0.032747176
203	0x3e074d30	0.13213038
204	0x3dce2d4b	0.10067233
205	0x3deee694	0.11665073
206	0x3c0445d1	0.008073286
207	0xbd319767	-0.04335728
208	0xbc95b4fe	-0.01827478
209	0x3d219d14	0.039456442
210	0x3e046172	0.12927797
211	0xbe1bf811	-0.15231349
212	0x3cfe71eb	0.03106018
213	0xbdf83219	-0.1211893
214	0x3c3b53e4	0.011433575
215	0x3c934059	0.01797502
216	0x3e26e636	0.16298756
217	0x3e52405c	0.20532364
218	0x3d5a8efb	0.053359013
219	0xbe01de7e	-0.1268253
220	0xbd665abb	-0.05623887
221	0x3e879f62	0.26488787
222	0xbdf285f5	-0.118419565
223	0x3e063365	0.13105543
224	0x3e37f41d	0.17964216
225	0xbe5b4d65	-0.21416242
226	0xbdba63e6	-0.09101085
227	0xbe10c6f4	-0.14138395
228	0xbdcbe534	-0.099558264
229	0xbbc59319	-0.0060294983
230	0x3cfb5c94	0.030683793
231	0x3cf43013	0.02980808
232	0x3e170db2	0.14751318
233	0xbd035181	-0.03206015
234	0x3d0ac955	0.03388341
235	0xbe36f92e	-0.17868492
236	0x3e27b80f	0.16378807
237	0x3cfff623	0.031245297
238	0x3db9aa94	0.09065738
239	0xbe01e8ba	-0.12686434
240	0xbd163cd5	-0.036679108
241	0x3d8c5763	0.06852605
242	0x3d98cb76	0.07460682
243	0xbd4c6266	-0.049898528
244	0xbe2e0ec0	-0.16997814
245	0x3d80731c	0.06271955
246	0xbe0389ea	-0.12845579
247	0x3d469421	0.04848111
248	0xbe56c6cd	-0.20974274
249	0x3d4022ae	0.046908073
250	0xbe099769	-0.13436665
251	0x3e24dbe1	0.16099502
252	0xbd833b45	-0.06407789
253	0xbde5018f	-0.11181938
254	0x3df7e417	0.121040516
255	0x3d9a5ac1	0.07536841

local_trans_pixel.layers.0.0.fn.fn.to_out.0.weight f4 [32, 256]
0	0xbde6da68	-0.112721264
1	0x3d1e9e97	0.03872546
2	0xbdbb321b	-0.09140416
3	0xbc6d2ff2	-0.014476763
4	0x3d361262	0.044451125
5	0xbdd64949	-0.10463197
6	0xbd6ca682	-0.05777598
7	0xbdae17fb	-0.08500668
8	0xbd51103d	-0.051040877
9	0x3d4aa46a	0.049473204
10	0xbd96423c	-0.07336852
11	0xbdc721b0	-0.09723222
12	0xbd922bc9	-0.071372576
13	0xbdb49761	-0.08817936
14	0xbd2cf0a4	-0.04222168
15	0xbe2ceb95	-0.16886742
16	0x3ab6a247	0.001393386
17	0xbc237ec4	-0.009978954
18	0x3d871059	0.06594915
19	0xbd5093fd	-0.050922383
20	0xbb49900d	-0.0030756027
21	0x3c20a66c	0.009805303
22	0x3cdaf8ac	0.026729904
23	0x3de1e9cb	0.110309206
24	0x3c0b474f	0.008500888
25	0x3bb72017	0.005588542
26	0xbd336cd2	-0.04380495
27	0x3d838830	0.0642246
28	0xbd81b3c1	-0.063331135
29	0x3ac7b46e	0.0015236267
30	0xbcec35d8	-0.028834268
31	0xbbdb9cfc	-0.0067020636
32	0x3cf101c0	0.02941978
33	0x3b9ca012	0.004779824
34	0xbdf2b04d	-0.11850033
35	0x3d2eb1f7	0.04265019
36	0x3d56eca3	0.052471768
37	0xbba087cd	-0.004899001
38	0xbd70d151	-0.05879337
39	0xbd7e3555	-0.06206258
40	0x3c82a09a	0.015945721
41	0xbd336012	-0.04379279
42	0xbd807572	-0.06272401
43	0x3ceae2e4	0.028672643
44	0x3cba5743	0.022746688
45	0x3d48108a	0.048843898
46	0x3d904401	0.07044221
47	0xbceb4c66	-0.028722953
48	0xbccc6a6a	-0.024953086
49	0xbcfe0c52	-0.031011734
50	0xbd0555ae	-0.032552414
51	0x3dcfe669	0.10151369
52	0xbb9a0eb4	-0.00470146
53	0xbd7a4ce6	-0.061108492
54	0xbc6381e3	-0.013885948
55	0xbc010ab1	-0.007876084
56	0xbde46e25	-0.11153821
57	0xbd9e1232	-0.07718314
58	0xbb03af5e	-0.002009354
59	0x3d5c1283	0.05372859
60	0xbca03676	-0.019557219
61	0xbce85179	-0.028359162
62	0x3dc1f713	0.09470954
63	0xbc51ff76	-0.012817254
64	0x3d9d07ce	0.07667504
65	0x3b05a020	0.0020389631
66	0x3ddcab71	0.10774887
67	0x3d81b68b	0.063336454
68	0x3d7ffba2	0.062495835
69	0x3c56170f	0.013067021
70	0x3c8276d3	0.0159258
71	0xbd528aa4	-0.05140175
72	0x3c32d0e1	0.010914058
73	0x3d701dc6	0.058622144
74	0xbd80bcea	-0.062860325
75	0x3c6e38d7	0.014539919
76	0x3dc02cb3	0.09383526
77	0xbda394a6	-0.07987337
78	0x3a592eb5	0.0008284853
79	0xbac843e1	-0.0015279019
80	0x3d59d251	0.05317909
81	0x3c15b4bc	0.009137329
82	0x3d6ca5e6	0.0577754
83	0xbd9f82bf	-0.0778861
84	0xbcb8129b	-0.02246981
85	0x3d8f573c	0.069990605
86	0x3d0a4a12	0.033762045
87	0x3da36a3d	0.07979248
88	0xbd6d0040	-0.057861567
89	0x3d8e0cc9	0.06936032
90	0xbd005797	-0.031333532
91	0x3c233a25	0.009962593
92	0xbbcfb02d	-0.0063381405
93	0xbc3a71ba	-0.011379654
94	0x3d772e48	0.06034687
95	0x3d2bb0ef	0.041916784
96	0xbc13b76b	-0.009015898
97	0xbd265279	-0.040605996
98	0x3d20f37f	0.039294716
99	0x3c598bc3	0.013277951
100	0x3bba76fc	0.0056904536
101	0xbccb4715	-0.024814168
102	0xbd31dd6f	-0.043424066
103	0x3d688e6d	0.056776453
104	0x3c9c861c	0.019106917
105	0x3d067989	0.03283075
106	0xbd533973	-0.05156846
107	0x3c99668a	0.018725652
108	0x3da6a281	0.08136464
109	0x3d6feead	0.05857723
110	0x3cca08cc	0.024662398
111	0xbd06b233	-0.032884788
112	0xbd356d5c	-0.044293746
113	0x3bb3212d	0.0054666013
114	0xbd47d476	-0.048786603
115	0xbd03a4ec	-0.032139704
116	0x3daaba59	0.08336324
117	0x3d3d65bf	0.04623961
118	0x3db17049	0.08663995
119	0x3d91a367	0.07111245
120	0x3b225a24	0.0024772966
121	0xbc901d1f	-0.017592011
122	0x3dcc83a9	0.0998605
123	0x3c39edc6	0.0113481935
124	0x3db8ce5c	0.09023735
125	0x3dbf4f23	0.09341266
126	0x3dca59e6	0.09880428
127	0xbccc140e	-0.024911907
128	0x3d1bcfdd	0.03804003
129	0x3d1a4cb5	0.03767081
130	0xbddd800d	-0.108154394
131	0x3cdbba3b	0.0268222
132	0x3ce70c5b	0.028204134
133	0xbda8f385	-0.08249573
134	0x3ddf0636	0.108898565
135	0xbd2d7dfd	-0.04235648
136	0x3b093503	0.0020936138
137	0xbd8f5737	-0.06999057
138	0x3d419e70	0.04727024
139	0x3d930094	0.07177845
140	0x3ce269c4	0.027638324
141	0xbdb3d6ea	-0.08781226
142	0xbcac4381	-0.021028282
143	0x3d1aec25	0.03782286
144	0xbd543fee	-0.05181878
145	0x3d2057e7	0.03914633
146	0xbd40622c	-0.046968624
147	0x3d12440f	0.035709437
148	0xbd171299	-0.03688297
149	0xbd6040d9	-0.054749344
150	0x3cc49d31	0.024000736
151	0xbd11c9b4	-0.03559275
152	0xbd036068	-0.032074362
153	0xbc0d4397	-0.008622072
154	0xbd030852	-0.031990357
155	0xbc514d97	-0.0127748465
156	0xbd367370	-0.044543684
157	0xbd0a5ba9	-0.03377882
158	0xbd52dcf8	-0.051480263
159	0xbd1b6eee	-0.037947588
160	0xbd31b04b	-0.043381017
161	0x3da8d2ef	0.082433574
162	0x3d167ba9	0.036739025
163	0xbd47ba4d	-0.048761655
164	0xbd88a4c3	-0.06672051
165	0x3cbac668	0.022799686
166	0xbd0d41f0	-0.03448671
167	0xbc340392	-0.010987179
168	0xbd27fe4b	-0.041013997
169	0x3bffc889	0.007805888
170	0xbda10110	-0.07861531
171	0x3d6e2d95	0.05814894
172	0x3d3a1d80	0.04543829
173	0xbbc49ff3	-0.0060005127
174	0xbd2f6222	-0.042818196
175	0x3c86d5ef	0.016459433
176	0xbd564839	-0.05231497
177	0x3ca5d8c9	0.020244973
178	0x3cea8ca3	0.028631514
179	0x3da51069	0.080597706
180	0xbdc3144f	-0.09525358
181	0xbbb97329	-0.00565948
182	0x3c838b58	0.016057655
183	0xbd4a65a3	-0.049413335
184	0x3c9af251	0.018914374
185	0xbd3402e8	-0.043948084
186	0x3d9470a4	0.07248047
187	0xbcaf2580	-0.021380186
188	0x3d690011	0.05688483
189	0x3cb31316	0.021859687
190	0xbd226174	-0.03964372
191	0xbcb04928	-0.021519259
192	0x3ccb428d	0.024812007
193	0xbca4116f	-0.020027844
194	0x3db5f676	0.08884899
195	0x3b9dfd12	0.004821428
196	0xbd504198	-0.050843805
197	0x3d802cce	0.06258546
198	0x3ada7784	0.0016667699
199	0x3da51eba	0.08062501
200	0x3dab7d21	0.08373476
201	0x3d9c172d	0.07621608
202	0x3c28779a	0.0102824215
203	0xbca336d7	-0.01992361
204	0xbcdd144b	-0.026987216
205	0x3da53a7f	0.08067798
206	0x3c2609ae	0.010134144
207	0x3b4e624c	0.0031491695
208	0x3d41ac17	0.04728326
209	0x3c9889f7	0.018620474
210	0x3da76d67	0.08175164
211	0x3c560952	0.013063746
212	0xbcda43c6	-0.026643645
213	0xbd9de4d7	-0.07709663
214	0x3d5964b2	0.053074546
215	0x3d117424	0.03551115
216	0xbd06cf64	-0.032912627
217	0x3c06dbbc	0.0082311
218	0x3bf7f259	0.007566732
219	0xbd4abc11	-0.04949576
220	0xbbed1e05	-0.0072362446
221	0x3dbd8c60	0.0925529
222	0xbc9dc89f	-0.019260703
223	0x3c2b4074	0.010452379
224	0xbd8e5723	-0.06950214
225	0xbd024ac9	-0.031809602
226	0x3d03cceb	0.032177847
227	0xbba55b67	-0.0050462964
228	0xbd690869	-0.056892786
229	0x3dd1046b	0.10205921
230	0x3d0b6adf	0.034037467
231	0xbda7f574	-0.08201113
232	0xbc18e941	-0.009332956
233	0x3ca62fea	0.02028652
234	0xbd9240fc	-0.07141301
235	0xbcd1d9e1	-0.025616588
236	0x3b8632d0	0.004095413
237	0x3d1680af	0.036743816
238	0x3c8768e9	0.016529517
239	0xbcedc166	-0.029022884
240	0xbcc3b511	-0.02389005
241	0x3b616076	0.003438977
242	0x3dbd669e	0.09248088
243	0xbb975e41	-0.0046193902
244	0xba93b918	-0.0011270372
245	0x3c36e9fe	0.0111641865
246	0xbd4b3fc7	-0.04962137
247	0x3a7e51c9	0.0009701518
248	0xbdfad231	-0.12247122
249	0xbd101746	-0.035178445
250	0x3cd81d5b	0.026381185
251	0xbd9151a7	-0.07095652
252	0xbde1e4ea	-0.1102999
253	0xbd5795df	-0.052633163
254	0x3dae6fcc	0.08517417
255	0xbdc3dad1	-0.0956322

local_trans_pixel.layers.0.0.fn.fn.to_out.0.bias f4 [32]
0	0xbcd4e8c3	-0.025989896
1	0xbcdc7772	-0.026912425
2	0xbd496762	-0.04917086
3	0xbdae69d3	-0.08516278
4	0xbd442a35	-0.047891814
5	0x3bac9309	0.0052665514
6	0x3d8f8a0f	0.070087545
7	0xbb8d79b6	-0.0043174876
8	0x3d2b291b	0.041787248
9	0xbe3a98f8	-0.18222415
10	0xbd2e2d36	-0.042523585
11	0xbd47445e	-0.048649184
12	0x3d964a77	0.07338422
13	0xbd83a886	-0.06428628
14	0x3da0ea47	0.07857185
15	0x3cd6e078	0.026230082
16	0x3c1c5d88	0.009543784
17	0xbd577dc2	-0.052610166
18	0xbded6774	-0.11591998
19	0xbdbd71e7	-0.09250241
20	0xbdb30e66	-0.08742981
21	0xbdb97a0a	-0.0905648
22	0x3d91c770	0.07118118
23	0xbe2e27d1	-0.17007376
24	0xbbde8d2c	-0.0067917313
25	0x3d94756a	0.072489575
26	0x3e0fa9ee	0.14029667
27	0x3bce3945	0.006293448
28	0xbd8c74fc	-0.068582505
29	0xbbbd386f	-0.0057745497
30	0xbc4fb90d	-0.012678397
31	0xbc2a41ee	-0.010391695

local_trans_pixel.layers.0.1.fn.norm.weight f4 [32]
0	0x3f754ed2	0.95823395
1	0x3f96482e	1.1740777
2	0x3f82109d	1.016132
3	0x3f88e4f5	1.0694872
4	0x3f881f4b	1.063455
5	0x3f8f671f	1.1203345
6	0x3f8b57e5	1.0886198
7	0x3f746fd8	0.9548316
8	0x3f8b978b	1.0905622
9	0x3f78c051	0.9716845
10	0x3f8c388a	1.0954754
11	0x3f7d41c2	0.98928463
12	0x3f8e84ea	1.1134312
13	0x3f88794e	1.0662019
14	0x3f87d45b	1.0611681
15	0x3f89bc86	1.0760658
16	0x3f87af82	1.0600436
17	0x3f8eb33c	1.1148448
18	0x3f888810	1.0666523
19	0x3f84ce8c	1.0375533
20	0x3f94b989	1.1619121
21	0x3f955599	1.1666747
22	0x3f845604	1.033875
23	0x3f7bba87	0.98331493
24	0x3f765121	0.9621754
25	0x3f8858d3	1.0652107
26	0x3f7b0dde	0.98068035
27	0x3f8b7693	1.0895561
28	0x3f8c5a06	1.0964973
29	0x3f940c6d	1.1566292
30	0x3f82a4cf	1.0206546
31	0x3f8cad72	1.0990431

local_trans_pixel.layers.0.1.fn.norm.bias f4 [32]
0	0xbd610bb1	-0.05494279
1	0xbc35ebfd	-0.011103627
2	0xbcca3587	-0.024683727
3	0xbd69aac6	-0.057047628
4	0xbddf0817	-0.10890215
5	0xbd171011	-0.036880556
6	0x3d8063a1	0.06269003
7	0x3cefff9c	0.029296689
8	0x3cb0da88	0.021588579
9	0xbdc8ba2a	-0.09801133
10	0xbdc22f4e	-0.09481679
11	0xb7f89e35	-2.9637575e-05
12	0xbc9fd01b	-0.019508412
13	0x3c80b842	0.015712861
14	0x3d3826e8	0.04495898
15	0xbcd6ca17	-0.02621941
16	0xbd460ee4	-0.048354045
17	0xbcab86bf	-0.020938275
18	0xbd03dd9e	-0.032193772
19	0xbcf617ba	-0.03004061
20	0xbda5ca48	-0.08095223
21	0xbce38096	-0.027771275
22	0x3d81b5f3	0.06333532
23	0xbd991d55	-0.07476298
24	0x3c10547f	0.008809208
25	0xbc9a2a92	-0.018819127
26	0x3d0a9946	0.03383758
27	0xbcd81579	-0.026377426
28	0xbbefcea6	-0.0073183356
29	0xbc7de2cd	-0.015495968
30	0x3d82db28	0.06389457
31	0x3d09b55c	0.033620223

local_trans_pixel.layers.0.1.fn.fn.net.0.weight f4 [8, 32]
0	0xbe0ddb04	-0.13853079
1	0xbc349385	-0.0110214995
2	0xbdb9f8c4	-0.090806514
3	0x3d484e51	0.048902813
4	0xbcca0e57	-0.02466504
5	0xbde8c8cd	-0.11366425
6	0xbe34675a	-0.1761755
7	0xbb577714	-0.0032877373
8	0xbe14de9d	-0.14538045
9	0x3d865c02	0.06560518
10	0xbe2401bb	-0.16016285
11	0xbd93facb	-0.07225569
12	0xbe273f95	-0.16332848
13	0xbd36e1ec	-0.04464905
14	0xbe3f98d8	-0.18710649
15	0xbe13114c	-0.14362067
16	0xbdd1ad55	-0.102381386
17	0xbd606ab4	-0.05478926
18	0x3dbd0679	0.0922975
19	0xbd4afa0e	-0.049554877
20	0x3e029825	0.12753351
21	0xbd4eb74c	-0.050467774
22	0x3ca78db3	0.02045331
23	0xbc851636	-0.016245943
24	0x3df587d5	0.119887985
25	0xbd833b73	-0.064078234
26	0xbcaca0c2	-0.021072749
27	0x3e87f1ee	0.26551765
28	0xbdc1c30c	-0.0946103
29	0x3e83ca29	0.25740173
30	0xbe34afd2	-0.17645195
31	0xbbf09810	-0.007342346
32	0xbe112eaa	-0.14177957
33	0xbd9c8ab7	-0.07643645
34	0xbdc99d4f	-0.09844457
35	0xbd61460d	-0.054998446
36	0xbe488f89	-0.19586004
37	0xbec1a01d	-0.3781747
38	0x3d95890d	0.07301531
39	0x3ce174e0	0.02752155
40	0xbe112b31	-0.14176632
41	0x3ded66f6	0.11591904
42	0x3d88e687	0.066845946
43	0xbbe34a16	-0.006936322
44	0xbd8376f6	-0.064191744
45	0xbe52f8ab	-0.20602672
46	0x3e026382	0.12733272
47	0x3d8ab479	0.06772704
48	0x3dde7d95	0.108637966
49	0xbde39819	-0.11112995
50	0xbe311a5e	-0.17295215
51	0xbdc1b044	-0.09457448
52	0x3e3a382a	0.18185487
53	0x3dcfda01	0.10149003
54	0xbda631f7	-0.08114999
55	0x3d5fbc39	0.054622862
56	0xbd8d44e6	-0.06897907
57	0xbd522cd2	-0.051312275
58	0x3da23dd4	0.07921949
59	0x3e11d6e9	0.14242138
60	0xbd1d24b6	-0.03836509
61	0xbd07ccd4	-0.033154324
62	0x3c8c9420	0.017160475
63	0x3e723fb8	0.2365712
64	0xbcdb7d20	-0.026793063
65	0xbdaa4c70	-0.083153605
66	0xbdf583d7	-0.11988037
67	0xbe13a1d5	-0.14417203
68	0xbdb03602	-0.08604051
69	0x3d41e1b7	0.0473344
70	0x3e0576a5	0.1303354
71	0x3d57872e	0.05261915
72	0xbe03b958	-0.12863672
73	0xbe393316	-0.18085894
74	0xbd1c6447	-0.03818157
75	0xbc8b612b	-0.017014107
76	0xbdddb5cb	-0.1082569
77	0xbe314c1f	-0.17314194
78	0x3e646efe	0.22307965
79	0x3e1330b5	0.14374049
80	0x3cca09fc	0.024662964
81	0x3c2e6c08	0.010645874
82	0xbe0ae3ec	-0.13563508
83	0xbe43a929	-0.19107498
84	0xbe5a303e	-0.21307465
85	0xbe4b4be7	-0.19853173
86	0x3dd2c4be	0.10291432
87	0x3d8bbcaa	0.06823094
88	0x3db5614d	0.08856449
89	0xbe2b7b87	-0.1674634
90	0x3d0426e3	0.032263648
91	0x3e5da3f8	0.2164458
92	0x3d48ef3f	0.049056288
93	0x3da480d4	0.080323845
94	0x3e17213d	0.14758773
95	0x3dc053af	0.093909614
96	0xbc4f299c	-0.012644198
97	0xbe887da1	-0.26658347
98	0xbe1a9d48	-0.1509906
99	0xbd575dc1	-0.052579645
100	0xbdf566da	-0.11982508
101	0xbdae1225	-0.084995545
102	0xbd8b7528	-0.06809455
103	0xbd00f007	-0.031478908
104	0xbd2bba51	-0.041925732
105	0xbc9df5ea	-0.0192823
106	0xbe006c67	-0.12541352
107	0xbd545285	-0.05183651
108	0xbcfee0e7	-0.031113101
109	0xbc7a3795	-0.015272041
110	0x3e4015e4	0.1875835
111	0xbe17a524	-0.1480909
112	0xbd8bb8c0	-0.06822348
113	0xbd25ace9	-0.040448103
114	0x3daef490	0.0854274
115	0xbdd57459	-0.10422582
116	0xbe40ab6c	-0.18815392
117	0x3d6cb0d2	0.057785816
118	0x3d9f5002	0.07778932
119	0xbe1a46f8	-0.15066135
120	0x3cc3f041	0.023918273
121	0x3e0be7e6	0.13662681
122	0x3d043d26	0.03228488
123	0x3e1dce0d	0.15410633
124	0xbe31b21a	-0.17353097
125	0xbbd8a440	-0.006611377
126	0x3e025bfa	0.12730399
127	0x3db1ebda	0.08687563
128	0x3c9a18bd	0.018810624
129	0xbdb74f2b	-0.08950647
130	0x3debad67	0.11507683
131	0x3d833d3a	0.064081624
132	0xbd9642fe	-0.073369965
133	0xbe1fd8e4	-0.15610081
134	0xbd9edef7	-0.07757371
135	0xbd6bb3ce	-0.057544522
136	0xbe16a8bd	-0.14712806
137	0xbc12103f	-0.008915006
138	0x3e2f9a29	0.17148651
139	0x3e06ad78	0.1315211
140	0xbe3e8d30	-0.18608546
141	0xbde30e9a	-0.110867694
142	0x3d9e5e3c	0.077328175
143	0xbd15d7b2	-0.036582656
144	0xbdc161ae	-0.09442459
145	0xbd83490d	-0.06410418
146	0x3e3a56b7	0.18197142
147	0x3d46021b	0.04834185
148	0x3df377fa	0.11888118
149	0xbdab6f6a	-0.0837086
150	0x3ca632d9	0.020287918
151	0x3e34cc83	0.1765614
152	0xbd302004	-0.042999282
153	0xbd9ad3e4	-0.07559946
154	0xbcdf5f60	-0.027267158
155	0x3de60b99	0.11232681
156	0xbdcef454	-0.10105196
157	0x3e66a5a4	0.22524124
158	0x3dba7f3f	0.091063015
159	0x3d161e13	0.036649775
160	0x3e060d78	0.13091075
161	0xbe9a9a22	-0.3019572
162	0xbcad48fa	-0.021152962
163	0x3d97dc4a	0.07415064
164	0xbc8da9c8	-0.017292872
165	0x3dd214a2	0.10257842
166	0xbe168324	-0.14698464
167	0xbd866e60	-0.06564021
168	0xbd4d793c	-0.050164446
169	0x3e2ed795	0.17074426
170	0x3e012d91	0.12615038
171	0x3dcd6514	0.10029045
172	0x3d69949b	0.057026487
173	0xbe0cafee	-0.13738987
174	0x3da4a859	0.08039922
175	0x3e10ad36	0.14128575
176	0xbd903bc2	-0.07042648
177	0x3cbe2e3e	0.02321541
178	0x3dca7cb7	0.09887069
179	0x3db9d2fa	0.09073444
180	0x3e0e02f2	0.13868311
181	0x3de6f8cc	0.11277923
182	0xbe022ce2	-0.12712434
183	0x3de89392	0.11356272
184	0x3db72f07	0.08944517
185	0x3e02b5f3	0.1276472
186	0x3e19a1aa	0.15003076
187	0x3e4a4803	0.19754033
188	0x3dcc18dc	0.09965679
189	0xbce249aa	-0.027623016
190	0xbd12a6da	-0.035803653
191	0x3e7a786a	0.24459997
192	0xbdbd045b	-0.09229346
193	0x3df728f9	0.12068362
194	0x3e1f9503	0.15584187
195	0x3db5a24c	0.08868846
196	0xbea9c045	-0.33154503
197	0xbca4d70c	-0.020122074
198	0x3e13cb44	0.14433008
199	0xbd012b88	-0.031535655
200	0x3caf3f0f	0.021392373
201	0xbdf6c86d	-0.12049947
202	0xbdcb450e	-0.099252805
203	0x3e13dfd5	0.14440854
204	0xbcbb7a0d	-0.022885347
205	0x3e43e136	0.1912888
206	0xbe2e2aa1	-0.17008449
207	0xbe890599	-0.26762083
208	0xbe9c05e0	-0.30473232
209	0xbeb21517	-0.34781715
210	0x3e44b561	0.19209816
211	0x3e6bdc20	0.2303319
212	0x3d485c57	0.048916187
213	0x3e925b6d	0.28585377
214	0x3e14aaf5	0.1451834
215	0x3d977510	0.07395375
216	0x3e51bfa1	0.20483257
217	0xbead9b1e	-0.33907408
218	0x3e1c65a0	0.15273142
219	0xbdc8d7e0	-0.098068
220	0x3e88fbd8	0.26754642
221	0x3df57333	0.11984863
222	0xbd4ae13e	-0.049531214
223	0x3db03304	0.086034805
224	0xbd94c084	-0.07263282
225	0xbe5f63d3	-0.21815424
226	0xbc35b268	-0.011089899
227	0xbdb8da48	-0.09026009
228	0xbc9fb9f2	-0.019497845
229	0xbdd456b6	-0.10368101
230	0xbe479fe5	-0.19494589
231	0x3d86ecf8	0.06588167
232	0xbd0985b5	-0.03357478
233	0xbd4cef17	-0.0500327
234	0x3dd78a2a	0.105243996
235	0x3ddbf58d	0.107401945
236	0xbe438160	-0.19092321
237	0xbdfe2429	-0.12409241
238	0x3ce717c4	0.028209575
239	0xbc7a6162	-0.015282007
240	0xbe3331c0	-0.17499447
241	0x3e45c831	0.19314648
242	0x3e058a6d	0.13041086
243	0x3e00ef1c	0.12591213
244	0x3e70880e	0.234894
245	0xbe62ce79	-0.22149076
246	0xbe4930d5	-0.19647534
247	0xbe0c7065	-0.1371475
248	0xbd8ed921	-0.06975008
249	0x3dd99a66	0.10625152
250	0x3dd6e838	0.10493511
251	0xbdd3c094	-0.10339466
252	0xbc9f7644	-0.019465573
253	0x3e1af317	0.15131794
254	0xbde3a30b	-0.11115082
255	0x3e54799c	0.20749515

local_trans_pixel.layers.0.1.fn.fn.net.0.bias f4 [8]
0	0xbe3c7a3c	-0.18406004
1	0x3d09bf0f	0.033629473
2	0x3e241891	0.16024996
3	0x3e397701	0.18111803
4	0x3d8d9610	0.06913388
5	0xbdb1fb61	-0.08690525
6	0x3e09a791	0.13442828
7	0x3d9ac8a6	0.07557802

local_trans_pixel.layers.0.1.fn.fn.net.3.weight f4 [32, 8]
0	0x3e0b6361	0.13612129
1	0xbe1c44e5	-0.15260656
2	0xbdf88bae	-0.12136017
3	0x3cc053e7	0.023477508
4	0xbe22e53b	-0.15907757
5	0xbdb4ea7a	-0.08833785
6	0x3f18567b	0.5950696
7	0xbc854538	-0.016268358
8	0x3e6134ac	0.21992749
9	0x3de9c2c1	0.114140995
10	0x3e3839f1	0.17990853
11	0xbeb3c9ca	-0.3511489
12	0xbe244021	-0.16040088
13	0xbea30c04	-0.31845105
14	0x3e62c785	0.22146423
15	0xbe9524cb	-0.29129633
16	0x3ece5a88	0.40303445
17	0x3ee319b6	0.44355553
18	0xbe192c00	-0.14958191
19	0x3e8373ce	0.2567429
20	0x3d3eb3fc	0.046558365
21	0x3e41e937	0.1893662
22	0xbf085542	-0.53255093
23	0x3d40a4c2	0.047032125
24	0xbe94f22d	-0.29091015
25	0xbebd058c	-0.36918294
26	0xbd8831ab	-0.066500984
27	0x3cbcc4fc	0.023043148
28	0xbd3e9378	-0.046527356
29	0x3c5db0f9	0.013530963
30	0x3e54f7c7	0.20797645
31	0x3e478e54	0.19487888
32	0x3e55eac0	0.20890331
33	0x3d184e6b	0.03718416
34	0xbea4918a	-0.32142287
35	0x3e210b60	0.15726995
36	0x3e877150	0.26453638
37	0x3e25784b	0.1615917
38	0xbd45c54b	-0.048283856
39	0x3e5ef3be	0.21772668
40	0xbe037d59	-0.12840785
41	0xbed638ca	-0.41840202
42	0x3e6003df	0.21876477
43	0x3e651511	0.22371317
44	0xbe691224	-0.22760826
45	0xbeb07ede	-0.34471792
46	0xbd99036d	-0.074713565
47	0xbe0cf0eb	-0.13763778
48	0xbeaf46cb	-0.34233698
49	0x3c8727d5	0.016498486
50	0xbe393a27	-0.1808859
51	0xbe854663	-0.26030263
52	0x3e5754c2	0.21028426
53	0x3d1779fd	0.03698157
54	0xbd7ab44a	-0.061207093
55	0x3db55ba3	0.08855369
56	0x3dec7b93	0.115470074
57	0x3e63edd2	0.2225869
58	0x3cdbaba6	0.026815247
59	0x3e37647d	0.17909427
60	0x3e3ff316	0.18745074
61	0x3de06343	0.10956433
62	0x3e390a61	0.18070365
63	0x3e4464f0	0.1917913
64	0xbea7f49c	-0.3280381
65	0xbe98d534	-0.2985016
66	0xbe90624a	-0.2819999
67	0xbee5060f	-0.44731185
68	0x3e0576e0	0.13033628
69	0xbecedcdb	-0.40402874
70	0xbea0df4b	-0.3142036
71	0xbe4dcf58	-0.20098627
72	0xbe7d3157	-0.24725853
73	0xbe064a39	-0.13114251
74	0x3e42ea80	0.19034767
75	0xbccb69dd	-0.024830753
76	0x3e6f5d9e	0.23375556
77	0x3df1e519	0.11811275
78	0x3e4a7d7d	0.19774432
79	0x3ed62a3f	0.41829106
80	0xbdfc8722	-0.12330462
81	0x3e8f8d65	0.28037563
82	0xbe87d96d	-0.2653307
83	0x3eb34bdd	0.35018817
84	0xbe1f10d8	-0.15533769
85	0xbd294211	-0.04132277
86	0xbea0e1fd	-0.31422415
87	0x3e93f28a	0.2889598
88	0x3dd186e9	0.1023081
89	0x3e3ed96a	0.18637624
90	0x3ebac06c	0.3647493
91	0xbe4e7070	-0.20160079
92	0xbe2703a0	-0.16309977
93	0x3db6183a	0.088913396
94	0xbe9f52a2	-0.3111773
95	0xbe9ca9ff	-0.30598447
96	0x3db24f9f	0.08706593
97	0xbd80c701	-0.06287957
98	0xbe984082	-0.29736716
99	0x3bbc1cda	0.005740744
100	0x3e45e765	0.19326551
101	0x3e991ed2	0.29906327
102	0xbddd74c9	-0.108132906
103	0x3e426e6b	0.18987434
104	0xbe12435a	-0.14283505
105	0x3cd5b2b5	0.02608619
106	0x3e8e34e9	0.27774742
107	0xbc3feb95	-0.011713882
108	0xbe1ec78d	-0.1550581
109	0xbc03bd20	-0.008040696
110	0xbb278d90	-0.0025566556
111	0xbe9648f7	-0.29352543
112	0xbe0e2d01	-0.13884355
113	0xbe17dbd2	-0.14829949
114	0x3e2c90ca	0.16852108
115	0x3df0417e	0.11731242
116	0xbe680ea0	-0.22661829
117	0x3d9b94ce	0.075967416
118	0xbe4109b1	-0.18851353
119	0x3e8b7509	0.27237728
120	0xbe987564	-0.29777062
121	0x3d7c3b94	0.061580256
122	0x3e5340bc	0.20630163
123	0x3e3af167	0.1825615
124	0x3ea94fb4	0.3306862
125	0x3e90d8ce	0.2829041
126	0xbd03263e	-0.032018892
127	0x3eef7fc1	0.46777156
128	0xbe2372d3	-0.1596177
129	0x3d23ace1	0.039959792
130	0xbd60df9f	-0.05490076
131	0x3e05786c	0.13034219
132	0x3e07cdf5	0.1326216
133	0x3dfaa130	0.12237775
134	0xbf0074cd	-0.50178224
135	0x3ea4ea27	0.32209894
136	0xbe58414e	-0.21118662
137	0xbe835957	-0.25654098
138	0x3e0cdca6	0.13756046
139	0x3e3679b1	0.17819859
140	0xbecc15aa	-0.39860278
141	0x3d28389f	0.041069623
142	0xbe5eac3a	-0.21745387
143	0x3e840c8d	0.25790825
144	0x3e0dc93b	0.13846295
145	0xbd0743d9	-0.03302369
146	0x3da82a31	0.08211172
147	0xbed5aa49	-0.4173148
148	0xbea5c9b1	-0.3238044
149	0xbd4310fe	-0.047623627
150	0xbe11ad9e	-0.14226386
151	0xbd8576ce	-0.06516801
152	0x3e9b20d7	0.30298492
153	0x3e8cab10	0.2747426
154	0x3e3d46ac	0.1848399
155	0x3d99abc9	0.075034685
156	0xbe8662e3	-0.2624732
157	0x3e87a1b4	0.26490557
158	0xbddf0d8c	-0.10891256
159	0x3e8eb1df	0.2787008
160	0xbe1c364b	-0.15255086
161	0x3d80bc73	0.06285944
162	0x3d833a0c	0.06407556
163	0xbddefe70	-0.10888374
164	0xbcd745a5	-0.026278326
165	0xbe02e340	-0.12782001
166	0xbdd9d6fd	-0.10636709
167	0x3e4d9c68	0.20079195
168	0xbe10ee87	-0.14153491
169	0x3ecc0fc0	0.39855766
170	0x3d8a0e89	0.067410536
171	0x3cc51815	0.024059335
172	0x3e6d2315	0.23157914
173	0x3e69b8ca	0.22824398
174	0xbf16191c	-0.58632064
175	0xbd1dde23	-0.038541924
176	0xbe5c5b83	-0.21519284
177	0xbe7ad70f	-0.24496101
178	0x3e243163	0.16034465
179	0xbe5604e1	-0.20900299
180	0x3dc8650b	0.097848974
181	0x3e82cbe1	0.25546172
182	0xbf0a1f83	-0.53954333
183	0x3ed90604	0.42387402
184	0x3ec9c680	0.39409256
185	0x3d0090b9	0.03138802
186	0xbda97a0d	-0.082752325
187	0x3e2c415a	0.16821805
188	0xbc7851a7	-0.015156186
189	0xbdd0a47b	-0.10187622
190	0x3eebc03a	0.46045095
191	0xbdab8863	-0.08375623
192	0xbdf5dea1	-0.12005354
193	0xbeac95d8	-0.33708072
194	0x3e9c963d	0.30583373
195	0x3e96296a	0.2932847
196	0x3e8db2d9	0.27675512
197	0x3ea95449	0.33072117
198	0xbe449ae1	-0.19199707
199	0xbe6c30fb	-0.2306556
200	0xbe22ee8b	-0.1591131
201	0xbe71044e	-0.23536798
202	0x3e839030	0.25695944
203	0x3e66ca90	0.22538209
204	0x3e403b3b	0.18772595
205	0x3ea636b2	0.32463604
206	0xbeed7b80	-0.46383286
207	0x3eb37fb4	0.35058367
208	0x3e3f1e85	0.18663986
209	0xbe6745d3	-0.2258523
210	0x3e27ae81	0.16375162
211	0x3d10bee6	0.035338305
212	0x3e4578ab	0.19284312
213	0x3dab74a5	0.083718576
214	0xbc961cb7	-0.01832424
215	0xbec2add3	-0.38023242
216	0x3ec09205	0.37611404
217	0xbe831ed5	-0.2560946
218	0xbb3af779	-0.0028528853
219	0x3d958ceb	0.073022686
220	0x3e771794	0.24130088
221	0x3dd580dc	0.104249686
222	0x3d887d19	0.066644855
223	0x3e005d34	0.12535554
224	0x3cbbc85a	0.022922684
225	0xbe8a5398	-0.27016902
226	0x3ebd426c	0.36964738
227	0xbe19851e	-0.14992186
228	0xbc13eb42	-0.009028258
229	0xbea59e62	-0.323474
230	0x3da45907	0.08024793
231	0xbd315648	-0.043295175
232	0x3eb0872f	0.34478137
233	0xbe8a322a	-0.26991397
234	0xbe846861	-0.25860885
235	0x3ec5f026	0.3865978
236	0x3e79ad00	0.243824
237	0xbdfaf2f8	-0.12253374
238	0xbeee44a5	-0.46536747
239	0x3e3881d6	0.18018278
240	0x3e580e1a	0.2109913
241	0x3e1a3ee8	0.1506306
242	0x3ec3d290	0.38246584
243	0xbe97495d	-0.2954816
244	0xbbbe8c9a	-0.005815101
245	0xbe5e8238	-0.21729362
246	0xbed5dbef	-0.4176936
247	0xbd88223c	-0.06647155
248	0xbe96a28e	-0.29420894
249	0xbde38158	-0.11108655
250	0x3efc28a9	0.4924977
251	0x3ee772cc	0.4520477
252	0x3c8718a7	0.016491247
253	0x3ea1e1ee	0.31617683
254	0xbc5e5400	-0.013569832
255	0xbe82e3b2	-0.25564343

local_trans_pixel.layers.0.1.fn.fn.net.3.bias f4 [32]
0	0xbe765083	-0.2405415
1	0xbd9f2e8b	-0.07772549
2	0x3de630f4	0.11239806
3	0xbe9c6788	-0.30547738
4	0xbeb01a7c	-0.34395206
5	0x3ec64c0a	0.38729888
6	0xbe80f1b2	-0.251844
7	0xbd732edc	-0.05937086
8	0xbe88cca1	-0.2671862
9	0x3c07d0bf	0.008289515
10	0x3d03d5ff	0.032186504
11	0x3ea3c498	0.31985927
12	0xbe2abb5f	-0.16673039
13	0x3d2f7a4d	0.042841244
14	0xbd5da029	-0.05410782
15	0x3e989ca5	0.2980701
16	0xbd91955f	-0.071085684
17	0xbd95b4c6	-0.073098704
18	0x3e2de96f	0.16983579
19	0xbea7f77c	-0.32806003
20	0xbe81cd63	-0.2535201
21	0x3d2120d3	0.039337944
22	0x3e64e04a	0.22351184
23	0xbef31e63	-0.4748412
24	0x3e012a93	0.12613897
25	0xbe446ff1	-0.19183327
26	0x3d829fe7	0.06378155
27	0x3d8fdc37	0.070244245
28	0xbe3883c7	-0.18019019
29	0x3e8ed115	0.27893892
30	0x3e971d14	0.29514372
31	0xbe1c6a07	-0.15274821
