src/res/GGCL/guided_contra_cross_transformer/Pavia/10/True/true ss 1/_1711863345.pth (torch, 266710 bytes, 37 tensors)

pixel_pos_embedding f4 [1, 170, 32]
00000000: b0d3 8f3f 32f6 9f3e fdd6 303f 0f1d 43bf
00000010: a180 783d 4e0f 2540 28c4 4b3f 0cff af3f
00000020: 7a49 34c0 c8de 8e3f eef3 713e 09bb 4f3f
00000030: ab48 f53f 22f9 49be ed58 953e 5fc8 8d3f
00000040: 8f3b 833f f65d 373f 1759 363f c0f8 e63c
00000050: c772 c33f 539f 0fbf 4706 3fbf 1724 b83e
00000060: 7f66 cabe 4982 173e 0f92 25bf cad1 3f3f
00000070: 07d5 1dbf a0cd 793e ed8c 713e 74b8 31bf
00000080: 5e7e 1040 36b2 f03e 33d0 9ebf 4bfa 1ebf
00000090: 3aeb 8fbf 3506 8f3f f1ea 8ebe 1876 82bf
000000a0: 8f18 b03f d523 903f 9cfa 68bf 1485 773e
000000b0: 00ae 9f3e e072 f9be cae9 07bf d709 c13f
000000c0: 0cdf 653f d4ac 163f ef4e 4cbf 4006 1a40
000000d0: 8ca4 ba3f f19d 98bf 7011 31bf 73ea 383c
000000e0: aadb 4ebe 9a35 ae3f 57ec dcbf 9de0 973f
000000f0: cade 6a3f 1cda 903f 3eed 2e3f 5011 333f
00000100: 1d33 043f 71ce 57bf f2b4 4c3f d32a 8ebf
00000110: 8bc8 e33d 60d5 643e 0d02 e5be 4b04 9a3b
00000120: fae6 ff3e be9f 783f 407a fabe 3400 72bf
00000130: 9aa9 59be 311b cd3e 35fc 513f 221d 463f
00000140: a2f0 a7be 1a7d f33e 43fc 533f 235f 3fbf
00000150: 4f7f 383f 8dba 3fbf 3abe 00bf 40ed 253f
00000160: eed1 afbe 7cd4 29c0 9499 36bf 38fe dcbd
00000170: aa4e 413f 0f71 45bf ee0b cb3f dfe7 893e
00000180: 7d43 b83e 8110 1d3f ea02 7a3f d84f c7be
00000190: 79c1 df3f 8aed 973f 820a 7fbf 56fb a4bf
000001a0: ea57 e03f ca82 4e3f bf2a 313d 6ef3 683f
000001b0: 250a 58bf 74ab 5abf a3cb 623f 7314 68bf
000001c0: 1f65 43bf bcc9 01bf 0321 e53f a3c5 dabf
000001d0: 311c 53bd fbc7 543f da54 7cbf 84b6 d3be
000001e0: a672 183f ab62 593f 49f9 bebd 54b9 ee3e
000001f0: dcd9 fbbd 5b7b 103f 32df 923f 3914 dfbf
00000200: 849d 413c 79c4 ae3f 4649 05bf 2378 2640
00000210: 709e 0bbe 28e0 113f d8ef 00bf 8b77 d1be
00000220: 39c0 abbd 8455 943f cfcb d93e 4501 0bbf
00000230: 0c55 f13e cf18 a93f f9b7 963f 7915 74be
00000240: 10c1 c83e 62e6 803e 5a77 6e3e cc59 943f
00000250: 003b b73c 193e c93e 766c f93e b18a 0c3f
00000260: 4237 1940 0597 3fbf 8d6b 99bf 9960 c1be
00000270: 726b cc3d 25a4 953f c48b 1b3f 5ce8 b0bd
00000280: 4c3a dfbe 60c2 5ebf b575 013f 73e7 e83e
00000290: 94d4 e2bd ed37 aa3f 127e 393e 8c7e 983f
000002a0: bd70 743e de04 4fbf b1f9 153f a5cb e3bf
000002b0: aa9e a1bf 7205 8b3f a1e5 f03e b8ea f5bc
000002c0: 4cff ea3d f8fc 87bf 6d9f 023f 647a 9a3f
000002d0: c1b3 15be ed26 25bf e135 93bf f650 223d
000002e0: 89ac f7be 0f03 31bf ea19 bdbe 4440 013e
000002f0: ccfc b13f cd28 693e d915 833f 0e0d f43f
00000300: 829f debd 2c30 1cbf 14d7 f5bf e91c c4bf
00000310: b3fb 0ec0 a43f b13e 1f7c ef3e 8078 a23f
00000320: 3bfc 46bf df2b 86bd 87e5 aa3e fcd3 8cbf
00000330: eba8 133f 5b90 93be 38ed 453e 30de 8d3f
00000340: 1ce4 5fbf 4251 e43d 979c 893f aa1f 953f
00000350: 88ea 32bf ee66 a43f 49e3 dfbf 0387 55bf
00000360: 12b7 d83f 66a4 c63f 5a3d 6fbe b2c6 12bf
00000370: 2fb9 053f 09f1 653e 58cd 973f 912c 993f
00000380: b7ec 5a3e caa3 443f 33cb a1bf b858 ccbf
00000390: 1c42 6cbd 0eeb 863f ff63 3b3e 6759 723f
000003a0: 6fd8 f7be d0cd d0be cb33 803f d1d5 3d3f
000003b0: b477 ebbe 79ef 9c3f 47e9 0ebf a476 29bf
000003c0: c766 86bf b3e1 bb3f 1535 2cbe 3ffb 52bf
000003d0: c993 5e3f 0cf2 5c3f 3384 6cbf 3b9c 31bf
000003e0: dbad 493f 5b05 a3bf ab00 2f3e 2278 cf3c
000003f0: d545 a6bf e556 0d3e c262 9d3f bcd3 58bf
1.1236477 0.3124252 0.69078046 -0.76216215 0.060669545 2.5790591 0.79596186 1.3749709
-2.8169847 1.1161737 0.23628208 0.8114477 1.9162802 -0.19723943 0.29169407 1.1076773
1.0252551 0.7162775 0.7122969 0.028194785 1.5269402 -0.56102484 -0.74618953 0.35965034
-0.39531323 0.14795794 -0.6467599 0.7492949 -0.6165318 0.24394846 0.23588915 -0.6942208
2.2577128 0.47010964 -1.2407287 -0.62100667 -1.124366 1.1173769 -0.2791362 -1.0192289
1.3757495 1.1260935 -0.910074 0.24171859 0.3118744 -0.48720455 -0.5309111 1.5081128
0.8979347 0.58857465 -0.79807943 2.4066315 1.4581466 -1.19232 -0.6916723 0.011286366
-0.20200983 1.3610108 -1.7259625 1.1865422 0.917462 1.1316562 0.6833075 0.6994829
0.5164049 -0.8429938 0.799636 -1.1106819 0.11122235 0.22347021 -0.44728127 0.004700219
0.4998091 0.9711875 -0.48921394 -0.9453156 -0.21256104 0.40059808 0.8202546 0.77388203
-0.32800776 0.47556382 0.82806796 -0.7475454 0.7206926 -0.7489403 -0.5029026 0.6481514
-0.3433985 -2.653594 -0.7132809 -0.10790676 0.75510657 -0.7712564 1.5863016 0.26934716
0.3598899 0.6135331 0.97660697 -0.38928103 1.7480918 1.1869366 -0.9962541 -1.2889202
1.7526829 0.8066832 0.043253656 0.90996444 -0.8439048 -0.85417867 0.88591975 -0.90656203
-0.76326174 -0.5069845 1.7900699 -1.7091564 -0.051540557 0.83117646 -0.98566973 -0.41350186
0.5954994 0.8491618 -0.09324891 0.4662577 -0.12297413 0.56438226 1.1474364 -1.7428046
0.01181734 1.3653709 -0.5206493 2.6010826 -0.13634658 0.5698266 -0.5036597 -0.40911517
-0.08386273 1.1588597 0.42538306 -0.5429881 0.47135198 1.3210696 1.1774894 -0.23836316
0.39209795 0.25175768 0.23287717 1.1589904 0.022367 0.3930519 0.48715562 0.54899126
2.3939977 -0.7483981 -1.1985947 -0.3776901 0.09981431 1.1690718 0.6076014 -0.08638069
-0.43599164 -0.8701534 0.5057023 0.45489082 -0.11075702 1.3298317 0.18114498 1.1913619
0.23871131 -0.808668 0.58584124 -1.7796522 -1.2626545 1.0861037 0.47050193 -0.03001915
0.11474475 -1.0624075 0.51024514 1.2068601 -0.14619352 -0.6451252 -1.1500818 0.03962799
-0.4837382 -0.6914529 -0.36933833 0.12622172 1.3905272 0.2276947 1.0241042 1.9066484
-0.108702675 -0.61011004 -1.9206262 -1.5321323 -2.2341125 0.34618866 0.46774384 1.2693024
-0.77728623 -0.065513365 0.3337824 -1.1002192 0.57679623 -0.28821072 0.19328773 1.1083431
-0.8745744 0.11148311 1.0750912 1.1650288 -0.69889116 1.2843912 -1.7491237 -0.83409137
1.6930869 1.551892 -0.23363248 -0.57334435 0.5223569 0.22455229 1.1859541 1.1966726
0.21379362 0.7681242 -1.2640136 -1.5964575 -0.057680234 1.0540483 0.18299864 0.9466767
-0.48407313 -0.40782022 1.0015806 0.7415438 -0.45989764 1.2260581 -0.558247 -0.66196656
-1.0500115 1.4678253 -0.16817124 -0.8241462 0.8694425 0.86306834 -0.9238922 -0.69379014
0.7878091 -1.2736009 0.17090099 0.025325838 -1.2990061 0.13802679 1.2295763 -0.8469808

cls_token_pixel f4 [1, 1, 32]
00000000: dc07 7cbe c862 aabd 8e51 ea3e 5154 e23e
00000010: 3b8f cabe bf08 3cbf a745 403f 1eb8 b83f
00000020: 7be8 0b40 e901 3b3f 99e1 e33e 411e 3a3f
00000030: 65ac 0ac0 1c34 0cc0 8927 4cbf d9d1 0c40
00000040: 3a32 a6be 40ee 49c0 15f2 5dbf c9fa 263f
00000050: d63b 5040 e98e 6f3f ecba 333f f9e6 0bbf
00000060: 3d0f 86bd a860 383f 6801 30bf 3b7e 34be
00000070: 443b bbbe e694 4dbe a56c aabf 284d 983e
-0.24612373 -0.08319622 0.45765346 0.44204953 -0.395624 -0.73450845 0.7510628 1.4431188
2.1860645 0.7304979 0.44508055 0.72702414 -2.1667721 -2.1906805 -0.79747826 2.200308
-0.32460195 -3.1551666 -0.8669751 0.6522642 3.253652 0.9357744 0.70207095 -0.5464931
-0.06545875 0.72022486 -0.68752146 -0.17626278 -0.36568654 -0.20076331 -1.3314406 0.29746366

pixel_patch_embedding.weight f4 [32, 30]
00000000: 8da2 2fbe c0dc 42bd fcaf 353e b82e b3bc
00000010: 7e52 0f3e a800 a73c 606c 73bc c06e 9a3d
00000020: 4ec3 f2bd 607d 913b 8a4d 2f3e 48f3 8c3c
00000030: 143e 1abd d4b2 063e 304b 693c d632 e9bd
00000040: c70c 05be 96b9 1c3e 983c 303d 4d02 01be
00000050: 1cf4 903d e021 5a3c 0635 13be 3402 50bd
00000060: 3adf 173e c838 563d 5ae1 853d 0346 f2bd
00000070: a238 363e 98d4 983d 3c55 b23d f07b 263e
00000080: 8282 873d e0b7 c13d dc53 183d e3e0 98bd
00000090: 34eb e43d 74ae f7bd 0861 29bd 51f7 35be
000000a0: f053 9f3d e46c b13d ba06 183e 1065 103c
000000b0: 54b6 093e 80eb 9a3d 008f d4ba 4858 22be
000000c0: 0d6d d6bd 6f00 94bd 4447 ad3d 94ef 3bbd
000000d0: 204b ee3d 3459 2c3e bd0c 27be 673a f0bd
000000e0: 5403 3c3d b4de 2abe 65cf a3bd a648 8bbd
000000f0: a4cc e1bd a065 2a3d 4c1d 393d 85c5 a5bd
00000100: bf9b 24be 34e6 2ebd cef1 2b3e f8ec 9c3d
00000110: f0f5 05be 98c2 cc3c 1e7d 113e 9680 073e
00000120: 9866 0fbe 703f 65bd 746d 8abd 40ac b8bc
00000130: e07a 60bd 5898 2c3d c2f1 813d b649 0f3e
00000140: 300b af3c c881 aa3d 3a83 b4bd 392e 21be
00000150: eb98 d7bd 744e bd3d 00cf e6ba f8be c83c
00000160: 5a57 7fbd b00e 8c3c f0be 773d f292 053e
00000170: 1877 e43c 76ef c0bd 768f 0dbe a4ab 8dbd
00000180: a952 20be a4a8 953d c2e4 133e 3e79 2d3e
00000190: c866 1ebe c2c2 373e dc2b 283d d7a4 b3bd
000001a0: 2031 a43d 8cbc be3d 483f c43d 6828 963d
000001b0: 4e24 173e b09f 45bc ce04 1e3e d090 a03d
000001c0: e4eb ff3d 783a 17bd 0227 00be cc80 b93d
000001d0: e8fb 9bbc 5427 543d 86ea 23be 3060 0abd
000001e0: 6472 2dbd e397 acbd c50a c5bd 3a06 323e
000001f0: 1cac 193e 8296 193e 9cc5 38bd 1c65 c03d
00000200: eee4 b9bd f6fa 123e b8ba e6bc 6b8b d4bd
00000210: fe10 74bd 5841 333e ced7 36be 4089 fabb
00000220: 1405 013e aba7 2dbe 7035 28bd b0b6 59bd
00000230: 2ca5 183e 4011 6b3d 20b7 b73b 808c 9bbb
00000240: d85e cd3d 883f 09bd ca0b 8abd e8da 32be
00000250: 4ffe dcbd a0cc 8bbd 8eaa 223e 00ee 57bc
00000260: 7c67 df3d 1caf 023e f843 203e cf6f 87bd
00000270: bcf2 57bd a81b 993d 6cb7 c13d f8cc 57bd
00000280: 99be 86bd 822a 34be 5639 2dbe 6001 db3c
00000290: 1365 e0bd 7ec9 0d3e 00a7 eeba 741b 25be
000002a0: c8f2 d23c e2e8 0dbe a0ee 0e3e d0a4 383c
000002b0: 8000 2fbe a0c8 f4bc a4a3 1fbd 7ce6 4d3d
000002c0: 240b 483d 00f0 9438 c4e7 6cbd 4c07 553d
000002d0: f0c4 92bc b863 c5bd f0dd a63d 14db e2bd
000002e0: 80fd c63d cc04 cf3d 0047 35bd 93b2 02be
000002f0: 78f3 d83d 7059 cbbc e863 3a3e 003a b7bd
00000300: d2cd 2cbe 30bc 213c d0e2 c8bc d639 083e
00000310: 2481 063e 1455 203e ccf6 923d e26f 0bbe
00000320: 506e 003e 7c7e cebd d51d 92bd aca0 84bd
00000330: 94f4 14bd c8f1 14bd 141b e63d 0820 c1bc
00000340: 142c ea3d 152a c1bd 9837 f3bc 42d3 9abd
00000350: 189a 5abd b48f 2c3e 8013 4cbc 0042 d7ba
00000360: 188b ca3d 2887 5f3d 407e 553b 506e e13d
00000370: 6c44 08bd 2e19 78bd 3cb3 683d 001a 26ba
00000380: 7613 2c3e 6429 1ebd 2a6c febd c066 32bc
00000390: 608e 143c 5c20 ca3d cc4a 2bbd dbed c4bd
000003a0: 608d c83d 8049 eabd 2445 7abd 6432 3a3e
000003b0: ce2a 203e 7249 78bd 8c27 8d3d 14ad f43d
000003c0: b0fd 8c3d 008d 1e3d 7abc 023e 1890 f73d
000003d0: f0d0 9c3d b856 233e 00d7 30ba 643f 4cbd
000003e0: fdde acbd f6f4 9cbd 389c e43d 3c8f ca3d
000003f0: c0bb b3bc b0c2 ba3c 4062 303e 123a 2c3e
-0.17151852 -0.047573805 0.17742914 -0.021872863 0.13996312 0.020386055 -0.014857382 0.07540655
-0.11853658 0.0044399947 0.17119423 0.01720585 -0.03765686 0.13154155 0.0142391175 -0.11386649
-0.12993155 0.1530517 0.043026537 -0.12598534 0.0707781 0.0133137405 -0.14375696 -0.05078335
0.14831248 0.052300245 0.06537123 -0.1182976 0.17795041 0.07462424 0.087076634 0.16258216
0.06616689 0.094588995 0.03718935 -0.07464769 0.11177674 -0.12093821 -0.0413523 -0.17770125
0.07779682 0.08663347 0.14846316 0.008813158 0.13448459 0.07564449 -0.0016216934 -0.15853989
-0.104700185 -0.07226645 0.084608585 -0.045882776 0.11635423 0.16830903 -0.16313453 -0.11729889
0.04590161 -0.16686517 -0.07998542 -0.06800966 -0.1102536 0.041600823 0.045193955 -0.080943145
-0.16075037 -0.042700008 0.1679146 0.07662386 -0.13082099 0.024995133 0.14207885 0.13232645
-0.1400398 -0.0559687 -0.06759158 -0.022543073 -0.054804683 0.042137474 0.0634494 0.13992962
0.02136764 0.08325535 -0.08814092 -0.15740289 -0.10527214 0.09243479 -0.0017609298 0.024505123
-0.062339164 0.017096847 0.060484827 0.13044336 0.02788882 -0.094206735 -0.13824257 -0.069175035
-0.15656532 0.07307556 0.14442733 0.16940781 -0.15468895 0.17945388 0.041057453 -0.08771675
0.08017182 0.09313306 0.095823824 0.07331926 0.14759943 -0.012061998 0.1543152 0.07840121
0.124961644 -0.036920995 -0.1251488 0.09057769 -0.019041017 0.05179532 -0.16007432 -0.033783138
-0.04234542 -0.084274076 -0.09621195 0.17385188 0.15007061 0.1499882 -0.04511033 0.09394285
-0.09076868 0.14353547 -0.028165206 -0.10378154 -0.059586518 0.17505395 -0.1785576 -0.007645756
0.12599593 -0.16958492 -0.041066587 -0.05315274 0.14906758 0.057389498 0.005606547 -0.0047469735
0.10027856 -0.033507854 -0.0674053 -0.17466319 -0.10790693 -0.068261385 0.15885374 -0.013179302
0.1090841 0.12762111 0.15650928 -0.06613123 -0.052721724 0.07475978 0.09458813 -0.052685708
-0.06579322 -0.1759434 -0.16916403 0.026734054 -0.109567784 0.13846394 -0.0018207729 -0.16123754
0.025750533 -0.13858369 0.13958216 0.011269763 -0.17090034 -0.029880822 -0.03897442 0.050268635
0.04883875 7.1018934e-05 -0.057838216 0.052008912 -0.017916173 -0.096381605 0.081478 -0.11076942
0.0971632 0.10108337 -0.044257164 -0.12763433 0.10593313 -0.02482292 0.18202174 -0.089466095
-0.16875389 0.009871528 -0.024522215 0.13303313 0.131352 0.15657455 0.07175979 -0.13616899
0.12542081 -0.10082719 -0.07134596 -0.06475958 -0.03636606 -0.036363393 0.112356335 -0.023574844
0.114341885 -0.09431855 -0.029689595 -0.075598255 -0.05336961 0.16851693 -0.012455821 -0.0016422868
0.09889811 0.054572254 0.0032576472 0.110073686 -0.033268377 -0.06057089 0.056811556 -0.0006336272
0.16804299 -0.038613692 -0.124229744 -0.010888755 0.009067148 0.09869453 -0.04181938 -0.0961568
0.0979259 -0.114398 -0.061101094 0.18183285 0.15641329 -0.060616918 0.068923086 0.119470745
0.068843246 0.038708687 0.1276721 0.120880306 0.07657039 0.1595105 -0.00067459047 -0.04986514
-0.08440969 -0.0766391 0.11162609 0.09890601 -0.021940112 0.022797912 0.1722498 0.16819027

pixel_patch_embedding.bias f4 [32]
00000000: 00d0 8139 e021 fc3b 30c7 ce3c 064a 283e
00000010: a4de d33d 9cb3 b5bd fc57 0e3e 3896 053e
00000020: 5248 06be 2bef f2bd f842 d03d 5085 b13c
00000030: 40c3 1d3d 6295 99bd f89a 9abc f600 05be
00000040: b062 aa3d 059a a4bd a050 69bd b8fe b53d
00000050: 5e27 2a3e 6274 13be b56e 82bd 8887 f5bc
00000060: 9046 4a3d ff1c f7bd bccd da3d 4c73 b1bd
00000070: 8598 d1bd 8ce4 35bd 6448 91bd 8c17 0c3e
0.0002475977 0.007694468 0.025241464 0.16434488 0.103452 -0.088721484 0.13900751 0.13045585
-0.13113526 -0.11862024 0.10169023 0.021670014 0.038516283 -0.07499196 -0.018872723 -0.12988648
0.083196044 -0.080371894 -0.056961656 0.08886474 0.1661658 -0.14399865 -0.06368772 -0.029971853
0.0493837 -0.120660774 0.10683772 -0.08664569 -0.10234169 -0.044407412 -0.070938855 0.13680857

local_trans_pixel.layers.0.0.fn.norm.weight f4 [32]
00000000: 86a6 8c3f c9fd 8e3f e472 923f 7580 943f
00000010: f53f 8d3f e4cc 9e3f f0ab 8f3f 4cec 8e3f
00000020: 7281 8f3f 6168 963f 8dd5 8f3f eff3 8d3f
00000030: 0d7f 953f ddc7 903f 1a9d 8f3f dd33 893f
00000040: e489 8f3f a568 943f 0dec 913f 420c 933f
00000050: 0be4 8d3f 1765 963f 4689 8e3f 2b70 903f
00000060: b9dd 8b3f 2af1 8e3f 7585 8d3f f37e 9f3f
00000070: 2757 943f 32a8 8c3f b9cd 893f dbdf 8c3f
1.0988319 1.1171199 1.1441312 1.1601702 1.1035143 1.2406278 1.1224346 1.1165862
1.1211379 1.1750604 1.1237046 1.1090068 1.1679398 1.1310993 1.1219819 1.0718952
1.1213956 1.1594435 1.1400162 1.1488116 1.1085218 1.17496 1.1135643 1.1284231
1.0927039 1.1167347 1.1056353 1.2460617 1.1589097 1.0988829 1.0765907 1.1005815

local_trans_pixel.layers.0.0.fn.norm.bias f4 [32]
00000000: d632 453d d8b8 c63d 6cde 1b3c 47cc 7939
00000010: 47a2 1c3c 32a8 e13c 4835 dc3d d044 b63c
00000020: 8867 c0bc d194 843c 5fee 7d3d a9e6 d3bc
00000030: 9ec2 fbbd b38f 4ebd 2452 b5bc c831 853d
00000040: 55af 19bd b0d1 e8bb bec8 5d3c d546 0f3e
00000050: 3d69 9d3d a5bf e03c 8ede a0bd 3cdc 8ebd
00000060: 676c b6bd fab5 853d 05c0 43bc 9d2d 943d
00000070: 059b 73bd 7f84 353d e314 b2bc 701e 95bd
0.048144184 0.09703225 0.009513479 0.0002382259 0.009560174 0.027546022 0.1075235 0.02224961
-0.023486868 0.016184242 0.061994907 -0.025866823 -0.1229298 -0.05043001 -0.022133894 0.06503636
-0.037520725 -0.007105075 0.01353663 0.13991864 0.07686088 0.027435133 -0.07854949 -0.069756
-0.08907395 0.0652885 -0.0119476365 0.072352625 -0.05947401 0.04431581 -0.021738475 -0.07281196

local_trans_pixel.layers.0.0.fn.fn.to_qkv.weight f4 [768, 32]
00000000: 922a 8e3c d6ec b33d bd2c efbc f46b f63d
00000010: 5ef3 60bd 051d 78bc f102 ca3d 4c30 b0bc
00000020: a993 13be f9ee ef3d 044f 28be 4009 c13d
00000030: c98e 2bbe a9d5 b23c 166b 0b3e 4c70 aebd
00000040: 26dd 393d d31f d6bd 76a2 643e a8b6 093e
00000050: 9176 b5bd 1f47 d4bd ac8e 0b3e 152d e3bc
00000060: 9c06 7b3c 9997 19be 9923 54bd 6797 7dbd
00000070: 86a3 8ebd 6019 273d 4df9 8e3b bb05 5abe
00000080: d3f2 0ebe 2084 81be e172 1bbe d1c3 763d
00000090: ff54 1b3e 79c8 c73d 10a7 e93d f089 ce3c
000000a0: 4fa3 3fbc a2f6 72be eaaf c23d f3e7 bbbd
000000b0: 2c44 6c3e fddc 60bd 51b4 b2bd 1899 ab3c
000000c0: 44d5 533e d515 68be 2316 c2bd ad41 a4bb
000000d0: 61df 26be 148c 923d 7567 833d bb7a 0bbe
000000e0: 2afd 6abc c082 bd3d 71e8 343b 5609 3ebe
000000f0: 0906 8fbd b6c9 b43b 466e d53d dee8 863d
00000100: 50ed e4ba c6a9 b83d df53 4fbe 6509 0e3e
00000110: 4132 853e 2764 23bd 3dfb d9bd 6ddf 9c3d
00000120: bd70 163e 9d9d 0fbe c319 0cbe 4c1b 8cbe
00000130: 978e f53d 5a14 8e3e bc67 a9bd 899a 2ebd
00000140: c72f e03d 562a 153d f706 6f3e 47f0 2b3e
00000150: 4f24 38be 996f 6fbe da37 febd 6b93 df3d
00000160: 258f 07be 1c91 57be a111 823d 3771 40bb
00000170: 726c fb3d 4c79 6d3e fa93 4d3e 14a1 013e
00000180: 1172 ba3d dc90 7ebd ff17 2bbe 728f 2c3c
00000190: fb41 c53d 5630 003e e81c 1e3e 8a89 af3c
000001a0: 831b 07be a758 a33d 5b7d 21bd 1b9c f53d
000001b0: 5b74 1c3c 915a 71bd 46b6 503d b0de 883d
000001c0: 0832 8a3e c0a4 a6bc ef16 843d 99ee 2cbd
000001d0: 8d9b c3bc e883 983b b1fe 663e 2350 133d
000001e0: 22be 66bc 7c31 67bb 247c aa3a c379 8bbd
000001f0: 4ca4 ccbd 4b79 f63d aa80 01be c222 893d
00000200: 80ae 353e 5247 e8bc 4adb cd3b 04c2 cdbd
00000210: 5509 d03d 44cb 83be 8b5f 2cbe e0a2 7bbd
00000220: 720b 1cbc c586 803e 0fad 61bd 4d42 4bbe
00000230: 5ef2 713c 2c07 9a3d 5686 1bbe 2dcd 4c3e
00000240: 4492 29bd 284d 2c3e 373c 9ebd a6b7 033e
00000250: 7912 27be 70a0 a0bd 2f41 43be 7c64 d83b
00000260: caff 76be 3a57 9fbb fbe0 e1bd a568 d63d
00000270: ea83 76bd 63c8 df3a 73bf c4bd 0bdc 93bd
00000280: dc06 55bd 3e67 46bd 7393 4a3e b800 a63c
00000290: a032 b43c 11eb 8dbe de3d 303d 4fe3 153e
000002a0: 57b7 5fbe 5be5 e03d cb48 0e3e 6c22 243c
000002b0: 445b 31be f253 ed3d dc4c c5bd 9a1e 1d3e
000002c0: 008c 42be 5392 103e 2308 03bc 1966 a33d
000002d0: 722a 18be 6d42 9c3d 4be1 54be 3d76 413e
000002e0: ad47 c63d 3e7c 863d ff4b 2d3d 4410 033e
000002f0: 4520 033e 456c 9c3d 3e99 9bbc e651 683e
00000300: 1013 06bd ce7b 91bd 3754 6cbd fdc5 453e
00000310: d3ea 14be 6b99 203d 3488 e6bd 590c a23d
00000320: 93ef a5bd a055 003e 631e 813d 4acc a6bd
00000330: f2f7 1439 e2a1 0e3e a67e 183e 2417 4d3e
00000340: 4ec8 76be facc 2ebd b7fc 3dbe f119 af3d
00000350: bc36 163e efcf 143e bb6e e9bd f1d6 c33d
00000360: 80ee 213d f9fd 603d 6526 0f3d a63c bb3d
00000370: 00f1 083e 100e 05be 14f0 aa3c 687c 493c
00000380: 82a1 b53d e6e3 c8bd 9878 ce3d 77ce 59be
00000390: df1a 4bbe ef74 07bb cfb5 21bc 96b9 50be
000003a0: 2dcb 0e3e 3751 933d 5109 04be 83ef 2ebe
000003b0: 3580 0c3e c198 18bc 5378 a33c 623b c23d
000003c0: 1d23 cbbc b6a5 e83d 7db3 c0bd 5378 d1bd
000003d0: ae91 17be a43f cc3d e58e 0d3e b135 5b3d
000003e0: f690 c03d b27e 67be f1b6 5c3d d17d 8dbe
000003f0: fe2b 323e 43f7 8b3d b4f2 173e 7b6c 2c3e
0.017354283 0.08785407 -0.029196138 0.12032309 -0.054919593 -0.015143638 0.09863842 -0.021507405
-0.14411797 0.11715502 -0.16436392 0.094255924 -0.16753687 0.021830397 0.13615069 -0.08517513
0.04537692 -0.10455289 0.22327599 0.13448584 -0.08860505 -0.10365128 0.13628644 -0.027731458
0.0153214 -0.14999236 -0.05179176 -0.061911967 -0.06964783 0.040795684 0.004363215 -0.21291249
-0.13959818 -0.25296116 -0.15180542 0.06024534 0.15169142 0.09755034 0.11408818 0.025212258
-0.011696651 -0.23726895 0.09506209 -0.091751 0.2307288 -0.05489825 -0.08725799 0.020947024
0.20686823 -0.22664578 -0.094768785 -0.005012712 -0.1629615 0.07155624 0.06416217 -0.13621037
-0.014342586 0.09253454 0.0027604366 -0.18558249 -0.06983573 0.00551721 0.104214236 0.06587385
-0.0017465744 0.09016757 -0.20246838 0.13870771 0.26014903 -0.039890435 -0.10643623 0.076598026
0.14691444 -0.14024968 -0.13681702 -0.27364576 0.119900875 0.27749902 -0.08271739 -0.042627845
0.10946613 0.036417328 0.233425 0.16790877 -0.179826 -0.23382415 -0.124129966 0.109167896
-0.13238199 -0.21051449 0.06351019 -0.0029364356 0.12276544 0.23190802 0.2007598 0.12659103
0.09103788 -0.062149867 -0.16708373 0.010532247 0.096317254 0.12518439 0.15440714 0.021427888
-0.13194089 0.079758935 -0.03942619 0.119926654 0.009549226 -0.05892426 0.05095508 0.06683099
0.26991296 -0.02034223 0.06449687 -0.042219732 -0.023877883 0.0046543963 0.22558095 0.035965096
-0.014083417 -0.0035277298 0.0013006967 -0.068103336 -0.09992275 0.120348535 -0.12646738 0.06696083
0.17742348 -0.02835432 0.006282245 -0.10046771 0.1015803 -0.25741017 -0.16833322 -0.061434627
-0.009524213 0.2510282 -0.055096682 -0.1984951 0.0147672575 0.07520899 -0.15187964 0.20000143
-0.041399255 0.16826308 -0.07726329 0.12863025 -0.1631564 -0.07843101 -0.19067834 0.0066037755
-0.24121013 -0.004862693 -0.1102924 0.10469178 -0.060184397 0.001707327 -0.096068285 -0.07219704
-0.052008495 -0.048438303 0.1978281 0.020264015 0.021996796 -0.27718404 0.04302775 0.14637493
-0.21847282 0.10981246 0.13894956 0.010017972 -0.17319971 0.11588277 -0.096338004 0.15343705
-0.18998718 0.14118318 -0.007997545 0.07978458 -0.14859942 0.07629857 -0.20789067 0.1889276
0.0968164 0.06566666 0.042308804 0.12799174 0.12805279 0.07637838 -0.01899397 0.22687492
-0.032733023 -0.07103692 -0.0576975 0.19313808 -0.14542703 0.03920881 -0.112564474 0.079125114
-0.08102336 0.12532663 0.06304624 -0.08144434 0.00014206747 0.13928941 0.14892063 0.20028359
-0.24099848 -0.04267595 -0.18553434 0.0854987 0.14669317 0.14532445 -0.11398073 0.09562481
0.039534092 0.054929707 0.034948725 0.09142427 0.13373184 -0.12993646 0.020866431 0.012297727
0.08868696 -0.09809093 0.10081595 -0.21270166 -0.1983447 -0.0020669063 -0.009870007 -0.20383295
0.13944693 0.07193225 -0.12894179 -0.17083554 0.13720782 -0.009313763 0.019954836 0.094839826
-0.024797017 0.11359732 -0.09409235 -0.10228028 -0.14801666 0.09973076 0.13824041 0.053518
0.09402649 -0.22606924 0.053885404 -0.27635053 0.17399594 0.06834271 0.14838678 0.16838257

local_trans_pixel.layers.0.0.fn.fn.to_out.0.weight f4 [32, 256]
00000000: ab36 2fbd 7909 b43d abea 25bc 7f8e 99bc
00000010: 728e 81bd 665f 29bd 95b3 a5bd bc17 18be
00000020: b1fa 793d c6f5 d6bd 88fe b5bc 930a 4bbd
00000030: 5449 963c 41e1 bcbd 0e63 f03d ba6c 063d
00000040: b6ba f1bd a5ca 6d3b a72a 8cbd ed76 a33d
00000050: 36a6 bb3c 86c3 5dbb eee8 a93d f488 d23c
00000060: 2b54 ed3c 92da 253d 5b47 8c3d 1719 7bbd
00000070: 03d3 993c b414 bb3d bc34 bcbd bd97 e3bd
00000080: fb49 abbd e6f9 18bd 2acb a0bc 6972 6d3d
00000090: 0fc4 afbc 32a3 4d3b bdb4 053e db74 08bd
000000a0: 76d2 473d 462f 8bbd dac9 dd3d e43f 9a3c
000000b0: f8dc 663c 29eb 023d 66ca debd 8fea 803d
000000c0: 3607 a0bd 7c66 92bd a8da 9cbd f3b8 a63a
000000d0: 2846 7ebd 2942 d23d f549 e63c ac5a 37bd
000000e0: dbfd 23bd f3ef a33d 3182 0a3c 99e5 d23d
000000f0: 20ec acbd 40c3 973c 7c80 64bc 3982 853c
00000100: f100 4f3b 5ed2 1fbd 3db8 62bc f600 5dbd
00000110: 8417 823c 158b 9d3d 35e3 3e3c 2a89 25bd
00000120: 9f69 afbd 78f4 49bc aa84 16bd 5edd 60bd
00000130: 935f aabd 63ae bc3d fcc8 853d 2e41 d5bd
00000140: 057d 913c 7fd2 5bbd 9528 f0bc 8bb0 67bd
00000150: 9940 e43d d5f0 84bc 6faf de3d 2a94 943d
00000160: 94c7 af3c 43b9 473d 2b81 163d b6e7 9cbd
00000170: 6afd 803c 0b97 a63c d32c 8b3d c6bb 5abd
00000180: 4eae 6b3c b40d 9fbc dc1a 303c 4717 183d
00000190: edb4 9dbc c591 a93c dc04 913d f608 3f3d
000001a0: f63f 7bbd ac77 b0bd b35f f7bb 2c24 fb3c
000001b0: 8b06 813a 2920 7b3d 40bd cf3c f061 ce3c
000001c0: 48ce 57bd 32e9 cb3d 4691 c4bd 1585 7d3d
000001d0: f39d b2bd b364 cdbb 6706 b83a 473b a03d
000001e0: 7a87 7bbd 46b5 eabd abb8 92bd a43c 93bc
000001f0: 553a a5bd a8ff 94bd 4c28 8d3d 518f 723d
00000200: 5fec 55bd 5a67 c63d 4efe ab3c c0d8 8d3d
00000210: 241e 703d 13a5 b7bd ce0d 8fbd 125e b8bb
00000220: 1ee1 3d3d ca87 87bd 1fbf cebc 92df 833d
00000230: a873 50bb 1a85 83bc ac98 173d af83 4fbd
00000240: e7a4 2f3d 1a5f fe3c b983 09bd 9f34 df3c
00000250: eea9 6a3d 4a1f 203c 8fe4 e6bd 2a23 643d
00000260: 00c8 86bd 08f5 29bd ac1f 923d 64bb 823d
00000270: 92be a13d 6acc ab3d 8706 92bd 4d1b 7b3d
00000280: d551 82bd 6699 3f3c 8f50 8cbb d2e3 6bbd
00000290: 5b31 af3d 30f9 bbbc bbd6 963c 4154 a7bd
000002a0: b8fd 15be 0cd1 683d b6f5 d53d 6a15 2b3d
000002b0: 81ed c0bd 4992 303d ef9f b239 eb16 aebd
000002c0: ae6d 10bc 3396 463d a0a9 6d3d 6407 ae3c
000002d0: e25d 5abd f58a e0bd 701d 81bc 3415 58bc
000002e0: d007 1ebb c860 883d c31b 1a3d 8e53 5ebd
000002f0: a3e4 773b 3e53 0bbd ef43 883d 3ef6 3b3b
00000300: 0ed9 75bd c226 663d b2e7 5e3d d4be 4f3b
00000310: 36c9 dcbc 2420 58bb 4cd4 bd3d 8faa 9ebd
00000320: a485 6bbd 46d3 00bd bf21 b3b9 4da2 623c
00000330: 9f2b 573d 0d9b 9d3d 8c00 38bd 01a0 a5bc
00000340: 9e00 293c 78b8 db3d 18df bebd eaeb c33d
00000350: cf4b 603d 1e7b 253c c785 e4bc 82b6 4e3d
00000360: fd0b f63c 94aa a83d 7d4b b3ba 4424 943d
00000370: 6736 2c3d 83aa 1a3d c773 893c e3bf 893d
00000380: cf06 51bd a412 973d f58f 05be 06f0 33bc
00000390: 14b4 f53c 1a09 7cbc 5a72 42bc 2b9f c4bc
000003a0: e10a b63d 1b2e 453d f4b0 043e 069a 80bd
000003b0: ade7 b1bd 2d2a 13bc abd2 95bd dddc 6c3c
000003c0: afb6 143d 7f81 dcbc d67f efbd b40c 9a3b
000003d0: 20bf 123e a475 b23b 6d4c 8ebc 9a7a 22bd
000003e0: 6052 4dbd 8562 00be 34bb ec3d e2e5 a9bc
000003f0: 60b2 c9bd 6bfd b5bd 1dc7 a8bc dc06 c33d
-0.042776745 0.08790869 -0.01012675 -0.018744705 -0.063259974 -0.041350745 -0.08090893 -0.14852804
0.061030094 -0.10496096 -0.022216097 -0.04957063 0.018345512 -0.09222651 0.11737643 0.032818533
-0.118031904 0.0036284116 -0.06844073 0.07981668 0.022906404 -0.0033838465 0.08296381 0.02570007
0.028970798 0.040491648 0.068495475 -0.061303224 0.018777376 0.09134808 -0.09189746 -0.11112926
-0.0836372 -0.037347697 -0.019628126 0.05797044 -0.021455793 0.003137779 0.13057227 -0.033314567
0.048784696 -0.06796126 0.10829516 0.018829294 0.014090769 0.031962547 -0.10878448 0.062947385
-0.078138754 -0.071484536 -0.07658893 0.0012719914 -0.062078625 0.10266525 0.028111437 -0.044764206
-0.040037017 0.08004751 0.008453892 0.102976985 -0.08443475 0.01852572 -0.013946649 0.016297447
0.0031586254 -0.03901898 -0.013837871 -0.053955995 0.015880354 0.076925434 0.01165085 -0.040414013
-0.085650675 -0.012326352 -0.036747612 -0.054898612 -0.083190106 0.09212949 0.06532475 -0.10412823
0.01775981 -0.05366754 -0.029316226 -0.05656485 0.111451335 -0.016228119 0.10873305 0.072548226
0.021457471 0.048760664 0.036744278 -0.07661383 0.015745837 0.020335695 0.06795659 -0.05340173
0.014384819 -0.019415714 0.010748591 0.037131574 -0.019251311 0.020699391 0.07081005 0.046639405
-0.061340295 -0.086165756 -0.00754925 0.030656897 0.0009843869 0.061309967 0.025358796 0.025193185
-0.05268696 0.09956588 -0.09598021 0.061894495 -0.08721533 -0.006268108 0.0014039994 0.07823806
-0.061408497 -0.114603564 -0.07164129 -0.017973252 -0.080677666 -0.07275325 0.06892452 0.05921871
-0.052227374 0.096876815 0.020995285 0.069261074 0.058622494 -0.08967032 -0.06985055 -0.0056264484
0.046357267 -0.066176966 -0.025237618 0.06439127 -0.0031807218 -0.016054679 0.037010834 -0.050662693
0.042881873 0.031051207 -0.033572886 0.027246771 0.057290964 0.009773085 -0.11274063 0.055697598
-0.06581116 -0.041493446 0.07134947 0.06383398 0.078976765 0.08388598 -0.07130151 0.061305333
-0.063632645 0.011694288 -0.0042820643 -0.057590313 0.08554336 -0.02294597 0.018412938 -0.08170367
-0.14647567 0.056839988 0.10447256 0.04176847 -0.094203 0.04310826 0.00034069965 -0.08500465
-0.008815212 0.048483085 0.058023095 0.021243758 -0.05331219 -0.10964004 -0.015761107 -0.013188649
-0.0024113543 0.066590846 0.037624132 -0.054278903 0.0037825487 -0.034014933 0.06653582 0.0028680707
-0.060021453 0.056189306 0.05442018 0.0031699436 -0.026951414 -0.0032978142 0.09269008 -0.07747375
-0.057500497 -0.031451486 -0.00034166683 0.013832641 0.052531835 0.07695589 -0.044922397 -0.020217897
0.010315089 0.10728544 -0.093198955 0.095664814 0.054759797 0.010100154 -0.027895821 0.05046702
0.030035013 0.0823566 -0.0013679113 0.072334796 0.04204407 0.03776027 0.01677884 0.067260526
-0.051031884 0.07376602 -0.13043196 -0.010982519 0.029993095 -0.015383029 -0.011868084 -0.024001678
0.08888794 0.048139673 0.12958127 -0.06279378 -0.08686767 -0.008982223 -0.07315572 0.014456955
0.036307033 -0.026917217 -0.11694305 0.0047012214 0.14330721 0.0054461528 -0.017370427 -0.039667703
-0.050127387 -0.12537582 0.11559144 -0.0207395 -0.098484755 -0.08886226 -0.020602757 0.09522793

local_trans_pixel.layers.0.0.fn.fn.to_out.0.bias f4 [32]
00000000: 36db 14bd 2eac 593d 3033 e33c 5c25 3dbd
00000010: cbfc 383d 2bb7 e7bc 26c6 66bd 28d7 54bd
00000020: 0650 213d 769f a63c 4c7e 5cbd 8d1c abbd
00000030: 2722 5d3d dd88 a43c 6292 523c d6cc 14be
00000040: 11e0 3ebd 88d5 9b3b 028e bbbd 7a0d ddbc
00000050: 0f44 92bd 8d37 fc3c 81b4 1e3d 0350 89bc
00000060: c935 a4bd 89d3 993c f8e3 41bd 3de1 a8bd
00000070: 5e70 53bd f3d3 9abd 9311 ac3c 2833 0a3d
-0.03634187 0.05314272 0.027734369 -0.046178207 0.045162957 -0.028285583 -0.056341313 -0.051963
0.039382957 0.020339709 -0.053831384 -0.08355055 0.05398765 0.020084793 0.012852283 -0.14531264
-0.046600405 0.0047556795 -0.09157945 -0.026983965 -0.071418874 0.030788207 0.03874636 -0.016761785
-0.08018071 0.018777626 -0.04733655 -0.08246086 -0.051620834 -0.07559957 0.021004474 0.033740193

local_trans_pixel.layers.0.1.fn.norm.weight f4 [32]
00000000: 247d 6d3f 6537 8d3f 4b89 813f db29 883f
00000010: 4be6 863f 2dc7 873f 2a36 7b3f f24b 7c3f
00000020: c47e 893f d420 7a3f bb74 8e3f a1c6 733f
00000030: 0ad4 853f cc8b 873f 59d6 8e3f c7ab 873f
00000040: cc0c 8f3f 4d5a 863f 0a16 883f 9b5a 823f
00000050: 71cb 923f b7af 903f be91 8c3f 2cfc 933f
00000060: 26c7 823f 6971 893f 70aa 853f a80a 883f
00000070: 7534 8a3f d4f1 893f 4058 8b3f 04e6 8b3f
0.92769074 1.103253 1.0120023 1.0637773 1.053903 1.0607659 0.9812952 0.98553383
1.0741811 0.9770634 1.1129373 0.9522496 1.0455334 1.0589538 1.1159164 1.0599297
1.117578 1.0496308 1.0631726 1.01839 1.1468335 1.1303624 1.0981977 1.1561332
1.0217025 1.0737735 1.0442638 1.0628252 1.0797259 1.0776925 1.0886307 1.092957

local_trans_pixel.layers.0.1.fn.norm.bias f4 [32]
00000000: 65f3 083d 9598 d63b 404b 83bc 6910 f4bc
00000010: 3138 88bc 0809 b438 431c 01bc a67e 7dbd
00000020: 1a7d ad3c 9d2f 933d 0e76 c03b 0a53 92bc
00000030: 34bb 9eba 8b35 bb3a 816c 4c3c fbc9 0fbd
00000040: 8b93 8b3c e4ec 05bd 700f 083c 7b40 183d
00000050: 49d2 223d 93d3 5cbd 93ea ab3c 9a9f aabd
00000060: 9607 a0bb b9d7 a4bc 7079 4ebc ba3d 9dba
00000070: 9368 da3b 29d8 30bd 0f3b 98bc 92e3 0dbd
0.033435244 0.006548951 -0.016027093 -0.029792981 -0.016628357 8.584751e-05 -0.007880273 -0.06188836
0.021177817 0.07186816 0.005873448 -0.017861862 -0.0012110234 0.0014282925 0.012477041 -0.035104733
0.017038127 -0.03269662 0.008304462 0.03717087 0.039751325 -0.05391271 0.020985877 -0.08331223
-0.004883717 -0.020122396 -0.012602195 -0.0011996545 0.0066652982 -0.043174896 -0.018582849 -0.034640856

local_trans_pixel.layers.0.1.fn.fn.net.0.weight f4 [8, 32]
00000000: 9441 f2bd a1c2 1a3d b5b8 883d 5019 0ebd
00000010: 773a e3bc 80a0 8b3d 3f65 753d b253 91bd
00000020: 60ce 08be 3b81 053d 994d 57bd 4b53 1cbd
00000030: 2f34 293c 8cdd 89bc 9692 4c3e 3635 18be
00000040: 3118 2ebe 7288 303e 2a18 eb3d f1ec 20bc
00000050: 5b41 27be 210c 033e 5cfe 733d 9757 52be
00000060: 9ac3 37be 8e84 89bd fa7d b13d 49b4 debd
00000070: c588 fdbd 14c8 e13d 83fd 0c3e 0c50 13be
00000080: 7c19 383c 7812 873e fc04 e93c bae5 3abe
00000090: 6326 63bd b655 233e e746 9dbc 8df4 87bd
000000a0: fc06 b33d 8b4e 1dbd 1fca 59be 44de a6bc
000000b0: 752c 523e 42e3 ea3c 5bdc 85be 1c2d 903c
000000c0: 24fc 543e 65b6 64be e844 ca3d 2bb2 023e
000000d0: e5c5 8c3e 6a46 88be 0510 d93c 6727 6fbe
000000e0: fc65 303e 9226 953c 5d6e 2d3d ecbf a73d
000000f0: ff6e 043c 5619 60bd 1ca4 47be 10b3 103e
00000100: 75dd 02be 6850 78bc 05f4 dc3c 027e 2d3d
00000110: 1bd8 1fbe 3192 c0bd c569 f73d 160a acbd
00000120: 37cf 683d e490 89bc e736 4bbe 00b8 ecbd
00000130: d1cf 563c d925 a33d e1e8 993e 36fc d73c
00000140: 0984 ba3c 225a 4cbd 7b14 3f3d 005a d33b
00000150: de14 243c 6c10 cf3d c16e 9cbc 0423 fd3c
00000160: 74fb 733e abf8 f13d 1564 3e3d 32a1 17bd
00000170: 866c c1bd b5c0 353e f922 b83d 1433 e83d
00000180: aa88 c6bd 07a5 84bd f0b9 02be 39a7 39be
00000190: 415e 373e 5095 2f3d 477e 493d 76af 27be
000001a0: 9895 9e3d 5d1e c13d 0585 933e c542 a23d
000001b0: 6259 f9bd e59f 683e 92b2 f53d 0682 99bc
000001c0: c17c 87be 5db8 2e3c b441 253e 4113 f33d
000001d0: 5be4 293e 4caa 89bd 04bc a63d 8892 57be
000001e0: 75f0 6a3d 98f9 51be 727b 6bbd 7084 853c
000001f0: fb90 663e 0df1 66be 9611 7c3e de71 e8bd
00000200: f5a3 27be 30b9 14bd d90b b63d 4dde 173c
00000210: 23fe cabd f28c a1bd 95dd 83bd 0aaa 1c3e
00000220: a4b5 993d 4cd7 fa3c e764 a1bd 87c9 663d
00000230: a4af a23d d49d 33be 8120 933d b628 d73d
00000240: cba4 173e 7d05 4fbc caa4 1fbe 2b06 c7bd
00000250: bbfa 4a3e ef73 df3b 2c27 813e 6445 1bbe
00000260: 175f 5cbd a38f 243e 890e 53be 4e1c 193e
00000270: 2686 d4bd bc10 04be 9e76 88bd 0ded 69be
00000280: 3819 283d 1529 5c3e 5307 ecbd 8257 a3bd
00000290: 4f0c 0abe 2f56 83bd 277b 6b3d 01e6 093d
000002a0: ac1c 50bd 2637 0e3e ab86 29bd 66e1 2abd
000002b0: 2386 153e 5399 4bbe d955 763d 2086 013e
000002c0: 0998 17bc ce24 b23d 27ce 183e 33dc 873d
000002d0: 3780 b8bb 561e 20bd f938 32be b4c7 13be
000002e0: 654a 55bd cbe4 e83d 8941 05bd 92d1 fbbd
000002f0: b48f 86be 2bb1 163e a5e7 e83d 9f78 3abd
00000300: 47ec ba3b cba9 883c 4746 033e fe97 1abe
00000310: ef9f 8cbc 4f09 24bd fdb6 243c 2e3a 983d
00000320: 5514 e73d 260e 72bb 8b74 37be 8d90 e33d
00000330: 2b0d 023e a58e 84bd fc9d f8bc 119b 9c3c
00000340: 7d9e 11be 1b26 183d 0287 2e3e 3e7f 10be
00000350: 7c2b 273e 3a43 10bc f77e d1bd 3aa8 83bd
00000360: 4a1f 3abe 8796 593e cd81 54be 2d27 3a3e
00000370: cd70 b03d fdb4 6bbd 1d98 593d 192d 5f3e
00000380: 0468 473d 7d2d c8bd c964 3ebe f086 203a
00000390: 97b2 73be f38f 863e ae28 203e 310a 14be
000003a0: b7ed 293e 0249 b53d 4efd 45be a778 8b3d
000003b0: d2e1 113c c44c 0cbd 7d0f 56bd 2651 28be
000003c0: 060e a43d 97e6 04be ebb8 843d 1ba1 f1bb
000003d0: f9cb 523e ba5c 7cbe 7b9a 41be 57bc 3cbe
000003e0: 2327 53bd 3c04 02be 7528 42be 7216 253e
000003f0: b821 d8bd c921 cabc 57a3 29be 3f29 1cbe
-0.11828914 0.03778327 0.06675855 -0.03469211 -0.02773784 0.06817722 0.05991101 -0.07096042
-0.13359976 0.032593947 -0.052564237 -0.038165372 0.010327383 -0.016829275 0.19977793 -0.14864048
-0.17001416 0.1723955 0.11479218 -0.009822116 -0.16333525 0.12797596 0.059568748 -0.20541225
-0.1794571 -0.06714736 0.08666606 -0.108742304 -0.12379602 0.1102449 0.13768582 -0.14386004
0.011236545 0.26381278 0.02844476 -0.18251696 -0.05545653 0.15950665 -0.019198848 -0.06638441
0.087415665 -0.038404983 -0.2126851 -0.020369656 0.20524772 0.028672818 -0.2614468 0.017599635
0.20799309 -0.22335203 0.09876424 0.12763278 0.27494732 -0.26616222 0.026496897 -0.23354875
0.17226404 0.018206868 0.04234158 0.08190903 0.008083104 -0.054711662 -0.19496197 0.14130807
-0.12779792 -0.015155889 0.026971826 0.0423565 -0.15609781 -0.09402884 0.12080721 -0.08400361
0.05683824 -0.016792722 -0.19845162 -0.11558533 0.013111071 0.07966203 0.30060485 0.02636538
0.022768037 -0.049890645 0.04665039 0.006449938 0.010014741 0.10110554 -0.01909578 0.030900486
0.2382639 0.11815008 0.046482164 -0.037018962 -0.09444527 0.17749293 0.089910455 0.113378674
-0.09694035 -0.06476789 -0.12766242 -0.18130197 0.17907049 0.042867005 0.049192693 -0.16375527
0.077433765 0.094296195 0.28812423 0.079228915 -0.121752515 0.22717245 0.1199695 -0.018738758
-0.26462367 0.010664073 0.16138345 0.11868907 0.16591017 -0.06721935 0.0814133 -0.21051991
0.057358224 -0.20505369 -0.057490773 0.016298503 0.22516243 -0.22552891 0.24616084 -0.113498434
-0.16371138 -0.03630942 0.088889785 0.009269309 -0.09911754 -0.07888211 -0.06438748 0.1529924
0.07505348 0.03062024 -0.07880574 0.056344535 0.07943657 -0.17540675 0.07183934 0.10505812
0.14808957 -0.012635586 -0.15590206 -0.09717973 0.19822209 0.0068192403 0.25225198 -0.15163189
-0.053801622 0.16070418 -0.20611013 0.14952204 -0.10377149 -0.12897009 -0.066632494 -0.22844334
0.041039675 0.21500047 -0.115248345 -0.07975675 -0.13481258 -0.064129226 0.057490494 0.033666614
-0.050808594 0.13888225 -0.041388195 -0.041718863 0.1460195 -0.19882707 0.060140464 0.12648821
-0.009252557 0.08698426 0.14922391 0.066337965 -0.005630519 -0.03909143 -0.17404546 -0.1443165
-0.0520729 0.11371764 -0.032533202 -0.12295832 -0.26281512 0.14716022 0.11372308 -0.04552519
0.005704436 0.016682526 0.12819777 -0.15097043 -0.017166106 -0.04004794 0.010053393 0.07432972
0.11283175 -0.0036934703 -0.17915551 0.11111555 0.12700336 -0.0647252 -0.03034877 0.01911691
-0.14220615 0.037145715 0.17043689 -0.14111039 0.16325182 -0.008805091 -0.10229295 -0.06428571
-0.18175998 0.21248828 -0.2075264 0.18179007 0.08615265 -0.05754565 0.053123582 0.21794547
0.04868318 -0.09774301 -0.18593134 0.0006123623 -0.23798595 0.262817 0.15640518 -0.14457013
0.16594587 0.08851816 -0.1933491 0.06810122 0.008903937 -0.034252897 -0.052260865 -0.16437206
0.08010487 -0.12978588 0.06480583 -0.0073739416 0.20585622 -0.24644747 -0.18906586 -0.18431221
-0.051550996 -0.12696928 -0.18960746 0.16121843 -0.10553306 -0.024674313 -0.16566215 -0.15250109

local_trans_pixel.layers.0.1.fn.fn.net.0.bias f4 [8]
00000000: 7aa6 c3bd dd4f 6abc 7095 093e ee34 233e
00000010: fc38 5d3e 0be0 ef3a 2388 db3d ad11 5abb
-0.09553237 -0.014301267 0.13435912 0.1593816 0.21603769 0.0018301023 0.107193254 -0.0033274696

local_trans_pixel.layers.0.1.fn.fn.net.3.weight f4 [32, 8]
00000000: 32c7 8abe 6f8b abbe 01c8 b5be b82f 67be
00000010: 0c73 4e3e 46b6 4dbe 5132 4f3e 4945 20be
00000020: 6f43 cbbe cf5c 273e 0d31 8fbe 49fe 4b3e
00000030: ae0b a93e 1b78 b73e 1420 c33d c2ab ac3e
00000040: c648 973e 40ce e0bd 5a62 a2be 4553 803e
00000050: bf5f 19bd edf5 97bd 1a3e 293e 0c55 6bbe
00000060: efc3 cbbc 724e b83e e8a8 b43c 3e6f 63bd
00000070: 71d3 a13e 7bde da3d abfc 973e 8655 9f3d
00000080: 80df aebd 1016 8f3e d2de 973c 0fce af3e
00000090: dbf3 67bd 9f39 85be d481 1fbe afbf cfbd
000000a0: 638f 973e 8094 a63d 8ab4 013e 576e c0be
000000b0: 6924 a3be 911a db3d ae2c 8a3c 0f0a 4b3e
000000c0: 3594 813e 6d25 b9bd 1cd5 a73e 7a9c e4bc
000000d0: e60d 35be e2ed a0be 6935 bdbc f658 e03d
000000e0: a89a e8bc 273b 333e c6c1 5abe cc59 1ebd
000000f0: c653 c8be 8694 8bbe 580f 51bc 42df 9dbd
00000100: 507d 553d 0eca 273e f64f 8abe 6dce febd
00000110: 9cde c03e 937e 89bd b66d bfbd cddb 60be
00000120: c863 36be e051 9d3e 0178 0a3e 095c 68be
00000130: b658 103e efe4 2fbd 983e a93e 4198 143d
00000140: f12d 8ebe 68ae d93c 3231 8abd e831 583e
00000150: ac21 8ebe 8282 d7bc a63f e73c c945 23be
00000160: bca3 5e3e 1412 4bbe c890 aabe c787 9d3e
00000170: 0c95 b5be 3a42 103d f1c3 b1bd 2bd6 29be
00000180: a419 be3d 244e d43d 7c5e 0fbe 2e80 94be
00000190: 94ad a4be 2bce 433e f2d2 5d3d 29f7 863b
000001a0: dc03 a33d 09e0 24be 98d8 a73e defa 89be
000001b0: 4709 023e 0a64 453e 4f46 873e c9d0 19be
000001c0: 50f5 76bd 2073 8bbe 785f cb3c 0591 443e
000001d0: 23ec 92be 5abd 30be 0a90 91bc eec9 603e
000001e0: 12cb 29be 4bb9 0d3d 2e27 9dbe 0d56 4d3e
000001f0: 2e28 28be c33f e2be 0e4d aa3e 21e7 a13e
00000200: 6a2d 33be 46d5 423e 98ee a9bc 45b0 75be
00000210: d7e4 0b3e abcd 463e d41e 4ebe 419b 63be
00000220: 1ba2 bf3b 297d f03e ff7a 7cbe 9a5a 993e
00000230: 11dc e33d e6a0 de3c de73 ccbe ecf4 10be
00000240: 46d0 a7be f72a 0d3e 2556 b63e f136 863e
00000250: 7c5b 7cbe 9505 ae3e af52 ae3e 1585 1fbe
00000260: 0adb d3bd d329 413e ebba a5be b475 4bbe
00000270: b00a 093e 050f 903e 2d36 3abd a16b 34be
00000280: f7ef dc3e 1a2e debe 6f44 3d3e c9cd 3b3d
00000290: b835 c03d 0376 a53e 176d c8bc 31a7 41be
000002a0: 3b85 33be 2262 cdbe 0473 52be 25b5 64be
000002b0: 9033 a73d 2d67 e5bd 2b78 5e3e 198a 213d
000002c0: d26b bb3d 583d 283e 09ed 8a3e 25a2 07be
000002d0: cdde 7a3e d663 1dbe f9ac 303e 9c5a 983d
000002e0: b1ad 2ebe 476d 4cbd 36b4 92be ce9e 1abe
000002f0: 229d 15be 78b5 31bd 0421 b23e f622 b7be
00000300: 5f10 2c3e 1ebe 723d 5c7b 143e 5128 6abe
00000310: 0d9f a2bd f64a 8cbe 01ed 97be 183d 3c3e
00000320: 82bc dc3d 5f54 acbe 6ea5 79be 9bc8 8bbd
00000330: 0fcf 28be 21d2 18be f6e3 053c 2112 083d
00000340: cb2d 913e cb6c 14bf 2b91 48be e347 953d
00000350: 667c c7bd f481 5cbe 20d2 f43d f4dd 9bbe
00000360: cb3a 2bbe 1925 2f3e a81d 443d fc4f 9fbe
00000370: 4cc0 9fbd 80a0 aabe fb22 823e 36ba ebbd
00000380: 194f 42be 2207 68be 51f8 a53e 8260 87be
00000390: 8a44 3e3d 9847 7dbd 786a 2c3e 5993 e2be
000003a0: 1ff1 743d 46d8 bebc d86e 4cbb 949d 6abe
000003b0: af2c 613e 607e d4bd c9b3 b4be 85ed e83c
000003c0: ac19 433e 435a e63d c71d aa3e 4e0f d0bd
000003d0: c7a2 aabe 5869 80be 8ec9 883d 578a 64be
000003e0: 46ac e9be a48b 643e 0404 2cbe ee89 81be
000003f0: b1da cb3b 1d3b 2dbe 7015 523e e410 22be
-0.271051 -0.33504817 -0.35504153 -0.22576797 0.20161074 -0.20089063 0.20234038 -0.1565143
-0.39699885 0.16343997 -0.2796711 0.19921221 0.33016723 0.3583382 0.09527603 0.3372479
0.2954771 -0.10976839 -0.3171566 0.2506353 -0.037444826 -0.074199535 0.16527596 -0.22981662
-0.024873702 0.3599735 0.022053197 -0.05552601 0.3160663 0.10686966 0.29684958 0.07779984
-0.08538723 0.2794652 0.018538866 0.34336898 -0.056629043 -0.26020524 -0.15576869 -0.101439826
0.29601583 0.08133793 0.12666526 -0.37584183 -0.31863716 0.106984265 0.016867008 0.19828056
0.25308385 -0.090403415 0.32779777 -0.027906645 -0.17681083 -0.3143149 -0.023096757 0.10954468
-0.028394058 0.17503034 -0.21362981 -0.038659856 -0.39126414 -0.27261752 -0.012760006 -0.07708599
0.05212146 0.16385671 -0.2701413 -0.12441716 0.37669837 -0.06713595 -0.093470976 -0.21958847
-0.17811501 0.30726528 0.1352234 -0.22691359 0.1409634 -0.042942937 0.33055568 0.036278013
-0.27769426 0.026572421 -0.067476645 0.21112788 -0.27760065 -0.026307348 0.028228592 -0.1594459
0.21742147 -0.19831115 -0.33313584 0.30767652 -0.35465276 0.03521941 -0.08679951 -0.16585605
0.09282234 0.10366467 -0.14000887 -0.29004043 -0.3216368 0.19121616 0.05415625 0.0041188193
0.079597205 -0.16101088 0.32782435 -0.2694921 0.12698852 0.19276443 0.2642083 -0.15021051
-0.060292542 -0.2723627 0.024825796 0.19195946 -0.28695783 -0.17259732 -0.017768878 0.2195203
-0.16581371 0.034600537 -0.30693954 0.20052357 -0.16421577 -0.4418927 0.33261913 0.3162165
-0.17497793 0.1902667 -0.020743653 -0.23993023 0.13661514 0.19414394 -0.20128947 -0.22227193
0.005848182 0.4697049 -0.24656294 0.29951936 0.11125959 0.027176332 -0.3993215 -0.1415593
-0.32776088 0.13785921 0.35612598 0.26213792 -0.24644274 0.33988634 0.34047458 -0.1557811
-0.10344513 0.18863611 -0.3236917 -0.19869119 0.13382983 0.2813646 -0.045461822 -0.17619182
0.4315183 -0.43394548 0.18483137 0.04585055 0.09385246 0.32316598 -0.02446608 -0.18911435
-0.17531292 -0.40113932 -0.20551687 -0.22334726 0.08164132 -0.1120132 0.21725528 0.03943834
0.091514245 0.16429651 0.27133968 -0.13245447 0.24499054 -0.15370116 0.17253484 0.07439157
-0.17058446 -0.049908902 -0.28653115 -0.15099642 -0.14610723 -0.043385953 0.34790814 -0.3576886
0.1680312 0.05926334 0.14500183 -0.22866942 -0.07940493 -0.2740094 -0.29673007 0.1838268
0.107781425 -0.3365812 -0.24379513 -0.06825372 -0.16485237 -0.14923908 0.008172026 0.033220414
0.2835525 -0.57978505 -0.19586627 0.07289102 -0.09740524 -0.21533948 0.11954141 -0.30442774
-0.16721646 0.17103995 0.047879845 -0.3111571 -0.078003496 -0.33325577 0.25417313 -0.11510126
-0.18975486 -0.22658971 0.32416013 -0.26440817 0.046452083 -0.061835855 0.1683749 -0.44253042
0.059800263 -0.023296487 -0.0031193998 -0.22911674 0.21989702 -0.103756666 -0.35293415 0.02843357
0.19052762 0.11247685 0.33225843 -0.10159169 -0.33327314 -0.2508037 0.066790685 -0.22318397
-0.45639247 0.22318894 -0.16798407 -0.25300545 0.0062211384 -0.16917081 0.2051599 -0.15826756

local_trans_pixel.layers.0.1.fn.fn.net.3.bias f4 [32]
00000000: 2d1f 763e 7ef9 633d e0c2 a1be 1898 6dbe
00000010: 1955 893e d220 a13d 0972 9b3d 1643 9a3e
00000020: 6572 19be a59a 3bbd d1f4 94be ddee a1be
00000030: 8d49 88be e831 1a3e 4953 ebbd a474 e63a
00000040: 228a 583e 18eb b83d aaa2 99be efa5 403d
00000050: f81b 843d dcf2 84be 0198 a63e 639c 543e
00000060: 0d05 a7be 67a3 b3be c451 2f3e 268c 14be
00000070: 5064 03be b816 babe ba08 c7be 0615 873e
0.2403533 0.055657856 -0.3159399 -0.2320255 0.26822737 0.07867588 0.0759011 0.30129308
-0.14985044 -0.045801777 -0.2909303 -0.3162755 -0.26618615 0.150581 -0.11490495 0.0017582369
0.21146443 0.090292156 -0.30006915 0.047033247 0.06450647 -0.25966537 0.32537845 0.20762782
-0.3262104 -0.35085604 0.17121035 -0.14506587 -0.12831235 -0.36345458 -0.38873845 0.26383227

conv2d_features.0.weight f4 [64, 30, 3, 3]
00000000: c0c2 123d f702 563d 0d39 3c3c 061b 06bd
00000010: 7ee7 34bc 1c02 70bc b7bb 73bd 4715 233d
00000020: 9541 03bd c532 3b3d 1253 8a3d 1a20 04bb
00000030: a4f2 453d 0d92 41bd 178b 2a3d 46e2 7a3d
00000040: bc87 473d 2752 0ebc f38b 073c 2cf1 5d3d
00000050: 1603 d23c 3be5 453b be02 4ebd 6d82 883d
00000060: d0b0 d93c dde4 fc3c b17b a93c 8743 e9bb
00000070: daca a53c 7681 343c 1ee7 1fbb 8250 713c
00000080: 1cbd b5bc bb33 42bd eab4 87bb 12bd 26bd
00000090: 1321 89bd 1565 ccbd 7e2f aabd 2db0 89bd
000000a0: 9fd4 6dbd 8d24 5dbd da69 d9bd 2ddd a5bd
000000b0: 7bf3 66bd 2b72 a43d b5f9 483d 97a2 a33c
000000c0: f5ef 7e3d fe31 5bbc 4dd3 0c3d 68e5 5b3d
000000d0: 18b8 9f3d 68a7 2cbc d360 91bc 00e7 1b3d
000000e0: 694b 553c edab 153c 3213 ad3c e568 463d
000000f0: 51b0 293d 3ddc 033d 3f63 ea3c 129c 14bd
00000100: 69d5 4dbd d916 0f3b fa4c 06bd bb60 11bd
00000110: 3cdf c6bb 2296 d7bc 00fc f83b 8afa 973b
00000120: e214 06bd 0bbd e8bb d879 26bb 3adb a2bd
00000130: 9d6b b6bc 77a6 243d 3e07 223d 1bc2 fcbc
00000140: 5566 90ba 97f6 f93c a40c fb3d c225 c53d
00000150: 237f cc3d f687 183e b490 eab9 829c ef3d
00000160: d4d7 a53d 88b3 c03d 5660 fcbb 8cec bebd
00000170: 53b8 bdbd 1e62 2dbc 938f 91bd 2fa9 95bd
00000180: 02a8 d0bd ab6c 6dbd 43f3 23bd 3a59 153d
00000190: f355 963a 1b10 c43c f164 a33c faee 903c
000001a0: c606 473c b2b8 773b 152a a13c 21f7 093d
000001b0: 6e08 193d e962 903c ce4a 953c f232 0c3d
000001c0: 096c ea3c 00b5 df3c 0de3 a43d 7d90 073d
000001d0: 126c 703d 815c edbb 27d7 50bd d298 93bc
000001e0: e73c f8bc 4be1 6cbc b81e bf39 7c69 a4bc
000001f0: bceb 853c 5721 3cbd 26b6 c13c dddb 8b3d
00000200: 9cb1 2a3d c5ff 813d b1ed d13c 8320 8ebc
00000210: 09bc 8c3d 25bb 94bc 7e94 203d a848 82bd
00000220: ec45 9cbc f29b 863c bd26 0ebd ebe6 8fbd
00000230: 6b6e ba3b f9ce dabc f0c5 8ebd 507c 12bd
00000240: 42e5 c23b c4a0 073d f979 84bc a362 afbc
00000250: 90c9 28bd 182e 8f3c a9b8 b6bc 4c69 023d
00000260: 168b 033d 23e5 eb3b e271 e23c 7454 1ebd
00000270: 2685 30bd aa8b 90bc 947a 9dbc 4d53 b1bc
00000280: 8084 ab3c 737c 6bbc 3358 2c3c 3398 c03b
00000290: 794e 153a fa13 1a3c 1854 37bc b475 933d
000002a0: 86df 0cbc 635b ec3c a209 fabc a806 b33c
000002b0: d000 a43b 90b1 313d 8bb6 693d 48d9 1a3d
000002c0: 60bb 03bb 529d 6e3c 9aef 363d e46b 863c
000002d0: 8079 00bc efa4 a83c 9fdc 013d de02 7cbc
000002e0: 4a81 59bc e896 0a3d 86bd 573d 747a 0b3c
000002f0: 7759 05bd 63ae 11bd 1c03 bc3c f9a9 d83b
00000300: 32d5 6d3c 237a 233c 32b5 2b3d 7b6f c83c
00000310: b53d 4739 afa4 1b3d 5026 323c ffc6 2cbd
00000320: b1a9 cc3c 273b 82bd 9dfa 3e3d ef05 de3c
00000330: e8e1 32bd 636d 823b d1c4 153c 1241 41bd
00000340: dbb0 e3bb 6c6a cbbc bcaa 763c 4f6c 0dbd
00000350: 9083 64bc d006 25bd 5b54 50bd b43a a93b
00000360: 51a1 5d3c d046 933d e5d2 9c3c e76b 61bc
00000370: 47ba d43c b45c cebc 3711 1bbc 4762 af3c
00000380: 6f92 babc 5b44 10bd 31b7 f7bc ec95 9fbd
00000390: cd78 efbc 583e ecbc cb5e 95bd 3d0e f2bc
000003a0: 4a9f 20bd 7bd5 41bd badd 193c 73f8 9fbd
000003b0: 8cca 4c3c 77d1 e6bc 56ec 3cbd 608b ea3c
000003c0: 7574 e53b eff7 e43c e7b1 55bb 3ed6 58bd
000003d0: 22f3 37bd d5fb 78bc 1395 c2bc a08e 76bd
000003e0: 560d d73c 403c 453c da2e 41bc 1d5d d2b8
000003f0: 92a3 ecbb c015 a33d d947 39bd b8ca d53b
0.03583026 0.05224892 0.011488211 -0.032740615 -0.01104152 -0.01464894 -0.05950519 0.039815214
-0.032044966 0.045702714 0.06754126 -0.0020160736 0.048327103 -0.047258426 0.041636553 0.061250947
0.04871343 -0.008686579 0.008273113 0.054185078 0.025636237 0.0030196446 -0.050295584 0.06665502
0.026573569 0.03087085 0.020688863 -0.0071186456 0.020238329 0.011017194 -0.0024399231 0.014728667
-0.022184901 -0.047412615 -0.0041414397 -0.040707655 -0.066957615 -0.09980217 -0.0830984 -0.06723056
-0.0580641 -0.053989936 -0.10615893 -0.080988266 -0.056384545 0.08029588 0.049066264 0.01997499
0.06224056 -0.013378618 0.0343812 0.053685576 0.07798785 -0.01053796 -0.017746365 0.038062096
0.013018467 0.009135229 0.021127317 0.04843988 0.041427914 0.032192457 0.028611777 -0.036281653
-0.050252352 0.0021833687 -0.032788254 -0.03549264 -0.006069092 -0.026316706 0.0075984 0.004638021
-0.03273476 -0.007102614 -0.0025402214 -0.079519704 -0.02226811 0.040197816 0.039557688 -0.030854275
-0.0011016825 0.030513091 0.122582704 0.09626342 0.09985187 0.14895615 -0.0004473977 0.11699773
0.080978066 0.09409243 -0.007701914 -0.093224615 -0.09263673 -0.010582475 -0.07107463 -0.0730766
-0.10188295 -0.057964962 -0.040026914 0.036462046 0.0011469707 0.023933461 0.019945594 0.017692078
0.012147611 0.0037799296 0.019673387 0.033682946 0.037361555 0.017625289 0.018224146 0.034228273
0.028615968 0.027307987 0.08051119 0.03309678 0.058696814 -0.0072436933 -0.050986435 -0.018017206
-0.030302478 -0.014458011 0.00036453246 -0.02006983 0.016347758 -0.045930233 0.023646425 0.06829045
0.041673288 0.06347612 0.025626035 -0.017349487 0.06871802 -0.018155644 0.039204113 -0.06361514
-0.01907631 0.016431782 -0.034704912 -0.07026466 0.0056894324 -0.02671002 -0.06971347 -0.035763085
0.00594774 0.033112302 -0.016171442 -0.021409338 -0.04120785 0.017478034 -0.02230485 0.0318387
0.032115065 0.007198946 0.027642194 -0.03865476 -0.04309573 -0.017644722 -0.019223489 -0.021646166
0.020937204 -0.014372933 0.010519075 0.0058775186 0.0005695592 0.009404177 -0.011189483 0.072001845
-0.008598214 0.02885217 -0.030522171 0.02185376 0.0050049797 0.043382227 0.057058852 0.03780487
-0.0020100698 0.014563875 0.044662096 0.016408868 -0.007841468 0.020586459 0.03170454 -0.015381543
-0.013275454 0.03383532 0.052670978 0.008513082 -0.032556023 -0.0355667 0.022950701 0.006612059
0.014516162 0.00997785 0.04192085 0.02446722 0.00019001107 0.03799885 0.010873392 -0.042181965
0.024983259 -0.06358939 0.046625722 0.027102439 -0.043672472 0.003980325 0.009141163 -0.047181197
-0.006948573 -0.02483102 0.015055355 -0.03452712 -0.013947383 -0.0402897 -0.050861698 0.0051644687
0.01352723 0.07191241 0.019143531 -0.013758636 0.02596773 -0.025190689 -0.009464554 0.021409167
-0.022774903 -0.03522144 -0.03023872 -0.07792267 -0.029232407 -0.028838322 -0.07293471 -0.029547805
-0.03921441 -0.04732273 0.009391243 -0.0781106 0.012499463 -0.028176052 -0.046123825 0.028630912
0.007002408 0.027950255 -0.0032607259 -0.052938692 -0.044909604 -0.01519676 -0.023752725 -0.06019461
0.026251476 0.0120382905 -0.011790955 -0.00010030924 -0.0072216475 0.07963133 -0.045234535 0.00652441
