src/res/GGCL/guided_contra_cross_transformer/Pavia/20/use unlabel same time ss/_1710687217.pth (torch, 266710 bytes, 37 tensors)

pixel_pos_embedding f4 [1, 170, 32]
000000 df 2a bf bd 46 69 33 bf f3 5f da 3f 7d 99 f6 bf
       -0.09334349 -0.7008251 1.7060531 -1.9265591
000010 7a 71 45 bf 75 4e 3d bf 4d a2 16 be 42 d8 52 be
       -0.77126276 -0.7394784 -0.1471035 -0.20590308
000020 b7 1c 49 3f 48 e4 3b bf 19 44 71 3f 3a 92 94 bf
       0.7855944 -0.73395205 0.94244534 -1.1607125
000030 98 c2 be bf 5a 3b 7a 3d 2d 22 9f 3f 68 d3 d9 be
       -1.4903135 0.06109176 1.2432305 -0.42544103
000040 f6 03 0b c0 c5 85 9d bf 81 32 29 be 14 54 63 bd
       -2.1721168 -1.2306448 -0.16523172 -0.055500105
000050 3b f1 d0 be c8 8c eb 3e 2b 29 e3 3e 5a e2 14 3f
       -0.40809044 0.46005845 0.44367346 0.58157885
000060 ce 76 e0 bf 0a 52 a2 be 42 86 1a 3f ed ef 74 be
       -1.7536256 -0.31703216 0.6036111 -0.2391965
000070 e2 e0 a5 be 68 19 25 bd 74 f7 00 40 be 48 9e bf
       -0.32398134 -0.040307432 2.0151033 -1.2365949
000080 58 eb b1 bf 15 19 58 bf 6f 81 0d bf b1 33 a7 3f
       -1.3899946 -0.8441327 -0.55275625 1.306265
000090 5f 98 4c 3f f2 7d b4 3e 85 06 a1 3f 5a 52 35 3f
       0.7992 0.3525234 1.2580115 0.70828784
0000a0 5c 8d 40 bf 5a 61 a2 3e de f3 b2 bf 13 a3 d8 bf
       -0.752157 0.31714898 -1.3980672 -1.6924766
0000b0 e4 b9 a2 be ea 88 fd 3b 21 c6 7d 3f 56 d3 3b 3e
       -0.31782448 0.0077372687 0.99130446 0.18342337
0000c0 c5 f2 ab be 57 70 3d 3e 69 70 1c 3f a9 41 db 3e
       -0.33583656 0.18499885 0.61109024 0.42823532
0000d0 2f 0a 19 bf eb 43 bd bf 03 5f 1d bf 72 45 7e 3f
       -0.59781164 -1.4786352 -0.614731 0.99324715
0000e0 da af c2 3f b4 5d 7c bf 9e d4 1a 3f 33 49 3f 3e
       1.5209916 -0.9858048 0.6048068 0.18680267
0000f0 e0 f3 80 be 08 da cf bf 89 bb 49 bf 09 39 54 bf
       -0.25186062 -1.6238413 -0.7880178 -0.8289953
000100 cf 65 57 bf 1c df ee 3c 6c 34 64 be 2e ed 0b 3f
       -0.8413972 0.029159121 -0.22285622 0.5465878
000110 a0 fa 89 bf e2 c0 89 be db 63 eb 3f 9d a3 bf be
       -1.077961 -0.2690497 1.8389848 -0.37429515
000120 c2 5b f5 3e 70 ac 55 bf a3 a2 a3 3f 82 a5 48 3f
       0.47921568 -0.83466244 1.2784008 0.78377545
000130 15 c8 5e 3d 98 85 4b bf 41 e2 dc bd ce 34 6b be
       0.05439003 -0.7950072 -0.10785342 -0.22969362
000140 da 58 59 3f e2 d7 b4 3e 59 05 e2 be 95 06 2a be
       0.849012 0.35320956 -0.44144705 -0.16604073
000150 08 6d c1 3e 0d 3c 10 3f 60 0d d2 bf 15 97 a5 be
       0.37778497 0.5634163 -1.6410332 -0.3234183
000160 8f 5d 57 3e 50 c9 b8 bf 37 4f e7 be dd 2e 80 3d
       0.21031784 -1.4436436 -0.45177624 0.062589385
000170 dc ea 17 40 0e 9f 18 40 17 0c a4 3f 33 3f 34 bd
       2.3737097 2.384708 1.281619 -0.044005584
000180 04 bf 91 3f ac 65 8b 3f d5 b8 04 bf 10 a9 79 bf
       1.1386418 1.0890403 -0.5184453 -0.97523594
000190 aa 24 47 3e 8f c1 60 3f 79 9c a3 bf 69 02 52 be
       0.1944758 0.87795347 -1.2782127 -0.20508732
0001a0 ab 5b 3c bf ec f4 08 be 97 97 8e 3f c0 55 d3 3e
       -0.73577374 -0.1337468 1.1140012 0.4127636
0001b0 20 ee ea bd 4c ce 05 3f 2f 15 d9 3f 41 41 2e bf
       -0.114712 0.5226791 1.695959 -0.6806832
0001c0 1c 14 41 bf d9 02 80 3f 0f da 5b 3e b6 45 1d 3f
       -0.7542131 1.0000869 0.21469902 0.61434495
0001d0 a7 1d a8 3f fa fb 17 3f 8a a6 3d 3f 5a 6a f4 3f
       1.3134049 0.5936886 0.74082243 1.9094956
0001e0 0b d6 90 3f 2a db e6 3e e0 fd 94 bf b0 66 e9 bf
       1.1315321 0.45089084 -1.1639977 -1.8234463
0001f0 9d c6 11 bf 88 e6 4e 3f 93 86 f8 3f 38 90 9a 3f
       -0.56943685 0.8082051 1.9416069 1.2075262
000200 6b 40 b5 3e 86 a2 d0 bf 39 8c 40 3f 6b 7a 65 bf
       0.3540071 -1.6299598 0.7521396 -0.8963992
000210 47 ec 91 be 1b 82 28 be b6 96 4d bf 65 9a 60 3f
       -0.28500578 -0.16455881 -0.8030809 0.8773559
000220 a3 d3 f4 3f 1d 89 98 bf 4c 17 80 be 98 78 c2 3e
       1.9127086 -1.1916844 -0.25017774 0.3798263
000230 ca 3d c3 bd 33 fb 02 bf c1 68 29 bf 2f 58 04 3f
       -0.0953327 -0.5116455 -0.66175467 0.5169706
000240 08 9e 7b 3f d9 3b 9a bf 2f 4f a9 bf 74 01 fb bf
       0.9828801 -1.2049514 -1.322729 -1.9609818
000250 bb cc 39 3e 53 2d 93 3c 16 fb 72 bf d6 2f f6 be
       0.18144505 0.017965948 -0.94914377 -0.4808337
000260 c3 54 65 3f ef a4 80 bf da e8 9d 3f ce 4e 3c 3f
       0.8958246 -1.0050334 1.2336686 0.73557746
000270 95 28 13 3e 7a 01 98 bf 09 f7 d3 be 0f 1c 09 bf
       0.1437095 -1.1875451 -0.4139941 -0.5355844
000280 25 e5 95 be c7 8b 78 3f 94 46 fd 3f 78 3e a2 3f
       -0.29276386 0.97088283 1.9787164 1.2675314
000290 c7 de 14 3e 96 f6 87 3f db 0a 9f 3f 10 cd ec bf
       0.14538108 1.0622127 1.2425188 -1.850008
0002a0 ee e7 9e 3d 6d d6 bc bf b9 ff a6 3f ad ca 21 bf
       0.07759081 -1.4752938 1.304679 -0.63199884
0002b0 12 2a 78 3b c6 cb c9 3e 3e 27 33 bf 0d be 57 bf
       0.0037866873 0.3941328 -0.69981754 -0.8427437
0002c0 98 85 30 bf f5 1a a8 3f 45 a0 d8 3e 03 1b 1e 3f
       -0.6895385 1.3133227 0.42309776 0.61759967
0002d0 4d 62 9a 3d 40 19 b9 3e 98 54 9a 3e a4 24 ea be
       0.07538281 0.36152077 0.30142665 -0.4573108
0002e0 de c0 93 3e cc af a8 bf 3e db c0 3e 7b ef fb 3d
       0.28858083 -1.3178649 0.3766727 0.12301537
0002f0 06 ef 16 3e cb b0 55 3f 09 09 5d 3f f6 1e da bf
       0.14739618 0.8347289 0.8634191 -1.7040699
000300 82 31 8c 3e 56 2f 4f 3f 16 54 6f 3f 30 20 90 bf
       0.2738152 0.80931604 0.9348768 -1.1259823
000310 92 2e a2 be aa ee 5f 3f 1b c6 0a bf 1c cf c3 bf
       -0.31676155 0.8747355 -0.54208535 -1.529758
000320 99 31 2b 3f 01 8d b2 be c3 07 1f bd 52 75 54 3e
       0.66872555 -0.34873202 -0.03882576 0.20747879
000330 06 a3 de 3f 64 e8 c4 bf a5 a7 33 be f6 72 82 3f
       1.7393501 -1.538342 -0.1754442 1.0191333
000340 57 74 5c 3f 92 e9 36 3f 43 1d d1 be 59 a3 d7 3e
       0.8611502 0.7145015 -0.40842637 0.42116812
000350 1f 5a da 3c d6 03 cf 3e fb 3f 3a bf 45 9c be bd
       0.026654301 0.40432614 -0.72753876 -0.0930715
000360 85 53 bf bf 9f a3 e0 3e 47 a6 81 be 1e bc bb 3e
       -1.4947363 0.43874833 -0.25322172 0.3666696
000370 7f f9 c4 3e 2f a2 df bf d3 ec a3 bf 9a 67 17 bf
       0.384716 -1.747137 -1.2806648 -0.5914246
000380 42 f4 44 bf 2e 67 c2 be 69 5a d7 be bd df c4 bf
       -0.7693521 -0.37969345 -0.42061165 -1.538078
000390 37 8a d5 3f 1e f7 88 bf e3 f0 7a 3d 46 67 2b 3e
       1.6682805 -1.0700414 0.061264884 0.16738614
0003a0 2d 9a 78 bf ee 8c c4 3e b7 e7 80 3f f9 f7 aa 3e
       -0.97110254 0.3838877 1.0070714 0.33392313
0003b0 b3 ff 6f bf b2 fe 59 be 45 b3 c7 bc 5e 4e 91 3d
       -0.9374954 -0.21288565 -0.024377475 0.070950255
0003c0 8b e1 10 bf d4 27 d9 bf a3 5e 42 bf d5 cf 46 bf
       -0.5659415 -1.696528 -0.75925654 -0.77660877
0003d0 2d 62 ea 3f ad 4c 51 3f 87 79 04 bf bb ce 5d 3c
       1.8311211 0.8175762 -0.51747936 0.013538058
0003e0 02 88 b6 3f 87 cc 4b 3f bf b5 16 3f 3c 27 12 bf
       1.4260256 0.7960896 0.5887107 -0.57091117
0003f0 ae 13 bd 3f de 24 04 3e 49 87 11 40 36 91 03 bf
       1.4771631 0.12904689 2.2738822 -0.5139345

cls_token_pixel f4 [1, 1, 32]
000000 fd 17 d7 3d cf d7 2c 3f 22 61 02 bf 1b 4d c9 3f
       0.10502622 0.675168 -0.5092946 1.5726656
000010 cd 73 58 3f 49 03 c2 3f cc 02 8b 3d 0b 28 df 3f
       0.845517 1.5157253 0.06787643 1.7434095
000020 72 90 b4 3e 03 71 8e be a3 f6 c6 3f bd f2 3a 3f
       0.35266453 -0.27820596 1.5544018 0.7302664
000030 ae 7d 9c 3f ee 81 75 3d 85 4a c8 bf 1f bf 86 3f
       1.2225854 0.059938364 -1.5647742 1.0527076
000040 d7 12 67 be 82 96 f5 be 48 04 55 3f 15 ed 3d 3d
       -0.2256578 -0.4796639 0.8320966 0.046368677
000050 07 78 00 3f c1 c4 90 3d b9 14 b4 3e 30 cc bd bf
       0.5018315 0.07068778 0.3517206 -1.4827938
000060 2e af 61 bf 99 d1 42 3f ba f0 df be 1c 68 0b 3f
       -0.8815793 0.7610107 -0.43738347 0.54455733
000070 bc cf 06 bf dd 3a ed 3f fa 15 85 3e 3e 90 95 bf
       -0.5266073 1.8533589 0.2599333 -1.1684644

pixel_patch_embedding.weight f4 [32, 30]
000000 34 da d7 3d bc 91 7b 3d a8 92 6d 3d 60 0a e0 3d
       0.10539666 0.06141828 0.05800119 0.10939479
000010 c4 17 22 3e 40 30 62 3b 6a eb 12 3e e0 42 a8 bd
       0.15829378 0.0034513623 0.14347616 -0.082158804
000020 a5 24 2c be 5c 2d af 3d e0 6d 1e 3d 44 f1 1f be
       -0.16810854 0.085535735 0.038679004 -0.1561938
000030 a4 76 10 3d b4 04 1e 3e 04 bf b4 3d 8d 20 84 bd
       0.035269395 0.15431482 0.08825496 -0.06451521
000040 b1 98 13 be 90 c9 f3 3d ba d8 38 3e 7f e3 90 bd
       -0.14413716 0.11903679 0.18051425 -0.070746414
000050 c4 ac a2 3d b9 0c 8d bd b4 e2 b4 3d 08 cd 27 3e
       0.07943109 -0.06887192 0.08832303 0.16386807
000060 3a b1 87 bd d3 75 d9 bd 28 80 99 bc 97 b8 bd bd
       -0.066256 -0.10618176 -0.018737867 -0.09263723
000070 82 32 e6 bd 14 f7 c3 3d 93 0e 35 be 22 c4 20 3e
       -0.11240102 0.09568611 -0.17681341 0.15699819
000080 d1 cd 1b be 98 8f f5 3d 00 f9 11 3b b9 50 b4 bd
       -0.15215231 0.11990279 0.002227366 -0.08804459
000090 c0 e1 9d bb 58 6c 77 bd 04 3e 13 bd a8 d5 f9 3d
       -0.0048181713 -0.06040606 -0.035947815 0.12198955
0000a0 98 8c e5 3d a5 d5 8c bd 09 cd df bd a4 15 06 be
       0.11208457 -0.06876687 -0.10927779 -0.13094193
0000b0 ec 4d ca 3d 70 57 1d be 00 7b f8 3b 94 c7 2c 3e
       0.09878144 -0.15365386 0.007583022 0.16873008
0000c0 00 ac 9c bd 10 92 95 3c 0e 41 00 3e 9f c2 1f be
       -0.07649994 0.018258125 0.12524816 -0.15601586
0000d0 34 ce 1d 3e ae ed 15 be ac 9e 30 be 5a 55 f6 bd
       0.15410691 -0.14641449 -0.17248029 -0.12027998
0000e0 f8 ac f7 bc 34 c4 fc bd 70 34 fc 3c 60 db 31 be
       -0.030233845 -0.1234211 0.030786723 -0.17368841
0000f0 dd 1d 28 be 18 70 e8 3d 18 98 dd bd 10 5a e7 bc
       -0.16417642 0.11349505 -0.10820025 -0.028241187
000100 e9 61 12 be 4a 81 ce bd c0 59 fb bb a8 cf b1 bc
       -0.14295162 -0.10083254 -0.007670611 -0.021705464
000110 98 96 bc bd 54 81 ae 3d 90 7a 09 3c 06 92 0b be
       -0.09208411 0.08520761 0.008391038 -0.13629922
000120 88 cb 06 be 50 00 1b 3c 2d d7 f3 bd 1a 39 c9 bd
       -0.13163579 0.009460524 -0.11906276 -0.098253444
000130 50 5f ae 3d 0c ed cf 3d 3c 9e 37 be 74 15 6b 3d
       0.08514273 0.10152635 -0.17931455 0.057393506
000140 c4 72 58 bd f6 39 01 be 00 0a a9 3d b4 2d 5e bd
       -0.052843824 -0.12619767 0.082538605 -0.054242805
000150 d2 d6 2c be c6 e6 27 3e a0 35 27 3c 1f b6 f4 bd
       -0.16878822 0.16396627 0.010205656 -0.11948799
000160 a0 01 d5 3d d8 0b a4 3d 2c 99 50 bd 00 45 b1 bb
       0.104007006 0.080100715 -0.050927326 -0.005409837
000170 08 b9 39 3e 24 a0 04 be 14 87 62 3d f6 a2 f8 bd
       0.1813699 -0.12951714 0.0553046 -0.12140457
000180 a4 ac 0f bd 22 e6 e4 bd 97 09 b9 bd ca 10 0f 3e
       -0.035076752 -0.11176707 -0.09035032 0.13971248
000190 90 c5 04 3d f8 86 39 3d e0 9c 79 bc 6e 6c 24 3e
       0.032414973 0.04529473 -0.015235156 0.16056988
0001a0 7a 50 87 3d 77 c2 0d be 0c 5c c1 bd a4 b3 60 bd
       0.066071466 -0.13843714 -0.09441385 -0.05485882
0001b0 76 c3 9c bd a0 f3 30 3e 8c 76 71 3d 98 79 b4 bc
       -0.07654469 0.17280436 0.058950946 -0.022030637
0001c0 a0 0a 13 3d 68 08 24 bd 00 e1 12 be e1 83 84 bd
       0.035898805 -0.04004708 -0.14343643 -0.064704664
0001d0 a1 1e ed bd 1f 68 c5 bd 94 87 76 3d 19 93 94 bd
       -0.115781076 -0.09639 0.06018789 -0.07254619
0001e0 40 3f 71 bc 84 f2 cc bd 46 14 36 3e 58 ee f0 bc
       -0.014724553 -0.10007194 0.17781171 -0.029410526
0001f0 80 44 5c bb 74 99 52 bd b4 52 7c bd 40 7d b9 bd
       -0.0033610165 -0.051415876 -0.06160231 -0.09057093
000200 78 25 e9 3d 4e 88 d0 bd f4 a0 4d bd c8 22 8a bd
       0.113841 -0.10182248 -0.050202325 -0.06744915
000210 8c 42 06 bd b8 d4 f2 bc 30 27 b9 bc c0 17 1a bd
       -0.032778308 -0.029642448 -0.022601694 -0.037620306
000220 04 aa 07 bd 9c 50 b3 3d 88 aa b9 3d 48 dc eb 3d
       -0.033121124 0.087556094 0.090657294 0.11516625
000230 a0 ae 69 bd 91 ac f0 bd b8 a3 f7 3d f2 f6 19 be
       -0.0570513 -0.117516644 0.12091774 -0.15035608
000240 2c d2 b7 3d 86 86 33 3e 58 e4 05 3e b5 67 34 be
       0.08975634 0.17531785 0.13075387 -0.17617686
000250 86 ff 02 be dc 6f b9 3d de de b1 bd 3c bd 32 be
       -0.12792787 0.090545386 -0.08685087 -0.17455
000260 10 dc 37 be a6 0b a5 bd 90 6a bc 3d b4 42 c6 3d
       -0.17955041 -0.080588624 0.09200013 0.09680691
000270 28 15 54 bd 94 7a 16 3e b8 bb b9 3c 41 e8 17 be
       -0.05177799 0.14695197 0.02267252 -0.14834692
000280 a8 38 15 3e b1 ff 1d be e4 70 f4 3d 90 04 58 3c
       0.14572394 -0.1542957 0.11935595 0.013184682
000290 78 6d be 3d 58 60 42 3d bc 0a 14 3e f8 70 e4 3c
       0.09298223 0.04745516 0.1445722 0.027885899
0002a0 20 1f c1 3b c8 24 5d bd 08 ae ab bc 88 4a 73 bd
       0.005893603 -0.053990155 -0.020957008 -0.05939725
0002b0 31 3f 3a be a4 35 67 bd 02 df 03 3e e0 c3 fd 3b
       -0.18188168 -0.05644764 0.1287804 0.0077442974
0002c0 88 57 be 3d a4 5f 47 bd 26 76 2b be 6c 7b 60 bd
       0.09294039 -0.048675194 -0.16744289 -0.054805204
0002d0 d0 dd 51 3c 50 0c 85 3d c0 66 5b bd 4c 17 14 bd
       0.012809232 0.06496489 -0.053564787 -0.03615503
0002e0 a2 18 20 3e 3f 51 9b bd a4 53 68 bd 30 2f e6 3c
       0.15634397 -0.07583856 -0.05672039 0.028098673
0002f0 90 f2 ff bd 9c 67 0f be 20 48 dd 3d 62 c3 2b be
       -0.12497437 -0.14004368 0.108047724 -0.16773751
000300 54 74 15 3e c6 20 23 be ac 97 14 bd e4 9d 1f 3e
       0.14595157 -0.15930471 -0.036277458 0.15587574
000310 9a f1 24 be 38 a7 38 be 84 dd ea 3d f0 2e fb 3c
       -0.16107789 -0.18032539 0.11468032 0.03066203
000320 57 88 c3 bd 40 ab 43 3c dc f8 d0 bd 20 76 2e 3e
       -0.09547489 0.011942685 -0.10203716 0.17037249
000330 f0 54 00 3e d0 28 66 bc 30 97 36 3e 58 c6 07 be
       0.12532401 -0.014047816 0.17831111 -0.13259256
000340 da 49 30 be 08 88 eb bc 18 47 91 3d 12 f3 25 be
       -0.17215672 -0.028751388 0.07093638 -0.16206005
000350 58 39 00 3e 98 d4 b1 3c e0 7d 45 bd 60 7b 05 be
       0.12521875 0.021707818 -0.048215747 -0.13035345
000360 d1 7c 15 be a4 61 c7 3d 90 dc a2 3c 02 7f 16 be
       -0.14598395 0.0973542 0.019880563 -0.14696887
000370 1c 56 cc 3d c0 cd 6f bd 70 89 6c bc 6c 00 34 3d
       0.099773616 -0.058545828 -0.0144370645 0.043945715
000380 b4 0d a4 3d 40 33 1b be b8 8c 29 3e 96 8a 07 3e
       0.08010426 -0.15156269 0.16557586 0.1323646
000390 45 d0 22 be 68 9c e7 3d fc 5a 2c 3e 74 7f 45 bd
       -0.15899761 0.11309129 0.16831583 -0.048217252
0003a0 2d 94 39 be 57 46 07 be 00 cf 4f bc 0c da 7b 3d
       -0.18122931 -0.13210426 -0.01268363 0.061487243
0003b0 a8 a9 a5 3c ca 6d f8 bd de b7 ff bd bc 46 26 3d
       0.0202225 -0.121303156 -0.12486242 0.0405948
0003c0 88 68 15 3d 42 a1 e5 bd 6b 3d 0e be e1 a3 ee bd
       0.036476642 -0.11212398 -0.13890617 -0.11652351
0003d0 f4 ae 1d bd 1a ed 29 3e f1 2b 9e bd 00 10 7c bc
       -0.038496926 0.16594353 -0.07723225 -0.015384674
0003e0 b8 3f f6 bc 70 a3 29 3d 78 bd 70 bd 54 d5 d6 3d
       -0.03005968 0.04141563 -0.05877444 0.10489908
0003f0 f2 3e 19 3e 74 00 ca 3d 28 cc a5 3c f2 b6 f9 bd
       0.14965418 0.09863368 0.02023895 -0.12193097

pixel_patch_embedding.bias f4 [32]
000000 a8 e4 f6 3c a4 ee 29 3e 48 0e 26 bd fc cc 1d be
       0.030138329 0.1659494 -0.040540963 -0.15410227
000010 50 16 ad 3d f9 b1 82 bd 44 d0 c8 3d 10 d6 27 3e
       0.084515214 -0.06381602 0.098053485 0.16390252
000020 fa f7 cb bd 58 2d 93 3c b8 62 39 3e 40 ac ef 3d
       -0.09959407 0.017965958 0.18104064 0.11702776
000030 44 23 ab 3d 18 d3 aa bd d0 17 2d 3e 94 da 31 3d
       0.08356336 -0.08341044 0.16903615 0.043421343
000040 38 a1 0a be b0 8d 07 bc 6d ef 38 be a0 d3 9f bb
       -0.13538063 -0.008273527 -0.18060084 -0.0048775226
000050 5c 13 f8 bd 2c b9 44 3d 0a 94 14 be 7c 17 8a bd
       -0.121130675 0.048028156 -0.14509597 -0.067427605
000060 0c 6b a1 3d b8 0c e8 3d 68 1d c4 3d 50 d2 2e 3e
       0.07881746 0.11330551 0.09575921 0.17072415
000070 74 6c 0a be 20 6f e6 bb ea 33 81 3d 80 58 32 3e
       -0.13517934 -0.00703229 0.0630873 0.17416573

local_trans_pixel.layers.0.0.fn.norm.weight f4 [32]
000000 1a 09 92 3f a4 a1 90 3f 75 c2 93 3f 2b 16 8f 3f
       1.1409028 1.1299329 1.1543719 1.117864
000010 86 35 98 3f 96 7a 92 3f 82 25 a8 3f a9 7c 91 3f
       1.1891334 1.144366 1.3136446 1.1366168
000020 15 eb 8e 3f d3 0f 94 3f 42 cf 8d 3f b1 c2 90 3f
       1.1165491 1.1567329 1.1078875 1.1309415
000030 b9 f4 95 3f d7 f0 99 3f cb e8 95 3f 1a b3 97 3f
       1.1715308 1.2026623 1.1711668 1.1851532
000040 0d 98 92 3f 65 61 90 3f 4a 55 93 3f 49 b9 95 3f
       1.1452652 1.1279722 1.1510403 1.169717
000050 a2 50 91 3f 27 10 8c 3f 99 03 8b 3f 58 a0 8e 3f
       1.1352732 1.0942429 1.0860473 1.1142683
000060 e3 6e 96 3f 64 15 8d 3f 65 c3 99 3f b5 24 93 3f
       1.175259 1.1022153 1.2012755 1.1495577
000070 f5 12 8b 3f 22 2b 8f 3f 46 37 91 3f b1 a4 91 3f
       1.086516 1.1185038 1.1344993 1.1378385

local_trans_pixel.layers.0.0.fn.norm.bias f4 [32]
000000 28 54 ad bd f6 42 59 bd 44 6e 30 3d 3f 14 2f bd
       -0.08463317 -0.053042375 0.043073907 -0.042743918
000010 f6 aa 3d 3d b8 2b a4 3d 9f 28 66 3e 55 64 c1 3a
       0.04630562 0.08016151 0.22476433 0.0014754633
000020 c0 4e 1f 3e 11 d6 e2 bd b5 23 0a 3e 0c 8e 8e bd
       0.15557384 -0.11075986 0.13490184 -0.06960687
000030 9d aa 11 be 19 b6 07 be 2a 6d 49 be 54 ba 36 3e
       -0.1422524 -0.13253058 -0.19670549 0.17844516
000040 19 1a 01 be 41 9b 5d be 63 b3 30 3b 29 b2 69 3e
       -0.12607612 -0.21641256 0.0026962392 0.22821869
000050 54 e5 91 be b1 30 1e 3e c9 1a a3 3d 4c 07 aa 3d
       -0.28495276 0.15448262 0.07964093 0.08302173
000060 2d 44 2b be 7c 4d c0 3d bb 24 76 be 95 4c 8d 3d
       -0.16725226 0.09389779 -0.24037449 0.068993725
000070 98 ff 8a bd 38 43 18 3e a1 58 6c 3e e3 59 02 3c
       -0.06787032 0.14869392 0.23080684 0.007956001

local_trans_pixel.layers.0.0.fn.fn.to_qkv.weight f4 [768, 32]
000000 65 05 36 bd 75 52 2d 3e a7 a1 59 3e 74 b4 ea bd
       -0.04443874 0.16925986 0.21253072 -0.114602
000010 f4 50 3e bd 6d c6 4c 3e 40 5b fb bd 37 91 0a be
       -0.04646392 0.19997568 -0.12273264 -0.13531958
000020 bd d7 eb bd 3c 33 42 be d8 01 4b 3e ed 22 4c bc
       -0.11515758 -0.18964857 0.19824922 -0.012459499
000030 cf 54 19 be d3 b0 d6 bd d0 05 2b 3b 06 a0 f7 bd
       -0.14973758 -0.10482945 0.0026095994 -0.12091069
000040 93 73 7f bd dc 66 11 be 96 3f 41 bd 57 55 2c 3e
       -0.06236608 -0.14199394 -0.04717978 0.1682943
000050 d8 22 23 3d 5a d0 01 3e 0f 00 26 be 31 39 58 3d
       0.03982815 0.12677136 -0.1621096 0.052788917
000060 a5 1c 4f bd 77 69 7e 3c 3c 04 a0 be b0 fb 8b 3e
       -0.050564427 0.0155280745 -0.3125323 0.2734046
000070 9e 27 b5 bd 3f af a9 bd b9 fd e2 bc 33 ca 98 3c
       -0.08845447 -0.08285379 -0.027708875 0.018651104
000080 ff 3b 8d 3d 26 63 1e 3e ea d5 15 be 36 df ce 3d
       0.06896209 0.1546751 -0.14632383 0.10101168
000090 8f 48 d2 3b 60 e4 21 bd 4f cf ed 3d 83 32 49 3e
       0.006417341 -0.039524436 0.116118066 0.19648175
0000a0 bc 52 c8 bd b7 65 f8 3d dc b3 c1 bd 61 e0 43 bd
       -0.09781405 0.121287756 -0.094581336 -0.047821406
0000b0 aa 14 62 3e e8 62 68 bc 64 c2 18 3e be 2b b3 bc
       0.22078195 -0.014183737 0.14917904 -0.021871444
0000c0 55 5e a2 bc 72 9f 0c bc 65 64 5c 3b eb 28 45 be
       -0.019820372 -0.008582937 0.0033629176 -0.1925389
0000d0 9b 78 e4 3d 3f f7 dc 3b ae 42 1b be c4 76 2e 3e
       0.11155816 0.006743341 -0.15162155 0.17037493
0000e0 85 81 5d 3d 94 c0 5d 3e 8a 17 29 bd 8e e1 19 be
       0.054078598 0.21655494 -0.041282214 -0.15027449
0000f0 af bd 15 3e 54 10 6c bd 30 06 0e be 7c e8 93 3c
       0.1462314 -0.05763276 -0.13869548 0.018055193
000100 e5 c6 73 3e d7 4c 44 3e 8b 43 56 bd 97 6c 3d 3e
       0.23806341 0.19169937 -0.052310508 0.18498455
000110 31 9f 50 be e3 66 1d be 04 85 e3 bd ca 93 0d be
       -0.20373227 -0.1537128 -0.11109355 -0.13825908
000120 c9 92 78 bc 47 07 34 3e 49 d5 59 be 3c b9 7b 3e
       -0.015171715 0.17580901 -0.21272768 0.2458238
000130 84 9c 64 3e c9 a3 ab 3b 60 78 a6 bd 1e 5d 85 ba
       0.22325331 0.0052380306 -0.081284285 -0.0010174846
000140 0d df c7 3c b2 0a 17 3e a7 cc 4e be 5c 4e 4b be
       0.024398351 0.14750174 -0.20195256 -0.1985411
000150 65 9a 55 be a8 dd 62 bc 6b b8 d5 bd 93 60 ae 3d
       -0.20859678 -0.013846792 -0.104355656 0.08514514
000160 7d bf 2a 3e 67 4c 4d be 0c e4 a3 3e 24 6c 8b be
       0.1667461 -0.20048676 0.32009923 -0.27230942
000170 0b 01 73 3e 50 2b 61 be 87 00 4c bd c7 1b 33 3d
       0.23730867 -0.21989179 -0.04980519 0.043727662
000180 a6 91 82 3e 03 e1 cd 3d 4f 36 48 be 21 54 8b 3d
       0.25501746 0.10052683 -0.19551967 0.06803156
000190 fc 0d b1 bc 0f 7c 01 bd 34 cc 90 be 1a fc 41 3e
       -0.021613114 -0.031612452 -0.28280795 0.18943825
0001a0 1d dd cd bc 35 ff 48 bd 3f e8 f7 bd fa 44 27 3e
       -0.02512985 -0.04907151 -0.12104844 0.16334906
0001b0 ee 7e 4a bd 8a 4f 29 3e 7d 58 b8 bd af 22 02 be
       -0.049437456 0.16534248 -0.09001253 -0.12708543
0001c0 5b b8 03 3e 25 e3 65 3d 0c 40 01 bb 1b 05 8a bd
       0.12863295 0.056124825 -0.0019722013 -0.06739255
0001d0 3b 16 bd 3c aa 1b 8f bb 29 99 39 3e bb 14 55 3e
       0.02308189 -0.0043673115 0.18124832 0.2080869
0001e0 e8 3b f2 bd 60 ec d9 3d 49 65 a5 3e 3c 4d f6 3a
       -0.118278325 0.10640788 0.32303837 0.0018791328
0001f0 7c ba d7 bd b6 fe 78 3d 8b 65 ee 3d 58 19 81 3d
       -0.10533616 0.060789786 0.116404615 0.06303662
000200 d4 4b c6 3d 9c 68 67 3e a7 bf d7 bd cb 10 6f be
       0.09682432 0.22598499 -0.10534602 -0.2334625
000210 9a 42 87 3d 63 dc 8b bd 60 25 0c 3f 65 8a 34 be
       0.066045 -0.06829145 0.5474453 -0.17630918
000220 4c 90 27 bc ac c6 0d bd 96 bb f5 bd 41 a5 52 be
       -0.010227274 -0.034613296 -0.1199867 -0.20570852
000230 72 e5 26 3b 1a 45 d2 be 3b 23 dd 3d 73 94 9c 3d
       0.002546635 -0.41068345 0.10797735 0.07645502
000240 61 d4 d6 3c 76 a9 cb bd d8 d5 9d bc 8e 05 53 3e
       0.026224317 -0.099444315 -0.019267008 0.20607588
000250 93 43 e8 3c 00 d3 17 be 88 e0 66 bd 1a ca 2b 3c
       0.028352534 -0.14826584 -0.056366473 0.0104851965
000260 56 cd 4d bc 21 9c 6a be a5 4d ad be 58 21 04 bd
       -0.012561163 -0.22911121 -0.338483 -0.03225836
000270 77 41 8d 3e bc 07 20 3c bb 95 84 bc 37 bd 47 3e
       0.27589008 0.009767469 -0.016184678 0.19505773
000280 47 af 03 bd 26 aa 77 3e 15 3f dc bd 96 2d a5 bd
       -0.03214958 0.24186 -0.107542194 -0.080653355
000290 3b 9c e7 bd c3 7e 16 3e 4c e8 06 bd 31 27 f1 bc
       -0.113090955 0.14696793 -0.03293638 -0.029437633
0002a0 e3 f1 a3 3d e7 a0 bc bd 2a 73 b9 bd 50 48 71 3d
       0.080051206 -0.09210377 -0.09055169 0.058906853
0002b0 db 9a 63 3e c9 fe ab 3e 70 9b 53 3c 35 78 00 be
       0.22227041 0.33592823 0.012915477 -0.12545855
0002c0 34 00 c5 b9 09 5e 38 3e 9a f3 8e bd 54 34 02 be
       -0.0003757492 0.18004622 -0.06980057 -0.12715274
0002d0 0d c8 b8 bd 00 01 6b be 27 0b 12 be 2c 91 8c 3c
       -0.09022532 -0.229496 -0.14262067 0.017159067
0002e0 69 e8 4a 3d d8 75 2f be 0e 22 87 3e 93 72 39 bd
       0.04953805 -0.17134798 0.2639317 -0.045275282
0002f0 ff 08 13 3e bd 1b 56 be a5 b4 5b be 33 d8 f9 bc
       0.143589 -0.20909019 -0.21455629 -0.0304986
000300 dd db a7 bd da 9c 91 be e3 52 ac bc 0b 3c 74 bd
       -0.081962325 -0.2843998 -0.021035617 -0.059627574
000310 0a 1c 56 3e 8f 4e 8d 3e 5c 91 59 3d 32 bd e9 3d
       0.20909134 0.27598998 0.05311714 0.11413039
000320 7c f6 0d be 32 2f 85 3c 2f 8c ec 3c d2 2f 03 be
       -0.13863558 0.016257856 0.028875438 -0.12811211
000330 23 69 8d bb 05 b6 53 be a5 c6 1a be ee 22 45 3e
       -0.004315512 -0.20674904 -0.1511484 0.19251606
000340 bb 0a a8 bc c6 5f 49 be c1 c5 99 3d 52 d1 72 3d
       -0.02051293 -0.19665441 0.07508422 0.059281655
000350 be e4 60 3d ce ef 71 3e 9a 4b 8b 3d cc e4 c6 bd
       0.054905646 0.23626634 0.06801529 -0.09711608
000360 59 2b 4b bb b9 eb 3e 3e bc ce c9 be e6 ba cd 3d
       -0.003100118 0.18644609 -0.39415538 0.10045414
000370 1c 92 0a be 17 fb 0f 3e 9d 4f 63 3e 88 81 9d 3c
       -0.13532299 0.14060627 0.22198339 0.019226804
000380 2f fc 46 3d e8 3d 8b bd e3 25 54 be c9 5e c7 bd
       0.048580345 -0.06798917 -0.20717578 -0.09734876
000390 9c cd 51 3e be dd f7 bd 0c 4d 84 3d 7f 67 c9 3d
       0.2048859 -0.12102841 0.06460008 0.098341934
0003a0 ea 97 aa bd bf 04 c0 3d 14 72 16 be 37 9d 4c 3e
       -0.083297566 0.09375905 -0.14691955 0.19981848
0003b0 bf 04 aa bd 7f fe 14 3e e1 1a 08 bd 4a 27 8b bd
       -0.083016865 0.14550208 -0.03322876 -0.06794603
0003c0 2b ed 11 3e 04 c7 fd 3d 5e 61 cb bc fe 78 f2 3d
       0.14250629 0.12391475 -0.024826702 0.11839484
0003d0 9f 17 86 be 2f bf 16 bd fd c6 3e be e0 ec ec bc
       -0.26189896 -0.03680342 -0.18630596 -0.028921545
0003e0 c4 a5 4e 3e ca 51 cf 3d c0 4e 21 bb 0f 63 9d bd
       0.20180422 0.10123022 -0.002461359 -0.076849096
0003f0 cb 8b 49 3e 49 4d 7b 3d 12 6e fd 3d 41 3e 32 3d
       0.19682233 0.061353 0.1237451 0.0435164

local_trans_pixel.layers.0.0.fn.fn.to_out.0.weight f4 [32, 256]
000000 87 0a a0 3d f5 f0 d5 3c cf 68 95 3c 24 71 07 be
       0.07814508 0.026115874 0.018238453 -0.13226753
000010 b6 e9 57 bd d7 c8 83 bd 58 a2 c2 3d bd 6e 0b 3c
       -0.05271312 -0.064347915 0.09503621 0.008510289
000020 09 b3 97 3c 0d 8f f3 bc 35 d7 e0 3d 12 09 95 3d
       0.018517988 -0.029731298 0.109785475 0.07277121
000030 8c 88 57 3c 72 2f d9 bc 10 d5 b4 3c 46 1b ac bc
       0.013155114 -0.026511882 0.022074252 -0.021009099
000040 9b cb c5 3c 20 cd 84 bb bb f3 e0 3d c8 36 b9 bc
       0.024144938 -0.004052773 0.10983988 -0.02260913
000050 a1 33 d1 3a 42 ef 1c 3d 98 fe 4b 3c 88 82 c0 3c
       0.0015960821 0.03831411 0.012450837 0.023499742
000060 a3 fe 99 bd d5 15 ad bd 8e 16 96 bc 6d 9c 9f bc
       -0.07519271 -0.0845143 -0.018321302 -0.01948377
000070 b7 c1 e4 bc c4 47 5a bc a6 1b b6 bd c7 1b a2 3d
       -0.027924402 -0.013322774 -0.08891992 0.07915454
000080 55 1d 1d 3e 35 ad d1 3c 65 1f 16 3e 9a 22 72 bd
       0.1534322 0.025595287 0.14660414 -0.05911503
000090 64 10 2e 3d b1 ab b0 3c dc e4 38 3d bf 22 b6 bd
       0.0424961 0.021566244 0.045140132 -0.08893346
0000a0 e3 8d 6d 3b 43 b8 3e 3d 35 e8 3f 3d c5 19 d1 ba
       0.00362479 0.046562444 0.04685231 -0.0015953114
0000b0 d5 44 93 bd f7 fd 87 bd 85 65 06 3e 6e 52 88 bd
       -0.07190863 -0.06640237 0.13124664 -0.06656347
0000c0 4f cf c8 3c fb 8b 82 3d 05 79 c8 3d 35 45 d8 3c
       0.024512915 0.063743554 0.09788708 0.026400188
0000d0 53 ae 7a bd a1 2d 6f 3d 31 4a d0 bd 15 2c cf 3c
       -0.061201405 0.058393124 -0.10170401 0.025289575
0000e0 c9 74 53 3c 5f b0 b8 bc ed 38 10 3d 7d ff 03 bc
       0.012906262 -0.022545038 0.03521054 -0.008056519
0000f0 ab ee ef bd aa e2 47 bc 4e b2 0b be d1 5a dd 3c
       -0.11715444 -0.012200037 -0.13642237 0.027020844
000100 21 a5 5b bc 77 2a ad bd 1a fd 88 bb 5f b7 44 bd
       -0.013406069 -0.08455365 -0.0041805627 -0.04802644
000110 20 1d e0 bd 49 5b 7e ba 70 14 70 bc 93 42 58 bd
       -0.10943055 -0.00097029336 -0.01465331 -0.052797865
000120 14 47 a9 3d a7 fc 5d bd ec 96 1f bd 43 64 0d bd
       0.0826551 -0.054196026 -0.03896229 -0.034519445
000130 49 fb ff ba 9c 84 06 3d a8 34 41 3b cc 4a 0d be
       -0.0019529845 0.03284131 0.0029480848 -0.13798064
000140 1d b0 02 be a5 06 7d bd 21 8c 81 bc 6b df 4b bd
       -0.12762494 -0.061773915 -0.015813889 -0.049773615
000150 6c 10 88 bd 19 49 0c 3e 45 85 c4 3c 99 57 d9 bd
       -0.06643757 0.1369976 0.02398933 -0.10612411
000160 e4 60 d5 bc ef c5 3f b9 27 dc 9a 3b 13 2c ae 3d
       -0.026047178 -0.00018288915 0.0047259512 0.085045
000170 74 0d 0a 3e 31 a9 b5 3c dd e8 96 3d fc 13 30 3d
       0.13481694 0.022175403 0.07368634 0.04298781
000180 84 df b7 bd 6b fd 6a 3c cb ab 09 bc 1b eb b9 3d
       -0.08978179 0.014342646 -0.008402775 0.09078046
000190 fd 30 03 3e ae 7a cc bb c3 e5 0f 3d d5 5e 13 bd
       0.12811656 -0.0062402105 0.035131227 -0.03597911
0001a0 85 f7 b4 3d 8b 87 4a 3d 69 d8 86 bd 3e c0 84 3d
       0.08836273 0.04944567 -0.06584246 0.0648198
0001b0 4d 5a c6 3b c8 46 b0 bd 5c f3 78 3d 1c a1 bf bc
       0.006053245 -0.086072505 0.06077896 -0.023392253
0001c0 92 ae 7e 3d 00 6a a9 bd b3 17 04 3e 16 91 85 39
       0.062178202 -0.08272171 0.12899666 0.00025475834
0001d0 a1 af 5d bd 71 08 b4 bd c8 39 f0 bd 70 93 a5 3c
       -0.05412257 -0.087906726 -0.11729771 0.020211905
0001e0 6a b3 b9 3d 68 6b 1e 3b ea 1a 14 3d 25 5b 5c 3d
       0.09067424 0.0024172906 0.03615848 0.05379786
0001f0 2b 70 a9 bc 0f a1 5c bc 42 18 e4 3b 06 57 59 3d
       -0.020683369 -0.013466134 0.0069608996 0.053061508
000200 58 19 b0 3c c2 0b 65 bd b1 ab bb 3d d7 c5 23 3d
       0.02149646 -0.055919416 0.09163607 0.039983597
000210 21 85 1a 3d 17 9e 7d 3d ea 11 aa 3c c1 ab 01 be
       0.037724618 0.061918344 0.020760495 -0.12663175
000220 3e 75 02 3c e5 d7 d6 bd 41 95 c4 3c 48 21 09 bd
       0.007962523 -0.10490397 0.023996951 -0.033479005
000230 0c 9f 8e 3d 75 46 94 3d e2 b9 c7 3b ba 2c 0b 3d
       0.069639295 0.07240001 0.006095157 0.0339782
000240 5a 9c eb 3d 5d e0 27 3d 35 5e 6c bd 7b ab 3d bd
       0.11504431 0.040985454 -0.05770703 -0.046306115
000250 1d 9c fa 3c 23 11 c9 bc 54 fd fa bb 2e c1 a3 bc
       0.030592019 -0.024544304 -0.0076595936 -0.019989576
000260 05 9e e6 3c 32 ff 74 3b ff ef 1b 3d 21 be b8 3d
       0.028151521 0.0037383554 0.038070675 0.09020639
000270 e3 97 f3 3c 6e db 32 bc f0 9f 44 3d d8 cb 65 bc
       0.029735511 -0.010916574 0.04800409 -0.014025651
000280 33 86 1c bd c9 8e d0 3d 36 c1 a6 3c 70 90 4a bd
       -0.03821392 0.10183484 0.020355802 -0.049454153
000290 9d b1 89 bd 4f 47 dc 3d c8 5c dc 3c 0b eb 99 3d
       -0.0672333 0.107557885 0.02689971 0.07515534
0002a0 4b ce 38 bd 13 11 44 bd 44 93 b8 3d 14 90 b5 bb
       -0.04511861 -0.047867846 0.09012464 -0.005540857
0002b0 95 ce 43 bd 1c 16 19 3d e9 ec 68 3d e2 ca 08 bc
       -0.047804434 0.0373746 0.05686656 -0.008349152
0002c0 67 16 8a bd e1 75 9b 3d aa 15 9c 3d ec ff bf bd
       -0.06742554 0.07590843 0.076213196 -0.09374985
0002d0 1a 03 58 3d 15 c3 1d 3d 74 9a c8 bb 8a 87 06 3d
       0.052737333 0.038516123 -0.006121928 0.032844104
0002e0 48 fe 81 bc b4 7f 23 bc 54 42 0b 3c 78 9c cf bc
       -0.015868321 -0.009979177 0.008499701 -0.025343165
0002f0 e4 41 c2 3c 9f 1c ae bd e9 2e 72 bc 49 3a a8 3d
       0.02371306 -0.08501553 -0.014781692 0.08214242
000300 af 16 e7 3d 56 ff 06 3d 30 ba ef 3c 98 26 56 3d
       0.112836234 0.03295835 0.029263586 0.0522829
000310 31 f8 2c bd 5f 26 84 3c 56 4d 4f 3c 64 a4 ee bd
       -0.04222888 0.016131578 0.012652716 -0.11652449
000320 19 6e c0 3b 0e 5f 14 bd 74 8b 8f 3b 25 0a 40 bd
       0.0058724997 -0.036223464 0.004380638 -0.046884675
000330 4a bd f1 bc 06 c0 74 3d 0c 33 c1 bd 16 df 1b 3d
       -0.029509205 0.05975344 -0.094335645 0.03805455
000340 11 40 cb bc 51 a5 93 bd 27 72 01 bd b0 d7 f1 3d
       -0.024810823 -0.07209266 -0.031603005 0.11808717
000350 16 b4 a7 3d e3 f5 00 3d c2 f8 5e bc 04 f7 23 3d
       0.081886455 0.031484496 -0.013609113 0.040030494
000360 7c 3b 61 3d 95 47 ed 3d 6e 83 f8 3c 07 3e 07 3d
       0.05498837 0.11585919 0.030336108 0.03301814
000370 b9 c5 86 bc 4b d4 5e bc 95 4e ae 3d 4b 27 90 3d
       -0.016451703 -0.013600419 0.08511082 0.070387445
000380 84 74 3d bd ba a0 e9 3c 8c 92 18 3d 43 ae 6b 3d
       -0.046253696 0.028519023 0.037249133 0.057539236
000390 e7 c5 12 bd cd 34 81 bd e7 fa e7 bd 93 3c c9 3d
       -0.035833266 -0.06308899 -0.11327153 0.09826007
0003a0 e7 61 d5 3d df 16 1f 3d 2b 72 02 3c 77 1a 0e 3d
       0.10419064 0.03884017 0.00796179 0.034693208
0003b0 e2 de 27 bc f9 ea 27 bd ad 93 df 3d a7 96 8f 3c
       -0.0102460105 -0.04099557 0.10916839 0.017527891
0003c0 ed 64 77 bd 6e 45 69 3d 1f d0 81 3d 11 e6 2a bd
       -0.060398985 0.05695098 0.06338524 -0.041723315
0003d0 ba 85 a9 bd 5a b8 9b 3d bf 78 a5 bb 6f c6 c4 3c
       -0.082774594 0.07603522 -0.0050497944 0.024020402
0003e0 39 9b 6b bb f8 af d8 bd 0b b1 0a bc b5 36 6b 3d
       -0.0035950674 -0.105804384 -0.008465062 0.05742522
0003f0 b7 d2 a0 bd a4 49 04 3d 92 5b 67 bc 83 24 a5 3c
       -0.07852691 0.03229679 -0.014120953 0.020159012

local_trans_pixel.layers.0.0.fn.fn.to_out.0.bias f4 [32]
000000 cb 50 d1 bc 3f 26 85 bc 8a 49 19 3c ea c4 9e bd
       -0.02555122 -0.016253589 0.009355912 -0.07752402
000010 2c f8 0d bd 5a 71 4c 3c 91 b3 ef bd 2e a9 f1 bd
       -0.034660503 0.012478197 -0.117041714 -0.117998466
000020 12 9c 8b bc 09 fe 3e 3d 7c 67 66 bc 26 71 6d bd
       -0.017042194 0.046628986 -0.014062759 -0.057969235
000030 cd 6b 13 3e 93 6e aa 3d bd 5c 01 3c c1 c3 e5 bc
       0.14396591 0.083218716 0.007895646 -0.028047444
000040 16 64 24 bd 7d 77 06 bc 4a 76 25 bd 0b ca 3a be
       -0.040134512 -0.008207199 -0.040396012 -0.18241136
000050 a6 a4 ff bc f5 45 21 3d ef b1 82 3d d7 6a 42 3d
       -0.03120644 0.039373357 0.063815944 0.04746517
000060 f6 a6 69 3d 4e f2 f6 3c 12 42 f0 3c 50 d1 46 bb
       0.057043992 0.030144837 0.02932838 -0.0030337162
000070 0b 07 9e 3c 5e f3 57 3c 0e 76 85 bc 48 4a 9b 3d
       0.019290468 0.013180582 -0.016291644 0.075825274

local_trans_pixel.layers.0.1.fn.norm.weight f4 [32]
000000 82 9f 8b 3f 07 12 89 3f 8c df 86 3f 94 f0 87 3f
       1.0908053 1.0708627 1.0536971 1.0620294
000010 0c 30 87 3f 34 4a 7c 3f 08 cb 8f 3f ab 4b 88 3f
       1.0561538 0.98550725 1.1233835 1.0648092
000020 84 da 8a 3f 31 de 90 3f c0 a5 7f 3f 09 6c 85 3f
       1.0847936 1.1317807 0.9986229 1.0423595
000030 51 ee 8f 3f 35 67 92 3f fd e6 87 3f 6a 9c 82 3f
       1.1244603 1.1437746 1.0617367 1.0203984
000040 b0 c0 7d 3f 1a 0f 85 3f a3 be 8a 3f 8d b3 90 3f
       0.9912214 1.0395234 1.0839428 1.1304795
000050 71 d9 91 3f 59 bd 85 3f 93 98 80 3f aa c7 82 3f
       1.1394483 1.0448409 1.0046562 1.0217183
000060 31 da 96 3f 3b 8b 86 3f e6 59 8d 3f 23 82 81 3f
       1.1785337 1.051124 1.104306 1.011784
000070 05 1c 78 3f 11 87 8b 3f 19 ed 7c 3f 67 d2 84 3f
       0.96917754 1.0900594 0.9879928 1.037671

local_trans_pixel.layers.0.1.fn.norm.bias f4 [32]
000000 23 75 a9 bc 92 a9 08 3d 53 c2 87 bb 4d 6e 2d 3d
       -0.020685738 0.03336484 -0.0041430383 0.04234152
000010 f5 19 ef bc f0 5b 82 bc f4 88 0d 3d 49 1b 8a bc
       -0.029187182 -0.01591298 0.034554437 -0.016858714
000020 0f e5 df bc 3f 71 ab bc a9 91 58 bc 2c b5 f6 bc
       -0.027330903 -0.020928023 -0.013218322 -0.030115686
000030 fa b2 25 3d 31 81 86 3c 05 aa 3a 3d 28 28 2c 3d
       0.04045389 0.016419025 0.0455723 0.042030483
000040 1b 9e 21 3d 7f 50 56 3c 36 d7 81 3c 5d d9 56 bd
       0.03945742 0.013080715 0.01584969 -0.052453388
000050 9b 50 b7 bc 01 bf 6a bd ee e7 db 3b f3 22 15 bd
       -0.022377303 -0.05731106 0.006710998 -0.036410283
000060 b7 70 d3 3a dc 03 17 bd 31 36 6f bd 17 14 29 3d
       0.0016131614 -0.036868915 -0.05840129 0.041278925
000070 2a e5 2f bd 9f 33 77 3c 5c fe 02 bb ec 5c 6a bb
       -0.042943157 0.015087991 -0.0019988036 -0.0035760952

local_trans_pixel.layers.0.1.fn.fn.net.0.weight f4 [8, 32]
000000 7e bd 80 be cd 87 59 bd a4 75 56 3c 0e a2 1d 3c
       -0.2514457 -0.053108025 0.013089571 0.009621156
000010 5c 55 9b bd 59 ec 84 bd f3 ef 37 bd 4d 16 19 be
       -0.075846404 -0.06490392 -0.044906568 -0.14949913
000020 ac 2b b2 3d cb 53 e8 bd a3 0e 4f bd 6d 7a 9f bd
       0.08699736 -0.11344107 -0.050551068 -0.07787023
000030 2e d8 75 3d 3c 79 95 3d ff 1a 2b 3e 8f 2e 06 3e
       0.06002062 0.07298514 0.16709517 0.13103698
000040 fd 46 1a 3e 23 5f dc bc ed f6 9e 3d 31 b0 05 be
       0.15066142 -0.026900833 0.07761941 -0.13055493
000050 92 f1 32 bd 1c bc 46 3d 42 65 71 bc c3 34 ac 3d
       -0.04368741 0.04851924 -0.014733614 0.08408501
000060 bd 4e 81 3d a7 24 33 3d 1d 00 a9 3d 59 cc 3f 3e
       0.06313846 0.043736126 0.08251975 0.18730296
000070 92 98 b5 bb d9 ae 28 3e 9c dd 9a bd 62 f1 ac bc
       -0.0055418694 0.16472949 -0.075618 -0.021111194
000080 b7 53 64 bd eb 79 ce 3d 1d aa 91 3d a3 d3 92 3d
       -0.0557439 0.10081848 0.07112525 0.07169273
000090 d7 ab 4e 3d f0 fa 3a be 90 11 2a be 91 3b 53 bd
       0.050456848 -0.18259788 -0.16608262 -0.05157048
0000a0 b5 0c 02 be e2 84 41 bd 13 e7 a7 bb 1e 73 ba 3d
       -0.1270016 -0.047245868 -0.0051239817 0.09103988
0000b0 7a 67 11 be 29 f1 8d 3c 27 9c da 3d dc cb b0 3a
       -0.1419963 0.017326908 0.10674315 0.0013488489
0000c0 f4 85 1b be 99 f5 e9 bb 82 a9 15 3e 4a e4 10 3d
       -0.15187818 -0.007139873 0.14615443 0.035373963
0000d0 57 b5 d5 3d f5 5b 3a bb ec 0c 0b be 56 0f 63 3d
       0.104349785 -0.0028436158 -0.13579148 0.055434547
0000e0 6b c9 82 3d c9 ac 0d be 5f c4 c0 bd 92 4e ea bd
       0.06386074 -0.13835444 -0.09412455 -0.11440767
0000f0 2d 8f 88 bd 63 d3 db bd 5b 98 83 3d 9a 1a 1d bd
       -0.066679336 -0.10733678 0.06425544 -0.038355447
000100 83 d9 29 3e 95 14 22 3e 7f ea 13 be 6f dd 6d 3d
       0.1658688 0.15828164 -0.14444922 0.058072504
000110 02 0f 0f be 06 b6 f6 bd 4e 6d bb 3e 7c b7 2c 3e
       -0.13970569 -0.12046437 0.3660683 0.16866869
000120 17 42 a2 3d 48 3e 04 be ed 79 4f be a3 ca 07 be
       0.07922762 -0.12914383 -0.20261355 -0.13260894
000130 71 51 bb bc f5 3b 28 bd 25 cb ad 3c 41 6a e7 3d
       -0.022865983 -0.041072804 0.02121503 0.11299563
000140 ce 1b 3c 3d 65 99 50 3c 72 8e de 3c da 78 e9 3a
       0.045924954 0.012731885 0.027167533 0.0017812506
000150 ed 54 b6 bc 9c 13 14 be b1 6b eb 3d 06 fa 15 bd
       -0.022257293 -0.14460605 0.1149515 -0.036615394
000160 98 31 6b be 31 cb 32 bd 50 49 5d bd 2a 2e 20 3c
       -0.22968137 -0.04365081 -0.054024994 0.009776631
000170 97 31 05 be 14 4e 23 bd 68 4b ff bd 50 6f 1b be
       -0.13007198 -0.039869383 -0.124655545 -0.15179181
000180 47 12 e0 bc e2 4b e7 3d 43 05 81 be 0c 85 17 3d
       -0.027352465 0.112937704 -0.25199327 0.036992118
000190 03 ff 68 3e 7b 8f be bd 1e 95 b1 3c 49 98 5b 3e
       0.22753529 -0.093047105 0.02167755 0.21444811
0001a0 9b 31 1f bc 03 8e 32 be 8b 6e 1c bd 87 0c 0a be
       -0.009716417 -0.17436986 -0.03819136 -0.13481341
0001b0 d2 ba 69 be 4d aa 9b be cd af 45 be 38 57 d4 3b
       -0.22825173 -0.30403367 -0.19305344 0.006480124
0001c0 70 ec b2 3c 40 71 d4 3d 4f 88 23 be 56 62 98 3d
       0.021841258 0.10373163 -0.15969966 0.07440631
0001d0 e2 52 00 be 13 75 37 3e 4a ce b2 bd f2 dc c5 bd
       -0.12531617 0.17915754 -0.08730753 -0.096612826
0001e0 b1 d1 76 3c 8c cc ea bd 5b 9d e9 3d 5d 2d 1f bd
       0.015064643 -0.114647955 0.11406966 -0.03886162
0001f0 e5 ad 0c 3d 75 ff 33 3e 98 ff 2f 3d 1e 0b 57 3e
       0.034345526 0.17577918 0.042968363 0.21000335
000200 45 a8 af bd 53 b8 23 be a4 2c 17 bd e4 aa 2f be
       -0.08577017 -0.15988283 -0.036907807 -0.17155033
000210 f6 10 ec 3d d3 6d ae 3d 36 94 06 3d 1a 77 81 3c
       0.115266725 0.08517041 0.03285619 0.015803862
000220 ab 24 d1 3c c1 1d 1d be 5e 7c 0d 3e d3 4d 13 be
       0.02553018 -0.15343381 0.13816974 -0.14385156
000230 c9 7c 37 be fa 42 16 be 3e 08 0c 3e 3d 49 8e bd
       -0.17918696 -0.14673987 0.13675019 -0.06947563
000240 20 c4 a3 bc be 24 35 be 19 50 09 3b ae 2d b2 bd
       -0.01999098 -0.17689797 0.0020952283 -0.08700119
000250 46 2b 06 3d 8a 7a ff 3d 81 be 3f 3c a4 93 e2 3b
       0.032756113 0.12474544 0.0117031345 0.006914573
000260 c1 88 9b bd a7 02 b2 3d 09 91 02 bd e7 42 d8 3d
       -0.07594443 0.08691912 -0.031876598 0.105596356
000270 9a 15 1c 3d 70 94 06 3e a9 31 99 bd fc db dd 3c
       0.03810654 0.13142562 -0.07480175 0.027082436
000280 0e f5 5b be b4 54 fc bd 01 eb 5c 3e df 95 35 3e
       -0.214802 -0.12320843 0.21574022 0.17732953
000290 24 e8 2b 3d 5e cc 20 3d 0a e7 15 be 81 79 22 be
       0.041969433 0.0392574 -0.14638916 -0.15866663
0002a0 08 d7 a6 be ce d1 9a 3e 1a d2 44 3b ea 51 51 be
       -0.3258593 0.30238193 0.0030032457 -0.20441404
0002b0 e4 9e 84 3e 5f 3d a7 bd 0e 9e 12 3e c5 86 1d 3e
       0.25902474 -0.081660025 0.14318106 0.15383442
0002c0 42 8a f5 3d 53 93 6d 3e 60 de 6b be 03 c1 e5 be
       0.11989261 0.23200731 -0.23034048 -0.4487382
0002d0 98 c1 16 be 9b e4 29 3b 84 ac 43 be 11 e8 31 3e
       -0.14722288 0.0025923613 -0.19108778 0.17373683
0002e0 b4 9f d4 3e 31 7d 9d bd 2b 4b 92 be 92 c7 45 3e
       0.41528094 -0.07689894 -0.28572974 0.19314411
0002f0 29 83 6f bd d8 aa 22 3e 66 af 4a bd e1 11 39 3e
       -0.058474693 0.15885484 -0.04948368 0.18073227
000300 44 de fb bd 89 a9 0c be c1 93 81 bd bd 3a d6 3c
       -0.12298253 -0.13736548 -0.0632701 0.026151055
000310 fb 39 0a 3e b0 a7 65 3a 6f 7b 9e 3d 15 68 19 3e
       0.1349868 0.0008760644 0.07738387 0.1498111
000320 8c 58 41 be a4 25 ed bc f0 cd f2 3d 95 83 21 3d
       -0.18881434 -0.028948613 0.11855686 0.039432127
000330 47 6e 53 3c ae 89 e3 bd cd f5 b4 bd 8d 19 ad bd
       0.01290471 -0.11110245 -0.08835945 -0.08452139
000340 4c 91 db bd 6f 14 00 be 09 96 4c 3e 7f 9e f7 3d
       -0.107210726 -0.12507795 0.19979109 0.120907776
000350 f2 94 30 3e cf 7e ce bc aa 8c 5a bd 18 8c 31 be
       0.17244318 -0.025206951 -0.053356804 -0.17338598
000360 34 95 08 be 30 2e 88 3d 5b 4e 88 be da d4 de 3d
       -0.13338166 0.066494346 -0.2662228 0.10880442
000370 aa ec 92 3c 61 e5 8f 3d 21 71 ae bd 0b ed 05 3d
       0.017935116 0.070261724 -0.085176714 0.032696765
000380 9d ef 15 3e 24 62 0e 3e e3 53 51 3e ae c1 35 bc
       0.14642186 0.13904625 0.20442156 -0.01109354
000390 94 9e 60 bd 5c bc 30 3e e3 c7 07 3c 16 e4 91 bd
       -0.054838732 0.17259353 0.008287403 -0.07123582
0003a0 ff 40 b1 bd 24 8d 93 3c 27 40 2c 3e 0a 4d ed 3d
       -0.08654975 0.018011637 0.16821347 0.1158696
0003b0 41 a3 66 bd aa e5 c0 bd 02 8f 4e be 29 3b 52 3d
       -0.056308035 -0.09418805 -0.2017174 0.05132595
0003c0 6d c3 10 3e c2 3b 1c be 4b ab 08 bd 77 06 1c 3e
       0.14137049 -0.15257171 -0.033366483 0.15236841
0003d0 e8 ef fd bd 6f 44 c0 bd ff d7 0e 3d fb f2 e0 bc
       -0.12399274 -0.09388053 0.03487396 -0.027459612
0003e0 ce fb 0b be dd e2 e9 3b d0 a0 4a 3c 8b 87 95 3d
       -0.13670275 0.00713764 0.012367442 0.073012434
0003f0 69 fd 09 be 50 e3 49 3e b6 cd 11 3e 48 85 5e 3b
       -0.13475575 0.19715619 0.14238629 0.0033953954

local_trans_pixel.layers.0.1.fn.fn.net.0.bias f4 [8]
000000 05 97 d9 bc 0e 58 ac 3c 26 22 68 3d f0 f3 84 3d
       -0.02656127 0.021038081 0.05667319 0.0649184
000010 f8 93 df 3d ff 41 66 3e 6e 64 83 bd ec fc ca bd
       0.10916895 0.22486113 -0.0641564 -0.09911522

local_trans_pixel.layers.0.1.fn.fn.net.3.weight f4 [32, 8]
000000 bf 63 26 be c3 e0 f7 3d ec c7 8d 3e a8 25 ec bd
       -0.16248988 0.12103417 0.2769159 -0.1153062
000010 45 a7 af bd f3 7f ba bd a1 f6 07 3d 7d 9a 61 bd
       -0.08576826 -0.091064356 0.033194188 -0.055078972
000020 d3 cb 2e 3e f3 c4 c4 bc 0c 76 28 3e d8 ca 94 be
       0.1706994 -0.024019694 0.16451281 -0.29061007
000030 39 f7 8b bd ae b6 e1 3e 7b c0 af be af 78 c4 bd
       -0.06834263 0.44084686 -0.34326538 -0.09593331
000040 d5 00 b2 3e 74 a6 04 3e 9d 79 28 be 37 4e 90 be
       0.3476626 0.12954122 -0.16452642 -0.28184673
000050 5e 82 5f 3e 12 c9 22 3f ec 00 42 3e 2c 98 a8 be
       0.21827075 0.6358806 0.18945664 -0.32928598
000060 46 4c 06 3e 6d 3b 48 be b4 cd 21 3e 37 6d c3 3d
       0.13115034 -0.19553919 0.15801126 0.095423155
000070 3e 25 9e 3e 86 ea 92 be dc 97 97 be 10 21 67 3e
       0.3088779 -0.28694552 -0.29608047 0.22571206
000080 85 11 35 be 93 a9 86 3e e0 d7 5a be 99 62 81 3c
       -0.17682464 0.2630125 -0.21371412 0.015794085
000090 ca 87 14 be d1 1d 8a be 2a c1 88 3e 77 13 a0 be
       -0.14504924 -0.26975873 0.26709872 -0.3126485
0000a0 d8 5a 59 be 50 11 a8 3e 4d 43 d0 bd c8 04 0c bd
       -0.2122606 0.32825708 -0.101690866 -0.034184247
0000b0 c9 37 23 be 6c 65 6b 3e f1 37 f8 3b 84 d3 20 be
       -0.15939249 0.22987908 0.007575028 -0.15705687
0000c0 bb 0c 46 be e7 d5 87 3d 5e 48 57 be ab a0 cd 3c
       -0.19340794 0.066325955 -0.210237 0.025101027
0000d0 5d f0 6c be 35 3f 0a 3f 7d 43 8c 3e 98 31 99 3e
       -0.23138566 0.54002696 0.2739524 0.2992065
0000e0 42 57 35 3e 08 c6 52 be bd 0d 8c 3d 1d b1 8e 3e
       0.17709067 -0.20583355 0.06838558 0.27869502
0000f0 1d 79 55 bd 3c fc 93 3c 9a 45 bb be 54 30 40 3e
       -0.052117456 0.01806461 -0.3657654 0.18768436
000100 d1 9c 9e 3e 25 60 6f 3d b1 e5 39 3e cb 77 b6 be
       0.30979016 0.0584413 0.18154027 -0.3563827
000110 ee ad 37 bd e7 84 c2 3e 75 76 1a 3e 4a 07 87 3e
       -0.044843607 0.3799202 0.1508425 0.2637275
000120 34 7c 32 3e 26 9c 1f 3e 26 f0 94 3e 8a 62 b1 bc
       0.17430192 0.1558691 0.2908947 -0.021653432
000130 25 dd 6f bc e9 83 05 3f 94 cb b4 be 09 ff 8e be
       -0.014640127 0.52154404 -0.35311568 -0.2792895
000140 13 25 7a be a5 1e 17 be 73 7d 8f be 2b 51 52 bc
       -0.24428205 -0.14757784 -0.28025398 -0.012836735
000150 a6 61 e5 bd 93 69 6f bd cb e6 11 be d1 a6 70 3e
       -0.112002656 -0.058450293 -0.14248197 0.23501135
000160 5b 01 a0 be e2 c3 7c be 0b 32 93 3e e3 45 84 3e
       -0.31251034 -0.24684098 0.28749117 0.2583457
000170 26 16 0d be b0 5b d7 3e e8 f0 b8 be 74 a7 05 3e
       -0.1377798 0.4206214 -0.36121297 0.1305216
000180 f5 2e b7 bd ce d4 09 3e 6d 1b a3 be e9 be fb be
       -0.08944503 0.13460085 -0.31856862 -0.4916909
000190 36 f9 a4 3e c0 24 a5 bd 81 ff a4 bd b8 04 9c be
       0.32221383 -0.0806365 -0.08056546 -0.3047235
0001a0 88 bd 43 be 08 5b b7 be 43 18 32 be 62 3b 9c 3e
       -0.19115269 -0.3581164 -0.17392068 0.30514055
0001b0 23 49 98 be ea 81 7c bc 89 21 3f 3e 6c f4 50 3e
       -0.297433 -0.015411833 0.18665136 0.2040574
0001c0 8f 8c 55 be 15 78 87 3e 14 e7 6a 3e 02 d1 51 be
       -0.208544 0.26458803 0.22939712 -0.20489886
0001d0 1a 9c b2 be 2e 63 62 3e 72 d3 a6 3d 15 ce 19 bd
       -0.3488472 0.22108147 0.08145799 -0.03755005
0001e0 6b 86 bb 3e af 98 9a 3d e1 35 88 bd 8b 42 80 be
       0.3662599 0.07548653 -0.066509016 -0.25050768
0001f0 80 6e 8c 3e eb 3c 3c 3e e9 21 0e 3e 4f 3b 82 3e
       0.27428055 0.18382613 0.13880123 0.25435874
000200 34 a1 53 3e e6 94 d8 bb d8 e0 99 3e 72 27 83 be
       0.20666963 -0.006609547 0.30054355 -0.25616032
000210 27 81 51 3e a7 b6 5c 3e 1f a0 c4 3d 9d a9 75 bd
       0.20459424 0.21554051 0.09600853 -0.05997621
000220 f5 b4 5b 3e 12 a5 27 3e 29 84 f0 bd 0b 32 9c be
       0.21455748 0.16371563 -0.117439575 -0.3050693
000230 57 2a 03 3d 4a 81 c9 3e d6 5b b6 3e 71 53 b4 3e
       0.0320228 0.39356452 0.3561694 0.3521991
000240 83 91 16 3e b4 37 ac be 96 4c 99 be 36 97 de 3d
       0.14703946 -0.33636248 -0.29941243 0.10868685
000250 b6 ef 51 be 5a bf f2 3e c6 48 a9 be 9b 9b 3e 3d
       -0.20501599 0.47411615 -0.33063334 0.046535116
000260 36 f0 95 3e 9c e2 a2 be 5c 3e d1 bd bd a0 a7 3e
       0.2928483 -0.31813514 -0.10216972 0.3273982
000270 09 10 d9 bd 2f e0 cc bd 07 a3 2a 3e 55 2f 8a be
       -0.105987616 -0.10003697 0.16663752 -0.26989236
000280 a6 19 84 3e 5f 45 9c 3e 7d a5 1a 3e 58 5c 36 be
       0.25800818 0.30521676 0.15102191 -0.17808664
000290 81 9e e9 bd f1 50 96 be f0 fa 6e be b7 67 94 be
       -0.11407185 -0.29358628 -0.23337913 -0.28985378
0002a0 eb 9f ca 3b 23 76 92 be 3d 81 0f 3e 2f 3d 90 3e
       0.0061836145 -0.28605756 0.14014144 0.2817168
0002b0 93 f5 a6 3d 06 8b 2e be 9e f9 84 3d 06 e4 ba 3d
       0.08152308 -0.1704522 0.06492923 0.09125523
0002c0 06 bd b4 3e 9f 31 c1 be 53 2d 96 be 7c ad 82 3e
       0.35300463 -0.3773317 -0.29331455 0.25522983
0002d0 56 bd 07 3c c3 5f cf 3e be ff 22 be d4 3b 1f be
       0.008284887 0.40502748 -0.1591787 -0.15550166
0002e0 a8 c1 51 be c1 06 49 be ef 9d b6 bd 44 b8 a8 be
       -0.2048403 -0.19631483 -0.08916842 -0.32953084
0002f0 66 1b 80 be 5e 48 e2 3c 16 58 93 be b4 7a bb 3d
       -0.25020903 0.027622398 -0.28778142 0.09154263
000300 2e 40 a5 3e 7d cb 09 be 45 45 4b be a0 d5 b2 3e
       0.32275528 -0.13456531 -0.19850643 0.34928608
000310 35 2e 48 3e db d9 96 3e 46 b9 f6 bd eb f7 ac 3d
       0.19548877 0.29463086 -0.12047057 0.08445724
000320 f0 d4 8e 3e 65 0f 8e bd 7b 13 86 3b 6d 3d 1e be
       0.27896833 -0.0693653 0.0040916777 -0.1545312
000330 70 65 cb bd 65 b0 82 3e bd a0 c3 3e a7 91 26 be
       -0.09931457 0.25525203 0.3820857 -0.162665
000340 bb 1f a5 be 94 e8 90 3e 84 c8 bf bd c3 2e da be
       -0.3225077 0.28302443 -0.09364417 -0.426138
000350 3b 67 88 be 23 fd 92 be 16 11 ce be c6 bf d8 3d
       -0.2664126 -0.28708753 -0.4024741 0.10583453
000360 a2 61 d7 3d 6a 07 9c 3d 9b 44 13 3d 47 17 27 3e
       0.10516669 0.076186016 0.0359541 0.16317473
000370 90 9f 66 be 38 1c 84 be 72 71 16 3d f2 cc 32 3d
       -0.22521806 -0.2580278 0.036729284 0.043652482
000380 7d 9e 28 3e 47 ca b2 3d 44 6d e3 3e 5b 20 a6 be
       0.16466708 0.087299876 0.444193 -0.3244656
000390 91 03 c7 bd 44 72 15 3e fc 7b 2b bc 9c 1a c7 3d
       -0.09717477 0.1459437 -0.010466572 0.09721872
0003a0 73 8f 6e 3e 21 43 98 3e 8b 14 db be 73 03 25 be
       0.23296909 0.29738715 -0.4278911 -0.16114597
0003b0 07 4b 2a 3c 24 ab a9 3e 57 a4 a3 be ed 62 ae 3c
       0.0103938645 0.33138382 -0.3196132 0.021287406
0003c0 a8 0f 6e be b2 a4 96 3c 55 43 9f 3e 13 bf 19 3d
       -0.2324816 0.01838908 0.31106058 0.03753574
0003d0 b1 ef 24 be 02 32 4c be 0c fa 16 bc 0a 5b ec 3c
       -0.1610706 -0.19940951 -0.009214889 0.028852005
0003e0 1f 0b 76 be bd e9 34 3e 80 a8 b2 bb 7d 52 0b 3e
       -0.2402768 0.17667289 -0.0054522157 0.13605686
0003f0 51 7e bb be bb a7 79 3e 06 6f d5 be 24 1a f2 3c
       -0.3661981 0.2438039 -0.41686267 0.02955348

local_trans_pixel.layers.0.1.fn.fn.net.3.bias f4 [32]
000000 f8 2b 4b be 42 14 1d 3e 44 a5 ae 3c 74 07 82 be
       -0.19840991 0.15339759 0.02131904 -0.2539631
000010 1f 81 b1 bc 2b 59 d1 3c cf 7c 36 3e 02 2e 24 be
       -0.021668015 0.025555214 0.17821048 -0.16033176
000020 60 c7 90 3e e3 27 32 3e e9 18 c0 bd c2 4b a5 3e
       0.2827711 0.17398028 -0.09379751 0.3228436
000030 a9 92 b5 3e c1 b8 bc 3e 37 e0 0f 3e 82 8b 29 be
       0.35463455 0.36859706 0.14050375 -0.16557124
000040 64 7f e2 be 66 14 15 be 44 75 be 3e de e3 98 be
       -0.44237816 -0.14558563 0.37198842 -0.2986135
000050 cd e5 b4 3e 9b be e4 bd a5 74 a8 3e 8b d0 d2 bd
       0.35331574 -0.111691676 0.32901493 -0.10293683
000060 99 5e 87 3e 79 70 49 bd 1d 4a 75 3c b2 9a fb 3d
       0.2643936 -0.049179528 0.014971283 0.12285365
000070 59 5a b3 3e a9 be bc 3e e1 87 6c 3e f1 fc 3c be
       0.35029867 0.36864212 0.23098709 -0.18455864
