src/res/GGCL/guided_contra_cross_transformer/Pavia/20/use unlabel same time ss/_1710687951.pth (torch, 266710 bytes, 37 tensors)

pixel_pos_embedding f4 [1, 170, 32]
000000 18 c9 36 40 6f b5 80 bd ea 6d f1 3e d1 db 7d 3f
       2.8560238 -0.06284606 0.4715417 0.9916354
000010 aa 66 00 bf 92 4d d7 be 55 7a 22 3f db 91 f4 3e
       -0.5015665 -0.4205137 0.63467914 0.4776753
000020 ad 6b d2 3e 36 cc 86 3f db 1d ca 3e 60 5c c9 3f
       0.41097775 1.053107 0.39475903 1.5731316
000030 44 24 fb 3d d6 61 1e bf b3 46 2f be c2 48 81 3f
       0.122627765 -0.61868036 -0.17116813 1.0100329
000040 31 0c 48 3f ed b2 74 bf 46 dd 37 bf 6c f1 9e bf
       0.781436 -0.9558552 -0.7182201 -1.2417426
000050 fb d4 9a 3f 0c 89 bf 3e b1 e6 37 3f 5f 71 33 be
       1.2096246 0.37409246 0.7183638 -0.17523716
000060 1b 6b ad bf c1 98 4a 3e 8d a4 82 be e0 21 f6 3c
       -1.3548311 0.19784833 -0.25516167 0.03004545
000070 4e 04 c5 bd 59 97 a3 bf cc 54 99 be 34 d3 c6 3e
       -0.09619962 -1.2780563 -0.29947507 0.3883301
000080 90 aa 47 be fe bc f1 bf 99 09 4a bd 0a 8d 9a be
       -0.19498658 -1.8885801 -0.04932556 -0.3018573
000090 5a be 5b 3f 06 35 d7 3d fa 53 8b 3e d7 8f 16 bf
       0.8583733 0.1050816 0.27212507 -0.5881323
0000a0 4a 90 ed bf e5 80 e3 be 1b 89 90 3f c5 61 45 3f
       -1.8559659 -0.44434276 1.1291841 0.7710231
0000b0 be 28 67 3f 7b 4b 3d 3f 00 71 cd 3e d9 d7 40 bf
       0.9029654 0.739433 0.40125275 -0.7532936
0000c0 a9 32 86 3f 6a 78 c2 bf 53 76 64 3f 4e b4 05 bf
       1.048421 -1.5192997 0.8924305 -0.5222825
0000d0 a3 6b 89 bd 2e a3 88 3f 0e 55 23 3f 18 98 b9 3f
       -0.06709983 1.0674798 0.6380166 1.449954
0000e0 1b ef f5 bd 8a e0 95 bf 2e d8 ce bf 0f d7 bf 3e
       -0.120084964 -1.1709149 -1.6159723 0.37468764
0000f0 c1 5a 16 3f de 8a 50 3d b4 b5 1c 40 ae 08 f5 bf
       0.5873223 0.050913684 2.4485903 -1.9143274
000100 61 80 37 bf 52 d6 0f bf 1f 94 4c bd f3 5b 74 3e
       -0.71680266 -0.561864 -0.049945947 0.23863201
000110 b5 b1 75 3f f0 da 26 be a0 47 03 3e d6 85 c9 3e
       0.95974284 -0.16294456 0.12820292 0.3935992
000120 3a bc 28 be 5f 09 9f bf 29 9e 93 bf f9 0b bc 3e
       -0.16478053 -1.2424735 -1.1532642 0.36727884
000130 ff 1f 1d 3e a8 ad 8c bf c0 04 08 3d 7c 87 08 c0
       0.15344237 -1.0990496 0.033207655 -2.1332693
000140 fc 13 3a be 65 03 9b 3f 40 d1 9f be 72 7c a7 3f
       -0.18171686 1.2110411 -0.31214333 1.3084853
000150 38 14 1b bf f1 d4 be bf 15 bb 8c bf 78 ad dc 3c
       -0.60577726 -1.4908735 -1.0994593 0.026938185
000160 f2 ae 33 40 54 12 8e bf b1 38 79 be 55 7b 4e 3f
       2.8075528 -1.1099343 -0.24338032 0.8065694
000170 64 a8 20 3f f8 f1 fd bf c6 46 41 3e 35 58 89 3f
       0.62756944 -1.9839468 0.18874654 1.0730044
000180 29 61 c3 bf 62 c1 09 3f 69 36 10 3e e6 38 1b 3f
       -1.5264026 0.53810704 0.14083256 0.60633695
000190 e2 7b 40 3f b2 56 fa bf 4e 07 9a 3d 6e b0 79 bd
       0.7518903 -1.9557707 0.075209245 -0.060959272
0001a0 b0 2d c8 be 5f 11 8b 3d 66 27 49 bf 9e e7 bf 3e
       -0.39097357 0.06790423 -0.7857574 0.37481397
0001b0 7f 24 61 3e ea 4b 40 bf e1 da 9a 3b a2 b8 52 3f
       0.21986578 -0.75115836 0.0047257994 0.8231298
0001c0 01 3b 02 c0 3a e9 8b 3f 6e ba f4 3e c7 5a 08 3f
       -2.0348513 1.093055 0.47798485 0.53263515
0001d0 76 56 80 bf e7 90 6f 3e 1c 42 51 bf dc 5b a9 3e
       -1.0026386 0.2339512 -0.817415 0.33077896
0001e0 83 4b 0e 3f f3 ea 58 3f 0d 78 79 3d a2 8d 95 3f
       0.5558397 0.84733504 0.060905505 1.1683848
0001f0 71 8f 17 bf 85 d5 b1 3e 04 4f 1f 40 e0 ad cb be
       -0.5920325 0.34733215 2.4891977 -0.39781094
000200 4e 85 ee 3d 3d af c7 be b5 cb 2f bf b2 2e 1d 3f
       0.116465196 -0.39000884 -0.6867021 0.61399376
000210 e7 82 74 3e 4d 60 f4 be 32 f4 11 3d 26 d0 c6 3f
       0.2387806 -0.47729722 0.035633273 1.5532272
000220 64 5a 2b bf cb e4 0b 40 ee a4 9d 3f fc ad a0 3d
       -0.669348 2.1858394 1.2315958 0.07845685
000230 66 d1 e7 3e e2 93 e1 3f da 64 39 be 18 c0 b9 3f
       0.45276946 1.7623255 -0.18104878 1.4511747
000240 87 77 b1 3f 24 b1 fc be cf 39 23 be 1f 02 16 3f
       1.3864602 -0.49353898 -0.15940021 0.58596987
000250 fb 99 18 bf ec e2 e4 3f b2 cc 23 3f e9 0d 42 bf
       -0.59609956 1.7881751 0.63984215 -0.75802475
000260 41 ae 56 bf 36 34 9b bd 99 27 bd bf 2a 29 19 3e
       -0.8385964 -0.07578318 -1.4777709 0.14957109
000270 cf 4c b6 3e 47 5d 16 bd 9c 49 3b be 83 2f 3c 3e
       0.35605475 -0.03671005 -0.18289798 0.183775
000280 51 97 13 3f 2a 41 b7 3e db 96 5b bf fe e0 8a 3f
       0.57652766 0.35791904 -0.8577706 1.0849912
000290 53 7e cc 3e 9e 8a 09 3f 93 b1 af 3f 4a 3a 4a be
       0.39940128 0.5372714 1.3726066 -0.19748798
0002a0 0a 92 1c 3f 3e 39 bd bf 4e d7 0e bf 96 f6 0a bf
       0.6116034 -1.4783094 -0.5579728 -0.5428251
0002b0 37 7f 80 bf bc e0 69 bf 73 5d 99 be 60 36 61 bf
       -1.0038823 -0.9135854 -0.2995411 -0.87973595
0002c0 44 6a 92 3f 8b c1 86 bf 45 03 43 bf 6c a5 51 3e
       1.143868 -1.0527815 -0.76176864 0.2047326
0002d0 bf 49 38 bf fd 12 98 3f fd 11 e8 3d e3 ea 9c bf
       -0.7198753 1.1880795 0.11331556 -1.2259182
0002e0 b5 47 08 bf 39 17 a4 be e9 50 1a 3f 0d e6 f9 be
       -0.53234416 -0.32048967 0.6027971 -0.48808327
0002f0 75 9b 10 3e 26 91 1b 3d 7c 15 9c 3d 26 4a 33 3f
       0.14121802 0.03798022 0.07621285 0.70035017
000300 89 63 81 be 46 4a a3 3f a5 46 04 3f fb 8f 26 bf
       -0.25271252 1.2757041 0.51670295 -0.65063447
000310 4d 20 a8 be ef b4 42 3e 65 e1 49 bf 79 f7 e9 3e
       -0.32837144 0.19014333 -0.7885955 0.4569662
000320 64 45 30 3e 73 70 03 3e 41 b8 97 bf 17 35 a1 3f
       0.1721397 0.12835865 -1.1853105 1.2594327
000330 f0 f2 12 bf 90 6b 4d 3f 62 7a 1e bc 8d 1d 53 3f
       -0.57401943 0.8024225 -0.009672733 0.82466966
000340 a3 88 74 bf c8 0f 43 40 12 fa 33 c0 03 d9 45 3f
       -0.9552099 3.0478382 -2.812138 0.7728426
000350 cb d8 5f 3e b0 90 dd bf 23 e2 ff bf f2 b0 83 3e
       0.21860044 -1.730978 -1.9990886 0.25720936
000360 ff f4 22 3f c9 22 af 3e 2b 71 83 bd a2 aa c2 bf
       0.63655084 0.34206226 -0.064180695 -1.5208323
000370 07 86 d4 3e 3e 8f d1 be 30 44 03 40 57 dc a5 3e
       0.41508505 -0.40929598 2.0510368 0.32394668
000380 ac 7d 17 3f fa 97 28 3f 9b f2 83 3d 55 23 c3 bf
       0.59176135 0.658569 0.06442758 -1.5245157
000390 21 11 5a 3f 89 0c b0 3f bf b5 8d bf a7 e5 41 bf
       0.85182387 1.3753825 -1.107109 -0.75741047
0003a0 a1 70 b4 bf 3d fd 30 c0 45 02 00 bf 51 db fa 3f
       -1.4096872 -2.7654564 -0.50003463 1.959818
0003b0 49 da 19 3f 0b 26 15 3f 93 4d ff bf e9 a9 06 3f
       0.600987 0.58261174 -1.9945549 0.5260301
0003c0 18 1f 7e 3e 23 a4 d4 bf 80 51 bf be 95 dd 96 3f
       0.24816549 -1.661259 -0.37366867 1.1786371
0003d0 d2 04 ab 3f 77 d1 92 3e d5 73 4d 3f 7e 52 10 3f
       1.3360846 0.28675434 0.8025487 0.56375873
0003e0 19 02 92 3f 19 6d d4 3e dc ac 82 bf 12 80 f2 3f
       1.140689 0.41489485 -1.0209002 1.8945334
0003f0 da 4c 95 3d a3 df b8 be 36 5f 86 3f 30 1d 5f 3f
       0.07290049 -0.3610812 1.0497806 0.8715391

cls_token_pixel f4 [1, 1, 32]
000000 3a 09 09 c0 c3 6f 04 c0 83 05 e4 bd d6 0d 62 3e
       -2.1411881 -2.0693214 -0.11133864 0.2207559
000010 e6 06 5a 3f b5 02 28 bf b8 65 17 bf 32 1f 06 bf
       0.85166776 -0.6562913 -0.59139585 -0.5239135
000020 8a df a8 be 3a b3 77 bf 7b a2 87 be 0b 67 1e 3f
       -0.32983047 -0.96757853 -0.2649115 0.6187598
000030 4f 9f a9 3e cd 96 b3 bd ff e9 bd be ce c2 6d bf
       0.33129355 -0.08768997 -0.37092587 -0.92875373
000040 f5 f9 40 3f bf bb 8c bd 2b 4e 53 3e 90 6e ae 3d
       0.75381404 -0.06871747 0.20635287 0.08517182
000050 56 21 a5 bf 5c 31 21 ba b8 f6 87 3e 0e 84 81 3e
       -1.2900798 -0.0006149018 0.2655542 0.25296062
000060 2d 10 d0 3e 6f 16 4f 3f b7 9f 69 3e 2a 23 a0 be
       0.4063734 0.80893606 0.22814833 -0.31276828
000070 36 94 29 3f 62 1b 26 bf b8 d8 04 3f 82 80 9a 3f
       0.66241777 -0.6488553 0.51893187 1.2070467

pixel_patch_embedding.weight f4 [32, 30]
000000 04 54 22 3e 32 86 0a be 40 71 be 3d 20 13 12 3c
       0.15852362 -0.13527754 0.092989445 0.008915693
000010 e4 b2 d3 3d 78 d7 d0 bc 00 af e8 3b 80 9c 10 bc
       0.10336855 -0.025493369 0.0071009398 -0.008826375
000020 f0 eb c7 bd 7c b7 be 3d d7 ae bc bd 7c 2e e6 3d
       -0.097617984 0.093123406 -0.092130356 0.11239335
000030 7c 53 0f be 94 6e 26 3d 00 00 02 3b 4a 6e 9f bd
       -0.1399669 0.0406328 0.0019836426 -0.07784708
000040 80 ee 17 3e a8 22 b5 bc 7c da da 3d 3c bc 9d 3d
       0.14837074 -0.022111252 0.10686204 0.077019185
000050 e7 89 0e be 70 ce fc 3d c8 f8 01 be a6 48 33 3e
       -0.13919793 0.12344062 -0.12692559 0.17508182
000060 f8 42 00 3d 60 73 0b bc fe 6b 98 bd 8b e3 97 bd
       0.031313866 -0.008511394 -0.07442473 -0.07416447
000070 a8 ef f8 bd f4 42 f0 3d f4 51 7b 3d 42 bb 8f bd
       -0.12155086 0.1173152 0.061357453 -0.070181385
000080 5c d7 12 3d a8 cf 36 3e 20 65 3d bc ec f8 14 be
       0.035849914 0.17852652 -0.011559755 -0.14548081
000090 94 72 e6 bd 04 4b cd bd 20 58 97 bc f4 6c 95 bd
       -0.11252323 -0.10024074 -0.018474638 -0.07296172
0000a0 6a 5a 26 3e 12 76 2b be 40 ed d9 bc 6b 87 b5 bd
       0.16245428 -0.16744259 -0.026602387 -0.088637196
0000b0 32 70 20 3e 40 82 48 bc d0 ac 7a bc 38 f0 6b bd
       0.15667799 -0.012238085 -0.015299991 -0.057602137
0000c0 f9 ad b1 bd 2c 1d 1f be 56 0f e9 bd e8 af 6b bd
       -0.08675761 -0.15538472 -0.11379878 -0.057540804
0000d0 18 4e 0f 3e 30 8b 4f bd d0 88 ba 3d 70 22 22 3e
       0.13994634 -0.05066985 0.09108126 0.1583345
0000e0 28 d3 10 bd fc 69 cd bd a6 71 eb bd ec 78 2c 3d
       -0.035357624 -0.100299805 -0.11496286 0.042107508
0000f0 f8 16 0f 3d d0 11 47 3c 80 25 28 3e 72 ab 15 3e
       0.034934014 0.012150243 0.16420555 0.14616182
000100 64 42 fc 3d 3a a5 05 3e ce 7f 39 3e df b5 ff bd
       0.123173505 0.1305131 0.1811516 -0.12485861
000110 14 03 a2 3d 40 95 1c 3c a8 b4 f3 3d b4 73 a2 3d
       0.07910743 0.009557068 0.11899692 0.07932225
000120 58 41 22 3d 18 b4 59 3d 68 c8 50 bd 00 1c b7 3c
       0.039613098 0.053150266 -0.050972372 0.022352219
000130 94 d4 aa 3d 1e 65 38 3e 0c 83 0d 3e 92 ad 18 3e
       0.08341327 0.18007323 0.13819522 0.14909962
000140 7c 28 49 bd 60 53 b0 3d 9c 2b ac bd 10 a9 39 bc
       -0.049110875 0.086096525 -0.08406755 -0.011331812
000150 d8 f0 9e 3d 30 7b 25 3e e0 a5 66 3c b4 a6 f4 3d
       0.07760781 0.16160274 0.014077634 0.119458586
000160 42 42 2b 3e 0c 8a 4c 3d 60 ce e9 3c 5e 28 08 be
       0.16724494 0.04993634 0.02854079 -0.13296649
000170 78 b7 ad 3c 42 39 07 3e 18 22 fc 3c 68 cc 01 3e
       0.021205649 0.13205436 0.030777976 0.12675631
000180 28 9a f4 bc 0e 8c 15 3e 58 11 09 3d 68 cd 3d bd
       -0.029858664 0.14604208 0.033463806 -0.04633847
000190 95 41 e3 bd b6 ab 21 3e dc a9 38 3d b8 01 b9 bc
       -0.11096493 0.15788159 0.045083866 -0.022583827
0001a0 00 b5 c4 3a a0 1c ca 3b 0a f6 00 3e e8 29 ad 3d
       0.0015007555 0.006167963 0.12593856 0.084552586
0001b0 6e 7e 2a 3e 20 9d 36 3d 0d eb 0e be ec c9 71 bd
       0.16649792 0.04458344 -0.13956852 -0.05903046
0001c0 ca cc 88 3d 10 22 2e 3c e0 1f 1e 3e 71 41 83 bd
       0.066796854 0.010628238 0.15441847 -0.06408966
0001d0 70 ff 9d bc a8 d9 3d bd 78 90 9f 3d d2 61 03 be
       -0.019286841 -0.04635015 0.07791227 -0.12830284
0001e0 90 de f9 bc 32 9f 24 be 2e ea ee bd ea de 36 3e
       -0.030501634 -0.16076353 -0.1166576 0.17858472
0001f0 10 0a 39 3e 80 03 7a 3b 14 d3 da bd cc 8a 01 3e
       0.18070245 0.0038149059 -0.10684791 0.12650603
000200 ca f1 81 3d fc d7 d3 3d c4 43 b3 3d 74 03 af 3d
       0.06344946 0.1034393 0.0875316 0.085455805
000210 7c ba e5 3d 40 ee 7d 3d e0 5f cb 3d 22 2a 2e 3e
       0.1121721 0.06199479 0.09930396 0.1700826
000220 14 a2 30 be a6 73 33 3e 0c 1f bf 3d f0 48 c3 3d
       -0.17249328 0.17524585 0.093320936 0.09535396
000230 63 e3 0f be 58 5f 90 3d c2 7b 84 3d dc fc 01 be
       -0.14051585 0.070494354 0.064689174 -0.12694114
000240 62 5c 2e 3e b8 a0 ee bc c0 ee ff 3d 2f 32 b0 bd
       0.17027429 -0.029129371 0.1249671 -0.08603322
000250 50 8d 72 3d dc 2f f8 bd 80 89 f4 3c 20 b5 11 be
       0.059216797 -0.121185035 0.029850721 -0.1422925
000260 00 c8 d1 bb c0 df db 3d 9e c0 f8 bd 46 21 f6 bd
       -0.0064020157 0.10736036 -0.12146114 -0.12018065
000270 3e 5e 1b 3e 6b 95 b9 bd a8 7b 9a bc b0 24 63 bc
       0.1517267 -0.09061702 -0.018857792 -0.013863727
000280 b4 50 15 be 60 a6 f3 3d f0 c5 c7 bd 88 45 37 3d
       -0.14581567 0.11896968 -0.097545505 0.044744045
000290 0c 1e 2a 3e a4 06 1c 3d 40 0a 3c 3b 8c 83 06 3e
       0.16613024 0.03809227 0.0028692633 0.13136119
0002a0 c0 34 08 3e a4 f6 22 3e a8 16 0a 3d 5e 14 30 be
       0.13301373 0.15914398 0.033713013 -0.1719527
0002b0 c4 d3 01 bd fc d8 7b 3d 58 b3 f7 bc 80 f5 30 bb
       -0.031696096 0.06148623 -0.030236885 -0.0027001798
0002c0 50 ac b3 3c 12 79 18 be 08 4b a2 3d b0 6f 0f 3e
       0.021932751 -0.14889935 0.07924467 0.14007449
0002d0 dc 72 76 3d 1c 8d 43 3d 90 3b 14 bd e3 a5 30 be
       0.060168132 0.047741994 -0.036189616 -0.17250781
0002e0 00 e3 1b 3e fc 09 2f 3e 98 ea cc bc d0 ea 8e 3d
       0.15223312 0.17093652 -0.025014207 0.06978381
0002f0 e0 05 21 3e 68 70 fb 3c 80 65 8f bc d7 1c 1d be
       0.15724897 0.030693248 -0.017504454 -0.15343033
000300 52 69 27 3e c4 a8 fe bd 20 19 27 3e 9c b4 35 bd
       0.1634877 -0.12434533 0.16318178 -0.044361696
000310 8c 4e ed 3d 7e 2f 80 3d ac b2 bf 3d 14 3e 39 3e
       0.11587247 0.062590584 0.09360251 0.18090087
000320 8e 17 15 be 40 6b 1e 3d b9 e0 f9 bd a8 b5 57 3d
       -0.14559767 0.0386765 -0.122010656 0.052663475
000330 54 6b 31 bd 5c 6f 9b 3d b0 fa 9f bc 33 5f 38 be
       -0.043315247 0.075895995 -0.019528717 -0.18005066
000340 b0 75 10 3c c4 97 be 3d 39 d3 8c bd 12 14 f7 bd
       0.008817121 0.09306291 -0.06876225 -0.12064375
000350 a1 56 ac bd cc 69 18 bd 20 21 17 be b8 36 e5 bc
       -0.08414961 -0.03721027 -0.1475873 -0.027980193
000360 64 44 11 3e 71 dd 23 be 3c 64 a2 bd b0 c8 93 bc
       0.14186245 -0.16002442 -0.079292744 -0.018040031
000370 96 39 0a be 10 c6 8a 3c d8 23 c4 3d a0 73 72 bc
       -0.1349853 0.016940147 0.09577149 -0.014798075
000380 d4 d6 1f 3d d8 68 1d bd 10 21 cb 3d 47 2a 82 bd
       0.039023235 -0.038430065 0.099184155 -0.0635572
000390 e0 e7 95 3b d0 b5 83 bd 38 78 89 bc 80 5b dc 3c
       0.004574761 -0.06431162 -0.016780958 0.0268991
0003a0 e2 f9 b3 bd 3f c5 27 be c1 e6 10 be c4 0f 00 bd
       -0.08787896 -0.16383837 -0.14150526 -0.031265035
0003b0 28 e3 db bd 04 28 0f 3e 50 21 e5 3d 44 e8 b9 3d
       -0.10736686 0.13980108 0.111879945 0.09077504
0003c0 2c 44 45 bd 47 bc 2c be 6c 90 da 3d c5 65 81 bd
       -0.048160717 -0.16868697 0.106720775 -0.06318239
0003d0 80 fa 55 3b 30 bf d4 3c 88 65 b4 bc 7e 5d 09 be
       0.003265053 0.025970072 -0.02202107 -0.1341457
0003e0 7d 47 30 be f8 cc 94 bc 24 ed f0 3d 48 9b b8 bd
       -0.1721477 -0.018164143 0.11763981 -0.090139925
0003f0 ac 47 7f bd 3f 23 12 be 94 b3 0e be 4f 8e a0 bd
       -0.06232421 -0.14271258 -0.13935691 -0.07839643

pixel_patch_embedding.bias f4 [32]
000000 c4 ab ae 3d 40 4a c2 bd f6 c1 0f 3e 00 a5 46 3b
       0.085288554 -0.09486818 0.14038834 0.003031075
000010 f4 e6 60 3d be 73 21 be 9e ab 21 be 88 af ff 3d
       0.054907754 -0.15766808 -0.15788123 0.12484652
000020 ee 92 a7 bd 04 20 1a be f0 a0 13 be 24 5c 4e 3d
       -0.081823215 -0.15051275 -0.14416862 0.05038084
000030 e8 7c 2d 3e 92 19 d3 bd d8 9e 00 be c4 5d e6 3d
       0.16942179 -0.103076115 -0.12560594 0.11248353
000040 1e 30 89 3d ac a2 b3 3d 90 1d 4c 3c e0 23 b2 3d
       0.06698631 0.087712616 0.01245822 0.08698249
000050 40 c6 17 3b 90 58 07 3c dc d0 25 bd 7e ec 86 3d
       0.0023158938 0.008260861 -0.040482387 0.06588076
000060 a0 cf dd 3d 30 01 64 bd 10 7f 66 3c 66 f6 29 3e
       0.10830617 -0.055665195 0.01406838 0.165979
000070 a8 19 34 bd 7f 50 f1 bd 30 18 01 3c 4f 53 a1 bd
       -0.04396978 -0.117829315 0.007879302 -0.07877218

local_trans_pixel.layers.0.0.fn.norm.weight f4 [32]
000000 44 21 8e 3f 3b c5 93 3f be 43 94 3f 75 b1 8a 3f
       1.1103902 1.1544565 1.1583173 1.0835406
000010 8a 3f 8c 3f b7 6a 8f 3f a9 7c 9f 3f 50 f5 96 3f
       1.095689 1.1204442 1.2459918 1.1793613
000020 0c f4 9d 3f 30 99 8d 3f 96 66 94 3f 08 e5 8a 3f
       1.2340102 1.1062374 1.1593807 1.0851145
000030 56 81 93 3f 30 62 88 3f 77 bc 92 3f bc 82 9a 3f
       1.1523845 1.0654964 1.1463765 1.2071147
000040 6b bc 8c 3f 61 fa 8f 3f d1 b2 8f 3f 33 ec 93 3f
       1.0995001 1.1248285 1.1226445 1.1556457
000050 6f 6e 9e 3f 88 30 8f 3f 29 db 96 3f f2 bc 8f 3f
       1.2377452 1.1186686 1.1785632 1.1229537
000060 87 ce 94 3f c8 0c 95 3f f5 75 9c 3f 7c 3d 8b 3f
       1.1625527 1.1644526 1.2223498 1.0878139
000070 ac 49 8f 3f 49 e1 8a 3f b2 a2 9b 3f d1 c9 94 3f
       1.1194358 1.0850002 1.2159026 1.162409

local_trans_pixel.layers.0.0.fn.norm.bias f4 [32]
000000 d0 ea ed 3d 5c 5c 26 be 80 01 25 bd 9a 53 98 3d
       0.116170526 -0.1624617 -0.040284634 0.07437821
000010 66 e4 06 3e 07 16 82 bc 96 2c b7 bd 2a 99 4c 3e
       0.13173065 -0.015879644 -0.08944051 0.19980302
000020 b3 1d 8d 3d 06 12 0f be e0 3e 23 be 0e 78 ac 3d
       0.0689043 -0.13971719 -0.15941954 0.08421336
000030 de 0b e3 bc c8 ad f8 bd 01 d7 0c be 2d 6e a8 bd
       -0.02771562 -0.12142521 -0.13753892 -0.08224139
000040 04 f1 02 3e 3d 85 43 bd cb 58 37 be b3 82 ed bd
       0.12787253 -0.047734488 -0.17904966 -0.115971945
000050 0e a5 a2 3c 8a 2f 93 bb 61 10 4d 3e 25 cb 6f bd
       0.019854095 -0.004491751 0.2002578 -0.058543343
000060 f4 0a 27 be 18 7f 3a 3e 3c ba 22 3e 3a 16 51 bc
       -0.16312772 0.18212545 0.15891355 -0.012761647
000070 e4 11 46 3d 06 82 86 bd 9d 3c 4f 3d 40 4d 97 3d
       0.048356906 -0.06567769 0.050594915 0.07387781

local_trans_pixel.layers.0.0.fn.fn.to_qkv.weight f4 [768, 32]
000000 4c b9 ad bd 15 7f 05 3e 76 70 2e be 87 16 09 be
       -0.08482608 0.13036759 -0.17035088 -0.133875
000010 74 c1 15 3e 26 d3 68 bd 01 9d 16 be 8b d6 82 be
       0.14624578 -0.05684199 -0.1470833 -0.25554308
000020 4f ac 3d be 37 9a f3 3d dd 2f 56 bd c0 a1 ae bd
       -0.18522762 0.118946485 -0.05229174 -0.08526945
000030 5d a4 13 3e f5 fd 4d be a2 91 b8 3d c2 d9 d1 3d
       0.14418168 -0.20116408 0.09012152 0.10246612
000040 a0 c5 22 be 8e 38 4f 3e 29 64 50 3d be 25 d8 3d
       -0.158957 0.20236418 0.05087677 0.10554074
000050 a8 d3 86 3e 5e e4 29 bd 7d 49 8b bd 31 73 02 be
       0.26333356 -0.041477554 -0.06801126 -0.12739255
000060 92 58 ef 3c 98 76 62 3d 24 e3 aa 3e f3 35 90 bd
       0.029217038 0.05528888 0.3337642 -0.0704154
000070 61 74 68 3e 4d 72 06 be 3e 30 7d 3e 3a d5 00 3e
       0.22700645 -0.1312954 0.24725434 0.1258134
000080 9f 61 46 3e 33 f5 66 3d 1c 7a 1e be 68 11 51 3c
       0.19373177 0.056386184 -0.15476269 0.012760498
000090 98 0d a4 bd 17 0b f1 3d 8e 49 12 3e 07 e6 bc bd
       -0.08010405 0.11769693 0.14285871 -0.09223562
0000a0 04 c4 59 3e 91 69 5d be 52 71 00 be ee 67 dd 3d
       0.2126618 -0.21622302 -0.12543228 0.10810839
0000b0 8d 16 d2 3c ca 8f cd 3d be 47 51 3d df b4 00 bf
       0.025645519 0.10037191 0.05109381 -0.5027599
0000c0 3b 51 35 bd 16 50 33 3e c2 f7 ca bc 42 35 9c bc
       -0.04426692 0.17511019 -0.024776343 -0.019068364
0000d0 c3 57 9b 3d f3 60 51 be f8 eb 8d 3d fe 1d a5 3d
       0.075850986 -0.2044714 0.06929773 0.08062361
0000e0 c7 20 7b 3c 43 a8 fc bd 17 65 44 3e b3 f1 25 3e
       0.015327639 -0.12336781 0.19179188 0.16205482
0000f0 fc aa 36 3e 0d ba 98 bd 66 6b 33 be 76 f4 43 be
       0.17838663 -0.07457361 -0.17521438 -0.19136223
000100 c0 92 9a 3d 62 ea 05 3d bb 58 6e bd f2 2f 21 bd
       0.075475216 0.032694228 -0.05819009 -0.039352365
000110 e1 45 59 3d 84 3c 06 3e 18 f4 45 3e 36 a6 9d 3e
       0.053045157 0.13109022 0.19331396 0.3079087
000120 29 83 c0 3e 35 ff 0d 3e 2d 59 96 3c a1 39 25 3e
       0.37600067 0.13866885 0.01835307 0.16135265
000130 ab 28 1f 3a 93 25 0c bd 31 07 db bd 8d d2 6c bc
       0.00060714287 -0.03421552 -0.10694731 -0.014454496
000140 f3 7a 1b 3e ae 99 3c be 51 fb 8b bb 6d 32 8f 3d
       0.1518362 -0.18417999 -0.0042719026 0.0699204
000150 ee cb 91 be 41 1f 0a 3d 5c 46 09 3e 7a 42 bf 3c
       -0.28475899 0.033721212 0.13405746 0.023347128
000160 e6 f5 21 3e 01 94 b3 3d cc 70 d3 be 6b 84 29 3c
       0.15816459 0.08768464 -0.41296995 0.010346512
000170 57 de 0e be 53 bc 8e bc 26 b8 1b be a7 5c 40 be
       -0.13952003 -0.017423784 -0.15206966 -0.18785344
000180 17 75 f4 bb 0f ee 96 bc 9e da 4f 3e 15 a7 2e be
       -0.0074602473 -0.018424062 0.2029824 -0.17055924
000190 7d f7 29 3d 07 6b 47 3e 27 14 8c 3d 26 5c 92 be
       0.04149579 0.19474421 0.06839781 -0.2858593
0001a0 f3 ee df bd d2 33 8c be 58 bc 6c bd cf 4b d1 bd
       -0.10934248 -0.27383286 -0.057796806 -0.102195375
0001b0 3a eb f4 3c f0 01 da bd 83 80 9b 3c 25 2a 2f be
       0.029897321 -0.10644901 0.018982178 -0.1710592
0001c0 d5 26 52 be 93 72 ae 3d 62 cc 39 3d 06 f3 18 bd
       -0.20522626 0.08517947 0.04536093 -0.03734114
0001d0 3a 2a 0a 3d a4 08 9d bc 30 b7 06 be a1 dd db 3e
       0.033731677 -0.01916916 -0.13155818 0.42942527
0001e0 1e 78 a0 3d 8d 11 0c be a0 54 cd 3d 22 8d 59 be
       0.078354105 -0.1367857 0.100259066 -0.21245244
0001f0 0d 28 a3 3c 44 ab fc 3d 6a cf a0 3d c5 3d 7e 3d
       0.019916559 0.12337354 0.07852061 0.062070627
000200 94 da 7a 3e 80 e6 49 bc bc 5a fd bd 34 c2 bf bd
       0.24497443 -0.012323022 -0.12370822 -0.09363213
000210 bd 44 12 3d f4 97 bb bd f6 83 ed 3c d0 cb d8 3e
       0.035710085 -0.09159842 0.028993588 0.42342997
000220 84 b7 04 bd 3c 2d ff bc ac bb 6a 3e 7a 06 7b bd
       -0.032401577 -0.0311495 0.22923154 -0.061285473
000230 e2 a7 08 be cd 00 4a be ba 35 47 3e e4 1b 53 be
       -0.13345292 -0.19726868 0.19454089 -0.20616108
000240 bc a6 11 3d ae a0 1a be 3e 6d 41 be fd 1e 37 3e
       0.0355594 -0.15100357 -0.18889329 0.17882915
000250 39 61 8f 3d 6a ba 7c bd 34 94 1b bd fd 20 ae be
       0.070009656 -0.061701216 -0.037983134 -0.34009543
000260 ff 87 98 3d 73 dd d5 3d 9f f6 3a be 71 c7 2d 3e
       0.07447814 0.10442629 -0.18258141 0.16970612
000270 61 25 41 bd 7a 6e 22 bd 93 00 d9 3d 0b 43 2b be
       -0.047154788 -0.03965614 0.10595813 -0.16724794
000280 69 4f 24 3e 0b 69 d1 3d fc b0 59 bd 5a 77 53 3e
       0.16045918 0.102251135 -0.0531473 0.20650998
000290 05 67 f2 3d 24 7b 67 bd 21 59 e7 3e 75 9a 9e 3e
       0.11836056 -0.05651392 0.45185187 0.30977216
0002a0 20 b7 d3 3e 25 46 5e 3e a9 a5 82 3d bf a9 e1 3d
       0.4135065 0.21706446 0.063792534 0.110187046
0002b0 53 43 65 be 5b 97 05 be a2 ee 1a be bc 23 59 bd
       -0.22388963 -0.13046019 -0.15130094 -0.053012595
0002c0 22 46 5f 3c 87 fd e1 bd 20 e9 79 be f4 fe 04 3e
       0.013627561 -0.11034685 -0.24405336 0.12987882
0002d0 df 3c 33 3d b9 1e 8b bd 28 e2 82 bc 9c ef 56 be
       0.043759223 -0.06792969 -0.01597698 -0.20989841
0002e0 15 8a e9 bd 13 65 28 3e c5 b7 9e be ac f2 b2 3d
       -0.1140329 0.16444807 -0.3099958 0.08737692
0002f0 fd d2 00 be c1 0d 17 be 88 fd 58 bc e0 e3 f1 bd
       -0.12580486 -0.1475134 -0.01324404 -0.11811042
000300 57 3a 18 3e 37 ba 06 be dc 0a 0e 3e 4e 3d 44 bd
       0.14866005 -0.13156973 0.1387133 -0.047910027
000310 e3 97 30 be 5b cd 9e 3d 62 f9 48 3d 2e 66 08 3b
       -0.1724544 0.07754012 0.049065955 0.0020812857
000320 f9 75 f8 3d 5f 22 c4 3d d4 99 32 be 3f 13 8b bd
       0.121318765 0.09576868 -0.17441493 -0.0679078
000330 eb a2 12 be de 6e 27 3d 29 fb a0 bd 14 34 d8 3b
       -0.14319961 0.040877216 -0.07860405 0.006598005
000340 d9 47 62 3d 93 11 26 bd 27 27 f6 bd 51 1f c9 bd
       0.0552443 -0.040544104 -0.120191865 -0.09820426
000350 c9 fd 28 bd 41 e1 ef 3d 83 3b 71 3d a4 15 03 3e
       -0.041257653 0.11712886 0.058894645 0.12801224
000360 b4 88 e7 bd 9c 15 30 bd 22 ef d3 bd f0 ee 4f be
       -0.11305371 -0.04298936 -0.10348345 -0.20305991
000370 a8 4e 32 be 46 3a 04 3e 91 c7 7e 3d e9 15 ca bd
       -0.17412817 0.12912855 0.06220204 -0.0986746
000380 34 ab 26 bc 3f 1e 2a 3e 35 1c bd 3c 2f 83 54 3e
       -0.010172654 0.166131 0.02308474 0.20753168
000390 53 15 28 3e a3 e6 3f 3e 65 f9 58 3e 7f 7c ab be
       0.16414385 0.18740325 0.21188886 -0.3349342
0003a0 3b bc e2 3d 1d 77 03 bc 5e d2 9d bd 10 ac 46 3d
       0.11071058 -0.008024004 -0.0770614 0.048503935
0003b0 f6 26 ee 3d 1a c0 b3 3d f4 d8 b9 3d 40 49 0d be
       0.11628525 0.08776875 0.09074584 -0.13797474
0003c0 7f 44 c3 3c 6e fb 21 be c2 94 50 bd 4f 15 68 be
       0.023836372 -0.15818569 -0.050923117 -0.22664379
0003d0 c2 e3 14 3e cb 8f 2f 3d e7 bd a9 bd ee 58 19 3e
       0.14540008 0.04286174 -0.08288174 0.1497533
0003e0 ba 5b 4c be 29 89 aa bd c9 de 09 3e 6b 35 bc bd
       -0.19956866 -0.083269425 0.13463892 -0.09189876
0003f0 21 98 0a be 60 9f b4 bd 10 4c b4 bd 36 59 94 3c
       -0.13534595 -0.08819461 -0.0880357 0.018108945

local_trans_pixel.layers.0.0.fn.fn.to_out.0.weight f4 [32, 256]
000000 15 8c 12 bd 91 2b c1 3c 39 35 22 ba ea 24 fd bd
       -0.035778124 0.023580344 -0.00061877404 -0.123605564
000010 ad e3 9f 3d df 5c b4 3d bb 10 c2 3d 3d a6 98 bd
       0.078070976 0.08806776 0.09475847 -0.074535824
000020 ed e0 34 bd 9e c9 61 3d 74 6c 35 bd 47 aa 4c 3d
       -0.04415982 0.055123918 -0.044292882 0.049967077
000030 cc 59 7a bd 69 70 4b 3d 46 0e 9d bd 08 17 88 3d
       -0.061120793 0.04966775 -0.07668738 0.06645018
000040 8f 5c 2a 3d 29 bc 80 3d 8f 77 6c ba f0 17 8a 3b
       0.041592177 0.06285889 -0.0009020501 0.0042142794
000050 76 a2 05 3d 67 0b ce 3c d8 cb 6e 3c 00 43 ef 3c
       0.032625638 0.025151921 0.014574967 0.029206753
000060 83 f7 b2 bc 74 94 31 3d 51 20 9e 3d 03 a7 18 3d
       -0.021846538 0.043354467 0.077210076 0.03726865
000070 9d 08 52 3d 39 3c 11 be 0e bf 89 3c 28 af 01 be
       0.051277746 -0.1418313 0.016814735 -0.12664473
000080 1d 5a 39 3a 65 89 91 bd e0 87 ee bc bd 5a ce 3c
       0.0007070618 -0.07106284 -0.029117525 0.025189752
000090 aa 1d 30 3c 84 d3 8b bd 4e c7 ab 3c bd df 07 3d
       0.01074926 -0.06827453 0.02096906 0.033172358
0000a0 8a 10 32 3d d0 54 06 3e 0b eb ce bd b0 11 57 3c
       0.043472804 0.13118291 -0.10103425 0.013126776
0000b0 73 2b 02 be 73 39 16 3d 44 5f e7 3d dc 6c b4 3d
       -0.12711887 0.03667588 0.11297467 0.08809826
0000c0 58 5a 7a bd 51 71 d2 bb f9 e2 6d bd 6a 5e ba 3d
       -0.061121315 -0.0064222 -0.058077786 0.09100039
0000d0 46 19 ef bc 41 e5 14 bd d2 20 da 3c b0 a4 a7 3d
       -0.029186856 -0.036351446 0.026626978 0.081857085
0000e0 73 0c d8 bc 30 0c 06 3c bd 17 8d 3d ca 70 db bb
       -0.026373124 0.008181617 0.06889293 -0.006696795
0000f0 d7 a0 de bd d0 af a0 3c f3 06 e1 bd 1d 02 b2 3d
       -0.108705215 0.019615084 -0.109876536 0.08691809
000100 12 14 d8 3d 1d a6 93 bd c8 1e b4 bc b7 51 0a 3e
       0.10550703 -0.07209418 -0.021987334 0.13507734
000110 27 04 48 3c a3 25 c8 3a cf 63 e7 bc 59 01 89 3b
       0.012208021 0.0015270006 -0.028245835 0.004181069
000120 8d c4 44 3c cf 30 8f bd 50 a8 90 bd e0 07 f9 bb
       0.012009752 -0.069917314 -0.07063353 -0.0075998157
000130 3e b7 be bd 4e 05 24 be ca 45 85 3b c7 72 21 3d
       -0.093122944 -0.16017649 0.0040671574 0.0394161
000140 e0 48 b4 bc c6 92 de bd 8e 5a 09 be dd d8 23 3c
       -0.022007406 -0.108678386 -0.1341345 0.010000435
000150 21 9f e8 bb db c4 7e 3d f9 9b 6b bd 91 3c cb 3c
       -0.007099048 0.062199455 -0.057521794 0.024809154
000160 50 00 b2 3d 1e 39 c6 3d 18 c8 e8 3d 14 ca 4e bc
       0.08691466 0.09678863 0.1136629 -0.012621421
000170 46 06 05 3d 9b 88 f7 bc f5 61 ad 3d 38 35 8d 3d
       0.032476686 -0.030216506 0.084659494 0.06894916
000180 1b e4 83 bd 63 fe 5d 3d 68 e9 6c bc 31 d2 f8 bd
       -0.06439992 0.05419768 -0.014459945 -0.12149466
000190 03 6b 5d bd e7 78 0e 3e f0 a7 bc bb 2e b3 ed bd
       -0.054057132 0.13913308 -0.0057573244 -0.116064414
0001a0 b6 1f c2 3c 9a b2 95 3c 1e 3a c4 3c ef e2 57 3d
       0.023696762 0.01827364 0.023953494 0.052706655
0001b0 a5 9d 80 3d 13 58 61 3d 64 aa 0a 3d ac d4 9c bc
       0.06280068 0.055015635 0.033853903 -0.019144379
0001c0 f2 13 72 3d 1c bb e4 bd 9a 32 e1 bc 03 db c6 3b
       0.059101053 -0.11168501 -0.027489949 0.0060685887
0001d0 d3 d2 05 be 80 7a 7e bd c6 c3 57 3d a9 5f 02 bd
       -0.13068704 -0.062128544 0.05267694 -0.03182951
0001e0 e5 39 06 3d c2 a9 e5 bc d6 f3 6a 3c 72 04 81 3d
       0.032770056 -0.028035048 0.014340362 0.06299676
0001f0 05 0b bb 3d dc 4a 69 bc 1a 5a 3a bd 4c 49 c2 bc
       0.09132961 -0.014239039 -0.045496084 -0.023716591
000200 95 a6 68 3c 54 37 d3 39 d8 56 69 3d 83 df f3 3d
       0.0141998725 0.0004028628 0.056967586 0.11907866
000210 10 02 6f bd 4a 96 54 bd 89 3f 27 bd a5 2e c6 bc
       -0.058351576 -0.05190114 -0.040832076 -0.024192164
000220 97 0b 02 3d 38 a3 bb 3c 70 24 88 bd 1f 7a ea bc
       0.031749334 0.022904977 -0.06647575 -0.028622685
000230 d1 57 16 be c0 5e 25 bd da 55 bc bc a0 f9 d8 bd
       -0.14681937 -0.040373564 -0.022990156 -0.10594487
000240 07 1e cc 3d 36 41 26 3d 79 eb 7c 3d 21 44 bc bb
       0.09966665 0.040589534 0.061748 -0.0057454263
000250 f2 e5 07 3d 99 d1 04 bd dc b3 bc bd b3 1d 1d bd
       0.033178277 -0.03242645 -0.09213993 -0.0383584
000260 5e 7d d8 bd c7 e5 9c bd d3 8f 6a bc 1b a6 d7 ba
       -0.10570787 -0.07661014 -0.014316517 -0.0016452702
000270 26 a8 b0 3d 57 2a ed 3c 2a da c3 3c 82 91 ad bb
       0.08625822 0.028950853 0.02390774 -0.005296887
000280 19 50 a8 3d e1 38 12 3c 9a 20 2a be 2d 2c ac 3d
       0.082184024 0.008924694 -0.16613999 0.08406863
000290 2f 12 60 3d 2d bb 09 bd 18 99 db bc a4 77 44 ba
       0.05470484 -0.03362577 -0.0268064 -0.00074946345
0002a0 98 c5 25 3e 45 de f2 bd 10 76 0e 3d 30 73 90 bd
       0.16188657 -0.11858801 0.034780562 -0.0705322
0002b0 4b af 83 bd fc 1b b3 bd fb 15 b5 3d f0 fa 4b 3d
       -0.06429919 -0.08745572 0.08842083 0.04979986
0002c0 1a 57 ff bd 02 b2 3c bd c1 03 a1 3c b9 02 39 3d
       -0.12467785 -0.0460682 0.01965511 0.045168612
0002d0 b3 a0 4a 3d a2 b8 b7 bd 88 35 fd bc a6 9f fa bd
       0.04946966 -0.08970763 -0.030909315 -0.12237482
0002e0 6d f0 80 bc 37 a3 be bd 71 c2 4e 3d e8 09 c4 3d
       -0.015739644 -0.093084745 0.050478403 0.09572202
0002f0 c7 6f 92 bd 25 a4 4f 3d ea 72 c8 3d f9 01 5b 3d
       -0.07150226 0.05069365 0.09787543 0.05346868
000300 ef 22 06 bd 27 6a b7 bd 2b 90 1a bd 81 da 71 3d
       -0.03274816 -0.08955794 -0.037735146 0.059046272
000310 7e 30 10 bd 87 3b ca bd 7f fb 9f 3c b5 70 a3 bb
       -0.035202496 -0.09874635 0.019529102 -0.004987801
000320 15 df fe bc 66 f9 7a bc ed 54 4a 3d 96 05 ce 3d
       -0.031112233 -0.01531825 0.049397398 0.10059659
000330 6f 4d a6 3d 89 6d 01 bd dc 70 4e 3d 7e 0a e5 3d
       0.08120238 -0.0315986 0.0504006 0.11183642
000340 36 bc b1 bd 8a 5d b7 3d c0 13 ca 3d f3 08 2a 3d
       -0.086784765 0.08953388 0.09867048 0.04151244
000350 46 95 66 bd e6 58 a8 bd f3 e4 d8 bd dc c6 42 3d
       -0.056294702 -0.08220081 -0.105905436 0.04755293
000360 a1 19 08 bd ca 64 96 3c 63 87 09 bd 67 b2 0c bd
       -0.033227567 0.018358607 -0.03357638 -0.034349825
000370 9c 4f 7b bd a7 63 55 3d 13 6f d2 3d 90 17 94 bd
       -0.06135522 0.05209699 0.10275092 -0.07231057
000380 aa 8d 44 bc 61 4c 12 3e dc a5 58 3c 68 86 5f bc
       -0.011996666 0.14286949 0.013223138 -0.013642885
000390 13 8b 7b 3d b0 5b 02 3c 42 7f cc 3c 63 03 7d 3d
       0.06141193 0.00795643 0.024963025 0.061770808
0003a0 c9 75 c4 3d 09 2f fb 3b 32 b9 d6 3d 90 44 1d 3e
       0.09592778 0.007665519 0.10484542 0.15358186
0003b0 c5 55 27 3c a2 b9 22 bd f0 15 a3 3d df 8e 93 3d
       0.01021332 -0.039727814 0.079631686 0.07204985
0003c0 af e0 18 3e 23 ea 09 3e 65 1c 38 3d a5 32 55 bd
       0.1492946 0.13468222 0.044948954 -0.05205025
0003d0 71 12 b4 3d 6b 3f 89 bd fb 67 1f bd 5f a0 8d bc
       0.0879258 -0.06701549 -0.038917523 -0.017288385
0003e0 b3 ac 9d 3c 46 5f 90 bc 9b 61 c1 3c 93 a1 99 3d
       0.019247388 -0.017623555 0.023606112 0.07501521
0003f0 76 1f 1e bd 1c e5 40 bd 95 a1 2e 3c c1 95 30 bd
       -0.038604222 -0.047093496 0.010658641 -0.043111566

local_trans_pixel.layers.0.0.fn.fn.to_out.0.bias f4 [32]
000000 91 70 fc 3c bb 03 06 bd 9e 7a 18 3c 09 a4 b3 bd
       0.030815395 -0.0327184 0.009306578 -0.087715216
000010 84 b7 4d 3d 05 72 2d 3d 24 c4 67 bb a8 73 f2 bc
       0.050223842 0.042345066 -0.0035364712 -0.029596165
000020 7c 6c 71 3d 87 9f 7b bd 02 10 62 bc fe 50 ee bc
       0.05894135 -0.061431434 -0.013797762 -0.029091354
000030 a1 21 e8 3c 6d 19 7f 3c e3 7c a5 3c dd d4 7d 3b
       0.028336348 0.015570027 0.020201152 0.0038731613
000040 53 24 f1 bb 09 ff fb 3b 29 87 eb 3d 10 df 9d 3b
       -0.0073590665 0.0076903147 0.11500389 0.004817851
000050 3e 58 88 3d 5e 62 33 be b1 91 9b bc 29 68 5d bc
       0.06657456 -0.17517993 -0.01899037 -0.013513603
000060 b2 2e e4 bc ba 28 d9 3d ff c8 e8 bd 8d b0 c6 3d
       -0.027854297 0.10603471 -0.11366462 0.09701643
000070 d7 f7 b9 3c 39 d8 78 3d c9 7f 25 be 6c 34 52 3d
       0.022701187 0.06075308 -0.16162027 0.051319525

local_trans_pixel.layers.0.1.fn.norm.weight f4 [32]
000000 da d0 91 3f 6c 90 80 3f 79 9a 91 3f 7d b2 78 3f
       1.1391861 1.0044074 1.1375266 0.9714735
000010 14 78 99 3f 5b 9b 97 3f 85 7b 96 3f 59 36 87 3f
       1.198977 1.1844286 1.1756445 1.056346
000020 0f b6 90 3f aa 4b 8e 3f 9b 68 91 3f 96 4f 87 3f
       1.130556 1.1116841 1.1360048 1.0571163
000030 91 c1 9e 3f b9 40 93 3f da d2 94 3f 7d b2 8a 3f
       1.2402822 1.1504127 1.1626847 1.083572
000040 a5 a9 85 3f 3f 4d 8e 3f 4d 04 94 3f ba c7 90 3f
       1.0442396 1.1117324 1.1563812 1.1310952
000050 1b 91 8d 3f ca e5 a1 3f d2 14 81 3f ff a1 84 3f
       1.1059908 1.2648251 1.0084479 1.0361937
000060 6e 15 87 3f d7 45 7f 3f 6a 1e 8f 3f a3 26 99 3f
       1.0553415 0.9971594 1.1181157 1.1964916
000070 88 62 98 3f dd a7 85 3f 32 53 89 3f 83 1f 7b 3f
       1.1905069 1.0441853 1.0728514 0.9809496

local_trans_pixel.layers.0.1.fn.norm.bias f4 [32]
000000 6e 25 b4 3c d2 1e 67 bc 4f b6 3c 3d 38 bf cf 3c
       0.021990504 -0.014106469 0.0460723 0.025359735
000010 a0 19 13 3d 0e 62 6f bc 7c 2d ce 3c 20 cd 3c 3c
       0.03591311 -0.01461078 0.025168173 0.011523515
000020 16 46 0a 3d 73 3c 39 3c ca 31 fe 3c fe ba 1b 3d
       0.033758245 0.011305916 0.0310296 0.038020127
000030 68 c6 35 bc 21 ab 0d bd 0f b3 d3 3b 98 39 38 bc
       -0.011094667 -0.03458703 0.0064605544 -0.0112442
000040 e0 90 87 3d b8 36 a3 bb 5b 6a 4b 3d 8a 58 6d bc
       0.066194296 -0.004980888 0.049661975 -0.014486441
000050 bb 38 34 bd db 4b 0f bd 1b db df 3b 77 ca 1f bd
       -0.043999415 -0.03498445 0.0068315393 -0.039011445
000060 50 f6 4e 3c 3f c4 b5 bc bf 1c 7e bc 5e 8a 8b 3c
       0.012631968 -0.022188304 -0.015509783 0.017033752
000070 41 d4 31 3d fe 71 36 bd ab 5c 6a bb 09 ea d7 bb
       0.04341531 -0.044542305 -0.00357608 -0.0065891785

local_trans_pixel.layers.0.1.fn.fn.net.0.weight f4 [8, 32]
000000 e0 d3 b0 bd 59 3b f1 bd f1 81 2e be 65 16 ed bc
       -0.08634162 -0.11778898 -0.17041756 -0.028941343
000010 0e c5 f9 bd bb a6 fa 3b c6 ec d9 3d b7 c0 f9 bd
       -0.12195788 0.0076492704 0.10640864 -0.121949606
000020 e2 7d e5 3d 5c 2d 86 3d 32 cb 3e bc b7 ec 05 3e
       0.11205651 0.0655162 -0.011645125 0.13078581
000030 6f d4 c6 3d 2c 65 18 3d bf 59 9d bd f5 00 b5 bd
       0.09708487 0.03720586 -0.07683133 -0.08838073
000040 cf 67 0b 3e 31 ce 0e 3d 83 31 0a be 88 1a 80 3d
       0.13613819 0.03486461 -0.1349545 0.062550604
000050 fc f3 66 bd 0c 88 33 bb 5f 65 01 bd 25 03 3f bc
       -0.056385025 -0.0027394323 -0.031590816 -0.011658465
000060 67 08 c8 3d 03 51 ee bc 64 13 b5 3d 9e 8d c0 bc
       0.097672276 -0.029091364 0.08841589 -0.023505028
000070 94 0c 0f 3d 99 f1 a1 bd b8 49 49 be c9 1e a5 3d
       0.034924105 -0.07907409 -0.19657028 0.080625124
000080 bf b5 21 3e 02 e0 62 bc ae ba 9e 3b 46 58 6b bd
       0.15791987 -0.013847353 0.0048440313 -0.05745723
000090 e2 5a 5c be 49 0f 23 3e 3e 8f 82 3e 3b 39 19 be
       -0.21519044 0.159238 0.2549991 -0.14963238
0000a0 b4 3e 03 be d1 63 03 be 83 24 b1 bd f7 ff 65 3c
       -0.12816888 -0.12831046 -0.08649542 0.014038078
0000b0 a2 fa 6d be 6a ca 2b 3e d9 bf 8b be f0 f9 a5 3d
       -0.2324014 0.16776434 -0.27294806 0.081043124
0000c0 0e c2 f6 bd 80 63 ec 3d 09 c8 e2 3d 03 cb cd bd
       -0.12048732 0.115424156 0.1107331 -0.10048487
0000d0 a1 b6 24 3d 06 41 c8 bc cc 43 2a bd 27 86 3d 3e
       0.04021323 -0.024445068 -0.041568562 0.18508206
0000e0 8f a3 f6 bd 4e e0 f3 bd 0f 25 bb 3c 75 6d ca 3b
       -0.12042915 -0.11908017 0.02284482 0.006177599
0000f0 51 1c 92 be 0e e0 97 bd ba 58 5f be 32 ce fe 3c
       -0.2853723 -0.07415782 -0.2181119 0.031104181
000100 8f 4d b3 be 61 f8 7c 3d 78 db 87 be 82 25 6c bd
       -0.3502011 0.06176031 -0.2653463 -0.057652958
000110 50 f5 89 be 62 81 13 3e 43 eb 23 3d 28 55 87 3e
       -0.2694497 0.14404824 0.040019285 0.26432157
000120 a3 0d 21 be 1d 6f 87 be 5a 84 b8 be 29 f6 8f bd
       -0.15727858 -0.2645196 -0.36038476 -0.07029373
000130 e0 01 34 bc 50 aa 3a bc e4 b2 00 be 1e 7b 7c bd
       -0.010986775 -0.011393145 -0.12568241 -0.06164085
000140 95 83 5a be c0 47 06 bd 71 cf 02 bd 7a db b4 bd
       -0.21339257 -0.03278327 -0.031936113 -0.08830924
000150 73 ae af bd e6 70 5c 3e 4f 2c 73 3e be ab 34 be
       -0.085781954 0.21527442 0.23747371 -0.1764364
000160 50 e7 b3 3d c3 3b 6e bc bd ea 10 3d ee 1b fb 3d
       0.08784354 -0.0145406155 0.035380114 0.122611865
000170 48 98 55 be 93 b2 d1 3d 34 7a 89 bd 0c 78 a1 bd
       -0.20858872 0.102391385 -0.067127615 -0.07884225
000180 4e fe f1 bd a9 ef 2c 3d 07 e2 f7 3c 6d f3 54 3e
       -0.11816083 0.042220745 0.030259145 0.20795985
000190 03 14 23 be 19 8d 1f 3e 5d 19 1e 3e 34 38 02 be
       -0.15925603 0.15581168 0.15439363 -0.12716752
0001a0 db b9 0a be 2a ec 1d be 8b 6a f8 bc ca c0 a2 3c
       -0.1354746 -0.1542212 -0.030324241 0.01986732
0001b0 ee 54 91 be 27 d6 d6 3d de 0b 51 be be 3a bc bc
       -0.2838511 0.10490065 -0.20414683 -0.02297723
0001c0 1e 47 9e bd 55 ba 86 bd 7d b2 0b 3e f7 e1 30 be
       -0.07728408 -0.06578509 0.13642307 -0.17273699
0001d0 63 41 93 be 8c 7f 14 3e cc 27 ae 3d 84 8d f9 3d
       -0.28760824 0.1450178 0.085036844 0.12185195
0001e0 9f 4f 23 be 2b 8e c0 bd a5 2b 1d 3e 89 f1 16 3d
       -0.15948342 -0.094021164 0.1534868 0.03685144
0001f0 a1 a7 95 be c5 41 21 3e 98 96 6e bb 8f 2c fe bc
       -0.29229453 0.15747745 -0.003640568 -0.031027107
000200 99 c7 0f 3d 78 a9 04 3e 10 3d 89 3e 1c bd 07 bd
       0.03510246 0.12955272 0.268044 -0.033139333
000210 38 0a df 3c 1b c7 55 be 1e 68 bb 3d e4 3c f2 3d
       0.027226552 -0.20876734 0.09150718 0.1182802
000220 ef 72 1d be 12 b5 55 be d0 3c 6e 3d d0 ca 34 bd
       -0.15375875 -0.20869854 0.058163464 -0.04413873
000230 90 4b 3d 3e 11 e4 9c bd 20 7f 95 3c 16 81 d8 3b
       0.18485856 -0.07660688 0.018249094 0.006607185
000240 0a 7f 47 3e b4 83 01 3e 94 74 77 3c a4 ce 68 be
       0.19482055 0.12647897 0.015103478 -0.22735077
000250 10 36 d8 bd ef c7 22 be 83 f6 9f 3d 2d 90 14 bd
       -0.105571866 -0.15896581 0.0781069 -0.03627031
000260 1a dd 10 3d af 97 26 bc 92 3b 0c bc d4 cb 06 3e
       0.03536711 -0.010168 -0.008559125 0.13163692
000270 47 cf 13 3e f0 0f 05 be ea e2 e1 3d 35 1e 6d 3d
       0.14434539 -0.12994361 0.110296085 0.057890136
000280 fd aa 67 3d b7 55 bd 3d 59 52 52 3e a2 19 b4 3c
       0.05655955 0.092448644 0.20539226 0.021984879
000290 39 cd 91 bd 9f e5 e2 3d 04 33 91 bd bc 7c ba bd
       -0.07119221 0.11078953 -0.070898086 -0.091058224
0002a0 eb ed 8d 3d 01 74 3e be 23 49 ef 3d 9d 40 8c bd
       0.06930145 -0.1859894 0.116838716 -0.068482615
0002b0 ac 30 c3 bd 13 f1 69 3e 3e 02 3c be d4 6c 9b bd
       -0.09530768 0.22845869 -0.1836023 -0.07589117
0002c0 94 0b ff bd af 00 e0 3d 07 2f 49 3d 8e f2 f4 bd
       -0.1245338 0.109376304 0.049117114 -0.11960326
0002d0 09 9f 7c 3e c1 95 09 be f4 0a 8d bd b1 09 7e 3b
       0.24670042 -0.13436033 -0.06886855 0.00387631
0002e0 5b bd 45 3e 21 a6 c4 bd 28 cf 66 3d c8 21 22 be
       0.19310515 -0.09601999 0.056349903 -0.15833199
0002f0 9e 6c 40 be 80 3e 1c be af b4 1a bd ea e6 e7 bc
       -0.18791434 -0.15258217 -0.03776997 -0.02830835
000300 41 dd 4c be 9c 53 92 3e 15 17 28 be d7 23 9a 3a
       -0.20006277 0.28579414 -0.16415055 0.0011759949
000310 2c 15 39 be 21 f4 92 3e 2d b0 c0 3d 70 44 44 ba
       -0.18074483 0.2870188 0.09408603 -0.00074870046
000320 3a 52 91 be c5 c7 74 be 12 c9 07 be ed 81 d1 be
       -0.28383046 -0.23904331 -0.13260296 -0.40919438
000330 2a e1 0d be 18 e6 ae 3e 17 9c 29 be a7 ee 8f 3d
       -0.13855425 0.34159923 -0.1656345 0.07027941
000340 64 5e cb be aa cc 99 3e d2 f5 4d 3d 0d ee 21 bd
       -0.39720452 0.3003896 0.05028326 -0.039533664
000350 82 a6 a6 3d 86 f9 70 3e 2c ff e8 bb 39 cd 4a 3e
       0.081372276 0.23532686 -0.007110497 0.19804849
000360 f6 d2 ad bd 9f bb 4c be cf a9 56 3e 9a 6c b2 3e
       -0.08487503 -0.19993447 0.20963214 0.3484848
000370 98 52 66 be e3 97 ab 3e 0f 7b db 3c f5 25 f8 3c
       -0.22492445 0.33514318 0.026792077 0.030291537
000380 ad 79 14 3e 69 85 f2 3d 33 2f 59 bc a4 c4 0f be
       0.1449954 0.11841852 -0.013255882 -0.14039856
000390 24 78 56 bc 52 a8 a1 3e d0 4e 9e 3e e6 5a 17 3e
       -0.013090167 0.3157373 0.30919504 0.14780769
0003a0 c9 bb 12 3e 12 95 60 bd 48 6f b7 bc 55 69 b7 bc
       0.14329447 -0.054829665 -0.02239193 -0.022389093
0003b0 64 c2 43 be 3d 6c d1 bd aa 6d fc 3d 0d f7 42 be
       -0.19117123 -0.10225723 0.12325604 -0.19039555
0003c0 34 95 41 3c 5e db 50 3e 2f a1 b2 3e 4b 65 0b 3e
       0.011815358 0.20396182 0.34888598 0.13612859
0003d0 fc 07 33 3d b4 41 b4 be 15 73 36 bd ef 5b 75 be
       0.043708786 -0.35206378 -0.044543345 -0.23960851
0003e0 e7 8b f1 3d 7c 75 48 be 03 df 2a be fb a5 8f 3e
       0.117942624 -0.19576067 -0.16686635 0.2805632
0003f0 62 30 c8 3d 38 7d 4d bd 97 af 86 be 7b 89 9e bd
       0.09774853 -0.050168246 -0.2630584 -0.07741066

local_trans_pixel.layers.0.1.fn.fn.net.0.bias f4 [8]
000000 66 f0 45 3e b9 70 52 bd 52 86 fb bd 9d 37 db 3d
       0.19329986 -0.051377032 -0.12281479 0.10703967
000010 e5 8e 41 3e 23 b1 c2 bc 59 0b d2 bd 89 f7 28 3d
       0.18902166 -0.023766106 -0.10256071 0.041251693

local_trans_pixel.layers.0.1.fn.fn.net.3.weight f4 [32, 8]
000000 a3 63 1d bd d5 10 88 3d 3f 85 da 3d 0c 35 6b be
       -0.0384251 0.066438355 0.10669946 -0.22969455
000010 03 ae 31 bd f0 ae 01 be 92 48 3d 3e 33 da e9 3e
       -0.04337884 -0.1266439 0.18484715 0.45674285
000020 84 cd a7 bd 6d fb 9f bc 36 92 80 bd 55 16 8e 3d
       -0.08193496 -0.019529069 -0.062778875 0.06937853
000030 a6 df 65 be 3d 14 49 3d 65 14 8a be 46 09 56 be
       -0.22448596 0.049091566 -0.26968685 -0.20901975
000040 49 e5 43 3e 45 0e 09 be 6c 49 88 be a8 bc 5f be
       0.19130434 -0.1338435 -0.26618516 -0.2184931
000050 78 46 22 3e ea 9a 92 3d 76 22 1d 3e 2e 1c 83 be
       0.15847194 0.07158454 0.15345177 -0.25607437
000060 e2 3d d3 bd e4 e2 ff 3d cd ad 1f 3e 88 b7 9e be
       -0.103145376 0.12494448 0.15593643 -0.30999398
000070 fd c8 4a be 89 9c bb bd a2 02 04 be 42 40 03 3f
       -0.19803233 -0.09160716 -0.1289163 0.51269925
000080 14 b1 3f 3d 06 6c 25 be 84 59 c4 bb 38 4a ae bc
       0.046799734 -0.16154489 -0.0059921164 -0.021275625
000090 f2 8c 13 be 26 b1 8e be 1a 6e 80 be 4d 8a 4b be
       -0.14409235 -0.2786953 -0.25084 -0.19876976
0000a0 50 bd 99 bd ad d5 1c 3e 52 42 71 be e6 40 85 3d
       -0.075068116 0.15315886 -0.23560455 0.06506519
0000b0 f3 8d 9a 3e 62 5d 2f 3e e3 96 09 bf 01 19 f2 3d
       0.30186424 0.17125466 -0.5374586 0.11821175
0000c0 5d 6b 99 3e db 80 9d be 34 52 d7 be 04 c6 cc 3d
       0.29964724 -0.3076237 -0.42054904 0.09998706
0000d0 6f 03 87 be 43 d7 48 3e 6d 43 89 be 8a ff f0 3e
       -0.26369807 0.19613366 -0.26809254 0.4706996
0000e0 25 6a 6a 3e 2e dd 9c 3d 1e f5 61 be ff 65 a8 be
       0.22892053 0.07659374 -0.22066161 -0.32890317
0000f0 6b 32 c4 bc bc ed 58 be 2f 81 a2 3d db 31 33 3b
       -0.023949822 -0.21184438 0.07934796 0.0027342949
000100 b6 ec 1b bd 22 ab a1 3c d6 c0 9e 3e 56 08 8e 3e
       -0.038067542 0.019734923 0.31006497 0.27740735
000110 db 36 aa be 23 00 53 be 47 2a fe bd a7 80 a6 bd
       -0.33244976 -0.20605521 -0.124104075 -0.08130007
000120 4e 4d ba bd 87 d3 95 be 75 2a 63 be 00 eb 02 3e
       -0.09096776 -0.29262945 -0.22184165 0.12784958
000130 5d 4a 6c be 81 71 71 3e 74 19 16 3d c0 d1 57 be
       -0.23075242 0.23578455 0.036645368 -0.21076107
000140 39 73 16 be 9b 3c b8 be 39 f4 aa bd a4 16 c2 bd
       -0.14692391 -0.35983738 -0.08347363 -0.094769746
000150 06 ab ae 3e 1e 79 83 bc 9d 3c e2 3d 02 0a aa 3c
       0.34114856 -0.016048964 0.11046717 0.020756725
000160 4b 4a 09 bc c1 5d ee 3d 70 3e 1a bd 6a df 37 bd
       -0.008379529 0.11638976 -0.0376572 -0.0448908
000170 e8 04 1a bd d4 9d 03 be 84 dd 9c be 03 cc 92 3e
       -0.037602335 -0.12853175 -0.30637753 0.28671274
000180 32 2e 36 be 9d 3c a4 be f7 a1 81 be f6 53 16 be
       -0.1779106 -0.32077494 -0.25318882 -0.14680466
000190 32 2b a1 be ec f2 5c 3e 4d 56 3e 3e f8 6c dd 3e
       -0.31478268 0.21577042 0.18587609 0.432472
0001a0 82 74 0a bd cb 20 99 bc fc 7f b0 be ad 48 b9 bd
       -0.033802517 -0.018692395 -0.34472644 -0.09047065
0001b0 d3 bb 70 be e0 1e 06 3e 9a ef 8e be 91 14 ea 3e
       -0.23509149 0.13097715 -0.27917176 0.45718816
0001c0 da 5d 96 3e 84 f6 8b be db 15 80 3e a2 7b 86 be
       0.29368478 -0.27336514 0.25016674 -0.262662
0001d0 28 6d 49 be 07 f7 4b 3e 43 83 0b bf a1 5b e4 3e
       -0.19670546 0.19918452 -0.54497164 0.44601157
0001e0 5a 07 35 bd ee 96 8b 3e c7 9e 2d be a8 ab c7 bd
       -0.044196464 0.27263588 -0.169551 -0.09749538
0001f0 dd c3 db 3c 68 a8 8d 3d fa 80 99 3d 9f 67 64 3d
       0.026826793 0.069168866 0.074953035 0.055762883
000200 53 14 07 3e 16 72 b8 bd 2a 69 01 be 7c 2c b6 be
       0.13191347 -0.09006135 -0.12637773 -0.35580814
000210 a2 37 6e be 9b bd a0 be 28 18 26 3e 67 f5 4f 3e
       -0.2326341 -0.31394657 0.16220152 0.20308457
000220 dc 48 26 3e a4 cf 3d be 1e 58 ea be 3d 91 3f be
       0.16238731 -0.1853624 -0.45770353 -0.18707748
000230 9d 76 2a be 69 ae 3d 3d a9 0c 2a bf 9f 65 de 3e
       -0.1664681 0.04630891 -0.6642557 0.43436906
000240 d9 b6 c2 3e e7 06 5f 3e fe 23 8c 3d 2c 25 8c be
       0.38030127 0.21779977 0.068428025 -0.2737211
000250 36 d0 8d 3d ca 86 20 be e4 93 90 be 72 4c 0b 3f
       0.06924479 -0.15676418 -0.28237832 0.5441352
000260 44 47 4f 3e 4a 3c c4 3e 41 82 65 bd 4c ea be be
       0.2024203 0.38327247 -0.056032423 -0.3728813
000270 16 9e 83 3e b1 8b 58 bd b2 cd 12 bf ae 2c fc 3e
       0.25706547 -0.052867595 -0.57345116 0.49252838
000280 c1 d1 71 3e f8 57 02 3f bb 34 14 be 3d ed 7b 3e
       0.23615171 0.5091548 -0.1447324 0.24602218
000290 b4 1c a6 be 02 cc 3d 3e 8b 7e 6b be 62 8f 5b be
       -0.32443774 0.18534854 -0.22997491 -0.21441415
0002a0 13 a4 01 3e af 13 17 be f4 a3 31 be e4 5f e4 3d
       0.12660246 -0.14753602 -0.173477 0.11151102
0002b0 bd 2c 92 bd df ca 60 3e 8a 37 5e be 49 b6 57 be
       -0.071374394 0.21952389 -0.21700874 -0.2106563
0002c0 80 96 fa 3d c2 e2 dd 3e 1c 31 91 bd 28 e8 86 be
       0.12235737 0.43337065 -0.07089445 -0.26348996
0002d0 3a 3d aa 3e 78 7b ee 3e 93 1d a8 be ed 12 40 3e
       0.33249837 0.46578574 -0.32835063 0.1875722
0002e0 60 60 89 bd 11 9d 16 be 7e 9e fe be c9 65 bd 3e
       -0.06707835 -0.14708354 -0.49730295 0.36991718
0002f0 a1 88 38 be 61 c3 96 3e 00 4f d0 be 42 ef a2 3e
       -0.1802087 0.29445937 -0.40685272 0.31823164
000300 d0 47 1c 3e ea 74 67 be d9 43 a9 be be 45 ad be
       0.1526177 -0.22603193 -0.33059576 -0.33842272
000310 de d0 9f 3e 69 97 9c 3d f0 02 60 be 95 f3 b0 3e
       0.3121404 0.07646067 -0.2187612 0.34560838
000320 dc 09 cc bd d6 ff 81 3e e6 3d c2 bd 7e a2 79 be
       -0.09962818 0.253905 -0.094844624 -0.24378392
000330 0c 47 a7 be 5d 6f f1 3d dd 52 47 3e 9e c5 88 be
       -0.32671392 0.11788819 0.19465204 -0.2671327
000340 01 53 da 3d be 11 a1 be 21 00 cc be fc 80 e9 be
       0.10660363 -0.3145885 -0.39843848 -0.4560622
000350 1d ff c0 3e 75 61 17 be f0 41 20 3e 91 66 b2 3e
       0.37694636 -0.1478327 0.15650153 0.34843877
000360 d4 6a c1 be 3d d3 b0 be c0 48 e2 3d 64 7c 99 be
       -0.37776816 -0.34536162 0.11049032 -0.29977715
000370 6b 58 2b 3d 38 b6 23 be 65 9e 0b bf fb e8 8a 3e
       0.04183237 -0.1598748 -0.54538566 0.27130875
000380 de 85 b7 bd 00 1f 80 be ce fd 5f 3e 80 0c ae 3e
       -0.0896108 -0.2502365 0.21874163 0.33993912
000390 08 84 97 3e 1f 4e 81 be 33 a3 c4 be 6b b8 ad 3e
       0.2959292 -0.25254914 -0.3840576 0.33929762
0003a0 4e 48 16 be 03 a2 d9 3d 24 92 5b be 50 0b c4 be
       -0.1467602 0.106266044 -0.21442467 -0.3828988
0003b0 7b 16 33 be bc 10 5a be 54 b6 1b bf 3e 76 92 3e
       -0.17489044 -0.21295446 -0.60825086 0.28605837
0003c0 fa 61 bb be 18 be 8d be 47 a1 8f 3e bf ad 07 be
       -0.36598188 -0.27684093 0.28052732 -0.13249873
0003d0 8c c2 b8 bd b6 15 4b be 3e 31 ce 3d ec b8 87 be
       -0.09021482 -0.19832501 0.10067986 -0.26508272
0003e0 ae 21 14 be f1 62 2b be a2 d2 f0 3c 55 3f 0b be
       -0.14465973 -0.16736962 0.029397313 -0.13598378
0003f0 63 ab aa 3e f2 d4 e4 3b 87 64 18 3d c0 91 2e 3c
       0.33333883 0.006983393 0.037205245 0.010654867

local_trans_pixel.layers.0.1.fn.fn.net.3.bias f4 [32]
000000 07 71 68 bd df 9c d6 b9 e9 af a9 be de 64 19 3e
       -0.056748416 -0.0004093414 -0.3314202 0.14979884
000010 52 44 56 be 1d 00 e4 3d 32 e0 9d 3e 1d 56 ac be
       -0.209245 0.11132834 0.3083511 -0.3365945
000020 bb e7 50 3e f9 a4 03 3e 43 d3 12 be 53 d2 97 3e
       0.20400898 0.12855901 -0.14338402 0.29652652
000030 03 90 d9 3d b6 68 98 3d 26 c6 8d 3e 53 02 7d 3d
       0.10623171 0.07441847 0.27690238 0.061769795
000040 90 34 18 3e d0 19 db 3c c1 f4 b2 3e c2 7b c7 3b
       0.14863801 0.026745707 0.34952357 0.006087751
000050 85 67 39 be ed 44 db bd 25 85 49 3e 85 0f 02 3e
       -0.18105896 -0.10706506 0.19679697 0.12701233
000060 6d 73 42 be 76 56 8b bd f6 e4 ac be bd 9a 8e 3e
       -0.18989344 -0.068036005 -0.33768433 0.2785243
000070 2a 8f 58 bd f5 df 4f 3e ff 0b 92 be 42 df ed 3c
       -0.052870907 0.20300277 -0.28524777 0.029037122
