src/res/GGCL/guided_contra_cross_transformer/Pavia/20/true ss 0.3/_1711717015.pth (torch, 266710 bytes, 37 tensors)

pixel_pos_embedding f4 [1, 170, 32]
0	0xbfc333bb	-1.5250162
1	0x3ec8db17	0.39229652
2	0xbf0b142e	-0.54327667
3	0xbe3ba6ab	-0.18325298
4	0xbf4f7669	-0.81040055
5	0x3e9cef70	0.30651426
6	0x3f9ae789	1.2101909
7	0xbfbe821c	-1.4883456
8	0x3f602f41	0.87572104
9	0xbf4c64ac	-0.79841113
10	0x3e2ce15d	0.16882844
11	0x3f6ac62c	0.91708636
12	0xbf84a0a3	-1.0361522
13	0xbfbd39e1	-1.4783288
14	0xbc312d31	-0.010813997
15	0x3f882876	1.0637348
16	0x3e815a27	0.25264093
17	0xbd84ad1e	-0.06478332
18	0x3e5f4b92	0.21806172
19	0xbfa3eadd	-1.280605
20	0xbf7475e6	-0.954924
21	0x3fa8333b	1.3140634
22	0x3f4dcb39	0.8038822
23	0x40296ebe	2.6473842
24	0x3dc0ecc0	0.094201565
25	0x3f8e8a97	1.1136044
26	0x3f34d71a	0.7064072
27	0xbf940f12	-1.1567099
28	0xbedfc911	-0.4370809
29	0xbcf52ade	-0.029927667
30	0xbf2b68cc	-0.6695678
31	0x3fe5978f	1.7936877
32	0x3d8789c6	0.06618075
33	0xbf1ffef8	-0.62498426
34	0xbfa151b2	-1.2603056
35	0xbb8a2f8c	-0.004217094
36	0x3f139fd6	0.57665765
37	0xbf8828c1	-1.0637437
38	0x3e71e97b	0.23624222
39	0x3daa2929	0.08308632
40	0x3f19434e	0.59868324
41	0x3e950b55	0.29110208
42	0xbfa1f65d	-1.2653309
43	0x3fd5db84	1.6707616
44	0xbf92bde7	-1.1464204
45	0xbef47ab6	-0.4774987
46	0x3f1b9fc9	0.6079069
47	0xbe95033d	-0.29104033
48	0xbebb7dd2	-0.3661943
49	0xbea3567b	-0.31901917
50	0xbfbcaee0	-1.4740868
51	0x3f5bd535	0.85872203
52	0xbe77642a	-0.24159303
53	0x3ea6862b	0.32524237
54	0x3eb3b8fe	0.35102075
55	0xbf0b666b	-0.5445315
56	0xbcf506c2	-0.029910449
57	0x3f308b68	0.6896272
58	0x3fc85b46	1.5652854
59	0xbf72d168	-0.9485078
60	0x3f9e2d33	1.2357544
61	0x3f5d83e1	0.86529356
62	0x3f0b9d53	0.5453693
63	0x3d4c5013	0.049881052
64	0x3d524cc1	0.05134273
65	0x3f00422a	0.5010096
66	0xbe1257f5	-0.14291365
67	0x40021a1a	2.032843
68	0xbf0ddf8a	-0.5541922
69	0x3e9fd163	0.31214437
70	0x3f05e321	0.52299696
71	0x3f3d7194	0.7400143
72	0x3c3962a2	0.01131502
73	0x3f950554	1.1642251
74	0xbea7813d	-0.32715788
75	0x3f5a96f9	0.85386616
76	0x3eef08ec	0.46686494
77	0xbe13828e	-0.14405271
78	0xbfbadd56	-1.4598796
79	0xbf35e2ab	-0.7104899
80	0x3e9675e5	0.2938682
81	0xc0122c67	-2.28396
82	0xbf8d6a04	-1.1047978
83	0x3e5e8445	0.21730144
84	0x3f3e61e1	0.743681
85	0x3fc0e0e7	1.5068635
86	0x3ee09a00	0.43867493
87	0xbd1aa4f7	-0.03775498
88	0x3e7d806d	0.24756022
89	0x3cd8d459	0.026468443
90	0x3fb966bd	1.4484478
91	0x3ee7cb94	0.45272505
92	0xbf010da4	-0.5041144
93	0x3fbb3df4	1.4628282
94	0xbf2c825a	-0.673864
95	0x3f30b4c0	0.690258
96	0xbf74851c	-0.9551561
97	0xbe892c16	-0.26791447
98	0xbec50ec3	-0.38487825
99	0x3fdd0349	1.7266628
100	0xbebd3409	-0.36953762
101	0x40071dab	2.1111858
102	0x3fb0b193	1.3804191
103	0x3f897dae	1.0741479
104	0xbec45f7c	-0.383541
105	0x3fc9c38c	1.5762801
106	0x3f8ca792	1.0988638
107	0x3e383649	0.17989458
108	0x3f17340d	0.590638
109	0x3fa14ced	1.2601601
110	0x3dc19d43	0.094538234
111	0xbfc3ef16	-1.5307338
112	0xbee2f48c	-0.443272
113	0x3eec3e0b	0.46141085
114	0xbf7eb5a8	-0.99495935
115	0xbf2b083e	-0.6680945
116	0xbf2764d0	-0.653882
117	0xbebe6744	-0.3718816
118	0x3d9829e8	0.07429868
119	0xbf3cbe19	-0.73727566
120	0x3ec5d1f6	0.3863675
121	0x3ec269a0	0.3797121
122	0xbfc79a95	-1.559405
123	0xbf072f70	-0.5280676
124	0x3d088cd2	0.03333742
125	0xbdd12876	-0.102127954
126	0xbe91d5f5	-0.2848355
127	0x3f82fef3	1.0234054
128	0xbe4a163c	-0.19735044
129	0x4026c4fb	2.6057727
130	0x3ed38265	0.4131042
131	0x3e524e80	0.20537758
132	0xbfa66fd9	-1.3002883
133	0xbfd1214b	-1.6338285
134	0x3da3fd81	0.080073364
135	0x3eac8a00	0.33699036
136	0x3f9c8e9d	1.2231022
137	0xbb254843	-0.0025220073
138	0x4009370d	2.143985
139	0x3ed3d171	0.4137073
140	0x3dd1f43e	0.102516636
141	0x3ef6ed56	0.48227948
142	0x3fb92e6d	1.4467293
143	0xbfb9ddc1	-1.4520799
144	0x3f843551	1.0328771
145	0xbe74cb79	-0.23905744
146	0xbf7359f0	-0.9505911
147	0xbf8b52ad	-1.0884606
148	0xbd9e42e9	-0.07727606
149	0x40031a96	2.0484977
150	0x3f4982e4	0.7871535
151	0xbf037e98	-0.5136504
152	0xbe885803	-0.26629648
153	0xbe8c9bbf	-0.27462575
154	0x3dc26e8e	0.09493743
155	0xbe8602f9	-0.26174143
156	0x3fc5e366	1.5460021
157	0xbe4bffdb	-0.1992182
158	0xbf48e987	-0.78481334
159	0x3e84bb87	0.25924322
160	0x3ce96092	0.028488431
161	0x3f57c0aa	0.8427836
162	0x3eaf38b6	0.34222955
163	0xbf50ddf7	-0.8158869
164	0x3e38216d	0.17981501
165	0x3fd4821f	1.660221
166	0x3f4f467b	0.8096692
167	0x3f219f48	0.6313367
168	0xbf9031e8	-1.126523
169	0xbfe4c163	-1.7871517
170	0xbf022113	-0.5083172
171	0xbea81087	-0.3282511
172	0xbfbe10e0	-1.48489
173	0x3f3c4abe	0.7355155
174	0xbfd6f70d	-1.6794144
175	0xbf9b203e	-1.2119215
176	0x3f696f2f	0.9118528
177	0x3fb6d3f5	1.4283434
178	0xbf4932f3	-0.7859337
179	0x3f3b79fa	0.73232996
180	0xbf1b5314	-0.6067364
181	0x3fa5665c	1.2921863
182	0xbdfd6af9	-0.12373919
183	0x3f62ea9d	0.8863924
184	0x3f0b7804	0.54480004
185	0x3facf6b8	1.3512793
186	0xbe659a26	-0.22422084
187	0xbff28ec0	-1.8949814
188	0x3ca16bec	0.019704781
189	0x3ee1f57e	0.44132608
190	0xbf86402e	-1.0488336
191	0xbfafb2e3	-1.3726467
192	0x3ea108d0	0.31452036
193	0x3f904c98	1.1273375
194	0xbe7bc618	-0.24587286
195	0xbf60973c	-0.87730765
196	0x3f052832	0.5201446
197	0xbef32659	-0.47490194
198	0x3f38069f	0.71885103
199	0x3f2f7d85	0.685509
200	0xbf98d45a	-1.1939805
201	0xbf236dce	-0.63839424
202	0x3f4bb78f	0.79576963
203	0xbdd9d6d1	-0.10636676
204	0x3f38a400	0.72125244
205	0x3ff80601	1.9376832
206	0xbf5f52bc	-0.8723562
207	0x3cb4c6f6	0.022067528
208	0xbf8cfdf9	-1.1015006
209	0xbfd6cd21	-1.678135
210	0x3e532bc2	0.20622161
211	0xbf9d914a	-1.2309964
212	0x3f12da69	0.5736452
213	0xbd3efb65	-0.046626467
214	0x3f928cab	1.1449178
215	0xbdb14fd1	-0.08657802
216	0x3f754d10	0.95820713
217	0xbdc515d5	-0.09623305
218	0xbff56f2c	-1.9174552
219	0x3f6bc565	0.92098075
220	0xbf85f55e	-1.0465505
221	0xbbe01103	-0.0068379655
222	0x3f0df749	0.5545545
223	0x3f034920	0.51283455
224	0xbda42f33	-0.08016815
225	0x3f317c6b	0.6933047
226	0xbf80df7c	-1.0068202
227	0x3f84ff42	1.0390399
228	0x3fec737e	1.8472745
229	0xbe9df4df	-0.30850884
230	0xbc3d683c	-0.011560496
231	0xbf9174ad	-1.1363732
232	0xbfcf6e02	-1.6205447
233	0xbf9f8ef1	-1.2465497
234	0x3f982337	1.1885747
235	0xbd8c442a	-0.06848939
236	0xbf16ade0	-0.5885906
237	0x3f900df4	1.1254258
238	0xc005f5f6	-2.0931373
239	0x3f07855c	0.52937865
240	0x3e75752e	0.23970482
241	0xbfa9b2fd	-1.3257748
242	0xbf6ad8d4	-0.91737103
243	0x3f00fbbf	0.50384134
244	0x3f34cd33	0.7062561
245	0xbf39726f	-0.72440237
246	0xbfd23e4f	-1.6425265
247	0x3f09cef4	0.5383141
248	0x3ead15f5	0.33805814
249	0x3f2a4eca	0.6652647
250	0x3daa78cb	0.08323821
251	0xbf12abf9	-0.5729366
252	0xbe20caff	-0.15702437
253	0xbf583c0a	-0.8446661
254	0xbfbacd4c	-1.4593902
255	0x3f4e4717	0.80577224

cls_token_pixel f4 [1, 1, 32]
0	0xbfb217a2	-1.3913462
1	0x3f3d6e60	0.73996544
2	0xbf2c0806	-0.6719974
3	0x3e8e51fd	0.27796927
4	0x3f2a5b53	0.665456
5	0x3c422503	0.011849645
6	0x3eef5d85	0.46751037
7	0xbf4555a6	-0.77083814
8	0xbf2acee8	-0.66721964
9	0x3f532f77	0.824943
10	0xbd2bdaf4	-0.041956857
11	0x3fa555da	1.2916825
12	0x3f9cb6ab	1.2243246
13	0x3d8a6f88	0.06759554
14	0x3e736ada	0.2377123
15	0x3fd92426	1.6964157
16	0xbe2d3a9e	-0.16916892
17	0xbd70f1e7	-0.058824446
18	0x3f22098b	0.6329581
19	0x3f88579a	1.0651734
20	0x3ea39421	0.3194895
21	0xbc072387	-0.0082482165
22	0xbe4ec0b4	-0.20190698
23	0xbe8f7973	-0.28022346
24	0x3ee8ac20	0.4544382
25	0xbd3aa6e7	-0.045569327
26	0x3d797fe3	0.060912978
27	0xbfa3ff38	-1.2812262
28	0x3e311920	0.1729474
29	0xc0040e14	-2.0633593
30	0xbf576218	-0.84134054
31	0xbf5ad27e	-0.85477436

pixel_patch_embedding.weight f4 [32, 30]
0	0xbda62c6c	-0.081139416
1	0x3e1a37a2	0.15060285
2	0xbe2f8487	-0.17140399
3	0x3db9eb60	0.09078097
4	0xbe1c7889	-0.15280356
5	0x3e2ce2d2	0.168834
6	0x3bad9cc0	0.005298227
7	0xbe291be5	-0.16514547
8	0x3c117fc0	0.008880556
9	0x3bcb4280	0.006202996
10	0xbd187ed4	-0.037230328
11	0x3df43d6c	0.11925778
12	0x3dcea83c	0.10090682
13	0xbc717650	-0.014737681
14	0xbdc1a64d	-0.094555475
15	0x3d670cac	0.05640857
16	0x3df54938	0.11976856
17	0xbd0c5964	-0.034264937
18	0x3dbc2bc8	0.09188038
19	0x3c785c70	0.015158758
20	0x3e029862	0.12753442
21	0x3e10dd6c	0.14146966
22	0xbdb521f4	-0.08844367
23	0xbc6dc250	-0.01451166
24	0x3d163c48	0.036678582
25	0x3dbcab84	0.092124015
26	0xbdcdccbc	-0.100488156
27	0xbb18e140	-0.002332762
28	0xbcbc58e0	-0.022991598
29	0xbe3a18e4	-0.18173558
30	0xbdceff8d	-0.10107336
31	0x3e2d789e	0.16940543
32	0xbd8059a3	-0.06267097
33	0x3df0af30	0.11752164
34	0x3e0a1352	0.13483933
35	0xbd818168	-0.063235104
36	0x39af1c00	0.00033399463
37	0xbd7fa550	-0.062413514
38	0xbc3539f0	-0.011061177
39	0x3d4f6900	0.050637245
40	0x3d625020	0.055252194
41	0x3dea32a4	0.1143544
42	0xbde5f327	-0.11228018
43	0x3e17ba8e	0.14817259
44	0x3dd73934	0.105089575
45	0xbc86fc08	-0.0164776
46	0x3d68fb90	0.056880534
47	0xbc6c12b0	-0.014408752
48	0x3dff05cc	0.124522775
49	0x3e087318	0.13325155
50	0x3e1b4f08	0.15166867
51	0xbe159686	-0.14608201
52	0x3cb750d0	0.022377402
53	0xbd9171c5	-0.07101778
54	0xbd5850a4	-0.05281128
55	0x3df05f24	0.11736897
56	0x3e25f7da	0.16207829
57	0x3baa8900	0.00520432
58	0xbd7f53a8	-0.06233564
59	0xbc3f0770	-0.011659488
60	0x3b9aac20	0.004720226
61	0xbd0b4848	-0.03400448
62	0x3e1b5854	0.15170413
63	0x3ddc79a0	0.10765386
64	0x3e33d16e	0.1756036
65	0x3e34b50c	0.17647189
66	0xbe249be5	-0.16075094
67	0xbadcf680	-0.0016858131
68	0xbe3a3d32	-0.18187407
69	0x3e1093d6	0.14118895
70	0xbdc2e02e	-0.09515415
71	0xbd472abc	-0.04862474
72	0x3e1615fa	0.14656821
73	0xbe27dcae	-0.16392776
74	0xbe1d2e90	-0.15349793
75	0xbd8bfff6	-0.0683593
76	0x3dd7f290	0.10544312
77	0x3e1a70a8	0.15082037
78	0xbe212873	-0.15738086
79	0xbd80c278	-0.06287092
80	0xbe2b3df2	-0.16722849
81	0xbd7b4628	-0.061346203
82	0x3da5535c	0.0807254
83	0xbdab88a1	-0.08375669
84	0xbc36ef60	-0.01116547
85	0x3e342d4e	0.17595407
86	0x3db7300c	0.08944711
87	0x3e193ab0	0.14963794
88	0xbdfbfed8	-0.12304467
89	0x3d2c8c40	0.04212594
90	0xbe067d8b	-0.13133828
91	0xbe05770e	-0.13033697
92	0x3def7590	0.11692345
93	0x3e0b19e4	0.13584095
94	0xbe3a4bd3	-0.18192987
95	0xbdd8c6eb	-0.105848156
96	0xbbf39bc0	-0.0074343383
97	0x3e25bbd0	0.16184926
98	0xbe37dcb5	-0.17955287
99	0x3c67d760	0.0141504705
100	0xbdf3169b	-0.11869546
101	0xbd968d9b	-0.07351228
102	0xbcd542a0	-0.026032746
103	0xbdeb8581	-0.11500073
104	0xbe336a8c	-0.17521113
105	0x3e29b1aa	0.1657168
106	0xbd3fd3fc	-0.046833023
107	0xbc8a6d18	-0.016897723
108	0xbe119198	-0.14215696
109	0xbdd3902d	-0.10330234
110	0xbe13ed16	-0.1444591
111	0x3c9f8e08	0.019476905
112	0xbdba3bbf	-0.09093427
113	0x3dc74ef8	0.09731859
114	0xbe32b19e	-0.17450568
115	0xbcb37e88	-0.02191092
116	0xbd9aedfb	-0.075649224
117	0x3c2a2240	0.010384142
118	0xbe00da6e	-0.12583324
119	0xbdeb5ea6	-0.11492662
120	0xbd92ac23	-0.07161739
121	0x3dfc9a44	0.12334111
122	0xbe1e89a4	-0.15482193
123	0x3c8444d0	0.016146094
124	0x3d0a10d0	0.03370744
125	0x3e3491be	0.17633721
126	0x3d071d0c	0.032986686
127	0x3d095ecc	0.03353767
128	0xbe006670	-0.12539077
129	0xbb11f640	-0.002227202
130	0xbdfee741	-0.12446452
131	0x3e29d58c	0.16585368
132	0xbd852f4c	-0.06503162
133	0x3e28bd5a	0.16478482
134	0xbc34e3c0	-0.011040628
135	0xbe0a03bd	-0.13477989
136	0xbcd2b6d0	-0.025721937
137	0x3c86a270	0.016434878
138	0x3e01fd34	0.12694246
139	0x3cbdb410	0.02315715
140	0x3e0f6bbe	0.14005944
141	0x3cabc6e0	0.020968854
142	0x3e2d7a2e	0.16941139
143	0x3d7ffa3c	0.0624945
144	0x3dadcfb0	0.08486879
145	0x3d941188	0.07229906
146	0xbd73b41c	-0.059497938
147	0xbc19bfd0	-0.009384111
148	0x3d9c04f0	0.07618129
149	0x3d440618	0.047857374
150	0xbda6e857	-0.08149784
151	0xbd03bbac	-0.0321614
152	0x3e1c5a72	0.15268877
153	0x3e1eb832	0.15499952
154	0xbce54c48	-0.027990475
155	0x3df487d8	0.11939973
156	0x3c1462d0	0.009056762
157	0x3db8f1cc	0.09030494
158	0x3d2be03c	0.041961893
159	0x3e2c8a82	0.16849712
160	0x3deaaebc	0.11459109
161	0x3c2e4530	0.010636613
162	0xbdab57a7	-0.08366328
163	0x3db7a438	0.08966869
164	0x3e1a59c4	0.15073305
165	0xbe06e6da	-0.13174
166	0x3d2e0298	0.042482942
167	0xbe3a2ff2	-0.18182352
168	0x3d025fb4	0.03182955
169	0xbd85244b	-0.06501063
170	0xbd9252f0	-0.07144725
171	0xbc87e820	-0.016590178
172	0xbd826a4d	-0.063679315
173	0x3dd6ac80	0.104821205
174	0xbd4c4394	-0.049869135
175	0xbdc1bd0b	-0.09459885
176	0xbda4a874	-0.080399424
177	0xbbdc67e0	-0.00672625
178	0xbd4ac70c	-0.049506232
179	0xbe2200ae	-0.15820572
180	0xbd967dc7	-0.07348209
181	0xbe044cfd	-0.12919994
182	0x3c6b3850	0.014356688
183	0xbd0e28b0	-0.03470677
184	0xbd4fb3a8	-0.050708443
185	0x3dd771ec	0.10519776
186	0x3d046638	0.032324046
187	0xbe1f3a8e	-0.1554968
188	0x3daefa84	0.08543876
189	0x3da1cad4	0.079000145
190	0x3cc81a60	0.02442664
191	0x3d8e6f9c	0.069548815
192	0xbdbbe6f2	-0.09174909
193	0xbd463c7c	-0.048397526
194	0xbc83de90	-0.016097337
195	0xbde91c7c	-0.11382386
196	0xbb44f3c0	-0.0030052513
197	0x3e2aac68	0.1666733
198	0xbdd7e36e	-0.10541426
199	0x3c96dd70	0.018416137
200	0x3caac148	0.020844117
201	0x3e34a8e0	0.17642546
202	0xbdb790e8	-0.089631855
203	0xbb4f2640	-0.0031608492
204	0x3e18a6f0	0.14907432
205	0xbc164ab0	-0.00917308
206	0xbdda1f52	-0.10650505
207	0x3cd543d0	0.026033312
208	0xbe1db13f	-0.15399645
209	0x3e20f7a4	0.15719467
210	0xbd64eae4	-0.05588807
211	0xbe01febe	-0.12694833
212	0x3db0bb94	0.08629528
213	0x3dca3368	0.09873086
214	0xbcd98b18	-0.026555583
215	0xbca50a88	-0.020146623
216	0xbe02017c	-0.12695879
217	0x3e315c80	0.17320442
218	0xbd8be214	-0.0683023
219	0x3e2f3bf4	0.17112714
220	0xbd942a56	-0.072346374
221	0x3d137d68	0.03600827
222	0xbe07b957	-0.13254295
223	0x3d867f4a	0.06567247
224	0xbdda58e6	-0.10661487
225	0x3e162348	0.14661896
226	0x3e2a29f8	0.16617572
227	0x3dfbd7b8	0.122970045
228	0x3e2e47ee	0.17019626
229	0xbccb47c0	-0.024814487
230	0xbdd36144	-0.10321286
231	0x3d3269e8	0.04355803
232	0xbc7234f0	-0.014783129
233	0xbd8df5e2	-0.06931664
234	0xbe19beb1	-0.15014149
235	0x3d816be0	0.06319404
236	0xbd0da65c	-0.03458248
237	0xbe3a979c	-0.18221897
238	0x3c3de5c0	0.011590421
239	0xbe2e371d	-0.17013212
240	0xbe0bdbc4	-0.13658053
241	0xbdf3b40a	-0.11899574
242	0xbdd895fd	-0.10575483
243	0x3e0798f0	0.13241935
244	0xbe23264f	-0.15932582
245	0xbbbbf260	-0.0057356805
246	0xbd9320f6	-0.07184021
247	0x3d6b1e58	0.057401985
248	0x3e30d2f6	0.17267975
249	0xbcd864c0	-0.026415229
250	0x3e04f7da	0.12985173
251	0x3dac6ec8	0.08419567
252	0x3db5b020	0.08871484
253	0xbd554bf0	-0.052074373
254	0x3e0207d6	0.12698302
255	0xbe3aeb99	-0.18253936

pixel_patch_embedding.bias f4 [32]
0	0x3e243fea	0.16040006
1	0x3e1895c0	0.14900875
2	0xbdb541e7	-0.088504605
3	0xbddca2b3	-0.1077322
4	0xbe14c148	-0.14526856
5	0x3d834162	0.06408955
6	0xbe15e548	-0.14638245
7	0x3dd49690	0.1038028
8	0xbda04e9a	-0.07827492
9	0x3da8eeac	0.08248648
10	0xbd24caa8	-0.04023233
11	0x3ca81bd8	0.02052109
12	0xbe20765d	-0.15670152
13	0x3ce547a0	0.027988255
14	0xbe1d984a	-0.15390125
15	0x3d6f97e8	0.05849448
16	0xbd4cb784	-0.0499797
17	0xbcc06f00	-0.023490429
18	0xbd50152c	-0.05080144
19	0xbdb87c59	-0.090080924
20	0xbe133776	-0.14376625
21	0xbdee4020	-0.116333246
22	0xbd7c4424	-0.06158842
23	0xbe04dee4	-0.12975651
24	0x3d0c3d30	0.03423804
25	0xbd359530	-0.04433173
26	0x3dccd790	0.10002053
27	0xbd9e47fa	-0.07728572
28	0xbdab70d3	-0.08371129
29	0xbd617da4	-0.05505146
30	0xbcee8bb8	-0.029119357
31	0xbc1533a0	-0.009106547

local_trans_pixel.layers.0.0.fn.norm.weight f4 [32]
0	0x3f8f3e3a	1.1190865
1	0x3f8bd20c	1.0923476
2	0x3f8e9229	1.1138355
3	0x3f92165b	1.1413072
4	0x3f93357c	1.1500697
5	0x3f953a94	1.1658502
6	0x3f8994cb	1.0748533
7	0x3f920e84	1.141068
8	0x3f8953c6	1.0728691
9	0x3f8d85d7	1.105647
10	0x3f8f91b5	1.1216341
11	0x3f904125	1.126988
12	0x3f930c68	1.1488161
13	0x3f91fe8b	1.1405805
14	0x3f8c8c43	1.0980304
15	0x3f8b887d	1.0901028
16	0x3f8cbaf2	1.0994551
17	0x3f8b1ac5	1.0867544
18	0x3f8d82d6	1.1055553
19	0x3f902bfe	1.1263425
20	0x3f8cb649	1.0993129
21	0x3f8d9c1a	1.1063263
22	0x3f88b020	1.0678749
23	0x3f8c659d	1.096851
24	0x3f9306f5	1.1486498
25	0x3f916349	1.1358424
26	0x3f8c8521	1.0978128
27	0x3f903bc2	1.1268237
28	0x3f8c8519	1.0978118
29	0x3f90145d	1.1256214
30	0x3f8b0c48	1.0863123
31	0x3f8f2353	1.1182655

local_trans_pixel.layers.0.0.fn.norm.bias f4 [32]
0	0x3b81844d	0.003952539
1	0x3d5fb2a0	0.05461371
2	0xbd9a9fbb	-0.075499974
3	0x3d36a926	0.044594906
4	0xbd30803d	-0.043091048
5	0xbb8b34a1	-0.004248217
6	0xbc311c52	-0.010809975
7	0xbca8dbb9	-0.020612584
8	0x3ae779cb	0.0017660199
9	0x3cb9ff16	0.022704642
10	0x3d462b4e	0.048381142
11	0xbc849750	-0.016185433
12	0xbc8cf6db	-0.017207554
13	0xbe035ffb	-0.12829582
14	0x3d530acd	0.051523972
15	0x3c8b0d36	0.016974073
16	0x3cee90bb	0.029121747
17	0xbd47eefc	-0.048811898
18	0xbd1714d5	-0.0368851
19	0xbddbf4d8	-0.107400596
20	0xbd5d2982	-0.053994663
21	0x3d3822ed	0.044955183
22	0xbcd8bda6	-0.026457619
23	0x3c7c9907	0.015417344
24	0xbcc43c0b	-0.023954412
25	0x3caea3d5	0.021318356
26	0x3da71b89	0.08159549
27	0xbd07bc66	-0.033138655
28	0xbd02b070	-0.031906545
29	0x3c7c16f3	0.015386331
30	0xbd779af1	-0.060450498
31	0x3d82ab31	0.063803084

local_trans_pixel.layers.0.0.fn.fn.to_qkv.weight f4 [768, 32]
0	0xbe178347	-0.14796172
1	0xbdd498f6	-0.103807375
2	0x3d42f641	0.047598127
3	0xbd8e0831	-0.06935156
4	0x3da29ee2	0.07940461
5	0x3e659db7	0.22423445
6	0x3e1dfbb0	0.15428042
7	0xbe5133a4	-0.20429856
8	0x3d1ff3eb	0.039050978
9	0x3e548a8f	0.20755981
10	0xbbeaf3af	-0.0071701626
11	0x3e3ed2a0	0.18635035
12	0xbd0d824c	-0.03454809
13	0x3b830354	0.0039981995
14	0x3d241abb	0.040064555
15	0xbd3bbb05	-0.045832653
16	0x3db422e5	0.08795718
17	0xbc22afb0	-0.0099295825
18	0x3e144533	0.14479522
19	0xbe3a6684	-0.18203169
20	0xbdd44ac6	-0.103658244
21	0x3e17dd12	0.14830425
22	0x3e115e09	0.14196028
23	0x3e4382c7	0.19092856
24	0x3e6c92a5	0.23102815
25	0x3d9ac9f9	0.075580545
26	0x3e7247c5	0.2366019
27	0xbe392f02	-0.18084338
28	0xbe238425	-0.15968378
29	0xbdff1ac4	-0.12456277
30	0xbe376fda	-0.17913762
31	0xbdecf4fb	-0.11570164
32	0xbe26bec9	-0.16283716
33	0xbdbfd4d2	-0.09366764
34	0x3d64804f	0.055786427
35	0x3e5a9f8a	0.21349922
36	0xbc3ede14	-0.011649627
37	0xbd058906	-0.03260138
38	0xbe451e52	-0.19249848
39	0x3da8e0f7	0.08246034
40	0x3e219e3b	0.15783016
41	0xbd6f93d7	-0.0584906
42	0x3e8720bb	0.2639216
43	0x3e39d0f8	0.18146122
44	0xbd65a20e	-0.05606275
45	0x3e3d28a3	0.18472533
46	0xbe54aac3	-0.20768265
47	0xbdc69da5	-0.09698037
48	0xbe43277e	-0.19058034
49	0x3d93462f	0.07191121
50	0xbe2314e5	-0.1592594
51	0x3e1a71a9	0.1508242
52	0xbe1048c9	-0.14090265
53	0x3c92b2c2	0.017907504
54	0x3d92a9cb	0.07161292
55	0xbe407b08	-0.18796933
56	0xbe0658a9	-0.13119759
57	0xbd2fd7c6	-0.042930387
58	0xbe69a0ad	-0.22815199
59	0xbda433f9	-0.080177255
60	0xbe8ce451	-0.27517942
61	0xbe044434	-0.12916642
62	0xbe1b7d07	-0.15184413
63	0x3c850170	0.016236037
64	0xbd651c92	-0.05593545
65	0x3d808c81	0.06276799
66	0x3e12ccab	0.14335887
67	0x3e02bd1d	0.12767453
68	0x3db30cb2	0.08742656
69	0xbcb5fe22	-0.022215907
70	0xbe53551c	-0.20637935
71	0xbd2dfdbf	-0.04247832
72	0xbd91f866	-0.07127456
73	0x3e45b354	0.1930669
74	0x3e4c7483	0.1996632
75	0xbda9bb3f	-0.082876675
76	0x3e163cdd	0.14671655
77	0x3e21756c	0.15767449
78	0xbd0bcb9f	-0.034129735
79	0x3d5da9dc	0.05411707
80	0x3e7c5e8e	0.24645445
81	0x3dd35a13	0.10319915
82	0xbc19af2c	-0.009380143
83	0xbd7d8056	-0.06188997
84	0x3db0bf6f	0.08630263
85	0x3d855df5	0.065120615
86	0x3de6127d	0.11233995
87	0xbdd10b89	-0.10207278
88	0x3dfc54bd	0.1232085
89	0xbc5df5f5	-0.01354741
90	0x3e24cb6d	0.16093226
91	0x3d949f7b	0.07256981
92	0xbdd23732	-0.10264434
93	0x3dfc080c	0.12306222
94	0xbd6f7e32	-0.05846996
95	0xbdbd2403	-0.09235384
96	0x3d3eb6ab	0.046560925
97	0xbcda1d09	-0.026625173
98	0xbe58b2f2	-0.21162012
99	0x3b0f7a96	0.0021893135
100	0xbd2fc6fa	-0.04291437
101	0xbcabe143	-0.020981437
102	0xbe1f9823	-0.1558538
103	0xbe3a511c	-0.18195003
104	0xbcff09f1	-0.03113267
105	0xbe1810df	-0.14850186
106	0x3eab11b5	0.33411947
107	0x3e58808f	0.21142791
108	0x3c0b9b67	0.0085209375
109	0xbd4a79aa	-0.049432434
110	0x3e8623b0	0.26199102
111	0x3e0d3f92	0.13793781
112	0x3daf0663	0.0854614
113	0xbe9a26d3	-0.30107746
114	0x3e33abda	0.17546025
115	0xbd76c687	-0.060247924
116	0x3d3acd09	0.045605693
117	0x3d29b338	0.041430682
118	0x3c560795	0.013063331
119	0xbd81abfb	-0.06331631
120	0x3d5e11ca	0.054216184
121	0x3cedc9c6	0.029026877
122	0xbdde7fd3	-0.10864224
123	0xbcbef78c	-0.023311399
124	0x3de9b8c4	0.11412194
125	0x3ccddfaf	0.025131075
126	0xbe34d9ca	-0.17661205
127	0xbd83ce12	-0.06435789
128	0xbdf3cc6b	-0.11904224
129	0xbda380a3	-0.0798352
130	0xbe1617ab	-0.14657466
131	0xbd6d8384	-0.05798675
132	0x3d526ebc	0.051375136
133	0x3e4912b9	0.19636048
134	0x3df0554d	0.1173502
135	0x3d661661	0.056173686
136	0x3d9bca32	0.07606925
137	0x3e4ff7c4	0.20309359
138	0xbde8758f	-0.113505475
139	0x3e0d08b5	0.13772853
140	0x3c194e2d	0.009357017
141	0x3aa93d15	0.0012911881
142	0xbd88f817	-0.066879444
143	0x3deecdce	0.11660348
144	0x3e68d0b5	0.22735865
145	0xbb178d13	-0.0023124858
146	0x3e31724f	0.17328762
147	0xbd8978cb	-0.067124926
148	0x3c83e5f3	0.01610086
149	0xbc99611f	-0.018723069
150	0x3cbad5e3	0.022807067
151	0x3ded5319	0.11588115
152	0x3dc5ce06	0.096584365
153	0xbdc99d3a	-0.09844442
154	0xbdbe25e9	-0.092845745
155	0x3d734059	0.05938754
156	0xbd544c3d	-0.05183052
157	0xbdf4d543	-0.11954739
158	0x3dc81861	0.09770275
159	0x3e65cc23	0.22441153
160	0xbd74174b	-0.059592526
161	0x3d5befb0	0.05369538
162	0xbd12705a	-0.035751678
163	0xbe125b6e	-0.1429269
164	0xbda8b852	-0.08238281
165	0xbe8fc337	-0.28078625
166	0xbdc4715a	-0.095919326
167	0x3e25556c	0.16145867
168	0xbda2d327	-0.0795043
169	0x3d98922d	0.07449756
170	0xbe0ddd05	-0.13853844
171	0xbe0d5300	-0.13801193
172	0x3e85ff61	0.261714
173	0x3d5b8492	0.053593226
174	0x3d0e0674	0.034674123
175	0xbda03726	-0.07823019
176	0x3e2ddb91	0.16978289
177	0x3e64be2b	0.22338168
178	0xbcf45a35	-0.02982817
179	0xbe1f1231	-0.15534283
180	0x3e0f3c02	0.13987735
181	0x3e0979ee	0.13425419
182	0x3c9faaad	0.019490564
183	0x3dfa937e	0.12235163
184	0xbd5b5f9a	-0.05355797
185	0xbd8c9782	-0.06864835
186	0xbd4885d6	-0.04895576
187	0xbe1de0f6	-0.15417847
188	0xbde9b1b6	-0.11410849
189	0x3d8301eb	0.0639685
190	0xbdb48f8d	-0.08816443
191	0xbd81d6eb	-0.063398205
192	0x3b96cffa	0.0046024295
193	0xbddc7f40	-0.107664585
194	0x3d411057	0.047134724
195	0xbe454e8c	-0.19268245
196	0xbcf8dd49	-0.030378954
197	0xbdfb0ffa	-0.12258907
198	0x3e45ff2a	0.19335619
199	0xbd82f92c	-0.06395182
200	0x3d6194f8	0.05507371
201	0xbb166ffa	-0.0022954927
202	0x3d787088	0.060654193
203	0x3b5db4f6	0.0033829785
204	0x3c0be0ac	0.008537453
205	0xbdfadb56	-0.12248866
206	0x3c8b14ca	0.016977686
207	0xbe18d828	-0.14926207
208	0x3e9dd711	0.30828145
209	0x3e4a3a59	0.1974882
210	0x3e2ce49b	0.16884081
211	0xbd980558	-0.07422894
212	0x3ddb30a5	0.107026376
213	0xbd163cc8	-0.03667906
214	0xbdb5d52b	-0.08878549
215	0xbd9cb404	-0.07651523
216	0xbd9be3b2	-0.07611789
217	0xbdc6e18b	-0.09710988
218	0xbd65cde8	-0.05610457
219	0xbd9f7a25	-0.07786969
220	0xbdc797e4	-0.09745768
221	0xbdf7b1d1	-0.12094463
222	0xbd621bc8	-0.055202276
223	0xbdd897a7	-0.105758004
224	0xbd2c57b0	-0.042075813
225	0x3c70603b	0.014671381
226	0x3d5adc33	0.053432655
227	0x3c13c5f1	0.009019361
228	0x3df31eaf	0.11871087
229	0x3e632f37	0.2218598
230	0xbcdbda7e	-0.026837584
231	0x3ce94730	0.028476328
232	0xbc81d666	-0.015849303
233	0xbe168925	-0.14700754
234	0x3c6e768f	0.014554634
235	0x3d806fbc	0.06271312
236	0xbc18c2ad	-0.009323758
237	0x3dd7fe10	0.105465055
238	0xbca28b2d	-0.019841755
239	0x3dbc5a40	0.09196901
240	0xbd36cdfd	-0.04463004
241	0xbd6ed2cf	-0.05830651
242	0x3de2101d	0.110382296
243	0xbe4906ad	-0.19631453
244	0x3d54433a	0.051821925
245	0xbda32b6d	-0.07967267
246	0x3e42bdbe	0.19017693
247	0x3e12496a	0.14285818
248	0x3e4eb77b	0.2018718
249	0xbddd8825	-0.10816983
250	0x3d5fd6c7	0.054648187
251	0xbe0a427e	-0.13501927
252	0xbd5da850	-0.054115593
253	0x3ca90af3	0.020635104
254	0xbe67b5cc	-0.22627944
255	0xbda8d272	-0.08243264

local_trans_pixel.layers.0.0.fn.fn.to_out.0.weight f4 [32, 256]
0	0x3c048808	0.008089073
1	0xbbc9c594	-0.0061575864
2	0x3d636a59	0.055521343
3	0x3d87d28d	0.06631956
4	0x3d97bb14	0.07408729
5	0xbd2863e2	-0.04111088
6	0xbcbf6bc4	-0.023366816
7	0x3d3ef4cf	0.046620186
8	0xbdf54571	-0.119761355
9	0x3dafabc7	0.08577686
10	0xbba2ed39	-0.004972127
11	0xbd15f54b	-0.036610883
12	0x3d12fa09	0.035882983
13	0xbdbb1f53	-0.09136834
14	0xbcf0294e	-0.02931657
15	0xbdceafca	-0.10092123
16	0xbd7194ea	-0.058979906
17	0xbcbcec80	-0.02306199
18	0x3da054ef	0.078287
19	0xbd3d0141	-0.046143774
20	0x3d849b77	0.06474965
21	0xbc7c4ba2	-0.015398892
22	0xbd0e6cef	-0.034771856
23	0x3dc7c096	0.0975353
24	0xbd1d1359	-0.03834853
25	0x3d710ff2	0.058853097
26	0xbbe5ddc5	-0.0070149624
27	0x3ccb20e8	0.024795964
28	0xbd05e5b3	-0.03268976
29	0x3ceceaac	0.028920494
30	0x3d817ffe	0.06323241
31	0xbd33c602	-0.043890007
32	0x3db1bc76	0.08678524
33	0xbc3b6fe0	-0.011440247
34	0x3dc6d11c	0.09707853
35	0x3d84e115	0.064882435
36	0x3d9983b6	0.07495825
37	0xbe108dd5	-0.14116605
38	0x3d865efd	0.06561086
39	0x3c9592e1	0.018258514
40	0x3b99ca99	0.004693341
41	0xbd8de336	-0.06928103
42	0x3d6dcfa8	0.058059365
43	0x3cd85bd3	0.026410973
44	0x3cb4b9e1	0.02206129
45	0xbd3f5372	-0.04671044
46	0xbc58a03f	-0.013221799
47	0x3ba1c7f7	0.0049371677
48	0x3c9b9fc9	0.01899709
49	0xbdc78040	-0.097412586
50	0x3dd84744	0.10560468
51	0xbc978514	-0.018496074
52	0xbc6f0bb1	-0.01459019
53	0xbbcbf7ea	-0.006224622
54	0x3d6379f9	0.055536244
55	0xbd7538c9	-0.059868608
56	0x3d74dee2	0.05978287
57	0x3e235baa	0.15952936
58	0xbcab9bb6	-0.020948272
59	0x3df021d7	0.117252044
60	0x3c80ad2c	0.015707575
61	0xbc88b8b8	-0.016689643
62	0xbcd7d714	-0.026347674
63	0x3d804999	0.06264038
64	0x3d90c1b1	0.07068194
65	0x3d222c84	0.039593235
66	0xbd890339	-0.06690068
67	0x3bc6f667	0.006071854
68	0x3d43195f	0.047631618
69	0x3d551549	0.052022252
70	0x3d033dba	0.03204129
71	0x3c78a381	0.015175701
72	0x3d9f951c	0.07792112
73	0x3d311b64	0.043239012
74	0x3cea59ea	0.028607327
75	0xbd3cd1d8	-0.04609856
76	0x3de6466a	0.11243899
77	0x3d996e79	0.07491774
78	0x3d41c9e9	0.047311697
79	0xbd5436ac	-0.05180995
80	0xbc68cb79	-0.014208668
81	0x3bee9b80	0.0072817206
82	0xbcdc4895	-0.026890079
83	0xbcf04a53	-0.029332316
84	0x3dad55c0	0.08463621
85	0xbb64292e	-0.0034814584
86	0xbd2243ed	-0.03961556
87	0xbd9bfb24	-0.07616261
88	0xbbc1713a	-0.0059033902
89	0xbd8ac1ee	-0.067752704
90	0xbdbe03f7	-0.092781
91	0x3d15792f	0.036492523
92	0x3db4a0f3	0.08819761
93	0xbd500bdf	-0.05079257
94	0x3d72916d	0.05922072
95	0x3dd6a58c	0.10480794
96	0x3d4095bb	0.047017794
97	0xba842ee0	-0.0010084771
98	0x3d6a3bf8	0.057186097
99	0x3d82e760	0.063917875
100	0x3d8f59d7	0.069995575
101	0x3cb32a31	0.021870704
102	0xbd880cb6	-0.066430494
103	0x3d2a30fe	0.04155063
104	0x3d83cc33	0.06435432
105	0xbd3f4d63	-0.04670466
106	0xbdec0326	-0.11524038
107	0xbc70e79a	-0.014703656
108	0x3bf99fe8	0.0076179393
109	0xbc923266	-0.017846297
110	0x3ccc2b66	0.024923038
111	0x3caece27	0.021338535
112	0x3d7a8796	0.06116446
113	0xbd946257	-0.07245319
114	0x3bf88fad	0.007585487
115	0xbdb9dbb4	-0.09075108
116	0xbdc9b0a0	-0.09848142
117	0xbb921003	-0.004457475
118	0x3d6d9803	0.058006298
119	0xbaba8209	-0.0014229427
120	0xbd48e10c	-0.049042746
121	0x3d1295c6	0.035787366
122	0xbd7a4737	-0.061103072
123	0x3d7b11b2	0.061296172
124	0xbda6065d	-0.081066824
125	0xbd11ac1f	-0.035564538
126	0x3a6480eb	0.000871672
127	0x3d400a63	0.046884906
128	0x3c022223	0.007942709
129	0xbd019e2c	-0.031644985
130	0x3df5d069	0.12002642
131	0x3d80ac62	0.062828794
132	0x3de7bbb0	0.113150954
133	0x3d1d54ea	0.03841106
134	0xbcfbffa0	-0.03076154
135	0xbe0fca05	-0.14041908
136	0xbcefbe69	-0.0292656
137	0xbc811c78	-0.015760645
138	0xbdd3aafc	-0.10335347
139	0x3d47b530	0.04875678
140	0xbcedf481	-0.029047253
141	0x3d4b110a	0.049576797
142	0xbcc002a7	-0.023438765
143	0xbd2acc7d	-0.04169892
144	0xbd5913f3	-0.05299754
145	0x3dbe9725	0.09306172
146	0xbd37ef2e	-0.044905834
147	0xbb4e8647	-0.003151314
148	0x3d01d33a	0.031695582
149	0xbdb89c06	-0.09014134
150	0x3c37ef3c	0.0112264715
151	0xbd873f06	-0.06603818
152	0x3d92c791	0.071669705
153	0x3d4c99de	0.049951427
154	0xbdcfaf0c	-0.101408094
155	0xbd3bb535	-0.04582711
156	0xbd800a32	-0.062519446
157	0x3db4886e	0.088150844
158	0xbc8f2909	-0.017475622
159	0xbc215ada	-0.009848321
160	0x3d75766d	0.059927393
161	0xbc871715	-0.016490499
162	0x3d732a9d	0.05936681
163	0xbd847559	-0.06467695
164	0xbb6854b3	-0.0035450875
165	0x3d40256c	0.04691069
166	0xbcd27e2a	-0.025694925
167	0xbd0ad778	-0.033896893
168	0x3cb15b5a	0.021650005
169	0xbd018d8e	-0.031629138
170	0x3b27d88d	0.0025611252
171	0xbd33a561	-0.04385889
172	0x3d1eb76e	0.03874915
173	0x3de6112f	0.11233746
174	0xbd851413	-0.064979695
175	0xbc3e4aa7	-0.011614478
176	0x3d9b6ff0	0.0758971
177	0x3c93523c	0.017983548
178	0x3ce71458	0.028207943
179	0x3cb9e2f6	0.022691231
180	0xbc88aa42	-0.016682748
181	0xbcca5361	-0.024697961
182	0x3d6fe5b9	0.05856869
183	0x3cecff82	0.02893043
184	0x3ca3b307	0.019982828
185	0x3d6b7b8a	0.057490863
186	0xbd45f64b	-0.048330586
187	0xbccf5cbe	-0.025312778
188	0x3da947bd	0.08265636
189	0x3dda9b50	0.10674155
190	0xbcbcd810	-0.023052245
191	0xbbfdba8e	-0.0077431863
192	0xbbf4af71	-0.0074672033
193	0x3dff60b6	0.12469618
194	0x3d507b7e	0.05089902
195	0x3d45d629	0.048299942
196	0x3d341972	0.04396958
197	0xbd666e76	-0.056257688
198	0xbcab8b68	-0.020940498
199	0x3dbab01f	0.09115624
200	0xbd8bbb95	-0.06822888
201	0xbcbe3a39	-0.023221122
202	0xbd836f7f	-0.064177506
203	0x3c99db49	0.018781321
204	0x3ceb12cb	0.028695485
205	0x3d49fb00	0.049311638
206	0xbc596dd2	-0.013270812
207	0x3d86ed8a	0.06588276
208	0xbd84c2e1	-0.06482483
209	0x3b282240	0.002565518
210	0x3cd40b6c	0.025884353
211	0x3ac56067	0.0015058637
212	0x3da84a8d	0.082173444
213	0x3d8111f8	0.063022554
214	0xbc6d4c2c	-0.014483493
215	0x3dfa476d	0.12220655
216	0x3cad827b	0.021180382
217	0xbd60d9d9	-0.054895256
218	0x3da85430	0.082191825
219	0x3d2f4a19	0.042795274
220	0xbcbf70be	-0.02336919
221	0xbce7775a	-0.028255153
222	0xbd71a87e	-0.058998577
223	0xbd7ebbf0	-0.06219095
224	0xbde30339	-0.11084599
225	0xbd1ebc33	-0.0387537
226	0xbddef1b9	-0.10885949
227	0xbce11a8a	-0.027478475
228	0x3af1099a	0.0018389702
229	0xbd03cb3d	-0.032176245
230	0xbd840759	-0.06446714
231	0xbdcfd24f	-0.10147535
232	0x3d8454d9	0.06461496
233	0x3d77bba6	0.06048169
234	0xbd57e6cf	-0.05271035
235	0xbdb85ec3	-0.09002449
236	0xbcd749d5	-0.026280323
237	0x3daf631e	0.08563827
238	0x3c623dd9	0.013808691
239	0x3da6becc	0.0814186
240	0x3d316dd5	0.043317635
241	0xbd7679eb	-0.060174864
242	0xbc9e8714	-0.01935152
243	0x3d7e3644	0.06206347
244	0xbdcd09aa	-0.10011609
245	0xbd0ea902	-0.034829147
246	0x3bb95b2b	0.00565662
247	0x3dc437aa	0.095809296
248	0xbb80ead1	-0.0039342423
249	0xbd04a97c	-0.032388195
250	0xbcb1162c	-0.021617018
251	0x3b98d31e	0.004663839
252	0xbd554f9f	-0.052077886
253	0x3bfad43f	0.0076546962
254	0x3c72f34d	0.014828515
255	0xbdb9dc75	-0.09075252

local_trans_pixel.layers.0.0.fn.fn.to_out.0.bias f4 [32]
0	0x3cd565c0	0.026049495
1	0x3d8391c4	0.06424287
2	0x3d354713	0.044257235
3	0x3e0c865d	0.1372313
4	0x3de1a2be	0.11017369
5	0xbc190522	-0.009339603
6	0xbdaa5d4c	-0.08318576
7	0xbcc1e568	-0.02366896
8	0x3df9bb85	0.1219397
9	0xbda54610	-0.08070004
10	0x3da60a2f	0.08107411
11	0x3d46bbc9	0.04851893
12	0x3b83f7e6	0.0040273545
13	0x3ce059ae	0.027386513
14	0xbd52ac89	-0.051434074
15	0xbd48e7c7	-0.049049165
16	0xbd100a44	-0.03516604
17	0xbd8157e4	-0.06315592
18	0xbd240202	-0.040040977
19	0xbd170473	-0.036869477
20	0xbd20d580	-0.03926611
21	0x3d245000	0.040115356
22	0x3c2daee3	0.010600778
23	0x3c0918e6	0.008367753
24	0x3d047158	0.032334656
25	0x3d9e5617	0.07731264
26	0x3d8434c6	0.06455378
27	0x3dffc9d2	0.12489666
28	0xbe042a71	-0.12906815
29	0x3e651176	0.22369942
30	0xbcea5c9e	-0.028608616
31	0x3d8cbb89	0.06871707

local_trans_pixel.layers.0.1.fn.norm.weight f4 [32]
0	0x3f6c57d8	0.9232154
1	0x3f65631d	0.8960436
2	0x3f807fc5	1.0038992
3	0x3f92cb03	1.1468204
4	0x3f8b7536	1.0895145
5	0x3f8641ee	1.048887
6	0x3f7ff603	0.9998476
7	0x3f874fd9	1.0571243
8	0x3f8de7e4	1.1086392
9	0x3f9e4805	1.2365729
10	0x3f964afa	1.1741631
11	0x3f817042	1.0112383
12	0x3f8eaf0e	1.1147172
13	0x3f876aa7	1.0579423
14	0x3fa243d4	1.267695
15	0x3f862216	1.0479152
16	0x3f8799e5	1.059384
17	0x3f75ea40	0.9606056
18	0x3f87d68f	1.0612353
19	0x3f982cf0	1.1888714
20	0x3fa045c2	1.2521288
21	0x3f8cccf7	1.100005
22	0x3f83d858	1.0300398
23	0x3f80d24c	1.0064178
24	0x3f862dc7	1.048272
25	0x3f893672	1.071974
26	0x3f7009dd	0.9376505
27	0x3f827ef3	1.0194992
28	0x3f8800f1	1.0625287
29	0x3f835479	1.0260154
30	0x3f7c0a6c	0.984534
31	0x3f9876e5	1.1911284

local_trans_pixel.layers.0.1.fn.norm.bias f4 [32]
0	0x3d2582cf	0.040407952
1	0xbd4600b2	-0.048340507
2	0x3cdd3191	0.027001174
3	0x3cbdbedb	0.023162296
4	0xbd573a2e	-0.05254572
5	0x3d6d63c3	0.05795647
6	0xbcb11807	-0.021617902
7	0xbd313af5	-0.043269116
8	0x3ce250d4	0.027626432
9	0xbd64d70c	-0.055869147
10	0xbd508f35	-0.050917823
11	0xbcbf9919	-0.023388432
12	0x3a8a72f8	0.0010562828
13	0xbc8b28ac	-0.016987167
14	0x3d4d8f6f	0.050185617
15	0x3d0a26de	0.033728473
16	0xbbc2db25	-0.005946534
17	0xbbbcb988	-0.0057594217
18	0xbbd6678d	-0.006543106
19	0x3d47b62c	0.048757717
20	0xbbad8fc6	-0.00529668
21	0x3d410a3d	0.047128905
22	0xbc59031e	-0.013245372
23	0x3bc7b8cd	0.006095028
24	0xbc9e9ce5	-0.019361923
25	0xbccd25b4	-0.025042392
26	0xbcd0e4ca	-0.02549972
27	0x3d893f53	0.06701531
28	0xbd4d22d9	-0.05008206
29	0xbc8691e4	-0.016426988
30	0x3cb7de0f	0.022444753
31	0xbd05b1a9	-0.032640133

local_trans_pixel.layers.0.1.fn.fn.net.0.weight f4 [8, 32]
0	0x3d80f638	0.062969625
1	0x3b9a0902	0.004700781
2	0x3e3199a5	0.17343767
3	0x3e5e7e14	0.21727782
4	0xbe44bdb7	-0.19212995
5	0x3e159bbf	0.14610194
6	0xbcd9a86f	-0.026569573
7	0xbe44c73a	-0.19216624
8	0xbdf6d10b	-0.120515905
9	0xbe546299	-0.20740737
10	0xbde8b137	-0.11361926
11	0xbe01ad9a	-0.1266388
12	0x3dc95943	0.098314784
13	0x3d8967e8	0.06709272
14	0xbe184d33	-0.14873199
15	0x3d8be227	0.068302445
16	0xbd9050a4	-0.07046631
17	0x3c0b734c	0.008511376
18	0xbe2ee419	-0.170792
19	0x3df49c24	0.11943844
20	0x3d2395a8	0.039937645
21	0x3bb71a79	0.0055878726
22	0xbe061e6a	-0.1309754
23	0x3e0cbf37	0.13744818
24	0xbe467c01	-0.19383241
25	0xbc43bd6a	-0.011947015
26	0x3e18902e	0.1489875
27	0xbb7ee94f	-0.0038896387
28	0xbd07d2f1	-0.033160154
29	0x3e025a2b	0.12729709
30	0x3de4812b	0.11157449
31	0x3e55029d	0.20801778
32	0x3da3bb9f	0.0799477
33	0x3b8b512d	0.0042516203
34	0x3d5991be	0.053117506
35	0xbd494858	-0.049141258
36	0xbce28500	-0.02765131
37	0xbddfeee4	-0.10934237
38	0xbded1863	-0.11576917
39	0xbc87dabd	-0.016583795
40	0x3da4d7b5	0.08048955
41	0xbe11d75c	-0.1424231
42	0xbe9cbb7e	-0.30611795
43	0x3d42e763	0.04758395
44	0x3ddda588	0.10822588
45	0x3dfbe19c	0.12298891
46	0xbe186c55	-0.14885075
47	0x3d496d4a	0.04917649
48	0x3e5c364d	0.21505089
49	0x3b968d9c	0.004594518
50	0x3d05f585	0.03270485
51	0x3df3b75c	0.119002074
52	0xbd08c83e	-0.03339409
53	0x3d9b9a02	0.07597734
54	0x3e253a5d	0.16135545
55	0x3e373b82	0.17893794
56	0xbde0a4e3	-0.1096895
57	0x3cbc1ce9	0.022963004
58	0xbdea7896	-0.11448781
59	0x3cbbf7f4	0.022945382
60	0xbd2de4b8	-0.04245445
61	0x3e3f9898	0.18710554
62	0x3e0d3633	0.13790207
63	0x3ba71978	0.0050994717
64	0xbe0b92cd	-0.13630219
65	0x3d3700e6	0.04467859
66	0x3e1d490a	0.15359893
67	0x3e55fd2e	0.20897362
68	0xbcf3b982	-0.029751543
69	0xbc726c8c	-0.014796387
70	0xbe097996	-0.13425288
71	0xbd25ba89	-0.040461097
72	0xbde714fc	-0.11283299
73	0x3e42c37c	0.19019884
74	0x3e5e337b	0.21699326
75	0x3e446e9d	0.1918282
76	0x3bba20ac	0.0056801643
77	0xbcc74836	-0.024326425
78	0xbe9f3a48	-0.31099153
79	0xbdfe9294	-0.12430301
80	0xba5ebe4c	-0.00084969844
81	0xbd82fce6	-0.06395893
82	0x3ce9c793	0.028537547
83	0x3d8a3254	0.067478806
84	0x3ebd21cb	0.36939844
85	0xbd4f5977	-0.05062243
86	0xbe0edae6	-0.1395069
87	0xbdf40a5b	-0.11916038
88	0xbd880588	-0.0664168
89	0xbe48e13b	-0.19617169
90	0x3d34d185	0.044145126
91	0xbc303e1d	-0.010756996
92	0xbe3d0dc8	-0.18462288
93	0x3ba004eb	0.004883399
94	0x3e1ddd91	0.15416552
95	0xbbc9a18a	-0.00615329
96	0x3d85871e	0.06519912
97	0xbdd9f028	-0.10641509
98	0x3d56895b	0.052377086
99	0x3c964f51	0.018348368
100	0xbe40a9ff	-0.18814848
101	0x3ea05fab	0.3132299
102	0x3c5ea5ad	0.013589305
103	0xbe114bea	-0.14189115
104	0xbba05c70	-0.004893832
105	0xbe88979f	-0.26678178
106	0xbe72b359	-0.23701228
107	0xbd08c3de	-0.03338992
108	0xbb3157f7	-0.0027060488
109	0x3db44a89	0.08803279
110	0x3d6d02b6	0.057863913
111	0x3e0dbd49	0.13841738
112	0xbe2e1e76	-0.17003807
113	0xbc4094a0	-0.011754185
114	0x3d2aebab	0.041728657
115	0x3e874635	0.2642075
116	0xbe0445e8	-0.12917292
117	0x3dc10665	0.09425048
118	0x3e1fcf57	0.15606438
119	0xbe0ab6a8	-0.1354624
120	0x3d2217f0	0.03957361
121	0x3cdb68f1	0.026783438
122	0xbe568d89	-0.20952429
123	0x3db476c1	0.08811713
124	0xbd4ca463	-0.04996146
125	0xbd5d3acf	-0.054011162
126	0x3cbe65f3	0.023241973
127	0xbe86d2ea	-0.2633279
128	0x3e0828d8	0.1329683
129	0x3d87aeff	0.06625175
130	0x3e12850e	0.14308569
131	0x3e38b976	0.18039498
132	0xbd13c044	-0.03607203
133	0x3df5c614	0.12000671
134	0xbd026bb4	-0.031840995
135	0x3e0c21b8	0.13684738
136	0x3e439f1e	0.19103667
137	0xbdaad77b	-0.08341881
138	0x3d625844	0.055259958
139	0x3e0d7679	0.13814725
140	0x3bbb82c5	0.005722376
141	0xbde35adc	-0.111013144
142	0x3e3aac43	0.18229775
143	0x3e1bb174	0.15204412
144	0x3ce0ca77	0.027440293
145	0x3deff115	0.117159046
146	0xbba517ff	-0.005038261
147	0x3dcf7408	0.10129553
148	0x3d8efd41	0.06981898
149	0xbde6fbf0	-0.11278522
150	0x3e30e10b	0.17273347
151	0x3e368f01	0.17827989
152	0xbe2bef25	-0.16790445
153	0x3e52f4db	0.20601217
154	0xbdbe4433	-0.09290352
155	0x3ddf9e09	0.10918815
156	0xbd0141bf	-0.03155684
157	0xbd6e26c3	-0.058142435
158	0x3d3c32ac	0.045946762
159	0xbdd8116b	-0.10550197
160	0x3d811e3c	0.06304595
161	0xbd834a51	-0.06410659
162	0xbd8e8cb7	-0.06960433
163	0xbd555230	-0.052080333
164	0xbde0f59c	-0.10984346
165	0x3dd22dbb	0.10262629
166	0x3db6104c	0.08889827
167	0xbe33683f	-0.17520235
168	0x3e83ea65	0.25764766
169	0xbe66ee31	-0.225518
170	0xbe51994d	-0.20468636
171	0xbe1858c1	-0.14877607
172	0x3d9383d5	0.07202879
173	0xbe805b30	-0.2506957
174	0x3e747fbb	0.2387685
175	0x3d9bcbf0	0.07607257
176	0x3e66faae	0.22556564
177	0xbe31bfe0	-0.17358351
178	0xbe1c2af3	-0.15250759
179	0xbd0fe4cd	-0.03513031
180	0xbe39b02d	-0.18133612
181	0x3e114b9e	0.14189002
182	0x3caa3810	0.020778686
183	0x3d5f3c7a	0.054501034
184	0xbd3e928d	-0.04652648
185	0xbcd4f2fe	-0.025994774
186	0x3b63f170	0.003478136
187	0x3d8d1a22	0.0688975
188	0xbe0c22fb	-0.13685219
189	0xbe36f131	-0.17865445
190	0x3cbff68d	0.023432994
191	0x3cc7d0ba	0.02439152
192	0xbcf5ac6b	-0.029989442
193	0xbc654de1	-0.013995619
194	0xbd85b7ae	-0.06529175
195	0xbddd70e9	-0.108125515
196	0xbdc069cf	-0.093951814
197	0xbd0d8c5d	-0.03455769
198	0xbd0e7711	-0.03478152
199	0x3dc7fc42	0.09764911
200	0xbcdd27a8	-0.026996449
201	0xbe84b13a	-0.25916463
202	0xbe825a7e	-0.25459665
203	0x3c4641df	0.012100666
204	0xbe6e4b13	-0.23270826
205	0xbe113f3f	-0.14184283
206	0x3dab64d3	0.0836884
207	0x3cd9e516	0.026598494
208	0xbd4054aa	-0.046955742
209	0x3dd1efe9	0.10250837
210	0xbbb77c6a	-0.005599548
211	0x3d4aff95	0.04956015
212	0x3d29ae2a	0.04142586
213	0x3e32b414	0.17451507
214	0xbd94c205	-0.07263569
215	0x3e09b41b	0.13447611
216	0x3e4824c2	0.19545272
217	0xbe46acfe	-0.19401929
218	0x3c9409f9	0.018071162
219	0x3dab2f5d	0.08358643
220	0xbca1dccb	-0.019758603
221	0xbdc87216	-0.09787385
222	0xbe056f19	-0.13030662
223	0xbd97768b	-0.07395657
224	0xbdc24858	-0.09486455
225	0xbc612da2	-0.01374379
226	0x3c01f005	0.00793076
227	0x3d828a99	0.06374092
228	0x3d83383c	0.0640721
229	0x3e52e1c9	0.20593943
230	0xbe417a3c	-0.18894285
231	0xbe3ac652	-0.18239716
232	0x3d845446	0.064613864
233	0xbe50f33d	-0.20405288
234	0xbe8f676d	-0.28008595
235	0x3de7c7f8	0.11317438
236	0xbe8d47d1	-0.27593854
237	0xbc55511d	-0.013019827
238	0xbcc80033	-0.024414157
239	0x3d7b594a	0.06136445
240	0xbd01affe	-0.03166198
241	0x3d9148a4	0.07093933
242	0x3e52e639	0.20595635
243	0x3ea114c9	0.3146117
244	0x3e48bf56	0.19604239
245	0x3e41cf7e	0.18926808
246	0xbb59afc3	-0.0033216334
247	0x3ce1203f	0.027481196
248	0x3db911b4	0.0903658
249	0xbe0f2a2f	-0.13980936
250	0x3c2bec77	0.010493389
251	0x3e39f3e8	0.18159449
252	0xbda35eb4	-0.079770476
253	0x3d357d59	0.044308994
254	0x3cdf546f	0.02726194
255	0xbe3f1dd1	-0.18663718

local_trans_pixel.layers.0.1.fn.fn.net.0.bias f4 [8]
0	0x3e2333e6	0.15937766
1	0x3e0fda9b	0.14048235
2	0xbc8ddbba	-0.017316688
3	0xbc929bbc	-0.017896526
4	0x3dde8184	0.10864547
5	0x3e1b8753	0.15188341
6	0x3c54fc77	0.012999645
7	0x3de06018	0.109558284

local_trans_pixel.layers.0.1.fn.fn.net.3.weight f4 [32, 8]
0	0x3e6b66e9	0.22988476
1	0xbbf65418	-0.007517349
2	0xbe9cfc91	-0.30661443
3	0x3dff87cc	0.12477073
4	0x3e4bbc89	0.19896139
5	0xbe629396	-0.22126612
6	0x3ea0e22a	0.3142255
7	0x3cfe0ac9	0.031011002
8	0x3e84f1ce	0.25965732
9	0x3e0884d3	0.13331918
10	0xbec7a9b6	-0.38996667
11	0x3ec6568d	0.38737908
12	0x3d79c6ee	0.06098073
13	0xbd71828c	-0.05896239
14	0x3e4adb46	0.19810209
15	0x3daa98a3	0.083298944
16	0x3de7a25f	0.11310267
17	0x3bd12a54	0.0063832197
18	0xbed8fbea	-0.42379695
19	0xbea66fcd	-0.32507172
20	0xbeaff4ff	-0.34366605
21	0x3e1da3aa	0.15394464
22	0x3e99b9dd	0.30024615
23	0xbe8a88d6	-0.27057523
24	0x3d6062cb	0.054781716
25	0x3e577f01	0.21044542
26	0x3ecb34ed	0.39688817
27	0x3ea0222e	0.31276077
28	0x3e2f0fc2	0.17095855
29	0x3ea15f3e	0.31517977
30	0x3e8cce22	0.27501017
31	0x3e38e96f	0.18057798
32	0x3e54f7e4	0.20797688
33	0x3e629a43	0.22129159
34	0xbc7a27ba	-0.015268261
35	0xbe8426d9	-0.25810888
36	0x3e82279f	0.25420853
37	0xbe4967eb	-0.19668548
38	0xbdaa85d1	-0.08326305
39	0x3e97ac3b	0.2962359
40	0x3d758706	0.05994322
41	0x3e0a9031	0.13531567
42	0x3ee24f68	0.44201207
43	0x3d3ebfb1	0.04656953
44	0x3e3c42ff	0.18384932
45	0xbd8356a2	-0.06413008
46	0x3dccd7b4	0.100020796
47	0xbeb89faf	-0.3605933
48	0xbc81dc53	-0.01585213
49	0xbe70beac	-0.23510236
50	0x3ebac4ce	0.36478275
51	0xbd9af672	-0.07566537
52	0x3d4757b1	0.048667613
53	0x3ec269bc	0.37971294
54	0xbe702804	-0.23452765
55	0xbe8dd273	-0.27699623
56	0xbd8a0e94	-0.06741062
57	0x3d82844e	0.06372891
58	0xbe8da43f	-0.27664372
59	0x3e96d01d	0.29455653
60	0x3dad3096	0.08456533
61	0xbed4cdfa	-0.41563398
62	0xbe0ebd56	-0.13939413
63	0xbe1dc33f	-0.15406512
64	0x3ae778c3	0.0017659891
65	0x3aa51ddd	0.0012597401
66	0x3efb9a3e	0.49141115
67	0x3e6a19a4	0.22861344
68	0xbe5936e1	-0.21212341
69	0x3ea0592a	0.31318027
70	0x3e0a9010	0.13531518
71	0xbdfe7b86	-0.12425904
72	0xbdeede1f	-0.1166346
73	0xbcae4e4a	-0.021277566
74	0xbdf9f3c9	-0.122047015
75	0xbedb2db8	-0.42808318
76	0xbdf4b85d	-0.11949227
77	0xbeae3425	-0.34024158
78	0xbe84894d	-0.25886002
79	0x3e03d96d	0.1287591
80	0x3ea1eb9f	0.31625077
81	0x3eb4bff9	0.35302714
82	0x3eb4ff2b	0.35350928
83	0xbe4ba2c2	-0.19886306
84	0x3e559147	0.208562
85	0x3e683115	0.22674973
86	0xbdc0baad	-0.094106056
87	0x3ec7a6c2	0.38994414
88	0x3e736462	0.23768762
89	0x3cc330cf	0.023826985
90	0xbe7d69c0	-0.24747372
91	0x3ef0d74a	0.47039253
92	0x3db4c5c0	0.0882678
93	0x3dacb3e8	0.08432752
94	0x3d16ad89	0.03678659
95	0x3d1e8271	0.038698617
96	0x3e3bda39	0.18344964
97	0xbe9d52f4	-0.3072735
98	0xbe7ad661	-0.24495842
99	0xbe8a8bcd	-0.27059785
100	0xbda18b00	-0.0788784
101	0xbe934bbe	-0.28768724
102	0xbe2361c3	-0.15955262
103	0xbdcc3296	-0.09970586
104	0x3dfe7cbc	0.12426135
105	0xbe2109de	-0.1572642
106	0x3ca931cd	0.02065363
107	0xbded3eb3	-0.115842246
108	0xbec98f2d	-0.39367047
109	0xbe8fecfc	-0.28110492
110	0xbea88faa	-0.32922107
111	0xbe217a91	-0.15769412
112	0x3ea156ea	0.31511623
113	0x3dfb2323	0.12262561
114	0xbe94c2f2	-0.2905498
115	0x3e9d0027	0.3066418
116	0xbe2c7aec	-0.16843766
117	0x3e4833db	0.19551031
118	0x3e61ff8b	0.22070138
119	0x3ca8811e	0.02056938
120	0x3e356f84	0.17718321
121	0xbe936a2d	-0.28791943
122	0x3e8ec9c0	0.27888298
123	0xbca4844e	-0.020082619
124	0x3e82ed81	0.25571826
125	0x3c3bafc5	0.011455481
126	0xbeaba6f1	-0.33525804
127	0xbe481def	-0.19542669
128	0x3de90520	0.11377931
129	0xbdf22ecc	-0.11825332
130	0x3e2bf232	0.16791609
131	0xbed74070	-0.4204135
132	0x3dca2d43	0.09871914
133	0x3ec1bda5	0.3784
134	0xbd543932	-0.05181236
135	0xbe6556ce	-0.22396395
136	0x3e8ae322	0.27126414
137	0xbce5efcc	-0.028068446
138	0xbe0aa1b2	-0.13538244
139	0xbe88ffdf	-0.26757714
140	0x3e990225	0.2988445
141	0x3d56ea81	0.052469734
142	0xbe72cf37	-0.23711859
143	0x3e7b5973	0.24545841
144	0xbedd3233	-0.4320236
145	0xbdb8ee24	-0.09029797
146	0x3ef08730	0.4697814
147	0x3d8a8711	0.06764043
148	0x3e4b73dc	0.19868416
149	0x3e9249e1	0.2857199
150	0x3ded9572	0.1160077
151	0xbe4b7000	-0.19866943
152	0x3e8c7bd6	0.2743823
153	0x3e73265f	0.23745106
154	0x3d732352	0.059359856
155	0x3c4dbd01	0.012557269
156	0x3dbf6a74	0.09346476
157	0xbd86a133	-0.06573715
158	0x3e1ce4e9	0.15321697
159	0x3e98d23c	0.29847896
160	0xbe996156	-0.29957074
161	0xbe5ad933	-0.21371917
162	0x3e973fff	0.29541013
163	0x3e988efb	0.29796585
164	0x3d27b29c	0.04094182
165	0xbebfc07b	-0.37451538
166	0xbe1bd3e7	-0.15217553
167	0xbe854323	-0.26027784
168	0x3d21d9a8	0.039514214
169	0x3c32d46d	0.010914904
170	0x3ba924d7	0.0051618624
171	0x3e3d8164	0.1850639
172	0x3e30a471	0.1725023
173	0xbc686cdd	-0.014186111
174	0xbe5f2a92	-0.21793583
175	0x3dac630a	0.08417328
176	0x3ea03887	0.31293127
177	0x3e08f5fb	0.13375084
178	0xbeb3bb3f	-0.35103795
179	0xbe23550f	-0.15950416
180	0xbe6e9309	-0.23298277
181	0x3ec56c27	0.38559076
182	0x3dacb57f	0.08433055
183	0xbcb74561	-0.02237195
184	0xbdcacb9c	-0.09902117
185	0xbcf567e1	-0.02995676
186	0xbe3b7ae6	-0.18308601
187	0xbe09889f	-0.13431023
188	0xbea07461	-0.3133879
189	0xbe817d3a	-0.25290853
190	0x3d1c2fb7	0.038131442
191	0x3e1435ae	0.14473602
192	0x3ed224ee	0.410438
193	0x3e6df6b2	0.23238638
194	0xbdd37962	-0.10325886
195	0xbda9a82a	-0.08284028
196	0x3de9bca8	0.114129364
197	0xbccd55ae	-0.02506527
198	0xbe67f4cd	-0.22651978
199	0xbe8381b9	-0.25684908
200	0x3e9aa1f1	0.30201676
201	0xbe928a07	-0.28620932
202	0x3e1fef06	0.15618524
203	0xbe1ed61f	-0.15511368
204	0xbe1005b2	-0.14064673
205	0x3e1dc2a6	0.15406284
206	0x3ea3bd1b	0.31980214
207	0x3de59a07	0.11211019
208	0x3dbdc46d	0.09265981
209	0x3eccac53	0.39975223
210	0x3ebc89b3	0.36823806
211	0xbeabe04a	-0.33569556
212	0xbc9e0dd7	-0.019293709
213	0x3e8ac337	0.27102062
214	0xbe963874	-0.29339945
215	0xbdf76883	-0.12080481
216	0xbd919c2b	-0.07109865
217	0x3e44769f	0.19185875
218	0x3efb1cf9	0.49045542
219	0xbea48726	-0.3213436
220	0xbe96e3c7	-0.29470655
221	0x3c7828a4	0.015146408
222	0xbdc26553	-0.09491982
223	0xbe9dd845	-0.30829063
224	0x3e9d8d48	0.30771852
225	0xbd74d344	-0.05977179
226	0xbe2e8575	-0.17043097
227	0xbdcafccd	-0.09911499
228	0xbc3fe530	-0.011712357
229	0x3d71c46e	0.05902522
230	0xbe83bac4	-0.25728428
231	0xbe8a6fa3	-0.27038297
232	0xbeae3822	-0.340272
233	0x3e2eb192	0.17059925
234	0x3e6f7801	0.23385622
235	0x3d4691c4	0.048478857
236	0x3ecb2580	0.39677048
237	0x3ef639ff	0.48091123
238	0x3edbc82c	0.42926157
239	0x3e9847cc	0.29742277
240	0xbe498541	-0.19679739
241	0xbd84322e	-0.064548835
242	0xbe89c0e9	-0.2690499
243	0x3e339ccb	0.1754028
244	0xbe1d1b0d	-0.1534235
245	0xbdec48fe	-0.1153736
246	0x3e89ebd1	0.26937726
247	0xbe7dfa05	-0.24802406
248	0xbea9f1b5	-0.3319222
249	0xbe9265b6	-0.28593224
250	0x3d1dd0e2	0.038529284
251	0x3ebd7af9	0.37007883
252	0xbdfcfc27	-0.12352782
253	0x3e14627a	0.14490691
254	0xbe79661c	-0.24355358
255	0x3df7d977	0.12102025

local_trans_pixel.layers.0.1.fn.fn.net.3.bias f4 [32]
0	0x3e8cc980	0.27497482
1	0x3e31901d	0.17340131
2	0xbd876d5a	-0.06612654
3	0x3e854385	0.26028076
4	0xbd778777	-0.060431924
5	0xbce8ecea	-0.028433282
6	0xbe75a515	-0.23988755
7	0x3c58132f	0.0131881675
8	0x3edd4d03	0.43222818
9	0xbeacd7a6	-0.33758277
10	0xbe73e1bd	-0.23816581
11	0x3e93e4bd	0.2888545
12	0xbed5b9b1	-0.41743234
13	0xbcf082ec	-0.029359303
14	0xbdbd42a2	-0.09241225
15	0x3cb9ee30	0.022696584
16	0xbdea37fb	-0.11436459
17	0xbe0ac536	-0.13551793
18	0xbe241a46	-0.16025648
19	0xbe3051b3	-0.17218666
20	0xbe541f4e	-0.20715067
21	0x3e3328dc	0.17496055
22	0x3e4e4c10	0.20146203
23	0x3df45aab	0.11931356
24	0xbe7d735b	-0.24751036
25	0x3d9ccaf5	0.076558985
26	0x3ec2d13d	0.3805026
27	0x3ea544ff	0.32279202
28	0xbd7e90ab	-0.062149685
29	0xbd669782	-0.056296833
30	0x3e1b5b5a	0.15171567
31	0x3e94ae8c	0.2903942
