src/res/GGCL/guided_contra_cross_transformer/Pavia/10/True/true ss 0/_1711859507.pth (torch, 266710 bytes, 37 tensors)

pixel_pos_embedding f4 [1, 170, 32]
0	0x3e8c376a	0.27386028
1	0xbf35920c	-0.70925975
2	0xbd659d5d	-0.056058276
3	0xbf2a3494	-0.6648648
4	0xbfa5943e	-1.2935865
5	0x3f2b858a	0.6700064
6	0x3f1bf5a8	0.60921717
7	0x3e1818e1	0.1485324
8	0xbe2b7048	-0.1674205
9	0xbee5fb89	-0.4491847
10	0x3f57221e	0.84036434
11	0x3f1b74bf	0.60725015
12	0x3feb359c	1.8375735
13	0x400fb9d8	2.245718
14	0xbed9cfe9	-0.42541435
15	0x3ee40e74	0.44542277
16	0xbeb6f8a3	-0.3573657
17	0xbe37e6de	-0.17959163
18	0xbfb80e5c	-1.4379382
19	0x3f08e44a	0.5347334
20	0x3f2b44c6	0.66901815
21	0x3ecd8e4a	0.4014762
22	0xbf0dc596	-0.5537962
23	0x40128405	2.2893078
24	0x3f835201	1.0259401
25	0x3e119072	0.14215258
26	0xbf1dbbf2	-0.61614907
27	0xbf9eb66a	-1.2399418
28	0xbea320e3	-0.31861028
29	0xbeb87d9f	-0.3603334
30	0xbec153ea	-0.37759334
31	0x3f27f6af	0.65610784
32	0xbe24aae5	-0.16080816
33	0xbf004dbd	-0.5011862
34	0x3fd4ad49	1.6615382
35	0xbe3ca2b1	-0.18421437
36	0xbd2b0c0e	-0.041759543
37	0xbf8c7d88	-1.0975809
38	0xbfab299d	-1.3372074
39	0xbed29b61	-0.4113417
40	0xc0044028	-2.0664158
41	0x3f7833e4	0.9695418
42	0x3f60dbb9	0.8783527
43	0xbfa158fa	-1.2605278
44	0x3f72f25f	0.9490108
45	0x3f0eee98	0.55832815
46	0xbf3064bf	-0.68903726
47	0x3e99d9b7	0.30048916
48	0x3f188257	0.5957388
49	0xbf90d0de	-1.1313741
50	0x3ec629ef	0.38703868
51	0x3f3dcb7d	0.74138623
52	0x3fa2368f	1.26729
53	0x3ed63b78	0.41842246
54	0xc00982d4	-2.14861
55	0x3eb4c5da	0.353072
56	0xbfec4ace	-1.8460329
57	0x3eaf791f	0.34272096
58	0x401cb9ab	2.4488323
59	0xbfde77bd	-1.7380291
60	0xbf4f67fa	-0.8101803
61	0xbf83a6f2	-1.0285323
62	0x3e249f4a	0.16076389
63	0xbf06f509	-0.52717644
64	0x3f85f666	1.046582
65	0x3ed31f13	0.41234645
66	0x3fa86a2f	1.3157405
67	0x3fe2f8e0	1.7732201
68	0xbe466f2f	-0.1937835
69	0x3f1a4bc4	0.6027186
70	0x3d033fd6	0.0320433
71	0xbf6d4f9c	-0.926996
72	0xbf97e140	-1.1865616
73	0x3d70c164	0.05877818
74	0x3deb7d46	0.114985034
75	0x3fa53bda	1.290889
76	0xbd525496	-0.0513502
77	0x3eb1341f	0.34610078
78	0xbfab24b0	-1.3370571
79	0xbf2129a9	-0.62954193
80	0xbc6097be	-0.013708053
81	0xbf3894c8	-0.7210202
82	0xbf00bfe1	-0.50292784
83	0xbef22ecf	-0.47301337
84	0xbd9da037	-0.07696574
85	0x3fc79f69	1.5595523
86	0x3f54a955	0.8307088
87	0x3f4d5503	0.8020784
88	0xbfcb564d	-1.5885712
89	0x3eca6746	0.39531916
90	0x3bf6198e	0.0075103706
91	0x3f7f981c	0.99841475
92	0xbfd63c3c	-1.6737132
93	0xbe0a2c62	-0.13493493
94	0x3f63aa68	0.88931894
95	0x3fef405c	1.8691516
96	0xbe364dac	-0.17803067
97	0x3d3aed76	0.045636617
98	0x3f64acfe	0.89326465
99	0x3f0a8491	0.5410853
100	0x3e8e860e	0.2783665
101	0xbf706f11	-0.93919474
102	0xbf491a29	-0.7855554
103	0x3fa4fbd0	1.2889347
104	0x3f61a141	0.8813668
105	0x3fb34639	1.4005805
106	0xbe0656bd	-0.13119026
107	0xbfb8f81e	-1.4450719
108	0xbf8215cd	-1.0162903
109	0xbf7e7857	-0.99402374
110	0x3f304a33	0.6886322
111	0xbf83ad8f	-1.0287341
112	0x3fee31d0	1.8608952
113	0x3eb0c874	0.34527934
114	0x3f8b9909	1.0906078
115	0x3e75741e	0.23970076
116	0xbf58cda6	-0.84688795
117	0x3fc93462	1.5719111
118	0x3f907e5a	1.128856
119	0x3da8d297	0.08243292
120	0xbfe6f5a2	-1.8043711
121	0xbf8fbd6c	-1.1229682
122	0x3e786f24	0.24261147
123	0x3f291e53	0.66061896
124	0x3e6dcce5	0.23222692
125	0x3f12050e	0.5703896
126	0xbf4c353c	-0.7976873
127	0x3ed02b61	0.40658095
128	0x3ee07673	0.4384037
129	0xbe74dcfd	-0.23912425
130	0xbf055374	-0.52080464
131	0xbf3b27a3	-0.73107356
132	0x3fe35905	1.7761542
133	0x3f2b15f2	0.6683036
134	0x3fc1227f	1.5088652
135	0x3fc84f12	1.564913
136	0xbec70531	-0.38871148
137	0x3f83ba23	1.029118
138	0xbf8fa91c	-1.1223483
139	0x3e8c6565	0.27421108
140	0xbf310b85	-0.691582
141	0xbf1bee58	-0.6091056
142	0xbf9294f1	-1.1451703
143	0x3e2df8cb	0.16989438
144	0x3fa8fa59	1.32014
145	0xbeb7a111	-0.3586507
146	0x3de166ff	0.11005973
147	0xbea3928f	-0.31947753
148	0xbf193f9d	-0.5986269
149	0xbfce3e45	-1.6112753
150	0x3e1a53d7	0.15071045
151	0xbff13ef8	-1.8847342
152	0xbfb9f8a8	-1.4529009
153	0x3ff5394d	1.9158112
154	0x3f4651a4	0.77468324
155	0xbeff5dd8	-0.49876285
156	0xbfb45979	-1.4089805
157	0xbfa1197b	-1.2585901
158	0xbef84561	-0.48490432
159	0x3fdabf9c	1.7089725
160	0xbf06f1bd	-0.52712613
161	0xbea035ad	-0.3129095
162	0xbe959aa8	-0.29219556
163	0xbf9ce254	-1.225657
164	0xbeb6bc43	-0.35690507
165	0x3ef6e7c0	0.48223686
166	0xbf584942	-0.8448678
167	0x3ea5919c	0.32337654
168	0xbecc0fd6	-0.39855832
169	0x3fb2e402	1.3975832
170	0x3deeb3ec	0.11655411
171	0xbd0def5c	-0.0346521
172	0x3e8927d5	0.26788202
173	0x3f40daae	0.7533368
174	0x3f52eb85	0.82390624
175	0x3f877207	1.0581673
176	0x3e5bd662	0.214685
177	0x3d8f8a48	0.07008797
178	0xbebc8c1d	-0.36825648
179	0xbf94c8c0	-1.1623764
180	0x3f90309b	1.1264833
181	0x3ee601c5	0.44923225
182	0xc0145ccd	-2.318164
183	0x3e4b5fb8	0.19860733
184	0x3f1a2f3c	0.60228324
185	0x3d996dae	0.07491623
186	0x3d36434b	0.04449777
187	0xbee5df80	-0.4489708
188	0x3eca15c5	0.39469734
189	0xbef53c52	-0.47897583
190	0x3eda36b2	0.42619854
191	0x400c5995	2.1929677
192	0x3f0bbe4e	0.54587257
193	0x3ec62b1e	0.3870477
194	0xbfa9765b	-1.3239244
195	0xbed8334b	-0.42226633
196	0xbf2c6c9f	-0.6735324
197	0xbec0679d	-0.3757905
198	0xbfa6d20a	-1.3032849
199	0xbeabcb51	-0.33553556
200	0xbe0f3137	-0.13983618
201	0xbec3196f	-0.38105342
202	0xbf56a844	-0.838505
203	0x3fb95a2d	1.4480644
204	0x3f112e52	0.56711304
205	0xbd86b8a8	-0.06578189
206	0xbeb1b19b	-0.34705815
207	0x3f841c97	1.0321225
208	0x3d0b70de	0.034043185
209	0xbf37c84c	-0.71790004
210	0x3d9ffe48	0.07812172
211	0xbd3f62fc	-0.04672526
212	0xbeaa19a2	-0.3322268
213	0xbf07a87a	-0.5299145
214	0x3eb9db53	0.36300144
215	0xbee97957	-0.45600387
216	0x3f1a1773	0.6019203
217	0xbf7fdce3	-0.9994642
218	0x3f0496b2	0.5179244
219	0x3f85c87e	1.045181
220	0x3ea30ee4	0.31847298
221	0x3fed0712	1.8517783
222	0x3f89c1d4	1.0762277
223	0xbd61db12	-0.055140562
224	0x3f23f18e	0.6404046
225	0xbf475701	-0.7786713
226	0xbedd28ac	-0.43195093
227	0xbe813ca5	-0.2524158
228	0x3f9af5a4	1.2106214
229	0xbe1beda6	-0.15227374
230	0xbf861ce3	-1.0477566
231	0x3e84fa24	0.25972092
232	0x3ecf6427	0.40506098
233	0x3e980ad9	0.29695776
234	0xbf44aaf6	-0.76823366
235	0x3e93a74a	0.2883857
236	0xc036726b	-2.8507335
237	0x3f8376d0	1.0270634
238	0xbf63a3f5	-0.88922054
239	0x3f496a65	0.7867797
240	0x3dd0d66e	0.10197149
241	0x3f6e66a1	0.9312535
242	0x3eb1c987	0.34724066
243	0xbf40e08a	-0.7534262
244	0x3f3ee3c2	0.7456628
245	0xc007ec31	-2.123791
246	0x3f27aafd	0.6549528
247	0xbfd46eab	-1.6596273
248	0xbf062c8b	-0.5241172
249	0xbf7c0744	-0.98448586
250	0x3fde3297	1.7359189
251	0x3f1f7a19	0.6229568
252	0x3e62c194	0.22144157
253	0xbf939584	-1.1530004
254	0xbebb4b35	-0.36580816
255	0xbf30f35b	-0.6912133

cls_token_pixel f4 [1, 1, 32]
0	0x3f57ec25	0.843447
1	0xbea4fe53	-0.32225284
2	0x3e6b687f	0.22989081
3	0xbf937380	-1.1519623
4	0x3f9beba5	1.2181288
5	0x3fa0ff1d	1.2577854
6	0x3e82270b	0.25420412
7	0xbe3baaed	-0.18326922
8	0xbe4e006c	-0.20117348
9	0xbf9928fa	-1.196563
10	0xbf89740c	-1.073854
11	0xbf4bbad8	-0.79581976
12	0xbc903da1	-0.017607512
13	0xbef059c9	-0.469435
14	0x3ee49aba	0.44649297
15	0xbe63248b	-0.22181909
16	0xbf80c5fb	-1.0060419
17	0x3f9c4070	1.2207165
18	0x3fdc2cee	1.7201211
19	0xbf72676c	-0.9468906
20	0xbe30ce50	-0.17266202
21	0x3fa96f39	1.3237067
22	0xbfae3333	-1.3609375
23	0xbcb77634	-0.02239523
24	0xbf87d896	-1.0612972
25	0x3ec12734	0.37725222
26	0xbf16787c	-0.58777595
27	0x3f757ea1	0.95896345
28	0x3fd5bbee	1.6697977
29	0x3f8e28bc	1.1106181
30	0x3e59aa89	0.2125646
31	0xbf6f48ce	-0.93470466

pixel_patch_embedding.weight f4 [32, 30]
0	0x3e2de37e	0.16981313
1	0x3d4b85e0	0.04968822
2	0x3db69624	0.08915356
3	0xbc5f2c20	-0.01362136
4	0xbde4702a	-0.11154206
5	0xbdbd5c3e	-0.092461094
6	0x3dce68f8	0.10078615
7	0x3d4ec7b4	0.05048342
8	0xbd131a7c	-0.03591393
9	0xbdd9206a	-0.106018856
10	0x3d144bc4	0.03620507
11	0x3df33bf8	0.118766725
12	0x3df50f84	0.1196585
13	0x3d9841a8	0.07434398
14	0xbce79b40	-0.028272271
15	0x3e005708	0.125332
16	0xbdcbae5d	-0.099453665
17	0x3dbc2ab4	0.091878325
18	0xbda29a8c	-0.07939634
19	0xbe38e80c	-0.18057269
20	0x3da8e62c	0.08247027
21	0xbe1fed62	-0.15617898
22	0xbe07eefe	-0.13274762
23	0xbe2a4f10	-0.16631722
24	0xbdf14e6e	-0.117825374
25	0x3dd02dc8	0.10164982
26	0x3dfcfec8	0.12353283
27	0xbd8757a4	-0.06608513
28	0x3e27f260	0.16401052
29	0xbe01167c	-0.12606233
30	0x3dd27074	0.10275355
31	0x3db73f18	0.08947581
32	0x3e037f9c	0.12841648
33	0xbdd3e518	-0.103464305
34	0x3e0b72e6	0.13618049
35	0xbd0f57ac	-0.03499572
36	0x3d27cc88	0.04096654
37	0xbe0d5741	-0.13802816
38	0xbdeb2da7	-0.11483317
39	0x3cb49788	0.022044912
40	0xbdb7f75a	-0.089827254
41	0x3d7bca64	0.06147231
42	0xbd5df7fc	-0.054191574
43	0x3d562e78	0.05229041
44	0x3e2d3e72	0.16918352
45	0x3e167dc6	0.14696416
46	0xbe019ec6	-0.12658224
47	0xbe12e94e	-0.14346811
48	0x3e1d1fa4	0.15344101
49	0x3dbcda6c	0.09221348
50	0x3d251690	0.04030472
51	0x3e223370	0.15839934
52	0xbd25ff14	-0.040526465
53	0x3de36194	0.11102596
54	0x3d26a340	0.04068303
55	0xbdda7293	-0.106663845
56	0xbdf0c038	-0.11755413
57	0xbd86a818	-0.0657503
58	0xbba25c40	-0.0049548447
59	0x3d6576ec	0.056021616
60	0xbcd9e1c0	-0.026596904
61	0x3dea0054	0.11425844
62	0xbd997c0d	-0.07494364
63	0xbde9c5b5	-0.11414663
64	0x3dd98c98	0.10622519
65	0x3da8e4fc	0.082468
66	0xbd8f0937	-0.069841795
67	0x3df28020	0.11840844
68	0xbe09c934	-0.13455659
69	0x3d0846c8	0.033270627
70	0xbdb1a530	-0.08674085
71	0x3d0aef34	0.033919528
72	0xbd519054	-0.051163033
73	0xbbf42000	-0.0074501038
74	0xbdd6f737	-0.10496371
75	0xbcd58678	-0.026065096
76	0x3d8f5130	0.06997907
77	0xbc8bb6f8	-0.01705502
78	0x3d418334	0.047244266
79	0xbdbaa976	-0.09114353
80	0x3e108520	0.14113283
81	0xbc573430	-0.013135001
82	0x3de53bac	0.11193022
83	0x3ad37680	0.0016133338
84	0x3deb14fc	0.11478612
85	0x3dfb0eac	0.12258658
86	0xbde85003	-0.11343386
87	0x3d3af294	0.045641497
88	0xbe1b2d5a	-0.15154019
89	0x3e10d040	0.14141941
90	0xbddfc33e	-0.10925911
91	0xbdaecf94	-0.08535686
92	0xbdab6e6b	-0.0837067
93	0x3de9fed4	0.11425558
94	0x3e147e22	0.14501241
95	0x3c970380	0.018434286
96	0xbdcac2be	-0.099004254
97	0x3dd64f84	0.10464385
98	0x3e0b7b96	0.13621363
99	0x3e0de656	0.13857397
100	0x3e15f8a8	0.14645636
101	0x3c8432d0	0.01613751
102	0xbdca38da	-0.09874125
103	0xbde96211	-0.11395658
104	0xbdc695e8	-0.09696561
105	0xbd952c81	-0.07283879
106	0xbd9fd233	-0.07803764
107	0xbc1c1f80	-0.009528995
108	0xbca6c808	-0.020359054
109	0xbdafa782	-0.085768715
110	0xbdbdd174	-0.09268466
111	0xbd97c871	-0.07411278
112	0x3d2e4df4	0.04255481
113	0x3d21da64	0.039514914
114	0xbdd36c55	-0.10323397
115	0x3e1b0dee	0.15142033
116	0x3c56e1f0	0.013115391
117	0x3d90b5bc	0.07065913
118	0xbcbc3fc8	-0.022979632
119	0xbcbb0e78	-0.022834048
120	0x3e123d5a	0.14281216
121	0xb914e800	-0.00014200807
122	0x3da73d30	0.081659675
123	0x3e0f10a0	0.13971186
124	0xbcce5388	-0.025186315
125	0xbde37018	-0.111053646
126	0x3d64f7dc	0.05590044
127	0x3d6ad108	0.057328254
128	0xbe353c35	-0.17698748
129	0xbdb2dc94	-0.08733478
130	0xbe0664b4	-0.13124353
131	0xbe22639b	-0.15858309
132	0xbd909466	-0.07059555
133	0x3e259d80	0.16173363
134	0x3d671b14	0.056422308
135	0x3e11fc2a	0.14256349
136	0xbdae6a32	-0.08516349
137	0xbd86da99	-0.06584663
138	0xbc98b548	-0.01864113
139	0x3e018410	0.12648034
140	0x3e09b95e	0.13449618
141	0x3d769f70	0.060210645
142	0xbdd0587b	-0.10173126
143	0x3d935be4	0.07195261
144	0xbdcef82e	-0.1010593
145	0xbdcc055f	-0.09961962
146	0xbd8341d2	-0.064090386
147	0xbe23c2b6	-0.15992245
148	0xbe29e3ec	-0.16590852
149	0xbd590d2c	-0.052991077
150	0x3d92ecb8	0.07174057
151	0xbdf376d2	-0.118878976
152	0xbd3b035c	-0.0456575
153	0x3db64b7c	0.08901116
154	0xbe36d47a	-0.17854491
155	0xbcc6b038	-0.02425395
156	0xbdb3342e	-0.08750187
157	0xbdea542c	-0.11441836
158	0x3e2d6d30	0.16936183
159	0xbdf22e88	-0.118252814
160	0xbd9a55b4	-0.07535878
161	0xbe135e26	-0.14391384
162	0xbddeb6e2	-0.10874726
163	0x3df1439c	0.117804736
164	0x3c83e1d8	0.016098902
165	0x3d78e628	0.06076637
166	0xbaa46100	-0.0012541115
167	0xbde62366	-0.112372205
168	0xbce5cde0	-0.02805227
169	0xbcec7638	-0.028864965
170	0x3dd99b80	0.106253624
171	0xbd713992	-0.058892794
172	0x3ddb6de0	0.10714316
173	0x3d8c3d2c	0.06847605
174	0xbe0d750a	-0.13814178
175	0xbd39d5c4	-0.04536988
176	0xbd94f483	-0.072731994
177	0xbe0c6559	-0.13710536
178	0xbd812373	-0.063055895
179	0x3d52bb40	0.051448107
180	0xbd8b37da	-0.06797762
181	0xbdf80afb	-0.12111469
182	0x3cc9d7d0	0.02463904
183	0x3c2fc2b0	0.010727569
184	0xbdb57eed	-0.088621
185	0x3e24e86c	0.16104287
186	0x3ccfbca0	0.025358498
187	0xbd816640	-0.06318331
188	0x3d3cb5ec	0.04607193
189	0x3e20e3d2	0.15711907
190	0x3e0f994a	0.14023319
191	0x3da4a7ac	0.08039793
192	0x3cb91c18	0.022596404
193	0xbd5c7b20	-0.05382836
194	0xbd83fae5	-0.06444339
195	0xbc9269e0	-0.01787275
196	0xbdf8f8b7	-0.121568136
197	0xbe31e127	-0.17371045
198	0xbe1ed663	-0.1551147
199	0x3df74b74	0.120749384
200	0x3cca1de0	0.024672449
201	0xbd9445f6	-0.072399065
202	0x3d469a24	0.048486844
203	0x3e165fdc	0.14685005
204	0x3e28108a	0.16412559
205	0x3e11a130	0.14221644
206	0xbe2f2496	-0.171038
207	0x3e1795c2	0.14803222
208	0x3e1e7d1c	0.15477413
209	0xbdc044a1	-0.0938809
210	0x3e0b20ae	0.13586685
211	0x3da96dcc	0.08272895
212	0xbe0b6e0d	-0.136162
213	0xbd44d164	-0.048051253
214	0xbd96be11	-0.07360471
215	0x3e33cd68	0.17558825
216	0x3d53d1ec	0.05171387
217	0xbbd93720	-0.006628886
218	0xbe3a283a	-0.18179408
219	0xbcc57e38	-0.024108037
220	0xbdba9462	-0.09110333
221	0xbe28a009	-0.16467299
222	0x3d401190	0.04689175
223	0xbe0a09a2	-0.13480237
224	0xbdc9221e	-0.098209605
225	0xbdaea262	-0.08527066
226	0xbc9ef010	-0.01940158
227	0x3deb1bb8	0.11479896
228	0xbd693804	-0.056938186
229	0x3e183f52	0.14867905
230	0x3ce2c298	0.02768068
231	0xbdaa723d	-0.083225705
232	0x3e2504ee	0.16115162
233	0xbe0600eb	-0.13086288
234	0x3db405d8	0.08790177
235	0x3dc82678	0.09772962
236	0xbe3af418	-0.18257177
237	0xbdf64035	-0.12023965
238	0xbe1552b8	-0.14582336
239	0xbdf6ce98	-0.120511234
240	0xbcf62628	-0.030047491
241	0xbded4a9e	-0.11586498
242	0x3e312e38	0.17302787
243	0xbd4134bc	-0.047169432
244	0xbd0a7050	-0.033798516
245	0x3e1ac278	0.15113246
246	0xbe0fd4fe	-0.14046094
247	0xbe3739a4	-0.17893082
248	0x3d914658	0.07093495
249	0x3df65d94	0.12029567
250	0x3e2d6300	0.16932297
251	0xbdcfb764	-0.10142401
252	0xbd94a431	-0.072578795
253	0xbc7fab20	-0.015604764
254	0xbe029404	-0.12751776
255	0xbbdf6000	-0.006816864

pixel_patch_embedding.bias f4 [32]
0	0x3cd13398	0.025537297
1	0x3e164230	0.14673686
2	0x3e261b12	0.16221264
3	0xbb866680	-0.0041015744
4	0x3daab58c	0.083354086
5	0x3e083df8	0.13304889
6	0xbcb8ead8	-0.02257292
7	0xbdae70c7	-0.08517604
8	0xbcdf1408	-0.027231231
9	0x3daac670	0.0833863
10	0xbdc24246	-0.09485297
11	0xbc88b578	-0.016688094
12	0x3d98c0f4	0.07458678
13	0x3ab60e00	0.001388967
14	0x3d88c95a	0.0667903
15	0xbe1574f1	-0.14595391
16	0xbd136314	-0.03598316
17	0xbe0e27a1	-0.13882305
18	0x3e0ae5c6	0.13564214
19	0x3bd5eda0	0.0065285712
20	0xbd109af4	-0.035304025
21	0x3df039a8	0.11729747
22	0x3df504a4	0.11963776
23	0x3c1a7060	0.009426206
24	0x3e2bc0a0	0.167727
25	0xbe2490fb	-0.1607093
26	0x3dc6a944	0.097002536
27	0xbdc9077c	-0.09815881
28	0x3e299782	0.16561702
29	0xbdc5f4c6	-0.096658275
30	0xbe2b888c	-0.16751307
31	0x3dac7bb8	0.08422035

local_trans_pixel.layers.0.0.fn.norm.weight f4 [32]
0	0x3f8fcaf7	1.1233815
1	0x3f89fa82	1.0779574
2	0x3f899e3d	1.0751415
3	0x3f8edfbf	1.1162032
4	0x3f8ba72b	1.0910391
5	0x3f97645d	1.1827503
6	0x3f8e0c04	1.1097417
7	0x3f90380a	1.1267102
8	0x3f8d73ac	1.1050925
9	0x3f8bbeb8	1.0917578
10	0x3f96260b	1.173036
11	0x3f8f25cd	1.1183411
12	0x3f8623f8	1.0479727
13	0x3f916cad	1.136129
14	0x3f928be2	1.1448939
15	0x3f8ee751	1.1164342
16	0x3f908aa3	1.1292309
17	0x3f8b3103	1.0874332
18	0x3f8f4b3b	1.1194834
19	0x3f93f250	1.1558323
20	0x3f9490ab	1.1606649
21	0x3f93fa33	1.156073
22	0x3f90a0a6	1.1299026
23	0x3f8767da	1.0578568
24	0x3f8a17d6	1.0788524
25	0x3f8c5812	1.0964377
26	0x3f8b9faf	1.0908107
27	0x3f8f3fb3	1.1191314
28	0x3f8f9f62	1.1220515
29	0x3f88f714	1.0700402
30	0x3f8bd1dd	1.092342
31	0x3f96f4c2	1.1793444

local_trans_pixel.layers.0.0.fn.norm.bias f4 [32]
0	0x3d81e641	0.063427456
1	0xbddb4a56	-0.10707538
2	0x3cbb6337	0.022874458
3	0xbda0e466	-0.078560635
4	0x3caaf952	0.020870838
5	0x3d1c6144	0.038178697
6	0x3d12c480	0.03583193
7	0x3c18f925	0.009336744
8	0xbc28d9a0	-0.010305792
9	0xbe0b91ad	-0.1362979
10	0xbde632b5	-0.1124014
11	0xbd1a8f6e	-0.03773444
12	0x3c54165c	0.012944784
13	0x3d1c6c52	0.03818924
14	0xbe1994ff	-0.14998244
15	0x3db11158	0.08645886
16	0xbd11e5b2	-0.035619445
17	0x3d1183d5	0.035526115
18	0x3ccbd5a2	0.024882142
19	0xbd53d2cf	-0.051714715
20	0x3dcc8035	0.09985391
21	0x3cbd7371	0.023126336
22	0x3cd8ecb0	0.026480049
23	0x3dd20ac2	0.10255958
24	0xbdcf8437	-0.1013264
25	0x3d0e56ac	0.034750625
26	0xbc6f8021	-0.014617951
27	0xbd08fe9e	-0.033445947
28	0x3cbb94c2	0.022898082
29	0x3d3ebd44	0.046567217
30	0xbd645e8d	-0.055754233
31	0xbd3283f0	-0.043582857

local_trans_pixel.layers.0.0.fn.fn.to_qkv.weight f4 [768, 32]
0	0x3dbe1b68	0.09282571
1	0xbe11eda9	-0.14250816
2	0x3dae786a	0.08519061
3	0x3dcce851	0.10005248
4	0x3d2843c3	0.041080248
5	0xbdb7ae95	-0.08968846
6	0x3e17997c	0.14804643
7	0xbe234af5	-0.15946563
8	0x3d865e42	0.06560947
9	0x3e1b2de7	0.15154229
10	0xbe27dd4a	-0.16393009
11	0x3e156513	0.14589338
12	0x3da42f0c	0.08016786
13	0x3d1d1708	0.038352042
14	0xbd955e4e	-0.07293378
15	0x3e5bea12	0.2147601
16	0x3c2d6c1f	0.01058486
17	0x3e3689f1	0.17826058
18	0x3dfeb886	0.12437539
19	0xbc4fc351	-0.012680844
20	0x3dc9d727	0.0985549
21	0xbd3fb2ee	-0.0468015
22	0x3d916462	0.070992246
23	0xbdf17e4a	-0.11791666
24	0x3dc1e1b0	0.094668746
25	0xbd9d4c6d	-0.07680593
26	0xbe359fad	-0.17736693
27	0x3e02ed00	0.12785721
28	0xbd935cc3	-0.07195427
29	0xbd9a94cf	-0.07547914
30	0xbcc5bc32	-0.02413759
31	0xbd416e4c	-0.047224328
32	0xbdb29c45	-0.08721212
33	0xbe25c28a	-0.16187492
34	0x3cdad32a	0.026712019
35	0xbe50d92f	-0.20395349
36	0xbdc36ce5	-0.09542254
37	0x3d6938d9	0.05693898
38	0xbe409dbf	-0.18810175
39	0x3dc76af4	0.097371966
40	0xbdfaee75	-0.12252513
41	0xbe382e60	-0.1798644
42	0xbe18a1ee	-0.14905521
43	0x3d274b97	0.040843572
44	0xbdf9ea19	-0.12202854
45	0x3e5abed6	0.2136186
46	0xbdba2e7d	-0.09090898
47	0x3ccad813	0.024761235
48	0xbe3bb6c3	-0.18331437
49	0xbd0b4529	-0.034001503
50	0x3d632bc4	0.05546166
51	0xbd1fb378	-0.038989514
52	0x3e29fe37	0.16600882
53	0x3de72373	0.11286058
54	0xbe005a14	-0.12534362
55	0x3cb3f632	0.021967981
56	0xbe393ea4	-0.18090302
57	0x3e5d693e	0.21622178
58	0x3dc1aa29	0.094562836
59	0x3c2f02c8	0.010681815
60	0xbd3fd308	-0.046832114
61	0xbe0f7461	-0.14009239
62	0xbdce8b76	-0.10085194
63	0xbdd39e68	-0.10332948
64	0x3d9f52b7	0.077794485
65	0x3bfe2608	0.0077559985
66	0xbc87d42d	-0.016580665
67	0xbdf46365	-0.119330205
68	0xbe0003b5	-0.12501414
69	0x3d0881e3	0.033326995
70	0xbdd5c0a5	-0.10437135
71	0x3d7287d2	0.05921156
72	0x3ccc3aef	0.024930445
73	0x3df69ba9	0.120414086
74	0xbe6cf34e	-0.23139688
75	0x3d02ffe9	0.031982336
76	0x3e1dee92	0.15423039
77	0x3d610781	0.054938797
78	0xbdeaf106	-0.11471753
79	0x3c9422a9	0.018082934
80	0xbd9c151a	-0.07621212
81	0xbdafc8c1	-0.08583213
82	0xbdcb4ce8	-0.09926778
83	0xbdf5a1a1	-0.11993719
84	0xbde893ea	-0.11356337
85	0x3daeaef6	0.08529465
86	0xbd5b6606	-0.053564094
87	0x3e07f35e	0.13276431
88	0xbd440b90	-0.04786259
89	0x3def3da2	0.116816774
90	0x3e06ce73	0.13164692
91	0xbd9368cf	-0.07197725
92	0x3d40f9c6	0.047113203
93	0xbdcd2c83	-0.100182556
94	0xbe338a03	-0.17533116
95	0xbd73876a	-0.059455313
96	0xbd532af3	-0.05155463
97	0x3de03a12	0.10948576
98	0x3c7e329c	0.015514996
99	0xbdaafad7	-0.08348625
100	0x3e00f912	0.12595013
101	0xbd86a552	-0.06574501
102	0xbe42635a	-0.18983212
103	0x3d3b01de	0.045656078
104	0x3de4a1f8	0.111637056
105	0x3c6b01e6	0.014343714
106	0x3e7f82de	0.24952266
107	0x3e89c773	0.2690998
108	0xbd97c2b9	-0.07410187
109	0xbc4344fe	-0.0119183045
110	0x3e9ab018	0.30212474
111	0x3c891389	0.016732948
112	0x3d8415fa	0.06449504
113	0xbdbd247b	-0.09235474
114	0xbe14cbd7	-0.14530884
115	0x3d79816b	0.06091444
116	0xbe944435	-0.28958288
117	0xbe6f78be	-0.23385903
118	0x3e606463	0.21913294
119	0x3cc55ded	0.024092639
120	0x3ea9e63b	0.33183464
121	0xbd92484e	-0.07142697
122	0xbc8b081c	-0.01697164
123	0x3e1a8afc	0.15092081
124	0x3d885724	0.06657246
125	0xbe3e685d	-0.18594499
126	0xbc1d50cb	-0.009601782
127	0x3e49fcd4	0.19725353
128	0xbe4f61f4	-0.2025221
129	0x3ddc482a	0.10755952
130	0xbd4a4952	-0.04938633
131	0x3de6a89b	0.11262628
132	0xba2e0b83	-0.00066392886
133	0x3d5ab7a8	0.053397804
134	0x3de90fea	0.113799885
135	0x3df1fdf0	0.11816013
136	0xbced366e	-0.028956618
137	0xbd364aba	-0.04450486
138	0x3e394a50	0.18094754
139	0xbdd53b1a	-0.10411663
140	0xbe30da3f	-0.17270754
141	0xbdec83f2	-0.11548604
142	0x3e46a527	0.19398938
143	0xbd27b938	-0.040948123
144	0x3d38242f	0.044956382
145	0x3e2ebc2d	0.17063971
146	0xbe01c396	-0.12672266
147	0x3e4940ab	0.19653575
148	0xbe490e49	-0.19634356
149	0xbd5ca914	-0.053872183
150	0xbd9ad876	-0.07560818
151	0xbe0fbbb0	-0.14036441
152	0x3c81109f	0.015754996
153	0xbe02a0da	-0.12756673
154	0xbdbd180e	-0.09233104
155	0xbd862345	-0.06549696
156	0xbe28dba2	-0.16490033
157	0x3d42783c	0.047477946
158	0x3df3786f	0.11888205
159	0xbd330297	-0.04370364
160	0xbdaff8aa	-0.08592351
161	0x3e2dcde6	0.16973075
162	0xbc2d1107	-0.010563142
163	0x3e1ea359	0.15492
164	0x3e233cd2	0.1594117
165	0x3d37c529	0.04486576
166	0x3d5297e3	0.05141438
167	0xbd719315	-0.05897816
168	0x3e1d68da	0.15372029
169	0x3dafa0fe	0.08575629
170	0x3e23de9b	0.16002886
171	0xbcd8ff80	-0.02648902
172	0x3c530af0	0.012881026
173	0x3d76ace6	0.060223483
174	0xbdd4fc0f	-0.10399639
175	0xbae06dd1	-0.0017122572
176	0xbe02e16b	-0.12781303
177	0x3acc1ec6	0.0015573136
178	0xbe3a56a2	-0.1819711
179	0xbe383ff1	-0.17993142
180	0x3b9f9cf7	0.0048710066
181	0xbe1f8a25	-0.15580042
182	0x3dbd7001	0.09249879
183	0xbe0c55ad	-0.13704558
184	0x3ddbcdb0	0.10732591
185	0xbe15fa42	-0.14646247
186	0xbe30d7be	-0.17269799
187	0x3d9ddf1a	0.07708569
188	0x3c82d27b	0.015969506
189	0xbd6a54cb	-0.05720977
190	0x3d21dcea	0.03951732
191	0xbd980bbc	-0.07424113
192	0xbd89eac4	-0.06734231
193	0x3e0a9cca	0.13536373
194	0xbd7fd308	-0.062457114
195	0xbe06a842	-0.13150123
196	0x3d21cbf2	0.039501138
197	0x3d6b6ae3	0.057474982
198	0x3d7d4865	0.06183662
199	0x3e644ecd	0.22295685
200	0xbc13b11f	-0.009014397
201	0xbda7c627	-0.081920914
202	0xbddea07a	-0.10870452
203	0x3e05cdf8	0.13066852
204	0xbcb51ff9	-0.022109972
205	0xbe305ce8	-0.17222941
206	0x3d36ef54	0.044661835
207	0xbd240a0f	-0.040048655
208	0x3dad4753	0.0846087
209	0xbc8bedd6	-0.017081182
210	0xbe0be99a	-0.1366333
211	0xbdb705c4	-0.089366466
212	0xbdb8a436	-0.09015696
213	0xbdea23b9	-0.11432595
214	0x3df81a2c	0.12114367
215	0x3d3f1285	0.04664852
216	0x3c9b69c3	0.01897133
217	0x3dcb7940	0.09935236
218	0x3de39308	0.11112028
219	0xbd06415e	-0.032777183
220	0x3dbab230	0.09116018
221	0xbc5b37f3	-0.013380039
222	0x3e045667	0.12923585
223	0x3e3074c8	0.17232049
224	0xbcece747	-0.028918875
225	0x3e377502	0.17915729
226	0x3e042d94	0.12908012
227	0xbe00273d	-0.12514968
228	0x3ce2c901	0.027683737
229	0x3e00e841	0.12588598
230	0xbd3cc410	-0.046085417
231	0xbdf6923f	-0.12039613
232	0xbe0185ca	-0.12648693
233	0xbd9a594c	-0.07536563
234	0xbcaffca1	-0.021482768
235	0xbdf5d352	-0.12003197
236	0xbd073928	-0.033013493
237	0xbd9399c0	-0.0720706
238	0xbc444ff7	-0.011981956
239	0xbde998cb	-0.11406096
240	0xbcd3efa8	-0.025871113
241	0x3d808ba1	0.06276632
242	0x3e1d38ad	0.15353651
243	0x3e54e78a	0.2079145
244	0x3dd17e33	0.10229149
245	0xbe1f7fdf	-0.15576123
246	0x3e6ab587	0.2292081
247	0x3dd90f72	0.10598649
248	0x3a34a32c	0.00068907696
249	0x3be3eff2	0.006956094
250	0xbbc324d6	-0.005955319
251	0xbca61b5e	-0.020276722
252	0x3d50d34f	0.05098277
253	0x3d0bbaf1	0.034113828
254	0x3e9a5e1a	0.3014992
255	0xbd469648	-0.048483163

local_trans_pixel.layers.0.0.fn.fn.to_out.0.weight f4 [32, 256]
0	0xbb66b39f	-0.0035202277
1	0x3d1a9cdc	0.03774725
2	0x3d86d5c6	0.06583743
3	0x3dd0830b	0.101812445
4	0x3db45be7	0.088065915
5	0x3d9689ae	0.07350479
6	0x3cf30f7a	0.029670466
7	0x3cb5e306	0.02220298
8	0x3cfdf41d	0.031000191
9	0xbc380268	-0.011231042
10	0xbd727670	-0.059194982
11	0xbe1d4a8e	-0.15360472
12	0x3d9a6746	0.07539229
13	0xbdefcefa	-0.117093995
14	0x3d2a5772	0.0415873
15	0xbd4fb537	-0.05070993
16	0xbe44bf64	-0.19213635
17	0x3cfa19e0	0.030529916
18	0x3bad2438	0.0052838586
19	0x3d012959	0.031533573
20	0xbbce5e50	-0.006297864
21	0x3d4132ba	0.047167517
22	0xbdbe1337	-0.09281009
23	0xbdbd7133	-0.09250107
24	0x3c3ce606	0.011529451
25	0x3cad2028	0.021133497
26	0xbdc476fb	-0.09593006
27	0xbddc48d4	-0.10756078
28	0xbc347625	-0.011014496
29	0xbc9038cf	-0.017605213
30	0xbc9f246d	-0.019426549
31	0xbd3ee7ba	-0.04660771
32	0xbd9bb678	-0.076031625
33	0x3a2456e4	0.0006269051
34	0xbbb12815	-0.0054063895
35	0x3c72fb0f	0.014830365
36	0x3db8984b	0.090134226
37	0x3d06c7e6	0.03290548
38	0xba558c96	-0.0008146254
39	0xbce9c4a3	-0.028536147
40	0x3e08283a	0.13296595
41	0xbd1cb791	-0.038261
42	0xbc8f86ac	-0.017520271
43	0xbdb0d0c8	-0.08633572
44	0xbdf88b43	-0.12135937
45	0xbc8ff961	-0.017574968
46	0x3cb83413	0.022485768
47	0xbd9f46dc	-0.07777187
48	0x3d3cdc30	0.046108425
49	0x3d240973	0.040048074
50	0x3c4ff745	0.012693231
51	0xbcd5ebcc	-0.026113413
52	0x3bc9effc	0.0061626416
53	0xbd68bdc3	-0.056821596
54	0x3d347fe7	0.04406729
55	0x3b0568f5	0.0020356749
56	0xbd7efd32	-0.062253185
57	0xbd85aea3	-0.0652745
58	0x3e1b02af	0.15137742
59	0xbd311704	-0.04323484
60	0x3df5e307	0.12006193
61	0xbc1bc852	-0.009508209
62	0xbd1ffa48	-0.039057046
63	0xbd8d0ef7	-0.0688762
64	0x3e05fc79	0.13084592
65	0x3dabfafc	0.08397481
66	0x3cae62dc	0.021287374
67	0x3cdcb98e	0.026943948
68	0x3de6c0db	0.11267253
69	0x3ca66714	0.020312823
70	0xbde08cb8	-0.1096434
71	0x3d684592	0.056706972
72	0xbdbcf45c	-0.09226295
73	0x3d9512f3	0.07279005
74	0x3c8b3bc3	0.01699627
75	0x3daf3cfc	0.08556554
76	0xbcc181d4	-0.023621477
77	0xbd72b6a4	-0.05925621
78	0x3dd23bc5	0.102653064
79	0xbd836f81	-0.06417752
80	0x3d525dd1	0.051359
81	0xbd92e213	-0.071720265
82	0xbc8b8053	-0.017028963
83	0x3c0d97fe	0.008642195
84	0xbdefbcca	-0.117059305
85	0x3d352595	0.044225294
86	0xbd62c224	-0.05536093
87	0xbdc80a5b	-0.097676
88	0x3c1bf0c7	0.009517855
89	0xbd977d6c	-0.07396969
90	0x3c61b075	0.013774981
91	0xbc9a66e1	-0.018847885
92	0x3d9b7552	0.075907364
93	0xbdcf3af1	-0.10118664
94	0xbcba337c	-0.022729628
95	0x3c298f36	0.010349086
96	0xbc2ba948	-0.0104773715
97	0xbd2c099d	-0.042001355
98	0xbcd2ac95	-0.02571706
99	0x3e1c81f7	0.15283953
100	0x3dbe902f	0.093048446
101	0x3bdde5f3	0.006771797
102	0x3de9de5b	0.11419364
103	0x3ddfa690	0.10920441
104	0x3c83a5da	0.016070295
105	0xbd89c423	-0.06726863
106	0xbd409cd2	-0.047024556
107	0xbcce47ce	-0.025180724
108	0xbd08dedc	-0.03341566
109	0x3acbf3a7	0.0015560285
110	0x3dd25959	0.10270948
111	0x3e0064bf	0.12538432
112	0xbdda18e0	-0.10649276
113	0xbb401a53	-0.0029312565
114	0x3e0a5c38	0.13511741
115	0xbc1147f0	-0.008867249
116	0xbe21b7bb	-0.15792744
117	0x3df805ce	0.12110482
118	0x3d86bae5	0.06578616
119	0x3d9fb612	0.07798399
120	0xbd611cb1	-0.054959003
121	0x3d1a6c4d	0.03770094
122	0xbe0bcd5d	-0.13652559
123	0xbd487894	-0.048943117
124	0x3d941e03	0.07232287
125	0x3cfbc558	0.03073375
126	0xbdc198df	-0.09452986
127	0x3d241bf1	0.04006571
128	0x3d957c8e	0.072991475
129	0x3d42a5ae	0.047521286
130	0xbbe1e413	-0.0068936436
131	0x3cc5935d	0.02411812
132	0x3bb97e95	0.0056608417
133	0x3dc6ec93	0.09713092
134	0xbd9a118d	-0.07522879
135	0xbda8933f	-0.0823121
136	0xbdece626	-0.11567335
137	0xbb6657ee	-0.0035147625
138	0xbdd0c594	-0.10193935
139	0x3d6a33aa	0.057178177
140	0xbd0a3de2	-0.033750422
141	0x3cbe532a	0.023233015
142	0xbd11013e	-0.035401575
143	0xbc034511	-0.008012072
144	0x3dcdd87f	0.10051059
145	0x3b37bd0a	0.002803626
146	0xbe08debf	-0.13366221
147	0x3cd62758	0.026141807
148	0x3de85b38	0.113455236
149	0x3d790a5f	0.060800906
150	0xbdc2183a	-0.09477277
151	0xbcf31d75	-0.029677132
152	0x3e14fd0a	0.14549652
153	0x3ddb56b8	0.107099
154	0xbd4a3126	-0.049363278
155	0xbe1230be	-0.14276406
156	0xbd47fa5a	-0.04882274
157	0xbd3e0eb1	-0.04640073
158	0x3d8c7ce1	0.06859756
159	0xbde5fc20	-0.1122973
160	0xbe1d9dee	-0.15392277
161	0x3d6cf818	0.05785379
162	0x3c5b75d3	0.013394791
163	0x3d1cc52d	0.03827398
164	0xbc8dbb0e	-0.017301109
165	0xbc8ae4e2	-0.016954843
166	0x3d653bbb	0.055965167
167	0x3db2c327	0.087286286
168	0x3c083aeb	0.008314828
169	0xbd674ee4	-0.05647172
170	0xbd6cea41	-0.05784059
171	0xbd09015f	-0.033448573
172	0xbc4e7645	-0.01260144
173	0xbd3b32af	-0.045702633
174	0xbdf88961	-0.12135578
175	0xbd328782	-0.04358626
176	0x3ce69832	0.028148744
177	0xbcda0db1	-0.026617857
178	0xbdbd881f	-0.09254479
179	0x3dbf167b	0.0933046
180	0x3df0d044	0.117584735
181	0x3d904e27	0.070461564
182	0xbaed19e4	-0.0018089381
183	0x3d93617e	0.071963295
184	0x3dad5642	0.08463718
185	0x3d31f853	0.04344971
186	0xbdb6b6d2	-0.08921589
187	0xbd867470	-0.065651774
188	0x3d2efb50	0.04272014
189	0xbe15f470	-0.14644027
190	0xbd687b73	-0.056758355
191	0xbb6d008b	-0.0036163654
192	0xbd34c7e1	-0.044135932
193	0xbd8993fa	-0.067176774
194	0xbe0d20b6	-0.1378201
195	0xbe1f8eee	-0.15581867
196	0x3adfc06b	0.0017070895
197	0x3b748cfe	0.0037315483
198	0xbb58b192	-0.0033064825
199	0x3d107326	0.035266064
200	0x3d2d2c31	0.042278472
201	0xbde78116	-0.11303918
202	0x3dec2c38	0.115318716
203	0x3d9050ad	0.07046638
204	0xbbc67c14	-0.0060572717
205	0xbc7772e0	-0.015103072
206	0x3b9396ff	0.004504084
207	0x3a86b33b	0.0010276804
208	0xbe064feb	-0.13116424
209	0x3c35d64c	0.011098456
210	0xbd9aa92c	-0.07551798
211	0xbdf4feff	-0.11962699
212	0x3da025e4	0.07819727
213	0xbd1d4e4b	-0.038404744
214	0xbc28449c	-0.010270264
215	0xbb86e111	-0.0041161855
216	0x3d82705f	0.06369089
217	0xbdb21d84	-0.08697036
218	0xbd5999cb	-0.053125184
219	0x3d67a262	0.056551345
220	0x3d52e785	0.051490325
221	0xbc58d4da	-0.0132343415
222	0xbd865903	-0.065599464
223	0xbe0a3f3b	-0.13500683
224	0xbce32911	-0.027729543
225	0x3da64ff2	0.08120717
226	0xbc923477	-0.017847283
227	0xbd3c2310	-0.045931876
228	0xbc8d185c	-0.01722353
229	0xbd9752cd	-0.0738884
230	0x3da9ba0d	0.082874395
231	0xbd527b82	-0.051387317
232	0xbc1ca981	-0.009561897
233	0xbae8be69	-0.0017756942
234	0xbd7595ad	-0.059957195
235	0x3df14b20	0.11781907
236	0xbdcd5f7a	-0.10027976
237	0x3dda7bf1	0.10668171
238	0x3d68c60e	0.056829505
239	0xbd3a47ef	-0.045478757
240	0xbc4924f5	-0.012276878
241	0xbd51bde1	-0.051206473
242	0x3df35f4b	0.1188341
243	0x3c917a01	0.017758371
244	0x3dfff37c	0.12497613
245	0x3da559eb	0.08073791
246	0xba02e2d6	-0.00049929076
247	0xbd3ea9ba	-0.046548583
248	0x3e275c65	0.1634384
249	0xbdbf89cb	-0.09352454
250	0x3b8b099f	0.0042430903
251	0xbddf990d	-0.10917864
252	0xbd3f76bf	-0.046744104
253	0x3d804b91	0.06264413
254	0xbdef2cb3	-0.116784476
255	0xbdc8b918	-0.09800929

local_trans_pixel.layers.0.0.fn.fn.to_out.0.bias f4 [32]
0	0xbca0b3ff	-0.019617079
1	0x3d97ae96	0.074063465
2	0xbd2d03dd	-0.042240012
3	0x3de79fb9	0.113097616
4	0xbb1617d6	-0.002290239
5	0x3c2a971e	0.010412006
6	0x3d2ce8ab	0.042214077
7	0xbcbd7139	-0.023125278
8	0xbdfa5bab	-0.122245155
9	0xbc96b784	-0.018398054
10	0x3becba1d	0.007224335
11	0xb8915667	-6.9302325e-05
12	0xbd9b9edb	-0.07598659
13	0x3cac7860	0.021053493
14	0x3d06f4de	0.032948367
15	0x3da494d4	0.08036199
16	0xbbdde761	-0.0067719673
17	0x3d3c4307	0.04596236
18	0xbcb78986	-0.022404443
19	0xbd5a6b36	-0.0533249
20	0xbd08b7e9	-0.033378515
21	0xbdae7607	-0.08518606
22	0x3dcf40cb	0.1011978
23	0x3cf1e7bb	0.029529443
24	0x3d055cf3	0.032559346
25	0xbd379bf1	-0.04482645
26	0x3cd562d9	0.02604811
27	0xbdb743cb	-0.08948477
28	0xbd67e032	-0.056610294
29	0x3d72b64c	0.059255883
30	0x3ce38ede	0.027778085
31	0xbcbe66a7	-0.023242308

local_trans_pixel.layers.0.1.fn.norm.weight f4 [32]
0	0x3f903428	1.1265917
1	0x3f7dec3a	0.9918858
2	0x3f888c00	1.0667725
3	0x3f7f1545	0.9964183
4	0x3f8882da	1.0664933
5	0x3f84363f	1.0329055
6	0x3f92d396	1.1470821
7	0x3f86ead7	1.0540417
8	0x3f94ea71	1.1634046
9	0x3f7b267d	0.98105603
10	0x3f83622c	1.0264335
11	0x3f62491f	0.88392824
12	0x3f7afd82	0.9804307
13	0x3f876e4c	1.0580535
14	0x3f938c6a	1.1527226
15	0x3f883bcf	1.0643252
16	0x3f84a910	1.0364094
17	0x3f85d0dd	1.0454365
18	0x3f9267f1	1.143797
19	0x3f851161	1.0395929
20	0x3f881b98	1.0633421
21	0x3f7b9bd3	0.98284644
22	0x3f8c6199	1.0967284
23	0x3f88d0db	1.0688738
24	0x3f85046e	1.0391977
25	0x3f833761	1.0251275
26	0x3f75b40c	0.95977855
27	0x3f9544d9	1.1661636
28	0x3f831b24	1.0242658
29	0x3f89fb4a	1.0779812
30	0x3f8808d0	1.0627689
31	0x3f86ea01	1.0540162

local_trans_pixel.layers.0.1.fn.norm.bias f4 [32]
0	0xbc68fea6	-0.014220869
1	0x3d160627	0.03662696
2	0x3be843f2	0.007088178
3	0xb9f2e587	-0.00046328848
4	0x3d2a77ea	0.041618265
5	0xbbc5e4e2	-0.006039248
6	0x3c6448a2	0.013933333
7	0xbc15f867	-0.009153462
8	0x3ce98aac	0.028508507
9	0x3d97508b	0.07388409
10	0x3cbd5904	0.023113735
11	0x3bdee1ef	0.0068018357
12	0x3d46c598	0.048528284
13	0xbca90ce4	-0.02063603
14	0x3bbddc92	0.0057941163
15	0xbcff640f	-0.031175641
16	0x3d2708d8	0.04077992
17	0x3c7fabde	0.015604941
18	0x3c526814	0.012842197
19	0xbc9b21c7	-0.018937005
20	0x3c58b5fd	0.013226983
21	0xbc054b10	-0.008135572
22	0xbd0c50cb	-0.034256738
23	0x3d27097c	0.04078053
24	0xbccc5687	-0.024943603
25	0xbd38dc11	-0.045131747
26	0x3ca3f85a	0.020015884
27	0xbbf9203d	-0.00760272
28	0x3cb1e10f	0.021713762
29	0x3c87f878	0.016597971
30	0xbcfd9907	-0.030956758
31	0xbd5b235d	-0.053500522

local_trans_pixel.layers.0.1.fn.fn.net.0.weight f4 [8, 32]
0	0x3e2c674c	0.1683628
1	0xbd0b3b40	-0.033992052
2	0xbe1a37cb	-0.15060346
3	0x3e83c11c	0.25733268
4	0xbdac7fe1	-0.084228285
5	0xbe1cff17	-0.15331684
6	0xbdf8ecec	-0.12154564
7	0xbea30f36	-0.31847543
8	0x3d8e1459	0.06937475
9	0xbc97186f	-0.018444268
10	0x3d49d86e	0.04927867
11	0x3d81bc37	0.06334727
12	0xbc2009fc	-0.009768005
13	0xbe003e0d	-0.1252367
14	0x3e246496	0.16053995
15	0xbd70f517	-0.058827486
16	0x3e6c1ded	0.23058291
17	0xbd87c9ac	-0.06630263
18	0xbdd63248	-0.10458809
19	0x3cefbf46	0.029266011
20	0xbdd7796d	-0.10521207
21	0x3dbec88e	0.093155965
22	0x3e0b19f1	0.13584115
23	0xbd7894df	-0.06068885
24	0xbdd0f205	-0.102024116
25	0xbe214071	-0.15747239
26	0x3e36f963	0.17868571
27	0x3df490c3	0.119416736
28	0xbd4b0a5f	-0.049570438
29	0xbe22a287	-0.15882312
30	0x3e5a3e19	0.21312751
31	0xbc39acf3	-0.011332738
32	0x3e70e75f	0.23525761
33	0x3e2ffcc6	0.17186269
34	0xbea2c8e9	-0.31793907
35	0x3e11ef90	0.14251542
36	0xbe24b51a	-0.1608471
37	0x3e2bcefd	0.16778179
38	0xbe834e65	-0.25645748
39	0x3d65a767	0.05606785
40	0xbddf5b8b	-0.10906132
41	0xbd792781	-0.06082869
42	0x3db54776	0.08851521
43	0xbe101472	-0.140703
44	0xbac8a52e	-0.0015308016
45	0x3e025843	0.12728982
46	0x3d9e0f94	0.07717815
47	0xbea75080	-0.32678604
48	0xbe0a043a	-0.13478175
49	0x3dc51594	0.09623256
50	0xbe83b02d	-0.2572035
51	0x3e145282	0.14484599
52	0x3dd08ff7	0.10183709
53	0xbd0325b7	-0.03201839
54	0xbd994177	-0.074831896
55	0xbce4e512	-0.02794126
56	0xbe2b475d	-0.16726442
57	0x3deef37b	0.11667534
58	0x3e2229a5	0.15836199
59	0x3dcbb3d7	0.09946411
60	0xbe35f657	-0.17769752
61	0xbe26d264	-0.16291195
62	0x3da887d6	0.08229034
63	0xbda3dbbb	-0.08000895
64	0xbdb203ba	-0.08692117
65	0xbd0d4875	-0.03449293
66	0xbe1a515e	-0.15070102
67	0xbe208135	-0.15674289
68	0x3d70d95d	0.058801044
69	0x3db064de	0.08612989
70	0x3bde058e	0.0067755645
71	0x3dce34fa	0.10068698
72	0xb9b7eb63	-0.00035079857
73	0xbd7f98ec	-0.062401697
74	0xbdecd2a8	-0.11563617
75	0x3d465b5d	0.048426975
76	0xbd2421e2	-0.040071376
77	0x3ddb69f1	0.10713566
78	0x3e113d0d	0.14183445
79	0xbe597bbf	-0.21238612
80	0xbd6b62e7	-0.057467368
81	0x3dc0f9f1	0.094226725
82	0x3d2a0106	0.041504882
83	0xbd36012a	-0.044434704
84	0x3e51fe56	0.20507178
85	0xbd4f8643	-0.05066515
86	0xbe2df2c0	-0.16987133
87	0x3d653d7d	0.055966843
88	0xbe769b7a	-0.24082747
89	0x3dfee712	0.12446417
90	0x3d2389e1	0.039926413
91	0xbe17ab7f	-0.14811514
92	0xbc3398ac	-0.010961693
93	0xbe0a3b5f	-0.13499211
94	0xbd8cfffc	-0.06884763
95	0x3d957582	0.072978035
96	0x3ddaae1f	0.10677742
97	0xb8e205cd	-0.000107776
98	0x3e1e7aec	0.15476578
99	0x3caf29ab	0.021382174
100	0x3e6c110c	0.23053378
101	0xbdd7713c	-0.105196446
102	0x3dee506e	0.116364345
103	0x3e034bae	0.12821838
104	0xbdecf7fc	-0.11570737
105	0x3de01d8f	0.10943138
106	0x3d8e431c	0.06946394
107	0xbcc4c6ba	-0.024020541
108	0x3de11247	0.10989814
109	0x3cd3e96e	0.025868144
110	0x3e24354f	0.1603596
111	0xbe1dcb1b	-0.1540951
112	0xbd1e76af	-0.038687404
113	0x3d9bb63b	0.07603117
114	0xbe004979	-0.12528028
115	0xbe047cff	-0.12938307
116	0x3cf03d13	0.029325997
117	0xbd861fb2	-0.06549014
118	0xbe5b1643	-0.21395211
119	0x3e5021af	0.2032535
120	0x3c17e7dc	0.009271588
121	0xbe4dd2ff	-0.2010002
122	0xbcbe9295	-0.023263255
123	0xbe264bec	-0.162399
124	0xbc88fd27	-0.016722275
125	0x3e66bbda	0.22532597
126	0x3d32d8f4	0.043663934
127	0xbe2f2240	-0.17102909
128	0xbd5b9d1b	-0.053616624
129	0xbe5890ca	-0.21148983
130	0xbcc7ffc7	-0.024413956
131	0xb89bacda	-7.423172e-05
132	0xbd95b275	-0.073094286
133	0xbd061d68	-0.032742888
134	0xbd6cf544	-0.05785109
135	0x3cee70df	0.029106556
136	0xbe4495b6	-0.19197735
137	0xbd951e38	-0.072811544
138	0xbe0db1f5	-0.13837416
139	0x3b59a082	0.0033207242
140	0xbe281a1d	-0.16416211
141	0xbc8b1fe7	-0.016982986
142	0x3d769cb7	0.06020805
143	0x3c580812	0.013185518
144	0x3b929746	0.0044735996
145	0x3ccbf22b	0.024895748
146	0xbe37c5b1	-0.17946507
147	0xbd4cecc5	-0.05003049
148	0xbda48b0b	-0.08034333
149	0x3d2976c2	0.041373022
150	0xbcfdd7fc	-0.030986778
151	0x3cf6b13a	0.030113805
152	0x3d49ee8f	0.049299773
153	0x3ce0fc0a	0.027463932
154	0x3cb4ab58	0.02205436
155	0xbdd8ae08	-0.10580069
156	0xbe0f7d1f	-0.14012574
157	0xbd952096	-0.07281606
158	0x3d1c8052	0.038208313
159	0x3d082030	0.03323382
160	0x3e2a545e	0.16633746
161	0xbe496e1a	-0.19670907
162	0xbbddbc5a	-0.006766838
163	0x3dd9d4bc	0.10636279
164	0x3d95f919	0.07322902
165	0xbd44df08	-0.04806426
166	0x3e89b8c3	0.26898775
167	0xbdf541aa	-0.11975415
168	0xbdeb638e	-0.11493598
169	0xbdb00f9e	-0.08596729
170	0x3e3d036d	0.18458338
171	0x3b239305	0.0024959457
172	0xbd114cda	-0.035473682
173	0xbdffc798	-0.12489241
174	0xbe590d2a	-0.21196428
175	0xbd491709	-0.049094234
176	0xbe261b57	-0.16221367
177	0xbd937aea	-0.07201178
178	0x3cf1a4a8	0.02949746
179	0x3dcd6551	0.1002909
180	0xbe2777d2	-0.16354302
181	0xbd72d0c7	-0.059281137
182	0xbe20dd6c	-0.15709466
183	0x3cb9a6d7	0.022662563
184	0xbe12ec72	-0.14348009
185	0x3c49759e	0.0122961085
186	0xbca984e4	-0.02069325
187	0x3da7fdd3	0.0820271
188	0x3daf10c3	0.08548119
189	0x3e02e49d	0.12782522
190	0x3df1e664	0.11811522
191	0x3d06071b	0.03272162
192	0x3e2c96a9	0.16854347
193	0x3d83487b	0.06410309
194	0x3cd22d1d	0.025656277
195	0xbdaf108d	-0.08548079
196	0x3d49fe7e	0.04931497
197	0xbde28806	-0.11061101
198	0x3dc00dcf	0.09377634
199	0xbb0d0978	-0.0021520536
200	0xbd8d640b	-0.06903847
201	0xbdd8d90b	-0.10588273
202	0xbb4de6c9	-0.0031418076
203	0x3c0fc1bf	0.00877422
204	0xbd6feca1	-0.058575276
205	0x3e208a54	0.15677768
206	0x3e0b53fd	0.13606258
207	0x3de2fa8e	0.11082946
208	0xbe12ed9b	-0.14348452
209	0x3d4b2774	0.049598172
210	0x3d3adae0	0.04561889
211	0x3e11e126	0.14246044
212	0x3d953059	0.07284612
213	0x3cc1f797	0.02367763
214	0x3c9235ae	0.017847862
215	0x3c3795d5	0.011205156
216	0xbdbeb0d3	-0.0931107
217	0x3e117b21	0.14207126
218	0x3da6f83d	0.081528164
219	0xbd88c35c	-0.06677887
220	0x3d2b453d	0.041814078
221	0x3df5f5d2	0.12009777
222	0xbcc5a9a5	-0.024128744
223	0x3cc1ed2b	0.02367266
224	0xbe106ac3	-0.14103226
225	0x3dba35f6	0.090923235
226	0x3dc1d395	0.09464184
227	0xbc01dcc7	-0.007926173
228	0x3e20a888	0.1568929
229	0xbd4167e9	-0.047218237
230	0x3d9e5c5c	0.0773246
231	0xbe6009d6	-0.21878752
232	0x3e97fdfa	0.29685956
233	0x3ddc3f61	0.10754276
234	0x3d88c03f	0.06677293
235	0x3d69867c	0.05701302
236	0xbd5d9421	-0.054096345
237	0xbe76b1f3	-0.2409132
238	0xbe9e9af0	-0.30977583
239	0x3e2dab9c	0.16959995
240	0x3e149732	0.14510801
241	0xbbaa3578	-0.0051943623
242	0x3e04fb43	0.12986474
243	0x3c960597	0.018313212
244	0xbe512c7b	-0.20427124
245	0x3e436cc3	0.19084458
246	0xbe47a4c7	-0.19496451
247	0x3e188c75	0.1489733
248	0xbcd54173	-0.026032185
249	0xbde6ce72	-0.11269845
250	0x3d9c17a9	0.076217
251	0x3e95bd70	0.29246092
252	0x3d18719c	0.03721772
253	0x3e5f7b8e	0.21824476
254	0xbe7f51b2	-0.24933508
255	0xbe4d1b0c	-0.20029849

local_trans_pixel.layers.0.1.fn.fn.net.0.bias f4 [8]
0	0x3d80056b	0.062510334
1	0xbe162c43	-0.14665322
2	0xbd93d4d1	-0.07218326
3	0x3db1e59b	0.08686372
4	0xbe4ef0c6	-0.20209035
5	0x3e172b26	0.14762554
6	0xbd2aff00	-0.041747093
7	0xbb17350a	-0.0023072385

local_trans_pixel.layers.0.1.fn.fn.net.3.weight f4 [32, 8]
0	0xbdbc420c	-0.09192285
1	0xbea175b9	-0.31535128
2	0x3e6f295b	0.2335562
3	0x3e63aad4	0.22233135
4	0x3e50b0b4	0.20379907
5	0xbe8d74c5	-0.2762815
6	0x3e93d141	0.28870586
7	0xbeb6af39	-0.3568056
8	0x3e8ee004	0.27905285
9	0x3e522bbe	0.20524499
10	0x3cc2e742	0.023791913
11	0xbeb1c3ff	-0.34719846
12	0x3ca58204	0.020203598
13	0x3e49fdbb	0.19725697
14	0xbd666d39	-0.056256507
15	0xbea2f76d	-0.31829396
16	0xbe9c431d	-0.30519953
17	0xbec8f88b	-0.39252123
18	0xbd79bacb	-0.060969155
19	0xbbacc1a2	-0.0052721063
20	0x3c52e597	0.012872121
21	0x3e1d55d3	0.1536477
22	0xbd79b029	-0.060959015
23	0x3d37e3a0	0.044894814
24	0xbe24bcea	-0.1608769
25	0xbd9c2846	-0.07624869
26	0x3e46ec5a	0.19426098
27	0xbe83ab94	-0.2571684
28	0x3e18fde0	0.14940596
29	0x3e45bf0b	0.19311158
30	0x3df792c9	0.12088544
31	0xbd769ee8	-0.06021014
32	0xbba1bda2	-0.004935936
33	0x3e2690e5	0.1626621
34	0xbcaac6af	-0.020846693
35	0x3eea330d	0.45742074
36	0x3d9eaa90	0.07747376
37	0x3ec48a8d	0.38386956
38	0x3e7a6a57	0.24454628
39	0x3c045ba8	0.008078493
40	0xbe3a2568	-0.18178332
41	0xbda7aac6	-0.08186869
42	0x3e4a0a26	0.19730434
43	0x3ce5f5cd	0.028071309
44	0xbe59916d	-0.21246882
45	0x3e4ec380	0.20191765
46	0x3e8d95f3	0.27653465
47	0xbeaae22f	-0.3337569
48	0xbe2ae221	-0.16687824
49	0xbdbbdbe6	-0.09172802
50	0x3e2743d6	0.16334471
51	0xbe91cd12	-0.2847677
52	0xbd2bd07c	-0.041946873
53	0xbe6aeeac	-0.22942609
54	0xbe8ee434	-0.2790848
55	0x3ce6b877	0.028164132
56	0xbe0494f2	-0.12947443
57	0x3e3effab	0.18652217
58	0xbe7a3aa2	-0.24436429
59	0x3c891af9	0.016736494
60	0xbe8806a7	-0.26567575
61	0x3e7d49fc	0.24735254
62	0xbdc0d466	-0.09415512
63	0xbdb5c8a1	-0.088761576
64	0xbdeb753c	-0.1149697
65	0x3e163590	0.1466887
66	0x3bff87d8	0.0077981763
67	0xbe6c9e35	-0.23107226
68	0x3e203365	0.15644605
69	0xbe9dcc4a	-0.30819923
70	0xbe5dfdf5	-0.21678908
71	0x3f05bfba	0.52245677
72	0xbdc5960e	-0.09647761
73	0x3d4cb272	0.049974866
74	0xbe8949fa	-0.26814252
75	0xbd24a877	-0.040199723
76	0x3d93aa53	0.07210221
77	0xbe3a6ca8	-0.18205512
78	0xbd407d87	-0.046994712
79	0x3dc412b8	0.09573883
80	0x3e5937ec	0.21212739
81	0x3e6f2d06	0.23357019
82	0xbe46c1fc	-0.19409937
83	0xbccb8126	-0.024841856
84	0xbdf0d212	-0.11758818
85	0x3dd2189c	0.102586
86	0xbe8c320b	-0.2738193
87	0x3ea4f36e	0.32216972
88	0x3cd7b8ea	0.026333291
89	0xbe00cfab	-0.12579219
90	0x3e1ab421	0.15107776
91	0x3e2715c2	0.16316894
92	0xbe582ad3	-0.21110086
93	0xbe3b29c6	-0.18277654
94	0xbd567d6e	-0.052365713
95	0xbe839008	-0.25695825
96	0x3e8708fe	0.26374048
97	0xbea2c3f5	-0.31790128
98	0x3e62ff5a	0.22167721
99	0xbd1338f9	-0.035943005
100	0xbd52ed77	-0.051495995
101	0x3dbc64c8	0.0919891
102	0x3e53a030	0.20666575
103	0xbe7de331	-0.24793698
104	0x3e329c81	0.17442514
105	0x3bc6358f	0.006048865
106	0x3cb8cfb0	0.02255997
107	0x3e60ea42	0.21964362
108	0xbe66179d	-0.22469945
109	0xbcf09f1c	-0.029372744
110	0x3d826f04	0.06368831
111	0xbdb002c3	-0.08594277
112	0xbe8f6ffc	-0.28015125
113	0xbea1411b	-0.31494984
114	0x3e9b2e0f	0.30308577
115	0xbda3d286	-0.079991385
116	0x3e1f6dbc	0.15569204
117	0xbe323893	-0.17404394
118	0x3e7f929a	0.24958268
119	0xbd6e361f	-0.058157083
120	0xbdd298e1	-0.102830656
121	0xbea2ee79	-0.31822565
122	0xbe1ecab6	-0.15507016
123	0x3e7c1581	0.24617578
124	0x3e86f143	0.26355943
125	0x3eb3699d	0.35041514
126	0x3d6035e5	0.054738898
127	0xbe68e1e3	-0.22742419
128	0xbeaaa033	-0.33325347
129	0xbbbf0b81	-0.005830229
130	0xbe3f60c2	-0.18689254
131	0x3eb4d214	0.35316527
132	0xbe5fb4be	-0.21846291
133	0x3ea078b2	0.31342083
134	0x3e79d4ee	0.24397632
135	0xbebb2ecb	-0.36559138
136	0xbeed5dfd	-0.4636077
137	0xbd591e41	-0.053007368
138	0xbe0daf27	-0.13836347
139	0x3e9f2fc3	0.31091127
140	0xbc54b965	-0.012983655
141	0xbecf9ada	-0.4054783
142	0xbe757222	-0.2396932
143	0x3dbff121	0.093721636
144	0x3e8cfdfe	0.2753753
145	0x3e7b235e	0.2452521
146	0xbdc3002a	-0.09521516
147	0x3d3e60d5	0.046479065
148	0x3e94db8d	0.29073754
149	0x3e49964e	0.19686243
150	0x3e01ea77	0.12687097
151	0xbdd13cb8	-0.10216659
152	0xbd949318	-0.072546184
153	0x3e115973	0.14194278
154	0xbebca6da	-0.36846048
155	0x3e3d04a7	0.18458806
156	0x3e87ddbf	0.26536366
157	0xbda12d43	-0.07869961
158	0xbe0af4d3	-0.13569956
159	0xbb553598	-0.0032533165
160	0xbe72cfe9	-0.23712124
161	0xbe3fedfd	-0.18743129
162	0x3e46ef84	0.19427305
163	0x3e599798	0.21249235
164	0x3e5286b9	0.20559205
165	0x3d274861	0.04084051
166	0xbe7cdec2	-0.2469435
167	0x3e5878f6	0.21139893
168	0xbe06f359	-0.13178767
169	0xbee632b6	-0.44960564
170	0xbdd416b4	-0.10355893
171	0x3ec62aa6	0.38704413
172	0xbe8e4ae9	-0.27791527
173	0xbd7d832e	-0.06189268
174	0xbe7f2d50	-0.24919629
175	0x3d07507d	0.033035744
176	0x3e1cc4b1	0.15309407
177	0xbe3864b2	-0.18007162
178	0xbe4b89e6	-0.19876823
179	0xbdd33c2f	-0.103142135
180	0xbe1de52e	-0.15419456
181	0xbe79c4ca	-0.24391475
182	0x3d341a6b	0.043970507
183	0x3edb692b	0.42853674
184	0x3db0bc8a	0.08629711
185	0xbe87d7bd	-0.26531783
186	0xbe9e2b3a	-0.30892354
187	0xbe962c13	-0.293305
188	0x3e347e40	0.17626286
189	0xbd10ea4b	-0.03537969
190	0x3dd9162b	0.10599931
191	0xbe6314c0	-0.22175884
192	0xbeafce56	-0.3433711
193	0x3e578f40	0.2105074
194	0x3e9a4e09	0.3013766
195	0xbe8652d0	-0.26235056
196	0x3e7e77b9	0.24850358
197	0x3e69921d	0.22809644
198	0xbe841a7b	-0.25801453
199	0x3e533331	0.20624997
200	0x3de33325	0.110937394
201	0xbe9065cb	-0.28202662
202	0x3e6c0631	0.23049237
203	0x3df7d663	0.12101438
204	0xbe883c11	-0.26608327
205	0xbe59f1d4	-0.21283656
206	0xbd6aa05c	-0.057281837
207	0x3e9cfcf7	0.30661747
208	0xbe52d2d2	-0.20588234
209	0x3d04eb86	0.032451175
210	0x3db5343b	0.08847853
211	0xbe6cb4e2	-0.23115876
212	0xbe564f94	-0.20928794
213	0x3e4e587c	0.20150942
214	0x3e63a115	0.22229417
215	0x3d56ce8d	0.052443076
216	0xbe44089c	-0.19143909
217	0x3cb666e8	0.022265866
218	0xbe409342	-0.18806174
219	0xbea56103	-0.32300577
220	0x3e9347a2	0.2876559
221	0xbbd34366	-0.0064472435
222	0xbe927360	-0.2860365
223	0x3edde28d	0.43336907
224	0xbe8e200f	-0.27758834
225	0xbe82cff2	-0.25549275
226	0xbeadd2bb	-0.33949837
227	0xbe0d9df0	-0.1382978
228	0x3d4d1e4c	0.05007772
229	0x3d2b1c1b	0.04177485
230	0xbec026ed	-0.37529698
231	0x3e04346a	0.1291062
232	0xbecb6c38	-0.39731002
233	0xbe884ac0	-0.2661953
234	0xbe65f66e	-0.22457287
235	0xbe8eb544	-0.2787267
236	0xbeb2184e	-0.34784168
237	0x3e3283b4	0.17433053
238	0xbdf9776c	-0.12180981
239	0x3e85b3d4	0.2611376
240	0xbed85693	-0.4225355
241	0xbebea18d	-0.37232628
242	0xbda978e2	-0.0827501
243	0x3df452d9	0.119298644
244	0xbd9b6e76	-0.07589428
245	0x3e093044	0.13397318
246	0xbe9943b3	-0.29934463
247	0xbe689a36	-0.22715077
248	0xbdec1c00	-0.11528778
249	0xbecc3c05	-0.3988954
250	0x3daf5f03	0.08563044
251	0x3e7b26a2	0.24526456
252	0x3eb3e3a1	0.35134605
253	0xbe9d82e4	-0.30763924
254	0xbd69bfa5	-0.057067532
255	0xbec9d25c	-0.39418304

local_trans_pixel.layers.0.1.fn.fn.net.3.bias f4 [32]
0	0x3c97db27	0.018537117
1	0xbe8f493d	-0.27985564
2	0x3eb2e666	0.34941405
3	0x3bdd2ea6	0.0067499457
4	0xbccd63aa	-0.025071938
5	0xbd0bfbf2	-0.03417582
6	0xbe57e097	-0.21081768
7	0xbe54e0ec	-0.20788926
8	0x3d7685bd	0.060186137
9	0x3e9b533b	0.30336937
10	0xbec30966	-0.38093108
11	0x3e4ce1e3	0.20008044
12	0x3dac537f	0.08414363
13	0xbdd3a6e8	-0.10334569
14	0x3e86db50	0.26339197
15	0x3c944d50	0.018103272
16	0xbe85c083	-0.26123437
17	0x3d611fde	0.05496203
18	0xbe8a5f0f	-0.2702565
19	0xbed37525	-0.41300312
20	0x3dc658c9	0.09684903
21	0xbe44a5a7	-0.19203816
22	0xbe27ce08	-0.16387188
23	0xbd96b7e2	-0.073592916
24	0xbdc59762	-0.096480146
25	0xbe876a09	-0.26448086
26	0xbeb1a45c	-0.3469571
27	0xbc3b08b8	-0.011415653
28	0x3dea6fdb	0.11447116
29	0xbdc8c565	-0.09803275
30	0x3daf7604	0.085674316
31	0x3e910f38	0.28331923
