src/res/GGCL/guided_contra_cross_transformer/Pavia/10/True/true ss 0/_1711859199.pth (torch, 266710 bytes, 37 tensors)

pixel_pos_embedding f4 [1, 170, 32]
00000000: 9783 09bf 2811 3c3e 925c 87bf 0b2b c6bf
00000010: 6e48 d6be b779 d8bf e89f c1bf 73d2 84bf
00000020: efbd 5bbf 7925 d23f 6b66 eebe 821f 7b3f
00000030: 9292 c03f 786b 97be 6e72 9f3e 3db1 c83e
00000040: a53b 1e40 86b6 043f 091e 1e40 4458 9d3e
00000050: 1283 f23e 9224 5c3d ac36 3abf 1422 d1bd
00000060: eb46 133e dba0 42bf fc09 39bf 0565 073d
00000070: 441f f63e caba 68bf f61f 3540 e0ad 0440
00000080: 51b3 1b3f c84f 6ebf d596 b53f cb6f 9ebf
00000090: fe18 2ebf d3e5 6f3f 3819 983e b10a a13e
000000a0: 23fa a13e eb65 d43e dd98 32bd ea49 edbe
000000b0: c788 61bf faa0 aebc eeba 573f 4865 71be
000000c0: bf92 a7bf 010d ae3f ac88 963f 180e 3c3e
000000d0: d264 a2bf fa36 633f eeb0 ae3f 33b8 1abf
000000e0: 15bb d93f abe4 11c0 0612 993f 33e2 1fbf
000000f0: 0580 bdbd a999 953d ec5f 64bf c640 55bf
00000100: c25a 22bf a62e 4fbd d9c1 e8be 0066 8e3f
00000110: 2ebe 5dbe 2468 a23f 5e50 0abf 2f43 8cbf
00000120: 87ff 2b3d b220 333f ecf5 aa3f f8a6 80bf
00000130: 937a 93bf 0a42 76bf 0856 a33f cc11 923f
00000140: e497 54bf 7612 473e 4f7c babf bb98 9ebb
00000150: ab02 85bf 554d ca3e 3ed6 8bbe 4ccb 4c3b
00000160: 2466 efbc 1d19 ce3e ec30 863f 6824 2c3f
00000170: d06c 0cbf 0571 5f3d c54f 8e3d 9703 96bf
00000180: 9525 183f 705a 14bf 2425 ee3e 2c6b d73d
00000190: 872e 263f 2beb 1340 ffdb e63f b666 ca3f
000001a0: 2fa3 30bf c005 9b3f a9bd 083e b582 933f
000001b0: 2a54 6f3f b08e 70bf b07a bfbf d96b 1bc0
000001c0: e2fe 31be 5610 c63e e35a e43e cafd ce3e
000001d0: 6815 c03e 3f27 80bf 1da8 7eba 487c ab3e
000001e0: 0f2c 753e 4a58 93be 277c 673e 077e 783f
000001f0: e209 2f40 e71d 4fbe b372 2c3f 5c6d ca3e
00000200: e4ae f73f 52f8 b63f 9812 e53e 37cb 93bf
00000210: c05e 42be 641b e43e 0aff 91be 290b a83f
00000220: 561c 3ebf 53a2 8dbf da12 483d 6009 1dbf
00000230: db06 e5bb 9573 b6bf b6bf 1a40 4d90 403f
00000240: 09fd 47bc 9e46 babe a96a 2f40 08bb ecbd
00000250: 5747 4d3f 2223 0a3f 4c39 ac3e 8441 5a3e
00000260: 4d97 1f3f 8f89 233e 2501 af3f e450 b43f
00000270: 889a ebbf c2e2 2ebf 8b30 d93f 306b 97bf
00000280: ff80 27bf 02f7 c6bd a680 19bf 6bc8 8dbe
00000290: e8fe 78bf 811c 1f3f b293 963f f14f e8bf
000002a0: 97b4 78bf a514 1fc0 3903 0f40 3e4d 473f
000002b0: fa66 6c3f 6e83 5f3f 37ee 0640 83ba a1be
000002c0: 80bc c4bf 99bd a83f 05de d03f a2a1 06c0
000002d0: 5391 a23f c267 01be 9cd6 5b3f 401b b8bf
000002e0: 62e7 f7be 3af7 d73f 9e4a 373f 9fad 66bf
000002f0: 9837 993f 1f52 433f 559c 3e3f bd46 60bf
00000300: 8144 b93e 4c35 2140 aa87 a8bd a878 813f
00000310: 5355 823f d74a 7dbd cdde ba3f c1f9 9a3f
00000320: 4a87 35be 61af 423f 2d90 e43f 61d3 613f
00000330: 1262 4fbf a1aa 62bf ff24 d13e b278 9ebf
00000340: 359f 95bf 534d a53f 0ba2 c93f a350 3a3f
00000350: 96a4 6e3e 3172 723e 2885 29bd 14f3 a23d
00000360: 65a4 4abe 1b3f 81bf 164f 283f 471e 0e40
00000370: f1f1 583f 8daa 423f c372 bdbd 49c6 be3f
00000380: aa31 fcbd f7e9 eebf 9ec4 c2be 35a9 163f
00000390: ca3b 5abf bff9 823f 2aa5 973d d75e c13f
000003a0: ce4d 6e3f 7a82 493e 348c 9c3e 1cc3 0f40
000003b0: b9fb d0bf 78e8 f43f 8125 94be 5bcc e23f
000003c0: c0d0 a2bf 65bc f53f a1a7 70bf 4e38 a13f
000003d0: 0d76 703e 8f34 a83f 5da3 ebbd d061 483f
000003e0: e986 dc3f 5d08 97bf d0e1 dfbe 80b2 3c3f
000003f0: 7bc0 f3be 3858 04bf 5c23 9abf 4244 6c3e
-0.53716415 0.1836592 -1.0575125 -1.5481886 -0.41852134 -1.6912144 -1.5126925 -1.0376724
-0.8583669 1.6417686 -0.46562514 0.9809495 1.504473 -0.2957418 0.3114199 0.39197722
2.4723904 0.5184101 2.4705832 0.30731404 0.47365624 0.053745814 -0.7273967 -0.10211578
0.14382522 -0.76026696 -0.7228086 0.033055324 0.4807073 -0.9091002 2.8300757 2.0731125
0.6082049 -0.93090487 1.4186655 -1.2377867 -0.68006885 0.9371006 0.2970674 0.3145347
0.31636152 0.41484007 -0.043602813 -0.46345454 -0.8809933 -0.021316994 0.8426961 -0.23573792
-1.3091658 1.3597718 1.1760459 0.18364751 -1.2687018 0.8875576 1.3647745 -0.60437316
1.7010218 -2.2795818 1.1958625 -0.6245453 -0.092529334 0.07304699 -0.89208865 -0.8330196
-0.63419735 -0.050581597 -0.45460394 1.1124878 -0.21654579 1.2688031 -0.5402888 -1.0958003
0.041991737 0.69971764 1.3356299 -1.0050955 -1.1521782 -0.9619452 1.276063 1.1411681
-0.83044267 0.19440636 -1.4569186 -0.0048399842 -1.0391439 0.39512125 -0.2731189 0.0031249104
-0.02922351 0.40253535 1.048368 0.6724305 -0.54853535 0.054551143 0.069488086 -1.1719846
0.59432346 -0.57950497 0.4651271 0.10518488 0.64914745 2.3112285 1.8035887 1.5812595
-0.68999 1.211113 0.133536 1.1524264 0.934878 -0.93967724 -1.4959316 -2.4284575
-0.17382386 0.38684338 0.4460059 0.40428 0.37516332 -1.0011977 -0.0009714382 0.33493257
0.23942588 -0.28778297 0.22605954 0.970673 2.7349782 -0.2022625 0.6736252 0.3953656
1.9350247 1.4294531 0.44740748 -1.1546391 -0.18981457 0.44552147 -0.28514892 1.3128406
-0.7426199 -1.1065162 0.048846103 -0.6134243 -0.0069893426 -1.4254023 2.417951 0.75220186
-0.012206324 -0.36382002 2.740885 -0.11559111 0.8018698 0.5395986 0.33637464 0.21314055
0.6234024 0.15970443 1.3672224 1.4087186 -1.8406534 -0.68314755 1.6967939 -1.1829586
-0.6543121 -0.09715082 -0.59961927 -0.2769197 -0.97263956 0.6215287 1.1763823 -1.8149396
-0.9715056 -2.485635 2.2345717 0.7785224 0.9234463 0.8730992 2.1082895 -0.3158761
-1.5370026 1.3182861 1.6317755 -2.1036153 1.27006 -0.12637237 0.8587434 -1.4383316
-0.4841872 1.6872323 0.7159823 -0.90108675 1.1970091 0.7629718 0.74457294 -0.8760794
0.36185077 2.518878 -0.08229001 1.0114946 1.0182289 -0.06183895 1.4599243 1.2107469
-0.1772739 0.76048857 1.7856499 0.88213164 -0.8100902 -0.8854161 0.40848538 -1.2380583
-1.1689211 1.2914222 1.5752577 0.7277929 0.23304972 0.23676373 -0.041386753 0.0795652
-0.19789274 -1.0097383 0.65745676 2.220598 0.84744173 0.7604149 -0.09250405 1.4904262
-0.1231416 -1.866515 -0.38040632 0.5885194 -0.8524748 1.0232466 0.074045494 1.5107068
0.9308747 0.19678679 0.30575716 2.2462835 -1.632682 1.9133444 -0.28934863 1.7718614
-1.2719955 1.9198118 -0.9400578 1.2595308 0.23482533 1.314104 -0.115057684 0.7827425
1.7228671 -1.1799427 -0.4372697 0.7370987 -0.47607788 -0.5169711 -1.2042041 0.23072913

cls_token_pixel f4 [1, 1, 32]
00000000: 7e12 47bf 3894 ab3f 4f88 8a3f 40e0 993f
00000010: ee82 a4bd aae9 45be 2259 5dbf 3d5f 803f
00000020: 5ebf cf3f d9c8 25bf 345f 5c3e af98 dfbd
00000030: 6471 8abf a59c 6b3e 059d e93e e47a b9be
00000040: 9b7c 2ac0 96c5 c7be 13e5 f93e d97a 7a3f
00000050: b1ff afbe 4784 8d3f e71e 88bf 992d 003f
00000060: 3017 8ebd 4113 68bf 0395 c43f a8d4 d3be
00000070: 4228 65be a107 a5be 745f ef3d 5fa8 4abf
-0.7776259 1.3404608 1.0822848 1.2021561 -0.08032785 -0.19327417 -0.8646413 1.0029064
1.6230276 -0.64759594 0.21520692 -0.10917794 -1.0815854 0.23008974 0.4562761 -0.3622657
-2.6638553 -0.39017934 0.48807582 0.978437 -0.34374765 1.1055993 -1.0634431 0.50069577
-0.069380164 -0.9065438 1.5357975 -0.4137318 -0.22378638 -0.32232383 0.11688128 -0.79163164

pixel_patch_embedding.weight f4 [32, 30]
00000000: 0060 d73d 141c c03d 7e49 2f3e a4e7 a53d
00000010: 67ce 36be 6c31 2e3e 5a5b 79bd c050 afbd
00000020: 7a2a 0c3e 3057 ff3d 2a3f 2dbe 38b8 a0bc
00000030: 64f9 953d 98cf cbbd 90d2 343e 98cb e33c
00000040: c8f9 d3bc c06e c83c a836 0ebe 0c3c 213e
00000050: c4fe 123e e3e4 0fbe 6c6c c73d 9014 00be
00000060: e236 e8bd 0432 17be d826 de3c c8e9 873d
00000070: 242b e03d d889 fa3c 91e1 babd e07b 27be
00000080: b065 ac3d 6459 033e 2046 9e3b 70b7 f33c
00000090: fe05 dbbd 719c acbd 1ab7 7bbd 197e 33be
000000a0: 2af5 0ebe 317d b4bd 18c8 13be b83d 03be
000000b0: 2c52 db3d 00c5 e63c 18d2 2e3e 42a7 283e
000000c0: 6a3e 1dbe 8c34 30be fac4 0b3e 4737 1abe
000000d0: e584 f1bd 94d9 2d3d 7816 f8bc cc16 623d
000000e0: c87b 7cbd c014 c4bd 2b8f 0abe 885c b8bd
000000f0: e890 07be 441c 40bd 2c91 95bd 6863 343d
00000100: 6c9e 413d 10ce 44bc 4755 2cbe 0cc2 12be
00000110: 582e ff3d 207a bdbb 481e a33c f034 453c
00000120: e41d 11be a061 ad3d a64d ddbd 4e0c 013e
00000130: 8815 fabd d809 bcbc a03a 8e3d 0a3b b0bd
00000140: 2d9d 87bd a0f8 673d ae04 7bbd 8ca8 703d
00000150: 379a 9ebd deca 833d f410 333d 4891 e6bc
00000160: 2cce 2bbe 8290 06be 3808 fabc e816 c13d
00000170: 724d 1bbe 18c9 863d 2069 cbbc c827 e73d
00000180: 0081 763b 4168 38be 481a d0bc f35a 17be
00000190: bca8 693d 5441 e9bd 88a5 ff3d 2c86 e83d
000001a0: d3db e7bd 229c 0e3e 0466 1ebd e731 0ebe
000001b0: 84b7 24bd 780b 21bd 7861 953d 503d 61bc
000001c0: 38e8 a93d 447c 14bd 7028 3f3d e276 093e
000001d0: 2a68 0f3e 550c 8fbd 907b f93c c888 59bd
000001e0: 20b2 f93d 2ec0 bebd d876 053e 2b00 07be
000001f0: 3d87 1cbe a103 91bd 100b 843d e481 02be
00000200: 84be 8b3d 44d0 9dbd c027 df3d f469 923d
00000210: 0c2c 1fbd 330a 2cbe c4fb 743d 0ae0 863d
00000220: c24c ddbd 40ea 843c 90c9 4ebc 3010 493d
00000230: 1898 023d b4ea 10be 9017 303e 0457 b53d
00000240: ec79 b83d 1c87 87bd 62fe 12be c053 463c
00000250: b053 233e a029 de3d 04db 99bd 840e 153e
00000260: 604e 353c 8ea9 bbbd e095 233e cbf6 9ebd
00000270: ec42 713d 7031 0a3d 18fb b63d 3ce3 f23d
00000280: e037 a83c 485e 2f3e 4bfa 96bd bee9 803d
00000290: 7e59 20be c73d 04be 88f4 a73d 17c4 26be
000002a0: 56b1 74bd 19fa 34be 5dfb 27be 30f5 c23d
000002b0: 4e8a 1a3e b898 7fbd 0ca6 063d d4bf 1d3d
000002c0: b8ee e43d 34ba 823d a40f f23d be3f 15be
000002d0: 729b 083e 0054 8bbb 1a61 0c3e 1c4b 41bd
000002e0: 89a6 ffbd 18fb 00be 18f1 1a3e fc8c fc3d
000002f0: b43a 873d f0ab 7f3c 9cb8 1bbe fd48 99bd
00000300: bceb 633d a05c c3bc c8f0 6a3d d8d3 eebc
00000310: 28f8 e23d 68be 4b3d 141f b83d 8c9e 863d
00000320: bc23 50bd 0a91 7dbd 34ba 713d 45fe 31be
00000330: 2291 093e f0d7 22be a8f8 0a3d b76d 97bd
00000340: 64ae 783d 0de3 85bd 88a1 363e 74fd b6bd
00000350: 81cb e9bd e2f9 31be f2e6 dbbd e04c ecbb
00000360: 3095 2bbe 403b 7fbb bca9 ebbd 4a60 0a3e
00000370: e2ab 0bbe afac 25be e88a 103e f5d6 09be
00000380: 9acd b4bd b850 fd3c 1c37 073d 1027 5bbc
00000390: 309c 60bc 0054 3e3b 7cdb 483d 30cc 9dbc
000003a0: 50e5 513d 70bf 0a3d 802f 623c 5811 34be
000003b0: 5860 dbbd ec0e 203e c44d 5b3d b06d 93bc
000003c0: f03d 953c e2cc 94bd 3e66 32be c2b4 efbd
000003d0: 4656 183e d3bf 11be e098 0a3e 88c4 59bd
000003e0: 78a4 5ebd ce92 833d 2f7b 25be f884 423d
000003f0: 40ed a73b 8f98 0fbe 98ce b0bd 4012 36bd
0.105163574 0.093803555 0.17117879 0.081008226 -0.17852174 0.1701104 -0.060878135 -0.08560324
0.13688079 0.124678016 -0.16918626 -0.019619092 0.07322958 -0.09951705 0.17658448 0.027807042
-0.02587594 0.024466872 -0.13888037 0.15745562 0.14354998 -0.14052157 0.09737477 -0.12507844
-0.11338593 -0.14765173 0.027118132 0.06636387 0.109457284 0.030583307 -0.09125055 -0.16355848
0.08417833 0.12827069 0.004830137 0.029750556 -0.10694502 -0.08428276 -0.061453916 -0.17528571
-0.1396071 -0.08812941 -0.14431798 -0.12816513 0.107090324 0.028170109 0.17072332 0.16470054
-0.1535584 -0.17207545 0.1364936 -0.15060149 -0.11792926 0.042443827 -0.030284151 0.055197522
-0.061641484 -0.0957427 -0.13531177 -0.09002024 -0.13238871 -0.046901956 -0.0730308 0.044040114
0.047270223 -0.01201202 -0.16829406 -0.14331836 0.12460011 -0.0057823807 0.0199119 0.012036547
-0.14171559 0.08465886 -0.10805826 0.1260235 -0.12211138 -0.022953913 0.069447756 -0.08605011
-0.06621776 0.05663359 -0.06128376 0.05875449 -0.07744258 0.06435178 0.04371734 -0.028145447
-0.16777867 -0.13141063 -0.030521497 0.09428197 -0.15166262 0.06581324 -0.024830401 0.112868845
0.003761351 -0.1800852 -0.025403157 -0.14780788 0.057045683 -0.113894135 0.124827445 0.11353716
-0.11321225 0.13926747 -0.03867151 -0.13886224 -0.040214077 -0.039317578 0.07293981 -0.013747528
0.08296245 -0.03625132 0.046669424 0.13424256 0.14004579 -0.06984774 0.030454427 -0.05310896
0.12192178 -0.09313999 0.13033617 -0.13183658 -0.15285964 -0.0708077 0.064474225 -0.12744862
0.06823447 -0.07705739 0.108962536 0.07149115 -0.038860366 -0.16800766 0.059810415 0.06585701
-0.10805656 0.01622498 -0.012621298 0.049087703 0.03188333 -0.14152032 0.17196488 0.088544875
0.0900763 -0.06617567 -0.14354852 0.0121049285 0.15949893 0.10847783 -0.07512477 0.14556319
0.011066049 -0.09163199 0.15975142 -0.07761916 0.058901712 0.033738554 0.08934611 0.11859748
0.020534456 0.17125809 -0.07371958 0.06294583 -0.15659139 -0.12914191 0.082009375 -0.1628574
-0.059739433 -0.1767353 -0.16404481 0.09519422 0.15091822 -0.062401503 0.0328732 0.03851302
0.111783445 0.06383172 0.118193895 -0.14575097 0.13340548 -0.004251957 0.13708916 -0.04719077
-0.12482936 -0.12595785 0.15131032 0.12331578 0.066029936 0.015604958 -0.15207142 -0.074846245
0.055644736 -0.023847878 0.057358533 -0.02915375 0.11082488 0.049742132 0.08990303 0.06573209
-0.05081533 -0.0619059 0.059015468 -0.17382152 0.1343427 -0.15902686 0.033928543 -0.07393973
0.060713187 -0.06537447 0.17835057 -0.08935061 -0.114157684 -0.17380479 -0.10737409 -0.0072113127
-0.1675613 -0.0038945228 -0.11506984 0.13513294 -0.13639787 -0.16179155 0.14115489 -0.13460906
-0.08828278 0.030922279 0.03301154 -0.013376012 -0.013709113 0.0029041767 0.04903744 -0.019262403
0.05124408 0.033873975 0.01380527 -0.17584741 -0.107117355 0.15630692 0.05354096 -0.017996639
0.01821801 -0.07265641 -0.17421815 -0.11704399 0.1487666 -0.14233331 0.1353488 -0.053165942
-0.05435607 0.06424485 -0.16160272 0.04749009 0.005124718 -0.1402304 -0.08633155 -0.044451

pixel_patch_embedding.bias f4 [32]
00000000: 14b6 703d dcc4 313e acc8 383d 00c0 1237
00000010: 4504 bcbd dd0c 36be c2ce 273e b8ef 82bc
00000020: 7477 3abd b88f 13be 98a8 af3d b093 29bc
00000030: 8443 20be 4e4d 0dbe cb93 86bd 8056 06be
00000040: 3f13 16be e069 a93d b463 e93d 9ebe 013e
00000050: 1869 333e c508 12be 30b4 d7bd b764 1abe
00000060: 569e 153e f6e0 8bbd 80ec cc3c c81f bebc
00000070: be20 09be 34d1 183e 3c0f 29be 240f febd
0.058767393 0.17360252 0.04511325 8.746982e-06 -0.09180502 -0.17778344 0.16387466 -0.015983447
-0.045524076 -0.14410293 0.085770786 -0.010350153 -0.15650755 -0.1379902 -0.06571158 -0.13118935
-0.1465578 0.08272147 0.1139597 0.12670371 0.17520559 -0.14261158 -0.10532415 -0.15077482
0.14611182 -0.06830017 0.025015116 -0.023208514 -0.13391396 0.14923555 -0.16509718 -0.124052316

local_trans_pixel.layers.0.0.fn.norm.weight f4 [32]
00000000: ee39 883f f81d 8e3f c672 953f 465e 963f
00000010: 5d37 8e3f 7618 913f a640 8b3f f750 8d3f
00000020: 4646 8c3f ebcb 883f 4124 963f 4f37 8c3f
00000030: 246a 9b3f 17d4 8d3f abbc 913f 9b55 953f
00000040: dc41 913f 62f5 8d3f 97d1 8f3f cb7f 943f
00000050: 03d6 953f f4f6 903f 64f7 8a3f cd45 953f
00000060: a325 8e3f 1b00 923f c232 873f c993 8e3f
00000070: 33bb 8a3f 1da6 903f fcbb 933f c9cd 883f
1.0642679 1.1102896 1.1675651 1.174752 1.1110646 1.133559 1.0879104 1.1040334
1.0958946 1.0687231 1.1729814 1.0954379 1.2141767 1.108035 1.1385702 1.166675
1.1348224 1.109051 1.1235837 1.1601499 1.1705936 1.1325364 1.0856748 1.1661927
1.1105236 1.1406282 1.0562365 1.113885 1.0838379 1.1300694 1.1541743 1.0687801

local_trans_pixel.layers.0.0.fn.norm.bias f4 [32]
00000000: db99 c7bc 0ed5 2f3d f56f 413c 23a5 a5bd
00000010: 2f26 3bbd bb61 ed3c 7fe6 edbc 1994 28bd
00000020: af1c 883c 6b09 563d c379 013c e01c 943d
00000030: fb23 7c3d b406 05bc 7102 b73c 1735 14bd
00000040: 3719 95bc 3a4b 373c 5bf1 4c3b 3845 b03d
00000050: 9115 64bc 9397 c73c a116 2abd d01d bcbb
00000060: 4572 0e3c 5f85 c1bd d95a d63d 2630 f7bc
00000070: a582 163d 26bd 89bd 2833 863d 6c8d 9f3d
-0.024365356 0.042927794 0.011806478 -0.08088138 -0.04569071 0.028977266 -0.029040573 -0.041156862
0.01661524 0.052255075 0.007902565 0.0723207 0.06155775 -0.008119274 0.022340031 -0.036183443
-0.0182005 0.011187369 0.0031271789 0.086069524 -0.013921157 0.024364268 -0.041525487 -0.0057408586
0.008694236 -0.09449267 0.104665466 -0.030174326 0.036745686 -0.0672553 0.06552726 0.07790646

local_trans_pixel.layers.0.0.fn.fn.to_qkv.weight f4 [768, 32]
00000000: 40ed 3bbe a401 4abc 1783 dabd a949 053e
00000010: c89a a53d 92a8 c03d 0f32 013e acb3 7cbc
00000020: 01f1 46bc a8f5 223e 65fe f8bd 83d2 f13b
00000030: 5852 08bd 3e8f 74be f1d8 31be 4a0e abbd
00000040: e102 3cbd 75fd 9cbd 641b debd 6eb5 263d
00000050: b6b2 23be a078 2ebe 2fda 44bd 7ad6 b6bd
00000060: 3030 b63d e2c0 9abd fadb 353d 86cb 60be
00000070: b9a7 71bd af96 763d b0cf fa3d 7e3e 013e
00000080: 0abb 4ebe b8cd 213d 53e4 26be 57b9 033e
00000090: 84dc 01be e87e aabd 006c acbb 4e9b 83bd
000000a0: ad29 ddba 7e22 1abe 0cb2 0a3e 63d7 613e
000000b0: 4189 743e 329c 86bc 87fe 34be d5b9 a23d
000000c0: c0a2 333e 5167 b93e 9cfa 293d f805 163e
000000d0: dfa8 053e 7b5c 233e 7a82 c9bc f0c9 4ebd
000000e0: 78e4 f6bc 4f0c 3d3e 9203 a23d c4bf 49bd
000000f0: 0197 54be ca9b 14be 14b5 afbd cbef 30bd
00000100: 5d80 023e f437 69be 6099 1ebe b50d fbbd
00000110: 0783 323e 0599 54bd 7864 05be fd26 2a3e
00000120: 2209 f63b 9447 17be 3bde ff3d dc2b dc3c
00000130: c9d6 6ebe b4d0 993c e9b9 eebd 7ef0 883e
00000140: 2c79 4fbd 1921 083e 2594 353d 87d0 663d
00000150: 7248 cc3d d233 283c a89b bf3d 1c81 733e
00000160: 5b56 0d3e c94f d93d ad60 313d 50f0 a4bd
00000170: 1b57 10be 2ca0 933d 8ee9 463d a5a1 893d
00000180: 75da 0a3d f1cc bebc 38bf 08bd 453d 453d
00000190: 8775 26be ad77 383e 2b62 33bd 75ed 89bc
000001a0: be50 0dbd 1b23 d8bd e975 113e 1f91 babd
000001b0: a90e 403b 8cdc 6cbe 700b 0cbd d946 56bd
000001c0: becd 4f3d 03ef 1ebd 8957 5abd ec8a 9dbd
000001d0: 8da4 763e 2fe9 883d b6ae c5ba 919d a33a
000001e0: abd4 193e e5d0 1cbe 9d6b 6fbe a3fc 063e
000001f0: fa8e 9d3d 83fc bc3d 7572 d63d d39a 5abe
00000200: 8720 213e 2910 fabd a8c3 2e3e 3ccb dfbc
00000210: 2fef 473e 999e 18bd 3354 ce3d 4a5b 11be
00000220: 680c 303d 3ff6 dbbc 03d5 63bd f873 67be
00000230: d6ad 14be 9b13 aa3d 035d fdbb 475c 6c3e
00000240: 66b6 1c3e 6a50 e0bd a66d 1fbd 1cf2 a83d
00000250: 0cfe 36be 3c3f c63d 8516 48bc 3866 803d
00000260: 0235 4c3d 4b08 433e 20cf 833b c879 e5bd
00000270: b378 833d c1a1 d23d 58a3 09be 3033 e63d
00000280: 0472 303e ae55 4b3e f533 673e 47f4 7dbb
00000290: bae0 aabb b12c 573d b208 19bc e807 b7ba
000002a0: 0170 133b 7cab df3d a046 90bd 465c 0abd
000002b0: 5bc1 a63e 238e 12be ff3c 803d c21f 94bd
000002c0: 196a 553d 8377 923d e42d ee3d abc5 203d
000002d0: a63a 56bd c9da 203e 59f3 25bd ed32 5abd
000002e0: 15dd 5e3d 9621 3cbd 753c cbbc 7a37 14be
000002f0: 6557 1c3e 69be 82bd 656a 213e 3dbe d3bd
00000300: e328 07be 878b e83d 6f3e d73c 6132 8bbe
00000310: d8b5 f43d 456a fa3c e429 1b3e 2d06 0fbe
00000320: 4ab3 fa3d 8f47 fe3d f8c3 333c c371 babc
00000330: e3d0 c5bc c55a 8ebd ce58 ec3d 3553 273e
00000340: 2624 11be 8151 e23d 10a9 c0bc 6eb1 e5bd
00000350: b136 223c 4a4c 2a3e 5a29 8abd 8d90 77bd
00000360: 3fe5 503e 6468 83bd a48c 0cbe 3219 e7bd
00000370: 8d7b dabd e003 71be 3e43 0b3c 66a2 16be
00000380: 1333 0c3c 7b6b 05be 3bc8 153e 3f2b e73d
00000390: cd5c 2b3e 7bd4 1d3e 8c45 6fbd 686a 563d
000003a0: f21b 0c3e 9e00 11be 9e63 fdbd ea3f 5bbc
000003b0: ad11 b53b ec8d 71bc 0a06 443e 2b69 b83d
000003c0: cb47 77bd e93b 173d 97ce afbd 231b 013b
000003d0: ca54 3abe ced4 61bd 2949 8d3c 65ba 7b3e
000003e0: 98f4 a9bc fdc1 0f3d 13d6 3b3d 6ea6 f03d
000003f0: 49f0 3ebd 5931 bb3c ffee 353d 4bf8 68be
-0.18352222 -0.012329493 -0.10669535 0.1301638 0.08086163 0.09407152 0.12616752 -0.0154236965
-0.012142421 0.15914023 -0.12157897 0.0073798313 -0.033281654 -0.23882768 -0.17367913 -0.08352335
-0.045901183 -0.076655306 -0.10845068 0.04070037 -0.15986142 -0.17038202 -0.04805964 -0.08927627
0.0889591 -0.07556321 0.04439924 -0.21952638 -0.058997843 0.060202297 0.122466445 0.12621495
-0.20188537 0.03950283 -0.16298036 0.1286367 -0.12681776 -0.08324987 -0.005261898 -0.064261064
-0.0016873382 -0.1505222 0.13544482 0.2205482 0.23880483 -0.016431902 -0.1767522 0.07945601
0.17542553 0.36211637 0.041498765 0.14650714 0.130527 0.15953247 -0.024598349 -0.05048555
-0.03013824 0.18461727 0.07910837 -0.049255148 -0.20760728 -0.14512554 -0.0857946 -0.043197434
0.12744279 -0.2277525 -0.15488195 -0.12258474 0.17432795 -0.051903743 -0.13026607 0.16616435
0.007508413 -0.14773399 0.12493559 0.026876383 -0.23324122 0.018776275 -0.11656553 0.2674598
-0.050652668 0.13293876 0.044330735 0.05635121 0.09974755 0.010266261 0.09355861 0.2377972
0.13802473 0.10610921 0.043305088 -0.080536485 -0.14095728 0.07208285 0.04856258 0.067202844
0.033899743 -0.023291083 -0.033385485 0.048154134 -0.1625577 0.18014403 -0.043794792 -0.016836861
-0.03450083 -0.10553571 0.14205135 -0.09109711 0.0029305613 -0.23131007 -0.034190595 -0.05231366
0.05073332 -0.038802158 -0.053306136 -0.07692513 0.24086209 0.06685101 -0.0015081975 0.0012482872
0.15022533 -0.15314062 -0.23380895 0.13182311 0.07693286 0.0922785 0.1047105 -0.21348123
0.15735064 -0.122101136 0.17066824 -0.02731859 0.19524835 -0.037260626 0.100746535 -0.1419498
0.04298058 -0.026850818 -0.055623066 -0.22602832 -0.14519438 0.08304521 -0.007732035 0.23082076
0.15303954 -0.10952838 -0.03892293 0.08249304 -0.17870349 0.0968003 -0.0122124 0.06269497
0.04985524 0.19046132 0.004022494 -0.112048686 0.06419506 0.10284758 -0.13441217 0.11240232
0.17230994 0.19856903 0.22578414 -0.0038750337 -0.005214778 0.052532855 -0.009340452 -0.0013964148
0.002249718 0.1092138 -0.07044721 -0.033779405 0.32569394 -0.14312033 0.06261634 -0.0723262
0.052103136 0.07151701 0.11629847 0.03925101 -0.052302025 0.1570846 -0.040515278 -0.053271223
0.05441006 -0.045930468 -0.024809102 -0.14474288 0.15267713 -0.06383974 0.15763243 -0.103390194
-0.13199191 0.11354738 0.026274888 -0.27186874 0.119487464 0.030568251 0.15152699 -0.139672
0.12241228 0.124159925 0.010972016 -0.022759324 -0.024147457 -0.06950907 0.11540376 0.16340335
-0.14173946 0.11050702 -0.023518115 -0.11215483 0.009900735 0.16630664 -0.067461684 -0.06044059
0.2039995 -0.06416395 -0.13725525 -0.112841025 -0.10668097 -0.23536634 0.0084999185 -0.14710388
0.008557099 -0.13029282 0.14627163 0.112875454 0.1673462 0.15413086 -0.058415934 0.05234757
0.13682535 -0.14160392 -0.12372516 -0.0133819375 0.0055257888 -0.0147433095 0.19142929 0.09004434
-0.0603712 0.03692237 -0.08584326 0.0019700013 -0.18196407 -0.055134587 0.0172468 0.24582823
-0.020746514 0.03509711 0.045858454 0.11750494 -0.046615873 0.02285068 0.044417378 -0.22750966

local_trans_pixel.layers.0.0.fn.fn.to_out.0.weight f4 [32, 256]
00000000: 7107 f1bd 1b51 7a3d 2aa7 01bd e21d 0f3d
00000010: 7858 d53d e159 86bd a017 883d 12cc 6dbd
00000020: ea0b 83bc 5dc4 a6bd 0bbb 1bbd 0f9f 193d
00000030: 4392 23bd 44eb c0bc b27b 17bd 11af ea3c
00000040: cdd9 203b 776e 473d 0889 803d b0d5 92bd
00000050: 6e1a c1bd 29d0 833b 14a9 21bd 30f8 0d3e
00000060: 2d00 e4bc 29c8 72bd 6682 18bd 8f45 17bd
00000070: 156b 24bc b685 c1bb fb3b 11bd b0c3 56bd
00000080: 3b54 f1bd c1e5 713d 0faa 113b c89d 553d
00000090: 9fd3 06be 1970 3b3d 0c6c ca3d 6d2e 8d3d
000000a0: 04d7 a1bd d2d9 5f3d 93c2 0a3c dde2 a1bd
000000b0: 2c0f b43d df02 823d ec22 64bd 764d 013b
000000c0: 558a 173c e49d afbd 3495 7e3d da8c 1fbd
000000d0: 6c81 b33d 2bf3 213d e2d6 5c3d 5ae7 fe3c
000000e0: a39e 6abc 4765 bfbd 1f78 b03c e27f 9dbd
000000f0: ee8d 89b8 d6a9 27bd 6875 d93c 0fa9 433c
00000100: 24dd dabd 98f3 e03b 1f5f 9b3c 963a 153d
00000110: 7e05 aebb bcd9 3b3d 770f 1d3e 077b 7cbd
00000120: 1d40 11bd bd17 053e cc60 d0bd a75d cb3d
00000130: 6d69 f13c ec16 07bd 87d7 5fbc f7be 04bd
00000140: 2fed 4fbc 90ac 22be 600d 333c 7d82 663d
00000150: 7463 61bd 43d3 553d 597d c23c 6c8b 5a3d
00000160: cdae 8f3d 0492 ad3d f278 2d3d 5b11 1e3c
00000170: ea7d 7b3c f6f3 483d 7f69 4ebc ccf9 86bd
00000180: 29bd 9c3d 8128 a83d 01b7 023e 01e0 df3d
00000190: b4ee f23d 1c88 99bd 2b21 c2bc dd10 9ebb
000001a0: 994d bb3d ff5b 0a3e 96bd eabd 659c 513c
000001b0: 2abd 8fbd 1ea7 cbbd 6294 d73c 59ad a3bc
000001c0: 9134 d4bd 6073 77bc a1e6 65bc a3da efbc
000001d0: a503 1d3c 5957 343c 1970 80bd a307 123d
000001e0: e85d b03d 7032 22bd 19f0 cb3c 34ed 7f3c
000001f0: a3e8 8d3d 331b 4c3a 6b3a 9abb d452 a43d
00000200: 77ce 81bd e45e 983d b88b a93c 2331 9b3c
00000210: 948d 023e 16b3 973d 7a59 c7bd e802 4b3c
00000220: 43f7 10be a6d4 323d 54c6 f7bd e08f 263d
00000230: 66a1 7c3d 06fa c4bc 8e37 4c3d 7afb 1b3c
00000240: edd2 bf3d 2e30 ddbd b6f5 f43d c325 e0bb
00000250: b642 a43c 0a3e 343a 6d05 2b3d 022e 13be
00000260: ef35 bb3d 6390 0b3d 08a2 f23c 016c 373d
00000270: 0fce 07be 5e47 cbbd 9c2b 2abd ee0f bc3d
00000280: d295 98bd cbfd 213d 4a75 09bd 8144 8f3d
00000290: 3e78 38bd 3d8a a63d c959 6a3d 523c 8f3d
000002a0: 7873 b0bc 0379 06be ccdd 023e 2167 fabc
000002b0: 1ee5 9e3d f617 b9bc 6972 a9bd 96da fd3d
000002c0: 35b0 b9bd a874 b0bb 6359 a53d 85e9 1abc
000002d0: cb5b 58bd 3cd5 f23d 164c 5d3d da28 933d
000002e0: 7297 7ebd 2a41 babd 4225 36bd 81aa 6b3c
000002f0: e36d d53b df67 8a3d 4c2f 7bbd b02c 423c
00000300: 5026 693c 080d a9bd b3fb 743d 9d12 3e3d
00000310: 5035 a33c b707 3b3d df47 30bc 97c8 b23d
00000320: 4a27 37bd 2e65 8abd b707 00be 6a9a 05be
00000330: 69dd 063d c5f5 f73c f0e7 78bd a6da b23d
00000340: 8c72 e8bd 4d44 9b3d c75e 1e3d 0270 533d
00000350: 2222 f5bc cf5a c13d f5a9 cf3b 785e b13b
00000360: 2599 7cbd 2616 913c 9d11 04be ae29 8fbd
00000370: aba4 693d 709a 843d 9f91 b03d 43ba 3bbd
00000380: 15de 763d 2e0b 78bc 85ce 5d3d c5cb b83d
00000390: 01bc 773d d39e 2a3e fc87 22bc 9368 45bd
000003a0: 0c9f bebd 38c7 e9bc fdd9 ed3b 28af afbd
000003b0: 7169 94bc 2c59 91bd edd0 be3b c41a 883d
000003c0: cb2e 823d 9c37 bbbd 2e96 43bc 7584 10bd
000003d0: ecd7 01be c960 9abc 240b 893d 86af abbd
000003e0: 7f6e 073e 3ed1 89bd df15 703d 231c 60bc
000003f0: 2c53 01bd 11aa 5e3d 5e5d 1b3d 1d6d 8ebc
-0.117689975 0.061112504 -0.03165356 0.034940608 0.10417265 -0.06560112 0.06645131 -0.058055945
-0.015996892 -0.08142922 -0.038020175 0.037505206 -0.039934408 -0.023549683 -0.0369832 0.028647931
0.0024543882 0.04868933 0.06276137 -0.07169664 -0.09428869 0.0040226174 -0.039467886 0.13864207
-0.027832115 -0.05927292 -0.037233733 -0.03693157 -0.010035296 -0.005905832 -0.035457592 -0.052432716
-0.11783644 0.059057 0.0022226607 0.052152425 -0.13166665 0.0457612 0.098838896 0.06893621
-0.07902339 0.05465109 0.008469242 -0.07904599 0.08791956 0.06348204 -0.055697367 0.0019730008
0.0092492895 -0.08575037 0.06215401 -0.038952686 0.0876492 0.039538544 0.053915866 0.031116176
-0.0143200485 -0.09345489 0.021541653 -0.07690407 -6.5591055e-05 -0.040933453 0.026545241 0.011942162
-0.106867105 0.006864976 0.018966256 0.036432825 -0.0053107133 0.045861945 0.1533793 -0.061640766
-0.035461534 0.12997337 -0.101747125 0.09929972 0.029469216 -0.032980844 -0.013662226 -0.03240868
-0.012690826 -0.1588614 0.010928482 0.056276787 -0.055026487 0.052203428 0.023741411 0.05335562
0.070157625 0.08475116 0.04235167 0.009647693 0.0153498445 0.049060784 -0.012598394 -0.06590614
0.07653267 0.082108505 0.12765123 0.10931397 0.11861935 -0.07496664 -0.023697456 -0.0048237876
0.0914566 0.13511656 -0.11461942 0.012793635 -0.07018502 -0.099439844 0.026315872 -0.01998012
-0.10361589 -0.015103191 -0.014032037 -0.029279059 0.009583388 0.011007153 -0.06271381 0.035651814
0.08611661 -0.039598882 0.02489476 0.0156205185 0.069291376 0.00077860354 -0.004706671 0.08023611
-0.06338208 0.07439974 0.020696506 0.018944329 0.1274932 0.07407205 -0.09733863 0.01239083
-0.14156823 0.04365983 -0.12098375 0.040664554 0.06167736 -0.024045002 0.04985767 0.009520406
0.09366403 -0.10800205 0.11960928 -0.006840439 0.020051342 0.00068756996 0.04175322 -0.1437302
0.091411464 0.034073245 0.029618278 0.044780735 -0.13262199 -0.099257216 -0.041545495 0.09182726
-0.07450451 0.039548676 -0.03355912 0.06995488 -0.045036547 0.081318356 0.057214532 0.06993927
-0.021539435 -0.131321 0.12779921 -0.030566754 0.077585444 -0.022594433 -0.08273775 0.123952076
-0.09066812 -0.0053850003 0.0807369 -0.009455089 -0.052821916 0.118570775 0.05402764 0.07185526
-0.06215615 -0.0909446 -0.044469126 0.014383913 0.0065133437 0.06758093 -0.061324403 0.011851475
0.014230326 -0.08254439 0.05981035 0.04640447 0.019922882 0.045661654 -0.010759323 0.08729666
-0.044715203 -0.0675758 -0.12502943 -0.13047186 0.032925997 0.03026856 -0.060768068 0.0873311
-0.11349973 0.07581387 0.038664605 0.05162049 -0.029923502 0.094411485 0.006337399 0.005412873
-0.061669488 0.017710757 -0.12897344 -0.06990372 0.057041805 0.06474769 0.08621525 -0.04583193
0.060270388 -0.015139384 0.05415203 0.09023241 0.06048203 0.16662149 -0.0099201165 -0.048195433
-0.093076795 -0.028537378 0.0072586522 -0.0857833 -0.018116685 -0.07097086 0.0058232457 0.0664573
0.06356581 -0.09141466 -0.011937661 -0.03528257 -0.12680024 -0.018844979 0.06691578 -0.08383088
0.13225745 -0.06729363 0.058614608 -0.013678583 -0.03157346 0.054361407 0.03793084 -0.017386014

local_trans_pixel.layers.0.0.fn.fn.to_out.0.bias f4 [32]
00000000: c72c 1ebd f580 343d e2ef f4bc ce1f b3bc
00000010: 9c88 79bc 3819 c0ba 4b0b 9b3c 6578 63bd
00000020: ea3a 743b ce7d dabc 4808 a83c b8c2 4fbd
00000030: d056 f9bd 4664 bbba f847 d1bd 2fed 923c
00000040: e8e6 30bd 2749 d13c a726 24be 5c4d 71bd
00000050: f562 c1bc 50f2 153c f153 17bd 21f8 49bd
00000060: 6d56 ff3b 6d6c 6bbc 20aa 91bc 0e2b b63d
00000070: 19b2 963c e3a1 51bd 79c9 31bd 23c5 7fbd
-0.03861692 0.044068296 -0.029899541 -0.021865752 -0.015230324 -0.0014655953 0.018926283 -0.05553474
0.003726656 -0.026671316 0.020511761 -0.050722808 -0.12174761 -0.0014296852 -0.10218805 0.017935364
-0.04318896 0.025547577 -0.1603037 -0.058911666 -0.023606757 0.00915201 -0.036945287 -0.0493089
0.007792285 -0.014369112 -0.017781317 0.08894931 0.01839547 -0.051179778 -0.04340503 -0.062443864

local_trans_pixel.layers.0.1.fn.norm.weight f4 [32]
00000000: 9631 823f e33f 843f 2108 903f 959e 803f
00000010: 75e7 903f c114 803f c77e 8c3f 25de 823f
00000020: 3b80 833f cb1a 813f b8a8 843f 6a17 873f
00000030: 1291 833f 0f9a 943f 4d98 7c3f 6d05 903f
00000040: e518 8d3f ad8e 833f 7bcb 783f f318 8a3f
00000050: 20f5 823f e4e9 8b3f 0456 813f d21e 863f
00000060: 3089 8a3f 8249 853f e27a 873f e5df 883f
00000070: e168 8e3f 1545 8a3f 3b64 8b3f fedf 8b3f
1.0171382 1.0331997 1.1252481 1.0048395 1.1320635 1.0006334 1.0976189 1.0224043
1.0273508 1.0086302 1.0363989 1.055402 1.0278647 1.1609515 0.9866989 1.1251656
1.1023222 1.0277916 0.97185487 1.0788864 1.0231056 1.0930753 1.0104375 1.0478156
1.0823116 1.0413058 1.0584376 1.0693327 1.1125757 1.0802332 1.0889963 1.0927732

local_trans_pixel.layers.0.1.fn.norm.bias f4 [32]
00000000: 83a6 1ebc c50d bcbd a75d 92bc ea47 1a3d
00000010: 70af 15bd 2e3e 9e3a 4b86 c43b d3e4 023d
00000020: cc20 fd3b 3426 b739 28bd c5bd 5f76 94bc
00000030: 4b3f 8dbc aa60 bd3c ff57 b23d aa7f c53c
00000040: 9af3 1f3d 126b 3cbb 1bd5 2fbd e52e ce3c
00000050: 1981 4d3c b0c0 d7bd ff0f 58bd 7ff9 23bd
00000060: 759a a5bd 9f50 06bc 7bcd b13c 76a9 823d
00000070: d572 b9ba 37a0 23bd 6d51 7e3d 19cb f0bc
-0.009683254 -0.09182314 -0.017866923 0.03766624 -0.036544263 0.0012072974 0.0059974543 0.031956505
0.007724857 0.00034932944 -0.09655219 -0.01812285 -0.017242095 0.023117382 0.0870819 0.024108727
0.039050676 -0.0028750342 -0.042927843 0.025168845 0.012542986 -0.10534799 -0.05274963 -0.04003286
-0.08086101 -0.0081979325 0.021704426 0.06379978 -0.0014148602 -0.039947715 0.062089372 -0.02939372

local_trans_pixel.layers.0.1.fn.fn.net.0.weight f4 [8, 32]
00000000: 4179 41be 51b2 3abe 8b83 4abe f78a 2a3d
00000010: 894b 2fbe b1e5 d3bd c5fc 303e 2620 2d3e
00000020: c26d 30bd 28fc f13b 7d3e 09be bb4d 5c3c
00000030: fe29 a53d e244 7f3e f8bc 293e e716 07be
00000040: 30fc a7bd 5359 85bd 786e 62bd 52e5 0b3e
00000050: 57bd d13c b962 22be 8620 1dbe 4cea f53d
00000060: f066 2bbe 73fb f1bc c994 b83c 421e 6e3e
00000070: 2ebb ce3d b756 e4bd 796d 4b3e d59c 053d
00000080: 8551 adbd 63f1 ff3d 33e7 1bbe f9df 29bd
00000090: ff41 c93d 7dd0 05be edfd 02be 981e 483e
000000a0: 9aa0 ad3d a168 26bb ef8f 1f3e a9e7 a2bd
000000b0: cae7 16be 5489 1e3e a1d0 193e acad e53c
000000c0: 1ac9 8dbd 6f5f 5c3b e385 3e3d 9e4b 07be
000000d0: f67b b73c 6bab b53d 46b8 db3d 75b7 6f3e
000000e0: b9dd 77bc a85f e5bd 1183 10bd fe59 4bbe
000000f0: 90e6 59bd 5257 68bd 31ca 113d 9a50 24be
00000100: 9138 a4bd 7d9b bfbc 60d9 48be 1d1e dfbd
00000110: ec43 f6bd 4a47 a1bd 60d9 823c 2c11 183d
00000120: 6e8f ab3d 6a2f 413d afc0 ec3d f7b5 39be
00000130: 0f45 bf3d c275 533e 4c4a 33bd 4eb8 e6bd
00000140: 4fd5 ef3d b189 bb3c 6a3a 1fbe bfd7 db3d
00000150: 573a e73c f24a 613c 709c 4fbd 83e0 f43d
00000160: 1217 cfbd c308 193e f44d f73d a233 3f3e
00000170: 7ebf 433e 5d0f b53d 7a26 ef3b 90cf cb3d
00000180: a4db eebd 84f4 893c bdd0 053e e1d5 e3bd
00000190: a40c 033e c03f 193d 4611 f4bd f978 1d3e
000001a0: 8bad 2d3e df6d b1bd 4614 873d 0084 81bd
000001b0: e90e 09be b63c 543d 4f1b d4bc da88 7d3e
000001c0: a8de 8d3d 13c7 04be 62a3 123d 7cfb 303e
000001d0: 8127 293e cf64 ca3d d056 cebd 2485 0dbd
000001e0: 1dfc 393e 8954 48be b2b2 9e3d 620c bfbd
000001f0: c7e4 6e3d 9824 533c a2e3 253d 4778 a1bd
00000200: af6f 103d fe32 4ebe 2f3b 91be bacf 2b3e
00000210: 7413 3e3e c277 973d 0de4 46bc 63e9 8f3d
00000220: ce5b 8cbd 7e44 12be 3dc3 5abd 708f 33be
00000230: b797 ba3c 296a 223e 0579 523d 68a0 943d
00000240: c0b0 abbd c849 ae3e a855 c9bd aa77 a9be
00000250: 6243 723e c501 44be 9dba a9bd e5ab 04bd
00000260: eaff 3cbe c38d acbd da57 aabb 1626 b63d
00000270: e376 71be 6f04 b93d 4c5d 34be af50 bdbe
00000280: cf4c 713d 8b87 05be dd4a 3a3e c2f3 fcbd
00000290: d0a8 1ebe 35fd d9bd 7f8d 18be d45c 313d
000002a0: 7891 413e 2c1d 4b3e 0fd0 29be 9076 e13d
000002b0: 0c5a 02be 7470 b9be d38a a03d 999e 473e
000002c0: e2c4 613e dd92 b8bc f836 b13c 101b b33d
000002d0: e7ca 87bd 25f3 ed3c 97fc 7cbd 8457 9bbd
000002e0: 8108 17be 9fd8 733d 0f9b e23d e359 a2bd
000002f0: c05b 43be 9b35 acbd 806a e63d a194 87bc
00000300: 1f6e e9bd 3963 ec3d be37 9dbb a5c4 933d
00000310: 7edc 14bd cbde f93c 2b55 ddbd 35b8 273d
00000320: e11e 2e3d 3263 bfbd 2cae 4ebe 988e 5fbe
00000330: fa7e ffbd e066 953d 0911 6f3d 55fc e73c
00000340: a1dc 52bc 9809 34bd 0312 b83d c745 97bd
00000350: b35a 5f3d 2e35 5fbd cb4c babd 5735 46be
00000360: 948d babd 56e3 03be 4237 8b3d 81b3 ed3d
00000370: 4998 3d3e 15ae a3bb 0ae0 ae3d 16c6 a73d
00000380: 0ea4 dc3d c5b2 13be 6d8a ebbb b476 54be
00000390: 5917 813e b1ab 8d3a 2e93 18be 8057 e73d
000003a0: dfbc 24be b9f6 033d 1eed eabd 27bb c1bd
000003b0: d20f 143e 729e 623e a26e 73bc 1af7 223d
000003c0: 0f56 c7bd 86d0 1c3d 40bb fa3d e6e1 10bd
000003d0: a9c2 fdbc 9f12 953c b3f0 b63c 3ead 0fbe
000003e0: 4c3c 1e3c 91c7 20be c91c e8bc 1c9f e13b
000003f0: eb79 273e e1e4 193e bebc 133e 7ae1 97bd
-0.18893911 -0.18232085 -0.19776742 0.041636433 -0.17118658 -0.103465445 0.17283924 0.16906795
-0.043073423 0.0073847957 -0.13402744 0.013446267 0.0806465 0.2492862 0.16575992 -0.1319233
-0.08202398 -0.06511178 -0.055281132 0.13661698 0.02560298 -0.15857972 -0.15344438 0.12007579
-0.16738486 -0.029538846 0.022531884 0.2325373 0.100942954 -0.11149352 0.19865979 0.03262027
-0.08462814 0.12497213 -0.15224914 -0.041473363 0.09827041 -0.13067813 -0.12792177 0.1954292
0.08477898 -0.0025391954 0.1558225 -0.07954342 -0.14736858 0.15482074 0.15020992 0.028036915
-0.06923123 0.0033626219 0.046514403 -0.1321244 0.022397976 0.08870586 0.10728507 0.23409827
-0.015128546 -0.111998856 -0.035281245 -0.19858548 -0.053198397 -0.0567239 0.035593215 -0.16046372
-0.08018602 -0.023389572 -0.19614172 -0.108944155 -0.12024674 -0.078749254 0.015972793 0.03712575
0.083769664 0.04716436 0.11560189 -0.1813582 0.09339344 0.2065039 -0.043772027 -0.11265622
0.11710607 0.022892805 -0.15549627 0.1073451 0.02822606 0.0137507785 -0.0506863 0.11956885
-0.10111822 0.14944749 0.12075415 0.1867204 0.19116017 0.08840821 0.007298288 0.09951699
-0.11662987 0.016840227 0.13067909 -0.111247785 0.12797791 0.037414312 -0.11917357 0.15378179
0.16960733 -0.086635344 0.06595664 -0.06324005 -0.13384594 0.05181571 -0.025891928 0.24759236
0.06927234 -0.12966566 0.035800345 0.17283434 0.16518976 0.09882509 -0.10075152 -0.0345508
0.1816258 -0.19563498 0.07748927 -0.09328534 0.058323648 0.012887143 0.04050029 -0.07884269
0.03526276 -0.2013664 -0.28365466 0.1677846 0.18562108 0.07395889 -0.0121393325 0.07026937
-0.06853448 -0.1428394 -0.05340885 -0.17535186 0.022777421 0.1586081 0.051384944 0.072571576
-0.08383322 0.34040666 -0.09830791 -0.3309911 0.23658517 -0.191413 -0.08287547 -0.032390494
-0.18456998 -0.084254764 -0.005198461 0.08893983 -0.23580508 0.09034049 -0.17613715 -0.3697562
0.05891114 -0.13039987 0.1819262 -0.123511806 -0.15494084 -0.106439985 -0.14897726 0.04330142
0.18903148 0.19835347 -0.16583274 0.11008942 -0.12729663 -0.36218607 0.078389786 0.19494094
0.22047761 -0.022530967 0.021632656 0.08745396 -0.066304974 0.029046604 -0.061764326 -0.07585052
-0.14749338 0.059532758 0.11064731 -0.07927301 -0.19077969 -0.08408662 0.11250782 -0.016550364
-0.11397957 0.11542363 -0.0047979048 0.07215241 -0.03634309 0.030501744 -0.1080726 0.040947158
0.042509917 -0.09345092 -0.20183629 -0.21831739 -0.12475391 0.072950125 0.058365855 0.028318563
-0.012869985 -0.04395446 0.089878105 -0.07386356 0.054529857 -0.054494075 -0.09096678 -0.19356285
-0.09109035 -0.1287969 0.06797649 0.11606503 0.18515123 -0.0049951174 0.08538826 0.08192079
0.107734784 -0.14423664 -0.0071881325 -0.20748407 0.25213125 0.0010808614 -0.14899895 0.11295986
-0.16087674 0.032217715 -0.11471008 -0.094595246 0.1445916 0.22130755 -0.01485792 0.039786436
-0.09733211 0.0382848 0.12242746 -0.035371684 -0.03097661 0.018197356 0.022331571 -0.1403093
0.009657931 -0.15701129 -0.028334038 0.0068854224 0.16355102 0.15028717 0.14427468 -0.07416053

local_trans_pixel.layers.0.1.fn.fn.net.0.bias f4 [8]
00000000: 8bfb 643e 153a 24bc e6ab 053e b664 bc3d
00000010: 040d a23d 8a4b f03d fc27 a6bd 27ea 1c3e
0.22361581 -0.010023613 0.13053855 0.091988966 0.07912639 0.11733158 -0.08113095 0.15323697

local_trans_pixel.layers.0.1.fn.fn.net.3.weight f4 [32, 8]
00000000: 4254 9ebe 4a0d ae3e 8f4c 97bd 5f1b a63e
00000010: fb82 0cbe eb06 943c aa27 92be 800c 77bd
00000020: 2007 e43e e905 ac3e 1ae6 e03e c3dc 32be
00000030: 3e61 b5bc e10f dcbd 0b85 97bd b79e a33e
00000040: 8792 39be d80f 953d 55fc edba c4d1 aa3e
00000050: 4a95 4d3e ce98 b9be 0c57 8f3e 5a94 b3be
00000060: 312e 213c 5767 d536 efc1 b53e cddd 64bc
00000070: aefd 9abe e7ce 7c3e 592b 05be 38b6 133e
00000080: fe46 873e 7de6 df3d 7a2d a33e cd52 333e
00000090: 811e ee3e 6bb5 34be 875d be3e e66a c63d
000000a0: 9342 a13e 13ec 323e 63a4 a93e f376 69be
000000b0: 413e 023e fa16 b1be d053 dabd c0a2 d0be
000000c0: 87a5 203d 0987 643e 9a32 093e d6c5 563e
000000d0: e67a 75be f8f5 913e 6f7f 813d 25e5 cc3d
000000e0: 968e 4abe e6a6 443d 2460 68be ec45 533e
000000f0: d801 0a3e e625 65bd e4da 89be 08d6 3bbe
00000100: 8902 9cbe 2768 92bd fdd3 43bd 803d 333e
00000110: f0b4 683d c21c 0bbe 263d 3c3e d3f9 40be
00000120: abdd d1bb 20cf 7bbe 7884 c13e 0578 47be
00000130: b40c b2be 8d00 373d 0c4b 0b3e 01d7 163d
00000140: 327c 9bbe 3419 78bd ac8f 7cbe cc9e 82be
00000150: 5828 47be 29bf 4c3e 69a3 193d 2cf4 4abe
00000160: 5945 02bd 54cc a33e f68b 8dbe 6731 2d3e
00000170: 596e 033e 3149 70be 40ed 8cbe 357d 133d
00000180: a62b 74be b4b3 a9be 65b4 323e d441 43be
00000190: fbce f3be f8d5 88be 3290 ad3e 63ab fbbd
000001a0: 22b2 353e 28f3 883e 7394 68be acd0 86be
000001b0: 63aa 003f 293a adbe 7d23 093d 660b b23d
000001c0: b61d 7abe d185 8bbe 7a30 313d adc4 0abe
000001d0: 7c99 373d abc4 003e 9003 973c 2a82 eabd
000001e0: c16c 2cbc 96df 653e 870d 25bd 2395 a93e
000001f0: a77c 0cbf 1ee4 393e 2433 a23e 9a05 2cbe
00000200: 2166 56bc 6b74 80be 849e 72be 344c 6abd
00000210: 1bab 81be 5ce4 8b3e 2289 37be 8f6d d7be
00000220: 9c56 943d 6f25 fa3d 0660 17bd 42b4 37be
00000230: e5b9 84be c96e 0bbe 2caf 18be 5e09 0c3e
00000240: c6a2 48bd bd84 6cbe fffa c03b 50a3 643e
00000250: d9b5 07bf 8049 8cbe 87a1 9a3d 2418 dbbe
00000260: 363b a93d ba5a febd c0dd 5a3e 82f9 77be
00000270: ea3b 2f3d c277 63be 560a a13c e96e 2abe
00000280: c96f 443e 72ac 373e 2712 773e d37d 9dbe
00000290: 67a5 a3be 7b49 513d 20bc 9a3e 32e6 5f3b
000002a0: 3cd4 8a3e 0fd9 ad3d 5722 e73c a07b 91be
000002b0: 6b7e fbbe ce1d 2b3e ccaa 96be a1f9 383e
000002c0: f990 b33e 2de7 7fbe 27d7 eb3c 1b85 b7be
000002d0: baf4 fe3d dd49 70be a30c 3a3d 8bea 8c3e
000002e0: 72df 9fbd 0e3b a73d a683 6bbe dc24 a63e
000002f0: 2556 c73e 8343 8cbe a312 6c3e 7a90 903e
00000300: 382e debe 0a27 91be 189e b0be 7e88 7a3e
00000310: 3dad 0a3d 117c 8b3e fa62 88be b64e 1dbe
00000320: 039b bdbe 4894 6c3e f4e1 29bd a682 953e
00000330: fe9f 873d 7ca4 c73d 51fe 7a3e 70ba 493e
00000340: 7f00 bd3d c9d5 8bbe 211f 8f3e b35c d5bd
00000350: 3b57 503d 3750 d53c 83fa acbe fb76 17be
00000360: 28f9 2fbe ff78 3ebe 959b 663b 73e1 4b3e
00000370: 95be 67be cb83 163c 40d0 c23b abd9 b0be
00000380: 6a56 98bd ba4e a53e 18b6 663e b72a 973d
00000390: 8567 943d 22d6 adbd 53aa ccbd 78ff 0b3e
000003a0: 7fd5 89bd e579 d23d 68c6 da3d f7be 08be
000003b0: d81d 903e a234 d43e 0ccb 3fbe 6f13 8c3d
000003c0: 5295 47be 3806 483e 1d22 0e3e e7c5 933e
000003d0: 3d4f 6cbe e412 acbe 99d0 aebe b43e 933d
000003e0: ad18 ed3d 8637 263d fc94 6dbe 8e19 e8bc
000003f0: 6f62 013f 85c5 0fbe 8452 3ebe 6a85 99be
-0.3092366 0.33994514 -0.07387649 0.32442757 -0.1372184 0.018069705 -0.28545886 -0.060314655
0.44536686 0.3359826 0.43925554 -0.17467026 -0.022141095 -0.10745216 -0.07398423 0.31957027
-0.18122302 0.072784126 -0.0018156866 0.33363163 0.2007648 -0.36249393 0.279961 -0.3507412
0.009837673 6.359925e-06 0.35499522 -0.013968897 -0.30271667 0.24688302 -0.13004817 0.1442498
0.2642135 0.10932634 0.31870633 0.17512055 0.46507648 -0.1764733 0.3718073 0.09688358
0.31496105 0.17472868 0.3313323 -0.22799282 0.1271906 -0.34587842 -0.10660517 -0.40749168
0.03922036 0.22317137 0.13398209 0.20973906 -0.23972663 0.28507972 0.06323134 0.10004643
-0.19780955 0.04801073 -0.22692925 0.20632142 0.13477266 -0.055944346 -0.26924813 -0.18343365
-0.30470684 -0.07148772 -0.04780959 0.17503929 0.05681318 -0.13585189 0.18382701 -0.188453
-0.0064045987 -0.2459073 0.37796378 -0.19479378 -0.34775317 0.04467826 0.13602847 0.036826137
-0.3036819 -0.06057091 -0.24664181 -0.25511777 -0.19448984 0.19994797 0.037509356 -0.19819707
-0.031804416 0.31991827 -0.27645844 0.16913377 0.12835063 -0.2346542 -0.27524757 0.03600808
-0.23844776 -0.33144915 0.17451628 -0.1906808 -0.4761885 -0.26725745 0.33899075 -0.12288549
0.17743734 0.26748013 -0.22712879 -0.2633108 0.5025999 -0.33833435 0.03348111 0.0869358
-0.24425396 -0.2725053 0.04325912 -0.13551588 0.04482411 0.12575023 0.018434316 -0.11450608
-0.010523976 0.22448573 -0.040296104 0.33121595 -0.54877704 0.18153426 0.31679642 -0.16799012
-0.013085873 -0.2508882 -0.23693281 -0.05720158 -0.25325856 0.27322662 -0.17923406 -0.42075774
0.07243082 0.12214171 -0.03695681 -0.17939857 -0.25923076 -0.1361648 -0.14910573 0.13675448
-0.048983358 -0.2309751 0.005889296 0.22327924 -0.5301185 -0.27399826 0.0755034 -0.42791855
0.08263247 -0.124196485 0.21373653 -0.24216273 0.042781748 -0.22213653 0.019658249 -0.16643871
0.19183268 0.17936876 0.24128018 -0.3076006 -0.3196213 0.051095467 0.30221653 0.0034164307
0.27115047 0.08488666 0.028214617 -0.2841463 -0.49119887 0.16710588 -0.29427183 0.18063976
0.35071543 -0.2499053 0.028789116 -0.3584374 0.12449022 -0.23465677 0.045422208 0.27522692
-0.07806291 0.08165561 -0.22999439 0.32449996 0.3893291 -0.27395257 0.23053984 0.28235227
-0.43394637 -0.28350097 -0.34495616 0.2446613 0.03385662 0.27243093 -0.26638013 -0.15362057
-0.37032327 0.2310344 -0.04147525 0.2920124 0.06622313 0.0974817 0.24511077 0.19700027
0.0922861 -0.27311543 0.27953437 -0.104180716 0.05086444 0.026039226 -0.33784875 -0.14791481
-0.1718489 -0.18600844 0.003518795 0.19910221 -0.22631295 0.009186695 0.0059452355 -0.34541067
-0.07438357 0.32286626 0.22530401 0.07381194 0.07246307 -0.08488108 -0.09993424 0.13671672
-0.06730174 0.10277156 0.10682374 -0.13354097 0.2814777 0.41446406 -0.187298 0.06839644
-0.19490555 0.19533622 0.138802 0.28861925 -0.23077102 -0.33608162 -0.34143522 0.07189694
0.11576972 0.040580295 -0.23201364 -0.028332498 0.5054082 -0.14040191 -0.18586165 -0.299846

local_trans_pixel.layers.0.1.fn.fn.net.3.bias f4 [32]
00000000: 9571 04bd a3f7 81be 1627 57be 5080 b1be
00000010: fbdb 38bd e215 96be 17f7 9f3e 202a 30be
00000020: c924 79be b598 4a3e eeeb 42be ad2b 313e
00000030: 7bc4 4bbc 0a41 8c3e 8721 03bd 1ad1 e7bb
00000040: b68b 34be c889 18be 7675 bf3d 44ae 833e
00000050: eb1c 97be 2ec1 8dbe 8ac5 e6bd d9a0 ae3e
00000060: 60df 97bd 0010 b1be 4f3b 8a3e c340 e93d
00000070: cfa2 8fbe 48e4 afbe 33f7 3abd fe24 24be
-0.032334883 -0.25384244 -0.21011004 -0.34668207 -0.045131665 -0.2931357 0.31243202 -0.1720357
-0.24330439 0.19784816 -0.19035313 0.17301817 -0.012436981 0.2739337 -0.032014396 -0.0070744874
-0.1763142 -0.1489631 0.09348576 0.25718892 -0.2951425 -0.27686447 -0.11268146 0.34107092
-0.07415652 -0.3458252 0.26998374 0.113893054 -0.280539 -0.34353852 -0.045645904 -0.16029736

conv2d_features.0.weight f4 [64, 30, 3, 3]
00000000: 6e4f 393d 0e3b 1e3d 7377 5a3d c628 bb3d
00000010: b7a9 af3d 4da7 dd3d 12f0 053e 5a94 ac3d
00000020: 22eb 093e b8cb 4dbd d281 1f3d b4de 853d
00000030: 78bb d83b 1e99 243d 3481 20bc e05d a03d
00000040: a1ce 273d 1942 9c3d cec1 523d 2062 b73c
00000050: 7c80 81bc 6c0f a2bc fe60 b53c e9f4 df3c
00000060: eb11 a03c c79b babc ad09 5d3d aca8 02bd
00000070: 4177 1cbd 0fe5 1fbc 1706 b0b9 e1b7 b7bd
00000080: fb19 ec3b 4784 78bd 3c55 a9bd 8d35 84bd
00000090: ce56 16bc 493c 65bd 2911 a3bd f326 8fbc
000000a0: e1ee 4cbc 92f5 8cbd a686 e43c e55f b8bc
000000b0: b57d 2fbd 56a3 6abd 9525 c83a 4e7f 75bd
000000c0: 644c 583c e2d3 83bd 6979 d73a 8318 70bd
000000d0: 7a49 a1bd 64e5 2fbd cb14 33bd 8419 49bd
000000e0: 28cf 0f3d b863 64bd af33 8bbd d2c9 50bd
000000f0: fae7 2bbd 11f8 00bd 6f26 76b9 01ad acbc
00000100: d5bb d0bc a12b 05bd 4565 8cbb fa9a c5bc
00000110: d3ad 1dbc 61a2 bcbd ac50 d6bc 3f20 5bbd
00000120: 11a9 cfbc dc42 13bd 54dd a13c 4ae3 38bc
00000130: 10f4 d83c cb51 1f3d b4d2 85bb 568d 09bd
00000140: e5af e4bc 48f9 77bc 34b9 42bd 4be0 84bd
00000150: b04b 4dbd 9b4f 8d3c ce51 08bd dc8a 65bb
00000160: 48d5 a7bc 30b2 d43c e8d2 ab3b 502f 36bd
00000170: 4b7f 96bc 47d4 b1bc 4fe3 8d3c 069b 54bc
00000180: 12ed c93c 71d8 54bd b39f 223c 3101 50bd
00000190: 5ead 9abd e2e7 87bc 8e2a 07bb dec6 babc
000001a0: 6b89 84bd fafb 383c d738 e13c 2578 843c
000001b0: c523 23bd 2647 5a3d 09ae 713d 8f8c 2a3d
000001c0: 36fe 693c daaa b83c fe31 e6bc 1f15 0cbc
000001d0: 9211 a53c 56de 983c 34bf 59bd 3d5a d3bc
000001e0: 320e 1abd 8e02 77bd 550e 4cbc 0208 843c
000001f0: 9680 60bb f5a7 adbd 2b29 f9bc 8801 24bd
00000200: 4563 8fbd 55b8 023d 6d03 cfbb 6ed0 3fbd
00000210: 6489 22bd 516d 0dbb a34b fcbc df95 7dbc
00000220: 858c 3b3d 59cc 3d3d aa78 c7bb b274 04ba
00000230: ac55 1cbc 91c0 5e3c 80f7 0abd 68a1 e93b
00000240: fe6d 1bbb 05f2 a23b bb72 df3c e7d7 45bc
00000250: cb50 803b a329 61bc c007 1cbc a105 06bc
00000260: d0bb 923c b5e1 53bd d9ec cc3c 4174 82bc
00000270: 584c 183c d98a 743d 6a13 683c 491d 41bd
00000280: 5f38 8dbc c14c df3c f484 bdbb fbb7 2cbd
00000290: efae 703d 4640 5c3d 032b 763d 135c 513d
000002a0: 40cd c23b 2d95 963d 2b56 5cbb 9ca3 d83b
000002b0: 34f2 dd3b 0658 273c 134c 3dbd b3ab 43bd
000002c0: e92d b0bc bcf4 07bc f346 0d3c ffdf cfbc
000002d0: 12b7 17bd ab7a 61bc 6b12 39bc b2e5 60bc
000002e0: 2ec3 163c 0cf2 5b3d 2b93 5c3c 3ee6 afba
000002f0: 0911 863d bc0d 453c ee26 11bd ca51 bbbb
00000300: 38ce 97bd c519 18bd db4c 5e3c ccd6 7d3c
00000310: eeca 223c 7813 ca3c d658 3c3d d9cb 2e3c
00000320: 39ad f2bc bfbe b83c f217 693c f44e c23c
00000330: eabd de3c 3347 d3bc 70ca 4f3d ea43 d03c
00000340: 5e27 d13c cefa 1bbc e323 0d3d 59a5 acbc
00000350: 36ba 06bd a541 ed3c b713 043c 092e 97bb
00000360: 4bac f6bc 9d54 82bd d25b 17bd ae37 5e3c
00000370: 37d8 18bc 819b 24bd a77f 823c 604e 6fbd
00000380: ce61 edbc 37b1 7dbd 487a da3c 2763 49bd
00000390: b201 ef3c a50e 5fbc 2246 ed3c a3fb 13bd
000003a0: 4d18 813a 9465 14bd 14e5 7f3c 6d56 c6bc
000003b0: 380a 31bb b4fb a73c 805d 3b3d de64 5d3c
000003c0: 9d07 16bb ce4a e73c 355b d23c bbed 8a3c
000003d0: d841 bcbb a514 8e3c 979a 11bc ac17 533d
000003e0: 244f 24bd 0207 8d3d 0b30 6fbd f893 783d
000003f0: 331a aa3d 9f0a 853d e1a9 ebbc 57bf 283d
0.045241766 0.038630538 0.053336572 0.09138636 0.085772924 0.10822926 0.13079861 0.08426733
0.13468602 -0.05024311 0.038942166 0.06536618 0.006614145 0.040185086 -0.009796429 0.07830405
0.04096854 0.076297946 0.051454358 0.022385657 -0.015808336 -0.019782744 0.022140976 0.027338462
0.019539794 -0.022779359 0.053964306 -0.03189914 -0.038199667 -0.009759202 -0.00033573873 -0.08970619
0.0072052456 -0.060673025 -0.0826821 -0.064555265 -0.009175969 -0.055965696 -0.079622574 -0.017474627
-0.012508125 -0.06882776 0.027896237 -0.022506664 -0.042844493 -0.057284676 0.0015269989 -0.05993586
0.013201807 -0.06436898 0.0016439381 -0.058617126 -0.07875343 -0.042943373 -0.043721 -0.0490966
0.03510967 -0.05575916 -0.06796967 -0.05097372 -0.041969277 -0.031486575 -0.00023474706 -0.021078588
-0.02548019 -0.03251231 -0.004284533 -0.02412175 -0.009623962 -0.09210659 -0.026161514 -0.05349755
-0.025349172 -0.035952434 0.019758858 -0.011284659 0.026483566 0.038896363 -0.0040839557 -0.033582054
-0.027915904 -0.015135117 -0.047539905 -0.06488093 -0.05012101 0.017249873 -0.03328114 -0.0035025394
-0.020487443 0.025963873 0.005243648 -0.044478714 -0.018371245 -0.021707667 0.017320303 -0.012976414
0.024649177 -0.051964227 0.009925771 -0.050782386 -0.075525984 -0.016590063 -0.002062473 -0.022799905
-0.06471523 0.011290545 0.027492924 0.01617057 -0.039829034 0.05329051 0.059003863 0.041637953
0.0142818 0.022542406 -0.02810001 -0.008549958 0.02014998 0.018660706 -0.05316086 -0.025799865
-0.037611194 -0.06030517 -0.012454589 0.0161171 -0.003425633 -0.08479301 -0.030415138 -0.040040523
-0.07001356 0.031914074 -0.006317547 -0.046829633 -0.039681807 -0.002158005 -0.030797785 -0.015477627
0.045788307 0.04633746 -0.0060873823 -0.00050527893 -0.00954191 0.013595716 -0.03392744 0.007129837
-0.0023716683 0.0049726986 0.027276387 -0.012075401 0.0039158813 -0.013742837 -0.009523332 -0.008180053
0.017911822 -0.051728923 0.025015282 -0.015924575 0.0092955455 0.059702728 0.014164785 -0.04714707
-0.017238794 0.027258279 -0.0057836715 -0.042167645 0.05876058 0.053772233 0.060099613 0.0511132
0.005944878 0.07352672 -0.0033620696 0.0066113006 0.0067732576 0.0102138575 -0.04621513 -0.047771167
-0.021506267 -0.008298095 0.008622873 -0.025375364 -0.037039824 -0.0137621565 -0.011295895 -0.013726639
0.009201808 0.05369763 0.013462822 -0.0013420058 0.06546218 0.0120272 -0.035437517 -0.005716537
-0.0741238 -0.03713395 0.013568128 0.015493106 0.0099360775 0.024667487 0.045983158 0.010668718
-0.029623615 0.022551892 0.0142269 0.023719288 0.027190167 -0.025790786 0.05073017 0.025423009
0.025531467 -0.009520246 0.034458052 -0.021074938 -0.03289243 0.028961966 0.008061341 -0.004613642
-0.030111453 -0.06363795 -0.0369528 0.01356308 -0.009328893 -0.040187363 0.01593001 -0.058424354
-0.028977301 -0.061936583 0.026669636 -0.049166825 0.029175613 -0.013614331 0.028964106 -0.03612865
0.0009849161 -0.036229685 0.015618581 -0.024211133 -0.0027014147 0.020505764 0.045743465 0.013512818
-0.0022892721 0.028233912 0.025678257 0.016959062 -0.005745154 0.017343828 -0.008886955 0.051536247
-0.040114537 0.06886102 -0.058395427 0.06068799 0.08305778 0.064961664 -0.028767528 0.0411981
