src/res/GGCL/guided_contra_cross_transformer/Pavia/10/True/true ss 0/_1711858889.pth (torch, 266710 bytes, 37 tensors)

pixel_pos_embedding f4 [1, 170, 32]
00000000: 301c 47bf 9dbe 673f 3e7c 8d3f 8a95 3ebe
00000010: 59d4 e83e 1992 0bc0 15ad 5fbd 886b 8c3f
00000020: 1483 94bf 17e8 ad3e 6772 903d e304 a03c
00000030: 5836 72bf a8b7 07bf 9bda db3f cd12 9c3f
00000040: 863e d63d c485 2240 0431 363f 93ee 86bf
00000050: 56ca 6ebf 5f8b bd3e f807 573f e2b9 a83f
00000060: d720 7fbf e2ba 5e3f 882b 2cbf 5d8b 93bf
00000070: 29c0 973f 6040 e03d c9e5 27bd 093f e8bf
00000080: c248 44bf f8d4 753f b86a 44bf c8b0 86bf
00000090: 2b4c 5d3f 6ac5 ce3b e1c2 7e3e 0aba bd3e
000000a0: ffb7 9cbf 08cb 67bf 24cc 1abf 90ee 833e
000000b0: 4d52 febe a0ee 6e3f d1e6 843f cc35 83be
000000c0: 251b 783e a308 71bf 4ab7 a8bd 0797 aebf
000000d0: 972e 913f 63ed 443f cfaf 40bf 4074 bcbf
000000e0: 3ee3 abbf f4a7 2e3e 21b1 3ebf 41c0 903f
000000f0: b966 603e d014 923f 3632 debe b870 743f
00000100: cdde cabf d56c cfbf cbf0 fe3e b802 a93f
00000110: ad24 6dbe e737 65bc f6a5 36bf b8a9 48bf
00000120: 7f88 043e 3c95 28bf 360b 843f ec00 113f
00000130: 35ae e3bf 7bda 8c3f 8282 ea3f a323 bd3e
00000140: b00c d23f b662 2bbe 07b3 0740 58ab 843e
00000150: 411c 40bf 951f 33bf c6e8 f73d d6b0 b93f
00000160: a23f fdbe ec24 97bf 72c6 febf 9fb0 783f
00000170: 864d bb3e 3186 1d3f 7e0a 283f c5f9 e23e
00000180: 833b 093f 4f1d 103f a7df 933e 7c2b 723f
00000190: ef88 e7be 5508 25bf cad4 993f 3013 263d
000001a0: c1ab 143f 75a8 1c3f e956 bb3e 5b56 b13f
000001b0: 752f 593f f3db 9c3f 0212 89bf fe0c 2a3f
000001c0: 20ea 463f 84d9 fb3d e5e6 bb3e 55ca 99bf
000001d0: daf2 5c3f edc7 44bf 6eef d1bd c50f 9bbf
000001e0: 9c93 883f 62da af3f bd8f 43bf f9a3 7a3f
000001f0: cc1c 9e3e ff8b 55be df4f a6be 4734 693f
00000200: c5d1 093f 22f7 4bbf 2ed0 ac3f 0616 7a3f
00000210: 3127 b4bd 968b f0bf 8c78 473f 51c5 243f
00000220: b07a 2d3f 3a7f 0c3f 933b 8fbe ea6b 593f
00000230: fe1d 583f 4f46 66be 5972 3dbf 8f0d 9bbe
00000240: bd18 e13c 45e8 293f a703 ba3f deb9 89bf
00000250: 6a51 1abe b209 bb3f f959 ea3e fc3a 04bf
00000260: d717 bf3f d41b a83e 2615 b23d a878 4c3f
00000270: c375 913d 47a5 b3bf 7b3d 353e 78e8 8c3d
00000280: 95eb 42be a1e9 743f 4346 21bf de70 29bf
00000290: 90e1 393e 971d 86be 4e5e c9bd 2ee6 96bf
000002a0: 1509 38bf 45c1 193e 2e9b 613e c988 8bbe
000002b0: 9f40 0cbf ce86 05bf 7863 13c0 11ca d93e
000002c0: e864 e0bd 7cd2 98bf 07cc 6a3f 20b5 09bf
000002d0: f41c 4e3f 1199 4dbe 5184 95be 6551 c13f
000002e0: e3f6 f7be 81b1 b33e 2f41 443e 1f93 e43d
000002f0: 5786 89bf 99c6 e4bf ad18 d33e 347c d33f
00000300: e71c 97bf 8424 36bf 1d9f 073f 6acd d5bf
00000310: e946 1940 b753 ccbf 3919 ba3e ab9c b03f
00000320: 1989 143f 73f2 bcbe 4960 babf 1b38 e5bf
00000330: 9bf6 463f 3333 f3bb 49d1 0840 fd24 d23d
00000340: ead5 36bf 32a1 a93f e14c fcbe 4b84 eabe
00000350: 30b4 083f a957 16bf 3df6 e53f 12cc 8dbf
00000360: c7e1 c13e 41a4 1e3c ea08 88bf b0c2 083f
00000370: b7c7 b6be 6152 243e 8c54 febd cbb4 e1bd
00000380: 6808 b43e 2819 8b3f 6ba6 c3bf 8bce 23be
00000390: 3590 34be 6644 a93f 6ba9 c9be 6401 b63f
000003a0: 02a0 cabe db11 ec3e db55 a13f 9135 69bf
000003b0: d7ba 533f 13d0 763f 599e 47bf 8eb3 a83e
000003c0: 86cb be3f 847f 6b3f d9ed d9bd 723f 9b3d
000003d0: 3fee 7ebf 5f9d 033f dd5f c83f 889e 66bf
000003e0: 0de4 853f 7e80 b8bf 4c04 a83d 7bd8 c7bf
000003f0: ac50 55be ccd7 0d3f 8ae4 563f 6344 f63f
-0.77777386 0.9052523 1.1053541 -0.18611732 0.45474508 -2.180792 -0.054608423 1.0970316
-1.1602502 0.33966133 0.070530705 0.01953358 -0.9461417 -0.5301461 1.7176088 1.2193238
0.10461144 2.5394144 0.7116854 -1.0541557 -0.9327749 0.37020394 0.83996534 1.3181727
-0.99659485 0.8700391 -0.67253923 -1.1526905 1.1855518 0.109497786 -0.040990625 -1.8144237
-0.7667352 0.9602809 -0.7672534 -1.0522699 0.8644435 0.0063101547 0.24879028 0.37056
-1.2243651 -0.90544176 -0.60467744 0.25767946 -0.49672166 0.9333286 1.038294 -0.2562698
0.24229105 -0.94153804 -0.082380846 -1.363984 1.1342343 0.76924723 -0.7526826 -1.4722977
-1.3428724 0.17056257 -0.7448903 1.1308671 0.21914186 1.1412601 -0.43397683 0.95484495
-1.5849243 -1.6205088 0.49793085 1.3203955 -0.23158522 -0.013990379 -0.71346986 -0.7838397
0.12942694 -0.65852714 1.0315921 0.5664203 -1.7787539 1.1004175 1.8321078 0.3694125
1.6410122 -0.16736874 2.120302 0.25911975 -0.7504311 -0.69970065 0.12104945 1.4507091
-0.4946261 -1.1808143 -1.9904311 0.971445 0.36582583 0.61532885 0.6564101 0.44331184
0.5360643 0.5629472 0.2888157 0.945976 -0.4522166 -0.6446584 1.2018063 0.040545642
0.58074576 0.61194545 0.36589745 1.3854479 0.8483804 1.2254623 -1.070862 0.66426075
0.77700996 0.12297347 0.36699596 -1.2014872 0.8630806 -0.7686756 -0.10250746 -1.2114187
1.0670047 1.373852 -0.763912 0.9790645 0.30881345 -0.20854186 -0.32482812 0.91095394
0.5383571 -0.7967397 1.3501031 0.97689855 -0.08796538 -1.8792598 0.77918315 0.6436358
0.6776533 0.5488163 -0.2797514 0.8493029 0.84420764 -0.22487758 -0.74002606 -0.30283782
0.027477616 0.6637004 1.4532365 -1.0759847 -0.1507012 1.4612334 0.4577177 -0.51652503
1.492915 0.3283373 0.0869544 0.79871607 0.071025394 -1.4034814 0.17699234 0.068802774
-0.1903518 0.9566899 -0.62997836 -0.66187847 0.18152452 -0.2619445 -0.0983244 -1.1788995
-0.7188886 0.15015133 0.22031853 -0.27252796 -0.54786104 -0.5215882 -2.302946 0.42536977
-0.10956746 -1.1939235 0.9171757 -0.53792 0.8051293 -0.20077921 -0.29202512 1.5102965
-0.48430547 0.35096362 0.1916549 0.111608736 -1.0744122 -1.7873107 0.41229764 1.6522279
-1.1805695 -0.7114947 0.5297716 -1.6703312 2.394953 -1.5963048 0.36347368 1.3797811
0.58021694 -0.36903724 -1.4560634 -1.7907747 0.7772004 -0.007421875 2.1377738 0.10260961
-0.71420157 1.3252318 -0.49277404 -0.45804057 0.53399944 -0.5872751 1.7965771 -1.1077902
0.37867567 0.009682716 -1.062772 0.5342207 -0.35699245 0.1604705 -0.1241847 -0.11020812
0.35162663 1.0867052 -1.5285162 -0.15996759 -0.17633136 1.3223999 -0.39387068 1.4219174
-0.395752 0.46107373 1.2604326 -0.9109736 0.8270697 0.96411246 -0.77975994 0.3294949
1.490586 0.9199145 -0.10641069 0.075804606 -0.99582285 0.51412004 1.5654255 -0.9008565
1.046022 -1.4414213 0.082039446 -1.561294 -0.20831555 0.55407405 0.8394247 1.923962

cls_token_pixel f4 [1, 1, 32]
00000000: 70d2 763f d4b8 3dbf edcc d4bf d811 dbbc
00000010: 833d e5be 18c9 623f c567 4fbd b982 61bf
00000020: 39e1 723f 8e8d a33f 38a8 7a3e 5282 783e
00000030: 9db3 e53e 0889 aebe 5d82 99be 1b73 6e3f
00000040: 496b df3e 91fe b73f fbc2 3ebf b267 ab3f
00000050: 429e 1fbf b90d a8be 78f6 3e3c 4e67 a3bf
00000060: e299 5abf e7aa cf3f c92f ba3f d2d3 a63e
00000070: 5147 843f eb05 f2bf b44a 533e 9766 673f
0.9641485 -0.7411015 -1.6625038 -0.026741907 -0.44773492 0.88588095 -0.05063607 -0.8809009
0.9487491 1.2777574 0.24478233 0.24268463 0.44863597 -0.34088922 -0.29982272 0.93144387
0.4363654 1.4374563 -0.74516267 1.339102 -0.6235086 -0.3282297 0.011655442 -1.2765901
-0.85391057 1.622403 1.4545833 0.3258348 1.0334264 -1.8908056 0.20633966 0.90390915

pixel_patch_embedding.weight f4 [32, 30]
00000000: c487 22be c5ea cabd 00e1 7dbb d021 b8bd
00000010: c4af d03d 5016 59bc 4f44 0ebe ba98 0dbe
00000020: 94b0 38be c84b d63d fc14 f93d b894 1b3d
00000030: 8e5c a3bd 0a12 38be ccae a13d b9d2 d3bd
00000040: d271 35be 944c 0f3e 9c0a 8c3d 4002 0fbe
00000050: d453 293e c860 ee3c a42b 2f3e 5981 eebd
00000060: 2d1c fbbd 2e1f 0abe 247e 9e3d 9074 163e
00000070: 06fb 88bd 2036 afbc a02b 953b 8865 873c
00000080: c071 99bb 6012 49bd c0db 06be 421f 36be
00000090: 90b3 e6bc b079 2d3d 28a2 3f3d 963d 07be
000000a0: 0069 11be c42b 35be 38e4 1fbe 18c5 cabc
000000b0: e012 8dbc 6493 49bd e155 debd d83b 06bd
000000c0: 6097 c23b 6e17 17be 906f ab3c 8cce c33d
000000d0: a0c2 0a3c dcee db3d 24e6 dc3d 7a45 34be
000000e0: 001e 19bb 29c3 14be 701b 1b3d 570f d8bd
000000f0: 0885 233e e2ea 13be 4045 0f3c d43a 073e
00000100: 20f4 d2bb c4d4 a2bd 00d1 71bb ff83 04be
00000110: bc1e 413d 6881 cbbd 409b 263e 9848 013d
00000120: a8d0 84bc 3023 0f3c 40da 833d f800 e0bc
00000130: 88db a23d 1c7f dcbd 8806 c13d 6319 85bd
00000140: ba03 bdbd 6511 eebd 08b1 41bd 992c 05be
00000150: fc85 07be 1041 7bbc 40dd 3e3c 07de 26be
00000160: 901b 48bc 309b ab3d 9f0c 9bbd 2ccf 4abd
00000170: f839 183e 242d bc3d 9429 6b3d 2cd1 6abd
00000180: 6029 203e 100b 663d 005d ea3a d016 5b3d
00000190: 708b a93d f4a2 f73d 8594 d6bd 50d1 0c3e
000001a0: c5e8 09be bc6a c93d f640 32be 3793 20be
000001b0: 12a6 e1bd 4fdb c3bd 188e a13d d6b4 38be
000001c0: 000f 153a 68a7 07be 0a02 363e f0bb 5c3d
000001d0: 2864 b63d 5082 a2bd 507c 663c fad6 23be
000001e0: 0096 2f3a 96bc 0f3e 4c98 17be ef82 cbbd
000001f0: 7c80 dd3d ce4c 1d3e ee70 143e e809 403d
00000200: f014 723d f0a8 293d e09d fd3b 5460 883d
00000210: fcb6 ba3d 0848 fcbd 8c1d 9cbd 4c73 b23d
00000220: 70d9 5bbd 9404 adbd 1a25 113e f06e 1cbc
00000230: 20fe 843c 882d 88bc 6276 2b3e 1e31 1a3e
00000240: 68a7 843c f84f 9cbd 2067 d4bc c08c babd
00000250: c0e3 4f3c 3e5d 013e 4067 f1bc b038 89bc
00000260: 2d79 99bd 6aff e7bd 44c8 12be 326b 2c3e
00000270: c2a7 d9bd 5851 8c3c 2022 78bc 945b ef3d
00000280: 326d 2d3e 11d8 dbbd 60b8 0cbd 1636 23be
00000290: 7086 1ebc 78e3 303d 88d2 f3bd 3049 063e
000002a0: 00e0 303a c266 bcbd 50c0 eabc 0ac9 823d
000002b0: 298a 2cbe f67d 9ebd 6855 3dbd 3cfe 713d
000002c0: 8057 cdbb 20da 9cbb be8b 2a3e c917 32be
000002d0: ea89 0b3e bc59 013d 58dd 073e 244f 8fbd
000002e0: 086a 933c 7812 a13c ae2d 063e 1811 d23d
000002f0: a030 ad3d 29cf eebd fa11 09be 0f49 a8bd
00000300: 6e78 133e f0cd c23d aee3 04be a2c4 2ebe
00000310: f45b 383e f8db 2c3e 78f2 213e fc02 1abd
00000320: 4c57 0f3e f947 e6bd 0058 07bd b5ba 01be
00000330: 5c65 03be 4405 e83d e66d 06be b69a 02be
00000340: f6bd 083e 7c50 0ebe eac6 9ebd 548c 12be
00000350: 482e 8d3c 2d8c e7bd 7596 80bd 2cfa 993d
00000360: d0ca a93d 2a0e 1f3e 3f3e b0bd f2a4 2c3e
00000370: 44e6 18bd b83b cb3c e8ed 87bc 38cb 9d3d
00000380: f0e8 a9bc 8d52 02be 7aa2 163e 7878 b6bc
00000390: 8848 c93d 5359 89bd dc4c a93d 805c 75bb
000003a0: bc21 923d b443 05be d0da 31be dc2e bb3d
000003b0: f080 abbd 217a 38be 941d c03d 54a0 053d
000003c0: 8f4f 34be 0dda 82bd 9866 c03c 3e4c 11be
000003d0: 8009 fdbb 40cb 47bc 186a a33d b4e1 2ebd
000003e0: b04b fd3c 4882 c9bc a4b7 133e dea5 043e
000003f0: c8fd 723d 110d c6bd 8588 f0bd 64cd eebd
-0.15872103 -0.0990806 -0.0038738847 -0.08990824 0.10189775 -0.013249949 -0.13893245 -0.13827792
-0.18036109 0.10463673 0.121622056 0.037983626 -0.07976638 -0.17975631 0.07894668 -0.103429265
-0.177192 0.13994056 0.06837961 -0.13965702 0.16535884 0.029098883 0.17106491 -0.11645765
-0.122612335 -0.13488457 0.07738903 0.14692903 -0.06688504 -0.021388113 0.0045523196 0.016527906
-0.0046827495 -0.04908979 -0.13169765 -0.17785361 -0.028161794 0.04235238 0.046785504 -0.13207087
-0.1420021 -0.17692477 -0.15614402 -0.024752185 -0.017220914 -0.04921283 -0.10856224 -0.032771915
0.0059384555 -0.14755031 0.02092722 0.0956088 0.008469254 0.10738918 0.10786083 -0.17604628
-0.0023363829 -0.14527573 0.037867963 -0.10549801 0.15968716 -0.1444507 0.008744538 0.13206035
-0.0064377934 -0.07950738 -0.0036898255 -0.12940978 0.04714845 -0.09936792 0.1627016 0.03156337
-0.016212776 0.008736417 0.06438112 -0.027344212 0.079520285 -0.10766432 0.09425074 -0.06498983
-0.092292264 -0.116244115 -0.04728797 -0.13005294 -0.13234705 -0.015335336 0.01164943 -0.16295634
-0.012213603 0.08379209 -0.07570767 -0.04951398 0.14865863 0.091882974 0.0574127 -0.057328388
0.15640783 0.056162894 0.0017880499 0.053488553 0.08278549 0.12091628 -0.104775466 0.13751721
-0.13467701 0.09834811 -0.17407593 -0.15681158 -0.110180035 -0.09563314 0.0788843 -0.18037733
0.0005686134 -0.13247454 0.17774215 0.05389017 0.08905822 -0.079350114 0.014067724 -0.15999976
0.0006698072 0.14036784 -0.1480419 -0.09937083 0.10815522 0.1536133 0.14496204 0.046884447
0.059102 0.041420877 0.0077397674 0.06658998 0.09116933 -0.12318426 -0.07622823 0.087133974
-0.05367416 -0.08448139 0.1417431 -0.009547934 0.016234457 -0.016623273 0.16744378 0.15057799
0.016193107 -0.0763244 -0.02592808 -0.09108877 0.012688577 0.12633225 -0.029468179 -0.016750664
-0.074938156 -0.11328013 -0.14334208 0.16837767 -0.106277004 0.017128631 -0.015144855 0.11687389
0.16936186 -0.10734571 -0.03435552 -0.15938601 -0.009675607 0.04318568 -0.1190539 0.13113856
0.0006747246 -0.09199287 -0.028656155 0.063860014 -0.16849579 -0.07738869 -0.046224028 0.059080347
-0.0062665343 -0.0047867447 0.1665487 -0.17391886 0.13626829 0.031579718 0.1326803 -0.06997517
0.017994896 0.019662127 0.13103363 0.102571666 0.0845654 -0.116606064 -0.13385764 -0.0821706
0.14401409 0.09511936 -0.12977478 -0.17067197 0.18003827 0.16880786 0.1581515 -0.037600502
0.13998145 -0.112441964 -0.033042908 -0.1266888 -0.12831634 0.11329129 -0.1312786 -0.1275433
0.13353714 -0.1389789 -0.077527836 -0.14311343 0.017233983 -0.11306033 -0.062786974 0.075184196
0.082906365 0.15532747 -0.086056225 0.16859797 -0.037328973 0.02480875 -0.016592935 0.077047765
-0.020740956 -0.12726803 0.14710417 -0.02227424 0.09828287 -0.0670649 0.08266613 -0.0037439167
0.071353406 -0.13014108 -0.17368627 0.09139797 -0.08374202 -0.18015338 0.093806416 0.032623604
-0.17608474 -0.06389246 0.02348642 -0.1418924 -0.0077220798 -0.012194455 0.0797922 -0.042695716
0.03091988 -0.024598256 0.14425522 0.12953898 0.059324056 -0.09670461 -0.11744789 -0.11660269

pixel_patch_embedding.bias f4 [32]
00000000: a8ed fabd 15d5 38be 285f 52bd 1899 c3bd
00000010: fc74 263e 48a9 26bd 8c59 c43d 6074 3a3c
00000020: 4d52 36be 712f d5bd 8832 013e c702 10be
00000030: 2330 b9bd cf62 0abe 6c1a 2d3d a43a 0fbd
00000040: b0b4 acbd b23a a5bd ecf2 38bd f469 9a3d
00000050: 0025 303e c492 a93d 8c74 343e d82b c43d
00000060: 37a0 a4bd 96bd 27be a4d7 a8bd ea30 1e3e
00000070: 9c18 043e 5f9c b3bd fd48 b9bd 17d6 ccbd
-0.122523606 -0.18050034 -0.05136028 -0.09550685 0.16255563 -0.040688783 0.09587392 0.011380285
-0.17804833 -0.10409439 0.12616932 -0.1406356 -0.090423845 -0.13514255 0.042261526 -0.034968033
-0.08432901 -0.08067836 -0.045153543 0.0753974 0.17201614 0.082799464 0.17622584 0.09578675
-0.08038371 -0.16380915 -0.08244255 0.15448347 0.12900013 -0.0877006 -0.090471245 -0.10001772

local_trans_pixel.layers.0.0.fn.norm.weight f4 [32]
00000000: c629 913f f785 8e3f 3c2c 923f 2640 963f
00000010: 02a3 923f 3115 933f f5ff 8e3f fb1c 913f
00000020: bc9b 8e3f d965 893f fa35 913f 7c60 983f
00000030: fb34 903f 6aa0 8c3f 939d 8e3f 24d1 8e3f
00000040: 4dde 8b3f f020 893f 9959 8b3f 6766 913f
00000050: bd1c 963f 644f 913f be13 8e3f 47c9 963f
00000060: 83d0 8e3f 0501 873f 0800 913f 1c9d 8c3f
00000070: e3cd 8f3f 4b58 8b3f 26b7 933f 84d4 923f
1.1340873 1.1134633 1.1419749 1.1738327 1.1455996 1.1490842 1.1171862 1.1336969
1.1141276 1.0734206 1.1344597 1.1904445 1.1266168 1.0986454 1.1141838 1.1157575
1.0927216 1.0713177 1.0886718 1.1359376 1.172752 1.1352353 1.1099775 1.1780175
1.1157383 1.0547186 1.1328135 1.0985446 1.1234707 1.088632 1.1540267 1.1471105

local_trans_pixel.layers.0.0.fn.norm.bias f4 [32]
00000000: 809b fbbd 5fa3 463b 2b0f 6bbd 1b17 7fba
00000010: 47b9 bdbb 250c b2bd db67 d5bd 1d7b 5c3d
00000020: d361 38bd 9148 aa3c 9fd8 da3c b36b 3bbc
00000030: 244d 42bd 6be0 93bd 390c b83d f86c 573c
00000040: f67c 38bb 9526 b53d 79bb 5bbc 4d11 903d
00000050: 57ea bebc 1ed0 56bc 074b f6bc f671 6dbd
00000060: bd9a 34bd 8a18 38bc d3a9 9e3d 3b27 a23c
00000070: fd70 8a3c 46b5 3dbd cf9d e3bc dbe7 203d
-0.12285519 0.003030978 -0.057387512 -0.0009730921 -0.005789909 -0.08693723 -0.104201995 0.053828347
-0.045015167 0.020786555 0.026714621 -0.011439252 -0.04743685 -0.07220539 0.08986706 0.013148539
-0.0028150654 0.088452496 -0.013411396 0.0703455 -0.023305101 -0.013111142 -0.030065073 -0.05797001
-0.044092882 -0.011236319 0.07747235 0.019794097 0.01689958 -0.046315454 -0.02778521 0.039283615

local_trans_pixel.layers.0.0.fn.fn.to_qkv.weight f4 [768, 32]
00000000: 3f9a cc3d 8286 9dbd 8668 353e a006 a83d
00000010: 1d9f 9abb ef1b 253d abdb 58be 2230 d13d
00000020: 2795 283e 5fca ed3d 3d8b fcbd 810e 8ebe
00000030: c66d 633e e8f2 d2bb da27 a33d 8d89 323e
00000040: 5803 8fbc eb62 b53d fd43 37bd 8cdf 00be
00000050: e8ca 65bd 5ceb 383e 1c35 93bd d453 0bbe
00000060: bec0 8a3d 15ce 92bc 0090 b2bc 5462 45be
00000070: b1c8 043e 3278 113e 3bb5 29bd eb47 d23d
00000080: 9e26 973d 31ba 5d3c b9c4 583d fc95 ddbd
00000090: 570b 57be f76b 09be 08ab acbd 0b06 213e
000000a0: ad0e 843c 8500 89bd 23dc 37bd bdc8 8c3d
000000b0: 9b93 243e cc2d 1bbe 1a25 123e 457c e33d
000000c0: 896e a2bd 9e73 033c e5f9 b3bd b0f9 25be
000000d0: da48 c9bd b8ea 163e f8bf f83b 4477 483e
000000e0: 6ff8 23be ded2 97bd 5ffb 8cbd 5855 debd
000000f0: 63a6 81bd 1c54 debc 80c6 ae3d cd37 7e3d
00000100: 021d fe3d 36ee 73be 5ac6 59be b785 0d3e
00000110: d8aa c43d 5c50 e63d 078c 7abb 88fe 1d3e
00000120: 5ed6 3cbe e571 153e ca97 8c3e d67c 623e
00000130: def2 eebb ece1 ea3d daa0 e13d 92e7 efbd
00000140: 5bbf bf3d 896b 74bc 5b51 8c3d 4f31 eabd
00000150: 9fa4 053d 9f94 4ebd f82a e0bc 103b d13d
00000160: e7ac d53d 5682 d9bd 13d6 973c e98e f5bd
00000170: be32 2d3e 5171 4ebe 79f2 12be fe9c 6b3d
00000180: 1a2a c03e cd6b 0dbe 8cab 82be 74cd abbd
00000190: e5bf f93d 7279 943d a9b7 15bd 4f32 ffbd
000001a0: 149f f53d e573 f83d 9c05 18bc 30a9 da3c
000001b0: 69e9 d13d 0fa5 8cbd 3504 e6bc 1212 cc3c
000001c0: abd9 f5bd b926 4abd df28 c0bd 5632 3fbe
000001d0: 788f 02be 6747 2bbc 4c45 eebd ab23 ca3d
000001e0: 4de6 e83d 7373 9ebc 8ef1 21bd 03b0 1f3e
000001f0: 08a9 55bd 1d2b 0d3e 6f9f 593e 3371 833c
00000200: 9080 cabe 441a af3c 4284 8b3d e4ba 92be
00000210: 483d 413e b9b8 d83d 93f0 3bbc 0411 c0bc
00000220: 2ba1 21bd 70d8 743e beb1 6abe ba91 d2bd
00000230: 1c40 0e3e b716 6f3d fb47 3d3e d5af bdbd
00000240: dc27 6cbd 52b5 173e 50b4 843e 6998 e2bd
00000250: 5ccf a5bd 7fd3 563e 5b01 1ebe 9941 e8be
00000260: 8a68 0c3e 3105 443e 35ca 543d bad1 7fbc
00000270: c29a 9a3d 3bb8 20be 7a11 30be 467a ee3d
00000280: fe34 46be 5799 b6bd 1efc 9ebd 03a3 65be
00000290: 9ea0 8c3e f4a8 223d 729d 3bbe 8b32 183e
000002a0: 5171 5abe b835 bb3d b378 a3be 3387 3bbe
000002b0: 31b8 d3bd 5cd5 013e 5707 0d3d 72a4 593d
000002c0: b651 02bd 3359 e6bc 7026 e83c a9c9 16be
000002d0: 799b 20be 1d24 6f3e a5c0 79bc 66ec 93be
000002e0: fb51 d8bd 6e5b f23d 2846 cabc 35d6 87bc
000002f0: 902c bebd 933e 433d 9e30 94bd 59a7 6e3d
00000300: bd0d 1a3e 0a30 98be 5271 00be 8580 26be
00000310: c3c4 71be 1dc0 22bd 5d32 80be 0fcb 2e3e
00000320: 6137 a93d 426d f6bd a83a 173e 4486 843d
00000330: a029 ec3c 9748 9d3d 4314 22be 9a5c d33d
00000340: e525 0bbe b21f e13d f54c 193e 5f3e c2bd
00000350: d825 77bd e268 1c3e 0935 fe3d a9f5 4dbd
00000360: e8d4 373e 74e9 a9bd 6c89 a4bc 87a8 053e
00000370: a83b 173c 393b c73b d30c 11be 6916 1d3d
00000380: 942d 7a3e 4cb7 6fbd 93e5 25be cdfa 44bd
00000390: 6ede d3bc ea30 bb3c 4e63 e8bd 2ac8 52be
000003a0: 61d3 aebd edb3 c3bd c7e1 713e ce35 193e
000003b0: 8086 02be fbd5 563d a3c0 e9bd 538c 41bd
000003c0: ca32 64bd 5843 453c e1bd e9bb 46ca f1bd
000003d0: ec88 063e b67c 4ebe 66bf a9bd 9df6 a33e
000003e0: 17b9 a9bc b113 b03c 26be 953d 2613 b33d
000003f0: 5a47 02be 244e 4a3d adbb 62bd 96ba 8bbc
0.099903576 -0.07691671 0.17715654 0.082043886 -0.004718675 0.040309843 -0.21177547 0.10214259
0.16463147 0.11610865 -0.12331245 -0.2774544 0.22209844 -0.006437648 0.079665855 0.17435284
-0.01745765 0.08856758 -0.044742573 -0.12585276 -0.05610171 0.18058532 -0.07187864 -0.13606197
0.06775044 -0.017920533 -0.02179718 -0.1927579 0.12967183 0.14206007 -0.0414326 0.102676235
0.073804125 0.013533161 0.052921984 -0.10819623 -0.2100042 -0.13420092 -0.08431059 0.15724961
0.01612028 -0.06689552 -0.044887673 0.06874225 0.16071932 -0.15154189 0.14271966 0.11107687
-0.07931239 0.008023171 -0.08787898 -0.1620853 -0.098283485 0.14737976 0.007591244 0.19576746
-0.16012739 -0.074132666 -0.06883883 -0.10856122 -0.06330564 -0.027139716 0.085339546 0.062064935
0.124078766 -0.23821339 -0.21267071 0.1382054 0.09602898 0.11245796 -0.0038230435 0.15429127
-0.1844115 0.14594229 0.27459556 0.22117934 -0.0072921356 0.114688724 0.11017008 -0.117140904
0.0936267 -0.0149182165 0.06851455 -0.11435186 0.032627698 -0.050434705 -0.02736424 0.102163434
0.10433369 -0.10620563 0.018534696 -0.119901486 0.16913888 -0.20160414 -0.14350308 0.057522766
0.3753212 -0.13810654 -0.25521505 -0.083887964 0.12194804 0.07249726 -0.036552105 -0.124607675
0.11993232 0.1213148 -0.009278681 0.026692003 0.102495976 -0.0686742 -0.028078178 0.02491096
-0.120044075 -0.049353335 -0.093827955 -0.18671545 -0.12750041 -0.010454035 -0.11634311 0.098700844
0.113720514 -0.01934216 -0.039537005 0.15594487 -0.052163154 0.13785978 0.21252225 0.016045189
-0.3955121 0.02137483 0.068123356 -0.2865821 0.18871033 0.10582108 -0.011470932 -0.023445614
-0.039460342 0.2391069 -0.22919366 -0.102817014 0.13891643 0.058371272 0.1848449 -0.09262053
-0.0576552 0.14815262 0.25918818 -0.11064226 -0.08096191 0.20979117 -0.15430205 -0.45362547
0.13711753 0.19142605 0.051950652 -0.015613968 0.07549049 -0.15695278 -0.17194167 0.116444156
-0.19356152 -0.08915966 -0.07762931 -0.22425465 0.2746629 0.039711908 -0.1832178 0.1486303
-0.2133229 0.091411054 -0.31928024 -0.18313293 -0.10337866 0.12679046 0.034430828 0.053135343
-0.031816207 -0.028118705 0.02833864 -0.14725365 -0.15684308 0.2335362 -0.015243684 -0.28891295
-0.105625115 0.11833845 -0.024691656 -0.016581634 -0.09285843 0.047667097 -0.072358355 0.058265064
0.15044303 -0.2972415 -0.12543228 -0.16259964 -0.23610215 -0.039733995 -0.25038424 0.17069648
0.08262516 -0.12032558 0.1476847 0.06470922 0.028828442 0.07679861 -0.15828042 0.10320397
-0.13588674 0.109923735 0.14970763 -0.094845526 -0.060338825 0.15274385 0.124124594 -0.050283108
0.17952311 -0.08296481 -0.02008506 0.1305257 0.009230532 0.006080058 -0.14165048 0.03835145
0.24431449 -0.058524415 -0.16200857 -0.048090745 -0.025862899 0.022850472 -0.11347066 -0.20584169
-0.08536411 -0.095558025 0.23621283 0.14961931 -0.1274662 0.05245016 -0.11413696 -0.047252964
-0.0557125 0.012039982 -0.007133231 -0.11806159 0.13138169 -0.20164761 -0.082884595 0.32024089
-0.02071814 0.021493765 0.073116586 0.08743887 -0.12722531 0.049390927 -0.055354763 -0.017056745

local_trans_pixel.layers.0.0.fn.fn.to_out.0.weight f4 [32, 256]
00000000: 6f45 7cbd df4c 0d3d 2e26 ae3d 5c87 83bd
00000010: 7534 ebbc 9183 8d3d 7e5b a43d c369 eebd
00000020: 4808 233d 30fa ac3c 125c 72bd c19a 1c3d
00000030: 20e4 82bd 3c44 bebb 7499 5fbd d662 52bc
00000040: 86ed 88bc 1a3b 0ebd 6189 82bd 6db7 08bc
00000050: 288f e0ba 3a22 0abd 7377 223b cee1 23bc
00000060: c3a5 073d 0c77 00ba 0fdd 3b3d d01e b2bc
00000070: 953a 3b3d f9a7 5bbc 695f 003c fd82 373c
00000080: d508 013d b53a aa3d 6f35 8bbc 316f e13b
00000090: 0207 633d 7d22 ea3b bde1 03bd 261b 7dbc
000000a0: f3d0 35bc ac4f b83d 9072 b6bd 1ac9 163d
000000b0: 1c39 fdbd bdda 79bd 94a7 f03b 189d a03c
000000c0: d258 b4bc 31b2 ab3d 21f6 c2bb 1996 a73c
000000d0: c0f1 08bd aa3d 813d 2107 c9bd a709 783d
000000e0: 521f 42bd 6873 913c 3057 043d a28a f4bd
000000f0: cca7 eabd 5663 18bd 39a1 aa3c 525c 82bd
00000100: 8954 0abd 82fe 8a3d 5765 80bd b409 1cbc
00000110: 7c56 de3c 8e56 053d 075b 0ebb 4217 f5bd
00000120: a442 643c f495 8c38 76b8 983c cfc8 833c
00000130: 45ce 2ebc 4ef5 c4bd 7bcc 75bd fca8 b8bd
00000140: 783b 38bc 7f6e a7bd 3557 6b3c 868b 0f3e
00000150: d94d ed3c ff80 c1bc cebc 663d 74e9 9bbc
00000160: 3a1b b5bd 0e4c 433d 3f77 d9ba 4855 e93c
00000170: 2bef c8b9 3606 8f3d d7a5 6ebd e84f 2dbd
00000180: fa45 cfbd 8160 2c3c 8966 ccbc d440 efbd
00000190: ebac b3bd 7efb b63c c818 083c 74b2 cfbc
000001a0: af5f 553c 8f43 f5bd c777 273d 1a43 2aba
000001b0: 7efa 85bc a664 d8bc 06bb 58b9 9cde 0a3c
000001c0: 3efe 9c3c f54c 56bd 3bba b73d 5a53 35bd
000001d0: 3f45 573d e7aa 2d3d 92fe 5c3c 9908 a53d
000001e0: d944 09bd 7760 37bd 74d8 f93c 9eac 373d
000001f0: bfcd 92bd e6bc 25bd 6377 39bd 38f7 5cbd
00000200: 23bc 53bd 72b6 b239 03d1 883d 9c34 993b
00000210: fa95 a3bc 9ee4 b73c 8f8c 6d3d 0307 62bc
00000220: a2d1 a43c 09d1 493d bc2d 23bd e8e4 683d
00000230: 1101 6b3d 97a0 163e fcd6 113d 0cf0 14bd
00000240: 7d4d 713d c25b 543d 47f0 b83d e5ed dc3c
00000250: 8fe7 68bb 2f0f 96bd a7e7 ffbb 122c 3cbc
00000260: e5dd a6bc 296e 29bd 6666 3a3d 9120 83bd
00000270: 4593 b13d 07f8 02bd e1cc a4bd 9bda 043d
00000280: aeac c83c ef78 0ebc 3e40 fdbd 1c3a 29bd
00000290: cd94 b03d e9e4 2fbd 8467 44bd 4481 75bd
000002a0: 40f9 2dba daa4 bf3d 901e 383d 2895 f7b9
000002b0: 4f18 283d f801 d1bc 1867 8cbd 5a4d 55bd
000002c0: 58a9 9e3b 2e0a 203d 1f59 36bd b1d8 bfbd
000002d0: e4e6 043e 25d7 02bd 0ed8 a3bd 865d aa3c
000002e0: 0e47 053c 7402 c0bc fe63 c53d a5a4 c73d
000002f0: 5aa9 a03c 2f86 f4bc a4ba b4bc ff36 09bd
00000300: 48f4 b83d e31c 97bc 5980 c8bc 2b4a 913d
00000310: 3756 b0bd a547 09bb 7d3f fcbc c52e 85bd
00000320: a16e 40bb 07e6 763c b242 57bd 350a c4bc
00000330: d8f5 77bd 05f8 263d 7350 b3bc 22b1 92bd
00000340: 4f20 d9bd f87e a33d 835f 0fbe cd5d 903c
00000350: dce6 673c 37b0 25bc 60ff 04bd ac5b 1fbe
00000360: dc81 bfbd 56d9 ff3c e5ba a6bd d24b 2fba
00000370: 1d10 933d 5a21 113d d0b1 c43c eec1 733d
00000380: 1ac0 123d 1892 63bd d96d ae3c 428b 8c3d
00000390: ecef 463b 06bc 983d b512 ad3d f61d c3bc
000003a0: 6489 ecbd 9728 b73c c9b6 00bd 7a9e 55bd
000003b0: b549 9cbd 712a 9cbd 7a36 fd3b ac6a a83c
000003c0: dca7 17bd a596 263b 3d3a b2bd 143a 37bd
000003d0: e7db 00bc e139 ad3c 587d a1bd a557 0b3c
000003e0: 02ca 1e3c 9e35 c03c f207 b83b 08ea e53c
000003f0: 2f51 f6ba d456 bebd 7fa0 173c eb64 de3c
-0.061589655 0.034497138 0.08503376 -0.06422302 -0.028711537 0.0690986 0.08025263 -0.11641266
0.03980282 0.021115392 -0.059169836 0.038233522 -0.06391168 -0.005806474 -0.054589704 -0.012840947
-0.016714823 -0.034724332 -0.06373859 -0.008344513 -0.0017132508 -0.033724047 0.0024790436 -0.0100025665
0.033117067 -0.0004900552 0.045865115 -0.021743208 0.045710165 -0.013406747 0.007835248 0.011200664
0.031502564 0.08311979 -0.016993253 0.00687971 0.055426605 0.0071452246 -0.032197703 -0.015448367
-0.011097181 0.08999571 -0.0890857 0.03681288 -0.123644084 -0.06099962 0.0073441956 0.019606158
-0.02201501 0.08383597 -0.005949751 0.020457314 -0.033433676 0.063105896 -0.09815813 0.06055608
-0.04739315 0.017755225 0.03230971 -0.119405046 -0.11457786 -0.03720411 0.02082883 -0.06365265
-0.033772025 0.06786825 -0.06269329 -0.009523798 0.027140848 0.032553248 -0.0021721737 -0.11967327
0.013931904 6.703651e-05 0.018642645 0.016086964 -0.010669296 -0.09617101 -0.06000946 -0.09016606
-0.011244647 -0.08175372 0.0143640535 0.14018068 0.028967785 -0.02362108 0.056332402 -0.019032218
-0.08843084 0.047679953 -0.0016591324 0.028483048 -0.00038325167 0.069836065 -0.058263626 -0.042312533
-0.10120769 0.010521055 -0.024951236 -0.11682287 -0.08773216 0.022336718 0.00830669 -0.025353648
0.013023301 -0.119757764 0.040885713 -0.0006494984 -0.016354796 -0.02641518 -0.00020669037 0.008475926
0.0191642 -0.052319486 0.089710675 -0.044268943 0.052556273 0.042399313 0.013488429 0.080582805
-0.033512924 -0.04476973 0.03049872 0.044842355 -0.07168149 -0.04046335 -0.04527987 -0.053946704
-0.051693093 0.00034086738 0.06680491 0.004675461 -0.019968975 0.02244788 0.057995375 -0.013795617
0.020119492 0.049271617 -0.039838538 0.056858927 0.057374064 0.14709698 0.035605416 -0.03636174
0.05891179 0.05184532 0.09030204 0.026968906 -0.003553841 -0.07327115 -0.0078095975 -0.011485117
-0.02036948 -0.041364823 0.04550781 -0.06402696 0.086706676 -0.03197482 -0.0804689 0.03243504
0.024496403 -0.008695825 -0.12365769 -0.041315183 0.086221315 -0.042942915 -0.047950283 -0.05993773
-0.00066365674 0.09357615 0.04495102 -0.0004722264 0.041038807 -0.025513634 -0.06855601 -0.05207572
0.0048419647 0.039072208 -0.044518586 -0.093675025 0.12978703 -0.03194346 -0.080001935 0.020796549
0.008134617 -0.02343867 0.096382126 0.097482 0.019612003 -0.02984914 -0.022061653 -0.033499714
0.09030968 -0.018446391 -0.024475263 0.070942245 -0.08610194 -0.0020947244 -0.030791992 -0.06503061
-0.0029362815 0.015069491 -0.05255384 -0.023930648 -0.06053719 0.040763874 -0.021888947 -0.07162692
-0.106018655 0.07983202 -0.14001279 0.017622853 0.014154162 -0.010112814 -0.032470107 -0.15562314
-0.093509406 0.031231564 -0.08141116 -0.00066870183 0.07180808 0.035432197 0.024010569 0.059511118
0.035827734 -0.055559248 0.021292614 0.06862499 0.0030355407 0.074577376 0.08450834 -0.023817997
-0.11549643 0.022358222 -0.031424318 -0.05215309 -0.07631246 -0.076252826 0.0077274414 0.020558678
-0.037025318 0.002541938 -0.08702514 -0.044733122 -0.007864929 0.021145763 -0.078852355 0.008504783
0.009691717 0.023463067 0.0056161815 0.028065696 -0.0018792505 -0.09293905 0.009254574 0.02714773

local_trans_pixel.layers.0.0.fn.fn.to_out.0.bias f4 [32]
00000000: 9705 043d a623 bbbc 37e1 d33b 2690 68bd
00000010: 71d6 e7bc 801c e03d f675 c8bd a991 0cbd
00000020: f5c6 a03d 065f e7bd 5b0e febc 8174 0e3d
00000030: 88f2 abbc 66a9 5b3d 9611 87bc 1078 6abe
00000040: 0ac8 933d 0dde d4bd cff2 e13b 8876 b7bd
00000050: 567f 223d ea1b 923d c3cd 943c e08f b33c
00000060: 3c3c ac3d a93b 71bd 60f1 c2bd 34dc ccbc
00000070: db9d 933c 7ca1 8abc 1510 e73b 8f18 0abd
0.032231893 -0.022844147 0.0064660567 -0.056778096 -0.028300496 0.10942936 -0.09788124 -0.0343186
0.07850448 -0.11297421 -0.031012705 0.034779076 -0.020989671 0.053628348 -0.016487878 -0.22897363
0.07215889 -0.10393915 0.0068954 -0.08958155 0.03967222 0.071342304 0.018164521 0.02191919
0.08409926 -0.058894787 -0.09518695 -0.025007345 0.018019607 -0.016922705 0.0070514777 -0.033714827

local_trans_pixel.layers.0.1.fn.norm.weight f4 [32]
00000000: f5de 8c3f daf5 8c3f 3fa3 883f 91a7 953f
00000010: 9fbe 8a3f 5d39 8b3f 713a 943f 0c08 7d3f
00000020: 5d3f 853f b7f4 863f 201a 793f c33c 793f
00000030: 6da1 883f 44fb 823f 0737 873f d049 873f
00000040: 7ad6 9a3f c5a2 833f 6e35 853f 949c 8f3f
00000050: a8c5 8e3f 91de 903f 4c13 7f3f efa2 7b3f
00000060: 976d 8f3f a00a 8d3f 4926 8b3f 7f6a 853f
00000070: 87a7 843f 54a3 873f 13ac 873f 3a01 823f
1.1005541 1.1012528 1.0674819 1.1691762 1.0839423 1.0876881 1.1580335 0.98840404
1.0409962 1.0543431 0.9730549 0.9735834 1.0674263 1.023293 1.0563668 1.0569401
1.2096703 1.0284048 1.040693 1.1219659 1.115407 1.1317922 0.9963882 0.9829549
1.1205319 1.1018867 1.0871059 1.0423125 1.0363625 1.0596719 1.0599388 1.0156624

local_trans_pixel.layers.0.1.fn.norm.bias f4 [32]
00000000: bda6 4cbb d42d f23b fdb5 55bb 419d bfbc
00000010: 5465 56bc 24d9 203d 2376 56bd 586f 013c
00000020: 9b7e 22bd 2d53 dabc f5a8 fd3c 1783 bdba
00000030: e059 01bd 4ffd a73d be8c d5bb f1cd 81bc
00000040: aa9a 923c 3e28 26bd a4c1 9bbb f7d3 1dbd
00000050: aa04 3d3d 249c 283d 447d ccbc 23cf 093c
00000060: 16e3 b2bc 3942 64bd 0995 6abc 076e 06bd
00000070: 4ac2 5abd 0cc8 643b b2f3 35bd ad80 29bd
-0.0031227313 0.007390717 -0.0032609694 -0.023390414 -0.013085682 0.03926958 -0.052358758 0.007900082
-0.03967152 -0.02665099 0.030964354 -0.0014458623 -0.031579852 0.08202612 -0.006517022 -0.01584527
0.017896015 -0.04056572 -0.0047533084 -0.038532224 0.046147026 0.041164532 -0.024962075 0.008411202
-0.021836799 -0.055727217 -0.014317759 -0.032819774 -0.053407945 0.0034909276 -0.04442186 -0.04138248

local_trans_pixel.layers.0.1.fn.fn.net.0.weight f4 [8, 32]
00000000: 076f 9dbd edc6 bebd 65bc cb3d d610 87bc
00000010: 2cf3 0a3e 23db f33d 4bba 22be c59f 953d
00000020: 82e6 1bbe 473f 373d 5632 36be 4ca6 85bd
00000030: 7499 87bb 4306 cbbc c798 e4bd d3cf 66bd
00000040: 592a 46be 02c4 d0bc 3ff6 7c3d f22f 6a3e
00000050: 5986 d3bd 33e4 f73d e45b 043d 374c 923d
00000060: c20c 4bbe 9d34 a13d 1a89 573d 4239 8abc
00000070: 5aa7 27be 06b1 10be 42f4 82bd 8bdb 6abe
00000080: 380e 743d 15ad 5c3e ee0b 3d3d 20aa 9fbd
00000090: 9ea9 b3bc 8e42 e0bd da47 a6be 0395 163e
000000a0: 5485 50bd ae18 b8bd b034 abbb 4cd4 99bc
000000b0: eee8 39be f0da ae3d 8f32 403e 2bb1 8a3e
000000c0: fa67 153e 9fe2 103b 1652 723d f30d 183e
000000d0: a41b 1abd bbd5 13be 5f33 81bd 121e d43d
000000e0: ee36 1abe 7b9f 1d3d 3311 873d 205e 60be
000000f0: bddb 363d b402 c43c 6a01 973c 019f c6bd
00000100: 5521 53bc f181 fbbd 0b6c 56bd de37 a7be
00000110: a2ee 25be 60c2 2a3e f194 e1bd 3614 523d
00000120: a28a d4bd 4e9d 4abd e268 033e 049c 01be
00000130: eadd 04be 6c66 0f3e 6b12 2fbc 4cb6 d0bd
00000140: 5334 8b3e 900f 86bd 4e12 58bd 327b 54be
00000150: 9095 7b3e 0ce0 2b3d 5cfb ccbd 2ef9 1fbd
00000160: b1f5 0e3e af8f 72be eae2 66be a234 a2bd
00000170: 5a0f 37be e6c6 b93d ff18 16be 039e 97bd
00000180: 2b4e 363e 7b3b d0bc 77ab 8fbd 7ccc 613e
00000190: 4ea3 223e 16c7 73bc f3f9 0cbe 066e 303c
000001a0: 0087 64be 17ed 163e e6f0 95bc bcf4 e4bd
000001b0: 6767 37be 4707 a6bd 5a86 5b3e 511a bbbb
000001c0: 2166 893d 3913 593e ffff 663e ea60 bd3d
000001d0: a700 6dbe 22de 73be 8552 f63d c937 0c3e
000001e0: 7f8c c13c 1a71 033e 7890 2a3e 1cd2 dfbd
000001f0: a504 d23c 7989 153d 1efb 493e 99e0 523c
00000200: d6b1 4b3e 85b7 eabd d0fc 81be a134 373e
00000210: 9c1f 5c3c 15ab 903d 5879 11be 6153 6dbd
00000220: cd7c d23c 7220 423e 2b9b 263e d5aa 503d
00000230: f0f8 203d 4f33 b7bc 460c 7a3d 420d e5bb
00000240: ac2e 663e 2e5b 4bbc b310 b13c 6820 18be
00000250: c687 a4bc 02d9 803e 1e94 f73d cc15 0c3d
00000260: 108b 8e3d 1386 30be 850a 493d 15f3 a13d
00000270: bc4a 993d d35c d8bd 90aa cdbd 5312 b5bd
00000280: 49b1 2bbd 7b9f 2ebe 7979 253e 6a4e f3bc
00000290: 8f19 59be 08df b73d b2cb 6dbe 7cf6 323b
000002a0: f138 13be b3c9 323c 18d7 d13d 7bc8 123e
000002b0: 1cff d03b 3f20 07be 613e c0bd 10d6 26bd
000002c0: f183 483e 6854 943d c68e 19be 0fa5 5cbd
000002d0: c48f 8b3d eabd 2dbe 8dfd a63d f07f 2bbd
000002e0: a558 57be 1cc0 1d3e 24ea 683e a9f3 49be
000002f0: d2fb fbbc fc31 65be a60e cabd c389 5ebd
00000300: a175 52bc 6ec8 283d 1d94 173e 51c1 3a3d
00000310: 2595 56be 72e6 333c 64bf 7abc 0cb6 fdbd
00000320: 9496 c6bd 02b6 1dbe b62f d33b 5f01 4f3d
00000330: 7240 b1bd 926c d43d 5ab8 babd 321b 9ebd
00000340: a0bd 05be cdc1 06be 559c a1bd de5c abbd
00000350: 136f 483e 9f8f db3d d091 13be 9139 bbbd
00000360: e563 2e3d 6292 b2bc d9a7 a53d 242a 39bd
00000370: 5708 a7bd 2640 bc3d 0f8b ae3b c194 9f3d
00000380: 4e50 e83d 20d1 03be 96b6 1fbe 5060 57bd
00000390: b6f5 3639 421a 403e b0eb 613d 4406 013d
000003a0: 53d8 953b 604f 273d 026e f53d c6f7 2abe
000003b0: dfa2 2a3d cab9 07bc 1371 ce3d 3649 243d
000003c0: 9526 4abe b6f2 93bd 4272 30be ddc5 b6bd
000003d0: 79a7 bdbd e164 20bd 54c9 033e dc5b d6bd
000003e0: 2d5e bdbd f7c3 dabd 80f3 e23d 8b68 b4bd
000003f0: d838 3f3e f97c a2bc 5445 6c3a 8d7e 30bc
-0.076871924 -0.09315286 0.09948043 -0.01648752 0.13569325 0.119070314 -0.15891378 0.07305864
-0.1522465 0.04473808 -0.17792639 -0.06525859 -0.004138166 -0.02478326 -0.111619525 -0.05635054
-0.19352092 -0.025484089 0.061758276 0.22869852 -0.10328359 0.121040724 0.032314196 0.07143443
-0.19829085 0.07871363 0.052620985 -0.016873006 -0.16372433 -0.14130029 -0.06394245 -0.22935311
0.059583873 0.215504 0.046153955 -0.07796121 -0.021931466 -0.10950194 -0.32476693 0.14705281
-0.0509084 -0.08989082 -0.0052247867 -0.018777989 -0.18155262 0.08537853 0.18769287 0.27088293
0.14590445 0.0022107733 0.059160315 0.14849071 -0.037624016 -0.14437 -0.063086264 0.10357298
-0.15060017 0.03848217 0.06595077 -0.21910906 0.044643153 0.02392707 0.018433291 -0.09698296
-0.012886365 -0.12280644 -0.05234913 -0.3265981 -0.16204312 0.1667571 -0.110147364 0.051288806
-0.103780046 -0.049466424 0.12832978 -0.12657171 -0.12975278 0.14003915 -0.0106855435 -0.1019102
0.27188358 -0.06545937 -0.05275183 -0.2075012 0.24568772 0.041961715 -0.100088805 -0.039055996
0.13960911 -0.23687623 -0.22547498 -0.07920195 -0.1787695 0.0907114 -0.14657973 -0.07403185
0.17803256 -0.025418987 -0.07015126 0.22050661 0.15882608 -0.014879009 -0.13767223 0.010768419
-0.22317123 0.1473888 -0.018303346 -0.11179492 -0.17910539 -0.08106857 0.2143797 -0.0057099243
0.06708933 0.21198739 0.22558592 0.092470005 -0.2314478 -0.23815206 0.12027458 0.13693155
0.023626564 0.12836114 0.16656673 -0.10928747 0.02563698 0.036508057 0.197247 0.012870931
0.19892058 -0.11460785 -0.25388193 0.1789117 0.013435271 0.07063881 -0.14206445 -0.057940844
0.025694275 0.1895769 0.1627013 0.050944168 0.039299905 -0.022363333 0.06104686 -0.006990106
0.22478741 -0.012411876 0.021614408 -0.14856112 -0.020084273 0.25165564 0.12088798 0.034200475
0.06960118 -0.17238645 0.049082298 0.07907692 0.074849576 -0.1056458 -0.10042298 -0.08841386
-0.04191712 -0.17053024 0.1615962 -0.029700477 -0.21201156 0.08978087 -0.23222235 0.002730756
-0.1437719 0.010912347 0.10246104 0.1433429 0.0063780677 -0.13195895 -0.09386898 -0.04073149
0.19581582 0.07242662 -0.1499587 -0.05386835 0.068145305 -0.16966978 0.0815383 -0.041870058
-0.21029909 0.15405315 0.22745568 -0.19721855 -0.030759726 -0.22382349 -0.09866075 -0.0543306
-0.012845428 0.04120677 0.14802594 0.045594517 -0.20955332 0.010980235 -0.01530442 -0.12388238
-0.09696689 -0.15401462 0.0064448966 0.050538417 -0.0865487 0.10372271 -0.091171935 -0.07720031
-0.13060617 -0.13159867 -0.07891146 -0.083673224 0.19573621 0.10720753 -0.14411092 -0.09141839
0.042575736 -0.021798316 0.08088655 -0.045206204 -0.081558876 0.09191923 0.0053266357 0.077920444
0.11343442 -0.12872744 -0.15596995 -0.052582085 0.00017448407 0.18760017 0.05515641 0.031500116
0.004572907 0.040847182 0.11983873 -0.1669608 0.041659232 -0.008284042 0.10080161 0.040108882
-0.1974128 -0.07224028 -0.17231086 -0.08924458 -0.092604585 -0.039158706 0.1286977 -0.104667395
-0.09246478 -0.106819086 0.110816 -0.088090025 0.18674028 -0.019834982 0.0009013016 -0.01077236

local_trans_pixel.layers.0.1.fn.fn.net.0.bias f4 [8]
00000000: 05d4 4abb 7584 78bd 8ed9 623e 2831 86bc
00000010: 70d1 7b3d fe73 efbd 0ce6 eabd 148b c03d
-0.0030949127 -0.060673196 0.22153303 -0.016380861 0.061479032 -0.11692046 -0.11469659 0.09401527

local_trans_pixel.layers.0.1.fn.fn.net.3.weight f4 [32, 8]
00000000: 8283 29be 99e1 afbe 2799 afbe 5325 543e
00000010: 8faa dd3e 01bc 5cbe c024 85be ecf0 b9be
00000020: 4254 77bd 3164 93be ac50 a23e 190d ed3c
00000030: 208c 9abe 8ec6 2f3e b266 15be 65b9 79be
00000040: 2c50 393e 5c1c 1f3d ac27 143e e8e1 5c3e
00000050: 40eb 50bc d9b5 973e dc6a 923e 792e 043b
00000060: 45f7 f0bc f957 e23e e0d9 8c3d e44d e13d
00000070: edd0 d93d b173 8b3d 75c6 0bbd 53ad d53d
00000080: 2fd4 69be dd00 06be 8f3d d3be 27ce 543e
00000090: cea6 9cbe 70a0 7d3e 4d23 dabe 3c6c 943e
000000a0: d6fd 14be 08a9 68be e4c1 70bd 624f e6be
000000b0: c42c 333e f66f 85bd e380 6d3e 9ad5 37be
000000c0: b7ef b43d 6ad9 bbbd b920 853e 5d5d 90bc
000000d0: 0b1f 71be 3fd7 06be 82ed f73d 2b45 00be
000000e0: 0f0c 883e da68 2cbe ee25 bc3e 0cda 1c3c
000000f0: 6999 833e db8a 163e a2e2 c03d be58 243e
00000100: 2040 743e 746d d3be 9b5c bbbd f7a7 803e
00000110: e1be 8b3e 8e9d da3e 6498 a73c c414 953e
00000120: b433 d3bc 8206 973c c1f2 68bc 3b05 4dbe
00000130: 2a6d 0f3e f923 11be f563 173e f71f 46bd
00000140: 4c39 85be 9e9c 403e 3dd2 25be b5fd b63d
00000150: d9c0 05be d42b 783d 0f50 acbd 3ef9 5bbe
00000160: 3280 ac3e c7bd 6a3d a236 afbe ab61 833e
00000170: 314a 3cbe 645b 97be c466 383e 556c 4abd
00000180: ca10 ad3d 0d14 393c c44f 80be 8e22 153e
00000190: 91eb 6c3e a27a 31be 6eb0 873b 7ba8 7b3d
000001a0: 92d6 353d 1474 eb3c 34aa de3d c087 f7bd
000001b0: 1766 033e 752d bfbe bb73 2a3e 8f86 933e
000001c0: e972 acbe f8d5 acbe ae3b 8fbe f615 953d
000001d0: 66da a7bd 7e14 803e 3848 493e 940c 9abe
000001e0: 5cc5 35be 94cd 38be b0dd 8ebe 4039 823e
000001f0: 024d 2cbe af6d 23be 464e 8dbe 0474 b5be
00000200: bb46 fbbd 2e53 6abd f7b2 d23e 440d 293e
00000210: 954a 94bc 6c6b 3cbe cf8e 523d 5771 29be
00000220: 98f2 4ebe 549b 273d 7c3f 523d f878 f13d
00000230: 330a d93e ddb4 fcbd 38f3 c6be 7af6 4c3e
00000240: fcfe 9d3c 3d21 da3b b865 3dbd 8b3b 853e
00000250: 3214 573c 44ba 4d3e c2ac de3d 610b a2bd
00000260: a212 89be 8e6d babe f85b 94be 084e 913e
00000270: 9562 5dbe e6dc 973e e40f d53d 2c69 7a3e
00000280: 8701 d1be 8203 ce3a 582c ccbc 2302 563e
00000290: 4d51 c7be 919c 8bbe 5bed a3bc d1f4 3c3e
000002a0: d71d b2be 7e97 71be 06b0 98be bf18 c4be
000002b0: 0142 873e a50c d5bd 486f 813e 88f4 cd3e
000002c0: b201 32be 1437 403e bf8b c43d 2758 353e
000002d0: a30d 7d3e 858b 66be f9d5 74be a661 a1be
000002e0: 65b3 b53e 903e ecbd d1cd a5be cd40 abbd
000002f0: b67e 90bd 9ced f53d fe3e b83d c0c5 d1bd
00000300: 5032 113e 4b30 08be 58c3 813e 23eb ef3b
00000310: 1884 3cbe 5322 7cbd ec3c c4be 439b 753e
00000320: e6ff 83be f03c 8b3e fd12 953e a74a b2be
00000330: c7e4 d93e db4e 3e3e 6d55 4fbe 73e2 b53e
00000340: 808c a03c 0040 cb3d 492f a93d 95df df3c
00000350: 0ef6 0a3e e3d8 583e 7a44 51be e290 91be
00000360: f00f 96be 0827 81bd 594d a0be a4fe ba3d
00000370: 526f 6e3e fa2f da3d 6328 933e 8d0d a8be
00000380: af7e 8b3e fd25 f63d f6a1 4dbe 52b5 733c
00000390: f941 4ebe 86ce 813d 10e9 3c3e 05cf c7be
000003a0: 7134 9abe 1547 803d a64c 90be 731c 073e
000003b0: 83da 943e 3fbb 6c3e e264 8cbe 230a 503e
000003c0: 49f1 d3bd c409 cebd b104 91be 753e 9b3e
000003d0: 85c3 c0bd 11cb 2c3e 2b76 85be 563f 6fbe
000003e0: 09b8 40be e0a2 6f3e 3b8e 7cbe 9ed2 3a3d
000003f0: e398 b1be c9c0 1cbe 2c8a 693e e968 c2bd
-0.16554072 -0.34351805 -0.34296533 0.20717363 0.43294188 -0.21556093 -0.260046 -0.3631662
-0.06038309 -0.28787377 0.31702173 0.02893691 -0.30185032 0.17165586 -0.14589956 -0.24387129
0.1809699 0.038845405 0.14468259 0.21570551 -0.0127514005 0.29630926 0.28597152 0.0020169301
-0.029414782 0.44207743 0.06877494 0.110011846 0.106355526 0.06809176 -0.03412481 0.104334496
-0.22834848 -0.13086267 -0.41257903 0.20781766 -0.30596012 0.24768233 -0.42605057 0.28988826
-0.14549956 -0.2272073 -0.05877866 -0.4498244 0.17497545 -0.065154955 0.23193698 -0.17952576
0.088347845 -0.09172328 0.26001528 -0.017622644 -0.23546998 -0.13168047 0.12105848 -0.12526385
0.265717 -0.16836873 0.36747688 0.009573471 0.2570298 0.14701407 0.09418227 0.16049477
0.23852587 -0.41294444 -0.091485225 0.25128147 0.27294067 0.4269833 0.020458408 0.29117405
-0.02578149 0.01843572 -0.014218033 -0.20021527 0.14006487 -0.14173879 0.14784224 -0.048370328
-0.26020277 0.18809745 -0.16193481 0.089351095 -0.13061847 0.060588673 -0.084137075 -0.21481797
0.33691555 0.057309892 -0.3422137 0.25660452 -0.18387677 -0.29561913 0.18007952 -0.04941972
0.08450468 0.011296284 -0.25060856 0.14563963 0.23136736 -0.17331937 0.004140905 0.061439972
0.044394083 0.028741874 0.108723074 -0.12086439 0.12831913 -0.37339368 0.1664571 0.28813598
-0.3368142 -0.33756995 -0.2797522 0.07279579 -0.08195953 0.25015634 0.19656456 -0.3008772
-0.17751068 -0.18047172 -0.2790351 0.25434303 -0.16826251 -0.1595981 -0.2759878 -0.35440075
-0.1226935 -0.057208233 0.41152164 0.16508967 -0.01810197 -0.18400353 0.051405724 -0.16547142
-0.2020973 0.040919617 0.051330075 0.11790651 0.42390594 -0.123391844 -0.38857436 0.20015898
0.019286625 0.0066567943 -0.046239585 0.2602199 0.0131273735 0.20090586 0.10872795 -0.079123266
-0.26772028 -0.3641171 -0.28976417 0.28379846 -0.21619637 0.2966072 0.104034215 0.24454182
-0.40821478 0.0015717598 -0.024923488 0.20899253 -0.38929215 -0.27267888 -0.02001064 0.18452765
-0.3478839 -0.23592946 -0.29821795 -0.3830013 0.26417544 -0.104028024 0.25280213 0.40225625
-0.17383459 0.1877101 0.09596967 0.17709409 0.24712233 -0.2251416 -0.23909749 -0.31519812
0.3548843 -0.1153537 -0.32383588 -0.08361969 -0.07055418 0.12008211 0.0899639 -0.10242796
0.14179349 -0.13299672 0.25344348 0.0073217317 -0.18409765 -0.06155617 -0.3832773 0.23985009
-0.25781173 0.2719493 0.2911605 -0.3482258 0.42557356 0.18584768 -0.20247431 0.3552433
0.019598246 0.099243164 0.08260972 0.027328292 0.13570425 0.21176486 -0.20436278 -0.2843085
-0.29309034 -0.06306273 -0.31309012 0.091306 0.23284653 0.10653682 0.2874175 -0.32822838
0.2724509 0.120189644 -0.20081314 0.014874773 -0.20142354 0.06338219 0.18448281 -0.3902513
-0.30118135 0.06263558 -0.28183478 0.13194446 0.2907296 0.23118304 -0.27420717 0.20316367
-0.10348756 -0.100604564 -0.28323892 0.30321088 -0.094122924 0.16874339 -0.26066718 -0.23364004
-0.18820204 0.23401976 -0.24663632 0.045611016 -0.34686956 -0.15307917 0.22806615 -0.09492666

local_trans_pixel.layers.0.1.fn.fn.net.3.bias f4 [32]
00000000: b80d b53d 6cce 0e3e a1c4 9bbd 6671 08bd
00000010: 1b79 b2be 6173 3dbd 1728 b7bd 7e65 5dbe
00000020: 4f2c 9cbd b971 bf3d cec1 a33e e5a0 353e
00000030: dce2 473e 9573 fdbb ddaa 763e d72a b4be
00000040: 6fde 3d3e e272 9dbd ee64 9d3e 7517 7abe
00000050: d3ca 86be 26e2 a2be 66e7 8a3e 989b ad3e
00000060: bffb 32bb 555a abbe 07ce bc3d 6302 173d
00000070: 4c75 8dbe ebf4 b53d 268a bebe 49ef c8be
0.08840507 0.13945931 -0.07605863 -0.03331127 -0.3485802 -0.046252612 -0.089431934 -0.21620747
-0.07625639 0.09347863 0.319838 0.17737158 0.19520134 -0.0077347257 0.24088617 -0.35188934
0.18541883 -0.07687928 0.30741066 -0.2442301 -0.26326618 -0.31813163 0.27129668 0.3390777
-0.0027310697 -0.33467355 0.09218984 0.03686751 -0.27628553 0.08884605 -0.37214774 -0.3924506

conv2d_features.0.weight f4 [64, 30, 3, 3]
00000000: c02e 423c 3181 4abd ef87 543d 7589 9abd
00000010: 488b 2c3d 61cc 17bd d7f4 d5bc d411 513b
00000020: 2a44 b33c a3aa 4d3d 8526 813b 51fe 6c3c
00000030: 55b4 623c 10dc 0dbd 9518 b8bb f2f5 e33c
00000040: 52a2 eebb f5bf 9c3c 647b 16bd 2a37 103c
00000050: cd98 d3bc 58da e23a fb20 deba 6a1e 16bd
00000060: 5915 20bd 9d6d adbc dbfd 983c 46f8 51bd
00000070: 27a7 2abc 4807 64bd fe8b 2b3d 437c 1ebc
00000080: a943 433b 3936 16bc 10da 41bd e58c 2b3c
00000090: 2618 68bc 3d00 20bd 62a4 4e3d aeda 48bd
000000a0: 8a73 97bb e6e2 4abc 40ce fabb d4ed 7f3d
000000b0: 8f13 25bc 8b61 903c 6e21 3b3a a8f5 f5bb
000000c0: a617 1d3d ef39 abbc 736b cc3c 5094 d5bc
000000d0: a4c2 f8bc 569a e2bc 450f 4abc 1194 35bd
000000e0: de13 bbbb 170f 453d cb1a f43c 553a ef3c
000000f0: 5e91 1b3d 1df8 743c c4d6 983d f157 753d
00000100: 95f8 5c3d 7a6f 63bd 73d6 89bc 0fdd 3c3a
00000110: bc5e 0f3d f378 a23b a688 80bd 8b7e 01bd
00000120: 7714 70bd 6039 5b3d ba32 de3c a311 8e3c
00000130: 8dd1 4a3c c48b d4bc 3031 8b3d f819 853c
00000140: 46a0 113d 2958 863c 50a2 113c 874b 0aba
00000150: 1494 a4bd c948 14bc 70b8 6ebd e11f b2bc
00000160: e357 b9bb 3e2b 9cba 4f68 343d ad9e 9fbc
00000170: 64f6 2c3d 09dd f63c 4300 c63d f43e 0abd
00000180: dc4a 223d 1cda c33b 50f5 d8bc d598 fd3b
00000190: 6c73 8dbd 525c 963d 5670 b33d 6e89 17bd
000001a0: 0105 6d3c a847 e4bc 19bd 44bd e012 403d
000001b0: 3c3e b6bd 483f e53b 83a3 53bd a805 d73c
000001c0: 4e2f 0ebd 8d2a c63a 2ffb 703c 822d 8dbc
000001d0: 1d04 8f3c 425a 083c afce 753a 6d8f 873d
000001e0: b5de a5bd 4ee8 6fbd 4e45 9a3d 2433 e73a
000001f0: 78ee cd3b 0314 003d ef95 3f3c a4e9 323d
00000200: 31de de3d bcae 6d3c d853 233d e2b3 99bd
00000210: a307 a03d 7b24 17bd 970b 4e3c b4b6 65bc
00000220: 8cb3 233d 6e99 8f3d 28e6 dcbc 3231 973d
00000230: 0585 813d 2fd7 1ebd ade6 fd3c cf1b 98bc
00000240: f7a7 c6bd 5ffa 093d 41b2 0c3d 86d6 5cbd
00000250: e7ee a4bc 09b0 623c 98ee 243d 5456 313c
00000260: 0895 9c3d 09e2 7cbd c468 7cbd dcdb 5bbd
00000270: 6ea2 513c 3c1a 193d 602b ac3c 3eee 073d
00000280: 766e 223d 60f1 99bd d6e0 01bd 580c 863d
00000290: 718e 85bd 362c 5d3d f14b 38bd a5ba c73d
000002a0: 90de 823d 940c 183d 3ad6 d53d e8a5 efbd
000002b0: ab0f 9e3c b8d7 263c ccee 0dbc 3ba6 6d3d
000002c0: 9181 3d3d be14 573c 2241 aa3b 6221 963c
000002d0: 094d 23bc 85d5 fd3d d85d 02bc b060 0f3d
000002e0: c74f 9bbc e20e 503c 4f1a 9cbc 37ae bb3d
000002f0: 1ded 693c c83e a7bb 5da3 da3c c8bc 0abb
00000300: 4f2c 593c 8e5c 2ebd 665b be3c 4309 d9bc
00000310: dc86 da3c 9ea0 3f3c 5967 8f3c 39cf e0bc
00000320: b8b4 9e3a 0ceb 3c3d 4807 f7bc af15 ab3c
00000330: 638d 29bd 658e 42bd d3b9 c43b 5138 9abd
00000340: 4c59 963c 15fe 3fbd 63b9 013b 3d56 b93b
00000350: 1102 853d d75f 2f3d c5f9 45bd 7661 453d
00000360: d810 8dbd 33ae b33b 8dbc 383c e1f4 08bd
00000370: e7f0 d53d 43de 7d3c 9096 06bd f3b8 55bd
00000380: a8f8 cd3d cf39 4e3d 9396 893c dbe3 3fbc
00000390: 3796 19bc 54e5 7ab8 e1e2 3dbd b6a0 78bd
000003a0: 509b 363c 9676 973c 2502 75bc 0256 213d
000003b0: 82a1 933d 2717 92bb 6f43 3f3d c907 2bbd
000003c0: 8896 133d 5b58 993c 9afe a2bd 1383 dabb
000003d0: 00a6 533c 2f2a 6c3d f067 823d 3552 bf3d
000003e0: 6030 74bd 4eb2 913d 98e9 8dbd dcdf 1b3d
000003f0: 698e 5fbd 7e6f 26bd 6586 2fbc ab32 f7bc
0.011851966 -0.049439613 0.05188745 -0.07545749 0.042125016 -0.037060145 -0.026117725 0.0031901496
0.02188309 0.05021156 0.0039413595 0.014464931 0.01383694 -0.034633696 -0.005618165 0.027827237
-0.0072825337 0.019134501 -0.03673877 0.008802215 -0.025829697 0.0017307503 -0.0016947085 -0.0366501
-0.03908286 -0.021170432 0.018675735 -0.051262163 -0.010415829 -0.055671006 0.041881554 -0.009673181
0.0029794967 -0.009168201 -0.0473271 0.010470604 -0.014165914 -0.039062727 0.050449736 -0.049036674
-0.0046219276 -0.012383198 -0.0076539814 0.06248267 -0.010075464 0.017624637 0.00071384653 -0.007506091
0.03835263 -0.020901648 0.02495358 -0.026071697 -0.03036625 -0.027661484 -0.012332742 -0.04433066
-0.0057091555 0.048110094 0.029797932 0.02920262 0.03798043 0.014951733 0.07462838 0.05989832
0.053948004 -0.055526234 -0.01682589 0.0007204571 0.035002455 0.004958266 -0.062760636 -0.03161482
-0.058613267 0.053521514 0.027123798 0.017342394 0.012379062 -0.025945552 0.06796491 0.016247734
0.03555324 0.01639946 0.008888796 -0.00052755367 -0.08036056 -0.009050556 -0.058281362 -0.021743717
-0.005656229 -0.0011914743 0.04404479 -0.019484842 0.042227164 0.030134695 0.09668019 -0.033751443
0.039622173 0.0059769284 -0.026484162 0.0077391663 -0.069067806 0.073418275 0.08761661 -0.036996298
0.014466525 -0.0278662 -0.0480319 0.046893 -0.08898589 0.006996069 -0.05166961 0.026247814
-0.034713082 0.0015118882 0.014708324 -0.017233614 0.017458016 0.0083223 0.00093768066 0.06619153
-0.080991186 -0.058571152 0.0753275 0.0017639142 0.006284531 0.031269085 0.011693462 0.04367985
0.108822234 0.014506992 0.03987488 -0.07505013 0.078139566 -0.036900025 0.012576005 -0.014020611
0.03996615 0.07011686 -0.026965216 0.0738243 0.063241996 -0.038779434 0.030993784 -0.018567948
-0.097000055 0.033686038 0.034349684 -0.053915523 -0.020133449 0.013835915 0.040266603 0.010823805
0.07645613 -0.061739 -0.06162335 -0.05367647 0.012795074 0.037378535 0.021016777 0.03318619
0.039656125 -0.07516742 -0.03170856 0.06545323 -0.06521309 0.05399724 -0.0449943 0.097523965
0.06390107 0.03712137 0.10441251 -0.11701566 0.01929458 0.010183267 -0.008662891 0.058019858
0.046266142 0.013127504 0.0051957527 0.018326465 -0.009967097 0.12394241 -0.007956944 0.035004318
-0.01895894 0.012698861 -0.019055514 0.09164088 0.014277724 -0.0051039197 0.026689226 -0.0021169651
0.013255193 -0.042568736 0.023236942 -0.026493674 0.026675634 0.011696009 0.017505335 -0.027442561
0.0012108302 0.046122596 -0.03015484 0.020884363 -0.041394603 -0.04749908 0.0060035973 -0.07530273
0.018353127 -0.04687317 0.0019794337 0.0056560324 0.06494535 0.04281601 -0.048333902 0.04818865
-0.06887978 0.0054834126 0.011275423 -0.03343666 0.10446339 0.015494886 -0.03285843 -0.052178334
0.10057193 0.0503481 0.016795432 -0.01171204 -0.009374193 -5.9818223e-05 -0.046358947 -0.06070014
0.011145428 0.018489163 -0.014954125 0.039388664 0.072085395 -0.0044583264 0.04669517 -0.04175547
0.03603223 0.018718889 -0.07958718 -0.0066684573 0.012917995 0.057657417 0.06367481 0.093418516
-0.059616446 0.07114087 -0.0692932 0.038055286 -0.054579172 -0.04063367 -0.0107131945 -0.030175528
