src/res/GGCL/guided_contra_cross_transformer/Pavia/20/true ss 0.7/_1711771847.pth (torch, 266710 bytes, 37 tensors)

pixel_pos_embedding f4 [1, 170, 32]
00000000: d60a 0b3f 2ed1 53be f099 3dbf af0f 2fc0
00000010: f9bf ec3e af3f 723f cbe9 64be 21d0 c63f
00000020: a1c4 f4bc 1512 adbe d968 273f 2be7 623f
00000030: ef31 c43f 9c65 013e 456e 1f40 05ed acbe
00000040: e202 0940 258d 5ebd 0b7a 6abf 35f5 603d
00000050: 8197 83bf 51f6 0abf 0a51 70bf d036 7a3e
00000060: edea 60bf dae8 ccbf 16c1 0cc0 8976 34bf
00000070: c12f 113f f74d e3bd af36 67be a5d7 083f
00000080: 041a 8cbf b46a 7f3f abee b53e 5294 ed3e
00000090: dcdf 0cbf ad79 9fbd b5e8 1abf c808 14bf
000000a0: 28bd 133f 6f05 23bf 1765 c5bf ed27 10be
000000b0: c4f5 2340 b7d7 963f ec02 4dbf 8a3e b43f
000000c0: 23d4 4cbf d54b 673f 8c61 e6be ccd3 2ebf
000000d0: 7eaf f33e 8dab e1bf 74fa 80bf 46b1 2240
000000e0: 10de e6bf 46a3 dbbf 5e3e df3f df2f 7b3d
000000f0: d858 7d3f 3297 28c0 d4f9 ccbe f7fd 633f
00000100: 5c8b b13b 8cd8 edbe 01da 90bf 3ba2 98bf
00000110: 3b94 683e 0ba2 f3be 4059 353f 2066 3cbe
00000120: 12bc 0b3f 6462 0440 0420 b33e 78f8 ac3f
00000130: efdb 183f 0b36 e6be 6d3e b6bf b52e b83e
00000140: c7cb b53e 6417 b9bf 8f58 2ebe 3e34 9b3f
00000150: c74a 12bf deca d5bf 199b 1d3f d713 ee3e
00000160: 5895 95bd f959 0ac0 39e6 12bf 50f1 c7bf
00000170: 2f31 da3d 24ec c1be b0f0 0f40 3c89 20be
00000180: e02d 47bf 1afe e6be c52d 673f 61cf 3dbf
00000190: 5f50 c33f 4c2b bebd 1e03 2140 a96b 393f
000001a0: 27cf 1f3e 57d2 523d 8040 bfbd 0495 18c0
000001b0: 349e 39be 15c0 cbbd 89c5 d0be 0dc9 443f
000001c0: 73b3 59bd 02c2 823f e563 66bf 753c 78be
000001d0: 3515 febe 1e24 343f 37d1 2a3f 1c7a ccbd
000001e0: 3411 33bf 1f2b 913f 3bee 9abf bf74 28c0
000001f0: 2d0e 973f 1142 b23c e8b3 eabe bd44 85bf
00000200: 8dab b53f 2be6 16bd 2600 773b 6184 dbbf
00000210: df08 4dbf 6438 b03f be60 c83e 9388 2b40
00000220: 9681 c5bf fcf4 f3be 2dd0 9cbf fd5f 09be
00000230: 124e a6bf e8ae 07be 51bf e13f 00c5 013e
00000240: 46c0 2a3f 1f8b 9fbd c367 333f 38d8 15be
00000250: f502 123f ab1b cbbf 5744 a13d 0a1d 35bf
00000260: 883d 1dbf 730b b1bf f78f b3bd 1d97 1dbe
00000270: 5305 09be 3863 053f 59fc d2bd 4028 56bf
00000280: de9c 6e3f d5c4 1d40 aea8 dcbe 0117 cf3b
00000290: cc73 96bf 34f5 f23d 6fdb 393f bb9d 473f
000002a0: 778f 463f d3b0 c83e 44bd a73f c24e aa3e
000002b0: 7806 07bf ffea c73d c525 c9bf 7439 2240
000002c0: c8c6 843e 4055 8cbf 1db3 873d c2e0 463f
000002d0: c18a 253f 643c 723d 4d8a 2c3f eae8 8abe
000002e0: 7f02 55bf 2c08 ef3e 5a52 07be 58a2 04bf
000002f0: dc7d 3dbf 26d2 4a3f 72bd 0b3f c070 08c0
00000300: 328d b03f a59c 03c0 0ce4 88be 46f6 9e3f
00000310: fa55 953f 9812 2abf 8da6 9bbf 5204 993f
00000320: 3ef7 69be b6bd cf3d 7bc8 13bf 7605 15bf
00000330: 5cc6 31bf 097a 57bf c7fe 86c0 8a6b 073f
00000340: 4821 8a3f b7a9 4f3f 4831 7e3f 5390 973f
00000350: 7800 193f a59a 00c0 5f42 653f 1f75 6a3e
00000360: 89fc 0b40 4af0 8dbf 3a0c 37bf 624d 623f
00000370: 4d52 a2be a575 e4be 524b 0240 5294 5bbf
00000380: c6e8 773e b5bf a6be 3d9d 46bf 1df4 8ebf
00000390: 7a60 333d 1995 02bf e47e 573f 3f37 c63c
000003a0: 76a1 2a3f 1df7 363f b5eb 23bf 3cdb 8f3e
000003b0: b6fa ae3f 1d9a 98bf 0fbc 0c40 6f30 21bf
000003c0: c923 2e40 a019 d0bf 84ef 463f 23ef 0c40
000003d0: a50c e03f 08e0 0ac0 a953 41bf 9862 b7bf
000003e0: f4a9 ec3f 1ab2 0cbe 3881 c13e b355 cf3f
000003f0: 8233 d0be 6455 15bf 89f9 d23e 3e89 ea3f
0.5431341 -0.20685264 -0.74063015 -2.7353323 0.46240214 0.94628423 -0.2235481 1.5532266
-0.029878916 -0.33802858 0.6539436 0.88633984 1.5327739 0.12636417 2.4911053 -0.33774582
2.140801 -0.054333825 -0.9159247 0.054921348 -1.028061 -0.542821 -0.93873656 0.24434972
-0.8785847 -1.6008561 -2.199285 -0.7049337 0.5671349 -0.11098855 -0.22579454 0.5345405
-1.0945439 0.9977219 0.35533652 0.46402222 -0.5502908 -0.0778688 -0.6051133 -0.578259
0.57710505 -0.63680166 -1.5421475 -0.1407773 2.5618753 1.1784581 -0.80082583 1.4081585
-0.80011195 0.90350085 -0.44996297 -0.68291926 0.47594827 -1.7630478 -1.0076432 2.54207
-1.8036518 -1.7159202 1.7440908 0.06132495 0.9896369 -2.6342282 -0.40034354 0.89059395
0.0054182243 -0.46454275 -1.131653 -1.1924509 0.22712795 -0.47584566 0.7083931 -0.18398333
0.5458385 2.0685053 0.34985363 1.3513327 0.5971059 -0.44963107 -1.4237801 0.35973135
0.35507032 -1.4460263 -0.1702597 1.2125318 -0.5714535 -1.6702535 0.61564785 0.46499512
-0.07303876 -2.1617415 -0.5738254 -1.5620518 0.10653912 -0.37875473 2.2490654 -0.15677351
-0.77804375 -0.4511574 0.90304214 -0.7414456 1.5258902 -0.09285602 2.5158153 0.724299
0.15606366 0.051470127 -0.09338474 -2.3840952 -0.18126756 -0.09948746 -0.40775707 0.7686928
-0.05314965 1.0215456 -0.89996177 -0.24241813 -0.49625555 0.7036761 0.66725487 -0.09984228
-0.69948125 1.1341285 -1.2103952 -2.6321256 1.1801201 0.021760019 -0.45840383 -1.0411602
1.4192978 -0.0368406 0.0037689297 -1.7149774 -0.8009166 1.3767209 0.39136308 2.6802108
-1.5430171 -0.47647846 -1.225103 -0.13415523 -1.2992575 -0.13250315 1.763651 0.12672806
0.66699636 -0.07790207 0.700802 -0.14633262 0.5703576 -1.5867819 0.07874363 -0.70747435
-0.61422014 -1.3831619 -0.087676935 -0.15389676 -0.13380937 0.5210452 -0.10302038 -0.83655167
0.9320811 2.4651387 -0.43097442 0.006319881 -1.1754088 0.11863175 0.72600454 0.7797505
0.7756266 0.39197406 1.3104634 0.33263212 -0.52744246 0.09761619 -1.5714651 2.5347567
0.25932908 -1.0963516 0.0662596 0.77686703 0.64664847 0.059139624 0.6739853 -0.27130824
-0.83206934 0.46685922 -0.13215008 -0.51810217 -0.7402017 0.7922691 0.54585946 -2.1318817
1.3793089 -2.0564358 -0.26736486 1.2418907 1.1666863 -0.6643462 -1.2160202 1.1954443
-0.22848222 0.10143606 -0.57727784 -0.5821146 -0.694433 -0.84170586 -4.2186007 0.52898467
1.0791407 0.8111834 0.9929395 1.1840919 0.5976634 -2.0094388 0.895544 0.2289624
2.1872885 -1.1088955 -0.7150303 0.88399327 -0.31703416 -0.44621006 2.0358472 -0.85773194
0.2420989 -0.32568136 -0.77583677 -1.1168247 0.04379318 -0.51008755 0.84177995 0.024196265
0.6665262 0.71470815 -0.64031535 0.2809695 1.3670261 -1.1922032 2.1989782 -0.6296453
2.7209342 -1.625782 0.7770922 2.2020957 1.7503859 -2.1699238 -0.7551828 -1.4326963
1.8489366 -0.13739815 0.377939 1.6198028 -0.40664297 -0.5833342 0.41206005 1.8323133

cls_token_pixel f4 [1, 1, 32]
00000000: 243e 713e 20dd 36bf 6d82 793f 89a9 f8bf
00000010: 0719 8b3c 25ad 75bf c065 e1be 47f7 9a3f
00000020: 2077 2c3e 97b1 9d3e 9684 f0bf 1cfa bc3e
00000030: 2192 133f 1c16 5bbd 5fc1 a83f 5ade bd3c
00000040: 1830 343e 6b29 d5be 02b3 183f 1a01 543f
00000050: 6d84 70bf abd6 c1bf 943e d63e db64 ac3f
00000060: 7ba8 683d 8e3c 6ebf bc74 d23f 3226 593f
00000070: 4317 68bf 1fd5 8fbe 818b 943f d543 8a3e
0.23558861 -0.7143116 0.9746464 -1.9426738 0.016979707 -0.9596732 -0.44022942 1.2106713
0.16842318 0.30799553 -1.8790462 0.36909568 0.5764485 -0.053487882 1.3184012 0.023177315
0.17596471 -0.41633162 0.59648144 0.8281418 -0.93952066 -1.5143636 0.41844618 1.3468279
0.0568013 -0.9306115 1.6441875 0.84823906 -0.90660495 -0.28092286 1.1605073 0.27004877

pixel_patch_embedding.weight f4 [32, 30]
00000000: a442 9cbd 3008 99bd 2090 753d 5878 af3d
00000010: b0ba 80bd 1317 d4bd 9a7c ddbd a85e 8b3c
00000020: 9cec 29be 4495 b13d 681c a33c d3f5 26be
00000030: be6c 063e 663b 0a3e de20 2f3e 0b88 e6bd
00000040: ac16 a93d 8f12 c3bd 1480 493d 23bb efbd
00000050: cf4f e5bd f0a4 e53c 8e19 a7bd 62d9 1abe
00000060: 4412 1e3d 46c9 27be 80dc babc c617 15be
00000070: baeb 173e 7758 03be b867 eb3d 3a17 7fbd
00000080: 88fa b03d 28af bbbd 1eff b9bd 300c c13c
00000090: ec67 3abe 9820 a03c 4abe 0dbe 647c c23d
000000a0: 48cc 373e 0c4b f53d 1523 2cbe 1834 fcbd
000000b0: 0c1d 313e 0044 373c 44cf 4e3d 36fe 1b3e
000000c0: 78d8 87bc 60ee 7fbc b013 db3c 18f2 99bc
000000d0: 201d 57bd 14aa 723d 7cea 9fbd 3858 2c3d
000000e0: 600d a23b d817 b43d d47f ef3d dc55 e23d
000000f0: ca64 243e 608b f0bd b802 903d 888e 0ebd
00000100: bcb4 fe3d 7087 31bc 381b cc3d 44cc 973d
00000110: 30c9 edbc 029e 043e bceb 753d a05a 36bd
00000120: b2b6 853d 004c 403d e87c 453d 8350 ddbd
00000130: aee8 09be 549f e53d bbca cabd c027 7fbd
00000140: 04d2 e83d 80c7 923d 1270 383e fbeb 30be
00000150: dccb ec3d e0db 74bd 40e7 763c 8694 a5bd
00000160: 8b9b 11be 024a 21be 808b e83a 0033 44bb
00000170: d44a cfbd b001 f53d 904c 7f3d f847 9bbc
00000180: 04ff c33d e0b5 d43b ac85 f5bd c039 9ebd
00000190: 658d e9bd c030 a63d b428 91bd d7f6 2bbe
000001a0: 60ed 7abc 2482 133e c0fd c9bb b4f9 323d
000001b0: a0ee ab3c d63a 29be cc86 443d 605b 1abe
000001c0: 700e 73bc 24f2 763d 7c94 b9bd 54fd 6f3d
000001d0: a0d0 8f3d f087 e4bc b5a8 d3bd 0c7d 18be
000001e0: 4160 98bd 24da 053e 7838 e23d e88e 14be
000001f0: ac35 d33d 4823 37be 80aa cdbb 98d9 31bd
00000200: a0bc 7e3d a88e 183e 20b0 24bd f4a9 f73d
00000210: 8c7e 0cbd 73f0 1bbe 9684 293e 402c 703d
00000220: 90d2 4d3c fdb8 88bd 31ff 15be ec46 0f3d
00000230: f433 a43d 83b4 11be fc22 043d 4f07 aebd
00000240: e7d6 8dbd 742b 8b3d 149f 633d 7650 99bd
00000250: e417 ae3d 87d0 33be 726c 81bd 3958 27be
00000260: 2cb6 aa3d 907d 963d 7873 313d ba63 353e
00000270: fc25 aa3d f429 45bd f3b1 35be 0c0a c0bd
00000280: aeab 99bd 3085 07bc 5c94 193e 18fd 013e
00000290: 689c 03bd f0ed 883c dc4a a73d 7c9c fcbd
000002a0: 80aa c53a 002c 343a b220 b1bd 12ba 0b3e
000002b0: 5876 2c3d 28ab 0abd 485a d73c e24b 98bd
000002c0: d04a 763c 1d60 34be c8f5 143e 6df1 04be
000002d0: c015 82bb 3493 33bd b733 04be b01a 55bc
000002e0: c0d2 8e3d ec09 043e 82d6 153e 18c7 0d3e
000002f0: b895 ddbc d0c8 3a3c 9833 8bbd 2462 e53d
00000300: 349f 58bd b003 29bc 1a06 2dbe 6e2a 313e
00000310: de86 043e 88d9 2ebd b038 bc3d b653 2c3e
00000320: 78d1 df3d 88fb debd 2d36 13be f0c9 fa3c
00000330: d8ba fbbd 9ccc 36be a8ba a0bc cc8e 2fbd
00000340: 7071 343e 3b30 b3bd 5e40 1d3e 60dd dd3c
00000350: d447 1c3d ac69 e53d 0c4d d13d 1284 253e
00000360: fa75 d3bd 1d59 c7bd fca2 28bd 5e24 243e
00000370: 68e4 8f3c 4eb2 8cbd c844 a13d 0046 723d
00000380: 1c90 953d c09a cf3b 30eb 823c 5455 083e
00000390: 51d4 96bd c07c b13b e882 dd3d a849 d9bc
000003a0: b00f 7abc 3ab2 a6bd 837e 27be 585c 8dbc
000003b0: 8ce7 0f3d 1aa4 2bbe 6c4c 763d 3881 913d
000003c0: f5c6 c4bd 75b6 9ebd a77c e1bd 408c 52bb
000003d0: 24eb f03d 7857 c63c 1091 15be 2c8a 38bd
000003e0: 995a 84bd c0c3 b4bc 928e 78bd d60a 073e
000003f0: 34c5 ae3d d0ce 1c3d 467e 28be a299 09be
-0.07629898 -0.07472265 0.0599519 0.085678756 -0.06285608 -0.103559636 -0.108147815 0.017012909
-0.16594166 0.08671048 0.019911006 -0.16304712 0.1312742 0.13499221 0.17102382 -0.11256417
0.082562774 -0.09525024 0.04919441 -0.11705615 -0.11196863 0.02803275 -0.08159171 -0.15121987
0.03859164 -0.16385373 -0.02281022 -0.1455985 0.14836016 -0.12826715 0.11494392 -0.06227801
0.08641535 -0.09164268 -0.09081863 0.023565382 -0.18203706 0.019546792 -0.13842121 0.09496382
0.17949021 0.11977205 -0.16810258 -0.123146236 0.17296237 0.011185646 0.050490633 0.15233693
-0.016582713 -0.015620798 0.026742786 -0.018792197 -0.05251801 0.05924423 -0.07808396 0.04207632
0.004945442 0.0879361 0.11694303 0.110515326 0.16054073 -0.11745334 0.070317686 -0.034803897
0.12436816 -0.0108355135 0.09966129 0.074120075 -0.029026598 0.129509 0.060039267 -0.04452002
0.06528987 0.04694748 0.048214823 -0.10806372 -0.13467667 0.1121203 -0.09901949 -0.062293768
0.11368182 0.07166958 0.18011501 -0.1727752 0.115623206 -0.05978 0.015069783 -0.08084969
-0.14219491 -0.15750888 0.001774177 -0.0029937625 -0.10121694 0.119632125 0.062328875 -0.018955216
0.09570125 0.0064914078 -0.119883865 -0.07725859 -0.11403922 0.08114767 -0.07087842 -0.1679338
-0.015315384 0.14405113 -0.0061642826 0.043695167 0.020987809 -0.1652635 0.047980115 -0.1507392
-0.014834985 0.060289517 -0.09061524 0.058591202 0.07022214 -0.027896851 -0.10334913 -0.14891452
-0.07440234 0.13071495 0.11045927 -0.1450764 0.103129715 -0.17884552 -0.0062764287 -0.043420404
0.062191606 0.14898169 -0.04020703 0.12092963 -0.034300372 -0.15228443 0.16554484 0.05863595
0.012562409 -0.06675909 -0.14648129 0.034979746 0.08017722 -0.14229016 0.032259926 -0.08497488
-0.06925755 0.067953974 0.05557163 -0.0748605 0.085006505 -0.17560016 -0.063195124 -0.16342248
0.08335528 0.07348168 0.04332301 0.17713824 0.08308026 -0.048135713 -0.17743663 -0.09376916
-0.075034484 -0.0082715005 0.14998001 0.12694204 -0.032131582 0.01671502 0.08168575 -0.123345345
0.001508072 0.00068730116 -0.08648814 0.13645199 0.04210505 -0.033854634 0.026288167 -0.074363485
0.015032485 -0.1761479 0.14546883 -0.12982722 -0.003969878 -0.043841556 -0.12910353 -0.013006851
0.06973791 0.1289441 0.1463261 0.1384548 -0.02704893 0.0114004165 -0.0679695 0.112003595
-0.052886203 -0.010315821 -0.16896859 0.17301342 0.12942073 -0.042687923 0.091905 0.16828808
0.10928625 -0.108878195 -0.14376135 0.03061387 -0.12291497 -0.1785149 -0.019620255 -0.04286079
0.17621398 -0.087494336 0.15356585 0.027083099 0.03815444 0.11201796 0.10219774 0.16163662
-0.103252366 -0.09733794 -0.04117106 0.16029498 0.017564967 -0.068699464 0.07874447 0.05914879
0.07302877 0.0063355863 0.015981287 0.133138 -0.07364715 0.0054164827 0.10815984 -0.02652438
-0.015262529 -0.08139463 -0.16356854 -0.017255947 0.03513293 -0.16761819 0.060131475 0.07104725
-0.096082605 -0.07749645 -0.11010104 -0.0032127053 0.117635995 0.02421163 -0.14606118 -0.045053646
-0.06462593 -0.022065997 -0.06068284 0.13187727 0.08533707 0.03828317 -0.1645442 -0.13437513

pixel_patch_embedding.bias f4 [32]
00000000: f2ab ebbd c06c 823b 4079 cd3b f089 27be
00000010: 704d e03c 22b1 9cbd 7080 e13c 60ac 623c
00000020: 8027 a23a 50c7 453c 80dc 283d 5d30 a0bd
00000030: ca87 07be d637 093e f0ff a6bd e09a f8bd
00000040: 006f 823d b830 343e a0d9 e93d 0c7b cf3d
00000050: 5b2b 20be cef7 8fbd acf5 25bd 168c 2dbe
00000060: 320f 10be 0056 25bc 14a5 18bd 7c5c 193e
00000070: 3c68 023d 79c4 f3bd 80d3 dd3b 1cd3 233e
-0.11507405 0.003980249 0.0062705576 -0.16361213 0.027380675 -0.07650973 0.027527064 0.013835043
0.0012371391 0.012071446 0.04122591 -0.078217246 -0.13235393 0.13400206 -0.08154285 -0.12138915
0.06368828 0.1759671 0.11418462 0.10130891 -0.15641539 -0.07029687 -0.040517494 -0.1694797
-0.14068297 -0.010091305 -0.037266806 0.14976686 0.031837687 -0.119027086 0.0067695975 0.159985

local_trans_pixel.layers.0.0.fn.norm.weight f4 [32]
00000000: 4517 8a3f 34f6 933f d382 8e3f 06a8 8c3f
00000010: fe0a 913f 0743 8f3f 8c1f 893f 9ba3 9e3f
00000020: 5c62 8d3f 26a4 963f 8156 903f 5553 8f3f
00000030: a97f 923f e246 913f 2566 8f3f 009e 953f
00000040: 511c 8f3f c010 953f 1e64 903f 53d3 943f
00000050: 0a01 903f 22d1 933f bba3 8e3f 6806 903f
00000060: 6b51 963f 47f7 8a3f 020e 8f3f a7dd 9b3f
00000070: 3c1d 8a3f cbfb 923f 478a 943f f629 8d3f
1.0788351 1.155951 1.1133674 1.0988777 1.133148 1.119233 1.0712752 1.2393678
1.1045642 1.1768844 1.1276399 1.1197306 1.1445209 1.1349757 1.1203047 1.1688843
1.1180516 1.1645737 1.1280553 1.1626991 1.1250317 1.1548197 1.1143717 1.1251955
1.1743597 1.0856713 1.117615 1.2177018 1.0790172 1.1483091 1.1604699 1.102843

local_trans_pixel.layers.0.0.fn.norm.bias f4 [32]
00000000: e8a4 083d f40c 8dbd b24a 8e3c 5f42 32bd
00000010: 8b7d a8bc 6080 633b ccf5 b7bc 355c d33d
00000020: cdf5 ee3c ac83 e03b 2367 08bc a826 3e3d
00000030: cd0c 293d e659 e83b 40eb 913d e18f 3b3d
00000040: a284 153d 096d 2bbd 2eff 823d 0ee6 9b3c
00000050: ae78 41bd dce3 96bd d5c6 16be c890 e13c
00000060: 02d6 13bd 1894 51bd d09d c7bd 5858 5f3c
00000070: 266e b0bc e7e0 0dbd 77b0 f93b 6d82 913c
0.03336039 -0.06887236 0.017369602 -0.043520328 -0.020567676 0.0034713969 -0.022456072 0.103203215
0.029169941 0.006851634 -0.008325371 0.046423584 0.041271973 0.007090795 0.071249485 0.04579151
0.03650344 -0.04185203 0.06396328 0.019030597 -0.04723423 -0.073676795 -0.14724286 0.027534857
-0.036092766 -0.051166624 -0.09746897 0.013631903 -0.021536898 -0.03463831 0.007619913 0.017762387

local_trans_pixel.layers.0.0.fn.fn.to_qkv.weight f4 [768, 32]
00000000: 9eb4 85be 1529 883d 795a 06bc dd0d 20be
00000010: bd25 1c3e 7b46 ae3d 908e 61bd 91c8 e3bd
00000020: 6317 003e 9f21 0dbe 5993 8dba 041b 0b3d
00000030: a181 e53d 194e d3bd 22e7 a73d 1602 9f3e
00000040: d8ff 803a 607b 0f3c 91c8 813d 84bb 9c3d
00000050: 2311 1cbc 184c 5a3e 4779 313e 63bf 87be
00000060: 0602 273e 8f37 a13c d7d4 af3d 2f02 5a3d
00000070: 8ebf 31be d266 8cbe 4df6 4fbc cc37 773c
00000080: 0e2b 683d 8341 173e 0c46 3fbe 8207 07bd
00000090: 89da 16be 1787 91bd fdb2 0dbc 0261 16be
000000a0: 9208 7f3e 7668 703e 53b7 8cbd 2d74 65be
000000b0: a60d b7bd 89be 22be 2f4e 19be 3a24 41bd
000000c0: fd51 2c3e a18b ce3c afcd 413d 93b5 71bc
000000d0: c046 27be 0eb5 2bbe b99b bfbd b0cc c4bd
000000e0: 101e eebd 3b11 e2ba b206 44be 20df 11be
000000f0: 56db 5c3d 99a3 db3d 39a7 81bd f7cf 363d
00000100: dea7 01bb 3424 b8bd 1437 2e3e 26b4 6bbe
00000110: e2c0 b0b9 adb0 9dbd 8554 0ebd 0406 253d
00000120: 460a cbbd f313 683e 07c0 65bd badf b13d
00000130: 6e54 0e3d 0f7a 36be 403a 0f3e 9fd1 63be
00000140: 1ffe 4b3e 2340 513d 2b45 033e 16cb 01be
00000150: 3995 d3bd 306c ea3d 4677 8bbd f55b 8c3d
00000160: 7a1c 16bd 0433 acbd 9688 793b 1eff 80be
00000170: 7fd3 df3d 3577 703d b225 f73a 1903 e6bc
00000180: 82d2 803e f715 1d3d 4eed 5fbd be0f 0cbe
00000190: 0156 9ebb a874 3abe b6ea 7f3d 87c6 1a3e
000001a0: 4bc0 00be 50b3 7c3e f4a4 153e 18c3 c7bd
000001b0: 08f1 edbd 7a45 a2be 6d25 8f3d 2ded 86be
000001c0: 5a86 9e3b e37f a5bd e348 d33d 2f7c 013e
000001d0: 739f 0e3d 2426 b63d 0924 06be f3ac 383e
000001e0: 7ff7 423e 4434 ea3d 41e5 0cbd 600f 88bd
000001f0: 1b2d e2bc f2ec d13d ae5d 343e bbb2 193e
00000200: bb43 84bd c780 25bd f0de db3d 2753 283d
00000210: 302c ff3d f682 b3bd 494d 16be 8681 36bd
00000220: b2c1 1b3d d12f 81be 7609 f23d ce63 813e
00000230: 0806 ba3c 428e 123e d4c4 dbbd e155 d93d
00000240: bf48 983d 6d22 25bd b4ca 243d d9ab 893d
00000250: 2bc9 6a3d ed6a ed3d 8267 933d ffc3 05bd
00000260: 1cc6 5dbe 7b3c e03d f05b 933c f3fb ddbd
00000270: f637 b03c f840 cbbd bed8 073b f456 aabb
00000280: 5625 583d 087c d0bd 1105 4cbd b74a 9dbd
00000290: ce67 003e d74c 00be 1329 0b3e b83d b43c
000002a0: a7ee 80bc 2cab 6a3d 1c1d bcbd 7021 f93c
000002b0: 9d85 0bbd e6a6 26be fc2b 0bbd 6132 83be
000002c0: 93c8 ac3c a72e 6bbc b2af 173c 6775 6a3d
000002d0: 7403 dc3d 3c79 1bbe 968f 8abd 4064 10be
000002e0: 62de cfbd f510 17be 47cc ba3d 56e6 66bc
000002f0: 8a7f 94bd 4067 a03d f258 2f3e 7391 633e
00000300: 7075 5cbd edd4 acbd a0fc 0a3e 779b 37be
00000310: 5d55 8238 f98a b63d 7575 343d 0d2e 2abe
00000320: a3d9 17be ce33 973c 6dde 9fbd 5774 49be
00000330: c0d1 1d3d 2b4b 67bd 7e3b eebd 87ea d8bc
00000340: 8a26 743e b10c cd3d 54af 7bbe 4998 8c3d
00000350: 2823 08be 91a9 703d 224c 65bd 5b76 4a3e
00000360: 7bb8 74bb c6c1 eebd ab81 363e 24fb 0a3d
00000370: 7e61 f0bc e046 343e bc90 783d 67c3 c33d
00000380: b79a 69bd e700 9bbd 37f6 ae3d a1bd f73d
00000390: 9fa6 a43c b3f9 3bbc 6898 7f3e 48ce 04ba
000003a0: 6bd4 183e ca57 8a3c 3f9f d3bc da6e 5ebe
000003b0: 589b 563d 5fd7 02be 5b57 03bd ebb1 e63c
000003c0: c25f 08be b66a d43d 1136 ddbd d9b3 313e
000003d0: 889f b03d 1911 60bc be02 f0bc fa07 61be
000003e0: 9a99 8ebc 79c8 94bd 5b43 353d e678 2ebe
000003f0: 9a02 56bd c870 e8bc 4d45 d13d fe07 4f3e
-0.26114362 0.06648461 -0.008200281 -0.15630288 0.15248771 0.08509537 -0.0550676 -0.111222394
0.12508921 -0.13782357 -0.0010801359 0.03396131 0.112063654 -0.1031763 0.08198382 0.3105628
0.0009841872 0.008757442 0.06337083 0.07652953 -0.00952557 0.2131809 0.1733142 -0.26513204
0.16309366 0.019679813 0.08585518 0.05322474 -0.17358229 -0.27422196 -0.012693 0.015088987
0.056681685 0.14771084 -0.18679065 -0.032966144 -0.14731802 -0.071058445 -0.008648631 -0.14685443
0.24905613 0.23477349 -0.06870904 -0.22407599 -0.0893815 -0.15892996 -0.14971231 -0.04715369
0.16828151 0.025213065 0.047315296 -0.014752763 -0.16335583 -0.16768286 -0.093558736 -0.096093535
-0.11626828 -0.0017247567 -0.19143179 -0.14245272 0.053920113 0.10724563 -0.06330723 0.044631924
-0.0019783895 -0.0899128 0.17013198 -0.2301794 -0.00033713045 -0.07699714 -0.034748573 0.04028894
-0.09914069 0.2266386 -0.056091335 0.086852506 0.034748487 -0.17819999 0.13987064 -0.22247933
0.19921158 0.051086556 0.12819354 -0.12675127 -0.10331196 0.114464164 -0.06809859 0.06853477
-0.03664825 -0.08408168 0.0038075796 -0.2519464 0.109290116 0.058707435 0.0018855839 -0.028077649
0.25160605 0.038351025 -0.05466967 -0.1367788 -0.00483203 -0.18208563 0.062479697 0.15114795
-0.12573354 0.24677777 0.14613706 -0.09754008 -0.11618239 -0.3169363 0.0698956 -0.26352826
0.0048377933 -0.08081033 0.103166364 0.12645029 0.03482003 0.088939935 -0.13099684 0.18034725
0.19039725 0.1143575 -0.03439832 -0.066435575 -0.027609399 0.10250272 0.17613861 0.15009587
-0.06458231 -0.040406015 0.10735881 0.041094925 0.124596 -0.08765213 -0.1467792 -0.044557117
0.03802652 -0.25231794 0.11818211 0.25271457 0.022707954 0.1431208 -0.10730901 0.10612083
0.0743575 -0.040316034 0.040232375 0.067222305 0.057320755 0.1159266 0.07197477 -0.03265762
-0.21657604 0.10949036 0.017988175 -0.10839071 0.02151106 -0.09924501 0.0020728554 -0.005198354
0.05276998 -0.10179907 -0.04980952 -0.07680266 0.12539598 -0.12529312 0.13589887 0.022002086
-0.015738798 0.05729215 -0.0918524 0.030411452 -0.03406297 -0.16274604 -0.033977494 -0.25624374
0.021091735 -0.0143543845 0.009258198 0.05724087 0.10742846 -0.15182966 -0.06765668 -0.14100742
-0.10149838 -0.14752562 0.09120994 -0.014093002 -0.07250889 0.078321934 0.17123774 0.22223453
-0.053822935 -0.0843905 0.13572931 -0.17930399 6.214783e-05 0.08913226 0.04405733 -0.1661913
-0.14829116 0.01845732 -0.07806096 -0.19673286 0.03853011 -0.05646817 -0.11632441 -0.026479019
0.23842826 0.10012186 -0.24578601 0.068649836 -0.13294661 0.05875546 -0.05598081 0.19771712
-0.0037341404 -0.11658053 0.17822902 0.033930913 -0.029343363 0.17605162 0.060684904 0.095587544
-0.057032313 -0.075685315 0.085430555 0.12096716 0.020098982 -0.011473107 0.24960482 -0.00050661387
0.14924781 0.016887564 -0.02583277 -0.21721974 0.05239424 -0.1277747 -0.03206573 0.02816101
-0.13317779 0.10371916 -0.10801328 0.17353763 0.08624178 -0.013675951 -0.029298183 -0.21975699
-0.017407227 -0.072647996 0.04425369 -0.17038307 -0.052248575 -0.02837409 0.10218296 0.20217893

local_trans_pixel.layers.0.0.fn.fn.to_out.0.weight f4 [32, 256]
00000000: 9e2c d0bd e872 6cbd 7f9f 8abd 91b6 d83d
00000010: 2f7a c63d 7c8b 993d d1e3 913c 7711 613d
00000020: c6d1 593c 06ab d6bd 0589 b73c 45da 773d
00000030: 4f6a 353d 81d8 02be 853d 503d 570c a03d
00000040: 4ce8 393c f0d6 a9bd 858c ebbc 3f39 e73d
00000050: a0ed 3f3d 5738 3a3d b41a d4bc 899b 293e
00000060: 34da ffbd d7db 773d 8b44 ee3c c8b0 23bd
00000070: 97dc 393b 9cad 4abc d35f 06bd 680b 61bc
00000080: f7f8 73bd 2024 b83c 969d 04bd 3492 a33d
00000090: 3d40 ac3d ea23 abbc d27a 333d 92a8 853e
000000a0: 2bfb c5bd dc96 c73d f2ea d6bd bc37 6bbc
000000b0: 829e 743d 8fc2 a63d 9890 3abd 1cc7 bebd
000000c0: 7961 a1bd 4f2f 3cbe 134d cebc 065c 60ba
000000d0: 77de a3bc aa5e bc3d 313d 4dbe 18da 023e
000000e0: 8a52 95bd ebb1 eabd 09e1 1b3d d9e1 cebd
000000f0: 7a33 b13d 4c1d e8bc 1b1a 8abd 5e72 d23b
00000100: 5f82 013e ae48 db3c 201c f03d 0b30 aa3c
00000110: 8d7f fa3d 44fa 95bd 207f 3bbc cbf4 383d
00000120: 499e acbc 3d38 3f3b 1c1b 193d e63c 993b
00000130: cd1c b63b 4303 bebb 8efc b33c 7397 823c
00000140: 2ccd d6bd 3ec8 a13d ab63 d83c 8f49 d93d
00000150: 5e59 4fbd 42bf 713d f792 093d 6166 43bd
00000160: 9857 d6bd 224d 3ebc 3d71 df3c a5f2 d23c
00000170: d55f 3b3d 8b1f 7abd e64d 823d cd60 55bd
00000180: f46f 983d a3ed fdbd 98a0 d7b9 86be c5bd
00000190: cc5c 763d 4b8a 0b3d e20b e5bd 83fc 59bd
000001a0: 52c8 a53b 2506 9dbb a32f 3a3d 8bcc b4bd
000001b0: 8936 1ebd f06b 09be 42af 9bbd 35f7 b3bd
000001c0: 2236 f4bc 4139 2bbd 8e26 24be 99d4 45bb
000001d0: f11d dc3d 7975 9f3d 459b b83b eff3 683d
000001e0: 513a 01be c9d1 7abc b61d dabc 3d6a 3a3d
000001f0: ff1f c43d 52e2 f6bc aaf6 52bd 9a18 903d
00000200: 76d6 96bd 22da 363d 9d76 a8bd 50a3 51bd
00000210: a2ac 3d3d e0dc fabd 5942 113d 6b3e f5bd
00000220: e7b6 afbc 4ed6 383a 3467 c4bc 0ce8 eb3d
00000230: 4ede b8bd 1d88 b13d 1158 fcbd 73b9 0f3e
00000240: 6478 0fbd 2ff2 a2bd d1a5 c13c bcd7 9abd
00000250: 74a7 f23c 6a80 a53d cddc ea3c a09c 303d
00000260: 8d1a 5c3d e39e 11be 0820 ccbd edf9 a0bd
00000270: 504b 6b3c 869a 8b3c a7a9 8b3d 88b4 ac3d
00000280: 5722 eabc 45dc 78bd 117e a8bc e442 88bc
00000290: 2e43 773d 7c2a c2bd 399d 08be fcf2 bfbd
000002a0: 6227 6bbd 2ab3 983b d990 cebc 82f3 20bc
000002b0: 4a82 b73d f369 6e3c 791e a1bd 7b61 8b3b
000002c0: b7ca cdbd 4fda 003b 3620 273b 0b2e 9e3d
000002d0: 29ab cc3c 7378 783d 1fb6 34bc 13d8 4a3d
000002e0: 88bb 94bc e98c 103d 2c38 8ebd 1f65 5abc
000002f0: 6363 00bd 0709 133d 7c92 32bc 904a 903d
00000300: f43b a8bd be89 3c3d 49ef 63bd 6991 b0bd
00000310: 016b ad3d 1e10 86bc 7b15 0bbe 6fdf 37bc
00000320: 0e8f 623d 027f 3cbc 9d85 0dbd 198c f6bc
00000330: 2f52 8d3c d032 843d a362 b2bd ebdd 5a3c
00000340: 13fb 30be 59c7 7dbd 9a6c cbbd 22e7 563b
00000350: 0f6e 373a 79fb cbbd 0e09 693d 57a0 c13c
00000360: 29fa f73d 1fda 0c3e 3674 86bd 60b1 97bb
00000370: 8c70 043d ac3b c63d 96a9 a5bd 412e 21bc
00000380: b83f 593d 9fc7 a2bd 6c03 6bbd d37a bcbd
00000390: 6e6e afbb 1847 98bc 2ade 68bd d27d 74bd
000003a0: 458e 6d3c c32b febd 2695 94bb c20a 13be
000003b0: 7cae 06bd b8d2 3dbd ffd5 903b baba 2cbd
000003c0: 05ec 2d3d 99ee 2e3d 3c96 9e3c 7a5e c0bd
000003d0: 1253 f8bc 4c8b 793d c6ef d43d b567 0e3d
000003e0: a858 ba3d 60ea f13c c76b 203c 112c 70bb
000003f0: 03b3 b83d d48a 4cbd 6140 973d 5559 653b
-0.1016476 -0.05772677 -0.06768703 0.10581697 0.096912734 0.07497308 0.017808827 0.054948296
0.013294643 -0.10481839 0.022404203 0.060510892 0.044290837 -0.12777902 0.05083992 0.07814854
0.011346888 -0.08292949 -0.028753528 0.11290216 0.046857476 0.045463886 -0.02589164 0.16563238
-0.12492791 0.06051239 0.029085418 -0.039963514 0.0028360242 -0.012370493 -0.03280623 -0.01373563
-0.059563603 0.022478163 -0.03237685 0.079868704 0.0841069 -0.020891149 0.043818302 0.2610517
-0.09667047 0.09745571 -0.10494031 -0.01435655 0.059721477 0.08142578 -0.04554805 -0.09315321
-0.078799196 -0.18377422 -0.025183236 -0.00085586344 -0.02000354 0.09197743 -0.20042874 0.12778509
-0.07291134 -0.114597164 0.038056407 -0.10101671 0.086523965 -0.028334282 -0.067432605 0.006422325
0.12647389 0.026768055 0.117241144 0.020774862 0.1223136 -0.07323125 -0.011443883 0.045155328
-0.02107157 0.0029177808 0.03737937 0.004676449 0.0055576325 -0.0057987287 0.021971013 0.015941357
-0.10488352 0.07899521 0.026414713 0.10609733 -0.050622337 0.05902029 0.033587422 -0.047705058
-0.10465926 -0.01161507 0.027275676 0.025750468 0.04574569 -0.061065238 0.06362514 -0.05209427
0.07443228 -0.12398841 -0.00041127647 -0.0965548 0.06014709 0.034067433 -0.11183907 -0.05321933
0.0050592804 -0.0047919923 0.045455586 -0.08828076 -0.038626228 -0.13420081 -0.07601787 -0.087873854
-0.029810969 -0.04180265 -0.16030332 -0.0030186533 0.10747898 0.07786078 0.005633744 0.05687326
-0.12619902 -0.015308806 -0.026625495 0.045511473 0.09576415 -0.030137215 -0.05150477 0.070359424
-0.07365124 0.04464162 -0.08225749 -0.051181138 0.046307214 -0.1224916 0.035463665 -0.11974796
-0.02144952 0.0007050977 -0.023974992 0.11518869 -0.09026776 0.0866854 -0.12321485 0.14035587
-0.035026923 -0.07956349 0.023638638 -0.07560679 0.029620863 0.08081134 0.02866974 0.04311812
0.05373626 -0.14220767 -0.09967047 -0.078601696 0.014361218 0.017041456 0.06819468 0.08432871
-0.028580828 -0.06075694 -0.020567926 -0.016633458 0.060366802 -0.094807595 -0.13341226 -0.093725175
-0.057410605 0.00466003 -0.025215553 -0.009823682 0.089603975 0.014551627 -0.0786714 0.004253564
-0.100484304 0.0019661372 0.0025501377 0.07723626 0.02498396 0.060661744 -0.011029749 0.04952247
-0.018155828 0.035290632 -0.06944308 -0.013329773 -0.031344783 0.03589728 -0.010899182 0.07045472
-0.0821456 0.0460298 -0.055648122 -0.08621485 0.08467675 -0.016365107 -0.13582413 -0.011222704
0.05531221 -0.01150489 -0.03455125 -0.0300961 0.017251102 0.06455004 -0.0871022 0.013358573
-0.17283277 -0.06195769 -0.099328235 0.0032791574 0.0006997296 -0.09960074 0.0568934 0.023636026
0.12108261 0.13755082 -0.06565134 -0.004629299 0.032333896 0.0967935 -0.080889866 -0.009837688
0.053039283 -0.07948231 -0.05737631 -0.09203114 -0.0053537404 -0.018588588 -0.056852497 -0.059690304
0.014499252 -0.12410691 -0.0045343814 -0.14359573 -0.032881245 -0.046343535 0.0044200416 -0.042170264
0.042461414 0.042708013 0.019358747 -0.0939302 -0.030313049 0.06092386 0.10397296 0.03476687
0.09098941 0.029530704 0.009791321 -0.003664736 0.09018519 -0.049937084 0.07385326 0.0034995873

local_trans_pixel.layers.0.0.fn.fn.to_out.0.bias f4 [32]
00000000: 0ada fa3b 6971 993c e16a e43c c9de aa3c
00000010: 4f92 a0bc 4064 bebc 4df8 e8bc bbb1 4abd
00000020: f39f e9bb 5b3b 873c 436b fabc 5a2d 813d
00000030: eced 293d 10c0 fbba eb13 173d 8a3e 3f3d
00000040: 1ba3 773c 45e4 d6bc 7a1f 66bc 486d 59bd
00000050: 0d3c 87bc 3fbe d63d 6dd7 953d 7486 f43c
00000060: bd26 783d f097 68bd 0b1f 99bc 7cf8 e9bd
00000070: 7a01 563d 79a0 c6bc a3ad 5ebd 2601 93bd
0.007655387 0.018730836 0.027882995 0.020858185 -0.019601015 -0.023241162 -0.028438712 -0.049485903
-0.007129663 0.016507795 -0.030568724 0.06307478 0.041486666 -0.0019207019 0.03688423 0.0466905
0.015114571 -0.026231894 -0.014045591 -0.053082734 -0.016508127 0.10485505 0.0731648 0.029849268
0.06058382 -0.056785524 -0.01869156 -0.11424348 0.052247502 -0.024246441 -0.05436481 -0.071779534

local_trans_pixel.layers.0.1.fn.norm.weight f4 [32]
00000000: a859 823f 15b2 903f ec4d 963f 6830 803f
00000010: 151c 793f 49ca 943f 3476 7f3f ef20 883f
00000020: d999 813f 4b5e 983f eba9 833f fef4 873f
00000030: dd0d 8a3f 9517 803f 8ba5 823f afe9 8c3f
00000040: 7936 8c3f 2731 973f 741f 913f 69c1 853f
00000050: b949 8a3f 5aa5 833f 555e 813f 1880 8c3f
00000060: efdd 8a3f a263 843f 9090 913f c24d 813f
00000070: 8141 8e3f 1b6f 9f3f 0c7e 873f ec0f 893f
1.0183611 1.1304346 1.174253 1.0014772 0.97308475 1.1624233 0.9978974 1.063505
1.0125076 1.1903776 1.028623 1.0621641 1.0785481 1.0007197 1.020677 1.1008815
1.0954124 1.1811875 1.1337724 1.0449649 1.0803748 1.0284836 1.0106913 1.0976591
1.0848979 1.0342906 1.1372242 1.0101855 1.111374 1.2455782 1.0585341 1.0707984

local_trans_pixel.layers.0.1.fn.norm.bias f4 [32]
00000000: 71bf 26bb 8e0f 6f3d 078e 22bd 00a1 89bc
00000010: 613c 51bc e41a 00bd 39c7 a63b f63a 7bbd
00000020: 54db 8cbc 28c8 413b 1a4f dd3b c3a9 e53b
00000030: d409 d83c 4589 aebc efd2 9cbc b504 d53c
00000040: 7e59 65bb 61d6 14bd 8401 dd3c aa23 acbc
00000050: 3857 853a 4d42 10bc c993 3f3c a69e 203c
00000060: 7667 c2bc a198 e3bc ffeb cfbc 2d07 85bc
00000070: 502c 0b3c de0e 09bc a202 b23a c74f 583d
-0.0025443698 0.058364443 -0.03968623 -0.016800404 -0.012770743 -0.031275645 0.005089667 -0.061335526
-0.017194428 0.0029568765 0.0067538144 0.0070087626 0.026371874 -0.02130569 -0.01914355 0.026003221
-0.0034995968 -0.03633726 0.026978262 -0.0210131 0.0010173088 -0.00880487 0.01169295 0.00980345
-0.023730975 -0.02778274 -0.025381086 -0.016238773 0.008494452 -0.008365361 0.0013581107 0.052810457

local_trans_pixel.layers.0.1.fn.fn.net.0.weight f4 [8, 32]
00000000: 459e ba3d 9f53 043e c074 b73c c329 adbd
00000010: 3069 3ebc 7e49 39bd 4e70 a83d aefc aabd
00000020: 6c40 26be 2336 403e b3a9 323e d531 67be
00000030: 45bf 663d b165 2ebe d779 08bd 05ad 70be
00000040: 7b6f 0e3e 58f7 9ebd 45fa 51bd 4177 35be
00000050: d012 2ebe 9e27 0bbe 7e91 1e3e cc11 c1bd
00000060: bad1 20bd 0bc6 57bd 85f7 38bd c9b9 a6bd
00000070: 050c 213e d6cf 7ebe dc11 033e 45f8 3c3d
00000080: 2ce5 5f3d 9154 3c3e 7378 5a3e de2c 1abe
00000090: 160b d1bd c9e7 9e3c ce7f 813d f56d 54bc
000000a0: 6fef 3abe 0356 8d3e 2365 0cbe 3a23 f83d
000000b0: 40a9 0e3e bd31 e3bd f38d 2fbe d347 b8ba
000000c0: 160a 823c 948c 03be bb7b c1bd 11d0 57bd
000000d0: 2062 2fbe 08cf 003d a84b 1c3e 36d7 a2bd
000000e0: 0cd4 25be b83f 4dbe d37b b0bb 420f c0bd
000000f0: 27ba f43d 9f3a 42bd 869b 703c 62e0 bebd
00000100: 2fe1 3d3c 3c71 d53d 6976 de3d 0d2d 383c
00000110: 7d38 81bd 3750 1d3d 3ee5 b0bc 28a9 7abd
00000120: 0804 703d 5c76 97bb e423 0ebe 131e abbb
00000130: 49ba 093d 93f0 16bd aa3e 34bd 3540 243d
00000140: db4e bf3d 111e 41be bfff 15be 9573 0d3e
00000150: c5df 11be 93fe 82be 0c9c a03d 9196 093e
00000160: 4730 17be 8460 02bd ff9d 02be 68ba e13c
00000170: c199 813d 274c 7c3d 857f 6bbd 5fe9 943d
00000180: 9856 05bc 6ce4 5e3e ee3d 65be 4de0 15bd
00000190: f38d 02bc f8a3 f1bd 2e2a d03d 2511 9bbd
000001a0: efa6 a93c f020 7fbe e695 553d 8e61 4f3e
000001b0: fd87 713e d1e7 283e dbec 34bb 0bab 343e
000001c0: 84af a1bd 1c9e d3bd 30df 8c3d c2ef b13c
000001d0: 2660 143e c51e a73c a56c c33d 966b 903e
000001e0: 2da1 46be 0599 2fbe 39b3 86bc 2a07 d1bc
000001f0: 33e0 d3bd 8b56 8e3e b0ae de3d 033e 533d
00000200: ac14 5e3d 5beb de3d b687 46be 4fa2 b9bd
00000210: 9fe2 45be b3f8 2bbe 7bed 013d 1747 d8bc
00000220: 21c6 3a3d 9d48 3b3e ea05 eabd 5b75 9f3d
00000230: 0539 723c 43f4 28be cf49 2b3e 0c24 333e
00000240: 3185 983d 0ad6 f8bd 4157 8d3d 7dc1 1cbe
00000250: 7e43 26bd 53b0 ac3d a0e0 823b 691c 563e
00000260: ce4a f5bd e40b f2bd cca6 733e 0250 fa3b
00000270: 2025 2c3e 6165 e9bd 0891 8c3d 5957 a13d
00000280: d67d d1bd f193 253e aed9 99be 0e80 a13d
00000290: f0ea d0bd ed76 e43d 8d07 153d a6b0 8ebd
000002a0: e8da 8d3d f932 81be ebd3 463c c664 06be
000002b0: d0e2 debc 4e2a 02be a461 ba3d 6bbe a73c
000002c0: d0eb cf3d eeb5 a43d 9a06 613e ccbc b2bd
000002d0: 6be8 02bb ee5a 043e 1823 edbd 7f1d 123d
000002e0: 9d24 d43d 8d1f aabd 3ca8 f9bc 4eef 3ebc
000002f0: a33c 55be b414 98bd ea32 0f3e c2e2 17bd
00000300: 1328 68be d662 973e 60c3 80bd f315 44bc
00000310: 6501 cb3d 3a76 62be 58d7 38be 5d77 1fbe
00000320: 2a88 56bd b396 48be f450 afbb f43f 20bd
00000330: 5fda ecbc c894 443d 5804 2fbe 9e19 383e
00000340: 384d 13be 3fcb 8c3c cb72 803e 9cfa 5abe
00000350: a681 2e3e 9a96 f1bd 9c59 2fbe 645b 153d
00000360: 9505 00be d546 d73d 4411 3c3d c1a9 1abe
00000370: 01ac 3abe c6ba 443e e1b7 95bd a9e8 7e3e
00000380: 1232 f6bd fc40 66bd d825 b9bb 1775 513e
00000390: 0685 f9bd b4af fa3d b376 1a3e b68f 10bd
000003a0: 0ef9 23bd 19d8 afbe aaa4 2fbc c2a7 083e
000003b0: 6b74 adbd 6575 293e f520 2cbe 7801 febc
000003c0: 1c7c 19be 3ad1 063e 4fb4 bdbc 3502 813c
000003d0: c48f 843d 003d 843d 93d0 3c3e e655 7b3d
000003e0: 2995 09be 6aab a9bd bf0f db3c cbc6 3dbe
000003f0: d890 16be 3590 ac3e 852d 6cbd 064b 90bd
0.09112219 0.12922524 0.022394538 -0.08455231 -0.011621758 -0.045236103 0.082245454 -0.08348976
-0.16235512 0.18770652 0.17447548 -0.22577603 0.056334753 -0.1703098 -0.03331932 -0.23503502
0.13909714 -0.07762021 -0.051264066 -0.17721273 -0.16999364 -0.13589332 0.15485188 -0.094272226
-0.03926251 -0.052679103 -0.045157928 -0.081409045 0.15727241 -0.2488397 0.12799782 0.046135206
0.054661915 0.18391635 0.2133501 -0.15056178 -0.102071926 0.019397633 0.06323205 -0.012965669
-0.18255399 0.27604684 -0.13710456 0.12116094 0.13931751 -0.11093471 -0.17143993 -0.0014059491
0.01587395 -0.12846595 -0.09447428 -0.052688662 -0.17127275 0.03144744 0.15263236 -0.079512045
-0.1619417 -0.20043838 -0.0053858547 -0.0937791 0.11949568 -0.047419187 0.014685517 -0.093201414
0.0115893325 0.10421988 0.10862429 0.01124121 -0.063096024 0.038406577 -0.021593686 -0.061196476
0.058597594 -0.004622264 -0.13880879 -0.005222091 0.03362492 -0.036850523 -0.044005074 0.040100295
0.09341212 -0.18859126 -0.1464834 0.13813622 -0.14245518 -0.2558485 0.078422636 0.13436343
-0.1476451 -0.031830326 -0.12755583 0.027554706 0.06328154 0.061596062 -0.05749466 0.072710745
-0.008138321 0.21766824 -0.22386906 -0.036590863 -0.007968414 -0.11798853 0.10164295 -0.075716294
0.020709483 -0.24914908 0.052144907 0.20252058 0.23587032 0.16494681 -0.0027606997 0.17643373
-0.07894805 -0.10332891 0.06878507 0.02172077 0.14489803 0.020400414 0.09542207 0.28207082
-0.19397421 -0.17148216 -0.016442882 -0.025516111 -0.10345497 0.27800402 0.10873163 0.05157281
0.054218933 0.10884734 -0.19387707 -0.09064161 -0.1932473 -0.1679409 0.03172062 -0.026401086
0.045599107 0.18289419 -0.11426909 0.07786056 0.014784102 -0.16499428 0.16727374 0.1749422
0.07447279 -0.121502 0.06901408 -0.15308185 -0.04059171 0.08432069 0.0039940625 0.20909275
-0.119771585 -0.11818674 0.23794097 0.007638932 0.16811037 -0.113962896 0.068636 0.07877988
-0.102290794 0.16169716 -0.3004889 0.078857526 -0.10201061 0.11155496 0.036384154 -0.06967287
0.06926519 -0.25234202 0.012135486 -0.1312438 -0.027207762 -0.1271145 0.09100655 0.02047654
0.101523995 0.08042513 0.21975175 -0.087274164 -0.0019974958 0.12925312 -0.11578959 0.03567266
0.10358546 -0.08306799 -0.030475728 -0.011653734 -0.20823912 -0.07425824 0.13984266 -0.037081487
-0.22671537 0.29567593 -0.06287265 -0.011968124 0.09912375 -0.22115412 -0.18050897 -0.15572877
-0.05237595 -0.19588737 -0.0053502265 -0.03912349 -0.028912721 0.04799345 -0.17091501 0.17978522
-0.14384925 0.017186759 0.2508758 -0.21384662 0.17041644 -0.11796303 -0.17124027 0.03646411
-0.1250213 0.10511557 0.045914903 -0.15103818 -0.18229677 0.19211873 -0.07310463 0.2489344
-0.12021269 -0.056214318 -0.0056502633 0.20454822 -0.12183575 0.12240544 0.15084343 -0.035293303
-0.04003244 -0.34344557 -0.010720411 0.13345245 -0.084694706 0.16548689 -0.16809447 -0.03100656
-0.1498875 0.13165751 -0.023157267 0.015748123 0.064727336 0.06456947 0.1843894 0.061361216
-0.13435806 -0.08284648 0.026740907 -0.18532865 -0.14703691 0.3370377 -0.0576606 -0.070455596

local_trans_pixel.layers.0.1.fn.fn.net.0.bias f4 [8]
00000000: 3ed5 3d3e e6ed d5bd 494a 083e 0e6e d43d
00000010: b546 c0bd c917 b73b 806a b93d ccaa 19be
0.18538377 -0.10445766 0.13309588 0.10372554 -0.09388486 0.005587552 0.090535164 -0.1500656

local_trans_pixel.layers.0.1.fn.fn.net.3.weight f4 [32, 8]
00000000: b90a 893e af83 ecbb 44f1 c1bd 4ea2 933d
00000010: 4bad c73e dfbd 7bbe ce47 6b3e 1b6e ee3e
00000020: 678c 013e a242 a83d b33a 29be 6cac 9a3e
00000030: 57a4 a53e ad13 a3be f0a1 1abe d970 6a3e
00000040: b9f8 d83d c0b1 9e3e 15a1 fb3d 62a3 26bd
00000050: 06e5 75bd 9259 54be 34f5 4f3e 3bdd 9f3e
00000060: 2108 8c3e f80c 9dbe d853 b1bd 172d 94bd
00000070: 77d3 063e 2d5b 2dbe d363 833e 605b 3fbe
00000080: b18d 813e 074a 083e d23f 943e 5c4c 69be
00000090: 687f 17be a51e 4fbe d33f 27be a285 9a3e
000000a0: dce2 84be 8d6e 2f3e b40a 563e 144e 89be
000000b0: 98c2 c7be 6f06 d5be ea0f 383e f48b f0be
000000c0: 10fa aa3e b986 733e c267 debd 574b 88be
000000d0: 75b6 9dbe 0646 7a3e 7b94 58bd 30f4 113e
000000e0: 861f e63d 6ab9 51bd 3458 28bb 9e90 57be
000000f0: a1fd 3f3e cc04 1dbe 1bdf 5fbe 601d 77be
00000100: d086 8bbe 21d9 0fbe 61e9 fbbd abb0 93be
00000110: 9049 573e b1c5 8dbe 4dcc f13e 034b 60be
00000120: 6c09 773e caab ac3e bd80 693e c18c b9bc
00000130: c613 03bd 7ab0 a2be cec6 81be 616f 97bc
00000140: 414c 0f3d 6177 c2bc bb86 3d3e 0648 133e
00000150: 1926 ccbe 9d68 783e 7799 d23e 67ab 933e
00000160: 2854 d6be 5e99 76be b0f4 db3d 7be4 0f3e
00000170: e337 103d 4902 373e 990d 49be 479f 9d3d
00000180: 36bb 8f3d 7a8d aabe 560f 923e 0a51 45bc
00000190: 8bfa 70be 2207 213c cd2f bfbd 6bea 78be
000001a0: 564c b03e 580a 163e d598 5bbe b16e 023b
000001b0: 86b3 9b3c 0d63 cdbe 3df3 d7bd 82a7 8ebc
000001c0: 0267 923e 7af5 a73e 354b 303e dc51 aa3e
000001d0: 2f43 79bd 19fa bfbe 6b89 933e 5c45 ae3e
000001e0: 4d85 943d 8594 3e3e f0ac a63e 8210 153e
000001f0: cf5a 283e 5099 223d a184 623e 449a ba3e
00000200: 44a3 66be 8c91 693e fc00 2bbe 20fe f83d
00000210: 4842 583e 206e b2be b424 7a3d 1297 b03e
00000220: 0076 863e b790 9abd 264c 463d 3148 45be
00000230: ffa3 35be ec62 783e a5a6 583e 5740 8dbe
00000240: a5df a4bd cef0 b3bd 5e11 21be 2f22 d43e
00000250: 5ca8 8abd 6f69 86be 8908 b8be 0fd7 b4be
00000260: 7a9b 45be d5b6 813e 40a2 90be 180f 433e
00000270: 3654 a7bd dc6e 233e e95a f2bd fad3 43be
00000280: 11e6 c23e 6ef1 6a3e d865 6ebe 3111 28be
00000290: 028b 80be 751b 80be 4b07 23be dd8b 79be
000002a0: 9670 80be 07e8 8b3d 6f79 93bd 489e 943e
000002b0: 5d3f 02be 5abb 79be 3bb2 dfbe ede3 2abe
000002c0: e321 0dbe 1c6e 573d e7e4 e1bd 7358 87bc
000002d0: 28a8 b5be be95 713e 54b9 813e 710c 4bbe
000002e0: 364b 6c3e 8014 52be f7c1 7c3d a018 0d3e
000002f0: f32a 35be aa13 573e 1a0e 35be 9692 233d
00000300: 0724 e0be d483 8c3e ed60 2a3d 1bb5 683e
00000310: e601 4abd a261 65be cf04 a0be ff08 adbd
00000320: bf44 523e 6282 5a3e 3b97 87bd c42b b2be
00000330: 475f 59bd 59bf b5bd 61b9 6cbe 13af 033e
00000340: a5c0 14be a90d 9a3e 5407 8abe a715 53be
00000350: 24d8 e13e e2b5 7d3e 3799 61be 7456 0abe
00000360: 8951 a9be 65c8 c7bc f444 bb3d e724 40be
00000370: d481 6abe 152c 563d 8c27 e4bd 979b 123c
00000380: c478 bb3e ebbd 133e 4477 843e 80a6 9dbe
00000390: 6b12 903e 7cb7 58bd c3eb 4bbe 5d01 833d
000003a0: 3179 3bbe 40e5 49be 941f a13e d8bc 9d3d
000003b0: cace c33e 878a a73e 35d3 89be ff45 f63c
000003c0: 2239 593b 0403 383e ea38 9c3c 87ac e03e
000003d0: 2b84 913e b1e2 713d c0f4 cb3e 0431 663e
000003e0: 02e5 77be 8c6b a4be 51f6 ba3e 156c b43e
000003f0: 340d cbbd a06f 673e 9753 1c3e 697d 6b3e
0.26765993 -0.0072178463 -0.09469846 0.072086915 0.389994 -0.24584149 0.2297661 0.4656838
0.12651215 0.08215834 -0.16526298 0.30209672 0.32351944 -0.3185095 -0.15100837 0.2289461
0.10594315 0.30994987 0.12286583 -0.040683158 -0.060032867 -0.20737293 0.20308381 0.31223473
0.27349952 -0.30673957 -0.0865857 -0.07235163 0.13166605 -0.16929312 0.25662097 -0.186872
0.25303414 0.13309489 0.2895494 -0.22783035 -0.14794695 -0.20226534 -0.16332941 0.3018008
-0.2595433 0.17132016 0.2090252 -0.2681738 -0.3901565 -0.4160647 0.1797482 -0.46981776
0.33393908 0.23781861 -0.10859634 -0.2661998 -0.30803266 0.24440774 -0.052875977 0.14253306
0.11236481 -0.051202215 -0.0025687339 -0.21051261 0.18749095 -0.15333861 -0.21862452 -0.241323
-0.2725129 -0.14047672 -0.12300373 -0.28845724 0.21024156 -0.2768989 0.47226182 -0.21903615
0.24124688 0.33724815 0.22803016 -0.022650125 -0.03200128 -0.31775266 -0.25346988 -0.018485727
0.03498483 -0.023738565 0.18508427 0.14382944 -0.39872816 0.24258657 0.4113271 0.28841707
-0.4186108 -0.24081942 0.1074003 0.14052002 0.035209548 0.17871965 -0.19634093 0.07696395
0.070181295 -0.33311063 0.28527325 -0.012043247 -0.23533075 0.009828361 -0.09335289 -0.24308173
0.3443324 0.14652383 -0.2144502 0.0019902403 0.019006502 -0.40114632 -0.10544441 -0.017413858
0.28594214 0.3280447 0.17216189 0.3326558 -0.060855087 -0.37495497 0.2881578 0.34037292
0.072519876 0.18611343 0.32553816 0.14557078 0.1644089 0.03969699 0.22120906 0.3644582
-0.22523218 0.22809428 -0.16699594 0.121578455 0.21119034 -0.34849644 0.06107016 0.34490258
0.26261902 -0.075471334 0.048412465 -0.1926582 -0.17738341 0.24256486 0.2115732 -0.2758815
-0.08050469 -0.08786164 -0.15729281 0.4143233 -0.06770393 -0.26252314 -0.35944012 -0.35320327
-0.19297591 0.25334802 -0.28248787 0.19048727 -0.08170359 0.15960258 -0.11833746 -0.19123831
0.38066152 0.2294366 -0.23281038 -0.16412808 -0.25106055 -0.25020948 -0.15920751 -0.2436976
-0.25085896 0.06831365 -0.07200896 0.2902701 -0.12719484 -0.24387875 -0.43690667 -0.1668851
-0.13782458 0.052595243 -0.11029988 -0.016521668 -0.35479856 0.23592278 0.25336707 -0.19828965
0.23075566 -0.20515633 0.061708417 0.13778925 -0.17692165 0.21003595 -0.1768116 0.039934717
-0.43777487 0.27444327 0.041596342 0.22725336 -0.049318217 -0.22400525 -0.3125367 -0.084489815
0.20534037 0.213388 -0.06620642 -0.34799016 -0.05306938 -0.08874387 -0.23117591 0.12859754
-0.14526613 0.30088547 -0.26958716 -0.20613728 0.44110215 0.24776414 -0.22031103 -0.13509542
-0.3307002 -0.024387548 0.09144011 -0.18764077 -0.22901088 0.052288134 -0.111403555 0.008948228
0.36615574 0.14427917 0.25872242 -0.30791092 0.28139052 -0.05290936 -0.19914155 0.063967444
-0.1830795 -0.19716358 0.31469405 0.07702035 0.38243705 0.32722875 -0.2691895 0.030062674
0.0033145626 0.179699 0.019070107 0.43881628 0.2842115 0.05905408 0.39835167 0.22479635
-0.24208453 -0.32113302 0.3651605 0.3523871 -0.09914628 0.22601175 0.15266262 0.22997059

local_trans_pixel.layers.0.1.fn.fn.net.3.bias f4 [32]
00000000: b8bd 453e 582d c83d 573c af3e f6de b2be
00000010: 1196 073e b162 81bd a7bf 63bc 6708 bc3d
00000020: 61e0 40be 2efc 18be 8d15 99be bfd4 c73d
00000030: 17f8 85be 6aae 9abe 0253 4cbe 7fc8 0dbe
00000040: 7527 ab3d 25c7 51be 81f5 fa3d 87e1 a1bd
00000050: f4d5 68be ece5 c8bc e258 283e e443 873e
00000060: 9b7c 6f3e bc16 7c3e 6563 bf3d 18c8 c8be
00000070: 63ab 0c3e cb3d 8abe e413 a9be 3741 a5be
0.19310653 0.09774274 0.34225723 -0.3493573 0.1324084 -0.06317652 -0.013900674 0.0918129
-0.18835594 -0.14939949 -0.29899254 0.09757375 -0.2616584 -0.30211192 -0.1995354 -0.13846014
0.08357135 -0.20486124 0.122538574 -0.07904344 -0.22737867 -0.024523698 0.16440156 0.26418984
0.23387377 0.24618047 0.0934513 -0.3921516 0.13737254 -0.2700027 -0.33022988 -0.32276317

conv2d_features.0.weight f4 [64, 30, 3, 3]
00000000: a45d d43b a32f 073d 6b22 903d 4553 e23c
00000010: 35f7 1abd 23df 11bc 9134 83bd 074a 6fbd
00000020: 972e 93bb 59db a33d 07cf 433d a1b0 953c
00000030: 74ef b43d fa3a 23bd 068d 213d adba 293d
00000040: dd39 073b 6aed cc3c 7e2d 3abc 307e c6bc
00000050: 3623 c0bd 3fa0 70bd 4f22 6fbd 10aa 2bbd
00000060: 8787 ccba 277c a9bb 6414 41bd 30d9 84bc
00000070: 5e46 cbbb e1e4 8fbd c45b c5bc 5ace 4fbc
00000080: c752 83bc 3f2d 18bc 834d 1f3d 8bb5 c4bb
00000090: 59fa 28bd 77f1 aa3b 39ce 05bd ca39 86bd
000000a0: ce2e 88bd ac82 2fbc bafc 9dbd 0ee8 b13c
000000b0: 75f2 67bd 2cea 1bbd ade1 923d 91e4 c9bc
000000c0: 4c41 953d 16eb acbc 1d11 79bd 7722 5bbd
000000d0: da88 5b3d d263 30bd fc92 5dbd d0ea 723d
000000e0: 2ccd afbc f426 eebb 1da5 56ba f2ce 41bb
000000f0: a166 16bc aaac 9e3c 5b14 6bbc 5752 a5bc
00000100: e09a d1bc 00df 07ba 83e8 8bbc ed76 19bd
00000110: 3316 a5bc cef8 913a 5f9f 90bd ea1e febc
00000120: 3c4f 9fbd 6588 fcbc 412b 9bbd b277 77bd
00000130: b5f2 7ebd 81dc 34bd 13c6 abbd ec73 b0bb
00000140: 7b15 0fbd 7e70 5a3d 2cdf a5bc 8fd1 0c3d
00000150: 310e e4bc 1279 623d b95b b0bc 3cf5 943d
00000160: 1ef4 973b 796c 643d a106 633c 7899 193c
00000170: 4dec 6b3c e6e9 413d 02e1 843d 69b0 a13d
00000180: f5b2 2b3c 9535 0cbc 64e0 683d 9e00 a2bc
00000190: b1eb 263d 1042 0bbd 48ce e13c 70bc a1ba
000001a0: 23f4 36bd b50c 6b3b f64f 743c b7a5 0cbd
000001b0: c002 8d3c c9cc 813d 2ba7 ebbc bfd3 02bc
000001c0: f08d 00bd b20b 933d 3567 bf3c df74 43bd
000001d0: e579 f73c 3c2c ca3c 5c3d d3bc 4ecd a1bc
000001e0: 7392 683b 07e0 863c d59f e0bc a930 3dbd
000001f0: dfcc 11bc d59b 89bd b5b4 51bd 4f40 06bd
00000200: ea34 42bc 3ec7 9b3b 6bd1 debc 52ce d83c
00000210: c114 b43d b940 8cbc 7dba 133d dc3d d2bb
00000220: 2f1b 03bd de99 09bd 3784 973c 6615 43bd
00000230: 6d1f bfbb f404 b13b fc9d c5bd 68f3 c5bc
00000240: 0ee6 89bc f8c0 af3b 68ea 9bbd a93d a9bb
00000250: b368 9b3c 36be 2e3c 3784 8cbc aca0 a1bd
00000260: 802b 263b 3bc2 183d 3d70 94ba d98c 653d
00000270: 5ab4 90bd 17b5 163d b5e9 d83a 2fec 683d
00000280: ad8b f03b d8ce 593d b86f 31bc ae9e 433a
00000290: ddfe 6cbd 7c5b 713d d517 933c d2fd 30bd
000002a0: 5e46 e83c c956 a7bc 8991 b43c 1e71 0abd
000002b0: e27e 90bc 0265 babc f743 8bbb 7d53 63bd
000002c0: 4997 393d 560b b93c bd33 a9bc 0ed9 1fbc
000002d0: 247d 02bd 0e4e 5fbd 5f63 14bd ae3e 02bd
000002e0: 9761 05bd 6b49 a3bd 6103 78bd 0a79 bebc
000002f0: 6805 c7bd a767 fdbd cad8 2a3d 067e 913d
00000300: 921f febb 387e f23c 9a36 96bc c15b 91bd
00000310: a501 1cbc 40de cdbc 1680 13bc 6c6f 8c3d
00000320: 205d 8a3c 01f0 52bc dc20 3e3d db45 ee3c
00000330: 06b5 9dbc ce08 813d a422 2a3d 57da 18bd
00000340: 7f70 c83d 2ad4 b83c d328 6c3d eff9 be3c
00000350: d274 d63d ab18 003d e8a1 163d 96d3 69bb
00000360: cee7 fabc ec8e 39bc 349b 1bbd 017a 57bb
00000370: 0592 843b c94e b1bd 3023 80bc a516 f83c
00000380: d4af 9e3d d873 883d b1c2 433d f7e3 99bd
00000390: cd58 473d f354 1cbd 7718 6abd 7a2c c6bc
000003a0: 133f 63bd 6a4a 0fbd 1b6a 883d 20eb 953d
000003b0: f601 ea3c 1ef2 a93c e4a1 a8bd 4415 52bc
000003c0: 118b db3c dcd9 a13c 63ea 07bd 8062 a63d
000003d0: 6cc7 443d a352 10bd 34a4 693d 4e19 b5bd
000003e0: 86b6 923d 6998 6c3d e5aa 3e3c 1746 283d
000003f0: 4382 cabc 434e 833c c427 633c 0577 053d
0.0064808894 0.033004414 0.07037815 0.027627597 -0.03783341 -0.008903298 -0.064065106 -0.058420207
-0.004491638 0.080008216 0.04780486 0.0182727 0.088347346 -0.039851166 0.03944113 0.041437794
0.0020633854 0.025015552 -0.011363385 -0.024230093 -0.09381716 -0.058746573 -0.05838233 -0.04191023
-0.0015604355 -0.005172271 -0.047138587 -0.016216844 -0.006203457 -0.07026077 -0.024091609 -0.012683475
-0.016030682 -0.009288131 0.03889228 -0.006003087 -0.041254375 0.005216773 -0.032667372 -0.06553991
-0.06649552 -0.010712307 -0.077142194 0.021717098 -0.05662771 -0.03806512 0.071719505 -0.024645122
0.07287845 -0.021108191 -0.060807336 -0.053499665 0.05359731 -0.043063946 -0.054095253 0.059305966
-0.021460138 -0.007267827 -0.0008188056 -0.0029572812 -0.009179742 0.019369442 -0.014348115 -0.020180864
-0.025586545 -0.0005183071 -0.017078644 -0.037466932 -0.020152187 0.0011136772 -0.070616476 -0.0310206
-0.07778785 -0.030826757 -0.075766094 -0.060416885 -0.062243182 -0.0441556 -0.08387389 -0.0053849127
-0.034932595 0.053329937 -0.020248018 0.03437954 -0.027838798 0.055291243 -0.021528112 0.07273337
0.0046372553 0.05576751 0.013856561 0.009374969 0.0143996 0.047342204 0.06488229 0.07894976
0.010479678 -0.008557697 0.05685462 -0.019775685 0.040752117 -0.03399855 0.027564183 -0.0012339484
-0.04466642 0.0035865728 0.014911642 -0.034337725 0.017213225 0.06337888 -0.028766235 -0.0079850545
-0.031385362 0.07179965 0.023364643 -0.04771888 0.030209491 0.024679296 -0.025786094 -0.019751217
0.003548768 0.016464246 -0.027419964 -0.046188984 -0.008898943 -0.06719176 -0.051197726 -0.032776173
-0.011853436 0.004753976 -0.027199468 0.026465569 0.08793021 -0.017120706 0.03606652 -0.0064160656
-0.032008346 -0.033594005 0.018495662 -0.04762783 -0.0058326037 0.005402202 -0.09649274 -0.024163917
-0.016833331 0.00536358 -0.07613069 -0.005164821 0.018970823 0.010665467 -0.017152889 -0.07891974
0.0025355518 0.037294608 -0.0011324954 0.056042526 -0.07065649 0.036793794 0.0016549142 0.056865867
0.0073408694 0.053175777 -0.0108298585 0.0007462305 -0.057860244 0.058925137 0.0179557 -0.043210812
0.028353866 -0.020427125 0.022042053 -0.033799283 -0.017638627 -0.022753242 -0.0042500454 -0.055499543
0.045310292 0.022588413 -0.020654554 -0.00975634 -0.031857625 -0.054517798 -0.03622758 -0.031798057
-0.032563772 -0.07972988 -0.060550097 -0.023251075 -0.09717828 -0.12373286 0.041710652 0.07104115
-0.0077552283 0.029601201 -0.018336583 -0.07097579 -0.009521876 -0.025130391 -0.009002706 0.068571895
0.016890109 -0.012874604 0.046418056 0.029086044 -0.019251358 0.063005075 0.041536942 -0.0373176
0.09787082 0.022562105 0.05765612 0.023312537 0.104715005 0.031273525 0.0367755 -0.0035679094
-0.030628111 -0.011325579 -0.03798981 -0.0032879116 0.004045727 -0.08657605 -0.015641779 0.030284235
0.0774838 0.066627204 0.047793094 -0.07514184 0.04866867 -0.03816695 -0.057152238 -0.02419113
-0.055480074 -0.034983076 0.06660863 0.07320237 0.028565388 0.020745333 -0.08234003 -0.012822453
0.02679971 0.019757204 -0.033182513 0.08124256 0.048041746 -0.03523506 0.057041362 -0.08842717
0.0716372 0.057762537 0.011637424 0.041082468 -0.024720317 0.016028529 0.013864461 0.03258421
