src/res/GGCL/guided_contra_cross_transformer/Pavia/20/true ss 0.7/_1711720528.pth (torch, 266710 bytes, 37 tensors)

pixel_pos_embedding f4 [1, 170, 32]
1.1490664 0.5980639 1.0920188 -1.5938448 -0.13116615 1.2522575 -2.5513186 -2.085665
0.028645532 -0.5444368 0.5642081 -0.24649811 0.06458548 -0.7137175 1.7177274 -1.8254644
0.61864793 1.0178798 -0.716284 -1.2383008 0.29421368 -0.0332387 0.28041396 0.5847673
0.29714555 -1.4221317 -1.3335739 1.345708 -1.7358813 1.2506608 1.1853825 -1.5938543
-0.438161 0.9178289 1.086117 2.165469 0.5021798 0.59578913 -0.76794845 -1.5244122
-0.19878846 -0.65021133 1.0010262 -0.3288675 -0.084862456 -0.55887014 0.5829409 0.29971856
1.4984905 -0.09462228 -0.7835449 -2.5171509 0.022848705 0.6648006 0.09385788 1.7830853
-1.1049806 1.6608375 -0.5771264 -0.03490187 1.7191685 0.28372312 2.257083 0.6227164
1.2659788 0.5820188 -0.8066613 0.3703611 1.1665269 -0.084745325 -0.1168628 -1.3780906
0.37048605 0.48492035 -0.16690722 0.67082906 0.0047909487 -0.150665 -1.8016497 0.057135865
1.0775206 0.8765724 0.3130974 -1.3094146 0.93420583 -1.577655 -1.234303 0.5924133
-2.4030395 0.08991397 -0.32405555 0.5441251 1.0993433 1.5996872 0.13238932 0.07315616
0.16758065 0.22979417 -1.7956932 1.6595268 1.5755589 -1.5725663 0.55774236 -1.0802197
0.14455143 -0.5767055 0.02406003 0.4049285 -0.7678343 0.54517543 -0.34277213 1.0436045
0.59913886 0.47182336 -1.0571094 0.15381362 0.23382863 -1.5584964 -0.41564408 1.5507933
-1.5877602 0.80544865 1.123743 -0.052488767 -0.3466145 -0.20517558 -1.0595088 -2.1183977
0.27759162 -0.5627961 0.22363222 0.93233633 0.9123145 0.49235776 1.6954013 0.10705944
-0.8373481 1.2785712 -0.2557052 -1.2348082 0.8817777 -1.5218315 -0.46069503 0.5874262
0.7073561 0.8415721 -0.5531784 1.0202079 -0.42721167 0.33035848 0.038909853 0.89110494
-0.8946433 0.7762691 1.4066716 -0.9734865 1.3251859 0.38425934 1.2692002 1.4549499
0.3249674 -1.3975747 1.4086554 0.24079764 -0.9244241 0.2006671 -0.7012837 -2.151454
-1.1399254 0.5834594 -0.17725854 -0.28974628 -1.4373024 0.3690774 -1.0459678 0.28753224
-0.40852702 0.09272106 0.29503936 -0.84712034 0.32958534 -1.6133417 -0.79277706 0.90014994
0.6591816 0.6040279 -0.8762055 0.38139197 0.42698088 -0.4051356 0.1767241 0.29230028
0.78467727 -0.10854327 0.6520003 -0.24620666 1.6367844 0.76585597 -0.05037316 -0.2874282
0.22754017 0.5253663 -0.5457594 -0.38821796 0.3141324 -1.058674 0.1601524 0.23321594
-0.8324843 -0.055815578 0.11187529 -0.5145508 -0.049961586 -0.4309861 0.48060918 -0.6328708
0.01297131 0.56534016 -0.840661 0.43392074 -0.82515657 0.72099805 0.23874344 -0.6862206
0.5584101 0.7027673 -2.471083 0.503515 0.73892766 -0.16329016 -0.3419277 -0.14334278
0.35058993 -1.1611682 -0.17154364 0.45007807 0.17733806 -0.65252674 -0.64242417 0.9410713
1.0669382 0.77992505 0.6484236 -0.59234864 0.0701596 -0.034271285 2.6137266 -1.811885
1.0980144 -0.86776286 -1.3487477 0.4721311 -0.9667267 2.1747875 1.2200291 0.3445808
00000000: 9c14 933f b71a 193f 46c7 8b3f 1b03 ccbf
00000010: 6b50 06be f949 a03f ce48 23c0 897b 05c0
00000020: 09aa ea3c 3660 0bbf f16f 103f 006a 7cbe
00000030: 6445 843d 31b6 36bf 7ede db3f d1a8 e9bf
00000040: b65f 1e3f e349 823f 635e 37bf a480 9ebf
00000050: 2da3 963e 4e25 08bd 6b92 8f3e 4fb3 153f
00000060: 7623 983e 6908 b6bf 8db2 aabf 2940 ac3f
00000070: 5c31 debf a715 a03f 9dba 973f 6b03 ccbf
00000080: a356 e0be d6f6 6a3f e205 8b3f 0b97 0a40
00000090: db8e 003f a385 183f 4598 44bf f01f c3bf
000000a0: 348f 4bbe 4074 26bf a021 803f 5261 a8be
000000b0: 5ecc adbd 1d12 0fbf 9d3b 153f b674 993e
000000c0: 89ce bf3f 53c9 c1bd 6696 48bf 0019 21c0
000000d0: 352d bb3c 5f30 2a3f 8f38 c03d 243c e43f
000000e0: 0170 8dbf 5396 d43f 8ebe 13bf 43f5 0ebd
000000f0: b70d dc3f 2844 913e 0c74 1040 586a 1f3f
00000100: 980b a23f 2fff 143f 5b81 4ebf f89f bd3e
00000110: c150 953f f58e adbd c455 efbd 4665 b0bf
00000120: 59b0 bd3e 7b47 f83e bae9 2abe 74bb 2b3f
00000130: 64fd 9c3b ed47 1abe 759c e6bf 4c07 6a3d
00000140: 32ec 893f 0c67 603f 4d4e a03e e69a a7bf
00000150: 1d28 6f3f 99f0 c9bf a4fd 9dbf 66a8 173f
00000160: 66cb 19c0 d124 b83d 9cea a5be c84b 0b3f
00000170: 48b7 8c3f 8dc2 cc3f 1191 073e e6d2 953d
00000180: 439a 2b3e 2a4f 6b3e 46d9 e5bf 606b d43f
00000190: eaab c93f da49 c9bf 34c8 0e3f a444 8abf
000001a0: 4a05 143e f9a2 13bf 8a19 c53c ca52 cf3e
000001b0: ca90 44bf 9e90 0b3f d47f afbe d594 853f
000001c0: 2a61 193f d592 f13e 5c4f 87bf 5181 1d3e
000001d0: c670 6f3e cf7c c7bf 4dcf d4be 6580 c63f
000001e0: ba3b cbbf e231 4e3f d0d6 8f3f 76fe 56bd
000001f0: 7577 b1be 8c19 52be fc9d 87bf d493 07c0
00000200: 7d20 8e3e 6813 10bf d8ff 643e 98ad 6e3f
00000210: 718d 693f 5116 fc3e e902 d93f fb41 db3d
00000220: 725c 56bf 39a8 a33f cbeb 82be 320e 9ebf
00000230: 2fbc 613f 60cb c2bf 38e0 ebbe 9061 163f
00000240: 4a15 353f 4571 573f 1a9d 0dbf 2c96 823f
00000250: 7dbb dabe bf24 a93e f05f 1f3d 741f 643f
00000260: 5807 65bf 92b9 463f d10d b43f 6936 79bf
00000270: b19f a93f a4bd c43e 2775 a23f cc3b ba3f
00000280: 2162 a63e bae3 b2bf d24e b43f a893 763e
00000290: 0fa7 6cbf ad7b 4d3e 5487 33bf 6cb1 09c0
000002a0: 13e9 91bf 985d 153f 4383 35be a059 94be
000002b0: 86f9 b7bf b7f7 bc3e 46e2 85bf 6d37 933e
000002c0: 742a d1be 8ae4 bd3d 660f 973e e1dc 58bf
000002d0: 69bf a83e fb81 cebf 70f3 4abf 3a70 663f
000002e0: 20c0 283f 93a1 1a3f 014f 60bf cf45 c33e
000002f0: 3d9d da3e ef6d cfbe 2af7 343e 62a8 953e
00000300: 9ce0 483f ef4b debd 7ee9 263f 991d 7cbe
00000310: 2782 d13f 230f 443f 1654 4ebd ca29 93be
00000320: 4a00 693e 687e 063f e3b6 0bbf 81c4 c6be
00000330: f6d5 a03e a182 87bf fefe 233e 29d0 6e3e
00000340: b11d 55bf e09e 64bd df1e e53d 9ab9 03bf
00000350: 85a4 4cbd 36aa dcbe 6812 f63e d203 22bf
00000360: 9e85 543c 22ba 103f 8f35 57bf dc2a de3e
00000370: 763d 53bf 5493 383f 2979 743e 27ac 2fbf
00000380: f7f3 0e3f 8fe8 333f 3926 1ec0 5ce6 003f
00000390: 5d2a 3d3f 8935 27be 2611 afbe 73c8 12be
000003a0: 8680 b33e 29a1 94bf 23a9 2fbe a270 e63e
000003b0: 1c98 353e fe0b 27bf e975 24bf 0cea 703f
000003c0: 6e91 883f 2ba9 473f 17ff 253f 29a4 17bf
000003d0: d6af 8f3d 0c60 0cbd 4c47 2740 d9eb e7bf
000003e0: bc8b 8c3f b525 5ebf c4a3 acbf 2bbb f13e
000003f0: 677b 77bf b82f 0b40 ea29 9c3f e56c b03e

cls_token_pixel f4 [1, 1, 32]
0.18451853 -1.2578839 0.4861319 1.6390893 1.4510938 -1.1308388 1.2960843 -2.206202
-0.78018725 -0.43291846 0.7670686 -2.0814893 0.1442121 0.12912066 -2.355621 0.8052981
-1.5265734 0.20077905 1.4130815 0.41708037 0.65132684 -0.701965 -1.3928937 -0.68018156
-1.3015733 0.73357743 1.1003954 -1.2504073 -0.52205426 -0.36854318 0.07878657 0.3142182
00000000: 6df2 3c3e 5702 a1bf 48e6 f83e aecd d13f
00000010: 71bd b93f 53bf 90bf 17e6 a53f 6a32 0dc0
00000020: 5aba 47bf 7da7 ddbe 9c5e 443f 1f37 05c0
00000030: 56ac 133e 3538 043e 7fc2 16c0 0428 4e3f
00000040: c266 c3bf 0699 4d3e dbdf b43f 8f8b d53e
00000050: 5bbd 263f fab3 33bf 574a b2bf 6120 2ebf
00000060: f499 a6bf bbcb 3b3f c2d9 8c3f 590d a0bf
00000070: 59a5 05bf b1b1 bcbe da5a a13d 35e1 a03e

pixel_patch_embedding.weight f4 [32, 30]
0.03792134 0.11022812 0.1670712 -0.126828 -0.11397116 0.058249593 0.047952443 0.16859913
-0.1218978 -0.13592374 0.011103675 -0.15082808 0.056907803 -0.06845345 -0.065546826 -0.04624164
0.16863701 0.1371974 0.12449324 0.058524325 -0.14353296 -0.039012462 -0.14125222 0.1416657
0.1308079 0.107362986 -0.035674423 0.11921567 0.039399534 0.041861027 0.10430652 0.1400345
0.07761538 -0.03866309 -0.12700938 -0.13775969 -0.044114128 0.10281551 -0.06635906 0.06564936
-0.013290271 0.053597838 0.15157497 0.08278692 0.18023261 -0.039974883 -0.035653234 0.13699037
0.09322846 -0.107083246 -0.09501584 0.07507783 -0.1441631 0.021747127 0.080091804 -0.07010991
0.032414585 0.13513556 -0.092214435 -0.06324479 -0.07411724 -0.13135271 -0.11681004 -0.15594316
0.14428169 0.18160042 0.06240326 0.056787208 -0.008892402 0.15705162 -0.08369172 0.10856351
0.06789434 -0.029791564 -0.034329027 0.0783093 -0.013943166 -0.08254663 -0.103950225 -0.048159376
0.1411353 -0.092528015 -0.14642696 0.15000176 -0.16521329 0.12115532 0.0037283301 -0.0566255
-0.08261266 0.1584278 0.014055133 0.15560716 -0.14426903 0.08972156 -0.13765231 -0.07624984
-0.089389004 0.120100915 0.06164138 -0.1422279 -0.030969933 0.127574 -0.17291878 0.018730626
-0.14955015 0.085350454 0.017340943 0.11136451 -0.16264609 -0.12572284 0.036928743 -0.110982105
0.07649019 0.076657 -0.12797657 0.088635355 0.11349651 -0.12186277 -0.027209997 0.14235762
0.1139752 -0.09669471 -0.15950927 -0.17037094 0.107703805 0.06842676 0.013062343 0.16286951
0.008069158 -0.020498365 -0.13212615 -0.12896413 -0.025369748 -0.0072404593 0.16494113 0.009278357
0.12788749 0.024594322 -0.07557782 -0.056110978 -0.09132979 0.15879482 0.06848237 -0.012267083
0.018070787 -0.051620007 0.009475589 0.13452542 0.099996865 0.011374429 -0.10257553 0.0272955
0.033475384 -0.12884066 0.07153091 0.12943235 -0.050051883 0.13719907 -0.04929568 0.09892824
0.12522665 0.13724709 0.1009832 -0.06962408 -0.14196652 -0.013771683 0.026398212 -0.119027436
0.02010569 0.046404526 0.011256188 -0.0880924 -0.13295443 -0.060197577 0.12824342 0.063776106
0.037740543 -0.057351664 -0.0904973 -0.08729306 -0.07935501 -0.122927055 0.020529836 -0.17013694
0.00791271 0.04019873 -0.0005841106 0.0061885715 -0.02113682 0.01066789 0.02206184 0.12087196
0.13955253 0.053225696 0.09164032 0.071107656 -0.059329346 -0.16113563 0.025847018 0.07910779
0.1632888 0.041524455 -0.13109165 -0.13141534 -0.065399475 -0.016188592 0.15298435 0.1645641
0.008648559 -0.036745414 -0.1369817 -0.08914146 -0.15442312 -0.13076128 0.089889884 -0.1148948
0.029616416 0.09182504 0.05273865 -0.1358083 -0.104610994 0.10005367 0.00629507 0.10975227
0.04159984 -0.09155849 -0.17958814 -0.14953113 -0.03292887 -0.030566007 0.018309891 0.18127042
-0.15622507 0.033096045 0.18097049 0.15460089 -0.1793903 0.1557715 0.14705426 -0.08519487
0.082989454 -0.11062876 -0.1449452 -0.079012655 0.0044410974 -0.14857012 -0.09135117 -0.07255562
-0.028458506 -0.11095734 0.16987497 -0.12212899 -0.15491703 -0.026632786 0.073123395 0.033600748
00000000: 6853 1b3d 48bf e13d b614 2b3e 33df 01be
00000010: b669 e9bd 2097 6e3d c869 443d 40a5 2c3e
00000020: 8ea5 f9bd 982f 0bbe 30ec 353c ad72 1abe
00000030: 2818 693d 5331 8cbd 6a3d 86bd e067 3dbd
00000040: 2eaf 2c3e 7a7d 0c3e 50f6 fe3d 34b7 6f3d
00000050: 4efa 12be 88cb 1fbd 6ca4 10be d010 113e
00000060: 82f2 053e 20e1 db3d 581f 12bd 5827 f43d
00000070: 6861 213d 7876 2b3d a89e d53d 3465 0f3e
00000080: d0f4 9e3d 305d 1ebd bf0e 02be e010 0dbe
00000090: 04b1 34bd f090 d23d 42e7 87bd 2c73 863d
000000a0: 70bf 59bc 6889 5b3d 7836 1b3e 308c a93d
000000b0: e68e 383e b4bc 23bd 2009 12bd 3447 0c3e
000000c0: 90ee be3d 764e dbbd aa97 c2bd 68c2 993d
000000d0: 7e9f 13be 0827 b23c 2c07 a43d c995 8fbd
000000e0: 28c5 043d fa60 0a3e ecda bcbd 7c86 81bd
000000f0: c8ca 97bd 5381 06be 1a3a efbd 90af 1fbe
00000100: 94be 133e 76f5 393e 909a 7f3d b499 683d
00000110: 70b1 11bc 24d2 203e 9166 abbd 8c56 de3d
00000120: 300c 8b3d 700d f4bc 989c 0cbd a060 a03d
00000130: e071 64bc 350e a9bd dbe3 d4bd c442 45bd
00000140: c685 103e 547f bdbd f3f0 15be 109a 193e
00000150: ac2d 29be 4820 f83d 0057 743b 24f0 67bd
00000160: d430 a9bd e63a 223e 8047 663c 7c57 1f3e
00000170: 43bb 13be f0bf b73d baf4 0cbe e028 9cbd
00000180: 9511 b7bd 78f7 f53d ac7b 7c3d 31a4 11be
00000190: a8b4 fdbc c2a2 023e 9f11 31be f870 993c
000001a0: ad23 19be 38cc ae3d 980e 8e3c 1413 e43d
000001b0: b28c 26be 7dbd 00be 9842 173d 964a e3bd
000001c0: e4a6 9c3d 58fe 9c3d 4a0c 03be 7486 b53d
000001d0: dc70 e83d 3093 f9bd 80e7 debc 32c6 113e
000001e0: d46b e93d e007 c6bd 6656 23be b875 2ebe
000001f0: d093 dc3d 5423 8c3d 7003 563c 44c7 263e
00000200: 8034 043c 30ec a7bc 144c 07be 2c0f 04be
00000210: 38d4 cfbc 6041 edbb 54e6 283e 4004 183c
00000220: f0f4 023e 087a c93c 8bc8 9abd a0d4 65bd
00000230: 1d0b bbbd 1c9b 223e 7c40 8c3d e0fb 48bc
00000240: 3009 943c 806f 53bd 803f 1b3c 08c1 093e
00000250: 28cb cc3d d05b 3a3c 1f13 d2bd d09a df3c
00000260: 7c1d 093d ceee 03be cc7e 923d ea89 043e
00000270: 3403 4dbd ea7d 0c3e 44ea 49bd e49a ca3d
00000280: 6a3b 003e 808a 0c3e 48d0 ce3d 1297 8ebd
00000290: ac5f 11be a0a2 61bc 1041 d83c a8c4 f3bd
000002a0: b0b4 a43c ac12 3e3d e06b 383c ca69 b4bd
000002b0: 3525 08be bc91 76bd 3e52 033e 0c9d 823d
000002c0: d495 1a3d 94e9 6abd a656 b9bd b4c6 b2bd
000002d0: e184 a2bd 2ec1 fbbd 302e a83c 6138 2ebe
000002e0: 50a4 013c 6ca7 243d 001f 19ba 80c9 ca3b
000002f0: 2027 adbc 60c8 2e3c 08bb b43c b88b f73d
00000300: dce6 0e3e 3003 5a3d ecad bb3d e4a0 913d
00000310: 5403 73bd bd00 25be 20bd d33c 4403 a23d
00000320: 2e35 273e 8c15 2a3d e43c 06be be91 06be
00000330: 29f0 85bd f09d 84bc eea7 1c3e 7e83 283e
00000340: b0b2 0d3c 5c82 16bd ee44 0cbe cc8f b6bd
00000350: 1821 1ebe 49e6 05be 3018 b83d f74d ebbd
00000360: 209e f23c c40e bc3d 7c04 583d 5511 0bbe
00000370: 4a3e d6bd f0e8 cc3d e046 ce3b ccc5 e03d
00000380: 9864 2a3d 0583 bbbd f4e5 37be b01e 19be
00000390: 6ce0 06bd 9065 fabc a0fe 953c f49e 393e
000003a0: 77f9 1fbe b88f 073d 5450 393e b24f 1e3e
000003b0: 17b2 37be 9082 1f3e 6495 163e a67a aebd
000003c0: 60f6 a93d 5591 e2bd 846c 14be 63d1 a1bd
000003d0: a086 913b c422 18be 5216 bbbd 0a98 94bd
000003e0: d021 e9bc 9a3d e3bd b4f3 2d3e c41e fabd
000003f0: 92a2 1ebe 002d dabc b8c1 953d f0a0 093d

pixel_patch_embedding.bias f4 [32]
0.091077834 0.05541858 -0.13120393 0.13567474 0.09212515 0.11005774 -0.11728401 -0.009647995
0.075270355 0.076352626 -0.14069164 -0.13220501 0.18116161 0.06502533 0.06012684 -0.18186474
-0.053768158 0.16579425 -0.05869981 -0.1235952 0.066023886 -0.02086839 -0.17437537 0.037806958
0.16389245 0.12915024 0.15965682 -0.068430215 0.094593704 0.038440913 -0.15709418 -0.07683337
00000000: 0487 ba3d 98fe 623d 535a 06be 52ee 0a3e
00000010: 1cac bc3d f465 e13d 9932 f0bd a012 1ebc
00000020: 5827 9a3d c45e 9c3d 7811 10be c060 07be
00000030: 6e82 393e 002c 853d 9047 763d c03a 3abe
00000040: 003c 5cbd f8c5 293e 366f 70bd 7b1f fdbd
00000050: 8837 873d 30f4 aabc 758f 32be 78db 1a3d
00000060: 6cd3 273e f63f 043e 147d 233e 2425 8cbd
00000070: 58ba c13d 3874 1d3d 4cdd 20be d05a 9dbd

local_trans_pixel.layers.0.0.fn.norm.weight f4 [32]
1.1797413 1.1245564 1.1555761 1.0643703 1.1600257 1.0792849 1.1077528 1.0856336
1.0942086 1.063509 1.1239359 1.1240709 1.071261 1.1303703 1.1072651 1.0903476
1.1202811 1.1247805 1.1022726 1.1207265 1.1350931 1.2215301 1.1204586 1.1131544
1.0841359 1.1520882 1.1522619 1.0902824 1.1048989 1.1159124 1.1054397 1.0944358
00000000: c301 973f 77f1 8f3f ebe9 933f 493d 883f
00000010: b97b 943f 0226 8a3f d8ca 8d3f 0bf6 8a3f
00000020: 070f 8c3f 1021 883f 22dd 8f3f 8ee1 8f3f
00000030: 151f 893f f9af 903f ddba 8d3f 8390 8b3f
00000040: 5f65 8f3f cff8 8f3f 4517 8d3f f773 8f3f
00000050: bb4a 913f 195b 9c3f 306b 8f3f d87b 8e3f
00000060: f7c4 8a3f a077 933f 517d 933f 608e 8b3f
00000070: 546d 8d3f 38d6 8e3f 0c7f 8d3f 7916 8c3f

local_trans_pixel.layers.0.0.fn.norm.bias f4 [32]
-0.060216196 0.049213827 0.016135152 0.004646888 0.114951015 0.09344293 -0.025820578 -0.033504546
-0.08653324 -0.014138028 -0.050246686 -0.027110772 0.030569622 -0.07896585 -0.05349517 -0.023290284
0.004418023 0.0034482523 0.08756652 -0.02032628 -0.021091163 0.027982052 -0.06543526 0.04588561
-0.016970351 0.07057347 0.06427762 -0.039485224 0.0033278444 -0.029972576 0.074076355 -0.079631984
00000000: 42a5 76bd 7094 493d de2d 843c ec44 983b
00000010: 706b eb3d 025f bf3d ad85 d3bc 103c 09bd
00000020: 5738 b1bd 30a3 67bc 78cf 4dbd 6917 debc
00000030: 256d fa3c d9b8 a1bd c01d 5bbd 44cb bebc
00000040: 10c5 903b 13fc 613b 1356 b33d 4c83 a6bc
00000050: 60c7 acbc 9e3a e53c ec02 86bd 8df2 3b3d
00000060: 6805 8bbc d388 903d fca3 833d 42bb 21bd
00000070: f717 5a3b 0c89 f5bc 58b5 973d 1816 a3bd

local_trans_pixel.layers.0.0.fn.fn.to_qkv.weight f4 [768, 32]
0.059117507 -0.074063934 -0.07428989 -0.043455586 -0.08618059 -0.2480715 -0.15197058 0.034121923
0.058639843 -0.10080944 -0.16332377 0.009129162 -0.12232134 -0.04114017 -0.05638126 0.102443315
0.1847621 0.101918735 -0.07784679 0.06927398 -0.06829487 0.03364676 0.26389825 -0.2110111
0.012919155 0.11862867 -0.17540504 -0.13552089 0.115098126 -0.042694207 -0.021221446 0.017754393
0.038907584 -0.1275142 0.019314589 0.021912316 -0.12290512 0.12819394 0.038368147 0.022604171
-0.059456106 0.1961474 -0.12695113 -0.059913263 0.13138367 -0.16778955 -0.08268311 0.13543643
-0.18392602 -0.14849474 0.17580172 -0.0815432 0.17126338 0.09687781 -0.049915362 -0.001553463
-0.060418326 0.042595584 -0.16710994 0.17529234 -0.17542797 -0.08074855 0.008468405 -0.08119402
-0.13993566 0.18800609 -0.055667575 0.10792466 0.071608916 0.02849458 -0.12917763 0.07663779
0.11360523 -0.061556444 -0.222239 0.18490806 -0.024848586 0.10327509 -0.005559352 -0.07463606
0.16043554 -0.017699145 0.037602007 -0.068240434 -0.012844942 0.115929574 -0.09894207 -0.08055019
0.0047983225 0.018727103 0.20875207 -0.02133006 0.021385452 -0.16469835 0.109596275 -0.011758723
0.027938787 -0.0032740152 0.1390675 0.043457232 0.08811718 0.114183076 0.13297926 -0.15100364
-0.029493641 0.06025981 -0.027331816 -0.10695889 -0.12932435 0.020824645 0.07181775 -0.1928601
-0.10428545 -0.13531743 0.11522176 0.07141266 0.20450069 -0.0106495 -0.09022277 0.12278274
-0.028558038 0.06447694 -0.18631627 -0.011726618 -0.108939774 0.19619146 0.1460012 0.018069131
0.041474663 0.13341805 -0.17019768 -0.17427649 -0.06164378 -0.12592025 0.1217938 0.15073717
-0.056027133 -0.045102622 -0.22330545 0.013342671 -0.14257759 -0.09978529 0.19417825 0.112431996
0.065375715 0.06299291 -0.18039398 0.094952986 0.05869609 -0.2729972 -0.07914259 -0.13691628
-0.016852146 -0.034122515 0.14955172 -0.15279813 0.064522676 -0.09303238 -0.027066108 0.1785048
-0.077575386 0.09611951 -0.044412754 -0.10018097 -0.19751608 -0.07802096 -0.06822531 0.021460412
-0.16738231 -0.050678905 -0.14265166 -0.05011353 -0.16723421 0.19679078 0.004130857 -0.07219676
-0.04210288 -0.09361107 -0.12492476 -0.06504898 -0.23189047 -0.08528142 0.09746038 -0.30947855
0.2041604 -0.30791953 0.0991987 -0.025023261 -0.020808507 -0.08528671 -0.16869314 0.016670663
0.14582229 -0.085021704 -0.16575761 -0.21376738 0.008123066 -0.025812095 0.23139887 -0.045986824
0.2283864 0.11144049 0.025550658 0.05222787 -0.05135308 -0.025167026 0.08726863 -0.055548064
-0.016402368 -0.07231656 -0.18101163 -0.012795741 -0.038634602 -0.105886914 -0.025307585 -0.18281515
0.18687269 0.012000545 -0.18627857 -0.036054853 -0.039500512 -0.1352108 -0.0020356043 -0.025726076
-0.15669887 0.0689388 -0.006460331 0.052191082 -0.011957449 -0.02586728 0.08868222 0.10228399
-0.15444368 0.1714893 -0.18168075 0.11961463 0.11238876 0.12659521 0.04869865 0.05804832
0.17229071 -0.13315363 -0.11419937 0.05848053 0.11989241 -0.03358072 0.030224798 -0.039958753
0.21775053 0.023309374 0.15435278 0.036997195 0.090306856 0.12805852 -0.03572695 -0.09066629
00000000: 3325 723d d5ae 97bd 4c25 98bd 7cfe 31bd
00000010: 737f b0bd 7506 7ebe 2d9e 1bbe 6ec3 0b3d
00000020: 5530 703d 2e75 cebd 593e 27be 7b92 153c
00000030: 9c83 fabd 9882 28bd 09f0 66bd cdcd d13d
00000040: 4732 3d3e c5ba d03d 236e 9fbd 84df 8d3d
00000050: 2ede 8bbd 2fd1 093d ac1d 873e 4b13 58be
00000060: ddaa 533c 97f3 f23d 619d 33be fdc5 0abe
00000070: 91b8 eb3d 1fe0 2ebd 99d8 adbc a971 913c
00000080: 8f5d 1f3d 1593 02be a139 9e3c 7581 b33c
00000090: aeb5 fbbd 4645 033e eb27 1d3d 622c b93c
000000a0: 3f88 73bd ddda 483e 7aff 01be 9c67 75bd
000000b0: 7189 063e 06d1 2bbe c355 a9bd d9af 0a3e
000000c0: 1a57 3cbe 010f 18be 5e05 343e 1f00 a7bd
000000d0: ab5f 2f3e e067 c63d 0d74 4cbd 929d cbba
000000e0: 3579 77bd b578 2e3d de1e 2bbe d67f 333e
000000f0: 64a3 33be 7f5f a5bd 11bf 0a3c 0d49 a6bd
00000100: 4b4b 0fbe ab84 403e af03 64bd 9b07 dd3d
00000110: b2a7 923d 776d e93c 2447 04be 46f4 9c3d
00000120: dca9 e83d 9c22 7cbd 9f92 63be 8a58 3d3e
00000130: 438f cbbc e481 d33d 3a2b b6bb cada 98bd
00000140: 3749 243e ccfd 90bc 9004 1a3d a4c1 8bbd
00000150: 9773 52bc 7c6c ed3d 24a2 cabd 7ff7 a4bd
00000160: 3f3b 9d3b 9569 993c 1ac3 553e 61bc aebc
00000170: 8b30 af3c afa6 28be 0374 e03d a9a7 40bc
00000180: e2df e43c dc90 56bb b667 0e3e 3600 323d
00000190: c876 b43d d1d8 e93d b72b 083e b3a0 1abe
000001a0: a69c f1bc fed2 763d f9e6 dfbc 430d dbbd
000001b0: 9a6d 04be 7298 aa3c 2f15 933d 1e7d 45be
000001c0: 9c93 d5bd a790 0abe 63f9 eb3d cd40 923d
000001d0: a168 513e 3e7b 2ebc b7c6 b8bd 8475 fb3d
000001e0: 8cf2 e9bc 7c0c 843d b1c9 3ebe 0021 40bc
000001f0: d11b dfbd 6ae6 483e 5781 153e b705 943c
00000200: 56e1 293d be9e 083e 4d48 2ebe 8975 32be
00000210: 307e 7cbd 3df1 00be 076f f93d d85a 1a3e
00000220: b57c 65bd 87bd 38bd 2faa 64be 389b 5a3c
00000230: dcff 11be 3b5c ccbd aad6 463e bf42 e63d
00000240: b4e3 853d 6d02 813d 33b9 38be b676 c23d
00000250: 506b 703d 4ac6 8bbe 8315 a2bd c833 0cbe
00000260: 830d 8abc 0dc4 0bbd 1624 193e 1d77 1cbe
00000270: 7724 843d c387 bebd beb9 ddbc f6c9 363e
00000280: d8df 9ebd 4eda c43d 26ea 35bd ae2b cdbd
00000290: a841 4abe 74c9 9fbd b6b9 8bbd bfcd af3c
000002a0: 4566 2bbe af94 4fbd 4713 12be d843 4dbd
000002b0: 723f 2bbe 8683 493e 245c 873b e5db 93bd
000002c0: 1274 2cbd 29b7 bfbd 8dd8 ffbd 6638 85bd
000002d0: b274 6dbe 06a8 aebd 4f99 c73d f973 9ebe
000002e0: 6d0f 513e a1a7 9dbe b028 cb3d 95fd ccbc
000002f0: 9a76 aabc ccaa aebd e5bd 2cbe ea90 883c
00000300: 7052 153e dc1f aebd 5dbc 29be d6e5 5abe
00000310: 9c16 053c e373 d3bc d3f3 6c3e ae5c 3cbd
00000320: 20de 693e e93a e43d 9d4f d13c e4ec 553d
00000330: 9b57 52bd 142b cebc e5b9 b23d 5e86 63bd
00000340: 425e 86bc b41a 94bd 1d5b 39be 3aa5 51bc
00000350: 513f 1ebd 3ddb d8bd da51 cfbc e533 3bbe
00000360: 8e5b 3f3e ef9d 443c cfbf 3ebe 41ae 13bd
00000370: 4acb 21bd b374 0abe c667 05bb 7ebf d2bc
00000380: ab75 20be c92f 8d3d 2fb1 d3bb 51c6 553d
00000390: 2de9 43bc 9ee7 d3bc 069f b53d 457a d13d
000003a0: 7c26 1ebe e49a 2f3e 850a 3abe 84f8 f43d
000003b0: 142c e63d 2da2 013e 3c78 473d 13c4 6d3d
000003c0: fa6c 303e 6d59 08be 5ce1 e9bd 4889 6f3d
000003d0: 278a f53d f08b 09bd ff99 f73c caab 23bd
000003e0: fff9 5e3e 4df3 be3c a80e 1e3e 5f8a 173d
000003f0: cdf2 b83d c621 033e 6c56 12bd 3faf b9bd

local_trans_pixel.layers.0.0.fn.fn.to_out.0.weight f4 [32, 256]
-0.049285248 0.056807045 0.024475478 0.050375268 -0.0930499 -0.046611782 -0.048586648 0.0958149
0.09483753 -0.05865682 0.0580339 -0.002547909 0.11185521 -0.048454363 -0.008371337 0.08287071
0.10925075 -0.035449706 -0.10707877 -0.08246308 0.00939481 0.045130685 0.076403864 0.020403378
-0.0059604174 0.034217633 0.049359526 -0.043249555 0.055972565 0.09650912 -0.048255567 0.069814734
0.044835307 0.111999676 0.09281104 0.047314722 0.0014234029 0.040172122 0.0039541842 0.0025452292
-0.050610892 0.021882912 0.043728165 0.061167732 0.029092595 0.017392393 0.06897275 0.10354059
0.10418135 0.024502259 -0.020097552 -0.05702155 0.015856754 0.008698229 0.05112419 -0.0021497193
-0.11651024 -0.028819077 -0.017697413 0.016873792 0.079134196 -0.04847751 -0.03991209 -0.08597381
0.091762975 0.024457501 -0.00047767512 -0.039829306 0.07199737 -0.08547993 0.041748956 0.024890307
-0.038486563 -0.023979157 -0.016975647 0.03418184 -0.072165124 0.066052794 0.021096896 0.0070273
-0.022911228 -0.1045921 0.030744446 0.03420095 0.091340475 -0.047331635 -0.052395325 0.09486638
-0.07080688 0.015828464 0.0061001815 0.005338083 -0.029686086 0.07688585 -0.10614844 0.02990525
-0.058839113 -0.039403446 -0.1040526 -0.017297668 0.008776508 -0.06277007 0.028742073 -0.04005193
0.031292778 -0.015885953 0.024624975 0.04309708 -0.0052020336 0.09324411 -0.014780126 -0.017713735
-0.077038705 0.021189041 -0.04861513 0.019050537 0.013763553 0.054227877 0.017822653 -0.0933042
-0.029056175 -0.07032487 -0.06952936 0.07642149 -0.019947723 0.06158274 -0.011861092 0.11711784
0.0071650385 -0.021917185 0.04510402 0.027552756 0.0247289 -0.05784747 -0.006950353 0.003391666
0.004010601 -0.046093106 -0.07054547 -0.017786251 -0.047187224 0.04596631 0.04133417 0.0123178
-0.037445202 -0.12757885 -0.044235837 -0.052041005 -0.019721678 0.03955722 0.017037688 -0.056766286
-0.018329794 0.08217902 -0.025446659 -0.039740413 -0.04392437 -0.046749026 -0.000116145275 -0.05689313
-0.08197359 -0.03897018 0.042096447 -0.010667396 0.0604294 0.03363179 -0.040213823 0.01876515
0.04745861 -0.060252197 0.10868759 0.04333392 0.029596549 -0.07407646 0.022965798 -0.089346334
-0.00040097628 0.015439811 -0.013848412 0.038859412 0.11811017 0.004370007 0.06766004 -0.015093799
-0.056161646 -0.036151282 -0.08448057 0.04108257 0.024053648 0.15880023 0.07336739 -0.100071065
-0.081571154 -0.062010065 -0.025444098 -0.06075159 0.030437479 -0.06500809 0.05994144 -0.026555972
0.122791454 -0.037709117 0.0112414 0.10129071 0.08962772 -0.04603374 -0.02992236 0.09507381
0.067017615 0.06748513 0.051576395 0.06789999 0.039393716 0.0061413897 -0.05951141 0.052410416
0.137195 -0.07725766 -0.0194956 -0.03789426 0.037926476 0.07087594 -0.06340869 0.025262432
-0.022812877 0.027207354 0.019395566 -0.068830535 0.09649556 0.044266272 -0.0077871406 0.1256884
0.0013422557 -0.04201982 -0.07199852 0.072928 -0.10465525 -0.00358012 0.07886851 -0.04085453
-0.023054428 0.016549222 0.024741039 -0.014438464 0.019988272 -0.08585969 -0.09532122 0.059600238
-0.119934015 -0.0075207585 -0.16347489 0.044574473 0.10447215 -0.06855784 0.0040897983 0.05151948
00000000: 54df 49bd 81ae 683d cc80 c83c 4c56 4e3d
00000010: f290 bebd ffeb 3ebd cb02 47bd 9a3a c43d
00000020: 2e3a c23d 2242 70bd f4b4 6d3d d2fa 26bb
00000030: 5814 e53d 1578 46bd ef27 09bc 1eb8 a93d
00000040: dbbe df3d b633 11bd 1d4c dbbd 67e2 a8bd
00000050: b0ec 193c f4da 383d a179 9c3d fc24 a73c
00000060: 9b4f c3bb ca27 0c3d 372d 4a3d 7226 31bd
00000070: 7d43 653d 93a6 c53d a1a7 45bd 07fb 8e3d
00000080: 3aa5 373d 1660 e53d b713 be3d 15cd 413d
00000090: 7a91 ba3a 868b 243d 1a92 813b dccd 263b
000000a0: 5e4d 4fbd cb43 b33c 4e1c 333d 048b 7a3d
000000b0: 9853 ee3c 7e7a 8e3c 9641 8d3d 170d d43d
000000c0: 085d d53d f6b8 c83c 9fa3 a4bc 6e8f 69bd
000000d0: 06e6 813c 0483 0e3c 9967 513d 4ee2 0cbb
000000e0: ec9c eebd fc15 ecbc 2afa 90bc e83a 8a3c
000000f0: 1c11 a23d 5b90 46bd dc7a 23bd 0913 b0bd
00000100: 3aee bb3d 195b c83c 7870 fab9 0e24 23bd
00000110: 5b73 933d 1a10 afbd f400 2b3d c2e6 cb3c
00000120: 16a4 1dbd f06f c4bc 8310 8bbc 4202 0c3d
00000130: 4fcb 93bd b046 873d 66d3 ac3c 4445 e63b
00000140: 54b0 bbbc 6234 d6bd c7db fb3c 4c16 0c3d
00000150: b710 bb3d d1de 41bd 7b9c 56bd 4e49 c23d
00000160: 3303 91bd b2aa 813c 08e4 c73b 16eb ae3b
00000170: 3c30 f3bc 5476 9d3d 5a64 d9bd dbfb f43c
00000180: 4801 71bd 8265 21bd 8819 d5bd d7b3 8dbc
00000190: 58cb 0f3c 988d 80bd 7f74 eb3c 7e0d 24bd
000001a0: db2c 003d 4223 82bc 51ba c93c 9086 303d
000001b0: d275 aabb c5f6 be3d 5728 72bc 651c 91bc
000001c0: 78c6 9dbd a494 ad3c a920 47bd df0f 9c3c
000001d0: 8780 613c 0d1e 5e3d d000 923c 4616 bfbd
000001e0: 3707 eebc 7c06 90bd 6965 8ebd df82 9c3d
000001f0: 6869 a3bc 2f3e 7c3d 0755 42bc 7adb ef3d
00000200: b3c8 ea3b ab8b b3bc febe 383d 51b6 e13c
00000210: 4394 ca3c 78f1 6cbd c9bf e3bb b746 5e3b
00000220: 5c6b 833b 20cc 3cbd 257a 90bd 79b4 91bc
00000230: 6447 41bd 2b47 3c3d 054e 293d 99d0 493c
00000240: 2460 19bd 08a4 02be a330 35bd f328 55bd
00000250: 5b8f a1bc c006 223d 9f92 8b3c c483 68bd
00000260: 5d28 96bc 794d a83d 8375 d0bc d8c6 22bd
00000270: 0aea 33bd e87b 3fbd 0593 f3b8 c508 69bd
00000280: c5e1 a7bd 329f 1fbd 536d 2c3d 4dc6 2ebc
00000290: d284 773d 7dc1 093d 40b7 24bd 5fb9 993c
000002a0: f663 423d 02cb 76bd 9997 de3d e97e 313d
000002b0: 7674 f23c 66b5 97bd c522 bc3c 36fb b6bd
000002c0: 203a d2b9 43f7 7c3c 73e4 62bc 0c2b 1f3d
000002d0: bfe3 f13d 4732 8f3b 5991 8a3d fb4b 77bc
000002e0: c109 66bd 5e13 14bd 2604 adbd 3246 283d
000002f0: 280c c53c 879c 223e a441 963d 0ff2 ccbd
00000300: c70e a7bd 44fe 7dbd 2470 d0bc a9d6 78bd
00000310: 0558 f93c f622 85bd 2885 753d e98b d9bc
00000320: 167a fb3d e074 1abd d92d 383c 8171 cf3d
00000330: bd8e b73d e08d 3cbd bd1f f5bc 0fb6 c23d
00000340: 8840 893d a535 8a3d c541 533d 260f 8b3d
00000350: 4e5b 213d b63d c93b 3cc2 73bd 4eac 563d
00000360: d97c 0c3e 4439 9ebd 3db5 9fbc 0337 1bbd
00000370: cb58 1b3d 6827 913d 6adc 81bd 29f3 ce3c
00000380: 12e2 babc f5e1 de3c 73e3 9e3c 06f7 8cbd
00000390: 779f c53d 8d50 353d 452b ffbb 76b4 003e
000003a0: a1ee af3a fa1c 2cbd f673 93bd 465b 953d
000003b0: 7e55 d6bd 72a0 6abb d085 a13d 1457 27bd
000003c0: a4dc bcbc 3c92 873c b8ad ca3c 4f8f 6cbc
000003d0: 72be a33c 35d7 afbd c637 c3bd 611f 743d
000003e0: f79f f5bd b270 f6bb f665 27be b993 363d
000003f0: 7ff5 d53d 0e68 8cbd b703 863b 1706 533d

local_trans_pixel.layers.0.0.fn.fn.to_out.0.bias f4 [32]
0.0046991296 0.035704777 -0.018079078 -0.002051135 0.15101287 0.097028166 0.043902263 -0.060753133
0.12026987 0.115105905 -0.032573763 -0.020647831 0.06282448 0.16951239 0.004156728 0.002134675
-0.022801552 -0.115241885 -0.064123645 0.01847192 0.011747151 0.078390114 0.09026808 -0.049361374
0.16206284 0.060447775 0.08764009 0.13193347 0.007298144 -0.024351444 -0.057192456 0.058394153
00000000: 28fb 993b 2c3f 123d 931a 94bc 566c 06bb
00000010: 1ea3 1a3e b4b6 c63d dcd2 333d 47d8 78bd
00000020: 0d50 f63d a5bc eb3d 116c 05bd a425 a9bc
00000030: 1faa 803d a894 2d3e 2935 883b e7e5 0b3b
00000040: 52ca babc f003 ecbd 4253 83bd 6d52 973c
00000050: 1f77 403c ff8a a03d 79de b83d 272f 4abd
00000060: cdf3 253e 1698 773d a67c b33d 9119 073e
00000070: 4525 ef3b ae7c c7bc a342 6abd b52e 6f3d

local_trans_pixel.layers.0.1.fn.norm.weight f4 [32]
1.0323024 1.0464754 1.00652 1.0463742 1.094168 1.0126449 1.0803325 0.99220234
1.1157523 1.0376424 1.0323435 1.0348622 1.0707254 0.948036 1.069538 1.0732744
1.0157607 1.0846416 1.0131533 1.1052946 1.0854154 1.0099018 1.0501248 1.0843679
1.0623703 1.1201206 1.080972 1.1821476 1.0492514 1.0826104 1.0353184 1.149996
00000000: 7c22 843f e8f2 853f a6d5 803f 97ef 853f
00000010: b20d 8c3f 599e 813f 5648 8a3f f900 7e3f
00000020: f9d0 8e3f 77d1 843f d523 843f 5d76 843f
00000030: 880d 893f 7db2 723f 9fe6 883f 0e61 893f
00000040: 7204 823f 89d5 8a3f 02af 813f 4b7a 8d3f
00000050: e4ee 8a3f 7644 813f 7d6a 863f 91cc 8a3f
00000060: c0fb 873f 1d60 8f3f 4a5d 8a3f 9d50 973f
00000070: df4d 863f fa92 8a3f 5085 843f 1233 933f

local_trans_pixel.layers.0.1.fn.norm.bias f4 [32]
0.011399502 -0.12126205 0.051718287 -0.007695504 0.04106205 -0.033022013 -0.055209316 0.06575123
0.06430059 0.071029 0.003638272 0.031987134 -0.06507327 -0.049066294 0.051590458 0.025063504
-0.00074226654 0.019595686 0.062185146 -0.037541717 -0.022782702 0.009585518 0.053098857 -0.029448472
0.03747515 -0.041604128 0.04330417 0.04548503 0.027775321 -0.0059631784 0.01889494 0.06379354
00000000: fac4 3a3c 3d58 f8bd 8ed6 533d 912a fcbb
00000010: ae30 283d 1742 07bd 2a23 62bd 95a8 863d
00000020: 07b0 833d a777 913d 1370 6e3b f104 033d
00000030: 2245 85bd bdf9 48bd 8450 533d fa51 cd3c
00000040: aa94 42ba 2287 a03c dab5 7e3d 58c5 19bd
00000050: caa2 babc 940c 1d3c 307e 593d ec3d f1bc
00000060: 8b7f 193d 1769 2abd b75f 313d 834e 3a3d
00000070: 1289 e33c c466 c3bb 90c9 9a3c 30a6 823d

local_trans_pixel.layers.0.1.fn.fn.net.0.weight f4 [8, 32]
0.16078985 -0.075248726 0.06991673 0.07994252 -0.11919267 -0.12231891 0.060826715 -0.026862884
0.20479782 0.17372304 -0.045079064 0.11583732 -0.120529376 -0.15587127 0.14916028 -0.11589062
-0.16104423 0.11412447 0.045847006 -0.020928068 -0.14067584 -0.11266751 0.09744891 -0.17581135
0.20319079 0.06657605 0.048470456 -0.055208087 0.07442058 0.1264057 0.10176495 -0.09351284
-0.06512837 -0.20385905 0.13316086 0.069066 0.12291238 0.02655588 -0.13034315 -0.023161339
-0.08450254 0.09768027 0.060437877 -0.11381563 -0.04368364 0.07138963 0.16663262 -0.2372288
0.18270725 -0.09823607 -0.12468603 -0.22489794 -0.16864228 -0.035870753 0.10532275 0.14325587
-0.055051483 -0.252541 0.09803764 0.17485462 0.16729993 0.009392351 0.09935972 0.2620185
0.023178296 -0.11256974 0.053623874 0.13885951 -0.07648165 -0.24527775 -0.2262442 0.059319496
0.24016659 -0.091920495 0.25068286 0.102753796 -0.35119984 -0.10673825 -0.14173546 0.05726775
-0.023949893 -0.10016761 0.0097415885 -0.19549593 0.081891656 0.113322236 0.2759011 -0.26710892
0.060597252 -0.07492553 0.21111506 0.22393098 -0.08068945 -0.1595817 -0.08866256 0.06819468
0.088406146 0.04913286 -0.042919647 0.19879977 0.20558532 -0.123473585 0.10877503 -0.027805854
-0.25491703 0.10849682 0.074565984 0.062449545 0.015252389 -0.11579329 0.07566346 0.03900733
0.12176652 0.051064823 0.10126884 -0.11810157 0.04209365 0.15684994 -0.0058115115 -0.014733072
-0.002180184 0.13490306 0.20279233 0.035745755 -0.08115795 -0.18876053 -0.015151885 0.11668971
0.1925246 -0.11557424 0.09769708 -0.14090452 0.2142454 0.10131989 0.025432667 -0.028397337
0.116660595 -0.0445774 0.00026944437 -0.10232483 0.034930654 -0.102483906 0.14022052 -0.03558912
0.13628674 0.21117476 -0.05133351 0.10996706 -0.032228876 -0.08403919 0.07198956 -0.15069988
-0.19735077 0.028624747 0.06742783 -0.17823134 -0.08558043 0.103578 -0.12387142 -0.046362594
-0.14673544 -0.2478659 0.009399441 -0.056764487 0.07933066 -0.09377379 -0.2565699 0.13290696
0.06171083 0.2222524 -0.16439484 -0.07493013 -0.036996752 0.10553414 0.18707664 0.08704347
-0.18300319 -0.13188738 0.17186321 -0.17360048 -0.20875685 0.12903702 0.06862142 0.28787026
0.19507323 -0.21969657 -0.14228801 0.36484942 0.2296597 -0.107882775 0.22695374 0.27306974
-0.048366357 -0.0030805331 -0.18385957 0.09990121 0.11836527 -0.09446558 -0.03049099 -0.14826499
0.16952506 -0.15206006 0.11568109 -0.100713104 -0.0073606567 0.020917457 0.045864955 0.04436376
-0.07400062 -0.078789815 -0.054954316 -0.07822363 -0.14365852 -0.14854376 0.0982488 -0.072913304
0.07936029 0.06268218 -0.10607393 -0.035463043 0.014523159 0.010856175 0.025360074 -0.09389256
-0.1397544 -0.13919073 0.03866995 0.027986368 0.107462585 0.07556013 -0.043281887 0.08084425
0.012619024 0.15946808 0.066511706 -0.051754724 -0.14945656 0.08685784 -0.077554144 -0.04798648
0.056697883 0.11958982 0.16038513 -0.020392243 0.004937499 -0.14365044 -0.06457191 -0.031062154
0.24272779 -0.087312125 -0.095362075 0.021680998 0.010850053 0.18669902 0.0620337 -0.06986235
00000000: 18a6 243e 011c 9abd 8130 8f3d e7b8 a33d
00000010: 491b f4bd 5682 fabd 6f25 793d 8d0f dcbc
00000020: 85b6 513e 74e4 313e d3a4 38bd 1e3c ed3d
00000030: 1bd8 f6bd b89c 1fbe 79bd 183e 1058 edbd
00000040: c7e8 24be 17ba e93d 12ca 3b3d 5771 abbc
00000050: 540d 10be 39be e6bd 4b93 c73d e407 34be
00000060: 3f11 503e 0659 883d f588 463d e021 62bd
00000070: d169 983d 7f70 013e 246a d03d a983 bfbd
00000080: 0662 85bd 6dc0 50be 525b 083e 7a72 8d3d
00000090: 7cb9 fb3d b88b d93c ad78 05be d9bc bdbc
000000a0: ab0f adbd 980c c83d b58d 773d 2b18 e9bd
000000b0: 9eed 32bd ba34 923d bea1 2a3e 1bec 72be
000000c0: 9c17 3b3e fe2f c9bd 645b ffbd a54b 66be
000000d0: 90b0 2cbe 36ed 12bd 74b3 d73d abb1 123e
000000e0: aa7d 61bd 0e4d 81be f5c7 c83d 170d 333e
000000f0: ac50 2b3e 60e2 193c 1c7d cb3d 4a27 863e
00000100: 69e0 bd3c f78a e6bd b5a4 5b3d 3031 0e3e
00000110: 69a2 9cbd 172a 7bbe 8fac 67be 00f9 723d
00000120: 3bee 753e d040 bcbd 8159 803e 9570 d23d
00000130: 77d0 b3be 9599 dabd 1a23 11be 9791 6a3d
00000140: 9132 c4bc ad24 cdbd 2f9b 1f3c 1630 48be
00000150: d0b6 a73d 7d15 e83d e942 8d3e 80c2 88be
00000160: d334 783d 8e72 99bd 8c2e 583e 2a4e 653e
00000170: 8340 a5bd 6369 23be b794 b5bd a7a9 8b3d
00000180: 480e b53d 8a3f 493d 83cc 2fbd 2b92 4b3e
00000190: f584 523e b8df fcbd 71c5 de3d 1ac9 e3bc
000001a0: 7c84 82be 9533 de3d 0db6 983d 18cb 7f3d
000001b0: 28e5 793c 0825 edbd 72f5 9a3d 26c6 1f3d
000001c0: ba60 f93d 5929 513d 0a66 cf3d 3cdf f1bd
000001d0: 646a 2c3d 459d 203e 7e6e bebb fc62 71bc
000001e0: 6be1 0ebb 0724 0a3e cba8 4f3e 246a 123d
000001f0: 2436 a6bd 714a 41be 9d3f 78bc 04fb ee3d
00000200: 2b25 453e 30b2 ecbd 6815 c83d 4649 10be
00000210: 2563 5b3e cd80 cf3d 2b58 d03c 88a1 e8bc
00000220: c0eb ee3d cb96 36bd 3644 8d39 ae8f d1bd
00000230: 7213 0f3d 15e3 d1bd f895 0f3e e6c5 11bd
00000240: c08e 0b3e 323e 583e 1643 52bd 6936 e13d
00000250: 6d02 04bd bd1c acbd 436f 933d 1251 1abe
00000260: 5216 4abe 727e ea3c 9a17 8a3d 4782 36be
00000270: cb44 afbd b420 d43d 4db0 fdbd b4e6 3dbd
00000280: d141 16be 8fd0 7dbe 1d00 1a3c e181 68bd
00000290: 1d78 a23d 790c c0bd 215d 83be c318 083e
000002a0: 7fc4 7c3d 2296 633e 1f57 28be f874 99bd
000002b0: e889 17bd 4822 d83d 0591 3f3e d943 b23d
000002c0: 3065 3bbe 7c0d 07be e9fc 2f3e 53c4 31be
000002d0: 5bc4 55be 4822 043e 6389 8c3d bb63 933e
000002e0: 47c1 473e 23f8 60be f3b3 11be 8bcd ba3e
000002f0: ea2b 6b3e a5f1 dcbd 9066 683e cccf 8b3e
00000300: cd1b 46bd c5e2 49bb af45 3cbe 0199 cc3d
00000310: 7e69 f23d 2c77 c1bd 3ec8 f9bc c7d2 17be
00000320: fa97 2d3e a2b5 1bbe 35ea ec3d ac42 cebd
00000330: aa31 f1bb 165b ab3c e4dc 3b3d c6b6 353d
00000340: a38d 97bd 8e5c a1bd c717 61bd b633 a0bd
00000350: 381b 13be db1b 18be ab36 c93d 9253 95bd
00000360: a687 a23d 845f 803d 4a3d d9bd b241 11bd
00000370: 8bf2 6d3c 19de 313c eebf cf3c be4a c0bd
00000380: c71b 0fbe 0488 0ebe 6264 1e3d ab43 e53c
00000390: 5815 dc3d 45bf 9a3d 5948 31bd ac91 a53d
000003a0: 06c0 4e3c 9a4b 233e 4a37 883d c3fc 53bd
000003b0: 240b 19be 86e2 b13d b5d4 9ebd 798d 44bd
000003c0: 0a3c 683d 82eb f43d 003c 243e a20d a7bc
000003d0: beca a13b 1a19 13be 473e 84bd 0f76 febc
000003e0: a28d 783e b3d0 b2bd 314d c3bd 599c b13c
000003f0: 6cc4 313c 072e 3f3e 0d17 7e3d fe13 8fbd

local_trans_pixel.layers.0.1.fn.fn.net.0.bias f4 [8]
0.18966497 0.03266706 -0.0193468 0.093913674 -0.022304201 -0.08766226 -0.19016907 0.23002575
00000000: 8937 423e e5cd 053d 2e7d 9ebc d055 c03d
00000010: 4db7 b6bc 4588 b3bd aebb 42be df8b 6b3e

local_trans_pixel.layers.0.1.fn.fn.net.3.weight f4 [32, 8]
-0.28133476 0.008951775 0.18284613 0.38757533 0.13885994 0.29101786 0.17954667 0.025509372
-0.050446104 0.29662827 -0.41211846 -0.036373854 0.11394156 -0.08317022 0.12271491 0.020818695
-0.017418819 0.27610326 0.35369036 0.33438438 -0.28400508 -0.18723547 0.0794663 0.33766404
0.2215802 0.26145515 -0.0024503286 -0.18746933 -0.2510462 -0.31156126 -0.05284587 -0.20600778
0.21622159 -0.28433505 0.29218772 0.33650327 0.25208187 0.17193891 -0.22541645 0.00025424198
-0.081420444 0.20608474 -0.11615413 -0.18628731 -0.13336906 0.08462614 0.17224069 0.21165411
-0.25951123 0.23550582 -0.12793007 0.3323508 -0.12246712 0.35396436 -0.15073363 0.17472224
-0.13362528 -0.08917457 -0.35229543 -0.013442924 -0.3040819 -0.011310425 0.12289643 -0.28693184
0.17205004 0.1057872 -0.3177596 -0.36001852 0.012179642 0.34422535 -0.036247864 0.3532498
0.2940543 -0.113703184 0.16193192 0.26759288 -0.17167531 0.21445492 0.14591394 0.17004578
0.11155772 0.11994334 -0.11487465 0.1814666 -0.2464064 0.1580371 0.09763205 -0.14071144
-0.21508078 -0.056916006 -0.077686496 -0.18351042 0.022858769 0.070364915 -0.18583721 -0.0067465273
-0.29928222 0.30797303 -0.16073433 -0.29830882 0.24536067 0.39070448 0.13708328 -0.041422717
0.04937244 -0.086025484 0.30097577 0.15114698 0.05032083 0.5623119 -0.17502432 -0.17247178
-0.13808198 0.15007238 -0.052314147 0.096196614 0.28726938 0.13548781 -0.28090912 -0.22598414
0.27038342 -0.088253774 -0.11253651 0.10183826 -0.3111974 -0.2950714 0.16923153 0.041604187
-0.022441538 0.36147535 0.24174544 -0.18582153 0.10615429 0.0050046807 -0.15004501 -0.17716706
-0.115006566 -0.28139174 0.07755492 -0.3606207 0.077238604 -0.44963637 0.10555597 -0.27442986
0.28488046 -0.036752075 0.033786334 -0.19595625 0.22430725 -0.37592402 0.14643885 0.2846057
-0.019407518 -0.31673574 -0.05108136 0.2920675 0.32685953 -0.35613793 0.10419132 -0.35524788
0.32192117 0.035182692 -0.3718202 0.3090106 0.21773006 -0.24744372 0.0798559 -0.38006312
0.0431295 0.34858513 0.34705785 0.054933302 0.095515825 -0.035873614 0.17357285 0.3746025
0.17713018 0.08297673 -0.08838917 0.078193545 0.15803829 -0.0036299224 0.2534142 0.09361567
0.20581186 -0.063301735 -0.42727643 -0.18903707 -0.15734565 0.17601092 -0.29017588 0.092439055
0.42801625 0.19167231 0.2762651 0.074146725 0.07343837 -0.071542695 -0.34321782 0.16012125
0.35454506 0.13770556 0.18751493 -0.13256232 0.12409513 0.20928594 0.16987868 -0.24109639
-0.25305185 0.24616796 -0.21559945 -0.14669265 0.26856267 0.258385 0.09027528 -0.1675813
0.3836274 0.3817134 -0.16714957 0.12620628 0.25468957 0.2908191 0.026843598 0.16742934
-0.059247095 0.13213654 -0.033210576 0.1748758 -0.14768311 -0.5064835 -0.03530255 0.3467752
0.044081554 -0.27263996 0.108214006 -0.15682209 -0.03737894 -0.27484 -0.020578945 -0.24127541
0.19430071 -0.05353886 0.22861598 -0.105888985 0.028089143 -0.3669998 -0.0065928968 0.05606365
-0.124496624 0.21131428 -0.24903148 0.29200125 -0.019598573 -0.40721488 0.32371047 -0.34599882
00000000: 1c0b 90be 77aa 123c 043c 3b3e 4670 c63e
00000010: 4d31 0e3e 4b00 953e 15db 373e 08f9 d03c
00000020: 93a0 4ebd a9df 973e 3101 d3be c0fc 14bd
00000030: 315a e93d 2655 aabd f451 fb3d f88b aa3c
00000040: e9b1 8ebc 685d 8d3e e716 b53e 6e34 ab3e
00000050: 1d69 91be a8ba 3fbe 3abf a23d 4de2 ac3e
00000060: ece5 623e 73dd 853e b195 20bb f6f7 3fbe
00000070: 2189 80be f584 9fbe e974 58bd b4f3 52be
00000080: 3169 5d3e 5d94 91be a199 953e 284a ac3e
00000090: e010 813e c110 303e 92d3 66be c84b 8539
000000a0: c3bf a6bd e107 533e 37e2 edbd 1ac2 3ebe
000000b0: e691 08be 7850 ad3d dd5f 303e dbbb 583e
000000c0: a8de 84be 7028 713e 1a00 03be e229 aa3e
000000d0: 0bd0 fabd d13a b53e eb59 1abe 63ea 323e
000000e0: 11d5 08be 28a1 b6bd 1160 b4be b63f 5cbc
000000f0: 9fb0 9bbe 5c4f 39bc 20b1 fb3d bbe8 92be
00000100: e32d 303e f6a6 d83d 63b1 a2be 5954 b8be
00000110: 1f8d 473c 4e3e b03e a478 14bd 28dd b43e
00000120: 498e 963e 37dd e8bd 7bd1 253e ef01 893e
00000130: a7cb 2fbe 129a 5b3e 776a 153e 7b20 2e3e
00000140: 6078 e43d dba4 f53d 6743 ebbd 61d2 393e
00000150: f651 7cbe 7ad4 213e 50f3 c73d a916 10be
00000160: 233e 5cbe c220 69bd 191a 9fbd 28ea 3bbe
00000170: 5042 bb3c 7b1b 903d 1c4c 3ebe f911 ddbb
00000180: 853b 99be a4ae 9d3e 8a97 24be efbb 98be
00000190: d43f 7b3e 6b0a c83e 8f5f 0c3e deaa 29bd
000001a0: c13a 4a3d 212e b0bd 7f19 9a3e 46c6 1a3e
000001b0: 371d 4e3d acf3 0f3f 9339 33be 719c 30be
000001c0: 5d65 0dbe 93ac 193e 5c47 56bd bb02 c53d
000001d0: f914 933e 51bd 0a3e 52d3 8fbe 6368 67be
000001e0: b26f 8a3e 65be b4bd 8b79 e6bd 9490 d03d
000001f0: 4455 9fbe 9913 97be 084b 2d3e 2769 2a3d
00000200: 51d7 b7bc 4c13 b93e 1e8c 773e 0048 3ebe
00000210: 6c67 d93d 4efe a33b 66a5 19be 486b 35be
00000220: 9088 ebbd 9412 90be 1dd5 9e3d 47a3 b8be
00000230: 462f 9e3d bd36 e6be ba2d d83d 1282 8cbe
00000240: dadb 913e 5889 16bd 8a63 0a3d c1a8 48be
00000250: cdb0 653e 1d79 c0be 11f4 153e d7b7 913e
00000260: 84fc 9ebc 302b a2be b03a 51bd df89 953e
00000270: 225a a73e b657 b6be 4262 d53d 0de3 b5be
00000280: dad2 a43e ba1b 103d 385f bebe a336 9e3e
00000290: a1f4 5e3e e361 7dbe 7d8b a33d a297 c2be
000002a0: 8fa8 303d c079 b23e 91b1 b13e be01 613d
000002b0: cd9d c33d 36f0 12bd 15bd 313e e6cb bf3e
000002c0: 9d61 353e b4ef a93d 6205 b5bd f023 a03d
000002d0: cad4 213e fee3 6dbb 82bf 813e 93b9 bf3d
000002e0: 58c0 523e 57a4 81bd fac3 dabe ef92 41be
000002f0: 381f 21be 353c 343e ef91 94be b050 bd3d
00000300: f224 db3e bf45 443e 9f72 8d3e 3dda 973d
00000310: db66 963d fa84 92bd 3fba afbe d3f6 233e
00000320: ee86 b53e b002 0d3e ea03 403e 6bbe 07be
00000330: 9625 fe3d 0e4f 563e adf4 2d3e f9e1 76be
00000340: 0390 81be 7413 7c3e 1ac6 5cbe 9936 16be
00000350: 0c81 893e 0a4b 843e 3fe2 b83d 6f9a 2bbe
00000360: d06a c43e f06f c33e 4229 2bbe 383c 013e
00000370: ac66 823e 3ee6 943e 1be7 db3c 9972 2b3e
00000380: 15ad 72bd cd4e 073e d007 08bd a412 333e
00000390: 3e3a 17be e7a8 01bf 6899 10bd 858c b13e
000003a0: dc8e 343d 7797 8bbe 4e9f dd3d f895 20be
000003b0: a91a 19bd d4b7 8cbe 2d95 a8bc e710 77be
000003c0: c4f6 463e 904b 5bbd 4f1a 6a3e 53dc d8bd
000003d0: 341b e63c 66e7 bbbe 3a09 d8bb ffa2 653d
000003e0: 16f8 febd c562 583e 1c02 7fbe 3081 953e
000003f0: 308d a0bc 787e d0be 61bd a53e c226 b1be

local_trans_pixel.layers.0.1.fn.fn.net.3.bias f4 [32]
0.28150624 0.0046021002 0.2588206 -0.2534581 0.3432133 -0.09206122 0.2917419 -0.17642379
-0.13528918 0.24968573 -0.21078174 -0.23303188 -0.20131427 0.26621515 -0.35462722 -0.20744573
0.34378946 -0.3773673 -0.36861908 -0.37291226 0.15285589 -0.08443901 0.18905534 -0.09693467
0.30722055 -0.09315538 0.12820576 0.24679248 0.23265538 -0.1212644 -0.21815021 0.2396301
00000000: 9621 903e 37cd 963b 2284 843e 43c5 81be
00000010: a7b9 af3e 988a bcbd 325f 953e 70a8 34be
00000020: 3f89 0abe 9ead 7f3e 2bd7 57be e99f 6ebe
00000030: 5425 4ebe 5a4d 883e b391 b5be a76c 54be
00000040: 2c05 b03e 4936 c1be a4bb bcbe 5bee bebe
00000050: 4186 1c3e 5cee acbd b997 413e af85 c6bd
00000060: 034c 9d3e 3fc8 bebd 5f48 033e 2bb7 7c3e
00000070: 363d 6e3e 7859 f8bd c562 5fbe 9861 753e

conv2d_features.0.weight f4 [64, 30, 3, 3]
-0.012752071 -0.062027637 -0.049014397 -0.005148545 -0.058547445 0.0019860102 0.030279227 -0.010415227
-0.02212954 -0.013446488 -0.016061516 -0.092192575 -0.080635175 -0.0710914 -0.10890435 0.000605164
-0.067515105 -0.042986028 0.021393454 -0.05091143 -0.047782734 -0.0085799815 -0.09847224 0.031892035
0.014249596 -0.052816655 0.05757123 -0.026796425 0.077942505 0.01984328 0.0062306933 0.0123958625
0.0032032698 0.030621456 0.075496 0.024876742 0.024639478 -0.039222468 0.077433236 -0.002111518
-0.01847774 0.026329923 -0.014753901 0.02108081 -0.012471443 -0.021918016 0.06245482 0.014680316
0.0133748045 0.03441406 -0.06690142 -0.004095657 0.02982948 0.048945263 0.038380023 0.057527263
0.028184747 0.092661664 -0.013144188 0.025235577 -0.013405247 0.0626529 0.043676816 -0.00033266583
0.081023395 0.023654673 0.06586386 0.0022315287 -0.016966283 0.07665731 0.0868254 0.07576088
-0.04905324 0.032211654 0.03019598 -0.02146859 0.007459412 0.041188765 -0.050005555 -0.024634378
-0.049389277 -0.018777242 -0.04263328 0.005627109 -0.008394452 -0.05893968 -0.034495857 -0.036375776
0.0126402145 0.025630398 0.004168413 0.013693976 0.043262046 0.060246445 0.05508995 -0.031112373
0.10258573 0.11705722 0.0391477 0.044370912 0.024494339 -0.08406663 -0.029889334 -0.008048048
-0.08542207 0.023935305 -0.0121489605 -0.031619992 -0.02487091 -0.038631838 0.015567435 0.047344815
-0.05232577 0.02520554 0.0044217575 0.044804372 0.04300995 -0.029107038 -0.0153256245 -0.068045996
1.0751746e-05 -0.009056821 -0.10237681 0.06872058 -0.0054274583 0.027307434 0.044997677 -0.011946067
0.03706016 0.008633524 0.06407593 0.090468556 0.07781652 0.0026735342 0.0072932933 -0.038503654
0.024223559 -0.0044694627 -0.06368717 -0.07153293 0.02129518 -0.07075909 -0.06351588 0.0179733
-0.043732885 -0.032813627 -0.06530454 0.009080969 -0.08490916 -0.03228486 0.010314371 -0.02973988
-0.07995505 -0.106997855 0.017155617 -0.023269072 0.027167436 -0.008293247 -0.091577426 -0.016528497
0.014804337 0.016122602 0.015828125 -0.017425438 -0.038178127 -0.06779463 0.012805196 -0.012923252
0.0031173413 -0.050469283 -0.067348145 0.07739687 -0.0124102635 -0.03955883 0.014632259 -0.016592208
0.012903896 -0.031589326 -0.030219723 -0.043830913 -0.015348957 -0.003725433 -0.03203243 0.06697067
0.028635949 0.04824355 0.011017251 0.028512083 0.052402325 -0.021049822 -0.035235677 0.03850891
-0.014654761 0.018816506 -0.029428488 0.016185284 -0.03410072 -0.04745168 0.040503636 -0.021439137
-0.039667077 -0.0041897506 0.022936923 0.005906089 0.014306155 -0.03056343 0.046770256 0.020065768
0.032372065 0.029264744 0.050718326 0.06071007 0.03924204 0.001264182 0.044080876 -0.038947053
0.025490755 0.0047620307 -0.03535777 -0.04266266 0.03823827 0.03570248 -0.041627735 0.016058791
-0.008534325 0.05745082 0.0065929424 -0.0017580788 0.040900026 0.044834454 0.027065014 0.019831061
0.06216989 -0.016917164 0.011515418 -0.043078296 0.064361244 -0.011469223 -0.06040372 0.03266612
-0.04185401 -0.00017204718 -0.06000325 0.0062772958 0.076379344 -0.04333625 -0.010527476 -0.039508034
-0.05884943 0.014693684 -0.04752535 0.006937004 0.01626848 -0.0029834649 -0.011857404 0.071773306
00000000: 10ee 50bc b110 7ebd 52c3 48bd 20b5 a8bb
00000010: 72cf 6fbd b927 023b 240c f83c a1a4 2abc
00000020: 0249 b5bc a94e 5cbc 7193 83bc 76cf bcbd
00000030: 0e24 a5bd 5e98 91bd 3e09 dfbd dea3 1e3a
00000040: 5c45 8abd 1e12 30bd 5341 af3c 8188 50bd
00000050: d4b7 43bd 0d93 0cbc d0ab c9bd 39a1 023d
00000060: 2377 693c 4756 58bd cfcf 6b3d 2d84 dbbc
00000070: 52a0 9f3d 608e a23c d82a cc3b 0418 4b3c
00000080: f3ed 513b d9d9 fa3c a69d 9a3d 4fca cb3c
00000090: bbd8 c93c bda7 20bd 5195 9e3d 6561 0abb
000000a0: a15e 97bc dab1 d73c 59ba 71bc aab1 ac3c
000000b0: 0655 4cbc 698d b3bc a0d0 7f3d b585 703c
000000c0: ff21 5b3c c2f5 0c3d 9d03 89bd dc34 86bb
000000d0: f45c f43c d47a 483d 5f34 1d3d b5a1 6b3d
000000e0: b3e3 e63c 66c5 bd3d b85a 57bc d7ba ce3c
000000f0: aea1 5bbc 2a50 803d 76e6 323d a769 aeb9
00000100: 98ef a53d 72c7 c13c a2e3 863d d73e 123b
00000110: e0fc 8abc 82fe 9c3d 84d1 b13d 8528 9b3d
00000120: 0dec 48bd 5ef0 033d 8f5d f73c e5de afbc
00000130: 156e f43b 8db5 283d a0d2 4cbd 09ce c9bc
00000140: 694c 4abd bbd2 99bc 3ca0 2ebd 9d63 b83b
00000150: e288 09bc bc6a 71bd 874b 0dbd c4fe 14bd
00000160: e718 4f3c d7f6 d13c 2f97 883b b35c 603c
00000170: 8b33 313d fac4 763d 00a6 613d 60df febc
00000180: 7818 d23d b2bb ef3d 5759 203d 46be 353d
00000190: 5aa8 c83c 202b acbd 7ada f4bc f6db 03bc
000001a0: c4f1 aebd f913 c43c 6f0c 47bc f783 01bd
000001b0: 14be cbbc 6b3c 1ebd 8e0e 7f3c a3ec 413d
000001c0: 8c53 56bd d97b ce3c 64e4 903b ca84 373d
000001d0: 342b 303d e271 eebc 5418 7bbc b35b 8bbd
000001e0: 6662 3437 1063 14bc efaa d1bd 60bd 8c3d
000001f0: d2d8 b1bb d7b3 df3c 7c4f 383d 70b9 43bc
00000200: 65cc 173d a073 0d3c 3e3a 833d 9447 b93d
00000210: 455e 9f3d 7636 2f3b 94fc ee3b 02b6 1dbd
00000220: 7c70 c63c 9274 92bb 6b6e 82bd db7f 92bd
00000230: 3b73 ae3c 24ea 90bd 9d14 82bd be3c 933c
00000240: 4121 33bd 9567 06bd 63be 85bd 58c8 143c
00000250: dbe4 adbd 213d 04bd 9cfd 283c 0ca1 f3bc
00000260: 79bf a3bd b121 dbbd f089 8c3c c89e bebc
00000270: 3e8e de3c 66e0 07bc f28c bbbd c566 87bc
00000280: e48d 723c 8c13 843c fca9 813c cbbf 8ebc
00000290: ab60 1cbd e9d7 8abd e3cc 513c 0cbc 53bc
000002a0: 4f4c 4c3b e1b8 4ebd d3ed 89bd 4082 9e3d
000002b0: 6b54 4bbc 7108 22bd 24bc 6f3c 62ec 87bc
000002c0: dd6a 533c cf63 01bd 5a8f f7bc 0b88 33bd
000002d0: 317a 7bbc 6526 74bb 7034 03bd eb27 893d
000002e0: f095 ea3c 079b 453d b381 343c 2c92 e93c
000002f0: d2a3 563d ad70 acbc 4953 10bd 85bb 1d3d
00000300: 861a 70bc 1325 9a3c 0314 f1bc 0097 843c
00000310: 32ad 0bbd b15c 42bd 24e7 253d 21a1 afbc
00000320: f279 22bd 2d4a 89bb 37e6 bb3c de87 c13b
00000330: 5d64 6a3c 2960 fabc 2b92 3f3d f760 a43c
00000340: 9298 043d 9ebc ef3c 05be 4f3d 1fab 783d
00000350: 43bc 203d e9b2 a53a 268e 343d f286 1fbd
00000360: fdd1 d03c cf0a 9c3b 4fd3 10bd 0bbf 2ebd
00000370: bb9f 1c3d c33c 123d d881 2abd ba8d 833c
00000380: 8ed3 0bbc 8d51 6b3d 9c09 d83b 566f e6ba
00000390: c986 273d 55a4 373d 73b7 dd3c c074 a23c
000003a0: dba5 7e3d dd95 8abc 2aab 3c3c de72 30bd
000003b0: d4cf 833d 68e9 3bbc e469 77bd e9cc 053d
000003c0: 1c6f 2bbd 9067 34b9 f8c5 75bd c6b1 cd3b
000003d0: c66c 9c3d 5a81 31bd 6f7b 2cbc 2dd3 21bd
000003e0: 1a0c 71bd c7bd 703c f1a9 42bd cf4f e33b
000003f0: 7a45 853c 3c86 43bb 8f45 42bc e2fd 923d
