src/res/GGCL/guided_contra_cross_transformer/Pavia/20/true ss 0.7/_1711724328.pth (torch, 266710 bytes, 37 tensors)

pixel_pos_embedding f4 [1, 170, 32]
0	0x3f5b5a4a	0.85684645
1	0x3ee9c9b1	0.4566169
2	0x3f0a596e	0.5404271
3	0xbeb1f4ab	-0.3475698
4	0xc00c294d	-2.1900208
5	0xbf2fc5eb	-0.68661374
6	0xbf8e570c	-1.1120315
7	0x3c34591a	0.011007572
8	0xbf9d30db	-1.2280535
9	0x3f0ab8f2	0.54188454
10	0x3ff707d6	1.9299266
11	0xbf8a51b0	-1.0806179
12	0xbe5a4b99	-0.213179
13	0xbc31c2a1	-0.010849626
14	0xbf2fe6e8	-0.6871171
15	0x3caffce3	0.02148289
16	0x3f1e67bd	0.6187704
17	0xbf74abae	-0.9557446
18	0xbd04c20d	-0.032411624
19	0x3e6e3f82	0.23266414
20	0x3fa19e8f	1.2626513
21	0xbec83f68	-0.39110875
22	0x3e0c2b47	0.13688384
23	0xbec7ade7	-0.38999864
24	0x3f140096	0.57813394
25	0xbf252eab	-0.64524335
26	0x3e119c1b	0.14219706
27	0xbfbf5e8e	-1.4950731
28	0x3f050746	0.51964223
29	0xbd68fbdd	-0.05688082
30	0xbc898672	-0.016787741
31	0x3e40ae47	0.18816482
32	0xbf5c9f55	-0.8618062
33	0xbe822cfd	-0.25424948
34	0x3e9b3ed1	0.30321363
35	0x3f26a457	0.6509451
36	0x400acad1	2.168629
37	0x3e14f754	0.14547473
38	0xbc70ab86	-0.014689332
39	0xbeccfa1a	-0.40034562
40	0x3deece72	0.1166047
41	0x3f41b745	0.7567027
42	0xbe8f4618	-0.27983165
43	0x3e4719c5	0.19443424
44	0xbfbec844	-1.4904866
45	0x3f5ec951	0.87025934
46	0x3f1713fa	0.59014857
47	0xbdf713fe	-0.1206436
48	0xbe95bfa4	-0.29247773
49	0x3fc9230c	1.571382
50	0x3f7d4e60	0.98947716
51	0xbd8b2122	-0.06793429
52	0xbf939cda	-1.1532242
53	0x3f31bfe2	0.69433415
54	0xbfd2de52	-1.6474097
55	0x3f8bc022	1.0918009
56	0x3fc0840b	1.5040296
57	0x3fe6ca57	1.8030499
58	0xbf901a25	-1.1257979
59	0xbe82c3d2	-0.25540024
60	0x3eab9543	0.33512315
61	0x3f4a9717	0.79136795
62	0xbf9f827a	-1.2461693
63	0xbf0d0fbf	-0.5510215
64	0x3f1c4a90	0.61051273
65	0xbf068eb1	-0.5256148
66	0x3e03f29e	0.1288552
67	0x3faadc36	1.3348453
68	0xbf2169c3	-0.63052005
69	0x3f86afe8	1.0522432
70	0x3e6d5210	0.23175836
71	0x3e9d7699	0.30754545
72	0xbe230c71	-0.15922715
73	0x3cf930d8	0.030418798
74	0xbf4542ed	-0.77055246
75	0x3fd873e8	1.6910372
76	0x3f3b5107	0.7317051
77	0x3f579fde	0.8422831
78	0xbf47025f	-0.77737993
79	0x400b57ac	2.177226
80	0x3f518638	0.81845427
81	0xbe26eb44	-0.16300684
82	0x3f9e0cee	1.2347696
83	0x3fa5b89e	1.2946966
84	0x3ee80ff6	0.45324677
85	0x3c8a7116	0.016899627
86	0xbfadb651	-1.3571264
87	0x3f854173	1.0410599
88	0x3f8b63f6	1.0889881
89	0xbee921c4	-0.45533574
90	0xbdb20124	-0.08691624
91	0xbfc59d74	-1.5438676
92	0x3f4fb9e1	0.81143004
93	0xbe81ef2f	-0.25377795
94	0x3dcca21b	0.09991857
95	0x3f61b520	0.88167
96	0xbd9f96fa	-0.07792468
97	0xbe5dfdbe	-0.21678826
98	0xbf5025ae	-0.81307495
99	0xbfc3477f	-1.5256194
100	0xbee8af14	-0.45446074
101	0x3f18151a	0.594072
102	0x3fdb6230	1.713934
103	0x3f5de54f	0.8667802
104	0x3fdcb484	1.7242589
105	0xbfa5bcbc	-1.2948222
106	0xbf9d115d	-1.2270924
107	0x3e87cb94	0.26522505
108	0xbe84bf31	-0.25927117
109	0x3ed6bb4b	0.41939768
110	0xbf7e75ee	-0.99398696
111	0x3d14df3e	0.036345713
112	0x3df74d61	0.12075306
113	0xbfe9d4fa	-1.826812
114	0x3e517f5e	0.20458743
115	0x4023e29d	2.5607064
116	0xbf9732e7	-1.1812409
117	0x3f296adb	0.66178674
118	0x3f82ed02	1.0228579
119	0x3faf995b	1.3718675
120	0xbf0c4650	-0.5479479
121	0xbe36b2a1	-0.17841579
122	0x3ec1fa49	0.37886265
123	0x3ef66779	0.48125818
124	0x3ee896d5	0.45427576
125	0x3f8bb574	1.091475
126	0x3f9ec33c	1.2403331
127	0xbf80909d	-1.0044132
128	0x3fd15eaf	1.635702
129	0xbf278192	-0.65432084
130	0xbf28fc06	-0.6600956
131	0x3fb75e09	1.4325572
132	0xc042ffc1	-3.04686
133	0x3fb683ed	1.425901
134	0xbf074c93	-0.5285122
135	0xc00b003c	-2.1718893
136	0x3dc306e4	0.09522799
137	0xbf959555	-1.1686198
138	0x3f291efb	0.660629
139	0xbf82c6ef	-1.021696
140	0x4008c71f	2.1371534
141	0x3e9bd261	0.30433944
142	0xbe1d2247	-0.15345107
143	0xbf98d508	-1.1940012
144	0x3ff27064	1.8940549
145	0xbe738b1d	-0.23783536
146	0xbef2abde	-0.4739675
147	0xbe43a808	-0.19107068
148	0xbeb18334	-0.34670413
149	0x4022e8d0	2.5454597
150	0xbc9225d9	-0.017840313
151	0x3fa1f952	1.2654212
152	0x3e8c8481	0.27444842
153	0x40103146	2.2530074
154	0x3e8acc66	0.2710907
155	0xbfdf01ae	-1.7422388
156	0xbd82b5b5	-0.06382314
157	0x3f2e3e1e	0.68063533
158	0xbe6f15c1	-0.23348142
159	0xbf162c27	-0.5866112
160	0xbedbbef6	-0.4291913
161	0x3e70d375	0.23518164
162	0xbf947d29	-1.1600696
163	0xbf0adb43	-0.54240817
164	0xbffea71d	-1.9894749
165	0x3f7dfa1f	0.9920978
166	0xbf43007c	-0.76172614
167	0x3e72a212	0.23694637
168	0x3f6c1b37	0.92229027
169	0xbfc773ef	-1.5582255
170	0x3f1ff8f9	0.6248928
171	0x3ff50f36	1.9145267
172	0xbf53e47d	-0.8277052
173	0x3fb1501c	1.3852572
174	0xbf377ec6	-0.71677816
175	0x3f8f79cd	1.1209046
176	0x3f00dbd0	0.5033541
177	0x3f8b7e4e	1.089792
178	0xbe2e19f8	-0.17002094
179	0xbeb302f2	-0.34963185
180	0xbfafb93b	-1.3728403
181	0x3fdabf67	1.7089661
182	0xbe05d77e	-0.13070485
183	0xbd770184	-0.06030418
184	0x3e164662	0.14675286
185	0x4005e47b	2.0920703
186	0x3ff97d7f	1.9491423
187	0x3ebc462f	0.36772296
188	0xbd1aafae	-0.037765197
189	0xbf1ae8cc	-0.6051147
190	0xbf38bd07	-0.7216343
191	0x3fd3df55	1.655253
192	0xbf844f3b	-1.0336679
193	0xbf8cc778	-1.0998373
194	0xbeb7a677	-0.3586919
195	0xbdee00da	-0.11621256
196	0x3fe81961	1.8132745
197	0x3ed706e8	0.41997457
198	0xbeadd827	-0.33953974
199	0xbeddb2b9	-0.43300417
200	0x3f162edc	0.5866525
201	0xbf8211a6	-1.0161636
202	0xbf34cd82	-0.7062608
203	0x3fb2d5a5	1.3971449
204	0x3e805143	0.25061998
205	0x3e66ba43	0.2253199
206	0xbed048f2	-0.40680653
207	0x3f1ef3b5	0.6209062
208	0xbf9b3647	-1.2125939
209	0x3fe80ff2	1.8129866
210	0xbe34bfa8	-0.17651236
211	0xbf6a0a75	-0.91422206
212	0x3f07be9a	0.5302521
213	0xbd88f38d	-0.066870786
214	0x3f9be362	1.2178767
215	0x3ec52f1f	0.38512513
216	0x3d6d2fdd	0.057906974
217	0x3e9fc120	0.3120203
218	0xbfc2c8f6	-1.5217578
219	0xbe580ef8	-0.2109946
220	0x3f9c6d50	1.222086
221	0xbed20f9b	-0.4102753
222	0xbf5077a6	-0.8143257
223	0x3ed5eebb	0.417837
224	0x3da1d8dc	0.07902691
225	0xbf1e897a	-0.6192852
226	0xc01c984d	-2.4467957
227	0x3faa4964	1.3303647
228	0xbf77e2df	-0.9683055
229	0x3ebc0a6f	0.3672671
230	0xbf3e7a0a	-0.74404967
231	0xbeb0dbfa	-0.3454283
232	0x3f352d8f	0.7077264
233	0x3f6d5a73	0.9271614
234	0x3f201ef3	0.62547225
235	0xbf35bd4e	-0.7099198
236	0xbf8f3f3d	-1.1191174
237	0x3e955a03	0.29170236
238	0x3cb3d8e2	0.021954004
239	0x3f5811bb	0.84402055
240	0x3f3ec13a	0.7451359
241	0xbfa30820	-1.2736855
242	0x3e922255	0.28541818
243	0xbe591e28	-0.2120291
244	0xbf5d6061	-0.8647519
245	0x3efd610f	0.49488112
246	0x3fa2b33d	1.2710949
247	0x3f4ef1d0	0.80837727
248	0xbd918938	-0.071062505
249	0xbf7c432e	-0.9854001
250	0x3ef0824d	0.46974412
251	0x3d509545	0.050923605
252	0x3fd4960e	1.6608293
253	0xbf2d66d4	-0.6773503
254	0xbfcf10bf	-1.6176986
255	0x3f597046	0.8493694

cls_token_pixel f4 [1, 1, 32]
0	0x3f589ce7	0.84614414
1	0x3f750e60	0.9572506
2	0xc006fc47	-2.1091478
3	0xbf2bdc34	-0.6713288
4	0xbf17e860	-0.5933895
5	0x3fdb6a84	1.7141881
6	0xbee98981	-0.4561272
7	0xbf91862e	-1.1369073
8	0xbf67c39f	-0.9053287
9	0xbfa03da0	-1.2518806
10	0xbf08033e	-0.5312995
11	0x3f34c6f9	0.7061611
12	0x3ec42495	0.3830916
13	0x3f7338fc	0.95008826
14	0xbf69dad6	-0.9134954
15	0xbf4fb949	-0.811421
16	0x3f26f6dc	0.6522043
17	0x3edeeac7	0.43538496
18	0x3e35fbb8	0.17771804
19	0x3ed19ae6	0.4093849
20	0xbf3fe7bc	-0.74962974
21	0x3f8f923c	1.1216502
22	0x3d99d62d	0.07511554
23	0x4026cbe5	2.6061947
24	0x3fa0d592	1.2565176
25	0xbf4323d0	-0.7622652
26	0x3a6cbfcc	0.00090312655
27	0x3f948ae2	1.1604884
28	0x3f2fede1	0.6872235
29	0x3fadfa94	1.3592095
30	0xbef0b689	-0.47014263
31	0x3f6c9a36	0.9242281

pixel_patch_embedding.weight f4 [32, 30]
0	0x3d352404	0.0442238
1	0xbcc73780	-0.024318457
2	0x3e2b745c	0.16743606
3	0xbe20dcbe	-0.15709206
4	0xbcd6fc70	-0.026243418
5	0xbe1de78b	-0.15420358
6	0x3dfb7594	0.122782856
7	0xbd0dd5f0	-0.034627855
8	0x3e1c56fe	0.1526756
9	0xbe308496	-0.17238078
10	0x3c8b0640	0.016970754
11	0xbda6ddf7	-0.08147805
12	0xbddad2f6	-0.10684769
13	0x3e3a347e	0.18184087
14	0xbca240d0	-0.019806296
15	0x3df01fe4	0.11724833
16	0x3ce7e1d0	0.028305918
17	0x3da4ff78	0.08056539
18	0x3d8a18a8	0.06742984
19	0xbdf7d69b	-0.121014796
20	0x3cb1c3a0	0.021699727
21	0x3e208f80	0.15679741
22	0x3e36992a	0.17831865
23	0xbd73a8ee	-0.059487276
24	0xbdc6de6c	-0.09710392
25	0x3c42a9d0	0.011881307
26	0x3dadfdcc	0.084956735
27	0x3df914d4	0.12162176
28	0x3e17933e	0.14802262
29	0xbdbc8acb	-0.0920616
30	0xbd991d9e	-0.07476352
31	0x3d8e5b9c	0.06951067
32	0xbdb212e1	-0.08695007
33	0x3d409700	0.047019005
34	0x3dd97a34	0.106190115
35	0x3d89c56c	0.06727108
36	0x3bf678e0	0.0075217336
37	0x3d3eecf4	0.046612695
38	0xbe1cc4de	-0.15309474
39	0xbdb691ce	-0.08914529
40	0xbcd0ffb8	-0.025512561
41	0xbe27657e	-0.1634731
42	0xbcd7f0f0	-0.026360005
43	0xbdd45e96	-0.10369603
44	0x3e1c44a4	0.1526056
45	0x3e0f302e	0.13983223
46	0x3dd7b680	0.10532856
47	0xbe3a84bf	-0.18214701
48	0x3daa198c	0.08305654
49	0xbd678424	-0.056522503
50	0x3dd67d6c	0.10473141
51	0xbd8a4f17	-0.067533664
52	0x3dfef538	0.124491155
53	0x3e12ca3e	0.14334962
54	0xbe0252d9	-0.12726916
55	0x3e0a7432	0.13520887
56	0x3d6f3210	0.058397353
57	0xbe0f41e2	-0.13989976
58	0x3dfb10bc	0.12259051
59	0xbd613ab4	-0.054987624
60	0xbde3b6e0	-0.11118865
61	0x3d966a9c	0.07344553
62	0x3e30c216	0.17261538
63	0x3d0160e0	0.031586528
64	0x3cdab790	0.026698858
65	0xbdc4a537	-0.09601825
66	0x3d85e748	0.06538254
67	0xbe18bb34	-0.14915162
68	0xbd562a3c	-0.05228637
69	0x3d279388	0.04091218
70	0x3ded3e04	0.11584094
71	0x3d0c1f1c	0.034209356
72	0xbe36558b	-0.1780607
73	0x3bfa7920	0.0076438338
74	0x3d95d9e0	0.07316947
75	0x3d3a5cc8	0.04549864
76	0x3e219f96	0.15783533
77	0x3d42c804	0.04755403
78	0x3c6c2210	0.014412418
79	0xbda5f835	-0.08103982
80	0x3d7ebfc0	0.062194586
81	0x3ceffc50	0.029295117
82	0x3e0d2f12	0.13787487
83	0xbcd53e68	-0.026030734
84	0xbe05b47e	-0.13057134
85	0x3d62abd4	0.05533965
86	0xbda788c9	-0.081803866
87	0xbdf90e11	-0.12160886
88	0x3dbabeb8	0.09118408
89	0xbdd0c9dc	-0.101947516
90	0xbdd294e2	-0.102823034
91	0x3e083a4c	0.13303488
92	0xbded5226	-0.11587934
93	0xbd8c1b16	-0.06841104
94	0x3d9b8f40	0.07595682
95	0x3e2bd9d6	0.16782317
96	0x3e2a532c	0.1663329
97	0xbd8c4e49	-0.06850869
98	0x3b911e60	0.00442867
99	0x3dd9a3a4	0.10626915
100	0xbdaa11d9	-0.083041854
101	0x3deee64c	0.116650194
102	0xbdb914e0	-0.09037185
103	0x3e28e292	0.1649268
104	0xbe3649e5	-0.17801626
105	0xbc20da10	-0.009817615
106	0xbe282359	-0.16419734
107	0xbc9ef7f8	-0.01940535
108	0xbd32831c	-0.043582067
109	0xbda6527b	-0.08121201
110	0xbe232466	-0.15931854
111	0x3db88194	0.0900909
112	0xbe1ecfb4	-0.1550892
113	0x3de3d094	0.111237675
114	0x3c06b9d0	0.008223012
115	0x3dc47ab4	0.09593716
116	0xbc6f4130	-0.014602944
117	0xbd4d82ac	-0.050173447
118	0x3b3b8380	0.0028612316
119	0x3de7764c	0.1130186
120	0xbc0e8c90	-0.008700505
121	0xbc686940	-0.01418525
122	0x3cd7bfa8	0.026336506
123	0x3e356926	0.17715892
124	0xbd54d2ac	-0.051958725
125	0xbdae74e3	-0.08518388
126	0xbd9b361f	-0.07578682
127	0x3cbaf218	0.022820517
128	0x3d923f2c	0.07140955
129	0x3e342574	0.17592412
130	0xbc3a76d0	-0.011380866
131	0xbdc577f0	-0.09642017
132	0xbe042188	-0.12903416
133	0x3e3618aa	0.17782846
134	0xbdb4b5e1	-0.08823753
135	0xbcdf4ac0	-0.027257323
136	0xbe380fc9	-0.17974772
137	0xbd1766b4	-0.03696318
138	0xbd6e0e24	-0.058118954
139	0x3a9fb980	0.0012186021
140	0xbdd6836d	-0.10474286
141	0x3d25d674	0.04048772
142	0x3d75f910	0.060051978
143	0x3e3552be	0.17707345
144	0x3de620a4	0.112366945
145	0xbe13833e	-0.14405534
146	0xbc9240e8	-0.017853215
147	0xbdbd4863	-0.09242322
148	0xbd21e170	-0.039521635
149	0x3e139ace	0.14414522
150	0x3e1d0610	0.15334344
151	0x3dd2e51c	0.102976054
152	0xbdc9db5d	-0.09856293
153	0x3d968560	0.07349658
154	0x3de1aadc	0.11018917
155	0xbdf28f17	-0.118436985
156	0x3da43518	0.08017939
157	0x3dfab0f4	0.122407824
158	0x3c636a10	0.013880268
159	0xbd39d8e0	-0.045372844
160	0x3daa0f74	0.08303729
161	0xbe119404	-0.1421662
162	0x3e1b8cca	0.15190426
163	0x3dd7fba4	0.105460435
164	0xbd369ad0	-0.044581234
165	0xbd8a180e	-0.06742869
166	0x3d021fb0	0.0317685
167	0xbe3599e0	-0.1773448
168	0x3e25d642	0.16195014
169	0x3da1de20	0.07903695
170	0x3d5e8c10	0.054332793
171	0x3d12b3b8	0.035815924
172	0xbdab3ac9	-0.08360822
173	0x3c49a8c0	0.0123083
174	0x3da38690	0.0798465
175	0xbe07023a	-0.13184443
176	0xbe2baa92	-0.16764286
177	0xbd227258	-0.039659828
178	0xb9c07400	-0.0003670752
179	0x3e32bc78	0.17454708
180	0xbe06074c	-0.13088721
181	0xbdc8a2c0	-0.09796667
182	0xbdf950f2	-0.12173642
183	0x3d06cd44	0.0329106
184	0xbd941d4e	-0.07232152
185	0xbdacb672	-0.08433236
186	0xbe1e9649	-0.15487017
187	0xbcd319c8	-0.02576913
188	0x3dd76898	0.105179965
189	0xbc4e3ed0	-0.012588218
190	0x3de46904	0.11152843
191	0xbe209d10	-0.15684915
192	0x3dbb0a54	0.09132829
193	0xbdc5c6a1	-0.09657026
194	0xbdd8d5c6	-0.10587649
195	0xbc4889b0	-0.0122398585
196	0x3d0b6bac	0.03403823
197	0x3de1bf00	0.110227585
198	0xbe17cad4	-0.14823467
199	0xbdd31a8a	-0.10307796
200	0x3d36ed7c	0.044660076
201	0x3d20a9a8	0.039224297
202	0x3be92460	0.007114932
203	0xbd9cc6df	-0.07655119
204	0x3b1c92c0	0.002389118
205	0x3e06cd9a	0.13164368
206	0xbcef2a60	-0.02919501
207	0xbd37286c	-0.044716284
208	0x3e1b515a	0.15167752
209	0xbdf3010a	-0.118654326
210	0x3c4f9410	0.012669578
211	0xbe2eadb8	-0.17058456
212	0xbdc8b256	-0.0979964
213	0x3dbe4100	0.092897415
214	0x3d8dcf6c	0.06924328
215	0xbcc6c818	-0.024265334
216	0x3d8fda30	0.07024038
217	0xbe01d853	-0.12680177
218	0x3df791b4	0.120883375
219	0xbb7c8640	-0.0038532168
220	0xbd74a604	-0.059728637
221	0x3e1fa95e	0.15591952
222	0xbe2ad1cf	-0.16681598
223	0x3e002bda	0.12516728
224	0x3e171820	0.14755297
225	0x3e1584fe	0.14601514
226	0xbde17432	-0.110084906
227	0x3e009900	0.12558365
228	0xbc2679a0	-0.010160834
229	0xbd4e504c	-0.050369546
230	0xbdd3a1b1	-0.103335746
231	0x3e26b600	0.16280365
232	0x3d9b2bdc	0.07576725
233	0xbe1cec8a	-0.15324607
234	0xbb914160	-0.004432842
235	0x3de1450c	0.10999498
236	0xbe0ada3c	-0.13559812
237	0x3df37bf0	0.118888736
238	0x3d746cbc	0.05967401
239	0xbe10a690	-0.14126039
240	0x3d3d4ec4	0.046217695
241	0xbe22614d	-0.1585743
242	0x3d5142f8	0.051089257
243	0x3dcc1284	0.09964469
244	0x3cdde760	0.027087867
245	0xbd37d7ec	-0.044883654
246	0xbe2e4589	-0.17018713
247	0xbe342b55	-0.17594655
248	0x3e05bc76	0.13060173
249	0xbdf34acc	-0.11879501
250	0x3dd106f4	0.10206404
251	0x3d8ff00c	0.07028207
252	0x3dab9e10	0.083797574
253	0xbb3aa800	-0.0028481483
254	0x3e0de008	0.13854992
255	0x3d6761fc	0.05648993

pixel_patch_embedding.bias f4 [32]
0	0xbe2c6f2a	-0.1683928
1	0x3b9ba560	0.004749939
2	0xbd7f7b86	-0.06237366
3	0x3d874ae4	0.06606081
4	0x3cfca040	0.030838132
5	0xbe1e0a5f	-0.15433644
6	0xbdef406a	-0.11682208
7	0x3e2713a6	0.16316089
8	0xbd5fe82c	-0.054664776
9	0x3d48704c	0.04893522
10	0xbdf8462c	-0.12122759
11	0x3d99a45c	0.07502052
12	0x3cde7a58	0.027157947
13	0x3d899f28	0.0671981
14	0x3ab41780	0.0013739914
15	0xbca94540	-0.020662904
16	0xbe2968eb	-0.1654393
17	0x3d5ffaa8	0.054682404
18	0x3cd485d8	0.025942728
19	0xbe088279	-0.13331021
20	0x3d2806bc	0.041022047
21	0x3dda0020	0.10644555
22	0x3e1717dc	0.14755195
23	0xbc918028	-0.017761305
24	0xbe317ad1	-0.17332007
25	0x3cf33928	0.02969034
26	0xbd42248c	-0.047398135
27	0xbdfca851	-0.12336791
28	0xbe188df8	-0.14897907
29	0x3d8b7490	0.06809342
30	0x3e149b3a	0.14512339
31	0x3d562e1c	0.052290067

local_trans_pixel.layers.0.0.fn.norm.weight f4 [32]
0	0x3f90e973	1.1321243
1	0x3f8f9d2a	1.1219838
2	0x3f923c7d	1.142471
3	0x3f908f59	1.1293746
4	0x3f8d4127	1.1035508
5	0x3f93f348	1.1558619
6	0x3f869020	1.0512733
7	0x3f93ac71	1.1537
8	0x3f91fcf3	1.1405319
9	0x3f9866ad	1.1906334
10	0x3f907500	1.1285706
11	0x3f95bb2e	1.1697748
12	0x3f945750	1.1589146
13	0x3f8cda49	1.1004115
14	0x3f89e5b0	1.077322
15	0x3f8b70de	1.0893819
16	0x3f8f155a	1.1178391
17	0x3f8decae	1.1087854
18	0x3f8f72a0	1.1206856
19	0x3f8fac91	1.1224538
20	0x3f8a1744	1.078835
21	0x3f918e60	1.1371574
22	0x3f9630f9	1.1733695
23	0x3f881663	1.0631832
24	0x3f8fed19	1.1244231
25	0x3f90b559	1.1305343
26	0x3f8f041e	1.1173131
27	0x3f914e2c	1.1351981
28	0x3f89fece	1.0780885
29	0x3f8ee6b5	1.1164156
30	0x3f8dcaa6	1.1077468
31	0x3f8f4029	1.1191455

local_trans_pixel.layers.0.0.fn.norm.bias f4 [32]
0	0x3d90596e	0.07048307
1	0xbd004e4c	-0.03132467
2	0xbda1f599	-0.07908172
3	0xbe18ca4c	-0.1492092
4	0xbdd8d32b	-0.10587152
5	0x3dab2bd5	0.0835797
6	0xbd275925	-0.0408565
7	0xbd46861b	-0.048467737
8	0x3d5dbea9	0.054136906
9	0x3d06cb8c	0.03290896
10	0x3d199979	0.03749988
11	0xbb467570	-0.00302824
12	0xbde66c54	-0.11251131
13	0x3deb4b9e	0.11489032
14	0xbe03334e	-0.1281254
15	0xbc0d53b2	-0.008625912
16	0x3ddacea0	0.10683942
17	0xbe416d0b	-0.18889253
18	0xbd0ec215	-0.03485306
19	0x3e26afae	0.16277954
20	0xbe1ad1ca	-0.1511909
21	0x3e27d286	0.16388902
22	0xbd9c45ed	-0.07630525
23	0x3da6f58e	0.081523046
24	0x3dd06ae4	0.10176638
25	0x3d50d16b	0.050980967
26	0x3e8ae5ef	0.2712855
27	0x3cad56ca	0.021159548
28	0x3d195af8	0.03744027
29	0xbc4f7c36	-0.012663892
30	0x3c4fc592	0.012681382
31	0x3e287866	0.16452178

local_trans_pixel.layers.0.0.fn.fn.to_qkv.weight f4 [768, 32]
0	0xbd2e58a0	-0.042564988
1	0x3e16fc91	0.14744784
2	0xbd515f5a	-0.051116325
3	0x3c197a3f	0.009367525
4	0xbda5d030	-0.08096349
5	0xbde58c19	-0.11208362
6	0xbd8b1aff	-0.067922585
7	0x3e185c55	0.14878972
8	0xbd159708	-0.036520988
9	0x3e321b98	0.17393339
10	0xbdd6f83c	-0.10496566
11	0x3be25769	0.0069073928
12	0x3e9ac86f	0.30231044
13	0xbe2459b0	-0.16049838
14	0xbde76bec	-0.11299881
15	0xbdf4cb93	-0.11952891
16	0x3e3df144	0.18549067
17	0xbe19945c	-0.14998001
18	0xbe16eb80	-0.14738274
19	0x3e31b53a	0.17354289
20	0x3c18a5bd	0.009316859
21	0x3d5c0654	0.053716972
22	0xbe9bee9f	-0.3045549
23	0xbe5374bc	-0.2065
24	0x3e56c746	0.20974454
25	0xbe30da51	-0.17270781
26	0x3e943c7d	0.289524
27	0xba9d7534	-0.0012013079
28	0x3dff977d	0.12480066
29	0x3e285123	0.16437201
30	0x3d99db5f	0.07512545
31	0xbe158635	-0.14601977
32	0xbdb427c0	-0.08796644
33	0x3c3d3d74	0.011550296
34	0xbd3c1793	-0.04592092
35	0x3dd8fd0a	0.10595138
36	0x3e04efd0	0.12982106
37	0xbd91e5ab	-0.07123884
38	0xbde50bff	-0.11183929
39	0xbe256dbb	-0.1615514
40	0x3d6d369d	0.05791341
41	0xbe334a4d	-0.17508812
42	0xbe141065	-0.14459379
43	0xbe28e7bd	-0.16494651
44	0x3ea774db	0.3270634
45	0xb90ca191	-0.00013411629
46	0x3e29bac1	0.16575147
47	0xbd9f1e4c	-0.077694505
48	0xbcd56ee8	-0.02605386
49	0x3c6fa8fd	0.014627692
50	0xbdc70aa2	-0.09718825
51	0x3e5bb479	0.21455564
52	0x3eb484a2	0.3525744
53	0xbe3e1dff	-0.1856613
54	0x3d4c1488	0.049824268
55	0xbdfd0b4d	-0.12355671
56	0x3d6a3e79	0.057188485
57	0xbd13cc75	-0.036083657
58	0x3e18ce38	0.14922416
59	0xbe186509	-0.14882292
60	0xbd7b9572	-0.06142182
61	0x3e3cad5d	0.18425508
62	0xbc7340ff	-0.014847039
63	0xbe04c2a0	-0.12964869
64	0x3d9fe3ed	0.07807145
65	0x3d08c67e	0.033392422
66	0xbe2426a7	-0.1603037
67	0xbda93bbc	-0.082633466
68	0x3c91875c	0.01776474
69	0xbd0fe88c	-0.035133883
70	0x3e447eaf	0.19188951
71	0xbe05feb7	-0.13085447
72	0xbe2006dc	-0.15627617
73	0x3ca74b5f	0.020421682
74	0xbd9f8bff	-0.07790374
75	0x3e1a1733	0.15047912
76	0xbedd4b8b	-0.43221697
77	0x3e801e27	0.25023004
78	0xbd30b63c	-0.043142542
79	0x3b7e9e82	0.0038851802
80	0xbdb03ceb	-0.08605369
81	0x3e0dbe7a	0.13842192
82	0x3e1caab8	0.15299499
83	0xbcedae1e	-0.02901369
84	0xbe2eab24	-0.17057472
85	0x3e601705	0.21883781
86	0xbcfa2a92	-0.030537877
87	0x3cd4ccd5	0.025976578
88	0x3e28d6ce	0.16488191
89	0xbd4c0181	-0.04980612
90	0x3c35affe	0.011089323
91	0x3d21b694	0.03948076
92	0x3d46c3c9	0.04852656
93	0xbdc16924	-0.09443882
94	0xbe092859	-0.13394298
95	0x3d2ffc4b	0.042965215
96	0xbe323c23	-0.17405753
97	0x3de3aea0	0.111172915
98	0x3dadb0f9	0.084810205
99	0xbc4b9e27	-0.012427843
100	0x3e1fd198	0.15607297
101	0xbe3833ca	-0.17988506
102	0x3e060806	0.13088998
103	0xbddecaa5	-0.10878495
104	0x3cc133ec	0.023584329
105	0x3e4122de	0.18860957
106	0xbe0a1315	-0.13483842
107	0x3de1e6a1	0.11030317
108	0xbdafe154	-0.085879
109	0xbe0544e8	-0.13014567
110	0x3d7236c3	0.059134256
111	0x3dd5992e	0.10429607
112	0x3e1da3a6	0.15394458
113	0x3e394db8	0.18096054
114	0x3e801d09	0.25022152
115	0xbdda9963	-0.106737874
116	0x3d42b279	0.047533486
117	0x3d685d74	0.05672975
118	0x3e532281	0.20618631
119	0x3dd2e3eb	0.10297378
120	0x3d9ba08a	0.0759898
121	0x3c1c7a5a	0.009550655
122	0xbe9a715c	-0.3016461
123	0xbd0df730	-0.034659564
124	0xbdeb4e46	-0.11489539
125	0x3d20221f	0.03909504
126	0xbd64e822	-0.05588544
127	0xbe85314b	-0.2601417
128	0xbc92b27e	-0.017907377
129	0xbe111ad1	-0.14170386
130	0x3d05fa6e	0.03270953
131	0xbd0c4eff	-0.034255024
132	0x3c8928ef	0.016743151
133	0x3d4d777b	0.050162774
134	0x3e46561e	0.19368789
135	0xbe2dba54	-0.1696561
136	0xbe12e211	-0.1434405
137	0xbe0f3ae7	-0.13987313
138	0x3de42a32	0.111408606
139	0xbd249475	-0.040180642
140	0xbeb94f13	-0.3619314
141	0xbdc0ad32	-0.094080344
142	0x3e1c5abc	0.15268987
143	0xbdb6e112	-0.089296475
144	0x3da3852a	0.079843834
145	0x3df4211a	0.11920376
146	0x3e7354f9	0.23762883
147	0xbdcc7a60	-0.09984279
148	0xbe1d9b7d	-0.15391345
149	0xbe2492da	-0.16071644
150	0x3e172a40	0.14762211
151	0x3e2aaa98	0.16666639
152	0x3dee2e2c	0.116299
153	0xbe041a36	-0.12900624
154	0xbe6609bd	-0.22464652
155	0x3cbf2b78	0.023336157
156	0xbcc57227	-0.024102284
157	0x3e1526a8	0.14565527
158	0x3ddc7d81	0.107661255
159	0xbdda1774	-0.106490046
160	0x3e4dc4d2	0.20094612
161	0x3e144e92	0.14483097
162	0xbd9d2813	-0.07673659
163	0xbda1e088	-0.07904154
164	0xbbc54bcc	-0.0060209986
165	0x3d828128	0.06372291
166	0x3e0bfc25	0.13670404
167	0xbd6ae637	-0.057348456
168	0xbe05d998	-0.13071287
169	0x3d393229	0.045213852
170	0x3ce50179	0.027954804
171	0x3d89ec79	0.06734557
172	0xbd7303d2	-0.059329815
173	0x3d2f99c5	0.042871255
174	0xbe3ae3bb	-0.18250935
175	0x3dfebbd8	0.12438172
176	0x3e0fc8b9	0.14041413
177	0xbd9768f4	-0.07393065
178	0xbe61300b	-0.21990983
179	0x3e303235	0.17206652
180	0xbea4370c	-0.32073247
181	0x3d61f643	0.055166494
182	0xbe7d8bc9	-0.24760355
183	0x3e32484f	0.17410396
184	0xbc7172c8	-0.014736839
185	0x3e6189dd	0.22025247
186	0xbcdf473a	-0.027255643
187	0xbcbe9831	-0.02326593
188	0x3e0b6afc	0.1361503
189	0xbdd02906	-0.101640746
190	0xbe473fd9	-0.1945795
191	0xbd17f93f	-0.037102934
192	0x3d539e2e	0.051664524
193	0xbbe3479d	-0.006936027
194	0x3e1dfd78	0.15428722
195	0x3d1b9cfa	0.0379915
196	0xbe210fec	-0.1572873
197	0x3d487ed5	0.04894908
198	0xbe0427a7	-0.12905751
199	0xbca190db	-0.019722393
200	0xbe02abbe	-0.12760827
201	0xbe5f54bf	-0.21809672
202	0x3e5e02c7	0.21680747
203	0xbd97cf40	-0.07412577
204	0xbed8589a	-0.42255098
205	0x3e12c819	0.14334144
206	0x3d3c46aa	0.045965828
207	0x3df34b66	0.118796155
208	0xbd589675	-0.052877862
209	0xbe881de0	-0.26585293
210	0x3e41ac49	0.18913378
211	0x3e3cf020	0.18450975
212	0xbe761fef	-0.24035619
213	0x3dcf7082	0.10128881
214	0xbe0a0ee0	-0.13482237
215	0x3e1c2692	0.15249088
216	0x3e3ffe42	0.18749335
217	0xbdbaa423	-0.09113338
218	0x3df7fb95	0.12108532
219	0xbd4b8c1b	-0.04969416
220	0x3daac018	0.0833742
221	0x3e0e07d1	0.13870169
222	0x3e1a0055	0.15039189
223	0xbd492f0a	-0.049117126
224	0xbd9a999d	-0.07548831
225	0xbde82217	-0.11334627
226	0x3ddf02a6	0.10889177
227	0x3d500b43	0.05079199
228	0xbe56f4e1	-0.20991851
229	0xbdc9c228	-0.098514855
230	0xbe24bfc2	-0.16088775
231	0xbe139b47	-0.14414702
232	0x3daa4d38	0.083155096
233	0x3db72aeb	0.08943733
234	0xbdd5f6f3	-0.104474925
235	0xbe149c4b	-0.14512746
236	0xbe1ef3e9	-0.15522732
237	0x3db7a24e	0.08966504
238	0x3d6de900	0.058083534
239	0xbe08fd30	-0.13377833
240	0xbc5c63e6	-0.013451552
241	0x3ca3ff76	0.020019274
242	0x3e8327ed	0.25616398
243	0x3cfcdb26	0.030866217
244	0xbd56886f	-0.052376207
245	0x3d2ada2a	0.041711964
246	0x3e3745b6	0.17897686
247	0x3e12959e	0.14314887
248	0x3e4f59be	0.20249078
249	0xbe252914	-0.16128951
250	0x3de47df1	0.11156834
251	0xbe5d0677	-0.21584497
252	0xbe0cc4af	-0.13746904
253	0xbe0e455a	-0.13893643
254	0x3add1aec	0.0016868985
255	0xbc118c59	-0.008883559

local_trans_pixel.layers.0.0.fn.fn.to_out.0.weight f4 [32, 256]
0	0x3caf06ab	0.021365484
1	0x3da9406c	0.082642406
2	0xbcbce33c	-0.023057573
3	0xbd4a14b0	-0.049336135
4	0x3ba27a85	0.004958453
5	0xbd8f173d	-0.06986854
6	0xbdc20af8	-0.094747484
7	0x3c9e3109	0.019310491
8	0x3dd2a9d6	0.102863
9	0xbd675181	-0.056474213
10	0x3d4377c6	0.047721647
11	0xbce58dd0	-0.028021723
12	0xbd57bee0	-0.052672267
13	0xbd1adc1a	-0.03780756
14	0xbd366500	-0.044529915
15	0x3dde0709	0.108411856
16	0x3c77e838	0.015131049
17	0x3d77b536	0.06047555
18	0x3d2fcd98	0.04292068
19	0xbc9d424b	-0.01919665
20	0x3d450414	0.048099592
21	0xbd32e28f	-0.043673094
22	0xbd334dfe	-0.04377555
23	0xbc196c3c	-0.009364184
24	0xbbc08dee	-0.0058762943
25	0xbdc8d247	-0.09805732
26	0xbcee30a1	-0.029075922
27	0xbc0ecc44	-0.008715693
28	0xbc9815ae	-0.018565025
29	0x3d7f5e85	0.062346
30	0x3d3578db	0.04430471
31	0x3d17c9da	0.037057735
32	0xbcd33963	-0.0257842
33	0x3c5b5b49	0.013388463
34	0x3d37b358	0.04484877
35	0x3c1d51df	0.009602039
36	0xbc88957c	-0.016672842
37	0x3b98391a	0.004645479
38	0xbdca7de8	-0.09887296
39	0x3dd06e38	0.101772726
40	0x3d3f6fcc	0.046737477
41	0xbdbc45fe	-0.091930375
42	0x3dd3b5b9	0.10337395
43	0x3d8680b9	0.06567521
44	0x3d3b2c39	0.04569647
45	0x3d30ad75	0.04313417
46	0x3d8a0a20	0.067402124
47	0xbdae78ee	-0.08519159
48	0x3cb73e40	0.02236855
49	0xbb395147	-0.0028277205
50	0x3d8aa974	0.06770602
51	0x3e233347	0.1593753
52	0x3c01ea62	0.007929416
53	0x3cddcf2e	0.02707633
54	0x3db511f2	0.088413134
55	0xbd4b3de2	-0.049619563
56	0x3d1d02d7	0.038332786
57	0x3d1ce588	0.038304836
58	0xbd8a3882	-0.06749059
59	0xbdd7035f	-0.1049869
60	0x3c771aac	0.015082043
61	0xbd03c9f2	-0.032175012
62	0xbdaca514	-0.08429924
63	0x3cdf9727	0.027293755
64	0x3ce1f34f	0.027581839
65	0x3cf4ac52	0.029867325
66	0xbd363380	-0.044482708
67	0xbd225df7	-0.039640393
68	0x3def4b04	0.1168423
69	0xbc90003d	-0.017578239
70	0x3b3d9e26	0.0028933375
71	0xbb7a59f1	-0.0038200582
72	0xbcc6b4fe	-0.024256226
73	0xbcf1e70f	-0.029529123
74	0x3d64f27b	0.05589531
75	0xbd7f518d	-0.062333632
76	0x3cb2f609	0.021845834
77	0x3cced5ef	0.025248496
78	0xbd92e9de	-0.07173513
79	0x3d845449	0.064613886
80	0xbc9b3907	-0.018948091
81	0x3c3a9d2d	0.011390013
82	0xbd0ab28e	-0.03386169
83	0xbda661a8	-0.08124095
84	0x3c8bf8b9	0.017086374
85	0x3da574e5	0.080789365
86	0x3a3a3035	0.00071025203
87	0x3d80b91c	0.06285307
88	0x3c1d7a52	0.009611683
89	0xbcadc39f	-0.021211443
90	0xbd8db03d	-0.069183804
91	0x3c4cd360	0.012501568
92	0xbd1db7e4	-0.03850545
93	0x3cab0e99	0.020880984
94	0x3d1a625a	0.03769145
95	0x3cd7d820	0.026348174
96	0x3b3718e9	0.0027938432
97	0xbd03cf18	-0.032179922
98	0x3ca5ac57	0.02022378
99	0xbd9d0948	-0.07667786
100	0xbdedc6a7	-0.116101556
101	0xbd5664ba	-0.052342154
102	0x3d416e70	0.047224462
103	0x3d1f953e	0.038960688
104	0xbcda9ce0	-0.026686132
105	0x3cbde7ad	0.02318176
106	0x3c6a5afd	0.01430392
107	0xbcc448f9	-0.023960577
108	0x3da2c854	0.07948366
109	0xbd3281f9	-0.043580983
110	0xbc804beb	-0.0156612
111	0xbd1e400b	-0.038635295
112	0xbc9ef6ff	-0.019404886
113	0xbdd9d11c	-0.106355876
114	0xbdad5361	-0.08463169
115	0xbce88aa2	-0.028386418
116	0x3b1b0a0e	0.0023657116
117	0xbb959259	-0.004564565
118	0x3d9ecb53	0.07753625
119	0xbd9db15e	-0.07699846
120	0xbb553430	-0.0032532327
121	0x3cacd6da	0.021098543
122	0xbc760fde	-0.0150184315
123	0x3d8ba434	0.06818429
124	0x3cb1d790	0.021709234
125	0x3d340000	0.043945312
126	0x3cf02ec1	0.029319169
127	0x3d00fec2	0.031492956
128	0x3d120c1f	0.03565609
129	0xbc4a39b3	-0.012342858
130	0x3cb16ae9	0.021657424
131	0x3d22d3d6	0.039752804
132	0xbd62b50c	-0.05534844
133	0xbd93d54c	-0.072184175
134	0x3d24b5dc	0.040212497
135	0x385426a9	5.0580744e-05
136	0xbd19df37	-0.03756639
137	0x3b457d8d	0.0030134649
138	0x3e1a2f3c	0.15057081
139	0x3d978932	0.07399215
140	0x3d18c930	0.037301242
141	0x3a9ff16d	0.0012202688
142	0x3dcf4691	0.10120881
143	0xbde538cb	-0.11192473
144	0x3c5f0c64	0.013613794
145	0x3ce86557	0.028368635
146	0xbc42d581	-0.011891724
147	0x3d9d5a19	0.076832004
148	0x3ba137d7	0.0049199867
149	0x3c1109eb	0.008852462
150	0xbd6f9e18	-0.05850038
151	0x3d816812	0.06318678
152	0x3db7f1f0	0.08981693
153	0xbd3753ff	-0.04475784
154	0x3dea48f9	0.114397
155	0xbd5c5da7	-0.05380025
156	0x3bd3a2a2	0.0064585963
157	0x3d654a55	0.05597909
158	0x3cc4d0d2	0.024025355
159	0x3d4c089b	0.049812894
160	0xbaab8e5d	-0.0013088692
161	0x3d85264c	0.06501445
162	0xbda08f96	-0.07839887
163	0xbdc6374b	-0.09678515
164	0x37b40a5d	2.1462498e-05
165	0xbdac08fc	-0.08400151
166	0xbc344590	-0.011002913
167	0x3d5c095f	0.053719874
168	0xbdd42762	-0.10359074
169	0xbcff27f3	-0.031146979
170	0xbce2f696	-0.027705472
171	0xbd8e6a4a	-0.06953867
172	0x3bda2976	0.0066577746
173	0x3d8613bb	0.06546732
174	0xbc2d669b	-0.010583545
175	0x3c436e87	0.011928207
176	0x3ddcb751	0.10777152
177	0x3d15b159	0.036546085
178	0x3ba5d1ff	0.005060434
179	0xbce43a57	-0.02785985
180	0xbc1535be	-0.009107051
181	0xbcbfb1da	-0.023400236
182	0x3b99c516	0.004692684
183	0x3cbf2f8b	0.0233381
184	0xbd58fb4f	-0.05297404
185	0xbd9434fe	-0.0723667
186	0x3d3f0c59	0.046642635
187	0xbc215224	-0.009846244
188	0xbc8c6af0	-0.017140836
189	0xbd87c43c	-0.066292256
190	0xbb578fa7	-0.003289202
191	0x3d5baaa7	0.053629544
192	0x3d061776	0.032737218
193	0xbcfa96e1	-0.030589523
194	0xbc550b88	-0.013003238
195	0x3dae4a93	0.08510318
196	0x3d407e6f	0.046995576
197	0x3de2608d	0.11053572
198	0xbd2030f3	-0.03910918
199	0x3c5b5252	0.013386326
200	0xbb96a49e	-0.0045972606
201	0x3d682195	0.05667265
202	0xbbafc5b0	-0.0053641424
203	0xbd8c1f6b	-0.0684193
204	0x3c97acde	0.018515047
205	0xbbe203b3	-0.0068974136
206	0xbc8a6fc0	-0.01689899
207	0x3cc54c87	0.024084343
208	0x3b0617e6	0.0020461022
209	0x3ce86987	0.028370632
210	0xbd1836f4	-0.037161782
211	0xbbdba835	-0.0067034015
212	0xbdb762fb	-0.08954426
213	0x3c5e918f	0.013584509
214	0x3cfd1c1f	0.030897198
215	0xbd630484	-0.05542423
216	0xbd4a1b81	-0.049342636
217	0x3b965d9f	0.004588797
218	0xb93402a1	-0.00017167117
219	0xbd19b8ad	-0.037529636
220	0x3b974242	0.004616053
221	0x3d37d566	0.044881247
222	0xbcb685a8	-0.02228053
223	0x3cfd4734	0.030917741
224	0x3d07feaa	0.03320185
225	0xbd34c461	-0.044132594
226	0xbd9a01c9	-0.07519872
227	0xbcb094f5	-0.021555403
228	0xbb950f82	-0.004548968
229	0xbdcbc022	-0.09948756
230	0x3c65d9a8	0.014028944
231	0x3dbfab8c	0.09358892
232	0x3cb0603f	0.021530269
233	0xbcbc896b	-0.023014745
234	0x3c657b15	0.014006396
235	0x3d18074f	0.037116345
236	0xbdac5abc	-0.08415744
237	0x3d4eca7f	0.050486084
238	0x3d2f00c7	0.04272535
239	0xbc87df36	-0.016585927
240	0x3d13756d	0.036000658
241	0xbd282a72	-0.041056104
242	0x3d8ad7c6	0.06779437
243	0x3de74a53	0.11293473
244	0xbcc42ba7	-0.023946596
245	0xbba198b4	-0.0049315337
246	0x3d80e871	0.06294335
247	0xbd0c3d93	-0.03423841
248	0x3d74e2b1	0.059786502
249	0x3c7f2369	0.015572407
250	0xbb46fdfa	-0.0030363784
251	0x3cd6fffe	0.026245113
252	0x3cb2b23d	0.021813506
253	0x3d413971	0.04717392
254	0x3c25ea8a	0.010126719
255	0xbbcae709	-0.0061920923

local_trans_pixel.layers.0.0.fn.fn.to_out.0.bias f4 [32]
0	0x3cdb3115	0.026756803
1	0xbdb9fe2f	-0.09081685
2	0x3d53f3f8	0.05174634
3	0x3d133820	0.035942197
4	0x3d8256e9	0.06364233
5	0xbc8348ae	-0.016025867
6	0xba51c5bd	-0.00080021826
7	0x3da857bc	0.08219859
8	0x3cb657e3	0.022258705
9	0xbde9f43e	-0.114235386
10	0x3dbba8a7	0.09163027
11	0x3d79db26	0.06100001
12	0x3dbb852f	0.09156262
13	0xbbb9bae8	-0.005668033
14	0x3d3ba391	0.045810286
15	0xbd67333b	-0.05644534
16	0xbdcb9b4e	-0.099417314
17	0x3d70d079	0.058792565
18	0x3d3c3ddf	0.045957442
19	0xbd2e84c4	-0.042607084
20	0xbcad0487	-0.021120323
21	0xbe3a44b9	-0.18190278
22	0x3c92a788	0.01790215
23	0x3d515f11	0.051116053
24	0xbd2a642a	-0.04159943
25	0x3db45af6	0.08806412
26	0x3dbc3dbb	0.09191462
27	0x3d80ffc6	0.06298785
28	0x3d0b76c0	0.034048796
29	0x3da86182	0.08221723
30	0x3de3ae95	0.11117283
31	0x3d032fbd	0.03202795

local_trans_pixel.layers.0.1.fn.norm.weight f4 [32]
0	0x3f7a3251	0.97733027
1	0x3f87e271	1.061598
2	0x3f7d76b2	0.9900924
3	0x3f973c2f	1.1815242
4	0x3f89e0d0	1.0771732
5	0x3f8c062c	1.0939384
6	0x3f95b615	1.1696192
7	0x3f85958b	1.0436262
8	0x3f7635cc	0.9617584
9	0x3f87d911	1.0613118
10	0x3f89d73d	1.076881
11	0x3f958572	1.1681349
12	0x3f71ca83	0.94449633
13	0x3f8ed9ba	1.1160195
14	0x3f8c6210	1.0967426
15	0x3f77d352	0.96806824
16	0x3f8070a4	1.0034375
17	0x3f8075a0	1.0035896
18	0x3f8fc7d5	1.1232859
19	0x3f85917c	1.0435023
20	0x3f8dbc82	1.1073153
21	0x3f8cfdda	1.1014969
22	0x3f833001	1.0249025
23	0x3f86cfb7	1.053214
24	0x3f868bcd	1.0511414
25	0x3f8e0a8a	1.1096966
26	0x3f843d68	1.033124
27	0x3f7d5520	0.98958015
28	0x3f845b05	1.0340277
29	0x3f853052	1.0405371
30	0x3f99741c	1.1988559
31	0x3f7d2e5c	0.98898864

local_trans_pixel.layers.0.1.fn.norm.bias f4 [32]
0	0xbc124e86	-0.008929854
1	0xbd90e12c	-0.07074198
2	0x3d82a65d	0.063793875
3	0x3baff52c	0.005369803
4	0x3dacfe2f	0.08446919
5	0xbcf7b74b	-0.030238768
6	0x3d84560f	0.06461727
7	0x3db0ffda	0.0864255
8	0x3d351c4a	0.04421643
9	0xbd2858f0	-0.041100442
10	0xbcc02760	-0.023456275
11	0x3d8e26a6	0.06940965
12	0xbd4b2b58	-0.049601883
13	0xbc66277e	-0.014047502
14	0xbca4a060	-0.020096004
15	0xbd82a189	-0.06378467
16	0x3d8f9a7e	0.07011889
17	0x3defd9a9	0.11711437
18	0x3d9379cd	0.07200966
19	0x3cdba05c	0.026809864
20	0xbd914e36	-0.07094996
21	0xbda80d95	-0.082057156
22	0xbca57761	-0.020198526
23	0xbd809ae8	-0.06279546
24	0x3cb5c7e8	0.02219005
25	0x3d1a1e01	0.03762627
26	0x3d62faed	0.055415083
27	0xbd20ab5a	-0.039225914
28	0x3d318cca	0.043347158
29	0x3d44029a	0.047854044
30	0x3d6c19e6	0.057641886
31	0xbd4f6272	-0.050630994

local_trans_pixel.layers.0.1.fn.fn.net.0.weight f4 [8, 32]
0	0x3d7fa608	0.0624142
1	0xbdf5a03c	-0.11993453
2	0x3bb44af8	0.005502101
3	0x3e1e78a1	0.15475704
4	0xbd1153cb	-0.0354803
5	0x3de8cc18	0.11367053
6	0x3d66046b	0.056156557
7	0x3dc80bb1	0.09767855
8	0xbb7710ee	-0.00376993
9	0xbe2fde97	-0.17174755
10	0xbe4444db	-0.19166891
11	0xbd7a6c89	-0.061138663
12	0xbd5ca6ae	-0.053869896
13	0xbd103dd5	-0.035215218
14	0xbdd73731	-0.10508574
15	0xbdad6c5f	-0.08467936
16	0xbbf732f9	-0.007543918
17	0xbdf07667	-0.117413335
18	0x3e0b2d00	0.13591385
19	0x3db6b2fa	0.08920856
20	0xbea1ff00	-0.31639862
21	0xbe189c0c	-0.14903277
22	0xbdbfe2bb	-0.09369417
23	0xbd358ec1	-0.044325594
24	0x3d5c0f49	0.053725515
25	0x3e7df7b1	0.24801518
26	0xbd37164a	-0.04469899
27	0xbe15133d	-0.1455812
28	0x3df3a185	0.11896042
29	0xbd9ab0bb	-0.0755324
30	0x3e93538d	0.28774682
31	0xbe0a1736	-0.13485417
32	0x3db9b2cb	0.09067305
33	0xbdf1e7bc	-0.11811778
34	0x3df5b7e9	0.11997969
35	0x3ea9a38e	0.33132595
36	0x3e480efa	0.19536963
37	0xbe8b7384	-0.2723657
38	0xbd8cb766	-0.06870918
39	0x3e0ec145	0.13940914
40	0xbe19b2b1	-0.15009572
41	0x3e1f9356	0.15583548
42	0xbe9a49b5	-0.3013436
43	0x3e2e8391	0.17042376
44	0xbc4db70a	-0.012555847
45	0xbe9aadea	-0.3021081
46	0xbc981fb3	-0.018569803
47	0xbdc051a8	-0.09390575
48	0x3d184cda	0.037182666
49	0x3da27d3e	0.07934044
50	0x3e291927	0.16513501
51	0xbd7ce3c9	-0.06174067
52	0x3d2951f3	0.04133792
53	0xbe5a98d3	-0.2134736
54	0x3dd43e2e	0.10363422
55	0xbdad754b	-0.084696375
56	0xbe293c1b	-0.16526835
57	0x3d6bd7fb	0.057579022
58	0xbcf31867	-0.029674722
59	0x3da6bacd	0.08141098
60	0xbd3a4850	-0.04547912
61	0x3e03be8b	0.12865655
62	0x3e04fd77	0.12987314
63	0x3d6e2b0c	0.05814652
64	0xbe14ea0f	-0.14542411
65	0xbdb79811	-0.08964551
66	0xbde941ef	-0.11389529
67	0x3ca897eb	0.020580253
68	0x3d1690e0	0.036759257
69	0xbe1dce00	-0.15410614
70	0x3cc9af07	0.024619592
71	0x3d89413a	0.06701894
72	0x3de06e62	0.10958554
73	0x3e056072	0.13025072
74	0x3e132473	0.14369373
75	0xbd52487b	-0.051338654
76	0x3cb1e740	0.021716714
77	0x3dedef1a	0.11617871
78	0xbe1497fa	-0.145111
79	0xbe19c9d4	-0.15018398
80	0x3e183772	0.148649
81	0xbcdac0a6	-0.02670319
82	0x3e7729ac	0.2413699
83	0xbe17b330	-0.14814448
84	0x3d73a4ae	0.059483223
85	0xbdcb9497	-0.09940451
86	0xbd386311	-0.045016352
87	0x3cef1047	0.029182566
88	0x3e350e4a	0.17681232
89	0xbddb2266	-0.1069992
90	0xbc8ed579	-0.017435776
91	0x3d395d8e	0.045255236
92	0x3ca56a1e	0.020192202
93	0x3dda4271	0.10657204
94	0x3e9a4c4d	0.30136338
95	0x3dfa50e6	0.122224614
96	0xbdb9e72e	-0.09077297
97	0xbdc9d1ee	-0.09854494
98	0x3e33bad5	0.1755174
99	0x3e2b8afa	0.16752234
100	0x3e97a3fb	0.29617295
101	0xbeb23e40	-0.34813118
102	0x3deb90b0	0.11502206
103	0xbd722e0c	-0.059125945
104	0x3e58cd9c	0.21172184
105	0x3ccfe6f0	0.025378674
106	0xbdaa5e7a	-0.08318801
107	0xbe30fea9	-0.17284645
108	0x3d841a87	0.06450372
109	0xbe70bfab	-0.23510616
110	0xbe87ea37	-0.2654588
111	0x3d1edaa9	0.03878275
112	0x3d75607d	0.05990647
113	0x3e0fb69a	0.140345
114	0x3dece7f6	0.115676805
115	0xbe1c2136	-0.15247044
116	0xbdd7e99f	-0.105426066
117	0xbe7645ea	-0.24050108
118	0x3e458a6c	0.19291085
119	0xbe2463f1	-0.1605375
120	0x3dfced61	0.12349964
121	0x3e93a4fd	0.28836814
122	0xbca235da	-0.019801069
123	0x3e49d992	0.19711903
124	0x3df3ae5f	0.11898493
125	0x3dfccca0	0.123437166
126	0x3dfd9f58	0.12383908
127	0x3de6be37	0.11266749
128	0xbb4b00ef	-0.0030975898
129	0x3e551062	0.20807031
130	0xbdc19fd1	-0.09454311
131	0xbdd51c21	-0.10405756
132	0x3d2c5778	0.042075604
133	0xbde65a49	-0.11247689
134	0xbd252ad7	-0.04032406
135	0x3e1dd6b9	0.15413941
136	0x3dfa8be0	0.1223371
137	0xbd666eec	-0.056258127
138	0xbe1bd1d7	-0.15216766
139	0x3cec029f	0.028809844
140	0x3d0ceab6	0.034403525
141	0x3d4d6e85	0.050154228
142	0x3d4e9068	0.050430685
143	0x3da82fc1	0.08212233
144	0x3d87436d	0.06604657
145	0x3ce62ea0	0.028098404
146	0xbd87ad75	-0.06624881
147	0x3e0093c2	0.12556365
148	0x3e1c44d6	0.15260634
149	0xbce9926e	-0.028512206
150	0xbd8406f4	-0.06446639
151	0xbc25d271	-0.010120974
152	0x3e190279	0.1494235
153	0xbd75d014	-0.060012892
154	0x3e03d721	0.12875034
155	0x3cf65b2d	0.030072773
156	0x3cc02416	0.023454707
157	0xbd5074b2	-0.05089254
158	0x3dbe558f	0.09293663
159	0x3e04f8b7	0.12985502
160	0xbc9c6762	-0.019092266
161	0xbdd8f6b8	-0.10593933
162	0x3d2dd64c	0.042440698
163	0xbe442ca1	-0.1915765
164	0xbe574e52	-0.2102597
165	0xbdf5fe8f	-0.12011444
166	0xbccbb03d	-0.02486431
167	0xbd380730	-0.04492873
168	0xbdf22ce0	-0.118249655
169	0xbe0c5bc5	-0.13706882
170	0x3e0fd428	0.14045775
171	0x3e8c33cd	0.2738327
172	0x3e175ae7	0.1478077
173	0x3e463447	0.1935588
174	0x3e0010ee	0.12506458
175	0x3da5ab85	0.080893554
176	0x3cb766f0	0.022387952
177	0xbc9aac20	-0.018880904
178	0xbd9b4fc5	-0.07583574
179	0x3d87a003	0.06622317
180	0x3d19dd39	0.03756449
181	0xbe2972dd	-0.16547723
182	0xbd00e3ad	-0.03146713
183	0xbd0d96cd	-0.034567643
184	0xbdc0e8d4	-0.094194084
185	0xbcd5b252	-0.026086006
186	0x3d1bdd73	0.038052987
187	0xbc9d7c4e	-0.019224312
188	0x3e1600d7	0.14648758
189	0xbdd02192	-0.10162653
190	0x3d17babb	0.037043314
191	0xbe2adf6e	-0.16686794
192	0xbcad3c12	-0.021146808
193	0xbe17a45c	-0.14808792
194	0x3dfe88fb	0.12428471
195	0x3ce3fbe1	0.027830066
196	0xbe52b25c	-0.20575851
197	0x3e24b2ce	0.16083834
198	0x3d9d5076	0.07681362
199	0x3daec960	0.08534503
200	0xbe23ebb9	-0.1600789
201	0x3d9a5ccd	0.075372316
202	0xbdeadebd	-0.11468265
203	0x3e70c105	0.23511131
204	0xbe4ca221	-0.19983722
205	0xbd1c56de	-0.03816878
206	0x3bb4e6e0	0.0055206865
207	0x3db3eea2	0.0878575
208	0xbb27137f	-0.0025493798
209	0xbd4fdb55	-0.05074628
210	0xbd5f5bed	-0.054531027
211	0x3cbcf43c	0.023065679
212	0x3da47e1e	0.080318674
213	0x3d933a34	0.07188836
214	0xbe44b346	-0.19209012
215	0x3d557be0	0.05212009
216	0xbe2abbca	-0.16673198
217	0x3d8c1cea	0.068414524
218	0x3dd0fd18	0.10204524
219	0x3e102a6e	0.14078686
220	0x3d53d4fc	0.05171679
221	0xbe2853d4	-0.16438228
222	0xbccdefa4	-0.025138684
223	0xbd87e3c6	-0.06635241
224	0xbd2f5b12	-0.04281146
225	0xbe2355e3	-0.15950732
226	0x3d1104ed	0.03540509
227	0x3dc0f9b9	0.09422631
228	0x3dfd8e6e	0.12380682
229	0x3dc230ff	0.094820015
230	0x3eaa095a	0.3321026
231	0x3e594046	0.21215925
232	0x3d5f8da5	0.054578442
233	0xbe0a82a1	-0.13526393
234	0xbdde5502	-0.10856058
235	0xbce95e8b	-0.028487464
236	0x3dd3b0b0	0.10336435
237	0x3c2995ca	0.010350654
238	0x3d43db27	0.04781642
239	0xbd37cb46	-0.04487159
240	0xbc486095	-0.012230058
241	0x3dccfa0a	0.10008629
242	0x3dc1ba36	0.09459345
243	0x3e3acb58	0.18241632
244	0xbd0547b1	-0.032539073
245	0xbe27a7c2	-0.16372588
246	0xbe2fbe1d	-0.17162366
247	0x3df37d1e	0.118890986
248	0x3dd22d79	0.102625795
249	0x3dc4a6a0	0.09602094
250	0x3e7a7c11	0.2446139
251	0x3b50ee9c	0.0031880504
252	0x3ca53517	0.020166917
253	0x3c210769	0.009828427
254	0x3dad21ef	0.08453738
255	0xbe0f467a	-0.13991728

local_trans_pixel.layers.0.1.fn.fn.net.0.bias f4 [8]
0	0x3e03508b	0.12823693
1	0x3e7d81f6	0.24756607
2	0x3dfdb60d	0.12388239
3	0x3ca01e4d	0.019545699
4	0xbe14c970	-0.14529967
5	0x3d121699	0.035666082
6	0xbe1bde05	-0.15221412
7	0xbcc3064d	-0.023806715

local_trans_pixel.layers.0.1.fn.fn.net.3.weight f4 [32, 8]
0	0x3ec23ccf	0.37937018
1	0x3ea6f307	0.3260729
2	0x3ec2b305	0.38027206
3	0x3edc9273	0.43080482
4	0x3e154f7e	0.14581105
5	0x3e36ed94	0.17864066
6	0x3d45f02a	0.04832474
7	0x3ec705ec	0.38871706
8	0xbe426a8d	-0.18985958
9	0xbea2fb17	-0.3183219
10	0x3e63727b	0.2221164
11	0x3e149923	0.14511542
12	0xbecb9472	-0.39761692
13	0xbe9285f8	-0.28617835
14	0x3c149595	0.009068866
15	0x3d38f176	0.04515215
16	0xbe6e028e	-0.23243162
17	0x3e9dcce4	0.30820382
18	0x3e3807c0	0.17971706
19	0x3ee59758	0.4484203
20	0x3e02126b	0.12702338
21	0x3e904b0a	0.2818225
22	0xbdc4c2d1	-0.09607471
23	0x3e468442	0.1938639
24	0x3e5e37b0	0.2170093
25	0x3ef2f10d	0.47449532
26	0x3e26479f	0.16238259
27	0xbd4cebc8	-0.050029546
28	0x3d2ac924	0.04169573
29	0x3e06c864	0.1316238
30	0xbe27fa2b	-0.16404025
31	0x3f0426ed	0.51621896
32	0x3ec84a9a	0.39119416
33	0x3e22357c	0.15840715
34	0x3d301c17	0.04299554
35	0xbe9a0a8c	-0.30086172
36	0xbd767017	-0.06016549
37	0x3e0349c2	0.12821105
38	0x3dfba707	0.12287717
39	0x3e943e5f	0.28953835
40	0x3ddcd915	0.107835926
41	0x3e9d83f1	0.30764726
42	0xbe7e6369	-0.2484261
43	0x3eb8f2a4	0.3612262
44	0x3cb5c90c	0.022190593
45	0x3d9abc97	0.07555502
46	0xbdeb1dfd	-0.11480329
47	0x3eaf9bb9	0.34298494
48	0x3eba821a	0.36427385
49	0x3f068717	0.5254988
50	0x3e6964d1	0.22792365
51	0x3c0a688a	0.008447776
52	0xbe47ecc6	-0.19523916
53	0x3e2fe949	0.17178835
54	0xbece81a8	-0.40333295
55	0xbe6223c1	-0.22083952
56	0x3d5f9581	0.054585937
57	0x3eebca20	0.46052647
58	0x3b66714b	0.0035162743
59	0x3e2aea80	0.16691017
60	0x3e2e4c37	0.17021261
61	0x3ee19daa	0.440656
62	0x3e1a1ff7	0.15051256
63	0xbbc038ed	-0.005866161
64	0xbebcbf94	-0.36864913
65	0xbec6c706	-0.38823718
66	0x3d9a489f	0.075333826
67	0xbd17e120	-0.03707993
68	0x3e5046c3	0.20339493
69	0x3e40dd57	0.18834434
70	0x3e69454e	0.22780344
71	0xbd00ccf9	-0.031445477
72	0xbea2a0d6	-0.31763333
73	0xbe8a4bd3	-0.27010974
74	0x3e0404ea	0.128925
75	0xb9c5f21b	-0.0003775515
76	0x3d87eb47	0.066366725
77	0x3e3ce0e5	0.18445165
78	0x3d0d7dd5	0.03454383
79	0x3eabf073	0.33581886
80	0xbc2502b5	-0.010071446
81	0xbe4fe4ac	-0.20302075
82	0x3ea26e59	0.31724814
83	0xbea8c207	-0.3296053
84	0xbe9a722f	-0.3016524
85	0xbe3275c0	-0.1742773
86	0xbd6d38c9	-0.057915483
87	0xbd8eb20f	-0.06967556
88	0xbd9161f3	-0.070987605
89	0x3ef6b225	0.48182788
90	0xbdeeb592	-0.116557255
91	0x3ec4dd17	0.38449928
92	0x3c04913f	0.00809127
93	0x3ea71960	0.32636547
94	0x3e87c6db	0.26518902
95	0xbd8b7c83	-0.06810858
96	0xbc71314d	-0.014721227
97	0xbdff9bb3	-0.12480869
98	0xbda647c7	-0.08119159
99	0x3ecef02e	0.40417618
100	0xbdfa6876	-0.122269556
101	0xbdbbfd90	-0.091792226
102	0xbe8e58f7	-0.2780225
103	0x3eefa2d7	0.46803924
104	0x3e8c7973	0.27436408
105	0xbe40618b	-0.1878721
106	0xbd8c3eb6	-0.06847899
107	0x3bc29ed5	0.0059393444
108	0xbeaba5f4	-0.3352505
109	0xbc646f66	-0.013942575
110	0xbebe250b	-0.37137637
111	0xbe16c6a4	-0.14724213
112	0xbe286701	-0.16445543
113	0xbe33a714	-0.17544204
114	0xbec14b77	-0.37752888
115	0x3eb4a0bb	0.35278878
116	0xbe90dcbd	-0.2829341
117	0xbd88e9ed	-0.06685243
118	0xbe467b11	-0.19382884
119	0xbe4d57d0	-0.20053029
120	0x3e51f88f	0.20504974
121	0x3cd2754c	0.025690697
122	0x3e1aaa2e	0.15103981
123	0xbcae2e48	-0.021262303
124	0xbdf40a08	-0.11915976
125	0x3ea227c7	0.31670973
126	0xbe4b1a0c	-0.19834155
127	0xbe56da7a	-0.2098178
128	0x3cf5fa8e	0.0300267
129	0xbe5b6dd2	-0.21428612
130	0xbea62b74	-0.32455027
131	0xbe84f0a4	-0.25964844
132	0x3e24a3f3	0.16078167
133	0xbeab74c3	-0.3348752
134	0x3ea205b7	0.31644985
135	0xbe895d18	-0.26828837
136	0xbe68fa2d	-0.22751684
137	0xbe567ba2	-0.209456
138	0x3df2acb4	0.11849347
139	0x3e8b6898	0.27228236
140	0x3e636420	0.22206163
141	0xbdac0a46	-0.08400397
142	0xbe22d2e6	-0.15900764
143	0x3da48ffd	0.08035276
144	0xbcf12509	-0.029436605
145	0xbe1ab3c1	-0.15107633
146	0x3e08e5a1	0.13368846
147	0xbdc62623	-0.09675243
148	0xbe28a556	-0.1646932
149	0xbe8170d3	-0.2528139
150	0x3ecb811c	0.3974694
151	0xbd938bf7	-0.072044306
152	0x3e3618cf	0.17782901
153	0x3e78c630	0.24294353
154	0x3e8572e6	0.26064223
155	0x3e1fc417	0.15602146
156	0xbe6ac788	-0.22927678
157	0xbe08bb7b	-0.13352768
158	0x3eaa7581	0.33292773
159	0x3e4c0626	0.1992422
160	0x3e88a53d	0.26688567
161	0x3e4d9a1b	0.20078318
162	0x3e6743a1	0.22584392
163	0xbde642b1	-0.11243189
164	0xbd958209	-0.07300193
165	0x3eab369c	0.334401
166	0x3e878ee3	0.264762
167	0x3e8a9d24	0.27073014
168	0xbe9cee43	-0.3065053
169	0xbeb6c339	-0.35695818
170	0x3e8b4768	0.27202916
171	0xbe648172	-0.22315004
172	0x3e370263	0.17872004
173	0xbea85d57	-0.32883713
174	0x3ea21cab	0.31662497
175	0xbe40c69a	-0.1882576
176	0x3e8837cd	0.26605073
177	0x3cee0f9d	0.02906018
178	0x3d8dade8	0.069179356
179	0x3ebf8778	0.37408042
180	0x3e4111a9	0.18854393
181	0xbe1626f1	-0.14663292
182	0xbdb77f73	-0.08959856
183	0x3edacc14	0.42733824
184	0x3e6c0a26	0.23050746
185	0x3ef014e7	0.46890947
186	0xbdec8c84	-0.11550239
187	0x3ed2636b	0.41091475
188	0xbd03606a	-0.03207437
189	0x3e95274c	0.29131544
190	0x3e106a7b	0.14103119
191	0xbae91163	-0.0017781671
192	0x3e99ff7b	0.3007773
193	0xbe196469	-0.1497971
194	0xbe36a1e3	-0.17835192
195	0xbd844dad	-0.06460128
196	0x3d3d4637	0.04620954
197	0x3e183b60	0.148664
198	0xbe5f05be	-0.21779534
199	0xbc548877	-0.012971989
200	0x3eb5feaa	0.35545856
201	0xbd2f9063	-0.042862307
202	0x3eb3b98d	0.35102502
203	0xbede6aa9	-0.4344075
204	0x3e5fdac2	0.21860793
205	0xbe3df4f9	-0.18550481
206	0xbe073cdf	-0.13206814
207	0x3c15e453	0.009148675
208	0xbe67611b	-0.22595637
209	0x3ed699e5	0.41914287
210	0xbe26e15f	-0.1629691
211	0xbc34dc4b	-0.01103885
212	0xbb6596fd	-0.0035032623
213	0x3e4ee018	0.20202672
214	0x3e2fb5bb	0.17159168
215	0xbee0c9c7	-0.43903944
216	0x3e6db5cb	0.2321388
217	0x3d875af6	0.06609146
218	0xbe6c885f	-0.23098896
219	0x3bf3d947	0.007441673
220	0xbd12d072	-0.03584332
221	0x3e8c7a44	0.2743703
222	0x3e9a3dbf	0.30125234
223	0x3eeea927	0.46613428
224	0x3e571e4f	0.21007656
225	0x3e86f7e1	0.26360992
226	0xbe803971	-0.25043824
227	0x3e83dbd6	0.2575366
228	0xbe325d88	-0.17418492
229	0x3e9199db	0.28437695
230	0xbe3ec7d4	-0.18630916
231	0x3e736503	0.23769002
232	0x3e969843	0.2941304
233	0x3e4ed27a	0.20197478
234	0x3ebc9a21	0.3683634
235	0x3e1f66ed	0.15566607
236	0x3d509b34	0.050929263
237	0x3e02c6a7	0.12771092
238	0x3ca551c0	0.020180583
239	0x3ea41352	0.3204599
240	0x3e88ae68	0.2669556
241	0xbe023f4c	-0.12719458
242	0x3e30b672	0.17257097
243	0xbe62f76f	-0.22164701
244	0xbe28f4db	-0.16499655
245	0x3d2425aa	0.04007498
246	0x3dc83614	0.097759396
247	0xbe1d4d8c	-0.15361613
248	0x3e84dba5	0.25948825
249	0xbe8233d3	-0.25430164
250	0x3deaaf49	0.11459214
251	0xbdb27db0	-0.08715379
252	0xbd67293f	-0.05643582
253	0xbd1cbfa0	-0.038268685
254	0xbe5b8fe7	-0.21441613
255	0x3e229ac8	0.15879357

local_trans_pixel.layers.0.1.fn.fn.net.3.bias f4 [32]
0	0x3ea1d4b1	0.31607583
1	0x3dcc6bd9	0.09981508
2	0x3d001d80	0.031278133
3	0xbd7a2934	-0.06107445
4	0x3e5791e5	0.21051748
5	0xbebcd266	-0.3687927
6	0x3d32848d	0.04358344
7	0x3d88a4f9	0.06672091
8	0xbba03c9d	-0.004890038
9	0xbec56140	-0.38550758
10	0xbe2e998b	-0.1705076
11	0xbd1a5750	-0.037680924
12	0x3e48918f	0.19586776
13	0x3dee6382	0.11640073
14	0x3dac25e7	0.08405667
15	0xbd98ac3d	-0.07454727
16	0xbea38737	-0.31939098
17	0xbd3c15f6	-0.04591938
18	0x3e6b5079	0.22979917
19	0x3e2460e6	0.16052589
20	0x3ec5328e	0.38515133
21	0xbecaacc4	-0.39584935
22	0x3e9fa170	0.31177855
23	0x3e4075b0	0.18794894
24	0x3ea63269	0.32460335
25	0x3e86212b	0.2619718
26	0x3c7214d8	0.014775477
27	0xbe16635e	-0.14686343
28	0xbcf6ce82	-0.030127767
29	0xbdb189db	-0.08668872
30	0x3d092a5f	0.033487674
31	0x3df75f4b	0.120787226
