src/res/GGCL/guided_contra_cross_transformer/Pavia/20/true ss 0.7/_1711724541.pth (torch, 266710 bytes, 37 tensors)

pixel_pos_embedding f4 [1, 170, 32]
000000 02 08 c2 3e ac 97 26 3f a3 d4 1b 40 d1 53 e1 be
       0.37896734 0.6507518 2.4348533 -0.4400926
000010 27 6a 88 3f 5a 07 3b bf 67 65 cd 3d 7e 0b 9d be
       1.0657395 -0.7305809 0.100291066 -0.3067283
000020 70 2e 15 bd 1d cc 77 3e 82 d5 7e 3d fb 23 bc 3e
       -0.03642124 0.24198957 0.062215336 0.367462
000030 a4 99 58 3e 45 26 73 bf 74 8c b0 3f f6 72 d9 3f
       0.21152359 -0.9498027 1.3792863 1.6988208
000040 5b 3a 43 3c 09 02 05 3f d4 99 72 3f 67 81 2f bf
       0.0119157685 0.5195623 0.94765973 -0.6855683
000050 30 2c 04 bf fc 5a 89 bf d5 38 cd bf 2d de 55 3f
       -0.51629925 -1.0730891 -1.6032969 0.8354214
000060 33 c8 6e bf fa 93 ff 3e d4 d7 3a 3f 05 88 0a 3c
       -0.9327423 0.49917585 0.7298558 0.008455281
000070 65 fc 4b 3c eb 65 05 c0 ba 16 b3 be a1 ad 3f be
       0.012450312 -2.0843456 -0.34978276 -0.18718578
000080 c2 1d e7 3d 96 e3 ef 3e 47 7a bd be 30 05 52 bf
       0.11284973 0.46853322 -0.37007353 -0.82039165
000090 0f 4d c1 bf 2c f3 1d bf de 7e 69 3f c7 86 ca bf
       -1.5101641 -0.61699176 0.9120921 -1.5822381
0000a0 3b 2d 95 3f ab 9a 13 3e 5d 58 ff bd d6 a5 99 bf
       1.1654428 0.1441447 -0.12468026 -1.2003734
0000b0 72 9b e1 3e e6 6a 1f 3b dd 44 50 3f 58 26 15 bf
       0.44063908 0.002432519 0.8135508 -0.5826163
0000c0 aa 47 f1 3e f4 e3 68 bf d3 95 77 be e7 8d 80 bd
       0.47124988 -0.9097283 -0.24178247 -0.06277066
0000d0 cb e1 66 3f d5 a0 8a bf 3f 87 70 3f 6b f4 5b 3e
       0.9018828 -1.0830332 0.9395637 0.21479957
0000e0 e4 9d 12 3e a2 cc 0b 3f 3a 1e 92 be 03 a8 0f bf
       0.14318043 0.5460912 -0.28538686 -0.5611574
0000f0 5a 6f d4 bf 21 9f 50 bf 5f dd 38 be 19 24 10 bf
       -1.6596482 -0.8149281 -0.18053196 -0.5630508
000100 87 23 b7 bf ab a3 93 3f 56 c3 c7 bf a6 5e 9d be
       -1.4307717 1.1534323 -1.5606487 -0.30736274
000110 ab 44 04 3e e1 36 dd bf 46 61 f8 bf a8 72 df bf
       0.1291682 -1.7282373 -1.9404685 -1.7456865
000120 2a 25 c4 3f af 25 4d 3f fb fb 78 3f 30 bd 5b 3e
       1.5323842 0.80135626 0.9725949 0.21458888
000130 0e 65 0f 3f ee 25 89 3f 0a 73 b4 3f 37 02 70 bf
       0.5601357 1.07147 1.4097607 -0.9375338
000140 61 5c 1a 3f 55 04 3d 3f c7 1f c6 be c5 39 a6 bf
       0.6029721 0.73834735 -0.3869612 -1.298638
000150 b6 fc 8c 3f 1b 46 fc 3e 43 c3 94 3e 89 9d e0 3f
       1.1014621 0.49272236 0.29055223 1.7548076
000160 49 c6 8f 3f 92 e4 3c 3f 31 af 80 3f 99 d0 27 bf
       1.1232387 0.7378627 1.0053464 -0.6555267
000170 b7 19 f8 3f 1e 7e 91 bf 3d 94 81 bf 06 3f 15 bc
       1.9382848 -1.1366613 -1.0123364 -0.009109264
000180 e1 61 8f 3f bc 84 c5 3e a1 c0 ea bf 69 53 06 bf
       1.1201745 0.3857783 -1.8340036 -0.52471024
000190 af 99 fa 3f 14 97 8c 3f a6 5c 84 3f 45 1b df 3c
       1.957815 1.0983605 1.0340774 0.027234683
0001a0 b7 57 ed bf 1c 90 70 3f 4e f7 46 3f b4 ee 31 3f
       -1.8542393 0.93969893 0.77721107 0.6950486
0001b0 20 7a 21 bf 90 ea 66 bd a0 f6 4a bf 64 9b c8 bf
       -0.6307697 -0.05637604 -0.7928257 -1.5672421
0001c0 59 b4 ea bf b7 e4 f4 bd 3a fd aa 3f 93 8f 17 3f
       -1.8336288 -0.119576864 1.3358529 0.5920345
0001d0 83 3f 8d bf 39 07 2f 3f a6 3e 67 3f 37 c0 b5 3f
       -1.1035007 0.68370396 0.9032997 1.4199284
0001e0 3e 87 d3 be d9 42 2e bf 05 08 21 be c9 e4 08 c0
       -0.4131412 -0.6807075 -0.15725715 -2.138964
0001f0 c8 6d 5b 3d 5d 59 9c bf f7 b0 26 3f 38 f0 b7 3d
       0.053571492 -1.2214772 0.65113777 0.08981365
000200 7e da 0d 40 17 b3 c0 bf 41 0a d7 bb 34 03 ed be
       2.2164607 -1.5054654 -0.0065625017 -0.46291506
000210 bd 15 08 bf 8c 6b aa 3e ad 0c d0 bf 6c 2d 38 3e
       -0.5315817 0.33285177 -1.6253868 0.17986077
000220 8f 77 e9 bf 86 42 fd 3e 2c 5b 86 3e a8 c2 a1 bf
       -1.8239611 0.49464816 0.26241434 -1.2637529
000230 35 f2 99 be 0e 5e 8f 3f e0 9d bd be bc c3 cd be
       -0.30067602 1.1200578 -0.37034512 -0.40188396
000240 e0 23 10 bf de d2 0a 40 16 10 a8 3e f1 b6 44 3e
       -0.5630474 2.1691203 0.32824773 0.19210412
000250 3e bf 46 3f 54 92 54 3f 94 6f 0e bf ea b2 3d bf
       0.7763556 0.8303578 -0.55639005 -0.74101126
000260 92 c7 61 bf 50 5d 08 40 09 7e 86 be 5b 20 dd be
       -0.88195145 2.1306953 -0.26268032 -0.43188748
000270 99 e6 c6 3e 40 e8 fd be 92 d1 01 c0 fa c1 1b bf
       0.38847807 -0.49591255 -2.0284162 -0.6084286
000280 7a d8 b4 3f 47 93 98 bf ba 46 11 3f e4 7f 0d c0
       1.4128563 -1.1919945 0.56748545 -2.2109308
000290 4b 6c 69 3f 35 ea d0 bd bf 10 bd be 50 f7 9c bf
       0.91180867 -0.102009214 -0.3692684 -1.2262974
0002a0 f3 6d c5 3e 1a 35 a4 bf 19 ed d3 bf d4 66 00 c0
       0.38560447 -1.2828705 -1.6556731 -2.0062761
0002b0 7d 78 39 3f bb 8d 20 bf 74 e6 24 3f ab 1e df 3e
       0.72449476 -0.62716264 0.64414144 0.43578085
0002c0 7e e7 21 3e 94 75 c9 bf 28 9c 39 3b 50 ab d7 3f
       0.15810964 -1.5739007 0.0028321836 1.6849155
0002d0 0e 58 ec bf b4 c3 1f be c1 a7 93 bf 05 e4 b4 bf
       -1.8464372 -0.15601999 -1.153557 -1.4132086
0002e0 79 1d 11 3f f4 43 03 bf 7d c9 7a 3f 86 ba 44 bd
       0.56685597 -0.51275563 0.97963697 -0.048029445
0002f0 45 54 cb 3e e8 66 8f 3e 1f d7 7d be 5b 8f df bd
       0.3971273 0.280082 -0.24789093 -0.10916015
000300 95 bc 77 3d cb 99 25 3f 3e d9 84 bf ae fb 9c 3e
       0.06048258 0.64687794 -1.0378797 0.30660766
000310 94 6d 4e bf e7 34 54 3e 74 a4 26 3d c6 6d 3b 3d
       -0.8063595 0.20723306 0.04068418 0.045758985
000320 46 a8 0d 3f 6b 7d 71 be bd 29 6b bf 4a 4e 45 bf
       0.5533489 -0.23583 -0.9186056 -0.77072585
000330 f1 a0 bd 3f f8 35 98 bf a1 7d 93 bf 44 6f 90 bf
       1.481474 -1.189147 -1.1522714 -1.1283956
000340 e2 09 a0 3f 94 2d 54 3e 8b 85 50 bf 54 08 6c be
       1.2503016 0.20720512 -0.8145377 -0.23050052
000350 8d 26 08 3f 85 3a 02 bf f0 87 8f be 63 6f f5 3e
       0.53183824 -0.50870544 -0.280334 0.47936544
000360 c0 6c af 3f 70 f5 e9 3d ef 38 58 3f 5a 2e 02 3f
       1.3705063 0.114237666 0.84461874 0.50851977
000370 c4 3f db 3f 47 c2 bd bf d4 d9 95 bf 31 4f 84 bf
       1.7128835 -1.4824914 -1.1707101 -1.0336667
000380 25 84 bf be 79 60 c7 be 28 3a 86 3d 14 e7 7e 3f
       -0.37405506 -0.3894079 0.06554061 0.9957135
000390 3b ab a5 be aa bf d4 bf 6c 8e 38 bf df 07 f7 be
       -0.323572 -1.6620991 -0.7209232 -0.48248193
0003a0 2c e3 0a bf d3 f5 c7 bf 5d f4 4c 3d 89 f7 8e bf
       -0.54252887 -1.5621895 0.05003773 -1.1169292
0003b0 22 08 b5 3f 62 06 a5 bf 5f 82 e2 be e6 bb a8 3f
       1.4143107 -1.2892573 -0.4424009 1.3182342
0003c0 cb 3d 9d 3f 7c 47 4b 3f a5 f3 56 3e ae c8 5f 3f
       1.2284483 0.7940595 0.2099138 0.8741559
0003d0 97 4c fb bf 2a 22 27 3b 0b de 02 bf 3e e7 0d 40
       -1.9632748 0.002550254 -0.5112006 2.217239
0003e0 60 57 a7 3f 42 57 04 bf 6e 75 a3 3f ba 5c 22 bf
       1.307354 -0.51695645 1.2770212 -0.6342274
0003f0 ee ec d6 3f 79 df ea 3f 90 bf d3 bf 7e 1d 38 bf
       1.6791055 1.8349448 -1.6542835 -0.7192

cls_token_pixel f4 [1, 1, 32]
000000 29 b5 28 c0 67 5a 15 bf 4c 95 46 be d6 0e e5 be
       -2.6360571 -0.5834107 -0.1939289 -0.4473788
000010 5f 4c 47 bf 14 93 65 3e 40 3e 02 3f 51 9c 2d 3f
       -0.7785091 0.22419387 0.50876236 0.67816645
000020 37 f9 a4 3f 32 8b 6b bc a9 9e 81 bc d5 cd c7 be
       1.2888554 -0.0143764485 -0.015822725 -0.39024225
000030 70 7a 6d bf b7 6c ad be 67 92 65 3f dd c5 e2 3f
       -0.9276495 -0.33872005 0.8967652 1.7716633
000040 41 4e 3f 3f e0 2c e1 be 46 f3 df be 2e 7a 35 3f
       0.7472878 -0.4397955 -0.4374029 0.70889556
000050 59 64 5f 3f ca 50 21 3f b2 36 37 be 95 58 6e be
       0.87262493 0.630139 -0.17891958 -0.23275979
000060 92 e4 44 3f 18 7c 3e be e5 32 68 3f fb 50 1e 3f
       0.7691127 -0.18602026 0.9070266 0.61842316
000070 63 cc b3 3f c0 39 b2 bf 02 90 9e be 61 b7 d7 3f
       1.4046749 -1.3923874 -0.30969244 1.6852838

pixel_patch_embedding.weight f4 [32, 30]
000000 a8 5e 2d 3e e1 39 a6 bd 30 29 62 bc ae 38 f0 bd
       0.1693064 -0.08116508 -0.013803765 -0.11729561
000010 80 6f 5a bb 7e 96 2f 3e f8 20 55 bd 78 60 0e be
       -0.003333062 0.17147252 -0.052033395 -0.13903987
000020 80 c2 0c bc 40 31 da 3c 7e 7b 0f 3e b8 75 d2 3d
       -0.008591294 0.026634812 0.14011952 0.10276359
000030 56 be 9c bd bb 9b 1d be cc c8 5b 3d 6d 28 89 bd
       -0.07653491 -0.15391438 0.05365829 -0.06697164
000040 9e 49 30 be 97 37 31 be 8e 63 6f bd ab 67 2d be
       -0.17215583 -0.17306362 -0.058444552 -0.16934077
000050 4c 94 1a 3d 1e 18 a0 bd 0a 7a 1e be ed 3f b1 bd
       0.037739083 -0.078171 -0.15476242 -0.08654771
000060 7c 5d e4 bd 50 14 b2 bc 26 a4 0e be 2e ae 23 be
       -0.11150643 -0.021738201 -0.13929805 -0.15984413
000070 a5 18 2f be 1e 1f 30 3e 80 30 62 bb 6f 4f a3 bd
       -0.17099245 0.1719937 -0.0034513772 -0.07974135
000080 08 0f aa 3d 72 ae 2e 3e 58 44 60 3d 45 1f 15 be
       0.08303648 0.17058733 0.054752678 -0.1456271
000090 30 fa 37 3c 3c 64 b6 3d 7c 36 0c 3e 44 33 db 3d
       0.011229083 0.08905837 0.13692659 0.107031375
0000a0 d0 02 96 3d 64 66 b7 3d 82 9c 00 3e 40 b1 10 3d
       0.07324755 0.08955076 0.12559703 0.03532529
0000b0 a8 8e 06 bd 38 12 bf 3d 12 8a 1c 3e e8 74 0d 3e
       -0.03285089 0.09329647 0.15287045 0.13814127
0000c0 ec 5f 15 3e 27 a0 db bd 64 18 0a 3e a4 dc 86 3d
       0.14587373 -0.10723906 0.13485867 0.065850526
0000d0 0a 75 0f 3e 90 f9 d2 3c c6 f8 2d be a8 4a ee 3d
       0.1400949 0.025753766 -0.16989431 0.11635333
0000e0 c0 9a 07 3b 48 63 ee bc d1 b7 9b bd 9c 60 df 3d
       0.0020691603 -0.029100075 -0.076034196 0.10907099
0000f0 fc d6 a8 3d 62 68 37 3e 00 3a 09 bc 2c 41 48 3d
       0.0824413 0.17910913 -0.008375645 0.048890278
000100 a8 f6 fd 3d e0 3c 14 3c 00 c6 52 bc 56 86 a4 bd
       0.124005616 0.009047717 -0.01286459 -0.08033435
000110 f0 3c 14 3e ec cd 12 be 80 9b 56 3c 5c bd bf 3d
       0.14476371 -0.14336365 0.0130985975 0.09362289
000120 f9 b3 f7 bd 54 ac f6 3d c4 93 7f bd 99 0d 2c be
       -0.12094874 0.12044588 -0.06239678 -0.16802062
000130 30 84 e9 3c 48 97 1e 3e 40 90 b2 3d 50 e7 06 3e
       0.028505415 0.15487397 0.0871892 0.13174176
000140 e0 3b e4 3d e8 89 25 3d c6 0f a0 bd cb aa dc bd
       0.11144233 0.04041472 -0.078155085 -0.10774764
000150 da e5 21 3e 05 16 36 be 60 8e 28 bd f8 33 ed 3d
       0.15810338 -0.17781837 -0.041151404 0.11582178
000160 ac a0 b8 3d f4 52 08 be 78 18 30 3d a8 17 35 3e
       0.09015021 -0.13312894 0.042992085 0.17684805
000170 f8 76 75 3d 50 87 ec bc 84 f3 0b be 9b 66 00 be
       0.05992791 -0.028873116 -0.13667113 -0.12539141
000180 a0 b6 b5 3b 80 80 3a 3b b2 af ff bd ac f7 a5 3d
       0.0055454522 0.002845794 -0.12484683 0.0810388
000190 60 df 69 3d 80 62 3f 3c 18 4f 5b bd 28 fb b3 3d
       0.057097793 0.011681199 -0.053542227 0.08788139
0001a0 0c b1 29 be 80 6b f1 3d b6 4f 10 3e 00 8e a6 bd
       -0.16571444 0.11788082 0.14092907 -0.08132553
0001b0 94 f5 0a 3e 90 81 06 bc d0 e8 fc 3c 90 44 78 bc
       0.13570243 -0.008209601 0.030872732 -0.015153065
0001c0 e2 b2 0a 3e ce 4f 1c be 88 0b 06 bd 44 f5 e2 3d
       0.13544801 -0.15264818 -0.03272584 0.11081937
0001d0 80 9b bf 3d 18 a0 bf bc ca 6a 04 be 6c eb cb 3d
       0.09355831 -0.023391768 -0.12931362 0.099570125
0001e0 94 5e 77 3d fb 07 f5 bd 18 a5 12 3e 00 c3 32 bd
       0.06039293 -0.11964413 0.14320791 -0.043642998
0001f0 94 f7 24 be f4 64 b9 3d 28 4f 78 3d 68 6c 8a bc
       -0.16110069 0.090524584 0.060622364 -0.016897395
000200 b8 34 b4 bc 16 f5 db bd ec c6 4d 3d c0 df 55 3b
       -0.021997795 -0.10740106 0.050238535 0.0032634586
000210 73 96 0c be 98 bd 02 3e 80 d4 df bc e4 a6 1f 3d
       -0.13729267 0.12767637 -0.027323008 0.03897752
000220 60 90 9f bb b8 4c 22 bd 72 dc 0a 3e 5a b4 2f 3e
       -0.0048695058 -0.039623946 0.13560656 0.17158642
000230 b2 b3 09 3e 8c 2f fc 3d a0 2c c6 bb 00 75 fe bc
       0.13447455 0.12313756 -0.0060478 -0.03106165
000240 c0 27 4c 3d 17 7e cc bd a2 14 80 bd d0 25 f7 bc
       0.049842596 -0.09984987 -0.062539354 -0.030169398
000250 fa 92 35 be 60 e1 b1 bc f1 7a 39 be 24 50 11 be
       -0.17731848 -0.021713912 -0.18113305 -0.14190727
000260 b6 97 f7 bd 93 bf c8 bd 7c ce ee bd 44 d2 a3 3d
       -0.120894834 -0.09802165 -0.116604775 0.07999089
000270 54 ca d0 3d 89 12 19 be 0e dd 30 3e 70 ff 9b 3d
       0.10194841 -0.14948477 0.17271826 0.0761708
000280 64 30 a3 3d e0 1f e3 bb db 15 25 be c8 75 fa 3c
       0.07968214 -0.00693129 -0.16121618 0.03057374
000290 d2 3c 08 3e e4 96 06 bd 31 c0 0e be c8 f3 f0 bd
       0.13304451 -0.032858744 -0.13940503 -0.117652476
0002a0 50 9d 10 3e d0 20 da 3d 3c 9b 2c 3e 8b 6f d4 bd
       0.1412251 0.1065079 0.16856092 -0.10372838
0002b0 43 b0 0c be 50 1b 19 bc 2c fc 8e 3d 2d aa 24 be
       -0.13739114 -0.009344891 0.06981692 -0.16080542
0002c0 b0 76 eb bc 84 0d 10 bd b4 aa 9f 3d d0 d6 d1 bd
       -0.028743118 -0.03516914 0.07796231 -0.1024605
0002d0 6a da 77 bd a6 c6 2b 3e 40 69 2e 3d a7 10 bf bd
       -0.06051103 0.16774997 0.042580843 -0.09329348
0002e0 50 fa 9a 3d 98 b4 a0 3c 20 5a de 3d 70 7a 00 bc
       0.075672746 0.019617364 0.10857034 -0.007841691
0002f0 a8 53 d9 3c 90 de 05 3e e8 14 87 bd 5a 29 0b 3e
       0.026529148 0.13073182 -0.065957844 0.13589993
000300 e4 42 e3 3d 8c 76 3a 3d 52 6b ed bd 5f b2 f2 bd
       0.11096743 0.04552321 -0.11592735 -0.11850428
000310 cc 58 9e bd a0 3a 12 bd d6 55 ea bd 0c 63 3d 3d
       -0.077317804 -0.03570044 -0.11442153 0.046237037
000320 80 b2 2c be 36 c4 17 3e 71 d7 84 bd 18 b1 ec bc
       -0.16864967 0.14820942 -0.06486405 -0.028893039
000330 9e 13 a3 bd 28 01 6f 3d 00 50 36 3e 9e 51 08 be
       -0.07962726 0.058350712 0.17803955 -0.13312384
000340 a9 9b 22 be 08 ce d1 3c e5 99 8c bd 94 dd 25 3d
       -0.15879692 0.025610939 -0.068652906 0.040494516
000350 7b 3a bb bd bc ff ee 3d 82 41 fd bd ac 2e 0c be
       -0.09142014 0.11669871 -0.1236601 -0.13689679
000360 7a 41 76 bd 90 80 c8 3d 24 65 26 3d 5a 29 7b bd
       -0.060121037 0.09790146 0.0406238 -0.061318733
000370 80 fd 23 bb 82 92 24 3e 4f 00 21 be a0 ab db bc
       -0.0025022924 0.16071513 -0.15722774 -0.026815236
000380 64 ae 7a bd dc 7d 60 bd 00 50 39 bc f0 94 01 bd
       -0.061201468 -0.05480753 -0.011310577 -0.03163618
000390 18 50 05 3e 08 88 14 3e 43 2e 05 be 05 e9 a1 bd
       0.13018835 0.14505017 -0.13005929 -0.07905773
0003a0 90 56 50 bc dc 4e 18 3e 48 e3 a6 3c 3c 5e b9 3d
       -0.012715951 0.14873832 0.020372048 0.09051177
0003b0 08 c6 42 bd 28 a7 b9 3d 9c 35 68 3d 3c 6d 03 3e
       -0.04755214 0.09065086 0.05669175 0.12834638
0003c0 f8 bf 38 be 10 ca de bd ab ab ae bd 10 64 30 bc
       -0.1804198 -0.10878384 -0.08528837 -0.010766044
0003d0 34 d8 96 3d ee 85 fa bd 04 39 8e 3d ec 5b b4 3d
       0.07365456 -0.12232576 0.069444686 0.08806595
0003e0 54 16 9c 3d fe 06 86 3d c0 13 8b 3d c6 2b 36 3e
       0.07621446 0.065443024 0.067908764 0.17790136
0003f0 cc c2 29 bd 6c 0d 0a 3e 15 60 15 be a8 81 8e bc
       -0.04144554 0.13481683 -0.14587434 -0.01739581

pixel_patch_embedding.bias f4 [32]
000000 a0 ce d0 3c 60 50 cc bd b0 b4 84 3d 7d f1 d0 bd
       0.025489151 -0.09976268 0.06479776 -0.1020231
000010 f0 80 2f 3c 00 53 8c bd cf 21 d7 bd c0 9f 30 3d
       0.010711893 -0.068517685 -0.10504495 0.0431211
000020 20 74 16 3e a4 44 c6 3d 82 9d 2d 3e 7c d8 1b 3e
       0.14692736 0.09681061 0.16954616 0.15219301
000030 48 40 ea bd b4 11 33 3e 6c f5 06 3e ed b3 20 be
       -0.11438042 0.17487222 0.13179559 -0.15693636
000040 6c ba c1 3d 40 05 bd 3d 58 66 17 be 9b 4a d0 bd
       0.09459385 0.09229517 -0.14785135 -0.1017048
000050 24 80 2c 3e ce 06 3a be 66 be 85 bd 00 e5 5b 3b
       0.16845757 -0.18166658 -0.06530456 0.0033553243
000060 9c 7e e7 bd 99 6e 30 be a4 b2 4a bd 7c 20 09 be
       -0.11303446 -0.1722969 -0.04948677 -0.13391298
000070 d0 6b f9 3d 78 68 ad bd 68 7e d6 bc da 82 12 3e
       0.12178767 -0.084671915 -0.026183322 0.14307728

local_trans_pixel.layers.0.0.fn.norm.weight f4 [32]
000000 f7 77 91 3f 74 b8 95 3f 44 bc 8e 3f e8 57 8e 3f
       1.1364735 1.1696916 1.1151204 1.1120577
000010 5e a8 8b 3f 1c 2f 90 3f 67 c5 8b 3f cd 40 8f 3f
       1.0910757 1.1264377 1.0919617 1.1191651
000020 4c 28 98 3f d5 33 8d 3f ab f9 93 3f 66 5d 8e 3f
       1.1887298 1.1031443 1.1560568 1.1122253
000030 18 d0 8b 3f 8b 56 8f 3f 1f 30 8c 3f 49 28 90 3f
       1.092288 1.1198286 1.0952185 1.1262294
000040 fb 9b 89 3f a7 96 8f 3f ee c7 92 3f cf 0c 96 3f
       1.0750726 1.121785 1.1467264 1.1722659
000050 eb b7 91 3f 83 23 91 3f 77 c5 8c 3f 6b 86 8e 3f
       1.1384252 1.1338962 1.0997761 1.1134771
000060 f2 62 8a 3f 13 e6 91 3f 11 fb 8d 3f 31 4f 8f 3f
       1.0811446 1.1398338 1.1092244 1.1196042
000070 40 1d 90 3f 2f fc 90 3f c5 6f 91 3f a6 23 8e 3f
       1.1258926 1.132696 1.1362234 1.1104629

local_trans_pixel.layers.0.0.fn.norm.bias f4 [32]
000000 9b dc 26 3a d9 4d dc bd df fb 11 bd 47 7f 0a be
       0.000636527 -0.10757036 -0.035640594 -0.13525115
000010 18 52 36 bd 26 6c 0c be 1d 23 80 3d 8a a6 df bd
       -0.044511884 -0.1371313 0.06256697 -0.10920437
000020 19 cd 5c 3e f8 a6 af bd f3 d4 cd bd 37 c5 0b be
       0.21562614 -0.08576769 -0.100503825 -0.1364945
000030 73 fd 26 3d 58 22 af bd d9 d7 e6 3d c3 6f 29 3e
       0.04076905 -0.085514724 0.112716384 0.1654654
000040 db b4 0a 3e ea 4b 30 bd 03 0e c5 bb df 64 2b be
       0.13545553 -0.043041147 -0.006013633 -0.16737698
000050 b5 6a cd bc 3c eb 9f bd 2c 00 ac bd d9 a7 d2 3d
       -0.025075296 -0.07808539 -0.0839847 0.10285921
000060 a7 db c3 bc 18 c3 c3 3d 00 73 e0 3c 66 db 2a 3e
       -0.02390845 0.095586956 0.027398586 0.16685256
000070 49 3e 3e 3d 76 1a a7 bd 66 85 f2 bd 03 8a 80 3d
       0.04644612 -0.08159344 -0.1184185 0.06276324

local_trans_pixel.layers.0.0.fn.fn.to_qkv.weight f4 [768, 32]
000000 9e 09 2e 3d 79 ab 4c be bf fd 07 be 1d c9 fe 3d
       0.04248964 -0.19987287 -0.1328039 0.12440703
000010 bc 68 94 bd e9 6c 86 bc c3 80 1e 3e 2c 68 28 be
       -0.07246539 -0.016409354 0.15478806 -0.16445988
000020 df 89 d6 bc 63 2b 45 bd c3 65 e7 bd 3b 91 49 be
       -0.026188789 -0.04813708 -0.112987064 -0.19684307
000030 80 1f 44 3d 07 f0 6d 3c 6b 3b c5 bd 9b 0f 2e 3d
       0.047881603 0.014522559 -0.09630474 0.04249535
000040 f5 39 88 3c 0e 08 44 be c4 0c 17 3e 1d 29 42 3d
       0.016629199 -0.19143698 0.14750963 0.04740249
000050 4f 00 24 3e 2d a2 f4 bc d0 2d 24 3e bf 45 26 3e
       0.16015743 -0.029862488 0.16033101 0.16237544
000060 a3 03 47 be cf 57 5b 3d 10 3c 6e 3e e9 39 15 3e
       -0.19434981 0.053550538 0.232651 0.14572872
000070 fb ea 53 3e a0 32 da 3d 1d 09 c1 bb 9c 18 86 3d
       0.20695107 0.10654187 -0.005890979 0.065476626
000080 46 92 a7 3b 21 4c db bd 13 54 f2 bd b9 a3 c0 bb
       0.0051138727 -0.1070788 -0.11832442 -0.0058788923
000090 18 e7 11 3e b5 7b 26 be 26 fb 71 3d 5c a3 47 bd
       0.14248312 -0.16258128 0.059077404 -0.048739776
0000a0 80 f5 6e bd 6b 35 4c bc bf 78 e7 bb 0e a4 45 3e
       -0.058339596 -0.012463908 -0.0070639546 0.19300863
0000b0 d7 18 66 3c 7c 89 64 3c 6e 46 50 3d 24 5d 85 bc
       0.014044008 0.013948794 0.050848417 -0.016279764
0000c0 a8 2e ea bd f7 9a db bd 51 9c a3 bb 4b 65 dd bc
       -0.1143468 -0.107229166 -0.0049929996 -0.02702584
0000d0 b4 72 20 be f5 68 b5 bc d4 9b 23 bd f8 36 2e 3e
       -0.15668756 -0.022144774 -0.03994353 0.17013156
0000e0 52 d4 51 3d 07 11 e5 3d 93 5a bf bd f2 84 24 3e
       0.051227875 0.11184888 -0.093434475 0.1606634
0000f0 e6 b9 d8 bc 5c c4 57 be f8 a1 15 3d a3 1c 18 3e
       -0.02645583 -0.21070999 0.03653142 0.14854674
000100 8e d7 d3 3d 89 2b ad bd 10 2a 80 bd df 02 49 bb
       0.10343848 -0.08455569 -0.06258023 -0.0030671877
000110 3d 70 04 bd 1e 4c 70 3d 60 b3 1d 3e cf 8a b6 bc
       -0.0323336 0.05866634 0.15400457 -0.022282986
000120 0b c7 e3 bd 0e 17 bb bb 02 6f 0e be 77 2f 7d be
       -0.11121949 -0.0057095354 -0.13909534 -0.24725138
000130 4a 7f f7 bd b2 70 8b bb 0a db bd 3d a0 29 fa bd
       -0.12084825 -0.0042553777 0.09270294 -0.122149706
000140 ae 3d 2c 3e 85 a6 ac 3d 25 c6 25 3e 3c 57 bd 3d
       0.16820404 0.084301986 0.16188867 0.09245154
000150 c2 7e 28 3d d6 e3 ea 3b d8 38 6d bd bd cc 2e 3e
       0.04113651 0.0071682734 -0.05791554 0.17070289
000160 96 54 74 bc d7 8e 69 3e be 4a 26 3e 7f f0 d9 bc
       -0.014912745 0.22808395 0.1623945 -0.026603935
000170 aa 11 99 bd 52 b8 b6 bc ee d3 06 be 7c da 0a 3e
       -0.07474072 -0.022304688 -0.13166782 0.13559908
000180 f5 ef f9 bd 0b 63 49 3d be 4f 9f b9 d2 04 42 3d
       -0.12203971 0.04916672 -0.00030386256 0.04736788
000190 b6 bc 02 be 91 5e e3 bc 1f 8e 04 3e 5c 62 99 be
       -0.127673 -0.027755054 0.1294484 -0.29957855
0001a0 57 c8 79 bd 97 70 da bd ea a1 09 be cf 8f 97 be
       -0.060982075 -0.10666006 -0.13440672 -0.29601905
0001b0 6f ab ac 3d b6 e9 87 bd 2c ef 51 bc b4 9b 75 3d
       0.08431136 -0.06636374 -0.012813371 0.059962943
0001c0 b1 ac 4d 3e d5 a6 24 be 59 ad 88 3d f2 6b 81 be
       0.20085408 -0.16079266 0.066736884 -0.25277668
0001d0 9f f5 75 3c 49 b5 77 be 3f e3 ca 3d 9a 87 91 3e
       0.015012174 -0.24190249 0.09906625 0.28423768
0001e0 2d ca 18 be 52 5d bc 3c b2 4c 59 3d b3 e3 60 3e
       -0.14920874 0.022993717 0.053051658 0.2196186
0001f0 90 86 7b 3d 6e eb 25 be 33 a6 8a bd f5 11 23 3b
       0.061407626 -0.1620309 -0.06769981 0.002488253
000200 72 49 29 be d4 61 41 3e 89 b9 29 3e fa c1 70 bd
       -0.16531923 0.18884975 0.16574682 -0.05877874
000210 1a c8 1b bd a3 49 9b 3d 91 7d 37 be a0 26 9e 3e
       -0.03803263 0.075824045 -0.17918994 0.30888844
000220 62 77 18 be e4 19 00 3d 65 a4 b8 3d bd 4f aa 3e
       -0.14889291 0.03127469 0.09015731 0.3326396
000230 f5 7a 18 3e 70 f5 5f 3e 6a b4 4a be 93 b6 bc 3d
       0.14890654 0.2187097 -0.19795385 0.09214511
000240 42 0e 0d be 22 35 39 3e 7e 50 12 bd 28 42 6d 3d
       -0.1377497 0.18086675 -0.035721295 0.05792442
000250 1e 4b b3 3d 8e d9 16 3e 01 d3 13 3e 2c 8e 8c bc
       0.08754562 0.14731428 0.1443596 -0.017157637
000260 c5 2d 01 3d e1 45 4a be 80 a7 a4 bd c8 6b ad bd
       0.03153779 -0.19753219 -0.080397606 -0.08467823
000270 3b ed 4f be d4 0b 06 3e c0 63 6c 3e 7c 77 71 ba
       -0.2030534 0.1309045 0.23084927 -0.0009211225
000280 a3 d6 6d 3d c4 d9 4e 3e 98 37 e7 bd 03 38 2b bc
       0.05806602 0.20200258 -0.112899005 -0.010450366
000290 3a f3 bd 3d a8 18 92 bd e3 8f 03 3e 62 0c 20 3e
       0.092749074 -0.07133609 0.12847857 0.15629724
0002a0 6b 66 0c be 41 19 be bd 9d 24 17 be 94 bc 34 bd
       -0.13710944 -0.092821606 -0.1476006 -0.044125155
0002b0 ef 20 03 3e b4 4e 42 3d 09 7b 55 3e 78 b4 a0 3d
       0.12805532 0.04743834 0.20847715 0.07846922
0002c0 0a 1f aa 3d 11 a6 da bd d6 81 46 be e2 36 51 3e
       0.083067015 -0.10676206 -0.19385466 0.20431092
0002d0 ae fd 3e be 54 6c fe bd e8 35 b2 bb 00 35 e7 bc
       -0.18651459 -0.12423006 -0.005438555 -0.028223515
0002e0 0c 35 38 3e a4 50 6b bd e1 11 da bd ee 49 fb bc
       0.17988986 -0.05744995 -0.106479414 -0.0306749
0002f0 08 fa 00 bd e4 c1 b3 3d 7b 16 0f 3e c0 63 57 be
       -0.03148845 0.08777216 0.1397342 -0.21034145
000300 e7 6d 3f 3e ba 1d b3 3d 03 b9 cc 3d 13 2e ca 3d
       0.18694268 0.08745904 0.09996226 0.09872069
000310 33 08 9c bb 43 3e 14 3e 39 f3 f1 3d ec 41 9e 3e
       -0.0047617196 0.14476876 0.11813969 0.3090967
000320 87 78 34 be ac 17 39 3b 55 06 a1 3c ef c5 14 3e
       -0.17624103 0.002824287 0.01965634 0.1452863
000330 38 2b fa 3c 4a 56 44 3e 63 6c 13 bc bc 30 96 bd
       0.030538186 0.19173542 -0.008998009 -0.07333514
000340 4f 8a 88 be 1c e3 64 3d aa 91 91 3d aa a1 91 3d
       -0.2666802 0.05588065 0.07107861 0.07110913
000350 ff a8 14 bd b8 26 ca 3d c8 26 00 3d 69 fd 5e bd
       -0.03629398 0.09870666 0.031286985 -0.05444089
000360 e4 94 88 3d 49 27 0e be 7f 00 59 3d bf c9 d7 bb
       0.06669024 -0.13882174 0.05297899 -0.0065853293
000370 3f 81 78 be 31 20 d7 bd b8 62 b2 3d e1 c2 b5 3d
       -0.24268053 -0.10504187 0.08710235 0.08875061
000380 1c a9 2b be 15 94 7d 3d 67 fa 0e bd 9d 9d c8 bd
       -0.16763729 0.0619088 -0.03490677 -0.09795687
000390 01 83 df 3d fa 85 8c bc 6e 25 0c 3e db 3a 8c bd
       0.10913659 -0.017153729 0.13686153 -0.06847163
0003a0 7b f3 82 bc d7 9e 01 be 94 9a 13 3e 0a cc 81 be
       -0.015985241 -0.12658249 0.14414436 -0.25350982
0003b0 7e a9 23 be ae 91 62 bd 0f 14 ca 3d c4 fa 18 bd
       -0.15982625 -0.055314712 0.09867107 -0.037348524
0003c0 7b 17 bd 3d 16 8c 1a 3e 86 05 5f be dc 55 50 3e
       0.09232994 0.15092501 -0.21779451 0.20345253
0003d0 b2 f6 24 3e 16 46 15 be e0 f7 b0 bd 5a aa 0b 3e
       0.16109732 -0.14577517 -0.086410284 0.13639203
0003e0 85 16 2d 3e df 76 d7 bd ba 68 96 3c 27 ce 14 3e
       0.16903122 -0.1052072 0.018360484 0.14531766
0003f0 e5 b2 a5 3d 01 61 54 3d cc 97 4d 3b 9c dd 76 3d
       0.08090762 0.051850323 0.0031370996 0.060269937

local_trans_pixel.layers.0.0.fn.fn.to_out.0.weight f4 [32, 256]
000000 6e a7 50 bb e6 5b b1 3d 44 69 93 3c 84 83 11 3d
       -0.0031838077 0.08660106 0.01799453 0.035525814
000010 ea 13 b9 3c 73 41 83 bc e1 b5 b8 3c ba 86 5a 3d
       0.022592504 -0.01602242 0.022547664 0.05335114
000020 c2 df ef bc 6c 37 f6 bc 4a 2b bf bd 5d ff 83 3d
       -0.0292815 -0.030055724 -0.093344286 0.06445191
000030 4e 1e d7 bd 1c 42 d0 3d bd da 95 3d a7 93 02 3d
       -0.10503827 0.10168859 0.07317112 0.031879093
000040 4e d3 0c bd 6d 48 84 bd bb f9 f0 bb e9 a2 8b 3c
       -0.034381203 -0.064591266 -0.007353989 0.017045455
000050 e0 f8 6f 3d ee d8 c1 3c b3 1e 80 3d d3 14 91 3d
       0.058586955 0.02366301 0.062558554 0.0708405
000060 70 24 54 bd c9 49 45 bc 18 3f 64 bc f1 de 63 bc
       -0.051792562 -0.0120415175 -0.013931058 -0.013908134
000070 76 c6 95 3d 82 62 01 3e 20 76 c8 bc 41 b9 a3 3c
       0.07313244 0.12635234 -0.024470389 0.019985797
000080 97 9b ed 3c 76 58 9b bc 97 3a 7e bc 1d ba 4f bc
       0.029004855 -0.01896308 -0.015516899 -0.01267865
000090 e2 76 18 3d c2 7b ae bc 5d 37 96 3b 06 c4 de bc
       0.03722275 -0.021299247 0.0045842365 -0.02719308
0000a0 eb ee 6d 3b 62 fc 81 bd cf 0f 24 bd 75 7c 92 bd
       0.0036305736 -0.06346966 -0.04005414 -0.071526445
0000b0 4a 38 f2 3c 06 03 0a bd b6 94 13 bd 4e 4d ac bd
       0.029567856 -0.03369429 -0.036030494 -0.08413182
0000c0 1d 98 dd 3c cf 21 ad bd d4 b1 0a 3d 8c 02 34 bd
       0.027050072 -0.08453714 0.033860996 -0.04394774
0000d0 78 d6 a6 bd 62 83 71 3c 19 69 86 3c 3a 24 74 3d
       -0.081463754 0.014740797 0.016407536 0.05960486
0000e0 3d b5 2b 3d c4 52 14 bd 52 5b 88 bd 3d 60 4a 3d
       0.04192089 -0.036211744 -0.06658043 0.049408186
0000f0 18 b6 44 bd 08 47 8b 3d 6f b8 05 bd 17 44 b4 3b
       -0.04802522 0.068006575 -0.032646593 0.005501281
000100 b4 45 2f bb ca e6 d5 3c 71 c9 dc 3c 40 82 b0 bc
       -0.0026744427 0.026111025 0.026951523 -0.021546483
000110 91 6c 44 bd 3d b3 ae 3d a5 48 15 3d c5 fd 39 3d
       -0.0479551 0.08530281 0.036446232 0.04540803
000120 98 03 0e 3d af e6 1b 3c af ce b6 bc c1 e9 29 bd
       0.034671396 0.0095154485 -0.022315351 -0.04148269
000130 f3 89 78 3c 0c eb a8 3d 88 37 54 3d 40 35 f3 3c
       0.015169608 0.08247957 0.05181077 0.029688478
000140 3c 82 91 bd f6 62 6f bd 07 00 b8 3d 50 57 c3 bc
       -0.07104918 -0.058443986 0.0898438 -0.023845345
000150 5d e2 4b bd 37 00 57 bd 00 70 53 bd fc bd 49 bd
       -0.049776424 -0.05249044 -0.051620483 -0.04925345
000160 d8 d8 b2 bd 46 f7 7b 3c c7 88 17 bd 00 59 3b bc
       -0.08732766 0.015378779 -0.036995675 -0.0114347935
000170 99 fc 76 3c 01 02 8a bd a2 85 2c bb 5d d6 a2 bd
       0.015074872 -0.067386635 -0.0026324769 -0.07951043
000180 ba 7e c2 bd 36 0d a0 3d 24 7d 92 3d ef cb 50 3d
       -0.094968274 0.0781502 0.07152775 0.050975736
000190 37 20 3a 3c 1a 4a a8 3b 79 d5 54 bd 27 ac 31 3d
       0.01136022 0.0051357867 -0.051961396 0.043377068
0001a0 f0 6e d1 3d 11 8f 92 3d 02 16 1a 3d 5a f3 8f bd
       0.10226238 0.07156194 0.037618645 -0.070288375
0001b0 f8 6a 1e bd d2 2c 4b 3c e2 6b 07 3a 87 55 d0 ba
       -0.038676232 0.012400823 0.0005165917 -0.001589463
0001c0 ae fa d1 3c e0 76 97 3c 4c 24 34 3d eb e1 52 3d
       0.025632229 0.018489301 0.043979928 0.051484983
0001d0 7b 91 db 3d f3 1a 25 bd ac cc da ba 9b fd a3 bc
       0.107211076 -0.040308904 -0.0016693077 -0.02001839
0001e0 09 6f a5 bc b2 d6 d4 3c c4 80 a7 3b 0e d4 cd bd
       -0.020194547 0.025981281 0.0051117856 -0.10050212
0001f0 c2 52 2a bd 19 f3 a9 bd a5 a6 11 bc df 67 5d bd
       -0.04158283 -0.0829832 -0.008889829 -0.054054137
000200 29 9b 14 bd f6 78 0d 3c 3c b3 2f bd 26 8c 98 3c
       -0.036280785 0.008634796 -0.04289554 0.018621515
000210 3d 6a 01 3c 87 58 b7 3d 18 7d 52 3d 26 de 89 bd
       0.007898864 0.08952432 0.05138883 -0.067318246
000220 f5 c0 cf bc 19 8a 14 bc db 39 15 3d 9d 6b 0e bc
       -0.025360564 -0.009066128 0.03643213 -0.008692649
000230 58 ea 11 bd 0e 88 ac bc 3f 15 64 bd a7 3e 10 3c
       -0.03562388 -0.02106097 -0.055684324 0.008804
000240 1d 46 69 3d ce 65 26 bd ed dc ac 3c 63 3a 0f 3c
       0.05695163 -0.040624432 0.02110144 0.008741948
000250 b5 2b 35 bc 7e 92 82 bd bd b2 07 3d d8 3a 0e 3d
       -0.011057784 -0.063755974 0.033129442 0.034724087
000260 1f 89 7c bd a7 d0 4c 3d bc 6e eb 3c ed 05 62 bd
       -0.061654206 0.050003674 0.028739326 -0.055181433
000270 0a ef fc 3c 65 d4 83 3b 33 85 8b 3d ed fb 1e bd
       0.030875701 0.004023122 0.06812515 -0.038814474
000280 f6 86 09 3b 09 81 89 bc 8a a8 82 3d f7 54 8f 3d
       0.0020984984 -0.016785162 0.063798025 0.06998628
000290 22 60 c0 3d a2 05 11 bd a3 5b 7d bd 9b 48 ed 3c
       0.09393336 -0.035405762 -0.06185497 0.028965285
0002a0 17 ec 90 bc f4 ae 12 bc 9b 50 2b 3d f8 19 4b 3d
       -0.017690701 -0.008952845 0.04182492 0.049585313
0002b0 1f d2 f6 3c dd 82 5f bd 1f fa 4e bd b3 f4 13 bc
       0.03012949 -0.05456816 -0.050531503 -0.009030509
0002c0 e1 c6 03 3c 33 ec 90 3d f4 33 74 3c 38 6d 27 bd
       0.008043022 0.070763014 0.014904965 -0.040875643
0002d0 30 62 f8 bd 26 d5 98 3d da 82 fd 3c 59 7c a3 3d
       -0.12128103 0.0746253 0.030946184 0.07982702
0002e0 7c 26 68 3d 8c 31 d0 3c 21 a2 83 3d ef a1 6d 3d
       0.056677327 0.02541425 0.06427408 0.05801576
0002f0 1c 7f 09 3d 51 a3 09 3d b8 d3 b7 bd 12 ee c4 bb
       0.033568487 0.033603016 -0.08975929 -0.0060098255
000300 40 14 20 bd e0 16 2f bd 46 5f 07 bc 14 e4 3f bd
       -0.039081812 -0.042746425 -0.008262461 -0.04684837
000310 50 1f 85 bc 08 b9 b1 bd 94 cc 1f 3d 79 64 c7 bc
       -0.016250283 -0.0867787 0.03901346 -0.024339901
000320 d9 d2 36 3d 1c a9 0d be 31 93 77 3d 6e 00 fa bc
       0.044634674 -0.13834041 0.060443107 -0.030517783
000330 25 fd 85 3d 6a b6 84 bd b8 5d 28 3d eb 45 cf bc
       0.06542424 -0.06480105 0.041105002 -0.025301894
000340 37 5a 80 bd d8 fd ad bd 90 92 f5 bc 5f d4 86 3c
       -0.06267207 -0.084956825 -0.029977113 0.016458688
000350 bb a3 b7 3c 9e e0 84 bd 64 3f 1b bd 19 14 5c bd
       0.02241694 -0.06488155 -0.03790225 -0.053730104
000360 7f a2 65 bd 83 2a 99 3c 11 7f 27 3d e2 11 3a 3d
       -0.05606317 0.018697029 0.040892664 0.04542721
000370 d2 2f 21 bc 72 db 3e bc 40 0b e2 3d a6 a5 30 3d
       -0.009838061 -0.0116489995 0.11037302 0.043126725
000380 6b 02 4b 3d fe d4 3a bc 7d c3 16 3d 8d bf 41 3d
       0.049562853 -0.01140332 0.036807526 0.047301818
000390 e3 e2 9a 3c 9b 2c 7e 3d ab 8c af 3d 09 a4 9e 3d
       0.018907016 0.062054258 0.08571752 0.07746131
0003a0 1a 0c 9a 3d 8d 7a cf bd ef b9 df 3b 27 d9 f4 bc
       0.075218394 -0.101307966 0.006827585 -0.029888703
0003b0 28 e1 02 bd a9 25 4f bd d7 55 d6 bc d2 f7 ab bc
       -0.031953007 -0.050573025 -0.026163979 -0.020992193
0003c0 e1 b9 a4 3d 33 95 a4 3c c9 bc da 3d e2 ac 78 bd
       0.08043266 0.020090675 0.10680539 -0.06071175
0003d0 a5 d1 14 3d 42 54 ec ba ea 8d 28 3d 3c ef e8 3c
       0.036332745 -0.0018030482 0.041150965 0.028434388
0003e0 bf 37 9c bd d3 4d e3 bc 2a 8b 58 3d 16 ac ae 3d
       -0.0762782 -0.02774707 0.052867092 0.085289165
0003f0 08 01 80 3c 26 33 52 3c d9 e2 84 3d 00 a0 1c 3d
       0.015625492 0.012829578 0.0648858 0.038238525

local_trans_pixel.layers.0.0.fn.fn.to_out.0.bias f4 [32]
000000 7b 7f 9c bc 0f 0d 62 3d 59 37 9a 3d 10 2a 93 3d
       -0.019103756 0.055188235 0.07530088 0.07185757
000010 85 86 7f 3d 8a 15 b2 ba dd c5 b0 3d 0e 59 68 bc
       0.062384147 -0.0013586741 0.086314894 -0.014181389
000020 41 76 97 3d 36 69 2a 3d d0 d6 39 3c a7 0f 60 3d
       0.07395602 0.041604243 0.011342719 0.054702427
000030 25 49 c8 3d d3 77 8f 3d 9a d5 1b bd cb 74 47 ba
       0.09779576 0.070052765 -0.038045503 -0.0007608651
000040 d7 d8 e9 3d 8a 4c 4a 3c 24 0a 7d 3d 8e e8 b1 bd
       0.11418312 0.01234735 0.06177725 -0.086869344
000050 11 eb 1f 3d 38 84 db 3d 8b e6 81 3b 46 28 3f 3c
       0.039042536 0.10718578 0.0039642504 0.011667317
000060 9a 9c 74 bd 8a 38 f4 3d d1 be 83 3d e9 12 08 3d
       -0.05971966 0.119248465 0.0643288 0.03322116
000070 21 ed 87 3d 55 64 b1 3c 8c a9 aa 3d 3a a1 93 3d
       0.066370256 0.021654287 0.0833312 0.07208486

local_trans_pixel.layers.0.1.fn.norm.weight f4 [32]
000000 f7 fb 7c 3f 51 24 90 3f 07 6d 88 3f 19 f8 83 3f
       0.9882197 1.1261083 1.0658273 1.0310088
000010 79 5a 83 3f f1 83 93 3f 8d 8e 85 3f c6 39 98 3f
       1.0261985 1.152464 1.0434128 1.1892631
000020 19 2c 84 3f 47 99 8e 3f f3 d8 85 3f 7e 65 98 3f
       1.0325958 1.1140527 1.0456833 1.1905973
000030 58 f2 87 3f 39 05 81 3f e7 4f 71 3f 46 50 80 3f
       1.0620832 1.0079719 0.94262546 1.0024498
000040 a3 6c 86 3f d6 ae 90 3f 98 ff 8a 3f 3e 60 7b 3f
       1.0501903 1.1303356 1.0859251 0.9819373
000050 b8 07 84 3f 4f 87 7e 3f bc 6c 85 3f 10 2b 87 3f
       1.0314856 0.99425215 1.0423808 1.0560017
000060 e2 39 90 3f 6b d8 86 3f 8b 90 87 3f a6 9c 89 3f
       1.1267664 1.0534796 1.0590986 1.075093
000070 27 b8 8d 3f e0 f3 79 3f 20 b4 8e 3f f4 99 82 3f
       1.1071824 0.9763775 1.114872 1.0203233

local_trans_pixel.layers.0.1.fn.norm.bias f4 [32]
000000 c1 6b aa 3c dc 1e 4b ba 19 48 2e 3d 54 02 c4 3c
       0.020803334 -0.0007748434 0.042549226 0.023926891
000010 10 6e 95 3a ca 78 4d 3d 4d 32 0f 3d f2 e3 17 3d
       0.0011400599 0.05016402 0.03496008 0.03708262
000020 41 f4 74 3d 94 83 c3 bc ab 3c 05 bd 39 fb 0b 3d
       0.05980325 -0.023866452 -0.03252856 0.03417513
000030 be 95 aa 3c 2b 3a f3 bc 2e 9a 13 bc 94 58 9a bc
       0.020823356 -0.029690823 -0.009008927 -0.018841065
000040 d1 d6 0a 3d 9a 5e 21 3c 42 74 25 3b 3f 66 d5 bc
       0.03389627 0.009849215 0.0025246297 -0.026049731
000050 28 aa 2e 3c 0d 03 54 3d 3c d8 e9 3a b4 99 34 bd
       0.010660686 0.051760722 0.0017840932 -0.044091895
000060 ef 09 57 3c 18 61 57 3d 4d 42 cb 3d cf de a7 ba
       0.013124927 0.05258283 0.09924755 -0.0012807491
000070 42 06 69 bd e9 34 33 bc dc d6 8e 3c ec b2 09 bd
       -0.056890734 -0.010937908 0.017436437 -0.0336179

local_trans_pixel.layers.0.1.fn.fn.net.0.weight f4 [8, 32]
000000 93 1d 9e bd 63 7d 8f ba 49 72 f8 bd 99 64 29 be
       -0.077204846 -0.0010947402 -0.12131173 -0.16542281
000010 93 7c 2a bd 05 a6 4c 3e ea 4f 3b be 6f 83 06 3e
       -0.04162271 0.19985206 -0.18292204 0.13136075
000020 0f 53 f2 3d 4c 0f 0c be 62 34 cf 3d 2d 2d 09 be
       0.118322484 -0.1367771 0.10117413 -0.1339614
000030 86 f8 69 be e9 81 19 bd 96 9c fd 3d 93 90 56 3d
       -0.2284871 -0.037477408 0.12383382 0.05238397
000040 a3 11 db 3d 78 86 67 3e cd d9 88 bc b9 7e ec 3d
       0.10696723 0.2260989 -0.016705418 0.11547608
000050 68 6e e3 3d 78 96 8e 3c d7 37 61 bd f7 f8 67 bd
       0.11105043 0.017405733 -0.054984894 -0.056633916
000060 3a 44 37 3e 24 05 3a be 49 e8 1e 3e 3e bc df bd
       0.1789712 -0.18166023 0.15518297 -0.10924576
000070 0c 88 4b bd 00 22 1c be e0 d7 d2 bd f3 be 08 be
       -0.04969029 -0.15247345 -0.10295081 -0.13354091
000080 e1 5e 1b 3d ab ac b5 3d 6a 78 78 bd 74 2e 1c 3e
       0.03793228 0.088708244 -0.06066171 0.15252095
000090 29 a3 2c 3e a8 6f 2f be 73 1c 0a be b1 d5 5e be
       0.16859116 -0.17132437 -0.13487415 -0.21761204
0000a0 46 d1 07 bd b9 5d 54 3e 4b f7 46 3e 8b d8 88 be
       -0.033158563 0.20738877 0.19430272 -0.2672771
0000b0 4f 52 90 3d 78 52 48 3e aa d8 82 bd 95 34 df 3d
       0.07046949 0.1956271 -0.06388982 0.10898701
0000c0 1d b6 20 be 4c 26 fb 3d 62 d1 f0 bd fa 4c 48 3d
       -0.1569447 0.12263164 -0.117586866 0.048901536
0000d0 ad 74 60 bd 2d 5e d8 bc 8a 3f 06 be c6 03 11 3e
       -0.05479877 -0.026412094 -0.13110176 0.14161596
0000e0 86 f2 0b be b2 7f a6 bd d3 cf 4d bd 94 db a9 3d
       -0.13666734 -0.08129825 -0.050247025 0.08293834
0000f0 d7 d4 63 bd 59 69 eb 3d 19 50 0c 3e 96 fd 0a 3e
       -0.0556229 0.11494703 0.1370243 0.13573298
000100 d7 28 65 bd 9f 45 af 3e aa 60 e5 bd 54 59 15 3e
       -0.05594715 0.34232804 -0.11200078 0.14584857
000110 98 e4 19 be 45 f6 73 be 31 8f f8 bc 6b 40 7a 3d
       -0.15028608 -0.23824413 -0.030341716 0.06109659
000120 a3 0d 83 bd 89 24 86 3e 39 99 83 3e bb 39 41 be
       -0.063990854 0.2619975 0.25702837 -0.18869679
000130 12 5a 66 3e 1c 56 ff 3c 9f c6 15 3e 6c 97 21 3e
       0.22495297 0.03116899 0.14626549 0.15780419
000140 f2 ab 71 be e1 69 89 be bb 1d 5f bd 0d c3 96 3d
       -0.23600748 -0.26838592 -0.054471713 0.07361422
000150 73 06 65 3d 0c b0 17 be b6 c2 11 be c8 a4 db bd
       0.055914354 -0.1481325 -0.14234433 -0.10724789
000160 71 25 4c bd c3 2c 73 3d 70 0a 97 be 6c 3c 68 3e
       -0.049840394 0.05936886 -0.2950015 0.22679299
000170 a7 db 67 be e9 6f 9b 3c 06 20 ed 3d 23 43 01 3e
       -0.22642384 0.018974261 0.115783736 0.12623267
000180 85 65 2b be 04 12 31 be e0 c8 15 be e3 4e 66 3d
       -0.16737945 -0.17292029 -0.14627409 0.056227576
000190 a4 55 0a 3e 88 64 de bc 5b 62 41 be c5 9d 16 be
       0.13509232 -0.027147546 -0.18885176 -0.14708622
0001a0 98 a4 01 be 9f a3 51 3e cb 5e 8f 3d f0 f9 ab bd
       -0.12660444 0.20472573 0.07000502 -0.08397281
0001b0 02 58 8c bd af 39 f1 3c e5 76 91 3d 15 ea d0 3d
       -0.06852724 0.029446451 0.071027555 0.102008976
0001c0 63 7d ee bd 1d ff 7b bd 00 c7 33 bd 5a a8 2e 3e
       -0.11645009 -0.06152259 -0.043890953 0.17056409
0001d0 e2 9a e6 3d f4 74 95 3d c8 7a 16 3e 2e 59 84 3e
       0.1126001 0.07297698 0.14695275 0.2584929
0001e0 b5 49 8b 3e 8f ea 67 bd ad 81 14 3d 74 c9 72 be
       0.27204672 -0.056620177 0.03625648 -0.23709661
0001f0 a9 72 d1 bd 1f 78 da 3d f9 34 80 3c 8f 8d 86 bd
       -0.10226948 0.106674425 0.01565026 -0.06569969
000200 f6 18 60 bd 62 50 9e 3e 16 52 08 bd 8f a1 36 bd
       -0.054711305 0.30920702 -0.03328141 -0.044587668
000210 71 71 4a bd b5 47 42 be d8 15 94 3d 35 ae 88 3e
       -0.049424592 -0.18972667 0.07230729 0.2669541
000220 37 b7 15 be 60 eb 75 3e 5c ee 50 bc be 7f 9f be
       -0.14620672 0.2401557 -0.012752142 -0.31152147
000230 81 d1 34 3e ab 4f 98 3d c1 be e6 bd 71 95 b8 bd
       0.17658044 0.074370705 -0.11266852 -0.09012879
000240 ea 93 38 ba 68 e0 55 be 18 01 24 bc fc ef f6 3d
       -0.0007041084 -0.20886385 -0.010010026 0.12057492
000250 3c 85 c0 bc 74 c2 3a be 1d 8d 24 be 94 b2 d1 bd
       -0.023501031 -0.1823824 -0.16069455 -0.10239139
000260 9f d6 6f 3e 97 db b4 3d 7e 92 c4 bd 8d fb fa bc
       0.23421715 0.08830946 -0.09598254 -0.030637527
000270 f3 a5 11 be 4b 81 01 3e 61 99 01 3e 9d 8e 18 3e
       -0.14223461 0.12646978 0.12656166 0.14898153
000280 b5 b9 18 3e c3 ce 48 3c 4d 95 fb 3d f4 d5 2e 3e
       0.14914592 0.012256327 0.12284336 0.17073804
000290 e5 69 1a 3e 53 b0 e5 3c 0d d3 dd 3d 6e ed a8 3d
       0.15079458 0.02803818 0.1083127 0.08248411
0002a0 01 a2 fb 3d a3 33 c1 3d 38 96 71 bc 93 81 4d bc
       0.12286759 0.09433677 -0.014745288 -0.0125431
0002b0 3f e5 09 3e 03 cd 8e 3d 35 80 22 be 0b 4c 34 be
       0.13466357 0.06972697 -0.1586922 -0.17607133
0002c0 8d 5a 29 3e eb 77 68 3d 19 9f 81 3d b2 14 01 be
       0.16538449 0.056754988 0.063291736 -0.12605551
0002d0 ce 8d 01 be 2f cf b1 3c 72 03 1d be c5 03 05 3e
       -0.1265175 0.021705238 -0.15333346 0.12989719
0002e0 eb 4e eb bc d9 b4 1e 3e eb fa 2c 3e e8 dd 18 3e
       -0.028724154 0.15498675 0.16892593 0.149284
0002f0 08 da 16 be 4e 39 d5 3d 4c fb 7b 3e 77 5e 63 3d
       -0.1473161 0.104113206 0.24607581 0.05551001
000300 ac 72 88 bd ba b1 3b 3e 50 af 0a 3e 24 30 bc bd
       -0.06662497 0.18329516 0.13543439 -0.091888696
000310 ea 57 bf 3d a0 16 4c be 38 23 29 be 92 83 91 3e
       0.0934294 -0.19930506 -0.16517341 0.28420693
000320 fd 19 81 39 8f 56 43 bd 5b b1 8a 3c c7 48 70 3e
       0.0002462416 -0.04768997 0.016930273 0.23465262
000330 76 9c 0c 3e c7 0c 37 3e a6 58 09 be c1 c0 22 be
       0.1373156 0.17875968 -0.13412723 -0.15893842
000340 2c b7 88 3d 02 80 d7 bd 7f 81 43 be 95 ba 89 3d
       0.06675562 -0.105224624 -0.19092368 0.06725041
000350 5f bb f1 3a 03 4f d6 bd 39 ed 2b bd 47 7b 03 3e
       0.0018442682 -0.10464289 -0.04197428 0.12839995
000360 ee 4c 1c be 05 d0 69 3c 26 01 68 bb a6 93 a2 3d
       -0.15263721 0.014270787 -0.0035401075 0.07938318
000370 20 e7 c9 3d dc b2 18 bb 16 80 44 be d1 d7 58 3e
       0.09858537 -0.0023299968 -0.19189486 0.21176077
000380 38 f1 ee bc d2 25 7d 3b 36 c1 40 3e 76 84 05 3e
       -0.029167756 0.003862728 0.18823704 0.13038811
000390 f5 4e 02 be 87 80 29 3e e4 52 ce 3d b6 cf 62 3d
       -0.12725432 0.16552936 0.10074404 0.05537387
0003a0 41 33 4a 3e 6d 83 23 3d 5b 7b 31 be d6 18 39 3e
       0.19746114 0.03992026 -0.17332213 0.1807588
0003b0 1b 59 e3 3d 9a e4 fe bb e6 51 02 3d 37 c0 5a 3e
       0.1110098 -0.0077787163 0.031816386 0.21362387
0003c0 f5 59 e9 bd cb f1 82 3d 5e 54 13 be ba 11 b6 bb
       -0.11394111 0.063937746 -0.14387652 -0.0055563124
0003d0 78 49 1c 3e 0e a7 09 3e 6b 64 03 ba 50 1f 81 bd
       0.15262401 0.13442633 -0.0005012217 -0.063048005
0003e0 0b 5b 53 be d1 2e 4c 3e cd 7f 4a 3e d7 90 38 be
       -0.20640199 0.19939734 0.19775315 -0.18024002
0003f0 bb 55 13 be b7 d3 bb bd 05 e0 28 3e 44 68 15 be
       -0.14388172 -0.09171241 0.16491707 -0.14590555

local_trans_pixel.layers.0.1.fn.fn.net.0.bias f4 [8]
000000 f6 ef a0 3d a0 df 50 bd 93 4d b9 bc ea 49 d7 3d
       0.07858269 -0.050994515 -0.022619998 0.10512145
000010 3c ff 00 3e 9f 1e 0f 3d c7 3d 80 3d d4 f7 f6 3d
       0.12597364 0.034941312 0.06261783 0.12058988

local_trans_pixel.layers.0.1.fn.fn.net.3.weight f4 [32, 8]
000000 de e6 c6 bd 55 23 9f 3e 80 22 98 3e e7 24 ee 3d
       -0.09712003 0.31081644 0.2971382 0.11628132
000010 47 7d 87 3e 04 6c c2 be 90 b9 4f be 5b eb 80 3e
       0.26462767 -0.37973034 -0.2028563 0.25179562
000020 20 c7 b6 be de 5c ab be ef d7 b1 bd 9b 9f 8d 3e
       -0.35698795 -0.3346929 -0.08683764 0.27660832
000030 cd 38 bf 3e 29 4e 07 be 27 b1 7b 3e ff b0 2e bd
       0.37348023 -0.1321341 0.24579297 -0.042649265
000040 46 fa b4 bd 84 a8 6e 3d d4 69 e0 bd 7b 08 0c 3e
       -0.08836798 0.058266178 -0.10957685 0.1367511
000050 d7 49 ae be 57 b6 65 be db 92 8c 3d 0b 2b 81 3e
       -0.3404071 -0.22432838 0.06863948 0.25228152
000060 70 e3 47 3e 11 93 c0 be 2c ea f7 bd ee bb cb bd
       0.19520354 -0.37612203 -0.121052116 -0.09947954
000070 b4 57 d4 3e bf d7 a6 bd 86 53 2a 3d fd 7b 19 3e
       0.41473162 -0.08146619 0.04158356 0.14988704
000080 dc b1 73 be 14 b7 83 bd 0b e8 a6 3e 42 64 16 bd
       -0.23798317 -0.06431404 0.3259891 -0.036716707
000090 32 9d 93 3e 9d 7f 2c be 03 ba dc bd 9b 0c b0 be
       0.28830868 -0.16845556 -0.107776664 -0.34384617
0000a0 19 4a 99 be e8 a0 be bd 23 de db 3d 1f 6f 2a be
       -0.29939345 -0.09308034 0.107357286 -0.16643952
0000b0 6d 1a 1b be 3c 96 24 bd aa d1 16 3e 19 d7 9e 3d
       -0.151468 -0.040182337 0.14728418 0.0775587
0000c0 84 6e 9a 3e a1 dd ca 3c 09 80 69 be 7d ee 97 3e
       0.30162442 0.024763884 -0.22802748 0.2967414
0000d0 2b a8 29 3e eb c3 7a 3e 3a 4b 1b 3c 17 a7 e8 bc
       0.16568057 0.244888 0.009478385 -0.028399987
0000e0 73 68 97 be b0 5f 58 be 5f 8c 1d 3e c4 ee de bc
       -0.29571876 -0.21130252 0.15385579 -0.027213462
0000f0 17 80 5b bd 4f 6d 47 be 5a a2 60 3e 70 0e 42 be
       -0.053588953 -0.19475292 0.21936932 -0.1895082
000100 2b a5 ac 3e 68 ec 82 bd 00 4f 54 bb 4b 0f f1 bd
       0.33719763 -0.06392747 -0.003239572 -0.11770495
000110 a4 92 67 3e ae 67 06 bd a5 e3 bd be 65 33 a1 3e
       0.22614533 -0.03281372 -0.37087741 0.31484523
000120 c9 4e 58 3e 60 71 8f bd 69 b3 19 bc bb 2d 1b be
       0.21123804 -0.070040464 -0.009381154 -0.15154164
000130 45 16 95 3e 7c 65 3d 3e c7 dc e7 bd b3 ef c9 bd
       0.29118553 0.18495744 -0.11321407 -0.09860172
000140 55 24 d2 3d 4b 5c 68 3e 97 b3 93 3e 90 f3 c4 3d
       0.10260836 0.22691457 0.28847954 0.09616768
000150 88 21 10 be a0 f9 08 3c 1b 1e 80 be 1d 90 47 3e
       -0.14075291 0.0083602965 -0.2502297 0.19488569
000160 d4 ba 59 be 78 8f 78 be 89 35 14 bf f2 18 b0 3e
       -0.21262676 -0.24273479 -0.5789419 0.34394032
000170 a8 3c 1a be db 1b c3 3d 71 08 84 3e 4c 33 cb 3e
       -0.15062201 0.095267974 0.2578769 0.39687574
000180 2e 8b 6c be e8 d4 6e 3e 59 08 24 bd fe 37 50 be
       -0.23099968 0.23323405 -0.040047023 -0.2033386
000190 c4 8c 90 3e f1 85 66 3e 11 87 27 be 36 d8 69 bd
       0.28232396 0.22512032 -0.16360117 -0.05709096
0001a0 75 13 ba 3d 0b 05 23 3e 94 a9 05 3e 3d 5e 7f be
       0.090857424 0.15919892 0.1305297 -0.24938293
0001b0 b8 8e a8 be 91 e4 2d be fe 49 98 be 01 3d bc 3e
       -0.32921386 -0.16981722 -0.29743952 0.36765292
0001c0 fc 17 ef 3b 3a 01 bf bc 42 50 27 3e b1 dc f3 3d
       0.0072965603 -0.023316015 0.1633921 0.11907328
0001d0 5f 19 54 be b7 70 1b be c6 17 fe bd 5c 66 3a be
       -0.20712803 -0.15179716 -0.12406878 -0.1820311
0001e0 ff df 2c 3e 43 0f 54 3e db e9 6f bc 09 73 79 3e
       0.16882323 0.20708947 -0.014643158 0.24360289
0001f0 96 47 a6 3e 23 d8 5a 3d 42 74 23 be ff 59 ff bd
       0.3247649 0.05342878 -0.15962318 -0.12468337
000200 3f 8a 84 be c9 2e 82 bd 1a 68 4d 3e 2f 99 34 3e
       -0.25886723 -0.0635658 0.20059243 0.1763656
000210 7a ad c2 bd ba 45 03 3e 73 4b b5 be b6 2d 03 be
       -0.09505744 0.12819567 -0.35409126 -0.12810406
000220 42 1a da bd 21 6a 63 be 0f 2e 8e be 84 31 0d 3e
       -0.106495395 -0.22208454 -0.27769515 0.1378842
000230 0e 74 e2 bd 19 bd a2 bd d0 ad d9 bb c2 1a 88 3d
       -0.11057292 -0.07946224 -0.0066430345 0.06645729
000240 da 53 71 3e 36 61 71 be 0b fc 08 3e c0 65 35 bd
       0.23567143 -0.2357224 0.13377397 -0.04428649
000250 33 a9 85 be 71 6a 99 3e fc 0e 1a bd 46 85 5e 3e
       -0.2610565 0.2996402 -0.037611946 0.21730527
000260 b3 02 4c bd bd e4 d8 3d dc 1a ac bd ce 06 9f bd
       -0.04980726 0.10590503 -0.084035605 -0.0776497
000270 29 e7 50 3e 0d 03 b2 be 9b ef b8 be c0 9e c1 3d
       0.2040068 -0.34767953 -0.36120304 0.09454107
000280 c3 6a 9c be 5c 1d 39 be f1 f0 9f be a2 31 37 3e
       -0.30550203 -0.18077606 -0.3123851 0.17890027
000290 0d 3b 2f 3e 1a ce b1 bb 5a 00 fa 3d 17 33 42 be
       0.1711237 -0.0054261805 0.12207098 -0.18964802
0002a0 ba 41 5a be 29 2b 85 be 53 1f 13 bf 62 d9 01 be
       -0.21314135 -0.2600949 -0.5746967 -0.12680581
0002b0 7f 94 31 bd d0 fd 47 3e 87 93 ac 3d db 3f 34 3e
       -0.043354508 0.19530416 0.08426576 0.17602484
0002c0 d4 b6 7a 3d a5 67 8d bc f8 22 a5 3d 5b 40 b8 be
       0.061209515 -0.017261336 0.080633104 -0.359866
0002d0 44 41 dc 3d 2f c1 4e bd 74 47 ae 3e 89 c5 b1 bd
       0.10754636 -0.050477203 0.3403889 -0.08680255
0002e0 0d e1 47 3e ad ed 89 3d 8f 8d d4 be 28 c8 8a be
       0.19519444 0.06734786 -0.4151425 -0.27105832
0002f0 18 60 a4 be 70 de 5a be dd 1a 45 be d8 d0 ce 3e
       -0.32104564 -0.21373916 -0.19248529 0.4039371
000300 0c 6f 2b be 07 64 42 bd c3 ac 50 3e 7b f1 42 be
       -0.1674158 -0.047458675 0.20378403 -0.1903743
000310 ea c6 dd 3e 25 57 42 be e0 42 46 be e3 a2 51 bb
       0.43315822 -0.18978556 -0.19361448 -0.0031987957
000320 1d ca d3 3d b3 b1 99 3e cc 48 aa bd df 8a c9 3e
       0.103412844 0.30018386 -0.08314666 0.39363763
000330 2b ec 51 3e de 8f 8b be e5 b4 42 3e 4b be d3 bd
       0.20500247 -0.272582 0.19014318 -0.1033903
000340 b9 db 84 3c 72 10 7b be f3 a3 91 bd 89 1b 99 3d
       0.016218053 -0.24517992 -0.07111349 0.07475955
000350 78 ed b0 3c d7 da e5 3e 3a 18 a7 bc 89 75 6e 3e
       0.021597609 0.44893524 -0.020397294 0.23287024
000360 e8 3d b2 bd 36 66 1e 3e 17 1a e5 bd d8 97 8d 3e
       -0.08703214 0.15468678 -0.11186617 0.2765491
000370 58 ac 03 be 65 44 60 3e b8 7e a4 3b e9 e6 61 3e
       -0.12858713 0.2190109 0.005019989 0.22060741
000380 0e 81 50 3e d5 b9 b7 3d ab 65 af bd 0a c1 a4 be
       0.2036173 0.089709915 -0.085643135 -0.32178527
000390 89 2f d2 3d b8 5a ec 3d 94 d5 01 be 74 19 43 3e
       0.10262973 0.11540741 -0.1267913 0.19052678
0003a0 c7 fe 47 3d 2b 3e 7e 3e 1c ce bb bd f9 cf 5b be
       0.04882696 0.24828403 -0.091701716 -0.21466054
0003b0 3e 61 44 be 19 86 4b 3e 23 cb bf be f6 17 b2 3e
       -0.1917772 0.19875373 -0.3745967 0.34783906
0003c0 dc dc 03 3d 4e 36 e3 3e cb 93 68 3e 85 c0 7b be
       0.03219305 0.4437737 0.22712629 -0.24585159
0003d0 4a 98 ca bd 6f 0a b6 3e 6e 79 2a be a6 ed bd bd
       -0.09892328 0.35554835 -0.16647884 -0.092738435
0003e0 c8 17 0a be 85 e1 b1 bd e0 21 e6 3e 3a 95 27 be
       -0.13485634 -0.086855926 0.4494772 -0.16365519
0003f0 38 e8 37 be df 2d dc 3e 6c d3 2f be 2f 6f aa 3e
       -0.17959678 0.43003747 -0.17170495 0.3328795

local_trans_pixel.layers.0.1.fn.fn.net.3.bias f4 [32]
000000 cc 99 aa be fc e0 82 3e be 87 f2 bd 9c 4d ca 3b
       -0.33320463 0.25562274 -0.11842297 0.0061738025
000010 5c d9 57 3e 4b 2a 9e 3d f2 b7 d9 3e e6 45 f7 bd
       0.2107901 0.077229105 0.42523152 -0.12073879
000020 e5 4e fa bd 4d 9b 14 3e 12 78 21 3d b7 ef 9b 3e
       -0.12222079 0.14512368 0.03942115 0.30456325
000030 53 be e5 bd 89 53 5a 3d 97 33 51 be f1 f6 aa 3d
       -0.11217942 0.05330232 -0.20429836 0.083478816
000040 a2 20 45 3e d1 b8 55 3e 11 03 7b 3d 1f f2 c5 be
       0.1925073 0.20871283 0.06128222 -0.38661286
000050 ff e1 68 3e 41 1c d1 3e c1 5c 50 be fb 44 9f 3e
       0.2274246 0.4084187 -0.20347883 0.31107315
000060 70 5b 72 3d ab b9 4b 3e d7 d1 bc 3e 84 de df bd
       0.059169233 0.19895045 0.36878845 -0.10931113
000070 fb 96 f1 bd 87 b8 a0 be 7a 6a c6 3e 2d c8 ae 3e
       -0.11796375 -0.31390783 0.3875311 0.34137097
