src/res/GGCL/guided_contra_cross_transformer/Salinas/10/no unlabel same time ss/_1710747990.pth (torch, 940204 bytes, 59 tensors)

pixel_pos_embedding f4 [1, 170, 32]
0.65596354 -0.96043 0.32861376 -0.6972071 1.480379 0.8197289 0.4121889 1.0242242
-0.7214746 -0.7174122 -0.5903184 0.72557116 0.4629288 -0.5250541 0.34381753 1.7183392
-0.01212768 -0.2651846 -0.28275874 0.43654704 -1.1290262 -0.90918773 1.1759969 0.5804253
-0.4460925 -0.023933338 0.28289652 -0.9079452 -1.0167011 -1.8826702 -1.1231353 0.39137644
0.92505294 0.4229511 0.30669874 -1.2608454 0.34865153 -0.35707724 -1.8782866 0.4244521
-1.2602799 -0.30369103 -0.99227285 -0.495345 0.11735306 -0.7465729 0.6322415 0.46018943
1.7835027 0.5411365 -1.0739174 0.48399213 -0.7086044 -0.6651609 -1.5968307 -0.023644648
0.570081 -0.2528044 -0.14136405 0.37029034 -0.42216188 1.0981079 -0.42457318 -0.06580551
-0.6544505 0.5430624 -0.31412476 0.30337894 -0.55168974 0.62628996 0.8391139 0.28520587
0.3152236 -0.31966358 -1.3284131 2.0519848 -0.39314848 -0.9218224 0.034852173 0.81612253
0.04968072 -0.0333725 -0.77946955 -0.9445821 -0.84856766 -0.051282026 -0.4384851 0.5339572
0.30946162 -1.3674634 -1.1292417 -0.44713977 -0.66175133 1.6235795 -0.69408244 -1.7109247
-0.6388389 1.1188861 -0.39940703 0.92733973 0.22445627 -0.025150351 -0.10695849 -0.24915828
0.09792108 -0.68383616 0.8283297 0.16730368 0.3145224 1.8983313 -0.61664 -0.44726604
-0.75233626 0.12598175 -0.6965787 1.3336363 0.36152035 -0.17472295 0.1917354 0.30673942
-0.5946708 -0.29827863 1.1290944 1.4752749 0.80419403 0.07046378 -0.054422878 2.1367116
-0.92372376 -1.7594293 -1.4177865 1.6567254 1.2912571 -0.7946164 0.23097548 -1.6189684
0.7771475 1.780348 -0.92201835 1.8793718 0.27789694 -0.14832543 0.5636367 0.47041067
1.4051722 0.8119014 -0.49810442 -2.716323 -1.0979948 1.1292664 0.27899382 -1.4915239
-0.27753863 0.11904845 -0.12241321 -0.077798344 -0.51342875 -0.5075142 -1.5996816 0.50699097
-0.2452466 -0.266657 0.021916613 -0.33742896 -0.23953661 -0.18994042 1.5002394 0.97390234
-2.3967054 0.32288682 0.05992819 0.13509272 -0.85181046 0.86155546 0.81920326 0.020334916
-0.7019526 0.2693068 0.7164849 -0.29615355 -0.15273888 -1.0297266 0.3245878 -0.43114507
-0.4065559 -1.2822251 -0.8606326 -1.1998897 -0.90792155 1.5108775 -0.057413254 0.4591842
0.59291255 -1.9004705 -1.6032091 0.663464 -2.443077 0.1046259 -0.9481529 0.03031416
-1.4517738 0.71648544 -1.6545724 -0.20741847 -0.2698783 -0.6416459 0.565256 0.089869775
-0.54057395 -0.88907003 -0.4800379 -1.2146012 -1.2381568 0.4658463 0.77042866 -0.17211817
-0.49234703 0.18758072 1.9041154 0.8567037 -0.39064428 -0.11790834 -0.2826849 2.3900516
0.43595734 -1.2493463 0.69863427 -0.35849273 1.0147152 1.8821251 0.2093612 1.976179
-1.2262508 -0.51397586 0.24815571 -1.3321884 0.16420108 -0.12032685 -0.12900667 1.676491
-1.4364214 -0.013193414 -1.5958141 0.87024665 -1.0361769 1.6841753 -1.0348496 0.1652672
1.2974931 0.23681098 -1.0692091 -0.88871986 -0.3026428 -1.0711772 0.9667332 1.1173472
00000000: 3aed 273f bede 75bf 1040 a83e 2a7c 32bf
00000010: 0f7d bd3f c1d9 513f 6c0a d33e c719 833f
00000020: 8fb2 38bf 53a8 37bf 1b1f 17bf 08bf 393f
00000030: 0105 ed3e f269 06bf da08 b03e 8af2 db3f
00000040: 2db3 46bc 47c6 87be c1c5 90be 1883 df3e
00000050: ee83 90bf 87c0 68bf 1187 963f c196 143f
00000060: 3c66 e4be d90f c4bc d0d7 903e 196f 68bf
00000070: 4323 82bf 56fb f0bf e6c2 8fbf 7e62 c83e
00000080: 45d0 6c3f 0c8d d83e 9e07 9d3e 6263 a1bf
00000090: 7482 b23e d4d2 b6be b26b f0bf c951 d93e
000000a0: da50 a1bf 647d 9bbe 9805 7ebf dc9d fdbe
000000b0: cd56 f03d 671f 3fbf 94da 213f f39d eb3e
000000c0: d149 e43f ec87 0a3f 2076 89bf d1cd f73e
000000d0: 1967 35bf fc47 2abf f364 ccbf 6cb2 c1bc
000000e0: d4f0 113f 946f 81be bdc1 10be b296 bd3e
000000f0: 9a25 d8be cd8e 8c3f a861 d9be 0ac5 86bd
00000100: 118a 27bf 2306 0b3f f6d4 a0be 7c54 9b3e
00000110: 8a3b 0dbf 8a54 203f 2bd0 563f 8106 923e
00000120: fd64 a13e f2aa a3be 7109 aabf b853 0340
00000130: c24a c9be 8efc 6bbf 27c1 0e3d 68ed 503f
00000140: 037e 4b3d 9ab1 08bd 518b 47bf 22d0 71bf
00000150: bb3b 59bf 1a0d 52bd 1e81 e0be 6bb1 083f
00000160: c171 9e3e 0a09 afbf fe8a 90bf 81ef e4be
00000170: 8968 29bf 74d1 cf3f 63af 31bf 95ff dabf
00000180: f28a 23bf a937 8f3f 147f ccbe 2366 6d3f
00000190: ddd7 653e 1c08 cebc 0e0d dbbd 5923 7fbe
000001a0: d98a c83d e30f 2fbf 6a0d 543f a851 2b3e
000001b0: 1409 a13e 85fc f23f 1edc 1dbf 0e00 e5be
000001c0: 1c99 40bf 5c01 013e fb52 32bf 98b4 aa3f
000001d0: 3219 b93e 93ea 32be 4956 443e f30c 9d3e
000001e0: 583c 18bf fab7 98be 2a86 903f cfd5 bc3f
000001f0: a9df 4d3f 504f 903d 86ea 5ebd e2bf 0840
00000200: 2979 6cbf fb34 e1bf 077a b5bf 940f d43f
00000210: ea47 a53f fb6b 4bbf d684 6c3e 5b3a cfbf
00000220: 23f3 463f 71e2 e33f 6509 6cbf 418f f03f
00000230: 8248 8e3e 9fe2 17be 7f4a 103f abd9 f03e
00000240: afdc b33f c5d8 4f3f 8b07 ffbe 3cd8 2dc0
00000250: 188b 8cbf cd8b 903f 47d8 8e3e 41ea bebf
00000260: 8b19 8ebe accf f33d c7b3 fabd bd54 9fbd
00000270: 1170 03bf 73ec 01bf 5ec2 ccbf 29ca 013f
00000280: ed21 7bbe 4487 88be 788a b33c 7dc3 acbe
00000290: 1649 75be be7f 42be d807 c03f aa51 793f
000002a0: 9f63 19c0 6c51 a53e 4377 753d bf55 0a3e
000002b0: 4010 5abf e68e 5c3f 4eb7 513f 6995 a63c
000002c0: 2ab3 33bf 95e2 893e 8e6b 373f 70a1 97be
000002d0: 9567 1cbe 15ce 83bf 5f30 a63e 0cbf dcbe
000002e0: 1828 d0be f41f a4bf 6b52 5cbf fc95 99bf
000002f0: 8c6d 68bf 6f64 c13f 292a 6bbd 311a eb3e
00000300: 1ec9 173f 9e42 f3bf f535 cdbf c7d8 293f
00000310: 605b 1cc0 1b46 d63d 26ba 72bf 6755 f83c
00000320: b9d3 b9bf 976b 373f 07c9 d3bf 8265 54be
00000330: 7d2d 8abe e842 24bf 9eb4 103f a50d b83d
00000340: 0e63 0abf 189a 63bf 87c7 f5be 0d78 9bbf
00000350: ec7b 9ebf 6883 ee3e d03a 453f bf3f 30be
00000360: e914 fcbe 2915 403e 0eba f33f ef50 5b3f
00000370: 8702 c8be ee79 f1bd 13bc 90be 9bf6 1840
00000380: cd35 df3e 94ea 9fbf b2d9 323f 5c8c b7be
00000390: 30e2 813f 7ae9 f03f c862 563e 6ff3 fc3f
000003a0: c9f5 9cbf ec93 03bf 881c 7e3e 2685 aabf
000003b0: 5424 283e ec6d f6bd 531a 04be 4297 d63f
000003c0: a8dc b7bf 3029 58bc a343 ccbf 7cc8 5e3f
000003d0: 72a1 84bf 0e93 d73f f475 84bf ce3b 293e
000003e0: 4114 a63f 947e 723e d8db 88bf 2583 63bf
000003f0: fff3 9abe 561c 89bf d47b 773f 3c05 8f3f

cls_token_pixel f4 [1, 1, 32]
0.3144932 -0.9173924 0.985619 0.45212933 0.8780001 -1.3544942 -0.20117588 0.21537219
-0.3512124 -0.092355065 -1.0070552 1.5238981 1.1113889 0.19127074 -0.2112212 0.0032740522
0.76922584 0.63656926 0.25085816 -0.23186307 0.8151663 -1.1519419 0.13620597 -0.3833706
-0.282733 1.5581832 -0.5663231 0.36008745 -0.70749676 0.6220358 -0.3239567 0.4982216
00000000: 4105 a13e 3ada 6abf 8751 7c3f 7f7d e73e
00000010: 9dc4 603f 1160 adbf 0d01 4ebe 878a 5c3e
00000020: 1dd2 b3be a724 bdbd 2fe7 80bf 180f c33f
00000030: fe41 8e3f 7adc 433e 5f4a 58be 7b91 563b
00000040: fceb 443f 34f6 223f 7b70 803e 836d 6dbe
00000050: bdae 503f d572 93bf 9479 0b3e 2749 c4be
00000060: 61c2 90be 8c72 c73f 8dfa 10bf 625d b83e
00000070: 821e 35bf bd3d 1f3f a7dd a5be e716 ff3e

pixel_patch_embedding.weight f4 [32, 30]
-0.10832283 0.12830862 -0.092118494 0.17319995 -0.13140051 0.17641574 -0.06204748 -0.077847555
0.012330934 -0.16863534 0.03831686 0.036901727 -0.039662287 -0.08755056 -0.006893918 -0.13919413
0.1145094 -0.05760856 -0.119007826 0.16572893 0.13193557 -0.024106026 0.11875966 -0.097781345
0.022878975 -0.1266766 -0.12919545 -0.13480613 0.1073612 0.08173686 -0.172517 0.03644404
-0.1402021 0.16698614 0.084560424 -0.100645974 0.0048935115 0.10425994 -0.007594779 -0.0036529452
0.17362764 0.1279948 -0.010020703 0.1383729 0.016867101 0.004410699 0.16326427 0.124397516
0.039023027 -0.06881109 0.062892765 -0.030921534 0.04121673 0.0457474 0.025242418 -0.16779861
-0.050843522 -0.045898885 -0.047906578 -0.096446395 0.019964874 0.05252573 -0.03945741 -0.091257885
0.089809835 0.11312932 -0.13047042 0.08861059 -0.09771481 -0.08354939 -0.10659818 -0.043988198
-0.071768716 -0.0156793 -0.03417626 -0.025540099 0.12472516 0.028623328 0.023049489 0.12859783
0.013364717 -0.15253082 0.10142401 0.021119177 0.16867396 -0.17155652 0.0021051317 -0.050196365
-0.041604325 -0.04517944 -0.077249505 -0.028361782 -0.07391855 -0.037029713 0.09327057 0.12442574
-0.065091446 -0.051722735 0.00041757524 -0.15317236 0.020243987 -0.17261769 -0.13923983 -0.11863191
-0.0541683 0.09282857 -0.08532526 0.03030993 -0.13606572 0.017535642 -0.08739851 0.06130448
-0.16761866 -0.15931943 0.16450864 -0.12592353 0.098689765 -0.06349915 -0.15496573 -0.1727376
0.13863727 -0.16050121 -0.13552478 0.09156796 0.039839253 0.11920354 -0.10829963 -0.15375158
-0.015949205 -0.14823824 0.07794812 -0.14124767 0.072386265 0.17220089 0.021310568 0.011097088
-0.040616006 -0.081353255 -0.14510764 0.077236444 0.1739074 -0.1159119 -0.027685344 0.11972016
0.051021144 -0.16919844 0.025012389 0.13049468 0.16480139 0.08649209 -0.13900343 -0.15834479
-0.08112871 -0.14966413 -0.1420981 -0.17513643 0.1706157 0.15724453 -0.13678962 0.0927549
-0.12530328 -0.121583395 -0.026700318 -0.08599964 -0.10537747 0.11204669 -0.16451111 -0.120161906
0.009132668 0.08171767 0.06022322 0.06845835 0.042629898 -0.11442536 -0.090771645 -0.1721309
-0.15891878 -0.041847765 -0.14134893 -0.038128704 -0.13228722 -0.14220299 -0.14650905 -0.016663998
0.17946216 0.1491045 -0.040595874 -0.030513272 -0.08818919 0.16102201 -0.058911495 0.03008996
-0.08674383 0.01818806 0.063562766 -0.07631631 0.021572292 0.033295974 0.0695129 -0.041059434
0.0062383413 -0.017392218 0.06283006 -0.018266156 0.16727576 0.096897155 0.12656033 0.17218417
0.032221332 -0.07581703 -0.15645945 0.17817128 0.037838265 -0.065391295 0.15002385 -0.12288448
-0.027412415 -0.12352399 -0.0023440868 -0.08469115 -0.09214524 -0.01603897 -0.0068702847 0.09039232
0.029186204 -0.03845124 -0.100992575 0.07245806 -0.013934329 -0.059911765 0.007916182 0.0048414767
-0.16420104 -0.16555208 -0.12742884 -0.0075517 0.14359686 0.16764975 -0.14002755 0.019321188
0.15418139 0.03866574 -0.12111798 0.12396777 -0.011444271 0.16112709 0.14456034 -0.040781856
0.04005404 -0.025558636 -0.013045669 0.15769991 -0.16721717 -0.002386257 -0.026599988 0.051788047
00000000: 5cd8 ddbd 5663 033e 9fa8 bcbd 545b 313e
00000010: db8d 06be 54a6 343e 8025 7ebd 8a6e 9fbd
00000020: b007 4a3c beae 2cbe 24f2 1c3d 4426 173d
00000030: ec74 22bd b54d b3bd 60e6 e1bb e888 0ebe
00000040: e883 ea3d f4f6 6bbd 60ba f3bd d8b4 293e
00000050: 1e1a 073e 007a c5bc 4438 f33d 9641 c8bd
00000060: b06c bb3c 83b7 01be d04b 04be 9e0a 0abe
00000070: 30e0 db3d a865 a73d 4ca8 30be 5846 153d
00000080: 2491 0fbe 6afe 2a3e 042e ad3d 7a1f cebd
00000090: c059 a03b 3c86 d53d a0dd f8bb 4066 6fbb
000000a0: 72cb 313e 1211 033e e02d 24bc a0b1 0d3e
000000b0: e02c 8a3c a087 903b c02e 273e 20c4 fe3d
000000c0: 9cd6 1f3d d4ec 8cbd eccd 803d 284f fdbc
000000d0: e0d2 283d a061 3b3d 30c9 ce3c 66d3 2bbe
000000e0: 4c41 50bd 7800 3cbd b039 44bd b085 c5bd
000000f0: 608d a33c 3825 573d 189e 21bd 6ae5 babd
00000100: 38ee b73d 58b0 e73d 0a9a 05be 7879 b53d
00000110: b41e c8bd f11b abbd 2650 dabd f82c 34bd
00000120: 7afb 92bd e071 80bc 68fc 0bbd 7839 d1bc
00000130: e86f ff3d 787b ea3c 48d2 bc3c 26af 033e
00000140: b0f7 5a3c 0a31 1cbe 64b7 cf3d 2002 ad3c
00000150: deb8 2c3e 83ac 2fbe 40f6 093b b49a 4dbd
00000160: 4c69 2abd 140e 39bd fd34 9ebd f856 e8bc
00000170: 9c62 97bd 78ac 17bd a404 bf3d ecd2 fe3d
00000180: aa4e 85bd 38db 53bd 00ee da39 37d9 1cbe
00000190: b8d6 a53c b1c2 30be e394 0ebe 49f5 f2bd
000001a0: 94df 5dbd e81c be3d 03bf aebd 884c f83c
000001b0: d054 0bbe e8a6 8f3c fdfd b2bd 681a 7b3d
000001c0: 3aa4 2bbe a224 23be f474 283e 19f2 00be
000001d0: dc1d ca3d d80b 82bd 56af 1ebe 20e2 30be
000001e0: eef6 0d3e 6e5a 24be 02c7 0abe fc87 bb3d
000001f0: 7c2e 233d fc20 f43d 32cc ddbd 0e71 1dbe
00000200: e8a7 82bc c4cb 17be 44a3 9f3d 3ba3 10be
00000210: 403f 943d 6e55 303e 8093 ae3c 90d0 353c
00000220: f85c 26bd 899c a6bd 1997 14be 242e 9e3d
00000230: c814 323e 3863 edbd 60cc e2bc d82f f53d
00000240: 8cfb 503d 5b42 2dbe c8e6 cc3c 66a0 053e
00000250: b2c1 283e c422 b13d ea56 0ebe 2325 22be
00000260: cf26 a6bd 8e41 19be 2a82 11be f756 33be
00000270: e2b5 2e3e b604 213e 9412 0cbe 48f6 bd3d
00000280: 814f 00be b700 f9bd a0ba dabc 9420 b0bd
00000290: 25d0 d7bd bc78 e53d 9a75 28be 7217 f6bd
000002a0: 30a1 153c 985b a73d a0ac 763d e433 8c3d
000002b0: b09c 2e3d d857 eabd 7ce6 b9bd 1543 30be
000002c0: 9bbb 22be 9068 2bbd c6bd 10be d82c 1cbd
000002d0: 4d76 07be a99d 11be 7806 16be f082 88bc
000002e0: eec4 373e daae 183e dc47 26bd f8f6 f9bc
000002f0: 899c b4bd f4e2 243e 2e4d 71bd 387f f63c
00000300: c0a6 b1bd 20ff 943c 322d 823d ba4b 9cbd
00000310: 60b8 b03c 5c61 083d c85c 8e3d f02d 28bd
00000320: 006b cc3b 207a 8ebc 0cad 803d e8a2 95bc
00000330: 564a 2b3e 0472 c63d 0899 013e 0c51 303e
00000340: 84fa 033d f645 9bbd e836 20be 8872 363e
00000350: 4cfc 1a3d dfeb 85bd da9f 193e dcaa fbbd
00000360: 0090 e0bc 25fa fcbd 409f 19bb 8e72 adbd
00000370: a5b6 bcbd 2864 83bc 2020 e1bb 9c1f b93d
00000380: e817 ef3c 0c7f 1dbd 32d5 cebd e464 943d
00000390: d04c 64bc 0a66 75bd e0b2 013c 40a5 9e3b
000003a0: 5124 28be 7c86 29be b57c 02be 4074 f7bb
000003b0: 0e0b 133e 60ac 2b3e 6263 0fbe 7847 9e3c
000003c0: bae1 1d3e f85f 1e3d b40c f8bd d0e2 fd3d
000003d0: c080 3bbc 80fe 243e a007 143e e00a 27bd
000003e0: b40f 243d 5860 d1bc 80bd 55bc 167c 213e
000003f0: fa3a 2bbe c062 1cbb 38e8 d9bc b41f 543d

pixel_patch_embedding.bias f4 [32]
0.10330233 0.16378802 0.010839567 -0.15797517 -0.104707494 -0.096845776 -0.042732775 0.08685586
-0.15884724 0.17036754 0.07575303 -0.08279254 0.035520703 0.1565654 -0.006937295 0.079992086
0.09309295 -0.15115546 -0.026080713 -0.16994375 0.13660729 -0.0933471 -0.13709718 0.1410824
-0.10334166 0.16049361 0.08258447 -0.100304574 0.009795308 0.12611115 -0.17623952 -0.15268089
00000000: 2c90 d33d 0cb8 273e 7098 313c 3ec4 21be
00000010: e270 d6bd 1457 c6bd 9008 2fbd 7ce1 b13d
00000020: daa8 22be d474 2e3e 6824 9b3d 238f a9bd
00000030: 287e 113d ae52 203e 4052 e3bb e4d2 a33d
00000040: 84a7 be3d 7fc8 1abe 38a7 d5bc bc05 2ebe
00000050: c8e2 0b3e c42c bfbd 3463 0cbe e877 103e
00000060: cba4 d3bd 7058 243e 0c22 a93d 7c6c cdbd
00000070: 807c 203c 4823 013e 2278 34be 6158 1cbe

local_trans_pixel.layers.0.0.fn.norm.weight f4 [32]
1.075614 1.1414249 1.0602705 1.0642608 1.1049126 1.15376 1.0740014 1.0488031
1.068009 1.081881 1.102328 1.064478 1.113654 1.0887254 1.0720131 1.1336893
1.0672696 1.077159 1.0715845 1.0865268 1.0922979 1.1561003 1.12027 1.1280702
1.0772992 1.1264601 1.0666416 1.0939243 1.0710655 1.093815 1.1171122 1.0746824
00000000: b8ad 893f 361a 923f f2b6 873f b339 883f
00000010: c76d 8d3f 68ae 933f e178 893f 2e3f 863f
00000020: 85b4 883f 147b 8a3f 1519 8d3f d140 883f
00000030: 378c 8e3f 5b5b 8b3f ba37 893f bb1c 913f
00000040: 4a9c 883f 59e0 893f ae29 893f 4f13 8b3f
00000050: 6bd0 8b3f 18fb 933f 0265 8f3f 9b64 903f
00000060: f1e4 893f d82f 903f b687 883f b605 8c3f
00000070: ad18 893f 2102 8c3f 88fd 8e3f 318f 893f

local_trans_pixel.layers.0.0.fn.norm.bias f4 [32]
-0.009285638 -0.026612474 0.016148604 -0.0053154742 0.08181462 -0.11618702 0.046166323 0.07210293
0.0113875065 -0.051678646 -0.12998626 0.034598883 0.048064556 0.007880931 -0.015793964 -0.019052448
0.0064804284 -0.015737835 -0.010402892 -0.015258464 -0.056170482 -0.063783385 0.024516877 0.057982117
-0.09176937 -0.08100598 0.001967547 -0.028384848 -0.023145588 -0.004491983 -0.029854342 0.08252658
00000000: ca22 18bc 6702 dabc 144a 843c 6e2d aebb
00000010: 6c8e a73d 76f3 edbd e618 3d3d b3aa 933d
00000020: aa92 3a3c fdac 53bd 1e1b 05be 8fb7 0d3d
00000030: 57df 443d 051f 013c 5862 81bc e113 9cbc
00000040: c659 d43b a2ec 80bc e470 2abc a3fe 79bc
00000050: 0513 66bd dda0 82bd 9ed7 c83c a87e 6d3d
00000060: 94f1 bbbd 77e6 a5bd f6f1 003b 5787 e8bc
00000070: d19b bdbc 7c31 93bb 1891 f4bc b203 a93d

local_trans_pixel.layers.0.0.fn.fn.to_qkv.weight f4 [1536, 32]
0.15512656 -0.045892492 0.09418812 -0.13521308 -0.18360391 0.077096276 0.06961971 -0.06614043
0.09158551 -0.15818714 0.13743362 0.0018637178 0.03280934 -0.13154185 0.031065205 0.05207889
0.25865054 0.072495095 -0.11675619 0.08548405 0.17172784 -0.18174838 0.041917555 -0.026375458
0.014145643 -0.080314726 -0.025001926 0.03413934 0.092781655 -0.017178336 -0.02423133 0.14861561
-0.054792393 0.04920192 -0.015822463 0.062437784 -0.22412615 0.1363892 -0.030619623 -0.25943807
-0.14888194 0.15115121 -0.071411364 0.064390086 0.124906786 0.063864894 -0.03246651 -0.079304114
-0.13744509 0.19297291 -0.07305031 -0.09377802 0.022820227 -0.027424328 -0.0773334 -0.18006991
-0.100593746 -0.0048657213 -0.06549484 -0.15385832 0.2796295 0.061497364 0.02743818 -0.021222925
0.121256396 -0.24211016 0.107179046 0.14200966 0.07310398 0.03207068 0.16740392 0.036839113
0.09221937 -0.13255584 -0.15247507 0.09487107 -0.029445102 0.038360454 0.053056598 -0.11567739
-0.030276256 0.14561988 -0.19778655 -0.25745988 -0.13737455 -0.25319672 -0.017878482 0.02617508
0.19628969 0.055661127 -0.10016193 -0.031018453 -0.040567853 -0.19784933 -0.2636718 -0.18393531
-0.1909697 0.038255494 0.107080035 -0.08958771 0.026194984 -0.02987771 0.22090736 0.07775026
-0.078782015 0.14226064 0.04717704 -0.08983513 0.111812554 -0.1884205 -0.117324516 0.13614829
-0.24129367 0.04656065 -0.19526294 -0.12042902 0.00923029 -0.1469582 -0.048251748 0.16812025
0.07934136 0.18535203 -0.12105452 0.15990151 0.15552168 0.15878196 -0.103184976 0.010421341
0.123059385 -0.12113698 -0.06858849 0.051941358 -0.08653907 0.04246599 0.03403741 0.10604464
0.08663978 -0.0026781685 0.14496452 0.06474887 0.24265932 0.11249202 0.059077192 -0.1256244
-0.09047193 0.10997375 0.22599839 -0.11637768 -0.16647117 0.1416656 0.08654645 0.03247635
0.10451741 -0.03741873 -0.07543377 -0.12873943 -0.05556866 -0.13364306 -0.15200832 0.23814234
0.17610285 -0.10815231 0.08654929 -0.15138574 -0.119439095 -0.2705013 0.11712543 0.14700255
0.14905202 -0.19093907 0.06565073 0.16771875 -0.14098787 0.07925496 -0.029106235 0.062796496
0.15383299 -0.1109429 0.14612037 -0.16879371 -0.183176 -0.09112393 0.18838705 0.23037326
-0.071722396 -0.05274394 -0.02021911 0.11266871 -0.09891721 -0.04627571 -0.047686264 0.15837099
-0.13018408 0.014065795 0.02201094 -0.11406033 0.08482168 0.25447685 0.019580374 -0.114033565
0.013970988 -0.13817309 -0.05499478 -0.1448862 -0.102349624 -0.21035166 -0.12728238 0.058924675
0.15601785 0.16708037 0.30473307 -0.05195735 0.053697772 0.10602391 -0.19881074 -0.23707008
0.060040697 -0.13960847 -0.048340216 -0.11518775 -0.11740479 -0.057764325 0.25686976 0.33697778
0.098688364 0.09293341 -0.14525689 -0.11775594 -0.00498072 0.11021064 -0.23280317 -0.035085168
-0.07211287 0.0012536147 0.04419378 0.00357179 -0.12060275 0.17057782 -0.20708668 -0.0025592782
0.13529818 0.11441298 0.046710405 0.18809214 0.16639447 0.11242339 0.013669239 -0.033579223
-0.21873887 -0.1899787 -0.20389053 0.21162724 -0.27860716 -0.15117145 0.25516152 0.13217577
00000000: 7fd9 1e3e c4f9 3bbd b3e5 c03d 4c75 0abe
00000010: aa02 3cbe a7e4 9d3d c794 8e3d a274 87bd
00000020: 2f91 bb3d cffb 21be 66bb 0c3e fe47 f43a
00000030: 1663 063d e8b2 06be 757c fe3c ad50 553d
00000040: d86d 843e 4f78 943d df1d efbd 4312 af3d
00000050: 6cd9 2f3e 3f1c 3abe beb1 2b3d 5811 d8bc
00000060: 21c3 673c 0c7c a4bd d7d0 ccbc b1d5 0b3d
00000070: 4f04 be3d 95b9 8cbc c880 c6bc b12e 183e
00000080: fd6d 60bd f487 493d 1c9e 81bc c3be 7f3d
00000090: 5381 65be 9ca9 0b3e 01d6 fabc 11d5 84be
000000a0: 8274 18be 62c7 1a3e 1f40 92bd f3de 833d
000000b0: 21cf ff3d 99cb 823d 9afb 04bd 326a a2bd
000000c0: 68be 0cbe b19a 453e 679b 95bd b10e c0bd
000000d0: 7cf1 ba3c fca8 e0bc f960 9ebd 3f64 38be
000000e0: 1804 cebd a170 9fbb 2922 86bd 098d 1dbe
000000f0: 992b 8f3e a9e4 7b3d 09c6 e03c b3db adbc
00000100: 4655 f83d baeb 77be b080 db3d fb6a 113e
00000110: 8ab7 953d 8c5c 033d ef6b 2b3e 9ce4 163d
00000120: 82dd bc3d b8bc 07be 6d22 1cbe c34b c23d
00000130: db36 f1bc da1f 1d3d e051 593d 44e8 ecbd
00000140: e905 f8bc 611d 153e 8f88 4abe c8d1 83be
00000150: eaab 0cbe 00a3 81be e575 92bc 1f6d d63c
00000160: 2a00 493e ecfc 633d b321 cdbd 691a febc
00000170: 7a2a 26bd 0499 4abe fdff 86be 8a59 3cbe
00000180: 908d 43be cbb1 1c3d c74c db3d c379 b7bd
00000190: dd96 d63c 19c2 f4bc 8a35 623e 873b 9f3d
000001a0: 7758 a1bd c6ac 113e b63c 413d 7bfb b7bd
000001b0: fbfd e43d 4ef1 40be d647 f0bd 756a 0b3e
000001c0: b015 77be 61b6 3e3d 02f3 47be 7da3 f6bd
000001d0: a43a 173c 367c 16be a0a3 45bd b727 2c3e
000001e0: b97d a23d eccc 3d3e 6feb f7bd 39bd 233e
000001f0: 1341 1f3e bd97 223e a552 d3bd 46be 2a3c
00000200: 8f06 fc3d aa16 f8bd 1f78 8cbd 76c0 543d
00000210: 653b b1bd d1f0 2d3d d06a 0b3d ef2d d93d
00000220: 3270 b13d 3684 2fbb 9471 143e 0e9b 843d
00000230: af7b 783e 3762 e63d edfa 713d afa3 00be
00000240: 5949 b9bd eb39 e13d 1f6c 673e 6c57 eebd
00000250: 6b77 2abe c910 113e 443f b13d ec05 053d
00000260: 390d d63d 6244 19bd 057d 9abd 45d4 03be
00000270: f79b 63bd bad9 08be 12a8 1bbe 96db 733e
00000280: 4e54 343e f57e ddbd c140 b13d dd04 1bbe
00000290: 7c9c f4bd 257f 8abe 75df ef3d d687 163e
000002a0: 18a1 183e 8885 43be e473 863d 77be 2b3e
000002b0: 205f 10be 6d50 a23d 3370 eebc 739b 803d
000002c0: 6586 1d3e 0836 e3bd 94a0 153e 42d8 2cbe
000002d0: 7d92 3bbe 2f9f babd 89e8 403e f8e6 6b3e
000002e0: 31e3 92bd 080a 58bd 8ca2 a5bc dabe e63d
000002f0: 1b95 cabd 998b 3dbd ac52 43bd 012c 223e
00000300: fa4e 05be 3874 663c 4950 b43c 7698 e9bd
00000310: fdb6 ad3d ca4a 823e 0567 a03c 6e8a e9bd
00000320: 92e6 643c 3f7d 0dbe 3542 61bd 0c5d 14be
00000330: ae9c d1bd 6d66 57be 5056 02be 005b 713d
00000340: 25c3 1f3e 1e17 2b3e f905 9c3e 3bd1 54bd
00000350: 32f2 5b3d 1023 d93d 0b95 4bbe 80c2 72be
00000360: 3ced 753d 86f5 0ebe 6400 46bd 8ee7 ebbd
00000370: ec71 f0bd 499a 6cbd 6f84 833e 5a88 ac3e
00000380: 201d ca3d df53 be3d 39be 14be 072a f1bd
00000390: 4f35 a3bb 1eb6 e13d f463 6ebe 77b5 0fbd
000003a0: eaaf 93bd 5450 a43a 8904 353d b114 6a3b
000003b0: 93fe f6bd f4ab 2e3e 880e 54be 90b9 27bb
000003c0: 9b8b 0a3e 5a51 ea3d 6953 3f3d 3a9b 403e
000003d0: 5063 2a3e 3c3e e63d f2f4 5f3c 5e8a 09bd
000003e0: 15fd 5fbe c789 42be aec8 50be d0b4 583e
000003f0: 99a5 8ebe b0cc 1abe 88a4 823e 1659 073e

local_trans_pixel.layers.0.0.fn.fn.to_out.0.weight f4 [32, 512]
0.026125886 0.044323508 -0.05359826 0.057268437 0.016548213 -0.014621952 -0.024999253 -0.061398253
0.0453676 0.0038054385 0.020046372 0.012146219 0.049673826 -0.069376834 -0.02576768 0.031032208
0.03330742 -0.07462127 -0.027230024 -0.042780004 -0.00072325347 0.04649371 -0.037833884 -0.047685746
0.020311056 0.0025977697 -0.022784224 -0.044936787 -0.054843366 0.014227055 -0.0017701937 0.02047595
0.049136564 -0.03889237 -0.017691225 -0.030533286 0.0057910173 -0.03744048 0.025497045 -0.04168336
0.0017049138 0.037313372 0.010744422 0.0052904487 -0.011326648 0.06882617 -0.03298361 0.038540326
-0.051352225 -0.0012855622 0.019715438 -0.04343699 0.08389359 0.05344332 -0.026555123 -0.028258633
-0.04293567 0.057142843 0.0011857757 0.0062649664 0.10521848 0.010782588 -0.044557065 0.005352492
0.042463567 0.005327346 -0.030751297 -0.02610175 -0.032293063 -0.073268674 0.021156263 -0.017241605
0.029533241 0.05859082 -0.03514081 0.062464938 0.042681023 0.006414707 0.04317585 0.01678778
-0.025218537 0.02160869 -0.039803445 0.08921761 -0.037491336 0.047231425 -0.029688885 0.057520263
0.001598837 0.020109741 -0.009900704 -0.011185903 -0.02672549 0.020129729 -0.045204684 -0.010724431
-0.021044174 -0.0050052647 0.033554096 -0.027341189 0.03731373 -0.035425834 0.028079739 0.054590806
-0.03684387 0.020222954 -0.028607842 0.016652973 0.03697452 0.061453186 -0.06117389 0.027102996
0.007790697 -0.083000995 -0.03809025 -0.065159544 -0.016384646 -0.006891101 -0.00141596 -0.07256062
-0.053067714 -0.03936413 -0.033886272 0.012868115 -0.02630333 -0.028672159 0.05521098 -0.0604457
0.0022621034 0.0043723676 0.040306207 -0.02389929 -0.031235058 -0.008251822 0.006024398 0.033657968
-0.0509335 -0.024755226 0.006391704 0.0025671495 -0.0107476795 0.004973859 0.060339697 0.029621972
-0.05143921 -0.00040356495 0.03946982 -0.036195558 0.02431516 -0.0032631995 0.016318595 0.0016565388
0.03473838 0.02300148 0.0022267387 -0.036763996 -0.04365104 0.03533134 0.0135427015 0.004206782
0.044598453 0.0024155895 -0.011549985 0.011527687 0.053660583 -0.024214344 -0.039125413 -0.016105035
-0.09206918 -0.022786658 -0.053036723 0.02652233 -0.03422969 -0.0725643 0.039638177 0.027232062
-0.01159081 0.0067547285 -0.05742585 -0.051549178 -0.024709046 -0.018308677 -0.023648854 -0.07726847
0.028259391 -0.043265864 0.047058392 0.0036376426 0.021684458 -0.023801237 -0.03011718 0.043923333
-0.03345122 0.03381727 0.0146451825 0.074044086 0.06297411 -0.036974084 -0.027720809 0.03382678
0.040514115 -0.006594014 0.023775123 -0.018089622 0.023508418 -0.021292908 -0.01072126 -0.016562898
-0.037677307 -0.0199266 0.06332868 -0.07919444 0.04516735 0.03699305 0.030083489 0.024616094
-0.039669715 0.029324325 0.047678858 0.024561455 -0.002795537 0.018625094 0.028793799 -0.03786725
-0.05691699 0.051851667 0.0032077243 -0.06852097 -0.0038287356 0.014624163 -0.020528316 -0.009606686
-0.01021793 0.021108232 0.016556086 0.0055817454 0.0040623113 0.0035630746 -0.056842666 0.010118716
-0.07244644 -0.010495244 -0.023098344 -0.022214543 -0.051200286 0.07052137 -0.040270932 0.010712676
0.03866983 0.020232368 -0.004748419 -0.037571665 -0.029538931 0.007153874 0.044852022 -0.0698768
00000000: f405 d63c 918c 353d d989 5bbd 4f92 6a3d
00000010: 1e90 873c e990 6fbc 3ccb ccbc bc7c 7bbd
00000020: 60d3 393d aa64 793b 4a38 a43c ef00 473c
00000030: c876 4b3d 7115 8ebd be16 d3bc 4237 fe3c
00000040: 5c6d 083d 09d3 98bd 8011 dfbc 163a 2fbd
00000050: b898 3dba 3070 3e3d b4f7 1abd 2152 43bd
00000060: 5f63 a63c 583f 2a3b fba5 babc a30f 38bd
00000070: 70a3 60bd 9818 693c d805 e8ba 2ebd a73c
00000080: 6c43 493d 9b4d 1fbd 30ed 90bc f120 fabc
00000090: 93c2 bd3b 305b 19bd 2edf d03c 2cbc 2abd
000000a0: 6a77 df3a e8d5 183d 5f09 303c 805b ad3b
000000b0: 6893 39bc bcf4 8c3d d219 07bd 76dc 1d3d
000000c0: b656 52bd 4f80 a8ba 4582 a13c fcea 31bd
000000d0: 67d0 ab3d 62e7 5a3d 218a d9bc a67e e7bc
000000e0: 50dd 2fbd 9d0e 6a3d 086c 9b3a 594a cd3b
000000f0: c97c d73d 74a9 303c 7881 36bd f563 af3b
00000100: 47ee 2d3d 0491 ae3b 25ea fbbc 56d3 d5bc
00000110: bb45 04bd e30d 96bd e64f ad3c 443e 8dbc
00000120: b2ef f13c edfc 6f3d cfef 0fbd 3cdb 7f3d
00000130: 4cd2 2e3d 7632 d23b 29d9 303d 8786 893c
00000140: 1b97 cebc b504 b13c f008 23bd b9b7 b63d
00000150: 8490 19bd bd75 413d 1b36 f3bc 5e9a 6b3d
00000160: 1190 d13a 2fbd a43c 9036 22bc 1445 37bc
00000170: 6aef dabc 1ae7 a43c 8c28 39bd 86b5 2fbc
00000180: d564 acbc 3403 a4bb 0570 093d a1fa dfbc
00000190: 48d6 183d ae1a 11bd 7b07 e63c 9c9a 5f3d
000001a0: 99e9 16bd 9caa a53c fe5a eabc d16b 883c
000001b0: 9872 173d 56b6 7b3d 7991 7abd 1a07 de3c
000001c0: 1a49 ff3b 6dfc a9bd 8604 1cbd 5e72 85bd
000001d0: 1839 86bc bfce e1bb bc97 b9ba aa9a 94bd
000001e0: 885d 59bd 483c 21bd 55cc 0abd c9d4 523c
000001f0: 157a d7bc e0e1 eabc e924 623d e995 77bd
00000200: cc3f 143b 1446 8f3b 1f18 253d 72c8 c3bc
00000210: aae0 ffbc a632 07bc 5068 c53b f0dc 093d
00000220: a59f 50bd 79cb cabc 8071 d13b 9f3d 283b
00000230: 0917 30bc c1fb a23b c226 773d c7a9 f23c
00000240: ecb1 52bd 9295 d3b9 1bab 213d cb41 14bd
00000250: 9630 c73c 67db 55bb 93ae 853c 3820 d93a
00000260: d549 0e3d 9a6d bc3c 7aee 113b d895 16bd
00000270: 6fcb 32bd 98b7 103d 35e2 5d3c 0cd9 893b
00000280: deac 363d de4e 1e3b 263c 3dbc a0de 3c3c
00000290: 33cb 5b3d 295d c6bc f841 20bd b5ee 83bc
000002a0: c48e bcbd 16ab babc 093d 59bd 5b45 d93c
000002b0: 6e34 0cbd 979c 94bd a45b 223d c615 df3c
000002c0: 61e7 3dbc c556 dd3b 5e37 6bbd 3b25 53bd
000002d0: a06a cabc 14fc 95bc 3ebb c1bc ee3e 9ebd
000002e0: 3d80 e73c 8c37 31bd 4dc0 403d 8465 6e3b
000002f0: 9ba3 b13c d0fa c2bc 4eb8 f6bc f4e8 333d
00000300: 2504 09bd fa83 0a3d 59f2 6f3c 6da4 973d
00000310: 92f8 803d 2372 17bd c016 e3bc f38d 0a3d
00000320: 21f2 253d 9912 d8bb 0cc4 c23c b030 94bc
00000330: ba94 c03c 776e aebc 39a8 2fbc eaae 87bc
00000340: 8553 1abd 1c3d a3bc 78b2 813d b230 a2bd
00000350: 6601 393d 0686 173d a671 f63c b1a7 c93c
00000360: b67c 22bd 9139 f03c e84a 433d 1b35 c93c
00000370: 5435 37bb a793 983c f9e0 eb3c b11a 1bbd
00000380: ca21 69bd 6a62 543d af38 523b b954 8cbd
00000390: 86eb 7abb 2f9a 6f3c 002b a8bc 5d65 1dbc
000003a0: 1b69 27bc 2ceb ac3c a1a0 873c 13e7 b63b
000003b0: 231d 853b 7982 693b dbd3 68bd f9c8 253c
000003c0: cd5e 94bd 3ef4 2bbc bd38 bdbc 46fb b5bc
000003d0: 64b7 51bd 826d 903d 22f3 24bd 3884 2f3c
000003e0: 4164 1e3d 5abe a53c a098 9bbb bfe4 19bd
000003f0: a1fb f1bc 0b6b ea3b c1b6 373d 911b 8fbd

local_trans_pixel.layers.0.0.fn.fn.to_out.0.bias f4 [32]
0.011394457 -0.01148295 -0.0804485 0.12311882 -0.060766675 0.0356618 -0.0172344 0.010163628
0.015377755 0.013199736 -0.04657906 -0.049172085 0.081914656 0.0154073825 -0.015058186 0.05352826
0.024789363 0.028248033 -0.06902953 0.019057011 -0.03762149 -0.07998792 -0.031513087 -0.02716608
-0.079461 0.036932334 0.009914795 0.023602817 -0.011442226 0.028144367 0.009685972 0.012764613
00000000: d1af 3a3c fc22 3cbc 2fc2 a4bd b825 fc3d
00000010: 7ae6 78bd 1c12 123d 282f 8dbc 5885 263c
00000020: fbf2 7b3c b543 583c afc9 3ebd ab68 49bd
00000030: dfc2 a73d 3f6f 7c3c 9cb6 76bc 7340 5b3d
00000040: 1013 cb3c 6b68 e73c 5b5f 8dbd 731d 9c3c
00000050: fe18 1abd b5d0 a3bd de13 01bd 668b debc
00000060: 73bc a2bd 5c46 173d aa71 223c b25a c13c
00000070: 2d78 3bbc 048f e63c e9b1 1e3c ab22 513c

local_trans_pixel.layers.0.1.fn.norm.weight f4 [32]
1.0038328 1.0230055 1.0488012 0.9739431 0.95919263 1.0890697 0.96470374 1.0199054
1.0222051 1.0275418 1.0339513 1.0231167 1.0505167 1.058317 0.98069566 1.0466496
0.9868141 1.05728 0.9981381 1.051231 1.0371752 0.9941809 1.0802947 0.98444754
1.0497636 1.0059224 1.1057702 1.0102123 0.9686457 1.027152 0.9708417 1.0530133
00000000: 987d 803f d8f1 823f 1e3f 863f 5654 793f
00000010: a68d 753f a366 8b3f d3f6 763f 438c 823f
00000020: 9ed7 823f 7d86 833f 8458 843f 7df5 823f
00000030: 5577 863f ee76 873f df0e 7b3f 9df8 853f
00000040: d99f 7c3f f354 873f fb85 7f3f bd8e 863f
00000050: 28c2 843f a482 7e3f 1947 8a3f c104 7c3f
00000060: a75e 863f 11c2 803f e189 8d3f a34e 813f
00000070: 2af9 773f b779 833f 1589 783f 24c9 863f

local_trans_pixel.layers.0.1.fn.norm.bias f4 [32]
0.035168197 0.03314647 -0.031222207 0.047740337 0.024807429 0.003062968 -0.035598952 0.023304537
0.029117713 -0.0106305545 -0.023315351 0.014566198 0.038786422 -0.0005641514 0.009527236 -0.016269008
-0.0023613183 -0.01271705 -0.051261127 -0.03104085 -0.020419871 -0.0238497 -0.0096112555 0.026301792
0.007866664 0.029456493 -0.008949885 0.024023779 0.038996812 -0.01099513 0.032264426 -0.050453003
00000000: 870c 103d 98c4 073d b7c5 ffbc 5f8b 433d
00000010: f338 cb3c 13bc 483b 35d0 11bd 28e9 be3c
00000020: 4588 ee3c c72b 2ebc d6ff bebc 10a7 6e3c
00000030: 83de 1e3d 8fe3 13ba 2018 1c3c 9546 85bc
00000040: 59c0 1abb 2c5b 50bc 30f7 51bd 6149 febc
00000050: 9347 a7bc 7260 c3bc 8778 1dbc db76 d73c
00000060: 2ee3 003c be4e f13c 8aa2 12bc 84cd c43c
00000070: 1fbb 1f3d eb24 34bc b427 043d cfa7 4ebd

local_trans_pixel.layers.0.1.fn.fn.net.0.weight f4 [8, 32]
0.18678789 -0.06086226 -0.026495658 -0.08928676 0.09059857 -0.13027214 -0.14642999 -0.093434475
-0.03909605 0.18671645 0.13655704 0.030617658 -0.081578 0.027426712 0.10966559 0.08945589
-0.024879675 0.12730108 0.18149698 0.11407688 -0.03374171 -0.1311781 0.12731276 0.071648255
-0.047657453 0.14703302 0.19712433 0.15239872 -0.024869459 -0.07280031 -0.059825987 0.095216736
-0.11958192 -0.11543678 0.06693077 0.018851765 -0.1355186 0.03436688 0.10302907 -0.16216604
0.08990678 -0.08897401 -0.10049777 0.15700139 -0.022588573 -0.18124092 -0.14245099 0.068909794
0.07741628 0.010750774 -0.0075254133 0.0055752606 0.058164705 0.035808206 -0.14976451 -0.0752788
-0.034598846 0.062161513 0.04421296 0.026487207 -0.14224526 0.1191898 -0.0036277624 -0.0468482
-0.18498714 -0.13471437 0.08684795 -0.10315709 -0.06571482 -0.081714824 0.11620113 0.021962857
-0.0073332293 0.17694025 0.18690999 -0.14162344 -0.061131533 -0.011145742 0.076654725 0.1689899
0.023353627 0.02699454 0.09115692 0.00054712105 0.194199 0.05678372 0.17485422 -0.15012261
0.031379186 -0.0770405 -0.17060514 -0.06450436 -0.12654528 -0.12553118 0.035660785 0.040289786
0.12884556 0.11263299 -0.20573635 0.12863587 -0.090784974 -0.1315422 -0.050344985 0.07467839
0.09627566 0.1711346 -0.089418925 -0.0026031293 0.090013966 0.0034941693 0.05643189 0.15851088
0.14603356 -0.033610776 0.1558686 -0.19007511 0.023180798 -0.037749413 0.10706005 0.11709599
-0.003928577 0.15368503 0.121310525 0.12888943 -0.03670296 -0.19888948 0.0627103 -0.09829784
0.1424816 -0.19713797 -0.027095517 -0.13134295 -0.08213365 0.07325543 -0.04020872 -0.144202
-0.054925587 -0.16431496 -0.17782134 0.01900072 -0.10394834 0.013653707 -0.13793659 0.016420888
-0.145745 0.11502558 -0.13368915 0.16355056 -0.056138672 0.061557803 -0.025624529 -0.038841356
0.2271445 -0.16376078 0.054307725 -0.044373844 0.11271653 -0.036806177 0.13178946 -0.032179482
-0.105429746 -0.13190274 -0.080766864 -0.14027917 0.013211382 -0.13735203 0.1494742 -0.13353811
-0.124301404 0.033169195 -0.12490503 0.06110232 -0.12530234 0.015486353 -0.15185387 0.06335702
-0.033493526 0.24833858 0.041728687 0.044740535 -0.19594578 -0.059096664 0.012694975 0.1779159
-0.10851185 0.018342327 0.21914816 -0.056120582 0.0022126846 -0.003181641 -0.068249986 0.0651115
0.15297684 -0.056748908 0.09326396 0.13794352 -0.045235313 -0.12658997 -0.12490626 -0.060207546
0.10146309 0.0956436 0.132722 0.10082073 0.12627135 -0.1336065 -0.035357047 0.04091538
0.20204882 0.17633976 -0.051215228 -0.1302704 -0.0801222 -0.035438664 0.052955367 -0.04180214
0.07518201 0.018458389 -0.18811257 0.01026982 0.10331156 -0.12513998 -0.07020872 0.0061885747
0.03252155 0.15581022 -0.21084604 -0.1810154 -0.15392227 0.14694016 -0.10643364 -0.20698708
-0.0331173 -0.11305252 0.09867812 0.024761537 0.0999912 0.1738443 -0.09461161 -0.09764929
0.10548306 0.048242565 0.17847234 -0.08718901 -0.00067323935 0.10492669 -0.21873619 -0.023127744
0.04501461 -0.10426151 0.1612499 -0.15875748 -0.028358953 -0.03859138 -0.042914245 0.18949264
00000000: 5345 3f3e b54a 79bd 6c0d d9bc fadb b6bd
00000010: be8b b93d 0f66 05be bef1 15be 935a bfbd
00000020: 2e23 20bd 9932 3f3e 9cd5 0b3e e2d1 fa3c
00000030: 5e12 a7bd fcad e03c 5a98 e03d a634 b73d
00000040: 76d0 cbbc 375b 023e 58da 393e 24a1 e93d
00000050: bf34 0abd 8d53 06be 475e 023e 52bc 923d
00000060: 7634 43bd d38f 163e f6da 493e 690e 1c3e
00000070: 09bb cbbc 5418 95bd 180c 75bd fe00 c33d
00000080: 5ee7 f4bd 1e6a ecbd 0013 893d 046f 9a3c
00000090: 63c5 0abe 49c4 0c3d e800 d33d db0e 26be
000000a0: 0c21 b83d 0138 b6bd c6d1 cdbd f9c4 203e
000000b0: ac0b b9bc 3897 39be acde 11be 9420 8d3d
000000c0: 6d8c 9e3d 0424 303c be97 f6bb adb0 b63b
000000d0: 1d3e 6e3d a0ab 123d de5b 19be c62b 9abd
000000e0: 85b7 0dbd 129d 7e3d a618 353d b3fb d83c
000000f0: bea8 11be c819 f43d c1bf 6dbb e6e3 3fbd
00000100: 456d 3dbe 90f2 09be 57dd b13d 0644 d3bd
00000110: 7e95 86bd 1a5a a7bd dcfa ed3d 73eb b33c
00000120: 964b f0bb d32f 353e 5565 3f3e bc05 11be
00000130: 0f65 7abd a19c 36bc 27fd 9c3d b00b 2d3e
00000140: 1b50 bf3c a723 dd3c 7bb0 ba3d ac6c 0f3a
00000150: 1adc 463e 0c96 683d fc0c 333e beb9 19be
00000160: 7687 003d 69c7 9dbd 1db3 2ebe dd1a 84bd
00000170: 1695 01be 3f8b 00be 0b11 123d e706 253d
00000180: 17f0 033e 20ac e63d 8dac 52be 1fb9 033e
00000190: 79ed b9bd 00b3 06be 8b36 4ebd fcf0 983d
000001a0: 2c2c c53d e93d 2f3e 4521 b7bd 4399 2abb
000001b0: 3e59 b83d 6ffe 643b 2025 673d ad50 223e
000001c0: d289 153e 74ab 09bd 059c 1f3e 0da3 42be
000001d0: a8e5 bd3c 219f 1abd 4d42 db3d 06d0 ef3d
000001e0: 4bbb 80bb 9c5f 1d3e a771 f83d 97fb 033e
000001f0: d855 16bd afa9 4bbe 426e 803d 6150 c9bd
00000200: b2e6 113e 89de 49be 6bf7 ddbc c47e 06be
00000210: b035 a8bd f106 963d e6b1 24bd b0a9 13be
00000220: a7f9 60bd 2e42 28be cc16 36be 66a7 9b3c
00000230: dee2 d4bd ccb3 5f3c 403f 0dbe 1985 863c
00000240: 2d3e 15be 8892 eb3d cfe5 08be cc79 273e
00000250: aaf1 65bd 0924 7c3d 88ea d1bc 1d18 1fbd
00000260: 9198 683e e8b0 27be c771 5e3d 59c1 35bd
00000270: edd7 e63d 13c2 16bd d1f3 063e a2ce 03bd
00000280: 8deb d7bd 8311 07be 1969 a5bd 58a5 0fbe
00000290: 8d74 583c 03a6 0cbe c40f 193e 37be 08be
000002a0: bc91 febd 6cdc 073d 35ce ffbd 6d46 7a3d
000002b0: 424f 00be 79ba 7d3c 957f 1bbe 53c1 813d
000002c0: 8230 09bd 784c 7e3e b3eb 2a3d da41 373d
000002d0: 03a6 48be 580f 72bd 96fe 4f3c 962f 363e
000002e0: 763b debd a642 963c 6068 603e b2de 65bd
000002f0: b002 113b 1483 50bb a6c6 8bbd 2e59 853d
00000300: f6a5 1c3e 8b71 68bd 2d01 bf3d 1141 0d3e
00000310: aa48 39bd cda0 01be dace ffbd 309c 76bd
00000320: e1cb cf3d cbe0 c33d 47e8 073e 197b ce3d
00000330: 474d 013e 24d0 08be 8dd2 10bd e396 273d
00000340: e3e5 4e3e 6992 343e 0fc7 51bd 9b65 05be
00000350: 1c17 a4bd 2228 11bd bae7 583d b938 2bbd
00000360: 07f9 993d 0c36 973c 95a0 40be bf42 283c
00000370: 0395 d33d b224 00be 97c9 8fbd 87c9 ca3b
00000380: 5135 053d b78c 1f3e 06e8 57be 1a5c 39be
00000390: cd9d 1dbe 7b77 163e e1f9 d9bd 6cf4 53be
000003a0: 02a6 07bd 1488 e7bd c117 ca3d b5d8 ca3c
000003b0: 30c8 cc3d 3d04 323e bbc3 c1bd 5afc c7bd
000003c0: 8107 d83d ff99 453d 74c1 363e 2790 b2bd
000003d0: 547c 30ba cee3 d63d 61fc 5fbe 6576 bdbc
000003e0: 3d61 383d 0f87 d5bd b21e 253e 5291 22be
000003f0: 0951 e8bc ff11 1ebd d9c6 2fbd 5c0a 423e

local_trans_pixel.layers.0.1.fn.fn.net.0.bias f4 [8]
-0.07351689 -0.20990002 0.13493016 0.11045059 0.0135904495 -0.054832898 -0.10266648 -0.14882867
00000000: 0690 96bd 08f0 56be 222b 0a3e eb33 e23d
00000010: 7aaa 5e3c 7698 60bd ce42 d2bd 8b66 18be

local_trans_pixel.layers.0.1.fn.fn.net.3.weight f4 [32, 8]
-0.10460874 -0.12470028 -0.0010994424 0.13843557 0.34629047 0.34461877 -0.3126073 0.14417742
0.11721384 0.2594712 0.11436341 -0.2927924 -0.24460575 -0.29633754 -0.07446884 -0.01765925
-0.069115736 -0.2910121 0.336317 0.36967918 -0.37517753 -0.30298615 -0.15624952 0.29126194
0.05317275 0.05631318 -0.21007982 0.3232346 -0.11144249 -0.043261293 0.25017098 0.17565513
0.10691469 0.2979435 -0.08004943 -0.07279071 0.22454031 0.22747603 0.10466108 0.3245315
-0.22981304 0.22233915 -0.25214007 0.26432344 -0.32085317 -0.34788346 -0.054286275 -0.08827328
0.18727201 -0.021179985 -0.016115258 -0.24387033 -0.20652805 0.34477708 -0.0051200916 -0.32863718
0.21236505 0.30544654 0.05226797 0.025681969 0.3669587 -0.19130404 0.19331497 0.25812846
0.12289503 -0.25284564 -0.30049813 0.14443617 0.3122192 0.034726627 0.1273867 -0.01724817
-0.16931957 0.29202747 -0.36258286 -0.16896114 0.35947618 0.10065514 -0.22012797 -0.084079094
-0.20695516 0.33316305 -0.34833595 0.15837003 0.08598335 0.384472 -0.29468971 -0.009674924
0.33237597 0.039778497 0.3154416 -0.00797984 0.1260782 -0.16913961 0.21554111 0.13698745
0.09465166 -0.10401309 0.29961675 0.34042293 0.38237408 0.39221457 -0.046534076 0.30797836
-0.02405529 0.21380271 -0.03623521 0.27419215 0.32015216 0.32283232 0.214988 0.23135675
0.12100681 0.066809945 -0.16865385 0.047161076 0.019457798 0.24962859 0.23120739 0.16720937
0.29169387 0.20542136 -0.26487458 -0.20194659 -0.32261083 0.11209979 0.27154267 -0.33541632
0.1530378 0.23274149 0.25859615 0.32280362 0.050608385 -0.20327468 -0.3090577 -0.096143045
0.19067015 -0.007863146 -0.10142264 -0.029148815 -0.32301414 -0.26040363 -0.11599225 -0.2282205
-0.031832416 -0.17760395 0.0008141716 -0.30544823 0.10003993 -0.32988745 0.27069438 0.1682009
0.14500959 0.18637758 0.19521561 0.03076417 0.024028508 -0.08089531 -0.012075968 0.300157
0.17681031 -0.086821534 0.30482197 0.3210332 0.08954762 -0.091745526 -0.028210755 0.40703008
0.41646585 -0.13295983 -0.26291665 0.034600794 0.037211075 0.3042252 0.033915415 -0.008707154
-0.12294341 0.18647453 -0.09336207 -0.14558336 0.1801198 0.22946021 -0.25987336 0.06005549
-0.29619834 0.25942206 -0.13851763 0.17215174 0.1882151 0.1985825 -0.21525703 0.17415611
0.0075552934 0.11454282 0.20360509 -0.22228721 -0.27279925 -0.2037281 0.32670304 0.3213518
-0.11435775 -0.069484964 -0.28989238 -0.07644314 0.27192342 -0.27445924 0.046062 -0.12793395
-0.22015017 0.044933006 0.2542267 -0.037448406 0.060305394 0.17438264 0.21564922 0.16032468
0.29517537 0.17129865 -0.18346022 -0.022330137 -0.06481704 -0.05130894 -0.25248504 -0.18266143
-0.17938243 0.18606101 -0.2083793 -0.19036186 -0.28506276 -0.17475173 -0.120731376 -0.03303279
0.2511235 -0.10273248 -0.24046639 0.26213336 0.078531176 -0.13831119 -0.21412261 -0.10034141
0.010404873 -0.12315265 0.071793385 0.06367358 0.021522358 0.19523296 0.14686629 0.044917297
0.35006633 0.09351922 -0.19884957 0.2617961 0.048988853 0.34490356 -0.24742141 -0.18181168
00000000: 1b3d d6bd dc62 ffbd 2a1b 90ba 0ec2 0d3e
00000010: fc4c b13e df71 b03e 100e a0be 3fa3 133e
00000020: cf0d f03d 69d9 843e 5d37 ea3d e3e8 95be
00000030: ee79 7abe 8eb9 97be 1f83 98bd 22aa 90bc
00000040: 8d8c 8dbd 8aff 94be be31 ac3e 9746 bd3e
00000050: 4517 c0be 0021 9bbe e0ff 1fbe 4920 953e
00000060: abcb 593d a6a8 663d 2a1f 57be 017f a53e
00000070: f63b e4bd c132 31bd 6916 803e f0de 333e
00000080: 17f6 da3d 0d8c 983e f5f0 a3bd 4c13 95bd
00000090: e5ed 653e 7aef 683e 8c58 d63d fe28 a63e
000000a0: 1c54 6bbe e0ac 633e 8118 81be 6755 873e
000000b0: de46 a4be c81d b2be 495b 5ebd 9fc8 b4bd
000000c0: 3cc4 3f3e a681 adbc 2504 84bc 25b9 79be
000000d0: 177c 53be 9f86 b03e 71c6 a7bb 2243 a8be
000000e0: 3976 593e 7d63 9c3e f016 563d fe62 d23c
000000f0: 03e2 bb3e 35e5 43be 5cf4 453e 6a29 843e
00000100: 64b0 fb3d fc74 81be e4da 99be 13e7 133e
00000110: 32db 9f3e 823d 0e3d a971 023e 094c 8dbc
00000120: 1c62 2dbe a084 953e 76a4 b9be 2604 2dbe
00000130: 430d b83e 4824 ce3d 3a69 61be a931 acbd
00000140: 0eec 53be 5994 aa3e 1759 b2be c12b 223e
00000150: 0a18 b03d 84d9 c43e 92e1 96be 9383 1ebc
00000160: 2f2d aa3e c7ee 223d 9081 a13e e0bd 02bc
00000170: a51a 013e ef32 2dbe cfb6 5c3e 7046 0c3e
00000180: bbd8 c13d d104 d5bd 5e67 993e ea4b ae3e
00000190: 89c6 c33e 59d0 c83e 849a 3ebd 57af 9d3e
000001a0: 990f c5bc 19ef 5a3e 5f6b 14bd ea62 8c3e
000001b0: fcea a33e 474a a53e d025 5c3e c9e8 6c3e
000001c0: 6bd2 f73d a7d3 883d 98b3 2cbe f92b 413d
000001d0: f665 9f3c a39e 7f3e a1c1 6c3e ef38 2b3e
000001e0: e658 953e fa59 523e a49d 87be 16cb 4ebe
000001f0: 3f2d a5be 9394 e53d a407 8b3e b0bb abbe
00000200: f1b5 1c3e c953 6e3e b766 843e 8446 a53e
00000210: bd4a 4f3d 3d27 50be d03c 9ebe a5e6 c4bd
00000220: 093f 433e 6dd4 00bc acb6 cfbd 7fc9 eebc
00000230: 1c62 a5be a053 85be 588d edbd a2b2 69be
00000240: b562 02bd cfdd 35be 226e 553a b663 9cbe
00000250: bce1 cc3d 02e7 a8be 7498 8a3e db3c 2c3e
00000260: 657d 143e c4d9 3e3e 9ae6 473e 2405 fc3c
00000270: 6fd7 c43c 71ac a5bd 48da 45bc 2eae 993e
00000280: c30d 353e 7dcf b1bd a011 9c3e 775e a43e
00000290: be64 b73d 14e5 bbbd 3e1a e7bc 3f66 d03e
000002a0: 033b d53e 9f26 08be 039d 86be 90b9 0d3d
000002b0: a46a 183d 68c3 9b3e e4ea 0a3d 73a8 0ebc
000002c0: c1c9 fbbd 2ef3 3e3e 9d34 bfbd ce13 15be
000002d0: 5371 383e 9ef7 6a3e 1f0e 85be bffc 753d
000002e0: 4fa7 97be f8d2 843e 91d7 0dbe 8c48 303e
000002f0: 76bb 403e 3659 4b3e 576c 5cbe fb55 323e
00000300: 6592 f73b 6d95 ea3d da7d 503e 429f 63be
00000310: 58ac 8bbe 199e 50be 9f45 a73e 3988 a43e
00000320: 6534 eabd 224e 8ebd c66c 94be 398e 9cbd
00000330: 8c39 8b3e ec85 8cbe 82ab 3c3d 1e01 03be
00000340: 0c6f 61be ac0b 383d 012a 823e 8063 19bd
00000350: ca02 773d 5d91 323e 26d3 5c3e 272c 243e
00000360: 3a21 973e ea68 2f3e ffdc 3bbe b1ed b6bc
00000370: ccbe 84bd 5329 52bd b845 81be 990b 3bbe
00000380: 07b0 37be c786 3e3e 6261 55be 38ee 42be
00000390: bff3 91be 1ef2 32be 0342 f7bd 644d 07bd
000003a0: 4293 803e 6865 d2bd d23c 76be 5836 863e
000003b0: f4d4 a03d 73a1 0dbe f542 5bbe cc7f cdbd
000003c0: 3379 2a3c 7537 fcbd 6908 933d 4b67 823d
000003d0: a84f b03c 26eb 473e 1e64 163e 33fb 373d
000003e0: e53b b33e 0187 bf3d 399f 4bbe 230a 863e
000003f0: 89a8 483d 3397 b03e 0a5c 7dbe d72c 3abe

local_trans_pixel.layers.0.1.fn.fn.net.3.bias f4 [32]
0.10877437 -0.057966504 -0.10560677 -0.0402272 0.15934466 -0.1316174 -0.25816754 0.27376285
-0.12834513 0.10559028 0.057345714 0.02466291 0.046116382 0.12695432 0.22535123 0.27027518
-0.25598714 -0.09210648 -0.14484787 0.24092749 -0.31609413 0.19773269 -0.12775521 -0.2971303
-0.3792749 -0.007949483 -0.28917247 -0.17680776 -0.15137729 -0.27001536 0.17402637 0.3010043
00000000: 19c5 de3d 496e 6dbd 5d48 d8bd 47c5 24bd
00000010: 3f2b 233e b6c6 06be 892e 84be a52a 8c3e
00000020: e86c 03be b73f d83d 57e3 6a3d df09 ca3c
00000030: 88e4 3c3d 5000 023e 79c2 663e 8261 8a3e
00000040: bf10 83be 52a2 bcbd 0053 14be b2b5 763e
00000050: 17d7 a1be 707a 4a3e 43d2 02be 7621 98be
00000060: 5230 c2be 8c3e 02bc 6a0e 94be 180d 35be
00000070: a602 1bbe 743f 8abe f833 323e 3c1d 9a3e

local_trans_pixel.layers.1.0.fn.norm.weight f4 [32]
1.0905315 1.104775 1.103519 1.067682 1.1576793 1.1153754 1.0754025 1.0650898
1.0877182 1.0854963 1.1009442 1.0879036 1.1361078 1.0690497 1.1015081 1.1054342
1.110709 1.1220969 1.1168065 1.073149 1.1005641 1.1696472 1.1052283 1.1140919
1.160144 1.1364104 1.0641809 1.1112261 1.1557256 1.0775814 1.1158224 1.0975075
00000000: 8996 8b3f 4469 8d3f 1c40 8d3f cea9 883f
00000010: d62e 943f 9fc4 8e3f caa6 893f dd54 883f
00000020: 5a3a 8b3f 8bf1 8a3f bdeb 8c3f 6d40 8b3f
00000030: fb6b 913f 9fd6 883f 38fe 8c3f de7e 8d3f
00000040: b62b 8e3f dfa0 8f3f 84f3 8e3f f25c 893f
00000050: 49df 8c3f 00b7 953f 1f78 8d3f 909a 8e3f
00000060: 997f 943f e575 913f 1437 883f a83c 8e3f
00000070: d1ee 933f 30ee 893f 45d3 8e3f 207b 8c3f

local_trans_pixel.layers.1.0.fn.norm.bias f4 [32]
0.021379234 0.07312722 0.04960476 0.04907271 -0.0144607965 -0.033036195 0.004802675 -0.021592246
0.030385239 -0.024745042 -0.08194363 -0.04112828 0.13347295 0.023358617 0.024218597 -0.044878595
0.019627625 -0.05684115 -0.01900213 0.06876387 -0.020969711 -0.10415909 -0.0019857548 -0.016446337
-0.17667729 -0.026564434 -0.029398786 -0.060736302 -0.054993324 -0.082325675 -0.01915969 0.09430167
00000000: 8123 af3c b9c3 953d 5c2e 4b3d 7700 493d
00000010: faec 6cbc f650 07bd c25f 9d3b 39e2 b0bc
00000020: 77ea f83c 1db6 cabc 10d2 a7bd 2176 28bd
00000030: 22ad 083e 925a bf3c 1466 c63c 9ed2 37bd
00000040: 1dca a03c 44d2 68bd 5baa 9bbc 12d4 8c3d
00000050: acc8 abbc 5c51 d5bd 7023 02bb 78ba 86bc
00000060: e4ea 34be a89d d9bc b9d5 f0bc a1c6 78bd
00000070: ae40 61bd 5d9a a8bd c8f4 9cbc 3c21 c13d
