src/res/GGCL/guided_contra_cross_transformer/Salinas/20/no unlabel same time ss/_1710755537.pth (torch, 940204 bytes, 59 tensors)

pixel_pos_embedding f4 [1, 170, 32]
0	0xbef9146d	-0.48648396
1	0x3f58a55c	0.8462732
2	0xbfa8b13e	-1.317909
3	0xbff4f417	-1.913699
4	0x3f535fc1	0.82567984
5	0xbfd418ac	-1.6570029
6	0xbe414518	-0.18874013
7	0x400c91a7	2.19639
8	0xbdfc7bc4	-0.12328294
9	0x3f96c4e8	1.1778841
10	0x3e29350c	0.16524142
11	0x3f660dcb	0.89864796
12	0x3f34bf6c	0.70604587
13	0xbe8e6036	-0.27807778
14	0xbe833654	-0.25627387
15	0x3f310c62	0.6915952
16	0x3ec3797f	0.38178632
17	0xbf0ad08f	-0.54224485
18	0x3f2d0b3a	0.67595255
19	0x3eab6f2e	0.3348326
20	0x3eff801f	0.49902436
21	0x3e7e91ec	0.24860352
22	0x3e62d906	0.221531
23	0x3f40ed9f	0.7536258
24	0xbeb9e6b8	-0.36308837
25	0xbf6934d6	-0.91096246
26	0xbfac65e4	-1.3468595
27	0xbf8cb8f4	-1.0993943
28	0x3ea17a96	0.31538838
29	0xbf04f016	-0.5192884
30	0x3fdc3ea9	1.7206622
31	0x3f5b219f	0.85598177
32	0x3eb9ba1b	0.362748
33	0x3ea6f2c8	0.32607102
34	0xbf5e5a9a	-0.86856997
35	0x3f9dcc4f	1.2327975
36	0xbf0fb196	-0.5613035
37	0x3fef3176	1.8686969
38	0xbec03583	-0.37540826
39	0xbf196079	-0.5991283
40	0x3e9915f2	0.29899555
41	0x3d94198b	0.072314344
42	0x3e9a81c9	0.30177143
43	0xbfaf2ed6	-1.3686168
44	0xbfa596c4	-1.2936635
45	0xbff1c02a	-1.8886769
46	0x3e99c955	0.30036417
47	0x3fac6693	1.3468803
48	0x3eea86fd	0.45806113
49	0x3f693b2b	0.9110591
50	0x3f4b015e	0.7929896
51	0xbfa4feca	-1.2890255
52	0xbf02d06b	-0.5109927
53	0x3e002e8f	0.1251776
54	0x3f7a371e	0.9774035
55	0xbf7e0c68	-0.9923768
56	0xbf4f8b02	-0.81071484
57	0x3ff02312	1.8760703
58	0xbfb56a9a	-1.4173157
59	0xbfe3f5c1	-1.7809373
60	0xbf4beb96	-0.7965635
61	0xbfb1a9c4	-1.3879933
62	0xbf47e8cb	-0.7808959
63	0xbf0deeda	-0.55442584
64	0x3f5cfcac	0.86323047
65	0x3f991964	1.1960874
66	0xc01bab66	-2.4323363
67	0x3e5d73ee	0.21626255
68	0xbf619e87	-0.8813252
69	0x3f80177b	1.0007166
70	0xbfc1ea3f	-1.5149611
71	0x3c22143a	0.009892518
72	0xbf4aed03	-0.792679
73	0x400f01af	2.2344778
74	0xbf1d66f6	-0.6148523
75	0x3f50a0f5	0.814956
76	0xbfbfcd7e	-1.4984586
77	0x3f135bdd	0.5756205
78	0x3fb23de7	1.3925141
79	0x404ef749	3.233843
80	0xbf0ab813	-0.54187125
81	0x3ed60a3d	0.41804686
82	0xbe52a41a	-0.20570412
83	0x3f0fdb81	0.5619431
84	0xbf53f614	-0.8279736
85	0x3efb79ed	0.4911646
86	0xbd441488	-0.047871143
87	0xbfb1eae4	-1.3899808
88	0xbee84400	-0.4536438
89	0xbed68078	-0.4189489
90	0xbfca6bcd	-1.5814148
91	0x3fd26642	1.6437457
92	0x3c745734	0.014913369
93	0x3ca5188b	0.020153305
94	0x3e16daed	0.14731951
95	0xbf9136aa	-1.1344807
96	0x3f65ff33	0.8984253
97	0xbf01797d	-0.50576
98	0xbeb82c60	-0.35971355
99	0x3e7b54e4	0.24544102
100	0x3d83e390	0.064398885
101	0xbf192c1a	-0.5983292
102	0xbbdac177	-0.006675895
103	0x3ed19da0	0.4094057
104	0x3f181ffa	0.5942379
105	0x3fb8a830	1.4426327
106	0xc01027e0	-2.2524338
107	0x3e54eb28	0.2079283
108	0xbf3203cf	-0.6953706
109	0xbe9106b4	-0.28325427
110	0x3e8794fc	0.26480854
111	0x3cefc99e	0.029270943
112	0xbf0d9ec6	-0.55320394
113	0xbdff05c0	-0.124522686
114	0xbf9ccd66	-1.2250183
115	0xbe994e01	-0.29942325
116	0xbe66cc5e	-0.22538897
117	0x3fad889b	1.3557314
118	0x403d96b1	2.9623225
119	0x3f9935d2	1.196955
120	0xbef2d2e7	-0.4742653
121	0xbf468528	-0.7754693
122	0xbfc4e8a5	-1.5383497
123	0xbf439a23	-0.7640707
124	0x3ea54751	0.32280973
125	0xbf7483e1	-0.9551373
126	0x3f3e6c5e	0.74384105
127	0xbeecad6c	-0.4622606
128	0xbf82b29e	-1.021076
129	0x3fb3fb1f	1.4061011
130	0xbf8eb449	-1.1148769
131	0x3e0dd15a	0.13849393
132	0x3fddda90	1.7332325
133	0xbea1bbe8	-0.31588674
134	0x3c972068	0.01844807
135	0x3f628556	0.88484704
136	0x3eaa9fbe	0.33325
137	0x3f81dfe3	1.014645
138	0xbfb38e32	-1.402777
139	0x3f5dfe2a	0.8671595
140	0x3e675480	0.22590828
141	0x3f1513b8	0.58233213
142	0xbfd866c7	-1.6906365
143	0x3e565a46	0.20932874
144	0x4029a249	2.65053
145	0x3e78abc0	0.24284267
146	0xc008bcd5	-2.1365254
147	0xbf7a5ac9	-0.9779478
148	0x3e593a1c	0.21213573
149	0xbf0f53c9	-0.5598722
150	0xbe11ce6f	-0.14238904
151	0x3f53f39c	0.82793593
152	0x3f5427b8	0.82873106
153	0xbfaa4be2	-1.3304408
154	0x3d34d8f9	0.044152234
155	0x3ed9237a	0.4240988
156	0xbfde7fc3	-1.738274
157	0x3f8f41be	1.1191938
158	0x3f3990e5	0.72486717
159	0x3fa08fd2	1.254389
160	0x3effbdb0	0.49949408
161	0xbf951f22	-1.1650126
162	0xbf36ff9c	-0.7148378
163	0x3fa9b010	1.3256855
164	0x3fc8582c	1.5651908
165	0x3e9e43fd	0.30911246
166	0xbea42c03	-0.32064828
167	0x3f6a823a	0.9160496
168	0xbe4bda74	-0.19907552
169	0xbea54c8f	-0.32284972
170	0x3fab6cb2	1.3392546
171	0x3e2904ea	0.16505781
172	0xbfbc663d	-1.4718701
173	0xbed9a458	-0.42508197
174	0xbff19c1b	-1.8875765
175	0xbf25da05	-0.64785796
176	0xbf024031	-0.508792
177	0x3f8bb985	1.0915991
178	0xbf8ff42b	-1.1246389
179	0x3dd0f470	0.10202873
180	0x3fb1caa0	1.3889961
181	0xbeb671de	-0.3563375
182	0x3f47cfa3	0.78051203
183	0x3ebc3ddf	0.36765954
184	0xbf5daf10	-0.8659525
185	0x3ed9df28	0.42553067
186	0x3f8de8c4	1.108666
187	0xbee3e121	-0.44507697
188	0xbe436d86	-0.19084749
189	0xbe2edaea	-0.17075697
190	0xbf3f059c	-0.74617934
191	0xbedf2541	-0.4358311
192	0x3fbab5a2	1.458668
193	0xbe3a94ae	-0.1822078
194	0x3ece45b8	0.40287566
195	0xbe523fa8	-0.20532095
196	0x3e5ac1cc	0.2136299
197	0x3f9eafa3	1.239735
198	0xbf7347dd	-0.9503153
199	0x3fff1b06	1.9930122
200	0x3eb40741	0.35161784
201	0xbf783f7d	-0.96971875
202	0x3fd19a17	1.637515
203	0xbfdf5a28	-1.7449389
204	0xbe11cabb	-0.14237492
205	0xbfc86f2f	-1.565893
206	0xbdd75d74	-0.10515872
207	0xbf7ecf22	-0.9953481
208	0x3cbb8118	0.022888705
209	0x3f0b4b42	0.5441171
210	0x3e186e2b	0.14885776
211	0x3fcbba75	1.5916277
212	0xbf17d9d7	-0.5931677
213	0x3e7b3398	0.245314
214	0xbfc004db	-1.5001482
215	0xbf39c94a	-0.7257277
216	0xbf36eb72	-0.7145301
217	0xbeae38cf	-0.34027717
218	0x3e88cc7d	0.26718512
219	0xbe8e6da2	-0.27818018
220	0xc02037d5	-2.5034077
221	0x3ec32c1c	0.3811959
222	0x40105c6a	2.2556405
223	0x3f82e114	1.0224938
224	0x3fb62384	1.4229589
225	0x3d4fa56f	0.05069488
226	0xbf161f0a	-0.5864111
227	0x3f5247ab	0.82140607
228	0x4016a775	2.3539708
229	0xbfd6144f	-1.6724948
230	0xbd4abae4	-0.04949464
231	0x3fd95c78	1.6981344
232	0xbe867708	-0.2626269
233	0xbf7573c1	-0.9587975
234	0xbf83e3a1	-1.0303842
235	0xbb453ef9	-0.003009735
236	0x3f887483	1.0660557
237	0xbe78cce6	-0.24296913
238	0xbffb64c5	-1.9640127
239	0x3e654165	0.22388227
240	0x3fb88fd0	1.4418888
241	0x3f57ffa0	0.8437443
242	0xbfb1457f	-1.3849334
243	0x3e4c1a47	0.19931899
244	0x3ef677cb	0.4813827
245	0x3eeae26a	0.45875865
246	0xbecf2c8a	-0.40463668
247	0x40124a58	2.2857876
248	0xbfc03364	-1.5015683
249	0x3fd3fc37	1.6561345
250	0x3e7c1c8b	0.24620263
251	0xbd15f6fd	-0.0366125
252	0x3fc7f3b7	1.5621251
253	0xbf5be7e1	-0.85900694
254	0x3ee57da3	0.44822416
255	0xbf351ab2	-0.7074386

cls_token_pixel f4 [1, 1, 32]
0	0x3efa02d8	0.48830295
1	0x3eaa918c	0.33314168
2	0xbfa456c6	-1.2838981
3	0x3fc150d6	1.5102794
4	0xbdf028a4	-0.117265016
5	0xbfda7887	-1.7068032
6	0xbfb776a6	-1.4333084
7	0xbe658a2c	-0.2241599
8	0xbf44cea0	-0.76877785
9	0xbf661b71	-0.8988562
10	0x3eccee53	0.40025577
11	0xbf36792e	-0.71278656
12	0xbf5a9e63	-0.8539793
13	0x3eee4f08	0.4654467
14	0x3f90abdd	1.1302449
15	0x3f18f51e	0.5974902
16	0x3ee5dde0	0.4489584
17	0x3f5eb59d	0.8699587
18	0x3e80682f	0.25079486
19	0x3d2fd0cb	0.04292373
20	0x3eb7e7a4	0.35918915
21	0x3f36ea45	0.71451217
22	0xbedb6cec	-0.42856538
23	0xbd135c2b	-0.03597657
24	0x3f2f55fc	0.68490577
25	0x3e6613f2	0.22468546
26	0xbf31771d	-0.6932238
27	0x3f213a6c	0.6297977
28	0x3f103423	0.56329554
29	0xbe8e072a	-0.2773984
30	0xbfffd6bc	-1.9987407
31	0xbf8add91	-1.0848867

pixel_patch_embedding.weight f4 [32, 30]
0	0xbdff87e2	-0.124770895
1	0xbb4ebe00	-0.0031546354
2	0x3e1ba860	0.15200949
3	0x3e026cc4	0.12736803
4	0x3c5cacc0	0.013468921
5	0x3d250c1c	0.04029475
6	0x3e101148	0.14069092
7	0xbda381c2	-0.07983734
8	0xbd45fea0	-0.048338532
9	0xbde6b4ac	-0.11264929
10	0xbd1e37a8	-0.038627297
11	0x3cf5d5c8	0.030009165
12	0x3e02119c	0.1270203
13	0x3e0a97aa	0.13534418
14	0x3dddaffc	0.10824582
15	0xbde1e062	-0.11029126
16	0xbde6dca8	-0.112725556
17	0x3dfc8464	0.12329939
18	0x3e1f8148	0.1557666
19	0x3c891188	0.016731992
20	0x3d3c72b0	0.046007812
21	0xbe23ab2c	-0.15983266
22	0xbd897f64	-0.06713751
23	0xb98b1a00	-0.00026531518
24	0x3e03c31e	0.128674
25	0x3dd2081c	0.10255453
26	0x3d5699a0	0.052392602
27	0x3d8c08b0	0.068375945
28	0x3cca1930	0.024670213
29	0x3d8e4218	0.069462
30	0xbe155d72	-0.14586428
31	0xbe2198aa	-0.15780893
32	0x3e35a55a	0.17738858
33	0xbccdfb08	-0.025144115
34	0xbd926755	-0.07148615
35	0x3deece70	0.116604686
36	0x3cec2920	0.028828204
37	0x3d5531ac	0.052049324
38	0xbe0d53e8	-0.13801539
39	0xbe2f21f3	-0.17102794
40	0x3dba3210	0.0909158
41	0x3e0613b8	0.1309346
42	0x3c09f840	0.008421004
43	0x3e094b50	0.13407636
44	0xbd10641c	-0.03525172
45	0x3e091720	0.13387728
46	0xbda5a785	-0.080885924
47	0x3da3241c	0.07965872
48	0xbda01370	-0.078162074
49	0xbdaf57f3	-0.08561697
50	0xba9ba080	-0.0011873394
51	0x3d13663c	0.03598617
52	0xbdb4e0a6	-0.08831911
53	0x3d9aae3c	0.07552764
54	0x3e263de8	0.16234553
55	0xbdd16a06	-0.102253005
56	0x3df25064	0.118317395
57	0xbdd30401	-0.10303498
58	0x3e2f7718	0.17135274
59	0xbdb45da6	-0.088069245
60	0xbdff6b62	-0.124716535
61	0xbe0a0607	-0.13478862
62	0x3c284950	0.010271385
63	0x3dc2e0f0	0.0951556
64	0xbc79d750	-0.015249088
65	0x3ca3ab00	0.019979
66	0x3e28c69c	0.16482013
67	0x3dd1d678	0.10245985
68	0x3e395966	0.18100509
69	0x3e324dea	0.17412534
70	0x3bf93b20	0.007605925
71	0xbdf90cfb	-0.12160679
72	0xbe0edaa4	-0.13950592
73	0xbd67d5bc	-0.056600317
74	0x3e060284	0.13086897
75	0x3e1f77f2	0.155731
76	0xbdf4c6e5	-0.119519986
77	0x3e1a4f10	0.15069222
78	0xbd839dcb	-0.06426581
79	0x3db83758	0.08994931
80	0x3e277170	0.16351867
81	0xbd4f8374	-0.050662473
82	0xbdac9fc3	-0.0842891
83	0xbd2f9538	-0.042866915
84	0xbdba878f	-0.09107887
85	0x3cbb0d10	0.022833377
86	0xbe036462	-0.12831262
87	0xbc8da440	-0.017290235
88	0xbd594fcc	-0.053054616
89	0xbdc1c831	-0.094620116
90	0xbe293bdc	-0.16526741
91	0xbc6af170	-0.01433979
92	0xbdc56bbb	-0.096396886
93	0x3daeae20	0.085293055
94	0x3e36efe8	0.17864954
95	0xbb4f8040	-0.0031662136
96	0x3dbbdec4	0.091733485
97	0x3cad7e78	0.021178469
98	0xbdb4768f	-0.08811676
99	0xbdfa6282	-0.1222582
100	0x3dd86e54	0.105679184
101	0xbdacfec8	-0.08447033
102	0xbc565650	-0.013082102
103	0xbe07d2bd	-0.13263984
104	0xbd6ac57c	-0.057317242
105	0xbd42f970	-0.047601163
106	0xbd1bb168	-0.038010985
107	0x3dd1cf14	0.10244575
108	0x3d3991a4	0.04530491
109	0x3da07570	0.078348994
110	0xbe0f7aa5	-0.14011629
111	0x3d049320	0.03236687
112	0xbdc2ad92	-0.09505762
113	0x3e00e3fc	0.12586969
114	0x3d910cac	0.07082495
115	0xbd023138	-0.03178522
116	0xbd9bb904	-0.07603648
117	0x3dd48230	0.10376394
118	0x3e38510a	0.17999664
119	0xbe08dd72	-0.13365725
120	0x3e0a837e	0.13526723
121	0xbe0aa04d	-0.13537712
122	0xbe178ff8	-0.14801013
123	0x3de808bc	0.11329791
124	0xbe25c83b	-0.16189663
125	0x3e369252	0.17829254
126	0xbdf3df9e	-0.11907886
127	0x3e263bc2	0.16233733
128	0x3e2155ae	0.1575534
129	0xbd94dd71	-0.07268799
130	0x3d4ce680	0.05002451
131	0xbdaac3c5	-0.08338121
132	0x3e15526c	0.14582223
133	0x3d0c7088	0.034287006
134	0x3d84c54a	0.064829424
135	0x3e070e62	0.1318908
136	0xbdf973da	-0.121803
137	0x3d6b09c8	0.057382375
138	0x3d3492b4	0.04408522
139	0x3e1b80ee	0.15185902
140	0xbcf22070	-0.029556483
141	0xbe298d70	-0.1655786
142	0x3c929528	0.017893389
143	0xbcc4f500	-0.024042606
144	0xbe0f7f70	-0.14013457
145	0xbde64f0f	-0.11245548
146	0xbe3333cb	-0.17500226
147	0x3deeefbc	0.116668195
148	0xbca62fd8	-0.020286486
149	0x3e0cd71a	0.1375393
150	0x3d37953c	0.044820055
151	0xbce12210	-0.027482063
152	0x3c9e8900	0.019352436
153	0xbdd84bfd	-0.105613686
154	0xbbfdfc60	-0.0077510327
155	0x3d2db804	0.04241182
156	0x3d329ca0	0.0436064
157	0xbe13d540	-0.14436817
158	0x3cd314f8	0.025766835
159	0x3bd762a0	0.0065730363
160	0xbe09a6ee	-0.13442585
161	0x3d81f9c4	0.06346467
162	0x3cebee38	0.028800115
163	0xbdab9895	-0.08378712
164	0xbc642460	-0.013924688
165	0xbe0dda98	-0.13852918
166	0xbe0320e9	-0.12805523
167	0x3a11c800	0.00055611134
168	0x3d25078c	0.0402904
169	0xbdfa1620	-0.12211251
170	0x3e370888	0.17874348
171	0x3e37b5e2	0.17940477
172	0xbdc4650d	-0.095895864
173	0x3c934e58	0.017981693
174	0xbe0c47fa	-0.13699332
175	0xbd8eff38	-0.06982273
176	0x3bacce80	0.00527364
177	0xbe1fbca8	-0.1559931
178	0x3df3d850	0.11906493
179	0x3d5609d8	0.05225548
180	0xbe11b640	-0.14229679
181	0xbe370ac2	-0.17875198
182	0x3e07cac0	0.13260937
183	0x3d247dbc	0.040158972
184	0x3e0b99ae	0.13632843
185	0xbd2bfc6c	-0.041988775
186	0x3e1f1f8e	0.15539381
187	0xbe3198a7	-0.17343388
188	0x3d19bbe0	0.037532687
189	0xbc764120	-0.015030175
190	0x3d952314	0.07282081
191	0x3ae03d00	0.0017108023
192	0xbc86ccd8	-0.016455099
193	0xbca34b10	-0.019933254
194	0x3ce8b240	0.028405309
195	0x3e0e4aa8	0.13895667
196	0xbcd55f30	-0.026046365
197	0xbc223ab0	-0.0099016875
198	0x3d883890	0.066514134
199	0x3d91ddc0	0.071223736
200	0xbdb0a6e2	-0.0862558
201	0xbe0e76f8	-0.1391257
202	0x3dc74614	0.09730163
203	0x3dcd9720	0.100385904
204	0xbd4ec124	-0.050477162
205	0x3d347f80	0.044066906
206	0xbdc72a4b	-0.097248636
207	0x3da3bb18	0.0799467
208	0x3d997d44	0.07494596
209	0xbe1e1df2	-0.1544111
210	0xbda894f7	-0.08231538
211	0x3e38ce7e	0.1804752
212	0xbc061000	-0.008182526
213	0x3e0b2486	0.13588151
214	0xbd66118c	-0.056169078
215	0xbdbc01ae	-0.09180008
216	0xbe035dd7	-0.12828766
217	0xbd9647b1	-0.07337893
218	0xbc85eab8	-0.016347274
219	0x3e1c9fa2	0.1529527
220	0xbdc71a6f	-0.09721839
221	0xbd8f2ae1	-0.069906004
222	0x3da68994	0.0813171
223	0xbe24c014	-0.16088897
224	0xbd4b6118	-0.049653143
225	0x3a501e00	0.00079390407
226	0xbd819c88	-0.06328684
227	0x3d527a30	0.05138606
228	0xbe1f035a	-0.15528622
229	0xbd5f95e4	-0.054586306
230	0x3e322d54	0.17400104
231	0x3d8248e8	0.06361562
232	0x3d4b2060	0.049591422
233	0xbc3ca990	-0.011515036
234	0xbded1f91	-0.115782864
235	0xbb984340	-0.0046466887
236	0x3e268a38	0.16263664
237	0xbdd3bac3	-0.10338356
238	0xbe275422	-0.16340688
239	0xbc9fce58	-0.019507572
240	0xbca41968	-0.020031646
241	0xbe3640fa	-0.17798224
242	0xbe359473	-0.1773241
243	0x3e0f1aa4	0.13975006
244	0x3e1f5c64	0.15562588
245	0x3e14aeec	0.14519852
246	0xbdcdca02	-0.100482956
247	0xbcfecbe0	-0.031103075
248	0x3d9dd9c4	0.07707551
249	0xbe0fa4b6	-0.14027676
250	0xbe20adc5	-0.15691288
251	0x3d19ed78	0.037579983
252	0xbe114cb3	-0.14189415
253	0xbdf8c0b6	-0.12146132
254	0xbdf19c64	-0.11797407
255	0xbdb3d4a4	-0.08780792

pixel_patch_embedding.bias f4 [32]
0	0x3e394f80	0.18096733
1	0xbd791c9e	-0.060818307
2	0xbd848d86	-0.06472306
3	0xbdd623d1	-0.1045605
4	0x3bf16700	0.007367015
5	0xbd577df0	-0.052610338
6	0xbd8a8cdc	-0.06765148
7	0x3af18b80	0.0018428415
8	0x3d850516	0.06495111
9	0xbe328dc3	-0.1743689
10	0xbe0a98ca	-0.13534847
11	0x3d2510fc	0.0402994
12	0x3d8ced58	0.06881207
13	0xbdf889f0	-0.121356845
14	0xbdfafb9f	-0.12255024
15	0xbbb06040	-0.0053825676
16	0x3bb68200	0.0055696964
17	0xbb7d0280	-0.0038606226
18	0x3cd1dce8	0.025618032
19	0xbd192550	-0.0373891
20	0xbe1c07e0	-0.15237379
21	0x3da7e0bc	0.081971616
22	0xbcfce358	-0.030870125
23	0xbe0cb212	-0.13739803
24	0x3c928110	0.017883807
25	0xbb8fa5c0	-0.0043837726
26	0xbe00a4d4	-0.12562877
27	0x3d90c098	0.07067984
28	0x3de24b78	0.11049551
29	0xbc8365c0	-0.01603973
30	0x3e263bb6	0.16233715
31	0xbd3633ac	-0.044482872

local_trans_pixel.layers.0.0.fn.norm.weight f4 [32]
0	0x3f7bb805	0.98327667
1	0x3f81c0e4	1.013699
2	0x3f885526	1.0650985
3	0x3f822e64	1.0170407
4	0x3f8753d3	1.0572456
5	0x3f8c4725	1.0959212
6	0x3f8557c7	1.0417413
7	0x3f8b8bd6	1.090205
8	0x3f891a85	1.0711218
9	0x3f8e0ce6	1.1097686
10	0x3f8eb184	1.1147923
11	0x3f8c38ef	1.0954875
12	0x3f83ae15	1.0287501
13	0x3f879ee3	1.0595363
14	0x3f83c327	1.0293931
15	0x3f870bf3	1.0550522
16	0x3f889549	1.0670558
17	0x3f8f4a30	1.1194515
18	0x3f8678d3	1.0505623
19	0x3f8a2c08	1.0794687
20	0x3f889796	1.067126
21	0x3f8459a9	1.0339862
22	0x3f8c3d5e	1.0956228
23	0x3f811bea	1.0086644
24	0x3f82edd3	1.0228828
25	0x3f8289d5	1.0198313
26	0x3f86eab9	1.0540382
27	0x3f8775c1	1.0582811
28	0x3f90df39	1.1318122
29	0x3f84685d	1.0344349
30	0x3f816a82	1.0110629
31	0x3f87eb7a	1.0618737

local_trans_pixel.layers.0.0.fn.norm.bias f4 [32]
0	0x3b18cfc8	0.0023317207
1	0xbc7578d4	-0.014982421
2	0xbbce8f66	-0.0063037155
3	0xbde3efb5	-0.11129705
4	0x3dc0d518	0.094156444
5	0xbe0f8bf0	-0.14018226
6	0xbd2ce515	-0.042210657
7	0x3e164a97	0.14676891
8	0x3d262a8e	0.040567927
9	0x3e1d429a	0.15357438
10	0xbb9540c1	-0.0045548384
11	0x3c8b0851	0.016971739
12	0x3d82f360	0.06394076
13	0x3d09b6a0	0.03362143
14	0x3ce98f3a	0.028510679
15	0x3e044952	0.12918594
16	0x3dcc06da	0.09962244
17	0xbe16ed62	-0.14738992
18	0xbcc9df20	-0.024642527
19	0x3dc6223f	0.09674501
20	0xbc12d1a3	-0.008961114
21	0x3cde9295	0.027169505
22	0x3da3375d	0.07969544
23	0x3d5a66b0	0.053320587
24	0xbdb6cf04	-0.08926204
25	0x3ddeb37b	0.10874077
26	0xbde8a568	-0.11359674
27	0x3c905eca	0.017623324
28	0x3db72e30	0.089443564
29	0xbd2dfe64	-0.042478934
30	0xbdafa9b1	-0.08577288
31	0x3db260b5	0.08709852

local_trans_pixel.layers.0.0.fn.fn.to_qkv.weight f4 [1536, 32]
0	0xbd171936	-0.036889277
1	0xbe394c10	-0.18095422
2	0x3e007f28	0.12548506
3	0x3e628a3f	0.22123049
4	0xbe00e0c8	-0.12585747
5	0x3e04b26e	0.1295869
6	0x3e18372d	0.14864798
7	0xbe4a8dc1	-0.19780637
8	0x3da674ad	0.08127723
9	0xbd9df8d6	-0.07713477
10	0x3e17ce66	0.14824829
11	0xbde09ec6	-0.10967784
12	0x3d169fc8	0.036773473
13	0xbde10be5	-0.10988597
14	0xbd7c8aee	-0.06165593
15	0xbd1a3f5a	-0.037658073
16	0xbbc9c44d	-0.006157434
17	0x3eb05639	0.34440783
18	0xbe223fa5	-0.15844591
19	0x3d66034b	0.056155484
20	0x3b4b3f40	0.0031013042
21	0x3dfb916d	0.12283597
22	0x3cee0959	0.029057192
23	0x3d1080c3	0.035279047
24	0x3c8bbc48	0.017057553
25	0x3ddcb475	0.10776607
26	0x3e509b15	0.20371659
27	0x3d9b037b	0.07569023
28	0xbe7dd2ca	-0.24787441
29	0x3dc90a40	0.09816408
30	0x3e062178	0.13098705
31	0x3e496c9a	0.19670334
32	0xbd858167	-0.06518822
33	0x3b4a0999	0.0030828475
34	0xbe0da5c3	-0.13832764
35	0xbea91754	-0.3302561
36	0x3dafd1f6	0.08584969
37	0xbe25a6e1	-0.1617694
38	0xbde2744b	-0.110573374
39	0xbe38ba2e	-0.18039772
40	0xbe813385	-0.2523462
41	0x3e015f10	0.1263392
42	0xbbeedef6	-0.0072897626
43	0x3e24fc12	0.16111782
44	0x3c6c0ada	0.014406884
45	0x3d2ec710	0.04267031
46	0x3bf9bc35	0.007621313
47	0x3c387bcd	0.011259985
48	0x3d347e65	0.04406585
49	0x3cdcc2e4	0.0269484
50	0x3de20c8a	0.11037548
51	0x3d3ecd03	0.046582233
52	0x3e1f2380	0.15540886
53	0xbdb94b12	-0.09047522
54	0xbe2dc24d	-0.16968651
55	0x3df671b5	0.12033407
56	0x3df6e0b8	0.120545805
57	0xbe0d0bee	-0.13774082
58	0x3ddd1f7c	0.10797021
59	0xbd80771c	-0.06272718
60	0x3d91d5d4	0.071208626
61	0x3e66d769	0.2254311
62	0x3d8bfcc5	0.06835321
63	0x3be82f54	0.00708572
64	0x3e48bbce	0.19602892
65	0x3d0fa525	0.035069603
66	0xbde2bfb2	-0.11071719
67	0x3cd672a2	0.026177708
68	0x3e2ed30a	0.17072693
69	0x3e6f1388	0.23347294
70	0xbd8effe7	-0.06982403
71	0x3e2fe956	0.17178854
72	0x3c636b5f	0.01388058
73	0x3e16a1ac	0.1471011
74	0xbd6c7591	-0.057729308
75	0x3c0fb8e2	0.008772107
76	0xbc9cd7f4	-0.019145943
77	0xbd196e59	-0.03745875
78	0xbe6c7be8	-0.23094141
79	0xbbcf4aff	-0.006326079
80	0xbd4b9b6b	-0.049708765
81	0xbda6691f	-0.08125519
82	0xbd85cec3	-0.06533577
83	0x3d53617c	0.05160664
84	0xbe5b4c66	-0.21415862
85	0x3e234886	0.15945634
86	0x3cccf31d	0.02501827
87	0xbd3422fb	-0.043978672
88	0xbd82d0a9	-0.06387455
89	0x3cd099b6	0.02546392
90	0x3d272158	0.040803283
91	0x3e454d12	0.19267681
92	0x3e281517	0.16414295
93	0x3d234d93	0.039868902
94	0x3e5aa78c	0.21352977
95	0x3dcd6867	0.10029679
96	0xbded6d68	-0.11593133
97	0xbe0123ba	-0.12611285
98	0x3e4b8b3a	0.1987733
99	0x3e4b51f2	0.19855478
100	0x3e537550	0.2065022
101	0x3ddb605a	0.10711737
102	0x3e3180ae	0.17334244
103	0xbe4903ba	-0.19630328
104	0xbdc50776	-0.09620564
105	0xbc0ef9dd	-0.008726564
106	0x3e253bc3	0.16136079
107	0xbe4b2ace	-0.19840547
108	0xbd755a6d	-0.05990069
109	0xbd85a0de	-0.065248236
110	0xbe1f1448	-0.1553508
111	0x3d865444	0.06559041
112	0xbdcdb949	-0.10045106
113	0x3dec724f	0.1154524
114	0x3dab697a	0.083697274
115	0x3e0188c4	0.12649828
116	0xbd224deb	-0.03962509
117	0x3e007bff	0.12547301
118	0xbd31627c	-0.043306813
119	0x3d1c35ca	0.038137235
120	0xbd00755f	-0.031361934
121	0xbdb44ef9	-0.08804125
122	0xbdee7055	-0.116425194
123	0x3dd40ef1	0.10354412
124	0x3e3a8c2d	0.18217535
125	0x3e1dc8fd	0.15408702
126	0x3d3722b6	0.044710837
127	0xbdbc160c	-0.091838926
128	0xbde87eec	-0.113523334
129	0xbd8f9ec0	-0.07012701
130	0xbe1da739	-0.15395822
131	0xbd983531	-0.074320205
132	0x3e2c5250	0.16828275
133	0xbdda1f59	-0.1065051
134	0xbe5bc3f4	-0.21461469
135	0x3e4736be	0.19454476
136	0x3e0a27bc	0.1349172
137	0x3ccb2593	0.02479819
138	0xbe13396b	-0.14377372
139	0xbdd64398	-0.10462111
140	0xbe28a34b	-0.16468541
141	0xbdc2b18a	-0.09506519
142	0x3e16376a	0.14669576
143	0x3dc0c9c3	0.09413483
144	0x3df97ca9	0.1218198
145	0xbdaed66a	-0.0853699
146	0x3e33d8a9	0.17563118
147	0x3de06d41	0.109583385
148	0x3e205c82	0.15660289
149	0x3e07feb3	0.13280754
150	0xbcd6642d	-0.026170814
151	0x3e631bb3	0.22178535
152	0x3d87b93a	0.06627126
153	0x3e20f787	0.15719424
154	0xbe3d2b0f	-0.18473457
155	0xbe3e9112	-0.18610027
156	0x3cfddb5f	0.030988393
157	0xbe72463a	-0.23659602
158	0x3cccb3ae	0.024988022
159	0xbdcc2a58	-0.09969014
160	0xbdfa1e52	-0.122128144
161	0x3db4fde7	0.088374905
162	0xbe3a8f51	-0.18218733
163	0xbebc3b17	-0.36763832
164	0xbce23fcf	-0.027618317
165	0xbebf3e13	-0.37352046
166	0xbe1f8567	-0.15578233
167	0x3e63af01	0.22234727
168	0xbe88943c	-0.26675594
169	0x3e552b42	0.20817283
170	0x3dab663f	0.08369111
171	0xbdd20d8a	-0.102564886
172	0xbcce4c1d	-0.025182778
173	0x3eba5fb0	0.3640113
174	0x3e5e1bf5	0.21690352
175	0x3ea6bd22	0.32566172
176	0x3e9d24ba	0.30692083
177	0xbc94e7d8	-0.018176958
178	0x3e99315e	0.29920477
179	0x3d85c69b	0.065320216
180	0xbcd97624	-0.026545592
181	0x3d2ea0f6	0.042633973
182	0xbdb34bb2	-0.08754672
183	0x3c7364d6	0.014855584
184	0xbe16d63d	-0.14730163
185	0xbe47b2f1	-0.19501854
186	0xbe9a3d2e	-0.301248
187	0xbd8a815e	-0.06762956
188	0xbd792fd6	-0.060836636
189	0x3d5d77e0	0.0540694
190	0xbd1202f4	-0.035647348
191	0x3d876246	0.06610541
192	0xbdb42736	-0.087965414
193	0x3e432e87	0.19060718
194	0x3d44d722	0.04805673
195	0x3e015a75	0.12632163
196	0x3e1efe9e	0.15526816
197	0xbe3f9d88	-0.18712437
198	0xbc7a553e	-0.015279112
199	0xbe516347	-0.20448028
200	0x3dfb6dfb	0.122768365
201	0xbe1bba95	-0.15207894
202	0xbe6dc14b	-0.23218267
203	0xbe08b856	-0.13351569
204	0x3e5f065e	0.21779773
205	0x3e01f8ee	0.12692615
206	0xbe05faed	-0.13084002
207	0xbd66866f	-0.05628055
208	0xbd742412	-0.05960471
209	0xbe3083cf	-0.17237781
210	0xbd68ad41	-0.056805853
211	0xbdc18630	-0.09449422
212	0x3e156549	0.14589418
213	0x3d762db0	0.060102165
214	0xbd7c22f6	-0.06155678
215	0xbd7738c2	-0.060356863
216	0x3d2669c2	0.040628202
217	0xbc4287f2	-0.011873232
218	0xbe86242a	-0.26199466
219	0xbd16a9e5	-0.036783118
220	0x3e18c6dc	0.14919609
221	0xbd1e8d6c	-0.03870909
222	0x3c837ee0	0.01605171
223	0xbdf3f050	-0.1191107
224	0x3df23657	0.11826771
225	0x3cdcf6ef	0.026973216
226	0x3dffe905	0.12495617
227	0x3d2178e7	0.039421942
228	0xbd489140	-0.048966646
229	0xbce3f58d	-0.027827049
230	0xbdc58ce2	-0.09646012
231	0x3e2514b1	0.16121174
232	0xbdc5b3eb	-0.09653457
233	0xbccd043d	-0.025026435
234	0xbe5c436d	-0.21510096
235	0xbe30676a	-0.1722695
236	0x3d8b400e	0.06799327
237	0xbdb8a224	-0.09015301
238	0xbd3aaca3	-0.045574795
239	0xbc5cc531	-0.0134747485
240	0x3e4ef57c	0.20210832
241	0x3d74e15d	0.059785236
242	0x3dd690cb	0.10476836
243	0xbd429788	-0.047507793
244	0xbc007d59	-0.007842385
245	0x3dc34ce0	0.09536147
246	0x3d288529	0.041142616
247	0x3dc7bfe9	0.09753401
248	0xbd5dd229	-0.054155502
249	0xbdb3e886	-0.08784585
250	0xbe79812e	-0.24365684
251	0xbdeb3ade	-0.114858374
252	0xbc78fe53	-0.015197354
253	0x3d9c95f5	0.076457895
254	0x3e02fda9	0.12792076
255	0x3e636cb0	0.2220943

local_trans_pixel.layers.0.0.fn.fn.to_out.0.weight f4 [32, 512]
0	0xbd7c46e6	-0.06159105
1	0xbc59ef27	-0.013301647
2	0xbdb6b662	-0.089215055
3	0x3c15f923	0.009153637
4	0xbd0aac23	-0.03385557
5	0xbd1d8bef	-0.03846353
6	0xbdae8e0d	-0.08523188
7	0xbd947c27	-0.07250243
8	0xbd4cd197	-0.050004568
9	0x3be290d3	0.006914237
10	0x3daf68b0	0.085648894
11	0x3daff862	0.08592297
12	0x3d7493db	0.05971132
13	0x3d05879c	0.03260003
14	0x3cf2d3b7	0.02964197
15	0x3c3c20c3	0.01148242
16	0x3cd20135	0.025635341
17	0xbd79236f	-0.060824808
18	0x3c554873	0.0130177615
19	0x3ca48645	0.020083556
20	0xbd11074e	-0.035407357
21	0x3d198e9c	0.03748952
22	0x3dd3c5ee	0.103404865
23	0x3dc451c8	0.09585911
24	0xbd93518c	-0.07193288
25	0x3d7c9fa0	0.061675668
26	0xbce322b4	-0.027726509
27	0x3cb0af88	0.021568075
28	0xbcaa7039	-0.020805465
29	0xbd62e037	-0.05538961
30	0xbd597351	-0.05308849
31	0x3d0d479c	0.03449212
32	0xbc1a007a	-0.009399528
33	0xbc0ad622	-0.008473905
34	0xbc872222	-0.016495768
35	0xbd9dde66	-0.07708435
36	0x3ca055f2	0.019572232
37	0xbd87ca32	-0.066303626
38	0x3d8f5c0a	0.06999977
39	0x3d8ed0a4	0.06973389
40	0x3c5fcf76	0.013660302
41	0xbda67bca	-0.0812908
42	0x3cde5f0e	0.027144935
43	0xbbe52fc8	-0.0069942214
44	0xbd874b1e	-0.06606124
45	0x3d0cfb8c	0.03441958
46	0xbd3f5749	-0.0467141
47	0x3d74577d	0.059653748
48	0x3d1837ea	0.0371627
49	0xbc36eb69	-0.011164525
50	0xbd7da333	-0.061923217
51	0xbd097e4a	-0.033567704
52	0xbd9ccf0b	-0.07656678
53	0xbc9a5184	-0.018837698
54	0x3ba012b2	0.004885041
55	0x3d04f5f4	0.03246112
56	0xba0677d9	-0.0005129553
57	0xbdbc7e81	-0.09203816
58	0xbd0d6be7	-0.03452673
59	0xbc887b77	-0.016660435
60	0x3c84e9e6	0.016224813
61	0xbd1f2668	-0.038854986
62	0x3cd0bbff	0.025480269
63	0x3da36e4e	0.07980023
64	0x3a8c7d52	0.0010718501
65	0xbd8fa01d	-0.07012961
66	0x3cd5260a	0.026019115
67	0xbd85847e	-0.065194115
68	0xbbfd9e82	-0.007739843
69	0xbd8095fd	-0.06278608
70	0x3d6f7674	0.058462575
71	0xbccc9951	-0.02497545
72	0xbd34cc31	-0.044140045
73	0xbdbc01b7	-0.091800146
74	0xbd88bde6	-0.06676845
75	0xbd66f56f	-0.056386407
76	0x3cd235cc	0.025660418
77	0xbd5ecc39	-0.05439398
78	0xbcb8fb6f	-0.02258083
79	0x3ddc1fca	0.10748251
80	0xbbbb5c93	-0.005717823
81	0x3dae8c96	0.085229084
82	0x3d52bd0c	0.05144982
83	0xbbad51d6	-0.0052892966
84	0xbd35aafe	-0.044352524
85	0x3c9b82d4	0.018983282
86	0xbc3ce967	-0.011530257
87	0xbc786ab0	-0.015162155
88	0xba9616a3	-0.0011450838
89	0xbccb2f69	-0.02480288
90	0xbd872eab	-0.06600698
91	0xbc1900d8	-0.00933858
92	0x3d8dc98a	0.06923206
93	0xbd0e7bd6	-0.034786068
94	0xbd57df8e	-0.052703433
95	0x3d71a4c5	0.058995027
96	0x3c880020	0.016601622
97	0xbc2e2484	-0.010628823
98	0x3cf0e173	0.029404378
99	0xbd975eff	-0.07391166
100	0x3947534d	0.00019009151
101	0x3cc637e3	0.02419657
102	0xbd18d502	-0.037312515
103	0xbc96d07e	-0.018409964
104	0xbd7e180c	-0.06203465
105	0xbd46c303	-0.04852582
106	0xbd7d9b9a	-0.06191597
107	0xbbbeae76	-0.005819137
108	0xba412f29	-0.0007369393
109	0xbb09516f	-0.002095308
110	0xbb040061	-0.0020141827
111	0xbc9a0a58	-0.01880376
112	0x3ce3d93d	0.027813548
113	0xbc30620f	-0.0107655665
114	0xba91a55d	-0.0011111904
115	0xbca3bfe7	-0.019988967
116	0xbadaa4f1	-0.0016681236
117	0xbd2727b9	-0.040809367
118	0x3d112d25	0.035443444
119	0x3b662688	0.0035118181
120	0xbd90a3c8	-0.07062489
121	0xbd5cd607	-0.05391505
122	0xbdb4baed	-0.08824716
123	0xbd327699	-0.043570135
124	0x3d496874	0.04917188
125	0x3e0b9f40	0.13634968
126	0x3da01dd3	0.078181885
127	0xbd52c7a6	-0.05145993
128	0xbb527479	-0.003211288
129	0x3ca03c30	0.01955995
130	0x3d340144	0.04394652
131	0x3d2aa309	0.04165939
132	0xbd4cf6d7	-0.050040092
133	0x3d149c20	0.036281705
134	0xbd3f3a46	-0.046686433
135	0x3c24212c	0.010017674
136	0x3d23bd69	0.039975557
137	0x3d765fa8	0.06014982
138	0x3d758005	0.059936542
139	0xbcf5c395	-0.030000487
140	0x3cf6bfc1	0.030120732
141	0xbc93e258	-0.018052265
142	0xbdcffe26	-0.10155897
143	0xbc4b14e1	-0.012395115
144	0xbd4dda1b	-0.05025683
145	0x3cf10413	0.029420888
146	0xbd568e71	-0.052381936
147	0x3d8dbdca	0.06920965
148	0xbd0510b1	-0.03248662
149	0xbd581356	-0.052752815
150	0xbd91d6a9	-0.07121021
151	0x3d36bca1	0.044613484
152	0x3c264a9b	0.010149623
153	0xbd7b3eef	-0.061339315
154	0x3cebb1eb	0.028771361
155	0x3bb74748	0.005593214
156	0xbdb9524d	-0.09048901
157	0xbdb6a1e0	-0.08917594
158	0x3d03e2ec	0.03219883
159	0x3d5005da	0.05078683
160	0x3ddfb3c1	0.10922957
161	0xbc0b5703	-0.008504632
162	0xbd2b9244	-0.041887537
163	0x3d8a66d6	0.06757896
164	0xbdb4aeec	-0.08822426
165	0x3d5c5a85	0.053797264
166	0xbc8b98f8	-0.017040715
167	0x3d158292	0.036501475
168	0x3d8bf5b8	0.068339765
169	0xbd34c159	-0.044129703
170	0xbd4db04c	-0.050216958
171	0xbd4e521d	-0.050371278
172	0x3dc261f5	0.0949134
173	0x3b1d9a50	0.0024048276
174	0xbb1238be	-0.0022311653
175	0x3bc1ed52	0.0059181834
176	0x3d2acd6c	0.04169981
177	0xbcae6ce3	-0.021292156
178	0xbcee1b24	-0.029065676
179	0x3d2f7ad7	0.04284176
180	0xbba69d9a	-0.0050847055
181	0xbdd65cb3	-0.104669
182	0x3d4d7376	0.05015894
183	0x3d0eb21c	0.034837827
184	0x3c667861	0.0140667865
185	0x3b06fcf4	0.002059755
186	0x3b6df9f1	0.0036312307
187	0xbc889da7	-0.016676737
188	0x3d17b0d3	0.037033867
189	0x3c944fca	0.018104453
190	0x3d20a284	0.039217487
191	0x3ce4844b	0.027895113
192	0xbc1577c6	-0.0091227945
193	0xbd939bcf	-0.072074525
194	0x3db41f36	0.087950155
195	0x3d07c2d4	0.033144787
196	0xbc6ec681	-0.014573694
197	0xbd19cc6b	-0.037548464
198	0x3d8047ca	0.06263693
199	0x3ccbf0fd	0.024895186
200	0xbd63ce23	-0.05561651
201	0x3c5d0a8a	0.013491282
202	0xbd226002	-0.03964234
203	0x3d915e6d	0.070980884
204	0xb9bac228	-0.00035621342
205	0x3ba9b908	0.005179528
206	0x3d541709	0.05177978
207	0x3c89940b	0.016794225
208	0x3d1902df	0.037356254
209	0xbc243c12	-0.0100240875
210	0xbb062543	-0.0020468987
211	0x3d573b7e	0.05254697
212	0xbd139aff	-0.036036488
213	0xbd6c0c8a	-0.057629146
214	0x3d1a9ed3	0.037749123
215	0x3cf567e6	0.02995677
216	0xbdb30f4b	-0.08743151
217	0xbcbca1ad	-0.023026312
218	0x3c992988	0.018696561
219	0xbd19f0c1	-0.037583116
220	0x3c2fd9e2	0.0107331
221	0x3d69797a	0.057000615
222	0xbc498b5d	-0.012301293
223	0xbce2f17b	-0.027703037
224	0x3dc47247	0.09592109
225	0xbd72f5b0	-0.059316337
226	0x3d1c86b6	0.038214408
227	0xbd296568	-0.041356474
228	0x3cfd1fd3	0.030898964
229	0x3d7dbbb9	0.061946604
230	0x3b648e13	0.0034874722
231	0x3c3a76b4	0.01138084
232	0x3d04d42e	0.032428913
233	0xbd371daf	-0.044706043
234	0x3ca32989	0.019917266
235	0x3d468156	0.048463188
236	0x3a93332d	0.0011230462
237	0xbc36b982	-0.011152627
238	0xbe020bee	-0.12699863
239	0x3d31d905	0.043419857
240	0xbc3545bd	-0.01106399
241	0x3912334f	0.00013942759
242	0x3dc0dc0e	0.09416972
243	0x3cd016a6	0.025401425
244	0x3dc8e420	0.098091364
245	0xbdbd37be	-0.092391476
246	0x3cb02111	0.021500142
247	0xbcaab69d	-0.02083903
248	0xbcd88d7d	-0.026434654
249	0x3d22aef4	0.03971763
250	0x3d3858c4	0.04500653
251	0x3c8be4fb	0.01707696
252	0xbd049799	-0.032371137
253	0x3bda02bc	0.006653158
254	0x3ceb3ea0	0.028716385
255	0x3d3bf1df	0.045884963

local_trans_pixel.layers.0.0.fn.fn.to_out.0.bias f4 [32]
0	0x3d24b807	0.040214565
1	0xbd960a11	-0.07326139
2	0x3c8efa7f	0.01745343
3	0xbd0717bf	-0.03298163
4	0x3d723b3f	0.059138533
5	0x3d92ba8a	0.07164486
6	0xbe02b755	-0.12765248
7	0x3e159f79	0.14611615
8	0x3d529777	0.05141398
9	0x3e4807f2	0.19534281
10	0xbd991bee	-0.0747603
11	0xba9143a7	-0.0011082784
12	0xbdba5ad7	-0.090993576
13	0x3c8d3d27	0.017241074
14	0xbc73dd7f	-0.014884352
15	0x3d41bdc4	0.047300115
16	0x3d7ddd82	0.061978824
17	0xbd92b6ce	-0.071637735
18	0xbbeb7c24	-0.0071864296
19	0x3da39bcc	0.079887
20	0xbd0e51ce	-0.034745984
21	0x3d958af7	0.07301896
22	0xbd342007	-0.043975856
23	0xbde13e21	-0.10998178
24	0x3ca0963e	0.019602891
25	0xbbae6590	-0.005322166
26	0x3dc7b07f	0.09750461
27	0x3dd38e7a	0.103299096
28	0xbde35377	-0.11099904
29	0xba632691	-0.00086651096
30	0xbe0447b8	-0.12917984
31	0xbd63def4	-0.055632547

local_trans_pixel.layers.0.1.fn.norm.weight f4 [32]
0	0x3f798cda	0.9748055
1	0x3f8163d8	1.0108595
2	0x3f787b6c	0.97063327
3	0x3f80640a	1.003053
4	0x3f80cb93	1.0062126
5	0x3f85032c	1.0391593
6	0x3f76d5c8	0.96419954
7	0x3f775505	0.96614105
8	0x3f78bfd9	0.97167736
9	0x3f793d2b	0.9735896
10	0x3f807b8c	1.0037704
11	0x3f7a696a	0.978171
12	0x3f81773d	1.0114514
13	0x3f7a57de	0.97790325
14	0x3f74658a	0.95467436
15	0x3f81fd56	1.0155437
16	0x3f862cb0	1.0482388
17	0x3f772a07	0.96548504
18	0x3f846e8e	1.0346239
19	0x3f83887e	1.0276029
20	0x3f807e36	1.0038517
21	0x3f861cdf	1.0477561
22	0x3f73e968	0.95278025
23	0x3f7b5a45	0.98184615
24	0x3f833c22	1.0252726
25	0x3f80a2d8	1.0049696
26	0x3f6800fb	0.90626496
27	0x3f8029ab	1.0012716
28	0x3f7a4121	0.9775563
29	0x3f8371ba	1.0269082
30	0x3f79ca61	0.9757443
31	0x3f6def32	0.9294311

local_trans_pixel.layers.0.1.fn.norm.bias f4 [32]
0	0xbd1c9978	-0.038232297
1	0x3bdefdf2	0.006805175
2	0x3d6b842c	0.057499096
3	0x3c209e74	0.009803403
4	0x3b1e41dc	0.0024148142
5	0xbdb710de	-0.08938764
6	0xbc87a65a	-0.016558815
7	0x3b27e74c	0.0025620041
8	0xbd125129	-0.03572193
9	0x3cda52fe	0.026650902
10	0xbcefc90e	-0.029270675
11	0x39da76e8	0.00041668792
12	0xbc8aa65d	-0.016925031
13	0x3d06128f	0.032732543
14	0xbcc215a1	-0.023691954
15	0x3c885d75	0.016646126
16	0x3c698689	0.014253267
17	0xbc2d8d91	-0.010592834
18	0x3cd6d14d	0.02622285
19	0x3cb3e71c	0.021960787
20	0x3de61d51	0.112360604
21	0x3d340482	0.04394961
22	0x3d9d25a9	0.07673199
23	0xbd55f93d	-0.052239645
24	0x3c518aed	0.01278947
25	0xbd291695	-0.0412813
26	0xbd288fde	-0.041152827
27	0x3e0e78ce	0.13913271
28	0xbba16b74	-0.0049261395
29	0x3c02cada	0.007982934
30	0xbb813016	-0.0039425
31	0x3cb626b8	0.02223526

local_trans_pixel.layers.0.1.fn.fn.net.0.weight f4 [8, 32]
0	0x3e1045a6	0.14089069
1	0x3e195026	0.1497198
2	0x3d0f66a1	0.035009984
3	0x3df6e91a	0.12056179
4	0xbe036d46	-0.12834653
5	0x3e45c288	0.19312489
6	0xbd891495	-0.06693379
7	0x3d6593cd	0.056049157
8	0x3d4ed5da	0.050496913
9	0xbe30dae8	-0.17271006
10	0x3e1f03f3	0.1552885
11	0xbe1a1b02	-0.15049365
12	0x3e01cf9f	0.12676857
13	0xbd44e6d6	-0.048071705
14	0xbd815022	-0.06314112
15	0xbd785bbe	-0.060634367
16	0xbe03d752	-0.12875107
17	0x3d2349e6	0.039865397
18	0xbe2d4c14	-0.16923553
19	0xbe48a172	-0.19592836
20	0xbdc9350c	-0.09824571
21	0xbe31dd7c	-0.17369646
22	0xbda0c661	-0.07850338
23	0x3d987f1c	0.07446119
24	0xbc7b58f2	-0.01534103
25	0x3db61fec	0.08892807
26	0xbb9d7fd5	-0.0048064985
27	0xbe07f58f	-0.13277267
28	0x3d58ccf9	0.052929852
29	0x3e303c55	0.17210515
30	0xbd8fc95e	-0.070208296
31	0xbd9f1054	-0.07766786
32	0xbe14bc36	-0.14524922
33	0xbe37fb6a	-0.17967
34	0x3e4d6d55	0.20061238
35	0x3cc9e44b	0.024644991
36	0x3e097914	0.13425094
37	0xbdbd5232	-0.09244193
38	0x3e50d8f4	0.20395261
39	0xbd913485	-0.070900954
40	0x3db93598	0.09043425
41	0xbe4c5139	-0.19952859
42	0xbe58df24	-0.21178871
43	0xbe48c1e2	-0.1960521
44	0x3cb5078b	0.022098323
45	0x3e1e77ff	0.15475462
46	0xbc028325	-0.007965838
47	0x3d4af96e	0.04955428
48	0x3d9c0e9b	0.07619973
49	0x3d1ff273	0.039049577
50	0xbd165fc9	-0.03671244
51	0x3e070ccf	0.1318848
52	0x3d53d3d7	0.051715698
53	0xbd35f50d	-0.04442315
54	0xbb549be7	-0.0032441558
55	0x3cf424be	0.029802676
56	0xbe5815fe	-0.2110214
57	0xbcf855cc	-0.030314349
58	0x3cf58418	0.029970214
59	0x3b2d6206	0.0026456132
60	0x3e3bcd42	0.18340018
61	0x3dcb1531	0.09916151
62	0xbdc08015	-0.0939943
63	0x3d842e8f	0.06454193
64	0xbb1a3345	-0.0023529094
65	0xbdee0dcb	-0.116237246
66	0x3e3f3bd7	0.18675171
67	0x3da57298	0.08078498
68	0xbded570e	-0.1158887
69	0xbd9c0a11	-0.076191075
70	0xbdb17f9f	-0.0866692
71	0x3bb4b848	0.005515132
72	0xbdae1679	-0.0850038
73	0xbd870f9c	-0.06594774
74	0xbdf64285	-0.12024406
75	0x3dd15270	0.10220802
76	0xbe831ef8	-0.25609565
77	0x3ddd7289	0.108128615
78	0xbdf09af6	-0.117483065
79	0x3d7a9930	0.061181247
80	0x3e6aa08d	0.22912808
81	0xbdcfadfc	-0.10140607
82	0xbcf4fe14	-0.02990631
83	0xbe214559	-0.1574911
84	0x3de027a2	0.10945059
85	0x3e36bb78	0.17844951
86	0x3dd2801d	0.10278342
87	0xbca892ed	-0.020577872
88	0xbde94294	-0.11389652
89	0x3bb32a04	0.005467655
90	0xbd5c0894	-0.05371912
91	0x3e233e36	0.159417
92	0x3cd9f2e0	0.02660507
93	0x3dcc56ba	0.09977479
94	0xbe36958f	-0.1783049
95	0x3e260e26	0.16216335
96	0x3d4e6931	0.050393287
97	0xbc700357	-0.014649234
98	0xbe115819	-0.14193763
99	0x3dccb5f7	0.099956445
100	0xbe501c89	-0.20323385
101	0x3e4b801a	0.19873086
102	0xbdfb07b5	-0.122573294
103	0x3dc1d939	0.0946526
104	0x3d1b8068	0.037964255
105	0x3cb84961	0.022495927
106	0x3d6844ee	0.05670636
107	0x3e1566d5	0.14590009
108	0xbdf4294a	-0.11921938
109	0x3d8dbc70	0.06920707
110	0x3d30252a	0.043004192
111	0x3d663169	0.056199465
112	0xbdee16c1	-0.11625434
113	0xbde295ca	-0.11063726
114	0xbe4af9df	-0.19821881
115	0x3ba028e0	0.004887685
116	0xbde06c2d	-0.10958133
117	0xbe3d349c	-0.184771
118	0x3d9fb118	0.0779745
119	0x3decd676	0.11564343
120	0xbc2a5d07	-0.010398156
121	0x3d677731	0.056510154
122	0x3c57a95a	0.013162935
123	0xbdab386f	-0.08360373
124	0xbd821f1b	-0.06353589
125	0x3deaf054	0.1147162
126	0x3cbf6fad	0.02336868
127	0x3da4f8ea	0.08055289
128	0x3c4c4edc	0.012469973
129	0xbd9e19ac	-0.0771974
130	0x3d1376e3	0.03600205
131	0xbdf51e93	-0.11968722
132	0x3e23ea0a	0.16007248
133	0x3e242718	0.16030538
134	0xbd57a277	-0.052645173
135	0xbdd90278	-0.10596174
136	0xbdc282fd	-0.0949764
137	0xba14e267	-0.00056794885
138	0x3d8b0274	0.06787577
139	0xbb7add38	-0.003827883
140	0x3cbd42d4	0.023103155
141	0xbda2811e	-0.079347834
142	0x3d98156b	0.0742596
143	0x3d07a957	0.03312048
144	0x3db046a8	0.086072266
145	0x3e104f36	0.14092717
146	0xbe37a350	-0.17933393
147	0xbe18fa09	-0.14939131
148	0xbe383383	-0.179884
149	0xba4e62be	-0.000787299
150	0xbdaaf361	-0.08347202
151	0xbd8157f5	-0.063156046
152	0x3bfc11c1	0.007692546
153	0x3e266196	0.16248164
154	0x3d580afd	0.052744854
155	0xbe1900ed	-0.1494176
156	0xbdf92554	-0.12165323
157	0xbc3fa368	-0.011696674
158	0xbcbc5fb1	-0.022994848
159	0x3dce7855	0.10081545
160	0xbe1f3f02	-0.1555138
161	0x3e116124	0.14197212
162	0xbc0902bc	-0.008362468
163	0xbe289773	-0.16464023
164	0x3d955dd2	0.072932854
165	0x3e2d4acf	0.16923068
166	0x3df75e16	0.12078492
167	0x3d2fbbdd	0.04290377
168	0xbe012371	-0.12611176
169	0xbde40a44	-0.111347705
170	0x3d5a383a	0.053276278
171	0x3deef310	0.11667454
172	0xbde0184f	-0.109421365
173	0x3d86ebf6	0.06587975
174	0x3d8a5082	0.06753637
175	0x3cbedff7	0.023300154
176	0xbd16af7d	-0.036788452
177	0xbca3c302	-0.019990448
178	0xbd72e09e	-0.059296243
179	0x3e1ab183	0.15106778
180	0xbd979c90	-0.07402909
181	0xbe0d3b0d	-0.13792057
182	0xbdc81336	-0.09769289
183	0x3e4c0ae3	0.19926028
184	0xbdabfaec	-0.08397469
185	0xbc1938c6	-0.009351915
186	0x3d535a26	0.051599644
187	0xbe0b2307	-0.1358758
188	0x3bce7a7f	0.0063012238
189	0xbcde14f0	-0.027109593
190	0x3dda2d86	0.10653214
191	0xbe27b1c9	-0.16376413
192	0x3e245bd7	0.16050659
193	0xbdcc208c	-0.09967145
194	0xbe03e5e0	-0.12880659
195	0x3dbdef7e	0.09274195
196	0xbe0b12c7	-0.13581382
197	0x3e17d53c	0.14827436
198	0x3e02d8f0	0.12778068
199	0x3d326425	0.043552537
200	0x3de61ada	0.1123559
201	0xbc2fdf5e	-0.010734407
202	0xbd9dd812	-0.07707228
203	0x3dfebfd4	0.12438932
204	0xbd445b21	-0.04793847
205	0xbb8ef5d7	-0.0043628025
206	0xbe1177b1	-0.14205815
207	0xbe099e66	-0.1343933
208	0x3d86ef81	0.065886505
209	0xbe18f9e6	-0.14939079
210	0x3e1952fd	0.14973064
211	0xbe478ed4	-0.19488078
212	0xbde790ff	-0.11306953
213	0x3c9ba9a2	0.019001786
214	0x3c8767ce	0.01652899
215	0x3dbdf19d	0.092746
216	0xbe1435c2	-0.14473632
217	0xbdec8fdf	-0.11550879
218	0xbd4460de	-0.047943942
219	0xbdf1c84a	-0.1180578
220	0x3db9ff05	0.09081844
221	0xbda95a12	-0.08269133
222	0xbd40ab09	-0.04703811
223	0xbdaa758c	-0.083232015
224	0xbd5954d7	-0.053059425
225	0xbc832c50	-0.01601234
226	0x3cfec143	0.031098014
227	0x3deb9368	0.11502725
228	0x3a73f576	0.0009306291
229	0x3e1c6760	0.1527381
230	0xbd5dd868	-0.05416146
231	0x3c439be5	0.011939024
232	0x3e2d14fa	0.16902533
233	0xbe0a91f0	-0.13532233
234	0xbd2910b4	-0.041275695
235	0xbe005131	-0.12530972
236	0x3c21f570	0.009885177
237	0xbd04f39d	-0.03245889
238	0xbd99c169	-0.07507593
239	0x3e3756bc	0.1790418
240	0x3da19ebf	0.078916065
241	0x3e301bee	0.17198154
242	0x3d7cf351	0.061755482
243	0xbc8a5919	-0.016888188
244	0xbe397c24	-0.18113762
245	0x3e48ddaf	0.19615816
246	0xb925efe2	-0.0001582499
247	0x3e0af61b	0.13570444
248	0x3c1bc3b4	0.0095071085
249	0x3d49db04	0.049281135
250	0x3d2c3563	0.0420431
251	0xbe08f9b1	-0.133765
252	0x3d68bad2	0.05681879
253	0xbe2f7e94	-0.1713813
254	0xbe139383	-0.1441174
255	0x3bf00d30	0.007325791

local_trans_pixel.layers.0.1.fn.fn.net.0.bias f4 [8]
0	0x3e20a3f5	0.15687545
1	0xbde22cf8	-0.11043733
2	0x3d1c06c0	0.038092375
3	0xbce880ec	-0.028381787
4	0xbc952bae	-0.018209305
5	0xbdc0008a	-0.09375103
6	0x3db82dfe	0.08993147
7	0x3e011cc6	0.12608632

local_trans_pixel.layers.0.1.fn.fn.net.3.weight f4 [32, 8]
0	0x3e35ff27	0.17773114
1	0xbe452e01	-0.1925583
2	0xbe31a862	-0.17349389
3	0xbe819e75	-0.25316206
4	0xbe4ca744	-0.19985682
5	0x3e62e6ba	0.22158328
6	0xbdebaf8a	-0.11508091
7	0xbda97659	-0.08274526
8	0xbe148e5c	-0.14507431
9	0xbe8c062f	-0.27348468
10	0x3d66f07e	0.056381695
11	0x3e9957ba	0.29949743
12	0x3e09d30e	0.13459417
13	0x3e2aee8d	0.16692562
14	0x3e44d830	0.19223094
15	0xbea951ee	-0.3307032
16	0xbe2d9ec3	-0.16955094
17	0xbdd4dd3a	-0.10393758
18	0xbe15e555	-0.14638264
19	0xbe05b007	-0.1305543
20	0x3e344896	0.17605814
21	0xbdf6bed1	-0.12048114
22	0xbe69bbc3	-0.22825532
23	0x3e4bbada	0.19895497
24	0xbe927f46	-0.28612727
25	0x3e72127b	0.23639862
26	0xbe012171	-0.12610413
27	0x3d18dabb	0.037317973
28	0xbe0976c3	-0.1342421
29	0x3e735b38	0.23765266
30	0xbb89e70c	-0.004208451
31	0xbe929b68	-0.2863419
32	0x3e9ce207	0.30641195
33	0xbc3afced	-0.011412841
34	0x3e403a41	0.18772222
35	0x3e0ac627	0.13552152
36	0xba7a27f4	-0.00095426966
37	0x3df7f28f	0.12106811
38	0x3e264c86	0.16240129
39	0x3e5183f1	0.20460488
40	0x3e90e747	0.2830145
41	0xbe3f63ff	-0.18690489
42	0x3cabc7b3	0.020969247
43	0xbdbf6ae2	-0.09346558
44	0x3ea81a8c	0.32832754
45	0x3dd46714	0.10371223
46	0xbd47ce7a	-0.048780896
47	0xbe0036ff	-0.1252098
48	0x3dc80855	0.09767214
49	0xbd03dff2	-0.032195993
50	0xbe6aaf7d	-0.22918506
51	0xbe3c52ae	-0.18390915
52	0x3e3bda78	0.18345058
53	0x3e23d8a6	0.16000614
54	0x3c037906	0.00802446
55	0x3e30fc20	0.17283678
56	0xbe6c89a7	-0.23099385
57	0xbda08869	-0.07838518
58	0x3ebb2894	0.36554396
59	0x3dd51b1a	0.1040556
60	0x3e06c202	0.13159946
61	0x3e2ff0b5	0.17181666
62	0x3ecdee6d	0.40220967
63	0xbe4b9a17	-0.19883
64	0xbdf2d4e3	-0.11857011
65	0x3e256274	0.16150838
66	0xbcc3be29	-0.023894386
67	0x3dfcdaa8	0.12346393
68	0xbe99a679	-0.3000982
69	0xbe4de15b	-0.20105498
70	0x3e343010	0.1759646
71	0xbe6f4e89	-0.23369803
72	0xbdd5850b	-0.104257666
73	0x3e8b3d6f	0.27195308
74	0x3df775f8	0.12083048
75	0x3c957144	0.018242486
76	0xbd623bec	-0.055232927
77	0xbd8b991d	-0.068163134
78	0xbe253fe5	-0.16137655
79	0x3eb404ed	0.35160008
80	0x3dafa26d	0.08575902
81	0xbe3b5e7a	-0.18297759
82	0xbdfe7584	-0.12424758
83	0x3e195e45	0.14977367
84	0x3cf36ff2	0.029716466
85	0x3ea2d34d	0.31801835
86	0x3de9d492	0.11417498
87	0xbe1f0f6f	-0.15533231
88	0xbc2a8188	-0.010406859
89	0xbd4a3d43	-0.04937483
90	0x3d13efbc	0.0361173
91	0xbe2f4292	-0.17115238
92	0xbea8b51d	-0.32950678
93	0x3daf9ed0	0.08575213
94	0xbea0a52d	-0.3137602
95	0xbe86824e	-0.2627129
96	0x3e4effc0	0.20214748
97	0xbcc50754	-0.024051346
98	0xbe3472c2	-0.17621902
99	0xbe8200a7	-0.25391123
100	0x3dfd195e	0.12358354
101	0x3d7297df	0.059226867
102	0xbe8d4cbb	-0.27597603
103	0xbddd1fa2	-0.10797049
104	0xbd5aa17e	-0.053376667
105	0x3e1f1649	0.15535845
106	0xbe50282a	-0.20327821
107	0xbd9db36c	-0.07700238
108	0x3e5646ea	0.20925489
109	0xba05fe66	-0.00051114557
110	0x3da854b9	0.082192846
111	0xbecc87e7	-0.39947435
112	0x3e2fa463	0.17152552
113	0x3e1d6282	0.15369609
114	0xbdbd99c9	-0.09257848
115	0x3e910711	0.28325704
116	0xbe95c0a0	-0.29248524
117	0xbdacd983	-0.084399246
118	0xbe397852	-0.18112305
119	0xbe81adb5	-0.2532784
120	0x3e58c4ca	0.21168819
121	0x3d83bc3f	0.064323895
122	0x3e5761d2	0.21033409
123	0x3e004d84	0.1252957
124	0xbe663bef	-0.224838
125	0x3e8bf148	0.2733252
126	0x3e84289c	0.25812232
127	0x3e9124e6	0.28348464
128	0xbec31f3e	-0.38109773
129	0xbe59e74d	-0.2127964
130	0x3d594542	0.053044565
131	0xbdc871e2	-0.097873464
132	0xbd656780	-0.05600691
133	0xbdbd7377	-0.09250539
134	0x3da30ad8	0.07961053
135	0x3e0c2d05	0.13689049
136	0xbd927dcf	-0.07152902
137	0x3e8e989c	0.27850807
138	0x3e7c37fe	0.24630734
139	0x3eaa95c5	0.3331739
140	0xbeacc8e2	-0.3374701
141	0x3dddc212	0.108280316
142	0xbda578bf	-0.08079671
143	0xbe0c8592	-0.13722828
144	0x3d8b0e27	0.06789809
145	0xbc65ad32	-0.014018344
146	0x3c35b255	0.011089881
147	0xbe0195bf	-0.1265478
148	0x3e864164	0.26221764
149	0xbde15418	-0.11002368
150	0xbe89ce3f	-0.26915166
151	0x3ea94b09	0.3306506
152	0x3aff9cfe	0.0019501743
153	0x3e87abcc	0.26498258
154	0x3e1c0d89	0.15239538
155	0xbe2b242b	-0.16713016
156	0x3e19c062	0.15014794
157	0x3da5ba75	0.080922045
158	0x3e9ab2bb	0.30214486
159	0x3d6d34c0	0.057911634
160	0x3d41fc98	0.047360033
161	0xbe60340c	-0.21894854
162	0xbea17d2c	-0.3154081
163	0xbe72c493	-0.237078
164	0xbd432734	-0.04764481
165	0x3d8a69e7	0.067584805
166	0x3cf4260a	0.029803295
167	0x3cab334b	0.020898482
168	0xbcb4b75f	-0.022060094
169	0xbbc28e94	-0.005937407
170	0x3e8c9702	0.2745896
171	0x3e8a3585	0.26993957
172	0xbde2a982	-0.11067487
173	0x3dc0c0b2	0.09411754
174	0x3e6905cd	0.22756119
175	0x3e7b47d1	0.24539115
176	0xbe80ef7e	-0.25182718
177	0xbe82ccdc	-0.2554692
178	0xbd8e08a5	-0.069352426
179	0xbe52183e	-0.2051706
180	0x3daad95c	0.08342239
181	0xbebe9f42	-0.3723088
182	0x3e1d05b9	0.15334214
183	0x3e7a7d34	0.24461824
184	0x3e06be7d	0.13158603
185	0xbea88f52	-0.32921845
186	0xbe94cdc3	-0.29063234
187	0x3d9d2923	0.07673862
188	0xbb922540	-0.004460007
189	0xbe878ec7	-0.26476118
190	0x3ea2839e	0.3174104
191	0xbe1cbdd0	-0.15306783
192	0x3d976f97	0.07394331
193	0x3df2e274	0.11859599
194	0x3e7a05c3	0.2441626
195	0x3db10f45	0.086454906
196	0x3e5d21b8	0.21594894
197	0xbe28911a	-0.16461602
198	0x3e94636b	0.289821
199	0x3de3742b	0.11106142
200	0x3e5ed409	0.21760572
201	0xbe8aeedd	-0.27135363
202	0xbd90da76	-0.07072918
203	0x3e0c52dd	0.13703485
204	0xbe60083f	-0.21878146
205	0x3e18c0f2	0.14917353
206	0xbe569426	-0.20954952
207	0x3e98f00d	0.29870644
208	0xbd009572	-0.031392522
209	0x3e7a8faf	0.24468873
210	0xbe2c96ea	-0.16854444
211	0xbe8e08d3	-0.27741107
212	0x3e24d7d7	0.16097961
213	0xbe80dd6f	-0.2516894
214	0xbe3e41ff	-0.18579863
215	0xbe80d719	-0.25164106
216	0x3c9f2192	0.019425187
217	0xbdb2f06f	-0.08737265
218	0xbe66a58e	-0.22524092
219	0x3e8519ad	0.25996152
220	0x3e73eab2	0.23819998
221	0xbe6c5f58	-0.23083246
222	0x3e4f84d3	0.20265512
223	0x3d1bec35	0.03806706
224	0xbe6ee484	-0.2332936
225	0xbb330045	-0.0027313393
226	0xbe095b46	-0.13413724
227	0x3ea16aa5	0.31526676
228	0xbb9e92c0	-0.0048392713
229	0xbdac4994	-0.084124714
230	0x3e8c07af	0.27349612
231	0xbe69d1f8	-0.22834003
232	0xbe09b90f	-0.134495
233	0xbea32fef	-0.31872508
234	0xbd1950c5	-0.037430543
235	0x3e94bf11	0.29052022
236	0xbe8ca1cd	-0.27467194
237	0xbd981900	-0.07426643
238	0xbeaa4976	-0.3325917
239	0x3e8b3a43	0.27192888
240	0x3df9666c	0.121777385
241	0xbdbfb82e	-0.09361301
242	0xbd4a1364	-0.0493349
243	0x3ead5fa1	0.33862022
244	0xbe17b40e	-0.14814779
245	0xbe68601d	-0.22692914
246	0x3d2df90d	0.04247384
247	0x3e80287e	0.25030893
248	0xbe9c921c	-0.30580223
249	0x3d3277b0	0.043571174
250	0x3e10c029	0.14135803
251	0xbe85d24e	-0.26137012
252	0x3e754d30	0.23955226
253	0x3cda9c97	0.026685996
254	0xbe509e01	-0.20372774
255	0x3d99854d	0.07496128

local_trans_pixel.layers.0.1.fn.fn.net.3.bias f4 [32]
0	0x3e9b3c6d	0.3031954
1	0xbecc26be	-0.39873308
2	0x3e01f0ae	0.12689468
3	0xbe28b706	-0.16476068
4	0x3c1e9ead	0.009681386
5	0x3ed230ac	0.4105276
6	0xbe9c6a8d	-0.30550042
7	0x3ed85786	0.42254275
8	0x3da7002f	0.08154332
9	0x3e3a3078	0.18182552
10	0xbe990de2	-0.29893404
11	0x3d0db863	0.034599673
12	0x3db2490b	0.08705338
13	0xbdb17e62	-0.08666684
14	0x3df1ee29	0.118130036
15	0xbd64cbea	-0.05585853
16	0xbdac274f	-0.08405935
17	0xbb3a5614	-0.0028432654
18	0x3e07c5a9	0.13258995
19	0xbd39ace7	-0.04533091
20	0xbe2bac1b	-0.16764872
21	0xbea0f87f	-0.31439587
22	0xbdd1a974	-0.10237399
23	0x3de5b0d3	0.11215367
24	0xbe56d8b0	-0.20981097
25	0xbd7f9249	-0.062395368
26	0x3ea64d6e	0.3248095
27	0x3e8dbadb	0.27681622
28	0xbebf3eb3	-0.37352523
29	0xbe5dab04	-0.21647269
30	0xbdfe37af	-0.124129646
31	0xbe989d65	-0.29807582

local_trans_pixel.layers.1.0.fn.norm.weight f4 [32]
0	0x3f833c46	1.0252769
1	0x3f82c7de	1.0217245
2	0x3f84b60f	1.036806
3	0x3f85bdb9	1.0448524
4	0x3f82cd88	1.0218973
5	0x3f86d6cb	1.05343
6	0x3f8cf50b	1.1012281
7	0x3f8e37b2	1.1110747
8	0x3f882bd0	1.063837
9	0x3f8ecd1c	1.1156344
10	0x3f879f22	1.0595438
11	0x3f81d271	1.0142347
12	0x3f820fc9	1.0161067
13	0x3f88bfa7	1.0683488
14	0x3f839c0f	1.0282
15	0x3f8a0c41	1.078499
16	0x3f8bfa1a	1.09357
17	0x3f8a77cd	1.081781
18	0x3f818eb9	1.012168
19	0x3f8a5574	1.0807328
20	0x3f8bf5fa	1.0934441
21	0x3f86dd66	1.0536315
22	0x3f886eff	1.0658873
23	0x3f85cb95	1.0452753
24	0x3f856419	1.0421172
25	0x3f840667	1.0314454
26	0x3f851f52	1.0400183
27	0x3f8ca29c	1.0987124
28	0x3f8a384c	1.079843
29	0x3f7c533c	0.98564506
30	0x3f8a5f6e	1.0810373
31	0x3f83463d	1.025581

local_trans_pixel.layers.1.0.fn.norm.bias f4 [32]
0	0x3dad0cd2	0.08449711
1	0xbd8b158d	-0.0679122
2	0xbbd23c90	-0.006415911
3	0xbe085702	-0.13314441
4	0x3dd3baa2	0.10338332
5	0x3cf57c88	0.029966608
6	0xbe2a881a	-0.16653481
7	0x3e47ee18	0.1952442
8	0x3da17c82	0.07885076
9	0x3e4a5bda	0.19761601
10	0xbda5b446	-0.08091025
11	0xbd13bd7c	-0.03606938
12	0xba452cb5	-0.00075216155
13	0xbc9b9661	-0.018992605
14	0x3df1de79	0.118100114
15	0x3d859935	0.065233625
16	0x3d14c224	0.03631796
17	0xbe067a87	-0.13132678
18	0x3dab36de	0.083600745
19	0x3debd596	0.11515348
20	0x3d9ce238	0.07660335
21	0xbd759ccc	-0.059963986
22	0xbe2b39bb	-0.16721241
23	0x3c55699e	0.013025669
24	0x3d045a77	0.032312836
25	0xbd8ac4d9	-0.06775827
26	0xbbb2ea1a	-0.005460036
27	0x3df9799f	0.121814005
28	0xbdfb240e	-0.12262736
29	0xbe09a339	-0.13441171
30	0xbe2b703e	-0.16742036
31	0xbdff4141	-0.12463618
