src/res/GGCL/guided_contra_cross_transformer/Salinas/20/no unlabel same time ss/_1710754324.pth (torch, 940204 bytes, 59 tensors)

pixel_pos_embedding f4 [1, 170, 32]
000000 82 0f 8a bf d3 5e 96 3f 00 30 77 bf 04 c6 88 3f
       -1.0785983 1.1747688 -0.9655762 1.068543
000010 5d 9e 6a 3e 75 91 04 c0 a1 ab 2c 3e 4d ed 5d bf
       0.22911973 -2.071378 0.16862346 -0.8669022
000020 00 b1 b3 bf 69 71 5d 3f ae cd 39 be 31 96 fd bf
       -1.4038391 0.86501175 -0.18144867 -1.981146
000030 01 27 ad 3f 19 2a 9b bf b1 37 9c 3f 76 e5 43 be
       1.3527528 -1.2122222 1.2204496 -0.19130501
000040 73 62 99 be 26 03 e2 3e 39 7c ac 3d db 04 81 bf
       -0.29957923 0.44143027 0.08422131 -1.0079607
000050 7c ef 90 3e cd fc 21 bf 97 62 2e 3e 9f 29 cd be
       0.28307712 -0.6327637 0.17029797 -0.40070817
000060 55 c2 be bd 5b 60 21 bf 91 13 5e bf b3 cb 41 3e
       -0.0931441 -0.6303765 -0.86748606 0.18925361
000070 ec dd ca be 4e 7f 48 3e 7a 9f 02 3f 50 ce 01 bf
       -0.39622438 0.19579813 0.5102459 -0.5070543
000080 42 aa 6d 3f 03 62 45 bf 10 26 7a bf 1e f0 aa bf
       0.9283792 -0.7710268 -0.9771433 -1.3354528
000090 46 9f a6 3f d6 15 26 3f 0a 50 7e 3f c2 55 56 be
       1.3017356 0.6487707 0.9934088 -0.20931152
0000a0 42 11 11 3e 9f 25 b7 3f 1c 3b 10 3e a1 eb bd 3e
       0.1416674 1.4308356 0.14085048 0.37093833
0000b0 af 9d 62 bf 5d 43 06 c0 2d d6 2f be 84 5f 29 3f
       -0.88521856 -2.0978615 -0.17171545 0.6616137
0000c0 e9 25 d2 bf 6e 8e b1 3e 8f 46 74 bf a3 12 0d bf
       -1.6417819 0.34678978 -0.95420164 -0.5510656
0000d0 e8 bf 13 3f 8a f1 35 3c 92 ec b0 bf 72 90 32 3e
       0.577147 0.011104951 -1.3822196 0.17437914
0000e0 3d 36 fd bf 14 9e 89 3f 01 51 38 3f 4d 5c 1b c0
       -1.9782177 1.0751367 0.719986 -2.4275086
0000f0 7d 45 a1 be 2d 7e 41 3e d5 ae c7 be 45 dd a5 bf
       -0.31498328 0.18895788 -0.39000574 -1.2958151
000100 81 83 97 bf ee dc 54 3f 3e f0 f5 3d 6a 35 b4 bf
       -1.1837007 0.8314961 0.12008713 -1.4078801
000110 09 db 2e be e7 d0 1e 3e 87 7a fb 3f 9d 88 15 c0
       -0.17075743 0.15509377 1.9646767 -2.3364632
000120 2a d5 39 3f ba 2b 60 bf e5 4c 8f 3e 16 00 be be
       0.7259089 -0.8756672 0.27988353 -0.3710944
000130 1b db 33 3f 87 2d c1 be 11 84 3d bf 28 7b 31 bf
       0.70256203 -0.37730047 -0.7402964 -0.69328547
000140 44 e1 cc be 14 91 a9 3f 11 e1 92 bf 0a 95 84 3f
       -0.40015614 1.3247399 -1.1474935 1.0357983
000150 fe f0 eb be 02 f4 22 bf 2e 1b b0 bc 73 17 da 3f
       -0.460823 -0.63653576 -0.021497335 1.7038406
000160 b1 72 bb 3e 1d 98 e5 bd 43 35 a3 be 5f 40 19 3f
       0.3661094 -0.11210654 -0.31876573 0.5986385
000170 a5 47 10 40 7a 9f 04 bf f1 cb 8d 3d d0 aa 5c 3e
       2.2543728 -0.5180584 0.06923664 0.21549535
000180 22 d7 3c bf 7f f2 8e bf 78 71 13 bf d1 57 ba bf
       -0.73765767 -1.1167754 -0.57595015 -1.455805
000190 98 d4 6c 3e 10 15 1d bf c4 4c 4a 3f e9 06 63 bf
       0.23127973 -0.61360264 0.79023385 -0.8868242
0001a0 cb b7 d3 be da 47 fb 3f 6e 2d 52 bd f4 15 a3 3f
       -0.4135116 1.9631302 -0.051312856 1.2741075
0001b0 9c 74 34 bf aa e9 dd bf c5 ad 10 bf 89 8b 6f bf
       -0.7049043 -1.7336934 -0.5651515 -0.9357229
0001c0 99 d9 46 3f 77 52 b7 3f 03 fa b5 3f 9b 54 79 3f
       0.7767578 1.4322041 1.4216923 0.9739472
0001d0 b0 2e 1c 3f 4e 03 21 3c 61 7e bf be c1 f9 7d bf
       0.6100874 0.009827448 -0.37401107 -0.9920922
0001e0 fc c8 a5 bc 33 d5 a7 3e 6e 8a 27 bf 27 41 68 bf
       -0.020237438 0.32779846 -0.654456 -0.90724415
0001f0 6a 74 27 3f 9f cf 74 3f 13 63 1a bf 85 ed 34 c0
       0.6541201 0.95629305 -0.60307425 -2.826997
000200 89 78 dd 3e a8 4c 92 3f 41 8d 04 3f 6d 06 95 3f
       0.43256024 1.1429644 0.51778036 1.1642586
000210 22 a4 84 bf 44 5c ad 3d 81 8a 53 bf 53 64 5f bd
       -1.0362589 0.08464864 -0.82633215 -0.054539036
000220 ed 09 4e 3f 67 a7 a5 bf 30 f9 35 bf 6e 71 06 3e
       0.80483896 -1.2941712 -0.71083355 0.13129207
000230 ba af 81 3f 86 97 90 bd 54 fc 06 3e cd 55 0c 3f
       1.0131752 -0.07060151 0.13182193 0.5481842
000240 c7 e8 e4 3e 32 26 8d bf 3b 16 8d be b0 08 3c 3d
       0.44708845 -1.1027281 -0.27556023 0.045906723
000250 36 80 80 be d3 72 f6 bd 07 5a b9 3f aa 15 8a 3e
       -0.25097817 -0.1203362 1.4480599 0.26969653
000260 c8 bc d5 be df 57 68 3f c8 df 05 3f d5 86 64 bf
       -0.4174559 0.9075908 0.5229459 -0.8926824
000270 11 fd 8b 3e 22 0d dd be 87 f2 4d 3f ff f5 c2 bf
       0.27341512 -0.43174082 0.8044819 -1.5231322
000280 79 52 1d bf b9 48 18 bf 1d 1f 36 3f dd 0f 68 bf
       -0.6145397 -0.59485966 0.71141225 -0.90649205
000290 59 2c 25 bf b0 60 fa 3e 02 44 00 3f 87 31 cd 3f
       -0.64520794 0.48901892 0.5010377 1.603074
0002a0 ad 72 59 3f 4f e8 40 3f 53 55 5a 3e 22 6a 56 be
       0.84940606 0.75354475 0.21321611 -0.20938924
0002b0 62 a7 fa 3f 43 b3 22 bf 50 75 13 bf bd 1e d3 bf
       1.9582331 -0.6355478 -0.5760088 -1.6493756
0002c0 ac 77 5b bf 6d 75 3f bf ea 36 09 3f cd 61 5b be
       -0.8572948 -0.7478855 0.5359942 -0.21424027
0002d0 47 8b 69 3f 76 18 80 3e c8 e6 46 bc 50 40 b5 be
       0.91228145 0.25018662 -0.0121399835 -0.3540063
0002e0 93 37 65 3f 14 8a 3f 3f a8 8b d3 bc 2d 84 d2 3f
       0.89537925 0.74820065 -0.02582343 1.6446587
0002f0 ce 41 f8 3e d4 97 6e be 38 51 80 3f b3 90 f1 bd
       0.48487705 -0.23300105 1.0024786 -0.11795177
000300 e4 88 ba bf d0 e3 09 3f ac 59 d9 bd 41 49 e0 be
       -1.4573026 0.5386324 -0.10612807 -0.43805888
000310 90 75 cb bf 4d 6e 8a bf c7 13 6e bf a3 b3 0c 40
       -1.5895252 -1.0814911 -0.9299893 2.1984642
000320 24 b5 1b 3f e2 84 28 3f e9 68 63 3e 9b 37 9e 3e
       0.60823274 0.65827763 0.22207989 0.309018
000330 2e 87 3e bf 8d 81 34 3c d4 60 14 3e 94 5d 24 3f
       -0.7442502 0.011017215 0.14490062 0.6420529
000340 d8 30 2e 3f 17 6b 06 40 49 0b 01 3f ad 7b 9e 3f
       0.6804328 2.1002862 0.50407845 1.2381493
000350 8d 1a 34 bd 68 dd 88 3e 51 ca 50 3e 44 8c 9c bf
       -0.043970633 0.2673142 0.20389678 -1.2230306
000360 94 eb 75 3f 03 bb 3c 3d 7e 24 d4 3f a9 89 e4 3e
       0.9606259 0.046076786 1.6573637 0.44636276
000370 bc 51 a5 3e 67 5d 62 3e 0d 09 7b bc 92 5a 60 bf
       0.3228892 0.22105943 -0.015321982 -0.876382
000380 95 3d 70 bf 23 9a 98 3f 45 8c af bf 6f cf 95 3f
       -0.93843967 1.1922039 -1.3714682 1.1703929
000390 32 cb ce bf 68 9b 2f 3f a2 ff 70 bd c9 1b 36 bf
       -1.615576 0.68596506 -0.05883754 -0.71136147
0003a0 8d 71 32 bf ed 77 ba 3e 6c 3e b9 bf 10 d9 ac be
       -0.69704515 0.3641962 -1.4472175 -0.33759356
0003b0 e0 d3 ac 3f 17 ab eb 3f 1e a6 df bf f8 a1 9f bf
       1.3502159 1.8411587 -1.747257 -1.2471304
0003c0 b6 40 4b bf c9 86 be 3e 04 67 00 bf d9 82 7b bf
       -0.79395616 0.37212208 -0.5015719 -0.9824653
0003d0 a2 0b be bf 6f fe 0a 3e 0b b7 92 3e fd c1 cc 3f
       -1.48473 0.13573621 0.28655276 1.59967
0003e0 2a d0 95 3f 65 cc 9b 3f b1 49 d5 bf 23 81 a1 bf
       1.1704152 1.2171751 -1.6663114 -1.2617534
0003f0 4c 0c a4 be c1 df ba 3f a8 c2 3b 3f cd 32 81 bd
       -0.32040632 1.4599534 0.73343897 -0.063085176

cls_token_pixel f4 [1, 1, 32]
000000 4c 02 ef bc 3f 2f c2 bf 41 2f e4 bd 19 0d 99 3f
       -0.0291759 -1.5170668 -0.111418255 1.1957122
000010 e3 de b2 3e 6c 0d 5d 3f 56 15 df bc de d2 2e 3f
       0.34935674 0.86348605 -0.027231853 0.6829051
000020 ed 89 14 3f 00 b4 e1 be f8 09 aa 3f c5 0a c4 bf
       0.5802296 -0.44082642 1.3284292 -1.5315787
000030 95 ef c2 3e 73 92 7e be 94 e1 9f bf e1 32 29 3e
       0.38073412 -0.24860553 -1.2490716 0.16523315
000040 07 cb 08 3f 9e 3e 24 bf 6f 78 54 3e 73 35 48 3e
       0.53434795 -0.64158046 0.20749067 0.1955164
000050 05 75 c1 bc 3e 33 da 3e 9a 7b 9d 3f 27 22 fc 3d
       -0.02361537 0.4261722 1.2303345 0.123112015
000060 a5 76 2b bf fd d6 c9 3e 49 25 fc 3e 89 8c 53 3f
       -0.6697791 0.39421836 0.49247196 0.82636315
000070 ab 16 ad 3f 09 2f be be b5 22 82 be 3b 11 24 bf
       1.3522543 -0.3714526 -0.25417104 -0.6408879

pixel_patch_embedding.weight f4 [32, 30]
000000 dc 0b 21 be dc 33 34 3e 9c 49 ce 3d 34 85 35 be
       -0.1572718 0.17597908 0.100726336 -0.17726594
000010 c6 30 0e 3e cc da 3b 3d 63 b6 08 be 00 f1 03 3b
       0.13885793 0.045862958 -0.13350825 0.002013266
000020 e8 6d 0d 3e 14 c3 20 be 2c ac ea 3d a6 2a 19 be
       0.13811457 -0.15699416 0.114586204 -0.14957675
000030 94 84 00 3e e0 07 ec 3d 5b 19 0a be b4 e4 82 3d
       0.12550575 0.115249395 -0.13486235 0.06391278
000040 14 04 25 bd 74 66 62 3d 76 8d bf bd a6 a1 15 be
       -0.040287092 0.05527349 -0.093531534 -0.14612445
000050 f0 4f 37 3d 00 08 60 3c 70 e6 8b 3c 0c b3 c6 3d
       0.04475397 0.013673782 0.017077655 0.09702119
000060 e2 70 04 3e da 80 cc bd b0 c3 d2 3d 4e 26 20 3e
       0.12933686 -0.09985514 0.10291231 0.15639612
000070 00 27 58 ba 16 f2 24 be a8 2b 1a be f3 f7 b5 bd
       -0.00082455575 -0.16107973 -0.15055716 -0.08885183
000080 a0 2c 7a 3c 34 85 f2 3d 20 95 48 bd fc b8 03 be
       0.0152694285 0.11841813 -0.04897034 -0.12863535
000090 3a c2 ca bd 6b 22 ad bd 08 b4 77 3d b0 9e bc 3c
       -0.09900327 -0.0845383 0.060474426 0.023024887
0000a0 89 6a 15 be 75 8c 2f be 5b da 1f be 44 23 1e 3d
       -0.14591421 -0.17143424 -0.1561064 0.03860785
0000b0 50 ae f2 3d b2 3d f6 bd 13 40 d8 bd 70 de 30 3e
       0.11849654 -0.12023486 -0.10559096 0.17272353
0000c0 b0 0a 2f 3d 60 f1 23 be c0 53 f2 bd 2a 66 ca bd
       0.0427348 -0.16010046 -0.1183238 -0.098827675
0000d0 e9 b8 17 be 80 8f 8c 3d aa a1 21 3e 7c 51 c3 3d
       -0.14816631 0.06863308 0.15784326 0.09537026
0000e0 96 09 05 3e fa d1 08 3e 40 17 57 bb f8 fb ac 3d
       0.12991938 0.1336135 -0.0032820255 0.08446497
0000f0 30 ed 97 bc 60 02 e6 3b 7c c9 c7 3d 84 07 9b 3d
       -0.018545717 0.007019326 0.09755227 0.07569793
000100 6c 4a 0e 3e 40 78 9a 3c 1c e5 be 3d 94 55 2a bd
       0.13895577 0.018856168 0.09321043 -0.04158552
000110 97 71 e7 bd 1c 7d f9 3d 55 95 97 bd ac a5 91 3d
       -0.113009624 0.12182066 -0.0740153 0.071116775
000120 c0 69 ab bb 92 b5 29 3e b8 11 da bd c7 3b c4 bd
       -0.0052311122 0.1657317 -0.10647911 -0.09581714
000130 78 3c f9 3c a4 37 b4 bd dc 1b 14 be 10 14 31 3c
       0.030424342 -0.08799675 -0.14463753 0.010808006
000140 4e 1d 24 be 40 63 6d 3b db 06 0e be 68 78 f5 3d
       -0.16026804 0.0036222488 -0.13869803 0.11985856
000150 00 6e a3 ba 38 c0 8c 3d 40 50 05 3e dc ab ee 3d
       -0.0012468696 0.068726 0.13018894 0.11653873
000160 25 3a e3 bd 68 30 90 bc 8c be f4 3d 7b 8e b8 bd
       -0.110950746 -0.017601207 0.119504064 -0.09011551
000170 de 74 9a bd 83 a6 15 be 26 91 36 be 64 f9 af 3d
       -0.07541822 -0.146143 -0.17828807 0.08592489
000180 18 be 21 be c4 8d 93 3d 22 fa 13 be ec d8 16 bd
       -0.15795171 0.07204774 -0.14450887 -0.036827967
000190 18 38 8a 3c d0 01 c9 3d 70 cd 73 bd 78 78 09 3e
       0.01687245 0.09814799 -0.059522092 0.13424861
0001a0 80 1f 6c 3b 10 0d 80 3c 7c ba c7 3d c0 d8 a0 3d
       0.0036029518 0.015631229 0.09752366 0.07853842
0001b0 0e e8 2b 3e ec 6c 0c 3e 32 44 10 be 00 d7 5a bc
       0.1678774 0.13713425 -0.14088514 -0.013356924
0001c0 d0 02 e1 3d 36 ae a6 bd 88 15 81 3d 28 51 ab 3d
       0.109868646 -0.08138697 0.06302935 0.08365089
0001d0 76 37 21 3e 98 2b 9a 3c d5 09 c8 bd 67 f2 b1 bd
       0.15743813 0.018819615 -0.097675 -0.08688813
0001e0 ab 9f 21 be 00 c6 9b 3c 3e 29 1b 3e b8 78 ef 3c
       -0.15783565 0.019015312 0.15152451 0.029232368
0001f0 b0 23 46 bd e4 fe 04 3e 64 4f a9 3d 90 0f f2 3d
       -0.048373878 0.12987858 0.08267096 0.118193746
000200 2c 4c a7 bd ad 52 b9 bd 4c 36 0c be 8c 27 dc 3d
       -0.081688255 -0.09048972 -0.13692588 0.107497305
000210 b0 d4 d7 bc c4 aa 37 bd 48 ae 2e bd ac 44 83 3d
       -0.026346534 -0.04484059 -0.042646676 0.064095825
000220 0c 6d 30 bd d8 7c f1 3c 10 90 e8 3d ec f9 23 3e
       -0.043072745 0.029478475 0.11355603 0.16013306
000230 d2 61 1e 3e 80 3b 84 3b 17 27 0c be 65 32 dc bd
       0.15467003 0.0040354133 -0.13686787 -0.107517995
000240 cc ed 3b bd ab 3c 23 be 98 f0 c8 3c ac ae 58 3d
       -0.045881078 -0.15941112 0.024528787 0.052900955
000250 31 8a 84 bd e0 44 90 3d 9c 74 1c be d0 76 f0 3d
       -0.064716704 0.07044387 -0.15278858 0.11741412
000260 6e 53 2b 3e dc 39 48 bd 5c a8 32 bd f3 d5 b9 bd
       0.16731045 -0.048883304 -0.04361759 -0.09074011
000270 2c 0c d5 3d e0 c5 f7 3c 10 fd c7 3d d4 86 10 be
       0.10402712 0.030245721 0.09765065 -0.14113933
000280 00 2e f2 bb e0 ee 2e 3d 00 6c ea bc 28 07 59 3d
       -0.0073907375 0.042708278 -0.028615952 0.05298534
000290 68 db 25 bd 48 ce 9d 3d d0 93 12 bc 3a ba 00 3e
       -0.040492445 0.07705361 -0.008946374 0.1257104
0002a0 e0 f0 d2 3d d4 7b 07 3d 62 98 32 be d8 ea a8 bc
       0.102998495 0.033077076 -0.17440942 -0.020619795
0002b0 1e be 38 be b4 a2 9c 3d 5c 46 52 3d 70 d4 18 3e
       -0.18041274 0.07648221 0.05133663 0.14924788
0002c0 44 e7 30 3e 70 b8 99 3d ce 78 00 3e 7f 5f 1b be
       0.17275721 0.07505882 0.12546083 -0.15173148
0002d0 4e 64 33 be 98 be 07 be a4 b8 9f 3d 96 78 09 3e
       -0.17518732 -0.132563 0.07798889 0.13424906
0002e0 24 eb 49 3d ec 34 32 bd 5d ef e4 bd 34 39 1b be
       0.049296513 -0.0435075 -0.111784674 -0.1515854
0002f0 f4 4e 21 3e a4 6f e9 3d fe 5d 32 be 9e 60 36 be
       0.15752774 0.11398247 -0.17418668 -0.17810294
000300 3c d4 20 bd f0 5b 17 3e c0 17 44 3b e8 94 ff bd
       -0.039264902 0.14781165 0.0029921383 -0.124795735
000310 1e 3f a3 bd c0 e6 f6 3d 24 e8 0f bd 40 e2 29 3c
       -0.07971023 0.12055731 -0.035133496 0.010368884
000320 c0 7c 4d 3b cc 57 e3 3d d2 b7 08 be f0 30 f2 3d
       0.0031354874 0.1110073 -0.13351372 0.1182574
000330 66 b2 9f bd 80 97 bb 3a 82 39 f6 bd 56 3a 2e 3e
       -0.07797699 0.0014312118 -0.120226875 0.17014441
000340 e0 21 d2 3d 03 64 0d be 59 51 c5 bd 00 7b 3d 3b
       0.102603674 -0.13807683 -0.096346565 0.0028912425
000350 3c 89 a9 3d 5a 75 2e 3e c4 5f 18 bd c0 8b a7 bb
       0.082781285 0.17036954 -0.037200704 -0.005113095
000360 74 4e 19 be 30 57 4d bd d0 27 28 3e a4 aa 0b bd
       -0.14971334 -0.050131977 0.16421437 -0.034098282
000370 30 0a f9 3d c0 8c 1a bc 4d ff 2d be 20 ad ac 3c
       0.12160146 -0.0094329715 -0.16991921 0.021078646
000380 3c ad 15 3e 40 f0 ae 3c 40 5b 1f bd 28 94 b7 bd
       0.14616865 0.021354795 -0.038905382 -0.089638054
000390 3f 84 34 be 94 2f ab bd f0 96 79 bd 48 8b 34 be
       -0.17628573 -0.08358684 -0.06093496 -0.17631257
0003a0 5c 65 59 3d 60 93 a9 bb cb fb a9 bd b8 59 cf 3c
       0.05307518 -0.005175039 -0.08299979 0.025311336
0003b0 08 12 9f 3d 00 f5 c4 bc d4 16 01 3e d4 85 0b 3d
       0.07767111 -0.024042606 0.12606364 0.034063175
0003c0 14 b8 dd bd 1c 7b cd 3d c0 44 be bc 34 ba d9 3d
       -0.10826126 0.10033247 -0.023226142 0.106312186
0003d0 00 96 1c bb d0 86 35 3c c0 63 49 bb 2a 0f 12 be
       -0.0023893118 0.011079505 -0.0030729622 -0.14263597
0003e0 02 a5 14 be b4 ed 93 3d 34 34 07 3e c4 9f 21 3d
       -0.1451607 0.07223073 0.13203508 0.039459005
0003f0 34 e8 a1 3d 7c ec e0 bd 2e df 18 be 3c 36 ba 3d
       0.07905617 -0.10982606 -0.14928886 0.09092376

pixel_patch_embedding.bias f4 [32]
000000 6a 65 92 bd ba e0 cd bd f4 2c b6 3d a0 48 b1 bc
       -0.071482494 -0.10052629 0.08895293 -0.021641076
000010 dc 03 d3 3d 40 4e 2b 3b e4 48 00 3d a8 64 1a bd
       0.103034705 0.002613917 0.031319514 -0.03769365
000020 d9 11 2d be 8c 98 00 bd 80 e4 6b bc 94 9f 62 bd
       -0.1690134 -0.03139548 -0.01439774 -0.055327967
000030 02 79 0a 3e d4 59 1a 3e 46 a3 26 3e c8 9f 5b 3d
       0.13522723 0.15073329 0.16273221 0.053619176
000040 30 99 de bc 23 ea 81 bd 46 5e b6 bd 60 43 14 be
       -0.027172655 -0.06343486 -0.089047 -0.14478827
000050 a4 63 e7 3d 8c 1b c0 3d eb 41 c4 bd b3 49 af bd
       0.11298302 0.09380254 -0.09582885 -0.08558979
000060 60 0b b0 3b 34 8d a0 3d f8 8c 05 be 08 d6 a7 3d
       0.0053724498 0.07839432 -0.13042057 0.0819512
000070 a0 fe 12 3e 93 c8 87 bd 88 76 fe 3d 5c 5a 0e 3e
       0.14354944 -0.06630053 0.12424952 0.13901657

local_trans_pixel.layers.0.0.fn.norm.weight f4 [32]
000000 3d 55 86 3f 56 1e 82 3f de b7 7b 3f 64 3e 8c 3f
       1.0494763 1.0165508 0.98327434 1.095654
000010 e0 d8 8b 3f 22 39 85 3f 26 88 86 3f b4 fe 81 3f
       1.092556 1.040806 1.0510299 1.0155854
000020 bb d1 86 3f 44 44 82 3f 24 b6 85 3f 26 c6 8a 3f
       1.0532755 1.0177083 1.044621 1.084172
000030 10 dd 84 3f d0 3e 91 3f ea 36 84 3f fa ff 83 3f
       1.0379963 1.1347294 1.0329258 1.0312493
000040 4e 57 83 3f 7b 6f 89 3f 64 43 87 3f b4 53 83 3f
       1.0261018 1.0737146 1.0567441 1.0259919
000050 a9 48 80 3f 86 3a 8a 3f d0 f5 82 3f f0 31 88 3f
       1.0022174 1.079911 1.0231266 1.064024
000060 9c b8 84 3f 63 84 86 3f 84 01 80 3f 71 85 88 3f
       1.0368838 1.0509151 1.0000463 1.0665723
000070 39 63 8e 3f 55 b0 8c 3f af 38 7e 3f 1f cd 85 3f
       1.112403 1.0991312 0.9930524 1.0453223

local_trans_pixel.layers.0.0.fn.norm.bias f4 [32]
000000 59 f6 53 bc c0 99 fc 3c 2f 7c 9e 3d 4f 65 c5 3d
       -0.012937152 0.030835032 0.0773853 0.09638464
000010 fe 2c 20 be 05 ff 32 bd cb 10 a1 bd de c3 c9 3b
       -0.15642163 -0.043700237 -0.07864531 0.0061573824
000020 15 95 36 bc b0 a3 29 bd 7c 6d 6a bd 8b 57 14 be
       -0.011143942 -0.04141587 -0.05723332 -0.1448652
000030 7e 9e 0f 3c 70 42 07 3d db ad 3b bd 69 ca 90 bd
       0.008765815 0.033022344 -0.0458201 -0.07069857
000040 cd 3b b5 bd c3 60 01 3d fc 1b 25 bd 1b 65 c5 3d
       -0.08849297 0.03158642 -0.04030989 0.09638425
000050 0f 2d 0c 3e 74 23 9a 3d 26 48 29 3d c5 5c 08 3d
       0.13689063 0.075262934 0.04132857 0.033291597
000060 ea e5 5a bd d1 fb a6 bd 9c e3 b9 bc b9 f9 df bc
       -0.05344192 -0.08153499 -0.02269154 -0.027340757
000070 eb 9e b1 3c c0 9a 5a 3d f9 c1 eb 3a 52 e6 92 3c
       0.021682223 0.053370237 0.0017986886 0.01793209

local_trans_pixel.layers.0.0.fn.fn.to_qkv.weight f4 [1536, 32]
000000 fd b6 0f 3e 21 1c 9c bc 88 f7 6d be 1c a9 3f 3e
       0.14034648 -0.019056382 -0.23238957 0.18716854
000010 7c 00 75 be 95 74 92 bd 88 21 1a be 66 6c 22 3e
       -0.23925966 -0.071511425 -0.15051854 0.15861663
000020 61 26 2c be 26 03 e4 bb ac f9 f9 3d 8b 00 1f 3d
       -0.16811515 -0.006958383 0.12205824 0.038818877
000030 35 a1 9d bd 1a a9 9e 3c ff 07 48 3d 94 2d eb bd
       -0.076967634 0.019367743 0.04883575 -0.11483303
000040 91 86 3c 3b f7 01 ac 3d 40 3c c8 3d d6 76 aa 3d
       0.0028766731 0.08398812 0.09777117 0.083234474
000050 1e 49 f7 3d c7 bb 64 3d 05 6c d1 3c 21 12 7b bd
       0.12074493 0.05584314 0.025564203 -0.061296586
000060 21 3e 4f bd 12 d0 56 bb f2 c3 09 3e 68 94 cc 3d
       -0.05059636 -0.0032777828 0.13453653 0.09989244
000070 32 a0 48 3e c4 a3 0c bd 02 58 f7 bd 26 08 c8 3d
       0.1959236 -0.034335867 -0.12077333 0.09767179
000080 90 06 a4 3d 1c d1 04 3e b0 46 18 bd 7d 28 e2 3d
       0.08009064 0.12970394 -0.037176788 0.11042879
000090 a3 56 69 be 74 fa 40 be 27 af 03 3e 99 33 12 3e
       -0.22786956 -0.1884554 0.12859784 0.14277495
0000a0 d2 e2 c7 bc df 36 32 3e dc 30 31 3d e8 d9 c1 bd
       -0.024400149 0.17403744 0.043259487 -0.094653904
0000b0 44 51 05 bd 8c 67 37 3e ee 2f 02 be 7d df 31 bc
       -0.032548204 0.17910594 -0.12713596 -0.010856506
0000c0 1a 8e dc bc 29 d1 df 3a 44 ed ed bd 3a 98 84 3e
       -0.026923228 0.0017075884 -0.116175205 0.2589739
0000d0 3f ee f2 3c f7 5f af 3d 52 bb 27 3e 42 0d 10 be
       0.02965462 0.08563226 0.16380051 -0.14067557
0000e0 a4 a7 79 3d 7e 25 16 3e 86 ef e2 bd 54 c4 42 be
       0.06095089 0.1466274 -0.11080842 -0.19020206
0000f0 4c 6b 82 bd 07 93 25 3d 44 ec 9d bd d2 7a df bc
       -0.063681215 0.04042342 -0.0771108 -0.027280245
000100 dc f8 ab 3c 24 25 00 be 3a 1a d3 3d 9b 1a a6 bc
       0.020992689 -0.12514168 0.10307737 -0.020276358
000110 ec 10 66 be 57 f7 00 be f2 31 34 3a 13 d9 04 3e
       -0.22467393 -0.12594353 0.00068738975 0.12973432
000120 8e 48 12 3e fc 47 9e bd 39 0e 00 3c a8 7a 73 3d
       0.1428549 -0.07728574 0.007815891 0.059443146
000130 bd 01 b7 bc d7 1e 8b 3e 9d a5 9f bd 16 9b 39 3e
       -0.022339696 0.27171966 -0.0779526 0.18125567
000140 7b a1 f4 3b 6d 38 56 3e c2 3a d0 bb 49 d7 06 be
       0.007465539 0.20919962 -0.0063546607 -0.13168062
000150 3b 79 49 3e 05 2c 13 bd d4 38 19 be c2 21 53 3e
       0.19675152 -0.035930652 -0.14963084 0.20618346
000160 d7 d2 04 be ac a1 02 be 95 7f 06 be da 0d 69 be
       -0.12971054 -0.12756985 -0.13134606 -0.2275919
000170 c9 b7 ee bd 66 c3 69 bd 49 1f 0c 3c 0b 7a c3 bd
       -0.11656148 -0.057071112 0.008552381 -0.09544762
000180 21 4d ee bd 97 ee f5 bc 55 b9 67 be 48 11 34 3e
       -0.11635805 -0.030020995 -0.22629292 0.17584717
000190 91 96 9d be ec a6 9e bc 61 e3 aa bd 14 0d 92 3d
       -0.30778936 -0.019366704 -0.0834415 0.07131401
0001a0 93 d0 15 3e 2d db 02 3e e9 69 36 3d 09 c4 2e be
       0.14630346 0.12778921 0.044534598 -0.17066969
0001b0 e3 e2 84 3e 9e da ab bb 6c 16 77 3b c5 cb 40 bd
       0.2595435 -0.005244567 0.0037702573 -0.04706933
0001c0 b9 5e 1d 3e fd 26 90 3c 5b bc 96 3d d3 d3 d5 3d
       0.15368165 0.017596716 0.07360145 0.10440793
0001d0 09 81 6a 3e f0 1b c3 bc 3a 25 97 3d c6 10 0c 3d
       0.22900786 -0.023817033 0.07380147 0.034195684
0001e0 63 c3 16 be 10 46 47 be 62 9f 80 3e b9 3d 70 3b
       -0.14722972 -0.1946032 0.251216 0.0036657883
0001f0 f2 d3 4b 3e ae f7 0a 3e 6a c1 2b bd 34 48 af bb
       0.1990507 0.13571045 -0.0419325 -0.0053491835
000200 27 aa 95 3d 83 ac 0f 3e 0e f6 72 3d f1 0d d7 3d
       0.073078446 0.14030652 0.059316687 0.10500706
000210 e5 49 29 be 9a da b8 bd 0c af 15 3e 5e 62 1a 3d
       -0.16532095 -0.0902607 0.14617556 0.037691467
000220 c6 de ac bd cf ef 84 bd ac 38 b8 bd 04 1c 8f bd
       -0.08440928 -0.06491052 -0.08995184 -0.069877654
000230 20 23 e0 bd a1 86 8b 3d 16 71 74 bd 85 be 42 be
       -0.109441996 0.06812788 -0.05967816 -0.1901799
000240 3c bc 21 be b8 07 d9 bd a0 8e 1e 3e 13 bf 1b bd
       -0.15794462 -0.10597175 0.15484095 -0.03802402
000250 22 bd 5a bd 1f 17 67 3e 0b 77 f5 bd 86 74 3a be
       -0.053403027 0.22567414 -0.11985596 -0.18208513
000260 e8 06 8b bc 34 11 9b 3d 94 f5 5e 3e d6 66 a3 3d
       -0.016971067 0.075716406 0.21773368 0.07978599
000270 2e 36 ed bd c3 36 38 be a8 05 9e 3d aa ce 08 3e
       -0.115825996 -0.1798964 0.077159226 0.13360086
000280 de 2c 7f 3e fc 8b 91 3d f8 7e 08 bd a9 13 83 bd
       0.24919459 0.07106778 -0.03332421 -0.06400234
000290 22 39 8f be 0f ef 01 3e 08 5b cd 3d 9f ad 0a be
       -0.27973276 0.1268885 0.100271285 -0.13542794
0002a0 4d b5 02 3e b2 6d 21 3e c2 67 8a 3d 10 2f fb 3d
       0.12764473 0.15764502 0.067580715 0.12264836
0002b0 90 dd 06 3e 8a 5a 24 3e 24 1e e9 3d eb f3 93 3c
       0.13170457 0.16050163 0.11382702 0.018060645
0002c0 80 4b bc bd c3 43 33 be b6 05 b0 bd e8 64 20 be
       -0.09194088 -0.17506318 -0.08594839 -0.15663493
0002d0 b3 52 db 3c 13 30 27 3a fe be 28 be 0a 80 72 3d
       0.026772832 0.0006377708 -0.16479108 0.05920414
0002e0 ac b7 45 3e b7 6e 0f be 26 28 4c 3e 18 fc 49 be
       0.19308347 -0.14007078 0.1993719 -0.19725072
0002f0 96 9e 17 bd c1 fc 16 ba d1 c8 6e 3d 89 75 43 3e
       -0.037016474 -0.0005759709 0.058296982 0.19087805
000300 e9 72 01 3d 71 93 0f be 8a 71 fa bd 42 16 36 be
       0.031603727 -0.14021088 -0.12228687 -0.17781928
000310 86 0e 40 3d b0 8a 59 be 07 00 a5 3d 89 cf 65 3e
       0.04688885 -0.21244311 0.08056646 0.2244245
000320 8d b5 7b bd e8 d5 3d bd a1 6e f7 bb a1 d4 02 3d
       -0.061452437 -0.046346575 -0.00755103 0.03194106
000330 4b 15 4c bd e0 bc 34 3e 20 84 b2 bd 40 f8 82 3d
       -0.049824994 0.17650175 -0.08716607 0.06395006
000340 58 bb 29 bc 41 b4 4e be 24 ff 47 be 5e 3e da bd
       -0.010359608 -0.20185949 -0.19530922 -0.10656427
000350 94 df de bd b0 f0 38 bd 0b 4e f9 bc 4c a5 3a 3e
       -0.10882488 -0.045151412 -0.030432722 0.18227118
000360 67 26 eb 3d 60 a9 e7 bb fa db 0f bc 6a 33 9d 3d
       0.11481934 -0.0070697516 -0.008780474 0.07675822
000370 df 32 08 3e 37 13 14 3e 0f 53 6f bd f1 70 b6 bd
       0.13300656 0.14460455 -0.05842882 -0.089082606
000380 65 0e 90 bd e3 61 9a 3d 52 46 c8 bc 21 62 32 3c
       -0.070339955 0.07538202 -0.024447594 0.010887654
000390 a8 c3 18 bd 26 e2 bb bd 8c c8 cc 3c 7c 24 0c be
       -0.037295967 -0.09173994 0.024997972 -0.13685793
0003a0 55 d2 a9 bb 98 bc 7e bd 45 34 27 be fd 48 f6 3b
       -0.0051825442 -0.062191576 -0.16328533 0.007516025
0003b0 f1 6a 21 be 92 d1 36 be 01 29 11 3d e8 b1 af bd
       -0.15763451 -0.17853382 0.035439495 -0.08578855
0003c0 16 ab a7 3d 1d 06 2a be fc 98 e0 bb a9 6e a7 3c
       0.08186929 -0.16603895 -0.0068541747 0.020438509
0003d0 98 1f 39 be 14 a4 bf 3b 51 df f0 bd 44 4a fc bd
       -0.18078458 0.005848417 -0.11761344 -0.123188525
0003e0 61 26 49 be 5b 90 8a bc ef ab b3 bd ed f6 c0 bc
       -0.19643547 -0.016914537 -0.08773028 -0.023555243
0003f0 38 39 2a 3e 20 85 38 3e df 71 9e bc ee 04 0f bd
       0.1662339 0.18019533 -0.019341407 -0.03491681

local_trans_pixel.layers.0.0.fn.fn.to_out.0.weight f4 [32, 512]
000000 d5 3d 3b 3d 9a e5 3c bd 58 5e 71 3b cb 32 99 bd
       0.045713264 -0.046117403 0.0036829915 -0.07480391
000010 01 71 ca bc 4b b1 9b 3c aa f1 43 3d e2 b5 c2 3d
       -0.024712088 0.019005438 0.04783789 0.09507348
000020 87 55 1a 3b 44 9d 46 bd 46 6a ea 3b 2a 71 b0 bc
       0.0023549513 -0.048489824 0.007153782 -0.021538336
000030 b4 d9 de bb ff aa 46 3c 30 71 41 bd ea 80 4d bd
       -0.0068008546 0.01212573 -0.047227085 -0.05017177
000040 2e 86 f8 3c 03 8a be bc bb af b3 bc 41 3b 0e bd
       0.03033742 -0.023259168 -0.02193438 -0.034724478
000050 14 00 c7 bc 0d 61 39 bc aa 5e 3c bc a1 4b f7 3b
       -0.02429203 -0.011314643 -0.011497179 0.0075468575
000060 06 cc e2 bc de d2 c5 bc 26 41 69 3d b5 03 9c bc
       -0.027685177 -0.0241484 0.056946896 -0.019044736
000070 33 e7 eb bc 1b e6 75 bc 1f 0b e9 3c df 9f 99 3c
       -0.028796768 -0.015008475 0.028447686 0.01875299
000080 4f a0 26 3d 10 7a bf 3c 3c bc 85 bd c8 03 7a bd
       0.040680226 0.023373634 -0.065300435 -0.061038762
000090 3a 44 99 3a b1 6e 21 3c 24 94 d2 bc 00 47 16 bd
       0.0011693307 0.009853051 -0.025705405 -0.036688805
0000a0 dd c8 71 bb a6 12 78 bc 3b a8 3a bd 85 09 f6 bc
       -0.0036893405 -0.015141165 -0.045570593 -0.030033836
0000b0 bd 1f 0c 3d 1a 73 87 3d a6 fb 20 3d ce 7f 28 3d
       0.034209955 0.06613751 0.03930249 0.04113751
0000c0 a1 bd 99 3d f9 0c b7 3b a3 16 01 3d e9 3c dc bc
       0.07506872 0.0055862633 0.03151573 -0.026884513
0000d0 ba be 3b 3a d2 e3 48 3d f3 b0 de 3b 6c f1 a8 bc
       0.00071619044 0.04904539 0.0067959963 -0.020622931
0000e0 7a 73 44 bd f5 9d 8a bb 0c 0a 94 3c be 0f 24 3d
       -0.04796169 -0.0042302557 0.018071197 0.040054075
0000f0 11 30 31 3c c0 a0 c2 3c aa d7 6d 3d 00 8b 72 3d
       0.010814683 0.023758292 0.058067 0.059214592
000100 53 80 09 39 87 08 8f 3d 28 74 68 bd fd 60 86 3d
       0.00013113143 0.06984048 -0.0567514 0.06561468
000110 22 a6 2d 3d 51 e0 20 3c ac 45 a2 3d 10 aa b9 3c
       0.042394765 0.009819106 0.07923445 0.0226641
000120 70 f5 f1 3c 1b e4 27 bd 31 00 fb 3c fd a2 86 3d
       0.029535979 -0.040989023 0.03063974 0.06574056
000130 53 1e a5 bd 0f 30 1c bd c6 f8 e5 bd da 43 49 3c
       -0.080624245 -0.03813177 -0.112290904 0.0122842435
000140 0c b5 9b bd 78 c3 86 bd 96 a2 8b 3d 06 db 26 3d
       -0.07602891 -0.065802515 0.0681812 0.04073622
000150 4d 22 69 3d 59 e8 11 bd 27 27 7d 3d b1 c9 a7 3c
       0.056917477 -0.035621975 0.061804917 0.020481916
000160 9e bf b0 bd 25 00 74 3b ac ab 9a 3d b8 08 dd 3d
       -0.08630298 0.0037231531 0.07552275 0.107926786
000170 54 d5 51 bd 62 04 5e bd e5 2a 8c bd 77 79 c4 bc
       -0.051228836 -0.0542034 -0.06844119 -0.0239837
000180 ab d9 aa bc f0 b3 e2 bc 6d 21 47 3d a1 e7 2c bd
       -0.020855745 -0.027673692 0.04861586 -0.042213086
000190 9f 88 a1 bd 62 94 b2 3d 0c 48 84 3d 3f df 9f 3c
       -0.078873865 0.08719708 0.06459054 0.019515632
0001a0 61 80 43 bd 8e a7 c4 3d 14 b8 05 bd a0 1a 71 3a
       -0.047729854 0.09602271 -0.032646254 0.0009197388
0001b0 7f a8 a0 bd 75 cb 88 bc d0 14 34 b9 ea 12 42 3d
       -0.07844638 -0.016698578 -0.00017173891 0.04738132
0001c0 08 a2 ca bc 5e 1f 87 3d c0 45 68 bc 42 e6 14 bb
       -0.024735466 0.0659778 -0.014176786 -0.0022720252
0001d0 f9 8f fa bc e6 5a 08 bd 27 61 af bc 86 d5 df bc
       -0.03058623 -0.033289813 -0.02140863 -0.027323496
0001e0 47 b4 13 3b 3e e1 c5 3c 4f 8b 27 3d fa 3b b7 3c
       0.0022537874 0.024155255 0.04090434 0.022367466
0001f0 8d 14 57 bc 48 a2 2e 3a b8 7d 27 3d 02 26 d4 3d
       -0.013127458 0.0006661755 0.04089138 0.10358812
000200 6d 3c ae bd 22 ee b8 bd 3a 9c 43 3d e4 ca 5e bd
       -0.08507619 -0.09029795 0.04775641 -0.05439271
000210 b2 14 58 3d 5d 7b ac bc f5 47 4c bd 31 d9 f4 bc
       0.05275411 -0.021054918 -0.04987331 -0.029888721
000220 2f 44 53 3c c8 ef c3 3d f9 22 5b 3d 15 80 d6 bd
       0.012894674 0.09567219 0.05350015 -0.104736485
000230 b3 d5 8c 3c 6c 5e d0 3c c8 61 69 bd 63 d2 b8 3d
       0.017191743 0.025435649 -0.056978017 0.09024503
000240 24 b3 70 3c 21 94 22 bc ea ef c4 3c e1 f9 0c 3d
       0.014691148 -0.009923012 0.024040181 0.03441799
000250 df a4 a2 3d 37 0e ae ba 3e 26 2e 3c 88 02 be 3c
       0.07941603 -0.0013279383 0.010629235 0.023194566
000260 59 cb 8e 3d b7 09 b0 3d bc ee 6c 3d c0 1a 86 3c
       0.06972379 0.08595603 0.057844862 0.016370177
000270 f0 03 89 3c 37 51 02 3d 8d eb b0 bc cd af e6 3d
       0.01672551 0.031815734 -0.021596694 0.11264
000280 0c 4e 63 3d 74 84 f1 3c 7f e8 f1 bc 48 67 1a 3d
       0.055494353 0.029482104 -0.029529808 0.037696153
000290 20 51 1a 3c 38 0d db bd 20 1b f3 bb 90 7c 0f 3d
       0.009418756 -0.10695881 -0.007419005 0.0350309
0002a0 8c 31 62 3c 7c 0b 95 3c fa 26 d0 3c aa d0 e8 3a
       0.013805758 0.018193953 0.02540921 0.0017762382
0002b0 89 37 d6 3d 34 f1 49 3d c4 00 03 bd 23 34 2e 3c
       0.10459811 0.049302295 -0.031983152 0.010632548
0002c0 70 2c b7 bc 4e eb d6 3c 3e f7 50 bd 09 6e 66 3d
       -0.022360057 0.026235249 -0.05101704 0.05625728
0002d0 93 aa 06 3e 08 53 00 bb 53 d8 a2 bd 6c cf 60 3c
       0.13151006 -0.001958074 -0.07951417 0.013721328
0002e0 83 c9 36 bd d3 ed 1b 3d dd 8f c5 3d 3e ef b8 3c
       -0.04462577 0.038068604 0.0964658 0.022575017
0002f0 9c c2 88 3d 7c 0b 09 bc 6e ed a8 bd 9f 7d 1c 3d
       0.06677744 -0.0083645545 -0.08248411 0.03820574
000300 6f 1a bb 3b ad f8 8f 3c 6a bd e2 39 7b cf fa 3b
       0.0057099382 0.017574633 0.00043247204 0.007654128
000310 a2 dd 63 bd da e7 a3 bc f4 34 7e 3c 55 5d 06 bd
       -0.055631287 -0.020008016 0.015515555 -0.032803852
000320 e8 1b cd 3c 02 cb 2f 3d d5 5b be 3d 9e 89 6a ba
       0.02503772 0.042918213 0.09294859 -0.0008946898
000330 9d f7 0e 3d aa 9a 9a 3a 8d 3b 45 3d af 07 8c bd
       0.03490411 0.0011795361 0.048152495 -0.06837403
000340 d4 ae 42 bd fa c8 de bc 67 56 87 3d ff ae cf 3c
       -0.04753001 -0.027195442 0.06608277 0.025352
000350 f2 71 0b bc 42 a2 1c 3c bb 60 25 3c a9 52 f9 3c
       -0.008511053 0.00956017 0.010093863 0.030434923
000360 03 8a 44 3c 09 5c 7d bd 9f 7b a8 bc eb 96 d0 bc
       0.011995795 -0.06185535 -0.02056676 -0.025462588
000370 23 c4 fc 3c 31 95 23 bd 0a 2d ec 3c c9 cf 34 3d
       0.030855244 -0.039937202 0.02883007 0.044143472
000380 98 83 e4 3c 40 84 4c bd 30 96 b2 3d 80 c6 79 3d
       0.02789478 -0.04993081 0.08720052 0.06098032
000390 f0 5e 17 bc ef 15 b8 3d 05 3c 3d 3c 44 d9 45 ba
       -0.009238943 0.089885585 0.011549954 -0.0007547329
0003a0 a4 93 b7 3d 22 c5 29 3d 9e 92 63 bd d1 a2 9f bd
       0.08963707 0.041447766 -0.055559747 -0.07794727
0003b0 91 56 15 bd 6f 24 2d 3d 1d 8c a8 3c 60 40 53 bc
       -0.03645951 0.042271074 0.020574624 -0.012893766
0003c0 c8 8e 5c 3d 07 8b 42 3d 1a ff 16 3a 64 b3 22 3d
       0.053847104 0.047495868 0.0005760059 0.03972186
0003d0 89 0c 3a bd ce bd cb 3b 7e de b4 3c d1 24 01 3d
       -0.04542211 0.006217695 0.022078749 0.03152925
0003e0 2d d1 46 bd 52 6e c1 bc 63 b3 7e 3c c9 73 d3 bc
       -0.04853933 -0.023612175 0.015545699 -0.025812047
0003f0 f3 ce f9 bb 7b 5b 21 bc 28 26 27 bb 49 8b 10 3d
       -0.007623547 -0.009848471 -0.002550492 0.035289083

local_trans_pixel.layers.0.0.fn.fn.to_out.0.bias f4 [32]
000000 2c 65 82 bd bc 06 77 3d 08 e2 c9 3d 5c e2 95 3c
       -0.06366953 0.060309157 0.09857565 0.018296413
000010 e7 15 a9 bb af a7 2e 3d 61 8c 7c 3d 78 1c 8e 3c
       -0.0051600817 0.042640384 0.061657313 0.01734756
000020 50 46 a7 3c fa 0c 48 3d 42 1b ba bc 2f 12 c3 3b
       0.02041927 0.0488405 -0.022718076 0.0059530954
000030 19 a9 dd bd 96 c2 76 bd 6a 20 08 bd 63 6a dc bc
       -0.108232684 -0.060244165 -0.033234037 -0.026906198
000040 39 82 1d 3d c7 af f6 3c 08 42 5e 3d 99 32 91 bd
       0.038454268 0.030113114 0.05426219 -0.07089729
000050 3a 58 12 3e 0e 32 f4 3d 27 90 c9 bb 5f fc 91 3d
       0.14291468 0.1192361 -0.0061512175 0.07128214
000060 f5 62 bf 3c 9a ea 4f 3d d9 4c 3b 3c ed f6 5c 3d
       0.023362616 0.050760843 0.011431896 0.053946424
000070 68 a5 8f bd 72 e5 10 be 22 a2 e1 3b 55 15 f4 3c
       -0.070139706 -0.14150026 0.006885783 0.029795328

local_trans_pixel.layers.0.1.fn.norm.weight f4 [32]
000000 d0 ac 84 3f 5c 8b 7e 3f 0d 6e 78 3f db bb 84 3f
       1.0365238 0.99431396 0.97042924 1.0369829
000010 89 74 80 3f ed ff 67 3f 59 14 87 3f 21 46 89 3f
       1.0035564 0.90624887 1.0553085 1.0724527
000020 a8 48 74 3f 5f 7b 84 3f 68 fd 84 3f ef 02 77 3f
       0.95423365 1.035015 1.0389833 0.9648885
000030 d5 68 81 3f 67 c8 7c 3f e8 fa 78 3f 43 f3 86 3f
       1.0110117 0.9874329 0.9725785 1.0542988
000040 87 05 74 3f 8d fc 7d 3f d8 0a 82 3f 9a a7 83 3f
       0.95320934 0.99213487 1.0159559 1.0285523
000050 b9 e3 81 3f f8 47 6f 3f 24 74 7d 3f 67 d7 88 3f
       1.014762 0.9346919 0.9900534 1.0690736
000060 4a db 7b 3f 5f 41 89 3f 61 63 89 3f 79 cb 7b 3f
       0.98381484 1.0723075 1.0733453 0.9835735
000070 8f e2 74 3f 39 59 80 3f 12 c2 7c 3f df 44 88 3f
       0.956582 1.0027229 0.9873363 1.0646018

local_trans_pixel.layers.0.1.fn.norm.bias f4 [32]
000000 ee ff fc 3c 7f 67 8e 3d 6d 56 a3 3d 1f a9 1d bd
       0.030883756 0.06953334 0.07975469 -0.038491365
000010 5f 6b 1b bd bf b9 46 3d ec 0f 88 bd 9d a7 c1 bc
       -0.037944194 0.048516985 -0.06643662 -0.023639495
000020 c0 41 fc bc 97 a9 86 3d 50 fe 96 3d 27 38 09 bd
       -0.03079307 0.065753154 0.07372725 -0.033500817
000030 2b 60 b4 bd 24 03 0d 3d d8 87 f1 ba 3b 71 75 3c
       -0.08807405 0.034426823 -0.0018427325 0.0149806095
000040 c4 bf 0b bd c2 fb 56 3c c7 92 87 bd b2 23 a7 bd
       -0.03411843 0.013121547 -0.066197924 -0.08161105
000050 37 79 56 3d c1 d2 9e 3d bf 80 45 bd e6 f8 60 3c
       0.052361693 0.07755042 -0.048218485 0.013731217
000060 a1 3e 19 3c 82 41 88 3d 67 f0 a5 bd a1 8f 9c 3d
       0.009353311 0.066531196 -0.08102494 0.076445825
000070 82 6b 5b bd a6 a6 15 3c 81 63 3c 3d f8 c5 48 bd
       -0.053569324 0.00913397 0.04599333 -0.049016923

local_trans_pixel.layers.0.1.fn.fn.net.0.weight f4 [8, 32]
000000 39 8d 04 3e b6 99 f4 3d e4 1c 49 3d 8c 95 95 bd
       0.12944497 0.119433805 0.049099818 -0.073039144
000010 6c e9 c4 3d 8f 10 96 bb d2 a5 d4 bd 04 05 f2 bd
       0.09614834 -0.0045796107 -0.1038319 -0.11817363
000020 42 34 25 be 35 08 15 be ca 4e 80 3d 22 59 d0 3c
       -0.16133216 -0.14553912 0.06265028 0.025433127
000030 1d de ec bc 95 91 f9 bc 50 6f e6 3c f1 46 7c 3d
       -0.028914506 -0.030464927 0.02812925 0.061591092
000040 f6 7d 26 be 0c 7e 5a 3c f2 ab a9 3d b9 4d 42 3e
       -0.16258988 0.013335716 0.08284749 0.18974961
000050 d3 d6 d0 bd 3d a1 a7 bd 00 a2 b3 bd d3 64 0e be
       -0.101972245 -0.08185051 -0.087711334 -0.13905649
000060 70 c6 11 be 91 53 33 3e 2a ff 13 be 05 bb b2 bb
       -0.14235854 0.17512347 -0.14452806 -0.0054544234
000070 82 78 91 bd 58 8f 17 3e 0e 07 31 be 8d 2a 0f 3e
       -0.07103063 0.14800775 -0.17287847 0.13981076
000080 5f ba bb bd 06 a3 00 3e 52 99 5a 3d 71 a7 c8 bc
       -0.09166407 0.12562189 0.053368874 -0.024493905
000090 18 8e 71 be 99 92 d3 bd 2c 0c 4a be 0d e0 4d bd
       -0.2358936 -0.10330696 -0.19731206 -0.0502625
0000a0 c7 d5 5e 3d a4 21 f2 3c 54 fc a2 3d c7 13 64 3c
       0.054403093 0.029557057 0.07958284 0.013920731
0000b0 6d df 62 3d fb 7d d5 bd 07 ce 2d 3d 0e 44 5c bd
       0.055388857 -0.104244195 0.04243281 -0.05377584
0000c0 b5 22 ef bc 20 ee f2 3b c8 5e 1a be 2f 46 13 bd
       -0.029191354 0.0074136406 -0.15075219 -0.035955604
0000d0 bc fb 30 bd 29 af e3 bd fd 47 0d 3e 81 ec 2d 3e
       -0.043208823 -0.111173935 0.13796993 0.1698475
0000e0 de 43 e1 bd 93 a4 55 bd 68 17 57 3e cb 9b c2 3c
       -0.10999273 -0.052158903 0.21005023 0.023755929
0000f0 6f 1d 0a 3d 15 0a a2 3d 9f 26 6e bd 58 cd 0f be
       0.033719476 0.07912079 -0.0581423 -0.14043176
000100 81 9d 1d be 92 ed 7c 3b b3 11 99 bb c7 c1 58 3e
       -0.15392114 0.0038593751 -0.0046712994 0.2116767
000110 75 53 3f 3e 41 d7 35 bd d7 19 ac 3d e4 da 61 be
       0.1868418 -0.044394735 0.08403366 -0.22056156
000120 18 4e 02 be 17 d0 70 bc c6 eb f1 3c 8f 2a 7c bd
       -0.12725103 -0.01469805 0.02953137 -0.061564025
000130 5e 5e ca bb 7d 4f b0 bd f3 35 e5 3d bb 4c 21 3d
       -0.0061758 -0.08608911 0.111919306 0.039379817
000140 8f 4b 82 bd 61 b3 de 3d 75 a8 95 bc df 96 04 bd
       -0.06362068 0.108740576 -0.018268803 -0.032370444
000150 0e 9b 15 3e d2 1e a8 bc 53 39 4a bd 26 70 20 be
       0.1460993 -0.020522509 -0.049371075 -0.15667781
000160 42 fa 3b 3e 03 e5 45 3e d0 14 02 bd 10 d1 8e bd
       0.18357185 0.19325642 -0.03175813 -0.06973469
000170 08 34 1c 3e 8f 2a 6d 3e 02 d8 ac 3d 76 62 f0 3c
       0.15254223 0.23160766 0.08439638 0.029343825
000180 1b bb 39 3e bb ed 57 3d be a1 4f 3d 85 98 ae 3d
       0.18137781 0.05271695 0.05069136 0.085251845
000190 4d 52 c5 3d 27 92 21 be 52 11 6c be 24 55 0d 3e
       0.09634838 -0.15778409 -0.23053482 0.1380201
0001a0 fa 1f 0f be 7a 47 c2 3d 01 c2 bf bd 42 31 21 3e
       -0.13977042 0.09486289 -0.09363175 0.15741447
0001b0 0a 5c 8d 3d 0a ad 00 be b9 b5 73 bd 01 3b 46 be
       0.06902321 -0.12566009 -0.059499476 -0.19358446
0001c0 4e ce af bd f1 7f bc 3d 59 aa 3b 3d 46 dd 81 3c
       -0.08584271 0.092040904 0.045816753 0.015852582
0001d0 5c 1b 1c be 97 eb c7 bd 08 be 4e be 99 46 0d be
       -0.15244812 -0.09761732 -0.20189679 -0.13796462
0001e0 41 61 96 bd 69 ae a6 3d 8e ce b6 3d 72 7f 37 be
       -0.073427685 0.08138735 0.08926116 -0.1791971
0001f0 90 c4 81 bd d4 d3 3c bd d0 22 01 be 24 b4 32 3e
       -0.063363194 -0.046100453 -0.12610936 0.1745153
000200 6d 97 2b 3e 57 b4 63 3d 67 ac f5 3d b8 17 50 be
       0.16756983 0.055591907 0.11995774 -0.20321548
000210 e8 ec 32 bd ef 69 c9 3b d4 e5 dd bc f2 dd f8 3d
       -0.043682963 0.0061466615 -0.02708713 0.12151708
000220 68 f2 19 3d 79 40 b7 bd d7 f2 25 3d 6d 68 cc bd
       0.037584692 -0.08947844 0.040514793 -0.09980855
000230 bb 67 93 bc e3 0a e9 3d 72 fb 7c bd 1d d3 c8 3d
       -0.017993798 0.113790296 -0.061763234 0.09805892
000240 d6 a8 2a 3e 37 f6 2b bd 52 6c 52 bd 0a 33 d2 3c
       0.16665968 -0.041982856 -0.051372834 0.025659103
000250 ba 7c e4 bd 0a 80 94 3c 40 ab ac bd d4 bc e8 3b
       -0.11156602 0.01812746 -0.08431101 0.007102588
000260 a2 0c 89 3c 31 43 40 be 19 32 82 3d 93 62 f5 bd
       0.016729657 -0.18775631 0.063572116 -0.11981692
000270 7e e2 bd bb c0 58 de 3a 86 da 38 3e c2 bd 2b 3c
       -0.0057948222 0.0016963705 0.1805211 0.0104822535
000280 36 54 9e bd c9 f4 f3 3d 59 2b 15 3d 2d 16 b2 3d
       -0.07730906 0.119119234 0.036418293 0.08695636
000290 f8 4e 88 3d 34 22 f2 3c 04 e4 48 3d ee 9a 19 3c
       0.06655687 0.029557325 0.049045578 0.009375317
0002a0 a6 89 93 bd eb c8 2b 3e c3 4e 8a bd 4e d1 19 be
       -0.07203989 0.16775863 -0.06753304 -0.1502125
0002b0 88 5a 9e bd 58 c6 31 be 94 57 2a be 4a da d3 3c
       -0.07732111 -0.17360818 -0.16634971 0.025860924
0002c0 c6 13 24 3d 4e 5d eb bd 1e 46 b9 ba 1f e9 cc bd
       0.04005792 -0.11492406 -0.0014135276 -0.10005402
0002d0 65 75 4c 3d af ae ab bd 1f ab f8 bd 6b 56 5b be
       0.049916644 -0.083829276 -0.12142014 -0.21419685
0002e0 20 39 f3 bd 97 df 4e 3e 9e 71 9b 3d 3e c1 10 3e
       -0.1187613 0.2020248 0.0759003 0.14136216
0002f0 ff 76 8a 3d 12 75 ff 3b ef 29 14 bb 95 53 3f be
       0.06760978 0.0077959383 -0.0022608002 -0.18684228
000300 2c 19 47 bd 22 3b 8e bc ac f5 1d be be 0c 98 3d
       -0.04860799 -0.017362181 -0.15425748 0.074243054
000310 60 a6 e1 3d 93 1c c4 bc 4e d7 fa 3d b2 22 1b 3e
       0.11018062 -0.023939406 0.12248097 0.15149954
000320 f9 6f 36 bd d6 cc 78 bd a5 09 66 be 13 86 d1 3d
       -0.04454038 -0.06074222 -0.22464617 0.10230651
000330 99 d6 70 3e fd fc b8 bd 4d d7 93 bd ab 7e 8f bc
       0.23519363 -0.09032629 -0.072188 -0.017516455
000340 df 71 04 3d dd 0b 50 bd f4 d4 4f 3e 26 3d 57 3e
       0.03233516 -0.050792564 0.20296079 0.2101942
000350 a0 e9 2c be a4 bd 01 be b3 76 93 3d c4 f4 22 be
       -0.16885996 -0.12669998 0.072003745 -0.15913683
000360 9b 0a b1 bd ea 52 90 bd 9e 68 4b 3e 08 89 3c be
       -0.08644601 -0.070470646 0.19864127 -0.18411648
000370 ff d5 92 3d fd 42 0c 3d 7c 8d d4 bd 58 02 9d 3d
       0.07169723 0.034243573 -0.103785485 0.07666463
000380 cf 1e eb 3c 93 40 0a be 32 19 7d 3c c6 2b 0b bd
       0.028701214 -0.13501196 0.015447902 -0.033977292
000390 75 93 23 3e a3 8a b7 bd e4 e7 2d bd f4 f0 14 be
       0.15974219 -0.0896199 -0.042457476 -0.14545041
0003a0 24 db d2 bd 0e 38 15 be c1 54 d1 3d f9 7b 58 be
       -0.10295704 -0.14572164 0.10221244 -0.21141042
0003b0 f2 81 15 3e 5f 16 f1 bd a8 12 38 3e 79 b7 0a be
       0.14600351 -0.11771845 0.17975867 -0.13546552
0003c0 6e 61 30 bd 35 46 11 3e 8b f8 0d 3e 2c 5c 6e 3d
       -0.043061666 0.14186938 0.13864343 0.05819337
0003d0 9d 20 42 3c 7a e6 9f bc 6d b1 33 3e 16 f1 84 bd
       0.011848596 -0.01951908 0.17548151 -0.06491296
0003e0 a8 9a 5c bd ff 53 fc bd 8e 51 2c 3d 6a 70 bc bd
       -0.05385843 -0.123207085 0.042069964 -0.09201129
0003f0 b1 ce 09 be f3 5f 01 be 7a 41 af bd e1 3a 51 3e
       -0.13457753 -0.12634258 -0.085574105 0.20432617

local_trans_pixel.layers.0.1.fn.fn.net.0.bias f4 [8]
000000 99 e1 3b 3d bc a1 17 be 20 12 bb bd 44 98 33 3e
       0.045869444 -0.1480779 -0.091343164 0.17538553
000010 ce c6 19 3e d5 38 12 bd 5d c9 42 be 0a db 2f 3d
       0.15017244 -0.03569873 -0.19022126 0.0429335

local_trans_pixel.layers.0.1.fn.fn.net.3.weight f4 [32, 8]
000000 19 57 ad be aa 51 80 be 29 ce db bd f8 ff 41 be
       -0.33855513 -0.25062305 -0.10732681 -0.189453
000010 8b d7 09 3e e4 9d fe bb 74 81 d3 3e 94 10 2e 3d
       0.1346113 -0.007770287 0.41309702 0.04249628
000020 73 37 bd 3d 6c c8 57 3e 50 2c f4 3d 99 b2 2d 3e
       0.09239092 0.21072549 0.119225144 0.16962661
000030 d7 7f 65 be 36 e8 5f 3c d3 81 b2 be 19 5f 79 3d
       -0.22412048 0.013666203 -0.34864673 0.060881708
000040 2d 17 42 3e c4 29 a8 be b5 0d af 3e 76 cc 78 be
       0.18954153 -0.32844365 0.34190145 -0.24296746
000050 f8 bd 93 be 35 08 1b be 9e 14 3e 3e 31 66 b4 3e
       -0.28855872 -0.1513985 0.18562552 0.35234216
000060 9e eb 8e be 8b ca fd bc 2a ae f9 bd a2 a7 79 be
       -0.27914137 -0.03098037 -0.12191422 -0.24380353
000070 8b 9e 94 3e e4 f3 48 3e 38 cd d5 be 93 85 83 be
       0.2902721 0.19624287 -0.41758132 -0.25687847
000080 a0 03 96 bc da db a5 3d dd 87 01 3e 6b 57 4c bd
       -0.018312275 0.08098574 0.12649484 -0.049888056
000090 f2 5c 1f 3e fb fb c6 ba 97 c8 b2 3e 72 c9 45 bd
       0.155628 -0.0015181297 0.34918663 -0.048287816
0000a0 c6 1c c6 3c 37 cd 72 3e 59 6c e3 bc 63 59 a6 be
       0.024183642 0.23711096 -0.027761625 -0.32490072
0000b0 d5 3b 1e 3e 14 52 71 3e 74 66 ae be 18 32 87 be
       0.15452512 0.23566467 -0.3406254 -0.26405406
0000c0 c1 f4 3f 3e 2d 3a 4d be a4 45 6a bc cc 09 74 bc
       0.1874571 -0.20041724 -0.01429883 -0.014894914
0000d0 e3 c6 84 3e 56 f7 78 3d ac 50 85 3e 5e 0e 44 3e
       0.2593299 0.060782753 0.2603811 0.19146106
0000e0 1a 28 7e 3e a9 f6 d9 3d 70 8b 03 be 16 b0 e3 bc
       0.24819985 0.1064275 -0.1284616 -0.027793925
0000f0 2f 81 9f bd e2 9e 8d be ee 3f 9e be 4a a5 55 3e
       -0.07788312 -0.2766028 -0.3090815 0.20863834
000100 41 57 a7 bd 3d 5d 9d be 8a 7b 6f be 17 36 a6 be
       -0.08170939 -0.30735198 -0.2338697 -0.32463142
000110 4c b8 89 be ac 56 33 3e 07 42 c1 be ca b7 b0 3e
       -0.2689842 0.17513531 -0.37745687 0.3451522
000120 b5 0c 78 bc 4f bc df 3d a0 07 26 3e 1d 62 a4 3e
       -0.015139748 0.10924589 0.16213846 0.32106104
000130 f9 67 56 be 70 5d 2f be 6e 42 c1 3c c4 2a 8b 3e
       -0.209381 -0.17125487 0.023591246 0.27181065
000140 b8 ef 01 3e 50 fc 10 bd cd c2 dd bb c6 d6 9f be
       0.12689102 -0.035396874 -0.006767607 -0.31218547
000150 c3 ff 83 3c 59 1b a6 3e 39 03 48 3e d0 b9 4e 3d
       0.016113168 0.3244274 0.1953248 0.050470173
000160 31 78 81 bd 28 4d 10 3e dc 27 9c 3e 18 1b 94 3c
       -0.06321753 0.14091933 0.3049916 0.018079326
000170 47 83 aa 3d 6e 9e f9 3d ce c3 46 3e 53 8f 7c 3e
       0.083258204 0.12188421 0.19410631 0.24664049
000180 b5 88 02 be 53 83 95 be c0 af 41 3e 1d be 06 be
       -0.12747462 -0.29201755 0.189147 -0.1315846
000190 7b 28 93 be 73 80 f7 bd ac 62 b5 3e 9b 41 8a 3e
       -0.28741822 -0.120850466 0.35426843 0.27003178
0001a0 21 95 26 be 11 39 8a bc 71 fc 91 bd 38 e5 21 be
       -0.16267826 -0.016872915 -0.071282275 -0.15810096
0001b0 82 d7 03 be ac 27 17 be 97 eb bc 3d c1 22 10 3d
       -0.12875178 -0.14761227 0.09224623 0.035189394
0001c0 0e b0 48 3d 05 5e e7 bd 9e 45 5e 3e 6e 5b 0e 3e
       0.048996024 -0.1129723 0.21706244 0.13902065
0001d0 91 9a c0 be e6 3e a0 3d 30 7e 1c 3e 8a 4d 9d be
       -0.37617925 0.07824497 0.15282512 -0.3072322
0001e0 91 96 59 bd 2c f7 c1 3e a5 25 f3 3d f9 b2 46 be
       -0.053122107 0.3788389 0.118724145 -0.1940421
0001f0 6d de 01 be 29 b8 40 be 22 d3 71 3e 84 47 c1 bd
       -0.12682505 -0.18820252 0.23615697 -0.09437469
000200 e4 ad 94 be d8 0e 91 bd 21 15 5e 3e a4 26 6a 3e
       -0.29038918 -0.07082909 0.21687748 0.22866303
000210 0b c1 b9 3e b1 fc a3 3e 23 05 54 3e 24 5e 15 bd
       0.36280093 0.32028726 0.20705085 -0.036466733
000220 23 f6 9a 3e be ae d4 3d 6e b8 1e 3c f0 69 30 bd
       0.30265912 0.10384892 0.009687526 -0.04306978
000230 44 05 6b be 13 5c 3c 3e 8e 76 98 bd 62 c0 64 be
       -0.22951227 0.18394499 -0.074444875 -0.22339013
000240 db 96 87 3e 93 b8 c5 be ad 33 bc 3e e8 f8 65 3e
       0.2648228 -0.3861738 0.36758175 0.22458231
000250 29 46 9a 3e d2 19 82 3a 7c e1 cb be f5 5f bf bd
       0.30131653 0.0009925908 -0.39820468 -0.09344474
000260 59 06 a4 3e 34 4b 3b 3e 1a 0c 09 3e 65 90 98 be
       0.32036093 0.18290406 0.13383523 -0.29797664
000270 ca 4d 56 3e a1 81 2c be 42 55 bb 3d 0e 5d 58 be
       0.20928112 -0.16846325 0.09147121 -0.21129248
000280 7b 7a 21 be 84 c4 f7 bc 60 f7 4d be 0a 37 24 3e
       -0.15769379 -0.030245073 -0.20113897 0.1603662
000290 09 c7 68 3e ea f6 bb 3e 79 f4 b8 be f0 df ea bd
       0.22732176 0.36711818 -0.36124018 -0.11468494
0002a0 2e e4 87 be 1f 53 34 3e 00 77 75 3e 75 c4 a5 3e
       -0.26541275 0.17609833 0.23971176 0.32376447
0002b0 3f 69 b6 3e aa 05 20 bd 43 a0 8f be 07 9b b1 bc
       0.3562717 -0.0390679 -0.28051957 -0.021680368
0002c0 5c c9 1f 3e 97 fe 24 bd 4b 04 b2 bd e0 50 4f be
       0.15604156 -0.04028186 -0.08692225 -0.20245695
0002d0 bf b8 54 3d 5a 1f 85 3d e5 b2 0d 3c d1 b1 f7 bd
       0.051934 0.065001205 0.008648609 -0.12094463
0002e0 4b 2d aa be a0 bb f7 3d 7f 44 40 be cf c5 8b 3e
       -0.3323768 0.120963335 -0.18776129 0.27299353
0002f0 1e 1d b2 3e fb 63 fc 3d a0 32 34 3b 09 8c dd 3d
       0.3478784 0.12323757 0.0027495995 0.10817725
000300 ac 6d a8 bd da d2 00 be ed 74 77 3e b8 a9 9f be
       -0.08224043 -0.12580433 0.24165697 -0.31184173
000310 20 de 5b 3e 18 d4 37 3d b6 44 04 3e 64 1f a8 be
       0.21471453 0.044880003 0.12916836 -0.3283645
000320 bd 6d 76 3e ca 7a 04 3e ee 5d 1c 3c e9 bf 7d 3d
       0.240653 0.12937465 0.009543879 0.061950598
000330 3a 94 c1 be 1f f2 6a 3e 55 40 03 be 8e 40 22 bc
       -0.378084 0.22943924 -0.1281751 -0.009903086
000340 31 1d 44 3e 88 bd 88 bd 3d b1 24 3e e2 12 fd 3d
       0.1915176 -0.06676775 0.16083236 0.12357117
000350 7e f0 87 3e d9 35 a8 bc 33 1f d7 3d 6b 66 91 be
       0.26550668 -0.020533489 0.10503998 -0.2839845
000360 40 d0 9d 3e bd 87 5d 3e dc b0 f6 3e dc bd e0 3d
       0.30822945 0.21633811 0.48181808 0.10973713
000370 40 03 06 3e 7a dc b5 3d 43 f1 c6 bd 05 e5 9b be
       0.13087177 0.08879943 -0.09713986 -0.30448166
000380 cb 8e a4 bd 25 9d 5a be 91 42 e5 bc 7b cc a8 be
       -0.08035048 -0.21349008 -0.027985843 -0.32968506
000390 31 2d c8 3d 70 f3 19 bc ff 91 ae 3e 04 8f 58 3e
       0.097742446 -0.009396419 0.3409576 0.21148306
0003a0 42 40 11 be 4d 5e 46 3e 22 7c 90 3d 23 05 23 be
       -0.14184669 0.1937191 0.070549265 -0.15919928
0003b0 d9 b8 56 3e 78 51 15 bd 00 b0 a0 3e 3b 28 cb 3c
       0.20968951 -0.036454648 0.31384277 0.024799457
0003c0 0b 48 18 3d 09 89 36 3e a5 b8 96 3e 3a 79 43 3e
       0.03717808 0.17825712 0.29437748 0.19089213
0003d0 8a 96 13 3c cc b0 d2 3d 1c 0c 75 3c ec 9d 9b 3d
       0.009008059 0.102876276 0.0149565 0.075984806
0003e0 cf 35 e3 3d 1b 0f d2 3d 79 aa 4f be 9f 9d 71 be
       0.110942475 0.102567874 -0.20279874 -0.23595284
0003f0 34 15 27 3e 08 15 8c 3e f9 72 92 bd 4d bf b5 be
       0.16316682 0.27359796 -0.071508355 -0.35497513

local_trans_pixel.layers.0.1.fn.fn.net.3.bias f4 [32]
000000 5c a0 24 3e 8d 85 00 be 4a 5e 29 3e db 0d 91 3e
       0.16076797 -0.12550946 0.16539875 0.28330883
000010 4e e0 12 bc 16 54 b3 3e 6f 7d 5c 3e a5 4f 8a bc
       -0.008964611 0.3502509 0.21532224 -0.01688368
000020 52 33 56 3d 97 33 61 3e 2d 5d 35 be d2 01 bf 3e
       0.052295037 0.21992336 -0.17711325 0.37306076
000030 2c 86 bd be 33 54 79 bd 9c 8a a4 be 2a d9 17 be
       -0.37016428 -0.060871314 -0.32137 -0.14828935
000040 36 33 21 3e 73 db af 3e 6d da c5 3e 1a ad b6 be
       0.15742192 0.34347114 0.38643208 -0.3567894
000050 7f 09 77 3e 00 c3 e5 3d 7f 54 a0 3d 45 8e 9c be
       0.24124716 0.11218834 0.07828616 -0.30577293
000060 38 c1 53 3e ee 3d 37 be 56 0e 0a 3e 92 a0 d8 bd
       0.20679176 -0.17894718 0.13482031 -0.10577501
000070 9d 46 6e bd 90 89 ac be 96 20 6a be 27 bd 3c bb
       -0.05817281 -0.33698702 -0.22863993 -0.0028799267

local_trans_pixel.layers.1.0.fn.norm.weight f4 [32]
000000 01 9c 8d 3f a6 45 85 3f 33 52 87 3f bc c5 92 3f
       1.1063234 1.041188 1.057196 1.1466594
000010 e0 bd 88 3f 0a 19 85 3f bb 43 8f 3f 43 63 83 3f
       1.0682945 1.0398266 1.1192545 1.0264667
000020 48 ae 8c 3f 42 7f 82 3f 94 14 88 3f f2 3e 84 3f
       1.0990686 1.0195086 1.063128 1.0331709
000030 31 f7 85 3f 17 5d 88 3f 33 25 88 3f 6a 75 88 3f
       1.0466062 1.0653409 1.0636352 1.0660832
000040 31 90 87 3f 58 d6 85 3f 29 9c 99 3f 96 72 80 3f
       1.0590879 1.0456038 1.2000781 1.0034969
000050 58 00 80 3f f2 86 87 3f 19 41 82 3f 63 8a 8a 3f
       1.0000105 1.0588057 1.0176116 1.0823482
000060 3e 0a 8d 3f e2 7b 84 3f 82 b8 87 3f 2a f8 85 3f
       1.1018751 1.0350306 1.0603182 1.0466359
000070 d5 ea 8e 3f 4b cd 84 3f dc 21 7e 3f d7 cd 8c 3f
       1.1165415 1.037515 0.99270415 1.1000317
