src/res/GGCL/guided_contra_cross_transformer/Pavia/10/True/true ss 0.3/_1711792573.pth (torch, 266710 bytes, 37 tensors)

pixel_pos_embedding f4 [1, 170, 32]
000000 dc 47 ba 3f 26 5e 6a be 6d f2 30 3f 73 9a a3 bf
       1.455318 -0.22887477 0.6911991 -1.2781509
000010 a8 f2 81 3f 26 9b db 3f d8 16 d4 3f 1d 9b 96 bf
       1.0152178 1.7156723 1.6569471 -1.1766087
000020 53 a6 41 3f 7a a8 06 3f f0 ef 88 bf 78 ac 37 bf
       0.75644416 0.52600825 -1.0698223 -0.7174754
000030 95 ce 3e 3f 39 26 58 3e 06 d5 c8 be 70 3d 86 be
       0.7453397 0.21108331 -0.39225024 -0.26218748
000040 b2 eb 99 be 6a ae d7 3f ca 28 65 bf 12 14 9c be
       -0.30062634 1.6850102 -0.89515364 -0.30484062
000050 83 22 c8 3f 01 aa c0 bf 98 e9 da 3c 91 31 2f bf
       1.5635532 -1.5051881 0.026722714 -0.6843501
000060 20 e9 e7 3d 97 c9 9a 3f a4 88 ee 3d 2e 79 1f bf
       0.11323762 1.209277 0.11647156 -0.6229428
000070 2a ba 87 bf 9b 15 68 bf 28 7c cf bc 41 7b ac be
       -1.0603688 -0.9065797 -0.025327757 -0.33687785
000080 d1 74 3a 40 ea bd c1 bf 6b 5b a1 3e 5d 4d ff 3e
       2.91338 -1.5136082 0.3151506 0.4986371
000090 01 ec ee 3e 88 7e 19 3f b7 fc 9e bf af 38 de be
       0.46664432 0.59958696 -1.2420872 -0.4340262
0000a0 ee d3 02 be f3 40 4c bd 0f 38 13 bf 22 f4 b1 3f
       -0.12776157 -0.049866628 -0.57507414 1.3902628
0000b0 49 c6 86 3e 00 65 34 be ad 4e 07 40 cb d6 a9 3f
       0.26323155 -0.17616653 2.114177 1.3268675
0000c0 80 10 e8 bf f7 26 48 3d 7d fa 11 40 55 a7 82 bf
       -1.8130035 0.048865285 2.2809136 -1.0207316
0000d0 50 f8 f5 3e c9 97 db be 58 b8 19 40 3d be f3 3e
       0.4804101 -0.4288924 2.4018764 0.47606078
0000e0 be 3e a2 3e 02 e1 51 3f 6b 41 10 3f ef dc 3f bf
       0.31688493 0.8198396 0.5634982 -0.7494649
0000f0 17 96 9f 3d b8 3b fa 3e 46 d1 a8 3e bf 80 b9 bf
       0.07792299 0.48873687 0.32972163 -1.4492415
000100 12 93 cd 3e 88 5f 93 be 3e a1 80 bf b2 6d b9 3e
       0.40151268 -0.28783822 -1.0049207 0.36216503
000110 7b 06 62 3f c3 ec ec bf d0 f3 eb be 05 e7 37 be
       0.8829114 -1.8509754 -0.46084452 -0.1795922
000120 2f 5c 31 3f c2 19 2c be b2 39 bb 3d 0f 1d 96 3f
       0.69281286 -0.16806701 0.09141864 1.1727618
000130 c2 15 85 bf dc 5b 03 3d 76 86 cd 3e c3 9a f2 3e
       -1.0397265 0.032070026 0.40141648 0.473837
000140 38 ad 02 3c 42 d0 d7 be 60 47 56 3e e7 ff a4 3e
       0.007975869 -0.42151076 0.20925665 0.32226488
000150 c0 1d a7 3f 1c 88 29 3f 86 17 67 3f 8c 5f 13 bd
       1.3055954 0.6622331 0.9027027 -0.035979792
000160 fa ac 96 be 7e 23 ab bf 3c 28 95 bf c1 33 f9 3f
       -0.29428846 -1.3370206 -1.1652904 1.9468919
000170 1e 6a 5f 3f 2e 0f 6f be bb 2a 84 be 8f 99 37 3d
       0.87271297 -0.23345634 -0.2581385 0.04482418
000180 47 c0 6f bf 98 33 70 be 23 be 37 be f6 fb b1 3d
       -0.93652767 -0.23457181 -0.17943625 0.08690636
000190 b8 ee ee 3e 8b f3 2e 3f 5d 54 8d bf 91 5b 8f bf
       0.46666503 0.6834037 -1.1041371 -1.1199819
0001a0 29 ac 54 bf 50 90 7e be 1a 59 1b 3f dc 0d 9b 3f
       -0.83075196 -0.24859738 0.60682833 1.2113605
0001b0 7a 89 84 bf 27 43 6f 3f f2 14 ae bd a2 ed 08 3d
       -1.0354455 0.9346184 -0.08500089 0.03342975
0001c0 5b e1 64 3f 91 30 82 be 0b 59 43 be 1a fa 1e bc
       0.89406365 -0.25427678 -0.19076936 -0.009703184
0001d0 aa b5 fd be 0d 15 26 bf ca e4 32 be 95 d0 73 be
       -0.4955266 -0.6487587 -0.17470089 -0.23810036
0001e0 0c a0 a0 bf 92 83 2b bf af 7d 3a bf 7c 31 14 bf
       -1.2548842 -0.66997635 -0.7284803 -0.5788801
0001f0 6f 6e 13 bf 1f 6c 65 3e 64 c6 5b 3f 40 2b eb 3c
       -0.57590383 0.22404526 0.85849595 0.028707147
000200 f1 51 90 bb 14 d2 b0 bf 63 d0 01 c0 8c 33 6a 3f
       -0.0044042994 -1.3814111 -2.028344 0.91484904
000210 1f de 2e bf 58 3f 1c bf db cc 97 bf f4 f3 13 be
       -0.6830768 -0.61034155 -1.1859392 -0.1444853
000220 71 7f bf 3e 33 55 61 3f 8a 43 a0 3e a2 04 0b 3f
       0.37401918 0.8802063 0.31301528 0.54303944
000230 48 05 aa 3f 57 06 96 bf dc 08 48 3e 1d cf d2 3f
       1.3282862 -1.1720685 0.1953463 1.6469456
000240 81 88 4a 3f fd 53 a1 bf e3 e0 74 3f c8 ac 92 be
       0.7911454 -1.2603756 0.9565565 -0.28647447
000250 cd c1 3d 3f 7c ac a9 3f 0a e2 74 3d 4c 61 f1 be
       0.7412384 1.3255763 0.05978588 -0.47144544
000260 4b 1b 64 3e 5a dc ea 3e da 07 30 3f 96 bc fc 3e
       0.22276036 0.4587124 0.6876198 0.4936263
000270 73 47 a2 bd c1 b1 24 3f 43 28 5a 3e 6f 56 60 bf
       -0.07923784 0.6433373 0.21304421 -0.8763189
000280 f4 90 56 3e fe b6 cc 3e 51 f8 b4 bf e7 ad d9 bf
       0.20953733 0.39983362 -1.413828 -1.7006196
000290 61 d9 d1 3f 41 59 62 be 45 af 54 3e bc a9 aa be
       1.6394464 -0.2210436 0.20769985 -0.33332622
0002a0 57 4f 60 bf 79 ac a4 be 64 31 bb 3d 4a f9 60 3f
       -0.87621063 -0.32162836 0.0914028 0.87880385
0002b0 73 e7 3e be 7b f3 b1 3f 11 7e 2e 3f 9c d9 9d bf
       -0.18642978 1.3902429 0.6816111 -1.2332034
0002c0 42 dc a1 bc 06 69 a7 be 15 05 c5 3f 3e c3 a3 be
       -0.019758347 -0.32697314 1.5392176 -0.31984895
0002d0 a9 ad 55 be cc 43 38 bf d0 79 36 3f 51 cb 11 c0
       -0.20867027 -0.7197845 0.7127962 -2.2780344
0002e0 7f af 16 3d f5 cf 7e bf 8a 75 57 bd 91 d8 8c bf
       0.03678846 -0.9953607 -0.05260233 -1.1003591
0002f0 f3 61 84 3e ca 08 05 3f 23 6f e0 bf 6f 38 5a 3f
       0.2585598 0.51966536 -1.7533916 0.8524236
000300 47 b2 e0 3f 1b 4f e7 3d 3b 58 0a 3f 13 aa 27 3f
       1.7554406 0.11294385 0.5404088 0.6549389
000310 ef 69 b6 3e bb ab 42 be 6c e6 9c 3e 63 16 db bf
       0.35627696 -0.19010822 0.30644548 -1.7116207
000320 21 cd 54 3f 39 3f 12 bf e9 0a 72 bf bc 3f 11 3f
       0.831255 -0.5712772 -0.945479 0.56737876
000330 50 70 00 3f 71 9b 90 3f c4 71 e4 3d 5b e8 3e be
       0.50171375 1.1297437 0.111545116 -0.18643324
000340 76 02 11 3e c4 d8 57 bf 19 d1 99 be e9 f7 ea 3f
       0.14161095 -0.84315133 -0.3004234 1.8356906
000350 b3 f2 92 be a9 74 23 3f f8 ae 39 3f b2 a2 b1 be
       -0.2870079 0.63849884 0.72532606 -0.3469444
000360 35 bc 60 bc 7f 25 c7 3d 2c 62 04 c0 96 97 e9 be
       -0.013716747 0.09723949 -2.068492 -0.45623463
000370 93 f3 00 bf 2a 6e cd 3f 84 74 50 bf 05 67 97 bf
       -0.50371665 1.6049244 -0.8142779 -1.1828314
000380 6a 49 5e 3e 1c 83 4f 3f d6 1c d2 3e 27 84 7b be
       0.21707693 0.8105943 0.41037625 -0.24562131
000390 30 32 2a 3f a6 d2 8b 3f dc f4 11 c0 8d d3 3e be
       0.6648283 1.092366 -2.28057 -0.18635388
0003a0 e5 31 62 3f a2 57 66 bf c0 94 21 bf 9a 26 e5 3e
       0.88357383 -0.8997747 -0.631176 0.44756013
0003b0 3b fb 2b bf f6 f2 24 be 2b 0e d4 be d1 63 da 3e
       -0.6718022 -0.16108307 -0.4141706 0.4265428
0003c0 e8 22 b9 bf 0f 09 4c bf 4f bd a2 3e e1 a0 52 3f
       -1.4463778 -0.7970132 0.31785056 0.8227673
0003d0 66 16 c7 bf 2f b7 ae bf f1 d7 5b be 87 c6 7e 3e
       -1.555371 -1.3649653 -0.21469094 0.2488042
0003e0 f0 6a 9c 3e 72 37 55 bf 82 77 fa be ed e8 3a 3f
       0.30550337 -0.8328773 -0.48919302 0.73011667
0003f0 49 eb 06 3f 86 84 1e bf 1c 88 50 3f 01 95 9d bf
       0.52702767 -0.61920965 0.81457686 -1.2311097

cls_token_pixel f4 [1, 1, 32]
000000 3e 2c 5d bf 02 8a 8f be 06 fe b8 bf 04 fe d2 3e
       -0.86395633 -0.2803498 -1.4452522 0.41209424
000010 ce b5 11 40 47 02 72 bf ea 36 0c bf 2f 6a 40 3f
       2.2767215 -0.94534725 -0.5477129 0.75162023
000020 b3 82 89 3f a0 c3 09 bf 7c 77 8e 3f 0d a2 8a bf
       1.0743011 -0.53814125 1.1130214 -1.0830704
000030 e8 f5 76 be 9a 27 8d be 91 fc 80 3f 18 b1 e5 3c
       -0.24117243 -0.27569276 1.0077077 0.028038546
000040 fa 39 52 bf 88 2c 5d 3f 8c dc 8e 3f eb 4f 2d bf
       -0.82119715 0.86396074 1.1161056 -0.6770007
000050 66 f5 62 3f 36 f5 5d bf 58 1c 9a bf de ec 07 3f
       0.886557 -0.8670229 -1.20399 0.53095806
000060 06 19 00 be 18 c8 71 bf 7a da b9 bf 98 fd 92 3e
       -0.12509546 -0.94445944 -1.4519799 0.28709102
000070 21 1f 0d bf ac c1 bb bf 48 d2 3a 3f dd 08 a1 3e
       -0.55125624 -1.4668479 0.72977114 0.31452075

pixel_patch_embedding.weight f4 [32, 30]
000000 ec 8e 0c 3e 38 76 a3 3c b0 eb 13 3e 9b 96 30 be
       0.13726395 0.019953832 0.14445376 -0.17244951
000010 ac 97 ae 3d 78 13 b3 3c 34 4d 18 bd 26 5e 2e be
       0.08525023 0.02185987 -0.037183 -0.17028102
000020 dc 33 bf 3d 92 3a 21 3e b0 da 4f bc 28 d1 a8 3d
       0.09336063 0.15744999 -0.0126864165 0.082430184
000030 80 b3 cd bb 08 7b 07 3e e8 87 13 3e f1 52 08 be
       -0.0062775016 0.13230526 0.14407313 -0.1331289
000040 3c fd ac 3d 4a 88 c1 bd 83 c1 2d be 48 70 b8 3d
       0.08446738 -0.09449823 -0.1696835 0.09005791
000050 24 68 19 3e 2c 92 7f 3d 48 bb 67 3d d0 ca 0f 3d
       0.14981133 0.06239526 0.05657509 0.035105526
000060 fa 7d 2d 3e 10 1b 16 3e 8c d9 58 3d d1 5d f5 bd
       0.16942587 0.14658761 0.052941844 -0.11980785
000070 e1 f6 14 be bc 66 24 3d 40 f5 37 bb 50 74 cc bc
       -0.14547302 0.040137038 -0.0028069764 -0.024957806
000080 6c dd c3 bd e8 d2 52 3d 6f b9 06 be d6 e6 88 bd
       -0.09563717 0.051470667 -0.13156675 -0.066846535
000090 74 3b a5 3d f7 80 3a be e8 74 04 3e f8 eb 76 3d
       0.080679804 -0.18213259 0.12935221 0.06028363
0000a0 d2 02 17 3e c0 30 63 bb 9a ab 18 3e 40 d9 0d bd
       0.1474717 -0.0034666508 0.14909211 -0.034631014
0000b0 d7 3f 28 be c8 14 12 3e 28 22 15 bd 0c cb 17 3d
       -0.16430603 0.1426574 -0.036409527 0.037058875
0000c0 54 d4 08 3e 8c 9d d8 3d c0 60 33 be 48 82 2a 3e
       0.13362247 0.10576925 -0.17517376 0.16651261
0000d0 4c 61 6f bd ed 12 96 bd e0 e8 10 be 50 6f 97 bc
       -0.0584424 -0.073278286 -0.14151335 -0.018485695
0000e0 0c 9e 09 3e a0 0f a7 bd 00 55 f4 3b b9 d5 ac bd
       0.13439196 -0.08157277 0.007456422 -0.08439202
0000f0 dc 1f 2a 3e 70 01 02 3c d0 0a dd bc 92 27 e8 bd
       0.16613716 0.007934913 -0.026982695 -0.113356724
000100 04 59 9b 3d 8a 7f 2b 3e 90 32 f2 bc 58 db 2f 3e
       0.07585338 0.16747871 -0.029565126 0.17173517
000110 c0 37 de bc 40 ca 87 bd e4 78 08 bd 20 d2 6a 3c
       -0.027126193 -0.06630373 -0.033318415 0.014332324
000120 a4 bc 73 bd ab 15 e5 bd 7c 96 22 be 34 e2 d9 3d
       -0.059506074 -0.111857735 -0.15877718 0.10638848
000130 af 9f d3 bd 9a 84 f6 bd 7e 15 28 3e 4f ea 89 bd
       -0.103331916 -0.120370105 0.16414449 -0.06734144
000140 a4 9a 15 3e 48 68 df bc 95 fe bd bd 40 fe 68 bc
       0.14609772 -0.027271405 -0.09277073 -0.014220774
000150 f1 1e 85 bd 90 9e 63 bd 64 65 88 bd 20 e4 29 be
       -0.06500042 -0.05557114 -0.06659964 -0.16590929
000160 d0 af f9 3c 26 d9 fa bd 60 4f 26 3c 74 fe ac 3d
       0.030479342 -0.12248449 0.01015076 0.084469706
000170 50 5a ca 3c 78 e8 14 be 14 50 a2 3d 80 8d b7 3b
       0.024701267 -0.14541805 0.0792543 0.005601585
000180 b6 6d 13 3e 70 21 ff bd 80 08 9a 3d b4 09 bc bd
       0.1439732 -0.124575496 0.075211525 -0.09181538
000190 b4 c4 fc 3d 67 55 09 be 42 71 e0 bd c0 cb d4 bb
       0.12342206 -0.13411485 -0.10959102 -0.0064940155
0001a0 40 02 e4 3d 2b e3 34 be 18 01 52 3d 30 e0 10 3c
       0.11133242 -0.17664783 0.051270574 0.008842513
0001b0 dc 6a d0 3d 06 72 2c 3e 50 f3 24 be 7c b5 3d bd
       0.10176632 0.16840371 -0.16108441 -0.046315655
0001c0 3c 03 01 3d 5e aa 22 3e 7e 44 34 3e 6b c4 ca bd
       0.031497225 0.15885302 0.17604253 -0.09900745
0001d0 21 3a b4 bd 67 50 1c be d0 19 39 3d 1b 56 34 be
       -0.0880015 -0.15265046 0.045190632 -0.17610972
0001e0 8c 0d 91 bd fc 4f de 3d a0 99 c3 3d 3f df 31 be
       -0.07082662 0.108550996 0.09550786 -0.17370318
0001f0 e4 de 8c 3d 5d 80 38 be 05 33 33 be 71 eb 36 be
       0.068784505 -0.18017717 -0.17499931 -0.17863251
000200 f0 88 4b 3d c0 9a a2 3d 38 e2 1b bd c4 b2 9e 3d
       0.04969114 0.079396725 -0.038057536 0.077489406
000210 e4 b0 9b bd dc d9 96 3d e4 9a 30 bd 31 e0 0f be
       -0.076020986 0.07365772 -0.043116465 -0.14050366
000220 ca 42 27 3e 80 4b 5a bb 8c 1a 30 be c4 11 08 3e
       0.16334072 -0.0033309162 -0.17197627 0.13288027
000230 c2 76 1c 3e b2 f3 35 3e 7c 93 11 3e d0 ca dc bc
       0.15279678 0.17768744 0.14216417 -0.026952177
000240 f3 f5 e5 bd bc f1 15 3e 60 de 68 3c ac b5 ad 3d
       -0.11228552 0.14642996 0.014213175 0.08481917
000250 f8 ba 87 3d 09 a4 bc bd 4c bc 8a 3d b5 84 b3 bd
       0.06627458 -0.09210975 0.06774196 -0.08765546
000260 c0 ae 27 be fc fa 02 be 3f 2f 92 bd e0 e7 75 3d
       -0.16375256 -0.12791055 -0.07137918 0.060035586
000270 10 c0 60 3d 5f 53 09 be 14 02 09 3e 76 98 0a 3e
       0.054870665 -0.1341071 0.13379699 0.13534722
000280 80 3e b9 bc e0 d8 54 3c 2a 49 08 3e 35 26 f8 bd
       -0.02261281 0.01299116 0.1330916 -0.121166624
000290 2c d7 8a 3d 80 5c c4 ba 08 a3 9b 3c b6 7c 94 bd
       0.06779322 -0.001498118 0.018998638 -0.07250349
0002a0 30 f5 c2 3d 48 33 f1 3c 82 13 19 be 76 67 90 bd
       0.09519422 0.029443398 -0.14948848 -0.070509836
0002b0 60 a1 20 bc 66 60 0d 3e 58 ab 71 3d 6c 60 bd 3d
       -0.0098041 0.13806304 0.059001297 0.09246907
0002c0 00 1f d9 bd a0 f8 0f 3e 2a 2e 8c bd 14 51 84 3d
       -0.10601616 0.14059687 -0.068447426 0.06460777
0002d0 5b d6 b8 bd 5c b7 22 be 01 32 1d be 00 82 f3 3d
       -0.0902526 -0.15890259 -0.15351106 0.1189003
0002e0 b4 84 dd bd 96 74 a9 bd 20 6b d0 3d c0 ec 5d 3d
       -0.10816327 -0.0827419 0.101766825 0.05418086
0002f0 b6 cd 24 be b0 e8 00 3e ed 13 bc bd e0 f8 f4 3d
       -0.16094097 0.12588763 -0.09183488 0.11961532
000300 99 86 1b be 94 79 e6 3d f4 64 0d be 83 be ab bd
       -0.15188064 0.11253658 -0.13808042 -0.083859466
000310 55 a0 a2 bd aa f0 2c 3e c6 91 15 be 1d 99 38 be
       -0.07940737 0.16888681 -0.1460639 -0.18027158
000320 ec 65 c3 3d 84 a8 19 3e 74 14 11 3e 60 1a fb 3b
       0.095409244 0.1500569 0.14167958 0.0076630563
000330 f0 8f 16 bd 4e d5 1e 3e 78 71 31 3e 63 b8 94 bd
       -0.036758363 0.15511057 0.17328441 -0.072617315
000340 40 d7 f9 bd e4 5a d7 3d 80 c5 ab 3d c2 29 af bd
       -0.12199259 0.10515383 0.083872795 -0.085528865
000350 50 53 ad bd 62 c5 33 be e8 fa b6 bc f4 60 26 3d
       -0.08463156 -0.17555764 -0.022336438 0.040619805
000360 80 49 04 3d 68 23 85 3d 14 fc f9 3d 58 ed 1c be
       0.032296658 0.06500894 0.12206283 -0.15324914
000370 31 5a 82 bd 30 ef 2a be 68 c4 0c 3e 90 e3 32 3e
       -0.06364859 -0.16692805 0.13746798 0.1746962
000380 90 32 a7 3d 38 93 a1 3c c4 b0 fe bd e0 65 23 3e
       0.08163941 0.01972352 -0.12436059 0.15956831
000390 90 f7 5d bd c4 e7 ab 3d 4c ce 6c 3d 04 42 ab 3d
       -0.054191172 0.08393815 0.057813928 0.08362201
0003a0 c8 35 d6 3d fc d9 dd 3d 87 00 80 bd a7 d1 d4 bd
       0.10459477 0.10832593 -0.062501006 -0.103915505
0003b0 00 4c f3 3c 40 cf a5 3d 78 2e fa 3c 62 52 37 3e
       0.029699326 0.080961704 0.030539736 0.1790252
0003c0 7c 3e 36 3e 08 d6 cd 3d 76 19 83 3d 50 a8 a7 3d
       0.17797273 0.10050589 0.06401341 0.081864
0003d0 e4 25 8d 3d 77 a1 28 be e4 66 05 bd 34 5c 81 3d
       0.06891993 -0.16467844 -0.032568827 0.063164145
0003e0 fc ad 13 3d 0f 28 88 bd 28 af 6d 3d ba 98 0e be
       0.036054596 -0.066482656 0.05802837 -0.13925448
0003f0 f8 1d 10 bd 58 bd 3e 3d a8 ab 1b 3e 57 d8 e5 bd
       -0.03518483 0.04656729 0.152022 -0.11222904

pixel_patch_embedding.bias f4 [32]
000000 a4 93 4e bd 08 56 34 3e 20 ee 5d 3d b0 8a b4 3d
       -0.05043377 0.17610943 0.05418217 0.08815515
000010 e4 65 61 3d 1c ff 32 3e 8d 05 1e be 58 c6 8d 3d
       0.05502881 0.17480129 -0.15431805 0.06922597
000020 b5 0c 1f be 28 30 29 3e f4 54 0f 3d 3a 03 1f 3e
       -0.15532191 0.16522276 0.034993127 0.15528575
000030 08 16 e3 3d 77 83 1b be 58 4d 9d 3c a8 5d f6 bd
       0.110881865 -0.15186869 0.01920192 -0.12029582
000040 3f 09 05 be 54 db f0 3d 24 ff fc 3d 10 c8 31 bd
       -0.12991808 0.117605835 0.12353352 -0.043403685
000050 08 2a 09 bd a0 9e cf 3c fe ad 2b 3e ec a7 f0 bd
       -0.03348735 0.025344193 0.16765592 -0.117507786
000060 da a0 32 be 30 16 28 3c 80 a1 2c 3e 40 57 8f 3d
       -0.17444173 0.010259196 0.16858482 0.069990635
000070 a2 96 21 be 86 27 a1 bd c3 a6 36 be 9d c0 20 be
       -0.15780118 -0.078688666 -0.17837052 -0.15698476

local_trans_pixel.layers.0.0.fn.norm.weight f4 [32]
000000 ca 7d 8e 3f cf da 8d 3f 15 73 94 3f d8 6e 8e 3f
       1.1132138 1.10824 1.159762 1.1127577
000010 a3 29 8a 3f 0c 1c 9f 3f 05 62 94 3f f0 1e 8a 3f
       1.0793957 1.2430434 1.1592413 1.0790691
000020 c2 69 96 3f e8 6b 96 3f ec f2 95 3f af ca 93 3f
       1.1751025 1.175168 1.1714759 1.1546229
000030 0c 24 92 3f f9 d5 95 3f 41 b9 8a 3f c4 a9 93 3f
       1.1417251 1.1705924 1.0837785 1.1536183
000040 c5 fa 8c 3f 98 38 8b 3f 9e df 95 3f 44 0e 8e 3f
       1.1014029 1.0876646 1.1708868 1.1098104
000050 d5 df 92 3f 09 08 93 3f 64 55 8e 3f bc 6d 90 3f
       1.1474558 1.1486827 1.1119809 1.1283488
000060 20 fc 8f 3f 43 7e a0 3f e0 f4 87 3f df bb 90 3f
       1.1248817 1.2538532 1.0621605 1.1307334
000070 2b 31 93 3f b8 f7 90 3f 3c 45 91 3f 0c 16 94 3f
       1.149938 1.1325598 1.1349254 1.1569228

local_trans_pixel.layers.0.0.fn.norm.bias f4 [32]
000000 99 98 87 bd 7b 2b 00 3b 90 37 94 3c 62 b5 ad bd
       -0.066209026 0.0019557166 0.0180929 -0.08481862
000010 53 d6 b3 3d ad 19 a7 3d 34 ed 89 3d cc 1a 5b bc
       0.087811135 0.08159194 0.06734696 -0.013373088
000020 c2 05 40 3c fb 95 1a bd f0 f2 f3 3b 09 dd 59 bd
       0.011720123 -0.03774069 0.007444732 -0.05318931
000030 14 84 07 bc 46 e5 15 3e cf 41 37 3d 8f cb 2a 3d
       -0.008271236 0.14638242 0.044740494 0.041698035
000040 3b 6c 0e bd fc 8a 31 3c a6 79 e5 bb e7 71 16 bd
       -0.034771185 0.010836359 -0.007003027 -0.03672972
000050 63 70 77 3c 29 db 62 bd 24 05 97 bd 97 4b 53 3c
       0.015102479 -0.05538479 -0.07374027 0.01289644
000060 30 13 7a 3d c7 69 ff 3c c3 b0 6f 3c 15 e6 71 bd
       0.061053455 0.031178368 0.014629546 -0.059057314
000070 18 11 38 bd 2e 90 6a bd 32 c7 9f bc df 34 a9 3d
       -0.044938177 -0.057266407 -0.019504163 0.082620375

local_trans_pixel.layers.0.0.fn.fn.to_qkv.weight f4 [768, 32]
000000 26 12 06 3e b7 0e c6 bd 82 6a 38 3d 8a 10 2b ba
       0.1309286 -0.096707754 0.04502345 -0.0006525597
000010 0e ba 1c 3e 28 61 1a 3e 9e 52 20 be c8 c3 e7 3d
       0.15305349 0.15076125 -0.15656516 0.11316639
000020 05 84 32 bd 89 79 8b 3d b7 44 c4 3d 5b 17 54 3e
       -0.043582935 0.0681029 0.09583419 0.20712034
000030 4a 1d ca bd e2 69 29 be 48 9d bc bd 23 64 9f bd
       -0.09868868 -0.16544297 -0.092096865 -0.077827714
000040 b9 02 0e be 21 9e fc 3d 02 f3 54 be ac 98 06 be
       -0.13868226 0.12334848 -0.20795825 -0.13144177
000050 83 db d1 bd d9 10 2b 3e 53 dc 5d 3d be 1d 9d bd
       -0.10246947 0.16705646 0.054165196 -0.076716885
000060 72 9b 38 bd 79 29 9c 3d e8 99 2a be 72 90 a8 3d
       -0.04507012 0.07625098 -0.16660273 0.08230676
000070 3a b4 0d bd ef 51 02 3e f8 ca 40 3d a7 ca 8d bd
       -0.034595706 0.12726568 0.047068566 -0.069234185
000080 34 de f2 bd c9 fd 57 bd 22 0b 23 3e 14 cd c3 bc
       -0.11858788 -0.052732263 0.15922216 -0.0239015
000090 a5 c2 38 be 22 c5 90 bd 3c 76 38 be 52 8c 9d 3e
       -0.18043001 -0.0706885 -0.18013853 0.30771118
0000a0 5c 8d db bd 4d ad 3b 3d a8 d0 72 be 72 1c 0f bd
       -0.107203215 0.04581957 -0.23712409 -0.034939237
0000b0 da e1 f3 3d 7c a1 5e be 32 bb ea bd 2b ef 38 3d
       0.11908312 -0.21741289 -0.11461486 0.045149963
0000c0 03 bd 00 3e 86 21 6a 3c a3 8b 29 3e 74 f0 56 3e
       0.12572102 0.014290219 0.16557173 0.20990163
0000d0 06 dd f4 bb eb 56 22 3e 81 35 ea bd 5f ff b3 bd
       -0.007472637 0.15853469 -0.11435986 -0.087889425
0000e0 b0 0b 86 be ba 7f 1d be b3 46 98 bd 72 ab 86 3e
       -0.26180792 -0.15380755 -0.0743536 0.26302677
0000f0 f5 c4 94 3d 03 8f 1d 3e b9 86 45 bc 20 0e b9 be
       0.07264129 0.15386586 -0.012056046 -0.3614359
000100 8e 44 7b be d6 fc 24 3e cf 5e c1 3c f3 42 31 3d
       -0.2453787 0.16112074 0.023604779 0.04327674
000110 55 db be bc ff a9 c8 bd 6d ec 22 bd df a9 fd 3d
       -0.023297945 -0.09798049 -0.039776254 0.12385916
000120 81 18 37 3d 7e bf 53 3e 6d 2b 8e 3d ab f9 85 3e
       0.044701103 0.20678517 0.069418766 0.26167044
000130 4d 5d f3 bd e7 f4 97 bd 39 b1 06 bd ec 9a 34 be
       -0.1188303 -0.07419758 -0.032883856 -0.17637223
000140 45 9a 79 3d ca 45 aa 3d a1 16 21 be 67 9b fc bd
       0.06093814 0.083140925 -0.15731288 -0.12334328
000150 bc bd fc 3d ee 5e 5a 3d 72 ea fe bc f8 6e 46 3e
       0.123408765 0.05331319 -0.031117652 0.19378269
000160 bb 02 b5 bc 76 f6 56 be 6a d0 80 3d 37 f9 e0 3d
       -0.022096029 -0.20992455 0.06289752 0.10985034
000170 9d 5d 9c 3d 1e e7 62 3e 30 3a 4e be 79 9c 16 bd
       0.07635043 0.22158477 -0.20139384 -0.036770318
000180 07 07 21 3c 2b ac 74 be 0f e2 18 bd 57 e9 cf bd
       0.009828336 -0.23893802 -0.03732496 -0.10151928
000190 b1 e8 4e bd 26 cc e4 bd c8 d1 1a bc a7 24 c2 3c
       -0.05051488 -0.11171751 -0.00944943 0.023699118
0001a0 68 9f d6 3d d8 9b 63 3e 32 b2 72 3e f6 f2 31 bd
       0.10479623 0.22227418 0.23700789 -0.043444596
0001b0 80 96 a5 3d 04 86 9a 3b a3 88 28 be 53 d5 80 be
       0.08085346 0.004715683 -0.16458373 -0.25162753
0001c0 6d ab 9a bc 71 f9 54 3d 40 06 2a 3d b7 51 db bd
       -0.01888057 0.0519957 0.041509867 -0.10708945
0001d0 ae d6 25 bd 87 a3 75 bd 9f 35 3c be dd 3f 1d 3e
       -0.040487938 -0.059970405 -0.1837983 0.15356393
0001e0 f4 74 82 bd 83 fd 92 3e 01 65 8f 3d 1b fb 0e bd
       -0.06369963 0.2870904 0.07001687 -0.03490744
0001f0 b3 31 2b bc db 99 fb 3d ae 7c af bc 5a c8 d9 bd
       -0.010448861 0.12285205 -0.021421757 -0.10633917
000200 5c 55 e5 bc 41 16 04 3e 2b f7 46 be 9f c3 66 be
       -0.027994804 0.12899114 -0.19430225 -0.22535561
000210 cc 85 c0 3d 41 0f 0c 3e d2 e7 1e 3e bf f9 52 be
       0.0940052 0.13677694 0.1551812 -0.20603083
000220 43 a6 39 3b 99 04 44 bd 1f 23 48 bd 30 f6 70 3d
       0.002832786 -0.047855947 -0.04886162 0.058828533
000230 7c 0f 41 3e 5a 67 8a bc b3 56 2d 3e 22 a4 cb 3c
       0.18853563 -0.016894985 0.16927604 0.024858538
000240 ea ea ec bd 3b 20 3b bd a2 da 12 3d ce cc ac bd
       -0.11568244 -0.045685034 0.035853036 -0.08437501
000250 69 19 ec 3d 01 8b cf 3d bf ed 9f bd b9 73 e4 bd
       0.11528284 0.10133935 -0.07809018 -0.11154885
000260 97 67 41 3e 73 f4 16 3e 79 6f 1e be d6 c5 48 3b
       0.18887173 0.14741687 -0.15472211 0.0030635498
000270 b3 9d 24 be 87 6a 0f be 60 11 0a 3e 87 f8 28 3e
       -0.16075782 -0.1400548 0.1348319 0.16501056
000280 d0 e4 1c bc ef 87 c4 3d 85 de 26 be 6f cc 35 3e
       -0.0095760375 0.0959624 -0.16295822 0.17753766
000290 29 a4 c7 bd 82 53 06 3e ad ac 68 3d f3 fb ad bd
       -0.09748108 0.13117793 0.0568053 -0.08495321
0002a0 e8 29 af 3d 79 4a 82 3c 15 e0 9d 3d 40 df cf 3d
       0.08552915 0.015904652 0.07708756 0.101500034
0002b0 22 fa 11 bd a3 ec 2d bd 0e 06 83 be 3d 6e 1c be
       -0.035638936 -0.042462002 -0.25590557 -0.15276428
0002c0 a7 8b 10 be 95 53 4d 3e e5 c3 5d 3e 53 c7 42 be
       -0.14115773 0.20051415 0.21656759 -0.19021349
0002d0 3e c4 95 bd 37 25 19 bd 9f d3 c9 bd de c2 1d bd
       -0.07312821 -0.037389006 -0.09854817 -0.038515918
0002e0 96 4b 92 be e5 09 7c 3e 70 8e b3 bd 8e 27 f2 3d
       -0.28573292 0.2461315 -0.08767402 0.11823951
0002f0 1b 1b 15 3e 1f da ec 3d ae ad aa 3b 4c 8a 95 bd
       0.14561121 0.11565041 0.0052086925 -0.07301769
000300 51 6e 12 3c 78 79 86 bd e2 fc 10 3d 81 7c 6c bd
       0.008937434 -0.06566137 0.035397418 -0.057735924
000310 f6 15 9c bc 0f 8c f9 bd d7 86 c4 bd a7 e1 b0 bd
       -0.01905344 -0.12184917 -0.09596031 -0.0863679
000320 92 b9 b8 3d ca 7f ce 3c 61 f7 81 3e 38 2a 16 3d
       0.0901977 0.025207419 0.25384048 0.036661357
000330 75 b8 85 3d c8 56 06 3e 28 2b 81 3e 22 2d 10 be
       0.06529323 0.13119042 0.25228238 -0.14079717
000340 3f d2 f9 bd 5d 76 34 3e f2 6e ca bd d1 b3 99 bc
       -0.121983044 0.17623277 -0.098844424 -0.018762501
000350 ea 2c 1d 3e 10 b1 79 bd bf ca 41 be f1 fd 9a bd
       0.15349165 -0.060959876 -0.18924998 -0.07567967
000360 78 89 70 3e 66 92 87 3e e1 b2 34 3d a0 8a b0 bc
       0.2348994 0.2647888 0.044115905 -0.021550477
000370 09 ab ac bd 86 9c 54 3c a5 38 fe bc b9 c6 07 3e
       -0.0843106 0.012976771 -0.03103287 0.132594
000380 2c b1 0c 3e 3d 0a ca 3d 59 86 0f be 62 ba 41 be
       0.1373946 0.09865234 -0.14016093 -0.18918756
000390 57 0d b7 bc f5 7c 2d bc 3b 69 e5 3c 0a 7b d8 bd
       -0.022345228 -0.010588874 0.02800428 -0.10570343
0003a0 6d 69 5c bd 5c 09 03 bd 5f 94 0d be e9 d6 6d bd
       -0.05381148 -0.031991348 -0.1382613 -0.058066282
0003b0 28 c2 8d 3e b5 f6 0e 3e 9f ed 40 3e f2 ff f5 bb
       0.27687192 0.13961299 0.18840645 -0.0075073177
0003c0 b6 1e a7 bd fc 98 d1 3c a1 57 6d bd d8 05 58 be
       -0.081601545 0.025585644 -0.057944898 -0.21095979
0003d0 c7 8d 3a 3c 19 4f 39 3d 0e a4 32 be 68 97 0d 3e
       0.011386341 0.04524145 -0.17445394 0.13827288
0003e0 f4 af aa bc ef 61 e8 3d d7 4d 0f bd 58 f3 3b 3d
       -0.020835854 0.11346804 -0.034986343 0.045886368
0003f0 8d a6 b5 bd f1 7b 57 bd 95 6d 54 bc 38 48 9a 3d
       -0.08869658 -0.052608434 -0.0129655795 0.07533306

local_trans_pixel.layers.0.0.fn.fn.to_out.0.weight f4 [32, 256]
000000 65 f3 5e bd 4c 20 29 3d eb 0a cf bb a7 24 ea bc
       -0.054431338 0.041290566 -0.00631844 -0.02858193
000010 26 da 09 3e 09 2d 42 3d 86 96 8a 3d 84 7e e2 3d
       0.13462123 0.04740623 0.06766991 0.11059287
000020 39 b0 b3 bd 17 d3 bd bb f3 b8 1f bc 3d 7d 4f 3d
       -0.08773846 -0.005792986 -0.009748685 0.050656546
000030 c5 e8 60 3d b1 0f 92 3d 1a 1e 36 3d 91 cb 5b 3c
       0.054909486 0.07131899 0.0444623 0.013415233
000040 4c 5f 2b bd 4d f8 41 bd 66 4a db bc 88 68 98 bb
       -0.04183893 -0.04735594 -0.026768874 -0.004651133
000050 d2 44 48 bd 0e 3e a9 bb 9b 10 29 3d d2 41 b6 bc
       -0.048893757 -0.005164868 0.0412756 -0.022248182
000060 90 18 f0 bd c7 94 c2 bd 82 73 0b bd c7 9c 41 bd
       -0.11723435 -0.09501033 -0.034045704 -0.047268655
000070 e6 4f ff bb 91 18 d2 bc f2 90 92 3c c2 d7 de bc
       -0.007791507 -0.02564648 0.017891381 -0.02720249
000080 e4 14 de bd 7c fa 6f bc 27 d8 93 bd 74 f6 08 3c
       -0.10843828 -0.0146471225 -0.07218962 0.00835954
000090 fa b2 63 bd f4 a4 1e 3c 04 22 67 3d 9f 4a 1a bd
       -0.055590607 0.009682883 0.056428924 -0.03766882
0000a0 55 08 c3 3c 07 c6 cc bd 33 3a 59 3d ef b0 3f 3d
       0.023807684 -0.09998708 0.05303402 0.046799596
0000b0 f0 44 dd bb ea 92 55 bd d8 d4 94 bc 56 93 63 bd
       -0.0067526028 -0.05214206 -0.018167898 -0.055560432
0000c0 82 ee f3 3c b0 49 66 bc 40 01 9a bd 68 4e f6 bc
       0.029776815 -0.014055654 -0.0751977 -0.030066684
0000d0 88 d9 d0 3c 39 a5 80 3d 27 80 64 3c bd a9 c6 3c
       0.025494352 0.06281514 0.0139465695 0.02425086
0000e0 fa d0 5c 3d 62 3c c5 3c c9 08 a2 3d 18 d3 fe 3d
       0.053910233 0.024076644 0.07911832 0.12442607
0000f0 5b f2 8e 3d 34 e7 af 3d cc 43 d4 bc 3d a1 8b bd
       0.069798194 0.0858902 -0.025911234 -0.06817863
000100 13 bf be bd 7d 53 a7 3d d3 7b 01 be f7 77 87 bd
       -0.09313788 0.08170221 -0.12644891 -0.06614678
000110 1a 56 33 3c e6 6d ca 3d 1d 07 d7 3c a2 71 d8 bd
       0.010945821 0.09884243 0.026248509 -0.10568549
000120 e6 a7 91 3d b6 43 9d bd b3 91 a8 3b b7 d4 4b bd
       0.07112102 -0.076789305 0.005144322 -0.049763408
000130 b4 1d 6c bd 67 96 c9 ba 4a 54 88 bd 24 db 35 3d
       -0.057645515 -0.0015379906 -0.06656702 0.044398442
000140 f8 83 a3 3d 16 8a 8d 3d 67 27 2b bd 55 bc 5d 3d
       0.079841554 0.069111034 -0.041785624 0.054134686
000150 30 fd 4a 3d e7 40 91 3d bb 55 88 bd a9 0b 3f 3b
       0.049557865 0.07092457 -0.06656977 0.0029151237
000160 16 f0 92 3c 2b e6 98 3c a9 79 b3 bd 49 de f1 ba
       0.017936748 0.01866444 -0.08763439 -0.0018453087
000170 80 2f 90 bc 4c b4 12 bd c0 24 ad bc 64 7e 9c bc
       -0.017600775 -0.035816476 -0.021135688 -0.019103236
000180 01 bc 8c 3d 8b 99 4f bd 82 9e ae bd 2f 04 e5 bd
       0.068717964 -0.05068354 -0.08526327 -0.111824386
000190 09 02 a1 3d 4e 43 a4 3d 34 5c cc 3d 44 c8 fc 3c
       0.07861716 0.0802065 0.09978524 0.030857213
0001a0 8f 00 de 3d 80 71 89 bd 2f 19 54 bc 3d c1 8d bd
       0.1083995 -0.067111015 -0.012945457 -0.06921623
0001b0 44 47 a9 bd bb de 17 3d dc fe 92 3d 21 ba 93 bd
       -0.08265546 0.037077647 0.07177517 -0.07213236
0001c0 3e 27 8a bd 9f 5c 49 3d e4 53 5f bc 34 51 a7 bb
       -0.06745766 0.049160596 -0.013630841 -0.0051061157
0001d0 c0 c6 1c 3d a9 67 02 bd a9 81 ac 3c b9 b3 e8 3c
       0.03827548 -0.03183714 0.02105792 0.028406011
0001e0 fd e6 f3 bc 1c 42 48 3d bf e6 6e bd 78 97 d6 3c
       -0.02977323 0.04889117 -0.058325525 0.026195273
0001f0 2f 3f da 3d ed 82 f1 3b 12 8f 7d bc bb 29 d0 bd
       0.106565826 0.007370344 -0.015476005 -0.101642095
000200 12 3a 75 bd f3 52 31 3d 83 57 42 3b 45 d5 d0 3d
       -0.059869833 0.043291997 0.0029654212 0.10196928
000210 01 02 b0 3d a5 7c 56 3c 25 66 01 3c 5e 6e 1d be
       0.08594132 0.013091241 0.007897888 -0.15374133
000220 dd 77 b3 bc 67 1e b6 bc 48 0c be bc 20 21 74 bc
       -0.021907741 -0.022231294 -0.023199216 -0.014900476
000230 a9 d5 89 bd bd d2 ae bd 33 03 19 3d c7 70 53 bd
       -0.067302056 -0.08536289 0.037356567 -0.051621225
000240 90 7d 99 3c 32 ec 1d 3d 8d e5 9f bc 50 74 3b bd
       0.01873663 0.03855533 -0.019518638 -0.04576522
000250 72 f4 d2 3d 82 b6 0a 3d 82 01 63 3d 0c 86 ff bc
       0.103005305 0.03386546 0.05542136 -0.031191848
000260 9c 91 99 3d 06 bb 9e 3c 1f 54 80 3d 82 0b a8 3c
       0.07498476 0.01937629 0.06266045 0.0205133
000270 eb da ee bc 03 08 f0 3c 0d eb 6a 3d 3b 42 9f 3d
       -0.029157123 0.029300695 0.05735307 0.07776304
000280 28 7b 87 3c 8a e0 49 bd 8b d0 0a bd 09 ed ab 3c
       0.016538218 -0.049286403 -0.03389029 0.02098705
000290 06 7a 54 bd 54 41 a9 bd df 47 ca bd e7 d0 f0 3c
       -0.051874183 -0.082644135 -0.098769896 0.029396487
0002a0 34 5a ea bc 32 71 0d bd b1 78 79 bd e0 c8 8d bd
       -0.028607465 -0.03453178 -0.060906116 -0.069230795
0002b0 e1 3c 4c 3c 40 66 f3 3c 9f 51 52 bc 65 cf 42 bc
       0.012465687 0.029711843 -0.012836843 -0.011890267
0002c0 30 42 22 bd ab e3 48 3d a7 ea b2 3c 37 e7 05 bd
       -0.039613903 0.049045246 0.021840407 -0.032691207
0002d0 73 02 d6 3d bb d8 01 bd 74 4c 89 bd c2 8a a8 3c
       0.10449686 -0.03170083 -0.067040354 0.020573977
0002e0 db 42 4c bd 0b 09 26 3c 41 70 45 3d ac 09 ce 3c
       -0.049868446 0.010133992 0.048202757 0.025151096
0002f0 a6 b3 bd bd 54 e7 90 3d 18 db 8e bb 52 03 89 bd
       -0.09262781 0.07075372 -0.004359614 -0.066900864
000300 ef ce eb 3b 98 5f 84 bd 13 8d c6 3b 00 40 ab bd
       0.0071962993 -0.064635456 0.006059298 -0.083618164
000310 11 de 00 3d 6c a0 7c bd fa eb 37 bd 4f 7a e0 3b
       0.03146178 -0.061676428 -0.04490278 0.006850518
000320 76 e1 87 3d 9a bf 6e bd 85 fb 74 3d b1 53 9c bd
       0.066348 -0.058288194 0.05981018 -0.0763315
000330 5d 6f 7b 3d ef 77 a7 3d 34 ff 87 bc 01 ef d7 3b
       0.0613855 0.081771724 -0.016601183 0.006589771
000340 f5 b9 68 bd 85 23 be 3d 98 3c 7e bd de e1 b7 3c
       -0.056817967 0.092841186 -0.062069505 0.022446569
000350 06 5f 5c bc c9 99 1c bd 04 44 a0 bc 7f 4c 11 3e
       -0.01345039 -0.0382326 -0.019563682 0.14189337
000360 63 f0 92 3d ce 3f 86 3d 6f 59 f1 bc 71 35 0f 3e
       0.071747564 0.065551385 -0.02946159 0.1398523
000370 8a 95 04 3c a3 bf a3 bd 0c 23 b6 3d cb c6 71 bd
       0.0080922935 -0.07995536 0.088934034 -0.059027474
000380 bc bd 8e 3d 10 a8 95 3d cf a8 dd bc 28 f0 ab bc
       0.06969783 0.07307446 -0.027058033 -0.020988539
000390 0e 83 ed 3d 52 49 63 3d 6b 75 5c 3d d1 aa 4d bc
       0.11597262 0.055489846 0.053822916 -0.012552933
0003a0 43 8c a4 bb 69 bb 03 3d e9 26 97 bd 45 81 82 3c
       -0.0050216033 0.03216115 -0.073804684 0.015930781
0003b0 28 93 d0 bd a9 9c ad bc 58 25 f1 bb c0 d7 e7 3c
       -0.10184318 -0.021192865 -0.007359188 0.02830112
0003c0 af 8d 59 bd e0 af 25 bd 9e c3 df bd 56 d9 3e 3d
       -0.053113636 -0.04045093 -0.10925983 0.046593986
0003d0 b9 70 08 3e d2 1d 12 bd 14 67 83 bd d5 60 a4 3d
       0.1332425 -0.03567297 -0.06416145 0.08026282
0003e0 14 3e fa 3c de 52 75 bd c3 47 53 bc 4f 32 fa 3c
       0.03054718 -0.05989348 -0.012895527 0.030541567
0003f0 eb 6e de 3d c3 cf 53 3d cb 9e e0 bc 06 68 e0 3b
       0.10861 0.05171181 -0.027419468 0.006848338

local_trans_pixel.layers.0.0.fn.fn.to_out.0.bias f4 [32]
000000 dd 36 a0 3c 6f e2 5f bd 8d 1e d7 bd 47 26 07 bd
       0.01955741 -0.054659303 -0.10503874 -0.03299549
000010 87 e6 99 bd 17 5e 83 bc 33 e9 e5 3c a3 cd 0d 3d
       -0.07514673 -0.016036076 0.0280653 0.03461994
000020 ea 3a 87 bb a1 db 80 3d 37 20 15 bc 59 9d 09 3d
       -0.004126896 0.06291891 -0.009101919 0.033597324
000030 ab 10 73 bc fa 57 d9 bb e1 9d 16 bb e7 93 f1 bd
       -0.014835517 -0.006632802 -0.0022982287 -0.11795788
000040 ae 9f dd bb a6 a1 d1 3b 05 16 18 3d d5 ff 22 bd
       -0.00676342 0.006397444 0.037130374 -0.03979476
000050 6f d0 93 bd 48 4f 52 3d 3a 38 8e 3c 88 3b ab 3d
       -0.0721749 0.05134514 0.017360795 0.08360964
000060 ec e4 10 bd ab 94 e7 bd 98 f3 15 be 28 d0 87 bc
       -0.035374567 -0.11307653 -0.14643705 -0.016578749
000070 a3 b3 81 3d 2b 52 f5 bb ce 4e e2 3c 63 29 1c bb
       0.06333091 -0.007486602 0.027625468 -0.002382838

local_trans_pixel.layers.0.1.fn.norm.weight f4 [32]
000000 34 b1 92 3f 22 71 81 3f 19 be 85 3f 95 77 82 3f
       1.1460328 1.011265 1.0448638 1.0192744
000010 cf 9f 80 3f b2 e7 90 3f c3 46 89 3f d1 ee 82 3f
       1.004877 1.1320708 1.072472 1.0229131
000020 e5 cc 8b 3f ef 56 86 3f 5c fa 95 3f 0b f1 7f 3f
       1.0921904 1.049528 1.1717029 0.9997718
000030 ed 36 8d 3f b7 84 90 3f b2 b3 83 3f 6f f8 86 3f
       1.1032387 1.1290501 1.0289214 1.0544566
000040 84 f0 83 3f 4d e5 82 3f 57 f4 89 3f 3d c2 86 3f
       1.0307775 1.0226227 1.0777692 1.0528027
000050 98 72 78 3f b0 05 7a 3f ea 8e 86 3f 81 aa 8a 3f
       0.97049856 0.9766493 1.0512364 1.0833284
000060 c8 45 87 3f 0f 1f 8f 3f 42 7d 8c 3f a3 f5 73 3f
       1.056817 1.1181353 1.0975726 0.95296687
000070 bb 0b 98 3f 89 06 83 3f e8 41 8b 3f 0d 18 8d 3f
       1.187858 1.0236369 1.0879488 1.1022965

local_trans_pixel.layers.0.1.fn.norm.bias f4 [32]
000000 b0 6b 06 3d 47 ba db bb 43 5e 29 bd 23 43 65 39
       0.032817543 -0.0067055556 -0.04134966 0.00021864152
000010 c1 70 78 bc 14 26 c8 3d be 7c 9e 3d 13 9c 6a 3c
       -0.015163601 0.09772888 0.077386364 0.014319438
000020 b6 0d a2 3d e5 28 30 3d 41 74 71 3d eb 5a 08 3d
       0.079127714 0.04300775 0.05894876 0.03328983
000030 b0 92 09 bc e1 95 c5 bc b9 32 a4 bc ee 3f 82 bd
       -0.008396789 -0.02411932 -0.020043718 -0.0635985
000040 62 f4 25 3d 20 cf 85 3d ed 6b 1c 3d db 1f 3a bd
       0.040516265 0.065336466 0.038188864 -0.045440536
000050 30 5b a4 bd 54 03 a3 3c 36 a7 a9 3c 2c cf 81 bd
       -0.08025205 0.019899048 0.020709615 -0.06338343
000060 7e a7 e9 bc 59 fa d7 bd 30 43 c8 bd 9b a8 2c 3d
       -0.02852225 -0.10545797 -0.0977844 0.042152982
000070 35 b6 67 bc f4 be 95 bd dd 28 64 3d 8f ee 75 bd
       -0.014142563 -0.07311812 0.055703033 -0.06004196

local_trans_pixel.layers.0.1.fn.fn.net.0.weight f4 [8, 32]
000000 47 87 8f be bd 3c 34 bc c2 70 5f 3e 03 28 f5 3d
       -0.28032896 -0.011000809 0.21820357 0.11970522
000010 03 0d 63 38 d6 73 18 bd 33 85 aa bb 9c cb 79 bd
       5.4133136e-05 -0.037219845 -0.005203867 -0.060985193
000020 84 a1 a4 3d c5 60 43 3e 76 8b b0 3d 86 ed c2 3d
       0.08038619 0.19079883 0.0862035 0.0951796
000030 c0 e0 46 be 6a 22 1c 3d 46 57 9f bd 2d 31 21 be
       -0.19421673 0.038118757 -0.07780318 -0.15741415
000040 ae 91 dc 3d e9 8e 6c bc 1f 1e 09 bd 31 07 39 3d
       0.10769974 -0.014438369 -0.03347599 0.045172874
000050 db e8 25 be a3 52 ad 3d 86 8a a4 3e 36 ef 6b be
       -0.16202109 0.08463027 0.32136935 -0.2304047
000060 64 d9 72 bd 86 56 6d bd e4 53 7d 3d b1 fc b9 bd
       -0.05928935 -0.057943843 0.061847582 -0.090814
000070 11 08 88 be 28 0a d5 bb 9d f1 69 3d 46 2a c0 3d
       -0.26568654 -0.006501455 0.057115186 0.09383063
000080 1a 2c 39 3e 50 ef 83 3d 2b a9 2f be 8d 81 63 bc
       0.1808323 0.064421296 -0.17154376 -0.013885868
000090 a3 53 1b be 8f 3f fd 3d 0e 87 17 3e 8c dc c1 bc
       -0.15168624 0.123656385 0.14797613 -0.023664735
0000a0 bb 48 25 3e ba 75 9b 3c d4 4b 99 3d 49 a4 1b bc
       0.16141026 0.018977035 0.07485166 -0.009499618
0000b0 e3 39 ef 3d ee 80 67 bd c0 c6 1a be 98 4d 34 be
       0.11680963 -0.05651944 -0.1511488 -0.17607725
0000c0 99 e6 95 bc 1c b0 f3 3d c8 a0 04 3e d7 1d 36 be
       -0.018298434 0.118988246 0.12951958 -0.1778482
0000d0 93 47 a6 bd d5 c3 43 bc 4e 2d b1 bc f4 95 7b bd
       -0.081191204 -0.011948545 -0.021628048 -0.061422303
0000e0 cd 1b 90 bd 89 19 53 be 88 26 48 be 7a 65 18 3e
       -0.070365526 -0.2061521 -0.19545949 0.1488246
0000f0 73 da e6 3d 93 72 68 be 65 d5 5e 3e 57 fb 64 be
       0.11272135 -0.22699957 0.21761091 -0.22361504
000100 cf 39 05 3e e4 3e 1f be c1 72 12 3c 8b 91 0e bd
       0.13010333 -0.15551335 0.008938492 -0.03480677
000110 43 e6 03 3e da 38 f3 3d a2 38 8d 3e 51 48 3c 3e
       0.12880807 0.11876078 0.2758227 0.18386962
000120 7e c6 7f 3e 8b 3b 17 3e 9b b1 97 3e c5 0b f8 3d
       0.24978063 0.14768808 0.2962769 0.1211162
000130 7b bd 95 be b7 b9 ef 3d 5e f8 9b 3d f0 ed c2 bd
       -0.29246125 0.11705344 0.07615732 -0.09518039
000140 b9 9b f1 3d 9a d0 e4 3d 62 e3 f3 3d 14 06 08 3e
       0.1179728 0.111726 0.11908604 0.13283569
000150 4a 5d 0f be d1 58 cd bb 3e fb d7 bd bc 59 7a be
       -0.1400043 -0.0062666913 -0.105459675 -0.24448293
000160 b2 51 63 bd 16 05 ba bd 43 a0 c2 bc f1 66 d6 3d
       -0.055497833 -0.09083001 -0.02375806 0.10468853
000170 b9 c8 0e be fe 21 77 bd 67 c1 5a bc 51 b5 81 be
       -0.13943757 -0.06033515 -0.013351775 -0.25333646
000180 03 02 a8 bd 69 e2 70 bc 80 18 a0 3c 4e e0 dd 3c
       -0.08203509 -0.014702418 0.019542933 0.027084496
000190 60 80 fb 3d a8 a3 2a 3e 2c 09 cb 3d d4 34 23 bd
       0.12280345 0.16663992 0.09913859 -0.039845303
0001a0 53 2b b3 bd a1 00 dd 3d 08 9b d8 3d 2c b7 24 be
       -0.08748498 0.107911356 0.10576445 -0.160855
0001b0 0f 64 2d 3e af 28 b1 bd a5 1d 13 be c1 c8 85 bd
       0.169327 -0.08650338 -0.14366777 -0.065324314
0001c0 9f c9 91 3c ca 54 aa bd 93 0f ad bc 50 ae 35 be
       0.017796336 -0.083169535 -0.02112559 -0.17742276
0001d0 59 44 96 3c 8b 82 32 3d 8f 3a e4 bd 64 71 97 bd
       0.018343138 0.043581527 -0.11143982 -0.073946744
0001e0 a0 bb 21 3d ff 1e 31 3d 86 31 65 bd 44 36 7c bd
       0.039485574 0.04324245 -0.055955432 -0.06157519
0001f0 ea fe 4d bd d6 1b 06 3e e7 78 20 be 5d 1b 39 3e
       -0.050291933 0.13096556 -0.1567112 0.18076845
000200 e9 34 b1 3e 3c 5d d1 bd 1d e4 90 bd 29 81 4b be
       0.3461068 -0.10222861 -0.07074759 -0.1987349
000210 17 0a 31 3e 1e 29 bb 3d 5b c9 24 be b6 a1 34 3e
       0.17289005 0.09138702 -0.16092436 0.17639813
000220 42 4b 42 3d 12 27 13 3d 5b db 64 3e 86 e5 21 be
       0.047435053 0.035925932 0.22349302 -0.15810212
000230 d1 47 24 be cb 77 69 3e 59 3c 59 3e 43 05 d3 3d
       -0.16043021 0.22799604 0.21214427 0.10303738
000240 81 61 04 be 17 e3 97 3d 86 cb 30 3e 92 a8 11 3d
       -0.1292782 0.07416361 0.17265138 0.03556115
000250 e4 0a 90 3d 31 d9 05 3e 45 5b a5 bd 4c b7 44 3e
       0.07033327 0.13071133 -0.08074049 0.19210547
000260 e5 5a 89 3e 71 3a f7 bd 00 b6 f8 bd 84 b1 c5 3d
       0.2682716 -0.12071694 -0.12144089 0.09652999
000270 4a 4b 8b 3e db 97 ba bc e2 b5 09 bd 5b db 64 be
       0.27205878 -0.022777488 -0.033620723 -0.22349302
000280 df 6f 10 be 3f 03 5d bd c0 74 00 3d 7e 10 fb bd
       -0.14105175 -0.053958174 0.03136134 -0.12259005
000290 d8 34 2b 3d 23 56 92 3c 7c 7b 24 3e 18 70 9a bd
       0.041798443 0.017863339 0.1606273 -0.075409114
0002a0 4b d1 8c bd 94 53 33 3d 37 e4 be bd 3f dd cb bd
       -0.06875857 0.04378088 -0.09320872 -0.09954309
0002b0 e0 25 59 3e 15 97 9d be 07 ff f1 3c c2 4d 0f 3e
       0.21205854 -0.3077933 0.029540552 0.13994506
0002c0 b9 bc 87 bd 2c ac 35 3c 4b 2d 02 3e fe b1 0d 3e
       -0.06627793 0.011088412 0.1271259 0.1383743
0002d0 cc de 01 3e e5 7c 08 3d d3 52 02 3e 91 95 d6 bd
       0.12682647 0.033322234 0.12726907 -0.10477746
0002e0 df d1 7e 3d 41 8e cf bd f1 cb 75 bd 5d cc d8 bd
       0.062211867 -0.10134555 -0.060008947 -0.10585854
0002f0 82 b8 b4 3d d9 d6 a0 bd bd ef c4 bb cc 9d e0 bd
       0.088242546 -0.07853479 -0.0060100243 -0.10967597
000300 7b 38 b2 bc 57 e8 99 bd eb 83 06 bd 13 0e 0b be
       -0.021755448 -0.075150184 -0.03284065 -0.13579588
000310 ef 66 8c bd 17 61 46 3d d5 77 0e 3d 46 86 1b 3d
       -0.068555705 0.048432436 0.03478225 0.03796985
000320 c5 6c ca bd 14 e5 fa bc e5 58 9a bd 8a 9c 16 be
       -0.098840274 -0.030626811 -0.075364865 -0.14708152
000330 6d 77 4c bc 24 d1 38 bd b3 38 1e bb e2 b5 78 3e
       -0.012479645 -0.045121327 -0.0024142682 0.24288133
000340 f7 2c ed bd e0 cd 20 3e cf 81 87 3d 9a 85 b6 bd
       -0.11580842 0.15703535 0.06616556 -0.08912201
000350 73 47 b3 bd f0 fd d1 bd 16 6d ff 3d 0b 64 46 3e
       -0.08753862 -0.10253513 0.12471978 0.19374101
000360 f6 88 fc 3c c8 57 8a 3d a8 56 97 bd 76 b1 02 bd
       0.030827027 0.06755024 -0.07389575 -0.03190752
000370 05 2b 82 be f3 bd 34 3d 41 80 53 3c 3f 7f 02 3e
       -0.25423446 0.044126462 0.012908996 0.12743853
000380 bd a2 0f be 86 03 26 bd c3 99 0d be 95 14 bc 3d
       -0.14026923 -0.040530704 -0.13828187 0.09183613
000390 50 1c f9 bd bf 12 9d be 4f 3a 20 be 2e 62 80 bd
       -0.12163603 -0.30678365 -0.15647243 -0.06268726
0003a0 ff 62 5b be 66 9f 40 3e 9c 4f 1f 3d 5e ad 2c 3e
       -0.21424483 0.18810806 0.03889428 0.1686301
0003b0 58 5f 4f be 1a a6 43 3d 3a 03 8b bd 6e 93 26 be
       -0.20251215 0.04776583 -0.06787725 -0.16267177
0003c0 0a 22 ad 3c 39 38 c6 bb 26 f6 ca 3d 9a 59 9f 3d
       0.021134395 -0.0060491827 0.0991023 0.07780762
0003d0 8a b0 ab 3c 52 e3 f5 3d 47 0f 19 3e 6d 50 a4 bc
       0.020958204 0.120062485 0.14947234 -0.020057881
0003e0 06 66 0b bd ba 7b 1f be 8c d5 e4 bc 80 f7 60 3e
       -0.034032844 -0.15574542 -0.027933858 0.21969414
0003f0 f4 f0 04 3e d7 49 2d 3e a8 d7 5e 3e c0 f5 15 be
       0.12982541 0.16922699 0.21761954 -0.14644527

local_trans_pixel.layers.0.1.fn.fn.net.0.bias f4 [8]
000000 55 95 53 3e f0 31 76 3e d9 7e fd bd 53 95 a2 bd
       0.20662434 0.24042487 -0.1237771 -0.079386376
000010 e9 eb 91 3d 56 8f 85 3b 70 c7 ff bc 8b a3 29 bc
       0.071250744 0.004075925 -0.031223029 -0.010353933

local_trans_pixel.layers.0.1.fn.fn.net.3.weight f4 [32, 8]
000000 70 29 44 bd d3 19 f7 bd 8f fe 99 3e 4c 76 fe 3c
       -0.04789108 -0.120654725 0.30077025 0.031062268
000010 73 b4 8d be 3c e2 28 be 04 f7 3d 3e e1 07 e0 bd
       -0.27676734 -0.16492552 0.1855126 -0.10939003
000020 04 9a 2b 3e f5 eb e7 3d 6b 53 a8 be 5c 0b a5 3d
       0.16757971 0.11324302 -0.32876143 0.08058807
000030 15 b2 d8 3c 4a 59 1d be a6 c9 2b be 9c 22 00 3e
       0.026452104 -0.15366092 -0.16776142 0.12513202
000040 74 55 75 be 89 f2 14 be e1 b9 a8 3e bd 5b 56 be
       -0.23958379 -0.14545645 0.32954314 -0.20933433
000050 1b df a6 3e fa bf 70 3e 1a f1 b1 3e bf 8a 1f 3e
       0.3259209 0.23510733 0.34754258 0.15580271
000060 e6 8a c6 be 37 08 a8 3e b5 92 47 be 50 bd 09 3d
       -0.38777846 0.32818767 -0.19489558 0.033627808
000070 a9 82 ad be b3 34 8b be 9e 4e 79 be fe 40 c4 3e
       -0.33888748 -0.27188644 -0.24346396 0.38330835
000080 e3 b5 dc bd b0 6e 95 3e ea 19 cf 3e c7 96 5b be
       -0.1077688 0.2918601 0.40449458 -0.21444236
000090 6a 4b 34 be 1f c9 a0 3d ac b7 14 be 8f a4 11 3e
       -0.17606893 0.07850861 -0.1452319 0.1422293
0000a0 6e ce de be ee d7 78 3d b6 67 b3 3e 28 8c a0 bd
       -0.43516868 0.0607528 0.35040063 -0.07839233
0000b0 4f 1a 9f 3e 65 81 94 be 47 ea 14 3e 0d 29 6e 3e
       0.3107476 -0.2900497 0.14542495 0.23257847
0000c0 a8 2e e8 be 78 63 1a 3d 54 0e 70 3e 07 80 b5 3e
       -0.45348096 0.037692517 0.23442966 0.3544924
0000d0 2c 92 b0 be 67 d8 ae be 8d ff 04 be 7d 9c a4 3e
       -0.3448652 -0.34149477 -0.1298811 0.3215064
0000e0 98 dc 34 3e 6b 36 3f 3d 62 32 14 3e 25 d0 d0 3e
       0.17662275 0.046682756 0.14472345 0.40783802
0000f0 89 d9 16 be 79 9a 74 3e ef d8 63 3e f0 84 8e be
       -0.1473142 0.23887052 0.22250722 -0.27835798
000100 c7 e7 b1 be 8b cf ba be 7e e0 81 be 8d 3f 65 3e
       -0.34747145 -0.36486468 -0.25366586 0.22387524
000110 b1 e8 3b be 9e 47 6d 3e d2 36 13 be 2f a4 b0 be
       -0.18350483 0.23171851 -0.14376381 -0.34500262
000120 6d 5f ab ba fa 23 d1 3e 11 0c 44 bd 7e 78 b6 3e
       -0.0013074704 0.4084776 -0.04786307 0.35638803
000130 bb 9c 08 3c a4 d7 47 3e 8e 44 ae bd 60 08 9e 3e
       0.008338149 0.19515854 -0.085091695 0.30865765
000140 ad d0 8f be 19 8b 48 3e bb b5 a6 3e f7 3b 61 be
       -0.28088894 0.19584312 0.32560524 -0.21995531
000150 f9 4f 43 3d 64 19 ac b9 7b 14 96 be 76 bc 6c be
       0.04768369 -0.00032825314 -0.293125 -0.23118767
000160 da 6c ac be 68 80 68 3d 4b 18 8c 3e c3 bb 35 3d
       -0.33676797 0.056763083 0.27362284 0.044368517
000170 d5 5b f3 3d 8d 01 7d be fd 57 66 3e de 2b c7 bd
       0.1188275 -0.24707623 0.22494502 -0.09725164
000180 ec 05 b1 be bd 26 84 bd 9e 11 8f 3e 3f f9 6e 3e
       -0.3457483 -0.06452701 0.27943128 0.23337267
000190 e8 43 d9 3d a1 2d 6c 3e 8c a4 f9 3d 0d 00 c3 3e
       0.10608655 0.23064281 0.12189588 0.38085976
0001a0 c4 5a f6 bd 8e d9 b3 3e 8f ab 20 3c da de 9d bd
       -0.12029031 0.3512692 0.009806528 -0.07708521
0001b0 b5 99 a7 be d5 bc 50 3e a6 e1 90 3a c9 67 62 3e
       -0.32734457 0.20384534 0.0011053577 0.22109903
0001c0 b5 99 1c 3d df 8e 03 be 01 1c 7d bd af a5 93 be
       0.038232524 -0.1284747 -0.061794285 -0.28837344
0001d0 6e e2 3c be 31 b9 bc 3e 68 9a bb be b0 49 0c 3e
       -0.18445751 0.3686004 -0.3664124 0.13699985
0001e0 50 68 a1 bb ce a5 7b 3e 64 e0 91 be 04 10 59 be
       -0.004925765 0.24574968 -0.2849151 -0.21197516
0001f0 c9 81 03 be 1c 63 06 3e 58 31 26 3d 92 c4 89 be
       -0.12842478 0.13123745 0.0405744 -0.26907784
000200 0b 8b 16 bd 9b d7 22 3c e0 3e c3 3e 2e 1b a5 be
       -0.036753695 0.0099391 0.38133907 -0.322473
000210 4f b0 43 be ab 9b 08 be 7b cc 2e be 6e 31 aa 3e
       -0.19110225 -0.13340633 -0.1707019 0.33240837
000220 0c a1 89 be 59 61 68 bd 4e 31 16 3d 99 34 28 be
       -0.26880682 -0.056733463 0.036668114 -0.16426314
000230 d1 ab ac 3e 6f 09 2a 3e 99 22 50 be 6f a0 61 be
       0.33724836 0.16605161 -0.20325698 -0.22033857
000240 9c c1 97 3d 6f 62 c3 3e 4a 16 c4 3e db 16 9c be
       0.07409975 0.38161036 0.38298255 -0.30486187
000250 99 a0 3d 3e 2f c0 b6 be 61 60 69 3e f7 ed e5 3d
       0.18518294 -0.356935 0.22790672 0.11227029
000260 c9 4a 6e 3e aa 32 e7 be 29 c9 2a be 47 75 9b 3e
       0.23270716 -0.4515584 -0.16678299 0.30362913
000270 12 b3 2c 3d a0 5d 78 3e 38 c0 0e bd d6 77 9a be
       0.042162962 0.24254465 -0.034851283 -0.30169553
000280 98 32 7b 3e 97 9e 55 3e 9f 9b 31 be c1 bb 62 be
       0.24531019 0.20861278 -0.17344521 -0.22141935
000290 18 f2 80 3e 60 a4 cc be 85 af 59 be de 89 e1 3e
       0.25184703 -0.39969158 -0.21258362 0.44050497
0002a0 11 15 18 3e ac f3 c7 be 04 1a 52 bd ab b9 b8 be
       0.14851786 -0.39053094 -0.05129434 -0.36079153
0002b0 67 87 73 be e6 98 88 3d 15 ac 4d 3e 51 21 ba be
       -0.2378212 0.06669788 0.20085175 -0.36353543
0002c0 c1 69 96 be b6 16 e3 be 11 f6 ea bc e7 07 64 3e
       -0.2937756 -0.44353265 -0.028681787 0.2226864
0002d0 e4 c1 e7 3a 3c ef 2b bc 0f 8f 37 be f6 83 85 be
       0.0017681685 -0.01049405 -0.17925666 -0.2607724
0002e0 db 21 15 be 09 21 e0 bd 1b 25 d2 be 80 40 fd bd
       -0.14563696 -0.10943801 -0.41043934 -0.12365818
0002f0 92 4c ed 3d 95 30 5f 3e e2 50 65 3e f9 33 fa bd
       0.1158687 0.21795876 0.22394136 -0.12216944
000300 2e c7 4e 3e 4d af e1 3d 81 82 3f be 46 a8 10 3e
       0.20193169 0.11019764 -0.18702127 0.14126691
000310 f6 78 ce 3e d7 36 88 3e bd 38 f3 bd d9 91 5b 3e
       0.4032666 0.2660434 -0.11876056 0.21442355
000320 a9 36 d8 be 72 a0 0c be 8c ab 11 be df 1b 9c 3e
       -0.42229202 -0.1373308 -0.14225596 0.30490014
000330 aa 62 aa 3e c6 5c 6c be 48 9f be 3e 22 9d 14 3e
       0.332784 -0.23082265 0.37230897 0.14513066
000340 63 1d 3b be 71 a5 8c be 39 ff de be 51 4c 69 3e
       -0.18272929 -0.27469972 -0.43554094 0.22783019
000350 12 c5 6f bd 68 4e 98 be b6 67 63 3e 3a 66 2e bd
       -0.05853755 -0.2974732 0.22207531 -0.04257796
000360 e0 5d ce 3c 0d 09 e4 3d 77 8d be be 24 88 6e be
       0.025191247 0.11134539 -0.37217304 -0.23294121
000370 0b 42 38 be 1a 0c a0 3e 20 f4 0f 3e ec 38 30 be
       -0.17993943 0.31259233 0.1405797 -0.17209214
000380 fd 5b 68 be 44 05 d8 3e bd 7f 6d 3e c2 24 c3 bd
       -0.2269134 0.42191517 0.2319326 -0.09528495
000390 55 cb 1b 3c a0 77 15 3e f0 5f 59 3e 4d 8a 90 3e
       0.009508927 0.14596415 0.21228004 0.28230515
0003a0 4e 7b 85 bd 42 94 82 3e 3c fd f7 b9 7f a4 d6 bd
       -0.06517659 0.25503737 -0.00047300186 -0.10480594
0003b0 64 32 83 3d fa c8 b8 3e b2 ac 3f 3d 00 d4 29 3e
       0.064060956 0.36090833 0.046795554 0.16584778
0003c0 7a 07 12 be af f0 63 3c 53 4b 10 be 66 3c b4 bc
       -0.14260665 0.013912364 -0.14091234 -0.022001456
0003d0 aa d4 1c 3e 9f 42 df bc 9b e5 12 3e 3a f5 5c 3e
       0.153155 -0.027253447 0.143454 0.21577922
0003e0 87 27 c5 bd 32 7b e0 bd 07 a2 ee bd 03 c3 77 3e
       -0.0962668 -0.10960998 -0.11651998 0.24195485
0003f0 a6 5a ae be 96 f0 c5 3d 77 3d 26 be cb 97 9f bd
       -0.34053534 0.09665029 -0.16234384 -0.07792624

local_trans_pixel.layers.0.1.fn.fn.net.3.bias f4 [32]
000000 77 36 1f be 26 82 88 be 22 2e b2 be b0 9e 2c be
       -0.1554812 -0.26661795 -0.34800822 -0.1685741
000010 fa a4 65 3e b7 13 c7 3d b6 27 14 3e 1a d9 98 3e
       0.22426215 0.09720557 0.14468274 0.29853135
000020 8a 84 42 be 48 eb c1 bd 5e 55 ac 3e 15 f8 7d bd
       -0.18995872 -0.094687045 0.3365888 -0.062004168
000030 08 56 8b bd c9 ed 96 3b 1e 36 7a 3e 85 16 a9 bc
       -0.068035185 0.004605983 0.24434707 -0.020640621
000040 05 48 d8 3d ca 5b bc 3e 2f bc 84 3e d8 66 8d 3e
       0.10560612 0.3678878 0.25924823 0.27617526
000050 e8 5d e2 3d 3f d8 3f 3e b4 7c 97 3e 5e 95 8e 3e
       0.110530674 0.18734835 0.29587328 0.27848333
000060 ee 89 95 be b2 e7 5d 3e af 9e e6 be 21 be 2f 3d
       -0.29206795 0.21670416 -0.4504294 0.04290593
000070 35 f5 9d be 56 e6 a7 be 9e cb 3c 3d 95 01 a4 be
       -0.3085114 -0.3279292 0.046092622 -0.32032457
