src/res/GGCL/guided_contra_cross_transformer/Salinas/5/false ss 0.5/_1711539516.pth (torch, 940204 bytes, 59 tensors)

pixel_pos_embedding f4 [1, 170, 32]
00000000: 8b12 abbf 3dfe 883f f8a8 143f 359c 833f
00000010: dcc6 04bc 6fad c5bf 1ecc a5be e578 9e3d
00000020: f8a2 9a3f 3739 12bf cfe1 d33f bd75 86be
00000030: 4d10 793e f5bc 633e 18fb 713f 415f 0abf
00000040: 7a3f e83f c77f 693f a11c 32be 2fba 58be
00000050: f5a0 12bf 8f5a 223f cf31 013f 8b2d 663e
00000060: 1244 913f 30c9 b9bd e012 88be 0de9 533f
00000070: d981 3ebe ac30 22bf 4ced c9bf b3fd 233f
00000080: ef3b f6bf e664 06bf aa99 7d3e 5740 d33e
00000090: bccd f1be b852 893f 17e5 263e 3dcb 063f
000000a0: c885 f2bd 2b5c 83bf 5419 67bf 715b b93f
000000b0: 59f2 bcbf b13d b7bf 1768 153f 1593 dfbe
000000c0: 9d89 903e 6880 c43f 7cea c03f 6d3e b2be
000000d0: 1e43 c33f 8c7b 35be cca7 b2be 4336 883f
000000e0: 190c e6be deff 5dbf 1cc8 493e 32e0 b63f
000000f0: 81b8 6dbb 5853 8fbf 110a d6bf 5c9e e5be
00000100: 38af 86bf 633e ee3f db1c 09bf 6535 8dbe
00000110: 8202 2fbf 9adb 10bd ec51 bf3e 271e 4a3f
00000120: d280 4e3f ed6e 853f a55b 3e3f ad80 783e
00000130: d2d3 3e3f b77f 493f 89f4 f7bf 4545 92be
00000140: c6b3 30bf c752 de3e a70a babf e9d2 563e
00000150: 3acb 21bd d0db e43f 878b 8f3f 878d 5f3f
00000160: 8295 3b3f b21f 623e b8b0 67bf 4673 a23e
00000170: b5c6 bbbe 22b7 f0bd efc2 91bf ded5 ec3e
00000180: 5458 d53f 9279 7fbf ef9d b3bf f352 e63f
00000190: e4f1 973f 0478 84bf 3744 b33e 1c20 1e3f
000001a0: e72c e0bf 5683 3fbf 9649 a33f 176d 80bf
000001b0: bc00 7cbf 8c8c 8b3e 6676 9ebf a1f7 20bf
000001c0: e682 be3e 802a 6b3d 0a36 5cbf 9c02 93bf
000001d0: 70d5 c7be 6575 3a3e f9ef 703f a54d 29c0
000001e0: 6807 f7bf d89e 8d3f 75b2 babf 8cf8 adbf
000001f0: 7d64 72bf 3506 fabf 6d88 273f 1244 35bf
00000200: 9cc5 453f cbf7 bf3f 49cd 45bf 0d19 0cbf
00000210: e856 2d3f a67d ecbb 8109 8e3f 0398 11bf
00000220: 2655 9b3d 16c5 76bf 5c9d 623f 635e c2bf
00000230: 0001 c93f 9044 963d a351 12c0 f4ab e73e
00000240: b731 543f f73c f13f d251 d7be 3666 153f
00000250: 453c b7bd d41b c63f cdcb cd3f b746 213e
00000260: ef6b 9b3f fa03 d43e 6c5a af3e 7e9e fbbf
00000270: 88a9 a53f 4e5e c73e 2417 e0bf f422 f73e
00000280: a142 72be 6d27 9e3f b137 84bd d275 a1bf
00000290: 8dcc f83e a6dd 823e 5a38 63bf d324 62be
000002a0: b4b7 3bbf 69ec f0be 9c94 0bc0 4600 543f
000002b0: 6b00 9f3e a11b 2a3f b7fe d9bf 8033 7d3d
000002c0: c13c 27bf 6b8c fdbe d05e 64bf f723 99be
000002d0: fc86 2dbe f429 1dbf 56e6 db3e 2108 193f
000002e0: a641 edbb 64aa d73e 8ec0 363f f7df 97bf
000002f0: da71 1d3e 4d83 f8be f7d4 aabf 48a9 1940
00000300: e626 0540 ee88 8b3f 5972 c2bf 1663 bfbf
00000310: a8c1 8e3d ec45 8a3f 1b08 133f b9a5 853f
00000320: 4e64 7f3f 118d 8a3f 804b 33be 69cd a53f
00000330: c04d c0bf 614e b63e 3be8 1040 7667 3b3f
00000340: 909d ff3e 9a25 d23f beb3 b53e 6c57 87bf
00000350: 7982 193f 4991 1f3f 0f30 803e a044 633e
00000360: 10fe e9bf d929 a93f 3765 ee3e 8de2 ffbc
00000370: ce43 423f 65dc 1b3f 69b5 b03e f00a 2a3f
00000380: 4c1f 9a3e 06f9 f4be 3634 fe3e 096a b13d
00000390: 3543 bd3f a8ac 5fbd bfce b9bf c229 17c0
000003a0: 1bfb 65bf 1a0f c8bd ae04 57bf 3ac9 c4bf
000003b0: 086c 27be e6e0 f4bf 7dba babd 259d 16c0
000003c0: 2611 80bf 0706 d93e 9566 b93f f280 75bf
000003d0: ff0d 2e3f bfc8 bfbf 0d96 d2be 0ff8 0240
000003e0: 7bbc 4ebf 3b21 143e 33db cebf 02c8 903f
000003f0: ad8a d53e b1ec 53be 45e7 a03e 8976 58be
-1.3365034 1.0702587 0.58070326 1.0282046 -0.008104052 -1.5443553 -0.32382292 0.077379026
1.2080984 -0.5711855 1.6553286 -0.26261702 0.24322625 0.2224005 0.94523764 -0.54051596
1.8144372 0.912106 -0.17393734 -0.21164773 -0.5727685 0.6341943 0.50466627 0.22478311
1.1348898 -0.090715766 -0.265769 0.8277748 -0.1860422 -0.6335552 -1.5775542 0.6405899
-1.923704 -0.5249771 0.2476565 0.41260025 -0.47227275 1.0728369 0.16298328 0.52653867
-0.11841923 -1.0262502 -0.9027302 1.4481031 -1.4761459 -1.4315702 0.58361953 -0.43666902
0.2822999 1.5351686 1.5071559 -0.34813252 1.5254858 -0.1772291 -0.34893644 1.0641559
-0.44931105 -0.8671855 0.19705242 1.4287169 -0.0036273303 -1.119731 -1.6721822 -0.4484738
-1.0522223 1.8612789 -0.53559655 -0.275798 -0.683632 -0.03536568 0.3736719 0.7895226
0.80665314 1.0424477 0.7435859 0.24267836 0.7454196 0.787105 -1.9371501 -0.28568473
-0.6902431 0.4342253 -1.4534501 0.20978893 -0.039500453 1.7879581 1.1214455 0.8732533
0.73275006 0.22082403 -0.90504026 0.31728572 -0.3667504 -0.1175368 -1.1387614 0.46256918
1.6667581 -0.99794877 -1.4032573 1.7994064 1.1870694 -1.0349126 0.3501298 0.61767745
-1.7513703 -0.7480978 1.2756832 -1.0033292 -0.9843862 0.27255666 -1.2379882 -0.6287785
0.37209243 0.057413578 -0.8601996 -1.1485171 -0.39030027 0.18208845 0.9411617 -2.645364
-1.9299135 1.10641 -1.4585711 -1.3591475 -0.9468458 -1.9533144 0.65442544 -0.7080699
0.7725465 1.4997495 -0.77266365 -0.54725724 0.67710733 -0.007217127 1.109665 -0.56872576
0.075846 -0.9639448 0.8852136 -1.5185055 1.570343 0.07337296 -2.2862327 0.45248377
0.8288836 1.884673 -0.4205461 0.58359087 -0.089470424 1.5477242 1.607782 0.15749632
1.2142314 0.41409284 0.34248674 -1.9657743 1.2942362 0.38939136 -1.7507062 0.48268855
-0.2365823 1.2355782 -0.06455935 -1.2614081 0.4859356 0.2555973 -0.8875786 -0.2208436
-0.73327184 -0.47055367 -2.1809454 0.8281292 0.31055006 0.6644841 -1.7030858 0.061816692
-0.6532708 -0.49521193 -0.8920717 -0.29910251 -0.16946024 -0.6139214 0.4294917 0.5977803
-0.007240492 0.42122185 0.71387565 -1.1865224 0.15375462 -0.48537675 -1.3346242 2.400957
2.0804992 1.0901163 -1.5191146 -1.4952114 0.06970531 1.0802588 0.5743424 1.04412
0.9976243 1.08243 -0.1750927 1.2953311 -1.5023727 0.35606673 2.2641742 0.73204744
0.49924898 1.6417725 0.35488695 -1.0573554 0.5996471 0.6233106 0.25036666 0.22194147
-1.8280659 1.3215896 0.46561596 -0.031235958 0.7588471 0.6088317 0.34513405 0.6642294
0.30102003 -0.4784624 0.4964921 0.08662803 1.4786135 -0.054608017 -1.4516219 -2.3619237
-0.8983628 -0.097685054 -0.83991516 -1.537391 -0.16349804 -1.9131134 -0.09117601 -2.3533413
-1.0005233 0.4238741 1.448443 -0.9589988 0.67990106 -1.4983138 -0.41130105 2.0463903
-0.8075635 0.14465801 -1.6160644 1.1311038 0.41707364 -0.2069576 0.31426445 -0.21138968

cls_token_pixel f4 [1, 1, 32]
00000000: de66 093f f72e 9bbf 61bd 00bf eb09 943f
00000010: 4656 a8be 53fe a83f 329f d93f 2516 183e
00000020: 85fe 02c0 f2d2 5c3d 8085 f23f 6468 fa3e
00000030: 2d8f 6ebf 0980 cb3f 8f4b 12c0 c59f 3bbf
00000040: 16ac 3fbe 4199 84bf 606d 4abe 4e3d 113f
00000050: dfc2 d63e 7466 b6bf c36e 043f e243 1b3e
00000060: 163a e93f 7561 333f 2a25 63bf 04f0 8a3f
00000070: 4b8d 75be 76f7 773f 85ee 1c3f 4251 a73e
0.5367259 -1.2123708 -0.5028897 1.1565527 -0.3287832 1.3202614 1.7001708 0.14852197
-2.0467846 0.05391211 1.8946991 0.4890777 -0.9318722 1.5898448 -2.2858617 -0.73290664
-0.1871799 -1.0359269 -0.19768286 0.5673417 0.4194555 -1.4250016 0.5173151 0.15162614
1.8220851 0.7007058 -0.8872858 1.0854497 -0.2397968 0.9686197 0.6130145 0.32679182

pixel_patch_embedding.weight f4 [32, 30]
00000000: ce36 07be 88c6 b3bc 38bc 0ebe 5093 a53d
00000010: 3c9e ca3d 6909 81bd 9068 b33d 561a 14be
00000020: 60b9 c83d 0031 62bd ccb1 9f3d b41e 623d
00000030: e811 ac3d 4823 e63c 6d1e d1bd 2ce5 09bd
00000040: 8294 ebbd f4be b23d 143e 29be 3cf0 283d
00000050: a0e6 d43b 8299 063e d4c4 23bd 3e7b fcbd
00000060: e213 873d c0a3 e8bc 8c96 2f3d d8d8 b23d
00000070: 78db eebc 9c53 c33d 2452 bdbd 28ef ea3d
00000080: 82d5 383e 88f2 903d e8ec 903c a8ca 653d
00000090: d014 1fbd f848 293e f864 2c3d 6d1f 06be
000000a0: 5c5c d93d e7fb d6bd 500b 7f3d f0f0 aabc
000000b0: 8564 83bd dcb2 813d 90c9 71bc ba2d 1d3e
000000c0: 3881 ef3d 4c2b 5f3d e881 d13c b879 5cbd
000000d0: 28e3 febc 7694 0c3e d862 cdbd 9cb9 4b3d
000000e0: 2056 9b3d b499 f33d a43c 37bd 0801 503d
000000f0: e00e 82bc 7644 e0bd f4e0 b23d 1487 173e
00000100: 6093 833d e029 d6bc 2b76 2ebe 8490 aa3d
00000110: 6c01 d13d c853 2cbe 2008 08bc a014 0c3e
00000120: 2290 38be c04d ed3d 404f 3fbc 58ef fe3d
00000130: 002b e8ba 348d e13d 9893 483d bcf5 283e
00000140: f8a4 973d 34e9 363e f503 25be 345a 223e
00000150: d472 d33d 4c6c 9a3d a09f dbbc 104b 103e
00000160: ba62 2b3e a01f 14bc a098 f9bd a050 733c
00000170: 949f ddbd a450 63bd 21a3 2bbe 0542 15be
00000180: 40a2 d7bc fda2 abbd 5c24 1fbd 0c05 b13d
00000190: 19d6 18be 5c60 ad3d 1898 ed3c fccf c23d
000001a0: 80fd 17be 204e 3fbd 4a1e 0f3e a45d 083e
000001b0: 8dfd d0bd 3ec3 083e 5056 913d 7d3c 2cbe
000001c0: 107f 713d 5c4b 293e e9c9 2dbe 4802 943d
000001d0: 6ae0 193e c093 373e 7809 a33d f2ba 20be
000001e0: 1d96 ffbd 1cba 473d 1c4f babd 59c8 e7bd
000001f0: 328c 1f3e f067 0e3e fc40 3c3d 286c b4bc
00000200: aa4b febd 1cf1 73bd f8fb cd3d 369a 363e
00000210: 6738 10be 308d 6f3c 43c6 05be cac9 203e
00000220: 7a0d dbbd d03b 19be ad0f 33be bd12 1fbe
00000230: a871 503d c417 35bd d881 a63d 0ed2 273e
00000240: c6d5 1c3e 12e2 14be 423a 2ebe 8cc9 b93d
00000250: d6a2 00be ca5d fbbd b042 ea3d d80f a13d
00000260: 1073 df3d 8c8b 6cbd 6039 c7bb 5ef4 203e
00000270: 2c52 183e 3075 f33d c8c6 81bc cb15 1bbe
00000280: 2ee1 f2bd 4b44 b3bd a45f cc3d 683b 563d
00000290: b0ba c73c 36d6 6dbd b855 9f3c 5e66 0f3e
000002a0: 8ea2 ddbd e44a dd3d 987b d63d 4c52 15be
000002b0: 7084 313c 3236 883d 01da bebd cdba 80bd
000002c0: 3830 7e3d 9c05 05be 2eb0 73bd 23be 15be
000002d0: e84e 58bd 7611 373e 80b9 633c e2a4 a4bd
000002e0: 9841 de3d 0489 b03d f0f2 843c 6b47 c8bd
000002f0: 7ab3 0c3e e410 b73d 2a08 25be 6089 fe3d
00000300: 7367 8dbd ddc2 19be b0ee b43d aafb 6cbd
00000310: 861e fabd fe17 19be 6276 8cbd 3964 edbd
00000320: 2597 32be a5c7 b7bd c8a0 d93c 204b 96bd
00000330: 101f 9e3d 52bd fbbd 20ea 25bc c04d 90bc
00000340: 0c57 1ebe 6877 8abd 705f ca3d 4e6b e0bd
00000350: ad83 30be d08f dfbd 9893 d73d 746d 1ebe
00000360: bc09 a23d 705c c1bd 8086 35bc a443 203d
00000370: 2e59 233e c4a2 b8bd b769 04be 222d 95bd
00000380: 20bd a13c f0c9 12be c85d 23be 7566 1bbe
00000390: 197a a3bd 66ab 38be 9e3e 1abe 0c41 2ebe
000003a0: d4fe 073e 46fd 33be d0cd 6c3c 78e3 003e
000003b0: 0946 b6bd 5c8b 213e d832 8cbd e0dc e8bc
000003c0: 3e29 cdbd a94e 10be e63a bdbd 6a45 31be
000003d0: 74c6 8bbd e828 353d e814 60bd 7830 f23c
000003e0: 059a e7bd 90e1 3c3c 4037 563c 0098 473b
000003f0: 20fe e73b 5cb3 a63d 2011 903d 7ef5 febd
-0.132045 -0.021945253 -0.13938987 0.08084738 0.09893462 -0.06300623 0.08760178 -0.14463171
0.098009825 -0.05522251 0.07797584 0.055205062 0.08401853 0.028092995 -0.102108814 -0.03366582
-0.11502935 0.08727828 -0.16527587 0.04124473 0.006497219 0.13144496 -0.03998263 -0.12328194
0.06595589 -0.028398395 0.042868182 0.08732766 -0.029157385 0.095374316 -0.09244183 0.11471397
0.18050197 0.07077509 0.01769109 0.05610147 -0.038838208 0.16531742 0.04208848 -0.13097925
0.10613319 -0.10497265 0.062266648 -0.020866841 -0.06415657 0.06332943 -0.014757529 0.15349475
0.116945684 0.05448465 0.02557464 -0.053827018 -0.031114176 0.13728508 -0.100286186 0.049737558
0.075847864 0.11894551 -0.044735566 0.050782233 -0.015876234 -0.10950558 0.08734313 0.14797622
0.06424594 -0.026143014 -0.17037265 0.083283454 0.10205349 -0.16828835 -0.008302718 0.13679743
-0.18023732 0.11587095 -0.0116766095 0.12447995 -0.001771301 0.110132605 0.04896888 0.1649999
0.07404512 0.17862397 -0.1611479 0.15854722 0.10324636 0.07540187 -0.026809514 0.14091134
0.1673688 -0.009040743 -0.12187314 0.0148507655 -0.10821453 -0.055496827 -0.16761447 -0.14575966
-0.026322484 -0.08380697 -0.038853034 0.08643541 -0.14925422 0.08465645 0.029003188 0.09512326
-0.14842796 -0.046705365 0.13976398 0.13316971 -0.10204611 0.13355729 0.07096541 -0.1681995
0.058959067 0.16532654 -0.16971554 0.072269976 0.15027013 0.17927456 0.079607904 -0.15696314
-0.12479804 0.048761472 -0.0909712 -0.1131751 0.15580824 0.13906837 0.04596041 -0.02202423
-0.124167755 -0.05955611 0.10057825 0.17832264 -0.14084016 0.014621064 -0.13063912 0.15701976
-0.1069593 -0.14964223 -0.17486449 -0.15534492 0.05088964 -0.044212118 0.081302345 0.16388723
0.15315923 -0.14539364 -0.17014411 0.09071645 -0.12562117 -0.12273748 0.11438501 0.0786435
0.10910618 -0.05775027 -0.0060798377 0.15718219 0.14875096 0.11887586 -0.015841857 -0.15145032
-0.11859356 -0.0875326 0.099791795 0.052302748 0.024381012 -0.058065616 0.019450054 0.14003894
-0.108220205 0.108053 0.104727924 -0.14582175 0.010834798 0.06650962 -0.09318925 -0.062856294
0.062057704 -0.12990421 -0.05949419 -0.14623313 -0.052809626 0.17877755 0.013899207 -0.080392614
0.10852355 0.08619884 0.016229123 -0.09779247 0.1374034 0.089387685 -0.16116396 0.12428546
-0.06904497 -0.1501574 0.088345885 -0.057857193 -0.12212853 -0.14950559 -0.06858517 -0.115913816
-0.1744047 -0.08973626 0.026565924 -0.07338548 0.077207685 -0.12291969 -0.0101266205 -0.0176152
-0.15462893 -0.06761056 0.098814845 -0.10957967 -0.1723773 -0.10916102 0.10526198 -0.1547144
0.07912013 -0.09441459 -0.011079431 0.039127007 0.15951988 -0.0901542 -0.12930952 -0.07283999
0.019743502 -0.14334846 -0.15953743 -0.15175803 -0.07982273 -0.18034133 -0.15062949 -0.17017001
0.13280803 -0.17577085 0.014453366 0.12586772 -0.08900077 0.15775818 -0.06845635 -0.028425634
-0.10017632 -0.14092506 -0.092397496 -0.17311636 -0.06824961 0.044228464 -0.054707438 0.029564127
-0.11308674 0.011528388 0.013074696 0.003045559 0.0070798546 0.08139679 0.07034516 -0.12449168

pixel_patch_embedding.bias f4 [32]
00000000: 93a5 d1bd 9052 74bc 00a9 b7ba 8a24 dfbd
00000010: e0f9 62bd 3869 02bd b882 1d3d 1ed1 153e
00000020: eb87 80bd 9435 183e c8b9 89bc 7b8d cbbd
00000030: b0b5 19bd aacf bdbd a8d9 f13d c4bd 303d
00000040: 967e 05be 6aae 013e 58cb bbbd f4a2 99bd
00000050: 3e3d 093e faf0 febd a855 973d 38f5 a43d
00000060: 783f 21bd 84af a63d 58cc 15bd a601 103e
00000070: dd2d 8ebd 8440 fdbd dd05 c1bd 542a 01bd
-0.10236659 -0.014912263 -0.0014012158 -0.10895641 -0.05541408 -0.031838626 0.03845474 0.14630553
-0.06275924 0.14864188 -0.01681222 -0.09939095 -0.037526786 -0.092681244 0.11809093 0.043149725
-0.1303657 0.1266419 -0.09169644 -0.07501784 0.13402268 -0.124483064 0.073893845 0.08054584
-0.03936717 0.08138946 -0.03657183 0.14063129 -0.069423415 -0.12365821 -0.094249465 -0.031534508

local_trans_pixel.layers.0.0.fn.norm.weight f4 [32]
00000000: faec 863f 8762 883f 6d0b 8a3f 9544 8e3f
00000010: fc39 8b3f 2970 863f 7248 953f a348 893f
00000020: 8d68 893f 791b 893f 53be 913f 9175 863f
00000030: f2cb 8d3f 65a4 873f 5fec 8f3f d86f 8f3f
00000040: d02c 8e3f 1c39 8b3f b767 8a3f 2d29 8f3f
00000050: c920 8a3f 02e3 863f a548 893f d809 893f
00000060: 662f 903f 4d10 8e3f 4363 8b3f 1a98 8b3f
00000070: 49fa 8b3f 8e88 843f 9243 8b3f 255e 8c3f
1.054107 1.0655068 1.0784737 1.111468 1.087707 1.0502979 1.1662734 1.0725292
1.0735031 1.0711509 1.1386207 1.0504628 1.1077864 1.0597044 1.124401 1.1206007
1.1107426 1.0876803 1.0812901 1.1184441 1.0791255 1.0538027 1.0725294 1.0706129
1.1264465 1.1098725 1.0889667 1.0905793 1.0935756 1.0354173 1.0879996 1.0966231

local_trans_pixel.layers.0.0.fn.norm.bias f4 [32]
00000000: 368b 12bc 7172 71bd ed4b d03c d820 343d
00000010: 7199 02bd 4310 0cbd 22b4 dabc 1c0a 8d3b
00000020: f479 5abc 04f4 973c f323 863d 88f9 ba3c
00000030: 9eb8 10bd 3320 9cbc c4c0 d2bc 4732 09bb
00000040: fa8f cb3c 38fb 60bc 9329 ef3b 8e49 973c
00000050: 7752 313d 2e3e 913a 3579 983b af32 9a3a
00000060: 091a 6d3d ec36 e33b c295 f4bc 2cce 953b
00000070: cfc1 7bbd 44f7 cabb e71b 0fbd 0657 61bc
-0.008944323 -0.05894703 0.02542683 0.043976635 -0.031884614 -0.034195196 -0.026697222 0.0043041836
-0.01333474 0.018548973 0.065498255 0.022824064 -0.035332315 -0.019058323 -0.025726683 -0.0020934509
0.024848927 -0.01373177 0.007298657 0.01846769 0.043291535 0.0011081153 0.004653121 0.0011764372
0.057886157 0.0069340374 -0.029856566 0.0045716967 -0.061464127 -0.006194027 -0.03493872 -0.013753658

local_trans_pixel.layers.0.0.fn.fn.to_qkv.weight f4 [1536, 32]
00000000: 097d b43d afa3 513e aa2b b63c f6a1 363e
00000010: 59f4 ffbd f284 453e 1f8f 793b 97da 2dbe
00000020: 1b3d a93d 046b 36bc 90a7 adbd aca1 6cbd
00000030: ddef 283e c037 8ebd 2bc7 22bd 094a 753d
00000040: 8760 fcbc 4e9d 163e d845 0b3c b1fb 8d3c
00000050: 6500 963d 4a25 c23d ed49 4b3d d031 313e
00000060: 1b2b f63d c527 95bd 47be 57bb 69b7 52be
00000070: 5b68 8fbc 6ff1 fbbd 6121 9abd d78e 9e3d
00000080: bfba dcbb 36ee 033e 8485 bbbd b0cf 193e
00000090: 3e4c 09be 524e e9bd cee4 ef3d 7434 74bd
000000a0: 30d8 98be 24b8 28be 1f8c 843d 1541 a13d
000000b0: b5cd 4abe de84 063e 60a5 11bd db5f 49be
000000c0: 88e2 6cbd 5608 4fbe 00a4 acbd 26a5 6f3d
000000d0: 3dcd bd3c 669a dcbd dc7c 4b3e ff98 99bd
000000e0: c6a2 cc3a 834e febd 95d5 e03c 7657 853e
000000f0: 0a4b e33c 6a67 673c 3709 ac3c 5629 483e
00000100: 9763 d5bd 6e96 e1bd 0794 40be 3886 c3bd
00000110: 481b 01bd 1881 593d 6374 bbbd 8ed8 003e
00000120: 30d1 f0bd cbd7 1a3e dadb 57be 6872 6abd
00000130: 9ddc f6bb 54b4 e33c bce3 0b3e dba4 d5bd
00000140: b4c0 33be 4493 933d 2751 7c3d 941f c13c
00000150: 5b3d df3d 30a4 dabc 6ec0 49be c37b 8b3d
00000160: fa05 45bd 8027 31be 0ff1 d93d 5615 f1bd
00000170: 43bf ae3c 9784 e6bd 2eab 223e 8669 813b
00000180: a6d5 353e 8d41 7e3d 9117 52be 0c82 8d3d
00000190: bd85 dcbd f6de 60bd f88d 04bd 6ed1 55be
000001a0: c125 043e 9cba 553e ff4f a9ba 0873 3fbd
000001b0: 9714 4a3e 8306 afbd 8411 0dbe f9c5 183d
000001c0: 4633 8abe 993d 413e 0010 2ebd 61f1 223e
000001d0: ac8f 583e dd51 53bd 9c4f 06be 676d 69be
000001e0: c4f1 6e3d d40d 24bd 4e71 4b3e 8299 2a3e
000001f0: 1249 4f3e 4227 d3bd baa1 2f3e 2509 533d
00000200: 757c d53d 85cb 34be b278 adbc b711 a33d
00000210: 0b85 823e 4855 acbd 9a13 203e 0250 563e
00000220: 1bad 82bc 1314 bebc 4d3f 36be e89f 023e
00000230: 397e 25be f325 f2bd 5b6f c0bd 05ac d0b9
00000240: e21f 5f3d 30dd c1bd 7558 3b3d 8af4 acbd
00000250: 5f53 62bd 2ee0 b5bd 33de 243d a04a 3a3e
00000260: d805 573e 8085 2cbd 9a11 fdba 16f7 d03d
00000270: e7fa 8c3d 6506 83bd 8a69 e638 dedb 053e
00000280: 1b4d d43d 300f e33d b85b 68bd c15e a7bd
00000290: 2067 45be 0911 f6bd 2054 13be 3e24 8f3d
000002a0: 223d a63d 0bee 7f3d 1af7 13be 4c33 f6bd
000002b0: 4951 ea3b a712 473d 031c c1bd 9cdf bb3d
000002c0: 0912 b73c 0ed9 633d cf7d e43d f0d9 50bd
000002d0: 036d aa3d 9054 c4bc 2f8e d83d 1888 45bd
000002e0: 5a21 00bd d0ed 223d e44f 09bd ba6b f2bd
000002f0: 1ed2 c9bd 1119 173d 8ccd 033e 9fd1 1bbe
00000300: 7c0b 653e e02b 32be 2119 073e 4bda 2fbe
00000310: a83d 843d c066 3c3e 4bd4 0bbc 1bb6 3b3d
00000320: 04ad 90bc e952 2a3e abfd febd bcfb 393e
00000330: b52e 0bbe 1f85 4bbe aab9 f4bb cacf 813e
00000340: 3506 34be 90b3 1c3d 63a6 163e 7083 7abd
00000350: bec7 943d 543c a43d 974d 4dbe 20eb 0d3e
00000360: 0fa8 643d b128 28be 713d 6a3e 280d f3bc
00000370: 545e b0bd 6d8a ccbd 1687 903c 32c8 413d
00000380: 64b3 d3bb 1323 c0bd 8889 18be 0402 113e
00000390: e76e 6cbd 4bc0 84bd a884 9fbd 1117 edbd
000003a0: 6213 28be 8dd0 863c cf39 b3bd 6551 acbd
000003b0: 13a8 0bbe 70f1 c33d 2568 12be b2bb 423e
000003c0: 0eca 9a3d ad23 06be 66f0 3fbd 30ff 1ebe
000003d0: 4048 283e 62f8 82bd 9aa0 c8bd 584a 7dbd
000003e0: 3e85 80bd 3c7e 453e 485c 4b3e 133b 09be
000003f0: 3397 e23d 02c4 f7bd 0a08 a23b 9afe f1bd
0.08812911 0.20472597 0.022237618 0.1783522 -0.124977775 0.19288996 0.0038079692 -0.16977917
0.08263608 -0.011133913 -0.08479226 -0.05777137 0.1649775 -0.06944227 -0.039740723 0.05988506
-0.030807747 0.14708444 0.008500539 0.01733193 0.07324294 0.094797686 0.049631048 0.17304158
0.120199405 -0.07282976 -0.003291981 -0.20577778 -0.017505815 -0.12301909 -0.07525898 0.07742088
-0.006736129 0.12883839 -0.091563255 0.15020633 -0.1340799 -0.113918915 0.11713563 -0.059620336
-0.29852438 -0.16476494 0.064720385 0.078737415 -0.19805034 0.13136622 -0.035558105 -0.19665472
-0.057833225 -0.20218024 -0.08429718 0.058507107 0.023169154 -0.10771637 0.19871849 -0.07499885
0.0015612475 -0.12417319 0.027445594 0.2604329 0.027745742 0.014123777 0.021000488 0.19547018
-0.10419386 -0.1101502 -0.18806468 -0.095470846 -0.031520158 0.05310163 -0.091530584 0.12582609
-0.11758649 0.15121381 -0.2107996 -0.057238013 -0.0075336234 0.027795948 0.13661093 -0.10431834
-0.17553979 0.07205823 0.06160083 0.023574628 0.109003745 -0.026689619 -0.19702312 0.06810715
-0.048101403 -0.17300224 0.106416814 -0.11771648 0.021331435 -0.11255758 0.15885612 0.003949347
0.17757282 0.062074233 -0.20516802 0.0690957 -0.10767696 -0.054900132 -0.032361954 -0.20880672
0.12905027 0.20871967 -0.0012917517 -0.04674056 0.19734417 -0.08546164 -0.13776213 0.037298176
-0.26992244 0.18871154 -0.042495728 0.15912391 0.21148556 -0.051591743 -0.13116306 -0.2279564
0.058336034 -0.04005225 0.19867441 0.16660121 0.20242718 -0.10310222 0.17151538 0.051522393
0.10424129 -0.17655762 -0.021175716 0.07962363 0.2549213 -0.084147036 0.15632477 0.20928958
-0.015951684 -0.023202932 -0.17797585 0.12756312 -0.16161431 -0.118236445 -0.09396239 -0.00039801016
0.054473765 -0.09466016 0.045738656 -0.084450796 -0.05525529 -0.088806495 0.04025097 0.1819253
0.20998323 -0.042119503 -0.0019307614 0.10203378 0.06883793 -0.06397704 0.00010986913 0.13072154
0.10366269 0.11086881 -0.056728095 -0.0817237 -0.1927762 -0.12014968 -0.1438756 0.069893345
0.08117129 0.062482875 -0.1444973 -0.12021503 0.007150803 0.048601773 -0.09429171 0.091735095
0.022347467 0.05562692 0.111568086 -0.05098909 0.083215736 -0.023966104 0.10573994 -0.048225492
-0.031281807 0.039777577 -0.033523455 -0.118369535 -0.0985453 0.03688914 0.12871379 -0.15216683
0.22367662 -0.1739955 0.1319318 -0.17173116 0.064570725 0.18398571 -0.008534501 0.045827966
-0.017660625 0.1663319 -0.12450727 0.18162435 -0.13592036 -0.19875 -0.007468422 0.25353843
-0.17580493 0.03825718 0.14711909 -0.061160505 0.0726466 0.08019319 -0.2004913 0.13859224
0.055824336 -0.16421773 0.22875 -0.02966936 -0.08611742 -0.0998734 0.017642539 0.04731006
-0.006460594 -0.0938169 -0.14896214 0.14160925 -0.057722952 -0.064819895 -0.07788974 -0.11576665
-0.16413644 0.016456867 -0.087512605 -0.08413962 -0.13638334 0.09567535 -0.1429754 0.19016913
0.0755807 -0.13099547 -0.04686012 -0.15527034 0.16433811 -0.063950315 -0.09796257 -0.061838478
-0.06275414 0.19286436 0.19859421 -0.13401441 0.11063995 -0.120979324 0.004944806 -0.118161395

local_trans_pixel.layers.0.0.fn.fn.to_out.0.weight f4 [32, 512]
00000000: a705 2ebd 96c8 763d ce0c a5bc ab03 ecbc
00000010: 8dbd 3a3c 6cf7 4b3d 6803 64bd 3c96 e9bc
00000020: 0e52 5d3d 7752 5a3d 95b3 85bb ec61 693c
00000030: 9d1f c3bb f6ed 4abd 9428 72bd 701c f7bb
00000040: e08a c8bc ba6b 3fbc fbfa 3fbc 7ef8 dbbc
00000050: e39d 8dbc 7ecd 9eba 6991 673d badf 1f3c
00000060: 0491 b93c 041f 49bd 28d8 d3bc 5647 4d3d
00000070: 21a9 d5b9 660c b0bc 8aac 0b3d ec5d 8ebc
00000080: 9f83 4c3d 6484 ad3c 2169 89bb 5b40 263c
00000090: 2d44 2cbd 9c3a 35bd 57c0 31bd c386 dc3b
000000a0: 56c3 80bc 0b1c a3bc 7aa9 8abd b4d0 233d
000000b0: a1ed fe3c 0f1e 323d ea32 1bbd 4b45 133d
000000c0: 415a 85bc 827d 2f3d 2ba9 293d 1be1 863d
000000d0: eba4 9e3b 34a8 0f3d 899e a9bc f8a2 3c3d
000000e0: 33d5 593d 2d47 0fbc 2269 ed3c c8a5 0fbc
000000f0: 67e0 f8bc 947a a33c 3e47 f63c 8d0d f8ba
00000100: 9171 19bc 341a 2cbd d63f 4abd 3252 8bbc
00000110: 8036 f63c b6af ac3c e8d0 01bd 2a4b f5bc
00000120: b97f 253c 9162 5fbc 1e8b 8c38 1a35 4c3c
00000130: 4558 63bd 079b 073d 0621 d93c b7d5 89bd
00000140: 9a0a 813d 4467 233d fe00 473d 744c 37bc
00000150: e50e 50b8 0e89 f33c abd8 d43a b3bd 213d
00000160: 663b e6bb 8648 3cbc 5c98 0dbd 2dc9 dcbc
00000170: 6c47 d23b 2db8 4d3d beac 903c 67fb 523d
00000180: aa40 32bc cf28 c8bc 3751 0cbd a857 383d
00000190: e6df 723d e1ec 22bd 4177 2f3d 7d2e d13c
000001a0: 3ef2 c2bc d5a9 c83b 8d4f e93c b882 3abd
000001b0: 4650 42bc a308 37bc ffc6 f2bc 2a46 1bbd
000001c0: 9af9 5ebd 9ea4 d13b 47bb d83b 94fa 013d
000001d0: d4ae a0bc aaa7 25bc 8b14 793d 5ace c73a
000001e0: 42d6 a9bc af52 133d 6fd6 773c 6765 ae39
000001f0: 5bef 513c f7cd 453c 31d9 59bd 0dd4 cfbb
00000200: 1d50 51bc 28b0 85bc 10ab 3abd 9087 033d
00000210: 6d11 113d 242f af3b 52c5 47bb 2353 54bc
00000220: f855 17bd 0d6a c1bc e385 3c3d 88f0 34bc
00000230: 44e3 5dbc c2cd dbbc 04e0 08bc 5d90 05bd
00000240: 4fb7 ebbc ca45 3a3d 581f 2d3d 1acd 3abc
00000250: fe29 4b3d cb4b afbc 6f8f 67bc d6d5 26bd
00000260: 9e7a 483b 7446 41bc 8488 5d3d 4dc8 18bc
00000270: 198c 783d 0b78 96bb 777b 92bc 3450 cdbc
00000280: 12ea e8ba 18eb aebc 8adf 1ebb 61d0 d03b
00000290: f4c6 593d 734a cb3c cad5 5439 ecf4 c03c
000002a0: f110 363d a5b0 063d 9be1 5abd d832 a93c
000002b0: cbff 09bd b7ec 6dbd 9c84 fb3c de1f 133d
000002c0: e9c0 ee3c d19b f4bc e2fc 0cbd 8370 b8bc
000002d0: 9bd3 d83a 27c8 04bd aa33 aabc 0e82 2d3c
000002e0: 4581 a6bc dc33 f1bc 7976 4b3c 285e b3bc
000002f0: 6fb8 623d 00b8 75bd f87f eabc 2a12 41bc
00000300: 9e47 283d 5b7f 31bb 69b1 3e3d 9684 a73b
00000310: 2fe7 7fbb 0b3e e1bc 242d cfbc dd5a babb
00000320: 86a3 82bc c9d0 01bc f443 76bd 44f5 a93b
00000330: 3c8b 4aba f9dd 54bd 8940 5d3d b8c0 de3c
00000340: a828 9a3c 1243 73bc 08aa b63c 8979 c23a
00000350: 2203 eebc 2b00 1fbc e62a 36bc 1345 cabb
00000360: 21af f5bc 6dab ffbb d793 dabb d846 833d
00000370: 2f99 4c3d f186 4bbb 202d 253d 3690 1b3c
00000380: 4a18 253b 6b5b 843c c612 9b3c 87d9 25bd
00000390: f9fa 2f3d 02c1 84bd 7968 e23c d682 803d
000003a0: 6cbe 39bd 287d e3bb 6f54 0cbd da92 af3c
000003b0: ac43 21bd 06c3 8c3c d6c4 a03b eb29 03bc
000003c0: 8348 54bb 0b2c 94bd 7d3e e3bc fb92 f53c
000003d0: 9e5d c93c ee15 073c caca 9dbc 4eaf 15bd
000003e0: 524b 39bd 72a1 04bd 2286 22bd 0622 2e3d
000003f0: bdee 873c fe56 14bc 21f8 c539 cf8c 1c3d
-0.04248586 0.060249887 -0.020147707 -0.028810343 0.0113977315 0.049796507 -0.05566731 -0.02851402
0.05403333 0.0533013 -0.0040802457 0.014244538 -0.0059546963 -0.049543343 -0.05912073 -0.007541232
-0.024480283 -0.011683399 -0.011717553 -0.026851889 -0.0172872 -0.0012115685 0.05653516 0.00975793
0.022652157 -0.049101844 -0.025859907 0.05011686 -0.00040752537 -0.021490287 0.034100093 -0.01737877
0.04993021 0.021181293 -0.0041934405 0.0101471795 -0.042057205 -0.044245347 -0.04339632 0.006729932
-0.015718143 -0.019910833 -0.06770606 0.039993957 0.03111917 0.043485697 -0.037890352 0.035954755
-0.016278388 0.042844303 0.041421097 0.06585904 0.004841437 0.03507252 -0.020705478 0.046053857
0.05318184 -0.008744997 0.028980795 -0.008767553 -0.03038044 0.01995591 0.030063268 -0.0018924937
-0.009365455 -0.042017177 -0.049377285 -0.017006967 0.030055285 0.02107988 -0.03169337 -0.029943068
0.010101252 -0.01363434 6.701633e-05 0.012463832 -0.055504102 0.03310683 0.026505005 -0.06730216
0.0630085 0.039893404 0.04858493 -0.011187661 -4.9604936e-05 0.029728439 0.0016238888 0.039487552
-0.007026124 -0.0114919 -0.03456913 -0.026951397 0.0064172056 0.05022447 0.017660495 0.051509287
-0.010879675 -0.024433522 -0.03425714 0.04500547 0.059295557 -0.039776687 0.04283834 0.025534863
-0.02379715 0.006123761 0.028480316 -0.04553482 -0.011859959 -0.011171493 -0.029635904 -0.03790871
-0.054437257 0.0063977977 0.006614122 0.03173311 -0.019614615 -0.010110775 0.060810607 0.0015243993
-0.020732049 0.035967525 0.015126809 0.00033263417 0.012813414 0.012073032 -0.053185645 -0.006342417
-0.012775448 -0.01631935 -0.045573294 0.032111704 0.03541701 0.005346196 -0.0030482602 -0.012959274
-0.03694722 -0.02361014 0.04602612 -0.011043675 -0.013542954 -0.026831511 -0.008354191 -0.03260838
-0.028773932 0.045476712 0.04226622 -0.011401439 0.049600594 -0.021398446 -0.014133318 -0.040731274
0.0030590664 -0.0117965825 0.05408527 -0.009325099 0.060680483 -0.004591947 -0.017881138 -0.025062658
-0.0017769954 -0.021352336 -0.0024242126 0.006372497 0.053168252 0.024815774 0.00020297538 0.023554288
0.04444975 0.032883305 -0.05343781 0.020654127 -0.03369121 -0.058087077 0.030702882 0.035919063
0.029144721 -0.029859455 -0.034420855 -0.022514587 0.0016542556 -0.032417443 -0.020776588 0.0105900895
-0.020325312 -0.029443674 0.012418383 -0.021895483 0.05535167 -0.05998993 -0.028625473 -0.011784116
0.041083924 -0.0027083966 0.04655591 0.005112241 -0.0039047708 -0.027495405 -0.02529008 -0.0056871013
-0.015947115 -0.007923313 -0.0601234 0.0051867086 -0.0007726436 -0.051969502 0.054016624 0.027191505
0.018818215 -0.014847534 0.022297874 0.0014837246 -0.029054228 -0.00970463 -0.011118626 -0.006172785
-0.029990735 -0.007802418 -0.006670456 0.06409997 0.049950775 -0.0031055773 0.040326238 0.009494832
0.002519148 0.016156873 0.01892985 -0.040490653 0.042963956 -0.06482126 0.027637707 0.06274955
-0.045347616 -0.00694241 -0.03426021 0.021432329 -0.039371178 0.017182838 0.004906277 -0.0080055995
-0.0032391853 -0.07234963 -0.027739758 0.029977312 0.024580773 0.008244975 -0.019261736 -0.036544137
-0.045237847 -0.03238053 -0.0396787 0.042512916 0.016593331 -0.009053944 0.00037759639 0.038220223

local_trans_pixel.layers.0.0.fn.fn.to_out.0.bias f4 [32]
00000000: 91a7 b9bb 1fcd b03c cfae 00bd d517 333c
00000010: b19b 8e3c 8856 a8bc a4ec 953c 2e30 e63a
00000020: 1cc1 27bc 4f63 3a3b 5034 18bc 428e 40bd
00000030: 0cf7 2a3d 400a 173c 9626 8b3c 02e9 4bbb
00000040: a258 3a3d 030b 3e3d 625f dd3a 9206 bcbc
00000050: b68b c53b e017 993c dc2e 873d 5d01 febc
00000060: 0c4f 77bc 262f 013d 1968 d83c bcd0 85bd
00000070: b3ff c23c 4470 36bd 79d0 433d cdfa 2e3d
-0.0056657274 0.021582184 -0.03141671 0.010930975 0.017408224 -0.020549074 0.018301316 0.0017561966
-0.010238912 0.002844054 -0.009289816 -0.047010668 0.04173951 0.009218752 0.016986173 -0.0031114225
0.045494683 0.04639722 0.0016889388 -0.022952352 0.0060286177 0.018688142 0.066007346 -0.03100651
-0.01509453 0.031539105 0.026416825 -0.065339535 0.023803568 -0.04454066 0.047806237 0.04271965

local_trans_pixel.layers.0.1.fn.norm.weight f4 [32]
00000000: 7a14 7f3f ae81 8a3f 57f7 7a3f 3f6a 833f
00000010: 77ba 803f c854 7b3f b2c4 813f a3da 873f
00000020: 1ce2 833f 14d9 853f 2a32 853f 8929 803f
00000030: da11 7d3f ad79 8b3f 52da 873f 6f33 793f
00000040: e5c4 783f adde 883f 1228 853f 3cbc 7e3f
00000050: 4d22 823f cfcd 783f efbb 793f 5819 7f3f
00000060: 2bc5 883f 32d2 803f 0cbc 7e3f 2760 803f
00000070: 88af 833f f4e6 813f 4e0e 783f de38 813f
0.9964062 1.0820825 0.9803366 1.0266799 1.0056905 0.9817624 1.0138152 1.0613598
1.0303378 1.0456872 1.0405934 1.0012676 0.98855364 1.0896508 1.0613501 0.97344106
0.9717544 1.0692955 1.0402853 0.9950597 1.0166718 0.9718904 0.9755239 0.99648046
1.0685171 1.0064147 0.99505687 1.0029343 1.0287943 1.0148606 0.9689683 1.009548

local_trans_pixel.layers.0.1.fn.norm.bias f4 [32]
00000000: 9274 303d d60b c03c 721c 4dbc f146 f23c
00000010: 67ac 66bc e308 00bd 3920 bfbc cd42 a2bc
00000020: f68e 1b3d 48e8 9d3b 8d21 5f3c 9d1c 783c
00000030: 46da 7d3c 7407 7dbc 2082 03bd 6614 183d
00000040: d3e7 b23b f49e cd3b fb3b 023d 7e32 36bc
00000050: 89f8 ed3c 5310 ea3c 6235 36bc 2fb1 62bc
00000060: 2578 2c3c 99c5 d1bb c9da d8bc b543 b5bc
00000070: b714 103b 89b6 00bd 671b 81bb b2d0 9f3c
0.04307992 0.023443144 -0.012518989 0.029574843 -0.01407919 -0.031258475 -0.023330795 -0.019807244
0.037978135 0.00481895 0.013618839 0.015143541 0.015493935 -0.0154436715 -0.03210652 0.03712883
0.0054597645 0.006275052 0.031795483 -0.011120437 0.029049175 0.028572237 -0.011121126 -0.013836189
0.010526692 -0.0064017293 -0.026471512 -0.022127012 0.0021985003 -0.03142408 -0.003940034 0.019508693

local_trans_pixel.layers.0.1.fn.fn.net.0.weight f4 [8, 32]
00000000: 3cc8 2abe 659d fdbd 932b e9bd cd33 11be
00000010: b5e3 68bd cc7e 92bc d4c3 e93d f9d4 a33d
00000020: 03bf 6fbc d6d3 50be af3d 103e b158 cebd
00000030: 8d3a f03d b2bb 82bc 368c c6bd a05c fa3c
00000040: 2428 0d3e 9a6b 693d 8bc8 a93d 8e6b 05be
00000050: bb40 3cbe 8486 fdbb 0ec1 c93d a36a 733d
00000060: 4e67 9fbd 4556 26be 179d c23d 235e 2abd
00000070: f456 e83d 9d5f b7bd 43cf 053e c533 b9bd
00000080: 7cf1 21be 5352 a3bd c425 4ebd a2af 2abe
00000090: cbf5 3a3e 60fd 843d 46f2 b9bd a68f 4abe
000000a0: 3167 043e 780f f83d 12eb 93bd da20 78bd
000000b0: d5b0 123e 9001 acbb 9d98 fc3d 7d79 0fbe
000000c0: 4b9c ff3d efbc 70bb 97a2 3abd 7597 70bd
000000d0: e72f 39be e358 9dbc 5fc9 c53d 899e 75bd
000000e0: ba37 b93c 9e73 9f3d 9966 52bd dfc1 0b3e
000000f0: fd46 d1bd ae6d c43d fc1c b4bd 3e18 053e
00000100: 26aa 313e c1fa 3dbe ad45 09be 49e1 1a3e
00000110: 9aba 92bd ab0c 84bc 0889 f3bd 5c87 cbbd
00000120: 2d94 f03d e349 bf3d 541d 2d3e b53e 9cbd
00000130: 2d84 903d f8a7 a03d c3ae ddbc 1857 29be
00000140: 784d 353e d4f9 023e f71d 01be 0ed4 9a3d
00000150: 2c54 a93d 260b 5f3d 4699 f03d 5796 b1bd
00000160: 8482 433e 1f86 b2bd 7bcf 1abe e37a cd3c
00000170: 8c80 b0bd a763 15be f1b5 ef3d ac48 383e
00000180: 09b8 8cbd ff02 50be d8d0 d1bd 88ea a43d
00000190: 3ddd 11be cdf5 843d 9af9 3f3d 3880 303e
000001a0: eef7 edbd 6f8d b23d bf70 d83d fade ba3d
000001b0: 966a f13d 3a25 24be 4eb5 1c3e 213a 25be
000001c0: 7838 01be 3ed6 1fbe 095a 1fbe 6346 d93d
000001d0: a98b ce3c 7e42 c13d 5f98 6dbc 894f 973d
000001e0: b5d5 183d fddd 1cbe 4abc 2dbd 3ee5 35be
000001f0: 9f06 16be 4b5f 333e a040 293e 9ebb 82bd
00000200: 7ea0 d8bc 4291 6a3e 834e 863d 4dc0 d0bd
00000210: 8f49 433d 4f24 173e 1d4a adbc d9fb 2dbe
00000220: a4f5 03be 0f77 a53d 53b2 a53d e63b 0dbd
00000230: 70fe 08be 7260 323e 7425 df3d 5f27 c3bd
00000240: d0f3 043e 981e 1a3e 4008 a9bd 663f 5a3d
00000250: dbb8 033c cb49 1c3c bec6 073e b7fb 76bd
00000260: e3ca a33b d817 f33c 9c85 7fbd d561 b93d
00000270: 1def b0bc 6085 04be 7d27 073d 3b2d fc3c
00000280: 7222 29be 6f8d 453e 41ff b7bd db0d d43d
00000290: c3aa d5bd ca81 6c3d b7b7 cbbd a10c 57be
000002a0: e2be 053e 9535 65bd 1436 a3bd 3dd1 3a3e
000002b0: dd07 063e 41e8 73be 3b25 1abe 9444 2c3e
000002c0: ce67 093e 4033 1f3e 2e97 423d 913a 1dbe
000002d0: 9e0f 42be 5e64 1d3d 663f 113d 5633 0d3e
000002e0: 56df d53d ae2a 18be f89e 43bd fe05 93bc
000002f0: 0bf3 3abe d0e2 f93d a087 2fbe 3863 1f3e
00000300: 0426 0e3e 766f 663e a83b e1bd cfa4 dcbd
00000310: 20ff e73d e944 1dbe 714d 19be ab9d 14be
00000320: 4125 633e 7b0e 753e d6f8 7c3e c10d 1abd
00000330: 98d9 e73d 27db e2bd 9e2a 123e 1f73 fd3d
00000340: 2489 c03d 2129 05be 7924 0f3e 73fc 3d3b
00000350: 4f09 2b3e 5125 a23c 8cf2 90bc 6e7d 13be
00000360: 10c9 d9bd 2132 073e 9e8e 2cbe 31da 75bd
00000370: 88e1 64bd a689 4abe 4da9 a0bc 19dd c73d
00000380: d3c5 603d 5b17 f0bb c749 6f3d 9ad7 273d
00000390: ab22 173d 1ced ad3d dd1a 2f3e 75d9 5cbd
000003a0: b8f1 1c3d 8544 f93b dbd5 96bd 58ba a93d
000003b0: ea82 413e f283 933d 9451 0fbe 36d0 d4bd
000003c0: 1ccf 05be 0598 0abe 46a3 363e 017a 2cbe
000003d0: beca bfbc 0227 39bd 2491 a73b c19d 823d
000003e0: 3e1d 8fbd a88f 72be 3dbe 8cba 947a 26be
000003f0: 7cb9 bfbb caa9 4ebe 1789 de3d 5ff1 12be
-0.16677946 -0.12383536 -0.11385264 -0.14179917 -0.056857783 -0.017882727 0.114143044 0.07999606
-0.014632943 -0.20393309 0.1408603 -0.1007551 0.11729918 -0.01595864 -0.09694712 0.030561745
0.13784844 0.056987382 0.08290204 -0.1302931 -0.18384068 -0.007736983 0.098512754 0.05942787
-0.07783376 -0.16243847 0.09502619 -0.041593682 0.1134471 -0.08953784 0.13067345 -0.090430774
-0.15814775 -0.079746865 -0.050328985 -0.16668561 0.18257825 0.0649364 -0.09079413 -0.1978136
0.1292999 0.121123254 -0.072225705 -0.060578205 0.14325269 -0.0052492097 0.12333796 -0.14011188
0.124809824 -0.0036733707 -0.045565214 -0.05873819 -0.1808468 -0.019207424 0.09657549 -0.059965644
0.02260958 0.07785724 -0.051367376 0.13648175 -0.10218618 0.09591232 -0.08794591 0.12997529
0.17350063 -0.18552686 -0.13405485 0.15125002 -0.07164498 -0.016119322 -0.11891371 -0.09937927
0.11747012 0.09340265 0.16905719 -0.07629148 0.070564605 0.078445375 -0.027060872 -0.1653713
0.17705333 0.12790614 -0.12609087 0.075599775 0.08268008 0.05445399 0.117479846 -0.08671253
0.19092757 -0.08716988 -0.1511821 0.025083011 -0.08618268 -0.14588796 0.117046244 0.17996472
-0.068710394 -0.20313643 -0.10244912 0.08052546 -0.14244552 0.06492195 0.046868898 0.17236412
-0.116195545 0.087183826 0.105683796 0.09124561 0.11787908 -0.16029826 0.15303537 -0.16135456
-0.12619197 -0.1560907 -0.1556169 0.10609128 0.02521308 0.094365105 -0.01450166 0.07388217
0.037313182 -0.15319057 -0.042415895 -0.1776323 -0.14650963 0.1751682 0.16528559 -0.063834414
-0.026443716 0.22906974 0.06557944 -0.101929285 0.047677573 0.14759944 -0.021153504 -0.16990604
-0.12886673 0.08079349 0.08090653 -0.03448095 -0.1337831 0.17419603 0.108958155 -0.09528994
0.12983632 0.15050733 -0.08253527 0.053283118 0.008039678 0.009539078 0.13259408 -0.060298648
0.004998551 0.029674456 -0.06238328 0.09051863 -0.021598393 -0.12941504 0.032996643 0.030783286
-0.16517046 0.19292234 -0.08984233 0.10354205 -0.10432961 0.057740964 -0.0994715 -0.21000911
0.13061097 -0.055959303 -0.07969299 0.1824388 0.13088937 -0.23819067 -0.15053265 0.16823035
0.13418505 0.15546894 0.047507457 -0.15354373 -0.1895127 0.038425796 0.035460852 0.13789114
0.104429886 -0.14860031 -0.047759026 -0.017947193 -0.18256776 0.12201464 -0.1714158 0.15565193
0.1388169 0.22503456 -0.10997707 -0.10773622 0.11327958 -0.15358318 -0.14970948 -0.1451327
0.2218218 0.23931305 0.24704298 -0.037610773 0.113207996 -0.11076956 0.1427407 0.12375473
0.094011575 -0.1300397 0.13978757 0.0028989583 0.1670277 0.019793184 -0.01769378 -0.14403316
-0.10634053 0.13202716 -0.16851279 -0.060022537 -0.055879146 -0.19779071 -0.019611979 0.09758968
0.05487616 -0.007327003 0.05841997 0.040977098 0.036898296 0.08492491 0.17100091 -0.05391832
0.03831646 0.007607045 -0.073650084 0.082874954 0.18897596 0.07202901 -0.13995963 -0.103912756
-0.13067287 -0.13534553 0.17835721 -0.16843416 -0.023412105 -0.045203216 0.0051137377 0.063777454
-0.069879994 -0.23687613 -0.0010737848 -0.16257697 -0.005850969 -0.20181957 0.108659916 -0.14349888

local_trans_pixel.layers.0.1.fn.fn.net.0.bias f4 [8]
00000000: 3fa1 063e 51de a23d 7545 d53d 4ade 9cbc
00000010: 2e0c 36be 75af 05bc 7633 04be 93fb 3c3d
0.13147448 0.0795256 0.104136385 -0.019148964 -0.17778084 -0.008159508 -0.12910256 0.046138357

local_trans_pixel.layers.0.1.fn.fn.net.3.weight f4 [32, 8]
00000000: 0827 ffbd 2078 273e 713f 4ebe a106 6ebe
00000010: e4e2 2bbd 60e2 f1bd b39d 9fbe b774 383e
00000020: abaf 9e3e b03a 91be befa 893c 8d88 21be
00000030: 8d6d 3cbd d432 e7bd 1f0d a63e b958 c13d
00000040: 72a4 a13e fbfc 7d3e fd2c 303e 5e7d 993e
00000050: 87fe a63d dde3 503d 5612 28be 17f1 2cbe
00000060: 675d c83d 2075 c33e f364 88bd 5d47 4c3e
00000070: b4f6 0d3e 657c 53bd 62ef 98be 28f6 febd
00000080: e62e 823e 93be c9bd d6cd 82be 1caf 8bbc
00000090: 75c9 1d3e e646 d7bc f6b9 b9be a51f ab3e
000000a0: 9c2f babc 32f7 803e bee1 413e 793c a3be
000000b0: c89a 513e e4e7 62be be60 8dbe 281b cdbc
000000c0: e7e6 f33d 2aec 623d e36f af3e 8678 fbbd
000000d0: 3729 9dbd ae2b 393d 2c88 833e bc67 7e3e
000000e0: 9d5a b53d dacc 2b39 0b71 f6bc 080b 623e
000000f0: 4505 91be b037 9cbe 3d8d 26bd fdca a73e
00000100: a334 6abd ed1d c3be 19b0 26be ed24 9c3e
00000110: 6d27 643e 6c06 a7be 3996 b53e 7e3e a03e
00000120: b1e7 793e ff3f 843d 0015 7ebe 2e60 0cbe
00000130: b034 7a3e 9a72 9abd 4de9 03bd 6475 81bd
00000140: 290e 04bd db9f bcbd f780 32be 72e1 5cbe
00000150: 1928 41bb eee1 d13d cdc6 c03e a149 79be
00000160: 98e3 8fbe fdcc 77be a393 48bd cc5a c9bd
00000170: 31a8 cf3d 51a9 30bd bd03 a7be 2756 6b3e
00000180: d5ff 12bd ef4a 88be 4008 6b3e 52bd 80be
00000190: ed7f 38be 91d6 f1bd 70e3 243e 7d0f 093d
000001a0: 267b eabd 8b11 70be ec83 bcbe 24de cabd
000001b0: a401 273d e85b aa3e 8f4f 8e3e 668a 5e3e
000001c0: 0294 a23e 42c8 a03d 79d4 b13e 4361 1dbe
000001d0: 8515 95be 2988 7fbd 3bec 2ebe 009a 87be
000001e0: 4bff 79bd 1581 68be 5016 823e 5360 513d
000001f0: aa35 833e fc3c 1b3e 53dc 69be 82ba bf3e
00000200: 71b8 863e a10e 483e 51fa 81be 925b 80be
00000210: e523 9d3d 1316 1c3c b272 d5bd 19fd 543e
00000220: 49f8 843c 3ae3 b6be 6387 1abd 3960 1bbd
00000230: eda1 1bbd 651f 63be ed0f 23be 39c7 b93e
00000240: ba50 66be c41e 323e cba0 4f3e 9e17 7dbe
00000250: 6850 663e 93d4 98bc 2ea7 8abe 2779 413e
00000260: ecd6 80be 055b 00be 966c c0bd eaf4 fdbd
00000270: 19bd 203e a005 603e 4c5d 54be c3ad 803e
00000280: e41d 66bd 5e8c aebc 8748 a6be ec1a 813d
00000290: 597f 083d d9fe 41be ba27 0a3e 2693 54bd
000002a0: 24ca 9ebe 87c6 b7be 93d3 d33b f6da 73be
000002b0: d223 5fbe 51d2 89bd 5db9 29bc 6320 62be
000002c0: 1d4c 05be eb92 973d 88d1 903e c445 81be
000002d0: c9ef 983d 9a02 a83d 8cff f4bd abc6 d33d
000002e0: 7a00 1a3e 0419 3bbb 9aa2 473e 36a6 a1bd
000002f0: 143c dbbc 7318 6cbe 7260 dcbd bf5a 92be
00000300: 1ecd c33d ed82 92be 93a2 6ebe 27c2 82be
00000310: 3909 873d 2312 05be effe 963e c68b 6a3e
00000320: 212b b03e f941 05be 7772 94be 34f1 11be
00000330: 2e14 863e 0c2e eabc 1019 e13d 21b2 e4bd
00000340: 800c e6bb 1436 5abe d0b7 5b3e 6522 04bd
00000350: d8a8 1dbe 0c7b 62be 9ef1 d53e df94 9bbc
00000360: 2d4b 8ebe 87d6 053e 6a55 8abe 7542 103e
00000370: be4d b6be 3df5 64bd 5d8d 58be cc2d b93e
00000380: 83bd 903e 88c1 c83d 2d9e ad3d e49b a1bd
00000390: 7a7e 90bd 8723 883e 33f1 b8be ea81 42be
000003a0: e00d 8a3d 9ad0 763e 9c84 793d 2331 7d3d
000003b0: b8a7 1b3e 51f8 af3e 3cdd a0be b476 0d3e
000003c0: 83ea 07be 56a2 a13d 9bd7 5c3d daf1 25be
000003d0: 6e5a 67be cef9 5a3e 31b4 8a3e 99d3 53be
000003e0: 88cf 873d 6938 32be 116f a4be f479 803e
000003f0: 7a93 863e 4d06 52be 73b1 633e 99d2 21bd
-0.124586165 0.16354418 -0.20141388 -0.23244716 -0.041964427 -0.11810756 -0.31175002 0.18013273
0.309934 -0.28365088 0.016843196 -0.15774746 -0.046002913 -0.112889916 0.32431886 0.09440751
0.31570774 0.24803536 0.17204662 0.2997846 0.08154016 0.050998557 -0.16413245 -0.16888843
0.0978344 0.38175297 -0.066598795 0.19949098 0.13863641 -0.051632304 -0.29870135 -0.12449294
0.25426406 -0.09850802 -0.25547665 -0.017051272 0.15408881 -0.026278924 -0.3627469 0.3342258
-0.02272778 0.25188595 0.1893377 -0.31882074 0.204692 -0.22158772 -0.2761287 -0.025037363
0.119092755 0.055401005 0.3426505 -0.122788474 -0.07673877 0.04520767 0.25689828 0.24844259
0.08855174 0.00016384144 -0.0300832 0.2207452 -0.28324333 -0.30511236 -0.04066204 0.32772055
-0.057179105 -0.3810877 -0.16278113 0.30496922 0.22280665 -0.32622087 0.35466173 0.31297678
0.2440479 0.06457519 -0.24812698 -0.13708565 0.24434161 -0.0754139 -0.032204915 -0.063212186
-0.032240067 -0.092101775 -0.17432009 -0.21570376 -0.0029473363 0.10248171 0.37651673 -0.24344493
-0.28103328 -0.2419929 -0.048968922 -0.09831771 0.10139502 -0.043130223 -0.3262004 0.22982083
-0.03588851 -0.2661967 0.22952366 -0.2514444 -0.1801755 -0.118085034 0.16102386 0.033462036
-0.1144927 -0.23444192 -0.36819398 -0.09905651 0.04077305 0.33273244 0.27795073 0.21732482
0.31753546 0.07850696 0.34732416 -0.15369134 -0.2911798 -0.06238571 -0.17082302 -0.2648468
-0.061034482 -0.22705491 0.25407648 0.051117253 0.2562688 0.15159982 -0.22837953 0.37446982
0.26312593 0.1953683 -0.2538629 -0.25069863 0.07672862 0.009526747 -0.10422267 0.20799674
0.016231673 -0.35720235 -0.03772677 -0.037933562 -0.03799622 -0.22179945 -0.15924044 0.36284807
-0.22491732 0.17394549 0.20276181 -0.2471604 0.2249161 -0.01865605 -0.27080673 0.18893872
-0.25163972 -0.12534721 -0.09395711 -0.12400229 0.15697135 0.21877146 -0.20738715 0.2513257
-0.05618085 -0.021307167 -0.3247721 0.06303963 0.033324573 -0.18944873 0.13491717 -0.051898144
-0.31013596 -0.35893652 0.0064644306 -0.23813996 -0.21791008 -0.06729568 -0.010359135 -0.22082667
-0.13017316 0.07401069 0.2828486 -0.2524854 0.074676104 0.08203621 -0.11962804 0.10340627
0.15039244 -0.0028548846 0.19495621 -0.0789303 -0.026762046 -0.23056202 -0.10760583 -0.2858486
0.095606074 -0.28615513 -0.23304205 -0.2553875 0.06593556 -0.129952 0.29491374 0.22904882
0.34407905 -0.13013448 -0.2899358 -0.14252168 0.2618727 -0.02858641 0.109911084 -0.11166788
-0.007020533 -0.21309692 0.21456838 -0.032259364 -0.1539644 -0.22117251 0.41785902 -0.018991886
-0.2779173 0.13070117 -0.2701829 0.14087851 -0.35606188 -0.05589794 -0.21147676 0.36167753
0.28269586 0.09802538 0.08477435 -0.07891062 -0.070553735 0.26589605 -0.3612152 -0.18994871
0.06740928 0.24103013 0.06091748 0.06181444 0.15200698 0.34369138 -0.31418788 0.13814813
-0.13273053 0.07892291 0.053916555 -0.1620554 -0.2259309 0.21384355 0.270906 -0.20686187
0.0663138 -0.17404331 -0.32115987 0.25093043 0.2628439 -0.20510216 0.2223566 -0.039507482

local_trans_pixel.layers.0.1.fn.fn.net.3.bias f4 [32]
00000000: edd5 2d3e f42d 81be 255b 873e 78ff ac3c
00000010: e1c1 4fbe 2e85 e93d 058b c53d 000d abbe
00000020: 2f21 a7bc 5c1d dbbd c14d ff3d be6a c03d
00000030: b5b1 29be 6793 e0bd dd4d b03e b59f 8c3e
00000040: 39f0 823e 79d0 e0bd e80b 7dbe 0088 493e
00000050: f934 86bc 826a 8d3e 9640 383d cd55 413e
00000060: c9a0 29be 1ab2 27be ded3 56bd 10fd 743e
00000070: a8db 103d 5eca 3cbe 83aa 94bd 06f7 b93d
0.16976137 -0.25230372 0.26436725 0.02111791 -0.20288803 0.11402355 0.096456565 -0.33408356
-0.020401565 -0.10698959 0.12466002 0.093953595 -0.16571696 -0.10965615 0.34434405 0.27465597
0.255739 -0.10977263 -0.24711573 0.19680786 -0.016382681 0.27620322 0.04498347 0.18880387
-0.16565241 -0.16376534 -0.052448146 0.2392466 0.03536573 -0.18436572 -0.07259085 0.09080319

local_trans_pixel.layers.1.0.fn.norm.weight f4 [32]
00000000: f2d6 8a3f 521c 883f 4cbe 8c3f 10d3 8e3f
00000010: fca6 8e3f c318 8d3f 3e64 8e3f 70a6 8c3f
00000020: 14bf 8a3f 3c40 8c3f 1061 923f 8473 863f
00000030: 1bfb 883f b70d 8d3f 936a 883f eec9 893f
00000040: ea4c 903f 845d 8e3f be09 8a3f fcab 873f
00000050: a1c2 8a3f dc70 893f a77a 913f c185 8a3f
00000060: c54c 8d3f bddf 913f 42d1 893f 46a4 883f
00000070: 5860 933f 4147 863f 7c8e 8e3f 5a23 8b3f
1.0846846 1.0633643 1.0995574 1.1158161 1.114471 1.1023182 1.1124341 1.0988293
1.0839562 1.0957103 1.1435871 1.0504003 1.0701631 1.101981 1.0657524 1.0764749
1.1273472 1.1122289 1.0784223 1.059936 1.0840646 1.0737567 1.1365556 1.0822068
1.1039053 1.1396405 1.0766985 1.0675132 1.1513777 1.0490495 1.1137233 1.0870163

local_trans_pixel.layers.1.0.fn.norm.bias f4 [32]
00000000: 976a 04bd f6d7 40bd 9747 5e3c 33fa d23c
00000010: 0c06 89bd a6bf e5bc 739d 8a3c d318 a1bc
00000020: b7d0 91bc f9fc 53bc 8d43 ef3d 37a7 b93c
00000030: 193c a8ba d774 883b 758b 86bc dbe9 bc3c
00000040: 29fe 8a3c 1d6c 583c 6595 7e3c 2357 14bd
00000050: 534a c83c 62fb eeba cdb6 cc3c 5603 06bd
00000060: 6876 93ba 41e6 d63c 3c84 fa3b 19ec ce3c
00000070: c30b 22bc 2ee4 943b 6e0c 27bd 9354 1cbb
-0.032328214 -0.047080956 0.013566873 0.02575407 -0.066906065 -0.028045487 0.01692078 -0.019665157
-0.017799718 -0.012938731 0.11682806 0.022662742 -0.0012835293 0.004164319 -0.01642392 0.02306073
0.016966896 0.01320937 0.015538548 -0.036215913 0.024449503 -0.0018232877 0.02498951 -0.032718025
-0.0011250498 0.02623284 0.007645158 0.025259065 -0.0098904995 0.0045438027 -0.04078334 -0.002385412
