src/res/GGCL/guided_contra_cross_transformer/Pavia/10/True/true ss 0.5/_1711790686.pth (torch, 266710 bytes, 37 tensors)

pixel_pos_embedding f4 [1, 170, 32]
0	0x3fa52d64	1.2904477
1	0xbdb2b74e	-0.08726369
2	0x3fabb4db	1.3414568
3	0x3ebbaf54	0.36657202
4	0xbf5181da	-0.8183876
5	0xbf34fca6	-0.7069801
6	0xbf38e6cc	-0.7222717
7	0xbf1c439b	-0.6104066
8	0xbe4cb39c	-0.1999039
9	0x3f77d934	0.968158
10	0x3f9d9e77	1.2313985
11	0x3f8f6f05	1.1205755
12	0x3f217aef	0.63078207
13	0xbea4892c	-0.32135904
14	0xbe750601	-0.23928072
15	0x3eba87d8	0.36431766
16	0xbf465f64	-0.77489305
17	0x3f0e4b22	0.55583394
18	0x3db8ba40	0.09019899
19	0xc000004f	-2.0000188
20	0x3eb6711b	0.35633168
21	0x3d4aab46	0.049479745
22	0x3f1fef15	0.62474185
23	0xbfb0903c	-1.3794017
24	0xbf582e1d	-0.84445363
25	0xbe54d008	-0.20782483
26	0xbf0bb98b	-0.5457999
27	0xbe71ec6d	-0.23625346
28	0x3e93b570	0.28849363
29	0x3ef7d5af	0.48405215
30	0x3fbe64bd	1.4874493
31	0xbe532977	-0.20621286
32	0x3f930666	1.1486328
33	0xbecfb632	-0.40568691
34	0x3ed99bc0	0.4250164
35	0xbf0286f7	-0.5098719
36	0x3f6ea194	0.932153
37	0x3f8a64ed	1.081205
38	0xbeaec097	-0.3413131
39	0x3ea6e0f2	0.32593495
40	0xbf881ff7	-1.0634755
41	0xbee57771	-0.4481769
42	0xbe243a29	-0.16037811
43	0xbf9ca9c2	-1.2239306
44	0xbf9c4d01	-1.2211
45	0x3f8af24f	1.0855197
46	0xbf914ed3	-1.135218
47	0xbf853475	-1.0406634
48	0x3ec664fe	0.38748926
49	0xbf8e12c6	-1.1099479
50	0x3ebbf54a	0.36710578
51	0xbea36f13	-0.3192068
52	0x3f98a2b5	1.1924654
53	0x3f252765	0.64513236
54	0x3de75bae	0.112967834
55	0x3e0fdb98	0.14048612
56	0x3d48e7f4	0.049049333
57	0xbf6051f7	-0.8762507
58	0x3e1e0e71	0.15435196
59	0x3ed33d5c	0.4125775
60	0x3fb23396	1.3921993
61	0x40154705	2.3324597
62	0xbfe79af4	-1.8094163
63	0x3d26d111	0.040726725
64	0x3f7a44bb	0.97761124
65	0x3f17189d	0.5902193
66	0x3f24e37c	0.64409614
67	0x3efa0c26	0.48837394
68	0x3f9fd8ec	1.2488074
69	0x3fd353ad	1.6509911
70	0x3db8cf33	0.09023895
71	0x3f219df6	0.63131654
72	0xbefe03ef	-0.49612376
73	0x3d9bc560	0.07606006
74	0xbfcd23d1	-1.6026555
75	0x3eb9d878	0.36297965
76	0x3f9fe27a	1.249099
77	0x3f98ec9d	1.1947209
78	0x3ea856d3	0.32878742
79	0x3f13858f	0.5762567
80	0x3d63fa92	0.055658884
81	0xbe4be5ed	-0.19911928
82	0x3f29f35b	0.66386956
83	0x3f845c72	1.0340712
84	0xbf12f540	-0.5740547
85	0x3f03bb42	0.5145761
86	0xbfcd03eb	-1.6016821
87	0x3f9a2913	1.2043785
88	0x3eee119d	0.46497813
89	0xbeec9527	-0.46207544
90	0xbf234507	-0.637772
91	0x3f46f1d2	0.7771274
92	0x3fbfd24a	1.498605
93	0x3e39288c	0.18081874
94	0x3fb537c5	1.4157645
95	0xbf986e12	-1.1908591
96	0xbf97ef4a	-1.18699
97	0xbf463663	-0.7742674
98	0x3fc1c983	1.5139621
99	0x3f3308d7	0.69935364
100	0xbea93f90	-0.33056307
101	0xbe594358	-0.21217096
102	0xbf20fd4c	-0.628865
103	0x3fb15c97	1.3856381
104	0x3db37a7a	0.08763595
105	0xbfbf0010	-1.4921894
106	0xbf5d75c8	-0.86507845
107	0x3d72fdb5	0.059323985
108	0x4026944e	2.6028018
109	0x3f2b1fe6	0.6684555
110	0x4013af22	2.3075643
111	0x3e0aadcd	0.13542862
112	0x3f0bedd3	0.54659766
113	0xbf8e3575	-1.1110064
114	0xbeeb89cf	-0.46003577
115	0xbe90e576	-0.28300065
116	0x3f1c39b3	0.6102554
117	0x3e462f0a	0.19353881
118	0xbe366fe5	-0.17816122
119	0xbf1611f4	-0.58621144
120	0xbfd4a600	-1.6613159
121	0xbfa861d4	-1.3154855
122	0x3f0e098c	0.5548332
123	0x3fba7050	1.4565525
124	0x3fc8657d	1.5655972
125	0x3f1bb00d	0.6081551
126	0xbfa4ac3c	-1.2865062
127	0xbf93700a	-1.1518567
128	0xbebad5ee	-0.3649134
129	0x3f353dc5	0.7079738
130	0xbf092e5e	-0.53586376
131	0x3fb677da	1.4255326
132	0x3dcdc064	0.10046461
133	0x3e81f2fa	0.2538069
134	0x3ebf6701	0.37383273
135	0xbf543542	-0.82893765
136	0x3f6a74e9	0.9158464
137	0xbc6251dd	-0.013813463
138	0x3f54739b	0.829889
139	0xbf48103b	-0.78149766
140	0x3f4cc9ee	0.7999562
141	0xbf088c32	-0.5333892
142	0x3dbf7586	0.09348588
143	0x3f0d4c88	0.551949
144	0x3edad2e1	0.42739013
145	0xbcfef098	-0.031120583
146	0x3f14f9de	0.5819377
147	0x3fb3a29a	1.4033997
148	0x3fb2c0d5	1.3965098
149	0xbfc26552	-1.518717
150	0x3f626bfc	0.8844602
151	0x3c8e40e0	0.01736492
152	0x3de7217b	0.11285683
153	0x3e81a1e2	0.2531882
154	0xbfa3797e	-1.2771451
155	0x3fac3959	1.3455001
156	0x3f8017cf	1.0007266
157	0xbf2438aa	-0.6414896
158	0xbf18ccea	-0.59687674
159	0x3e7e865e	0.24855945
160	0x3f23d349	0.6399427
161	0x3f4541d2	0.7705356
162	0x3f6c8302	0.923874
163	0xbd7fd4b9	-0.062458728
164	0xbeb79af6	-0.35860413
165	0x3e7299fb	0.23691551
166	0xbf357dd1	-0.70895106
167	0x401e6815	2.4751027
168	0xbf3f503c	-0.747318
169	0xbf548b2e	-0.8302487
170	0x3fcd233f	1.6026381
171	0xbbccb122	-0.006246702
172	0x3f8c89f9	1.0979606
173	0xbaf0d24f	-0.0018373224
174	0x3fb62ba9	1.4232074
175	0xbd1303fa	-0.035892464
176	0xbeb94b0d	-0.36190072
177	0x3f51f2ec	0.82011294
178	0xbda65757	-0.081221275
179	0xbf1c730c	-0.6111305
180	0x3dbf9d9a	0.09356232
181	0xbf3568ea	-0.7086321
182	0x3f836cb6	1.0267551
183	0xbdde1cdc	-0.10845348
184	0xbfa532f0	-1.290617
185	0x3f2256c3	0.6341364
186	0x3f29a683	0.662697
187	0x3f3a7d3f	0.7284736
188	0xbef8eef6	-0.48619813
189	0x3fa876b0	1.316122
190	0xbf3c1ed2	-0.7348453
191	0xbf220d42	-0.6330148
192	0x3eec4cc5	0.4615232
193	0xbed04b1c	-0.40682304
194	0xbf861e62	-1.0478022
195	0xbdee1202	-0.116245285
196	0xbf945e09	-1.1591197
197	0xbe691c8c	-0.22764796
198	0x3eb605ec	0.35551393
199	0xbf965270	-1.1743908
200	0x3f0fdf5c	0.56200194
201	0x3ea59320	0.3233881
202	0x3e231b9c	0.15928501
203	0xc01587b5	-2.336408
204	0xbe9d2d68	-0.30698705
205	0x3c2da7bf	0.010599076
206	0x3e740ea7	0.23833714
207	0xbec9be2f	-0.3940291
208	0x3e8c6272	0.27418858
209	0xbf68f11c	-0.90992904
210	0xbf4929e8	-0.7857957
211	0xbe4ae05c	-0.19812149
212	0x3f21c771	0.6319495
213	0xbee1816c	-0.44044054
214	0x3c8310a2	0.015999142
215	0x3ed96127	0.42456934
216	0x3e64b56a	0.22334829
217	0x3fedae6f	1.8568858
218	0xbef54126	-0.47901267
219	0x3f2e9a5c	0.68204284
220	0xbf13f889	-0.5780111
221	0xbdcef035	-0.101044096
222	0x3f0ea97d	0.5572737
223	0xbefbc522	-0.49173838
224	0x3f25a18a	0.64699614
225	0xbf493faa	-0.7861277
226	0xbe218b2e	-0.15775749
227	0xbf5d86e3	-0.86533946
228	0xbf49c26e	-0.788123
229	0x3f8b3905	1.0876776
230	0x3e4a01c8	0.19727242
231	0xbf399921	-0.7249928
232	0xbeeee433	-0.46658477
233	0xbd6aa9e0	-0.05729091
234	0xbf07803a	-0.52930033
235	0xbe576cbe	-0.21037576
236	0xbec42f9d	-0.38317576
237	0x3f336acc	0.70084834
238	0xbf1815d6	-0.5940832
239	0x3f1ea217	0.6196608
240	0x3fd01597	1.6256589
241	0xbfb2a243	-1.3955768
242	0xbe03fb62	-0.12888864
243	0x3f2a6cd6	0.6657232
244	0xbf47cf18	-0.78050375
245	0xbf8f8335	-1.1211916
246	0xbf84711d	-1.034702
247	0xbef455fe	-0.47721857
248	0x3fc49de7	1.5360688
249	0x3eaad645	0.333666
250	0x3bf91601	0.0076015
251	0x3fe25ed1	1.7685186
252	0x3db913a0	0.09036946
253	0x3f6e6cde	0.9313487
254	0xbcb5d197	-0.022194667
255	0x3e0ec603	0.13942723

cls_token_pixel f4 [1, 1, 32]
0	0xbf216133	-0.6303894
1	0x3e98e66a	0.29863292
2	0xbf239a5d	-0.63907415
3	0xbed26d41	-0.4109898
4	0xbeb1296d	-0.34601918
5	0xbf8d8e74	-1.1059098
6	0x3f80e9fe	1.0071409
7	0xbe87873a	-0.26470357
8	0xbecabb0d	-0.39595833
9	0xbf9c401c	-1.2207065
10	0xbf6afe64	-0.9179442
11	0xbf7465b1	-0.9546767
12	0x3f6879e1	0.9081097
13	0xbfa26574	-1.2687211
14	0xbf5afdff	-0.8554382
15	0x3f4e9c6f	0.8070745
16	0x3eb9d99c	0.36298835
17	0x3f932656	1.1496074
18	0x3e58378d	0.21114941
19	0x3f346ea9	0.70481354
20	0xbfccb35f	-1.599224
21	0xbf5b9e6d	-0.85788614
22	0xbf2cc1cc	-0.6748321
23	0x3f911530	1.1334591
24	0x3f2c9ad7	0.67423767
25	0x3efe6c4c	0.49692
26	0x3f2c2e67	0.67258304
27	0x3ce1e0e8	0.027573064
28	0xbf9afec7	-1.2109002
29	0x3facf60c	1.3512588
30	0x3fc7b2bd	1.5601422
31	0xbe87805c	-0.26465118

pixel_patch_embedding.weight f4 [32, 30]
0	0xbe36b741	-0.17843343
1	0x3d5ae270	0.053438604
2	0xbd37c7b8	-0.0448682
3	0xbe1c98ce	-0.15292665
4	0xbdec30ae	-0.115327224
5	0x3a2fd700	0.0006707758
6	0xbdbb59b9	-0.091479726
7	0xbdafe243	-0.08588078
8	0xbd7f9a8a	-0.06240324
9	0xbe1999c6	-0.15000066
10	0x3c23d400	0.009999275
11	0x3cecf038	0.028923139
12	0xbde0cab0	-0.109761596
13	0xbe39b64e	-0.1813595
14	0xbccd4e60	-0.025061786
15	0xbdc4da98	-0.09612006
16	0x3e19365a	0.1496214
17	0x3db59c64	0.0886772
18	0x3dd44164	0.10364035
19	0x3da9ed28	0.08297187
20	0x3e323864	0.17404324
21	0xbcacfa48	-0.021115437
22	0x3dd59f0c	0.104307264
23	0x3cdd84a0	0.02704078
24	0xbe0555a3	-0.13020949
25	0x3cb73118	0.022362277
26	0xbadaf680	-0.0016705543
27	0x3e208976	0.15677437
28	0x3e238c2a	0.15971437
29	0xbcbb2a68	-0.02284737
30	0xbcd3e628	-0.025866583
31	0x3e32f0e6	0.17474708
32	0x3bd6fb00	0.0065606833
33	0xbd1fa2a0	-0.03897345
34	0xbda886b9	-0.08228821
35	0x3e1b4de0	0.15166426
36	0x3dc6c9c0	0.097064495
37	0xbd6f01d0	-0.058351338
38	0xbd90d937	-0.070726804
39	0x3dfeec14	0.12447372
40	0x3da780bc	0.08178851
41	0x3e21e6b6	0.15810665
42	0x3e2d4432	0.16920546
43	0xbe0f2dc1	-0.13982297
44	0xbb9bf5a0	-0.0047595054
45	0xbb68cd40	-0.003552273
46	0x3dec2c8c	0.11531934
47	0xbdc2a33f	-0.09503793
48	0x3de705dc	0.112804145
49	0xbe17761a	-0.14791146
50	0x3d7364fc	0.059422478
51	0xbe275c3d	-0.1634378
52	0x3daed8b8	0.085374296
53	0x3dd86a04	0.10567096
54	0xbd08796c	-0.033318922
55	0x3d66024c	0.056154534
56	0xbdd41805	-0.10356144
57	0xbdbd0267	-0.09228974
58	0xbe0167d1	-0.12637259
59	0x3e0acd9e	0.13554999
60	0xbdb27835	-0.08714334
61	0x3cff1c40	0.0311414
62	0xbe1ac1e2	-0.15113023
63	0xbd04b43c	-0.032398447
64	0x3e305b88	0.17222416
65	0xbce7d060	-0.028297603
66	0x3e04db2a	0.1297423
67	0x3e175832	0.14779738
68	0x3e298902	0.1655617
69	0xbdba9def	-0.09112155
70	0x3e0bb02e	0.13641426
71	0x3d30fdb4	0.0432107
72	0x3e12a0b4	0.14319116
73	0xbd9153b0	-0.0709604
74	0xbd4754c8	-0.048664838
75	0x3cb53790	0.02212122
76	0xbd78e658	-0.060766548
77	0xbd8ea0fa	-0.069642976
78	0x3bfaa040	0.007648498
79	0x3d6aa924	0.05729021
80	0xbd87da8b	-0.06633481
81	0xbd3a7050	-0.045517266
82	0xbd0ba300	-0.034090996
83	0x3e33427e	0.17505834
84	0xbd1b6c7c	-0.037945256
85	0x3e2b2114	0.16711837
86	0x3e000a38	0.12503898
87	0x3caa88e0	0.02081722
88	0xbdfea518	-0.12433833
89	0x3e36e340	0.17860126
90	0x3b15bdc0	0.0022848696
91	0xbe108f43	-0.1411715
92	0xbe364a54	-0.17801791
93	0x3dc37f80	0.09545803
94	0xbe18e8c4	-0.14932543
95	0xbddab309	-0.106786795
96	0x3af80d00	0.0018924773
97	0xbc805ae0	-0.015668333
98	0x3d970974	0.0737485
99	0x3d7642f0	0.06012243
100	0xbdb31140	-0.087435246
101	0xbe1e098b	-0.15433328
102	0x3dc83610	0.097759366
103	0x3dd01f74	0.10162249
104	0x3ce82c40	0.028341413
105	0xbd232bc8	-0.039836675
106	0xbc1a4500	-0.009415865
107	0xbca6d310	-0.020364314
108	0xbe2934f4	-0.16524106
109	0x3dd4a61c	0.10383245
110	0xbcd881b8	-0.026429042
111	0x3c1e2230	0.009651706
112	0x3ddf0054	0.108887345
113	0x3c4c5d00	0.012473345
114	0xbe0943a6	-0.13404712
115	0xbde77e90	-0.11303437
116	0xbd9766c4	-0.07392648
117	0xbe09f588	-0.13472569
118	0xbe0257a1	-0.1272874
119	0xbe288542	-0.16457084
120	0x3e0074d6	0.1254457
121	0xbdfc08ae	-0.12306343
122	0xbd0615c0	-0.032735586
123	0xbe27d5af	-0.16390108
124	0x3e079764	0.13241345
125	0xbd1b1ddc	-0.037870273
126	0x3dcc61c0	0.09979582
127	0xbdc773f1	-0.09738911
128	0x3d5851d0	0.052812397
129	0xbd9f0e2c	-0.07766375
130	0xbd88ae3d	-0.06673858
131	0xbdfbdf74	-0.1229848
132	0xbde72e15	-0.11288086
133	0xbd72cb42	-0.059275873
134	0x3dc1b8d0	0.09459078
135	0xbda6a174	-0.081362635
136	0xbe1c85d9	-0.15285434
137	0x3d569134	0.05238457
138	0x3d4c24e8	0.049839884
139	0xbe3750f8	-0.17901981
140	0x3ccfc118	0.025360629
141	0xbd110ddc	-0.035413608
142	0x3d924a0c	0.071430296
143	0xbda392b1	-0.079869635
144	0xbc045c80	-0.008078694
145	0xbdf2d636	-0.11857264
146	0x3e02427c	0.12720674
147	0xbd497a2c	-0.049188778
148	0x3d26ec1c	0.040752515
149	0xbd14474c	-0.036200806
150	0xbdf90c29	-0.121605225
151	0x3d2dfab4	0.042475417
152	0x3d727100	0.059189796
153	0x3dfe7714	0.12425056
154	0x3dd37154	0.1032435
155	0x3d47b964	0.048760787
156	0x3e37fb12	0.1796687
157	0xbe1d79b4	-0.15378457
158	0xbe12feb4	-0.14354974
159	0x3e038e98	0.12847364
160	0x3e288272	0.16456011
161	0xbca1ae88	-0.019736543
162	0x3dccd3b0	0.10001314
163	0x3d9611fc	0.07327649
164	0xbde97c0a	-0.11400612
165	0xbe32f2da	-0.17475453
166	0xbd9dbc5b	-0.077019416
167	0x3cc94c30	0.024572462
168	0xbcfc1310	-0.030770808
169	0xbd70b012	-0.058761664
170	0xbe0d5770	-0.13802886
171	0xbd5b63a8	-0.053561836
172	0x3e310746	0.17287931
173	0x3e0ae0ce	0.13562319
174	0x3e21dc32	0.15806654
175	0x3d518620	0.051153302
176	0xbd3ac950	-0.045602143
177	0xbce061d8	-0.027390406
178	0x3dd175a8	0.10227519
179	0xbdecaca8	-0.11556369
180	0xbd64144c	-0.05568342
181	0x3c534ad0	0.012896255
182	0xbd7f94be	-0.06239771
183	0xbccd1128	-0.025032595
184	0x3e08aa16	0.13346133
185	0xbaddc900	-0.0016920865
186	0x3e393d18	0.18089712
187	0x3cb75470	0.02237913
188	0xbdc84858	-0.097794235
189	0x3dbb3448	0.09140831
190	0xbc957780	-0.018245459
191	0xbd295720	-0.041342854
192	0x3e1b897c	0.15189165
193	0x3e0f039c	0.1396622
194	0xbe37acb1	-0.1793697
195	0x3ce3ba38	0.027798757
196	0x3dbf6874	0.09346095
197	0x3c564740	0.013078511
198	0xbda33955	-0.079699196
199	0x3de76cf0	0.11300075
200	0xbdc6fa6a	-0.097157314
201	0xbc83d6d8	-0.016093656
202	0x3e36a850	0.17837644
203	0xbe267b95	-0.1625808
204	0x3cc86b88	0.024465337
205	0xbe070874	-0.13186818
206	0xbdf9c8bc	-0.1219649
207	0xbcefd478	-0.029276118
208	0xbe35e6e9	-0.17763866
209	0xbe340d60	-0.17583227
210	0x3de10bd0	0.10988581
211	0x3bfb5ea0	0.0076711923
212	0xbd0f5d8c	-0.035001323
213	0x3cf0c4b0	0.029390663
214	0xbe39b7dd	-0.18136545
215	0x3df3c820	0.11903405
216	0xbe2f8bdf	-0.171432
217	0x3d67eb8c	0.05662112
218	0xbd87407f	-0.066040985
219	0x3d43da80	0.0478158
220	0x3d384db4	0.04499598
221	0xbe089d10	-0.13341165
222	0xbd779b5c	-0.060450897
223	0xbc39d570	-0.011342391
224	0x3e176546	0.14784727
225	0xbe3962c3	-0.18104081
226	0xbe3570e4	-0.17718846
227	0x3ce94110	0.028473407
228	0x3da117c4	0.07865861
229	0xbb49b240	-0.0030776411
230	0xbe2cee04	-0.16887671
231	0xbd269dbc	-0.04067777
232	0xbe23207a	-0.15930358
233	0x3e2aa71e	0.16665313
234	0xbd51c6a0	-0.051214814
235	0xbd4c1f5c	-0.049834594
236	0x3e289f28	0.16466963
237	0x3d29f22c	0.04149072
238	0x3dfc87c8	0.12330586
239	0x3d9be878	0.07612699
240	0x3e175754	0.14779407
241	0xbe1aafa8	-0.1510607
242	0x3d9f5934	0.07780686
243	0x3d5e8840	0.054329157
244	0xbe2802aa	-0.16407266
245	0x3d002a1c	0.03129016
246	0xbe2f4893	-0.17117529
247	0x3e00d422	0.12580922
248	0x3b4cef80	0.0031270683
249	0x3e3a3e2e	0.18187782
250	0x3e0840a0	0.13305902
251	0x3e0cb8a8	0.13742316
252	0x3d7c80e0	0.061646342
253	0xbd2e1bc0	-0.042506933
254	0x3d55d454	0.052204445
255	0x3cf8d3a0	0.030374348

pixel_patch_embedding.bias f4 [32]
0	0x3d336be0	0.04380405
1	0xbe00f008	-0.12591565
2	0x3da6e144	0.08148435
3	0xbe291e59	-0.16515483
4	0x3d9d8e34	0.07693139
5	0xbdb47210	-0.08810818
6	0x3dc42af4	0.09578505
7	0xbe06f22f	-0.13178323
8	0x3b9f2460	0.004856631
9	0xbb138740	-0.0022511035
10	0x3d35af10	0.044356406
11	0x3e2cc09e	0.16870353
12	0xbe0d0686	-0.1377202
13	0xbe229b85	-0.15879638
14	0x3dd4691c	0.103716105
15	0x3e055eb0	0.13024402
16	0xbe27f915	-0.16403611
17	0x3cfd6940	0.030933976
18	0x3da731fc	0.08163831
19	0xbddc70a4	-0.10763672
20	0x3e177eb4	0.14794427
21	0x3caf4f60	0.021400154
22	0x3de6633c	0.11249396
23	0xbde922dd	-0.11383603
24	0x3d9ffad0	0.078115106
25	0x3c9065a8	0.017626598
26	0xbd0a4ca8	-0.03376451
27	0x3e38238a	0.17982307
28	0x3dd68cd0	0.104760766
29	0xbd981635	-0.07426111
30	0x3e16daf0	0.14731956
31	0x3e0ccbf8	0.13749683

local_trans_pixel.layers.0.0.fn.norm.weight f4 [32]
0	0x3f90600c	1.1279311
1	0x3f8e9488	1.1139078
2	0x3f8c3511	1.0953695
3	0x3f8cd773	1.100325
4	0x3f8ce05b	1.1005968
5	0x3f8dc4c9	1.1075679
6	0x3f8d3ba3	1.1033825
7	0x3f8d7623	1.1051677
8	0x3f911da9	1.1337177
9	0x3f8cb459	1.0992538
10	0x3f8ddf09	1.108369
11	0x3f8b81fd	1.0899044
12	0x3f8c0f6d	1.0942208
13	0x3f9114b2	1.1334441
14	0x3f8dd612	1.1080954
15	0x3f887779	1.066146
16	0x3f86d9a0	1.0535164
17	0x3f8c8929	1.0979358
18	0x3f8f73be	1.1207197
19	0x3f936a6c	1.1516852
20	0x3f8b4efc	1.0883479
21	0x3f8c2535	1.0948855
22	0x3f87b508	1.0602121
23	0x3f9211d7	1.1411694
24	0x3f930950	1.1487217
25	0x3f92a9b6	1.1458042
26	0x3f8ff1ec	1.1245704
27	0x3f8e0114	1.1094079
28	0x3f89cbeb	1.0765356
29	0x3f8dc7a0	1.1076546
30	0x3f91437d	1.1348721
31	0x3f8a4891	1.0803396

local_trans_pixel.layers.0.0.fn.norm.bias f4 [32]
0	0xb9edd054	-0.0004535938
1	0x3d58641f	0.052829858
2	0x3d78362c	0.060598537
3	0x3ba4b63d	0.0050266073
4	0xbcc0fe25	-0.023558686
5	0xbd16ab05	-0.03678419
6	0x3c27c193	0.010239023
7	0xbd9ebb32	-0.077505484
8	0xbd293cc9	-0.041317735
9	0xbc3c3528	-0.011487283
10	0x3cfb229f	0.030656157
11	0x3d9f5241	0.077793606
12	0x3da0224e	0.07819043
13	0xbdaba35b	-0.08380767
14	0xbc2d4381	-0.010575176
15	0x3dbf6b4e	0.093466386
16	0xbd611316	-0.054949842
17	0x3d929dd9	0.07159013
18	0x3d24345d	0.040089
19	0xbd3c0496	-0.04590281
20	0xbdb6472a	-0.08900292
21	0xbe1ecf54	-0.15508777
22	0x3c40539a	0.011738682
23	0xbda91641	-0.08256198
24	0xbabdfef5	-0.0014495539
25	0x3d8525dd	0.065013625
26	0xbca7c7a4	-0.020480938
27	0xbda22e62	-0.07919003
28	0xbd5d7e99	-0.05407581
29	0x3dbf2b21	0.09334398
30	0x3d6cdf41	0.0578301
31	0xbd0fdee8	-0.03512469

local_trans_pixel.layers.0.0.fn.fn.to_qkv.weight f4 [768, 32]
0	0x3df85f63	0.121275686
1	0x3e06ec29	0.13176025
2	0x3dbc9398	0.09207839
3	0xbd95ad69	-0.07308466
4	0xbe756ebb	-0.23968022
5	0x388870a9	6.50597e-05
6	0xbe382c7b	-0.17985718
7	0xbe5a75a0	-0.21333933
8	0xbd9b9f9e	-0.07598804
9	0x3dd366c9	0.10322339
10	0x3d090202	0.03344918
11	0x3d5c9891	0.053856436
12	0x3d7c43f7	0.061588254
13	0x3db87e6d	0.09008489
14	0xbcb35dfe	-0.021895405
15	0xbdab89bd	-0.08375881
16	0x3d9b8207	0.0759316
17	0x3e19ba43	0.1501246
18	0x3df2a44b	0.11847743
19	0x3c0f356e	0.008740766
20	0xbd00c68d	-0.031439353
21	0xbd0a3ace	-0.033747487
22	0x3e15ce0e	0.14629385
23	0xbe3d6c4a	-0.1849834
24	0x3c958afe	0.018254753
25	0xbe5d7dd0	-0.21630025
26	0xbdb25c79	-0.08709044
27	0x3c9487be	0.018131133
28	0x3c8dfab0	0.017331451
29	0xbe0c72d0	-0.13715672
30	0x3db4ae34	0.08822289
31	0xbe127cea	-0.14305463
32	0x3cd4437d	0.025911087
33	0x3bc05039	0.0058689383
34	0x3df203e6	0.1181715
35	0xbe715935	-0.23569186
36	0x3d26c142	0.04071165
37	0x3d868c37	0.065697126
38	0x3e03b818	0.12863195
39	0x3c655f05	0.013999705
40	0x3e6a91f6	0.22907242
41	0x3e09b64f	0.13448451
42	0xbe4cff22	-0.200192
43	0x3dcaa571	0.09894837
44	0xbe0b2fc3	-0.13592438
45	0x3c9f8af1	0.019475432
46	0xbda5633a	-0.080755666
47	0xbe48cdec	-0.19609803
48	0x3de2e2d7	0.110784225
49	0xbe339077	-0.17535578
50	0x3df48a95	0.11940495
51	0x3e01d897	0.12680279
52	0x3ddddeef	0.10833537
53	0xbd8e08e3	-0.06935289
54	0x3a9eb1c4	0.0012107422
55	0x3ddf84fd	0.109140374
56	0xbba84172	-0.005134755
57	0xbcb9ace0	-0.022665441
58	0x3e260f46	0.16216764
59	0x3d87f298	0.06638068
60	0xbd4bf64d	-0.049795438
61	0x3e1b70db	0.1517977
62	0x3e1dc15e	0.15405795
63	0xbc8f8372	-0.017518733
64	0xbe1c06da	-0.15236989
65	0xbd05338f	-0.032519873
66	0x3e408da5	0.18804033
67	0x3d305da4	0.043058053
68	0x3d9378cc	0.072007746
69	0x3e3335c4	0.17500979
70	0x3d5daad0	0.054117978
71	0xbd936e90	-0.071988225
72	0xbe27cd37	-0.16386877
73	0xbc7b0307	-0.015320546
74	0x3ddf74ba	0.10910936
75	0x3e0d77ba	0.13815203
76	0x3d4300f1	0.04760832
77	0x3dc0368c	0.09385404
78	0xbd502eda	-0.05082593
79	0x3da13be1	0.07872749
80	0xbdb3a013	-0.08770766
81	0x3c33945f	0.010960667
82	0xbcf73767	-0.030177785
83	0x3e27ab85	0.16374023
84	0x3e22991c	0.15878719
85	0x3da9e618	0.0829584
86	0x3d10617d	0.035249222
87	0x3bef41c0	0.007301539
88	0x3e45031d	0.19239469
89	0x3e181521	0.1485181
90	0xbe25548d	-0.16145535
91	0xbe0100c1	-0.12597944
92	0x3c6c84df	0.014435976
93	0xbd1ef123	-0.038804185
94	0xbd08cc24	-0.03339781
95	0x3e02e9e7	0.12784539
96	0xbd6402e0	-0.055666804
97	0x3d19f833	0.037590217
98	0x3ccb0ba2	0.02478582
99	0x3d9ebf0b	0.07751282
100	0x3dded91f	0.10881256
101	0x3d8d98b3	0.06913891
102	0xbe6d1074	-0.23150808
103	0x3e8770df	0.264533
104	0xbd184ee9	-0.03718463
105	0xbd5ed574	-0.054402784
106	0x3d7f3f28	0.06231609
107	0xbd810ec6	-0.06301646
108	0x3e1882d5	0.14893658
109	0x3de50959	0.111834235
110	0xbdc8a533	-0.09797134
111	0x3e3a4cb7	0.18193327
112	0xbe44f7cd	-0.19235153
113	0xbe38ea45	-0.18058117
114	0x3e10616c	0.14099663
115	0xbe4029c9	-0.1876594
116	0x3d1bf6eb	0.038077276
117	0xbdcd6c14	-0.1003038
118	0x3ebe6ec3	0.3719388
119	0xbdbdabf4	-0.09261313
120	0xbdd17e02	-0.10229112
121	0x3c5596c6	0.0130364355
122	0x3e6f184d	0.23349114
123	0xbd9ac6a4	-0.07557419
124	0x3c046d8d	0.00808276
125	0xbdf3272e	-0.11872707
126	0x3d34c50d	0.044133235
127	0x3bdadb50	0.006678976
128	0x3d47bc99	0.048763845
129	0x3e3e197d	0.1856441
130	0xbdeaf535	-0.11472551
131	0xbdf8bfb8	-0.121459424
132	0x3cd0224d	0.02540698
133	0xbcd3a56e	-0.025835719
134	0x3db7c8b3	0.08973827
135	0xbe543531	-0.20723416
136	0x3dfc0684	0.1230593
137	0xbe4c8449	-0.19972338
138	0xbdb16e75	-0.08663646
139	0xbe738193	-0.23779897
140	0xbd9f7dc2	-0.07787658
141	0xbd6cb465	-0.057789225
142	0x3dcab958	0.09898633
143	0x3ca010d2	0.01953927
144	0xbbebbd31	-0.007194184
145	0xbbd08e20	-0.006364599
146	0x3d44e91b	0.04807387
147	0x3d792fd0	0.060836613
148	0x3dbf4c98	0.09340781
149	0xbe02c6db	-0.1277117
150	0xbeb5358b	-0.35392413
151	0xbe1b9c57	-0.15196358
152	0x3e1ddd15	0.15416367
153	0xbdb2956d	-0.08719907
154	0xbcba409b	-0.022735884
155	0xbc8b1aff	-0.016980646
156	0xbd7218c0	-0.059105635
157	0xbd6d4559	-0.057927463
158	0x3d9c098e	0.0761901
159	0x3e0d5184	0.13800627
160	0x3dbdc3ea	0.09265883
161	0xbc2e00e9	-0.010620334
162	0x3e1d97f1	0.15389992
163	0x3d59e313	0.05319507
164	0xbacc3eb6	-0.0015582654
165	0xbdcb89b5	-0.09938375
166	0x3c3b479b	0.011430646
167	0xbda8b395	-0.082373776
168	0x3dd41132	0.10354842
169	0xbd75bb05	-0.05999281
170	0xbd51e6b5	-0.05124541
171	0xbaa5d01c	-0.0012650522
172	0x3e126ec6	0.14300069
173	0xbc09237b	-0.008370276
174	0x3e220150	0.15820813
175	0xbb8f6b83	-0.00437683
176	0x3de33b6f	0.110953204
177	0x3d7067dc	0.058692798
178	0xbe535b51	-0.20640303
179	0xbdeae9d4	-0.114703804
180	0x3dbccea4	0.09219101
181	0xbca483c0	-0.020082355
182	0x3e3d666a	0.18496099
183	0x3cbc53f1	0.022989245
184	0x3e43b433	0.1911171
185	0xbd5b6174	-0.053559735
186	0x3e042ced	0.12907763
187	0xbe158b0b	-0.14603822
188	0x3dc71c56	0.097222015
189	0xbdbcf8d6	-0.09227149
190	0xbd37e7f9	-0.04489896
191	0x3e04a8d7	0.12955032
192	0xbd457c2f	-0.048214134
193	0xbe16cb08	-0.14725888
194	0xbd2cb97b	-0.042169075
195	0xbc277002	-0.010219576
196	0xbdee3c0e	-0.11632548
197	0xbd5d35d0	-0.054006398
198	0xbe123f91	-0.14282061
199	0xbdabae41	-0.08382846
200	0xbe1bf571	-0.15230347
201	0x3e14ba74	0.14524251
202	0x3ca35b8a	0.01994111
203	0x3db29aff	0.087209694
204	0xbda2a97a	-0.07942481
205	0xbc2e4f73	-0.010639059
206	0x3d61e78b	0.055152457
207	0xbddd7258	-0.10812825
208	0xbcddf618	-0.027094886
209	0xbe052343	-0.13001733
210	0x3c1a4b17	0.009417317
211	0x3e444d2a	0.19170061
212	0x3dd6d247	0.10489326
213	0xbd98e802	-0.07466127
214	0xbd8dc6c2	-0.06922676
215	0x3d50b664	0.05095519
216	0x3e8d6cfd	0.27622214
217	0xbe6ff7ff	-0.23434447
218	0xbcd361cf	-0.025803475
219	0xbe3a74a4	-0.18208557
220	0x3dd6c9b6	0.10487692
221	0x3e207179	0.15668286
222	0xbd27e00f	-0.040985163
223	0x3d4313c3	0.047626268
224	0x3d11905a	0.035538055
225	0x3e07198e	0.13193342
226	0xbd83d1dd	-0.064365126
227	0x3b9eac70	0.0048423335
228	0x3e487b10	0.19578195
229	0x3d34fd2f	0.044186767
230	0x3ae42ed3	0.0017408974
231	0xbded89e6	-0.11598568
232	0x3e151b26	0.14561138
233	0x3bb64faa	0.005563696
234	0xbd17505d	-0.036941875
235	0xbe285469	-0.1643845
236	0xbe101b5b	-0.14072935
237	0x3df3fcb3	0.11913433
238	0x3d81c1c4	0.06335786
239	0xbcd959e4	-0.026532121
240	0xbde9409f	-0.113892786
241	0xbdc9cfdd	-0.098541
242	0x3d18b31c	0.037280187
243	0xbdfb6218	-0.12274569
244	0xbdcb67a4	-0.09931877
245	0x3de71212	0.112827435
246	0xbe47190e	-0.19443151
247	0xbe05f6db	-0.13082449
248	0xbec56855	-0.38556162
249	0xbc899688	-0.016795412
250	0xbda301e4	-0.07959345
251	0x3d5d6e48	0.05406025
252	0xbd32ccad	-0.043652225
253	0x3d99a453	0.075020455
254	0x3e152f8e	0.14568922
255	0xbe0927f4	-0.13394147

local_trans_pixel.layers.0.0.fn.fn.to_out.0.weight f4 [32, 256]
0	0xbd705df6	-0.058683358
1	0x3d3ef3d0	0.046619236
2	0x3dc268b9	0.094926305
3	0x3b22971d	0.0024809309
4	0x3c95239f	0.018205462
5	0xbcc6df82	-0.024276499
6	0x3d39d49d	0.04536878
7	0x3d167ce5	0.036740202
8	0xbdc8537d	-0.09781549
9	0x3c2b41b2	0.010452675
10	0x3da8c1ca	0.08240087
11	0xbcbddfd0	-0.023178011
12	0xbd75de95	-0.060026724
13	0xbd1a4869	-0.037666712
14	0x3da5f2e3	0.081029676
15	0x3bc11a8f	0.0058930586
16	0x3c86cd6d	0.016455377
17	0xbcae34cd	-0.021265412
18	0x3cd9ee30	0.026602834
19	0x3d53b526	0.05168643
20	0x3c8200e2	0.015869562
21	0x3c28b794	0.010297675
22	0xbd856bf8	-0.06514734
23	0xbd6a79c4	-0.05724503
24	0xbc6ae802	-0.014337542
25	0x3d62e2f8	0.055392236
26	0xbe002512	-0.12514141
27	0x3c720423	0.014771494
28	0xbd05bf00	-0.032652855
29	0x3c723ad0	0.01478453
30	0x3d2f790f	0.04284006
31	0xbc216975	-0.009851803
32	0xbd179e65	-0.03701629
33	0xbc3b8df4	-0.0114474185
34	0x3db88b89	0.09010989
35	0xbce655a1	-0.028117003
36	0x3d71e53c	0.059056506
37	0x3b89a6a9	0.0042007756
38	0x3cd645b6	0.026156288
39	0xbd9c869f	-0.076428644
40	0xbdb89204	-0.09012225
41	0xbcc1b361	-0.023645105
42	0x3d082f53	0.033248257
43	0xbcbb407c	-0.022857897
44	0x3d4c7ac0	0.04992175
45	0x3c924130	0.01785335
46	0xbb152d87	-0.0022762732
47	0xbca82606	-0.020525943
48	0xbc67d39f	-0.0141495755
49	0x3cb8901a	0.02252965
50	0x3d20ca60	0.0392555
51	0x3d409628	0.0470182
52	0xbd6434ef	-0.055714544
53	0x3ca96a0b	0.020680448
54	0x3c824297	0.015900893
55	0x3d8017ea	0.06254561
56	0x3b1d83a2	0.0024034758
57	0xbbce5c66	-0.006297636
58	0x3d6d7333	0.05797119
59	0x3d7a4698	0.06110248
60	0xbca2918e	-0.019844797
61	0x3cf82966	0.030293178
62	0x3d0f3a9b	0.034968
63	0xbe0bbf45	-0.13647182
64	0xbcc3cf83	-0.02390266
65	0xbd2ebe22	-0.042661794
66	0x3d66db2d	0.056361366
67	0x3d3b6cf6	0.04575821
68	0x3c05804b	0.008148263
69	0x3d8c4303	0.06848719
70	0x3c3a03d4	0.011353452
71	0x3cb0c222	0.021576945
72	0x3ca1a40f	0.01973155
73	0x3c6eb3d7	0.014569244
74	0xbc5efebe	-0.01361054
75	0x3d86cc7b	0.0658197
76	0xbd134311	-0.03595263
77	0xbd0cc8e6	-0.03437128
78	0xbd957de3	-0.072994016
79	0xbc6a0068	-0.014282323
80	0x3d31a0a2	0.043366082
81	0x3cfedc93	0.031111037
82	0x3d73f290	0.059557498
83	0x3c80d5a5	0.015726874
84	0xbdce8aa3	-0.100850366
85	0x3d1be5c6	0.038060926
86	0xbb6bc2f7	-0.0035974362
87	0xbd983670	-0.07432258
88	0xbcaa7e22	-0.020812098
89	0xbd940d80	-0.072291374
90	0xbb6e7555	-0.0036385853
91	0x3d3dc2d7	0.046328392
92	0xbcffdd36	-0.031233411
93	0xbd5b45b8	-0.053533286
94	0x3a895b65	0.0010479508
95	0xbd875078	-0.06607145
96	0xbd05c6b3	-0.032660197
97	0xbc188a5a	-0.009310329
98	0xbd3dc99f	-0.04633486
99	0x3cac4bad	0.021032179
100	0xbda4d283	-0.080479644
101	0xbc2c50fc	-0.010517355
102	0xbda30525	-0.079599656
103	0x3d56ddf3	0.05245776
104	0x3d6a4be3	0.057201277
105	0xbd210211	-0.03930861
106	0x3c996d15	0.018728772
107	0xbd2d3957	-0.04229101
108	0x3cfcb4ac	0.03084787
109	0xbd9fa77b	-0.07795616
110	0x3d16f4f4	0.0368547
111	0xbcac88f1	-0.021061393
112	0x3c107bb5	0.008818557
113	0x3bdede59	0.0068014082
114	0x3d007ab7	0.03136703
115	0x3ce35b1a	0.027753402
116	0x3cada8f5	0.021198729
117	0xbd17c462	-0.03705252
118	0x3d23eb83	0.040019523
119	0x3cc6960d	0.024241472
120	0x3c78f363	0.015194747
121	0xbd2b952f	-0.04189032
122	0xbb2773ca	-0.0025551193
123	0xbd852816	-0.065017864
124	0xbb79e4c3	-0.0038130737
125	0x3d5edcf6	0.054409944
126	0xbd89bd0b	-0.0672551
127	0x3dc4b31b	0.09604474
128	0xbdc46121	-0.09588838
129	0xbc6944ef	-0.014237626
130	0xbd2119d0	-0.039331257
131	0x3d40e836	0.047096454
132	0xbc671fba	-0.014106685
133	0x3936dd4b	0.0001743931
134	0x3df147ce	0.11781274
135	0x3c5f61d3	0.013634163
136	0xbdd50328	-0.10400993
137	0x3d07121e	0.032976262
138	0x3d82d1ec	0.06387696
139	0xbd144aeb	-0.03620426
140	0x3c23f53e	0.010007201
141	0xbc764af4	-0.015032519
142	0xbbdca2af	-0.0067332606
143	0xbc83ab37	-0.016072853
144	0x3a7631e0	0.0009391587
145	0x3c8e3a35	0.01736174
146	0xbda02069	-0.07818682
147	0xbdb41b73	-0.08794298
148	0x3da37a55	0.07982317
149	0x3cfb2b07	0.030660165
150	0xbc4b13a5	-0.01239482
151	0x3da00907	0.07814222
152	0xbd22f031	-0.039779846
153	0xbd2c8c5a	-0.042126037
154	0xbd144358	-0.036197037
155	0x3d121dcb	0.035672944
156	0xbd0cfd5f	-0.03442132
157	0x3c5d05ff	0.013490199
158	0x3d55ef91	0.05223042
159	0x3d22592e	0.03963583
160	0x3db5b857	0.08873051
161	0xbdcdee37	-0.100552015
162	0xbc3ce1c1	-0.011528433
163	0xbb92854d	-0.004471457
164	0xbd464f07	-0.04841521
165	0xbd7da0f5	-0.06192108
166	0xbd671296	-0.05641421
167	0xbc8f5829	-0.017498093
168	0x3db8a812	0.09016432
169	0xbbebbf65	-0.007194447
170	0x3c01c8d5	0.007921417
171	0x3bd6dd5a	0.006557149
172	0x3c83aa0d	0.016072297
173	0x3c53ef34	0.012935448
174	0xbd2b1fbb	-0.041778307
175	0xbcbc1288	-0.022958055
176	0xbc9ad9d3	-0.018902695
177	0xbad8f24f	-0.0016551706
178	0x3d75b9a7	0.059991505
179	0xbd03aa74	-0.03214498
180	0xbc595c1a	-0.013266588
181	0x3d0a64db	0.03378759
182	0xbdb38695	-0.08765904
183	0x3cafba20	0.021451056
184	0x3d513244	0.051073328
185	0x3d156d53	0.036481213
186	0xbb3e2bed	-0.002901788
187	0xbd6ced9a	-0.057843782
188	0xbd085bd9	-0.033290718
189	0x3c78c984	0.015184764
190	0xbd323849	-0.04351071
191	0xbdafe6bf	-0.08588933
192	0xbba8fdfb	-0.00515723
193	0xbd388a76	-0.04505392
194	0xbd5173f4	-0.051135972
195	0xbd93d82f	-0.07218968
196	0xbd381b26	-0.044947766
197	0x3d56690e	0.05234628
198	0x3d461f7a	0.048369862
199	0x3d224cc4	0.03962399
200	0x3c91ea2e	0.01781186
201	0xbcbc1afb	-0.022962084
202	0xbb5801fe	-0.0032960172
203	0x3de2cc79	0.11074156
204	0x3d26b16f	0.040696558
205	0xba52c79b	-0.0008040608
206	0xbcc8ce13	-0.024512326
207	0xbd53a71a	-0.051673032
208	0x3c2528be	0.0100805145
209	0x3d38eea7	0.04514947
210	0x3c5350eb	0.01289771
211	0xbc8345f6	-0.01602457
212	0x3cf57f68	0.029967979
213	0x3d6a04c5	0.057133455
214	0x3d82919b	0.06375428
215	0xbd8759dc	-0.06608936
216	0xbbbca1f7	-0.0057566124
217	0xbba762eb	-0.0051082275
218	0x3d0be745	0.034156103
219	0xbd39c2cf	-0.0453518
220	0xbcea65fb	-0.028613081
221	0xbca411e9	-0.020028071
222	0x3cb4734f	0.02202764
223	0xbde007f8	-0.1093902
224	0xbaa28b48	-0.0012401128
225	0xbce75c45	-0.02824224
226	0x3dc82903	0.09773447
227	0xbca87e8e	-0.020568158
228	0x3cc83ab5	0.024442056
229	0xbcdfe091	-0.027328761
230	0xbd944c4c	-0.07241115
231	0x3da3d754	0.08000055
232	0x3d3dadf0	0.046308458
233	0x3db163ff	0.08661651
234	0xbd6d6105	-0.057953853
235	0x3d96d312	0.07364477
236	0xbc952944	-0.018208154
237	0xbd3ff314	-0.046862677
238	0x3d15204a	0.036407746
239	0xbdbe4453	-0.092903756
240	0xbd0b1b0b	-0.033961337
241	0xbccbe359	-0.024888681
242	0xbcb5519d	-0.022133643
243	0xbc88b313	-0.016686952
244	0x3cb2e5c0	0.021838069
245	0x3cba68d9	0.022755073
246	0xbdb11d30	-0.08648145
247	0xbc4a80df	-0.012359827
248	0x3d8dbb3b	0.06920477
249	0xbd7c2a71	-0.061563913
250	0xbd23f25a	-0.040026046
251	0xbc428f66	-0.011875009
252	0x3cbc12a5	0.02295811
253	0xbdf6fc68	-0.120598614
254	0xbcf7f668	-0.030268863
255	0x3d9a7232	0.07541312

local_trans_pixel.layers.0.0.fn.fn.to_out.0.bias f4 [32]
0	0xbcb08b93	-0.02155093
1	0x3cb9571f	0.02262455
2	0xbdaff721	-0.08592058
3	0xbc8436ec	-0.01613947
4	0x3cebf009	0.028800981
5	0x3d56d52a	0.052449383
6	0x3c986991	0.018605025
7	0xbc86611d	-0.01640373
8	0xbb42affe	-0.002970695
9	0x3d540d6d	0.051770616
10	0x3cdf3eeb	0.027251681
11	0x3db8a7b7	0.09016364
12	0xbd6f4e8d	-0.05842452
13	0xbc15757b	-0.009122248
14	0xbb44bc0c	-0.0030019311
15	0x3c6691c6	0.014072841
16	0x3db2b27c	0.087254494
17	0xbd5c52fa	-0.05379007
18	0xbc9b9553	-0.018992102
19	0xbc1fba11	-0.0097489515
20	0x3db4a994	0.08821407
21	0x3d763b23	0.06011499
22	0xbd717a19	-0.058954332
23	0x39586f3c	0.00020640803
24	0x3d131de0	0.035917163
25	0xbdc07fb8	-0.093993604
26	0x3d5d9643	0.05409838
27	0x3d5f38e0	0.0544976
28	0x3d835c91	0.0641414
29	0xbd84cd56	-0.06484477
30	0xbde9c0e4	-0.11413744
31	0x3cf772d3	0.03020612

local_trans_pixel.layers.0.1.fn.norm.weight f4 [32]
0	0x3f821c4f	1.0164889
1	0x3f7fac9c	0.99872756
2	0x3f7d1f82	0.988762
3	0x3f9621c0	1.172905
4	0x3f79075f	0.9727687
5	0x3f88e912	1.0696127
6	0x3f8f79e0	1.1209068
7	0x3f86ce47	1.0531701
8	0x3f960974	1.1721635
9	0x3f8a24a5	1.0792433
10	0x3f893c8d	1.0721604
11	0x3f95110f	1.1645831
12	0x3f7da5a9	0.990809
13	0x3f8f5ad2	1.1199591
14	0x3f83b0a4	1.0288281
15	0x3f820ba3	1.0159801
16	0x3f7f0abe	0.99625766
17	0x3f7db5e3	0.9910566
18	0x3f9098a9	1.1296588
19	0x3f83c49e	1.0294378
20	0x3f88a92c	1.0676627
21	0x3f858fcf	1.0434512
22	0x3f84a7e3	1.0363735
23	0x3f6ef7f1	0.9334708
24	0x3f82aa7e	1.020828
25	0x3f8e17ae	1.1100976
26	0x3f8dd5cc	1.1080871
27	0x3f890c6a	1.0706913
28	0x3f8a7dc4	1.0819631
29	0x3f85d097	1.0454282
30	0x3f858faa	1.0434468
31	0x3f8cfcf0	1.101469

local_trans_pixel.layers.0.1.fn.norm.bias f4 [32]
0	0x3c4c5dea	0.012473563
1	0x3d54b4b7	0.051930156
2	0xbd6421b6	-0.05569621
3	0x3c58ff28	0.013244428
4	0xbceea4f4	-0.02913139
5	0xbcd9910d	-0.026558423
6	0x3af3add4	0.0018591234
7	0x3c14dd44	0.009085957
8	0xbd1a025f	-0.037599918
9	0x3aa17573	0.0012318328
10	0xbd5ecab2	-0.054392524
11	0x3d20a4a0	0.0392195
12	0xbc442a58	-0.011972986
13	0x3b7d7327	0.0038673372
14	0xbd6272bc	-0.0552852
15	0xbcfaa731	-0.030597301
16	0x3d764ecd	0.060133744
17	0xbd18d1c7	-0.037309434
18	0x3d1b3a2c	0.037897274
19	0x3d1af703	0.037833225
20	0x3d3e474e	0.04645472
21	0xbc9d5213	-0.019204175
22	0x3ceb106c	0.028694354
23	0x3d516581	0.051122192
24	0x3c69d952	0.014273005
25	0x3c00a7b1	0.007852481
26	0xbcc35343	-0.023843413
27	0xbc2d0c94	-0.010562081
28	0x3ad34e49	0.0016121353
29	0xbd542bea	-0.051799692
30	0xbc239b0c	-0.0099856965
31	0xbd013f09	-0.031554256

local_trans_pixel.layers.0.1.fn.fn.net.0.weight f4 [8, 32]
0	0x3df4210e	0.11920367
1	0xbd49e978	-0.04929492
2	0xbdbdf4a3	-0.092751764
3	0xbe0be245	-0.13660534
4	0x3df53a47	0.11974006
5	0xbe03a8bf	-0.1285734
6	0xbd8862c5	-0.06659464
7	0x3dc0f8c2	0.09422447
8	0x3cd8b9ac	0.026455723
9	0xbe52583a	-0.20541468
10	0x3ca4a17c	0.020096533
11	0x3e796ee5	0.24358709
12	0x3cfbe37c	0.030748121
13	0xbcfd1856	-0.030895393
14	0x3d755506	0.059895538
15	0xbc88e221	-0.01670939
16	0x3dae55ff	0.08512496
17	0x3e1550ca	0.145816
18	0x3dd2d130	0.102938056
19	0x3aaaf433	0.0013042748
20	0xbcac5975	-0.02103875
21	0xbc8f5fe4	-0.017501779
22	0xbdac6597	-0.08417814
23	0x3d472962	0.04862345
24	0xbdb2b365	-0.08725623
25	0xbc4ea107	-0.012611634
26	0x3e291272	0.16510943
27	0x3df81090	0.12112534
28	0xbe30b80d	-0.1725771
29	0x3d85ac44	0.06526998
30	0x3de77669	0.11301882
31	0xbe3006cc	-0.17190093
32	0x3cfb9a67	0.030713273
33	0x3d3018e4	0.042992488
34	0xbdcd275c	-0.10017273
35	0x3e382ee5	0.17986639
36	0xbe05aa51	-0.13053252
37	0xbe028182	-0.12744716
38	0x3e50c6c3	0.20388322
39	0x3dd0a73a	0.10188146
40	0xbe15b10a	-0.14618316
41	0xbe221a1c	-0.15830272
42	0xbe9d80a5	-0.3076221
43	0x3e60a445	0.21937664
44	0xbdfc935c	-0.12332794
45	0x3c392b68	0.011301853
46	0xbdff8afe	-0.124776825
47	0xbd138919	-0.03601942
48	0x3d526d8d	0.051374007
49	0xbe064f55	-0.131162
50	0xbe254a7f	-0.16141699
51	0x3d971e4a	0.07378824
52	0xbe1fbf9a	-0.15600434
53	0x3dc1dad6	0.09465568
54	0x3e5e9d87	0.2173978
55	0x3dace57c	0.08442208
56	0x3dcbad6a	0.099451855
57	0xbdfdade5	-0.123866834
58	0xbd3e1019	-0.04640207
59	0x3cb69c9d	0.022291476
60	0xbc4e8810	-0.012605682
61	0xbdebac8a	-0.115075186
62	0xbca3aabd	-0.019978875
63	0xbe77b786	-0.24191102
64	0xbc53576f	-0.012899264
65	0xbd272043	-0.04080225
66	0x3e067af7	0.13132845
67	0x3e017b46	0.12644681
68	0x3c9a8fc9	0.01886739
69	0x3ddf7e5d	0.10912774
70	0xbe064ca9	-0.13115181
71	0x3e0bfc8c	0.13670558
72	0xbe0d9b55	-0.13828786
73	0xbe4a5820	-0.1976018
74	0xbce90baa	-0.028447945
75	0xbc4f4ead	-0.012653035
76	0x3cbdeeb7	0.023185117
77	0xbe2679f1	-0.16257454
78	0xbda2041b	-0.07910939
79	0x3e18519c	0.14874882
80	0x3e2e3d7f	0.17015646
81	0x3c8c8bdb	0.017156532
82	0x3e12e77d	0.14346118
83	0xbe4821df	-0.19544171
84	0x3e02ec56	0.12785468
85	0xbd8bf37a	-0.06833549
86	0x3e17a5d6	0.14809355
87	0x3ddf4b1c	0.10902998
88	0x3db15ff9	0.086608835
89	0x3d9ee38a	0.077582434
90	0xbc7c8f06	-0.015414959
91	0x3e0c4866	0.13699493
92	0x3e0eb43a	0.13935938
93	0x3dd301fd	0.103031136
94	0x3dcf30f1	0.10116757
95	0x3d12fc64	0.03588523
96	0xbd133083	-0.035934936
97	0xbdddbc44	-0.108269244
98	0x3de8f9b3	0.11375751
99	0xbd61bd2c	-0.05511205
100	0x3dfbe98f	0.12300407
101	0x3da0e5a7	0.07856303
102	0x3da478c6	0.08030848
103	0x3d007e0c	0.031370208
104	0xbced5915	-0.028973142
105	0xbde5f701	-0.11228753
106	0xbc8d5288	-0.017251268
107	0xbe047a0a	-0.12937179
108	0x3ddbd5b8	0.10734123
109	0xbe054f4c	-0.1301853
110	0x3e164364	0.14674145
111	0x3e41161f	0.18856095
112	0xbe0e1a88	-0.13877308
113	0x3d676b4b	0.056498807
114	0x3cc53be2	0.024076406
115	0xbd95bdaf	-0.0731157
116	0xbe3df7f1	-0.18551613
117	0x3dfd9bae	0.12383209
118	0x3e12da92	0.1434119
119	0xbd03f4c7	-0.03221586
120	0xbd2fd9e8	-0.04293242
121	0xbe6df239	-0.23236932
122	0x3e64bb26	0.22337016
123	0x3e743d51	0.23851515
124	0xbde8357c	-0.11338326
125	0x3e5df06e	0.21673748
126	0x3e198a16	0.14994082
127	0x3e3ed5da	0.18636265
128	0x3da87647	0.082256846
129	0xbda497a0	-0.08036733
130	0x3e2708c5	0.16311939
131	0xbd43bd17	-0.047787752
132	0xbd20c618	-0.039251417
133	0x3d3eee41	0.046613935
134	0xbe25983d	-0.16171356
135	0x3dba0ae5	0.09084109
136	0x3db4575f	0.08805727
137	0x3c68446d	0.01417647
138	0xbdc1f0a1	-0.094697244
139	0xbc88d648	-0.01670374
140	0xbd310222	-0.043214925
141	0x3e339c99	0.17540206
142	0xbdc6351a	-0.09678097
143	0xbe45ce57	-0.19316994
144	0x3d8b0460	0.06787944
145	0xbd0d7501	-0.03453541
146	0xbe22796f	-0.15866636
147	0x3e0a76e6	0.13521919
148	0x3e7421f3	0.23841076
149	0xbe5bcc9f	-0.21464776
150	0xbda13b6b	-0.07872661
151	0x3d44b663	0.0480255
152	0x3d01d31f	0.03169548
153	0x3d36c450	0.044620812
154	0x3a844155	0.0010090271
155	0xbd0533f0	-0.032520235
156	0x3e2a0340	0.16602802
157	0xbdf96131	-0.12176741
158	0x3d24dd0c	0.04024987
159	0x3d9d9b8e	0.07695685
160	0xbe0fbdcd	-0.14037247
161	0x3d840532	0.064463034
162	0xbcef7ba5	-0.029233763
163	0x3db17439	0.08664746
164	0xbbeb1de1	-0.0071751927
165	0xbd9522d1	-0.07282031
166	0xbe1abf4d	-0.15112038
167	0xbe333263	-0.1749969
168	0x3e2b4b8f	0.16728042
169	0x3e30f6ab	0.17281596
170	0xbbd332f7	-0.0064452845
171	0xbbf0563a	-0.0073344978
172	0x3d7c00b9	0.061524127
173	0x3e78daa2	0.24302152
174	0xbd9b2ae9	-0.07576544
175	0x3e1de823	0.15420584
176	0x3c80768a	0.015681524
177	0xbdcbb6b0	-0.09946954
178	0xbdff9601	-0.12479783
179	0xbdc5e2b6	-0.09662382
180	0x3df8743e	0.121315464
181	0xbdb7b946	-0.08970885
182	0x3d265ee8	0.040617853
183	0x3e06b5ca	0.13155285
184	0x3e0da230	0.13831401
185	0x3c3ce121	0.011528284
186	0xbdd656f3	-0.10465803
187	0x3db56306	0.08856778
188	0x3d7aa909	0.06119636
189	0x3d9a1ab7	0.07524627
190	0x3e456172	0.19275454
191	0xbdaf8068	-0.085694134
192	0x3d9e1360	0.07718539
193	0x3dee8fbd	0.1164851
194	0x3ddb8b70	0.10719955
195	0xbe20f27a	-0.15717497
196	0x3d980761	0.074232824
197	0x3c8b1c34	0.016981222
198	0x3d9269f3	0.071491145
199	0xbca894d8	-0.020578787
200	0xbe7c96c5	-0.24666889
201	0x3e447281	0.19184305
202	0xbd0944ba	-0.03351281
203	0x3e9dd39d	0.3082551
204	0x3e0d7595	0.13814385
205	0xbe387c2f	-0.18016122
206	0xbd3db61b	-0.046316247
207	0xbe050d92	-0.12993458
208	0x3e23a242	0.15979865
209	0x3ca3b61b	0.019984296
210	0x3e2d752f	0.16939233
211	0x3d5c86f4	0.05383964
212	0x3e7102bb	0.23536198
213	0xbe23f660	-0.16011953
214	0x3cee2549	0.029070513
215	0x3cb317e4	0.021861978
216	0xbdd61728	-0.104536355
217	0xbe06646f	-0.1312425
218	0x3e9f24b6	0.31082696
219	0xbd10aa0e	-0.035318427
220	0xbe0fdeb0	-0.14049792
221	0xbe11cd4f	-0.14238475
222	0xbdb66763	-0.08906438
223	0x3e1c9c6d	0.15294047
224	0x3e41e2d4	0.18934184
225	0xbdf65ee9	-0.120298214
226	0xbcbc959e	-0.023020562
227	0x3d9d6ba0	0.076865435
228	0x3e1e9beb	0.15489165
229	0xbd1208b5	-0.035652835
230	0xbd48869e	-0.048956506
231	0x3e1a662c	0.15078038
232	0x3e6d9f7b	0.23205368
233	0xbe3907c0	-0.18069363
234	0x3e1f0ef4	0.15533048
235	0x3d3f79a8	0.04674688
236	0x3d5c8896	0.053841196
237	0x3de8b6a7	0.11362963
238	0x3dae3723	0.0850661
239	0x3e35139b	0.1768326
240	0xbba36a4a	-0.004987036
241	0x3dbf95ed	0.09354768
242	0xbdcaa286	-0.0989428
243	0xbb91f45e	-0.0044541797
244	0xbe066557	-0.13124596
245	0xbe3affe2	-0.18261674
246	0x3d63833c	0.055545077
247	0xbd019748	-0.031638414
248	0xbe1eca75	-0.15506919
249	0x3e205733	0.15658264
250	0xbc2574c1	-0.010098637
251	0xb9e445f9	-0.00043539683
252	0xbc9f5631	-0.019450279
253	0x3e03d0b0	0.12872577
254	0x3c3402d0	0.010986999
255	0x3a80089f	0.0009768194

local_trans_pixel.layers.0.1.fn.fn.net.0.bias f4 [8]
0	0x3e13152e	0.14363548
1	0x3e464bfc	0.19364923
2	0x3cad8c83	0.021185165
3	0x3cb1f181	0.021721603
4	0xbdb04dbd	-0.086085774
5	0xbd88cf15	-0.06680123
6	0x3e106d48	0.14104187
7	0x3d83c10e	0.06433307

local_trans_pixel.layers.0.1.fn.fn.net.3.weight f4 [32, 8]
0	0xbeb48af3	-0.3526226
1	0x3d8aac46	0.0677114
2	0xbe9689bc	-0.29401958
3	0x3e1fffb1	0.15624882
4	0x3ea08a1b	0.31355366
5	0x3e29bc4e	0.16575739
6	0x3c6bda56	0.014395317
7	0x3e915668	0.28386235
8	0xbe3aa853	-0.18228273
9	0xbe8b9d99	-0.27268675
10	0xbdcd6eda	-0.10030909
11	0x3dc1e82b	0.09468111
12	0xbe8a079c	-0.2695893
13	0xbea69ff7	-0.32543918
14	0xbdf5030d	-0.119634725
15	0x3ccfa797	0.025348468
16	0x3e988c77	0.29794666
17	0x3e8e4626	0.27787894
18	0x3e8f6265	0.28004757
19	0xbe3830e5	-0.17987402
20	0xbe96cc33	-0.29452667
21	0xbe0b617a	-0.13611403
22	0xbd175f35	-0.03695603
23	0xbdf7d914	-0.12101951
24	0xbeb0dc45	-0.34543052
25	0x3dff2549	0.124582835
26	0xbe2b5e0b	-0.16735093
27	0xbe5ff64b	-0.21871297
28	0xbea4bd04	-0.32175457
29	0xbe06b2ee	-0.13154194
30	0x3e7961b3	0.24353676
31	0xbd1e3f12	-0.038634367
32	0xbe962ebc	-0.2933253
33	0xbe81b4b8	-0.2533319
34	0x3dd959bf	0.10612821
35	0x3d2a00cd	0.04150467
36	0x3e9d8ef7	0.30773136
37	0xbce7a4b9	-0.028276788
38	0x3eb00ac1	0.34383205
39	0x3ea44d0e	0.32090038
40	0xbe9bbe0e	-0.30418438
41	0xbeceb695	-0.40373674
42	0xbe8c3445	-0.27383628
43	0xbdb67253	-0.08908524
44	0x3d7b3066	0.061325453
45	0x3e880d3f	0.26572606
46	0xbdaab672	-0.0833558
47	0x3ea379c0	0.31928825
48	0xbd992596	-0.07477872
49	0xbe8494f8	-0.25894904
50	0x3d821652	0.063519135
51	0x3ecf398d	0.40473595
52	0xbdc010c6	-0.09378199
53	0xbe5cb791	-0.215544
54	0xbedf29ff	-0.43586728
55	0x3d795165	0.06086864
56	0x3e8e8eb8	0.2784326
57	0x3ebdfd44	0.3710729
58	0xbd9b1462	-0.07572247
59	0xbed087f0	-0.40728712
60	0x3e3794eb	0.17927901
61	0xbe3e6803	-0.18594365
62	0x3e1ab046	0.15106305
63	0x3ea3700f	0.3192143
64	0x3e9b98ac	0.30389917
65	0xbeb2b39d	-0.3490266
66	0xbd8c0f49	-0.06838853
67	0x3e1637ad	0.14669676
68	0x3dd15cf3	0.10222807
69	0xbe8c0ef3	-0.27355155
70	0xbeeead99	-0.4661682
71	0x3e0edb3e	0.13950822
72	0x3e7793d4	0.24177486
73	0x3ea712ac	0.32631433
74	0xbe8899ac	-0.26679742
75	0x3d4ffeb7	0.050780024
76	0xbdd7d656	-0.10538928
77	0x3e78db11	0.24302317
78	0x3ea1c865	0.315982
79	0xbdffd22a	-0.124912575
80	0x3ea8734a	0.3290046
81	0xbe855c3d	-0.26046935
82	0x3d0835de	0.033254497
83	0x3d8b443b	0.06800123
84	0x3dc29b27	0.09502249
85	0xbd6b9148	-0.057511598
86	0x3eff1139	0.49817827
87	0x3e874af0	0.2642436
88	0x3dd2dfa8	0.10296565
89	0x3e038eed	0.1284749
90	0x3e82619a	0.2546509
91	0xbdc08bd2	-0.094016686
92	0xbe5b60dd	-0.21423669
93	0xbc470587	-0.012147314
94	0x3e80f453	0.25186405
95	0xbe55b240	-0.20868778
96	0xbdc69a38	-0.09697384
97	0xbd916f07	-0.07101255
98	0xbe88ad1a	-0.26694566
99	0xbe994d00	-0.2994156
100	0xbe742617	-0.23842655
101	0x3e0b1168	0.13580859
102	0x3e431e52	0.19054535
103	0xbe3fb123	-0.18719916
104	0x3e8c8cef	0.27451274
105	0x3e21b243	0.15790658
106	0x3ea84cdf	0.32871148
107	0xbe856c8b	-0.26059374
108	0x3e3981d4	0.18115932
109	0xbec7cf34	-0.3902527
110	0xbda36c88	-0.07979685
111	0xbe8828ae	-0.26593536
112	0x3dda643f	0.10663652
113	0x3e70b083	0.23504834
114	0x3eb4902f	0.35266253
115	0x3eae50b0	0.34045935
116	0x3e364ab4	0.17801934
117	0x3e3d78d4	0.18503124
118	0xbb12c344	-0.002239422
119	0xbe5a7ed7	-0.21337448
120	0xbe2a9a6b	-0.16660468
121	0x3dbd5798	0.09245223
122	0x3ca6eadf	0.020375667
123	0xbe3885ed	-0.18019839
124	0xbd851e01	-0.064998634
125	0x3e54cd01	0.20781328
126	0x3eaa5cc0	0.33273888
127	0xbe32af36	-0.1744965
128	0xbe82d7fa	-0.25555402
129	0xbd234329	-0.03985897
130	0x3eb9482e	0.3618788
131	0xbeb5bb10	-0.3549428
132	0x3e4d97b9	0.20077409
133	0xba8c182c	-0.0010688356
134	0xbdaf5119	-0.0856039
135	0xbea04932	-0.31305844
136	0xbb474acd	-0.0030409575
137	0x3e7fe928	0.24991286
138	0xbcf524c0	-0.02992475
139	0xbeb47c5d	-0.35251132
140	0xbe8e82a5	-0.2783405
141	0xbe134f2f	-0.14385675
142	0x3dac9bfe	0.08428191
143	0x3ea03856	0.3129298
144	0x3e6fe66e	0.23427746
145	0xbe21b45d	-0.1579146
146	0x3ea05a3a	0.31318837
147	0x3ea1181f	0.31463715
148	0xbdca29ca	-0.09871252
149	0xbe560eb2	-0.20904043
150	0x3e338d19	0.17534293
151	0x3e40d3ba	0.18830767
152	0xbe884fba	-0.26623327
153	0xbe8e57b5	-0.2780129
154	0x3eac24d5	0.3362185
155	0x3e170e3c	0.14751524
156	0xbda1781a	-0.07884236
157	0x3e9da87a	0.307926
158	0x3dcafd21	0.09911562
159	0x3e4f26c6	0.20229635
160	0x3ce2bd82	0.027678255
161	0xbe406e30	-0.18792033
162	0xbe9a2b77	-0.30111286
163	0xbe4191d7	-0.1890329
164	0xbe74dd0a	-0.23912445
165	0xbe729e30	-0.23693156
166	0xbea7724b	-0.32704386
167	0xbdb6f9a6	-0.089343354
168	0x3ea463f4	0.32107508
169	0x3ed5f8dd	0.4179143
170	0x3d802244	0.06256536
171	0xbe6624ba	-0.22474948
172	0x3e9e461f	0.30912873
173	0xbea33120	-0.31873417
174	0xbec3c895	-0.3823897
175	0x3d8fcd0b	0.07021531
176	0x3ddb0b95	0.106955685
177	0x3eadfcca	0.33981925
178	0xbce98bfa	-0.028509129
179	0xbdb37dd3	-0.087642334
180	0x3e11e2cb	0.14246671
181	0xbe16203c	-0.14660734
182	0xbe4cb892	-0.19992283
183	0x3e154eab	0.1458079
184	0xbbfa62e8	-0.007641185
185	0xbe85aed6	-0.26109952
186	0x3c8c0397	0.017091556
187	0xbe881b54	-0.2658335
188	0x3de9f7a2	0.11424185
189	0x3e91c235	0.2846848
190	0x3e0c5de7	0.13707696
191	0x3e48bcd5	0.19603284
192	0xbb0dbea3	-0.002162852
193	0x3bc1d5a5	0.005915361
194	0x3e823d76	0.25437516
195	0x3c4c9d70	0.012488708
196	0x3d68e8ce	0.056862645
197	0xbd88ac54	-0.06673494
198	0xbe8cae24	-0.2747661
199	0x3dc7ee0d	0.097622015
200	0x3ec31b8d	0.38106957
201	0xbea026c7	-0.31279585
202	0xbe96cdec	-0.2945398
203	0xbc82f194	-0.015984334
204	0x3e93e809	0.28887966
205	0xbe349cba	-0.17637911
206	0xbbf1dd87	-0.0073811444
207	0x3e66d5fb	0.22542565
208	0x3e989abf	0.29805562
209	0x3edb228f	0.42799804
210	0x3e4ed728	0.20199263
211	0xbe848d4e	-0.25889057
212	0xbe8135d9	-0.25236395
213	0x3dd13661	0.1021545
214	0x3e2c9b94	0.16856223
215	0xbe20627e	-0.15662572
216	0x3e904919	0.2818077
217	0x3ea3e594	0.32011092
218	0x3e614eda	0.22002736
219	0x3e81b37b	0.25332245
220	0xbd8a70ae	-0.06759773
221	0xbe287f23	-0.16454749
222	0xbe8184cd	-0.2529663
223	0x3e7d3241	0.24726202
224	0x3e015689	0.12630667
225	0x3e1bd3a5	0.15217455
226	0x3de9dd66	0.114191815
227	0xbe982184	-0.2971307
228	0xbeca283a	-0.39483815
229	0x3e7ed681	0.24886514
230	0x3d5773af	0.05260056
231	0x3e988187	0.29786322
232	0x3d9ae894	0.07563892
233	0xbddbdb30	-0.10735166
234	0xbe3a82cc	-0.18213958
235	0x3e1da251	0.1539395
236	0x3c8bca9d	0.017064387
237	0x3dab09e5	0.083514966
238	0x3d90a218	0.07062167
239	0x3dd27edf	0.10278105
240	0xbeacd955	-0.3375956
241	0x3de61ffe	0.11236571
242	0xbdf19826	-0.11796598
243	0xbd9d2482	-0.07672979
244	0x3e83a0ce	0.25708622
245	0xbe986654	-0.2976557
246	0x3e3b6ea3	0.18303923
247	0x3eba8b0f	0.36434218
248	0xbe5fbdcb	-0.21849744
249	0x3d0544df	0.032536384
250	0xbe848874	-0.25885355
251	0xbe9d2d83	-0.30698785
252	0xbe3cf376	-0.18452248
253	0x3d6004f8	0.05469224
254	0xbe93a906	-0.28839892
255	0xbe69c873	-0.22830372

local_trans_pixel.layers.0.1.fn.fn.net.3.bias f4 [32]
0	0xbda22600	-0.07917404
1	0x3e7e8c0f	0.24858116
2	0xbd34acad	-0.04410999
3	0x3eb2c7c1	0.34918025
4	0xbeae1162	-0.33997637
5	0xbe95619d	-0.29176036
6	0x3ea3ab5f	0.31966683
7	0x3d9d3933	0.076769255
8	0xbdda0184	-0.1064482
9	0x3d929b20	0.07158494
10	0xbe83d706	-0.25749987
11	0x3e2a3053	0.16619997
12	0xbe742bb9	-0.23844804
13	0xbe513a63	-0.20432429
14	0x3dfb4187	0.12268358
15	0x3ca89e81	0.020583393
16	0xbe808749	-0.25103214
17	0xbdd17bcc	-0.102286905
18	0xbd133cc6	-0.03594663
19	0x3dc21594	0.09476772
20	0x3d86de0b	0.0658532
21	0x3ddeeb69	0.10884745
22	0xbe6704b4	-0.22560388
23	0xbe974a36	-0.29548806
24	0xbe27bce2	-0.16380647
25	0xbebba70c	-0.36650884
26	0x3e194715	0.14968522
27	0x3d7def8e	0.061996035
28	0x3e4c2906	0.19937524
29	0xbea783b4	-0.3271767
30	0x3e33eb55	0.17570241
31	0x3e9bae50	0.30406427
