src/res/GGCL/guided_contra_cross_transformer/Pavia/10/True/ss0.9/_1711794082.pth (torch, 266710 bytes, 37 tensors)

pixel_pos_embedding f4 [1, 170, 32]
0	0xbe2e5310	-0.17023873
1	0xbf998da7	-1.1996354
2	0x3d3cec3a	0.04612372
3	0xbe6facbc	-0.23405737
4	0x3eda4f57	0.42638656
5	0x3e94425b	0.28956875
6	0xbf9a932b	-1.2076162
7	0x3ed1424b	0.4087089
8	0xbeddcd6e	-0.43320793
9	0xbf8fed62	-1.1244318
10	0x3f76c382	0.9639207
11	0xc0083a48	-2.1285572
12	0xbf8e59e0	-1.1121178
13	0xbf8677cb	-1.0505308
14	0x3f9e587c	1.2370753
15	0x3f706f19	0.9391952
16	0xbfcbbf03	-1.5917667
17	0x3d5721bf	0.052522417
18	0xbe0b2123	-0.1358686
19	0xbf3b465a	-0.7315422
20	0xbe93834f	-0.28811118
21	0x3cf5fa3a	0.030026544
22	0x3f2d9a81	0.6781388
23	0x3f2ea3b8	0.68218565
24	0xbdd3fb80	-0.10350704
25	0x3f2b3557	0.66878265
26	0xbddc9981	-0.10771466
27	0x3ea072ee	0.31337684
28	0xbd981a0a	-0.074268416
29	0xbf33847e	-0.7012404
30	0x3f3ed80c	0.7454841
31	0x3fb1a40b	1.3878187
32	0x3e894a89	0.26814678
33	0xbd5c648e	-0.053806834
34	0x3f373d25	0.71577674
35	0x3ed7744d	0.42080918
36	0xbf359923	-0.70936793
37	0xbe396d80	-0.18108177
38	0x3ea9a88b	0.331364
39	0xbf2ae306	-0.6675266
40	0xbf735e74	-0.95066
41	0xbe932a61	-0.2874327
42	0x3e8e7e3b	0.2783068
43	0xbfbead3c	-1.4896617
44	0x3db65389	0.08902652
45	0xbfffb4a7	-1.9977006
46	0xbfab82e6	-1.3399322
47	0xbdec943c	-0.11551711
48	0x3e698bc5	0.22807224
49	0x3f08a749	0.53380257
50	0xbed22081	-0.41040424
51	0xbf92d09b	-1.1469911
52	0x3f50d014	0.815675
53	0x3f6e171a	0.93004
54	0x3f0abaa4	0.5419104
55	0xbe08b373	-0.13349704
56	0x3eec7d33	0.4618927
57	0xbf9c7dab	-1.2225851
58	0xbf12e299	-0.5737701
59	0x4023dc11	2.5603068
60	0x3f17224a	0.59036696
61	0x3e9f6c7a	0.3113745
62	0x3f91c438	1.1388006
63	0xbece65d1	-0.40312055
64	0xbf02baf4	-0.5106652
65	0x3f0d57b1	0.5521193
66	0xbed9c4ae	-0.42532867
67	0x4012b113	2.2920578
68	0xbdcdf397	-0.10056227
69	0x3e8dfe60	0.27733135
70	0x3e9b9e43	0.30394182
71	0xc01a15a3	-2.4075706
72	0x3ffb8922	1.9651225
73	0xbf46d240	-0.77664566
74	0x3ff90ba3	1.9456676
75	0xbf9629dc	-1.1731524
76	0xbff0165c	-1.8756824
77	0xbeda8793	-0.4268156
78	0x3f0428c2	0.5162469
79	0xbf759e2d	-0.9594448
80	0x3ce14c3e	0.027502175
81	0x3fcd7f4c	1.6054473
82	0x3ee62b42	0.44954878
83	0xbef7bfc1	-0.48388484
84	0x3ea1c969	0.31598976
85	0x3ea2cfa2	0.31799036
86	0x3e02a848	0.12759507
87	0x3f8f03f3	1.117308
88	0x3f9cb3de	1.2242391
89	0x3f85b0ce	1.0444582
90	0x3ff64c4b	1.9242033
91	0xbe6d45bc	-0.23171133
92	0x3f75a5c3	0.9595606
93	0xbf95b321	-1.1695291
94	0x3ecf6a22	0.4051066
95	0xbe49aa61	-0.196939
96	0xbf97cef5	-1.1860033
97	0xbf0ee05e	-0.5581111
98	0x3f111d42	0.5668527
99	0x3f6b1fa2	0.9184514
100	0xbf161d25	-0.5863822
101	0xbf366d56	-0.71260583
102	0xbf7ae54c	-0.9800613
103	0x3ea1c245	0.31593528
104	0xbeb2615f	-0.34839913
105	0xbdd50c29	-0.1040271
106	0x3f307d4a	0.68941176
107	0xbf9fb8c1	-1.2478257
108	0x3f40c076	0.7529367
109	0xbf0d256a	-0.55135214
110	0x3eb57a13	0.35444698
111	0x3fcd8600	1.6056519
112	0xbf8bcca2	-1.0921824
113	0xbeffcb61	-0.49959853
114	0x3ea95e1b	0.3307961
115	0xbef92cd4	-0.48667014
116	0xbd7e3926	-0.06206622
117	0x3e00e065	0.125856
118	0x3eb7df1d	0.3591241
119	0x3c78a537	0.015176109
120	0x3f81d41d	1.0142857
121	0x3f4ddca4	0.80414796
122	0xbfb841ac	-1.4395041
123	0xbf2a118d	-0.6643303
124	0xbf2d1253	-0.67606086
125	0xbfce9785	-1.613999
126	0x3fa877e4	1.3161588
127	0xbeb53a06	-0.3539583
128	0x3fdbfe96	1.7187068
129	0xbda04a48	-0.07826668
130	0x3f980779	1.187728
131	0x3f427db9	0.7597309
132	0xbfd60ec7	-1.672326
133	0x3f69c60f	0.9131784
134	0x3abf450f	0.0014592725
135	0x3dd37e05	0.10326771
136	0xbf5edea9	-0.870585
137	0x3f6015a8	0.87533045
138	0x3efe6b88	0.49691415
139	0x3ce3b483	0.027796036
140	0xbfb0785e	-1.3786733
141	0x3f6cb543	0.92464083
142	0xbefce4f8	-0.4939344
143	0x3eb00856	0.3438136
144	0xbe92f447	-0.28701994
145	0x3f05962b	0.52182263
146	0x3fbdaac5	1.481774
147	0x3e584d16	0.21123156
148	0xc01686e3	-2.3519828
149	0x3f0f7c10	0.5604868
150	0x3e43b7d5	0.19113095
151	0x3f4f8d39	0.81074864
152	0x3e80b4e9	0.25138023
153	0xbdcb59de	-0.0992925
154	0x3f59397c	0.8485334
155	0xbfa32fc0	-1.2748947
156	0x3dff080e	0.12452708
157	0x3f78e82a	0.97229254
158	0x4027560b	2.6146266
159	0xc0064e5f	-2.0985334
160	0xbf3b3aa3	-0.7313635
161	0x3f5d645e	0.86481273
162	0x401942b6	2.3946967
163	0x3faf36d9	1.3688613
164	0x3f96b9b7	1.1775426
165	0xbf15f77d	-0.5858076
166	0xbf037d8c	-0.51363444
167	0xbf8d3a0a	-1.1033337
168	0xbebf4361	-0.37356094
169	0xbf9b21dc	-1.2119708
170	0x3f3f70b6	0.7478136
171	0x3f397a7f	0.7245254
172	0xbf88903a	-1.0669014
173	0xbcc6d125	-0.02426965
174	0xbf1d58c1	-0.6146355
175	0xbf40f05b	-0.75366753
176	0xbf6458ea	-0.8919817
177	0xbf87cf33	-1.0610107
178	0x3f1f0165	0.621115
179	0x3e383505	0.17988975
180	0x3f347667	0.7049317
181	0xbdbb8564	-0.091563016
182	0x3e0d4a1f	0.13797806
183	0xbe1fe227	-0.15613614
184	0x3ece1763	0.40252218
185	0xbcf8cb36	-0.030370336
186	0x3fa091ae	1.2544458
187	0x3e9eb8af	0.31000277
188	0x3fc078dc	1.5036883
189	0x3d37faf4	0.044917062
190	0x3f9ae0e8	1.2099886
191	0xbd88ed0f	-0.0668584
192	0xba37f958	-0.0007018051
193	0xbc0ba336	-0.008522799
194	0x3f41700c	0.75561595
195	0x3fb9dedf	1.452114
196	0x3e076c46	0.13224897
197	0x3f8bd673	1.092482
198	0xbf86280a	-1.0480969
199	0x3f90ba15	1.1306788
200	0x3ae50d88	0.0017475346
201	0xbfd4f8d2	-1.6638434
202	0xbeb0cf24	-0.34533036
203	0xbdf0bfe8	-0.11755353
204	0x3fc94d20	1.5726662
205	0x3ef46db7	0.47739956
206	0xbe379ed6	-0.17931685
207	0xbf0a7ac0	-0.5409355
208	0x3fffebec	1.9993873
209	0xbf060a69	-0.52359635
210	0x3d9e81ae	0.07739578
211	0x3ea19493	0.31558666
212	0xbf8a9225	-1.082585
213	0x3f243df6	0.64157045
214	0x3f833d5a	1.0253098
215	0x3f97be18	1.1854887
216	0x3e82107c	0.25403202
217	0x3f6f783b	0.9354283
218	0xbedb194a	-0.42792732
219	0x3f0c44ca	0.54792464
220	0x3dc923f2	0.09821309
221	0xc0122415	-2.2834523
222	0xbf98689b	-1.1906923
223	0x3d961e2a	0.07329972
224	0xbe32cf31	-0.1746185
225	0x3ff648a6	1.924092
226	0xbf252098	-0.6450286
227	0x3f03a4d5	0.5142339
228	0x3e228efb	0.15874855
229	0xbf2dde17	-0.6791701
230	0xbfa3684d	-1.2766205
231	0x3e853733	0.26018676
232	0x3f0bae67	0.5456299
233	0x3ea6050e	0.3242573
234	0xc00a0a88	-2.1568928
235	0xbe966deb	-0.29380736
236	0xbf139948	-0.57655764
237	0xbe05f79f	-0.13082741
238	0xbdf4c75c	-0.11952087
239	0x3f53d581	0.82747656
240	0x3f2d2e70	0.67648983
241	0xbf44cb37	-0.7687258
242	0xbe89dff6	-0.2692868
243	0x3f111956	0.56679285
244	0xc047159f	-3.1106946
245	0xbe3fa1c4	-0.18714052
246	0xbf96558d	-1.1744858
247	0xbf70dbfd	-0.94085675
248	0xbef7012c	-0.48243082
249	0xbe904e53	-0.28184757
250	0xbfc3a497	-1.5284604
251	0x3fa4aec1	1.2865831
252	0x3f427588	0.7596059
253	0x3e979136	0.29602975
254	0xbe80b9d2	-0.2514177
255	0x3d4d5d52	0.050137825

cls_token_pixel f4 [1, 1, 32]
0	0xbd30533a	-0.04304812
1	0x3f55df68	0.83544016
2	0xbe95ffd3	-0.2929674
3	0x3e0c8277	0.13721643
4	0x3e470d47	0.19438659
5	0xbe6d7ffd	-0.23193355
6	0x3f493e70	0.786109
7	0xbf3223b7	-0.69585747
8	0xbe9a880b	-0.30181918
9	0xbf877207	-1.0581673
10	0xbf93d96b	-1.1550726
11	0x3f880514	1.062655
12	0x3fa028c4	1.2512441
13	0xbf6bef85	-0.9216235
14	0x3fc23f0d	1.5175492
15	0xbf1a5c21	-0.6029683
16	0x3f4d8093	0.80274314
17	0xbf4ba7f5	-0.7955316
18	0x3f9d042e	1.22669
19	0xbf79e538	-0.97615385
20	0x3ea4ce07	0.32188436
21	0x3f60a062	0.87744725
22	0xbf4df2b3	-0.80448455
23	0xbe2d1821	-0.16903736
24	0xbe792aa6	-0.24332675
25	0x3ffe38eb	1.986112
26	0x3fae3bdb	1.3612016
27	0xbe0fa14a	-0.1402637
28	0xbe431795	-0.19051965
29	0x3f244695	0.641702
30	0xbef3db57	-0.4762828
31	0xbea15c88	-0.31515908

pixel_patch_embedding.weight f4 [32, 30]
0	0xbe079a83	-0.13242535
1	0xbe0a7153	-0.13519792
2	0xbc942e68	-0.018088534
3	0x3df34cdc	0.11879894
4	0xbe0aef98	-0.1356796
5	0xbd848eb0	-0.06472528
6	0xbe2ffc7b	-0.17186157
7	0x3e00ca18	0.12577093
8	0xbdd057f5	-0.101730265
9	0x3e14299a	0.14468995
10	0x3de29b70	0.110648036
11	0xbcb33720	-0.021876872
12	0x3e2073b4	0.15669137
13	0xbd93eff2	-0.072235
14	0xbd829beb	-0.06377395
15	0xbe01ed58	-0.12688196
16	0x3e02775a	0.12740842
17	0xbc86d2d0	-0.016457945
18	0xbe12fd2f	-0.14354394
19	0x3e1f83fa	0.15577689
20	0x3d72423c	0.059145197
21	0x3e1fb6aa	0.15597025
22	0x3de3c814	0.11122146
23	0x3d076204	0.03305246
24	0x3dffcf70	0.124907374
25	0x3dafe3a0	0.08588338
26	0x3c993a28	0.018704489
27	0x3d3a7e88	0.045530826
28	0x3dc8b120	0.09799409
29	0xbe329c31	-0.17442395
30	0x3e1e9d08	0.1548959
31	0xbbde5f80	-0.006786287
32	0xbe050637	-0.12990652
33	0xbe2e4c3b	-0.17021267
34	0xbc64d0f0	-0.01396583
35	0xbbb470e0	-0.00550662
36	0x3d66c97c	0.056344494
37	0x3e18313e	0.14862534
38	0x3d0e1c3c	0.034694895
39	0xbd6932ec	-0.05693333
40	0x3d138ee0	0.036024928
41	0xbc43cc30	-0.011950538
42	0x3d3d98e4	0.046288386
43	0x3d9459f0	0.07243717
44	0x3e266fa4	0.16253525
45	0x3e2c8e5e	0.16851184
46	0x3e0b2a6c	0.13590401
47	0x3cc1a5e0	0.023638666
48	0x3b8f2ae0	0.004369125
49	0x3aa84c80	0.0012840182
50	0xbe2436ba	-0.16036502
51	0xbe266c44	-0.16252238
52	0xbe0016df	-0.12508725
53	0xbd3eaa34	-0.046549037
54	0x3de7da1c	0.11320898
55	0x3e2ff258	0.1718229
56	0xbe140a34	-0.14457017
57	0xbdcf9f9a	-0.101378635
58	0xbe1873eb	-0.14887969
59	0xbd860597	-0.06544035
60	0xbe08f5e2	-0.13375047
61	0x3e1d2734	0.15346986
62	0x3e27d85c	0.16391128
63	0x3c8e2e58	0.017356083
64	0x3dd43dac	0.103633255
65	0x3dd075f0	0.10178745
66	0x3d3c5458	0.045978874
67	0xbcd59470	-0.026071757
68	0xbd8d6e52	-0.069058076
69	0xbc7100c0	-0.0147096515
70	0xbdc7f5cf	-0.09763681
71	0xbcb76de8	-0.022391275
72	0xbe082df4	-0.1329878
73	0xbde5041c	-0.111824244
74	0x3e2c3bf4	0.16819745
75	0x3d4e9c08	0.05044177
76	0x3e14a566	0.1451622
77	0xbd65f6c4	-0.056143537
78	0xbd89f41a	-0.06736012
79	0xbe112cc8	-0.14177239
80	0x3d2463a4	0.040134087
81	0x3d18f69c	0.03734456
82	0x3df8e678	0.121533334
83	0xbe2c87d2	-0.16848686
84	0xbce657d8	-0.028118059
85	0xbdbc30e0	-0.0918901
86	0x3d83f5dc	0.06443378
87	0x3def6f00	0.116910934
88	0x3df3b944	0.11900571
89	0xbdc1d19d	-0.09463809
90	0xbe3293af	-0.1743915
91	0xbcade8a0	-0.021229088
92	0x3cc52a38	0.024067983
93	0xbde12a72	-0.10994424
94	0x3e0d5020	0.13800097
95	0xbd7fbb10	-0.062434256
96	0xbe03552b	-0.12825458
97	0xbe32be4d	-0.17455406
98	0x3e39fd02	0.18162921
99	0x3e0b1b8c	0.13584727
100	0x3d0b0abc	0.033945784
101	0xbd96fdfd	-0.07372663
102	0xbcf7e8d8	-0.030262396
103	0xbe00c81e	-0.12576339
104	0xbdbd2c7f	-0.092370026
105	0xbccb8b70	-0.024846762
106	0x3d8c4c28	0.06850463
107	0xbd16445c	-0.036686286
108	0xbda15077	-0.078766756
109	0x3e252dbc	0.16130728
110	0xbd7a5754	-0.06111844
111	0x3e0623fe	0.13099667
112	0xbe198612	-0.1499255
113	0x3dc34e30	0.095363975
114	0x3d12adf8	0.03581044
115	0x3deb0534	0.11475602
116	0x3d6c43cc	0.057681844
117	0x3d972690	0.07380402
118	0xbdd5dce8	-0.10442525
119	0xbd7abe06	-0.061216377
120	0x3cad51b8	0.02115713
121	0x3d659df4	0.05605884
122	0xbcac17a8	-0.021007374
123	0x3e0f1246	0.13971815
124	0x3e029b5e	0.1275458
125	0xbd8ea1c1	-0.06964446
126	0xbd0e4cc8	-0.034741193
127	0xbdabe840	-0.083939075
128	0xbdb58032	-0.08862342
129	0x3e3589c2	0.17728332
130	0x3e18cafc	0.14921182
131	0x3e171f02	0.14757922
132	0xbce08c88	-0.02741076
133	0xbda9d59c	-0.08292696
134	0x3dd5eabc	0.10445163
135	0xbe395bec	-0.18101472
136	0xbdc80ba6	-0.09767847
137	0x3e198008	0.14990246
138	0xbd509640	-0.05092454
139	0x3db325fc	0.08747479
140	0x3dd95aa4	0.106129915
141	0x3dee8828	0.116470635
142	0x3e2ad19e	0.16681525
143	0x3d2f75d8	0.042836994
144	0x3d25cc30	0.04047793
145	0x3d8d5094	0.06900135
146	0x3d377c80	0.044796467
147	0x3d9ae184	0.07562545
148	0x3b03a5c0	0.0020087808
149	0x3d66bde4	0.056333438
150	0xbd1a898c	-0.03772883
151	0xbd44d358	-0.048053116
152	0xbe2cc64f	-0.16872524
153	0x3dc66068	0.09686357
154	0x3c653b10	0.013991132
155	0xbdf701ae	-0.12060867
156	0x3e091fee	0.13391086
157	0x3e11d066	0.14239654
158	0x3db09ed0	0.08624041
159	0x3db3accc	0.08773193
160	0xbe2e7bb9	-0.17039384
161	0x3dc16e94	0.09444919
162	0x3d78c434	0.06073399
163	0xbd80724c	-0.062718004
164	0x3d594028	0.0530397
165	0xbe2a5e9b	-0.16637652
166	0x3d19a738	0.037512988
167	0x3e0b6f76	0.13616738
168	0x3cfbb348	0.030725136
169	0x3d65dcd4	0.0561188
170	0x3e127bee	0.14305088
171	0x3d062c34	0.032757
172	0x3dcc4d5c	0.09975693
173	0xbdc3c079	-0.095581956
174	0xbdc29be8	-0.09502393
175	0x3dfbe22c	0.12298998
176	0xbd141d4c	-0.036160752
177	0x3e05eb8a	0.13078132
178	0x3dd9b4fc	0.10630223
179	0xbda6cf73	-0.081450365
180	0xbda10b05	-0.0786343
181	0x3da5daf0	0.080984
182	0x3db86ee0	0.09005523
183	0xbdf16388	-0.11786562
184	0x3dacefec	0.08444199
185	0xbdd46aba	-0.10371919
186	0xbcf19f50	-0.029494911
187	0x3cfc3a48	0.03078951
188	0xbc6504c0	-0.013978183
189	0xbd3466fc	-0.044043526
190	0xbd64091c	-0.05567275
191	0xbdb76a82	-0.08955862
192	0xbddff63d	-0.10935638
193	0xbe07b993	-0.13254385
194	0x3d42ad3c	0.04752849
195	0x3d6cf284	0.05784847
196	0xbdca18e1	-0.098680265
197	0x3b051b40	0.0020310432
198	0x3e22fe4e	0.15917322
199	0xb9033400	-0.00012512505
200	0xbd9a9f54	-0.07549921
201	0x3e1e9ca2	0.15489438
202	0xbe1d191f	-0.15341614
203	0xbcd715b0	-0.026255459
204	0x3aa77980	0.0012777299
205	0x3d208944	0.039193407
206	0x3e2663e0	0.16249037
207	0x3e118f92	0.14214924
208	0x3e344bf2	0.17607096
209	0xbdef906a	-0.11697467
210	0xbc870ee8	-0.0164866
211	0x3d2c2614	0.0420285
212	0xbd94200b	-0.07232674
213	0x3e1a7324	0.15082985
214	0xbe07841e	-0.13233992
215	0xbe2075d2	-0.15669945
216	0x3cacdb18	0.021100566
217	0xbcd36d80	-0.02580905
218	0xbe313c72	-0.17308214
219	0x3d62b1ac	0.055345222
220	0x3d974654	0.07386461
221	0xbd0fa140	-0.03506589
222	0x3cbb2f18	0.022849604
223	0x3e0282e6	0.12745246
224	0xbda776b9	-0.081769414
225	0x3e29d218	0.1658405
226	0x3dc4222c	0.0957683
227	0xbe1eee0c	-0.15520495
228	0xbdbeae93	-0.09310641
229	0xbce24018	-0.027618453
230	0xbe157713	-0.14596204
231	0x3aaa3d00	0.001298815
232	0x3d9e7df4	0.077388674
233	0xbe335c2d	-0.17515631
234	0xbc39a8e0	-0.011331767
235	0xbe13ef7c	-0.14446825
236	0x3e1f0bbc	0.1553182
237	0xbcb550b0	-0.022133201
238	0x3da577ac	0.08079466
239	0xbc36d400	-0.011158943
240	0x3daf8854	0.085709244
241	0xbd274cb0	-0.04084462
242	0xbe134fbe	-0.14385888
243	0xbddc03f1	-0.10742939
244	0x3d814182	0.06311323
245	0x3b0cdc40	0.0021493584
246	0xbd207524	-0.039174214
247	0x3e2b114c	0.16705817
248	0x3de5124c	0.111851305
249	0xbde645b9	-0.11243767
250	0x3e2458e2	0.16049531
251	0xbd08eecc	-0.03343086
252	0x3c6b2c30	0.014353797
253	0x3e0ff2f4	0.14057523
254	0xbdd01ef2	-0.10162152
255	0xbe033ee8	-0.12816966

pixel_patch_embedding.bias f4 [32]
0	0xbd1bc358	-0.03802809
1	0xbe280f23	-0.16412024
2	0xbdac68ba	-0.084184125
3	0xbe2dd105	-0.16974266
4	0xbd0f8100	-0.035035133
5	0xbe303a56	-0.17209753
6	0xbe39d3ff	-0.18147276
7	0xbd2f2b3c	-0.04276584
8	0xbd304638	-0.043035716
9	0xbe370d88	-0.17876256
10	0xbc714860	-0.014726728
11	0xbd46bac8	-0.048517972
12	0x3d00c040	0.031433344
13	0xbe0586bb	-0.13039677
14	0xbbfcf560	-0.0077196807
15	0xbe082292	-0.13294438
16	0xbe2957fa	-0.16537467
17	0xbb03a980	-0.0020090044
18	0x3c2bc740	0.010484517
19	0x3dcafffc	0.099121064
20	0x3d0c92e0	0.03431976
21	0xbd917499	-0.07102317
22	0xbd94680b	-0.07246407
23	0x3c9f4088	0.01943995
24	0xbe306534	-0.17226106
25	0x3d2a8c78	0.041637868
26	0xbde194ac	-0.11014685
27	0xbd6f4de0	-0.058423877
28	0x3e303fd6	0.17211851
29	0xbe05dc21	-0.13072254
30	0xbe16b242	-0.14716437
31	0xbc84ef90	-0.016227514

local_trans_pixel.layers.0.0.fn.norm.weight f4 [32]
0	0x3f92b4fc	1.1461482
1	0x3f965125	1.1743513
2	0x3f8b5579	1.0885459
3	0x3f89fc2a	1.0780079
4	0x3f8b5a9f	1.088703
5	0x3f8f6088	1.1201334
6	0x3f8ec9b5	1.1155306
7	0x3f9dd922	1.2331889
8	0x3f914a6d	1.1350838
9	0x3f8899e6	1.0671966
10	0x3f8e3dab	1.111257
11	0x3f93b906	1.154084
12	0x3f89a33c	1.075294
13	0x3f8cc4d7	1.0997571
14	0x3f8aa240	1.0830765
15	0x3f8f5b6f	1.1199778
16	0x3f8cd850	1.1003513
17	0x3f90df52	1.1318152
18	0x3f92dbc9	1.1473323
19	0x3f8b2c9e	1.0872991
20	0x3f917ed0	1.1366825
21	0x3f8fc671	1.1232435
22	0x3f930542	1.148598
23	0x3f9121d7	1.1338452
24	0x3f886100	1.0654602
25	0x3f90926f	1.1294688
26	0x3f88b59a	1.068042
27	0x3f892cf3	1.0716842
28	0x3f9118f9	1.1335746
29	0x3f97bfaf	1.1855372
30	0x3f8aec9f	1.0853461
31	0x3f8c03dc	1.0938678

local_trans_pixel.layers.0.0.fn.norm.bias f4 [32]
0	0xbdeb3ed2	-0.114865914
1	0xbd821a7e	-0.06352709
2	0xbd1dcd77	-0.038526025
3	0xbd5ed2f1	-0.05440039
4	0x3e0cccaa	0.13749948
5	0x3c2d2c46	0.010569638
6	0xbd039c1b	-0.032131296
7	0x3b7c994d	0.0038543523
8	0xbdbaa758	-0.091139495
9	0x377cb9c8	1.5063626e-05
10	0x3d298823	0.041389596
11	0xbdd78859	-0.10524053
12	0xbbdf03fc	-0.006805895
13	0xbd4e5108	-0.050370246
14	0x3d0b2892	0.033974238
15	0x3be3c634	0.006951118
16	0xbd01dd94	-0.031705454
17	0x3cacf41d	0.021112496
18	0xbd29c41b	-0.041446786
19	0xbc358d3d	-0.011081037
20	0x3c95f3da	0.018304754
21	0x3c7e7985	0.015531902
22	0x3cdd9aa8	0.027051285
23	0xbbf30558	-0.0074164085
24	0x3ac7ceb0	0.0015244093
25	0x3d5835d8	0.052785724
26	0x3ce5aa96	0.028035443
27	0x3d664dc1	0.056226496
28	0xbd3820fa	-0.044953324
29	0xbd9147ca	-0.07093771
30	0x3c9c7459	0.019098448
31	0x3c4bfd51	0.012450532

local_trans_pixel.layers.0.0.fn.fn.to_qkv.weight f4 [768, 32]
0	0x3d3dde42	0.04635454
1	0x3e5304fe	0.20607373
2	0xbe7ebc3c	-0.24876493
3	0xbdf37279	-0.11887068
4	0x3e6cef7b	0.2313823
5	0xbd683ef2	-0.056700654
6	0x3e23a980	0.15982628
7	0x3e2703b6	0.1631001
8	0x3d6685fa	0.056280114
9	0x3d697815	0.056999285
10	0xbe56f604	-0.20992285
11	0xbd22ac7a	-0.039715268
12	0xbe10943b	-0.14119045
13	0x3d278d37	0.040906157
14	0xbe283d30	-0.16429591
15	0xbcb28827	-0.021793438
16	0xbe1b15ad	-0.15144987
17	0xbd140db4	-0.03614588
18	0xbbe0fddd	-0.0068662004
19	0x3e310c5f	0.17289875
20	0xbd4d732e	-0.050158672
21	0x3dd9aae7	0.106283
22	0xbe594390	-0.2121718
23	0xbcc3386c	-0.023830615
24	0xbe0e8a4d	-0.13919945
25	0x3d8502d1	0.06494678
26	0xbd8efedf	-0.069822066
27	0xbd2fe8b0	-0.042946517
28	0xbd9152b4	-0.070958525
29	0x3daedebd	0.08538578
30	0x3e4558c0	0.19272137
31	0xbe006f6b	-0.12542503
32	0x3df51d1d	0.119684435
33	0xbe17f0ef	-0.14838003
34	0xbe13742c	-0.14399785
35	0xbdf3fbaf	-0.11913239
36	0x3d002528	0.031285435
37	0xbdf62ae3	-0.12019899
38	0x3e3357b9	0.17513932
39	0xbe4c0525	-0.19923837
40	0x3dcfc850	0.101456285
41	0xbe4a6d09	-0.19768156
42	0xbe032049	-0.12805285
43	0x3d8b35e9	0.06797392
44	0x3e8eca91	0.2788892
45	0x3d725525	0.05916323
46	0x3d9532a6	0.07285051
47	0xbd6fb57c	-0.058522686
48	0x3c8dfd40	0.017332673
49	0xbdb640ee	-0.08899103
50	0xbb9c02d7	-0.0047610807
51	0xbd031fa7	-0.032012608
52	0x3e3b17d1	0.18270804
53	0x3b36769e	0.0027841697
54	0xbd27e95e	-0.04099404
55	0x3c5cbcac	0.013472717
56	0xbdbdaa56	-0.092610046
57	0x3cef2574	0.029192664
58	0xbd5b9745	-0.05361106
59	0xbc0783b5	-0.0082711475
60	0x3dff946a	0.124794796
61	0xbdebcc07	-0.115135245
62	0x3d87e10b	0.066347204
63	0x3e33ff22	0.17577794
64	0x3da8f979	0.08250708
65	0x3dc99a4f	0.09843885
66	0xbc927412	-0.017877612
67	0xbe0f7f08	-0.14013302
68	0x3e24443d	0.16041656
69	0x3e6d273d	0.231595
70	0x3e199e41	0.15001775
71	0x3d83b341	0.06430674
72	0xbd552076	-0.05203291
73	0xbd97bf30	-0.07409513
74	0x3e8406d0	0.25786448
75	0xbdbcbbd8	-0.09215516
76	0x3e0cfa63	0.1376739
77	0xbd980dd2	-0.07424511
78	0x3d8024d5	0.06257025
79	0x3e463fff	0.1936035
80	0xbe2d895e	-0.16946933
81	0xbe297e23	-0.16552024
82	0xbe196c3d	-0.14982696
83	0xbd08f9b2	-0.033441253
84	0x3db1b2ae	0.086766586
85	0x3da5ed79	0.08101935
86	0x3e5c0231	0.21485211
87	0xbd3c9fe3	-0.046050917
88	0xbde7d433	-0.11319771
89	0xbd6d859f	-0.05798876
90	0x3e27f38d	0.16401501
91	0xbb9ece90	-0.0048464015
92	0xbe06221f	-0.13098954
93	0x3e23197c	0.1592769
94	0x3e076162	0.13220742
95	0xbd22d74d	-0.039756108
96	0xbd8e1689	-0.06937892
97	0xbe1d3570	-0.15352416
98	0x3c94e286	0.018174421
99	0xbe0ddbd7	-0.13853393
100	0xbd042d8e	-0.032270007
101	0xbdeffac7	-0.11717754
102	0xbe03f623	-0.12886862
103	0x3d8d0184	0.06885055
104	0xbdff1c72	-0.124565974
105	0xbda64b67	-0.081198506
106	0xbd0baaf1	-0.03409857
107	0x3e4011ff	0.18756865
108	0x3e55a278	0.20862758
109	0xbdc4df50	-0.09612906
110	0xbd87d633	-0.06632652
111	0xbd362843	-0.04447199
112	0xbe33eb05	-0.17570122
113	0xbdf4f242	-0.119602695
114	0xbe08c783	-0.13357358
115	0x3dd9a864	0.10627821
116	0x3e182bbc	0.14860433
117	0xbdc98e45	-0.09841589
118	0xbe30d4e4	-0.17268711
119	0xbc6dae59	-0.0145069
120	0x3b281566	0.002564752
121	0x3e05742e	0.130326
122	0x3d87a67e	0.06623553
123	0xbdb58e85	-0.08865074
124	0xbd515b8b	-0.051112693
125	0x3c749453	0.014927941
126	0xbd9a333b	-0.07529303
127	0x3d63617f	0.0555129
128	0xbde584d8	-0.112069786
129	0xbd604f72	-0.054763265
130	0xbe2e0007	-0.16992198
131	0xbe178c74	-0.14799672
132	0x3dfb3803	0.12266543
133	0x3e060af7	0.1309012
134	0xbd255eec	-0.040373728
135	0xbd5750ae	-0.052567177
136	0x3d2c3943	0.042046797
137	0xbdc17486	-0.09446053
138	0xbe7d8eae	-0.24761459
139	0xbcc86e39	-0.02446662
140	0xbde88d25	-0.11355046
141	0xbd23404b	-0.039856236
142	0x3e38825f	0.18018483
143	0xbcf810c9	-0.030281441
144	0x3d4f2afc	0.050578102
145	0xbe16fab9	-0.1474408
146	0xbd99f060	-0.07516551
147	0x3df13b35	0.11778871
148	0xbd376825	-0.044777054
149	0xbe2fa2b2	-0.17151907
150	0x3d9156b4	0.070966154
151	0x3e4fae00	0.2028122
152	0x3d5e24fb	0.054234486
153	0x3bda076c	0.006653717
154	0xbd35f2ae	-0.04442089
155	0xbe4debad	-0.20109434
156	0x3d51d7fe	0.051231377
157	0x3a9608d2	0.001144672
158	0x3d242f26	0.040084027
159	0xbd75c95c	-0.060006484
160	0xbe35151f	-0.17683838
161	0x3e0575c1	0.13033201
162	0x3ccebdf2	0.025237057
163	0x3d326a13	0.04355819
164	0x3e00d9e9	0.12583126
165	0x3dff281d	0.12458823
166	0x3ddbaa4b	0.1072584
167	0x3d8e624a	0.06952341
168	0xbe44f3a6	-0.1923357
169	0xbc8fad9e	-0.017538842
170	0xbc9567b6	-0.01823793
171	0xbd8ecc11	-0.06972516
172	0xbcc04a68	-0.02347298
173	0xbd88f665	-0.06687621
174	0x3df2eec4	0.11861947
175	0x3dadde56	0.08489673
176	0x3e0c597c	0.1370601
177	0x3dd44c34	0.10366097
178	0x3e546fda	0.20745793
179	0xbe485901	-0.19565202
180	0x3e2ac352	0.16676071
181	0xbb6a8e48	-0.0035790373
182	0x3ec8e7ea	0.39239436
183	0xbd86547f	-0.06559085
184	0x3e5078d8	0.20358598
185	0xbe107e6e	-0.14110729
186	0xbd46e115	-0.0485545
187	0x3e200210	0.15625787
188	0xbe0c6976	-0.13712105
189	0xbd84165d	-0.06449578
190	0x3ce29eab	0.02766355
191	0xbc6e764d	-0.014554572
192	0x3eb2f3ff	0.3495178
193	0x3e02577d	0.12728687
194	0xbdceddbe	-0.10100888
195	0xbd65144e	-0.055927567
196	0xbe31d141	-0.1736498
197	0x3db2cb02	0.08730127
198	0x3c9b6f1d	0.018973881
199	0x3dcd32e9	0.10019476
200	0x3db58953	0.08864083
201	0x3da79aad	0.08183799
202	0xbe1ab71d	-0.15108915
203	0x3d97451f	0.07386231
204	0xbe7d17d4	-0.24716121
205	0xbc22c3cb	-0.009934376
206	0x3e283719	0.16427268
207	0xbbab3115	-0.005224357
208	0x3e4d9a73	0.20078449
209	0x3e3d1467	0.18464814
210	0x3d92f0e7	0.07174855
211	0x3e2b6067	0.16735993
212	0xbe8c6683	-0.2742196
213	0x3cdfa3df	0.02729982
214	0xbe132eee	-0.14373371
215	0xbe09fd26	-0.13475475
216	0xbd34caca	-0.044138707
217	0xbd5dfd9f	-0.05419695
218	0xbe21d4ea	-0.15803877
219	0xbe88a64b	-0.2668937
220	0xb9da98bf	-0.00041694005
221	0x3dac3985	0.084094085
222	0x3cda0b99	0.026616858
223	0xbdc3a1c1	-0.095523365
224	0x3dad6e79	0.084683366
225	0xbdd85b8f	-0.105643384
226	0x3d34b211	0.04411513
227	0xbe2e37ce	-0.17013475
228	0xbdfcf232	-0.123508826
229	0xbcc8494b	-0.024449011
230	0xbe2ace8a	-0.16680351
231	0x3cc4cdce	0.024023917
232	0x3e07e882	0.13272288
233	0x3cdf8daa	0.02728923
234	0x3d347db4	0.044065192
235	0xbe1c0870	-0.15237594
236	0xbe49324f	-0.19648097
237	0xbdc45823	-0.09587123
238	0x3e06189f	0.1309533
239	0xbe186045	-0.14880474
240	0x3e2b4c1a	0.16728249
241	0xbd293b4f	-0.041316327
242	0xbd621ceb	-0.05520336
243	0x3e41d9d1	0.18930747
244	0xbe47da9a	-0.19516984
245	0xbe843cc5	-0.25827613
246	0xbdd1188d	-0.10209761
247	0x3dd4e5d8	0.10395402
248	0xbe1f36f4	-0.15548307
249	0xbdb6ad14	-0.08919731
250	0xbe5afa2a	-0.21384493
251	0x3bb23aa2	0.0054391185
252	0xbe3c5c9d	-0.18394704
253	0x3e371992	0.17880848
254	0x3da472cb	0.080297075
255	0x3d3011b3	0.04298563

local_trans_pixel.layers.0.0.fn.fn.to_out.0.weight f4 [32, 256]
0	0x3c8d85df	0.017275749
1	0xbd8790ab	-0.0661939
2	0xbd39a499	-0.04532299
3	0xbda018a7	-0.07817202
4	0xbcb6c4fe	-0.02231073
5	0xbdb880a4	-0.09008911
6	0x3d3c2f11	0.045943324
7	0x3c98bd88	0.018645063
8	0xbda15a03	-0.078784965
9	0x3cad502f	0.021156399
10	0xbd83121e	-0.0639994
11	0x3c11a2e4	0.008888934
12	0x3d08f97b	0.033441048
13	0xbd5c6fd7	-0.053817596
14	0xbb81853a	-0.0039526494
15	0x3d6bef1c	0.05760108
16	0x3d309abf	0.043116327
17	0x3cdbfc5c	0.026853733
18	0xbb0d93d9	-0.0021603017
19	0x3d8b3ce8	0.06798726
20	0x3d6b032a	0.057376064
21	0xbc84eefb	-0.016227236
22	0xbdbefdbf	-0.09325742
23	0x3c48efc8	0.0122642
24	0x3b4cf197	0.0031271928
25	0xbd131d55	-0.035916645
26	0x3de3d2bd	0.111241795
27	0x3d245709	0.040122066
28	0x3d68574c	0.056723878
29	0xbd368fb9	-0.04457066
30	0xbcc4d386	-0.024026643
31	0x3d1c6dde	0.038190715
32	0xbd69ce29	-0.057081375
33	0x3d2493cb	0.04018001
34	0xbd915bed	-0.070976116
35	0xbcce8a2d	-0.025212372
36	0xbdc511c8	-0.09622532
37	0xbcfad775	-0.030620316
38	0xbd90d9ac	-0.070727676
39	0x3d336adb	0.043803077
40	0x3c0221af	0.007942601
41	0x3b3dd2c1	0.002896473
42	0xbd075e1c	-0.033048734
43	0xbd6ebba7	-0.058284428
44	0x3e2b958b	0.16756265
45	0xbcf241d7	-0.02957241
46	0x3d5e4414	0.054264143
47	0x3de1d980	0.11027813
48	0x3dd2898f	0.102801435
49	0x3d2b0a68	0.04175797
50	0xbdb812d4	-0.08987966
51	0xbc32dfac	-0.010917585
52	0x3cf9a20c	0.030472778
53	0xbdb52b7e	-0.08846186
54	0xbc22f259	-0.0099454755
55	0x3db9cc16	0.090721294
56	0x3da74f3b	0.08169409
57	0x3cff6615	0.031176606
58	0x3d34bf36	0.044127665
59	0xbd932222	-0.07184245
60	0xbc9d36fe	-0.019191261
61	0x3d9f1b56	0.07768886
62	0xbd2c5a47	-0.042078283
63	0xbd68a52f	-0.056798156
64	0x3b5f9e50	0.0034121461
65	0x3c4dfc09	0.012572297
66	0x3d364796	0.044501863
67	0xbdbc2edd	-0.09188626
68	0xbd938de2	-0.072047964
69	0xbdd3a7b3	-0.103347205
70	0x3db93092	0.09042467
71	0xbd3ff791	-0.046866957
72	0xbcfdc5c0	-0.030978084
73	0x3c70633a	0.014672095
74	0xbd46be8f	-0.048521575
75	0x3ce412c3	0.027840978
76	0xbda52601	-0.08063889
77	0x3d030f9e	0.031997316
78	0x3cf4c0e9	0.029877143
79	0x3cd80167	0.026367856
80	0xbd6ee919	-0.058327768
81	0xbd38227c	-0.044954762
82	0x3c483264	0.012219045
83	0xbc87d8be	-0.016582843
84	0x3d9fc032	0.0780033
85	0xbd56acc9	-0.052410875
86	0x3c845c6e	0.016157355
87	0xbd0a84ff	-0.03381824
88	0xbe029928	-0.12753737
89	0xbc72fa00	-0.014830112
90	0x3d932b0c	0.07185945
91	0x3d272c66	0.040813826
92	0x3d3046a2	0.04303611
93	0xbd83fa95	-0.06444279
94	0xbc0cc3fe	-0.00859165
95	0xbdfd49ff	-0.12367629
96	0x3c88020b	0.016602537
97	0x3d13ee32	0.036115833
98	0x3c95914b	0.018257758
99	0xbd9c3f75	-0.07629291
100	0x3d68bc87	0.05682042
101	0xbd0f0472	-0.03491635
102	0x3cc9865b	0.024600198
103	0x3c5ea0be	0.013588129
104	0xbd016a73	-0.03159566
105	0xbd56fd2f	-0.05248755
106	0xbdbec942	-0.09315731
107	0xbd0c2259	-0.034212444
108	0xbd5665fa	-0.052343346
109	0xbcdf7528	-0.027277544
110	0x3d9ca9c1	0.076495655
111	0x3d1115a5	0.035421032
112	0xbb56c82f	-0.0032773127
113	0xbd7f401d	-0.062317003
114	0xbd63555f	-0.055501338
115	0xbd1d202b	-0.038360756
116	0x3dd38b32	0.10329284
117	0xbcd26d1f	-0.025686799
118	0x3d0b9346	0.034075998
119	0xbd5253fc	-0.051349625
120	0xbd7fe744	-0.06247641
121	0xbce797fa	-0.02827071
122	0x3bc1c628	0.0059135146
123	0x3ca0b6a1	0.019618334
124	0x3d45746e	0.04820674
125	0x3ccd82c4	0.025086768
126	0xbd3dd5e5	-0.046346564
127	0x3ce84206	0.028351795
128	0xbcf032d8	-0.02932112
129	0x3c814cb8	0.015783653
130	0x3d882baa	0.06648953
131	0x3e40b007	0.18817149
132	0x3d826be5	0.063682355
133	0xbd8a2a6e	-0.06746374
134	0x3cde80ab	0.027160963
135	0xbd5d8a2d	-0.054086853
136	0xbd932ef4	-0.0718669
137	0xbe1682f9	-0.146984
138	0xbd0c443d	-0.034244765
139	0x3cb25639	0.02176963
140	0xbd9ba4f3	-0.07599821
141	0xbd9204fc	-0.07129857
142	0x3d3ef97d	0.04662465
143	0x3c88acc7	0.01668395
144	0x3d1d3850	0.038383782
145	0xbd2e3cdf	-0.04253852
146	0xbd34dae1	-0.04415405
147	0x3c85a028	0.01631172
148	0xbceeba79	-0.029141651
149	0x3c84cb42	0.016210202
150	0x3d334c3e	0.043773882
151	0x3dccb9c9	0.09996373
152	0xbd130147	-0.03588989
153	0x3d5c7fcb	0.05383281
154	0x3d8a2c41	0.06746722
155	0xbc047c36	-0.008086255
156	0xbd1e9d81	-0.038724426
157	0xbda3085b	-0.07960578
158	0x3d7e88ab	0.062142055
159	0xbce1c254	-0.027558483
160	0xbdf2eb9c	-0.11861345
161	0xbc86cd78	-0.016455397
162	0x3d8bd0b4	0.06826916
163	0xbc70cb1c	-0.014696863
164	0x3d53b0ff	0.05168247
165	0x3d3268ae	0.04355686
166	0x3ddbf998	0.107409656
167	0xbd29e3ad	-0.041476894
168	0x3d4a957c	0.049458966
169	0xbd311d96	-0.043241106
170	0x3d6e93e2	0.0582465
171	0x3d3aaac8	0.045573026
172	0xbcd9fb1d	-0.026608998
173	0x3c0ebf6b	0.00871263
174	0xbcd57f55	-0.026061693
175	0x3d8d6226	0.06903486
176	0x3d956fe6	0.072967336
177	0x3da06cf2	0.0783328
178	0xbde91459	-0.11380834
179	0x3d1d578e	0.038413577
180	0x3cb46db9	0.022024976
181	0xbd12c817	-0.03583535
182	0x3d42496c	0.0474333
183	0xbe07dc00	-0.13267517
184	0xbb921288	-0.0044577755
185	0x3dcecdac	0.100978225
186	0x3df29766	0.11845283
187	0x3deb74ab	0.11496862
188	0x3df0be36	0.1175503
189	0x3ccc0160	0.024903
190	0xbd83898c	-0.06422719
191	0x3cf98e33	0.030463314
192	0x3cb63294	0.022240914
193	0xbdadfc6e	-0.08495413
194	0xbd998a87	-0.07497125
195	0xbb7e57aa	-0.0038809576
196	0xbdd53396	-0.1041023
197	0xbd040f13	-0.03224094
198	0xbddd53c5	-0.108069934
199	0x3dec2e67	0.11532288
200	0xbd456ead	-0.04820125
201	0x3ba6aa22	0.0050861994
202	0x3a41a850	0.0007387446
203	0x3d2cf549	0.04222611
204	0xbc4c9319	-0.012486243
205	0x3d16e822	0.036842473
206	0x3cc9c672	0.024630759
207	0x3ca018fa	0.01954316
208	0x3d0de534	0.034642413
209	0xbda13abf	-0.07872533
210	0x3d52f9c1	0.051507715
211	0x3d3bbeed	0.045836378
212	0xbd95fc44	-0.073235065
213	0x3d8c306d	0.06845174
214	0x3c7eabe7	0.015543914
215	0x3da5d7f4	0.080978304
216	0x3d97f685	0.07420067
217	0x3d0ac32b	0.033877533
218	0x3d81216d	0.063052036
219	0xbd986627	-0.07441359
220	0xbc389168	-0.011265136
221	0xbdb69f2c	-0.089170784
222	0xbdcedc57	-0.1010062
223	0xbbfc0fb3	-0.007692301
224	0x3d347216	0.044054113
225	0xbd813d06	-0.063104674
226	0xbbb3df3b	-0.0054892576
227	0xbd94d6d0	-0.07267535
228	0xbd47ea57	-0.04880747
229	0x3dbb1dd8	0.091365516
230	0xbb052a0f	-0.0020319258
231	0xbd8fd269	-0.070225544
232	0xbd8a66a2	-0.06757857
233	0xbca2e5bd	-0.019884938
234	0x3d2517f5	0.04030605
235	0xbd7a3d39	-0.061093543
236	0x3d92dfe6	0.071716115
237	0xbe19337d	-0.14961047
238	0x3dcd2bb5	0.10018102
239	0x3d0dc17e	0.034608357
240	0xbd2ce093	-0.04220636
241	0x3dceb62e	0.10093342
242	0xbd2fd7da	-0.04293046
243	0xbcd16d6e	-0.025564875
244	0xbd41d28c	-0.047319934
245	0xbdd7453d	-0.10511253
246	0xbc9a7178	-0.018852934
247	0xbca27887	-0.019832863
248	0x3d35c187	0.044374015
249	0x3ddb6d76	0.107142374
250	0xbc3f8b63	-0.011690947
251	0x3e0c2ef8	0.13689792
252	0xbc3b96bf	-0.011449515
253	0x3d9d2d64	0.07674673
254	0x3c9dce8e	0.019263532
255	0x3d4080da	0.046997882

local_trans_pixel.layers.0.0.fn.fn.to_out.0.bias f4 [32]
0	0xbd0b5ec8	-0.034025937
1	0xbc68ce9f	-0.014209419
2	0xbd899d43	-0.067194484
3	0x3bd3a6cd	0.006459093
4	0xbc05d17b	-0.00816762
5	0xbcf9f2fa	-0.030511368
6	0x3d5471c0	0.051866293
7	0x3d4ecadd	0.050486434
8	0xbc4cf87a	-0.012510413
9	0x3cb9655c	0.02263134
10	0x3d69472c	0.05695264
11	0xbcc36b45	-0.023854861
12	0x3d42fe3e	0.047605745
13	0xbc2ea1bd	-0.010658679
14	0xbd306fb3	-0.043075275
15	0xbcdd3126	-0.027000975
16	0x3d102a99	0.035196874
17	0x3d49b01a	0.04924021
18	0xbdc36ed6	-0.09542625
19	0xbc2ed0be	-0.010669885
20	0xbd33dacf	-0.043909844
21	0xbd144e75	-0.036207635
22	0x3c82381c	0.015895896
23	0x3c72827b	0.014801617
24	0xbbca46da	-0.006172997
25	0xbd4514d7	-0.048115578
26	0x3d0770df	0.033066627
27	0xbd6b8809	-0.05750278
28	0x3d818dec	0.063258976
29	0xbdc020ad	-0.093812324
30	0x3dd43593	0.10361781
31	0x3d3779dc	0.04479395

local_trans_pixel.layers.0.1.fn.norm.weight f4 [32]
0	0x3f998b77	1.1995686
1	0x3f96a56d	1.1769234
2	0x3f89504d	1.0727631
3	0x3f8d4e0a	1.1039441
4	0x3f8ffc7a	1.1248925
5	0x3f942d4a	1.1576321
6	0x3f6e7d6c	0.9316013
7	0x3f8c259c	1.0948977
8	0x3f8ed1c3	1.1157764
9	0x3f916d10	1.1361408
10	0x3f881d3f	1.0633925
11	0x3f916888	1.1360025
12	0x3f9503d9	1.1641799
13	0x3f7c5b68	0.98576975
14	0x3f840cc8	1.03164
15	0x3f816beb	1.0111059
16	0x3f7ee697	0.995706
17	0x3f73b934	0.9520447
18	0x3f8b3016	1.087405
19	0x3f77c4e7	0.96784824
20	0x3f7afd4a	0.9804274
21	0x3f82e4e2	1.02261
22	0x3f858309	1.0430614
23	0x3f865fe1	1.049801
24	0x3f863801	1.0485841
25	0x3f8a5d83	1.0809788
26	0x3f8b4e74	1.0883317
27	0x3f8aae76	1.0834491
28	0x3f8b828f	1.0899218
29	0x3f6f1658	0.9339347
30	0x3f84500a	1.0336926
31	0x3f813c97	1.0096616

local_trans_pixel.layers.0.1.fn.norm.bias f4 [32]
0	0x3afaf2e7	0.0019145877
1	0x3d48ee5c	0.049055442
2	0x3d788e50	0.060682595
3	0xbd5686f3	-0.05237479
4	0x3ca600d5	0.020264069
5	0xbd006d7b	-0.03135441
6	0x3d476738	0.04868242
7	0x3d4e74ca	0.050404347
8	0x3d0f7c82	0.03503085
9	0xbc45b16a	-0.012066225
10	0x3c422373	0.011849272
11	0xba26b985	-0.0006360042
12	0x3d5ac8d1	0.05341417
13	0x3d40e1a0	0.047090173
14	0x3d3a9ab3	0.04555769
15	0x3cd728a7	0.026264502
16	0x3d4ced8c	0.05003123
17	0x3d359d99	0.04433975
18	0x3cb248cb	0.021763226
19	0x3d4969b2	0.049173065
20	0xbd285840	-0.041099787
21	0xbb447af3	-0.002998051
22	0x3c305595	0.010762592
23	0x3c66d9b7	0.014089993
24	0xbd66de08	-0.05636409
25	0x3d2be66e	0.0419678
26	0x3d2bc640	0.041937113
27	0xbd310412	-0.043216772
28	0x3cba59f6	0.022747975
29	0xbc07103b	-0.008243616
30	0x3cc70e76	0.024298888
31	0xbd81ec80	-0.06343937

local_trans_pixel.layers.0.1.fn.fn.net.0.weight f4 [8, 32]
0	0x3da6d246	0.08145575
1	0x3de12127	0.109926514
2	0x3e2b8dd3	0.1675332
3	0x3c955efa	0.018233765
4	0xbdead886	-0.1146708
5	0xbe53edf5	-0.20696242
6	0x3db5df63	0.08880498
7	0x3e90bef5	0.2827069
8	0x3e01cde9	0.12676205
9	0x3e4e9450	0.20173764
10	0xbdfca650	-0.12336409
11	0x3da98569	0.08277399
12	0x3e163abb	0.14670841
13	0x3e887ca3	0.2665759
14	0xbdac123c	-0.084019154
15	0x3d95e755	0.07319514
16	0x3e189698	0.14901197
17	0x3d5b60f4	0.05355926
18	0x3e1af8ce	0.15133974
19	0x3e443ca4	0.19163758
20	0xbdbc0fd5	-0.09182707
21	0xbe1832a2	-0.14863065
22	0x3da9ee68	0.082974255
23	0xbe03bfb7	-0.12866102
24	0xbdf23ff3	-0.118286036
25	0xbc16714b	-0.009182285
26	0x3de994ba	0.114053205
27	0xbcb50ca3	-0.022100752
28	0x3d33bc13	0.043880533
29	0xbcd84f40	-0.026404977
30	0xbd18c4de	-0.037297122
31	0xbe7adb30	-0.24497676
32	0xbe58c482	-0.21168712
33	0xbd9ac857	-0.07557743
34	0x3da0ea9e	0.0785725
35	0xbdb4bd14	-0.08825126
36	0x3dbe2674	0.09284678
37	0x3db5f2b6	0.08884184
38	0x3d49caf7	0.049265828
39	0x3d41b18d	0.047288466
40	0x3e2ab5f9	0.1667098
41	0x3e25ec4f	0.16203426
42	0xbd829951	-0.06376899
43	0x3c813385	0.015771637
44	0x3e72c47b	0.23707764
45	0x39aa8f0b	0.00032531502
46	0x3e132363	0.14368968
47	0xbdadcd21	-0.08486391
48	0xbd937b79	-0.07201285
49	0xbdea5bb2	-0.11443271
50	0x3dbca0e4	0.09210375
51	0xbdaa8f8d	-0.083281614
52	0x3e22bacc	0.1589157
53	0x3db17cc1	0.08666373
54	0xbe3e9a38	-0.18613517
55	0xbddd8b79	-0.10817618
56	0x3e33c370	0.17555022
57	0x3ca78c60	0.020452678
58	0xbe3fe019	-0.1873783
59	0x3dcebb0f	0.10094272
60	0x3e2ede64	0.17077023
61	0x3c9da5a7	0.019244028
62	0xbc5b3a86	-0.013380652
63	0xbcf9a7ac	-0.03047546
64	0xbeb0a6dc	-0.34502304
65	0xbde4cadf	-0.11171507
66	0x3e493f48	0.19653046
67	0xbd98ed83	-0.07467177
68	0x3e940453	0.2890955
69	0xbe922efe	-0.28551477
70	0xbca34b9d	-0.019933516
71	0x3deb331a	0.11484356
72	0xbdd92f67	-0.106047444
73	0x3dad9af1	0.08476818
74	0xbe5cbe51	-0.21556975
75	0xbe2428c3	-0.16031174
76	0x3b8b3f8f	0.00424952
77	0x3d0a278b	0.033729117
78	0xbde454dd	-0.11148999
79	0xbd80c667	-0.06287842
80	0x3e2aec98	0.16691816
81	0x393d42db	0.0001804935
82	0x3e89d5cc	0.26920927
83	0x3d98893a	0.07448049
84	0x3da49e78	0.08038038
85	0xbdc2e33d	-0.095159985
86	0x3cb24130	0.0217596
87	0xbbb1db4b	-0.005427753
88	0xbe4fbc40	-0.20286655
89	0x3e80095b	0.25007138
90	0xbdbf615a	-0.0934474
91	0x3dcccad0	0.09999621
92	0xbd18911d	-0.037247766
93	0xbc219453	-0.009862023
94	0xbe5bd995	-0.2146972
95	0x3e3ebc85	0.18626602
96	0xbdb46ae0	-0.08809447
97	0x3e9d718a	0.30750686
98	0x3e20534b	0.15656774
99	0xbe98f31a	-0.29872972
100	0x3e39a34b	0.18128698
101	0xbdf4512e	-0.11929546
102	0xbdd6f639	-0.10496182
103	0x3e7c3e45	0.24633129
104	0x3e175147	0.14777099
105	0xbdafe576	-0.08588688
106	0x3a8450cd	0.0010094881
107	0xbe19f85c	-0.15036148
108	0xbe4874fc	-0.19575876
109	0xbd82549b	-0.063637935
110	0xbdc8b7e8	-0.09800702
111	0x3dd39a3c	0.10332152
112	0x3de8e69b	0.113721095
113	0x3d1e66ef	0.038672384
114	0x3d8b8dea	0.06814177
115	0x3d2f9894	0.04287012
116	0xbc3c06eb	-0.011476259
117	0xbd436b50	-0.047709763
118	0x3e333246	0.17499647
119	0xbda3cad3	-0.0799767
120	0xbe2d68fe	-0.16934583
121	0x3e237096	0.15960917
122	0x3bfc0083	0.0076904907
123	0xbd1a118a	-0.037614383
124	0xbca75633	-0.020426845
125	0x3e042c33	0.12907486
126	0x3c32aab8	0.01090496
127	0xbc60df2d	-0.013725084
128	0xbcd1b1fd	-0.025597567
129	0xbe78d3e3	-0.24299578
130	0x3e2c807c	0.16845888
131	0xbda57185	-0.08078293
132	0xbe033f5d	-0.1281714
133	0xbdb84313	-0.089971684
134	0x3e05a388	0.13050663
135	0x3da8bfec	0.08239731
136	0xbcd29670	-0.0257065
137	0xbcbfc8f1	-0.023411246
138	0x3dd8afd7	0.10580414
139	0xbd99d1ca	-0.07510717
140	0x3e4211e9	0.18952145
141	0x3e29d1b8	0.16583908
142	0x3e00316c	0.12518853
143	0xbd92b9d7	-0.071643524
144	0x3e0db9a1	0.13840343
145	0x3e393234	0.18085557
146	0x3b88b678	0.0041721426
147	0x3cd8238f	0.026384143
148	0xbdec1bb9	-0.11528725
149	0xbd93c6f0	-0.07215679
150	0x3d5eca27	0.054392006
151	0x3cd38396	0.025819581
152	0xbe259563	-0.16170268
153	0x3e07c12b	0.13257281
154	0x3c937f24	0.018004961
155	0x3de1d1c9	0.110263415
156	0x3e0e4f80	0.13897514
157	0xbd8ac351	-0.06775535
158	0xbd17df9b	-0.03707848
159	0xbdfbb93b	-0.12291189
160	0x3dffcc15	0.124900974
161	0x3c4bc446	0.012436932
162	0x3e215593	0.157553
163	0x3c9c01c9	0.01904382
164	0x3dbf967c	0.093548745
165	0x3e28435d	0.16431947
166	0x3db87c07	0.09008031
167	0x3e37a952	0.17935684
168	0x3e3f89ad	0.18704863
169	0x3e647574	0.2231043
170	0xbe244541	-0.16042043
171	0xbd7a14e2	-0.06105507
172	0xbcc70f86	-0.024299394
173	0xbdbf4625	-0.09339551
174	0x3d633a32	0.05547542
175	0x3d634605	0.055486698
176	0x3cb0ca01	0.021580698
177	0x3d481c95	0.048855383
178	0x3e3e5f87	0.18591128
179	0x3de6e61f	0.11274361
180	0xbe1616db	-0.14657156
181	0xbd92e687	-0.07172876
182	0xbcdeabdf	-0.027181564
183	0x3e090925	0.13382395
184	0xbc8d8a6f	-0.017277924
185	0x3e1bb1b6	0.1520451
186	0x3e2d7ae8	0.16941416
187	0x3e3bff9c	0.18359226
188	0xbd413177	-0.047166314
189	0xbd88411f	-0.06653046
190	0x3d41c245	0.04730441
191	0x3e0d8f5c	0.13824219
192	0xbe259738	-0.16170967
193	0x3e10cb4b	0.1414005
194	0xbdb919ca	-0.09038122
195	0xbe6dfe59	-0.23241557
196	0x3cba62e4	0.022752233
197	0x3e0a66d2	0.13515785
198	0x3db6a927	0.08918982
199	0x3dd8d02c	0.10586581
200	0xbe3c1d98	-0.18370664
201	0x3e112168	0.141729
202	0x3e1a02dd	0.15040155
203	0xbe4fcfb6	-0.20294079
204	0x3e118e5a	0.14214459
205	0x3d5e945b	0.0543407
206	0x3e062a33	0.13102035
207	0xbdcc6b53	-0.09981408
208	0x3de187ce	0.11012231
209	0x3c1e7940	0.009672463
210	0x3e3f0670	0.186548
211	0x3d1b02f5	0.037844617
212	0x3c8c4847	0.017124308
213	0xbd0ffc3d	-0.035152663
214	0xbc895016	-0.01676182
215	0x3e3a4d2d	0.18193503
216	0x3d922ac7	0.071370654
217	0x3d8c0035	0.06835977
218	0x3d91ac76	0.071129724
219	0xbdbbf027	-0.09176665
220	0x3e6b106e	0.22955486
221	0xbde704f1	-0.112802394
222	0xbdcde6b9	-0.100537725
223	0xbda6a717	-0.081373386
224	0xb9984e17	-0.0002904988
225	0x3e54a31e	0.2076535
226	0x3d3574c8	0.044300824
227	0x3d9790e2	0.07400681
228	0x3e5598e7	0.20859109
229	0xbe4ee2f2	-0.2020376
230	0xbdb0594d	-0.08610783
231	0xbd8c8e3b	-0.06863066
232	0x3be2bf0e	0.006919748
233	0xbe305f84	-0.17223936
234	0xbdcbf62a	-0.099590614
235	0x3df1c96e	0.11805998
236	0x3cc94016	0.024566691
237	0x3d1f033f	0.038821455
238	0x3e24a2f1	0.16077782
239	0x3e02cf08	0.12774289
240	0x3d11c036	0.035583697
241	0x3ca7298d	0.020405555
242	0xbdb43ef4	-0.0880107
243	0x3debd849	0.115158625
244	0x3d5c650e	0.05380731
245	0x3e0beda4	0.13664871
246	0xbe0edb95	-0.13950951
247	0xbd4ecad5	-0.050486404
248	0xbe735a58	-0.23764932
249	0x3d92e18a	0.071719244
250	0x3e3ff064	0.18744045
251	0xbdac7374	-0.084204584
252	0xbdc42d8e	-0.09579001
253	0xbcc76d49	-0.024344103
254	0x3de1b716	0.11021249
255	0xbdef038c	-0.116705984

local_trans_pixel.layers.0.1.fn.fn.net.0.bias f4 [8]
0	0x3e53abd5	0.20671017
1	0x3da34b6b	0.07973369
2	0x3b64d5dc	0.003491751
3	0x3dbe164f	0.09281599
4	0x3de4755c	0.11155197
5	0x3db55ed1	0.088559754
6	0x3dc8635c	0.09784576
7	0x3ca77ce5	0.020445297

local_trans_pixel.layers.0.1.fn.fn.net.3.weight f4 [32, 8]
0	0x3ea5c0ee	0.32373756
1	0x3e22dfd5	0.15905698
2	0xbee1546c	-0.4400972
3	0x3eacfc76	0.33786362
4	0x3e845808	0.25848413
5	0xbe109380	-0.14118767
6	0x3de8307d	0.113373734
7	0x3e6f245c	0.23353714
8	0xbecdba14	-0.4018103
9	0xbe4312c1	-0.19050123
10	0xbe518783	-0.2046185
11	0xbd24cef0	-0.040236413
12	0xbd247fd1	-0.040160958
13	0xbe10f34b	-0.14155309
14	0x3e444157	0.1916555
15	0xbe5bb77e	-0.21456715
16	0xbee94391	-0.45559362
17	0xbe82cb0d	-0.2554554
18	0xbd35307c	-0.04423569
19	0xbd3639e9	-0.04448882
20	0x3e62f146	0.22162351
21	0xbdb6a152	-0.08917488
22	0xbed1d54c	-0.40983045
23	0xbe9008bc	-0.28131664
24	0x3e20c159	0.15698756
25	0x3df35c05	0.11882786
26	0x3d9dfec6	0.0771461
27	0xbefa7b92	-0.48922402
28	0x3e93794b	0.28803477
29	0xbc010987	-0.007875807
30	0xbdbf3786	-0.09336762
31	0xbe2a9f46	-0.1666232
32	0xbda99efa	-0.082822755
33	0xbcefbb59	-0.029264139
34	0xbe8036ab	-0.25041708
35	0xbe742ce3	-0.23845248
36	0x3e85c15d	0.26124087
37	0x3b8a1b0c	0.00421465
38	0x3c30993b	0.0107787205
39	0xbd05c410	-0.032657683
40	0x3eb9202f	0.36157367
41	0xbdcc7494	-0.09983173
42	0xbeac703b	-0.33679375
43	0x3e223514	0.1584056
44	0xbdf2ca11	-0.11854947
45	0x3bed4f8d	0.007242149
46	0x3e916535	0.28397527
47	0xbe4355d2	-0.19075707
48	0xbe332ce5	-0.17497595
49	0xbe9d007b	-0.3066443
50	0xbcf751dd	-0.030190403
51	0xbe3d272f	-0.18471979
52	0xbd0c8790	-0.03430897
53	0xbe57430f	-0.21021675
54	0xbeb8510d	-0.35999337
55	0xbe4ad5ad	-0.19808073
56	0xbe981e31	-0.29710534
57	0xbe06c888	-0.13162434
58	0xbd0b3dd3	-0.033994507
59	0x3d2be075	0.041962106
60	0xbecc0084	-0.39844143
61	0xbecfca04	-0.40583813
62	0x3ed589d1	0.41706708
63	0xbc64335f	-0.013928263
64	0x3e026db5	0.12737162
65	0xbe096959	-0.13419093
66	0xbdcf89d2	-0.10133709
67	0x3dfcd986	0.12346177
68	0x3e800af2	0.2500835
69	0x3ea1f667	0.31633303
70	0xbe4f0315	-0.2021602
71	0x3db77034	0.08956948
72	0xbea78d0a	-0.32724792
73	0x3bfb1de7	0.0076634767
74	0xbd81284f	-0.063065164
75	0xbead8028	-0.33886838
76	0x3e3ab751	0.18233992
77	0xbeb24677	-0.34819385
78	0xbe807bcc	-0.2509445
79	0x3e3e43e1	0.18580581
80	0x3e82c882	0.255436
81	0x3e192c20	0.14958239
82	0x3cb6982d	0.02228936
83	0x3a9aa3ff	0.0011798142
84	0xbe863b27	-0.26217005
85	0xbe4e5da6	-0.20152912
86	0x3e13867d	0.14406772
87	0xbe8d9da2	-0.27659327
88	0xbde4d700	-0.111738205
89	0x3c5f9e06	0.013648516
90	0x3d12fc0c	0.035884902
91	0xbddc32ae	-0.10751854
92	0xbed7376e	-0.42034477
93	0x3e8a4631	0.27006677
94	0x3dd088bf	0.10182332
95	0xbe099902	-0.13437274
96	0x3dc7b712	0.09751715
97	0x3ebb4e5d	0.36583224
98	0xbe13df0b	-0.14440553
99	0xbe6d386b	-0.23166053
100	0xbe8cc486	-0.27493685
101	0xbe63f5ec	-0.2226178
102	0xbde7398b	-0.11290272
103	0xbea393a8	-0.3194859
104	0x3e02db40	0.1277895
105	0xbd45a9a9	-0.048257504
106	0x3eda903b	0.42688164
107	0x3dea6a9a	0.11446114
108	0xbe7180e0	-0.23584318
109	0x3ebe2b32	0.3714233
110	0xbeb08c2f	-0.34481952
111	0x3e96d8ae	0.29462188
112	0x3def1b7d	0.11675165
113	0xbe153fdb	-0.1457514
114	0x3e99a05e	0.30005163
115	0x3ed72334	0.42019045
116	0xbca448eb	-0.020054301
117	0x3ea7b5d2	0.32755905
118	0x3dcef254	0.10104814
119	0xbe84ba19	-0.2592323
120	0xbdd71f8b	-0.10504063
121	0x3d950b87	0.07277589
122	0x3e994253	0.29933414
123	0x3df13bd7	0.11778992
124	0xbe7f011e	-0.2490277
125	0xbe3979c2	-0.18112853
126	0x3d9393dc	0.07205936
127	0x3ebb156d	0.36539784
128	0xbdb57ced	-0.08861718
129	0xbe6e367c	-0.23262972
130	0xbd805459	-0.06266088
131	0x3db25e45	0.08709387
132	0x3e691ee2	0.22765687
133	0x3ca697df	0.02033609
134	0x3dfaecbb	0.12252184
135	0xbdad59be	-0.084643826
136	0x3e9f1b14	0.31075346
137	0x3d38abd6	0.04508575
138	0xbeecc863	-0.46246633
139	0xbe447ea0	-0.19188929
140	0xbeec8827	-0.46197626
141	0xbe61e48e	-0.22059843
142	0xbe64e92b	-0.22354572
143	0x3de9cfe4	0.11416605
144	0xbe3d48c9	-0.18484797
145	0x3e444eaf	0.1917064
146	0x3ebb3fa1	0.36571983
147	0xbdabb7fe	-0.08384703
148	0xbecaebb4	-0.39632952
149	0xbe201c3c	-0.1563577
150	0xbe6cbf27	-0.23119794
151	0xbe287468	-0.16450655
152	0x3d046954	0.03232701
153	0xbcddff2d	-0.027099216
154	0x3d6dc888	0.05805257
155	0x3e283893	0.16427831
156	0x3dac6459	0.08417577
157	0x3e3ac551	0.18239333
158	0x3e5830b1	0.21112324
159	0xbe9fd2ee	-0.31215614
160	0xbe0c2f72	-0.13689974
161	0xbdc38b67	-0.09548073
162	0x3dfc03a6	0.123053834
163	0x3e4e81c3	0.20166688
164	0xbdb9edee	-0.090785846
165	0xbe86dbf9	-0.263397
166	0x3e8e0026	0.27734488
167	0xbe25fc6d	-0.16209574
168	0x3d899a9b	0.06718942
169	0xbea91e25	-0.3303081
170	0xbe8a236f	-0.2698016
171	0xbda665b8	-0.0812487
172	0xbdac08f1	-0.08400143
173	0xbe06ce06	-0.13164529
174	0xbdb1d859	-0.08683843
175	0x3ed20856	0.41021985
176	0xbec03220	-0.37538242
177	0xbe9ec981	-0.3101311
178	0xbe10bd4b	-0.1413471
179	0xbd9daa47	-0.076984935
180	0x3eb685ad	0.35648862
181	0xbe3e63ab	-0.18592708
182	0xbe1d45e7	-0.15358697
183	0xbb766b83	-0.0037600703
184	0xbe144047	-0.14477645
185	0x3e5cc0d2	0.2155793
186	0xbdab7118	-0.0837118
187	0xbed19d6b	-0.40940413
188	0xbbb13c6f	-0.0054088156
189	0x3e5890e7	0.21149026
190	0x3ea88225	0.32911792
191	0xbeac3eb3	-0.33641586
192	0x3e8f364c	0.27971113
193	0xbe9dbd41	-0.30808452
194	0xbe9dee9f	-0.30846116
195	0xbe826f2e	-0.25475448
196	0x3e2f7f05	0.17138298
197	0x3e5b0203	0.21387486
198	0x3d8c0fe6	0.0683897
199	0xbdc2cc12	-0.095115796
200	0xbea656c4	-0.32488072
201	0xbe40ed22	-0.18840459
202	0xbe870e19	-0.26377943
203	0xbe7c054f	-0.246114
204	0xbe8a08be	-0.26959795
205	0x3eaeb52b	0.34122595
206	0xbecdd42b	-0.40200934
207	0x3e23c60a	0.15993515
208	0xbeb3c52a	-0.35111362
209	0xbdf3fd07	-0.119134955
210	0x3bd50083	0.006500305
211	0x3dd4aef8	0.10384935
212	0xbe990b01	-0.29891208
213	0x3cdb8ca1	0.026800456
214	0xbdaf359e	-0.085551485
215	0x3e1cd138	0.15314186
216	0x3d09e01f	0.033661004
217	0xbe6725f4	-0.22573072
218	0x3ba23b0d	0.004950887
219	0xbe88e38c	-0.26736104
220	0x3ea9c233	0.33155975
221	0xbd33ff6b	-0.043944757
222	0x3dab98d8	0.08378762
223	0x3e4db3a5	0.2008806
224	0xbe7cf880	-0.2470417
225	0x3d2d85ba	0.04236386
226	0xbe1feb8c	-0.15617198
227	0xbe99e36d	-0.30056325
228	0x3e3f32a7	0.18671666
229	0xbe21146f	-0.15730451
230	0xbe4e5ba2	-0.20152143
231	0xbd06f15e	-0.03294503
232	0x3e898626	0.2686016
233	0xbe9d4c08	-0.3072207
234	0x3de11b71	0.10991562
235	0xbe1feb47	-0.15617095
236	0x3e47952f	0.19490503
237	0xbd190424	-0.037357464
238	0x3df3f59b	0.1191208
239	0x3e886e08	0.26646447
240	0x3e8a2b82	0.2698632
241	0xbec49935	-0.38398138
242	0xbef20383	-0.47268304
243	0xbe3e55d5	-0.1858743
244	0xbddde1ce	-0.108340845
245	0xbe32ac2c	-0.17448491
246	0xbe096959	-0.13419093
247	0x3e4d7071	0.20062424
248	0xbd3297ae	-0.043601684
249	0x3eb9e92c	0.3631071
250	0xbcd51574	-0.026011206
251	0xbe57f54e	-0.2108967
252	0x3e651bb5	0.2237385
253	0x3e856a57	0.26057693
254	0x3ec200b9	0.37891176
255	0x3e9acd36	0.3023469

local_trans_pixel.layers.0.1.fn.fn.net.3.bias f4 [32]
0	0xbdcef198	-0.10104674
1	0x3e7c8618	0.24660528
2	0x3d1c365b	0.038137775
3	0x3d9a2d39	0.07528157
4	0xbe64a2d3	-0.22327738
5	0x3d02ff2e	0.03198164
6	0xbdcb6d28	-0.09932929
7	0x3dbc6278	0.09198469
8	0x3c72d648	0.014821596
9	0x3de85a4b	0.11345347
10	0xbeabdabd	-0.33565322
11	0x3da73292	0.081639424
12	0x3da0c569	0.07850153
13	0x3dca43e9	0.09876234
14	0x3e9bb4eb	0.30411467
15	0xbeb227bb	-0.34795937
16	0x3c8ab9ae	0.016934242
17	0xbec8d4d2	-0.3922487
18	0xbd1cc32b	-0.038272064
19	0x3e006e82	0.12542155
20	0xbd1c8caa	-0.038220085
21	0xbeb652fb	-0.35610184
22	0x3e49a717	0.19692646
23	0x3e57b53d	0.2106523
24	0x3e27e29b	0.16395037
25	0xbca73a78	-0.020413622
26	0x3ea1b64e	0.315844
27	0x3cc9cd7b	0.024634114
28	0x3e543a7f	0.2072544
29	0xbbb1811c	-0.0054170024
30	0x3da3233c	0.07965705
31	0xbdd631d6	-0.10458724
