src/res/GGCL/guided_contra_cross_transformer/Pavia/10/True/ss0.7/_1711791325.pth (torch, 266710 bytes, 37 tensors)

pixel_pos_embedding f4 [1, 170, 32]
0	0x3f97cca3	1.1859325
1	0x3f2413fe	0.64093006
2	0xbf5b8aea	-0.8575884
3	0x3f22f4eb	0.63654965
4	0xc031f161	-2.7803576
5	0xbf8b1bff	-1.0867919
6	0xbc5ce24d	-0.013481689
7	0x3ed74eac	0.4205221
8	0xbed6e0c1	-0.4196835
9	0x3cd4af42	0.025962476
10	0x3f819c6b	1.012586
11	0x3ede0ddf	0.43369958
12	0x3efa5f44	0.48900807
13	0x40098bcd	2.1491578
14	0xbf0bbd49	-0.545857
15	0xbf596953	-0.84926337
16	0x3f963dc5	1.17376
17	0xbf337cbe	-0.70112216
18	0xbd4d9197	-0.050187673
19	0x403a1809	2.907717
20	0xc012a9d1	-2.2916148
21	0xbf0cbe1e	-0.54977596
22	0x3f88af50	1.0678501
23	0xbf10380a	-0.5633551
24	0x3f2637e7	0.6492905
25	0xbf04a8ab	-0.51819867
26	0x3ebcb465	0.3685638
27	0x3ed6b032	0.419313
28	0x3e326abb	0.17423527
29	0xbf4d1454	-0.80109143
30	0x3f5bd719	0.8587509
31	0xbf1dc4d0	-0.6162844
32	0x3edd3317	0.4320304
33	0xbd5ba517	-0.05362424
34	0xbfc239ed	-1.5173928
35	0xbea61f46	-0.32445735
36	0x3f927417	1.1441678
37	0x3ec46095	0.38354936
38	0xbfd3e5f1	-1.6554548
39	0x3cf60dce	0.03003588
40	0xbf4838f7	-0.7821192
41	0x3dcc63b5	0.09979955
42	0xbde294d2	-0.110635415
43	0x3cda8d1f	0.02667862
44	0x3e642065	0.22277983
45	0xbefa45f9	-0.4888151
46	0xbf2430df	-0.6413707
47	0xbdc72266	-0.09723358
48	0xbe1dc9ac	-0.15408963
49	0xbf497690	-0.78696537
50	0x3e6c3962	0.23068765
51	0xbfe94d04	-1.8226628
52	0xbf7d8e4d	-0.9904526
53	0xbfaf1628	-1.3678637
54	0x3e6471e3	0.2230907
55	0x3f6d5305	0.927048
56	0xbe5ce43a	-0.21571437
57	0x3f7fddee	0.9994801
58	0x3fa7e067	1.3115357
59	0xc0103575	-2.2532628
60	0x3f2ea581	0.6822129
61	0x3f89a8d4	1.0754647
62	0xbefa4f58	-0.4888866
63	0x3eca4e42	0.3951283
64	0x3f684f7d	0.9074629
65	0x3f8d36b2	1.1032317
66	0xc008555c	-2.13021
67	0xc00affa5	-2.1718533
68	0x3f3c292e	0.73500335
69	0x3eff4284	0.49855435
70	0x3fcaacce	1.5833986
71	0xbf27c5a3	-0.65535945
72	0xbe939609	-0.28825405
73	0xbf0ab07a	-0.5417553
74	0xbec1a53a	-0.3782137
75	0x3d06b114	0.03288372
76	0xbe86bc55	-0.2631556
77	0x3ddedb2e	0.10881649
78	0x4015adb7	2.3387277
79	0xbf5f64ac	-0.8726299
80	0x3ef36e33	0.47545013
81	0x3f5485e4	0.830168
82	0xbe69b736	-0.22823796
83	0x3fda576b	1.7057928
84	0x3f86a9f6	1.0520618
85	0xc002f45d	-2.0461648
86	0x3e3d6765	0.18496473
87	0xbedd534b	-0.4322761
88	0x3f25589c	0.6458833
89	0xbfafa11d	-1.3721043
90	0x3f12ab3e	0.57292545
91	0xbed8a6ed	-0.42314854
92	0x3ea46be6	0.3211357
93	0xbf826d23	-1.0189556
94	0x3f3f8b05	0.748215
95	0xbf8558ce	-1.0417726
96	0x3f8291a4	1.0200696
97	0x3fa3a45d	1.2784535
98	0xbfe37d71	-1.7772657
99	0xbfdd421d	-1.7285801
100	0xbf938239	-1.1524116
101	0x3dfb5899	0.12272758
102	0x3e761e5b	0.24035017
103	0xc030fdbe	-2.7654872
104	0x3f5c3704	0.8602145
105	0x3e59a9a3	0.21256118
106	0x3f0488df	0.5177135
107	0xbedd3aad	-0.4320883
108	0x3de5079b	0.11183091
109	0x3fcdd313	1.608004
110	0x3d9c68cf	0.07637178
111	0xbf3d9840	-0.7406044
112	0x3f1b00ce	0.605481
113	0x4005650d	2.0842927
114	0x3f852ac9	1.0403682
115	0x3ce0a60c	0.027422927
116	0x3f328913	0.6974041
117	0x3d771871	0.060326044
118	0xbf08d08b	-0.5344321
119	0xbd19867d	-0.037481774
120	0xbe0888d1	-0.13333441
121	0xbe1b9d0f	-0.15196632
122	0xbe89d84a	-0.26922828
123	0xbf0ea509	-0.55720574
124	0x3cf50a73	0.02991221
125	0xbf879053	-1.0590919
126	0xbfc58e1a	-1.5433991
127	0x3f18be7c	0.59665656
128	0xbf27d30d	-0.6555641
129	0xbf0bd68e	-0.5462426
130	0x3cc28848	0.023746625
131	0x3f35e220	0.71048164
132	0x3e73474f	0.23757671
133	0x3fb6f481	1.4293367
134	0x3ea38533	0.3193756
135	0x3ee878a8	0.45404553
136	0xbfabb23a	-1.3413765
137	0x3f0f2080	0.55908966
138	0x3f9f713c	1.2456431
139	0xbf9c2cce	-1.2201173
140	0x3f9e615b	1.237346
141	0x3e9fe1c4	0.31226933
142	0xbe914374	-0.28371775
143	0xbfa889d7	-1.3167065
144	0x3f145bee	0.57952774
145	0xbf9ff320	-1.2496071
146	0x3dadaf64	0.08480719
147	0x3f791021	0.97290236
148	0x3f07c1cb	0.5303008
149	0xbf40984b	-0.7523238
150	0x3f29d8b7	0.66346306
151	0x3f9ad9c2	1.2097704
152	0xc00e634a	-2.2248101
153	0xbf9fb8df	-1.2478293
154	0x3f5587eb	0.8341052
155	0xbf8cabd1	-1.0989934
156	0x3f130394	0.57427335
157	0x3f9cdcc6	1.2254875
158	0xbfe9624c	-1.8233123
159	0x3e9ea28c	0.30983388
160	0x3e6cb84d	0.2311718
161	0xbeceaccf	-0.40366217
162	0xbf7049ce	-0.93862617
163	0x3e5ccd55	0.21562703
164	0xbf94fbfd	-1.1639401
165	0x3d6e5c38	0.058193415
166	0xbec4b888	-0.38422036
167	0xbf819bd9	-1.0125686
168	0xbe9cef29	-0.30651215
169	0xc007b6b6	-2.1205268
170	0xbe8ed16e	-0.27894157
171	0xbf4fa780	-0.8111496
172	0x3e9a6993	0.30158672
173	0x3f958ce5	1.1683623
174	0x3e52c72d	0.20583792
175	0x3f97263d	1.1808544
176	0x3f400b95	0.7501767
177	0xbfa80947	-1.3127831
178	0x3fcfa3a4	1.6221814
179	0x3f833286	1.0249794
180	0x3dea5045	0.114410914
181	0x3f249d2f	0.64302343
182	0xc037d0c2	-2.8721166
183	0xbecedc91	-0.40402654
184	0xbeda333e	-0.4261722
185	0xbe008b69	-0.12553181
186	0x4000d090	2.0127296
187	0x3f6ef64d	0.93344575
188	0xbced6705	-0.028979788
189	0x3ea5e672	0.32402378
190	0xbecf6332	-0.40505368
191	0x3f3b8516	0.7324995
192	0xbf16a990	-0.5885248
193	0xbb8f0618	-0.00436474
194	0xbf61d667	-0.88217777
195	0xbfe7f12e	-1.8120477
196	0x3e8cf798	0.2753265
197	0x3fc45bda	1.5340531
198	0xbf17ce5a	-0.5929924
199	0xbf76acfd	-0.9635771
200	0xbf01593a	-0.50526774
201	0x3dc11e47	0.09429603
202	0x3f97728a	1.183183
203	0x3ea87afb	0.32906327
204	0xbf97ec58	-1.1869001
205	0x3f615311	0.88017374
206	0x40098d85	2.1492627
207	0x3e17c7db	0.14822333
208	0x3f359ab5	0.7093919
209	0x3f731a74	0.9496224
210	0x3e4132cf	0.18867038
211	0x3f1c3f31	0.6103392
212	0x3e33f1cc	0.17572707
213	0x3edc93de	0.43081564
214	0x3f350d90	0.7072382
215	0x3db8941d	0.09012625
216	0xbf474d5a	-0.77852404
217	0x3ef84e88	0.48497415
218	0xbd51c6e2	-0.05121506
219	0x3fbc6486	1.4718177
220	0xbf7c426a	-0.9853884
221	0x3f1cd23a	0.6125828
222	0x3f34edfb	0.7067563
223	0x40139270	2.3058128
224	0xbf1b06a7	-0.60557026
225	0xbf7fcebf	-0.99924845
226	0xbeb67222	-0.3563395
227	0x3f3834ce	0.71955574
228	0xbe6d6982	-0.2318478
229	0x3f71cbd7	0.9445166
230	0x3fc20018	1.5156279
231	0xbefc79f1	-0.49311784
232	0xbf9226bf	-1.1418074
233	0x3f6b75a8	0.91976404
234	0x3f2a81ea	0.66604483
235	0x3e3c2e4e	0.18377039
236	0x3dc71522	0.09720828
237	0xbef29ac1	-0.47383693
238	0xbd92877f	-0.0715475
239	0x3f384798	0.71984243
240	0x3b24fb1a	0.0025174082
241	0xbfb811a7	-1.4380387
242	0xbe9f3bd6	-0.3110034
243	0x3d27c464	0.040958777
244	0x3f79dc8a	0.9760214
245	0xbf10e38d	-0.56597215
246	0xbee7edb6	-0.45298547
247	0x3f6c3458	0.9226737
248	0x3f9d4951	1.2287999
249	0xbec5df5e	-0.38646978
250	0xbd172a33	-0.03690548
251	0x3ead9a5b	0.33906826
252	0xbe16a314	-0.14710647
253	0x3f1c2616	0.60995615
254	0xbe8ecc4b	-0.27890238
255	0x3e5f5e1f	0.21813248

cls_token_pixel f4 [1, 1, 32]
0	0x3f26ee70	0.65207577
1	0x400d41de	2.2071452
2	0xbe2f568e	-0.17122862
3	0xbdb2cb31	-0.08730162
4	0x3f8a2893	1.0793632
5	0x3f8b1c80	1.0868073
6	0xbec00b58	-0.37508655
7	0x3f55f665	0.83579093
8	0xbe44c005	-0.19213875
9	0xbde1c456	-0.11023776
10	0xc0081b7f	-2.1266782
11	0xbed1ca51	-0.40974668
12	0x3ebd4697	0.36967918
13	0xbe05c648	-0.1306392
14	0x3f2a9c8d	0.6664513
15	0x3fa6b02a	1.3022511
16	0x3f7d34c4	0.9890864
17	0x3f7a0e5b	0.97678155
18	0xbda8a04d	-0.082337
19	0x3e95ab32	0.29232174
20	0x3f6f6ca1	0.9352513
21	0x3ebfce1e	0.37461942
22	0xbda3645a	-0.07978125
23	0xbfa540f3	-1.2910446
24	0xbf6daf22	-0.92845356
25	0x3ee2d24a	0.44301063
26	0xbe441ef4	-0.19152433
27	0xbf24d4cd	-0.6438721
28	0xbde14dba	-0.11001153
29	0xbe255314	-0.16144973
30	0xbea691d3	-0.3253313
31	0x3f928e31	1.1449643

pixel_patch_embedding.weight f4 [32, 30]
0	0x3e103950	0.14084363
1	0xbd9610e5	-0.07327441
2	0x3e277c6e	0.1635606
3	0x3dca1bb4	0.09868565
4	0xbd6c0796	-0.057624422
5	0x3e12f9ec	0.1435315
6	0x3d2b8844	0.041878
7	0x3d67c2c4	0.056582227
8	0x3da9223c	0.08258483
9	0x3a6a3700	0.0008934587
10	0x3ca96d90	0.020682126
11	0xbd32f080	-0.04368639
12	0x3c47f5a0	0.012204558
13	0xbe18a12b	-0.1490523
14	0xbe2e8c59	-0.17045726
15	0xbc0acc10	-0.008471504
16	0x3d978c10	0.07399762
17	0x3d959ec8	0.07305676
18	0xbe0e9e72	-0.1392763
19	0x3caa5720	0.020793498
20	0x3e0b339a	0.13593903
21	0x3dd68834	0.104751974
22	0xbd0b4ff4	-0.034011796
23	0x3e1fb5ea	0.15596738
24	0x3d151f70	0.036406934
25	0xbca48cb0	-0.020086616
26	0x3ad5b200	0.0016303658
27	0x3cadc418	0.021211669
28	0x3de769b8	0.11299461
29	0x3e217af6	0.15769562
30	0x3e21a00e	0.15783712
31	0xbe34b90f	-0.17648719
32	0x3d0e70f4	0.03477569
33	0xbd90c7ee	-0.070693836
34	0x3c8d6620	0.017260611
35	0x3dc1f94c	0.09471378
36	0x3d333d74	0.04375978
37	0xbdc65fc9	-0.09686238
38	0xbe3af017	-0.1825565
39	0x3da6a1dc	0.08136341
40	0x3e180afe	0.14847943
41	0xbdd71753	-0.105024956
42	0x3e1ef704	0.15523916
43	0xbbf349e0	-0.007424578
44	0xbcce6130	-0.025192827
45	0xbc51e1e0	-0.0128102
46	0xbd6d4c18	-0.057933897
47	0x3cf26108	0.029587284
48	0x3d803e38	0.06261867
49	0xbb856760	-0.004071161
50	0x3d86b8bc	0.06578204
51	0xbe1f062b	-0.15529697
52	0xbdc3cdbb	-0.09560724
53	0xbd9d2c56	-0.07674472
54	0xbe2146a8	-0.1574961
55	0xbdc508ef	-0.096208446
56	0xba05fd00	-0.00051112473
57	0xbcde65b8	-0.027148113
58	0x3e15ced6	0.14629683
59	0xbc4f9a00	-0.012670994
60	0x3e2cf8f8	0.16891849
61	0xbce2add8	-0.027670786
62	0x3de13038	0.10995525
63	0x3e237e50	0.15966153
64	0xbe081608	-0.13289654
65	0x3ce7aeb8	0.028281555
66	0x3df722c4	0.12067178
67	0x3e1dc1d0	0.15405965
68	0x3de2ec30	0.110802054
69	0x3da64d68	0.08120233
70	0xbe01dfef	-0.1268308
71	0xbd262050	-0.04055816
72	0xbdaa2c61	-0.08309246
73	0xbd58fee4	-0.052977458
74	0x3c616a80	0.013758302
75	0xbcbe8090	-0.023254663
76	0xbceba0a0	-0.028763115
77	0x3b882740	0.0041550696
78	0x3b15efc0	0.0022878498
79	0xbd7a5574	-0.06111665
80	0x3e313f24	0.17309242
81	0x3daa1388	0.083045065
82	0xbd79a146	-0.060944818
83	0xbd2e0a68	-0.042490393
84	0x3dcc94c8	0.09989315
85	0xbe19b0ae	-0.15008804
86	0x3d343a94	0.044001177
87	0xbe0dd13b	-0.13849346
88	0xbe31818b	-0.17334573
89	0xbe04be57	-0.12963234
90	0xbe3330ba	-0.17499056
91	0xbe177484	-0.14790541
92	0xbe32024a	-0.17383686
93	0x3d032764	0.032019988
94	0xbe07c688	-0.13259327
95	0xbcf377e8	-0.029720262
96	0x3e2e77da	0.17037907
97	0xbd4ebda8	-0.05047384
98	0x3b41ca40	0.0029570013
99	0xbd662968	-0.05619183
100	0xbd847523	-0.064676546
101	0x3d815424	0.06314877
102	0x3e24fb14	0.16111404
103	0xbe33da81	-0.17563821
104	0xbdbe7dc5	-0.093013324
105	0x3dd90774	0.10597125
106	0x3d7b4348	0.06134346
107	0x3c9405a0	0.018069088
108	0x3d596ac4	0.053080335
109	0x3de2b620	0.11069894
110	0xbc75b310	-0.014996305
111	0xbd1b071c	-0.037848577
112	0x3d8f8db8	0.070094526
113	0xbe178e4e	-0.14800379
114	0x3d944bfc	0.07241055
115	0x3d4e299c	0.05033265
116	0xbdf1d2a0	-0.11807752
117	0xbcce8710	-0.025210887
118	0x3dbe2904	0.09285167
119	0xbe2f319b	-0.17108767
120	0xbd8027bc	-0.06257579
121	0x3e07dec4	0.13268572
122	0xbdcdeb1a	-0.10054608
123	0x3dc4fc54	0.0961844
124	0x3aaed380	0.0013338178
125	0xbe034ac7	-0.12821494
126	0xbe0222ae	-0.12708542
127	0xbe03c5c5	-0.12868412
128	0xbe23f231	-0.16010357
129	0xbc04d490	-0.0081073195
130	0xbe1b1bb9	-0.15147294
131	0xbd3ae188	-0.04562524
132	0x3e1ccfb8	0.15313613
133	0xbc64d8c0	-0.013967693
134	0xbe234671	-0.1594484
135	0x3d268174	0.0406508
136	0xbe13c189	-0.14429297
137	0xbe39f65e	-0.18160388
138	0x3e20782c	0.15670842
139	0x3daa0780	0.08302212
140	0xbdc7c2c4	-0.097539455
141	0xbe134f75	-0.14385779
142	0xbe1f3687	-0.15548144
143	0xbc8f51f8	-0.01749514
144	0x3d85a4da	0.065255836
145	0xbe0dc43d	-0.1384439
146	0x3dfde848	0.1239782
147	0x3e197044	0.14984232
148	0xbe184ce9	-0.14873089
149	0xbe03c062	-0.12866357
150	0xbd2122e8	-0.03933993
151	0xbd16c754	-0.036811188
152	0x3e1200dc	0.1425814
153	0xbce37128	-0.027763918
154	0x3df8d354	0.12149683
155	0x3e037c8e	0.12840483
156	0xbd219efc	-0.03945826
157	0x3e2b085e	0.1670241
158	0xbe23983e	-0.15976045
159	0x3d805530	0.06266248
160	0x3e17cc9c	0.14824146
161	0x3e1aa34a	0.15101352
162	0x3dc8eb4c	0.09810504
163	0x3da209e0	0.0791204
164	0x3df9c0c8	0.12194973
165	0xbe18e280	-0.14930153
166	0xbd9fc8ef	-0.07801997
167	0xbdb61530	-0.0889076
168	0x3cf6e900	0.0301404
169	0xbd5abfc4	-0.05340554
170	0xbd94d31d	-0.07266829
171	0xbd9c2def	-0.07625949
172	0x3e0db6d4	0.13839275
173	0x3dff859c	0.12476656
174	0x3dac97ec	0.08427414
175	0x3e04542a	0.12922731
176	0x3da5c058	0.08093327
177	0xbe05bc56	-0.13060126
178	0xbc668510	-0.0140698105
179	0x3e0a4eea	0.13506666
180	0x3cdc5cc8	0.02689971
181	0xbdb5391e	-0.08848785
182	0x3bd8b4a0	0.006613329
183	0xbd911bd8	-0.07085389
184	0x3e1a2a38	0.15055168
185	0x3c2539f0	0.010084614
186	0x3d89eb22	0.06734301
187	0x3db10e8c	0.08645353
188	0x3e334b0a	0.17509094
189	0xbd6f15c8	-0.05837038
190	0xbd89e429	-0.06732971
191	0xbc1edf10	-0.009696737
192	0xbd8b31e8	-0.06796628
193	0x3e200aa6	0.15629062
194	0xbc8f54a0	-0.017496407
195	0x3e3a7b1a	0.18211022
196	0xbce71188	-0.028206602
197	0x3dd44f38	0.10366672
198	0xbe060fe0	-0.13091993
199	0xbc9ae6f8	-0.018908963
200	0x3d6b8808	0.057502776
201	0x3d6041f8	0.054750413
202	0xbda012af	-0.078160636
203	0xbe356fc2	-0.17718413
204	0x3df80b7c	0.121115655
205	0xbd907dd1	-0.070552476
206	0x3e08023c	0.13282102
207	0x3d401b8c	0.04690127
208	0x3d7d668c	0.061865374
209	0x3cf1cd90	0.029516965
210	0xbe2c3b6e	-0.16819546
211	0x3db09e40	0.08623934
212	0xbd6bb448	-0.057544976
213	0x3d2a2cbc	0.04154657
214	0x3d8e8260	0.06958461
215	0xbe11c644	-0.14235789
216	0x3dea41e0	0.11438346
217	0x3d136a00	0.03598976
218	0xbbece260	-0.0072291344
219	0xbd625830	-0.055259883
220	0x3ca4a288	0.020097032
221	0x3e08e8dc	0.13370079
222	0x3c8a06c8	0.016848937
223	0xbe229682	-0.15877727
224	0xbdf13b1a	-0.11778851
225	0x3c93fc78	0.018064722
226	0xbe2b4a6c	-0.16727608
227	0xbd859393	-0.06522288
228	0x3de91af4	0.11382094
229	0xbe2eab3c	-0.17057508
230	0xbdb826e1	-0.089917906
231	0x3b02c700	0.001995504
232	0x3d5b06ec	0.053473398
233	0xbe02d5be	-0.12776849
234	0xbd97a2de	-0.07404111
235	0xbdb209d5	-0.086932816
236	0xbd33e210	-0.043916762
237	0xbde5a151	-0.11212409
238	0x3d92806c	0.07153401
239	0x3a26f800	0.00063693523
240	0x3e0e892c	0.13919514
241	0x3d588914	0.052865103
242	0xbe1421a8	-0.14465964
243	0xbda57be9	-0.080802746
244	0xbda03dc3	-0.0782428
245	0xbc625360	-0.013813823
246	0x3caed870	0.02134344
247	0xbe3aebeb	-0.18254058
248	0x3dae37e4	0.08506754
249	0xbe23c52f	-0.15993188
250	0xbe0f8c86	-0.14018449
251	0x3da021f0	0.07818973
252	0x3e007426	0.12544307
253	0xbdd1364f	-0.10215437
254	0xbcb16810	-0.021656066
255	0xbe0169fe	-0.12638089

pixel_patch_embedding.bias f4 [32]
0	0xbe380237	-0.17969595
1	0x3dcfc558	0.10145062
2	0xbdbd5ac8	-0.09245831
3	0xbd90162e	-0.070354804
4	0x3d8ff450	0.07029021
5	0xbd96a0e9	-0.0735491
6	0x3d8fb904	0.07017711
7	0x3e35b084	0.17743117
8	0xbe207825	-0.15670832
9	0x3d4c0608	0.04981044
10	0xbe238de0	-0.1597209
11	0xbe04a040	-0.12951756
12	0xbdea1ffa	-0.1143188
13	0x3dffc620	0.12488961
14	0xbdede4b3	-0.116158865
15	0x3b0592c0	0.002038166
16	0xbe115e64	-0.14196163
17	0xbc6ab3a0	-0.0143250525
18	0xbbce4640	-0.0062949955
19	0xbe38aed8	-0.18035448
20	0xbd7747be	-0.060371153
21	0xbda2cfab	-0.07949766
22	0x3d0ec054	0.034851387
23	0x3da95cc8	0.0826965
24	0xbe0e69b1	-0.13907506
25	0xbdf1d4f1	-0.118081935
26	0x3e13752a	0.14400163
27	0x3d1c3444	0.038135782
28	0xbde682ae	-0.11255394
29	0x3df93f4c	0.12170276
30	0xbd49cbbc	-0.049266562
31	0x3d4d19d8	0.050073475

local_trans_pixel.layers.0.0.fn.norm.weight f4 [32]
0	0x3f90b200	1.1304321
1	0x3f8cbeac	1.0995688
2	0x3f8ccd98	1.1000242
3	0x3f8e0561	1.1095392
4	0x3f922f07	1.1420602
5	0x3f89912c	1.0747428
6	0x3f8ca958	1.098918
7	0x3f8f87b7	1.1213292
8	0x3f8e02ba	1.1094582
9	0x3f91f68a	1.1403363
10	0x3f86d6bc	1.0534282
11	0x3f8b5de8	1.0888033
12	0x3f9187d9	1.1369582
13	0x3f99fffb	1.2031244
14	0x3f88d03d	1.0688549
15	0x3f8a9606	1.0827034
16	0x3f8da20c	1.1065078
17	0x3f9757f0	1.1823711
18	0x3f956921	1.1672708
19	0x3f8b4e9b	1.0883363
20	0x3f8b990c	1.0906081
21	0x3f920679	1.1408225
22	0x3f920cb1	1.1410123
23	0x3f86d67b	1.0534204
24	0x3f93a660	1.1535149
25	0x3f9cf52e	1.2262323
26	0x3f90b988	1.130662
27	0x3f9252e2	1.1431544
28	0x3f8fd5df	1.1237143
29	0x3f917d12	1.1366293
30	0x3f925bd6	1.1434276
31	0x3f9888fe	1.1916807

local_trans_pixel.layers.0.0.fn.norm.bias f4 [32]
0	0x3c812796	0.015765946
1	0x3d1ac9fb	0.03779028
2	0xbd38f2f6	-0.04515358
3	0xbd0588db	-0.03260122
4	0xbd9dbb81	-0.07701779
5	0x3d560f50	0.052260697
6	0xbd8dabd3	-0.069175385
7	0x3d8d9259	0.06912679
8	0xbdd8832d	-0.10571895
9	0xbda4e18b	-0.080508314
10	0xbc0b0a13	-0.008486289
11	0xbd53e579	-0.051732514
12	0xbc771626	-0.015080964
13	0x3ccfa37f	0.025346516
14	0x3db023a9	0.08600552
15	0x3ccaccd1	0.024755867
16	0x3d579731	0.05263442
17	0xbccfd183	-0.025368458
18	0xbcc07e84	-0.023497827
19	0x3d32bbb3	0.043636035
20	0xbd373aa4	-0.04473366
21	0xbd9c9bc7	-0.076469
22	0x3d591aee	0.053004198
23	0x3c60aaf8	0.013712637
24	0x3ca5b1aa	0.020226318
25	0xbdc1d5ff	-0.09464645
26	0x3d534607	0.051580455
27	0xbdb5b9b1	-0.088733084
28	0xbbc8ab9a	-0.006123972
29	0xbd8dc1eb	-0.069217525
30	0x3d88fe75	0.06689159
31	0x3d50dbbe	0.050990812

local_trans_pixel.layers.0.0.fn.fn.to_qkv.weight f4 [768, 32]
0	0xbe2a2e79	-0.1661929
1	0x3bf17c66	0.007369566
2	0x3d9071d7	0.07052963
3	0xbd9122e2	-0.070867315
4	0xbdca1454	-0.098671585
5	0x3df5361a	0.1197321
6	0xbe372bd0	-0.17887807
7	0x3dd04497	0.101693325
8	0x3d9749a8	0.07387096
9	0x3c853d32	0.016264532
10	0xbe4d7ea1	-0.20067836
11	0x3dbb2a40	0.09138918
12	0x3dbc59b4	0.09196797
13	0xbdc6b697	-0.09702795
14	0x3d79f8c2	0.06102825
15	0x3e7495d7	0.23885284
16	0xbe366e8b	-0.17815606
17	0x3dc70c91	0.09719194
18	0x3e3494ad	0.1763484
19	0x3d044139	0.032288764
20	0x3df171d6	0.117892906
21	0x3cd85c59	0.026411222
22	0xbdb33f5b	-0.087523185
23	0xb92bcaa5	-0.00016383322
24	0xbe27df33	-0.16393737
25	0xbd8135f6	-0.0630912
26	0x3d98729a	0.074437335
27	0x3d5bb0df	0.053635474
28	0x3c9eb329	0.01937254
29	0xbd0f25bb	-0.034948092
30	0x3de1406b	0.10998615
31	0xbe4b64e3	-0.19862704
32	0xbe2343e8	-0.15943873
33	0x3a34f685	0.00069031894
34	0xbc4ac41c	-0.012375858
35	0x3d574388	0.052554637
36	0x3b40e689	0.0029434285
37	0xbe3f009b	-0.18652575
38	0x3cb9b07a	0.022667158
39	0x3e251235	0.16120227
40	0x3e8c065d	0.27348605
41	0x3d1e5a4a	0.038660325
42	0x3de8f45d	0.113747336
43	0xbe21cb95	-0.15800317
44	0xbd63ab5a	-0.055583335
45	0xbe79d786	-0.24398622
46	0xbcd16aa3	-0.025563544
47	0xbe241c76	-0.16026482
48	0xbdb3c1d6	-0.08777206
49	0xbe219f61	-0.15783454
50	0x3e9aab7d	0.3020896
51	0x3c2d5a1c	0.010580566
52	0xbce9c14d	-0.028534556
53	0xbbf88ce3	-0.0075851544
54	0xbe06dab4	-0.13169366
55	0xbdf5732f	-0.1198486
56	0x3c623dd2	0.013808684
57	0x3e824a37	0.25447246
58	0x3db4d896	0.08830373
59	0x3ce8482a	0.028354723
60	0x3e59c790	0.21267533
61	0x3c8b38a2	0.016994778
62	0xbdeab09b	-0.11459466
63	0xbe60f031	-0.21966626
64	0xbc4c2eb1	-0.012462304
65	0xbdf0d73e	-0.11759804
66	0xbde9554d	-0.11393223
67	0xbe4a61fa	-0.19763938
68	0xbe162968	-0.14664233
69	0xbd06d214	-0.03291519
70	0xbe2ed109	-0.17071928
71	0x3df51fd9	0.11968965
72	0xbe359ca7	-0.1773554
73	0x3df0a462	0.117501035
74	0xbd610c88	-0.05494359
75	0x3dcb1a62	0.099171415
76	0xbdc60b5c	-0.096701354
77	0x3d0419e3	0.03225125
78	0xbdef98ae	-0.11699043
79	0x3dabed90	0.08394921
80	0xbb1c5187	-0.0023852305
81	0xbb54b63c	-0.0032457253
82	0xbe48e394	-0.19618064
83	0xbe01d911	-0.1268046
84	0x3d99963a	0.074993566
85	0xbe174b0d	-0.14774723
86	0x3e437ef1	0.19091393
87	0xbccb3502	-0.02480555
88	0x3e005b42	0.12534812
89	0x3b10fd64	0.0022123689
90	0xbd2a38e5	-0.041558165
91	0xbe8d1825	-0.27557483
92	0xbc41746d	-0.011807543
93	0x3c88e54d	0.016710902
94	0x3d7dd1f5	0.06196781
95	0x3de634d2	0.112405434
96	0xbe185243	-0.1487513
97	0xbc32236e	-0.010872705
98	0x3d85b83a	0.06529279
99	0xbc4656de	-0.012105672
100	0x3e161c38	0.14659202
101	0x3897da7e	7.2409384e-05
102	0x3de5a650	0.11213362
103	0xbd854a95	-0.06508366
104	0x3e4ddb34	0.2010315
105	0xbe1140ba	-0.14184847
106	0x3de3c5a2	0.1112168
107	0xbce86273	-0.028367257
108	0x3e1a0ce6	0.15043983
109	0x3c423c44	0.011855189
110	0xbdcbe53c	-0.09955832
111	0xbc9fa6e3	-0.019488757
112	0x3e0c41c0	0.13696957
113	0x3dcec55a	0.100962356
114	0x3dcb7281	0.09933949
115	0x3b4a7d4d	0.003089744
116	0x3d66fd63	0.056393992
117	0xbd23197e	-0.039819233
118	0xbca67f63	-0.020324415
119	0xbdb084e5	-0.086190976
120	0xbe131091	-0.14361788
121	0xbdce83ae	-0.1008371
122	0xbe19b487	-0.15010272
123	0x3dbd6e9a	0.09249611
124	0xbd09b892	-0.033623286
125	0x3e09f81f	0.13473557
126	0xbdb6fe5d	-0.08935235
127	0xbcef2a62	-0.029195014
128	0xbe0db897	-0.13839947
129	0xbe00dc63	-0.12584071
130	0xbd9f1003	-0.07766726
131	0x3dd8d966	0.105883405
132	0x3b8dd5fe	0.0043284884
133	0x3d488007	0.04895022
134	0x3e07f71d	0.1327786
135	0xbe1b45a7	-0.15163289
136	0x3d962083	0.0733042
137	0x3e4e4d27	0.20146619
138	0xbd1cb658	-0.038259834
139	0x3e24f14b	0.16107671
140	0x3c2059d6	0.009787044
141	0x3c9b4713	0.01895479
142	0xbcd1182e	-0.025524225
143	0x3dd98b26	0.106222436
144	0x3dbe7286	0.09299187
145	0x3c9b0be9	0.018926578
146	0x3e369b22	0.17832616
147	0xbe17c375	-0.14820655
148	0x3e5960a4	0.21228272
149	0xbcde101b	-0.027107289
150	0x3d469752	0.048484154
151	0x3dcacbed	0.09902177
152	0x3de42231	0.11139334
153	0xbd810b2c	-0.06300959
154	0xbccf0efd	-0.025275702
155	0x3e178478	0.14796627
156	0x3b98d112	0.004663595
157	0xbdc5cd78	-0.09658331
158	0x3e18e420	0.14930773
159	0xbc22a574	-0.009927142
160	0xba09f2cf	-0.00052623166
161	0xbd3eb54f	-0.046559628
162	0x3ddeac1a	0.108726695
163	0xbe0b9723	-0.13631873
164	0x3e27761b	0.16353647
165	0xbda62e7f	-0.08114337
166	0x3e299fd0	0.1656487
167	0x3e258e16	0.16167483
168	0xbbb0ba7e	-0.0053933254
169	0xbe40104e	-0.1875622
170	0xbd7196e3	-0.058981787
171	0x3e7ea1f2	0.24866465
172	0x3d1bbb15	0.038020212
173	0xbca1bc80	-0.019743204
174	0xbe400e8f	-0.18755554
175	0x3e6cba78	0.23118007
176	0x3e2c6743	0.16836266
177	0x3dbb5da5	0.09148721
178	0xbc945633	-0.01810751
179	0x3d9c17aa	0.07621701
180	0xbe02e0de	-0.12781093
181	0x3d23a24f	0.03994971
182	0x3dd060e9	0.10174734
183	0x3d2adb72	0.041713186
184	0xbd038942	-0.03211332
185	0x3d43dbe4	0.047817126
186	0x3df895ca	0.12137945
187	0x3d3de49a	0.04636059
188	0xbe13431d	-0.1438107
189	0xbe711225	-0.23542078
190	0xbda05587	-0.07828813
191	0xbde97502	-0.113992706
192	0xbbd33e2f	-0.006446622
193	0x3e41c19c	0.18921512
194	0xbd91f51d	-0.0712683
195	0xbd3b5859	-0.04573855
196	0xbc29a6b3	-0.010354686
197	0x3c9239c4	0.01784981
198	0xbde32ff9	-0.110931344
199	0x3e192676	0.14956078
200	0x3e1434e6	0.14473304
201	0x3d9702d9	0.0737359
202	0xbe0b31c9	-0.1359321
203	0xbd6956e0	-0.056967616
204	0xbd8624cf	-0.065499894
205	0xbe085369	-0.13313068
206	0xbd2488bf	-0.040169474
207	0xbe17388e	-0.14767668
208	0xbe1c4c07	-0.15263377
209	0x3dedea0f	0.11616909
210	0x3e9a3fa9	0.30126694
211	0x3d4cc630	0.049993694
212	0x3e219e31	0.15783001
213	0x3c9003f8	0.017580017
214	0xbd072624	-0.032995358
215	0xbd21a4a9	-0.039463673
216	0x3d6ea325	0.058261055
217	0x3d200211	0.03906447
218	0x3cba160d	0.022715593
219	0xbdbfa0eb	-0.093568645
220	0xbdd0cedb	-0.101957045
221	0xbdb7e5ce	-0.08979379
222	0x3dd198ff	0.1023426
223	0xbe2276ea	-0.15865675
224	0xbca1cbcd	-0.0197505
225	0x3e3481ae	0.17627594
226	0xbce64f1d	-0.028113896
227	0x3c58d6b3	0.013234782
228	0xbd9714ea	-0.07377036
229	0x3e4dba52	0.20090607
230	0x3dac8cbc	0.084252805
231	0x3cbdb10e	0.023155715
232	0xbe40b7c0	-0.18820095
233	0xbc8353b4	-0.016031124
234	0xbe0278c7	-0.12741385
235	0xbe0d994e	-0.13828012
236	0xbd1f5280	-0.038897038
237	0xbe033f0b	-0.12817018
238	0x3e5291fb	0.205635
239	0x3d182110	0.037140906
240	0x3de612e6	0.11234073
241	0x3db79ad9	0.08965082
242	0x3d0f9fda	0.035064556
243	0xbde263cb	-0.1105419
244	0xbe3d66d1	-0.18496253
245	0xbdd02eee	-0.10165201
246	0x3e06a665	0.13149412
247	0xbc9b0bb1	-0.018926473
248	0x3e0f26b5	0.1397961
249	0x3c94c2a1	0.018159213
250	0xbd21e0c7	-0.039521005
251	0xbe3e61b9	-0.18591966
252	0xbe1b6f69	-0.15179218
253	0xbd7dd038	-0.06196615
254	0x3e127586	0.14302644
255	0xbd2840a0	-0.041077256

local_trans_pixel.layers.0.0.fn.fn.to_out.0.weight f4 [32, 256]
0	0xba0d8420	-0.00053984113
1	0x3c5567b0	0.013025209
2	0x3c22f18c	0.009945285
3	0x3dd31560	0.10306811
4	0x3ddf0896	0.108903095
5	0xbd2e01c8	-0.042482167
6	0x3d9918ed	0.07475457
7	0xbd0b163c	-0.03395675
8	0x3e146337	0.14490972
9	0x3cf7b979	0.030239807
10	0x3dae9d43	0.08526089
11	0xbd9f5425	-0.07779721
12	0x3d0e8ade	0.034800403
13	0x3d65bbd8	0.056087345
14	0xbe00fa2b	-0.12595432
15	0x3d33a822	0.043861516
16	0x3ddd70cc	0.1081253
17	0x3dd56bed	0.10420976
18	0x3d41d4ae	0.047321968
19	0x3e005c42	0.12535194
20	0xbd80a746	-0.06281905
21	0xbd54362b	-0.05180947
22	0x3b7919f5	0.0038009856
23	0xbcf96727	-0.030444695
24	0xbd03f58e	-0.0322166
25	0xbd6687fa	-0.05628202
26	0x3d855ee4	0.065122396
27	0xbc5cd1d7	-0.013477764
28	0xbdca23ed	-0.098701335
29	0x3db0e8a3	0.08638122
30	0xbd9bc632	-0.07606162
31	0xbd52eb77	-0.051494088
32	0xbd271992	-0.04079587
33	0xbc691e59	-0.014228427
34	0xbe036ffa	-0.12835684
35	0xbd34bb1b	-0.04412375
36	0xbcf68b1d	-0.030095631
37	0x3d91b396	0.071143314
38	0x3dfc498d	0.12318716
39	0xbd28820c	-0.041139647
40	0x3b1d3810	0.0023989715
41	0x3c281140	0.010258019
42	0xbcda9423	-0.026681965
43	0x3ac7927f	0.0015226154
44	0xbab03a4b	-0.0013445107
45	0x3cda7422	0.026666705
46	0xbd1651a1	-0.03669894
47	0xbd820593	-0.063487194
48	0xbc90fe2a	-0.01769932
49	0x3c4863c0	0.0122308135
50	0xbcf5f466	-0.030023765
51	0x3cb5f4b5	0.022211412
52	0x3d6ad85a	0.057335235
53	0x3d6e7829	0.058220062
54	0x3dae7ffc	0.08520505
55	0x3bee9459	0.007280868
56	0x3cf70939	0.030155765
57	0x3d91fc41	0.07128192
58	0x3c4ec128	0.012619294
59	0xbd05297b	-0.032510262
60	0xbb094658	-0.002094647
61	0xbb67357f	-0.003527969
62	0xbda8252e	-0.082102165
63	0xbcd5b87f	-0.026088951
64	0x3d7cb825	0.06169905
65	0x3dadac6b	0.08480152
66	0xbca51d84	-0.020155676
67	0xbb8947e3	-0.004189478
68	0xbd4f59e7	-0.050622847
69	0x3d3739e6	0.04473295
70	0x3ce18689	0.027529972
71	0x3d71dc2e	0.05904787
72	0x3da04299	0.078252025
73	0xbcd9fc9b	-0.02660971
74	0xbd6cfb44	-0.057856813
75	0x3df90856	0.12159793
76	0xbc02df02	-0.0079877395
77	0xbd0b9909	-0.034081493
78	0x3d9bea3a	0.076130345
79	0x3dc06f42	0.09396221
80	0xbc9b0a23	-0.018925732
81	0xbdf6ae4f	-0.120449655
82	0x3dc99fca	0.098449305
83	0x3df2252c	0.11823496
84	0xbd07228c	-0.03299193
85	0x3db77a85	0.089589156
86	0x3d52447f	0.051334854
87	0xbcc19aaa	-0.02363332
88	0xbc8662ce	-0.016404536
89	0x3d19af59	0.03752074
90	0x3d1961f0	0.037446916
91	0xbdc02a2b	-0.09383043
92	0x3d08e34a	0.033419885
93	0x3d065e3c	0.032804713
94	0xbc96e63c	-0.018420331
95	0xbd9b5b56	-0.0758578
96	0xbc92b5e2	-0.017908994
97	0xbb91b4e3	-0.004446612
98	0x3dc0d0ac	0.09414801
99	0xbd29641f	-0.04135525
100	0x3dc7b459	0.097511955
101	0xbc735296	-0.014851233
102	0xbd8c489f	-0.06849789
103	0xbcbe3014	-0.023216285
104	0x3d4b8377	0.04968592
105	0x3dea9e1f	0.114559405
106	0x3c945c6c	0.018110476
107	0x3d9aa59d	0.075511195
108	0xbcd9cec3	-0.02658785
109	0x3df59754	0.11991754
110	0xbcf4a3a5	-0.029863188
111	0xbd54d562	-0.05196131
112	0xbdf17398	-0.11789626
113	0x3c1e96da	0.0096795205
114	0xbd06f37a	-0.03294704
115	0x3d067389	0.032825027
116	0x38d9e134	0.00010389314
117	0x3d1f27be	0.03885626
118	0xbc83f136	-0.01610623
119	0x3d102550	0.035191834
120	0x3d2406ac	0.040045425
121	0xbca20931	-0.019779773
122	0x3d9526c4	0.072827846
123	0xbb61ad5f	-0.0034435613
124	0x3db3ea7f	0.08784961
125	0x3df8cbde	0.121482596
126	0xbb27561c	-0.0025533503
127	0x3da4e551	0.08051551
128	0x3cde1301	0.027108671
129	0xbd36f0f4	-0.044663385
130	0xbb89996b	-0.004199197
131	0xbd9d555c	-0.07682297
132	0x3e025258	0.12726724
133	0xbdafa439	-0.08576245
134	0x3d2dfb85	0.042476196
135	0xbcf75fba	-0.030197013
136	0xbb995194	-0.0046789143
137	0xbdcc67c8	-0.09980732
138	0xbd3e06d7	-0.04639324
139	0xbce47087	-0.027885688
140	0x3c128d9d	0.008944896
141	0xbd319b38	-0.04336092
142	0xbd1cd334	-0.038287356
143	0xbd3ef91d	-0.04662429
144	0xbcb53e9b	-0.02212458
145	0x3d98abf5	0.07454673
146	0x3dc7a8c9	0.0974899
147	0x3d44f4fe	0.048085205
148	0x3d25a398	0.04043922
149	0xbd009806	-0.03139498
150	0xbc28f6f9	-0.010312789
151	0xbd428147	-0.04748657
152	0x3da2e7ad	0.07954345
153	0xbd917c8d	-0.07103834
154	0x3dc00637	0.093761854
155	0xbd0668b3	-0.032814693
156	0xbb6d95f1	-0.0036252702
157	0x3d3c4016	0.045959555
158	0x3dd43d8a	0.103633
159	0x3c19293e	0.009348212
160	0xbc7f8730	-0.015596196
161	0x3dd65824	0.1046603
162	0xbdc44d3e	-0.09585045
163	0x3d819106	0.06326489
164	0x3d92c629	0.07166702
165	0xbd8f1fa3	-0.06988456
166	0x3bd1f6da	0.006407601
167	0xbcbd640b	-0.023118993
168	0x3d21448c	0.039372012
169	0x3d2f813b	0.042847853
170	0xbc4c21e1	-0.012459249
171	0x3c751409	0.01495839
172	0xbd46550b	-0.048420947
173	0xbd8556e1	-0.065107115
174	0xbda02471	-0.07819451
175	0x3c197bc2	0.009367885
176	0xbd7df904	-0.062005058
177	0xbcd4c56b	-0.025973042
178	0xbdae0f39	-0.08498997
179	0xbca28889	-0.019840496
180	0xbd31ab8e	-0.043376498
181	0x3d4450cc	0.047928616
182	0xbd47caa0	-0.048777223
183	0x3caa0059	0.020752119
184	0x3d04aaeb	0.032389563
185	0xbd3b6034	-0.045746043
186	0xbd6b991b	-0.05751906
187	0xbd8a17db	-0.06742831
188	0xbd9239de	-0.071399435
189	0x3d647435	0.055774886
190	0xbd770bbf	-0.060313936
191	0x3d081e55	0.033232052
192	0x3dee4fd9	0.116363235
193	0x3bee0539	0.007263806
194	0xbd9010b3	-0.07034435
195	0xbcee383e	-0.029079553
196	0x3d368aef	0.04456609
197	0x3d5e7061	0.05430639
198	0x3c2ddede	0.010612218
199	0xbd360bc9	-0.044444833
200	0x3d8574a7	0.0651639
201	0x3d809140	0.06277704
202	0x3d61e115	0.055146296
203	0x3ccdcfd1	0.025123509
204	0xbdaaed7a	-0.08346076
205	0xbd6aa55e	-0.057286613
206	0xbc87ec87	-0.016592277
207	0xbd1d2d9d	-0.03837358
208	0xbcfdf7e2	-0.031001989
209	0x3d404432	0.046940036
210	0xbcac9172	-0.021065447
211	0x3d387c26	0.045040272
212	0xbd585e11	-0.052824084
213	0x3cbe76e3	0.023250049
214	0xbcf2296b	-0.029560765
215	0x3d2ebae9	0.04265872
216	0x3d36c9bf	0.044625994
217	0x3d7efce0	0.06225288
218	0xbd52cb5c	-0.05146347
219	0xbd1851e1	-0.03718746
220	0x3b767bb6	0.0037610359
221	0x3cb37375	0.02190564
222	0x3c8c312e	0.017113294
223	0xbd5994e9	-0.053120527
224	0x3cff714b	0.031181952
225	0xbb297a7a	-0.0025860355
226	0x3db83b4d	0.08995686
227	0xbca10b0d	-0.01965859
228	0x3ca03d38	0.019560441
229	0xbc96c176	-0.018402796
230	0x3db28510	0.08716786
231	0x3df1d420	0.11808038
232	0x3b7817fc	0.0037856093
233	0x3d84519b	0.064608775
234	0x3d31f34b	0.043444913
235	0xbdd1c8ef	-0.10243403
236	0x3d89cb32	0.067282096
237	0x3d0e9608	0.03481105
238	0x3db12158	0.08648938
239	0x3d74a299	0.059725378
240	0xbcc5e06d	-0.024154866
241	0x3be5ada9	0.0070092273
242	0x3d492776	0.0491099
243	0x3c7ccf16	0.0154302325
244	0x3df573b8	0.11984962
245	0x3d56b6df	0.052420493
246	0xbd106c87	-0.03525975
247	0xbd37b05c	-0.044845924
248	0x3bc5546c	0.0060220268
249	0x3c892c99	0.016744899
250	0x3cae7e3b	0.021300426
251	0xbe01d318	-0.12678182
252	0x3dc61c1e	0.09673332
253	0xbd2e03e7	-0.04248419
254	0xbb489c5d	-0.0030610778
255	0x3ce31160	0.027718246

local_trans_pixel.layers.0.0.fn.fn.to_out.0.bias f4 [32]
0	0xbdc9d976	-0.098559305
1	0xbcd788cf	-0.026310353
2	0x3cde9c72	0.027174208
3	0x3c0b8f7b	0.008518095
4	0x3d49cf2d	0.049269844
5	0xbd772e47	-0.060346868
6	0xbd487721	-0.048941735
7	0xbd910981	-0.07081891
8	0x3d9e5ba0	0.0773232
9	0xbd7d97d0	-0.061912358
10	0x3d5167d5	0.051124413
11	0x3cff9c33	0.031202411
12	0x3daef43f	0.0854268
13	0xbb70c477	-0.0036738196
14	0xbcbdb1da	-0.023156095
15	0x3cbf5733	0.02335701
16	0xbd888738	-0.06666416
17	0xbd2220a6	-0.039581917
18	0xbc181c62	-0.009284111
19	0xbce38595	-0.027773658
20	0x3d809b86	0.06279664
21	0xbc97deb4	-0.01853881
22	0xbe162d1f	-0.1466565
23	0xbcbcc6a7	-0.023043944
24	0xbd5abaf4	-0.05340095
25	0xbce78747	-0.028262747
26	0xbb05e28a	-0.0020429217
27	0x3d263097	0.040573683
28	0x3d408d0e	0.04700952
29	0x3d692673	0.056921434
30	0x3c22809e	0.00991836
31	0xbcbe092f	-0.023197738

local_trans_pixel.layers.0.1.fn.norm.weight f4 [32]
0	0x3f820c0a	1.0159924
1	0x3f7de574	0.9917824
2	0x3f895272	1.0728285
3	0x3f8df291	1.108965
4	0x3f869abe	1.0515974
5	0x3f89e986	1.0774391
6	0x3f823436	1.0172184
7	0x3f822a3d	1.016914
8	0x3f806a38	1.0032415
9	0x3f98bce1	1.1932641
10	0x3f8fe35f	1.1241263
11	0x3f840848	1.0315027
12	0x3f922a63	1.1419185
13	0x3f8921d9	1.0713454
14	0x3f9165fa	1.1359246
15	0x3f8a06ca	1.0783322
16	0x3f8b870c	1.0900588
17	0x3f867f1e	1.0507543
18	0x3f8b6f09	1.089326
19	0x3f7bd439	0.983707
20	0x3f8f0093	1.117205
21	0x3f864152	1.0488684
22	0x3f97c13c	1.1855845
23	0x3f837480	1.0269928
24	0x3f8e66b3	1.1125091
25	0x3f853578	1.0406942
26	0x3f8ad502	1.0846255
27	0x3f8535c9	1.0407039
28	0x3f8abc41	1.08387
29	0x3f8f21e1	1.1182214
30	0x3f8e000d	1.1093765
31	0x3f9590e8	1.1684847

local_trans_pixel.layers.0.1.fn.norm.bias f4 [32]
0	0xbc8121d0	-0.015763193
1	0xbc3b2f85	-0.011424904
2	0xba163a1b	-0.0005730704
3	0xbc332ea1	-0.01093641
4	0x3c8fe4a1	0.017565073
5	0x3ce00ddd	0.02735036
6	0x3b197cf3	0.0023420423
7	0x3b86e16c	0.004116228
8	0xbb702c9f	-0.003664769
9	0x3adb0448	0.001670965
10	0x3cbb4578	0.022860274
11	0x3ad8e445	0.0016547522
12	0xbcea1284	-0.028573282
13	0xbbcf4cec	-0.0063263085
14	0xbc838bf4	-0.016057946
15	0xbcc7962b	-0.024363598
16	0xbca159ff	-0.019696234
17	0x3b90cbb8	0.0044188164
18	0x3d03b520	0.032155156
19	0xbc2f9f0a	-0.01071907
20	0x3b83f21f	0.004026666
21	0x3c86d48f	0.016458778
22	0xbd0ef8a7	-0.034905102
23	0x3cec1b29	0.028821545
24	0xbd7ed504	-0.062214866
25	0x3c9f4329	0.019441204
26	0xbb6a2d40	-0.0035732538
27	0x3cbfef79	0.02342962
28	0xbbd1378b	-0.006384795
29	0x3d159683	0.036520492
30	0x3cdfe98a	0.02733304
31	0x3c969586	0.018381845

local_trans_pixel.layers.0.1.fn.fn.net.0.weight f4 [8, 32]
0	0xbe590a4f	-0.21195339
1	0xbe18d2e0	-0.14924192
2	0x3e141ffc	0.14465326
3	0xbe87177b	-0.26385102
4	0x3cf9fec4	0.03051699
5	0x3e70856e	0.234884
6	0xbd1e067d	-0.038580406
7	0x3c0f2564	0.008736942
8	0x3d7ef15f	0.06224191
9	0xbe396237	-0.18103872
10	0x3e242c65	0.1603256
11	0x3e7079bf	0.23483942
12	0xbd3eb2ef	-0.046557363
13	0x3dceadea	0.10091765
14	0xbe2df024	-0.16986138
15	0xbe86a9af	-0.26301333
16	0x3d364ce8	0.044506937
17	0xbe11ffce	-0.14257738
18	0xbd3f0515	-0.046635706
19	0x3adb1758	0.0016715331
20	0x3e904fed	0.2818598
21	0xbe328e99	-0.17437209
22	0xbd56e1f8	-0.052461594
23	0x3e21f6cf	0.15816806
24	0xbe2a7796	-0.16647181
25	0x3d52b31f	0.051440354
26	0xbd5fe556	-0.05466207
27	0x3d82e083	0.063904785
28	0x3bfe53d2	0.007761457
29	0x3e4a26be	0.19741341
30	0xbc4f455a	-0.012650812
31	0xbd5a1d44	-0.053250566
32	0xbc237fff	-0.009979247
33	0x3d428f65	0.047500033
34	0x3c9bd55f	0.019022642
35	0xbc523849	-0.012830802
36	0xbe54c91e	-0.20779845
37	0xbd979653	-0.07401719
38	0xbb5db491	-0.003382955
39	0xbd16751a	-0.03673277
40	0xbe45232d	-0.192517
41	0xbd24032d	-0.04004209
42	0x3e5d3745	0.21603115
43	0x3dfa875b	0.12232848
44	0xbe836501	-0.25662997
45	0x3e7863f7	0.24256884
46	0xbe2a95a1	-0.16658641
47	0x3df7f2be	0.12106846
48	0x3e4f536a	0.20246664
49	0x3e2b5aef	0.16733907
50	0xbdbaf533	-0.09128799
51	0x3d88f8cc	0.06688079
52	0x3e2677bc	0.16256613
53	0xbe0f2f7f	-0.13982962
54	0x3e4ac631	0.19802167
55	0x3e278923	0.16360907
56	0x3db37f51	0.08764518
57	0xbdc3967c	-0.09550187
58	0xbc5aa832	-0.013345765
59	0xbe53b499	-0.20674361
60	0xbe05603d	-0.13024993
61	0xbe4bb599	-0.19893493
62	0xbe283fdc	-0.1643061
63	0xbbd2c4e4	-0.0064321626
64	0x3e0d8c4c	0.1382305
65	0x3d9170d3	0.07101598
66	0x3e6ca793	0.231108
67	0x3d35b8f4	0.04436584
68	0xbdcecfea	-0.1009825
69	0x3d88933a	0.06668706
70	0x3e35e695	0.17763741
71	0x3df565fd	0.11982343
72	0x3d6ec675	0.058294732
73	0x3de979a5	0.11400155
74	0x3dd6d4dd	0.10489819
75	0x3e151294	0.14557868
76	0x3e1012e6	0.14069709
77	0xbe563cb3	-0.20921592
78	0xbda2e437	-0.07953685
79	0x3e0c1c66	0.13682708
80	0x3d64f936	0.05590173
81	0x3cc8cae0	0.0245108
82	0xbd8f4dc9	-0.06997258
83	0x3d8befc9	0.06832845
84	0x3d8fb159	0.07016248
85	0xbe173e94	-0.14769965
86	0x3bb48862	0.005509422
87	0xbd6b74fa	-0.057484604
88	0x3cbbf0ea	0.022942025
89	0xbd9dcc9d	-0.077050425
90	0x3cc4b97c	0.024014227
91	0xbcb7b302	-0.022424225
92	0x3db9ce4d	0.09072552
93	0xbe452960	-0.19254065
94	0xbdff2ece	-0.12460099
95	0xbdb2c950	-0.087298036
96	0xbd61e554	-0.055150345
97	0xbe291320	-0.16511202
98	0x3e05d374	0.13068944
99	0x3d6e65bf	0.0582025
100	0x3d1d0904	0.038338676
101	0x3d8253bb	0.063636266
102	0x3d4c6965	0.0499052
103	0x3e2c459f	0.16823433
104	0xbdc505bf	-0.096202366
105	0x3dd61722	0.10453631
106	0x3d3e0f97	0.046401586
107	0x3d0070dc	0.03135763
108	0xbe230407	-0.15919505
109	0xbde200b4	-0.1103529
110	0xbe028878	-0.12747371
111	0xbdde4981	-0.108538635
112	0x3e231ab5	0.15928157
113	0x3dc580d3	0.09643712
114	0x3e07bc0c	0.13255328
115	0x3e510810	0.20413232
116	0xbe26440d	-0.16236897
117	0x3d8a43e3	0.067512296
118	0x3e31faa4	0.17380768
119	0xbe077cf8	-0.13231266
120	0xbe52dfab	-0.20593135
121	0x3e085d01	0.13316728
122	0x3e0a9790	0.13534379
123	0x3df5b349	0.119970866
124	0x3d8f5067	0.069977574
125	0x3dd1a0e9	0.10235769
126	0x3e330a2a	0.17484346
127	0x3e16ee06	0.14739236
128	0x3daf5deb	0.08562835
129	0x3c61138e	0.013737572
130	0x3d93a5a5	0.072093286
131	0xbe59d930	-0.21274257
132	0xbdc985be	-0.098399624
133	0xbdce42f0	-0.10071361
134	0x3d63b0ab	0.055588406
135	0x3e024b34	0.12724
136	0xbd67f5a2	-0.056630738
137	0x3e25c5a9	0.16188683
138	0x3d342ca1	0.043987874
139	0x3d15db83	0.036586296
140	0xbe3e7694	-0.18599921
141	0x3e10a6c3	0.14126115
142	0xbdf86948	-0.12129456
143	0xbda7d311	-0.081945546
144	0xbc117122	-0.008877071
145	0xbd7ae0fc	-0.061249718
146	0xbc390882	-0.011293532
147	0xbdb9207b	-0.09039398
148	0xbe39144b	-0.18074147
149	0x3c0e3ce2	0.008681508
150	0xbd6fc94a	-0.058541574
151	0xbc346b23	-0.0110118715
152	0xbdaa1dfa	-0.08306499
153	0xbcbad1ec	-0.022805177
154	0x3e6c42f5	0.23072417
155	0x3da39bc1	0.07988692
156	0x3d0f3f16	0.034972273
157	0x3dee8a98	0.116475284
158	0xbe217759	-0.15768184
159	0xbe4eb435	-0.20185931
160	0x3e2d3007	0.16912852
161	0xbd4756d7	-0.0486668
162	0xbdef1fd6	-0.11675994
163	0xbe4407a5	-0.19143541
164	0xbdd3c0b7	-0.10339492
165	0xbe748fad	-0.23882933
166	0xbd5eaa5f	-0.054361697
167	0xbe147848	-0.14499009
168	0xbd2f5fe0	-0.042816043
169	0x3e5e0009	0.21679701
170	0x3d573551	0.05254108
171	0xbe86bc0b	-0.2631534
172	0x3daa570b	0.083173834
173	0x3d8e3fef	0.06945788
174	0xbe027b99	-0.12742461
175	0x3d83cc9e	0.06435512
176	0x3db0be63	0.086300634
177	0x3d8191e3	0.06326654
178	0x3e4a7741	0.19772054
179	0x3d6f6dd3	0.058454346
180	0x3b50a225	0.0031834927
181	0x3e83b820	0.25726414
182	0x3e39123c	0.18073362
183	0x3e35a9d9	0.17740573
184	0xbde3031f	-0.1108458
185	0xbdc99074	-0.09842005
186	0x3d571b09	0.052516017
187	0x3d976b70	0.07393539
188	0x3e0856ca	0.13314357
189	0xbe5ba631	-0.21450116
190	0x3e16ad6c	0.14714593
191	0xbe6e577b	-0.23275559
192	0xbdca7bef	-0.0988692
193	0xbdd244b7	-0.102670126
194	0x3e3e3a82	0.18577006
195	0x3e2c39ec	0.1681897
196	0xbe0b7d11	-0.13621928
197	0xbdb525f2	-0.08845128
198	0xbe295b5a	-0.16538754
199	0xbe05beb3	-0.13061027
200	0x3e30184e	0.17196772
201	0x3e25beef	0.16186117
202	0xbbd499a1	-0.0064880406
203	0x3c8c9117	0.017159028
204	0xbda66fda	-0.08126803
205	0x3e0bb50e	0.13643286
206	0xbe19a782	-0.15005305
207	0xbd17d930	-0.03707236
208	0x3d8e3b57	0.06944912
209	0xbe1dc7af	-0.15408204
210	0x3dfc81bf	0.123294346
211	0xbe3028a4	-0.17203003
212	0xbdcddd98	-0.10052031
213	0xbc2850a6	-0.010273134
214	0xbd508a84	-0.05091335
215	0x3dfa71e9	0.12228758
216	0x3e37363e	0.17891786
217	0xbe309db5	-0.1724766
218	0xbda34cd0	-0.07973635
219	0x3e457cf4	0.19285947
220	0x3d537633	0.051626395
221	0xbe075fd5	-0.13220151
222	0xbe893aab	-0.26802573
223	0xbd032220	-0.032014966
224	0x3e06c4e4	0.13161045
225	0xbd81dab9	-0.06340546
226	0x3df5ad1f	0.11995911
227	0xbdd2dcab	-0.10295995
228	0xbd0deb8b	-0.03464846
229	0xbe1034ea	-0.14082685
230	0xbd33add2	-0.04386694
231	0xbc753ec6	-0.01496858
232	0x3d2abb33	0.041682433
233	0x3e4cb193	0.19989614
234	0xbdaaaf28	-0.0833419
235	0x3d0be503	0.03415395
236	0xbcc36add	-0.023854667
237	0x3da3ec15	0.080040134
238	0xbcb1d939	-0.021710025
239	0xbd29426e	-0.041323118
240	0x3e1de696	0.15419993
241	0xbdb34e16	-0.08755128
242	0xbe40df83	-0.18835263
243	0x3d552ba5	0.052043576
244	0xbdda1816	-0.10649125
245	0x3d563f31	0.052306358
246	0x3e966372	0.29372746
247	0xbcd15844	-0.025554784
248	0x3e5592c1	0.20856763
249	0xbe3e780b	-0.1860048
250	0x3e1883a6	0.1489397
251	0xbdd3406a	-0.103150204
252	0x3db91aa8	0.090382874
253	0xbe54d0f6	-0.20782837
254	0xbcd3e45d	-0.025865728
255	0xbe71cb62	-0.2361274

local_trans_pixel.layers.0.1.fn.fn.net.0.bias f4 [8]
0	0xbd61169e	-0.05495321
1	0x3de36b07	0.11104398
2	0xbde1862b	-0.11011919
3	0xbca62c36	-0.020284753
4	0xbdd7c520	-0.105356455
5	0x3e38b49b	0.18037646
6	0x3cf102d4	0.029420294
7	0x3b9477ba	0.004530874

local_trans_pixel.layers.0.1.fn.fn.net.3.weight f4 [32, 8]
0	0xbd9a7fd0	-0.075439095
1	0xbd45b170	-0.04826492
2	0x3d8d1484	0.06888679
3	0x3e2332d2	0.15937355
4	0xbd824969	-0.06361658
5	0xbe8db90d	-0.27680245
6	0x3eba2001	0.36352542
7	0xbceb4aa9	-0.028722124
8	0xbe942a32	-0.28938442
9	0x3ec9f3fd	0.3944396
10	0xbd41f1ec	-0.047349855
11	0x3e926679	0.28593805
12	0xbe1ca9df	-0.15299176
13	0xbe0673df	-0.13130139
14	0xbe24e300	-0.16102219
15	0xbd84045a	-0.064461425
16	0x3cef9ad4	0.029248632
17	0x3e215893	0.15756445
18	0x3eae77d3	0.34075794
19	0xbe7eddd1	-0.24889304
20	0x3e30ecd9	0.1727785
21	0x3e4e0ad5	0.2012132
22	0xbd8f95a8	-0.070109665
23	0xbda821f4	-0.08209601
24	0xbe67564f	-0.22591518
25	0xbe4e7398	-0.20161283
26	0x3e1e080a	0.15432754
27	0x3e9d1d45	0.30686393
28	0x3df6c531	0.1204933
29	0xbe6258c0	-0.22104168
30	0xbeda70f0	-0.4266429
31	0xbeafea84	-0.3435861
32	0x3e917c63	0.28415212
33	0xbe8ab671	-0.27092317
34	0xbe7acc3a	-0.24491969
35	0x3e6a225c	0.2286467
36	0xbcc547b5	-0.024082044
37	0x3e693d28	0.22777236
38	0x3d9b6cc2	0.07589103
39	0xbd880e63	-0.06643369
40	0xbe9272b7	-0.28603145
41	0x3de804d1	0.11329044
42	0xbcb733ee	-0.02236363
43	0x3e7657a4	0.2405687
44	0xbe4e5ff5	-0.20153792
45	0xbebebf26	-0.3725521
46	0x3ddc3e36	0.10754053
47	0xbe62efeb	-0.22161834
48	0xbea1a9db	-0.31574902
49	0x3d131480	0.035908222
50	0x3e65bd2b	0.22435443
51	0x3df3e5fe	0.11909102
52	0xbd9edba2	-0.077567354
53	0xbd698839	-0.057014678
54	0xbe3eaa85	-0.18619736
55	0xbec76798	-0.38946223
56	0x3e210dc7	0.15727912
57	0xbe859aa0	-0.26094532
58	0xbe6362aa	-0.22205606
59	0x3eb40bb9	0.35165194
60	0x3e685e34	0.22692186
61	0x3e47051e	0.19435546
62	0xbea381d4	-0.31934988
63	0xbe763c52	-0.24046448
64	0xbe618ee0	-0.22027159
65	0xbea29708	-0.31755853
66	0xbc5aaf73	-0.013347494
67	0xbdb621b7	-0.08893149
68	0xbebd29c2	-0.3694592
69	0xbe3338e7	-0.17502175
70	0x3e8f30a3	0.27966794
71	0xbec92d5c	-0.3929242
72	0xbeb80bf0	-0.35946608
73	0xbdf06291	-0.1173755
74	0x3e9758c7	0.2955992
75	0x3eac9f61	0.33715346
76	0xbe1ff69a	-0.15621415
77	0xbe1dbc9b	-0.15403979
78	0xbe99a8fd	-0.3001174
79	0x3d8356db	0.06413051
80	0x3ecbcf8f	0.39806792
81	0xbe66a899	-0.22525252
82	0x3dff3017	0.12460344
83	0xbeaa1d3d	-0.33225432
84	0xbd113a85	-0.0354562
85	0x3e376159	0.17908229
86	0x3e953bd5	0.2914721
87	0x3dc17c3e	0.094475254
88	0xbe6a0779	-0.22854413
89	0x3b566649	0.0032714775
90	0x3dbb73bf	0.09152936
91	0x3dc5b61d	0.09653876
92	0xbe663227	-0.22480069
93	0xbe6626b8	-0.22475708
94	0x3e236012	0.15954617
95	0xbd630876	-0.05542799
96	0x3cdd9b1c	0.027051501
97	0xbec32e6e	-0.3812136
98	0xbe848da6	-0.2588932
99	0x3d9f187b	0.07768341
100	0x3e49a459	0.196916
101	0xbdeb4efb	-0.11489674
102	0x3e93fa48	0.28901887
103	0xbed329a6	-0.41242713
104	0x3eb8e3a4	0.36111176
105	0xbe1f9746	-0.1558505
106	0x3ecdea73	0.40217933
107	0x3db04b5e	0.08608125
108	0x3e0cef11	0.13763072
109	0xbea30ab3	-0.318441
110	0x3e03582b	0.12826602
111	0x3e6d1ee2	0.23156312
112	0x3c18e984	0.009333018
113	0xbe92680a	-0.28595
114	0xbeb1c81f	-0.34722993
115	0x3e1eef30	0.1552093
116	0xbdefe163	-0.11712911
117	0xbdec2584	-0.11530593
118	0xbe7a1fa7	-0.24426137
119	0xbe3eb9fe	-0.18625638
120	0x3e9fee40	0.31236458
121	0xbd8bc7e6	-0.06825237
122	0xbd2c3be2	-0.042049296
123	0xbea1074f	-0.3145089
124	0xbeb95247	-0.36195585
125	0xbe368771	-0.17825104
126	0xbe3ab76d	-0.18234034
127	0xbe18dbd8	-0.14927614
128	0xbe00d40c	-0.1258089
129	0x3d8659d8	0.06560105
130	0x3e873f42	0.2641545
131	0xbe6a3401	-0.228714
132	0x3d9e22fd	0.07721517
133	0x3d5fe8e8	0.054665476
134	0x3d1a8ee7	0.03773394
135	0x3e2692ef	0.16266988
136	0xbe6fa5e8	-0.23403132
137	0xbea22c68	-0.31674504
138	0x3d102fcb	0.03520183
139	0xbe103f33	-0.14086609
140	0x3e8bb18c	0.27283895
141	0xbe41fd57	-0.18944298
142	0xbda4f085	-0.08053688
143	0xbee72f2a	-0.4515317
144	0x3c9bccfc	0.019018643
145	0x3daecfb1	0.08535708
146	0x3e2f0093	0.17090063
147	0xbdfc89ee	-0.123309955
148	0xbdefc4d5	-0.117074646
149	0x3ebb5372	0.365871
150	0x3db3ab75	0.08772937
151	0xbe8d4079	-0.2758825
152	0xbd2ea05f	-0.04263341
153	0xbe90040b	-0.28128085
154	0xbe8764a4	-0.2644397
155	0xbd33746d	-0.043812204
156	0x3c9f89ac	0.019474827
157	0x3e0bec28	0.13664305
158	0xbdf5be8f	-0.11999237
159	0x3e5f33a0	0.21797037
160	0x3e769490	0.2408011
161	0x3ca0c04d	0.019622946
162	0x3e7f8d57	0.2495626
163	0xbe647a0c	-0.22312182
164	0xbea41ee3	-0.32054815
165	0x3e826c9d	0.2547349
166	0x3e85933f	0.26088902
167	0xbc2dd66b	-0.010610203
168	0x3e87a63f	0.26494023
169	0xbe7edd40	-0.24889088
170	0x3e5200b1	0.20508076
171	0x3e6d8edd	0.2319903
172	0xbc1a3969	-0.009413102
173	0x3ecb4660	0.3970213
174	0x3d8245f9	0.063610025
175	0x3c067f4f	0.008209064
176	0x3d1a9eed	0.03774922
177	0xbd90a137	-0.07061999
178	0xbe9fec70	-0.31235075
179	0xbe9544c4	-0.29154027
180	0x3ea8ca58	0.32966876
181	0xbe94a6a8	-0.290334
182	0xbea3a06f	-0.3195834
183	0xbe45f13f	-0.1933031
184	0xbe9fb8c0	-0.3119564
185	0xbe5cd81b	-0.21566813
186	0xbdef636b	-0.11688884
187	0x3eac9d79	0.33713892
188	0x3e870252	0.26368958
189	0x3c057a58	0.008146845
190	0x3e14b754	0.14523059
191	0xbd2fdcf3	-0.042935323
192	0x3ebfc659	0.37456015
193	0x3e8b9414	0.27261412
194	0x3e231d87	0.15929233
195	0xbd3f932a	-0.046771206
196	0xbca3bbb3	-0.019986963
197	0xbed0a4b9	-0.40750673
198	0x3d9c7544	0.07639554
199	0xbe3626ec	-0.17788285
200	0x3e6b1780	0.22958183
201	0x3d8ded43	0.0693002
202	0xbe645b71	-0.22300507
203	0x3e0f9af4	0.14023954
204	0x3e9b9f12	0.303948
205	0xbe4de35d	-0.20106263
206	0xbe1af139	-0.15131082
207	0x3e79f53e	0.24409959
208	0xbe7d5564	-0.24739605
209	0xbe0525fa	-0.13002768
210	0x3d8e00b8	0.06933731
211	0x3e182967	0.14859544
212	0xbc2ae34f	-0.010430171
213	0x3eaf96d4	0.3429476
214	0x3e1524e4	0.14564854
215	0x3cc4b77b	0.024013272
216	0xbd4c2329	-0.04983822
217	0xbe7a157c	-0.24422258
218	0xbdff8ae7	-0.124776654
219	0x3e97ba5b	0.29634365
220	0xbe1071c2	-0.14105895
221	0x3e96d3db	0.29458508
222	0x3dd5806b	0.104248844
223	0x3eaca83c	0.33722103
224	0x3df28fda	0.11843844
225	0x3e8bd891	0.27313665
226	0xbd4f4cef	-0.05061048
227	0x3a8f40e0	0.0010929368
228	0x3ebdc7ee	0.37066597
229	0xbe857cac	-0.2607168
230	0x3cb2fa6d	0.021847928
231	0xbd935471	-0.0719384
232	0xbe5c879a	-0.21536103
233	0x3d77382d	0.060356308
234	0xbd153c06	-0.036434196
235	0x3e84b6cd	0.25920716
236	0xbe9c6d38	-0.30552077
237	0xbe971b03	-0.29512796
238	0x3eae3907	0.34027883
239	0xbdee0860	-0.11622691
240	0x3e4b7bf5	0.19871505
241	0xbec2c53c	-0.38041103
242	0xbc4a65f2	-0.012353407
243	0xbdaf1d60	-0.08550525
244	0x3c9649be	0.01834571
245	0xbc9ec6cd	-0.019381905
246	0x3e956199	0.29176024
247	0xbc93cb74	-0.01804135
248	0x3c517f3d	0.012786684
249	0x3e9d5860	0.30731487
250	0xbb6456ef	-0.0034841856
251	0xbe86e360	-0.26345348
252	0xbeac94c2	-0.33707243
253	0xbde1f7e5	-0.1103361
254	0xbe33a0f4	-0.17541867
255	0xbe883c4f	-0.26608512

local_trans_pixel.layers.0.1.fn.fn.net.3.bias f4 [32]
0	0xbe167b44	-0.1469546
1	0xbe840364	-0.25783837
2	0x3df5aba0	0.119956255
3	0xbdbb69a5	-0.091510095
4	0x3e1f13f8	0.15534961
5	0xbebe4455	-0.37161508
6	0x3d492dd7	0.049115982
7	0xbe8bb57a	-0.27286893
8	0x3ea9c1c2	0.33155638
9	0xbd6df2b2	-0.05809278
10	0xbbd53aca	-0.0065072523
11	0xbe1b55a2	-0.15169385
12	0x3e89a0df	0.26880547
13	0x3e2b2320	0.16712618
14	0xbb913ec9	-0.0044325334
15	0x3ebc5dff	0.36790463
16	0x3db97d8c	0.09057149
17	0xbe4fb9e1	-0.20285751
18	0xbe2c90c1	-0.16852094
19	0xbe6d95db	-0.23201697
20	0x3eb98476	0.36233872
21	0xbe9cc93f	-0.3062229
22	0xbe12967c	-0.14315218
23	0x3e831b30	0.2560668
24	0xbe258ee3	-0.16167788
25	0xbe956672	-0.29179722
26	0x3d092a6f	0.033487733
27	0x3d5e4eb7	0.054274287
28	0x3ddbf05e	0.10739206
29	0x3e4ac71c	0.19802517
30	0xbc6c378e	-0.014417542
31	0xbe702ad0	-0.23453832
